agent_checkpoints/checkpoint_actor_19.pth (torch_old, 553585 bytes, 14 tensors)

fc1.weight f4 [400, 33]
-0.035311934 0.034656048 0.0043475176 -0.048938688 0.005485323 -0.024719533 0.031113006 0.015820213
0.012778676 -0.02971424 0.01996375 0.014141063 -0.059820823 -0.010310318 0.06978187 0.037483014
-0.072597764 0.04364358 0.048589274 0.05826806 0.0046684686 0.027309114 0.031196995 0.022924058
-0.036413796 -0.05185276 0.02514217 0.06703634 0.03954088 0.025673937 0.0033094937 -0.048235655
0.005285389 -0.0019790507 -0.014178219 -0.066045515 0.051625796 -0.020680347 -0.0128899785 0.031758286
-0.018909823 -0.044214506 -0.007448772 -0.0374031 0.0018587715 0.0123349205 0.0065919394 -0.018170185
-0.006409666 0.049215022 0.034924783 -0.017860183 0.005774883 0.02044791 -0.057205927 -0.042793144
0.042475194 0.02005645 -0.003051822 -0.029604085 -0.031173924 0.0018651322 0.015687328 -0.011062749
-0.02402748 0.023039846 -0.01416208 -0.043566383 0.0043821763 0.053774744 0.01601615 -0.028154204
0.023101883 -0.015181441 0.013794615 -0.023575427 -0.06892643 0.013229773 -0.02781575 0.022464873
-0.04571451 -0.015736232 -0.028175797 -0.017134635 0.036399525 0.006224594 0.019137166 0.013964258
0.021345176 -0.06469732 0.0071265223 -0.03552949 0.055757154 0.012995253 0.02937172 0.0006052144
0.05417162 -0.038004756 -0.0025288665 -0.035266466 0.0039148475 -0.013109193 0.015780486 -0.022877898
-0.032765135 -0.021245912 -0.023028791 -0.023422264 0.0010117543 -0.038632415 -0.06632227 0.017877553
-0.044998318 0.062985994 -0.031520393 -0.03518587 0.04358092 0.014321061 0.050092757 -0.038929347
0.014577147 -0.0602647 0.021080362 -0.038358085 -0.045060754 0.0036326442 0.08320481 0.059184197
-0.0050755665 -0.040632665 0.033042226 -0.05646206 -0.024429832 0.013827099 0.049327087 0.04331091
-0.01354158 -0.05585197 -0.0518591 0.04601435 -0.032234166 0.049343977 -0.04364526 -0.031055836
-0.027099026 -0.05177699 -0.05437102 0.011020589 0.05775817 -0.012409097 0.039413642 -0.052794196
0.0019322077 -0.0148830395 0.05360912 -0.039665457 -0.01018335 -0.03330859 0.031099446 -0.054528903
0.039452814 0.024602178 0.051133033 -0.036181174 -0.061561514 -0.015847301 0.031197783 0.004196754
-0.030622317 0.03838896 -0.054462776 -0.036296792 0.017724125 0.016389435 0.017850153 -0.047624297
0.014602668 0.06534206 -0.06381107 -0.006182769 0.05719006 -0.04983651 0.021266228 -0.046773385
-0.013757769 0.020947017 -0.02248081 -0.053945556 -0.028300457 0.01115332 0.019292325 -0.0076519563
0.024236541 -0.023454139 0.04232521 0.037437312 0.04465555 0.024454812 -0.029899161 0.036335453
0.07209322 0.026619133 0.041882537 0.0022433551 0.014417926 0.033046585 0.049370397 -0.0163262
-0.012875941 -0.07849217 -0.031405672 0.011498383 0.0101534715 0.050765075 0.03996813 -0.057247847
-0.019621316 -0.05393122 0.051937245 -0.024506101 0.04442776 0.0056619872 -0.06637293 0.005324029
0.013037209 -0.047519315 0.0031693284 -0.020515507 0.020063834 0.046323333 0.05662659 0.011342697
-0.07958243 -0.060495123 0.0050705997 -0.041226152 -0.023326749 0.033055935 -0.034142934 -0.019599643
0.003289514 0.024716796 0.020215953 0.023739297 0.056394625 -0.049189754 -0.064555965 0.02111911
0.043501556 0.028111944 -0.010111748 -0.0013062645 -0.05924709 0.013743226 -0.019360008 -0.014443809
00000000: 3fa3 10bd 80f3 0d3d 9f75 8e3b ef73 48bd
00000010: 39be b33b 9e80 cabc b4e0 fe3c 6499 813c
00000020: a75d 513c 476b f3bc 058b a33c ebaf 673c
00000030: ae06 75bd 9cec 28bc cce9 8e3d ca87 193d
00000040: 23ae 94bd 9cc3 323d 8c05 473d 7daa 6e3d
00000050: f4f9 983b 5db7 df3c d790 ff3c 3ccb bb3c
00000060: a226 15bd 8f63 54bd f4f6 cd3c 594a 893d
00000070: 9ef5 213d 2652 d23c 17e4 583b c092 45bd
00000080: 0e31 ad3b f6b2 01bb c34b 68bc df42 87bd
00000090: 9275 533d d569 a9bc 7d30 53bc fa14 023d
000000a0: c6e8 9abc 451a 35bd d414 f4bb fe33 19bd
000000b0: 06a2 f33a 6818 4a3c 3201 d83b a4d9 94bc
000000c0: 2d08 d2bb b195 493d 4a0d 0f3d 854f 92bc
000000d0: 3b3b bd3b 6082 a73c c350 6abd dd47 2fbd
000000e0: 78fa 2d3d 6d4d a43c 1401 48bb 4484 f2bc
000000f0: 7560 ffbc 7477 f43a b682 803c 8840 35bc
00000100: 47d5 c4bc 0fbe bc3c 1208 68bc aa72 32bd
00000110: 5c98 8f3b e842 5c3d 4d34 833c a5a3 e6bc
00000120: 2940 bd3c 94bb 78bc cf02 623c 4121 c1bc
00000130: 4d29 8dbd b1c1 583c dbdd e3bc 4108 b83c
00000140: 233f 3bbd 45e9 80bc eed0 e6bc ef5d 8cbc
00000150: ab17 153d aef7 cb3b 8cc5 9c3c 58ca 643c
00000160: 14dc ae3c 0780 84bd 9a85 e93b 5f87 11bd
00000170: 9d61 643d 0bea 543c f69c f03c 40a7 1e3a
00000180: 10e3 5d3d e0aa 1bbd 57bb 25bb 9273 10bd
00000190: 1f48 803b f1c7 56bc 1446 813c 6e6a bbbc
000001a0: bc34 06bd e80b aebc e0a6 bcbc 0ce0 bfbc
000001b0: d79c 843a 063d 1ebd f8d3 87bd f273 923c
000001c0: 2850 38bd cdfe 803d 871b 01bd 0f1f 10bd
000001d0: e881 323d e2a2 6a3c 102e 4d3d 6174 1fbd
000001e0: fcd4 6e3c 1ed8 76bd b9b0 ac3c 5e1d 1dbd
000001f0: a091 38bd a811 6e3b 4967 aa3d 216b 723d
00000200: f050 a6bb 706e 26bd 4957 073d c344 67bd
00000210: 1221 c8bc 0f8b 623c 330b 4a3d c866 313d
00000220: 81dd 5dbc 09c5 64bd 356a 54bd 8b79 3c3d
00000230: f907 04bd e91c 4a3d 5fc5 32bd cf68 febc
00000240: c7fe ddbc 1c14 54bd 26b4 5ebd b38f 343c
00000250: d593 6c3d 864f 4bbc 3370 213d ba3e 58bd
00000260: 2242 fd3a fed7 73bc 3d95 5b3d 3f78 22bd
00000270: 11d8 26bc 976e 08bd 44c4 fe3c b359 5fbd
00000280: 4699 213d 828a c93c df70 513d b632 14bd
00000290: ed27 7cbd 33d2 81bc 7e92 ff3c ed84 893b
000002a0: a7db fabc be3d 1d3d 5c14 5fbd f2ab 14bd
000002b0: 2f32 913c 2343 863c 7c3a 923c b211 43bd
000002c0: 0740 6f3c 0fd2 853d 61af 82bd d398 cabb
000002d0: 2040 6a3d 5e21 4cbd 8336 ae3c 7395 3fbd
000002e0: 4468 61bc 1499 ab3c ad29 b8bc 04f6 5cbd
000002f0: 5cd6 e7bc 6abc 363c f00a 9e3c 43bd fabb
00000300: b68b c63c e522 c0bc 335d 2d3d de57 193d
00000310: bde8 363d 7555 c83c 16ef f4bc 7cd4 143d
00000320: 9ca5 933d 5e10 da3c 068d 2b3d 4105 133b
00000330: 2a39 6c3c db5b 073d 9d38 4a3d 86be 85bc
00000340: 9cf5 52bc 81c0 a0bd 3ca3 00bd b763 3c3c
00000350: bf5a 263c 0aef 4f3d 9fb5 233d b87c 6abd
00000360: e2bc a0bc fce6 5cbd 26bc 543d 05c1 c8bc
00000370: e2f9 353d 3188 b93b 88ee 87bd 3175 ae3b
00000380: 059a 553c 9da3 42bd 82b4 4f3b 2310 a8bc
00000390: e95c a43c 89bd 3d3d 49f1 673d b8d6 393c
000003a0: 1dfc a2bd bcc9 77bd 4627 a63b c1dc 28bd
000003b0: bd17 bfbc a965 073d 76d9 0bbd 6e8f a0bc
000003c0: e394 573b e17a ca3c ed9b a53c ea78 c23c
000003d0: 0dfe 663d 327b 49bd eb35 84bd fc01 ad3c
000003e0: b02e 323d 054b e63c bfab 25bc f736 abba
000003f0: 14ad 72bd 452b 613c e198 9ebc baa5 6cbc

fc1.bias f4 [400]
-0.15476403 -0.01097372 -0.04481038 -0.0836585 0.12703115 -0.011718067 -0.010888962 0.17290115
0.10518396 0.17106031 -0.07493914 0.20441316 -0.06415714 0.16848353 -0.1308332 0.16526178
-0.10145205 -0.081783965 0.03299969 -0.09672024 0.08379493 -0.117174365 0.05788853 0.10056825
-0.15689659 0.17836836 -0.06872616 0.19872232 0.08025208 -0.056109373 -0.07001767 -0.047029354
-0.0034615423 0.209857 -0.13760574 -0.0076755504 0.005987907 0.12436366 0.11961617 -0.12880829
-0.12369829 0.1429157 0.02612955 0.15319367 0.10395891 -0.034420367 -0.025694516 -0.042807575
-0.016705431 -0.17326657 -0.012708273 0.03520824 0.03603587 0.1518557 0.061857905 0.15870325
0.16029717 0.058617413 0.14403096 0.14084455 0.09567461 0.12826169 -0.018270954 0.12672606
0.012248979 -0.07848559 -0.104863696 0.1395341 0.11801133 -0.14565246 -0.011791081 0.17796011
0.19700581 0.10525579 -0.12500101 -0.024271619 0.013984834 0.054443207 0.030808637 0.15631458
0.041045394 0.043305434 0.04938958 0.09559786 -0.07623518 -0.11683789 0.0014353056 0.11684497
-0.12958144 -0.17716187 -0.0873418 0.20804535 0.12177921 -0.11520423 -0.13118765 -0.20130733
0.19321668 -0.025728598 -0.066805296 0.12133083 0.09158135 0.1575584 0.14073506 0.06835959
0.111311354 -0.05322617 0.11481001 0.052291535 -0.089061975 0.17661415 -0.15948609 0.14114863
0.20636821 -0.069445014 0.16672848 -0.1421954 0.17451978 -0.1514093 -0.019063305 -0.040039133
0.14002718 -0.106533304 0.026395889 -0.048610255 0.071796484 0.07232453 0.043825336 -0.13846956
-0.02372939 -0.109163344 -0.1847568 -0.012541673 0.13659842 0.18856308 -0.14814092 0.19541644
-0.117073424 -0.054217882 0.0015394463 0.019504843 -0.117143825 -0.12933305 0.13856411 0.0067901313
0.119771264 0.04410967 -0.13295317 -0.13595453 0.16268478 -0.064438194 0.18861277 0.0501607
0.20329994 0.038002543 -0.17336717 0.022009162 0.09525569 -0.13291593 -0.19081597 -0.12636514
0.07935069 -0.062050544 0.12905195 0.013547659 0.13692066 -0.001947255 0.10035948 -0.1971491
-0.09193372 0.0773307 0.03456349 -0.14825039 -0.07096764 -0.107267685 -0.0035813712 0.002484676
0.13860443 0.022117527 0.0009993162 0.17403275 0.17447014 0.18889466 -0.03536858 -0.14528574
0.013020912 0.11899478 -0.022755772 -0.046665847 -0.037717123 0.19066624 0.19285105 0.097266294
-0.13156839 -0.011863722 -0.06191355 -0.0009472959 0.03726782 0.015195386 0.00088015356 0.02320747
-0.020254822 0.15089275 0.07224676 0.060834985 0.15612045 0.1662895 -0.018556422 0.075180314
-0.07772845 -0.048205588 0.12794143 -0.022376968 0.07267258 -0.051562965 -0.12253527 -0.15478244
0.09991672 0.09665837 0.09428083 0.058225553 -0.03904199 -0.052189603 0.20710368 -0.045165513
0.07364806 0.005724006 0.17276156 -0.08913323 0.19732529 0.15316083 -0.12552434 0.14790462
-0.074292935 0.10073828 -0.1988298 -0.00681729 -0.17460562 -0.11013849 -0.1418635 0.02384271
0.15178719 0.21003059 -0.1818185 -0.020060709 -0.09761746 0.19894278 -0.17215383 -0.15665792
-0.09090891 -0.0730317 0.023057733 -0.08418117 0.15186323 -0.16631508 0.15568978 0.08342173
00000000: 767a 1ebe 1ecb 33bc 178b 37bd 2655 abbd
00000010: 7414 023e 23fd 3fbc 9e67 32bc 000d 313e
00000020: b06a d73d 6f2a 2f3e b179 99bd af51 513e
00000030: d264 83bd f286 2c3e 23f9 05be 623a 293e
00000040: 18c6 cfbd 5a7e a7bd af2a 073d 4315 c6bd
00000050: ad9c ab3d 1df9 efbd 861c 6d3d baf6 cd3d
00000060: 80a9 20be 32a6 363e 4dc0 8cbd dd7d 4b3e
00000070: 345b a43d f1d2 65bd 6d65 8fbd daa1 40bd
00000080: 0bdb 62bb c1e4 563e 85e8 0cbe 2f83 fbbb
00000090: 3436 c43b 60b2 fe3d 53f9 f43d 52e6 03be
000000a0: 8755 fdbd 7e58 123e a30d d63c cdde 1c3e
000000b0: 69e8 d43d 5ffc 0cbd 4e7d d2bc ff56 2fbd
000000c0: d4d9 88bc cb6c 31be 5c36 50bc 8436 103d
000000d0: 599a 133d 1080 1b3e b75e 7d3d 1b83 223e
000000e0: f124 243e d018 703d da7c 133e 8e39 103e
000000f0: 0df1 c33d 0857 033e f8ac 95bc 7ac4 013e
00000100: f1af 483c 0ebd a0bd c7c2 d6bd 07e2 0e3e
00000110: edaf f13d eb25 15be 612f 41bc 2d3b 363e
00000120: e4bb 493e 5990 d73d 4400 00be 46d5 c6bc
00000130: a520 653c d7ff 5e3d 6562 fc3c ee10 203e
00000140: 371f 283d 0a61 313d ba4c 4a3d d0c8 c33d
00000150: 3121 9cbd b448 efbd dd20 bc3a 6a4c ef3d
00000160: ffb0 04be ec69 35be 42e0 b2bd d709 553e
00000170: 6167 f93d 32f0 ebbd 0e56 06be 8223 4ebe
00000180: 98da 453e c8c4 d2bc 37d1 88bd 4c7c f83d
00000190: 018f bb3d fd56 213e da1c 103e 1d00 8c3d
000001a0: 35f7 e33d af03 5abd 8321 eb3d a62f 563d
000001b0: 2066 b6bd 57da 343e 5250 23be 4489 103e
000001c0: 3052 533e 3039 8ebd dfba 2a3e ac9b 11be
000001d0: 50b5 323e 0a0b 1bbe a62a 9cbc 1300 24bd
000001e0: 4963 0f3e 222e dabd 313c d83c 8c1b 47bd
000001f0: 090a 933d e21e 943d 3282 333d f7ca 0dbe
00000200: 2364 c2bc 0891 dfbd e330 3dbe 977b 4dbc
00000210: 75e0 0b3e ae16 413e 41b2 17be 3f1b 483e
00000220: 31c4 efbd 9213 5ebd 3fc7 c93a 9fc8 9f3c
00000230: 1ae9 efbd e26f 04be c0e3 0d3e c07f de3b
00000240: a34a f53d 57ac 343d e024 08be aa37 0bbe
00000250: d796 263e 2cf8 83bd b523 413e 4e75 4d3d
00000260: dc2d 503e 8ea8 1b3d 2a87 31be 8f4c b43c
00000270: 6a15 c33d 1d1b 08be 4365 43be dd65 01be
00000280: 9d82 a23d b628 7ebd 3226 043e 00f7 5d3c
00000290: ee34 0c3e 093b ffba 4589 cd3d 74e1 49be
000002a0: bf47 bcbd 8f5f 9e3d 7292 0d3d f3ce 17be
000002b0: 7b57 91bd 29af dbbd 70b5 6abb f2d5 223b
000002c0: 52ee 0d3e d12f b53c 7dfb 823a a435 323e
000002d0: 4da8 323e 9a6d 413e a5de 10bd c9c5 14be
000002e0: aa55 553c 89b3 f33d 506a babc b024 3fbd
000002f0: 457d 1abd 033e 433e bf7a 453e 8d33 c73d
00000300: ddb9 06be 0e60 42bc 1099 7dbd f453 78ba
00000310: 24a6 183d 11f6 783c 1bba 663a 981d be3c
00000320: 71ed a5bc a183 1a3e 1cf6 933d 1b2e 793d
00000330: 0ade 1f3e cb47 2a3e a303 98bc 23f8 993d
00000340: 1830 9fbd 3973 45bd 1403 033e e74f b7bc
00000350: 5dd5 943d b033 53bd c6f3 fabd 4a7f 1ebe
00000360: 23a1 cc3d d3f4 c53d 4f16 c13d eb7d 6e3d
00000370: 7eea 1fbd c4c4 55bd fd12 543e 79ff 38bd
00000380: cbd4 963d 7190 bb3b 68e8 303e 7c8b b6bd
00000390: a40f 4a3e 31d6 1c3e 7489 00be 4f74 173e
000003a0: e526 98bd df4f ce3d 0a9a 4bbe 9363 dfbb
000003b0: d1cb 32be 4a90 e1bd aa44 11be c951 c33c
000003c0: 1a6e 1b3e 4212 573e a12e 3abe 5b56 a4bc
000003d0: aaeb c7bd a8b7 4b3e 1849 30be ef6a 20be
000003e0: 732e babd a591 95bd 92e3 bc3c 2d67 acbd
000003f0: 0982 1b3e 804e 2abe 246d 1f3e 03d9 aa3d

fc1_bn.weight f4 [400]
0.45879817 0.7981027 0.88581896 0.32340616 0.008041441 0.50839573 0.8048475 0.45887148
0.9178901 0.51519275 0.40594655 0.8785687 0.17628014 0.13193744 0.6989617 0.51671445
0.7448265 0.12471241 0.28533852 0.21002263 0.54416686 0.39478916 0.4397437 0.096292734
0.74175674 0.8470826 0.8670751 0.7482208 0.768723 0.7998134 0.74482137 0.20190531
0.7676062 0.085846305 0.4353078 0.8125833 0.09431702 0.11831802 0.39818788 0.30571604
0.17596686 0.27302384 0.35005188 0.8908888 0.9247482 0.99032885 0.7923647 0.11200976
0.6991759 0.46502167 0.59526706 0.37189627 0.15990287 0.7098815 0.028724372 0.6639197
0.3618108 0.2682466 0.70567125 0.1998533 0.4997583 0.6756173 0.69708747 0.40326464
0.5042179 0.09506291 0.08355123 0.64491 0.90943927 0.7712214 0.49032128 0.8012243
0.015554845 0.35468823 0.723731 0.6703861 0.20648777 0.69432294 0.41065657 0.350385
0.27090812 0.753079 0.5461759 0.59351176 0.639123 0.06526941 0.47297704 0.3856681
0.11220789 0.96207035 0.35235417 0.39449537 0.6037336 0.31857574 0.96712387 0.49534595
0.6003269 0.48219305 0.15160811 0.6933047 0.4997362 0.66282874 0.38796365 0.06954676
0.33433974 0.63829696 0.66408855 0.81428695 0.7421231 0.9331476 0.4065888 0.29676467
0.07701218 0.7316264 0.83645195 0.9552129 0.00053811073 0.18495971 0.8042538 0.80041796
0.870963 0.9254049 0.8441041 0.59920615 0.99800646 0.18724483 0.48147488 0.79663825
0.7664084 0.37407124 0.5338321 0.19655484 0.4503432 0.4937933 0.871703 0.8723451
0.34481263 0.55637044 0.7597704 0.25567234 0.023124933 0.7485406 0.6077848 0.6566965
0.21310943 0.011611581 0.07676399 0.4738953 0.3746609 0.2925738 0.9355976 0.93780386
0.9670385 0.31819063 0.13426703 0.50636375 0.2631976 0.7342932 0.17089146 0.6034594
0.42353976 0.5209182 0.8682364 0.7692163 0.9914595 0.29168004 0.12437093 0.1099295
0.055327594 0.101035655 0.5263776 0.055544496 0.05980438 0.23282546 0.21817261 0.120422065
0.023476243 0.7329171 0.96894073 0.94758785 0.65111065 0.5136757 0.7766695 0.32171774
0.3307436 0.027637243 0.7599021 0.26045853 0.25313574 0.53094596 0.34509462 0.24344087
0.3373099 0.6856498 0.5575679 0.70693153 0.9164461 0.97900414 0.9945303 0.1595679
0.29295212 0.2858662 0.53964245 0.99675107 0.98332065 0.8554419 0.044684947 0.4419719
0.89637905 0.99358404 0.75552344 0.023765862 0.48922586 0.840474 0.87821615 0.38540375
0.9866117 0.26163685 0.58398247 0.74407744 0.30763167 0.18728924 0.6050051 0.7608901
0.56155515 0.9183534 0.25646746 0.09328467 0.4488386 0.93328476 0.42157102 0.67390287
0.85899764 0.8867424 0.5083309 0.37666678 0.46672964 0.61523986 0.5304095 0.11320794
0.057018697 0.5988011 0.91753703 0.15881777 0.1493159 0.23751032 0.9842414 0.9425563
0.5338209 0.44218868 0.16585755 0.40480655 0.82874316 0.9381511 0.69489384 0.9193844
00000000: 98e7 ea3e 7550 4c3f 08c5 623f 7e95 a53e
00000010: 40c0 033c 3926 023f 7c0a 4e3f 34f1 ea3e
00000020: d8fa 6a3f ace3 033f 3ad8 cf3e e1e9 603f
00000030: c882 343e 9c1a 073e 27ef 323f 6647 043f
00000040: f3ac 3e3f 3869 ff3d e417 923e 2c10 573e
00000050: 854e 0b3f ce21 ca3e 1626 e13e 2035 c53d
00000060: c5e3 3d3f 68da 583f a2f8 5d3f 668b 3f3f
00000070: 08cb 443f 92c0 4c3f 9dac 3e3f 44c0 4e3e
00000080: d781 443f 30d0 af3d aae0 de3e 7605 503f
00000090: 4829 c13d b850 f23d 48df cb3e d086 9c3e
000000a0: a830 343e c8c9 8b3e 003a b33e 4a11 643f
000000b0: 4cbc 6c3f 3186 7d3f 6ad8 4a3f 6065 e53d
000000c0: 31fd 323f 5217 ee3e 6c63 183f 3069 be3e
000000d0: 94bd 233e cbba 353f 604f eb3c a4f6 293f
000000e0: 443f b93e 9e57 893e dfa6 343f 58a6 4c3e
000000f0: 52e0 ff3e 41f5 2c3f 5374 323f b478 ce3e
00000100: 6d14 013f 58b0 c23d e81c ab3d d218 253f
00000110: 03d1 683f c46e 453f 640b fb3e 091d 4d3f
00000120: c0d9 7e3c b299 b53e 6f46 393f 6c9e 2b3f
00000130: 8871 533e 26bf 313f 9441 d23e aa65 b33e
00000140: 78b4 8a3e c9c9 403f 2fd2 0b3f 63f0 173f
00000150: 919d 233f f8ab 853d 0c2a f23e 4a76 c53e
00000160: 40cd e53d 3e4a 763f c467 b43e 4cfb c93e
00000170: 498e 1a3f 5c1c a33e 6e95 773f fc9d fd3e
00000180: 06af 193f 02e2 f63e 283f 1b3e 6b7c 313f
00000190: 6cdd ff3e 25af 293f 2ca3 c63e 886e 8e3d
000001a0: 942e ab3e 6e67 233f b501 2a3f 1c75 503f
000001b0: c8fb 3d3f c3e2 6e3f 682c d03e 8af1 973e
000001c0: 90b8 9d3d de4b 3b3f b721 563f d588 743f
000001d0: 0010 0d3a 1466 3d3e 94e3 4d3f 31e8 4c3f
000001e0: 6ef7 5e3f 56e7 6c3f 3517 583f 9365 193f
000001f0: 5a7d 7f3f 1cbd 3f3e e083 f63e 7cf0 4b3f
00000200: 5733 443f 4486 bf3e 38a9 083f ac45 493e
00000210: 6293 e63e 7ad2 fc3e ee27 5f3f 0252 5f3f
00000220: 488b b03e 4b6e 0e3f 5080 423f 7ce7 823e
00000230: 8070 bd3c 5ba0 3f3f c997 1b3f 431d 283f
00000240: 5c39 5a3e 803e 3e3c 7036 9d3d 68a2 f23e
00000250: 8ed3 bf3e 3ccc 953e 5383 6f3f ea13 703f
00000260: d68f 773f e2e9 a23e 4c7d 093e 0ea1 013f
00000270: d6c1 863e a4fa 3b3f 2cfe 2e3e 517c 1a3f
00000280: 34da d83e e55a 053f be44 5e3f 5ceb 443f
00000290: 4ad0 7d3f 1657 953e 30b6 fe3d b822 e13d
000002a0: 309f 623d c8eb ce3d afc0 063f a082 633d
000002b0: 70f5 743d cc69 6e3e a468 5f3e d89f f63d
000002c0: 4051 c03c 74a0 3b3f 800c 783f 1e95 723f
000002d0: 30af 263f 4080 033f d0d3 463f 30b8 a43e
000002e0: 3a57 a93e 8067 e23c f288 423f d25a 853e
000002f0: 029b 813e 13ec 073f 3eb0 b03e 9048 793e
00000300: e2b3 ac3e bf86 2f3f c5bc 0e3f 77f9 343f
00000310: 369c 6a3f 04a0 7a3f 8a99 7e3f c465 233e
00000320: d2fd 953e 0e5d 923e 0226 0a3f 142b 7f3f
00000330: e7ba 7b3f 3efe 5a3f 9007 373d 244a e23e
00000340: 1979 653f 865b 7e3f fc69 413f a0b0 c23c
00000350: d07b fa3e 4e29 573f c6d2 603f a453 c53e
00000360: 9692 7c3f 44f5 853e e07f 153f dc7b 3e3f
00000370: e681 9d3e c0c8 3f3e 9de1 1a3f b2c9 423f
00000380: 14c2 0f3f 3519 6b3f b44f 833e 080c bf3d
00000390: 2cce e53e c0eb 6e3f 28d8 d73e e684 2c3f
000003a0: 45e7 5b3f 8d01 633f f921 023f 78da c03e
000003b0: 30f7 ee3e 5c80 1d3f ebc8 073f 90d9 e73d
000003c0: 708c 693d 074b 193f b5e3 6a3f 20a1 223e
000003d0: 44e6 183e e835 733e 3ff7 7b3f 5f4b 713f
000003e0: 7da8 083f 8e66 e23e 90d6 293e ce42 cf3e
000003f0: 8328 543f ac2a 703f 90e4 313f c75c 6b3f

fc1_bn.bias f4 [400]
0.0 0.0 0.0 0.0 0.0 0.0 0.0 0.0
0.0 0.0 0.0 0.0 0.0 0.0 0.0 0.0
0.0 0.0 0.0 0.0 0.0 0.0 0.0 0.0
0.0 0.0 0.0 0.0 0.0 0.0 0.0 0.0
0.0 0.0 0.0 0.0 0.0 0.0 0.0 0.0
0.0 0.0 0.0 0.0 0.0 0.0 0.0 0.0
0.0 0.0 0.0 0.0 0.0 0.0 0.0 0.0
0.0 0.0 0.0 0.0 0.0 0.0 0.0 0.0
0.0 0.0 0.0 0.0 0.0 0.0 0.0 0.0
0.0 0.0 0.0 0.0 0.0 0.0 0.0 0.0
0.0 0.0 0.0 0.0 0.0 0.0 0.0 0.0
0.0 0.0 0.0 0.0 0.0 0.0 0.0 0.0
0.0 0.0 0.0 0.0 0.0 0.0 0.0 0.0
0.0 0.0 0.0 0.0 0.0 0.0 0.0 0.0
0.0 0.0 0.0 0.0 0.0 0.0 0.0 0.0
0.0 0.0 0.0 0.0 0.0 0.0 0.0 0.0
0.0 0.0 0.0 0.0 0.0 0.0 0.0 0.0
0.0 0.0 0.0 0.0 0.0 0.0 0.0 0.0
0.0 0.0 0.0 0.0 0.0 0.0 0.0 0.0
0.0 0.0 0.0 0.0 0.0 0.0 0.0 0.0
0.0 0.0 0.0 0.0 0.0 0.0 0.0 0.0
0.0 0.0 0.0 0.0 0.0 0.0 0.0 0.0
0.0 0.0 0.0 0.0 0.0 0.0 0.0 0.0
0.0 0.0 0.0 0.0 0.0 0.0 0.0 0.0
0.0 0.0 0.0 0.0 0.0 0.0 0.0 0.0
0.0 0.0 0.0 0.0 0.0 0.0 0.0 0.0
0.0 0.0 0.0 0.0 0.0 0.0 0.0 0.0
0.0 0.0 0.0 0.0 0.0 0.0 0.0 0.0
0.0 0.0 0.0 0.0 0.0 0.0 0.0 0.0
0.0 0.0 0.0 0.0 0.0 0.0 0.0 0.0
0.0 0.0 0.0 0.0 0.0 0.0 0.0 0.0
0.0 0.0 0.0 0.0 0.0 0.0 0.0 0.0
00000000: 0000 0000 0000 0000 0000 0000 0000 0000
00000010: 0000 0000 0000 0000 0000 0000 0000 0000
00000020: 0000 0000 0000 0000 0000 0000 0000 0000
00000030: 0000 0000 0000 0000 0000 0000 0000 0000
00000040: 0000 0000 0000 0000 0000 0000 0000 0000
00000050: 0000 0000 0000 0000 0000 0000 0000 0000
00000060: 0000 0000 0000 0000 0000 0000 0000 0000
00000070: 0000 0000 0000 0000 0000 0000 0000 0000
00000080: 0000 0000 0000 0000 0000 0000 0000 0000
00000090: 0000 0000 0000 0000 0000 0000 0000 0000
000000a0: 0000 0000 0000 0000 0000 0000 0000 0000
000000b0: 0000 0000 0000 0000 0000 0000 0000 0000
000000c0: 0000 0000 0000 0000 0000 0000 0000 0000
000000d0: 0000 0000 0000 0000 0000 0000 0000 0000
000000e0: 0000 0000 0000 0000 0000 0000 0000 0000
000000f0: 0000 0000 0000 0000 0000 0000 0000 0000
00000100: 0000 0000 0000 0000 0000 0000 0000 0000
00000110: 0000 0000 0000 0000 0000 0000 0000 0000
00000120: 0000 0000 0000 0000 0000 0000 0000 0000
00000130: 0000 0000 0000 0000 0000 0000 0000 0000
00000140: 0000 0000 0000 0000 0000 0000 0000 0000
00000150: 0000 0000 0000 0000 0000 0000 0000 0000
00000160: 0000 0000 0000 0000 0000 0000 0000 0000
00000170: 0000 0000 0000 0000 0000 0000 0000 0000
00000180: 0000 0000 0000 0000 0000 0000 0000 0000
00000190: 0000 0000 0000 0000 0000 0000 0000 0000
000001a0: 0000 0000 0000 0000 0000 0000 0000 0000
000001b0: 0000 0000 0000 0000 0000 0000 0000 0000
000001c0: 0000 0000 0000 0000 0000 0000 0000 0000
000001d0: 0000 0000 0000 0000 0000 0000 0000 0000
000001e0: 0000 0000 0000 0000 0000 0000 0000 0000
000001f0: 0000 0000 0000 0000 0000 0000 0000 0000
00000200: 0000 0000 0000 0000 0000 0000 0000 0000
00000210: 0000 0000 0000 0000 0000 0000 0000 0000
00000220: 0000 0000 0000 0000 0000 0000 0000 0000
00000230: 0000 0000 0000 0000 0000 0000 0000 0000
00000240: 0000 0000 0000 0000 0000 0000 0000 0000
00000250: 0000 0000 0000 0000 0000 0000 0000 0000
00000260: 0000 0000 0000 0000 0000 0000 0000 0000
00000270: 0000 0000 0000 0000 0000 0000 0000 0000
00000280: 0000 0000 0000 0000 0000 0000 0000 0000
00000290: 0000 0000 0000 0000 0000 0000 0000 0000
000002a0: 0000 0000 0000 0000 0000 0000 0000 0000
000002b0: 0000 0000 0000 0000 0000 0000 0000 0000
000002c0: 0000 0000 0000 0000 0000 0000 0000 0000
000002d0: 0000 0000 0000 0000 0000 0000 0000 0000
000002e0: 0000 0000 0000 0000 0000 0000 0000 0000
000002f0: 0000 0000 0000 0000 0000 0000 0000 0000
00000300: 0000 0000 0000 0000 0000 0000 0000 0000
00000310: 0000 0000 0000 0000 0000 0000 0000 0000
00000320: 0000 0000 0000 0000 0000 0000 0000 0000
00000330: 0000 0000 0000 0000 0000 0000 0000 0000
00000340: 0000 0000 0000 0000 0000 0000 0000 0000
00000350: 0000 0000 0000 0000 0000 0000 0000 0000
00000360: 0000 0000 0000 0000 0000 0000 0000 0000
00000370: 0000 0000 0000 0000 0000 0000 0000 0000
00000380: 0000 0000 0000 0000 0000 0000 0000 0000
00000390: 0000 0000 0000 0000 0000 0000 0000 0000
000003a0: 0000 0000 0000 0000 0000 0000 0000 0000
000003b0: 0000 0000 0000 0000 0000 0000 0000 0000
000003c0: 0000 0000 0000 0000 0000 0000 0000 0000
000003d0: 0000 0000 0000 0000 0000 0000 0000 0000
000003e0: 0000 0000 0000 0000 0000 0000 0000 0000
000003f0: 0000 0000 0000 0000 0000 0000 0000 0000

fc1_bn.running_mean f4 [400]
0.0 0.0 0.0 0.0 0.0 0.0 0.0 0.0
0.0 0.0 0.0 0.0 0.0 0.0 0.0 0.0
0.0 0.0 0.0 0.0 0.0 0.0 0.0 0.0
0.0 0.0 0.0 0.0 0.0 0.0 0.0 0.0
0.0 0.0 0.0 0.0 0.0 0.0 0.0 0.0
0.0 0.0 0.0 0.0 0.0 0.0 0.0 0.0
0.0 0.0 0.0 0.0 0.0 0.0 0.0 0.0
0.0 0.0 0.0 0.0 0.0 0.0 0.0 0.0
0.0 0.0 0.0 0.0 0.0 0.0 0.0 0.0
0.0 0.0 0.0 0.0 0.0 0.0 0.0 0.0
0.0 0.0 0.0 0.0 0.0 0.0 0.0 0.0
0.0 0.0 0.0 0.0 0.0 0.0 0.0 0.0
0.0 0.0 0.0 0.0 0.0 0.0 0.0 0.0
0.0 0.0 0.0 0.0 0.0 0.0 0.0 0.0
0.0 0.0 0.0 0.0 0.0 0.0 0.0 0.0
0.0 0.0 0.0 0.0 0.0 0.0 0.0 0.0
0.0 0.0 0.0 0.0 0.0 0.0 0.0 0.0
0.0 0.0 0.0 0.0 0.0 0.0 0.0 0.0
0.0 0.0 0.0 0.0 0.0 0.0 0.0 0.0
0.0 0.0 0.0 0.0 0.0 0.0 0.0 0.0
0.0 0.0 0.0 0.0 0.0 0.0 0.0 0.0
0.0 0.0 0.0 0.0 0.0 0.0 0.0 0.0
0.0 0.0 0.0 0.0 0.0 0.0 0.0 0.0
0.0 0.0 0.0 0.0 0.0 0.0 0.0 0.0
0.0 0.0 0.0 0.0 0.0 0.0 0.0 0.0
0.0 0.0 0.0 0.0 0.0 0.0 0.0 0.0
0.0 0.0 0.0 0.0 0.0 0.0 0.0 0.0
0.0 0.0 0.0 0.0 0.0 0.0 0.0 0.0
0.0 0.0 0.0 0.0 0.0 0.0 0.0 0.0
0.0 0.0 0.0 0.0 0.0 0.0 0.0 0.0
0.0 0.0 0.0 0.0 0.0 0.0 0.0 0.0
0.0 0.0 0.0 0.0 0.0 0.0 0.0 0.0
00000000: 0000 0000 0000 0000 0000 0000 0000 0000
00000010: 0000 0000 0000 0000 0000 0000 0000 0000
00000020: 0000 0000 0000 0000 0000 0000 0000 0000
00000030: 0000 0000 0000 0000 0000 0000 0000 0000
00000040: 0000 0000 0000 0000 0000 0000 0000 0000
00000050: 0000 0000 0000 0000 0000 0000 0000 0000
00000060: 0000 0000 0000 0000 0000 0000 0000 0000
00000070: 0000 0000 0000 0000 0000 0000 0000 0000
00000080: 0000 0000 0000 0000 0000 0000 0000 0000
00000090: 0000 0000 0000 0000 0000 0000 0000 0000
000000a0: 0000 0000 0000 0000 0000 0000 0000 0000
000000b0: 0000 0000 0000 0000 0000 0000 0000 0000
000000c0: 0000 0000 0000 0000 0000 0000 0000 0000
000000d0: 0000 0000 0000 0000 0000 0000 0000 0000
000000e0: 0000 0000 0000 0000 0000 0000 0000 0000
000000f0: 0000 0000 0000 0000 0000 0000 0000 0000
00000100: 0000 0000 0000 0000 0000 0000 0000 0000
00000110: 0000 0000 0000 0000 0000 0000 0000 0000
00000120: 0000 0000 0000 0000 0000 0000 0000 0000
00000130: 0000 0000 0000 0000 0000 0000 0000 0000
00000140: 0000 0000 0000 0000 0000 0000 0000 0000
00000150: 0000 0000 0000 0000 0000 0000 0000 0000
00000160: 0000 0000 0000 0000 0000 0000 0000 0000
00000170: 0000 0000 0000 0000 0000 0000 0000 0000
00000180: 0000 0000 0000 0000 0000 0000 0000 0000
00000190: 0000 0000 0000 0000 0000 0000 0000 0000
000001a0: 0000 0000 0000 0000 0000 0000 0000 0000
000001b0: 0000 0000 0000 0000 0000 0000 0000 0000
000001c0: 0000 0000 0000 0000 0000 0000 0000 0000
000001d0: 0000 0000 0000 0000 0000 0000 0000 0000
000001e0: 0000 0000 0000 0000 0000 0000 0000 0000
000001f0: 0000 0000 0000 0000 0000 0000 0000 0000
00000200: 0000 0000 0000 0000 0000 0000 0000 0000
00000210: 0000 0000 0000 0000 0000 0000 0000 0000
00000220: 0000 0000 0000 0000 0000 0000 0000 0000
00000230: 0000 0000 0000 0000 0000 0000 0000 0000
00000240: 0000 0000 0000 0000 0000 0000 0000 0000
00000250: 0000 0000 0000 0000 0000 0000 0000 0000
00000260: 0000 0000 0000 0000 0000 0000 0000 0000
00000270: 0000 0000 0000 0000 0000 0000 0000 0000
00000280: 0000 0000 0000 0000 0000 0000 0000 0000
00000290: 0000 0000 0000 0000 0000 0000 0000 0000
000002a0: 0000 0000 0000 0000 0000 0000 0000 0000
000002b0: 0000 0000 0000 0000 0000 0000 0000 0000
000002c0: 0000 0000 0000 0000 0000 0000 0000 0000
000002d0: 0000 0000 0000 0000 0000 0000 0000 0000
000002e0: 0000 0000 0000 0000 0000 0000 0000 0000
000002f0: 0000 0000 0000 0000 0000 0000 0000 0000
00000300: 0000 0000 0000 0000 0000 0000 0000 0000
00000310: 0000 0000 0000 0000 0000 0000 0000 0000
00000320: 0000 0000 0000 0000 0000 0000 0000 0000
00000330: 0000 0000 0000 0000 0000 0000 0000 0000
00000340: 0000 0000 0000 0000 0000 0000 0000 0000
00000350: 0000 0000 0000 0000 0000 0000 0000 0000
00000360: 0000 0000 0000 0000 0000 0000 0000 0000
00000370: 0000 0000 0000 0000 0000 0000 0000 0000
00000380: 0000 0000 0000 0000 0000 0000 0000 0000
00000390: 0000 0000 0000 0000 0000 0000 0000 0000
000003a0: 0000 0000 0000 0000 0000 0000 0000 0000
000003b0: 0000 0000 0000 0000 0000 0000 0000 0000
000003c0: 0000 0000 0000 0000 0000 0000 0000 0000
000003d0: 0000 0000 0000 0000 0000 0000 0000 0000
000003e0: 0000 0000 0000 0000 0000 0000 0000 0000
000003f0: 0000 0000 0000 0000 0000 0000 0000 0000

fc1_bn.running_var f4 [400]
1.0 1.0 1.0 1.0 1.0 1.0 1.0 1.0
1.0 1.0 1.0 1.0 1.0 1.0 1.0 1.0
1.0 1.0 1.0 1.0 1.0 1.0 1.0 1.0
1.0 1.0 1.0 1.0 1.0 1.0 1.0 1.0
1.0 1.0 1.0 1.0 1.0 1.0 1.0 1.0
1.0 1.0 1.0 1.0 1.0 1.0 1.0 1.0
1.0 1.0 1.0 1.0 1.0 1.0 1.0 1.0
1.0 1.0 1.0 1.0 1.0 1.0 1.0 1.0
1.0 1.0 1.0 1.0 1.0 1.0 1.0 1.0
1.0 1.0 1.0 1.0 1.0 1.0 1.0 1.0
1.0 1.0 1.0 1.0 1.0 1.0 1.0 1.0
1.0 1.0 1.0 1.0 1.0 1.0 1.0 1.0
1.0 1.0 1.0 1.0 1.0 1.0 1.0 1.0
1.0 1.0 1.0 1.0 1.0 1.0 1.0 1.0
1.0 1.0 1.0 1.0 1.0 1.0 1.0 1.0
1.0 1.0 1.0 1.0 1.0 1.0 1.0 1.0
1.0 1.0 1.0 1.0 1.0 1.0 1.0 1.0
1.0 1.0 1.0 1.0 1.0 1.0 1.0 1.0
1.0 1.0 1.0 1.0 1.0 1.0 1.0 1.0
1.0 1.0 1.0 1.0 1.0 1.0 1.0 1.0
1.0 1.0 1.0 1.0 1.0 1.0 1.0 1.0
1.0 1.0 1.0 1.0 1.0 1.0 1.0 1.0
1.0 1.0 1.0 1.0 1.0 1.0 1.0 1.0
1.0 1.0 1.0 1.0 1.0 1.0 1.0 1.0
1.0 1.0 1.0 1.0 1.0 1.0 1.0 1.0
1.0 1.0 1.0 1.0 1.0 1.0 1.0 1.0
1.0 1.0 1.0 1.0 1.0 1.0 1.0 1.0
1.0 1.0 1.0 1.0 1.0 1.0 1.0 1.0
1.0 1.0 1.0 1.0 1.0 1.0 1.0 1.0
1.0 1.0 1.0 1.0 1.0 1.0 1.0 1.0
1.0 1.0 1.0 1.0 1.0 1.0 1.0 1.0
1.0 1.0 1.0 1.0 1.0 1.0 1.0 1.0
00000000: 0000 803f 0000 803f 0000 803f 0000 803f
00000010: 0000 803f 0000 803f 0000 803f 0000 803f
00000020: 0000 803f 0000 803f 0000 803f 0000 803f
00000030: 0000 803f 0000 803f 0000 803f 0000 803f
00000040: 0000 803f 0000 803f 0000 803f 0000 803f
00000050: 0000 803f 0000 803f 0000 803f 0000 803f
00000060: 0000 803f 0000 803f 0000 803f 0000 803f
00000070: 0000 803f 0000 803f 0000 803f 0000 803f
00000080: 0000 803f 0000 803f 0000 803f 0000 803f
00000090: 0000 803f 0000 803f 0000 803f 0000 803f
000000a0: 0000 803f 0000 803f 0000 803f 0000 803f
000000b0: 0000 803f 0000 803f 0000 803f 0000 803f
000000c0: 0000 803f 0000 803f 0000 803f 0000 803f
000000d0: 0000 803f 0000 803f 0000 803f 0000 803f
000000e0: 0000 803f 0000 803f 0000 803f 0000 803f
000000f0: 0000 803f 0000 803f 0000 803f 0000 803f
00000100: 0000 803f 0000 803f 0000 803f 0000 803f
00000110: 0000 803f 0000 803f 0000 803f 0000 803f
00000120: 0000 803f 0000 803f 0000 803f 0000 803f
00000130: 0000 803f 0000 803f 0000 803f 0000 803f
00000140: 0000 803f 0000 803f 0000 803f 0000 803f
00000150: 0000 803f 0000 803f 0000 803f 0000 803f
00000160: 0000 803f 0000 803f 0000 803f 0000 803f
00000170: 0000 803f 0000 803f 0000 803f 0000 803f
00000180: 0000 803f 0000 803f 0000 803f 0000 803f
00000190: 0000 803f 0000 803f 0000 803f 0000 803f
000001a0: 0000 803f 0000 803f 0000 803f 0000 803f
000001b0: 0000 803f 0000 803f 0000 803f 0000 803f
000001c0: 0000 803f 0000 803f 0000 803f 0000 803f
000001d0: 0000 803f 0000 803f 0000 803f 0000 803f
000001e0: 0000 803f 0000 803f 0000 803f 0000 803f
000001f0: 0000 803f 0000 803f 0000 803f 0000 803f
00000200: 0000 803f 0000 803f 0000 803f 0000 803f
00000210: 0000 803f 0000 803f 0000 803f 0000 803f
00000220: 0000 803f 0000 803f 0000 803f 0000 803f
00000230: 0000 803f 0000 803f 0000 803f 0000 803f
00000240: 0000 803f 0000 803f 0000 803f 0000 803f
00000250: 0000 803f 0000 803f 0000 803f 0000 803f
00000260: 0000 803f 0000 803f 0000 803f 0000 803f
00000270: 0000 803f 0000 803f 0000 803f 0000 803f
00000280: 0000 803f 0000 803f 0000 803f 0000 803f
00000290: 0000 803f 0000 803f 0000 803f 0000 803f
000002a0: 0000 803f 0000 803f 0000 803f 0000 803f
000002b0: 0000 803f 0000 803f 0000 803f 0000 803f
000002c0: 0000 803f 0000 803f 0000 803f 0000 803f
000002d0: 0000 803f 0000 803f 0000 803f 0000 803f
000002e0: 0000 803f 0000 803f 0000 803f 0000 803f
000002f0: 0000 803f 0000 803f 0000 803f 0000 803f
00000300: 0000 803f 0000 803f 0000 803f 0000 803f
00000310: 0000 803f 0000 803f 0000 803f 0000 803f
00000320: 0000 803f 0000 803f 0000 803f 0000 803f
00000330: 0000 803f 0000 803f 0000 803f 0000 803f
00000340: 0000 803f 0000 803f 0000 803f 0000 803f
00000350: 0000 803f 0000 803f 0000 803f 0000 803f
00000360: 0000 803f 0000 803f 0000 803f 0000 803f
00000370: 0000 803f 0000 803f 0000 803f 0000 803f
00000380: 0000 803f 0000 803f 0000 803f 0000 803f
00000390: 0000 803f 0000 803f 0000 803f 0000 803f
000003a0: 0000 803f 0000 803f 0000 803f 0000 803f
000003b0: 0000 803f 0000 803f 0000 803f 0000 803f
000003c0: 0000 803f 0000 803f 0000 803f 0000 803f
000003d0: 0000 803f 0000 803f 0000 803f 0000 803f
000003e0: 0000 803f 0000 803f 0000 803f 0000 803f
000003f0: 0000 803f 0000 803f 0000 803f 0000 803f

fc2.weight f4 [300, 400]
-0.07519743 -0.026770594 -0.03691334 0.029395996 0.028872795 0.067167304 0.0066428604 0.015424018
0.061773628 0.03951834 0.018794723 0.07225315 -0.017846057 0.017922595 -0.01896521 -0.0032431467
0.05997113 -0.04133787 -0.03035645 0.016248936 -0.03416001 0.0355101 0.009507814 0.009956525
-0.024745487 0.05843125 0.086372316 0.042198516 -0.015831316 0.018832942 0.003167554 -0.035586406
-0.033530556 -0.036854576 -0.047730625 -0.055533595 -0.020028042 0.015307755 -0.014366237 0.015571338
0.011128022 0.03679888 0.010576047 -0.040072795 0.06936666 9.34813e-05 0.049383115 -0.027835464
0.045128528 -0.009032427 0.043742456 -0.030763509 -0.05790331 -0.039303016 -0.02533953 0.043942455
0.061726227 0.029948294 -0.0039914707 -0.045949545 -0.02354833 0.037734672 0.0019121454 0.06899106
0.052814975 -0.012467232 -0.028847253 -0.0073332605 0.020134712 -0.027192896 0.06291737 0.013972182
-0.0013736199 0.08338094 0.0025277573 -0.027774053 0.03154027 0.022659877 -0.01921598 0.014543838
-0.019523825 0.00943334 -0.014587718 -0.011966317 0.045674037 -0.036807373 0.02052635 0.0076234723
-0.020920927 0.019608896 0.05886339 -0.03243246 0.013653846 0.044321854 -0.0065865745 -0.019436277
0.07303761 0.09392669 -0.002734375 0.06728416 0.043649007 0.049991198 -0.01323278 0.012878854
0.027786236 0.056815226 0.05315753 -0.06973819 0.0037897865 -0.008949556 -0.052910138 0.05500624
0.0026141845 0.0072095725 -0.06548151 0.0135724135 0.04551906 0.053746946 0.06780963 0.020047862
0.0010889475 -0.042334657 0.014461691 -0.0055383397 -0.022760183 -0.026369337 0.017565686 0.06655792
-0.025335558 0.06551448 0.016169315 0.0064039105 -0.025024023 0.078699596 0.049781572 -0.029740013
0.030192826 0.070771255 0.050511867 0.03781175 -0.050943326 -0.019861631 -0.00816242 0.033129215
-0.040110167 -0.0074128844 -0.028482249 -0.02444368 -0.04673077 -0.011152114 -0.03682111 0.029290097
0.027339635 0.012466734 -0.044176828 0.044397295 -0.011596484 -0.030554144 -0.01728484 -0.050635263
-0.04211021 -0.039250188 -0.022389997 0.058416814 0.07835688 0.03852414 0.01266982 0.038776513
0.047462333 0.00021617083 0.0304478 0.022452474 0.018023646 0.0030828305 -0.045882326 0.026450478
-0.03417074 -0.049667414 0.051199052 -0.04321358 0.047947858 0.06324004 -0.0077669756 0.044561878
0.02815234 0.046805482 -0.003689365 -0.033739276 -0.02158868 0.004671198 -0.0023921542 0.040766545
-0.010961436 0.025065964 0.010006912 -0.043057874 -0.02042676 0.020924889 -0.048321 0.008074279
0.007904175 0.018309372 0.039875615 -0.0344794 0.04697046 -0.010817149 0.009960073 0.072670184
0.05328604 0.0021707416 0.013905177 0.011988733 0.0351359 -0.02178047 0.05072985 0.011959637
0.052957874 -0.029517459 -0.0017068769 0.055879593 0.018092599 0.014995612 -0.030492993 -0.02457839
-0.010031124 0.002319813 0.075818546 0.040746205 -0.026152182 0.019893229 -0.033501692 -0.022494689
0.06309379 -0.027652204 -0.04188195 -0.023979217 0.04039977 -0.015417298 0.04911357 0.05061026
-0.029905828 -0.009217452 0.03310679 0.031677376 -0.026621472 -0.0009194401 -0.07296814 0.03396668
0.03623013 -0.025888953 -0.012327821 0.06915945 0.035620686 0.036393337 0.004918223 -0.014520895
00000000: 1c01 9abd 014e dbbc 7132 17bd dfcf f03c
00000010: a486 ec3c 038f 893d 5aac d93b 05b5 7c3c
00000020: 5806 7d3d fcdd 213d 64f7 993c 76f9 933d
00000030: e531 92bc 68d2 923c ee5c 9bbc f98a 54bb
00000040: 4aa4 753d e651 29bd 17ae f8bc 7d1c 853c
00000050: 5eeb 0bbd 0a73 113d aac6 1b3c b120 233c
00000060: 0cb7 cabc 9b55 6f3d f8e3 b03d 5ad8 2c3d
00000070: adb0 81bc 8b47 9a3c bd96 4f3b 0dc3 11bd
00000080: 5657 09bd d3f4 16bd 3081 43bd 3277 63bd
00000090: d911 a4bc 61cd 7a3c 5e60 6bbc ed1e 7f3c
000000a0: 4f52 363c 6cba 163d 2847 2d3c 5f23 24bd
000000b0: 1c10 8e3d 640b c438 f345 4a3d 3307 e4bc
000000c0: b1d8 383d bffc 13bc 4a2b 333d c103 fcbc
000000d0: 052c 6dbd 33fc 20bd d994 cfbc 01fd 333d
000000e0: a4d4 7c3d 2056 f53c e2ca 82bb 9735 3cbd
000000f0: 6de8 c0bc ac8f 1a3d f4a0 fa3a 2f4b 8d3d
00000100: 8454 583d 5c43 4cbc 1351 ecbc d94b f0bb
00000110: 8df1 a43c a3c3 debc d2da 803d 94eb 643c
00000120: 090b b4ba a0c3 aa3d bba8 253b 6986 e3bc
00000130: 5f30 013d 35a1 b93c d56a 9dbc 4749 6e3c
00000140: 6ef0 9fbc 4c8e 1a3c 5301 6fbc 5f0e 44bc
00000150: b314 3b3d 54c3 16bd e026 a83c 52ce f93b
00000160: 5d62 abbc d6a2 a03c bd1a 713d e6d7 04bd
00000170: 62b4 5f3c d58a 353d 31d4 d7bb d438 9fbc
00000180: be94 953d a35c c03d 3333 33bb 47cc 893d
00000190: 4dc9 323d 92c3 4c3d 4dce 58bc d401 533c
000001a0: f69f e33c 15b7 683d b6bb 593d e5d2 8ebd
000001b0: 115e 783b 29a1 12bc 4db8 58bd 394e 613d
000001c0: bd52 2b3b 473e ec3b 2b1b 86bd d45e 5e3c
000001d0: 3272 3a3d c225 5c3d c6df 8a3d 6a3b a43c
000001e0: 04bb 8e3a 1b67 2dbd baf0 6c3c f67a b5bb
000001f0: 9073 babc 8204 d8bc eae5 8f3c 854f 883d
00000200: 848c cfbc 752c 863d 8375 843c e5d7 d13b
00000210: 2eff ccbc 412d a13d c3e7 4b3d 54a1 f3bc
00000220: f256 f73c 85f0 903d 88e5 4e3d 7ee0 1a3d
00000230: f3a9 50bd dcb4 a2bc acbb 05bc 80b2 073d
00000240: 8f4a 24bd c8e7 f2bb 9b53 e9bc 1d3e c8bc
00000250: c468 3fbd 5bb7 36bc bbd1 16bd c9f1 ef3c
00000260: 5ff7 df3c 4641 4c3c c3f2 34bd f0d9 353d
00000270: 2eff 3dbc af4c fabc f098 8dbc ec66 4fbd
00000280: c17b 2cbd cec4 20bd 3a6b b7bc 7846 6f3d
00000290: 9279 a03d 7dcb 1d3d 1495 4f3c 1fd4 1e3d
000002a0: dd67 423d eaab 6239 aa6d f93c 40ee b73c
000002b0: 53a6 933c 5009 4a3b 1bef 3bbd acae d83c
000002c0: 9ef6 0bbd 0f70 4bbd 19b6 513d b900 31bd
000002d0: f964 443d fe83 813d 1d82 febb 8486 363d
000002e0: bc9f e63c 1bb7 3f3d 46c9 71bb 3232 0abd
000002f0: beda b0bc d910 993b b0c5 1cbb d2fa 263d
00000300: 9897 33bc 2357 cd3c 08f4 233c 745d 30bd
00000310: 0556 a7bc ac6a ab3c 3eec 45bd fb49 043c
00000320: 8380 013c 89fd 953c 9d54 233d 453a 0dbd
00000330: 1964 403d 693a 31bc 932f 233c 1bd4 943d
00000340: 7642 5a3d 0043 0e3b 8ad2 633c 646c 443c
00000350: a9ea 0f3d f56c b2bc 1aca 4f3d 5af2 433c
00000360: 5bea 583d 99ce f1bc 49b9 dfba 00e2 643d
00000370: ee36 943c 28b0 753c 71cc f9bc 9f58 c9bc
00000380: 9559 24bc 0108 183b c146 9b3d 7ee5 263d
00000390: 1a3d d6bc 20f7 a23c 1239 09bd c846 b8bc
000003a0: 5137 813d e086 e2bc 688c 2bbd 1070 c4bc
000003b0: 3b7a 253d d698 7cbc 502b 493d b44c 4f3d
000003c0: 11fd f4bc cc04 17bc fc9a 073d 23c0 013d
000003d0: 4615 dabc 9506 71ba 5270 95bd a520 0b3d
000003e0: 0b66 143d 1215 d4bc a1fa 49bc 78a3 8d3d
000003f0: ffe6 113d 2e11 153d 0b29 a13b 0ce9 6dbc

fc2.bias f4 [300]
0.060299907 -0.011141326 -0.022050159 -0.04754288 0.00019782654 0.05501333 -0.02547249 0.024072442
0.0031615181 0.020758122 -0.017526748 0.0024154724 -0.016071483 0.041421656 0.06524163 0.05317696
0.00930419 0.06155279 0.0041614235 -0.036953505 0.05511121 -0.0031133115 0.059081454 0.0015958652
-0.07300429 0.08441002 -0.046236288 0.007306806 0.00013935323 0.023891393 0.022627901 -0.018932844
-0.0068628606 -0.016699675 0.039293043 -0.0042357845 0.001353286 -0.0036016416 0.012599249 0.026040995
0.073970616 -0.033861384 -0.026866289 -0.0061773225 -0.018356966 0.07354268 0.009511663 0.020783775
0.004743892 0.033756293 0.00061542913 0.06645341 0.064326935 0.06375047 0.07325362 0.0007719568
0.06722577 0.003477848 -0.01089584 0.022764876 -0.068500824 -0.006093832 -0.01794504 0.02289999
-0.031301226 0.044576935 0.07767167 0.0292952 0.06038686 -0.008477268 0.005445385 -0.048104674
-0.011346188 0.03131797 0.006616707 0.07402216 0.013575642 -0.012565976 0.056876626 -0.028858067
0.047762252 -0.04054063 -0.06601791 0.052370124 -0.010955548 -0.046279773 -0.04920037 0.019187065
-0.025692727 -0.060178746 0.0065819654 -0.032369386 0.023564445 -0.007582939 0.053174563 -0.0006893712
-0.05111896 -0.015480597 0.023442442 -0.004126876 0.04814009 0.015164572 0.0021860555 0.002274561
0.036286563 0.036779176 0.02411482 0.03330863 -0.044163775 -0.013328964 0.03900811 -0.02309465
0.017758748 0.015093049 -0.010565704 0.027198922 -0.018458704 -0.057538446 0.0050672074 0.016940197
-0.0067729 -0.011732989 -0.026941009 -0.07235845 -0.030457381 0.0077080685 0.025227558 0.04292861
-0.011889026 0.01425443 0.010784285 -0.0019506685 0.0037687528 0.03529413 0.07413743 0.052823
0.014034995 0.029849423 0.0029537205 0.03301141 -0.018970784 0.02449017 -0.0062323567 0.017992036
0.058985908 0.066054076 -0.015474862 -0.0027302308 0.03321951 -0.0023452085 -0.0071057426 -0.03043687
0.033421792 -0.017835282 0.031526577 0.050710812 -0.0046481118 -0.04563789 -0.0043191668 -0.02351909
0.038060054 -0.016067896 -0.02343217 -0.002810341 -0.026187306 -0.0632809 0.050634943 0.07468172
0.010543264 -0.016584452 -0.0035474496 0.010369502 0.0047501265 0.073672645 0.06861198 0.054673485
-0.009622822 0.008210181 -0.009115258 0.05768541 -0.03962064 0.043334205 0.006057845 -0.036919918
0.067248315 0.0059038238 0.029226804 0.045063272 -0.011404451 0.0203022 0.016316999 -0.016052984
0.07877762 0.061715975 -0.0363901 0.007188753 0.007258377 0.079022795 -0.0779565 0.00012812587
0.020957422 -0.030873569 0.012932397 -0.039213978 0.016827986 -0.029991137 0.02312968 -0.014291278
0.0069174673 0.03927793 0.039560024 0.034229685 -0.00092339923 0.043286007 -0.050674 0.044778764
-0.042519726 0.055742163 0.00053055614 0.046476997 0.037723638 0.050033115 -0.006415215 0.015226172
-0.024151118 -0.001767627 -0.0073157274 0.020167416 0.008826355 -0.013104283 0.016644092 0.06544075
-0.03382725 0.0360101 -0.024356816 0.003810147 0.03847058 0.0088975895 0.012340979 -0.049843885
0.05174489 0.009243583 0.02332162 0.051834643 0.07467661 -0.023522047 -0.075350516 0.03336178
-0.029711971 0.022227619 0.015107499 -0.0016421954 -0.034037404 0.028216109 -0.01677761 -0.0037922808
00000000: 09fd 763d 1c8a 36bc 89a2 b4bc 53bc 42bd
00000010: a86f 4f39 a855 613d afab d0bc 9233 c53c
00000020: 7931 4f3b f00c aa3c 4194 8fbc e74c 1e3b
00000030: 58a8 83bc c1a9 293d 679d 853d 16d0 593d
00000040: 9a70 183c c71e 7c3d 8d5c 883b 8f5c 17bd
00000050: 4bbc 613d b308 4cbb 65ff 713d 5a2c d13a
00000060: 4683 95bd 29df ac3d 4362 3dbd ee6d ef3b
00000070: 591f 1239 e2b7 c33c 265e b93c 0d19 9bbc
00000080: d9e1 e0bb c2cd 88bc bef1 203d 56cc 8abb
00000090: be60 b13a 8509 6cbb 156d 4e3c ed53 d53c
000000a0: e87d 973d 3cb2 0abd b116 dcbc 236b cabb
000000b0: 5961 96bc 8b9d 963d ced6 1b3c bc42 aa3c
000000c0: a672 9b3b 0a44 0a3d c054 213a ba18 883d
000000d0: d7bd 833d 9b8f 823d fe05 963d 255d 4a3a
000000e0: aaad 893d 9bec 633b 7784 32bc 687d ba3c
000000f0: 294a 8cbd c5ae c7bb 7a01 93bc c398 bb3c
00000100: b735 00bd 4e96 363d 5312 9f3d 7dfc ef3c
00000110: 3658 773d 3de4 0abc 336f b23b 6809 45bd
00000120: 5de5 39bc 4647 003d f6d0 d83b ee98 973d
00000130: 5f6c 5e3c 86e1 4dbc 77f7 683d c167 ecbc
00000140: 5aa2 433d ef0d 26bd 6634 87bd 0e82 563d
00000150: e67e 33bc dc8f 3dbd 5486 49bd 312e 9d3c
00000160: 8e79 d2bc fd7d 76bd 87ad d73b c395 04bd
00000170: 390a c13c 4e7a f8bb 92cd 593d ebb6 34ba
00000180: 1d62 51bd 54a2 7dbc 5d0a c03c bf3a 87bb
00000190: 8b2e 453d d374 783c ed43 0f3b cd10 153b
000001a0: 38a1 143d c3a5 163d 718c c53c a16e 083d
000001b0: 13e5 34bd ba61 5abc f8c6 1f3d fe30 bdbc
000001c0: cb7a 913c d648 773c c61b 2dbc 46d0 de3c
000001d0: b536 97bc 6fad 6bbd d10a a63b 2bc6 8a3c
000001e0: 34ef ddbb b93b 40bc 64b3 dcbc ab30 94bd
000001f0: c281 f9bc f793 fc3b 06aa ce3c e9d5 2f3d
00000200: 30ca 42bc 6a8b 693c 92b0 303c 93ad ffba
00000210: 2efd 763b 9490 103d 5dd5 973d ee5c 583d
00000220: 09f3 653c c786 f43c 3593 413b f936 073d
00000230: 9e68 9bbc 9c9f c83c cc38 ccbb 0964 933c
00000240: 359b 713d 5c47 873d 478a 7dbc aced 32bb
00000250: 2e11 083d 12b2 19bb 4ad7 e8bb be56 f9bc
00000260: 4ae5 083d 4c1b 92bc 0322 013d 24b6 4f3d
00000270: 304f 98bb ccee 3abd cc87 8dbb 1bab c0bc
00000280: dce4 1b3d d2a0 83bc d2f4 bfbc b32d 38bb
00000290: c386 d6bc 6b99 81bd 9666 4f3d bbf2 983d
000002a0: a8bd 2c3c 1edc 87bc 547c 68bb d8e4 293c
000002b0: f3a6 9b3b afe1 963d 7084 8c3d 4ef1 5f3d
000002c0: 0aa9 1dbc ff83 063c 2a58 15bc 8947 6c3d
000002d0: 4149 22bd 357f 313d e380 c63b 5739 17bd
000002e0: 7cb9 893d dd74 c13b 0d6d ef3c 4494 383d
000002f0: bcd9 3abc cd50 a63c 3aab 853c 8c81 83bc
00000300: 2956 a13d e4c9 7c3d c90d 15bd a28f eb3b
00000310: aed7 ed3b b4d6 a13d a8a7 9fbd 8759 0639
00000320: e6ae ab3c 91ea fcbc 68e2 533c d69e 20bd
00000330: d8da 893c f9af f5bc 747a bd3c f725 6abc
00000340: ecab e23b e5e1 203d b109 223d 6d34 0c3d
00000350: 4610 72ba ab4c 313d 8a8f 4fbd f069 373d
00000360: 2a29 2ebd e551 643d 0515 0b3a aa5e 3e3d
00000370: 1a84 1a3d 86ef 4c3d b936 d2bb 3277 793c
00000380: 91d8 c5bc b8af e7ba c5b8 efbb 2336 a53c
00000390: 6b9c 103c 59b3 56bc 3159 883c cd05 863d
000003a0: 718e 0abd 547f 133d f287 c7bc a9b3 793b
000003b0: 5493 1d3d 32c7 113c d131 4a3c 1a29 4cbd
000003c0: 73f2 533d 6672 173c fb0c bf3c 9050 543d
000003d0: 0df0 983d 4fb1 c0bc 5f51 9abd 5da6 083d
000003e0: 8566 f3bc b216 b63c 7285 773c ef3e d7ba
000003f0: ce6a 0bbd 7825 e73c 3371 89bc ea87 78bb

fc2_bn.weight f4 [300]
0.117960274 0.13081175 0.25032532 0.6193875 0.64315295 0.33707297 0.115189254 0.56660426
0.93085635 0.8589166 0.06628877 0.8820977 0.25952995 0.9895972 0.6885292 0.41328597
0.36666662 0.76856875 0.20109951 0.003080368 0.93712944 0.9220036 0.17208683 0.6736989
0.40099204 0.97660077 0.6658156 0.8407888 0.09348822 0.4506873 0.24774146 0.6402935
0.4597506 0.17488527 0.7287173 0.58558536 0.47044033 0.928027 0.6967728 0.96477914
0.6014837 0.30586576 0.935011 0.20939094 0.8360386 0.2866379 0.97561556 0.9652067
0.24436659 0.77616763 0.44681305 0.049076736 0.09147453 0.92494655 0.35661858 0.94137114
0.81304044 0.42315853 0.42738932 0.44529814 0.3543396 0.60210365 0.3173039 0.96839005
0.68325853 0.5169515 0.50458765 0.52946955 0.9112608 0.6748677 0.06378573 0.31546187
0.34899312 0.5615937 0.7188589 0.8809927 0.14991164 0.8182884 0.93012637 0.43651015
0.49823362 0.31869417 0.11444801 0.16535258 0.96701026 0.7853594 0.33246458 0.38978136
0.5346751 0.05191189 0.19291586 0.7697681 0.021142364 0.27301866 0.9183553 0.06754017
0.4186868 0.72694296 0.8821551 0.9615304 0.18363225 0.848938 0.10251784 0.5908908
0.29701936 0.40388203 0.24211222 0.3502276 0.5328277 0.52499455 0.19154531 0.9301377
0.32746726 0.16575742 0.28865087 0.549295 0.65460443 0.120212555 0.79688156 0.3533072
0.47114873 0.4269536 0.9088292 0.97624177 0.42287362 0.50405663 0.31758034 0.65235364
0.095451295 0.9403432 0.9668743 0.6913066 0.6074541 0.22528255 0.8759335 0.22945136
0.7771028 0.6666647 0.2035585 0.0053474903 0.004671395 0.7624389 0.7028177 0.6525859
0.36969125 0.24541241 0.06639886 0.36798757 0.69605875 0.22670549 0.95408005 0.45201862
0.73944235 0.10325128 0.8611743 0.9656224 0.0028458238 0.6987772 0.37879056 0.012245774
0.08658928 0.9585398 0.44801795 0.30824035 0.7599749 0.29360354 0.24211568 0.4652961
0.28522223 0.6635176 0.7712929 0.5006364 0.038937926 0.5926909 0.17893124 0.9456331
0.28130543 0.7360519 0.03249377 0.86163396 0.8889177 0.10421842 0.8252352 0.23691416
0.80993456 0.25369018 0.3663066 0.6767108 0.4671591 0.43315977 0.8622088 0.4826212
0.43885052 0.9952402 0.60078275 0.21688902 0.4330796 0.81431127 0.42813963 0.79925597
0.5015575 0.668218 0.7965003 0.43472177 0.61422604 0.8466474 0.42981988 0.17622793
0.053782403 0.9532198 0.40055895 0.8770093 0.18994248 0.68648285 0.37110788 0.56133324
0.8323474 0.9275911 0.45795488 0.4122252 0.9661498 0.4008506 0.66098857 0.80000234
0.17882222 0.14016408 0.74307764 0.3090005 0.20655107 0.5873143 0.6765033 0.03328061
0.97285956 0.1624595 0.29151577 0.9342154 0.67308307 0.04776758 0.9831218 0.5701188
0.43895495 0.77507836 0.024577856 0.79118663 0.20929891 0.10373908 0.65509343 0.47235012
0.76062673 0.33927977 0.42197597 0.08182335 0.17262733 0.4057008 0.29593074 0.6242148
00000000: 2895 f13d 84f3 053e a42a 803e 2e90 1e3f
00000010: aca5 243f d494 ac3e 58e8 eb3d fa0c 113f
00000020: 9a4c 6e3f f5e1 5b3f 68c2 873d 28d1 613f
00000030: 1ce1 843e 3e56 7d3f 7343 303f 389a d33e
00000040: babb bb3e ecc0 443f 08ed 4d3e 00e0 493b
00000050: b7e7 6f3f 6e08 6c3f 8837 303e 8877 2c3f
00000060: d44e cd3e 8202 7a3f e472 2a3f ef3d 573f
00000070: c076 bf3d 7cc0 e63e f0af 7d3e 46ea 233f
00000080: 6e64 eb3e 2015 333e 388d 3a3f ece8 153f
00000090: 8edd f03e 2d93 6d3f b45f 323f c4fb 763f
000000a0: d6fa 193f 709a 9c3e e25c 6f3f 946a 563e
000000b0: a006 563f 34c2 923e f1c1 793f c917 773f
000000c0: 3c3b 7a3e ecb2 463f aec4 e43e b004 493d
000000d0: 0057 bb3d 4cc9 6c3f b696 b63e b3fd 703f
000000e0: 6b23 503f 3ca8 d83e c6d2 da3e 1efe e33e
000000f0: 006c b53e 7723 1a3f a875 a23e 69e8 773f
00000100: 08ea 2e3f ef56 043f a82c 013f 518b 073f
00000110: 6348 693f 21c4 2c3f 18a2 823d 3884 a13e
00000120: 3aaf b23e 9bc4 0f3f 2307 383f bd88 613f
00000130: 7082 193e 597b 513f c31c 6e3f 427e df3e
00000140: 7a18 ff3e e22b a33e b863 ea3d 3052 293e
00000150: fc8d 773f 500d 493f cc38 aa3e 6c91 c73e
00000160: 78e0 083f 90a1 543d bc8b 453e 860f 453f
00000170: c032 ad3c 1ac9 8b3e 5519 6b3f 8052 8a3d
00000180: 1e5e d63e ef18 3a3f ebd4 613f db26 763f
00000190: 180a 3c3e 0054 593f e0f4 d13d 9f44 173f
000001a0: ec12 983e a0c9 ce3e 44ec 773e 0851 b33e
000001b0: 6567 083f 0b66 063f 7424 443e 811d 6e3f
000001c0: caa9 a73e 50bc 293e 0cca 933e 999e 0c3f
000001d0: 2894 273f 0032 f63d 6e00 4c3f aee4 b43e
000001e0: 683a f13e aa99 da3e 08a9 683f fbea 793f
000001f0: e482 d83e db09 013f e499 a23e a600 273f
00000200: f87b c33d 55ba 703f 1385 773f 78f9 303f
00000210: 1d82 1b3f 78b0 663e 2e3d 603f 4cf5 6a3e
00000220: 36f0 463f 8aaa 2a3f a471 503e 003a af3b
00000230: 8012 993b 322f 433f dceb 333f df0f 273f
00000240: 2c48 bd3e 644d 7b3e 20fc 873d de68 bc3e
00000250: e830 323f 7c25 683e 973e 743f fc6e e73e
00000260: 184c 3d3f 6875 d33d eb75 5c3f 0833 773f
00000270: 0081 3a3b 10e3 323f d6f0 c13e 80a2 483c
00000280: b855 b13d dd62 753f 9c62 e53e aed1 9d3e
00000290: b78d 423f 3453 963e 2ced 773e 4a3b ee3e
000002a0: a608 923e 4adc 293f 7473 453f b529 003f
000002b0: 607d 1f3d 97ba 173f c039 373e 0315 723f
000002c0: 4407 903e e66d 3c3f 3018 053d 0b94 5c3f
000002d0: 1c90 633f 7870 d53d 9d42 533f a099 723e
000002e0: df57 4f3f aee3 813e 8a8c bb3e eb3c 2d3f
000002f0: 7a2f ef3e 1ec7 dd3e b7b9 5c3f 201a f73e
00000300: 04b1 e03e 10c8 7e3f e6cc 193f 2818 5e3e
00000310: 9cbc dd3e b476 503f 1e35 db3e 0a9c 4c3f
00000320: 1366 003f 5610 2b3f 72e7 4b3f da93 de3e
00000330: eb3d 1d3f e2bd 583f 5a11 dc3e 1875 343e
00000340: f04a 5c3d 3606 743f 1016 cd3e ae83 603f
00000350: 4880 423e 57bd 2f3f da01 be3e 89b3 0f3f
00000360: b814 553f 9c76 6d3f 1079 ea3e 2e0f d33e
00000370: 9855 773f 4a3c cd3e 8c36 293f f4cc 4c3f
00000380: 2c1d 373e 2c87 0f3e 563a 3e3f 5035 9e3e
00000390: 2082 533e 3b5a 163f 522f 2d3f 4051 083d
000003a0: 530d 793f c85b 263e 8e41 953e be28 6f3f
000003b0: 2c4f 2c3f f0a7 433d dfad 7b3f 4ef3 113f
000003c0: b4be e03e 896b 463f 8057 c93c 358b 4a3f
000003d0: 7452 563e 2875 d43d 34b4 273f e0d7 f13e
000003e0: 6fb8 423f 14b6 ad3e 3c0d d83e 0093 a73d
000003f0: 38c5 303e 04b8 cf3e 3c84 973e 8bcc 1f3f
