agent_checkpoints/checkpoint_critic_7.pth (torch_old, 554781 bytes, 13 tensors)

fcs1.weight f4 [400, 33]
00000000: 022c 88bd 01f2 bfbb a58e bdbd 6a97 22be
00000010: d071 d7bd 27fe c73c ec8f 7bbd 586f f13c
00000020: cea5 643d 989f 633d 186f 26bd eae8 4d3d
00000030: 5f8d 99bd 7ee0 89bd f951 4d3d 2c25 f43b
00000040: 9ac3 95bd 1a75 c8bd f259 ac3d 0999 593e
00000050: 3bea 4abd 36b5 25bd 27d1 cd3d 5862 693d
00000060: eb53 b1bd a281 be3c 0645 063d 5665 b8bc
00000070: 23d9 15ba d8b8 15bd cde8 0abd e250 e73c
00000080: 7568 7ebc 74e1 cc3c 82f5 693d 0299 2cbd
00000090: 67d8 a4bc ba7c ccbd 2e9f fdbd 9faa e2bd
000000a0: 4897 56bd 075a 573d 8080 013e 1326 fbbc
000000b0: d164 413b a57a adbd a3be d1bc e743 d43d
000000c0: 9194 c3b9 775f 463d 32ce 85be a59b ed3d
000000d0: 3ba0 edbd 7145 333d f38a 10be 47f4 29bd
000000e0: 40e8 5a3d 7e6a 8fbc 2460 4fbd cac1 c43d
000000f0: 2093 c6bc fe05 c33b 6b74 1c3d 0939 e5bb
00000100: aa70 9a3c 0ecb 40be 8b5c a5bc d977 7e3c
00000110: ea74 41bd 8c8b 5dbe e069 35bd ee28 14be
00000120: c49b 2f37 2ac5 52bb 0771 60bd d509 023e
00000130: a96b 143d 6bd0 96bc 9fbf 2ebd 806d 58bc
00000140: f582 053d 126d 593d 57a6 c2bd bc67 bf3d
00000150: eb44 1cbc 2f56 d53d 0014 29be f2df e6bd
00000160: 410a 343d f7be 953b 30ae 04bd a583 c73c
00000170: 7f76 a13d e338 d8bc aecf c6bc 173e 9abc
00000180: c652 f7bb 4040 cf3b a4d4 cabd 7b7c 13bc
00000190: e8ad cb3b 96a4 c63d 1bea 763e 8e9e 983e
000001a0: b323 c13d c2e5 84bd 30af eebc eb77 c23c
000001b0: a653 d4bd b892 94bc 3e22 123c 0300 9a3d
000001c0: 209e 263e cff6 6b3c 2ab6 803d 8a7e 50be
000001d0: 6db3 04be 6779 443d 072b c13c 2a14 17be
000001e0: 46d9 5d3d 7b74 3a3d 5dab 14bc d319 a9bc
000001f0: 3cae 3f3c ea39 2f3c 8fb5 8b3c f675 e8bc
00000200: 1211 9f3c 70d6 bfbc 1b35 2ebd 8ffb 9e3d
00000210: 6c0f 5c3c 7f78 dabc 22ab ab3c a68e 15bc
00000220: 83a5 37be e230 fbbd 12bd c73c 9c63 e73d
00000230: d4fd ac3c 8551 1f3e c7b9 163d 6885 40bd
00000240: 732f ccbc 15d2 93bc 3b91 823d d5d6 d33c
00000250: 537b fa3d 9fb3 a3bd 55f5 473d 39a8 4a3d
00000260: 7d81 b33c 38e2 f8bd d188 50bd 2e26 d7bb
00000270: 96c8 b93c c060 abbd 2c5c 263d 4ad4 0b3d
00000280: 778c 643d 1f2d 473d 7a8e 2e3d 40f2 93bb
00000290: d628 84be e42e 16bd c767 80bc d031 783d
000002a0: 738b de3c 664f c03c 8804 b8bd e8a2 c5bd
000002b0: 5ffb babd eb0f c53d ba53 cf3d 5ec2 883d
000002c0: 78f2 433d 4f70 b6bc 931a 5abe 7850 c6bc
000002d0: b55b 8d3d 10f4 353d c5a7 aebd 326b bfbd
000002e0: 5b8c 33be 8b35 8c3c be9f b0bd 23cd 803b
000002f0: b296 65bc 6935 96bc 6b00 adbb 3ccf 49bd
00000300: 5474 0ebd a589 ab3c d897 55bc 0340 82bc
00000310: 9846 83bb 221a 82bc a88a 5a3d 9e38 723c
00000320: d998 d43d d088 a9bd 08a2 4d3a 85ba 463d
00000330: b3fd f9bd f5d5 cf3d aef2 15bd e19b d4bc
00000340: 8c16 a03c 43bd f13d 56fa eabc 41e3 06bb
00000350: 6fe6 d33d 18fc a03d e88b 553d f54b ce3c
00000360: 8224 15be f4c4 49be d741 ac3c 7016 2d3d
00000370: 0715 d2bc aeae 05bc 1507 86bc 0405 acbc
00000380: 1315 23bd 3c7b 0ebc 3352 273c f60f 22bd
00000390: 400f 453c d849 54bc 389a 24bd 9bba 0b3e
000003a0: f654 f53d a94f 833c fbef 813d 2f52 953c
000003b0: 9851 e33d c5c1 8fbc 048f a53c c915 c13d
000003c0: 0d77 ffbd 059f 4b3d 9d3e ccbc 87bb c73c
000003d0: a08c e73d 9e25 a83d b7fe 92bd 5f9d c33c
000003e0: 7a5a c5bb 0070 413e aca1 e93d 007a 80bd
000003f0: 1f39 3e3d 9c45 01be be8d 4d3d 9b49 fc3c
-0.06649019 -0.0058577065 -0.09255723 -0.15878072 -0.10519755 0.024413181 -0.06141655 0.029472038
0.055822186 0.055572122 -0.04063329 0.050270952 -0.074976675 -0.067322716 0.050127003 0.0074507203
-0.07312699 -0.0978796 0.08415593 0.21249785 -0.049539786 -0.04045602 0.10049658 0.056978554
-0.08658584 0.023255173 0.03278067 -0.022509258 -0.0005716255 -0.036553234 -0.033913422 0.02823681
-0.015527834 0.025009848 0.0571189 -0.042138107 -0.02012272 -0.09984727 -0.12383877 -0.110677
-0.052390367 0.05257609 0.12646675 -0.030657804 0.0029509554 -0.08470658 -0.025603598 0.10364514
-0.0003730399 0.048430886 -0.26133877 0.116019525 -0.11602827 0.043767396 -0.14115505 -0.041492727
0.053444147 -0.017506834 -0.050628796 0.09607275 -0.024240077 0.005951642 0.038196962 -0.0069953245
0.01885255 -0.18827459 -0.02018573 0.015531504 -0.04723064 -0.21635264 -0.044290423 -0.14468738
1.046708e-05 -0.0032160976 -0.05479529 0.12699063 0.036235485 -0.018409928 -0.042663213 -0.013209701
0.032595593 0.053082533 -0.09504383 0.09345958 -0.009537916 0.10416829 -0.16511536 -0.11273183
0.04395509 0.004569884 -0.03239268 0.024354765 0.078839295 -0.026394313 -0.024268951 -0.018828435
-0.007547709 0.006324798 -0.09903839 -0.009001846 0.0062157996 0.09699361 0.24112742 0.29808468
0.09430637 -0.06489135 -0.02913627 0.023738822 -0.10367517 -0.018136367 0.008919297 0.075195335
0.16271257 0.0144021055 0.06284745 -0.20360771 -0.1295907 0.04796734 0.023580087 -0.14753786
0.054162286 0.04552124 -0.009074059 -0.020642197 0.011699256 0.01069496 0.017054347 -0.02837656
0.01941732 -0.023417681 -0.042531114 0.07762825 0.013431411 -0.026668785 0.020955626 -0.009128248
-0.17934231 -0.12265183 0.024382148 0.11298296 0.021117128 0.15558441 0.036798265 -0.047002226
-0.02492497 -0.01804451 0.06375357 0.025859276 0.122305535 -0.079932444 0.04881795 0.049476836
0.02191233 -0.12152523 -0.05091173 -0.0065658307 0.022678655 -0.08368063 0.040615246 0.034138
0.05579802 0.048627015 0.042616345 -0.0045149624 -0.25812405 -0.036665812 -0.015674485 0.06059438
0.027166104 0.02347536 -0.08985239 -0.096502125 -0.091299765 0.09622177 0.101233914 0.066776976
0.047838658 -0.02227035 -0.212992 -0.024208292 0.06902257 0.04442221 -0.08528093 -0.09346618
-0.1753401 0.017115375 -0.086242184 0.003930704 -0.014012979 -0.018336015 -0.005279591 -0.0492699
-0.034778908 0.020939657 -0.013036691 -0.015899664 -0.004006218 -0.015881602 0.05335489 0.014784006
0.10380716 -0.08278048 0.0007844274 0.048517723 -0.122065924 0.10148231 -0.03660839 -0.025953235
0.019542001 0.11803677 -0.028683823 -0.0020582231 0.10346686 0.07860583 0.052135378 0.025182704
-0.14564708 -0.19704038 0.021027489 0.042257726 -0.025644792 -0.008159323 -0.016360799 -0.020998485
-0.03981502 -0.008696374 0.010212469 -0.039566003 0.012027562 -0.012957059 -0.040186137 0.13645403
0.11979096 0.016029196 0.06344601 0.018227665 0.11099547 -0.017548451 0.020209797 0.09427983
-0.12473879 0.0497122 -0.0249322 0.024381412 0.11306119 0.082103 -0.07177489 0.023878751
-0.0060227485 0.18890381 0.114077896 -0.0627327 0.046441194 -0.1262421 0.050184004 0.030796817

fcs1.bias f4 [400]
00000000: f063 0b3e 66dc 0ebe 28de ac3d 2937 bfbd
00000010: 9907 1d3b 5301 cfbc c2ac a5bc 8ae5 b0bd
00000020: df80 03be 952d 2dbe 9e98 11be 4d44 bc3d
00000030: a2aa f8bd 0939 6ebd 85b5 133e 081a 4d3d
00000040: c429 203e 7aff 293e 441d b43d 9696 d63d
00000050: 05db 0bbe 4d03 9cbd 1290 1bbe 2841 2ebd
00000060: 287a db3d dbb5 a0bc 62ea 5e3b 617f 19be
00000070: e805 253d a5b2 f43d 0a59 2f3d 64f2 9fbd
00000080: 5cb1 943d 279f cabb 3f9d cf3d ba42 f93d
00000090: bf16 bfbd 3bc1 db3c b042 59bd 2367 3abd
000000a0: bb11 2dbe f487 243e 2d97 803d 84f6 6fbc
000000b0: 9267 09be 24ac b0bd 1cf8 8d3d 19df 963d
000000c0: c6e6 ea3d 2d33 b1bd 269a 063e 76c3 a3bd
000000d0: c800 aa3d 0b7f aa3c 84a8 1c3c c48d 5e3c
000000e0: 2ef2 22be ffee d03c afa7 123e 226e 21bd
000000f0: 3d8a e03d e7ce 0b3d 3751 b43d 2267 b8bd
00000100: c95c 9e3d 1f32 0d3e 036c bcbd 706c 173e
00000110: 6405 67bd 483b ccbc 9471 24be da08 ce3d
00000120: 52f0 2f3d 9ab5 153e ae57 c0bd 2be9 e93c
00000130: 4ffd 7abc c689 183e 447d 3b3d 5dc2 06be
00000140: 4726 cd3d a87d 063e 9315 303d 6e1b 6c3d
00000150: 994f be3d 1c3b 593d ac1c aa3d c4d8 2b3e
00000160: a315 6fbd 82d4 09be 4e6d 8e3b 5dd3 7abd
00000170: 6630 963a 0143 a63d ef7f 45bd 2dc2 48bc
00000180: cc3d a13d 679b 03be 63bb a1bd 2500 c83c
00000190: 6cd5 df3d 1f16 923b 17a0 c73c 9b1d 103e
000001a0: f3aa 2d3e f75d f5bb 9b6e 2fbd 0e89 1dbd
000001b0: fe56 97bd 3b28 f03d bd90 67bd 9cc8 b53d
000001c0: 4c66 f1bd 8a8a c9bd d78a f13d 155c 92bd
000001d0: 3438 8dbd 1092 55bd 9cc1 0cbd f5eb 26bd
000001e0: d8eb 613c f886 19bd a302 533d 1503 003e
000001f0: f00a 08be 48e0 193e 451c cd3d de33 5a3d
00000200: d47a 79ba 7d7f 0a3e e2c6 f03d ae47 d2bd
00000210: c695 0f3d 2b47 f4bd b87d f53d 2194 ba3d
00000220: 6a42 913c b8b5 0d3e 5d65 083d 00e1 74bd
00000230: 1f8c 09bd 1fb5 0cbe 6ba7 993d 7155 083c
00000240: c06b 443d 0322 c3bd 6b54 e73c 78c1 49ba
00000250: d061 1e3e 3221 c83d 0823 1a3e 0683 2dbe
00000260: a68d 63bd 52bf ffbb 9b11 263e 4a21 f13c
00000270: 67da 89bd 41b3 df3d f82d 18be 3085 863d
00000280: 69f3 24be 3b7c 073e 672b 2d3e 9856 1b3c
00000290: 68cd bc3d 1237 1a3e 21c1 19be db5b 91bd
000002a0: 7f57 24bd 3a5f 88bd 3a7b 2b3e 9f68 d83d
000002b0: 23a0 c03d 1ba0 103e 27ba 45bd 574b 6cbb
000002c0: 5d78 bc3d b9cb 633d 3c0d 6abd 3f0f a83b
000002d0: 2def 203e 19d4 28be 4a21 303e 96a5 0fbe
000002e0: 09b4 843c 2697 fd3c 5e1e 29be 0247 99bd
000002f0: d11a be3d eb63 2ebe ea99 8bbd ea0b a3bd
00000300: 5b78 0e3c dc34 05be 7676 e03d 8d0f 05be
00000310: 024a 9bbd a0dd fb3d 196a 283e 77d0 bf3c
00000320: fe9c a7bd 1a73 583c 5ebe 91bd 6824 163e
00000330: 58ab 80bd 04eb a63c 088f 7e3c cd5b 2fbe
00000340: 4226 5cbd e852 b53d 7f9d 963c 15c9 e83c
00000350: 9f96 b5bd b495 1c3e adee 0abe cd9d 02be
00000360: 25f3 08bd 2fb0 bd3d 86a9 dabd 1b37 56bd
00000370: 91e2 0f3d 8b1b 743d 85b2 60bd bdd2 c53d
00000380: 1ca3 cc3d f1f9 073d 2552 dd3c 8aaf 203e
00000390: c4be 843d e750 0bbe 0663 06bd ec92 883d
000003a0: 7f04 86bd 3aa6 f13d c2c4 46bd bb42 453d
000003b0: c024 613c e9fa dd3b 234a 5fbc 6141 dabb
000003c0: 7a04 ffbc 7e26 76bc 5114 6ebd 8a07 e23d
000003d0: 4fed b13d 54cc 073e d209 f93d aa46 cd3d
000003e0: 482e 1dbe 4010 0c3e a7ec 223e 9f09 cfbc
000003f0: 7da4 23bd 6a16 51bd ec90 c2bd 179c 1c3d
0.13612342 -0.13951263 0.084408104 -0.09336693 0.0023960827 -0.025269186 -0.020223979 -0.08637531
-0.12842129 -0.1691192 -0.14218375 0.09192715 -0.121419206 -0.05815986 0.14424713 0.050073653
0.15640932 0.16601363 0.087946445 0.10477941 -0.13657768 -0.07617817 -0.15191677 -0.042542607
0.10716659 -0.019617965 0.0034014215 -0.14989997 0.040288836 0.11948136 0.042809524 -0.07809904
0.07260391 -0.006183523 0.10137414 0.1217093 -0.0933051 0.026825538 -0.053042114 -0.045508515
-0.16901295 0.16067487 0.062788345 -0.014646176 -0.13418415 -0.08626583 0.06932089 0.07366771
0.11469798 -0.08652339 0.1314474 -0.079962656 0.0830093 0.020812532 0.009561662 0.013583604
-0.15912697 0.025504587 0.14321779 -0.03941167 0.10963867 0.034132864 0.08804553 -0.09004046
0.07732541 0.13788651 -0.09200289 0.1478746 -0.056401625 -0.024930611 -0.16058952 0.10060282
0.042953797 0.14620057 -0.093917236 0.028553566 -0.015319183 0.14896306 0.04577376 -0.13160081
0.100170664 0.13133872 0.042989325 0.057643346 0.09292526 0.053034887 0.0830625 0.16781908
-0.058370244 -0.13459972 0.004346526 -0.061236728 0.0011458516 0.08118249 -0.04821771 -0.012253326
0.07873115 -0.1285225 -0.07897069 0.024414131 0.10929379 0.0044582034 0.024368329 0.14073794
0.16959743 -0.007488008 -0.04283009 -0.038460784 -0.07389639 0.11726423 -0.056534518 0.08876154
-0.1178709 -0.09840877 0.1179406 -0.071464695 -0.068954855 -0.05214125 -0.034364328 -0.04075237
0.01378914 -0.03748223 0.051516186 0.12501176 -0.13285422 0.15026963 0.100151576 0.05327212
-0.0009516899 0.13525195 0.11756684 -0.10267578 0.035054944 -0.11927637 0.119868696 0.091102846
0.017731864 0.13838851 0.033299793 -0.05978489 -0.033580896 -0.13740967 0.075026356 0.008321152
0.04795432 -0.095279716 0.028238496 -0.00076963706 0.15467 0.097719565 0.15052426 -0.16944513
-0.05555501 -0.0078047896 0.16217653 0.029434819 -0.0673111 0.10922862 -0.14861286 0.06568372
-0.16108479 0.13230984 0.16911088 0.009481095 0.09218866 0.1506007 -0.15015079 -0.07097598
-0.040122505 -0.06658788 0.16746226 0.1056683 0.09405544 0.14123575 -0.04827323 -0.0036055648
0.09202645 0.055614207 -0.057141528 0.0051287706 0.15716238 -0.16487159 0.17200199 -0.1402801
0.016199129 0.030955862 -0.1651549 -0.07484247 0.092824586 -0.17030303 -0.06816466 -0.07961257
0.008695687 -0.13008446 0.10960095 -0.12994213 -0.07582475 0.12298131 0.16446723 0.023414833
-0.08184241 0.013211036 -0.07116388 0.14662325 -0.06282681 0.020375736 0.015537031 -0.17124863
-0.053747423 0.08853704 0.018385647 0.028416196 -0.08866619 0.15291482 -0.1356761 -0.12755509
-0.033435006 0.0926212 -0.10676865 -0.052298646 0.03512818 0.05959658 -0.05485775 0.09659336
0.09992048 0.033197347 0.027016709 0.15691963 0.06481698 -0.1360508 -0.03280928 0.06668648
-0.06543826 0.11799283 -0.048527487 0.048159342 0.013741672 0.0067742956 -0.013628515 -0.006660626
-0.031130064 -0.015023826 -0.058124844 0.11036594 0.08687841 0.13261539 0.12160076 0.10023244
-0.15349686 0.13678074 0.15910588 -0.025273142 -0.03995179 -0.051046766 -0.09500298 0.038234796

fcs1_bn.weight f4 [400]
00000000: 3400 0b3f 22ca 283f e833 bf3d 0459 3f3e
00000010: 0daa 7e3f 7157 283e a68e 683f 0bda 693f
00000020: da60 1c3f fe9c 3b3f 8f12 ef3e f4eb 533e
00000030: d0aa 683f 76f7 4f3d c7f5 643e 744a 043f
00000040: 89d4 c23a 6c3b f63e a1e7 453f b8ad 053f
00000050: 160b 8f3e 3301 ff3e 46e3 893e e2ef 503f
00000060: b0d7 dd3e b789 5f3e d386 de3d 62c7 993e
00000070: a09f cd3e 7f66 023e ce19 043f 7a5e 4d3f
00000080: 3dea 1e3f 7409 193e 4b13 cc3e 0c41 683f
00000090: 8201 b93e cbe4 143d 980d 333f a4e1 0a3f
000000a0: 54d1 233d 980a 173f 7fdb 163f 2891 203f
000000b0: 4e40 183f 964c fe3c 0bed 3d3b bdbf b83e
000000c0: 7ee5 c93e 5eb8 a13e 0493 053e c922 f73a
000000d0: c418 263f 3047 d73e 13bd 803e 8e3a ab3e
000000e0: e065 9e3e f2b7 1e3f 0593 5e3f 5dc9 593f
000000f0: 56d4 a63e a137 273f 923a 993e 85a0 253f
00000100: 662e 5d3e 9b05 b53e d33f 113d 9607 e33e
00000110: dfed 273f 3e22 2f3f e827 1c3e c0a4 493f
00000120: 9b23 203f 81c8 093e a49f cc3e 8a03 393e
00000130: 4e95 a23e f363 443f ff6b 8cbc 7d58 dc3e
00000140: 59fa f73e be48 a43e 4fe7 693f fe69 143f
00000150: 2750 613f 10e5 3e3f ca3a c13e cc51 083f
00000160: 6db8 343f 6e01 833f d7d7 d73d c046 683f
00000170: 4071 0f3f 13e2 cb3d b2bd 5d3f 699d 323e
00000180: e36d 8e3e 929e 783e b32f 633f 7fe9 7e3f
00000190: 27bd a53d 4204 2c3f 7d98 ec3d d614 e73e
000001a0: 146f e43e ed71 493f 6841 fe3e d149 1c3f
000001b0: e28c 013f 1746 413f 1834 6f3f 8ebb 46bb
000001c0: 20ee f43e eebe 2f3f 0856 713f 1d82 713c
000001d0: e0bd cd3e b721 023f f799 f93e 5351 b43e
000001e0: 1a32 1f3f ccb4 c63c 918d 453f 07e6 de3e
000001f0: 259f 093e 0f03 403a bca0 023f 8a32 ca3e
00000200: a6e0 683f c2a3 323e b117 fd3e ec04 5b3f
00000210: d091 4f3e a218 a73e 45d9 7e3e 522c 1a3f
00000220: cfd4 953e dc16 523f 57eb 4c3f 9a02 6a3f
00000230: a8a8 9b3e 0d7a 5a3f 32b7 773f 9dfd dc3b
00000240: cd66 063f b79b 643f 3989 873e 16f9 fe3e
00000250: 689a 443f 6876 0d3f 678f 6f3e 3efc 263f
00000260: 56e3 5e3e 0809 863e 67cc 663f 80c4 d53e
00000270: 92df 233f 1290 023f 70a3 653e 92aa 163f
00000280: 0f81 473f 879f 283e 72ac 613f a690 383f
00000290: 216d 433e 9215 963c 1527 083f 65b7 4c3f
000002a0: 6e07 f93d 3db1 253f c611 123f 2fa0 a83e
000002b0: 289d 283f d0a9 0b3e ed15 173f da16 6f3f
000002c0: d912 b43e 15ab f63e 0d13 4d3f baf6 ad3a
000002d0: c90f 7a3e 91f9 043b 33b0 863d 455e 6b3f
000002e0: 4383 a03d 2b50 c73e 5d57 523f e3f1 e73e
000002f0: 5308 1b3f 39e4 123b 1408 213f fc7d 563e
00000300: f101 b03e c473 1c3e 200b 183f 0838 1b3f
00000310: 225a 4f3f e490 793e a086 933d 0ca7 3b3f
00000320: 66ef 723f 610c 583e fbed 3f3f f429 fe3e
00000330: 3a44 8a3e 649b 523f 69ee 243f 6dfc 313f
00000340: cd76 773d c7ee 0e3f 9ce0 333f 7379 4b3f
00000350: 22d9 243f a2de 353f c468 173e b275 223f
00000360: 0d3e 093f 999f 413f 63d3 143f c5a0 293f
00000370: b238 f63e ea0c 6b3f f34f 0c3d 34ec af3e
00000380: 29b5 593f 88b2 4b3f f3b0 a33e cd20 1d3f
00000390: abee 163e e6be 6c3f be38 363f 9be6 233f
000003a0: 6ff1 663f 0f98 273f 18db 793f 1b2f 333f
000003b0: 1701 1e3f 5e13 313f bbc5 3b3f 852f 563f
000003c0: 355a e13d cc13 ea3e 0b50 113f e373 403f
000003d0: c60c 433e 2713 393b 190a 543f 24e6 103f
000003e0: 9a27 7d3e bfa4 9c3e 152d 393e 821b ba3e
000003f0: 5e17 2c3f b8c4 073e 5f08 353f cc2e e23d
0.54297185 0.6593343 0.09336072 0.186863 0.99478227 0.16439606 0.90842664 0.9134833
0.61085284 0.73286426 0.46693847 0.20695478 0.9088564 0.050773107 0.22359382 0.51676106
0.0014864366 0.4809221 0.7730656 0.522182 0.27938145 0.49805602 0.26931208 0.8161603
0.4332862 0.21829878 0.108655594 0.3003493 0.40160847 0.12734412 0.51601875 0.80222285
0.6207617 0.14945012 0.3985847 0.90724254 0.36133963 0.036351006 0.6994262 0.5425055
0.039994553 0.5900054 0.58928674 0.6272149 0.5947312 0.031042378 0.00289804 0.36083785
0.394329 0.31585974 0.13044363 0.0018854971 0.6488154 0.420465 0.25144252 0.3344311
0.309371 0.6199943 0.86943084 0.8507288 0.32583874 0.6531926 0.29927498 0.6469806
0.21599731 0.3535584 0.03546126 0.44341725 0.6559734 0.68411624 0.15249598 0.78767014
0.6255433 0.13455392 0.39965546 0.18067756 0.31754535 0.7671501 -0.01714134 0.4303626
0.48433188 0.32086748 0.91368574 0.5797423 0.8801293 0.7456827 0.37740165 0.5324981
0.7059391 1.0234811 0.10539215 0.90732956 0.5603218 0.099552296 0.8661758 0.1744286
0.27818212 0.2427924 0.8874466 0.99575037 0.080927186 0.67193997 0.11552522 0.45133084
0.44615996 0.7868946 0.49659276 0.61050135 0.50605595 0.75497574 0.93438864 -0.0030324194
0.47837925 0.6865071 0.942719 0.014740494 0.40183926 0.50832695 0.48750278 0.35218295
0.62185824 0.024256133 0.7716914 0.43534872 0.13439615 0.00073246745 0.5102651 0.39491683
0.90967786 0.17445281 0.49432138 0.85554385 0.20270467 0.3263598 0.24887569 0.6022388
0.29263923 0.8206613 0.800466 0.9141022 0.30402112 0.85342485 0.9676391 0.0067441002
0.5250061 0.893001 0.2647188 0.49799412 0.76798105 0.552588 0.23394547 0.6522864
0.2176641 0.26178765 0.90155643 0.4175148 0.64013016 0.51001084 0.22425628 0.5885402
0.779313 0.16467105 0.88153756 0.72095716 0.19084598 0.018320832 0.53184634 0.7996734
0.1215962 0.6472357 0.5705837 0.3293471 0.658648 0.13638997 0.5901783 0.93394244
0.3517063 0.481774 0.80107194 0.0013272383 0.24420084 0.0020290355 0.06576576 0.9194072
0.07837536 0.3892835 0.82164556 0.45301732 0.60559577 0.0022413863 0.6290295 0.20946497
0.3437648 0.15278536 0.59391975 0.6063237 0.80996907 0.24371678 0.07203412 0.7330177
0.94896543 0.21098472 0.74972504 0.49641383 0.27005178 0.8226836 0.64426285 0.69525796
0.06041603 0.55833095 0.702646 0.7948219 0.6439382 0.71042836 0.14786059 0.6346084
0.53610307 0.7563415 0.5813505 0.6626094 0.4809013 0.9181658 0.034255933 0.34359896
0.85042053 0.7956929 0.3197094 0.61378175 0.14739482 0.9247879 0.7118033 0.6402375
0.9021215 0.654664 0.97599936 0.6999375 0.6172041 0.69170177 0.7334859 0.8366626
0.11003534 0.4571823 0.5676276 0.7517683 0.19047841 0.0028240175 0.8282791 0.56601167
0.24722138 0.3059444 0.18083604 0.36349112 0.67223155 0.13258636 0.707159 0.11044082

fcs1_bn.bias f4 [400]
00000000: 60f6 82bd 6676 6ebd 22f3 13bd cbd3 2dbd
00000010: 5edb 15bd d310 8cbd b905 06bd 50e4 cdbc
00000020: f352 20be 0a1f e2bd 495a c2bd fae4 8f3c
00000030: 6e3b e4bd 2bd1 cbbd 0dbd e5bc 4c77 c8bd
00000040: c848 98bc 2590 013d 85a7 32bd bb46 c0bd
00000050: 531f a5bd 46d4 c8bd 8f45 a43b 07a6 02be
00000060: b2e3 aabd 0c9b 97bd 4229 14bd ca03 1abd
00000070: b502 eabd 4525 edbd 100b 74bd 59f9 a4bd
00000080: 3377 4a3c 5f87 b0bd 591a 73bd f246 b4bd
00000090: 84ff dfbd f130 a8bd 7c80 85bc 401f adbd
000000a0: 30b1 53ba a060 a7bd 0071 46bd cb28 09be
000000b0: b2d6 b0bd fe88 99bd 0287 1fbc 9967 67bd
000000c0: 098a bebd feaf f0bc 651c 47bd b522 fabb
000000d0: 8551 5abd 42e2 06be 8f58 04be 5918 6cbc
000000e0: fa06 58bd 08a8 8bbd 94ef b3bd c3da 4abe
000000f0: 2ade 09be 9655 02be 6272 abbd 5642 03be
00000100: 58be 9fbd 6423 75bd 7665 27bd abab 94bd
00000110: 71f7 6cbd 7447 dbbd 738d 85bd c553 1cbe
00000120: 3751 d3bd 56fa 18bd 5268 37be 044f 05be
00000130: e23a abbd ee3d edbd 29b2 18bd 3e90 09bc
00000140: b0d7 86bd e6a9 4bbd 4b75 6bbc b7b8 29be
00000150: 7b84 d5bb 22a8 bfbd 73a7 05bd bbf3 b8bc
00000160: 5249 c9bd 10a7 4c3c 2ac1 a1bd 5ef8 d1bd
00000170: 07f4 39bd 1a2f 80bd a439 13be f133 cdbb
00000180: 206d 77bd 89a5 d7bc d74b fbbc 4ad6 e9bc
00000190: 6905 0abd 38d2 55bd 88d1 2cbd 69fe 02be
000001a0: 4fb5 8bbd 5e99 edbd cf9d e2bd b94a 80bd
000001b0: 6a4a c3bd 3921 8e3c 9c07 abbc a395 6dbd
000001c0: 2647 d4bd aa94 80bd 97ce 1bbd d58e 1dbd
000001d0: 561c abbd d06b 36bd a57b a0bd edec a2bd
000001e0: fdb7 f8bd 3d28 6abd 75a6 2fbc 2ec2 3abd
000001f0: 1b60 bbbd 935b efbc ac27 53be 6bb0 24be
00000200: be7b debd 08d2 8dbd 8a32 fabb ac39 0abd
00000210: 4aa9 52bd 6b86 d7bd f2c7 0abe cda8 a4bd
00000220: f08a b4bd c0d7 973c eb08 2abd 7c23 10be
00000230: 5665 99bd 716e 08be 0c5e 23be 645e d4bc
00000240: 8af3 b4bc 597e d8bd 3f01 a0bd f19f 07be
00000250: 5a18 89bc c6f1 19be d345 ffbd b6c3 a1bd
00000260: 804e c4bd baa4 c2bc 3ff7 8a3c f145 e0bd
00000270: 7413 1ebe 503c a6bb 4004 1dbd c6bc 28be
00000280: 3f8e 90bd b146 90bd 4378 48bd 1c9a a83c
00000290: 4324 98bd dc0e 36bd b37a d4bd c1a7 9ebd
000002a0: 78f7 71bd 127b 6fbc 207b cebd e693 2b3c
000002b0: 67ac 34be 7318 10bd d7c4 dcbd dfef 98bd
000002c0: 91b3 a0bd 36cf 82bd 2e40 47be cc81 b2bb
000002d0: ffc3 cfbd 916a 17bc a1f1 4ebd 730b 26bd
000002e0: 1af0 19bc 67ed cbbc 9a10 82bd d50e c7bd
000002f0: c34f 263c 6dcb 85bc 6d97 2bbd 7099 95bc
00000300: 5bcd 70bd 02c1 91bd 3cb6 dfbc b3ab 09be
00000310: d635 c3bc b0bf dbbd b0ff b0bd b45c cfbd
00000320: a661 5ebd e4d9 a1bd edd2 b8bd 6094 99bd
00000330: 697a f9bd 31f9 f3bd ba58 17bd 5c0f fbbd
00000340: bb1a 7fbd 6d37 88bd 0ce9 7fbd c654 c23c
00000350: e038 c1bd d44a 1d3d 8ce1 57bd 6ec8 5cbd
00000360: 5226 debd 8d64 213d 27d4 8ebd 88c4 1dbe
00000370: 72a4 febb cd79 523d c025 6e3c 95bd 8fbd
00000380: bb52 b7bd 57f4 aebd bee8 e7bd d0f1 adbd
00000390: 880d c5bd dade 78bd 6fa8 42bd 8b89 8cbd
000003a0: 775d b6bd ff4d 3ebe 4b2c a1bd cc97 1dbe
000003b0: 84a7 b2bd 5468 89bd e5ee 8abd 32b2 8bbd
000003c0: 4eda 04be 1950 4ebd 4477 debd 6a29 e2bd
000003d0: 3cc0 9abd 1577 a6bc 13a3 cfbd 39d3 3abd
000003e0: 104a 9bbd f1c0 72bd 93c3 92bd 947a d7bd
000003f0: 978e fbbd b8b8 b6bd cf91 c0bd e2c1 5dbd
-0.063946486 -0.058218382 -0.03612054 -0.04243831 -0.036586158 -0.068391465 -0.0327203 -0.025133282
-0.15656643 -0.110410765 -0.09489877 0.01756524 -0.11144148 -0.09952005 -0.028044248 -0.09788379
-0.018589392 0.031631608 -0.04361679 -0.09388491 -0.08062615 -0.09806113 0.005013175 -0.12758647
-0.08344211 -0.0740262 -0.03617216 -0.03760127 -0.114262976 -0.11579374 -0.059580863 -0.08055372
0.012357521 -0.0861957 -0.0593513 -0.08802594 -0.109374076 -0.0821246 -0.016296618 -0.08453226
-0.0008075414 -0.08172727 -0.04844761 -0.13394468 -0.086347 -0.07496832 -0.009736778 -0.056495283
-0.09303672 -0.029380795 -0.048611064 -0.007633532 -0.0533004 -0.13172248 -0.12924407 -0.014410102
-0.05274103 -0.06819159 -0.0878593 -0.19810013 -0.13463655 -0.12727961 -0.08371426 -0.12818274
-0.07799977 -0.059848204 -0.040868245 -0.072593056 -0.057853166 -0.10706988 -0.0652112 -0.1526633
-0.10318225 -0.037348114 -0.17910889 -0.13018423 -0.083608404 -0.11584078 -0.03727928 -0.008396206
-0.06584108 -0.049722575 -0.014371227 -0.1657437 -0.006516037 -0.09358241 -0.032630395 -0.022577157
-0.09828438 0.012491003 -0.07898171 -0.102524504 -0.04539874 -0.06258984 -0.14377457 -0.0062622954
-0.060406804 -0.02632405 -0.030675812 -0.028544564 -0.033696566 -0.052202433 -0.042192012 -0.12792362
-0.06821691 -0.11601518 -0.11065256 -0.06264252 -0.09535678 0.017349826 -0.020877652 -0.058004033
-0.10365133 -0.062783554 -0.038038816 -0.038466293 -0.08355014 -0.04453641 -0.07836083 -0.07955346
-0.12144468 -0.05716728 -0.010720839 -0.04559534 -0.0914919 -0.02921847 -0.20620602 -0.16082923
-0.10863446 -0.06924826 -0.0076354193 -0.033746406 -0.051430978 -0.10523685 -0.13552836 -0.08040009
-0.08815563 0.018535495 -0.04151241 -0.14076036 -0.074900314 -0.1332338 -0.15953845 -0.025923915
-0.022088785 -0.10570974 -0.07812738 -0.13244607 -0.016735245 -0.15033635 -0.1246449 -0.07898657
-0.09585285 -0.023760188 0.0169636 -0.1095084 -0.15437108 -0.005073108 -0.03833413 -0.16478261
-0.07058381 -0.07044733 -0.048942816 0.020581298 -0.074287914 -0.044447765 -0.103749655 -0.0774684
-0.059073895 -0.014616745 -0.10082078 0.010472273 -0.17643891 -0.035179567 -0.10779732 -0.07467627
-0.078467496 -0.063871786 -0.19458076 -0.005447602 -0.10144805 -0.009241716 -0.050523404 -0.040538263
-0.009395624 -0.024893476 -0.06350823 -0.09719626 0.010150853 -0.016332353 -0.041892458 -0.018261641
-0.058789592 -0.071168914 -0.027308576 -0.13444404 -0.023829382 -0.10729921 -0.086425185 -0.101251036
-0.054292344 -0.079028875 -0.09024606 -0.074990034 -0.12181551 -0.11912764 -0.03694985 -0.12258789
-0.06228135 -0.06651197 -0.06247811 0.023722064 -0.09434676 0.03840144 -0.052705333 -0.053902082
-0.10847153 0.039402533 -0.069740586 -0.15407002 -0.0077710683 0.05138569 0.0145353675 -0.07018582
-0.089513265 -0.08542698 -0.11323689 -0.08493388 -0.096217215 -0.060759403 -0.047523912 -0.06862172
-0.08904546 -0.1858444 -0.07869776 -0.15389937 -0.08723357 -0.06709352 -0.06783847 -0.068210974
-0.12973902 -0.050369356 -0.10862592 -0.11043055 -0.07556197 -0.020320455 -0.10138526 -0.045611594
-0.07582486 -0.059266035 -0.07166209 -0.10521427 -0.12283056 -0.08921951 -0.09402811 -0.05413998

fcs1_bn.running_mean f4 [400]
00000000: ed90 603d 761a 3fbe c2ab 79be fcf4 05bf
00000010: 1fe3 8b3e 6f58 95be fa1e dd3d 1040 61be
00000020: 09d8 79bd 6116 36be c270 cbbe e21d c93e
00000030: 5767 a53e bac3 cb3d 6a27 a63d 34bf af3c
00000040: 9b3d 393e 86bd 623e baf1 1d3c ca76 cfbd
00000050: 622f 82be 7318 1dbe 01e2 60be 131b 4c3e
00000060: a44f c03d 9431 94bd ccf6 91be 7821 3ebe
00000070: eb16 67be c318 273e 6831 143d 717d a2be
00000080: 7067 4e3c b851 143e c27e c3be 2d54 0a3f
00000090: 8fba 88bc b601 053c 06ad 17be df4b 9ebe
000000a0: c056 c3bc 8cf0 ef3d fc20 65be af98 dc3d
000000b0: 3ffc b23d e447 ce3d 6e1c 4cbc c324 9c3e
000000c0: 8588 f43d 3f60 38bd a0a7 993e 6055 debc
000000d0: acc4 c5be 4f8f 5d3e c8c8 4c3e bdad d1be
000000e0: 3d08 fcbe e078 433e fd2d ca3e 093e 0bbe
000000f0: a82e ad3d 5ed9 c4bd 3e96 b2bc 895d cdbe
00000100: 84e0 2c3f f3ce 5e3e 328c 72be 4131 3a3e
00000110: e7f7 ed3d b23b 55be 9a70 92be eb66 083e
00000120: 3012 063e 110a e93d d191 15be 3373 073e
00000130: 001d e8bc 374c 92bd b84d eabd 5c72 bfbe
00000140: ef5f 85bc 1394 13bd 7e57 18bd 1636 ba3e
00000150: 5989 11be 0077 bdbe 89b1 25be fb33 bc3d
00000160: f854 c63e 1c96 2ebf 898f 553e 9d93 56be
00000170: fa97 ccbe 06c5 de3c b9ac b0be c057 fabc
00000180: 99e6 b23e b32d 383d ade9 d4bd 6cbf 333e
00000190: 16fd 5f3e 140c ebbc 053d 84be ddd6 013f
000001a0: c3d2 353e 3166 fb3d 75bb cabe e46a 39be
000001b0: 33fd efbe 3c4a 64bd 648a e23d f3c3 843e
000001c0: 12c3 3fbe e5ac 713c 0250 893d a178 e8bd
000001d0: 58b2 8fbe 5e40 44bd 4a1d 54bd 3dde 65bd
000001e0: 9949 6c3e da6c 97be d4f4 9eba 9849 43be
000001f0: 2ab9 bcbd ad34 4abd 8600 013f 032f 233d
00000200: 20e7 fa3d e3ab 943e 4b94 603e 4b30 f1bd
00000210: 6887 d03e 54ee 9fbe 8ea1 9b3e 2bf6 35be
00000220: 6864 553d b6ba 913e 9a7d 74be c8a3 d8bd
00000230: 0fb2 75bd c389 a0be 6149 4b3e 575a 063e
00000240: 7728 523e 691c 1ebc a26f 40be 505a a2bc
00000250: 12a3 35be bcb6 65be 2f31 2d3e d007 07bf
00000260: a9e0 8dbd 1589 1ebd 3672 75bc 145b 5b3e
00000270: 48e4 d8bd 99b9 70be 6485 adbe d70e ec3e
00000280: f480 4f3e 32f8 2ebe e330 973e f542 38be
00000290: a3c5 cd3d ccfe 003f b6b9 efbd 4b69 59bd
000002a0: 278b ca3d ebeb 8bbe 05eb aa3e 4fa8 193e
000002b0: 8c45 593e 75c7 e0bd a443 c4be 064a 8ebd
000002c0: 8273 cebe a24c 39be 3922 c23e 3654 a5bd
000002d0: 0934 95bc 169e f4be 007c 9fbd e69e 83bd
000002e0: 79db 45be 6897 913e 07d7 cabe 57e2 c7be
000002f0: 12d2 c33d c9f0 a9be 0476 2fbe 771f b5be
00000300: 59d9 2ebe 28a0 89be 52b5 0d3e e9bb 6abe
00000310: b546 ff3d 6cf9 2c3e 9aa5 953e e9c6 583e
00000320: 05b9 1f3e 051c debe b892 bd3e ac79 833e
00000330: 83e9 c0bd aa38 f3bd 1294 cfbe 8aab 12be
00000340: fa0c 34be af56 eabc ef30 283f 6878 fbbd
00000350: 08f4 8bbd 13fa bfbc fcbc 24be 9738 04be
00000360: 3860 03be 043b bcbe 13f6 32be 789f 2dbe
00000370: 1c93 febd b724 74bc 54a2 dabe 33eb dcbd
00000380: 0783 bbbe 08c7 9e3e 6a51 2bbe d8c6 d93e
00000390: f667 dc3d 0c14 f4bd 37d2 5abe 20b1 82be
000003a0: f53e aa3e d86e 0b3f 3001 1cbe 5ad8 863e
000003b0: 305d b73d 2f25 58be b6dd 9abe 325b 703d
000003c0: 56d9 67bd 5275 c1be c4d0 65be b68c 04be
000003d0: ae57 aa3e 3381 473e e6c2 5b3e 6c2a 003e
000003e0: 5972 65be a4bf f73e 2ed9 953e b9f6 3bbf
000003f0: 2ac6 0abe 31c0 b93d 1ab4 b2bd 8ba5 c43d
0.054825712 -0.18662438 -0.24381927 -0.5232694 0.27321717 -0.29169032 0.10796924 -0.21997094
-0.060997043 -0.17781974 -0.39734465 0.3928061 0.32305405 0.09949441 0.081129864 0.021453477
0.18089907 0.2214261 0.009640152 -0.10130079 -0.25426775 -0.15341358 -0.21961214 0.19932203
0.0939019 -0.07236019 -0.28508604 -0.18567455 -0.22567336 0.1631804 0.03617993 -0.3173633
0.012597904 0.14484298 -0.38182646 0.5403469 -0.01669052 0.008118084 -0.14812097 -0.3091726
-0.023845077 0.117158026 -0.22375864 0.107713096 0.087395184 0.10072306 -0.01245795 0.30496797
0.119401015 -0.045013662 0.300107 -0.02714032 -0.3862661 0.21636699 0.19998467 -0.40952864
-0.49225035 0.19089079 0.3948821 -0.13597883 0.084561646 -0.09611772 -0.021800157 -0.40110424
0.67530084 0.21758632 -0.23686293 0.18182851 0.11619549 -0.20823553 -0.28601533 0.1332051
0.13092875 0.11378873 -0.14606406 0.13227539 -0.02833414 -0.07143443 -0.11440605 -0.37391937
-0.016281096 -0.036029886 -0.037192814 0.3636939 -0.1421255 -0.37004852 -0.16181006 0.09189602
0.387367 -0.681978 0.20855536 -0.20954747 -0.399597 0.027193557 -0.34506777 -0.03055942
0.34941557 0.044965457 -0.103961326 0.1755349 0.21873888 -0.028692283 -0.25827804 0.5071848
0.1775618 0.12275351 -0.39596143 -0.18107182 -0.46872863 -0.055734858 0.11061552 0.25930747
-0.18726757 0.014750694 0.067047134 -0.11351133 -0.28065753 -0.047912948 -0.051785745 -0.056120146
0.2307495 -0.29575235 -0.0012127408 -0.19071043 -0.09215005 -0.04936664 0.50391424 0.039839756
0.12251115 0.2903739 0.2193157 -0.11776789 0.40728307 -0.31236517 0.30396694 -0.17769687
0.052097708 0.28462762 -0.23876038 -0.10578114 -0.059984263 -0.31355104 0.1985221 0.131204
0.20523249 -0.009650328 -0.18792585 -0.019818455 -0.17737988 -0.22432989 0.16913293 -0.52746296
-0.06927616 -0.03870495 -0.014980843 0.21421462 -0.10590416 -0.235083 -0.3389083 0.46105072
0.20264035 -0.17086866 0.29529485 -0.17994292 0.10047462 0.5038879 -0.117053434 -0.05307893
0.098898225 -0.2732843 0.3338243 0.15005611 0.21217936 -0.109755434 -0.38332856 -0.069477126
-0.403225 -0.1809564 0.37916735 -0.080727026 -0.018213289 -0.4777686 -0.07787323 -0.06426792
-0.19322003 0.28435826 -0.39617178 -0.3903987 0.09561552 -0.33191517 -0.17134863 -0.35375568
-0.17075099 -0.26880002 0.138387 -0.22923245 0.12464658 0.16892022 0.29227906 0.21169628
0.15597923 -0.43380752 0.37026 0.25678766 -0.09419539 -0.11876042 -0.40542656 -0.1432325
-0.17583075 -0.028605787 0.65699667 -0.12278825 -0.06833655 -0.023434674 -0.16087717 -0.12912212
-0.12829673 -0.36763775 -0.17476682 -0.16955364 -0.12430403 -0.014901332 -0.42701972 -0.10787048
-0.36623403 0.31011224 -0.16730276 0.42534518 0.107620165 -0.11917886 -0.21369253 -0.2552576
0.33251157 0.5446601 -0.15234828 0.26336938 0.08953321 -0.21107934 -0.30247277 0.05868072
-0.056603752 -0.3778482 -0.22442919 -0.12944302 0.3327002 0.1948288 0.21461067 0.12516183
-0.22406901 0.48388398 0.29267257 -0.73423344 -0.13552156 0.09069861 -0.08725758 0.09601887

fcs1_bn.running_var f4 [400]
00000000: 4201 0c40 68b7 d63f 7541 833f 0e91 ca3f
00000010: 33d4 d53f 7f7d 0f40 6a4d 273f 1b92 3940
00000020: dad0 c63f defe 893f 4b87 b040 8256 f83f
00000030: c786 253f 3f8a 1140 456c 3e40 8e1a e93f
00000040: 5c10 c23f ec4c 483f fab5 2f40 2a34 6740
00000050: 51f3 3340 840c 5940 5fe1 3840 49e8 883f
00000060: c7bd 0640 348f 2640 5126 b13f 1f6c 0340
00000070: 52bf 1740 d86d cf3f dd99 753f c288 d73f
00000080: 76be 0340 2cc8 ae3f d61b 783f e15e 9840
00000090: c442 c63f 48a0 e73f 18c3 cf3f 201b b73f
000000a0: 0363 1140 bcdd 433f 8c16 cb3f 09f4 913f
000000b0: 2f24 8940 69dd ed3f 9f5e 643f 2f02 fa3f
000000c0: 0e09 e83f 7c40 0a40 3893 de40 57dc 3b3f
000000d0: edd3 fa3f e628 923f 946d c73f e540 733f
000000e0: 1859 0e40 23e6 f93f 22bc 9540 f340 ac3e
000000f0: 70f9 f13f 2bfa a93f a63a 0240 a95e 6b3f
00000100: 47bf fb40 5b7e ba3f da5f 7540 3d62 4c40
00000110: c8f5 6040 3932 433f c7a9 dc3f 0a8b 1040
00000120: fae5 0640 2546 c340 7833 6b3f da26 8f3f
00000130: 416d 0a40 7a29 4e40 4618 7840 ad71 a03f
00000140: 4916 8040 7842 343f 8a5f a13f abad 1740
00000150: b3c4 5740 998a c33f e3a7 3a40 4e57 fa3f
00000160: 65a6 613f f03d 923f 1b74 9040 d6e0 433f
00000170: c17c 8c3f bc68 0b40 b355 4b3f 678d 7e40
00000180: 04fa 343f 1f42 dc40 9527 823f 4156 4b40
00000190: 32f4 1940 e651 5b40 07db 6b40 94ae 943f
000001a0: d95f ef3f cf66 e140 8a56 c03f bda6 4b40
000001b0: 8996 0741 dc85 693f 150a b43f a4d6 0e3f
000001c0: 86ba a33f 4612 c23f bf4d 4c3f 9ba5 0940
000001d0: 4093 3a40 6a84 d740 ea42 8b3f 8966 9a40
000001e0: 015f 823f 2dbe 973f 1228 583f 2a81 8440
000001f0: d182 9f3f ac4f 323f 5197 af3f 13cd 0240
00000200: 912f a93f a1a4 9040 7cc8 4640 c311 5840
00000210: 6ded cf40 41c7 cc3f 2f3a f53f ba55 853f
00000220: 9027 4940 e89c bb3f be16 953f 59dd 993f
00000230: 5304 393f 35e7 ee3f c4de a23f 969e 9a3f
00000240: 4118 4f3f 79db c840 8d24 283f b8a1 513f
00000250: d209 2740 81cd 693f 946a 4140 4869 9440
00000260: 04b4 0a40 3d70 bb3f a0c2 0a40 f9c6 6140
00000270: 131a 7c40 f587 fe3f 2f69 f53f 322f a23f
00000280: a9dc a73f 331d e33f 9c2a 1940 dd93 0140
00000290: 0f18 3e40 6962 7a40 1c05 5d40 6c0c 9740
000002a0: 5c7c 833f 2ba8 9c40 1090 e93f a98a 5d3f
000002b0: b62b 9640 e14d bb3f 8cdb ad3f 515d 8a40
000002c0: 3253 9a3f 2d54 9a40 d29c 8f3f 9308 bb3e
000002d0: 31f7 a33f 8800 ce3e 2839 2a40 b976 bc3f
000002e0: 5aca 853f ed5b ce3f d8d9 2040 e781 113f
000002f0: bd80 a540 4df5 e83f efb3 983f ec85 763f
00000300: 0d1e b73f 2dcf 623f 3465 603f acb1 4740
00000310: 1e38 5c40 35d6 5e3f ea29 df3f d22f 1140
00000320: c6c2 a43f 39c4 8140 d402 d240 6a8a a240
00000330: 96f0 5a3f 483f e43f 1858 823f ff12 663f
00000340: 9a86 283f fff7 1240 1f8a 6640 8b63 453f
00000350: 49ab 7540 a36a a23f df49 8540 476d 1540
00000360: 0ffe b440 c7d3 2240 4d08 2f3f 2fe9 4040
00000370: 885e 0d40 5a03 cf3f 69b3 3740 0112 ad3f
00000380: 9e0c 1a40 fe38 9a40 e309 4140 dffa 2c3f
00000390: 9707 ba3f ea51 903f 5c76 bc3f 7046 8a3f
000003a0: c2f2 4340 b3b4 2f3f d86d 1940 2827 6140
000003b0: bfbd bb3f b2fa a03f 3b3f df3f 322c 533f
000003c0: 2942 1940 bb08 3740 f5d1 0440 635c 8d40
000003d0: 51e2 a63f f149 f640 70ff 9d40 6b72 f73f
000003e0: a175 c83f e6e4 623f f468 3d3f 8cf3 7340
000003f0: 64f2 8540 d5a3 ce40 b6d7 5a3f 0017 2f3f
2.1875768 1.6774721 1.0254351 1.5825517 1.6705383 2.2420347 0.653525 2.8995426
1.5532486 1.0780904 5.5165153 1.94014 0.6465878 2.2740629 2.9753582 1.8211229
1.5161242 0.78242373 2.745482 3.6125588 2.8117259 3.391389 2.8887556 1.0695888
2.105333 2.6024904 1.3839818 2.0534742 2.3710523 1.6205397 0.959379 1.683861
2.0584998 1.3654838 0.96917474 4.761582 1.5489125 1.8095789 1.6231413 1.4305153
2.2716682 0.76510215 1.5866256 1.1402599 4.285667 1.8583194 0.8920688 1.9531916
1.8127763 2.1601858 6.955471 0.73383087 1.9595925 1.1418731 1.5580316 0.95020896
2.2241879 1.9523357 4.6792154 0.33643302 1.8904247 1.327947 2.0348296 0.91941315
7.8670993 1.4569811 3.8339753 3.193496 3.5150013 0.7624851 1.7239312 2.2584863
2.1077867 6.1023126 0.9187541 1.1183732 2.1629183 3.2212815 3.8764815 1.2534691
4.0027204 0.70413923 1.2607281 2.3699749 3.3713806 1.5276672 2.916497 1.9557893
0.8814452 1.1425152 4.514173 0.7651495 1.0975572 2.1782675 0.7942764 3.9773805
0.70693994 6.8830714 1.016833 3.1771395 2.4055295 3.4268737 3.6852434 1.1615777
1.8701125 7.0438 1.502641 3.182052 8.474252 0.9121988 1.4065577 0.55796266
1.2791297 1.5161827 0.7980613 2.1507328 2.9152374 6.734914 1.0879796 4.8250165
1.0185243 1.1854912 0.8443614 4.140767 1.2461797 0.6965282 1.3718053 2.0437667
1.3217641 4.5200963 3.1059866 3.376084 6.4977326 1.5998307 1.9158381 1.0416787
3.1430397 1.4657259 1.1647565 1.2020675 0.72272223 1.8664309 1.2724233 1.2079647
0.80896384 6.276791 0.6568077 0.8188739 2.6099744 0.913292 3.02213 4.6378517
2.1672373 1.4643627 2.168129 3.5277693 3.9390914 1.9885241 1.9172724 1.2670653
1.3114215 1.7743286 2.3932257 2.0246499 2.9702184 3.9122565 3.4534369 4.7202663
1.0272326 4.8955283 1.8247089 0.86539704 4.692836 1.4633142 1.3582625 4.323891
1.2056639 4.8227754 1.1219733 0.3652998 1.2809812 0.4023478 2.6597385 1.4723731
1.0452378 1.6121804 2.5132961 0.5683884 5.171965 1.819986 1.1929911 0.962981
1.4306046 0.88597375 0.87654424 3.1202192 3.4409251 0.87045604 1.7434666 2.2685437
1.287194 4.055203 6.562845 5.0793962 0.85523355 1.7831812 1.0183134 0.89872736
0.65830386 2.2963865 3.6021802 0.77105016 3.8385794 1.2688793 4.1652675 2.3347948
5.656013 2.5441759 0.6837204 3.0142324 2.2088947 1.6172898 2.8703253 1.3521119
2.40702 4.819457 3.0162284 0.675703 1.4533566 1.1274998 1.472362 1.0802746
3.0616918 0.686351 2.3973293 3.518015 1.4667281 1.2576506 1.7441171 0.8248931
2.394663 2.8599079 2.0753148 4.4175277 1.3037816 7.696526 4.9374313 1.9331793
1.5660897 0.8863052 0.7398827 3.81174 4.1858387 6.457499 0.854854 0.6839447

fc2.weight f4 [300, 404]
00000000: f24d 9c3c 0319 293d 27dc 643d af68 1bbc
00000010: 098e fbbc b318 893d 2e58 cebd 2d46 fb3c
00000020: f821 6cb9 8158 b3bd a68e e93c d755 d6bc
00000030: 4239 0abd f7e3 b7bc 55c3 073c b3eb 0fbd
00000040: 6b08 e83c 8bc1 0abe 0562 183d 7fcb f33c
00000050: 8d90 d1bb 6a53 333d f2f8 a83c a376 edbc
00000060: 661b 46bd 9dd6 cdbc c8a1 83bc 02b0 2f3d
00000070: 2f4d 1dbc c1f9 9dbd 3d64 083c ca5d bbbc
00000080: df43 50bd bfda a8bc e2ad 3cbd f844 7f3d
00000090: d2c1 65bc 1b74 38bd 8e6d 87bd c245 3d3d
000000a0: 125d a73d d534 cbbd 9bba 89bd 77db 4f3c
000000b0: e360 a13c db25 66bd 19d8 71bc 1e57 3cbd
000000c0: 3cd4 923d ddcb 7d3d 3973 7ebc 0f06 083d
000000d0: 07b9 3b3c 51e1 69bd 6363 823d 4203 aeba
000000e0: 5ccd ff3c 502d 7ebd 4a37 8f3d f10d 103d
000000f0: e6e7 5ebc 3cee c2bb 3d6a 9d3d 88c3 5bbd
00000100: 6854 3d3d ff87 dbbc 1d36 403d 9172 523d
00000110: 72a4 093d 0651 2b3d d97c 65bc 4f28 4fbd
00000120: 9b6b 4dbd 8f5b 74bc 4911 bf3c b1ff 463c
00000130: ecab f4bc dd11 debc c70e e3bb cef7 25bd
00000140: 1ad4 2d3b bb81 e1bd dd89 0f3d 0268 f13c
00000150: 892d 603d d167 743c 0c56 643b d13c 6c3d
00000160: d903 c5bc 822c 23bd 5082 323d 221e 40bd
00000170: 57c3 c4bc 102a d4bc e660 f9bb 0508 183d
00000180: b105 99bd d381 f3ba 9c71 43bd 5adc 1fbc
00000190: aafe d13a a021 e1bb dcaf f6bb 0820 043d
000001a0: 10be 08bc 0a7c d63c fa06 e8bc e4d3 843d
000001b0: f356 7c3d 092f 263d 9c8a a7bd 692d ad3a
000001c0: b66e 223d 9b75 b8bb 3493 6bbd 05ac 69bd
000001d0: 8045 b3ba eadf 273d 7d74 09bd 5ae3 b1bc
000001e0: 0532 993d 8120 c33c 9dc4 65bd 93ae 913d
000001f0: 3f0f 57bd df36 ac3c b5b6 adbc e380 713c
00000200: ba8c 61bd a31e cabc aa51 683c 285a cc3c
00000210: 79fe 883c e3e4 9a3d 9da7 283d 499a 323d
00000220: 355b 5fbd 45f3 ccbd ebd5 e93d 53d3 46bc
00000230: b3e0 723d 06a5 1abd 6d8f cebb 6dce 16bd
00000240: d3ba 013d c43b a0bc 3707 cebc ed75 80bd
00000250: 754a ac3d ee55 0ebd 70bf 9dbd b047 683d
00000260: d2a5 973d 038a c43b 1c69 d73d 873c a73c
00000270: 22ec 843d 3d22 cb3c ad4c 033d 110d f8bd
00000280: 2963 d9bc b792 a73d cd76 c4bd 4da6 1cbd
00000290: 6032 a8bd bf9e d7bc 55ad 9f3c c22e d4bc
000002a0: 0069 2bbd 2370 a93c 5520 afbd 1231 2c3d
000002b0: 009c 1ebd 284d 1b3d a4d7 8ebd 3ebc a5bc
000002c0: 575e b1bc 2866 773d 8974 eebd b1f8 bc3b
000002d0: a3a0 29bb 790d 5bbd 3019 47b8 8c34 43bd
000002e0: 7112 9ebc 950a ac3c 2d4e 7a3d c0a0 47bb
000002f0: 1998 2a3d 6dd9 e7bb e9eb afbc 3618 e33c
00000300: 8f9e 953d f779 07bc 7d9e 6fbd 3eb9 cc3c
00000310: 7b5d 673d 5a38 16be d79e 803c 6115 943d
00000320: 7273 3c3d 3b58 4c3d efda bb3d ea2c 093d
00000330: 20e8 b3ba fcb8 13bd 0ed7 c23b 9184 8ebc
00000340: e1e6 adbc c939 9a3c b532 1d3d 4f37 bdbd
00000350: 9f0f 00bd 216a f53c 08ab e13c d1bf 663c
00000360: ab82 afbd f41c 5fba b23f 93bc 8aaf 31bd
00000370: 0434 223d 99cf d7bd 3245 39bd e203 8c3b
00000380: bd1f 0f3d 6f96 bcbc ab8d 3f3d e773 563d
00000390: 3975 2a3c cc04 293c 5b4a 9cbd 3720 0abd
000003a0: 6c11 143d 5072 643b 60b7 b6bc 2861 58bd
000003b0: f9a3 54bd 244c 1a3c 1f83 25bc c77b 23bc
000003c0: ee05 ab3a efea f73c 27d3 99bd 7559 973d
000003d0: 9152 123a 1ee1 55bd 1304 9b3b 2948 a23d
000003e0: 8e6d 883c 60ba 4abd 416d 6abc e78f f8bc
000003f0: add1 2cbc d6c0 e53c 1640 d2bd 38f9 1abd
0.019080136 0.04128362 0.055874016 -0.009485408 -0.030707376 0.06694164 -0.10075413 0.03067311
-0.00022519368 -0.08757115 0.028510403 -0.026163979 -0.03374601 -0.02244757 0.008286317 -0.03513689
0.028324327 -0.13550393 0.037202854 0.02976012 -0.0063954056 0.04378072 0.020626519 -0.028987234
-0.048365973 -0.02512675 -0.016068354 0.042892464 -0.0096009215 -0.077136524 0.00832468 -0.02287187
-0.050845977 -0.020612119 -0.046064265 0.062321633 -0.014023261 -0.0450326 -0.06612693 0.046209104
0.08172049 -0.09922186 -0.06725045 0.012686602 0.01969952 -0.056188446 -0.014760994 -0.04598152
0.07169387 0.061961997 -0.015530401 0.033208903 0.011457688 -0.057099644 0.06366613 -0.0013276117
0.031225853 -0.062054932 0.069929674 0.035169546 -0.013605094 -0.00594881 0.07686279 -0.05365327
0.046223074 -0.026798246 0.046926606 0.05137879 0.033604093 0.041825317 -0.014006817 -0.05057555
-0.05015145 -0.014914407 0.023323672 0.0121459225 -0.029867135 -0.027108127 -0.006929252 -0.040519528
0.0026524127 -0.11011072 0.035043586 0.02946854 0.054730926 0.01491733 0.0034841327 0.057675187
-0.024049686 -0.039837368 0.043581307 -0.046903737 -0.024018927 -0.025898963 -0.007610428 0.037117023
-0.07471789 -0.0018578119 -0.04771577 -0.009757126 0.001602133 -0.0068704635 -0.0075282883 0.03225711
-0.008346096 0.026182193 -0.02832364 0.064857274 0.06160636 0.0405722 -0.081807345 0.0013212386
0.039656363 -0.005629254 -0.05751343 -0.057048816 -0.0013677329 0.040985025 -0.033558358 -0.021714855
0.074802436 0.02381921 -0.05609571 0.071133755 -0.052504774 0.021022258 -0.021205286 0.014740202
-0.055065848 -0.024672812 0.0141796265 0.024945334 0.016722905 0.07563188 0.041175473 0.04360417
-0.05453034 -0.100073375 0.11417755 -0.012135345 0.05929632 -0.037755035 -0.006303719 -0.036817957
0.03167231 -0.019559748 -0.025149925 -0.062724926 0.08412639 -0.034749918 -0.077025294 0.05670899
0.074046746 0.0059978976 0.10518095 0.020414604 0.06490351 0.0247966 0.032055546 -0.12111867
-0.026536541 0.081822805 -0.09592972 -0.038244534 -0.08212733 -0.026320813 0.01949183 -0.025901202
-0.041848183 0.020683354 -0.08551089 0.042038985 -0.038722992 0.03791538 -0.06974724 -0.020231362
-0.02165143 0.06040016 -0.11643321 0.005766951 -0.00258831 -0.053479645 -4.7468755e-05 -0.047657534
-0.019295903 0.02100114 0.06110971 -0.0030460805 0.041648958 -0.0070754797 -0.021474795 0.027721506
0.07305633 -0.008268825 -0.058500756 0.024990674 0.056485634 -0.14669934 0.01570074 0.0723064
0.046008535 0.04988883 0.09172618 0.0334901 -0.0013725795 -0.036065087 0.0059460467 -0.017397197
-0.021228256 0.018826382 0.038378436 -0.09239065 -0.031264897 0.029957833 0.027547374 0.0140838185
-0.08569845 -0.0008511089 -0.017974708 -0.043380298 0.039600387 -0.10537643 -0.045232005 0.004272924
0.034942377 -0.023020951 0.046765964 0.052356627 0.010403925 0.010316085 -0.0763137 -0.03372213
0.036149427 0.0034858175 -0.022304237 -0.05282703 -0.05191419 0.009417567 -0.0101020625 -0.009978241
0.0013048032 0.030263392 -0.07510977 0.073901094 0.00055817614 -0.05221664 0.0047307103 0.0792392
0.016653802 -0.049494147 -0.014308275 -0.030342055 -0.0105480375 0.028046053 -0.1026613 -0.03783533

fc2.bias f4 [300]
00000000: ebc7 d03c f5a2 0a3c c8ce 4a3d 53c3 b83c
00000010: 4e3e 193c b5fe c33c 0910 823b 8213 21bd
00000020: 4900 293d a9a2 ce3b 7334 77bc a418 3fbd
00000030: fed1 403d 420e 0dbd a452 58bc 18e8 e73c
00000040: 6588 1dbd 1c19 16bd 2435 ed3c 7044 17bd
00000050: 9054 3e3c 53fe 17bd be9d 08bc ddb0 fb3c
00000060: 0c79 27bd e507 44bd 4ccc 0fbd e625 bbbc
00000070: 1dd9 a1bb 32d3 3bbb 0c2b 30bd 88b3 33bd
00000080: 8fbb 1bbd f6e7 17bd 7d0f 58bc 6b8d edbb
00000090: 4d58 3dbc 36f5 32bd 66b0 86bc 4587 173d
000000a0: 405f d739 dc18 2e3d 98b4 283d 5d41 453b
000000b0: e626 b23c 70b1 623c 4ee0 293d 4c74 343d
000000c0: 880b 26bd e6d0 5f3c 4fd0 a2bc 89bf 80bc
000000d0: 6d68 113d 1330 fdbc 57bf 4bbc 610b 143d
000000e0: 4c15 1ebd 263f 93bc 9185 3bbd 8128 2f3d
000000f0: e58c a93c 9dcd e03b f327 24bd fe22 193d
00000100: 1ee3 373d c5f7 36bd d82d 253d 0f20 9b3c
00000110: 4d63 00bc 497d 28bc 96f6 df3c fbf4 0a3d
00000120: 52a9 dfbc fb89 83bc 16c9 9c3c da2a be3c
00000130: 6035 5ebc d640 cbbb 90af eb3b d198 69bc
00000140: 67d0 243c fd44 073c 4b1b 323c 2de2 223d
00000150: c523 b3bc 1b59 c1bc 3c96 d13c 4264 343d
00000160: d7a2 123d 6882 813c b1b8 7f3c 07e3 18bc
00000170: e2e0 f9bc 4d0b 393b 52e9 0d3d 0f18 14bd
00000180: e522 ce3b e240 e43a abfa 88bc 3536 36bd
00000190: 0b68 54bc 15c8 953c 5fdf b8bc d711 ab3c
000001a0: 8b08 a4bb 3f01 11bd b7b6 08bb 12f9 12bd
000001b0: c75d 2abd 6a6b 14bd de1c 2f3c 946a d5bc
000001c0: 7a2e 07bd 3b15 43bc bf08 27bd 9b4f f3bc
000001d0: a044 27bd 080c 013d 0376 f53c 7ab7 283d
000001e0: 9c5a 8a3c 44f7 b0bc 4fc4 533b d158 193d
000001f0: 6664 a7bb 699f 13bd d9bb 14bb 5754 7e3c
00000200: 0eeb 353d 7bbf 343d eb0d febc e233 3abd
00000210: f471 a4bc cd46 413c 1794 a23b fa04 a5bc
00000220: 0a9a 733b 76b3 9fbc 5854 bd3c 4155 313d
00000230: ef35 6a3c e6d0 71bb f197 3f3d 7de4 193d
00000240: fae4 553b 12e9 9cba 6a68 a7bc 9015 4f3b
00000250: 470a ce3a 2b63 b63c c3a2 1d3d d21a e83c
00000260: 8e12 db3c cc5a b6bc 46d6 0dbd 6855 423d
00000270: a8f0 98bc 4676 fb3c 6beb 80bc 5973 24bd
00000280: 625e 0abd 283f b5bc ddf2 953c 35d5 5fbc
00000290: 40b2 76bc 7992 ad3c de71 acbc 7d37 353d
000002a0: 684b e9bc e022 303d d841 3c3d 4102 1c3d
000002b0: 1b94 a7bc d5ce a73a 4469 e13c ba81 0a3d
000002c0: 51da 1dbd 4ecb 0cbd 7691 07bb 067b 753a
000002d0: 0359 d7bc 6299 8b3c 020f 633c 2942 c4bc
000002e0: 895d 9f3c c71d 74bc f8d8 e63c 38c8 9dbb
000002f0: c63d 2bbd fa12 323d 1a3c 4ebc ee6e 483b
00000300: 8e83 6a3c 8f30 ed3c 261a 9a3c a162 3fbc
00000310: f344 91bc 0633 9f3c 2665 3bbd 978a 063c
00000320: aa95 39bc a949 07bd 2ff8 93bc 3360 80bb
00000330: 9a1b 3ebd f02f 2dbc 0531 bdbb 70de d73c
00000340: 1465 013d b2ff cabc c500 9ebc d16c ae3c
00000350: 3a93 91bc 8499 173c 52d3 22bd dd34 36bd
00000360: d77d 03bc 36df 9b3b 88e6 353c 3fe3 a2bc
00000370: 2876 a5bb 261f 373d aafd 383d 56ad c53c
00000380: 8286 b03c d09b 143d 15b8 183d 0abc cf3b
00000390: 4e08 163d fcf5 0dbd 3db1 283d 8162 323d
000003a0: 5ab7 ae3b 5ad1 b7bc 106e b63c deff 643b
000003b0: 9d07 a7bc 90a8 eb3c 0a8f f0bc 8079 65bc
000003c0: 9d78 94bc 96de 4dbc 5946 8abb 5d0e 42bd
000003d0: 8664 0f3d d8c1 49bc 9c19 2a3d 2dbb 113c
000003e0: 60b4 903c d358 8cbc 52f4 f53c 1f99 1ebd
000003f0: 85d0 f3bc 2e21 17bd 1fe1 12bd a269 b53c
0.025485953 0.008461704 0.04951361 0.022554075 0.0093532335 0.023925165 0.0039691967 -0.039325245
0.041260038 0.0063060117 -0.015088188 -0.04665436 0.047075264 -0.034437425 -0.013203297 0.028308913
-0.038460154 -0.03664504 0.028956003 -0.0369305 0.011616841 -0.037107777 -0.00833839 0.030723983
-0.040886924 -0.04785909 -0.035106942 -0.02284522 -0.004939212 -0.0028659818 -0.043009803 -0.043872386
-0.038020667 -0.03708645 -0.013187286 -0.0072495244 -0.011556697 -0.043690883 -0.016441535 0.036994237
0.00041078962 0.042504176 0.041187853 0.0030098774 0.021747064 0.01383625 0.04147368 0.04405622
-0.04053834 0.013660645 -0.01987472 -0.015716331 0.03549998 -0.030906713 -0.012435756 0.036143664
-0.03859453 -0.017974447 -0.045781676 0.042763237 0.020697067 0.0068604485 -0.04007716 0.037386887
0.04489433 -0.044669885 0.040326923 0.018936185 -0.007836175 -0.010283777 0.027339261 0.033925038
-0.027302418 -0.016057005 0.019138854 0.023213793 -0.01356253 -0.0062027974 0.0071925595 -0.014257626
0.010059453 0.008256194 0.010870765 0.03976648 -0.021867642 -0.02360206 0.025584333 0.044040926
0.035799827 0.015809253 0.015607999 -0.009331471 -0.03050274 0.0028235496 0.03464634 -0.036155757
0.006290781 0.0017414356 -0.01672109 -0.04448529 -0.012964259 0.018283883 -0.02256745 0.02088253
-0.005005901 -0.03540158 -0.002086086 -0.035882063 -0.04159334 -0.03623525 0.010688035 -0.026051797
-0.033003308 -0.011906917 -0.040779825 -0.029701045 -0.04083693 0.031505615 0.029963499 0.041190602
0.016888909 -0.02160228 0.0032313054 0.037438218 -0.005108404 -0.036040697 -0.0022694974 0.015523038
0.04441362 0.044127923 -0.031012496 -0.045459636 -0.020073868 0.011796665 0.0049615013 -0.020143975
0.0037170672 -0.019494753 0.023111507 0.043294195 0.014295085 -0.0036898195 0.046775762 0.03757142
0.0032637701 -0.0011971316 -0.02043553 0.0031598546 0.0015719616 0.022264084 0.0384853 0.028333101
0.026742246 -0.022260092 -0.034628175 0.04744473 -0.018669441 0.030696046 -0.015737256 -0.040149067
-0.033781417 -0.022124842 0.018304283 -0.013661672 -0.015057147 0.021188008 -0.02105039 0.04424237
-0.02847834 0.04300201 0.04596123 0.038088087 -0.020456364 0.001280273 0.027516015 0.033815123
-0.03853828 -0.034373574 -0.0020686067 0.000936434 -0.026287561 0.017040912 0.013858559 -0.023957329
0.01945378 -0.014899678 0.02817963 -0.0048151277 -0.04180696 0.04347513 -0.0125875715 0.0030583697
0.014313592 0.028953819 0.018811297 -0.01168123 -0.017733073 0.01943351 -0.04575076 0.008211753
-0.011327187 -0.033029232 -0.01806268 -0.003917718 -0.04641304 -0.010570511 -0.005773666 0.026351184
0.031590536 -0.024780128 -0.019287476 0.021292122 -0.017770398 0.00925291 -0.039752312 -0.044484008
-0.008025608 0.0047568334 0.011102326 -0.01988375 -0.0050494857 0.04470744 0.045163788 0.024130505
0.021548513 0.036281407 0.03728493 0.0063395547 0.036629014 -0.034658417 0.041184653 0.043550972
0.005331916 -0.022438694 0.022269279 0.0034942548 -0.020389372 0.0287669 -0.029365081 -0.014006019
-0.01812392 -0.012565276 -0.004219812 -0.04737698 0.035007976 -0.012314282 0.04152833 0.008894724
0.017664135 -0.017132198 0.030023728 -0.038720246 -0.029762516 -0.036896877 -0.035859223 0.022145096
