agent_checkpoints/checkpoint_actor_12.pth (torch_old, 553585 bytes, 14 tensors)

fc1.weight f4 [400, 33]
-0.0014701916 0.022715433 0.02440601 -0.025514733 0.034312412 0.03150277 0.017358912 -0.016482377
-0.012328797 0.003906192 0.041093558 -0.013415843 0.02009963 -0.029177446 0.00704249 0.04721192
0.013190599 0.00026933686 -0.015111462 -0.012089265 0.0056652357 -0.010224021 -0.02732357 -0.048271034
0.00067348586 0.040236097 -0.014180858 0.03112372 0.031457603 -0.017779917 -0.056542274 -0.037763707
-0.056886263 0.055227 0.053953506 -0.013810917 0.02152268 -0.021149516 -0.049433224 0.03458431
0.008049237 -0.0026758662 -0.043408517 -0.02387132 0.031354852 -0.040115163 0.039489094 0.031448405
0.021146169 0.01119411 0.035901327 -0.04001542 0.008787234 -0.05594011 -0.001721193 0.009419824
0.03328967 -0.0064407475 -0.048295714 0.04628726 0.0012092558 -0.016358698 -0.03555418 0.021426491
0.044388723 0.056968935 0.016193148 0.013294495 -0.015421103 0.02868637 0.0130140865 0.036044233
-0.021844257 0.032387123 -0.049241364 0.034731742 -0.04468619 0.0010151516 -0.012589668 -0.041388437
-0.017063245 0.05491233 0.035570234 0.02107054 -0.03177968 -0.051716484 -0.03163513 -0.0076950323
0.027299592 -0.044513784 0.00032567573 0.045395657 -0.058975615 -0.010482527 0.020971915 0.033756945
0.006145686 0.027050558 -0.004708388 0.0622469 -0.0402799 -0.045674972 0.029932665 -0.017255085
-0.062150363 -0.0094486885 0.04454306 -0.03258166 -0.014281285 0.042405743 0.022685412 -0.030363396
0.018826844 0.01047247 0.03132945 0.000931809 -0.016015172 -0.02009612 -0.031865127 0.025055299
-0.011692679 0.009465244 0.045438953 -0.038001142 -0.026967334 0.03568661 0.031256113 -0.055287834
0.0107724555 0.018904766 -0.020305736 -0.0013231284 0.05473766 0.05494966 0.04609685 -0.033003867
0.0016102826 -0.03607645 0.021400858 0.012489804 0.044230636 -0.036954693 -0.05426718 0.03680418
0.06255808 0.055854205 0.051734217 0.045447316 0.04043795 0.04785343 0.05622938 0.041803237
0.030000402 0.006923942 -0.033086896 0.019977434 0.0013951464 0.027099453 0.02929125 -0.0046572965
0.03234791 0.04527111 -0.04270848 -0.04922227 -0.026949137 0.020260008 -0.045348067 0.03291548
-0.020562416 -0.02871762 0.03398108 -0.04987546 -0.026009673 -0.03315748 -0.0051065115 -0.050660532
0.0062561184 0.039909877 0.062299028 -0.04335106 -0.020051757 -0.021881197 0.055510584 0.036795095
-0.03352003 0.06389691 -0.016696652 0.033447836 0.017904378 0.025682135 0.004298228 -0.031292677
-0.07723656 0.03682248 -0.031988695 0.06265934 0.03160048 -0.031940315 -0.017412778 -0.048818063
-0.024218764 -0.05169255 -0.032170266 -0.010828896 -0.0112984525 0.046437815 -0.03390559 -0.03335679
0.013148736 0.0057120193 0.06490575 -0.0077099237 0.036389187 0.04307784 0.0398132 -0.02355718
0.021614814 -0.044005375 -0.0027818875 -0.019259425 0.05553165 -0.062754594 0.039539393 0.03284988
-0.05595713 0.016646976 -0.006775753 0.020515297 -0.027793974 0.009157725 -0.031395204 0.038542207
0.03870419 -0.0274474 -0.006807507 0.0054374645 0.01380869 0.0006285568 0.006642113 -0.0103454925
0.016818492 0.025224812 0.04098569 -0.013594942 -0.038258076 -0.016696539 -0.027122268 -0.0021896344
-0.020682342 -0.02595714 -0.05357574 -0.019976478 -0.026997324 0.038751893 0.029536657 -0.006480813
00000000: 72b3 c0ba b715 ba3c 1def c73c 4604 d1bc
00000010: 2c8b 0c3d 0c09 013d 4734 8e3c 0d06 87bc
00000020: b9fe 49bc 07ff 7f3b b851 283d 20ce 5bbc
00000030: fba7 a43c 8a05 efbc b0c4 e63b 4961 413d
00000040: 621d 583c c835 8d39 1196 77bc 0d12 46bc
00000050: 71a3 b93b a782 27bc aed5 dfbc d9b7 45bd
00000060: df8c 303a 9bce 243d d456 68bc 2cf7 fe3c
00000070: b0d9 003d 30a7 91bc df98 67bd 1eae 1abd
00000080: 9201 69bd b535 623d 5afe 5c3d 2f47 62bc
00000090: 5550 b03c c041 adbc 7e7a 4abd 47a8 0d3d
000000a0: f2e0 033c 965d 2fbb 21cd 31bd c98d c3bc
000000b0: f26d 003d cc4f 24bd 51bf 213d 0bd0 003d
000000c0: bb3a ad3c 8067 373c 450d 133d 36e7 23bd
000000d0: 55f8 0f3c 7521 65bd a799 e1ba 9b55 1a3c
000000e0: c05a 083d e80c d3bb bad1 45bd b697 3d3d
000000f0: e47f 9e3a ad02 86bc 43a1 11bd 9c86 af3c
00000100: f3d0 353d 4258 693d 7ea7 843c 27d1 593c
00000110: cba8 7cbc aeff ea3c 0939 553c 1ea3 133d
00000120: baf2 b2bc 5ca8 043d 50b1 49bd df42 0e3d
00000130: de08 37bd d60e 853a e544 4ebc ec86 29bd
00000140: 38c8 8bbc c0eb 603d 18b2 113d 209c ac3c
00000150: 692b 02bd aad4 53bd d793 01bd 9c26 fcbb
00000160: 65a3 df3c 1654 36bd 75bf aa39 ccf0 393d
00000170: 6a90 71bd e8be 2bbc 4bcd ab3c b944 0a3d
00000180: c061 c93b 2299 dd3c d248 9abb 9bf6 7e3d
00000190: 89fc 24bd ae15 3bbd 5935 f53c 895a 8dbc
000001a0: 6191 7ebd acce 1abc c972 363d 5974 05bd
000001b0: 0dfc 69bc a5b1 2d3d c2d6 b93c a8bc f8bc
000001c0: c13a 9a3c b994 2b3c 4f53 003d a544 743a
000001d0: 4032 83bc 9ea0 a4bc 0285 02bd c540 cd3c
000001e0: a692 3fbc 1c14 1b3c 321e 3a3d 16a7 1bbd
000001f0: 99ea dcbc 1f2c 123d 6906 003d 7f75 62bd
00000200: f47e 303c 2bde 9a3c 3758 a6bc d26c adba
00000210: 9934 603d e512 613d 0dd0 3c3d 102f 07bd
00000220: 1e10 d33a e6c4 13bd da50 af3c 09a2 4c3c
00000230: 2f2b 353d ce5d 17bd 4347 5ebd fbbf 163d
00000240: 731e 803d 61c7 643d 42e7 533d f726 3a3d
00000250: 44a2 253d f501 443d c750 663d df39 2b3d
00000260: 67c3 f53c 3ce2 e23b 2086 07bd b7a7 a33c
00000270: 58dd b63a acff dd3c 34f4 ef3c 3c9c 98bb
00000280: 3e7f 043d 336e 393d 16ef 2ebd 4a9d 49bd
00000290: 70c4 dcbc 51f8 a53c e5be 39bd 62d2 063d
000002a0: 8372 a8bc 3741 ebbc bf2f 0b3d 364a 4cbd
000002b0: 3d12 d5bc 23d0 07bd 8654 a7bb 6b81 4fbd
000002c0: 2000 cd3b 8a78 233d 442d 7f3d e290 31bd
000002d0: 9543 a4bc 3240 b3bc 115f 633d 74b6 163d
000002e0: 4d4c 09bd 62dc 823d 6bc7 88bc 9900 093d
000002f0: 34ac 923c 5763 d23c 26d8 8c3b c02c 00bd
00000300: 342e 9ebd 2bd3 163d 9406 03bd 8a53 803d
00000310: 816f 013d d9d3 02bd 3ea5 8ebc 73f5 47bd
00000320: 6e66 c6bc 91bb 53bd f8c4 03bd af6b 31bc
00000330: 251d 39bc 9435 3e3d 97e0 0abd 21a1 08bd
00000340: cc6d 573c e42b bb3b 4eed 843d 87a3 fcbb
00000350: d40c 153d 6472 303d 2a13 233d fdfa c0bc
00000360: 8d11 b13c fb3e 34bd 5450 36bb f1c5 9dbc
00000370: 2875 633d 7b85 80bd 0ff4 213d 998d 063d
00000380: 4e33 65bd 3d5f 883c 2307 debb b20f a83c
00000390: 30b0 e3bc 480a 163c 4298 00bd 6fde 1d3d
000003a0: 4988 1e3d 5fd9 e0bc 8211 dfbb c22c b23b
000003b0: d83d 623c bcc5 243a 15a6 d93b 2480 29bc
000003c0: efc6 893c 44a4 ce3c 9ce0 273d 52bd 5ebc
000003d0: 80b4 1cbd 2ec7 88bc 852f debc f87f 0fbb
000003e0: 046e a9bc 11a4 d4bc 3c72 5bbd b6a5 a3bc
000003f0: 7e29 ddbc 4eba 1e3d dcf6 f13c 005d d4bb

fc1.bias f4 [400]
-0.1415369 0.13269472 -0.11805011 -0.093685105 -0.1076236 0.109245144 0.08335513 0.031279135
-0.1266104 0.052756067 -0.10842725 0.040969815 -0.0666166 0.021415347 -0.079750076 0.1469158
-0.04469544 0.16013256 -0.038412385 -0.08255299 0.10097584 -0.048735697 -0.014902571 -0.11005709
0.1424104 -0.10512068 0.15152356 0.118474014 0.057287924 -0.04561734 0.14831042 0.045292087
0.16764657 -0.079676166 0.15480144 0.06298348 0.14199446 0.00090170105 0.1414886 0.2014297
0.03467934 0.06150095 -0.13379577 0.011721862 -0.11997069 0.19662952 0.13952924 0.08368291
-0.03608553 0.080763236 0.15851025 -0.027563076 0.07945815 -0.008728336 -0.03708246 0.17715727
-0.12850726 -0.010896945 0.052809216 0.14103913 -0.053290837 0.09946523 -0.05586388 -0.05431478
0.11904221 -0.12091842 0.08460737 0.10154121 -0.14882596 -0.039341755 0.074921966 -0.059534624
-0.09331362 -0.06334786 0.00036120132 0.15996253 -0.010318609 0.06363085 0.15633509 0.012830138
-0.05821855 -0.06493023 0.08331319 -0.12236545 -0.0060211895 0.038894676 -0.07259336 -0.145976
0.15437171 -0.13739035 0.12836356 -0.028635804 -0.003189036 -0.13555221 0.075577915 0.110813335
0.1444081 -0.011457395 -0.14396457 0.14354326 -0.0007447788 0.08333582 0.0042949766 0.009760429
-0.07153656 0.020282233 0.12732062 -0.09159872 -0.06563872 0.19570448 -0.1209417 0.09177009
0.0074909297 0.16720404 0.19483827 -0.050342668 -0.0999679 0.17346819 -0.16104278 0.19471195
-0.07617028 -0.0043064086 0.061407275 -0.1433555 -0.16208118 -0.02635352 -0.0015456604 0.14574066
0.15461977 -0.040532712 0.14533933 -0.047708962 -0.09450108 0.021828918 0.0728441 -0.009766223
-0.05048098 -0.13720566 0.03342019 0.018136472 -0.04388422 0.16671985 0.094622895 0.18773551
0.019742778 0.10545012 0.15804915 0.18264796 0.11885214 0.16019022 -0.14523032 0.06871594
-0.0596211 -0.08694841 0.16117302 0.07759967 -0.0010782717 -0.117937125 0.026600566 -0.16363166
-0.13237558 -0.06533427 0.12480602 0.00982524 0.12631474 -0.044788744 0.09971135 0.0032478077
0.18156871 0.011503634 -0.055445638 -0.11948739 0.02962308 -0.1314277 0.11235272 -0.11641186
-0.0050465837 -0.11403494 0.1741921 -0.009960409 -0.07208375 -0.021056626 -0.146187 0.0013254447
-0.13974732 -0.039131355 0.1103911 0.06554998 0.04188099 0.081429005 -0.09328068 0.027315892
-0.031115754 0.17922392 0.10966321 0.17866592 -0.050160646 -0.028804388 0.07044224 -0.05718223
0.18805324 0.057247777 0.15292366 0.12482208 0.11303936 0.032224394 0.14988676 0.09043647
0.034642313 0.036478445 -0.09988563 0.10838532 -0.06296015 -0.09588603 -0.06144601 0.0026926138
-0.0021926824 0.08540777 -0.13715939 0.10325403 0.16558595 0.057261564 0.12812625 -0.08374203
0.014632636 0.05626934 0.109438755 0.19147411 -0.10894093 0.1594493 0.023187188 0.11969492
0.009447621 -0.11760068 -0.16279852 -0.030025834 0.019650979 -0.016907739 0.1888809 0.11687672
-0.05439998 -0.13334319 0.13789894 -0.06493151 -0.10927451 -0.10399977 -0.09072921 -0.1392811
0.17233315 0.032693814 0.05375832 -0.0853424 -0.073216505 0.018400889 0.14093977 0.04061302
00000000: 0def 10be 20e1 073e 42c4 f1bd fadd bfbd
00000010: c369 dcbd ebbb df3d 18b6 aa3d 8d1e 003d
00000020: 28a6 01be bf16 583d 1b0f debd f7cf 273d
00000030: 496e 88bd 3d6f af3c 0254 a3bd 1871 163e
00000040: 9112 37bd caf9 233e 4e56 1dbd 8b11 a9bd
00000050: 6ccc ce3d 159f 47bd ea29 74bc 9d65 e1bd
00000060: 08d4 113e 8349 d7bd fe28 1b3e 81a2 f23d
00000070: bea6 6a3d 3fd9 3abd b0de 173e 3284 393d
00000080: 8bab 2b3e 422d a3bd 4584 1e3e 7cfd 803d
00000090: ff66 113e 2260 6c3a 63e2 103e 9643 4e3e
000000a0: ec0b 0e3d 6ce8 7b3d c201 09be 0d0d 403c
000000b0: 31b3 f5bd 4059 493e c1e0 0e3e f261 ab3d
000000c0: 6cce 13bd 3267 a53d 8350 223e f6cb e1bc
000000d0: f4ba a23d 4b01 0fbc c7e3 17bd b768 353e
000000e0: 6897 03be 1a89 32bc 7a4e 583d 906c 103e
000000f0: 7e47 5abd 6db4 cb3d 86d1 64bd 2d79 5ebd
00000100: 67cc f33d 14a4 f7bd a146 ad3d d7f4 cf3d
00000110: d565 18be d224 21bd b070 993d 94da 73bd
00000120: 361b bfbd 86bc 81bd 9f5f bd39 38cd 233e
00000130: 620f 29bc e450 823d 4e16 203e 8035 523c
00000140: 9376 6ebd 24fa 84bd 1ba0 aa3d bd9a fabd
00000150: 664d c5bb 0650 1f3d d4ab 94bd bc7a 15be
00000160: 9e13 1e3e 0eb0 0cbe bd71 033e a295 eabc
00000170: 25ff 50bb 33ce 0abe 98c8 9a3d 1af2 e23d
00000180: b8df 133e ccb7 3bbc 736b 13be 01fd 123e
00000190: 423d 43ba f8ab aa3d e0bc 8c3b 35ea 1f3c
000001a0: c381 92bd ed26 a63c 5660 023e 1c98 bbbd
000001b0: 986d 86bd c166 483e 48b0 f7bd f5f1 bb3d
000001c0: 7976 f53b 8937 2b3e af83 473e 1d34 4ebd
000001d0: f8bb ccbd a5a1 313e 66e8 24be 9262 473e
000001e0: 2aff 9bbd c61c 8dbb 3286 7b3d c9cb 12be
000001f0: 9cf8 25be 56e3 d7bc c297 caba 0a3d 153e
00000200: a554 1e3e a105 26bd d5d3 143e 796a 43bd
00000210: c889 c1bd 8fd2 b23c 4a2f 953d 8202 20bc
00000220: 25c5 4ebd a47f 0cbe 9ce3 083d f092 943c
00000230: f1bf 33bd 9cb8 2a3e a6c9 c13d bd3d 403e
00000240: 9bbb a13c 3cf6 d73d a3d7 213e 1108 3b3e
00000250: c068 f33d e808 243e 42b7 14be f1ba 8c3d
00000260: 4135 74bd 0212 b2bd 8a0a 253e 93ec 9e3d
00000270: cb54 8dba 0589 f1bd 6ee9 d93c 0f8f 27be
00000280: 778d 07be f9cd 85bd 4c9a ff3d 0bfa 203c
00000290: a758 013e 6774 37bd 7735 cc3d 2cd9 543b
000002a0: 26ed 393e bd79 3c3c f71a 63bd ceb5 f4bd
000002b0: 1aac f23c fc94 06be 2f19 e63d 5769 eebd
000002c0: d05d a5bb 278b e9bd 6a5f 323e fc30 23bc
000002d0: a5a0 93bd f27e acbc 0cb2 15be 8bba ad3a
000002e0: ec19 0fbe 3348 20bd bb14 e23d 113f 863d
000002f0: 678b 2b3d 40c4 a63d f109 bfbd 94c5 df3c
00000300: 77e6 febc 7a86 373e 1b97 e03d 33f4 363e
00000310: 4075 4dbd 2ef7 ebbc 0544 903d ea37 6abd
00000320: 0791 403e a57c 6a3d 0598 1c3e b8a2 ff3d
00000330: 2e81 e73d bafd 033d ea7b 193e c236 b93d
00000340: 19e5 0d3d 6c6a 153d d690 ccbd 1ff9 dd3d
00000350: 40f1 80bd e55f c4bd d0ae 7bbd 9076 303b
00000360: 1bb3 0fbb 45ea ae3d 8373 0cbe d976 d33d
00000370: 5d8f 293e 1a8b 6a3d 8733 033e f180 abbd
00000380: b9bd 6f3c ae7a 663d 6d21 e03d ca11 443e
00000390: 6c1c dfbd ad46 233e 0ff3 bd3c 9c22 f53d
000003a0: 32ca 1a3c a0d8 f0bd a8b4 26be bdf8 f5bc
000003b0: 17fb a03c 1982 8abc ff69 413e 105d ef3d
000003c0: 83d2 5ebd 1e8b 08be 6135 0d3e d0fa 84bd
000003d0: 50cb dfbd d5fd d4bd 3cd0 b9bd b49f 0ebe
000003e0: 1a78 303e f3e9 053d af31 5c3d ffc7 aebd
000003f0: 89f2 95bd 76bd 963c 8452 103e d759 263d

fc1_bn.weight f4 [400]
0.408081 0.60917765 0.47323918 0.65767956 0.18847167 0.5343967 0.15634328 0.1079967
0.13974446 0.88444906 0.21873766 0.41393375 0.5863085 0.31783462 0.936503 0.5901356
0.20946616 0.011458755 0.5708689 0.4944629 0.45826656 0.80479753 0.4369676 0.18992889
0.9410099 0.26561838 0.5835147 0.86863893 0.4290877 0.8015692 0.38454014 0.8141671
0.4876486 0.57809436 0.023847342 0.7058197 0.46370012 0.9258014 0.57046837 0.19130427
0.40527922 0.17702627 0.6730399 0.8180804 0.81429964 0.68632716 0.6720302 0.47016752
0.5266615 0.26611102 0.5516187 0.6997351 0.55131876 0.24174011 0.62900686 0.083054304
0.6446531 0.34823078 0.05021435 0.09183228 0.09148902 0.121780574 0.70855325 0.026230156
0.18042582 0.38156754 0.9845013 0.33771962 0.09531003 0.40487677 0.08728492 0.619015
0.34791613 0.113886654 0.9838111 0.5536851 0.3092518 0.743078 0.25577378 0.1159125
0.7218508 0.27616763 0.61903083 0.3569454 0.19280368 0.25575638 0.08883494 0.3926525
0.78875756 0.70293033 0.38637108 0.37071162 0.9608645 0.94965965 0.35681087 0.77554715
0.27967584 0.47919786 0.47522044 0.061730266 0.21146023 0.05810368 0.056090593 0.3344648
0.7073232 0.67231745 0.32912874 0.26551354 0.9225835 0.6076216 0.29307657 0.86162376
0.25846398 0.42682368 0.60555977 0.15619844 0.21415365 0.21010154 0.97337437 0.8032869
0.80939025 0.16848463 0.7716111 0.71060365 0.28124028 0.20724183 0.8364624 0.75695777
1.3113022e-06 0.28021234 0.31168717 0.6189044 0.6070315 0.09192884 0.83264154 0.13427037
0.12319732 0.13847 0.023733974 0.22436696 0.4244119 0.05317056 0.3099866 0.808175
0.8739152 0.101307094 0.4432673 0.0181849 0.050552547 0.7895189 0.9270055 0.34348464
0.94594705 0.19179946 0.37880224 0.5756718 0.71907276 0.22297883 0.10332501 0.17504609
0.83028626 0.4162349 0.09579265 0.573766 0.67082196 0.012161791 0.4599787 0.49644196
0.44934392 0.68357784 0.48903543 0.8889418 0.7288993 0.39463913 0.90605867 0.6639406
0.8927753 0.5985522 0.45594174 0.4217586 0.046921432 0.6277759 0.6195204 0.23578501
0.62986 0.8343429 0.91264427 0.50225306 0.44964403 0.44051272 0.06218022 0.72095513
0.29451972 0.6875962 0.17104805 0.2165134 0.8268461 0.3166808 0.80356735 0.8717224
0.6243254 0.9853442 0.012530088 0.38145977 0.18646473 0.9526948 0.09292078 0.27707314
0.01842904 0.07349795 0.4208941 0.19861758 0.06401837 0.0365358 0.15427285 0.2564627
0.29018635 0.025987983 0.7628743 0.38291085 0.86982644 0.22469747 0.90101695 0.8710314
0.11762804 0.038031936 0.05909592 0.1804418 0.65370864 0.076967895 0.15149635 0.6228046
0.4213698 0.86925596 0.75909203 0.5831648 0.13286155 0.7342524 0.014451265 0.0056635737
0.46024448 0.2920419 0.047037363 0.08565307 0.5349932 0.4106282 0.20127761 0.3381495
0.88937616 0.6014009 0.10162383 0.38377404 0.8397123 0.5965557 0.3435778 0.7987387
00000000: feef d03e 11f3 1b3f 684c f23e b05d 283f
00000010: b8fe 403e 39ce 083f 7418 203e 602d dd3d
00000020: 2c19 0f3e 416b 623f c4fc 5f3e 20ef d33e
00000030: 5018 163f 38bb a23e a9be 6f3f 2013 173f
00000040: 4c7e 563e 80bd 3b3c 7724 123f 3e2a fd3e
00000050: eaa1 ea3e 3607 4e3f 38ba df3e b87c 423e
00000060: 06e6 703f 22ff 873e 3861 153f 1f5f 5e3f
00000070: 62b1 db3e a433 4d3f 72e2 c43e 416d 503f
00000080: 14ad f93e fefd 133f 805b c33c 9ab0 343f
00000090: 1a6a ed3e 5201 6d3f 370a 123f 44e5 433e
000000a0: c280 cf3e 6046 353e 584c 2c3f b86d 513f
000000b0: f175 503f 23b3 2f3f 2c0a 2c3f ccb9 f03e
000000c0: 4ad3 063f b43f 883e e236 0d3f d721 333f
000000d0: 3a23 0d3f b88a 773e 9806 213f 6018 aa3d
000000e0: fc07 253f 4e4b b23e 90ad 4d3d 9012 bc3d
000000f0: 985e bb3d 1868 f93d bf63 353f a0e0 d63c
00000100: 8cc1 383e d25c c33e 4708 7c3f 96e9 ac3e
00000110: e831 c33d 024c cf3e 70c2 b23d c477 1e3f
00000120: 1022 b23e 683d e93d 0bdb 7b3f 4fbe 0d3f
00000130: 4056 9e3e 5c3a 3e3f c8f4 823e 8863 ed3d
00000140: 37cb 383f d865 8d3e ce78 1e3f 8cc1 b63e
00000150: 546e 453e 80f2 823e 18ef b53d c009 c93e
00000160: 04ec 493f 3ef3 333f 6ed2 c53e eacd bd3e
00000170: 37fb 753f e51c 733f eaaf b63e 428a 463f
00000180: ac31 8f3e 6c59 f53e 1850 f33e e0d8 7c3d
00000190: 0889 583e 20fe 6d3d 40bf 653d f83e ab3e
000001a0: 2213 353f ff1c 2c3f 9083 a83e 64f1 873e
000001b0: 6f2e 6c3f 178d 1b3f 220e 963e 6093 5c3f
000001c0: 6455 843e a288 da3e f705 1b3f 7cf2 1f3e
000001d0: 184b 5b3e dc24 573e 102f 793f 36a4 4d3f
000001e0: 3334 4f3f 3c87 2c3e 4e88 453f 1fea 353f
000001f0: bafe 8f3e 3437 543e 6622 563f fcc7 413f
00000200: 0000 b035 fe77 8f3e 7695 9f3e 8570 1e3f
00000210: 6b66 1b3f 3045 bc3d ff27 553f 2c7e 093e
00000220: e04e fc3d 14cb 0d3e c06d c23c 74c0 653e
00000230: 844c d93e 60c9 593d 90b6 9e3e 8fe4 4e3f
00000240: e8b8 5f3f 187a cf3d eef3 e23e 80f8 943c
00000250: 3010 4f3d e91d 4a3f 3c50 6d3f 38dd af3e
00000260: 9629 723f 1467 443e 5ef2 c13e 3a5f 133f
00000270: 2715 383f 9054 643e 109c d33d 483f 333e
00000280: a48d 543f be1c d53e f02e c43d 54e2 123f
00000290: fdba 2b3f 4042 473c 5482 eb3e a42d fe3e
000002a0: 6810 e63e f5fe 2e3f da62 fa3e b191 633f
000002b0: 2599 3a3f 240e ca3e 76f3 673f 03f8 293f
000002c0: ec8c 643f b83a 193f 3271 e93e bef0 d73e
000002d0: b030 403d ecb5 203f e498 1e3f a071 713e
000002e0: 813e 213f 7f97 553f 0ea3 693f a893 003f
000002f0: be37 e63e e28a e13e b0b0 7e3d 8490 383f
00000300: 4acb 963e 4e06 303f 3827 2f3e b0b5 5d3e
00000310: 30ac 533f fc23 a23e 97b6 4d3f 3329 5f3f
00000320: cad3 1f3f 843f 7c3f 004b 4d3c b24e c33e
00000330: 9cf0 3e3e cee3 733f 404d be3d 88dc 8d3e
00000340: 80f8 963c 1886 963d 6e7f d73e 6862 4b3e
00000350: 101c 833d 90a6 153d b4f9 1d3e 144f 833e
00000360: 4e93 943e c0e4 d43c bb4b 433f e40c c43e
00000370: f2ac 5e3f 1817 663e 0ca9 663f eafb 5e3f
00000380: f8e6 f03d 60c7 1b3d 900e 723d bcc5 383e
00000390: 7359 273f 58a1 9d3d dc21 1b3e 1f70 1f3f
000003a0: c8bd d73e 8f87 5e3f db53 423f 4a4a 153f
000003b0: dc0c 083e f7f7 3b3f 00c5 6c3c 8095 b93b
000003c0: 2aa5 eb3e 8486 953e 40aa 403d e06a af3d
000003d0: 50f5 083f dc3d d23e b81b 4e3e ee21 ad3e
000003e0: 28ae 633f 69f5 193f 2820 d03d 087e c43e
000003f0: 63f7 563f e0b7 183f 6ee9 af3e 247a 4c3f

fc1_bn.bias f4 [400]
0.0 0.0 0.0 0.0 0.0 0.0 0.0 0.0
0.0 0.0 0.0 0.0 0.0 0.0 0.0 0.0
0.0 0.0 0.0 0.0 0.0 0.0 0.0 0.0
0.0 0.0 0.0 0.0 0.0 0.0 0.0 0.0
0.0 0.0 0.0 0.0 0.0 0.0 0.0 0.0
0.0 0.0 0.0 0.0 0.0 0.0 0.0 0.0
0.0 0.0 0.0 0.0 0.0 0.0 0.0 0.0
0.0 0.0 0.0 0.0 0.0 0.0 0.0 0.0
0.0 0.0 0.0 0.0 0.0 0.0 0.0 0.0
0.0 0.0 0.0 0.0 0.0 0.0 0.0 0.0
0.0 0.0 0.0 0.0 0.0 0.0 0.0 0.0
0.0 0.0 0.0 0.0 0.0 0.0 0.0 0.0
0.0 0.0 0.0 0.0 0.0 0.0 0.0 0.0
0.0 0.0 0.0 0.0 0.0 0.0 0.0 0.0
0.0 0.0 0.0 0.0 0.0 0.0 0.0 0.0
0.0 0.0 0.0 0.0 0.0 0.0 0.0 0.0
0.0 0.0 0.0 0.0 0.0 0.0 0.0 0.0
0.0 0.0 0.0 0.0 0.0 0.0 0.0 0.0
0.0 0.0 0.0 0.0 0.0 0.0 0.0 0.0
0.0 0.0 0.0 0.0 0.0 0.0 0.0 0.0
0.0 0.0 0.0 0.0 0.0 0.0 0.0 0.0
0.0 0.0 0.0 0.0 0.0 0.0 0.0 0.0
0.0 0.0 0.0 0.0 0.0 0.0 0.0 0.0
0.0 0.0 0.0 0.0 0.0 0.0 0.0 0.0
0.0 0.0 0.0 0.0 0.0 0.0 0.0 0.0
0.0 0.0 0.0 0.0 0.0 0.0 0.0 0.0
0.0 0.0 0.0 0.0 0.0 0.0 0.0 0.0
0.0 0.0 0.0 0.0 0.0 0.0 0.0 0.0
0.0 0.0 0.0 0.0 0.0 0.0 0.0 0.0
0.0 0.0 0.0 0.0 0.0 0.0 0.0 0.0
0.0 0.0 0.0 0.0 0.0 0.0 0.0 0.0
0.0 0.0 0.0 0.0 0.0 0.0 0.0 0.0
00000000: 0000 0000 0000 0000 0000 0000 0000 0000
00000010: 0000 0000 0000 0000 0000 0000 0000 0000
00000020: 0000 0000 0000 0000 0000 0000 0000 0000
00000030: 0000 0000 0000 0000 0000 0000 0000 0000
00000040: 0000 0000 0000 0000 0000 0000 0000 0000
00000050: 0000 0000 0000 0000 0000 0000 0000 0000
00000060: 0000 0000 0000 0000 0000 0000 0000 0000
00000070: 0000 0000 0000 0000 0000 0000 0000 0000
00000080: 0000 0000 0000 0000 0000 0000 0000 0000
00000090: 0000 0000 0000 0000 0000 0000 0000 0000
000000a0: 0000 0000 0000 0000 0000 0000 0000 0000
000000b0: 0000 0000 0000 0000 0000 0000 0000 0000
000000c0: 0000 0000 0000 0000 0000 0000 0000 0000
000000d0: 0000 0000 0000 0000 0000 0000 0000 0000
000000e0: 0000 0000 0000 0000 0000 0000 0000 0000
000000f0: 0000 0000 0000 0000 0000 0000 0000 0000
00000100: 0000 0000 0000 0000 0000 0000 0000 0000
00000110: 0000 0000 0000 0000 0000 0000 0000 0000
00000120: 0000 0000 0000 0000 0000 0000 0000 0000
00000130: 0000 0000 0000 0000 0000 0000 0000 0000
00000140: 0000 0000 0000 0000 0000 0000 0000 0000
00000150: 0000 0000 0000 0000 0000 0000 0000 0000
00000160: 0000 0000 0000 0000 0000 0000 0000 0000
00000170: 0000 0000 0000 0000 0000 0000 0000 0000
00000180: 0000 0000 0000 0000 0000 0000 0000 0000
00000190: 0000 0000 0000 0000 0000 0000 0000 0000
000001a0: 0000 0000 0000 0000 0000 0000 0000 0000
000001b0: 0000 0000 0000 0000 0000 0000 0000 0000
000001c0: 0000 0000 0000 0000 0000 0000 0000 0000
000001d0: 0000 0000 0000 0000 0000 0000 0000 0000
000001e0: 0000 0000 0000 0000 0000 0000 0000 0000
000001f0: 0000 0000 0000 0000 0000 0000 0000 0000
00000200: 0000 0000 0000 0000 0000 0000 0000 0000
00000210: 0000 0000 0000 0000 0000 0000 0000 0000
00000220: 0000 0000 0000 0000 0000 0000 0000 0000
00000230: 0000 0000 0000 0000 0000 0000 0000 0000
00000240: 0000 0000 0000 0000 0000 0000 0000 0000
00000250: 0000 0000 0000 0000 0000 0000 0000 0000
00000260: 0000 0000 0000 0000 0000 0000 0000 0000
00000270: 0000 0000 0000 0000 0000 0000 0000 0000
00000280: 0000 0000 0000 0000 0000 0000 0000 0000
00000290: 0000 0000 0000 0000 0000 0000 0000 0000
000002a0: 0000 0000 0000 0000 0000 0000 0000 0000
000002b0: 0000 0000 0000 0000 0000 0000 0000 0000
000002c0: 0000 0000 0000 0000 0000 0000 0000 0000
000002d0: 0000 0000 0000 0000 0000 0000 0000 0000
000002e0: 0000 0000 0000 0000 0000 0000 0000 0000
000002f0: 0000 0000 0000 0000 0000 0000 0000 0000
00000300: 0000 0000 0000 0000 0000 0000 0000 0000
00000310: 0000 0000 0000 0000 0000 0000 0000 0000
00000320: 0000 0000 0000 0000 0000 0000 0000 0000
00000330: 0000 0000 0000 0000 0000 0000 0000 0000
00000340: 0000 0000 0000 0000 0000 0000 0000 0000
00000350: 0000 0000 0000 0000 0000 0000 0000 0000
00000360: 0000 0000 0000 0000 0000 0000 0000 0000
00000370: 0000 0000 0000 0000 0000 0000 0000 0000
00000380: 0000 0000 0000 0000 0000 0000 0000 0000
00000390: 0000 0000 0000 0000 0000 0000 0000 0000
000003a0: 0000 0000 0000 0000 0000 0000 0000 0000
000003b0: 0000 0000 0000 0000 0000 0000 0000 0000
000003c0: 0000 0000 0000 0000 0000 0000 0000 0000
000003d0: 0000 0000 0000 0000 0000 0000 0000 0000
000003e0: 0000 0000 0000 0000 0000 0000 0000 0000
000003f0: 0000 0000 0000 0000 0000 0000 0000 0000

fc1_bn.running_mean f4 [400]
0.0 0.0 0.0 0.0 0.0 0.0 0.0 0.0
0.0 0.0 0.0 0.0 0.0 0.0 0.0 0.0
0.0 0.0 0.0 0.0 0.0 0.0 0.0 0.0
0.0 0.0 0.0 0.0 0.0 0.0 0.0 0.0
0.0 0.0 0.0 0.0 0.0 0.0 0.0 0.0
0.0 0.0 0.0 0.0 0.0 0.0 0.0 0.0
0.0 0.0 0.0 0.0 0.0 0.0 0.0 0.0
0.0 0.0 0.0 0.0 0.0 0.0 0.0 0.0
0.0 0.0 0.0 0.0 0.0 0.0 0.0 0.0
0.0 0.0 0.0 0.0 0.0 0.0 0.0 0.0
0.0 0.0 0.0 0.0 0.0 0.0 0.0 0.0
0.0 0.0 0.0 0.0 0.0 0.0 0.0 0.0
0.0 0.0 0.0 0.0 0.0 0.0 0.0 0.0
0.0 0.0 0.0 0.0 0.0 0.0 0.0 0.0
0.0 0.0 0.0 0.0 0.0 0.0 0.0 0.0
0.0 0.0 0.0 0.0 0.0 0.0 0.0 0.0
0.0 0.0 0.0 0.0 0.0 0.0 0.0 0.0
0.0 0.0 0.0 0.0 0.0 0.0 0.0 0.0
0.0 0.0 0.0 0.0 0.0 0.0 0.0 0.0
0.0 0.0 0.0 0.0 0.0 0.0 0.0 0.0
0.0 0.0 0.0 0.0 0.0 0.0 0.0 0.0
0.0 0.0 0.0 0.0 0.0 0.0 0.0 0.0
0.0 0.0 0.0 0.0 0.0 0.0 0.0 0.0
0.0 0.0 0.0 0.0 0.0 0.0 0.0 0.0
0.0 0.0 0.0 0.0 0.0 0.0 0.0 0.0
0.0 0.0 0.0 0.0 0.0 0.0 0.0 0.0
0.0 0.0 0.0 0.0 0.0 0.0 0.0 0.0
0.0 0.0 0.0 0.0 0.0 0.0 0.0 0.0
0.0 0.0 0.0 0.0 0.0 0.0 0.0 0.0
0.0 0.0 0.0 0.0 0.0 0.0 0.0 0.0
0.0 0.0 0.0 0.0 0.0 0.0 0.0 0.0
0.0 0.0 0.0 0.0 0.0 0.0 0.0 0.0
00000000: 0000 0000 0000 0000 0000 0000 0000 0000
00000010: 0000 0000 0000 0000 0000 0000 0000 0000
00000020: 0000 0000 0000 0000 0000 0000 0000 0000
00000030: 0000 0000 0000 0000 0000 0000 0000 0000
00000040: 0000 0000 0000 0000 0000 0000 0000 0000
00000050: 0000 0000 0000 0000 0000 0000 0000 0000
00000060: 0000 0000 0000 0000 0000 0000 0000 0000
00000070: 0000 0000 0000 0000 0000 0000 0000 0000
00000080: 0000 0000 0000 0000 0000 0000 0000 0000
00000090: 0000 0000 0000 0000 0000 0000 0000 0000
000000a0: 0000 0000 0000 0000 0000 0000 0000 0000
000000b0: 0000 0000 0000 0000 0000 0000 0000 0000
000000c0: 0000 0000 0000 0000 0000 0000 0000 0000
000000d0: 0000 0000 0000 0000 0000 0000 0000 0000
000000e0: 0000 0000 0000 0000 0000 0000 0000 0000
000000f0: 0000 0000 0000 0000 0000 0000 0000 0000
00000100: 0000 0000 0000 0000 0000 0000 0000 0000
00000110: 0000 0000 0000 0000 0000 0000 0000 0000
00000120: 0000 0000 0000 0000 0000 0000 0000 0000
00000130: 0000 0000 0000 0000 0000 0000 0000 0000
00000140: 0000 0000 0000 0000 0000 0000 0000 0000
00000150: 0000 0000 0000 0000 0000 0000 0000 0000
00000160: 0000 0000 0000 0000 0000 0000 0000 0000
00000170: 0000 0000 0000 0000 0000 0000 0000 0000
00000180: 0000 0000 0000 0000 0000 0000 0000 0000
00000190: 0000 0000 0000 0000 0000 0000 0000 0000
000001a0: 0000 0000 0000 0000 0000 0000 0000 0000
000001b0: 0000 0000 0000 0000 0000 0000 0000 0000
000001c0: 0000 0000 0000 0000 0000 0000 0000 0000
000001d0: 0000 0000 0000 0000 0000 0000 0000 0000
000001e0: 0000 0000 0000 0000 0000 0000 0000 0000
000001f0: 0000 0000 0000 0000 0000 0000 0000 0000
00000200: 0000 0000 0000 0000 0000 0000 0000 0000
00000210: 0000 0000 0000 0000 0000 0000 0000 0000
00000220: 0000 0000 0000 0000 0000 0000 0000 0000
00000230: 0000 0000 0000 0000 0000 0000 0000 0000
00000240: 0000 0000 0000 0000 0000 0000 0000 0000
00000250: 0000 0000 0000 0000 0000 0000 0000 0000
00000260: 0000 0000 0000 0000 0000 0000 0000 0000
00000270: 0000 0000 0000 0000 0000 0000 0000 0000
00000280: 0000 0000 0000 0000 0000 0000 0000 0000
00000290: 0000 0000 0000 0000 0000 0000 0000 0000
000002a0: 0000 0000 0000 0000 0000 0000 0000 0000
000002b0: 0000 0000 0000 0000 0000 0000 0000 0000
000002c0: 0000 0000 0000 0000 0000 0000 0000 0000
000002d0: 0000 0000 0000 0000 0000 0000 0000 0000
000002e0: 0000 0000 0000 0000 0000 0000 0000 0000
000002f0: 0000 0000 0000 0000 0000 0000 0000 0000
00000300: 0000 0000 0000 0000 0000 0000 0000 0000
00000310: 0000 0000 0000 0000 0000 0000 0000 0000
00000320: 0000 0000 0000 0000 0000 0000 0000 0000
00000330: 0000 0000 0000 0000 0000 0000 0000 0000
00000340: 0000 0000 0000 0000 0000 0000 0000 0000
00000350: 0000 0000 0000 0000 0000 0000 0000 0000
00000360: 0000 0000 0000 0000 0000 0000 0000 0000
00000370: 0000 0000 0000 0000 0000 0000 0000 0000
00000380: 0000 0000 0000 0000 0000 0000 0000 0000
00000390: 0000 0000 0000 0000 0000 0000 0000 0000
000003a0: 0000 0000 0000 0000 0000 0000 0000 0000
000003b0: 0000 0000 0000 0000 0000 0000 0000 0000
000003c0: 0000 0000 0000 0000 0000 0000 0000 0000
000003d0: 0000 0000 0000 0000 0000 0000 0000 0000
000003e0: 0000 0000 0000 0000 0000 0000 0000 0000
000003f0: 0000 0000 0000 0000 0000 0000 0000 0000

fc1_bn.running_var f4 [400]
1.0 1.0 1.0 1.0 1.0 1.0 1.0 1.0
1.0 1.0 1.0 1.0 1.0 1.0 1.0 1.0
1.0 1.0 1.0 1.0 1.0 1.0 1.0 1.0
1.0 1.0 1.0 1.0 1.0 1.0 1.0 1.0
1.0 1.0 1.0 1.0 1.0 1.0 1.0 1.0
1.0 1.0 1.0 1.0 1.0 1.0 1.0 1.0
1.0 1.0 1.0 1.0 1.0 1.0 1.0 1.0
1.0 1.0 1.0 1.0 1.0 1.0 1.0 1.0
1.0 1.0 1.0 1.0 1.0 1.0 1.0 1.0
1.0 1.0 1.0 1.0 1.0 1.0 1.0 1.0
1.0 1.0 1.0 1.0 1.0 1.0 1.0 1.0
1.0 1.0 1.0 1.0 1.0 1.0 1.0 1.0
1.0 1.0 1.0 1.0 1.0 1.0 1.0 1.0
1.0 1.0 1.0 1.0 1.0 1.0 1.0 1.0
1.0 1.0 1.0 1.0 1.0 1.0 1.0 1.0
1.0 1.0 1.0 1.0 1.0 1.0 1.0 1.0
1.0 1.0 1.0 1.0 1.0 1.0 1.0 1.0
1.0 1.0 1.0 1.0 1.0 1.0 1.0 1.0
1.0 1.0 1.0 1.0 1.0 1.0 1.0 1.0
1.0 1.0 1.0 1.0 1.0 1.0 1.0 1.0
1.0 1.0 1.0 1.0 1.0 1.0 1.0 1.0
1.0 1.0 1.0 1.0 1.0 1.0 1.0 1.0
1.0 1.0 1.0 1.0 1.0 1.0 1.0 1.0
1.0 1.0 1.0 1.0 1.0 1.0 1.0 1.0
1.0 1.0 1.0 1.0 1.0 1.0 1.0 1.0
1.0 1.0 1.0 1.0 1.0 1.0 1.0 1.0
1.0 1.0 1.0 1.0 1.0 1.0 1.0 1.0
1.0 1.0 1.0 1.0 1.0 1.0 1.0 1.0
1.0 1.0 1.0 1.0 1.0 1.0 1.0 1.0
1.0 1.0 1.0 1.0 1.0 1.0 1.0 1.0
1.0 1.0 1.0 1.0 1.0 1.0 1.0 1.0
1.0 1.0 1.0 1.0 1.0 1.0 1.0 1.0
00000000: 0000 803f 0000 803f 0000 803f 0000 803f
00000010: 0000 803f 0000 803f 0000 803f 0000 803f
00000020: 0000 803f 0000 803f 0000 803f 0000 803f
00000030: 0000 803f 0000 803f 0000 803f 0000 803f
00000040: 0000 803f 0000 803f 0000 803f 0000 803f
00000050: 0000 803f 0000 803f 0000 803f 0000 803f
00000060: 0000 803f 0000 803f 0000 803f 0000 803f
00000070: 0000 803f 0000 803f 0000 803f 0000 803f
00000080: 0000 803f 0000 803f 0000 803f 0000 803f
00000090: 0000 803f 0000 803f 0000 803f 0000 803f
000000a0: 0000 803f 0000 803f 0000 803f 0000 803f
000000b0: 0000 803f 0000 803f 0000 803f 0000 803f
000000c0: 0000 803f 0000 803f 0000 803f 0000 803f
000000d0: 0000 803f 0000 803f 0000 803f 0000 803f
000000e0: 0000 803f 0000 803f 0000 803f 0000 803f
000000f0: 0000 803f 0000 803f 0000 803f 0000 803f
00000100: 0000 803f 0000 803f 0000 803f 0000 803f
00000110: 0000 803f 0000 803f 0000 803f 0000 803f
00000120: 0000 803f 0000 803f 0000 803f 0000 803f
00000130: 0000 803f 0000 803f 0000 803f 0000 803f
00000140: 0000 803f 0000 803f 0000 803f 0000 803f
00000150: 0000 803f 0000 803f 0000 803f 0000 803f
00000160: 0000 803f 0000 803f 0000 803f 0000 803f
00000170: 0000 803f 0000 803f 0000 803f 0000 803f
00000180: 0000 803f 0000 803f 0000 803f 0000 803f
00000190: 0000 803f 0000 803f 0000 803f 0000 803f
000001a0: 0000 803f 0000 803f 0000 803f 0000 803f
000001b0: 0000 803f 0000 803f 0000 803f 0000 803f
000001c0: 0000 803f 0000 803f 0000 803f 0000 803f
000001d0: 0000 803f 0000 803f 0000 803f 0000 803f
000001e0: 0000 803f 0000 803f 0000 803f 0000 803f
000001f0: 0000 803f 0000 803f 0000 803f 0000 803f
00000200: 0000 803f 0000 803f 0000 803f 0000 803f
00000210: 0000 803f 0000 803f 0000 803f 0000 803f
00000220: 0000 803f 0000 803f 0000 803f 0000 803f
00000230: 0000 803f 0000 803f 0000 803f 0000 803f
00000240: 0000 803f 0000 803f 0000 803f 0000 803f
00000250: 0000 803f 0000 803f 0000 803f 0000 803f
00000260: 0000 803f 0000 803f 0000 803f 0000 803f
00000270: 0000 803f 0000 803f 0000 803f 0000 803f
00000280: 0000 803f 0000 803f 0000 803f 0000 803f
00000290: 0000 803f 0000 803f 0000 803f 0000 803f
000002a0: 0000 803f 0000 803f 0000 803f 0000 803f
000002b0: 0000 803f 0000 803f 0000 803f 0000 803f
000002c0: 0000 803f 0000 803f 0000 803f 0000 803f
000002d0: 0000 803f 0000 803f 0000 803f 0000 803f
000002e0: 0000 803f 0000 803f 0000 803f 0000 803f
000002f0: 0000 803f 0000 803f 0000 803f 0000 803f
00000300: 0000 803f 0000 803f 0000 803f 0000 803f
00000310: 0000 803f 0000 803f 0000 803f 0000 803f
00000320: 0000 803f 0000 803f 0000 803f 0000 803f
00000330: 0000 803f 0000 803f 0000 803f 0000 803f
00000340: 0000 803f 0000 803f 0000 803f 0000 803f
00000350: 0000 803f 0000 803f 0000 803f 0000 803f
00000360: 0000 803f 0000 803f 0000 803f 0000 803f
00000370: 0000 803f 0000 803f 0000 803f 0000 803f
00000380: 0000 803f 0000 803f 0000 803f 0000 803f
00000390: 0000 803f 0000 803f 0000 803f 0000 803f
000003a0: 0000 803f 0000 803f 0000 803f 0000 803f
000003b0: 0000 803f 0000 803f 0000 803f 0000 803f
000003c0: 0000 803f 0000 803f 0000 803f 0000 803f
000003d0: 0000 803f 0000 803f 0000 803f 0000 803f
000003e0: 0000 803f 0000 803f 0000 803f 0000 803f
000003f0: 0000 803f 0000 803f 0000 803f 0000 803f

fc2.weight f4 [300, 400]
0.0058385357 -0.016258404 0.03942409 -0.043814573 0.046427805 0.057608645 -0.0018840979 -0.031159237
0.002585892 -0.030703438 -0.07355577 -0.042366635 0.02327775 0.01990687 0.06125187 0.043184403
0.0130652785 -0.022755086 -0.025104826 -0.008440734 0.043775085 0.044571664 -0.009941629 -0.009673613
-0.0170071 0.027747676 0.037142884 0.0033467412 -0.00046407455 -0.011891355 0.019335499 0.039410036
-0.010545107 -0.004673836 0.032223746 -0.0014931724 0.00024263487 0.04449927 -0.049219992 0.012763209
-0.012084854 -0.02245207 -0.030810673 -0.027164219 -0.0140367225 0.0016558535 0.058235332 0.040690888
-0.040754486 0.009503578 -0.070645094 0.013804538 0.019183785 -0.04467976 0.013447196 0.02954068
0.04538847 -0.05553865 -0.013290607 0.012004547 0.0018384304 -0.027287211 -0.0035097227 0.013935354
0.029366352 -0.044004157 0.058967244 0.036846753 -0.06787898 -0.03732806 -0.046638977 -0.055513665
0.0079294415 0.044361044 0.011649242 -0.016545935 -0.053391002 0.04624159 0.03470485 -0.06615257
0.07588965 -0.026775153 0.03501836 -0.028922502 0.003494888 0.03273882 -0.004383868 0.049172003
-0.065991096 -0.02043854 -0.013889235 -0.0036460075 0.047151398 -0.04513758 -0.04885807 0.021276496
-0.06422287 0.052116018 -0.018183773 -0.035464093 0.014886698 -0.0068423916 -0.067654416 0.04648152
-0.04131873 -0.038289383 0.0155292945 0.020391785 -0.062292326 0.009704877 -0.040561475 0.029400019
0.023597483 0.006868099 -0.05276659 -0.055838607 -0.030221744 -0.009244347 -0.004141144 -0.04058543
-0.04875862 -0.0009221502 0.050700493 0.033668175 -0.02136825 -0.018582124 -0.035697058 -0.004223925
-0.017546782 0.017022813 -0.00913022 -0.057265706 0.035920914 0.023618605 -0.02427403 0.038639363
-0.029889615 0.01608479 -0.026634071 0.038356356 7.565525e-05 0.03370582 -0.06295184 0.01267557
-0.021149166 0.046172645 -0.008023319 0.018737925 0.041608855 -0.031738836 -0.031036125 -0.038298808
0.019603763 -0.021009548 0.016698848 -0.022543851 -0.064151086 0.033573654 0.023015037 -0.012920187
-0.04022417 0.037382677 -0.039231904 0.033527486 -0.02868931 0.04146671 0.048498183 -0.037806317
0.06409663 0.06042668 0.020529816 0.043817595 -0.028323723 0.029773802 -0.026612582 0.003306559
-0.053951077 0.034389287 -0.022252543 -0.009718274 0.06181458 0.057630673 -0.023610145 -0.013177053
-0.049393848 0.012520205 -0.012421489 0.055691976 -0.06294326 -0.022404462 0.029961085 -0.04629797
-0.009595857 0.01040306 0.0226804 -0.056909222 0.030698968 0.030363051 -0.049258832 0.008977461
0.007829509 -0.017386075 -0.05786293 -0.03690427 0.009668374 -0.04477153 0.053119756 -0.015401096
0.017519237 -0.020118427 0.06340961 0.051950634 -0.025268728 -0.016140658 0.006709414 -0.040959038
0.042492777 0.0094455965 0.010643425 -0.0644517 -0.037061833 -0.063524194 -0.02585279 0.0026677458
0.01721688 -0.044349615 -0.0019702732 -0.018819913 0.018349785 0.02646702 -0.046598084 -0.041223772
0.022309799 -0.057214703 0.016908746 0.025390573 0.059346728 -0.018745609 0.006947659 -0.060619198
-0.042059433 0.067985944 -0.028297134 -0.056260634 -0.049121797 0.023552045 0.010897846 -0.011815095
0.027846238 -0.040345177 -0.005697709 0.010633483 -0.053322047 0.057934187 0.026945947 -0.02271484
00000000: 3051 bf3b 5830 85bc 287b 213d e976 33bd
00000010: 152b 3e3d 0bf7 6b3d d6f3 f6ba a841 ffbc
00000020: 1278 293b c785 fbbc 68a4 96bd a388 2dbd
00000030: fbb0 be3c bb13 a33c 3ee3 7a3d 21e2 303d
00000040: c00f 563c e068 babc a3a8 cdbc 014b 0abc
00000050: 814d 333d c790 363d 37e2 22bc 137e 1ebc
00000060: 7952 8bbc 184f e33c 2323 183d 0055 5b3b
00000070: 084f f3b9 f5d3 42bc 7b65 9e3c 6b6c 213d
00000080: 62c5 2cbc fa26 99bb 0cfd 033d 8db6 c3ba
00000090: cd6b 7e39 de44 363d e79a 49bd c71c 513c
000000a0: 8dff 45bc 67ed b7bc aa66 fcbc 7f87 debc
000000b0: 48fa 65bc 3909 d93a 2c88 6e3d 7dab 263d
000000c0: 2dee 26bd e5b4 1b3c 60ae 90bd 6e2c 623c
000000d0: 5027 9d3c 2002 37bd a151 5c3c 4cff f13c
000000e0: 43e9 393d 7f7c 63bd d9c0 59bc b8ae 443c
000000f0: 7df7 f03a 6e89 dfbc 6003 66bb 1c51 643c
00000100: b491 f03c b43d 34bd a387 713d 9fec 163d
00000110: 2204 8bbd 4fe5 18bd 8308 3fbd 4c62 63bd
00000120: 7dea 013c edb3 353d 76dc 3e3c 578b 87bc
00000130: 86b0 5abd d267 3d3d ac26 0e3d 007b 87bd
00000140: 086c 9b3d 9157 dbbc 696f 0f3d e2ee ecbc
00000150: 7e0a 653b 2419 063d 8da6 8fbb 9568 493d
00000160: 5726 87bd ba6e a7bc ad8f 63bc dbf1 6ebb
00000170: d321 413d 2fe2 38bd 661f 48bd 0c4c ae3c
00000180: 4887 83bd 9b77 553d 23f6 94bc cc42 11bd
00000190: 56e7 733c 2436 e0bb 668e 8abd 6863 3e3d
000001a0: d43d 29bd 54d5 1cbd 956e 7e3c ac0c a73c
000001b0: 3d26 7fbd 3401 1f3c ca23 26bd 4fd8 f03c
000001c0: 824f c13c ca0d e13b c821 58bd 06b7 64bd
000001d0: 9793 f7bc 9a75 17bc 6fb2 87bb e83c 26bd
000001e0: 1eb7 47bd 74bc 71ba 52ab 4f3d a4e7 093d
000001f0: 780c afbc 8a39 98bc 1437 12bd da68 8abb
00000200: 45be 8fbc 6d73 8b3c eb96 15bc 728f 6abd
00000210: cf21 133d ce7b c13c 55da c6bc 4f44 1e3d
00000220: 11db f4bc 40c4 833c b22f dabc 8e1b 1d3d
00000230: 1aa9 9e38 1d0f 0a3d e5ec 80bd 32ad 4f3c
00000240: 0441 adbc 871f 3d3d 3d74 03bc 4780 993c
00000250: 0c6e 2a3d 9500 02bd 793f febc 36df 1cbd
00000260: 1298 a03c 371c acbc 06cc 883c e2ad b8bc
00000270: a561 83bd 8784 093d 088a bc3c 31af 53bc
00000280: 19c2 24bd 941e 193d a2b1 20bd 1e54 093d
00000290: d805 ebbc ffd8 293d 08a6 463d ccda 1abd
000002a0: 1845 833d f781 773d 252e a83c 147a 333d
000002b0: 2707 e8bc 30e8 f33c a102 dabc dbb2 583b
000002c0: cefb 5cbd c8db 0c3d f74a b6bc 6539 1fbc
000002d0: 4931 7d3d 240e 6c3d 106a c1bc 91e4 57bc
000002e0: 3451 4abd 8c21 4d3c 8083 4bbc 451d 643d
000002f0: 65e8 80bd 9089 b7bc f370 f53c f1a2 3dbd
00000300: f137 1dbc 9971 2a3c 3fcc b93c a519 69bd
00000310: 677c fb3c efbb f83c a1c3 49bd 3316 133c
00000320: 5747 003c 3e6d 8ebc ae01 6dbd ef28 17bd
00000330: 1a68 1e3c 5a62 37bd 1a94 593d e154 7cbc
00000340: 8184 8f3c 66cf a4bc e6dc 813d 30ca 543d
00000350: 5d00 cfbc 6a39 84bc a5da db3b aac4 27bd
00000360: e80c 2e3d b4c1 1a3c c361 2e3c 41ff 83bd
00000370: 26ce 17bd f918 82bd 3bc9 d3bc 59d5 2e3b
00000380: 6a0a 8d3c f1a7 35bd b31f 01bb 382c 9abc
00000390: 4a52 963c 5dd1 d83c a2dd 3ebd 42da 28bd
000003a0: 0ac3 b63c f759 6abd 3684 8a3c e4ff cf3c
000003b0: 8e15 733d 6490 99bc 30a9 e33b d64b 78bd
000003c0: 8346 2cbd 373c 8b3d 64cf e7bc 8d71 66bd
000003d0: f033 49bd 38f0 c03c e18c 323c 1a94 41bc
000003e0: cb1d e43c fc40 25bd d9b3 babb 0f38 2e3c
000003f0: 3868 5abd 664c 6d3d bfbd dc3c 7914 babc

fc2.bias f4 [300]
-0.03184775 -0.027374597 0.0010582616 -0.016662352 0.0090706805 -0.0047470513 0.011353894 -0.043626048
0.06846265 -0.034194577 -0.00934656 0.016786132 0.06085619 0.036686983 -0.033474743 0.04850031
0.028856125 -0.0348704 -0.00047837023 -0.012312166 -0.00087817776 -0.010092304 0.013034129 -0.031617314
-0.02630901 0.0045365635 0.042889405 0.0026616384 -0.024014859 0.029031597 -0.00527782 0.00011192296
-0.020679506 0.032875378 -0.024641855 0.01919023 -0.0317119 0.007106579 0.049670238 0.031096278
-0.020604717 0.029763082 0.038111374 -0.035201553 0.027117817 0.054696705 -0.02205117 -0.031133998
0.03936298 0.018620865 0.0135873 0.031098487 0.059664216 0.039511964 0.048668183 0.023748314
0.02865865 0.026580602 0.005235591 0.04879608 0.03210724 0.0049950285 -0.041989446 -0.02925285
0.06529889 0.048593488 0.030127734 -0.041711442 -6.3196676e-05 -0.020034043 1.8245737e-05 0.040774938
0.050788075 0.03811792 0.05003946 -0.041824117 0.07248975 -0.01194785 0.060230736 0.042344444
-0.021914737 0.0027641938 -0.019956794 0.047378335 -0.0074163587 -0.0090570245 -0.03307371 -0.026892034
-0.02399456 -0.0032862287 -0.027320703 0.03281647 -0.0051712883 0.0027918592 0.031225393 0.05000313
0.00763841 0.06905151 -0.045433946 -0.05263416 0.027859455 -0.013317255 -0.004551338 -0.006220962
-0.027557211 -0.023365203 -0.018353375 -0.02577468 0.02755066 0.018913843 -0.015905928 0.007194956
0.056958422 -0.033468843 0.052454885 0.014544825 -0.028144758 0.043522857 0.0014527849 0.002322825
0.048117768 -0.028903784 -0.024797902 0.05454672 -0.043165453 -0.027327158 -0.030636562 0.0018047759
0.0315215 0.01957147 -0.023643643 0.05912879 0.0014656672 -0.0075369123 -0.017073348 -0.003626889
-0.015426176 -0.010128885 0.05764172 -0.016045244 0.018634882 0.016627114 -0.018413095 0.043847315
-0.014678106 -0.05702352 0.057163574 0.015585635 -0.023225017 0.019787548 -0.013739957 -0.0061302823
-0.002495944 -0.022453299 0.02554898 0.05530673 -0.0011344003 0.019844815 0.04528258 0.0526255
-0.021175636 0.014844591 -0.02890093 -0.02087375 0.03992867 -0.016691493 0.026180934 -0.026454909
0.05172753 -0.0030477997 0.02437474 -0.006472063 -0.020865008 -0.04641565 0.0092619 0.007386238
0.025194665 0.052991096 -0.0083013745 0.030226294 0.042566705 -0.048654966 -0.011036172 0.0012256
0.03676304 -0.041747637 -0.018758602 0.037893064 0.07239013 0.02128782 -0.010473921 0.027620925
0.0134008555 -0.014338022 0.0083325775 0.0030612582 0.0057363166 0.025111316 0.060307313 0.0027076453
0.06470814 -0.011149828 -0.004731014 0.03169546 0.02603403 -0.024100605 -0.0181413 0.053733706
-0.020258572 -0.0046848557 0.027743971 0.060490884 0.068671465 -0.027385732 0.04146703 -0.0075667626
0.031649284 0.0048981686 0.013477177 -0.040923752 -0.03823449 0.02069362 0.028792609 0.06336874
0.031851973 -0.006643738 0.025884785 0.009367079 0.03888592 0.035589833 0.037346814 0.016073963
0.043549247 -0.010761013 0.047352307 0.013171896 0.043884855 0.050703928 -0.06439948 0.0068389666
0.010389489 -0.028432231 0.037136145 0.016641883 0.06056934 -0.0203061 0.008916981 -0.0017256815
-0.0062248195 -0.03138334 0.044961367 0.06967164 0.06162098 0.015525365 0.06909487 0.010134428
00000000: c972 02bd b140 e0bc 5eb5 8a3a 7c7f 88bc
00000010: 319d 143c 278d 9bbb af05 3a3c 3ab1 32bd
00000020: 2536 8c3d 9d0f 0cbd 5022 19bc 1283 893c
00000030: 5744 793d 1745 163d d01c 09bd 43a8 463d
00000040: ae63 ec3c 44d4 0ebd c4cd fab9 f8b8 49bc
00000050: 8335 66ba 315a 25bc 198d 553c 2881 01bd
00000060: fe85 d7bc 74a7 943b cdac 2f3d e26e 2e3b
00000070: cfba c4bc acd3 ed3c 90f1 acbb 2eb8 ea38
00000080: 1168 a9bc 55a8 063d b7dd c9bc d434 9d3c
00000090: 56e4 01bd 4ede e83b 0573 4b3d 9fbd fe3c
000000a0: 39cb a8bc b5d1 f33c ac1a 1c3d 812f 10bd
000000b0: 2f26 de3c a709 603d a8a4 b4bc ba0c ffbc
000000c0: 133b 213d c98a 983c 449d 5e3c 41c2 fe3c
000000d0: 7762 743d 4cd7 213d 4a58 473d d38b c23c
000000e0: 8cc5 ea3c 90bf d93c 528f ab3b 66de 473d
000000f0: e282 033d 56ad a33b 20fd 2bbd aca3 efbc
00000100: 6dbb 853d f709 473d 70ce f63c 9ed9 2abd
00000110: 7588 84b8 6f1e a4bc 6c0e 9937 9f03 273d
00000120: 2807 503d 8921 1c3d 2df6 4c3d c44f 2bbd
00000130: 8275 943d eac0 43bc 81b4 763d 5e71 2d3d
00000140: 8986 b3bc 7a27 353b 6e7c a3bc c90f 423d
00000150: ed04 f3bb ea63 14bc 4c78 07bd af4c dcbc
00000160: 3d90 c4bc c55d 57bb abcf dfbc 906a 063d
00000170: e973 a9bb a0f7 363b 65cc ff3c 15d0 4c3d
00000180: a14b fa3b e16a 8d3d f218 3abd eb96 57bd
00000190: 8339 e43c 9e30 5abc 6423 95bb 36d9 cbbb
000001a0: a9bf e1bc 6268 bfbc d159 96bc 6c25 d3bc
000001b0: ecb1 e13c 34f1 9a3c 264d 82bc aac3 eb3b
000001c0: 3c4d 693d a016 09bd efda 563d 6b4d 6e3c
000001d0: d68f e6bc 0645 323d 5f6b be3a 893a 183b
000001e0: 2317 453d a1c7 ecbc f824 cbbc 626c 5f3d
000001f0: 42ce 30bd 34dd dfbc 87f9 fabc 3b8e ec3a
00000200: b01c 013d 5954 a03c 50b0 c1bc 0831 723d
00000210: a11b c03a 34f8 f6bb 68dd 8bbc 1ab1 6dbb
00000220: 12be 7cbc 9ff3 25bc b919 6c3d 5171 83bc
00000230: 2ea8 983c 9635 883c 0fd7 96bc 3e99 333d
00000240: 707c 70bc 7f91 69bd 5a24 6a3d e45a 7f3c
00000250: 6442 bebc 7f19 a23c 8e1d 61bc 89e0 c8bb
00000260: fe92 23bb fbef b7bc 184c d13c 4f89 623d
00000270: 28b0 94ba 9891 a23c 3a7a 393d d68d 573d
00000280: 8778 adbc ba36 733c a5c1 ecbc 6dff aabc
00000290: 3f8c 233d 99bc 88bc 6679 d63c f7b7 d8bc
000002a0: 3fe0 533d 98bd 47bb 89ad c73c 9913 d4bb
000002b0: 18ed aabc 561e 3ebd 39bf 173c 4108 f23b
000002c0: 0b65 ce3c 310d 593d 7d02 08bc 229d f73c
000002d0: 6d5a 2e3d 6e4a 47bd 0fd1 34bc 50a4 a03a
000002e0: d794 163d 92ff 2abd a4ab 99bc c235 1b3d
000002f0: 4741 943d cb63 ae3c cf9a 2bbc 4745 e23c
00000300: 438f 5b3c 06ea 6abc 5d85 083c 649f 483b
00000310: b6f7 bb3b 3fb6 cd3c cd04 773d c072 313b
00000320: b485 843d c5ad 36bc 9f06 9bbb 19d3 013d
00000330: 5145 d53c a26e c5bc 109d 94bc e017 5c3d
00000340: 4ef5 a5bc 6b83 99bb 5347 e33c 4ac5 773d
00000350: a0a3 8c3d 0b58 e0bc 55d9 293d 9bf2 f7bb
00000360: aea2 013d d180 a03b 61cf 5c3c aa9f 27bd
00000370: c59b 1cbd ab85 a93c 7ade eb3c 78c7 813d
00000380: 3777 023d b7b3 d9bb 540c d43c 6078 193c
00000390: d846 1f3d a5c6 113d f9f8 183d 8bad 833c
000003a0: b260 323d f64e 30bc 7ef4 413d f0ce 573c
000003b0: 9bc0 333d ecae 4f3d e0e3 83bd 6919 e03b
000003c0: ad38 2a3c b6ea e8bc 121c 183d 8f54 883c
000003d0: 8e17 783d fa58 a6bc 8718 123c 4330 e2ba
000003e0: 92f9 cbbb d18b 00bd 6929 383d 01b0 8e3d
000003f0: 4866 7c3d 1a5e 7e3c 9c81 8d3d df0a 263c

fc2_bn.weight f4 [300]
0.022374988 0.1967178 0.591174 0.7320792 0.4421705 0.70787203 0.9765557 0.5392801
0.51069486 0.05970162 0.15736657 0.4956904 0.7968532 0.67027706 0.31991988 0.11471778
0.51053166 0.4218583 0.4827429 0.8697105 0.76067257 0.78293145 0.053903162 0.08871752
0.65201426 0.58880186 0.2608859 0.5373876 0.58465743 0.93815184 0.39324564 0.9285364
0.67113 0.08892763 0.11923647 0.42688465 0.8890835 0.86103344 0.23110157 0.598479
0.29617327 0.7844368 0.46032417 0.97971714 0.08923483 0.29483217 0.8334816 0.96437943
0.006506622 0.109098375 0.40997362 0.96503145 0.43361807 0.4599895 0.12524253 0.83026505
0.34811395 0.633043 0.83252585 0.26074356 0.57600826 0.9698349 0.3168801 0.20717376
0.71082014 0.16299766 0.8427959 0.6692783 0.74766344 0.7449 0.971556 0.22515512
0.4506352 0.0863564 0.28979588 0.09990424 0.089594126 0.010446787 0.38850427 0.23084235
0.18379533 0.7531889 0.90380055 0.15372485 0.8020729 0.5212735 0.3976277 0.7921091
0.14966041 0.6126846 0.17061937 0.24283683 0.79948425 0.92162037 0.4998511 0.2820257
0.053866923 0.34745884 0.33641744 0.06431353 0.98628294 0.3468079 0.71737814 0.7354572
0.65000606 0.85721195 0.5473886 0.89608693 0.24816346 0.78332573 0.36788005 0.088825524
0.06722689 0.07733661 0.7137888 0.73678136 0.42604995 0.37256992 0.7417132 0.997233
0.8098244 0.07456052 0.30502707 0.8571622 0.9734158 0.38125062 0.6524886 0.3656997
0.8902235 0.15606713 0.002379477 0.06128007 0.078288555 0.38544846 0.912665 0.1709522
0.7573183 0.84054947 0.3222584 0.60084385 0.99403185 0.55044526 0.5680737 0.4859196
0.87182236 0.5481996 0.767241 0.27242792 0.8766531 0.19632828 0.4604801 0.5059488
0.33442146 0.9492982 0.7069547 0.91537255 0.31543106 0.7568084 0.79201055 0.78350836
0.41660446 0.35732067 0.5376398 0.24199456 0.78853065 0.8555131 0.5216472 0.39632076
0.93857837 0.28476983 0.10666567 0.42643386 0.06668341 0.28159153 0.50355893 0.35202593
0.22430438 0.50929344 0.5962232 0.9464834 0.5960709 0.6729032 0.5012787 0.2742706
0.7335402 0.6013084 0.09623009 0.47895706 0.16065961 0.44718146 0.8566281 0.13477719
0.5822108 0.32771522 0.72236615 0.8346798 0.13294011 0.8444225 0.52615124 0.39432085
0.108095825 0.96952736 0.4439789 0.5696826 0.29748076 0.34937078 0.041854143 0.58386546
0.91706145 0.8425958 0.26385158 0.2063502 0.92175245 0.041557193 0.48748958 0.95875216
0.2616545 0.116757214 0.65595955 0.40921998 0.6425824 0.43573028 0.7153231 0.54753023
0.10216576 0.32848036 0.71912324 0.7149836 0.8482104 0.53515387 0.47879303 0.06092584
0.9549185 0.5241695 0.7797336 0.97478235 0.9194597 0.26976246 0.70577323 0.6530759
0.6066092 0.6301183 0.15241385 0.16624707 0.7170301 0.053382754 0.70409834 0.9160706
0.6441404 0.50809085 0.5133043 0.82456934 0.16933244 0.60545504 0.83530957 0.7751255
00000000: c04b b73c 6470 493e 2e57 173f 8b69 3b3f
00000010: 2c64 e23e 1a37 353f 8eff 793f 430e 0a3f
00000020: e6bc 023f b089 743d b424 213e 22cb fd3e
00000030: 92fe 4b3f 4797 2b3f 8acc a33e 28f1 ea3d
00000040: 34b2 023f d0fd d73e 142a f73e 59a5 5e3f
00000050: 70bb 423f 326e 483f 90c9 5c3d 88b1 b53d
00000060: 68ea 263f b8bb 163f d692 853e 3c92 093f
00000070: 1cac 153f b82a 703f 7e57 c93e 90b4 6d3f
00000080: 2dcf 2b3f b01f b63d 4032 f43d a090 da3e
00000090: fa9a 633f b06c 5c3f e4a5 6c3e eb35 193f
000000a0: 06a4 973e dad0 483f 9caf eb3e bece 7a3f
000000b0: c0c0 b63d 3ef4 963e 0d5f 553f 92e1 763f
000000c0: 8035 d53b f86e df3d 10e8 d13e 4d0c 773f
000000d0: 3003 de3e be83 eb3e 943f 003e 408c 543f
000000e0: fe3b b23e 1b0f 223f 6a20 553f 2e80 853e
000000f0: 4775 133f 1a47 783f 1c3e a23e 5c25 543e
00000100: 4ff8 353f dce8 263e 79c1 573f d355 2b3f
00000110: df66 3f3f c4b1 3e3f e5b7 783f 108f 663e
00000120: a8b9 e63e a0db b03d 2060 943e 989a cc3d
00000130: 207d b73d 0029 2b3c 08ea c63e f061 6c3e
00000140: d834 3c3e fdd0 403f 795f 673f 0c6a 1d3e
00000150: a654 4d3f 2e72 053f dc95 cb3e a9c7 4a3f
00000160: 9440 193e e6d8 1c3f d8b6 2e3e 38aa 783e
00000170: 00ab 4c3f 50ef 6b3f 7cec ff3e ac65 903e
00000180: 90a3 5c3d 20e6 b13e e83e ac3e d0b6 833d
00000190: 0a7d 7c3f ce90 b13e 18a6 373f ec46 3c3f
000001a0: cc66 263f 3e72 5b3f a921 0c3f f465 653f
000001b0: 901e 7e3e 0988 483f c65a bc3e 28ea b53d
000001c0: 40ae 893d a862 9e3d ddba 363f b49d 3c3f
000001d0: 3823 da3e 7cc1 be3e ebe0 3d3f a94a 7f3f
000001e0: a750 4f3f 30b3 983d 822c 9c3e fb6e 5b3f
000001f0: c731 793f 4833 c33e 7e09 273f fe3c bb3e
00000200: b0e5 633f 10d0 1f3e 00f1 1b3b d000 7b3d
00000210: c055 a03d 8059 c53e 6aa4 693f 180e 2f3e
00000220: 9ddf 413f 402e 573f 0eff a43e e7d0 193f
00000230: df78 7e3f fbe9 0c3f 476d 113f 74ca f83e
00000240: c02f 5f3f cf56 0c3f e869 443f ac7b 8b3e
00000250: 566c 603f 480a 493e 0cc4 eb3e dc85 013f
00000260: 4a39 ab3e 3505 733f fcfa 343f db55 6a3f
00000270: 2e80 a13e 32be 413f 34c1 4a3f 0194 483f
00000280: 2e4d d53e bcf2 b63e c3a2 093f 6ccd 773e
00000290: 25dd 493f e802 5b3f ac8a 053f 8eea ca3e
000002a0: ac46 703f 5acd 913e 8873 da3d 8a55 da3e
000002b0: 5091 883d c42c 903e 3de9 003f be3c b43e
000002c0: 0cb0 653e 0e61 023f 15a2 183f bc4c 723f
000002d0: 1a98 183f 6243 2c3f cd53 003f 326d 8c3e
000002e0: 4ac9 3b3f 59ef 193f 4814 c53d dc39 f53e
000002f0: f483 243e f8f4 e43e fb4b 5b3f 0803 0a3e
00000300: c40b 153f 4aca a73e fdec 383f 93ad 553f
00000310: 7421 083e 132c 583f d9b1 063f 6ce4 c93e
00000320: 5861 dd3d f232 783f 3451 e33e b8d6 113f
00000330: 664f 983e bae0 b23e 406f 2b3d 3578 153f
00000340: 8ac4 6a3f 5cb4 573f 8e17 873e 784d 533e
00000350: f8f7 6b3f e037 2a3d 3c98 f93e c870 753f
00000360: 94f7 853e 681e ef3d f7ec 273f 4885 d13e
00000370: 4880 243f 0a18 df3e 6a1f 373f f12a 0c3f
00000380: 483c d13d 942e a83e 7618 383f 2a09 373f
00000390: 5124 593f d8ff 083f 5c24 f53e 608d 793d
000003a0: 8a75 743f f92f 063f 9f9c 473f 568b 793f
000003b0: b661 6b3f 4e1e 8a3e 8ead 343f fb2f 273f
000003c0: be4a 1b3f 6f4f 213f 6012 1c3e ac3c 2a3e
000003d0: 498f 373f e0a7 5a3d ca3f 343f 9a83 6a3f
000003e0: 63e6 243f 3e12 023f e967 033f fa16 533f
000003f0: 7c65 2d3e 1aff 1a3f d9d6 553f a06e 463f
