agent_checkpoints/checkpoint_critic_9.pth (torch_old, 554781 bytes, 13 tensors)

fcs1.weight f4 [400, 33]
0	0xbbead9bb	-0.007167069
1	0x3d5523fa	0.052036263
2	0xbd136812	-0.03598792
3	0x3da62319	0.08112163
4	0x3e17ce46	0.14824781
5	0xbd61d152	-0.055131264
6	0xbc0fefff	-0.008785247
7	0x3d0548bb	0.032540064
8	0x3d8ecd55	0.06972758
9	0xbd077608	-0.033071548
10	0xbd3f2587	-0.04666665
11	0x3b8d4583	0.004311265
12	0xbd2c3780	-0.042045116
13	0x3dbe11c6	0.09280734
14	0x3d12a7cc	0.035804555
15	0xbddd7f04	-0.10815242
16	0xbdc051fd	-0.09390638
17	0xbde53b60	-0.111929655
18	0xbe2b20fd	-0.16711803
19	0x3d9b5b76	0.07585804
20	0xbe2d5211	-0.16925837
21	0xbdb920ae	-0.09039436
22	0x3debfc66	0.115227506
23	0x3c562e0e	0.013072504
24	0x3c7c0674	0.015382398
25	0xbd447ddf	-0.047971603
26	0xbd33cc70	-0.04389614
27	0xbd293cc2	-0.04131771
28	0x3a368202	0.00069621217
29	0x3d28b755	0.041190464
30	0xbabf25dd	-0.0014583428
31	0xbc48b758	-0.012250744
32	0x3db8a1e5	0.09015254
33	0x3da34a97	0.07973211
34	0x3d8d0a72	0.06886758
35	0x3c413e86	0.011794692
36	0xbd84e752	-0.06489433
37	0xbd02752a	-0.031850018
38	0xbd6ee20f	-0.058321055
39	0x3da28540	0.07935572
40	0x3d9d5ff2	0.07684316
41	0xbda8aa05	-0.08235554
42	0x3d2fa7ea	0.042884745
43	0xbdb3a61e	-0.08771919
44	0xbd52235b	-0.05130325
45	0xbc763950	-0.015028313
46	0xbc37c60b	-0.011216651
47	0x3d382430	0.044956386
48	0x3d9774de	0.073953375
49	0xbde5e2fc	-0.112249345
50	0x3e28fd75	0.16502936
51	0xbd735d08	-0.059414893
52	0x3cc86c18	0.024465606
53	0x3d073439	0.033008788
54	0xbcca6178	-0.02470468
55	0xbd3e6f47	-0.04649284
56	0xbd1ff4b3	-0.039051723
57	0xbd4b99fa	-0.04970739
58	0xbaa36e5c	-0.0012468803
59	0xbd61348d	-0.054981757
60	0x3cf952b3	0.030434942
61	0x3d7381ca	0.05944995
62	0xbc73310c	-0.014843237
63	0xbd237dcc	-0.03991489
64	0xbce239b3	-0.027615404
65	0xbe2bbe3d	-0.16771789
66	0x3dbd3ff8	0.09240717
67	0x3cda835c	0.026673965
68	0x3d8e66bb	0.06953188
69	0x3e2b0c8c	0.16704005
70	0x3dce02e9	0.10059149
71	0xbc33c4a7	-0.010972179
72	0xbcfe09c2	-0.031010512
73	0xbd44ce84	-0.04804851
74	0x3d02a757	0.03189787
75	0xbc8d3e36	-0.017241579
76	0xbcdf9702	-0.027293686
77	0xbd8b06b8	-0.06788391
78	0xbd88277c	-0.06648156
79	0x3de239b5	0.11046163
80	0xbd38a522	-0.045079358
81	0xbcd9f88d	-0.026607776
82	0xbdf51222	-0.11966349
83	0xbdc91b4c	-0.098196596
84	0xbe1b230d	-0.1515009
85	0xbc15eb10	-0.009150282
86	0xbd201385	-0.039081115
87	0x3da8feb1	0.082517035
88	0x3d847c27	0.06468993
89	0x3cde5856	0.027141731
90	0xbc0863bd	-0.008324561
91	0xbdbb24bc	-0.09137866
92	0xbb951f27	-0.004550833
93	0x3c4055dc	0.0117392205
94	0xbbecf7f1	-0.0072317054
95	0xbd3e35ed	-0.046438146
96	0xba835867	-0.0010020853
97	0x3cc0d182	0.023537401
98	0x3e218adf	0.15775631
99	0xbdc05d27	-0.093927674
100	0xbe0c7c71	-0.13719346
101	0x3daecd05	0.08535198
102	0xbdceb1c4	-0.100925
103	0xbde62d29	-0.11239082
104	0x3d0d094b	0.03443269
105	0x3e237c6f	0.15965436
106	0xbe0f9c1a	-0.14024392
107	0x3d176d22	0.03696931
108	0xbc9d94ac	-0.019235931
109	0x3ce7efca	0.028312583
110	0x3cb7ba74	0.022427775
111	0xbd154bba	-0.03644917
112	0x3e0101bc	0.12598318
113	0xbd0b6537	-0.034032073
114	0x3de127b5	0.10993902
115	0x3d1b367a	0.03789375
116	0x3ddd00e8	0.107911885
117	0x3e347f26	0.17626628
118	0x3e692b50	0.22770429
119	0xbe1b14f0	-0.15144706
120	0xbbfb537e	-0.007669865
121	0x3daeae0c	0.085292906
122	0x3c92f251	0.017937811
123	0x3af46c17	0.0018647936
124	0x3be588a8	0.007004816
125	0x3c2d9b34	0.010596085
126	0xbd267709	-0.040640865
127	0xbc97af7c	-0.018516295
128	0x3c291e68	0.010322191
129	0x3d2775d8	0.04088387
130	0xbd19fa6d	-0.03759234
131	0xbdc49687	-0.09599023
132	0xbdd0a6f0	-0.10188091
133	0xbde3d3d6	-0.11124389
134	0xbd606f18	-0.054793447
135	0xbd567442	-0.052356966
136	0xbe250d90	-0.16118455
137	0x3dfe5898	0.12419242
138	0xbc2854dc	-0.010274138
139	0x3d5935e6	0.053029917
140	0x3dcb62c9	0.09930951
141	0x3d9bcfe6	0.07608013
142	0x3c3e8785	0.01162899
143	0x3c96d2f7	0.018411143
144	0xbd439941	-0.047753576
145	0xbe2b5a13	-0.1673358
146	0xbdbb7711	-0.091535695
147	0xbdc77f09	-0.09741027
148	0x3d386fa4	0.045028344
149	0x3d1caaf3	0.038248967
150	0xbe7b60e0	-0.24548674
151	0xbc83f63e	-0.016108628
152	0x3c98057d	0.018557305
153	0x3d7f8c57	0.062389698
154	0x3db4bb48	0.088247836
155	0x3d09f5a1	0.033681516
156	0xbcd9d650	-0.02659145
157	0x3d19ad43	0.03751875
158	0x3d2e7b08	0.0425978
159	0xbc4dba4a	-0.012556622
160	0xbc32ba07	-0.01090861
161	0x3d2454c1	0.04011989
162	0xbd1db5ef	-0.038503584
163	0x3ca277a6	0.019832443
164	0x3e1bab32	0.15202025
165	0xbdb3a046	-0.08770804
166	0xbcbf9874	-0.023388125
167	0xbdd8b7bd	-0.1058192
168	0xbdb64530	-0.08899915
169	0x3ce3e2fa	0.027818192
170	0x3d7333bf	0.05937552
171	0x3e08ba65	0.13352354
172	0xbe05e925	-0.13077219
173	0xbd0ded49	-0.03465012
174	0xbd2ea18c	-0.04263453
175	0xbd70ba63	-0.058771502
176	0xbd63bb74	-0.05559869
177	0xbd817d02	-0.063226715
178	0xbdd84dd2	-0.10561718
179	0xbd819cf5	-0.06328765
180	0xbc508459	-0.012726867
181	0x3d88a81d	0.0667269
182	0x3ca32f41	0.019919993
183	0x3e343e87	0.17601977
184	0x3e24b958	0.16086328
185	0xbb402012	-0.002931599
186	0xbd4506bf	-0.048102137
187	0xbd972ae0	-0.07381225
188	0x3cc4d7be	0.024028655
189	0x3d1be9a1	0.038064603
190	0xbc96ca9d	-0.01840716
191	0x3d48f565	0.04906215
192	0x3b32d2ae	0.002728622
193	0xbbe01154	-0.006838003
194	0x3d3ff9a9	0.046868954
195	0x3ce949df	0.028477607
196	0xbd37568f	-0.044760283
197	0xbe1c9eb9	-0.15294923
198	0x3d1f02fe	0.038821213
199	0x3d1b3b54	0.037898377
200	0xbd87d798	-0.06632918
201	0xbb2005ac	-0.0024417443
202	0x3e643d34	0.22288972
203	0xbd54c6eb	-0.051947515
204	0x3d3e974f	0.046531018
205	0x3ddbf7cd	0.107406236
206	0xbcc98ca3	-0.024603194
207	0x3d7cd9c4	0.061731115
208	0xbc932688	-0.01796271
209	0x3d3a8bbc	0.045543417
210	0x3c27f141	0.0102503905
211	0xbca57b5f	-0.02020043
212	0x3d98e5cf	0.074657075
213	0xbaec5f0d	-0.0018033698
214	0xbde8c768	-0.11366159
215	0xbe2e1988	-0.17001927
216	0xbe382765	-0.17983778
217	0x3d6b45f9	0.057439778
218	0xbd9044a4	-0.07044342
219	0x3d40aa20	0.047037244
220	0xbbd16a12	-0.0063908184
221	0xbcb72868	-0.022358134
222	0xbd3718f3	-0.044701528
223	0x3d356a6d	0.04429095
224	0xbd77ff57	-0.060546245
225	0x3cd3852b	0.025820335
226	0x3daac5a5	0.08338479
227	0x3aba5e00	0.0014218688
228	0x3c85fbfd	0.016355509
229	0xbc853a90	-0.016263276
230	0x3da50691	0.08057893
231	0x3bec2cdc	0.007207496
232	0x3ce7a088	0.02827479
233	0x3d335783	0.04378463
234	0x3dc13a30	0.094349265
235	0xbe2d1143	-0.16901116
236	0xbc89c8f4	-0.016819455
237	0x3d90052f	0.07032239
238	0x3db4e681	0.08833028
239	0xbd83cf3d	-0.06436012
240	0xbd0ad2b5	-0.033892352
241	0x3d90cb28	0.07069999
242	0xbc4512bd	-0.012028393
243	0xbc2b52bf	-0.01045674
244	0xbc856736	-0.016284566
245	0x3d2771c7	0.04087999
246	0x3c683395	0.014172454
247	0x3d07f411	0.033191744
248	0x3d403b60	0.046931624
249	0x3e29b571	0.1657312
250	0x3d054c2c	0.032543346
251	0xbd2c137f	-0.04201078
252	0x3c9d861b	0.019228986
253	0x3d41695d	0.047219623
254	0x3cfa3f12	0.030547652
255	0xbda18e04	-0.078884155

fcs1.bias f4 [400]
0	0x3d42a847	0.047523763
1	0xbdb28377	-0.08716481
2	0xbdd37eb6	-0.103269026
3	0x3c7e3ff2	0.015518175
4	0x3ca75122	0.02042443
5	0x3c715d32	0.014731692
6	0x3cae263a	0.021258462
7	0x3ca2f5e8	0.019892648
8	0xbca1fcd6	-0.019773882
9	0x3e2c3cff	0.16820143
10	0x3da1ad23	0.07894351
11	0xbdf4450c	-0.11927232
12	0x3cf3d899	0.029766368
13	0xbded98b4	-0.116013914
14	0xbd78cfc1	-0.060745005
15	0x39fa3a3d	0.00047727107
16	0x3d520c45	0.051281232
17	0xbc9dc81f	-0.019260464
18	0x3dffeb8c	0.12496099
19	0x3d83c3b6	0.06433813
20	0xbe225afa	-0.15855017
21	0x3d877d60	0.0661571
22	0x3ddc5e58	0.10760182
23	0xbbc27106	-0.0059338836
24	0xbcd4daeb	-0.025983294
25	0xbda836f8	-0.082136095
26	0xbc0c12e4	-0.008549426
27	0x3d9ca8aa	0.076493576
28	0x3dd04daf	0.10171067
29	0xbd045ff9	-0.03231809
30	0xbe2d0ccf	-0.16899417
31	0x3e05ec01	0.1307831
32	0x3dc3c72d	0.09559474
33	0x3cde19ef	0.027111975
34	0xbd2661b8	-0.040620536
35	0x3d2546b3	0.040350627
36	0x3db693d9	0.089149185
37	0xbd9da376	-0.07697193
38	0xbe16eaac	-0.14737958
39	0xbe12d8b5	-0.1434048
40	0xbe11be4a	-0.14232746
41	0x3dcb9afb	0.099416696
42	0x3dd18e5d	0.10232232
43	0x3e00a359	0.12562312
44	0xbdeadf73	-0.11468401
45	0x3dabbf4e	0.08386098
46	0x3d9d2804	0.07673648
47	0xbd6950dd	-0.056961883
48	0xbe16add1	-0.14714743
49	0x3d354636	0.04425641
50	0xbde682a8	-0.112553895
51	0x3de606e5	0.11231784
52	0xbdd5c11f	-0.104372256
53	0xbdd284df	-0.102792494
54	0xbd7c2cc7	-0.06156614
55	0x3d5096c1	0.05092502
56	0x3e0fa9c6	0.14029607
57	0x3c8274af	0.01592478
58	0x3de03973	0.109484576
59	0x3e224aa4	0.15848786
60	0x3de27077	0.11056607
61	0x3dbb34b0	0.09140909
62	0xbdd0617c	-0.10174844
63	0xbd29f696	-0.04149493
64	0x3d807970	0.06273162
65	0x3d52476c	0.051337644
66	0xbdb698dd	-0.08915875
67	0x3d2a1b0f	0.04152971
68	0x3cdf7058	0.02727525
69	0x3d051337	0.032489028
70	0x3d4767b8	0.0486829
71	0xbe075113	-0.13214521
72	0x3c9990b3	0.018745756
73	0xbdec1e52	-0.11529221
74	0xbcc35a38	-0.02384673
75	0x3e264d24	0.16240364
76	0x3d957fb7	0.0729975
77	0xbdfe7c1b	-0.12426015
78	0x3e0560b6	0.13025174
79	0x3d3fabb1	0.046794597
80	0xbe30460f	-0.17214225
81	0x3dcbc602	0.09949876
82	0xbe1f2871	-0.15542771
83	0xbe2fedd7	-0.17180572
84	0x394a0756	0.00019266954
85	0x3d80f4d1	0.06296695
86	0x3e291e96	0.16515574
87	0xbd107633	-0.035268974
88	0xbdc42193	-0.09576716
89	0x3e296bbd	0.16545005
90	0x3d6bd055	0.057571728
91	0x3e2901bf	0.16504572
92	0xbda4652f	-0.08027112
93	0x3dae4693	0.08509555
94	0xbd9fce25	-0.07802991
95	0x3e2a8b35	0.16654666
96	0xbd9e8b60	-0.077414274
97	0xbddc5615	-0.10758606
98	0xbe26a1c4	-0.16272646
99	0x3db74983	0.08949568
100	0xbdd35074	-0.103180796
101	0x3e2dd757	0.16976677
102	0x3cde7f8e	0.027160432
103	0xbe1f8d68	-0.15581286
104	0xbdb72738	-0.08943027
105	0x3d589591	0.052877013
106	0xbd8e0eb8	-0.06936401
107	0xbde4385c	-0.11143562
108	0x3debc42b	0.115120254
109	0x3dabb04e	0.08383237
110	0x3de75f34	0.112974554
111	0xbe2af5bb	-0.16695301
112	0xbce0efdb	-0.027458122
113	0x3ce5e114	0.028061427
114	0x3da6ff60	0.08154178
115	0x3e18f91b	0.14938776
116	0x3e23b1ba	0.15985766
117	0x3ddd1c8e	0.10796462
118	0x3dc203c1	0.09473372
119	0x3d7fcf7c	0.062453732
120	0xbd4956c8	-0.049155027
121	0xbc7f2acf	-0.015574171
122	0xbd835e12	-0.06414427
123	0x3df6a2c3	0.12042763
124	0xbbc30242	-0.005951197
125	0xbda98aff	-0.082784645
126	0xbdc98134	-0.09839097
127	0x3c542ebd	0.012950596
128	0x3dd15d06	0.10222821
129	0xbdfc6ce3	-0.12325456
130	0xbdaac337	-0.083380155
131	0x3da6ac9e	0.08138393
132	0xbdf5635f	-0.11981844
133	0xbe03fe40	-0.12889957
134	0xbda68d50	-0.08132422
135	0x3da74c33	0.08168831
136	0x3c569fbf	0.01309961
137	0x3dbd710c	0.092500776
138	0x3e2697d5	0.16268857
139	0x3d210274	0.03930898
140	0xbe1a1f67	-0.15051042
141	0x3de86f87	0.11349397
142	0x3d264a53	0.040598225
143	0x3e189b97	0.14903103
144	0xbc1d5dc6	-0.009604877
145	0xbdcaf481	-0.09909917
146	0x3dffbfce	0.12487756
147	0x3d47ed94	0.048810557
148	0xbe084590	-0.13307786
149	0xbe0c6b4b	-0.13712804
150	0xbe1fe350	-0.15614057
151	0xbd9db3a2	-0.07700278
152	0x3d90bd46	0.07067351
153	0xbcfd3359	-0.030908274
154	0x3e1cfa2f	0.15329812
155	0xbcf0c2c2	-0.029389743
156	0x3c82ac16	0.015951198
157	0xbcc1d7ae	-0.023662414
158	0x3daa686c	0.08320698
159	0xbde011f6	-0.10940926
160	0x3e2affca	0.16699138
161	0xbd5a94fc	-0.05336474
162	0x3e086540	0.13319874
163	0x3d4179f7	0.047235455
164	0x3e009170	0.1255548
165	0xbdb365dc	-0.087596625
166	0x3e2cd7aa	0.16879144
167	0x3d91af8e	0.071135625
168	0x3e1a06e7	0.15041696
169	0x3d07f829	0.03319565
170	0xbe307021	-0.17230274
171	0x3d7699dc	0.060205325
172	0x3d592332	0.05301208
173	0x3d73473f	0.059394117
174	0x3df95855	0.12175051
175	0x3dd1cfc4	0.10244706
176	0xbe11e2c2	-0.14246657
177	0x3dbe2b76	0.09285633
178	0x3c31028a	0.010803828
179	0xbd2d2947	-0.042275693
180	0xbd81be7a	-0.06335159
181	0x3d959be7	0.07305127
182	0x3dcd1d7f	0.100153916
183	0xbe29e952	-0.16592911
184	0xbccfedc0	-0.025381923
185	0xbe26eed7	-0.16302048
186	0xbd99b7d7	-0.07505768
187	0x3dcedb48	0.10100418
188	0x3bc01844	0.0058622677
189	0x3dff1e57	0.12456959
190	0x3bc28de1	0.0059373234
191	0x3dfae40c	0.12250528
192	0x3dedaa50	0.1160475
193	0x3e270bec	0.16313142
194	0xbdae3609	-0.085064
195	0x3dfc6b8f	0.12325203
196	0x3e256c6b	0.1615464
197	0x3db28e1b	0.08718511
198	0xbd2358f1	-0.039879743
199	0x3e1869a9	0.14884056
200	0xbe196b79	-0.14982404
201	0x3e28e814	0.16494781
202	0x3c99314f	0.01870027
203	0x3de40683	0.111340545
204	0xbdd03ba4	-0.101676255
205	0xbdcb76c0	-0.09934759
206	0xbde20c35	-0.110374846
207	0xbcccb425	-0.024988243
208	0xbe31ac6f	-0.17350934
209	0x3de0e6d3	0.10981526
210	0xbd94a5c9	-0.072581835
211	0x3e0db6ea	0.13839307
212	0xbe10d9ce	-0.14145586
213	0x3db90540	0.090342045
214	0xbd1a9d2c	-0.037747547
215	0xbdd05b6a	-0.10173686
216	0x3e0a8d84	0.13530546
217	0xbe200d2b	-0.15630023
218	0xbe0f3647	-0.13985549
219	0x3d1e09dd	0.038583625
220	0x3d0409d7	0.032235947
221	0xbd063f86	-0.032775424
222	0xbd52636d	-0.05136435
223	0x3d8e4bfb	0.06948086
224	0xbda4c145	-0.08044676
225	0x3dd65770	0.10465896
226	0x3d9b9471	0.07596672
227	0xbd947ad5	-0.07249991
228	0x3da04f87	0.07827669
229	0x3e056b54	0.13029224
230	0xbd9999a5	-0.075000085
231	0x3d9ede17	0.07757204
232	0xbd97ac63	-0.07405927
233	0x3dab0caf	0.083520286
234	0xbd803475	-0.062600054
235	0x3d5e571a	0.054282285
236	0x3d608abc	0.054819807
237	0xbe1158d8	-0.14194047
238	0xbd90a2a0	-0.07062268
239	0x3d617d54	0.055051163
240	0xbd4352bd	-0.047686327
241	0xbdcb313d	-0.09921501
242	0xbc3bfa6c	-0.011473279
243	0xbe156b6b	-0.14591758
244	0x3dbe2547	0.09284454
245	0xbe12befc	-0.14330667
246	0xbe039896	-0.12851176
247	0x3dd4e377	0.10394948
248	0xbe1bb565	-0.15205915
249	0xbdd8425c	-0.10559532
250	0x3d86885a	0.06568976
251	0xbc3f0f08	-0.011661299
252	0x3d3ecc2f	0.046581443
253	0xbdc97a4f	-0.09837782
254	0xbd0452fa	-0.032305695
255	0x3c070793	0.008241552

fcs1_bn.weight f4 [400]
0	0x3ef5708f	0.47937438
1	0x3eaa5417	0.3326728
2	0x3f1a4816	0.60266244
3	0x3ecaabce	0.39584202
4	0x3e6ac22e	0.22925636
5	0x3eddd34f	0.43325278
6	0x3f030c94	0.5119107
7	0x3e18ea7a	0.14933196
8	0x3f5ce8e1	0.86292845
9	0x3f5313d3	0.82452124
10	0x3f2cc3b6	0.6748613
11	0x3f5773af	0.84160894
12	0x3e21c7c4	0.15798861
13	0x3e455cc3	0.19273667
14	0x3f180239	0.5937839
15	0x3e9d258c	0.30692708
16	0x3f0a1b41	0.53947836
17	0x3f3992d8	0.7248969
18	0x39e641a1	0.00043917916
19	0x3f3a75de	0.728361
20	0x3c69bb9a	0.014265919
21	0x3f053e03	0.5204775
22	0x3ee6200d	0.44946328
23	0x3f19b4fc	0.60041785
24	0x3e82a003	0.25512704
25	0x3efe3e84	0.4965707
26	0x3dd31d92	0.103083745
27	0x3e1455d8	0.14485872
28	0x3f73f67c	0.9529798
29	0x3e1bbe91	0.15209414
30	0x3ef3c500	0.47611237
31	0x3e776e80	0.24163246
32	0x3e8b5235	0.27211156
33	0x3f2fa0fa	0.68605006
34	0x3e9106be	0.28325456
35	0x3f2354b0	0.638011
36	0x3ea94f20	0.3306818
37	0x3f08d6e7	0.53452915
38	0x3f70c487	0.94049877
39	0x3ee0bc27	0.4389355
40	0x3eb53837	0.3539445
41	0x3e210b58	0.15726984
42	0x3f631b8c	0.8871391
43	0x3f156115	0.5835126
44	0x3f21aa57	0.6315054
45	0x3f6843ef	0.9072866
46	0x3e6cba4f	0.23117946
47	0x3e0832a8	0.13300574
48	0x3f35eb6b	0.71062344
49	0x3e375676	0.17904076
50	0x3f652665	0.8951171
51	0x3ef7e852	0.48419434
52	0x3f31c644	0.69443154
53	0x3f4c6836	0.79846513
54	0x3f0f182b	0.5589625
55	0x3f0df0b2	0.55445397
56	0x3ded2806	0.115798995
57	0x3e8dea1c	0.27717674
58	0x3f1d960f	0.61557096
59	0x3f2a591e	0.6654223
60	0x3f28af3a	0.65892375
61	0x3f1b85f9	0.607513
62	0x3f7a6b74	0.9782021
63	0x3ed743df	0.4204397
64	0x3bb337bb	0.00546929
65	0x3b9b07b3	0.0047311424
66	0x3f607530	0.87678814
67	0x3f3b800c	0.7324226
68	0x3e38e7bc	0.1805715
69	0x3f380c28	0.7189355
70	0x3f69a150	0.9126177
71	0x3f45c8c9	0.772595
72	0x3f2dd510	0.6790323
73	0x3e8b6d4a	0.27231818
74	0x3e6764eb	0.22597091
75	0x3d382504	0.044957176
76	0x3f42ebe4	0.7614119
77	0x3eefaeab	0.4681295
78	0x3f0220ec	0.50831485
79	0x3f4bd409	0.79620415
80	0x3ef22eb9	0.47301272
81	0x3f0da378	0.5532756
82	0x3d240fa4	0.04005398
83	0x3e3b1a40	0.18271732
84	0x3e996dc8	0.2996657
85	0x3e891187	0.26771185
86	0x3f21afb0	0.631587
87	0x3f1946bf	0.59873575
88	0x3ef04764	0.46929467
89	0x3f255301	0.6457978
90	0xb8b193d6	-8.467554e-05
91	0x3f1cd69a	0.61264956
92	0x3eb335ee	0.35002083
93	0x3e8447b0	0.25835943
94	0x3e0f2a76	0.13981041
95	0x3e931b08	0.2873156
96	0x3f304c1c	0.68866134
97	0x3f5f99c4	0.87344
98	0x3e653252	0.22382477
99	0x3f4e3fd5	0.8056615
100	0x3eb8d128	0.36097074
101	0x3f0f64d3	0.5601322
102	0x3ef6a034	0.481691
103	0x3c67e421	0.014153511
104	0x3f48b12a	0.7839533
105	0x3ebfae37	0.37437603
106	0x3ece95c4	0.40348637
107	0x3f6b2d27	0.9186577
108	0x3ef8e330	0.4861083
109	0x3f17c9f4	0.5929253
110	0x3eff6c6c	0.49887407
111	0x3ef551ac	0.47913873
112	0x3f04e18a	0.51906645
113	0x3f5708b9	0.83997685
114	0x3f3d9717	0.7405867
115	0x3f09f5ae	0.538905
116	0x3f064626	0.5245079
117	0x3efd09a0	0.49421406
118	0x3f2344fe	0.6377715
119	0x3ea77e3b	0.32713494
120	0x3ec1a7bc	0.37823284
121	0x3edbfe06	0.42967242
122	0x3ee202a7	0.4414265
123	0x3f59cb8c	0.8507621
124	0x3eecdfba	0.4626444
125	0x3e533af8	0.20627964
126	0x3ea1e094	0.31616652
127	0x3f62e3a8	0.88628626
128	0x3f47b3ff	0.7800903
129	0x3f0288b1	0.50989825
130	0x3e94b9cf	0.2904801
131	0x3eaf5e6f	0.34251735
132	0x3f1ac65d	0.6045893
133	0x3f31bc35	0.69427806
134	0x3f23598a	0.638085
135	0x3edfc7d0	0.43707132
136	0x3f0edd58	0.55806494
137	0x3ddb7920	0.10716462
138	0x3d497156	0.04918035
139	0x3f27f437	0.6560702
140	0x3e37d037	0.17950521
141	0x3e2772bd	0.16352363
142	0x3f65d8ab	0.89783734
143	0x3f0193ae	0.50615966
144	0x3ef73c57	0.48288223
145	0x3bb8ca89	0.0056393784
146	0x3ee00d9e	0.4376039
147	0x3e344348	0.17603791
148	0x3f67eb55	0.90593463
149	0x3ed947c4	0.42437565
150	0x3f3512a7	0.70731586
151	0x3f2ebf95	0.6826108
152	0x3f2243ac	0.6338451
153	0x3f4cbf72	0.7997962
154	0x3f07b1f4	0.5300591
155	0x3edb7ad4	0.42867148
156	0x3ee1c829	0.44098023
157	0x3f0ef678	0.5584483
158	0x3ea39065	0.31946102
159	0x3ed98d68	0.42490697
160	0x3f306963	0.6891081
161	0x3f44442a	0.7666651
162	0x3f0b055c	0.5430505
163	0x3f257a4d	0.6463974
164	0x3ee1a2e4	0.44069588
165	0x3e85468b	0.26030383
166	0x3f103dc7	0.56344265
167	0x3e317eac	0.17333478
168	0x3f175319	0.5911117
169	0x3f71f882	0.9451982
170	0x3f218ee7	0.63108677
171	0x3f1f069f	0.6211948
172	0x3e8d5333	0.27602538
173	0x3e874f9c	0.26427925
174	0x3d8b3fc4	0.06799272
175	0x3f4ef818	0.8084731
176	0x3f4d51e4	0.8020308
177	0x3ed01e2e	0.40648025
178	0x3f2dd80f	0.67907804
179	0x3de4501f	0.111480944
180	0x3dbb550b	0.0914708
181	0x3f41de68	0.7572999
182	0x3f5669ad	0.83755
183	0x3f193625	0.59848243
184	0x3f15402c	0.58301044
185	0x3f553a29	0.8329187
186	0x3f3a7328	0.72831964
187	0x3eb224f5	0.3479382
188	0x3f54ff63	0.8320219
189	0x3cf718b9	0.030163156
190	0x3ee6c8bc	0.45075023
191	0x3a06dbf1	0.0005144468
192	0x3b7f1828	0.003892431
193	0x3f1606ba	0.58604014
194	0x3ec121f5	0.3772122
195	0x3f4c1bef	0.79730123
196	0x3d4a2b8d	0.04935794
197	0x3e137129	0.14398636
198	0x3efc37d7	0.49261352
199	0x3ef5834f	0.47951743
200	0x3d528fc0	0.051406622
201	0x3af27fc4	0.0018501212
202	0x3f5fcbb5	0.8742021
203	0x3eb6b3c1	0.35684016
204	0x3f7d931e	0.9905261
205	0x3f820e69	1.0160648
206	0x3f4e4a58	0.8058219
207	0x3f29c528	0.6631646
208	0x3f0f7204	0.5603335
209	0x3df76b02	0.12080957
210	0x3f4a1ff6	0.7895502
211	0x3f345e03	0.7045595
212	0x3f84f99e	1.0388677
213	0x3e597294	0.21235114
214	0x3f3907c4	0.72277474
215	0x3f54bd3c	0.8310125
216	0x3f731d1a	0.9496628
217	0x3f533bcd	0.82513124
218	0x3ea79c77	0.3273656
219	0x3e49f638	0.19722831
220	0x3f788a37	0.970859
221	0x3f1f2b15	0.6217511
222	0x3c317d3d	0.010833082
223	0x3f42da35	0.7611421
224	0x3eb63ac3	0.35591707
225	0x3e9cdd57	0.3063762
226	0x3f701457	0.93781036
227	0x3efd1a2c	0.4943403
228	0x3f41cb6f	0.7570104
229	0x3f1250c0	0.57154465
230	0x3f760857	0.96106476
231	0x3d9294ae	0.07157265
232	0x3ef9ea24	0.48811448
233	0x3f747918	0.95497274
234	0x3e191f2f	0.14953302
235	0x3f1f044c	0.6211593
236	0x3f50ce70	0.81565
237	0xb9d24097	-0.00040102444
238	0x3ee6f7be	0.45110887
239	0x3d9ee82c	0.07759127
240	0x3f3bf631	0.73422533
241	0x3e70f838	0.23532188
242	0x3e282a97	0.16422497
243	0x3e85e68f	0.26152465
244	0x3e763a77	0.2404574
245	0x3e39e4ca	0.18153682
246	0xbb8360dd	-0.0040093497
247	0x3d8376aa	0.06419118
248	0x3e8103b9	0.25198153
249	0x3f0f6217	0.5600905
250	0x3eae5c1b	0.34054646
251	0x3de305f8	0.11085123
252	0x3e38425c	0.17994064
253	0xb9b93d4d	-0.00035331622
254	0x3ea7159d	0.32633677
255	0x3ed2ab1c	0.4114617

fcs1_bn.bias f4 [400]
0	0xbd4efa3a	-0.050531603
1	0xbdbdef20	-0.09274125
2	0xbe09cf6f	-0.13458036
3	0xbd72239e	-0.059116
4	0xbdc91b07	-0.09819608
5	0xbcb7c40b	-0.022432348
6	0xbdf06017	-0.11737078
7	0xbdc9e897	-0.09858816
8	0xbdf196ee	-0.11796366
9	0xbd5e5716	-0.05428227
10	0xbda43c4c	-0.08019313
11	0xbdaebff2	-0.085327044
12	0xbd16623a	-0.03671477
13	0xbd253671	-0.040335122
14	0xbda597fe	-0.08085631
15	0xbe16593c	-0.14682478
16	0xbdf8090d	-0.12111101
17	0xbd92286e	-0.071366176
18	0xbc598a61	-0.013277621
19	0xbd6f1384	-0.05836822
20	0xbd258366	-0.040408514
21	0xbe0bf91e	-0.1366925
22	0xbdd049d1	-0.10170329
23	0xbde0d70c	-0.10978517
24	0xbd860ec6	-0.065457866
25	0xbd67b67f	-0.056570526
26	0x3c025c51	0.00795658
27	0xbb40c4ee	-0.0029414254
28	0xbbad9c28	-0.0052981563
29	0xbd188159	-0.03723273
30	0xbd326de5	-0.043561835
31	0xbb998d07	-0.004686001
32	0xbe039065	-0.12848051
33	0xbd9ec378	-0.077521265
34	0xbdd96383	-0.106146835
35	0xbd59bff9	-0.053161595
36	0xbdbf66fe	-0.09345816
37	0xbe08b708	-0.13351071
38	0xbdc8db99	-0.0980751
39	0xbd36822b	-0.04455773
40	0xbdb95ced	-0.09050927
41	0xbdbc1454	-0.09183565
42	0xbda72df2	-0.0816306
43	0xbd7f4c63	-0.062328707
44	0xbd75fbc0	-0.06005454
45	0xbd35cae2	-0.044382937
46	0xbcc24e3e	-0.02371895
47	0xbdc49097	-0.09597891
48	0xbd19193b	-0.037377577
49	0xbe275e08	-0.16344464
50	0xbd8dec08	-0.06929785
51	0xbe0c7304	-0.1371575
52	0xbe2867c8	-0.1644584
53	0xbdb16a51	-0.08662856
54	0xbd9e279e	-0.077224
55	0xbdf9ac39	-0.12191052
56	0xbdd1e288	-0.102482855
57	0xbd630f2e	-0.0554344
58	0xbdda344d	-0.10654507
59	0xbd5aeb21	-0.053446893
60	0x3c6c8f5a	0.014438475
61	0xbdfbdc62	-0.12297894
62	0xbda7905b	-0.081818305
63	0xbdd17c29	-0.1022876
64	0xbd03a13c	-0.032136187
65	0xbd382ecf	-0.044966515
66	0xbd011c2e	-0.031521015
67	0xbdf9fa2f	-0.12205922
68	0xbe0277fb	-0.12741081
69	0xbddaf202	-0.106906906
70	0xbdefb8f0	-0.11705196
71	0xbd2fdf5e	-0.04293763
72	0xbdbef223	-0.09323528
73	0xbd2f6464	-0.04282035
74	0xbdde6934	-0.1085991
75	0xbab1a5e3	-0.0013553466
76	0xbda935e4	-0.08262232
77	0xbe0ab6bf	-0.13546275
78	0xbe4cd3f2	-0.20002726
79	0xbd71eab4	-0.05906172
80	0xbd263b82	-0.040584095
81	0xbdbf1a63	-0.09331205
82	0xbd442a6f	-0.04789203
83	0xbd93464f	-0.07191145
84	0xbd210f3a	-0.03932116
85	0xbd19b008	-0.037521392
86	0xbcd052e1	-0.025430145
87	0xbe18cc97	-0.14921795
88	0xbd78d1bc	-0.060746893
89	0xbe15152f	-0.14558862
90	0xbc7e5037	-0.015522054
91	0xbdd1643a	-0.10224195
92	0xbd2bea62	-0.04197157
93	0xbd460eb9	-0.048353884
94	0xbd95fb22	-0.073232904
95	0xbd288613	-0.04114349
96	0xbdbc63b8	-0.09198707
97	0xbe2e964c	-0.17049521
98	0xbcc7ea8b	-0.024403831
99	0xbe176352	-0.14783981
100	0xbddb8a6a	-0.1071976
101	0xbd565d3e	-0.052335016
102	0xbd290c79	-0.04127166
103	0xbd36cdc3	-0.044629823
104	0xbde52df8	-0.111904085
105	0x3be718ed	0.007052532
106	0xbccd1db2	-0.025038574
107	0xbd3b3021	-0.045700196
108	0xbe199b9a	-0.15000764
109	0xbddf4afd	-0.10902975
110	0xbd98fce8	-0.07470113
111	0xbc48e26f	-0.012261017
112	0xbe0a850f	-0.1352732
113	0xbe00aa82	-0.12565044
114	0xbdfed582	-0.12443067
115	0xbd84ad7f	-0.06478404
116	0xbdbd03be	-0.092292294
117	0xbde51e56	-0.11187427
118	0xbccd3214	-0.025048293
119	0xbdd33b9c	-0.10314104
120	0xbd4ff126	-0.050767086
121	0xbd7b8779	-0.061408494
122	0xbda42bac	-0.08016142
123	0xbd981f09	-0.074277945
124	0xbd4bbf62	-0.049743064
125	0xbd13ddbd	-0.036100138
126	0x3c7e20f0	0.015510783
127	0xbe2645e8	-0.16237605
128	0xbd5c072f	-0.05371779
129	0xbdbe1ecd	-0.092832185
130	0xbd82943d	-0.063759305
131	0xbdcbec3c	-0.099571675
132	0xbd9c9e76	-0.076474115
133	0xbe24e7c5	-0.16104038
134	0xbdba7aba	-0.091054395
135	0xbda6f37b	-0.08151909
136	0xbe12f8a3	-0.1435266
137	0xbd9714ec	-0.073770374
138	0xbd5fe427	-0.054660942
139	0xbe023e84	-0.1271916
140	0xbe0db196	-0.13837275
141	0xbe084566	-0.13307723
142	0xbd541df2	-0.05178637
143	0xbe008912	-0.12552288
144	0xbd89c1c4	-0.06726411
145	0xbd0050d2	-0.031327076
146	0xbe0741e8	-0.13208735
147	0xbde7b62a	-0.11314042
148	0xbd6b28cb	-0.05741195
149	0xbcf14882	-0.02945352
150	0xbd919093	-0.071076535
151	0xbdf135a5	-0.1177781
152	0xbd2e930f	-0.042620715
153	0xbe28c06e	-0.16479656
154	0xbdd8e70d	-0.105909444
155	0xbd83be7f	-0.064328186
156	0x3d026e39	0.031843398
157	0xbd9abb15	-0.07555214
158	0xbdae8950	-0.08522284
159	0xbdf2119d	-0.11819766
160	0xbbe2df7a	-0.006923613
161	0xbcef7f5b	-0.029235533
162	0xbc054a63	-0.008135411
163	0xbe14566b	-0.14486091
164	0xbd9fc2f1	-0.07800854
165	0xbde0fe93	-0.10986056
166	0xbe0ebc32	-0.13938978
167	0xbdc13168	-0.094332516
168	0xbde34343	-0.110968135
169	0xbd2d8425	-0.04236235
170	0xbdb75f0a	-0.08953674
171	0xbe3f8d51	-0.18706252
172	0xbdbdc270	-0.09265602
173	0xbd596843	-0.053077947
174	0xbcfd225f	-0.030900178
175	0xbdb57398	-0.088599384
176	0xbd62e889	-0.055397544
177	0xbdf4bf09	-0.119504996
178	0xbd6ca425	-0.057773728
179	0xbd47127c	-0.048601612
180	0xbdbf1fa4	-0.09332207
181	0xbbb7cb5d	-0.0056089596
182	0xbd1dbfa6	-0.03851285
183	0xbd3302d1	-0.043703858
184	0xbdac4353	-0.084112786
185	0xbd6c710f	-0.05772501
186	0xbd6eff37	-0.05834886
187	0xbd9754d3	-0.07389226
188	0xbd7ba8f8	-0.061440438
189	0xbcf877a7	-0.030330492
190	0xbd7c84ae	-0.06164997
191	0xbc2169d4	-0.009851892
192	0xbc8daafa	-0.017293442
193	0xbbb68286	-0.005569759
194	0x3d40bf7b	0.04705761
195	0xbd950a32	-0.07277335
196	0xbcd3314c	-0.025780343
197	0xbd13e045	-0.036102552
198	0xbda7c7f4	-0.08192435
199	0xbde4445a	-0.111458495
200	0xbd70c978	-0.058785886
201	0xbc154831	-0.00911145
202	0x3c35fdd0	0.011107877
203	0xbdbac79d	-0.091201045
204	0xbdd367c0	-0.10322523
205	0xbcbb40e3	-0.022858089
206	0xbd7940f1	-0.06085295
207	0xbdcde7e3	-0.100539945
208	0xbd717716	-0.05895146
209	0xbd04c128	-0.03241077
210	0xbdfee01b	-0.124450885
211	0xbdf587e7	-0.11988812
212	0xbd9dd084	-0.07705787
213	0xbde3be90	-0.11120331
214	0xbe180e7a	-0.14849272
215	0xbdfcf919	-0.12352199
216	0xbdec8ba6	-0.11550073
217	0xbd603251	-0.054735485
218	0xbda003b9	-0.0781321
219	0x3ca3eab5	0.020009378
220	0xbe0581e5	-0.13037832
221	0xbd4a71ed	-0.049425054
222	0xbd93368f	-0.071881406
223	0xbe1807cf	-0.14846729
224	0xbdf5d434	-0.12003365
225	0xbd730e30	-0.059339702
226	0xbcbc9ae3	-0.023023074
227	0xbe02717e	-0.12738606
228	0xbe0c4c95	-0.13701089
229	0xbe022533	-0.12709503
230	0xbe039feb	-0.12853973
231	0x3d11b2b5	0.03557082
232	0xbd0b755b	-0.034047466
233	0xbe3340b3	-0.1750515
234	0xbd4ea29c	-0.050448045
235	0xbdd97de7	-0.10619717
236	0x3c6163af	0.013756677
237	0xbbcef0c1	-0.006315321
238	0xbde5d376	-0.112219736
239	0xbddbd980	-0.10734844
240	0xbd8b65db	-0.06806537
241	0xbdf187b5	-0.11793462
242	0xbd81a311	-0.063299306
243	0xbdf8b2fa	-0.12143512
244	0xbc0f9c28	-0.008765258
245	0xbd7ac497	-0.06122264
246	0xbcd9c126	-0.026581358
247	0xbd3d9385	-0.046283264
248	0xbd427060	-0.04747045
249	0xbd81c023	-0.06335475
250	0xbe047325	-0.12934549
251	0xbd9480d4	-0.072511345
252	0xbd82fc67	-0.06395798
253	0xbca674b0	-0.020319313
254	0xbd840e3f	-0.0644803
255	0xbdd1b77a	-0.102400735

fcs1_bn.running_mean f4 [400]
0	0x3e080ef8	0.1328696
1	0xbe451e11	-0.1924975
2	0x3c3f9e47	0.011695451
3	0xbed68b68	-0.41903234
4	0x3ea5412f	0.32276294
5	0xbea4ffc3	-0.3222638
6	0xbcd48a1d	-0.025944764
7	0xbb001e09	-0.0019549152
8	0x3e9336af	0.28752658
9	0x3c86802b	0.016418537
10	0x3f62cc55	0.88593036
11	0xbd9ebfa8	-0.07751399
12	0xbec150a7	-0.37756845
13	0x3dd588f4	0.10426512
14	0xbe2ce731	-0.16885068
15	0xbd3321fc	-0.043733582
16	0xbd7fd99f	-0.0624634
17	0xbe7fe1dd	-0.24988504
18	0x3ed250b7	0.41077206
19	0xbe0018c0	-0.12509441
20	0xbe65fb0c	-0.22459048
21	0x3db1273b	0.08650061
22	0x3f0aceee	0.54222
23	0xbe18e0f2	-0.1492956
24	0x3c9da126	0.01924188
25	0xbd3884f2	-0.04504866
26	0x3e1482e6	0.14503059
27	0xbe9a82cb	-0.30177912
28	0xbed5ab68	-0.41732335
29	0xbee27527	-0.44230005
30	0xbeaad695	-0.33366838
31	0xbd170370	-0.036868513
32	0x3f06cb13	0.52653617
33	0x3d7061d3	0.058687042
34	0xbe96855a	-0.29398614
35	0xbe1d5fff	-0.15368651
36	0x3dce207f	0.10064792
37	0xbeff95c1	-0.4991894
38	0xbc9cb29a	-0.019128133
39	0xbebf07c4	-0.37310612
40	0xbe3f63a7	-0.18690358
41	0xbe000fc6	-0.12506017
42	0xbc953df5	-0.01821802
43	0xbe1b2aff	-0.1515312
44	0xbecbdfbb	-0.3981913
45	0x3e1d2f17	0.15349995
46	0x3dac802d	0.08422885
47	0x3ece5a30	0.40303183
48	0xbe36921a	-0.17829171
49	0x3da9b304	0.08286098
50	0xbe1bb109	-0.15204252
51	0x3ea526c4	0.32256138
52	0xbe04988a	-0.12948814
53	0xbe9e5d6a	-0.30930644
54	0xbd94da3b	-0.07268187
55	0x3dc01ed4	0.0938088
56	0x3e9eb5e2	0.3099814
57	0xbe47e601	-0.19521333
58	0xbd4e61de	-0.050386302
59	0x3e4cadf8	0.19988239
60	0x3d496eae	0.049177818
61	0x3f0b07ef	0.5430898
62	0xbe2236c4	-0.15841204
63	0x3e895d93	0.26829204
64	0x3dff4d92	0.12465967
65	0x3d7a41b6	0.061097823
66	0x3ee04b68	0.4380753
67	0x3eb7c718	0.35894084
68	0x3d4877f8	0.048942536
69	0x3f06a12f	0.52589697
70	0xbe3ea583	-0.18617825
71	0x3c876c93	0.016531264
72	0x3c62e0f8	0.013847582
73	0xbdbf039f	-0.093268625
74	0x3c4bf7df	0.012449234
75	0xbe713d2d	-0.23558493
76	0x3e93e40b	0.2888492
77	0x3d4722a6	0.048617028
78	0x3e37bced	0.17943163
79	0xbe8458ed	-0.25849095
80	0xbec168de	-0.3777532
81	0x3e0ad39a	0.13557282
82	0x3c2930ae	0.010326548
83	0xbe65c94c	-0.2244007
84	0xbe5036c7	-0.20333396
85	0xbe1e77f2	-0.15475443
86	0x3e8aba4f	0.27095267
87	0x3db16426	0.0866168
88	0xbd1fb387	-0.03898957
89	0x3f0e112d	0.5549496
90	0x3e06b800	0.13156128
91	0xbe944ffa	-0.28967267
92	0x3bca98ce	0.0061827665
93	0x3ee96607	0.45585653
94	0xbdd16416	-0.10224168
95	0xbd932ed1	-0.07186664
96	0xbda51d7d	-0.08062265
97	0xbe4f7d93	-0.20262747
98	0xbec1b51f	-0.37833497
99	0xbe10767f	-0.14107703
100	0xbe97b471	-0.29629853
101	0x3ca94bb3	0.020665979
102	0x3d595ba8	0.053065926
103	0xbef06180	-0.46949387
104	0xbe65a33c	-0.2242555
105	0xbbf485cd	-0.0074622394
106	0xbe9278e9	-0.28607872
107	0x3e0baaa3	0.13639311
108	0x3e84d0b3	0.25940475
109	0x3d4449fa	0.047922112
110	0x3e0f4d86	0.13994417
111	0xbe4af53a	-0.19820109
112	0xbe0e53f9	-0.1389922
113	0x3edd1e66	0.43187255
114	0x3d9bfb26	0.07616262
115	0x3dad848c	0.08472547
116	0x3dd28304	0.102788955
117	0x3edd37d6	0.43206662
118	0x3ee1b1b5	0.44080892
119	0x3c97e5fc	0.018542282
120	0xbe110234	-0.14160997
121	0x3e8db94b	0.2768043
122	0xbe6c10d0	-0.23053288
123	0xbeaa5a13	-0.33271846
124	0xbcbbb48e	-0.022913244
125	0x3e054b48	0.13016999
126	0xbe9df4e2	-0.30850893
127	0xbdbd5ee8	-0.092466176
128	0x3e69ad7f	0.2282009
129	0xbd276dd8	-0.04087624
130	0xbdf4580d	-0.11930857
131	0xbe9f6ea9	-0.31139114
132	0xbe32ac38	-0.17448509
133	0xbeab21a4	-0.33424103
134	0xbca1bcb0	-0.019743294
135	0x3e2593a2	0.16169599
136	0xbe9f5761	-0.31121352
137	0xbe1a53f4	-0.15071088
138	0x3e952e4d	0.29136887
139	0x3e67afa1	0.22625591
140	0xbd8714d3	-0.06595769
141	0x3e80f9ae	0.2519049
142	0x3c366e6a	0.011134723
143	0x3e6be168	0.23035204
144	0x3d2ba082	0.04190112
145	0x3dfd0c1a	0.12355824
146	0xbda0e77c	-0.07856652
147	0x3e2af96d	0.16696711
148	0xbea28d06	-0.31748217
149	0x3e65b617	0.22432743
150	0xbecb11ad	-0.39661923
151	0xbe83699a	-0.25666505
152	0x3e9c4016	0.30517644
153	0x3e27f47b	0.16401856
154	0xbde0875f	-0.1096332
155	0xbc8eeebf	-0.017447827
156	0x3c01368e	0.007886542
157	0xbde77a1b	-0.11302587
158	0xbea10caf	-0.3145499
159	0x3e7375ff	0.2377548
160	0x3f56f828	0.83972406
161	0x3db31724	0.08744648
162	0x3b9f7a9c	0.004866911
163	0x3e1fcc20	0.15605211
164	0xbe801068	-0.25012517
165	0x3e0fa343	0.14027123
166	0x3c84e936	0.016224485
167	0x3d35d3a6	0.044391297
168	0xbd5ddb1a	-0.05416403
169	0x3e78f1d3	0.24310999
170	0xbe1c12f5	-0.15241607
171	0x3df3cf10	0.119047284
172	0xbdac2829	-0.084060974
173	0xbd750379	-0.059817765
174	0x3ed09b52	0.407435
175	0x3e984f3e	0.29747957
176	0xbf0cb6dd	-0.5496653
177	0xbe24f71a	-0.16109887
178	0xbec445e7	-0.3833458
179	0x3e88f04e	0.26745838
180	0xbe627078	-0.22113216
181	0xbd1eeb48	-0.0387986
182	0xbe89107e	-0.26770395
183	0xbe5babe9	-0.21452297
184	0xbe9f6c50	-0.31137323
185	0xbe84711d	-0.2586755
186	0xbeb21bfe	-0.3478698
187	0xbe0f4110	-0.13989663
188	0xbc8827be	-0.016620513
189	0xbd8604cd	-0.065438844
190	0x3f0089c3	0.5021021
191	0x3da849d6	0.08217208
192	0x3e32ada8	0.17449057
193	0xbd4636aa	-0.048391975
194	0xbed3fa2d	-0.41401806
195	0xbe0e46fc	-0.13894266
196	0xbdaf5104	-0.085603744
197	0x3e8274af	0.25479648
198	0xbe3e759e	-0.18599555
199	0x3dfc7f6f	0.123289935
200	0xbe36b633	-0.17842941
201	0x3ea3a6ca	0.31963187
202	0xbe779f15	-0.24181779
203	0xbe134317	-0.14381061
204	0xbf0975b7	-0.53695244
205	0xbe3d22e4	-0.18470341
206	0xbeacb69b	-0.33733067
207	0x3da4a82b	0.08039888
208	0xbf469604	-0.77572656
209	0xbe64c37c	-0.22340196
210	0xbc996b8e	-0.018728044
211	0x3e9f34e5	0.31095043
212	0xbd120720	-0.035651326
213	0xbc9c4e20	-0.019080222
214	0xbe805667	-0.2506592
215	0xbe0e5b34	-0.13901979
216	0xbea6aabc	-0.32552135
217	0xbee842b3	-0.45363387
218	0xbec0fdef	-0.37693736
219	0xbe7936cb	-0.24337308
220	0xbdf4291a	-0.11921902
221	0xbd83890d	-0.06422625
222	0xbce38a08	-0.02777578
223	0x3db0c1c6	0.08630709
224	0x3cd9874f	0.026553778
225	0x3e03f259	0.12885417
226	0x3ece4727	0.4028866
227	0xbe3e3346	-0.18574247
228	0xbe0f0c02	-0.13969424
229	0x3e67f960	0.22653723
230	0xbd5f06af	-0.054449733
231	0xbd601d42	-0.054715402
232	0xbddb2f39	-0.107023664
233	0x3f0a6ce7	0.5407242
234	0xbd1a98a5	-0.03774323
235	0xbd2f2386	-0.042758487
236	0x3e0fa322	0.14027074
237	0xbeafe989	-0.3435786
238	0xbe286a36	-0.16446766
239	0x3e1ea6fe	0.1549339
240	0x3e2f0dab	0.17095058
241	0xbeebc2c4	-0.46047032
242	0xbe41fdd3	-0.18944483
243	0xbf004bc6	-0.5011562
244	0x3e3ba773	0.18325596
245	0xbe915a23	-0.2838908
246	0xbe7d9089	-0.24762167
247	0xbedfc181	-0.4370232
248	0xbe86f2a9	-0.2635701
249	0xbecc7879	-0.39935663
250	0x3cba180b	0.022716543
251	0xbe6f99d3	-0.23398523
252	0xbc88331e	-0.016625937
253	0xbe46bcab	-0.19407909
254	0x3eea0d73	0.45713386
255	0x3d02a47c	0.031895146

fcs1_bn.running_var f4 [400]
0	0x3fe923ba	1.8214028
1	0x409a045d	4.8130326
2	0x40808746	4.016513
3	0x3f959ec9	1.1689082
4	0x401758ad	2.3647873
5	0x3ff60b60	1.9222221
6	0x40260f81	2.5946963
7	0x4064231f	3.5646436
8	0x400a2d8f	2.1590307
9	0x3f2dc4f9	0.6787868
10	0x4043db52	3.0602612
11	0x4016cf87	2.3564165
12	0x4042028f	3.0314062
13	0x3f8e4ed9	1.1117812
14	0x4010e785	2.2641308
15	0x400a473a	2.1605973
16	0x40a53160	5.162277
17	0x40cf71ae	6.482627
18	0x402278e8	2.5386295
19	0x4099c41a	4.805188
20	0x405f52dd	3.4894326
21	0x3febc282	1.8418734
22	0x3fde3217	1.7359036
23	0x40344554	2.8167315
24	0x40217224	2.5225916
25	0x402af6bf	2.6713102
26	0x3feb670f	1.8390826
27	0x3fee63d7	1.8624219
28	0x40685cd4	3.6306658
29	0x3fbc6a9c	1.4720035
30	0x400520dd	2.0801308
31	0x401b688f	2.4282568
32	0x401e1883	2.470246
33	0x3f685535	0.90755016
34	0x40b8765e	5.764449
35	0x41008105	8.031499
36	0x4053ced1	3.309498
37	0x3f88c7dd	1.0685993
38	0x40701a3b	3.751601
39	0x40922337	4.5667987
40	0x3ff1a658	1.8878889
41	0x403bc48b	2.933871
42	0x3f50981f	0.8148212
43	0x3f9cf8fc	1.2263484
44	0x3f010b80	0.5040817
45	0x3feaf00c	1.8354506
46	0x402afe01	2.6717532
47	0x3f928040	1.1445389
48	0x3f8cfd74	1.1014848
49	0x401dbe02	2.4647222
50	0x406d1e66	3.7049804
51	0x3fe01a36	1.7507999
52	0x3f671400	0.9026489
53	0x40261c7f	2.5954893
54	0x3fbd5287	1.479081
55	0x40101613	2.2513473
56	0x40f05cd9	7.511334
57	0x402273cf	2.5383184
58	0x3f849240	1.0357132
59	0x3fc08daa	1.5043232
60	0x401f1fa5	2.4863064
61	0x3f5f7d18	0.8730025
62	0x3f8f681b	1.1203645
63	0x406b2955	3.6743977
64	0x3ebc3a4a	0.3676322
65	0x3f8b1ba5	1.0867811
66	0x4004cf7e	2.0751643
67	0x3fb97547	1.4488915
68	0x3ff8e454	1.944468
69	0x3ffa6854	1.9563088
70	0x3f919c71	1.1375867
71	0x4004fccf	2.0779302
72	0x3f30afbd	0.69018155
73	0x4089d5ec	4.3073635
74	0x40157e1c	2.335822
75	0x4008354e	2.1282535
76	0x3ec23890	0.3793378
77	0x3f2a229c	0.6645906
78	0x3fe4d67f	1.7877959
79	0x3f6578b6	0.89637315
80	0x3febc6da	1.842006
81	0x3f9e196f	1.2351512
82	0x40bb736d	5.85784
83	0x3f8566d1	1.0422002
84	0x40662cc4	3.5964823
85	0x401eb775	2.4799473
86	0x3f1f85e2	0.62313664
87	0x40364842	2.8481603
88	0x408cf214	4.4045506
89	0x4084acf3	4.146112
90	0x40bd94a7	5.924396
91	0x404fe340	3.2482452
92	0x409b9cde	4.862899
93	0x404f45f2	3.2386441
94	0x3f6128c2	0.87952816
95	0x3f1eebb9	0.62078434
96	0x40222633	2.5335815
97	0x4036e36d	2.857631
98	0x3f9f321b	1.2437166
99	0x3f726b38	0.9469485
100	0x3fd7b157	1.6850995
101	0x4093398d	4.6007752
102	0x40172c29	2.3620703
103	0x405257ca	3.2866082
104	0x4026e6aa	2.6078286
105	0x3f6f3f56	0.9345602
106	0x3f569726	0.83824384
107	0x40bf0edd	5.9705644
108	0x3fec9399	1.8482543
109	0x3fad317e	1.3530729
110	0x3fe63e9a	1.7987854
111	0x40092855	2.1430867
112	0x3f722687	0.9459004
113	0x4107d63e	8.489805
114	0x408d0470	4.4067917
115	0x3f7c92c3	0.9866144
116	0x3fd375bb	1.6520303
117	0x3fcc4a91	1.5960256
118	0x3fa91d99	1.3212157
119	0x4015bf2b	2.339793
120	0x3febd906	1.8425605
121	0x403d11cd	2.9542115
122	0x3fd6d7f2	1.6784651
123	0x3ff26684	1.8937535
124	0x3fc848dd	1.5647236
125	0x401511a4	2.3292017
126	0x40517f81	3.2734072
127	0x3fc2d5ce	1.5221498
128	0x3f8a9fea	1.0830052
129	0x3fe43d0c	1.783113
130	0x3f5b943e	0.85773075
131	0x3fdb1a70	1.7117443
132	0x40933bdf	4.6010585
133	0x3f7a1dcf	0.97701734
134	0x3fc65d0f	1.5497149
135	0x402ab073	2.6670196
136	0x40a89ccf	5.2691417
137	0x403e7788	2.9760456
138	0x3fcde772	1.6086257
139	0x4009338f	2.143772
140	0x4073d6e8	3.8099918
141	0x4008060c	2.125369
142	0x4043bcc0	3.0583954
143	0x401c50c3	2.4424293
144	0x3f75d074	0.960212
145	0x402418b4	2.5640078
146	0x3fae9238	1.3638372
147	0x3f2efa8f	0.6835107
148	0x3f5ea4ea	0.8697039
149	0x407cfbf6	3.9528785
150	0x408f1722	4.471574
151	0x3f26d96f	0.6517553
152	0x3fe8355b	1.8141283
153	0x40694793	3.6449935
154	0x402ee97e	2.7330012
155	0x400496f8	2.0717144
156	0x401425b1	2.3148005
157	0x40343cec	2.8162184
158	0x3fdef680	1.7418976
159	0x40ab076f	5.3446574
160	0x4021f4e3	2.5305717
161	0x3f9983dc	1.1993365
162	0x3fb9d4ee	1.4518106
163	0x3f63e225	0.89016944
164	0x408a4dff	4.322021
165	0x3fd41e8c	1.6571822
166	0x3fb27ded	1.394468
167	0x3f8ab0fc	1.0835261
168	0x4044506e	3.067409
169	0x3fae344f	1.3609713
170	0x3f79a103	0.9751131
171	0x3ff15647	1.8854455
172	0x3fd9b878	1.700942
173	0x404841e7	3.1290224
174	0x4027a419	2.6193907
175	0x4066c588	3.6058064
176	0x40ae8670	5.453911
177	0x3f979d3c	1.1844859
178	0x40621200	3.5323486
179	0x4000bd7b	2.011565
180	0x3f35a1d7	0.70950073
181	0x40477921	3.1167681
182	0x40877914	4.23353
183	0x404a5986	3.161714
184	0x40042ff1	2.065426
185	0x3ff582d6	1.9180553
186	0x406068d9	3.5063994
187	0x3f9d24b3	1.2276825
188	0x3fadd4ea	1.3580601
189	0x403651b9	2.848738
190	0x3fdce4dd	1.7257344
191	0x3ed688ca	0.41901237
192	0x3f8e0026	1.1093795
193	0x3fcfe5d0	1.6242008
194	0x3f4429f5	0.7662652
195	0x3fc6d446	1.5533531
196	0x3fda5b6a	1.7059147
197	0x3fc15c52	1.5106299
198	0x408303e8	4.094227
199	0x409123a4	4.5356007
200	0x404adb55	3.169637
201	0x3f2eb506	0.6824497
202	0x40981425	4.752459
203	0x40b5dab8	5.682949
204	0x3f1f1185	0.6213611
205	0x3faa3c69	1.3299686
206	0x3f243db4	0.6415665
207	0x3fbe58e9	1.4870883
208	0x4084e65a	4.153119
209	0x40a70837	5.219753
210	0x3f9c49ba	1.221
211	0x3fbc6cfa	1.4720757
212	0x3f0b18d2	0.5433475
213	0x4039f9d4	2.9058733
214	0x40ae1134	5.4396
215	0x4005e013	2.0918014
216	0x3fc31900	1.5242004
217	0x4021dbcc	2.5290403
218	0x3fb67743	1.4255146
219	0x3f3bc186	0.7334217
220	0x3f93b681	1.1540071
221	0x4015a4d9	2.3381865
222	0x401b6aa8	2.4283848
223	0x401041f3	2.2540252
224	0x3fe1cea0	1.7641182
225	0x4071f901	3.780823
226	0x3f2a6f31	0.66575915
227	0x3f9e2246	1.235421
228	0x40a54121	5.1642003
229	0x404cedbc	3.2020102
230	0x3fe43c79	1.7830955
231	0x3f874bd9	1.0570022
232	0x3fa93912	1.3220541
233	0x3ffb4574	1.963057
234	0x3fb60fe6	1.4223602
235	0x400a4e45	2.1610272
236	0x3fc011bf	1.5005416
237	0x3e8c7d0b	0.2743915
238	0x40333e42	2.800675
239	0x40474d01	3.114075
240	0x3f78d5cd	0.97201234
241	0x41248b3f	10.283996
242	0x4041482b	3.0200298
243	0x3f99d066	1.2016723
244	0x3fd59d2a	1.6688588
245	0x40005d1d	2.0056832
246	0x40095673	2.1459014
247	0x403b03b2	2.9221005
248	0x40831bc4	4.0971394
249	0x3ff76413	1.9327415
250	0x3f5aa263	0.8540403
251	0x408498d6	4.1436567
252	0x402806b5	2.6254094
253	0x407c70d8	3.9443874
254	0x3fa2d66b	1.2721685
255	0x3fb477a5	1.4099013

fc2.weight f4 [300, 404]
0	0xbc67bcf3	-0.01414417
1	0xbd0345d4	-0.032049015
2	0x3d4a2b2a	0.04935757
3	0xbd2b64eb	-0.04184429
4	0x3d5bdb8b	0.05367617
5	0x3bae1d40	0.0053135455
6	0xb8ea4350	-0.000111705274
7	0x3c409ba4	0.011755858
8	0xbd0a79d2	-0.033807583
9	0x3c2a568d	0.010396612
10	0xbdb91ccc	-0.09038696
11	0x3d05ab10	0.03263384
12	0x3d4a71fe	0.049425118
13	0xbde63237	-0.112400465
14	0xbd4422cf	-0.04788476
15	0xbc4f3e8a	-0.012649188
16	0x3c72df45	0.014823739
17	0x3a4123c2	0.0007367694
18	0x3c799075	0.015232195
19	0xbd2ba3d7	-0.041904297
20	0xbd07ac53	-0.033123326
21	0xbcc6ea7c	-0.024281733
22	0x3cdf4f8d	0.027259612
23	0x3d6dfbd1	0.05810148
24	0xbcb8d70c	-0.02256348
25	0xbda4b304	-0.08041957
26	0x3d4b1c79	0.0495877
27	0x3b3f47ac	0.0029187007
28	0xbd896af7	-0.06709855
29	0xbd85f696	-0.06541173
30	0xbdcab8b4	-0.098985106
31	0x3caade89	0.020858066
32	0xbdd4455b	-0.10364791
33	0xbce6ec68	-0.0281889
34	0xbd7549ca	-0.059884824
35	0xbd34945b	-0.044086795
36	0x3cee6501	0.029100897
37	0x3ca6ee52	0.020377312
38	0xbc84d1fb	-0.016213408
39	0xbd844398	-0.06458205
40	0xbb891aa5	-0.0041840845
41	0xbd0ff087	-0.035141494
42	0xbe025247	-0.12726699
43	0xbd827fc7	-0.06372028
44	0x3d243983	0.04009391
45	0x3c847eaa	0.01617368
46	0x3d440132	0.047852702
47	0xbd0638ad	-0.032768894
48	0xbdfee41e	-0.12445854
49	0x3ccc7c41	0.024961593
50	0xbda9ecf8	-0.08297151
51	0x3a32091d	0.0006791519
52	0x3ddf0912	0.10890402
53	0xbc54a363	-0.012978408
54	0xbd8ccf4d	-0.06875477
55	0x3c5d4c68	0.013506986
56	0xbd235bf2	-0.039882608
57	0xbc1e317e	-0.009655355
58	0xbcf5f176	-0.030022364
59	0xbc6ab697	-0.014325759
60	0xbdeff8ee	-0.117174014
61	0x3d7dd25f	0.061968204
62	0xbe1fd02f	-0.1560676
63	0xbd0fcfc4	-0.03511025
64	0x3cafcd3d	0.02146017
65	0x3cca8a86	0.024724256
66	0xbd9e0fef	-0.07717883
67	0x3bdc4d57	0.006723087
68	0xbd4d6cb3	-0.05015249
69	0xbdbdb588	-0.0926314
70	0x3b288554	0.0025714235
71	0xbb159950	-0.0022826977
72	0x3cb0e877	0.021595223
73	0x3c41768a	0.011808047
74	0x3dd93774	0.1060628
75	0x3cfb81de	0.030701574
76	0xbcece371	-0.028917046
77	0x3dd53d11	0.10412038
78	0xbcd78bd6	-0.026311796
79	0x3d4e015b	0.05029426
80	0x39de246b	0.00042370273
81	0xbbb3f2ee	-0.005491606
82	0xbd2cbf46	-0.0421746
83	0xbcaf3149	-0.021385806
84	0x3d01ae20	0.0316602
85	0xbc631ad6	-0.013861379
86	0x3d0ae52d	0.033909965
87	0x3ca2f1ea	0.019890744
88	0xbd0abcc0	-0.033871412
89	0xbd5f6b9e	-0.05454599
90	0xbd408c7a	-0.04700897
91	0x3ce89fd0	0.028396517
92	0xbd14faaf	-0.036371883
93	0x3cc079d0	0.023495585
94	0xbdb17b02	-0.0866604
95	0xbd37149f	-0.0446974
96	0xbcbc9a63	-0.023022836
97	0xbb993a37	-0.004676129
98	0x3c8cec94	0.017202653
99	0x3df81385	0.12113098
100	0x3dfd4859	0.12367315
101	0xbd7a67c0	-0.0611341
102	0xbd440d85	-0.047864456
103	0xbd6e46f2	-0.058173127
104	0x3d1f2d75	0.03886171
105	0xbcf97304	-0.030450352
106	0x3b7ec787	0.0038876252
107	0xbd2f5ab7	-0.04281112
108	0x3cb6f794	0.022334851
109	0xbcfaabc7	-0.030599488
110	0xbd8b65d8	-0.068065345
111	0xbd310381	-0.043216232
112	0x3cc677e0	0.024227083
113	0x3c1f760a	0.009732733
114	0x3cb885f7	0.022524817
115	0xbd929724	-0.07157734
116	0xbda31612	-0.07963194
117	0xbdd5e96b	-0.104449116
118	0xbbb6f034	-0.0055828337
119	0xbd449f11	-0.04800326
120	0xbd249bbf	-0.040187594
121	0x3dbc3282	0.09189321
122	0xbd795f4f	-0.06088191
123	0xbd912f70	-0.07089126
124	0x3d5bf9b9	0.05370495
125	0xbd3f573b	-0.04671405
126	0xbd0e271e	-0.034705274
127	0xbb8a354c	-0.0042177793
128	0x3d610844	0.054939523
129	0xbd57ca45	-0.052683134
130	0x3d360e50	0.044447243
131	0xbcbc8571	-0.023012849
132	0x3b06d694	0.0020574676
133	0x3dbcb2f0	0.09213817
134	0x3daf6b0c	0.085653394
135	0xbd5d234e	-0.053988747
136	0xbb9abf23	-0.0047224923
137	0xbb98d133	-0.0046636104
138	0x3cb75e2c	0.022383772
139	0xbd220069	-0.039551172
140	0x3d0cda83	0.034388077
141	0xbd35bd6d	-0.044370104
142	0xbbb4ad17	-0.005513798
143	0xbd2dc36e	-0.042422704
144	0xbd963611	-0.07334531
145	0x3ba1accb	0.0049339286
146	0x3d0f664e	0.035009675
147	0xbbc534ad	-0.0060182423
148	0xbd12fe97	-0.035887327
149	0xbd27d88a	-0.040977992
150	0x3ccd1358	0.025033638
151	0x3d80aa53	0.06282487
152	0x3d864877	0.0655679
153	0xbcc0b326	-0.023522925
154	0xb8717e98	-5.7576777e-05
155	0xbd8bcc18	-0.06826037
156	0xbd6a4c42	-0.05720163
157	0x3b905a75	0.0044053146
158	0xbd63bb4b	-0.05559854
159	0x3b877657	0.0041339803
160	0xbc3379ee	-0.010954363
161	0xbc8ead77	-0.017416699
162	0x3d063aca	0.03277091
163	0xbc7518d3	-0.014959532
164	0x3c5a011d	0.0133059295
165	0xbd3c3452	-0.045948334
166	0xbe02f7c2	-0.12789825
167	0xbcb17c59	-0.021665739
168	0x3d1a35f7	0.03764912
169	0xbd65a42b	-0.056064766
170	0xbd98124f	-0.07425367
171	0xbd677d81	-0.056516174
172	0x3d37d042	0.044876345
173	0xbc1cccb7	-0.009570292
174	0xbc5383c1	-0.012909831
175	0xbc85b468	-0.016321376
176	0xbd267d3f	-0.040646788
177	0x3d9eb5da	0.07749529
178	0x3d23b4dd	0.039967407
179	0xbc2a5c4a	-0.01039798
180	0xbd697fc2	-0.057006605
181	0xbcef8028	-0.029235914
182	0x3d09dfe2	0.033660777
183	0xbc21fa40	-0.009886324
184	0x3beb57c7	0.0071820947
185	0xbde4e04a	-0.11175592
186	0x3d09ee65	0.033674616
187	0x3cf642d2	0.03006116
188	0xbcad3c07	-0.021146787
189	0x3c85e82b	0.016346058
190	0xbddf19a1	-0.1089356
191	0xbd5c89c8	-0.053842336
192	0x3d1b1989	0.03786615
193	0x3d8a5320	0.06754136
194	0x3cd8732d	0.026422108
195	0xbc448a49	-0.01199586
196	0xbd9e88ad	-0.077409126
197	0xbb048517	-0.002022093
198	0x3b155d2c	0.002279113
199	0xbd36bffc	-0.044616684
200	0x3c9266c9	0.017871277
201	0x3cfe6ca4	0.031057663
202	0xbc19a30b	-0.009377251
203	0xbdc452ae	-0.095860824
204	0x3bff1727	0.0077847424
205	0xbd4acc6a	-0.04951135
206	0xbd1db2d2	-0.038500614
207	0xbd731684	-0.059347644
208	0x3c5ec411	0.013596551
209	0xbd4cfd1b	-0.050046068
210	0x3d8ba288	0.0681811
211	0xbdc1ad23	-0.09456851
212	0xbdb10717	-0.086439304
213	0xbd52d7ad	-0.051475216
214	0xbd9eff2c	-0.07763514
215	0x3cf10d9a	0.029425431
216	0x3d368b1a	0.04456625
217	0xbd0bc477	-0.03412291
218	0xbd0f859b	-0.035039525
219	0x3d0ee0a4	0.034882203
220	0xbd05f770	-0.032706678
221	0xbba16d2d	-0.004926345
222	0xbd66c268	-0.056337744
223	0xbc413e54	-0.011794645
224	0x3c81296a	0.015766818
225	0xbd9193fd	-0.07108305
226	0xbd9ec20c	-0.07751855
227	0x3d9e0aa4	0.07716873
228	0x3d43aee9	0.04777423
229	0xbd054236	-0.032533847
230	0xbd05f7ce	-0.032707028
231	0x3d54cbc6	0.051952146
232	0xbe058aae	-0.13041183
233	0xbd00b60d	-0.031423617
234	0x3d304d9e	0.04304277
235	0xbc4e2042	-0.012580933
236	0xbcec09f1	-0.028813334
237	0x3aaf777f	0.0013387053
238	0xbd74d346	-0.0597718
239	0xbc0dac12	-0.008646982
240	0xbcc17420	-0.023614943
241	0x3ca30c69	0.019903379
242	0x3d66762b	0.056265038
243	0x3c60c9eb	0.013720016
244	0xbd4d371f	-0.050101396
245	0x3d61a28f	0.05508667
246	0xbd786c12	-0.06064994
247	0xbbfe66d1	-0.0077637215
248	0xbcc3d784	-0.023906477
249	0x3b93fede	0.0045164665
250	0xbceafb45	-0.028684268
251	0xbc7c2617	-0.015389941
252	0xbd5eeaeb	-0.054423254
253	0x3d050ddf	0.03248393
254	0x3b659edd	0.0035037317
255	0xbd07bdf4	-0.033140138
