agent_checkpoints/checkpoint_critic_4.pth (torch_old, 554781 bytes, 13 tensors)

fcs1.weight f4 [400, 33]
0	0xba9cfd20	-0.0011977293
1	0x3cd06ba7	0.025441958
2	0x3a38e085	0.0007052499
3	0x3ded5cd8	0.11589974
4	0x3c71a36d	0.014748436
5	0x3cec64e4	0.028856702
6	0x3c27f11f	0.010250359
7	0xbd803e19	-0.06261844
8	0xbd4bd63b	-0.049764853
9	0xbdd53fcf	-0.10412561
10	0xbd735fc6	-0.05941751
11	0x3d1a4154	0.037659958
12	0xbcefa13d	-0.02925169
13	0x3d7a59ea	0.061120905
14	0x3d68cc78	0.05683562
15	0x3cb494fd	0.0220437
16	0xbd50776c	-0.05089514
17	0x3da924f5	0.08259002
18	0xbd90df0e	-0.07073794
19	0xbd697fb5	-0.057006557
20	0x3ce1ebd4	0.027578272
21	0x3bec9c86	0.0072208075
22	0xbd389ff6	-0.045074426
23	0xbdbf0b68	-0.093283474
24	0xbba2c164	-0.0049669016
25	0x3d085ccd	0.033291627
26	0xbd7cfd3c	-0.06176494
27	0x3ca02136	0.019547086
28	0x3d507329	0.050891075
29	0x3cccf492	0.025018964
30	0xbd187499	-0.03722057
31	0x3b10bfb0	0.002208691
32	0xb98902f0	-0.00026132865
33	0x3d133c9b	0.03594647
34	0x3dbc121f	0.09183144
35	0xbdaf80b5	-0.08569471
36	0x3deca7f4	0.11555472
37	0x3e0e9ec5	0.13927753
38	0xbe136afa	-0.14396277
39	0x3cd5391f	0.026028214
40	0x3cbac5e7	0.022799445
41	0x3e13e4ed	0.14442797
42	0x3b00a89e	0.0019631754
43	0xbcde8738	-0.027164087
44	0xbc3075bd	-0.0107702585
45	0xbaed321e	-0.0018096601
46	0x3d3d4525	0.04620852
47	0xbc2c188c	-0.010503899
48	0xbd090a90	-0.03345734
49	0xbda5bce6	-0.0809267
50	0x3e23ecbb	0.16008274
51	0x3e183111	0.14862467
52	0xbc346f18	-0.011012815
53	0x3d1d2f16	0.038374983
54	0x3d583c90	0.052792132
55	0xbdc75c07	-0.0973435
56	0x3bee48fe	0.007271885
57	0xbc4057a1	-0.011739642
58	0x3d9a2d88	0.07528216
59	0x3d9cd55d	0.07657883
60	0x3c8999d5	0.016796986
61	0x3d84ac13	0.06478133
62	0xbd2bc7ce	-0.041938595
63	0x3c42d3f1	0.011891351
64	0x3d25ee57	0.0405105
65	0x3c172867	0.009225941
66	0x3d856022	0.065124765
67	0xbd381949	-0.04494599
68	0x3c2d441f	0.010575323
69	0x3ca65bce	0.020307448
70	0xbcb091ff	-0.021553991
71	0xbd774621	-0.060369615
72	0x3cb24b2a	0.021764357
73	0x3d264c14	0.040599898
74	0x3c6b1925	0.014349257
75	0x3bc775cc	0.0060870405
76	0x3d01ae92	0.031660624
77	0x3d88fee7	0.06689244
78	0xbd75fb31	-0.060054008
79	0x3d807171	0.06271637
80	0xbd692a01	-0.056924824
81	0x3a9ab5a1	0.0011803397
82	0x3e2a195a	0.16611233
83	0xbd3910e9	-0.045182142
84	0x3cf920af	0.030411093
85	0xbc623c36	-0.013808301
86	0x3d7aa332	0.06119079
87	0x3d308414	0.04309471
88	0xbd543d30	-0.051816165
89	0x3d7f96ce	0.062399678
90	0x3cee8e1c	0.029120497
91	0xbcd96d00	-0.026541233
92	0x3d0d6401	0.0345192
93	0x3ac43c5e	0.0014971604
94	0xbd0a9d94	-0.033841684
95	0xbd2738f6	-0.040825807
96	0x3d463b90	0.048396647
97	0x3cd42b96	0.02589969
98	0xbd896606	-0.067089126
99	0x3c48618c	0.012230288
100	0x3d2cdafe	0.042201035
101	0xbcc18593	-0.023623263
102	0x3de639d4	0.112414986
103	0x3d41d45b	0.04732166
104	0xbc107013	-0.008815783
105	0xbda9a01e	-0.08282493
106	0xbd7faef6	-0.062422715
107	0x3d78f541	0.060780767
108	0xbbd7ff8c	-0.006591743
109	0xbcd4446e	-0.025911536
110	0xbc22eb07	-0.00994373
111	0xbc860287	-0.016358627
112	0x3d88e282	0.06683828
113	0x3d3bf793	0.045890402
114	0xbe0259a5	-0.12729509
115	0xbd3c36d0	-0.04595071
116	0xbe6fe21e	-0.234261
117	0xbe3697d2	-0.17831352
118	0x3dcb2001	0.09918214
119	0xbe2633ad	-0.1623065
120	0xbe1e4628	-0.1545645
121	0x3d057442	0.032581575
122	0x3d137bd2	0.036006756
123	0x3ca5edc1	0.020254971
124	0xbd6a42d9	-0.057192657
125	0xbd6b269c	-0.057409868
126	0x3cd885be	0.02643096
127	0x3c5da9d7	0.0135292625
128	0xbc458b40	-0.012057126
129	0xbcddf55b	-0.027094534
130	0x3c15ae34	0.009135772
131	0x3e13c1f6	0.14429459
132	0xbc5fe894	-0.013666291
133	0x3c00f493	0.007870811
134	0x3db26d77	0.08712285
135	0x3d09f26e	0.033678465
136	0x3d091b4a	0.03347329
137	0x3defe65e	0.11713861
138	0x3d8fc71a	0.070203975
139	0xbdcd10f1	-0.10012997
140	0x3d3f338a	0.04668001
141	0x3dace3c7	0.084418826
142	0x3d917f28	0.07104331
143	0xbca00646	-0.019534241
144	0x3df20f50	0.11819327
145	0x3d499899	0.049217794
146	0xbc7b36a7	-0.015332854
147	0xbcab5cce	-0.020918276
148	0x3e60df2e	0.21960136
149	0x3ad9699a	0.0016587258
150	0x3e690493	0.22755651
151	0xbe43cd3e	-0.19121262
152	0xbcc489d9	-0.023991512
153	0x3d72a264	0.0592369
154	0xbd8c9462	-0.06864239
155	0x3d061708	0.032736808
156	0xbbb03ba8	-0.0053782053
157	0xbcd20800	-0.02563858
158	0x3dbe836e	0.09302412
159	0xbd4ab325	-0.04948725
160	0x3d04ad7e	0.032392018
161	0x3d1b4b29	0.037913475
162	0xbbc74779	-0.0060815183
163	0xbca744d7	-0.020418568
164	0x3d8dee0b	0.06930169
165	0xbd779f50	-0.060454667
166	0xbc8649ab	-0.01639255
167	0x3ca19b91	0.0197275
168	0xbe0018b2	-0.1250942
169	0xbe22ab36	-0.15885624
170	0x3a7ada65	0.00095692865
171	0x3d5b4aac	0.05353801
172	0xbc348b26	-0.011019504
173	0xbc29c8c8	-0.010362811
174	0xbd596ce6	-0.05308237
175	0xbc850317	-0.016236825
176	0xbd27a747	-0.040931012
177	0xbc613c1c	-0.013747241
178	0x3c1e4d3f	0.009661972
179	0x3bca80d5	0.0061799088
180	0xbd4767b2	-0.048682876
181	0x3dfbdcc9	0.12297971
182	0xbd2dab56	-0.042399727
183	0xbcd02e51	-0.02541271
184	0x3e006d68	0.12541735
185	0x3d038c1c	0.03211604
186	0x3dc2c16f	0.09509551
187	0x3c7f9a0b	0.015600692
188	0x3cb7f0fc	0.022453777
189	0x3c852523	0.01625306
190	0xbd7c70d5	-0.061631043
191	0xbd37a400	-0.044834137
192	0xbbedfee2	-0.0072630504
193	0x3dc00870	0.09376609
194	0x3c2bbe58	0.010482393
195	0xbabb6143	-0.0014295954
196	0xbc7b18c0	-0.015325725
197	0xbe0ea873	-0.13931446
198	0x3d6a6832	0.057228275
199	0xbd6d1d67	-0.05788937
200	0x3d756b51	0.059916798
201	0x3c3cda0c	0.011526596
202	0x3d07a7f2	0.03311915
203	0xbe1f0724	-0.15530068
204	0x3d5f167d	0.054464806
205	0xbcc037d5	-0.023464123
206	0xbb987e5c	-0.004653735
207	0xbd2ec941	-0.0426724
208	0x3d37548a	0.044758357
209	0xbd7d7ac8	-0.06188467
210	0x3cc00f8e	0.023444917
211	0xbda6c296	-0.08142583
212	0xbb2425ce	-0.0025046947
213	0x3d7ca9ed	0.06168549
214	0x3dd14a4e	0.102192506
215	0xbd215436	-0.03938695
216	0xbe2ccf78	-0.16876018
217	0xbe062437	-0.13099752
218	0x3e02eca6	0.12785587
219	0x3dc9cb2a	0.098532036
220	0xbddac24e	-0.10681592
221	0xbc17574e	-0.009237124
222	0xbd173b24	-0.036921635
223	0x3d5e667b	0.05429695
224	0x3c5e940d	0.013585103
225	0x3d07d94e	0.033166222
226	0x3d31c448	0.04340008
227	0xbd38f753	-0.04515774
228	0x3cca2184	0.024674185
229	0xbd4aa600	-0.049474716
230	0x3de8a37e	0.11359309
231	0x3c075d73	0.008262026
232	0x3a20b5d2	0.0006130609
233	0x3d090fd0	0.033462346
234	0x3d09a17e	0.033601277
235	0x3db966c5	0.09052805
236	0x3ddd3a65	0.108021535
237	0x3e26791e	0.1625714
238	0x3c3e77b5	0.01162522
239	0xbd3c1dcf	-0.045926865
240	0x3e01f0aa	0.12689462
241	0x3e017b48	0.12644684
242	0xbd3cd768	-0.046103865
243	0xbbd3de71	-0.006465726
244	0x3ca4494c	0.020054482
245	0xbd29d482	-0.04146243
246	0x3ccfb416	0.025354426
247	0xbc99739f	-0.01873189
248	0x3cc59906	0.024120819
249	0x3d561fab	0.052276295
250	0xbdcfd1f8	-0.1014747
251	0x3d7348f9	0.059395764
252	0x3c9a2c42	0.018819932
253	0xbd102d17	-0.03519925
254	0x3d530c66	0.051525496
255	0x3d804885	0.06263832

fcs1.bias f4 [400]
0	0xbd168ade	-0.036753528
1	0xbe18000a	-0.14843765
2	0x3e1b4302	0.1516228
3	0x3b342e37	0.0027493367
4	0xbe0332c5	-0.12812336
5	0x3ddf273b	0.108961545
6	0x3dfaf527	0.1225379
7	0xbbe4385d	-0.006964727
8	0xbe12ac89	-0.1432363
9	0x3e291a04	0.1651383
10	0x3e012093	0.12610082
11	0xbe0c5f11	-0.1370814
12	0xbd14db4e	-0.036341958
13	0xbd3a7dca	-0.045530118
14	0x3d95db21	0.07317186
15	0xbc6bf18e	-0.014400853
16	0x3e1d0270	0.15332961
17	0x3d382661	0.044958476
18	0x3e1eee03	0.15520482
19	0xbdf7fcea	-0.121087864
20	0x3e030615	0.12795289
21	0xbc360b44	-0.011111084
22	0x3d8e8150	0.06958258
23	0xbd5dc3ca	-0.054141797
24	0xbdfda5fd	-0.123851754
25	0xbd14705b	-0.036239963
26	0x3d44550c	0.04793267
27	0x3de7e6bf	0.11323308
28	0x3c8ba6f8	0.01704739
29	0xbe16db99	-0.14732207
30	0x3ce4acd9	0.027914451
31	0xbe0b347d	-0.13594241
32	0x3dcd0d1f	0.10012268
33	0x3d385ac2	0.04500843
34	0xbd1d605a	-0.038421966
35	0xbde84c82	-0.11342718
36	0xbc0322d7	-0.008003912
37	0x3e15b9bb	0.14621632
38	0xbe1ad231	-0.15119244
39	0xbd425a2b	-0.047449272
40	0xbd7ebd74	-0.062192395
41	0x3e31c42e	0.17359993
42	0xbd1d3ed8	-0.03839001
43	0x3ce8b2e2	0.02840561
44	0x3dea3cd9	0.11437387
45	0x3dd2c3c0	0.102912426
46	0x3ddb0549	0.106943674
47	0x3cab536a	0.020913798
48	0xbd103db6	-0.035215102
49	0xbd2894ff	-0.04115772
50	0xbde9a11e	-0.11407684
51	0xbe2dadaa	-0.16960779
52	0xbe17fa35	-0.1484154
53	0x3dec6ee2	0.11544587
54	0xbe260d4e	-0.16216013
55	0xbe13b80e	-0.1442568
56	0x3e1542e9	0.14576305
57	0x3e04c67b	0.1296634
58	0x3e0a269e	0.13491294
59	0xbcf8fd4d	-0.03039422
60	0x3b852979	0.004063782
61	0xbc971f96	-0.018447679
62	0x3dc729ee	0.09724794
63	0xbd0f86bb	-0.0350406
64	0x3c53009c	0.012878563
65	0x3e07040b	0.13185136
66	0x3dc66fe5	0.09689311
67	0x3e089dbe	0.13341424
68	0x3d1f0afe	0.038828842
69	0x3db31eed	0.08746133
70	0xbe00cfe0	-0.12579298
71	0x3dfd1fe6	0.123596
72	0xbdf479c2	-0.11937286
73	0xbe0f066c	-0.13967294
74	0xbe1d045d	-0.15333696
75	0xbe1da991	-0.15396716
76	0xbd8685cb	-0.06568488
77	0xbcaac133	-0.020844078
78	0xbd46fb6f	-0.04857963
79	0x3dd2da99	0.102956004
80	0xbd57561b	-0.05257235
81	0xbd553863	-0.052055728
82	0xbe1cc7bc	-0.15310568
83	0x3e117371	0.14204194
84	0xbe20967e	-0.15682408
85	0xbe0d05eb	-0.13771789
86	0xbd8ee475	-0.069771685
87	0xbdde3032	-0.10849036
88	0x3de898a5	0.1135724
89	0xbc0d6261	-0.008629412
90	0xbde2668a	-0.11054714
91	0x3d9f9513	0.077921055
92	0xbb9c6608	-0.0047729053
93	0x3d9d6c39	0.076866575
94	0x3e173a73	0.1476839
95	0x3e00921a	0.12555733
96	0xbda17d2b	-0.07885202
97	0x3e0446a3	0.12917571
98	0x3d294f98	0.041335672
99	0xbd872a75	-0.06599895
100	0xbd62e654	-0.05539544
101	0xbdc3c4d7	-0.095590286
102	0x3e16d933	0.14731292
103	0x3e1692a3	0.14704375
104	0xbc40379f	-0.011732011
105	0xbd8eb8a4	-0.06968811
106	0x3e1de024	0.15417534
107	0xbcde35e3	-0.027125305
108	0xbdcc5618	-0.099773586
109	0xbe11e814	-0.14248687
110	0xbe1f932e	-0.15583488
111	0x3d748812	0.05970008
112	0x3e05cb05	0.13065727
113	0x3dd1f09c	0.10250971
114	0x3e2e4c60	0.17021322
115	0x3d261e23	0.040556084
116	0x3e0716d0	0.13192296
117	0xbd87a200	-0.06622696
118	0xbd377356	-0.044787727
119	0x3ce822c3	0.028336888
120	0x3c5dbe78	0.013534181
121	0xbe1e2f13	-0.15447645
122	0xbe06ca91	-0.1316321
123	0xbd41d99e	-0.047326677
124	0x3d37166d	0.04469912
125	0x3d85c81c	0.065323085
126	0x3e2f3788	0.17111027
127	0xbdd8d136	-0.10586779
128	0xbcb8fc83	-0.022581344
129	0x3db78dac	0.08962569
130	0x3cd4317f	0.025902508
131	0xbdf8a74f	-0.121412866
132	0x3d47d288	0.048784763
133	0x3e1e51a8	0.15460837
134	0x3d0670bb	0.032822352
135	0x3e06363e	0.13106629
136	0xbddadd4b	-0.106867395
137	0xbddc64b9	-0.10761399
138	0x3d89028e	0.066899404
139	0xbdc2f642	-0.09519626
140	0x3d189d6c	0.037259504
141	0x3c60cf57	0.013721309
142	0x3d99c781	0.075087555
143	0x3ce73436	0.028223138
144	0xbe3228ca	-0.17398372
145	0x3dda4b2a	0.10658868
146	0xbe1918fe	-0.1495094
147	0xbdc031d7	-0.09384506
148	0xbd05cfd1	-0.032668892
149	0x3b84b812	0.004050263
150	0xbc9c6811	-0.019092591
151	0x3dd84b9f	0.105612986
152	0xbe0ad72b	-0.13558643
153	0xbc32a653	-0.010903913
154	0xbd319e4f	-0.043363865
155	0x3dacfca6	0.08446626
156	0xbcf39080	-0.029731989
157	0x3e105167	0.14093553
158	0xbd558fd8	-0.052139133
159	0xbe102930	-0.14078212
160	0xbca2281b	-0.019794514
161	0xbc68d031	-0.014209793
162	0x3c368a58	0.011141382
163	0x3e2407ea	0.16018644
164	0x3e11c053	0.14233522
165	0x3e25f8a9	0.16208138
166	0xbdd8f589	-0.10593707
167	0xbe26e56e	-0.16298458
168	0x3da6047b	0.08106323
169	0x3db42702	0.08796503
170	0x3d1a751b	0.037709337
171	0x3d0478d7	0.032341804
172	0x3e28059b	0.16408388
173	0x3dca9334	0.09891358
174	0x3cc8702c	0.02446755
175	0x3d7ee7b6	0.062232696
176	0x3e1d8e70	0.15386367
177	0x3dcfd9e4	0.10148981
178	0xbe29fd0b	-0.16600434
179	0x3e206ded	0.15666933
180	0x3e20318a	0.15643898
181	0x3df7b257	0.120945625
182	0xbd9523fc	-0.07282254
183	0xbda5af67	-0.08090096
184	0xbcd9278e	-0.026508119
185	0xbe1e1fec	-0.15441865
186	0x3d9001e7	0.07031613
187	0xbd92c04a	-0.071655825
188	0xbe23845f	-0.15968464
189	0x3ce78844	0.028263219
190	0xbe2cc44a	-0.16871753
191	0x3e0540b6	0.13012967
192	0x3dbe202b	0.09283479
193	0x3d2a456e	0.04157012
194	0xbdeebcb5	-0.11657087
195	0x3c5b8d0c	0.013400327
196	0xbe13bcf0	-0.14427543
197	0x3e0688ee	0.13138172
198	0x3e2f1b36	0.17100224
199	0x3e1b725a	0.1518034
200	0xbe14a5cf	-0.14516376
201	0x3ce59096	0.028023046
202	0x3e1288fe	0.14310071
203	0x3db5a2ba	0.08868928
204	0xbd520aae	-0.051279716
205	0xbe234caf	-0.15947221
206	0x3d885a12	0.066578045
207	0xbe2a7463	-0.1664596
208	0xbe2a3ed0	-0.16625524
209	0x3e1cbb30	0.15305781
210	0xbcea1e42	-0.028578881
211	0xbdcf202a	-0.10113557
212	0x3dcd33c8	0.10019642
213	0x3e20835b	0.15675108
214	0xbdadb6ef	-0.084821574
215	0xbdb13315	-0.08652321
216	0xbb087fec	-0.00208282
217	0x3e1a9da8	0.15099204
218	0x3db1390d	0.0865346
219	0x3e202385	0.1563855
220	0xbe08828b	-0.13331048
221	0xbdffbc98	-0.12487143
222	0x3de38852	0.111099854
223	0xbdedfda0	-0.11620641
224	0xbe03b1f8	-0.12860858
225	0xbc857b22	-0.016294066
226	0xbd3002c1	-0.042971376
227	0xbbc51d51	-0.0060154577
228	0xbdfbddbe	-0.12298153
229	0xbce54fbe	-0.027992126
230	0x3df5d6b0	0.12003839
231	0x3d9b4eb7	0.07583373
232	0x3d18cb75	0.037303407
233	0xbe1b8c2e	-0.15190193
234	0xbe04137c	-0.12898058
235	0xbe1757df	-0.14779614
236	0x3da96e1f	0.08272957
237	0xbdf0dc17	-0.11760729
238	0xbb854078	-0.004066523
239	0x3e185bca	0.14878765
240	0x3afe3c29	0.0019396591
241	0xbc5cfb49	-0.013487645
242	0x3df6ec5a	0.12056799
243	0x3e0c1384	0.1367932
244	0x3d452456	0.048130356
245	0xbdadf1a4	-0.08493355
246	0x3e26ba0d	0.1628191
247	0xbe0c5849	-0.13705553
248	0xbe2cdd83	-0.16881375
249	0x3e1ab0fb	0.15106575
250	0xbc9c2283	-0.019059425
251	0x3e1addc5	0.15123661
252	0x3d36cbfb	0.044628125
253	0x3d3a6fe2	0.045516856
254	0xbda690a4	-0.08133057
255	0x3d79c79d	0.06098138

fcs1_bn.weight f4 [400]
0	0x3f2576d1	0.64634424
1	0x3eed10d9	0.46301916
2	0x3d13df92	0.036101885
3	0x3f349e9e	0.7055453
4	0x3decde0e	0.11565791
5	0x3ecab64a	0.395922
6	0x3f41061d	0.75399953
7	0x3f485430	0.7825346
8	0x3eb76041	0.35815623
9	0x3e4dc579	0.20094861
10	0x3f68dc9d	0.9096163
11	0x3e6df1c0	0.23236752
12	0x3ccf4698	0.025302216
13	0x3f6eaba4	0.9323065
14	0x3f178009	0.5917974
15	0x3ca94c76	0.020666342
16	0x3e0a4ba4	0.13505417
17	0x3f36c6d5	0.71397144
18	0x3e6b6103	0.22986226
19	0x3ec0b668	0.37639165
20	0x3eafac6f	0.34311244
21	0x3f5069e2	0.81411564
22	0x3c6406a8	0.013917603
23	0x3f14cfe3	0.5812971
24	0x3eb26ff0	0.34851027
25	0x3ee43e3f	0.4457874
26	0x3f36e4dc	0.7144296
27	0x3f3f917b	0.7483136
28	0x3f412909	0.7545324
29	0x3df72933	0.12068405
30	0x3e8e5eef	0.27806804
31	0x3e8c26c6	0.27373332
32	0x3f66afab	0.901118
33	0x3e210ebd	0.15728278
34	0x3e08e84f	0.13369869
35	0x3f75fefb	0.96092194
36	0x3e16491f	0.14676331
37	0x3f4ba340	0.79545975
38	0x3f0c3f4f	0.547841
39	0x3f020346	0.50786245
40	0x3f524817	0.8214125
41	0x3a9495cd	0.0011336148
42	0x3f3316b5	0.69956523
43	0x3e057335	0.13032229
44	0x3f0e4068	0.55567026
45	0x3b800852	0.003907242
46	0x3dbf3f86	0.09338288
47	0x3f437c72	0.76361763
48	0x3eee7b5d	0.46578494
49	0x3f43d21d	0.7649248
50	0x3f1140d5	0.5673955
51	0x3e939595	0.2882506
52	0x3ee0b84a	0.438906
53	0x3f4092bc	0.752239
54	0x3ead57a0	0.33855915
55	0x3e03b0ff	0.12860487
56	0x3f30a763	0.6900541
57	0x3f28ef98	0.6599059
58	0x3f197769	0.5994783
59	0x3e2db831	0.16964795
60	0x3e903276	0.281635
61	0x3f1c2030	0.60986614
62	0x3f047613	0.51742667
63	0x3db8c9fb	0.090229
64	0x3f65ee5d	0.8981684
65	0x3f1d39ec	0.61416507
66	0x3f18f1e0	0.5974407
67	0x3ea01a42	0.31270033
68	0x3f2c3c9c	0.6727998
69	0x3ea2afca	0.3177474
70	0x3f228d9b	0.6349732
71	0x3e80d9e3	0.25166234
72	0x3f068be4	0.52557206
73	0x3e593a8d	0.21213742
74	0x3de532c2	0.11191322
75	0x3f18afce	0.59643257
76	0x3f4773bc	0.7791097
77	0x3f6cb47b	0.9246289
78	0x3f4c06ae	0.7969769
79	0x3f2dfae3	0.6796095
80	0x3f0732b0	0.5281172
81	0x3e6a6d55	0.2289327
82	0x3e3ad007	0.18243419
83	0x3ef07cc3	0.46970186
84	0x3f379461	0.71710783
85	0x3f0101a2	0.50393116
86	0x3e528d6c	0.2056176
87	0x3eb3e1d9	0.35133246
88	0x3f5a9983	0.8539049
89	0x3f53d3c1	0.82744986
90	0x3f2a44d0	0.6651125
91	0x3f1f38b9	0.62195927
92	0x3e18d143	0.14923577
93	0x3e9531d5	0.2913958
94	0x3e484c82	0.19560435
95	0x3f3a3553	0.72737616
96	0x3ee02f4e	0.4378609
97	0x3f1d5504	0.6145785
98	0x3dfdbfa6	0.1239007
99	0x3f598744	0.84972024
100	0x3ec4a35b	0.3840588
101	0x3ed717fe	0.42010492
102	0x3f12ecde	0.5739268
103	0x3ed6cd37	0.41953442
104	0x3f425d73	0.7592384
105	0x3f332cfd	0.6999052
106	0x3f77f9f8	0.968658
107	0x3f7bbe12	0.983369
108	0x3f019ca2	0.5062963
109	0x3f570bec	0.84002566
110	0x3f12599c	0.57167983
111	0x3f6e8f56	0.93187463
112	0x3d5e4ea7	0.054274227
113	0x3efc2700	0.49248505
114	0x3f51e4b6	0.8198961
115	0x3ed4bbae	0.41549438
116	0x3f57dc60	0.8432064
117	0x3f58746f	0.84552664
118	0x3dd1a139	0.10235829
119	0x3f45dbc0	0.77288437
120	0x3b85b33b	0.004080204
121	0x3f63bafa	0.8895718
122	0x3f2436a2	0.64145863
123	0x3f14644c	0.5796554
124	0x3f326a51	0.69693476
125	0x3def58a3	0.11686828
126	0x3f1f8ee6	0.6232742
127	0x3d05ac8f	0.032635268
128	0x3f18900d	0.59594804
129	0x3f62bebf	0.88572305
130	0x3e0e2014	0.13879424
131	0x3f0b392b	0.54384106
132	0x3f5dd56e	0.8665379
133	0x3f1fc0aa	0.6240336
134	0x3d79c3aa	0.060977615
135	0x3be76e69	0.0070627225
136	0x3dc54814	0.096328884
137	0x3f58cb77	0.8468546
138	0x3f1b44a7	0.6065163
139	0x3f7710c2	0.96509945
140	0x3e4e3771	0.20138337
141	0x3ef83ef0	0.48485518
142	0x3c8bd380	0.017068624
143	0xbba20c4d	-0.004945314
144	0x3f633df0	0.88766384
145	0x3f4180d5	0.7558721
146	0x3e827fc4	0.25488102
147	0x3ed3e353	0.41384372
148	0x3e6a2f5e	0.22869632
149	0x3e480312	0.19532421
150	0x3ebbc854	0.36676276
151	0x3f426046	0.7592815
152	0x3f3e4673	0.74326247
153	0x3efe4b8c	0.49667013
154	0x3f512ffa	0.8171383
155	0x3e821807	0.25408956
156	0x3e6d9087	0.23199664
157	0x3f80b456	1.0055034
158	0x3eb44282	0.3520699
159	0x3f0ac35c	0.54204345
160	0x3f120b98	0.5704894
161	0x3dd5d9d6	0.104419395
162	0x3f456e47	0.77121395
163	0x3d966fed	0.07345567
164	0x3ef06db5	0.469587
165	0x3ef13a05	0.47114578
166	0x3f34696c	0.7047336
167	0x3f70411d	0.93849355
168	0x3f0578d1	0.52137476
169	0x3f242154	0.64113355
170	0x3dfac032	0.122436896
171	0x3e1fdb2f	0.15610956
172	0x3e6438c2	0.22287276
173	0x3f0dd3ec	0.5540149
174	0x3e3f0f8f	0.18658279
175	0x3e573a77	0.21018396
176	0x3f289c5a	0.65863574
177	0x3d7e4a3f	0.062082525
178	0x3f6076b3	0.8768112
179	0x3ec4a671	0.38408235
180	0x3f143c8d	0.57904893
181	0x3ec54514	0.38529265
182	0x3c0e8b82	0.008700253
183	0x3f038774	0.5137856
184	0x3f35fa08	0.7108464
185	0x3e19410d	0.14966221
186	0x3efd8b39	0.4952028
187	0x3eb66baf	0.3562903
188	0x3e16b428	0.14717162
189	0x3f5dae73	0.86594313
190	0x3f02df8f	0.51122373
191	0x3e8af0ee	0.2713694
192	0x3e8bd9af	0.27314517
193	0x3f1bf4c0	0.60920334
194	0x3f4e22ef	0.80522054
195	0x3e03fb8e	0.12888929
196	0x3f35975d	0.7093409
197	0x3de10f12	0.109892026
198	0x3f6023f2	0.8755485
199	0x3cbf3178	0.023339018
200	0x3dfc319e	0.12314151
201	0x3d31c995	0.043405134
202	0x3d9d0e85	0.07668785
203	0x3f4c3560	0.79768944
204	0x3f63c738	0.8897586
205	0x3f453611	0.77035624
206	0x3e807f9c	0.25097358
207	0x3f0a612d	0.5405453
208	0x3f63195d	0.88710576
209	0x3ede6528	0.4343655
210	0x3e0783a1	0.13233806
211	0x3db87dbd	0.09008358
212	0x3e6dfbfc	0.23240656
213	0x3dadebe4	0.08492258
214	0x3f374ded	0.7160328
215	0x3e9358d0	0.28778696
216	0x3e04d531	0.12971951
217	0x3eff01b5	0.4980599
218	0x3ea69368	0.32534337
219	0x3f5eb4e8	0.8699479
220	0x3f0e497d	0.55580884
221	0x3e9b40e4	0.30322945
222	0x3f582e33	0.84445494
223	0x3bd32493	0.006443569
224	0x3e8b3cb2	0.27194744
225	0x3edc6e4c	0.430529
226	0xba665257	-0.00087860733
227	0x3f1770e2	0.5915662
228	0x3f83058e	1.023607
229	0x3ed84c9c	0.42245948
230	0x3f5bfabc	0.85929465
231	0x3f16017d	0.5859602
232	0x3f7a707b	0.9782788
233	0x3f37ed2b	0.71846265
234	0x3f479101	0.77955633
235	0x3f560ba8	0.83611536
236	0x3f43e4c1	0.76520926
237	0x3e872576	0.26395768
238	0x3f2aa6a0	0.666605
239	0x3ead7729	0.33879974
240	0x3ef88c45	0.48544517
241	0x3e066241	0.13123418
242	0x3ea39a5e	0.3195371
243	0x3f756eb9	0.95872074
244	0x3ee124c2	0.43973356
245	0x3f15c1ef	0.58499044
246	0x3e98e276	0.29860276
247	0xbaa4d5f0	-0.0012575965
248	0x3f260cf8	0.6486354
249	0x3e322378	0.17396343
250	0x3f49f944	0.78895974
251	0x3f0f54b9	0.5598865
252	0x3eeb8111	0.45996907
253	0x3f8309b8	1.0237341
254	0x3f650b3c	0.8947027
255	0x3efe8ca9	0.4971669

fcs1_bn.bias f4 [400]
0	0xbd287348	-0.041125566
1	0xbd72e2a4	-0.059298173
2	0xbd6a62cd	-0.05722313
3	0xbd93cb39	-0.07216496
4	0xbd99926e	-0.07498632
5	0xbdab5c0a	-0.083671644
6	0xbd7cab19	-0.06168661
7	0xbdd6bb80	-0.104849815
8	0xbcdcefe4	-0.026969858
9	0xbd6e3b77	-0.05816218
10	0xbd09514a	-0.03352479
11	0xbc122333	-0.008919525
12	0xbd5d0ed1	-0.05396921
13	0xbcf839bf	-0.030300973
14	0xbdb38a59	-0.08766622
15	0xbd0c39d6	-0.034234844
16	0xbd90bb05	-0.07066921
17	0xbdede673	-0.1161622
18	0xbdc8e187	-0.09808641
19	0x3c8d6495	0.017259875
20	0xbe10df9f	-0.14147805
21	0xbdb6096c	-0.08888516
22	0xbd259b1f	-0.040431138
23	0xbd2c069e	-0.0419985
24	0xbd741e0d	-0.05959897
25	0xbda9e140	-0.08294916
26	0xbd49f99d	-0.049310315
27	0xbd583ae3	-0.052790534
28	0xbdffcf04	-0.12490657
29	0xbc279303	-0.010227921
30	0xbc3e67cc	-0.011621427
31	0xbd52719d	-0.05137788
32	0xbe487f5c	-0.19579834
33	0xbd84a74d	-0.064772226
34	0xbd45dbe9	-0.048305426
35	0xbd8ea635	-0.06965295
36	0xbcbd2bd4	-0.023092188
37	0xbda08acb	-0.07838973
38	0xbe176a5f	-0.14786671
39	0xbd0901ef	-0.03344911
40	0xbd94ed12	-0.0727178
41	0xbc661677	-0.014043442
42	0xbd2e407a	-0.04254196
43	0xbd03f31e	-0.032214276
44	0xbd9a606a	-0.07537921
45	0xbc766bde	-0.015040366
46	0xbd3e8292	-0.04651124
47	0xbbe9a4e9	-0.0071302545
48	0xbdacfe5f	-0.08446955
49	0xbd60c145	-0.054871816
50	0xbd5cbf8d	-0.053893615
51	0xbe1a4bf7	-0.15068041
52	0xbdcb8a70	-0.09938514
53	0xbd9571da	-0.07297106
54	0xbdac0a28	-0.08400375
55	0xbd5661f4	-0.05233951
56	0xbdf1e7de	-0.11811803
57	0xbd716090	-0.05892998
58	0xbdd0515a	-0.101717666
59	0xbd24fd1c	-0.040280446
60	0xbd561de4	-0.0522746
61	0x3cda68b9	0.026661264
62	0xbd25a0bb	-0.040436488
63	0xbd4b6bce	-0.049663357
64	0xbb2a0163	-0.0025940768
65	0xbc9592e4	-0.01825852
66	0xbdeed3eb	-0.11661514
67	0x3c095a94	0.008383412
68	0xbb417617	-0.002951985
69	0xbce5e555	-0.028063456
70	0xbdc36576	-0.095408365
71	0xbd1d51c0	-0.03840804
72	0xbd788098	-0.06066951
73	0xbcc48260	-0.023987949
74	0xbd9273ee	-0.07151018
75	0xbd4728ba	-0.048622824
76	0xbded5389	-0.11588199
77	0xbd1b4246	-0.037905
78	0xbd43bcd6	-0.04778751
79	0xbcc57e14	-0.02410797
80	0xbd95db51	-0.07317222
81	0x3c09fd15	0.008422156
82	0xbd59596d	-0.0530638
83	0xbd6b6059	-0.05746493
84	0x3bdee4ab	0.0068021617
85	0x3b32ae46	0.002726452
86	0xbdbc4e6b	-0.091946445
87	0xbdfd2a11	-0.12361539
88	0xbdeffecc	-0.117185205
89	0xbe09146f	-0.13386701
90	0xbdac7f09	-0.084226675
91	0xbdbc2ed9	-0.09188623
92	0xbccbaff1	-0.024864169
93	0xbd9ba46d	-0.07599721
94	0xbdbdf67d	-0.092755295
95	0x3d449ba0	0.047999978
96	0xbd0a0c43	-0.0337031
97	0xbd251482	-0.04030276
98	0xbdb200b5	-0.08691541
99	0xbde1bd17	-0.11022394
100	0xbd0e35d7	-0.034719314
101	0xbdc83a4f	-0.097767465
102	0xbdcb670f	-0.09931766
103	0xbdb3cdb5	-0.0877947
104	0xbdb27d1b	-0.08715268
105	0xbbc7af9e	-0.0060939332
106	0xbd91ab31	-0.0711273
107	0xbe075f3f	-0.13219927
108	0xbdabcaac	-0.08388266
109	0x3d5357df	0.051597472
110	0xbc79f575	-0.015256275
111	0xbdf84453	-0.12122407
112	0xbceafdf6	-0.028685551
113	0xbc8e921b	-0.017403653
114	0xbd831e0f	-0.064022176
115	0xbddc4fe2	-0.10757424
116	0xbd7329be	-0.05936598
117	0xbe05a678	-0.13051784
118	0xbd6fc8b7	-0.058541026
119	0xbd6272bf	-0.05528521
120	0xbcbdcda6	-0.02316935
121	0xbe16f1e1	-0.14740707
122	0xbdd6d385	-0.10489563
123	0xbdb3699b	-0.08760377
124	0xbe1ca59d	-0.15297551
125	0xbd924f27	-0.07144003
126	0xbe181f37	-0.14855658
127	0xbcbd54c3	-0.023111707
128	0xbd1c3cd5	-0.03814395
129	0xbcd8bd24	-0.026457377
130	0xbdbde1c7	-0.09271579
131	0xbd0ce8f1	-0.034401838
132	0xbd935ad1	-0.07195056
133	0x3cc1195d	0.023571664
134	0xbd6c342e	-0.05766695
135	0xbcd8fee7	-0.026488734
136	0xbd696bdf	-0.05698764
137	0xbd9d679b	-0.07685777
138	0x3cc77fb6	0.02435289
139	0xbd82ac47	-0.063805155
140	0xbd59ba5e	-0.05315625
141	0xbd95445e	-0.07288431
142	0x3cbc488c	0.022983812
143	0xbd7767ac	-0.060401604
144	0x3a2ee7a1	0.00066720886
145	0xbdd7ee52	-0.10543503
146	0xbd2d23fe	-0.042270653
147	0xbd500264	-0.05078353
148	0xbdb5258e	-0.088450536
149	0xbd9b7d74	-0.07592288
150	0xbe024da1	-0.12724926
151	0xbbf8e3cb	-0.0075955144
152	0xbe17fc14	-0.14842254
153	0xbd85ee89	-0.065396376
154	0xbd896463	-0.067086
155	0xbcba290c	-0.02272465
156	0xbd33b47b	-0.04387329
157	0xbe159eee	-0.14611408
158	0xbdefe88e	-0.11714278
159	0xbc9ffa68	-0.019528583
160	0xbdd3a203	-0.10333636
161	0xbcd97be2	-0.02654833
162	0xbd870447	-0.06592613
163	0xbd6b1704	-0.057394996
164	0xbde04a95	-0.109517254
165	0xbe1e3399	-0.1544937
166	0xbe0a51f2	-0.13507822
167	0xbc1492c9	-0.009068199
168	0xbda5d65c	-0.080975264
169	0xbd66d613	-0.0563565
170	0xbd1b1da6	-0.03787007
171	0xbd2da53c	-0.042393908
172	0xbd5f2c4c	-0.054485604
173	0xbd885b86	-0.06658082
174	0x3d2b10e5	0.04176416
175	0x3bf18782	0.00737089
176	0xbd99a497	-0.07502096
177	0xbd1529cb	-0.03641681
178	0xbcf300b1	-0.029663416
179	0x3ae397bd	0.0017363947
180	0xbd0288ef	-0.03186887
181	0xbc52b945	-0.0128615545
182	0xbd04a07c	-0.032379612
183	0xbdebfe7a	-0.11523147
184	0xbdbfaae9	-0.093587704
185	0xbd8f1371	-0.0698613
186	0xbe1e0d0a	-0.15434662
187	0xbde44900	-0.11146736
188	0xbcb6946c	-0.02228757
189	0x3d75ddd1	0.060025994
190	0xbe1054c2	-0.14094833
191	0x3c73d193	0.014881509
192	0xbd186977	-0.037209954
193	0xbd6d2e1e	-0.05790531
194	0xbdd36a30	-0.10322988
195	0xbd50b7c2	-0.050956495
196	0xbe0fa75f	-0.14028691
197	0xbd4dbdba	-0.050229765
198	0xbdb858c1	-0.090013035
199	0xbd1a33c0	-0.03764701
200	0xbcd1db25	-0.025617192
201	0xbaa8d015	-0.0012879396
202	0x3b8ff395	0.004393051
203	0xbc98fafb	-0.018674364
204	0xbcefa764	-0.029254623
205	0xbd9deaf7	-0.077108316
206	0xbdc6329d	-0.096776225
207	0xbd4b0a41	-0.049570326
208	0xbc104433	-0.008805322
209	0xbc56a0e1	-0.01309988
210	0xbd9e0712	-0.07716192
211	0xbd8b8dc2	-0.068141475
212	0xbdaf0317	-0.08545511
213	0xbd8371d2	-0.06418194
214	0xbdaef608	-0.085430205
215	0xbdaef1ef	-0.08542239
216	0xbdaa16ba	-0.08305116
217	0xbdf72494	-0.120675236
218	0xbd965c8a	-0.07341869
219	0xbdd2f7f7	-0.10301202
220	0xbd8ed0e9	-0.0697344
221	0xbd73fcb7	-0.05956718
222	0xbdb100c0	-0.08642721
223	0xbd01217e	-0.03152608
224	0xbdebe56d	-0.11518369
225	0xbd68f890	-0.056877673
226	0x3ae5ce48	0.001753279
227	0xbd34716f	-0.04405349
228	0xbdeb7c61	-0.11498333
229	0xbdbf58f4	-0.09343138
230	0xbd434f08	-0.047682792
231	0xbe1741b4	-0.14771158
232	0xbe20fd0d	-0.15721531
233	0xbe06d4c3	-0.131671
234	0xbdccf716	-0.100080654
235	0xbdda21d1	-0.10650981
236	0xbd9d75fa	-0.07688518
237	0xbe011dbe	-0.12609002
238	0xbd0eac35	-0.0348322
239	0xbdf3a145	-0.11895994
240	0xbe022910	-0.12710977
241	0xbd4c7b6c	-0.04992239
242	0xbced7221	-0.028985085
243	0xbd101efe	-0.035185806
244	0x3b4abcb2	0.0030935225
245	0xbdaebfbf	-0.085326664
246	0xbdcb3356	-0.09921901
247	0x3c7c6be3	0.015406582
248	0xbdb7fd5c	-0.08983871
249	0x3d121a80	0.035669804
250	0xbd5a9855	-0.05336793
251	0xbe15b0e3	-0.14618258
252	0xbdae9811	-0.08525098
253	0xbbf36cb3	-0.0074287294
254	0xbd53f02d	-0.05174272
255	0xbd38300c	-0.044967696

fcs1_bn.running_mean f4 [400]
0	0xbe43ad6b	-0.19109122
1	0xbe1eed2e	-0.15520164
2	0x3ecbd385	0.39809814
3	0xbec4cb43	-0.38436326
4	0xbed13e5d	-0.40867892
5	0x3d5c81ce	0.05383473
6	0x3e0bff57	0.13671623
7	0x3e490567	0.19630967
8	0xbe29bf13	-0.16576795
9	0x3e6f261a	0.23354378
10	0xbd63206b	-0.055450838
11	0xbe6c8ca5	-0.23100527
12	0xbe4a02ab	-0.1972758
13	0xbe3d1388	-0.18464482
14	0x3e67106a	0.22564855
15	0x3e3e17fb	0.18563835
16	0x3e121c0c	0.14268512
17	0x3dc7d824	0.097580224
18	0x3da06c14	0.07833114
19	0xbed49d55	-0.41526285
20	0x3e95eaef	0.29280803
21	0xbdb71061	-0.08938671
22	0x3db9e645	0.090771236
23	0xbe8829b2	-0.2659431
24	0xbdf2aaf3	-0.11849012
25	0x3cd8dda3	0.026472872
26	0x3e50f6d4	0.20406657
27	0x3c28800c	0.010284435
28	0xbe02cc01	-0.12773134
29	0xbf200e30	-0.6252165
30	0x3edebc38	0.43502975
31	0xbf1ceabf	-0.61295694
32	0x3f026c4e	0.5094651
33	0x3da675b7	0.08127921
34	0xbe15c27c	-0.14624971
35	0x3e134ee2	0.1438556
36	0x3e432c68	0.19059908
37	0xbd8b5f1d	-0.06805251
38	0x3cb462df	0.022019802
39	0xbd1c64b2	-0.038181968
40	0x3e3cdcf9	0.1844367
41	0x3e003966	0.12521896
42	0x3e835717	0.25652382
43	0xbeb02ba9	-0.3440831
44	0x3f10d9e9	0.56582505
45	0xbda867bd	-0.082229115
46	0x3d07bfbc	0.033141837
47	0x3df08b0d	0.11745272
48	0xbda30560	-0.079600096
49	0xbe9650de	-0.29358572
50	0xbe63c5f1	-0.22243477
51	0xbe19c2c2	-0.150157
52	0x3c72e5a0	0.014825255
53	0x3e697a90	0.2280066
54	0xbe5c6724	-0.2152372
55	0xbeca4612	-0.39506584
56	0x3e117119	0.142033
57	0x3dcf27b8	0.101149976
58	0xbed9e652	-0.42558533
59	0xbe356907	-0.17715846
60	0xbe6178bb	-0.22018711
61	0x3e29dfb5	0.16589244
62	0x3ebcf0c2	0.36902434
63	0xbeb09788	-0.3449061
64	0xbee9cbf5	-0.4566342
65	0xbd80e1de	-0.06293081
66	0x3daaafd9	0.083343215
67	0x3d37aa01	0.044839863
68	0xbd8a6f05	-0.067594565
69	0x3def97f0	0.11698902
70	0xbe3da57d	-0.1852016
71	0x3e43221d	0.19055982
72	0xbccba07f	-0.024856804
73	0xbca5758d	-0.020197654
74	0xbe369b95	-0.17832787
75	0x3e137e80	0.14403725
76	0xbf264b1f	-0.64958376
77	0xbdf1fe96	-0.118161365
78	0xbeb27ff5	-0.34863248
79	0xbdcb132c	-0.09915766
80	0xbd95852a	-0.0730079
81	0xbf19244a	-0.59821
82	0xbe5d6052	-0.21618775
83	0x3e22196e	0.15830013
84	0xbe7ab1de	-0.24481913
85	0xbec2cf32	-0.38048702
86	0x3d821a6e	0.06352697
87	0x3d12f961	0.035882358
88	0xbd046403	-0.03232194
89	0x3d67adf6	0.056562386
90	0xbea17f3c	-0.31542385
91	0x3e05cd89	0.13066687
92	0xbd1a144d	-0.037617017
93	0xbdb8be45	-0.09020666
94	0x3ea1ed67	0.31626436
95	0xbdd1a072	-0.10235681
96	0xbe948221	-0.2900553
97	0x3e24db8b	0.16099374
98	0x3cef5be5	0.029218623
99	0xbdb10449	-0.086433955
100	0xbea0b844	-0.31390584
101	0xbe3c496e	-0.18387386
102	0xbbca6294	-0.006176302
103	0xbe10a303	-0.14124684
104	0xbef90cc3	-0.4864255
105	0xbe281c3f	-0.16417025
106	0x3e344558	0.17604578
107	0xbe6557d3	-0.22396784
108	0xbd71e392	-0.05905492
109	0xbec65414	-0.38736022
110	0xbeb17115	-0.34656587
111	0xbe7be4ba	-0.24598971
112	0xbe8d952f	-0.2765288
113	0xbdf2e888	-0.11860758
114	0xbd49dc9b	-0.04928265
115	0x3df62dda	0.12020464
116	0x3eae17da	0.34002572
117	0xbe947f36	-0.29003304
118	0xbe870f27	-0.26378748
119	0xbd9d3a85	-0.07677177
120	0xbe7128f3	-0.23550777
121	0x3c5a8bce	0.013338996
122	0xbe9cc7d2	-0.306212
123	0x3e1c6b58	0.15275323
124	0xbdbbc9a9	-0.09169323
125	0x3dbca096	0.09210317
126	0x3ef3b7aa	0.47601062
127	0xbea5cdcc	-0.32383573
128	0x3d9e8d07	0.077417426
129	0x3e1dca3c	0.15409178
130	0xbd89178c	-0.06693944
131	0xbf39ef90	-0.7263117
132	0xbe4e2633	-0.2013176
133	0x3dfa6bdb	0.12227603
134	0x3d00ca58	0.03144297
135	0xbda92066	-0.08258133
136	0xbee6c176	-0.45069474
137	0xba94c269	-0.0011349443
138	0x3e0b9f16	0.13634905
139	0xbf042d90	-0.5163202
140	0xbdfd2802	-0.123611465
141	0x3d5f7e94	0.054564074
142	0xbbe30fde	-0.0069293818
143	0xbe116796	-0.14199671
144	0xbea80453	-0.328158
145	0xbda958dc	-0.08268902
146	0xbeacc439	-0.33743456
147	0xbee3d911	-0.44501546
148	0xbd81cfd0	-0.06338465
149	0x3e74c2fb	0.23902504
150	0xbde83475	-0.113381304
151	0x3e2aa2b6	0.16663632
152	0xbdf4a8b9	-0.11946244
153	0xbd627f8f	-0.05529743
154	0x3ebd8add	0.37020007
155	0xbc033791	-0.0080088535
156	0xbefdd229	-0.49574402
157	0xbe357269	-0.17719425
158	0xbe98c4cc	-0.29837644
159	0xbef0bb51	-0.4701791
160	0x3d5bf6c9	0.05370215
161	0xbe7e6371	-0.24842621
162	0xbe73f846	-0.23825178
163	0x3f13384a	0.57507765
164	0x3d8f1810	0.069870114
165	0x3db19d98	0.08672637
166	0x3ea068db	0.31329998
167	0xbe9b2a9c	-0.30305946
168	0x3ed56532	0.41678768
169	0x3c9b7254	0.018975414
170	0x3e1e3f87	0.15453921
171	0x3e8ee0b7	0.2790582
172	0xbe33fa67	-0.1757599
173	0xbe93c68d	-0.2886242
174	0xbea25ad6	-0.31709927
175	0x3d160334	0.03662415
176	0x3e04c292	0.12964848
177	0x3e8b91ec	0.27259767
178	0xbeb83d99	-0.35984495
179	0xbc3c7513	-0.011502522
180	0x3e38191d	0.1797833
181	0x3e1e5242	0.15461066
182	0xbcd6d8ba	-0.02622639
183	0x3ced457e	0.0289638
184	0xbe5acf37	-0.21368109
185	0xbec65157	-0.38733932
186	0xbce93c66	-0.028471183
187	0x3e490e45	0.1963435
188	0xbe92ca30	-0.28669882
189	0xbd846b93	-0.06465831
190	0xbe489ee6	-0.19591865
191	0x3e30ab4a	0.17252842
192	0xbdefd9e6	-0.11711483
193	0x3d083a83	0.033258926
194	0xbe279e9f	-0.16369103
195	0xbea4f860	-0.32220745
196	0x3df95de2	0.1217611
197	0x3e6717a2	0.22567609
198	0xbd98a72d	-0.07453761
199	0x3dd3e04c	0.103455156
200	0xbed6c250	-0.41945124
201	0x3ec5d517	0.38639137
202	0x3dbcb4ab	0.09214147
203	0xbd3790d4	-0.044815853
204	0xbee5f06c	-0.4490999
205	0xbd7d687f	-0.061867233
206	0xbdaf4209	-0.08557517
207	0xbe3312f5	-0.174877
208	0xbee463ae	-0.446073
209	0x3ce8a7d6	0.028400343
210	0xbd6f7fb0	-0.05847138
211	0xbe6fe692	-0.234278
212	0xbe0685dd	-0.13137002
213	0xbcbcb5f1	-0.023035975
214	0x3e7faf88	0.24969304
215	0xbedf3ff3	-0.43603477
216	0x3d9b5dc2	0.07586242
217	0x3d2e4d1b	0.042554002
218	0x3f0019f1	0.50039583
219	0x3ea09223	0.31361493
220	0x3daeaa40	0.08528566
221	0xbe0a3ea6	-0.13500461
222	0xbe5fe920	-0.21866274
223	0xbddbe631	-0.10737265
224	0xbeaef2f9	-0.34169748
225	0x3e871fb9	0.2639139
226	0xbe84b07e	-0.25915903
227	0x3e50db09	0.20396055
228	0xbe0cba0d	-0.13742848
229	0x3d95c674	0.073132426
230	0x3cc6ed3a	0.02428304
231	0xbe50e5e2	-0.20400193
232	0xbdf2b918	-0.1185171
233	0x3e03e4ac	0.128802
234	0xbed7a803	-0.4212037
235	0xbe909777	-0.28240559
236	0xbdbaa2d1	-0.09113086
237	0xbe2a2682	-0.16616252
238	0xbeaeebc9	-0.34164265
239	0xbda2ac9b	-0.07943078
240	0xbdbb9194	-0.09158626
241	0xbe38ea8c	-0.18058223
242	0xbeafa9ee	-0.34309334
243	0xbd74dc77	-0.059780564
244	0x3df76a8e	0.120808706
245	0xbe09b02f	-0.13446115
246	0x3dc31fa6	0.09527521
247	0xbe30d001	-0.17266847
248	0xbe4e2b1a	-0.2013363
249	0x3e96e702	0.2947312
250	0xbe84af6e	-0.25915092
251	0x3d1b037a	0.037845112
252	0x3ebf586d	0.3737215
253	0xbdbd4fe5	-0.09243754
254	0xbd70c173	-0.058778238
255	0xbea12161	-0.3147078

fcs1_bn.running_var f4 [400]
0	0x409a0599	4.8131833
1	0x3ffd7ba8	1.9803362
2	0x40ab6cf1	5.3570485
3	0x40254b11	2.5827067
4	0x3f6f1d8a	0.9340445
5	0x3ff942ab	1.947347
6	0x4043132e	3.0480456
7	0x4096be4f	4.710731
8	0x402ba4d3	2.681935
9	0x406b4285	3.675935
10	0x405985a0	3.3987808
11	0x402bcc4b	2.684344
12	0x402ede80	2.7323303
13	0x4050eb27	3.2643526
14	0x3fcae35a	1.5850632
15	0x4018bdd9	2.3865874
16	0x3f89f539	1.0777961
17	0x3f2d3c55	0.67670184
18	0x40141671	2.3138697
19	0x4003726b	2.0538585
20	0x40292d44	2.6433878
21	0x3fed3710	1.8532429
22	0x401e4a17	2.473272
23	0x3f48e1c9	0.7846952
24	0x40ba849e	5.8286886
25	0x4022823d	2.539199
26	0x3f59cc98	0.8507781
27	0x3f66c63e	0.90146244
28	0x3ff2b2e5	1.8960844
29	0x40091e2e	2.142467
30	0x3fb01b33	1.37583
31	0x3f9043cd	1.1270691
32	0x3fa6cf7e	1.3032072
33	0x3fcbbfe4	1.5917935
34	0x405c3292	3.4405866
35	0x3f8b3d22	1.0878031
36	0x3f8a938c	1.0826278
37	0x3fc59716	1.5436733
38	0x40400acc	3.000659
39	0x40525382	3.286347
40	0x40206371	2.5060694
41	0x3fc33623	1.5250896
42	0x3fb56181	1.4170381
43	0x3f3adb30	0.72990704
44	0x3fa3a9bf	1.2786177
45	0x3f11d754	0.5696919
46	0x3f76dcc8	0.96430635
47	0x3feb263c	1.8371043
48	0x400e5155	2.223714
49	0x40886413	4.262216
50	0x4101a963	8.103854
51	0x3f450c65	0.7697204
52	0x3fb03418	1.3765898
53	0x40335b26	2.8024383
54	0x3fc037ca	1.5017025
55	0x3f4c086c	0.7970035
56	0x3fa6ced6	1.3031871
57	0x3f260ad4	0.6486027
58	0x40822bbe	4.0678396
59	0x3fc923a2	1.5713999
60	0x408e1495	4.4400125
61	0x3fd7f3c3	1.6871265
62	0x3f707fe4	0.93945146
63	0x3f6e90d9	0.9318977
64	0x3fdf80f3	1.7461227
65	0x4000fd9b	2.0154788
66	0x40c2ee36	6.0915785
67	0x3fbd4b82	1.4788668
68	0x3fc80bf8	1.5628653
69	0x408c943d	4.3930955
70	0x3ffff272	1.9995863
71	0x3fcb5002	1.5883791
72	0x40d14251	6.5393453
73	0x3ff57966	1.9177673
74	0x40762fae	3.8466601
75	0x3fd1d18b	1.6392072
76	0x3f5b8e47	0.85763973
77	0x407c9f95	3.94724
78	0x3f82eeaa	1.0229084
79	0x3fa64e29	1.2992603
80	0x3fdd38a9	1.7282916
81	0x407875b9	3.8821852
82	0x3fa53ec5	1.2909781
83	0x40020216	2.0313773
84	0x4002d4d6	2.0442405
85	0x4027fab3	2.6246765
86	0x3f9f62ed	1.2452065
87	0x3f5a231a	0.8520981
88	0x3fd42f28	1.6576891
89	0x405b2dd8	3.424673
90	0x40938be4	4.6108265
91	0x4006f80c	2.1088896
92	0x4029d919	2.6538756
93	0x402058ed	2.5054276
94	0x40026d12	2.0379071
95	0x3fc0611d	1.5029637
96	0x409e061e	4.9382467
97	0x40286860	2.6313705
98	0x3f8d2fef	1.1030253
99	0x402065e5	2.5062191
100	0x3fabb207	1.3413705
101	0x3fddccc0	1.732811
102	0x3f952ea0	1.1654854
103	0x3f44d388	0.7688527
104	0x3fa41aa0	1.2820625
105	0x40563a54	3.34731
106	0x3f8e24fc	1.1105037
107	0x3fd3311f	1.6499366
108	0x3f51aed8	0.81907415
109	0x400e0c9f	2.2195203
110	0x3fe5d748	1.7956324
111	0x3f959b5b	1.1688036
112	0x3ff3f7e9	1.9060031
113	0x3ffec856	1.9904888
114	0x4073d233	3.8097045
115	0x3fba3650	1.4547825
116	0x3fb8dd81	1.4442598
117	0x3f668b96	0.9005674
118	0x407070fb	3.7568958
119	0x3fa2aa44	1.2708211
120	0x3f83eb1f	1.0306128
121	0x3f6879ab	0.9081065
122	0x40b3eaa5	5.622393
123	0x4026fe32	2.6092649
124	0x406191af	3.5245168
125	0x40399c0d	2.9001496
126	0x3fc6e711	1.5539266
127	0x4068b276	3.6358924
128	0x4012e29b	2.295081
129	0x400d60cf	2.2090337
130	0x3f74b98b	0.95595616
131	0x3f576487	0.8413777
132	0x3f886215	1.0654932
133	0x40af1783	5.47162
134	0x4086aaba	4.2083406
135	0x3f0d159c	0.551111
136	0x3f9a58df	1.2058371
137	0x40bf3f06	5.9764433
138	0x4056ce8f	3.3563573
139	0x400ae9e1	2.1705248
140	0x4057db16	3.372747
141	0x3fe37f8b	1.7773298
142	0x400d1240	2.204239
143	0x3fd3719d	1.6519047
144	0x3fab965f	1.3405265
145	0x3fd51be6	1.6649139
146	0x404c1f27	3.1894014
147	0x3fe1f931	1.7654172
148	0x4072a815	3.791509
149	0x3fc7c6b2	1.5607512
150	0x402d43ff	2.7072752
151	0x400ea366	2.228723
152	0x3f84ecda	1.0384781
153	0x405c5108	3.4424458
154	0x408d416a	4.414235
155	0x3fce7be9	1.6131564
156	0x409eb033	4.9590087
157	0x3fa874ca	1.3160641
158	0x403f198b	2.985934
159	0x40a337b6	5.1005507
160	0x401c4ee4	2.442315
161	0x3f8913ce	1.0709169
162	0x3eec2738	0.46123672
163	0x3fd8aab9	1.69271
164	0x408c6f9d	4.3886247
165	0x3f065c21	0.5248433
166	0x3faf0b9a	1.3675416
167	0x3f1e19a6	0.61757886
168	0x4038ce8c	2.8876066
169	0x400bfa26	2.1871428
170	0x3ff7d32e	1.9361322
171	0x3f4c3b8c	0.7977836
172	0x402ffe6a	2.7499032
173	0x409313cb	4.596166
174	0x3ffacc8a	1.959367
175	0x3f261027	0.64868397
176	0x40572e5a	3.362204
177	0x407215b9	3.7825758
178	0x403c1896	2.9390006
179	0x3f83d49a	1.0299256
180	0x3f1f03e6	0.62115324
181	0x400f6624	2.2406092
182	0x3fa71b52	1.3055212
183	0x409fa9ed	4.989493
184	0x4067d7d3	3.6225479
185	0x3ff77367	1.9332093
186	0x3fcd0cd2	1.6019537
187	0x40087c0a	2.1325707
188	0x402aff16	2.6718192
189	0x3fc632eb	1.5484289
190	0x40733b3e	3.8004909
191	0x4025938b	2.5871303
192	0x40121c11	2.282963
193	0x3fa54189	1.2910625
194	0x3fd06f68	1.6283998
195	0x402366d3	2.553151
196	0x400b6f44	2.178666
197	0x40215fbd	2.5214684
198	0x3fab6fc8	1.3393488
199	0x405640e2	3.3477101
200	0x4084a6ee	4.145377
201	0x3fd05992	1.6277335
202	0x4006ad94	2.1043444
203	0x408ed746	4.4637785
204	0x401099d6	2.2593894
205	0x3fa7b36b	1.3101629
206	0x3f72d95c	0.94862914
207	0x3f5c28b0	0.85999584
208	0x404507bd	3.0785973
209	0x3f46e7f5	0.7769769
210	0x3fa1b6fd	1.2633969
211	0x404f98c3	3.2436988
212	0x3f7065d2	0.93905365
213	0x3f755eca	0.9584776
214	0x3f8b436d	1.0879952
215	0x3f5c2c27	0.8600487
216	0x4015fd79	2.3435957
217	0x4040b6f9	3.0111678
218	0x3f80c9c0	1.0061569
219	0x40795f0f	3.896427
220	0x403cd80c	2.9506865
221	0x400d1972	2.204678
222	0x3fc0bd3f	1.5057753
223	0x3f001306	0.5002903
224	0x4048cfaf	3.137676
225	0x40184891	2.379429
226	0x40b6d6d0	5.713722
227	0x40363de3	2.8475273
228	0x3ff31944	1.8992085
229	0x40750d1b	3.828925
230	0x3fc10f97	1.5082883
231	0x3f91b84a	1.1384366
232	0x3f15f67c	0.5857923
233	0x3f53f472	0.8279487
234	0x3fdbfc7f	1.7186431
235	0x40498b7f	3.1491392
236	0x3f8d7b50	1.1053257
237	0x3f9cedd9	1.2260085
238	0x3f7fa740	0.9986458
239	0x3ed94137	0.42432567
240	0x3fa2f2bf	1.273033
241	0x401af4f8	2.4212017
242	0x3f0ca43d	0.5493811
243	0x3fe3ce9d	1.7797428
244	0x401b44f9	2.4260848
245	0x40173572	2.362637
246	0x3fbcbdf1	1.4745466
247	0x3ffb706f	1.9643687
248	0x3fb59de0	1.4188805
249	0x3f62bdc6	0.8857082
250	0x406c0a91	3.688145
251	0x3f9687e1	1.1760217
252	0x3ff20d20	1.8910255
253	0x3fac010c	1.343782
254	0x40cfcf1a	6.494031
255	0x3f849d24	1.0360456

fc2.weight f4 [300, 404]
0	0x3bff1d1b	0.007785452
1	0x3c769980	0.015051246
2	0xbdd407c3	-0.10353043
3	0x3cedc498	0.029024407
4	0xbbb2f941	-0.0054618423
5	0xbe0999a7	-0.1343752
6	0xbcc2cb95	-0.023778716
7	0xbe0d8282	-0.13819316
8	0x3d291bf0	0.04128641
9	0x3ce3bfb8	0.02780138
10	0x3cd4d583	0.025980717
11	0xbd552622	-0.05203832
12	0xbcd5abe6	-0.026082944
13	0xbe430e43	-0.19048409
14	0xb817e014	-3.6209894e-05
15	0xbcae532c	-0.021279894
16	0xbcab42ff	-0.02090597
17	0xbc43cff5	-0.011951436
18	0x3c4cdea6	0.012504255
19	0xbc834639	-0.016024696
20	0x3c217380	0.0098541975
21	0xbdc25960	-0.09489703
22	0xbca7b3b1	-0.020471426
23	0x3cd696fa	0.026195038
24	0xbc862b95	-0.016378203
25	0x3d7068a4	0.058693543
26	0x3cba3356	0.022729557
27	0xbdc9e922	-0.0985892
28	0xbd54d0d9	-0.051956985
29	0xbcdcbe20	-0.026946127
30	0x3ca4bac5	0.02010859
31	0x3d34c14d	0.04412966
32	0xbce2f1b7	-0.02770315
33	0xbc7937d8	-0.015211068
34	0x3d2a1dfb	0.041532498
35	0x3d2ed5b8	0.042684287
36	0xbc2d09eb	-0.010561447
37	0xbddbe590	-0.10737145
38	0x3cf2a477	0.029619439
39	0xbd2c22dd	-0.042025436
40	0x3d16ef5f	0.036849376
41	0x3d4da625	0.050207276
42	0xbc17d4ba	-0.009267027
43	0xbd41025b	-0.047121387
44	0xbd8be241	-0.06830264
45	0x3d3b93de	0.045795314
46	0xbcde7315	-0.027154485
47	0x3da9f4a0	0.08298612
48	0xbd118abd	-0.0355327
49	0x3cf68ca7	0.030096365
50	0xbb34a8a2	-0.0027566333
51	0xbd1cb9e8	-0.03826323
52	0xbdc63d23	-0.0967963
53	0xbdb94b06	-0.09047513
54	0x3d772bdb	0.06034456
55	0xbce775c1	-0.028254392
56	0xbd340e10	-0.043958724
57	0xbd2895b0	-0.041158378
58	0xbc892b01	-0.016744139
59	0x3c0e8d64	0.008700702
60	0xbcf68677	-0.030093415
61	0xbd24ca28	-0.040231854
62	0xbcc5c141	-0.024140002
63	0x3d03cc2f	0.032177147
64	0xbdb8ed1e	-0.090296015
65	0x3d259688	0.04042676
66	0xbdee4213	-0.116336964
67	0xbc2e22a8	-0.01062838
68	0xbcd9438b	-0.026521465
69	0x3d79a3d9	0.060947273
70	0xbc947434	-0.018121816
71	0xbd8e63db	-0.0695264
72	0x3d0fb7a2	0.035087235
73	0x3d9c4c11	0.07631696
74	0x3c3f0af6	0.011660328
75	0xbd469197	-0.04847869
76	0x3d179bfc	0.037013993
77	0xbd70f418	-0.058826536
78	0xbd0a2ad5	-0.033732254
79	0xbdbd1f2a	-0.0923446
80	0x3caee30e	0.021348502
81	0xbd9f2daf	-0.07772385
82	0xbcb2c50c	-0.021822475
83	0x3d3ec9ef	0.046579298
84	0xbbaf1592	-0.0053431476
85	0xbdf08dcc	-0.117457956
86	0x3d795bf4	0.06087871
87	0xbc95037f	-0.018190144
88	0xbdc7bc95	-0.09752766
89	0x3d8c4f4f	0.068510644
90	0xbdaca732	-0.084303275
91	0xbbfe5bd7	-0.007762413
92	0xbd706638	-0.058691233
93	0x3d8cb6e5	0.06870822
94	0xbd83e99b	-0.06441041
95	0x3c80d555	0.015726725
96	0x3cca2c26	0.024679255
97	0x3c2f9a07	0.010717875
98	0xbd129e32	-0.035795398
99	0x3cc772fa	0.024346817
100	0x3d06a5a6	0.03287282
101	0xbdb720e2	-0.08941819
102	0x3d784485	0.06061222
103	0x3d4c0612	0.049810477
104	0x3baafcdc	0.0052181315
105	0xbcb4f745	-0.022090564
106	0xbc7632e7	-0.0150267845
107	0x3c6d91c0	0.014500082
108	0xbda053b5	-0.07828466
109	0x3d9631c7	0.07333713
110	0x3cbcc576	0.023043375
111	0x3ca25000	0.019813538
112	0xbd85f20e	-0.06540309
113	0x3d4d3c7d	0.050106514
114	0x3d13dd62	0.0360998
115	0xbd999a48	-0.0750013
116	0x3d4ea5e0	0.05045116
117	0x3c7979e6	0.015226817
118	0xbc349217	-0.011021159
119	0x3cdc8318	0.02691798
120	0x3c0c055e	0.0085462015
121	0xbd5cd8e2	-0.053917773
122	0xbdff3c0d	-0.12462626
123	0x3c93ae6c	0.018027507
124	0x3d3114f0	0.04323286
125	0x3c989867	0.018627359
126	0x3d3196c7	0.043356683
127	0xbdca8773	-0.09889116
128	0x3c6737e7	0.014112449
129	0xbbeee030	-0.007289909
130	0xbd8e1185	-0.06936935
131	0xbd7dd2c1	-0.06196857
132	0xbcf09850	-0.029369503
133	0xbd3e6b1d	-0.04648887
134	0xbc05cee5	-0.008167003
135	0xbc72d9a9	-0.014822402
136	0x3d3ae7b4	0.045631126
137	0xbcf646c5	-0.030063042
138	0xbd63b727	-0.05559459
139	0xbc4fbffa	-0.012680048
140	0x3c9be54e	0.01903024
141	0xbc3eeab1	-0.0116526345
142	0xbcff8833	-0.031192875
143	0xbc9c530e	-0.019082572
144	0xbd20f05b	-0.03929172
145	0xbd202ed4	-0.03910716
146	0xbc99d74b	-0.018779417
147	0xbd331dcc	-0.04372959
148	0xbd2a2ea6	-0.041548394
149	0xbd86d26f	-0.06583106
150	0xbd88c7d6	-0.06678741
151	0x3c808e8b	0.01569297
152	0xbdc9baaf	-0.0985006
153	0xbd2400e0	-0.040039897
154	0xbcbae951	-0.022816332
155	0xbd66139e	-0.056171052
156	0x3b9e3679	0.004828271
157	0xbd426f0c	-0.047469184
158	0xbc8e9098	-0.017402932
159	0x3b25499d	0.002522088
160	0x3d6eec38	0.058330745
161	0x3d2b7dba	0.04186795
162	0x3d5f53df	0.054523345
163	0x3c9e93c6	0.019357573
164	0xbd7a4bcd	-0.061107446
165	0xbdce2858	-0.10066289
166	0xbdc79f38	-0.097471654
167	0xbd271ce4	-0.040799037
168	0xba071264	-0.0005152582
169	0xbbb57668	-0.0055377968
170	0xbb89e369	-0.0042080176
171	0x3d6ff0f6	0.058579408
172	0xbd8425d2	-0.06452526
173	0x3cae00a0	0.021240532
174	0xbc7b423e	-0.015335618
175	0xbdacac42	-0.08431293
176	0xbdb2b358	-0.08725613
177	0x3cad5f47	0.021163596
178	0x3b56dfc8	0.0032787193
179	0xbcd4750d	-0.02593472
180	0xbc28e034	-0.01030736
181	0xbd0f2962	-0.034951575
182	0x3cfe1e72	0.031020377
183	0x3d31ece0	0.043438792
184	0xbe1f0106	-0.15527734
185	0x3ce069ac	0.027394138
186	0x3cc65e0f	0.024214773
187	0x3c4467e0	0.011987656
188	0x3caccd67	0.021094037
189	0xbd9896fd	-0.07450674
190	0xbdaf6e23	-0.08565929
191	0xbe0421e4	-0.12903553
192	0xbb9a44af	-0.0047078948
193	0xbd9c7484	-0.07639411
194	0xbcae6448	-0.021288052
195	0xbd177092	-0.03697259
196	0xbbf15414	-0.007364759
197	0x3cc6fc8b	0.024290344
198	0x3ccc59d4	0.024945177
199	0x3c5d7855	0.013517459
200	0x3d3d5095	0.046219427
201	0xbc1e51c7	-0.009663052
202	0xbc687b4a	-0.014189551
203	0xbc8ed214	-0.017434157
204	0xbc6e45e1	-0.014543028
205	0x3ca396b2	0.019969318
206	0xbcc4fc44	-0.02404607
207	0xbd917b1f	-0.071035616
208	0xbd11f407	-0.035633113
209	0x3cbf3649	0.023341315
210	0x3d7996c2	0.06093479
211	0xbd80fa48	-0.06297737
212	0xbd338180	-0.043824673
213	0x3c15aa86	0.009134894
214	0x3ca12f26	0.019675802
215	0x3d461811	0.048362795
216	0x3cb57394	0.022149839
217	0x3d1018b0	0.035179794
218	0xbd4ad138	-0.049515933
219	0xbc2c193e	-0.010504065
220	0xbd20934f	-0.039202984
221	0xbc9dcf3e	-0.01926386
222	0xbddd6915	-0.108110584
223	0xbcabeaab	-0.020985922
224	0x3d341f1a	0.043974973
225	0x3d12252a	0.035679974
226	0xbcc3703d	-0.02385723
227	0xbd0586d5	-0.03259929
228	0xbc9cea30	-0.019154638
229	0xbceb40f0	-0.028717488
230	0xbd8211b5	-0.063510336
231	0x3d16e6ef	0.03684133
232	0xbd76fee9	-0.060301695
233	0x3c5a3c7c	0.013320085
234	0x3c4f14a0	0.012639195
235	0xbde22771	-0.11042679
236	0xbd3f1886	-0.046654247
237	0xbd2fad16	-0.042889677
238	0xbdd0c355	-0.10193507
239	0x3cba166f	0.022715775
240	0xbcee8384	-0.029115446
241	0xbd0a9412	-0.033832617
242	0x3d1f2e20	0.038862348
243	0x3c29d2a3	0.010365161
244	0x3c405361	0.011738629
245	0x3daa2432	0.08307685
246	0xbd6b2a47	-0.057413366
247	0x3d165ecd	0.036711503
248	0x3ae22ceb	0.0017255818
249	0xbd48417c	-0.048890576
250	0xbc91e22b	-0.01780804
251	0xbc5e77a3	-0.013578328
252	0x3c5eb851	0.013593749
253	0xbd5e116a	-0.054215826
254	0x3d1e7172	0.03868241
255	0xbd50e4c6	-0.050999425
