agent_checkpoints/checkpoint_critic_4p5.pth (torch, 557173 bytes, 13 tensors)

fcs1.weight f4 [400, 33]
000000 0e cc 92 3f 5a 92 90 3d ed 23 ef be 21 62 98 3d
       1.1468523 0.07059164 -0.46707097 0.074405916
000010 68 ac c0 be f1 62 01 3d fd 3e 21 3e f0 86 d7 bd
       -0.37631536 0.0315885 0.15746684 -0.10523784
000020 20 f9 73 bf b9 ae 1b bf 84 c8 fe 3d 23 81 10 be
       -0.9530201 -0.6081348 0.12440589 -0.14111762
000030 e8 10 51 be bb 35 bc 3e 75 c2 79 bc cf e9 8f be
       -0.20416605 0.36759743 -0.015244116 -0.2810807
000040 0f 4b 58 3d 19 7c 01 3e 9d 26 f0 be 5b 0b 05 bd
       0.052805956 0.12644996 -0.4690446 -0.032481533
000050 3d 8b 3c 3d 39 1c ad be 13 bc 8d 3e 1e 70 11 be
       0.046031225 -0.33810595 0.27682552 -0.14202926
000060 2a 8d 0c bd 13 76 cf be ed d6 f6 3d c0 b3 f5 3c
       -0.034314312 -0.4051977 0.120527126 0.029992938
000070 9e 01 78 bc 58 5e 03 bd 28 b1 75 bd c2 e0 a3 3c
       -0.015137104 -0.032072395 -0.059983402 0.020004634
000080 7a 41 17 c0 ff 7c f6 3d 89 8f 83 bc f0 46 c0 be
       -2.3633714 0.1203556 -0.016059654 -0.3755412
000090 d8 eb e2 bb 88 2d 1d 3e b3 cb 23 bd a3 cf cd 3d
       -0.0069250874 0.153494 -0.039989185 0.10049369
0000a0 fd 1f bd 3d 39 82 de be fc b2 24 3f 10 b5 3c 3d
       0.09234617 -0.43458727 0.6433561 0.046071112
0000b0 8d 77 0e 3c ea 74 09 be 0b 66 2b bd d3 88 ae 3d
       0.008695495 -0.13423505 -0.041845363 0.08522191
0000c0 89 77 89 3e 7d 0f 42 3e 33 7d 73 bd 30 a4 65 3d
       0.2684901 0.18951221 -0.05944557 0.056064785
0000d0 d4 5d 1a 3e 35 40 5e bd fa 33 b7 bd f1 61 1d 3d
       0.15074855 -0.05426045 -0.089454606 0.038423482
0000e0 69 90 0c 3e 98 cc c6 3b f0 19 11 bd b9 f6 61 bc
       0.13726963 0.00606687 -0.035425127 -0.013791733
0000f0 48 b0 70 3d 4b 58 d0 be 31 04 01 3d 25 8c e8 3c
       0.058761865 -0.40692362 0.031498138 0.028387139
000100 82 43 11 bd 3e 13 93 40 03 13 94 3e 4a 9b 8a bd
       -0.03546477 4.596099 0.28920755 -0.067679
000110 94 d6 b7 be 68 8b ec 3d a3 98 13 3f 8d 19 cb be
       -0.35905898 0.11550027 0.5765478 -0.3966793
000120 d7 f3 07 be 74 49 fb 3e f9 4b e8 3e 0c b5 30 3f
       -0.13276611 0.49079478 0.45370463 0.69026256
000130 dc 1b 88 be bc 12 65 3e 21 7a b3 be cd 5e 5e be
       -0.26583755 0.22370428 -0.35054114 -0.21715851
000140 9f 05 46 be 32 fe dd 3e a6 94 b8 bc 4f 12 23 3e
       -0.19338082 0.43357998 -0.022531819 0.15924953
000150 cb 94 11 bd 24 58 07 be a4 b9 cf bc 66 92 1f 3e
       -0.03554229 -0.13217217 -0.025357075 0.1558319
000160 ec e4 e8 bd 78 4c bf 3e 05 03 20 3e 64 87 83 3e
       -0.113717884 0.3736303 0.15626152 0.25689232
000170 d1 6a 8e bd 37 bb f0 3c 5c 02 8c 3f 14 0b 42 bc
       -0.06953967 0.029386146 1.093822 -0.011843462
000180 6e 37 60 bd ba 54 b4 bc 9f 0f 96 be 47 18 a6 3d
       -0.054740362 -0.022013057 -0.29308793 0.08110099
000190 ab a7 59 3e 91 9e 98 3e 9f 02 08 bd 36 3a 88 3d
       0.21255367 0.29808477 -0.033205625 0.06651728
0001a0 db 05 f8 bc 5d ce 18 bd 84 b3 2d be 6b 7b 03 3e
       -0.03027623 -0.03730618 -0.16963011 0.12840049
0001b0 5a 87 ab be 68 ee b9 bd e3 09 b0 3d ea 23 a7 3d
       -0.33501703 -0.090786755 0.08595636 0.08161147
0001c0 41 91 e1 bc c4 2c df bd 43 51 74 be fa 47 21 3e
       -0.027535083 -0.1089721 -0.23859124 0.15750113
0001d0 a8 24 2f 3c b7 3a cf 3c 7d 48 c2 bb 32 c0 13 3b
       0.010689892 0.025296552 -0.0059290514 0.0022544977
0001e0 30 64 cf 3d 4b df 00 bc 8d d1 9a bd 9f 4d b3 bd
       0.10126531 -0.007865737 -0.075595 -0.087550394
0001f0 5c d0 d1 bd b5 53 19 3e 8e 64 b7 bd 67 70 12 bf
       -0.102448195 0.14973338 -0.08954726 -0.5720276
000200 fa 24 00 bd 65 14 1f 3d a0 4b 88 3a 41 09 5c c0
       -0.031285264 0.03883781 0.0010398515 -3.4380648
000210 2b 47 dc 3e 2f 8e ae be 37 90 d5 be f8 1d 84 be
       0.43023047 -0.34092852 -0.4171159 -0.25804114
000220 c5 ba b9 be 04 f8 56 be 80 54 12 3d 3e f3 85 bd
       -0.36275306 -0.20993048 0.035725117 -0.065405354
000230 ec 4e 15 be 29 2f 3a be 4e 2a d3 3e 84 97 2a bd
       -0.14580888 -0.18182053 0.41243213 -0.041648403
000240 38 84 7e be f3 1b 4e bd a0 4d e8 3e 14 53 54 3f
       -0.24855125 -0.050319623 0.45371723 0.8293927
000250 2d b0 6b be c0 3d 07 bd ac ae 98 bd 82 22 84 be
       -0.23016424 -0.033017874 -0.07455191 -0.25807577
000260 1c 48 ec 3d 5e 5a 22 3e ba 31 1d 3d 07 c4 82 3c
       0.11537191 0.15854785 0.0383775 0.015962614
000270 3b 15 b1 3e 16 9c e6 3e 67 39 d7 bd 73 cb 20 bd
       0.3458651 0.4504096 -0.105089955 -0.039256524
000280 d7 f5 14 bf f4 24 89 bc 37 5e 27 3d 9f 2b 2a 3d
       -0.5818762 -0.016741253 0.040861335 0.041545507
000290 88 95 3d be 46 1d aa bd 9a ca 96 be e9 d0 8d 3e
       -0.18514073 -0.08306365 -0.29451448 0.27698448
0002a0 64 dd 45 be 9d 52 41 3e d2 5b c6 be 9e 27 bb be
       -0.19322735 0.1887917 -0.38741928 -0.36553663
0002b0 f1 b4 d6 3e 6a 5d 09 3f d0 6c 74 3c 63 4d 4d 3d
       0.41934922 0.53658164 0.014918521 0.05012263
0002c0 99 15 4e bd f8 96 d7 bd 17 f5 bf 3e c5 12 57 bf
       -0.050313566 -0.10526842 0.37491676 -0.84013015
0002d0 66 59 83 3e d0 cc ed b9 32 ca 23 3e 39 d5 de 3b
       0.25654143 -0.0004535676 0.159951 0.0068003205
0002e0 78 85 d4 bd 5b b7 b9 3c 66 5e e0 3d 63 c8 57 3e
       -0.1037702 0.022670439 0.10955505 0.21072535
0002f0 ca 55 09 3f e0 84 4b 3e de d1 8e be 3a 1e 04 bf
       0.5364653 0.19874907 -0.2789449 -0.5160862
000300 43 e7 1a bc eb e3 dc 3e 9d 7a 0a bd 08 35 27 3d
       -0.009454551 0.43142638 -0.03380834 0.04082206
000310 fa af e4 3c 01 0a d0 3f 64 78 14 3d b3 76 0c 3e
       0.027915943 1.6253053 0.036247626 0.13717155
000320 54 15 6c bc 3e 1d a7 bd 46 6d db 3d 1d 0a 24 3d
       -0.014409382 -0.081598744 0.10714202 0.040048707
000330 95 09 09 bd 87 3c 45 3c 3c 98 72 bd 59 68 1b 3d
       -0.033456404 0.012038357 -0.059227213 0.03794131
000340 61 bc 56 3c df e7 ae 3b e7 c3 c6 bc 96 4e 50 bd
       0.0131064365 0.0053377 -0.024263335 -0.050856195
000350 1f e1 39 bd 8b fb 98 bc 19 d2 08 3d c1 ea 10 3d
       -0.045380708 -0.018674633 0.03340349 0.03538013
000360 af 8b 8f 3c de f3 91 bd 85 cb 12 3b 09 a4 11 bd
       0.017522661 -0.07126592 0.002239914 -0.035556827
000370 72 dc 4c 3c 3e 89 92 bb 1e 7e 5d bc ab 16 81 3c
       0.01250373 -0.004471927 -0.013518838 0.01575788
000380 53 aa a4 3d 3d 67 1d 3d 35 19 b2 3e 9a 5c b6 bc
       0.08040299 0.038428534 0.34784856 -0.022260953
000390 0f fc 69 bd 94 73 8b bc b1 fe ad 40 59 bc 1b bf
       -0.057125147 -0.017022885 5.4373403 -0.6083427
0003a0 aa cd 83 3f d7 cb a9 be 01 fc ac bd ec 11 42 be
       1.0297139 -0.3316333 -0.084465034 -0.18952149
0003b0 49 d4 ae bd 89 90 14 bd 10 27 86 3d ad f6 02 be
       -0.08536584 -0.036270652 0.06550419 -0.12789412
0003c0 15 6b 30 3e 8f a9 67 be e3 b6 74 3e 91 99 0d be
       0.17228349 -0.22623275 0.23897891 -0.13828112
0003d0 4e 24 a9 be 2d 72 a4 3a 6b 2b fe 3c ca fe e5 bc
       -0.3303551 0.0012546234 0.031026563 -0.028075594
0003e0 75 5c af bd 33 3f ac 3d e1 f3 ea bd 4e c8 4f be
       -0.08562557 0.08410492 -0.114722975 -0.20291254
0003f0 c0 2b 5c bd 30 96 33 be df 88 95 bc 16 de 92 3d
       -0.05375266 -0.1753776 -0.018253742 0.07171266

fcs1.bias f4 [400]
000000 cd 1d 1c 3e 14 b6 03 3e b9 27 bf 3d c3 17 db 3d
       0.15245743 0.12862426 0.09333748 0.106978916
000010 90 88 b9 3d 4a 75 21 3e 5f cc 03 3e 2d 76 c2 bc
       0.0905925 0.15767398 0.1287093 -0.023737991
000020 e6 71 19 3e fa 61 82 bd 69 a3 15 3e 39 93 ca 3d
       0.14984855 -0.06366344 0.14613117 0.09891362
000030 bf 1f 17 bd 39 20 2f be 5e d6 21 3e 8b d9 7c 3c
       -0.03689551 -0.17102136 0.15804431 0.015432726
000040 65 7c 8d 3c 9d 02 0a be c4 be 6c bd 25 03 26 3e
       0.01727123 -0.1347756 -0.057799116 0.16212137
000050 3c 1c 0a be 17 c8 28 3e 67 d4 24 3e 35 58 69 bd
       -0.13487333 0.16482578 0.1609665 -0.056968886
000060 09 cf ce bd 93 33 5f bd e9 21 ab bc ff d3 5d bd
       -0.100980826 -0.054492544 -0.020890193 -0.054157253
000070 0b 98 1d bd dc 6c f8 bd d2 c9 4a bd 45 73 f1 3d
       -0.038475078 -0.12130138 -0.049508877 0.11789564
000080 ea 76 ed 3d c4 65 dc 3a 2f f2 07 3e fd f8 6f bd
       0.11594947 0.0016814996 0.1327598 -0.058587063
000090 e3 53 1e bd 70 e0 0c be 3e 43 f5 3d 69 69 95 bd
       -0.03865422 -0.13757491 0.11975716 -0.07295496
0000a0 ac cb 76 bd e8 8b 13 be b4 c4 11 3e 68 2b 10 be
       -0.06025283 -0.14408839 0.14235193 -0.14079058
0000b0 bd da c3 3b 1a 62 f6 bd d2 ce fe bc e5 b4 93 3d
       0.0059770034 -0.1203043 -0.031104479 0.07212237
0000c0 9f 84 db 3d 36 84 12 be d9 30 0a be 45 82 2a 3d
       0.10718655 -0.14308247 -0.13495196 0.04162814
0000d0 2c 88 48 bc a2 f7 d0 bd 1e a9 12 be be 79 c2 3d
       -0.012239497 -0.10203482 -0.14322326 0.09495877
0000e0 34 44 11 3d 4a 88 dc 3d d6 00 87 3b 6b 33 49 3d
       0.035465434 0.107681826 0.0041199727 0.0491213
0000f0 6b 04 c4 3c bf 39 74 bd 19 b8 91 3c 0b a4 79 bc
       0.023927888 -0.059625383 0.01778798 -0.015236865
000100 15 e1 11 be 5f 09 06 3e 59 d4 1d be f4 d2 ea bd
       -0.14246018 0.13089512 -0.15413035 -0.11466017
000110 9b 39 5e bc 51 bf 14 3e 48 5b 17 be 78 15 a2 3c
       -0.013563539 0.14526106 -0.14780915 0.019785628
000120 1d 3c a7 bb 41 38 91 bd dc f9 82 3d 4f 9b 12 be
       -0.0051036016 -0.07090808 0.06395313 -0.14317058
000130 aa c7 0c 3b 9c d0 24 be 20 60 0d be bb b5 dc bd
       0.0021481314 -0.16095203 -0.138062 -0.1077685
000140 ac 2e 27 be be 88 aa 3d 91 4f 09 be 92 fa 65 3c
       -0.16326398 0.08326863 -0.13409258 0.014036791
000150 e4 6c be bd 1d c5 27 be 97 22 06 3e 4e 03 1d 3e
       -0.09298113 -0.16383786 0.13099132 0.15333292
000160 82 9f d2 bd 1f bb 0c be 3e 15 e8 3d b4 0c 1c 3e
       -0.1028433 -0.13743256 0.113321766 0.15239221
000170 da bb da 3d 91 24 a5 bd fa 9c 01 be 56 8c 95 3c
       0.10680361 -0.08063615 -0.12657538 0.018255394
000180 0a 2c 0a 3e 13 7f 2d be 7f 6b 1c 3d ad 19 06 be
       0.13493362 -0.16943006 0.038188454 -0.13095732
000190 f2 25 ce bd 3b 18 b7 3d aa 75 22 3c ba 4f 25 3e
       -0.10065831 0.089401685 0.009915749 0.16143695
0001a0 c7 e1 32 3d 28 d2 02 bd b3 68 0c 3e e4 47 e5 3d
       0.04367235 -0.031938702 0.13711815 0.11195353
0001b0 65 70 0e be f1 17 04 be 25 5b 0c 3e 5a c7 29 3d
       -0.13910063 -0.12899758 0.13706644 0.041449882
0001c0 e1 fe f1 3d 74 71 0f be e1 9e 75 3d b9 b2 b1 bd
       0.118161924 -0.14008123 0.05996597 -0.08676667
0001d0 7b bb 1c be 81 a4 8f 3d 2f 53 df 3d 35 f4 28 3e
       -0.15305893 0.070137985 0.10904538 0.16499408
0001e0 31 e6 25 3e e3 8b 19 be 2f b2 e1 3d 61 e4 13 3e
       0.16201092 -0.14994769 0.11020314 0.14442588
0001f0 c8 0e 1b be fd a2 1d 3e 1c 1e 1f 3e 2e d3 23 3e
       -0.15142357 0.15394206 0.1553883 0.15998527
000200 b8 cc 1f be 26 bc e4 3d 35 2c 19 3d 8b e8 40 3c
       -0.15605438 0.11168699 0.037395675 0.011774193
000210 2d bf c2 3d c0 74 90 bd f1 a2 18 bd 98 a3 6a bb
       0.0950912 -0.07053518 -0.037264768 -0.0035803076
000220 72 17 32 be aa 38 14 be 74 3a 1f be 66 fb 09 be
       -0.17391756 -0.1447474 -0.15549642 -0.13474807
000230 11 c2 8e bd 95 3c e6 3d 6d 14 32 be d4 5b 19 3e
       -0.06970609 0.11242024 -0.17390604 0.14976436
000240 1f 44 20 bb af fd 0e be a7 7d da 3d 61 85 fc 3d
       -0.0024454666 -0.1396396 0.106684975 0.123301275
000250 d8 8a 13 be 5d 6c 1b 3e eb 72 b0 bd ec 26 49 3d
       -0.14408433 0.15178056 -0.08615669 0.049109384
000260 c0 d8 3c 3d 73 f9 1a bc 54 0e 16 be 19 00 e4 3d
       0.046105146 -0.009458887 -0.14653903 0.11132831
000270 23 cd 1a be 64 af cb bd d9 79 30 bc 31 b6 46 3d
       -0.15117316 -0.099455625 -0.010771238 0.048513595
000280 f6 b1 1b 3e 2c 09 d7 bb b9 fd 04 bd 46 26 ef bd
       0.15204605 -0.0065623727 -0.03246853 -0.11677222
000290 d0 aa 23 3e 45 93 2a be dc 65 8d bd 09 42 a7 bd
       0.15983129 -0.16657741 -0.06904194 -0.08166892
0002a0 7e a4 1d be 97 c5 88 3d 2b a9 c9 3d e1 14 08 3e
       -0.1539478 0.06678312 0.09846719 0.13289215
0002b0 39 ab 70 bc 53 17 31 be fc 7d c8 3d 10 e7 2a be
       -0.01468926 -0.17294054 0.097896546 -0.16689706
0002c0 eb 4b d1 bd c9 0c 7f 3d 3f 39 9d 3d 59 5f 34 3d
       -0.10219558 0.062268052 0.076769345 0.044036243
0002d0 e1 7e d9 bd cb 9e bb bd 29 e4 8a 3c 05 50 a2 3d
       -0.10619903 -0.09161147 0.016954498 0.07925419
0002e0 44 9c 0a bc ee f6 c0 bd 11 6d 84 3d 43 55 6a 3d
       -0.008460108 -0.09422098 0.06466115 0.05721022
0002f0 d1 92 74 bd d8 9c 78 bb 4a 69 c7 3c 4a d6 ad bd
       -0.059710328 -0.0037935283 0.024342198 -0.08488138
000300 87 68 2d bd 13 b0 81 bd 5c b1 39 bc d9 f6 d5 bd
       -0.042336013 -0.063324116 -0.01133379 -0.10447473
000310 3a 34 ea bd b6 c8 e2 bd aa 54 05 3d a6 1b 8c 3b
       -0.11435743 -0.11073439 0.032551445 0.004275757
000320 b1 ae 5e bd 1e 44 d4 ba a4 5a 33 3d 56 c2 51 3d
       -0.054365817 -0.0016194617 0.043787614 0.051210724
000330 86 26 47 3c 7f 2c 38 bd aa 02 ce bd a1 9d a4 bd
       0.012155181 -0.04496431 -0.10059102 -0.08037878
000340 af 03 c0 bc 18 a6 04 be 69 71 ae bc 71 30 e8 bd
       -0.023439256 -0.12953985 -0.021294313 -0.113373645
000350 ca 55 27 be c2 10 95 3d 9c 74 e4 bc 54 b8 31 bd
       -0.1634132 0.07278587 -0.027887635 -0.04338868
000360 4c 7a a1 3d 1c 65 e6 bc df 85 1b bd 47 45 30 3e
       0.078846544 -0.028124385 -0.037969466 0.17213927
000370 fd 16 9c 3d cd 22 11 be ac 7a 02 3e 1e 5f ba bd
       0.07621572 -0.14173432 0.12742108 -0.091001734
000380 52 3e 1f bd 35 47 a6 3d 3a 30 29 3e fd 63 0f be
       -0.038877793 0.081190504 0.16522303 -0.14002986
000390 f9 cc d8 bd 94 2e 1b be a8 39 27 be 1c f3 23 be
       -0.105859704 -0.15154487 -0.16330588 -0.16010708
0003a0 26 71 0a be ba e0 1d 3d 4c 2d 8a 3d 75 7c 0c 3e
       -0.13519725 0.038544394 0.06746921 0.13719352
0003b0 53 f5 e6 3d 29 10 12 be f4 5a 7d 3b af 02 23 be
       0.11277261 -0.14263977 0.0038658949 -0.15918992
0003c0 19 52 1d 3e 29 7b 02 bd 58 7e 81 3d b4 aa e4 bd
       0.15363349 -0.031855736 0.06322926 -0.111653715
0003d0 eb 43 15 3e 4c 8b 03 be 46 3f 6d 3d e4 05 07 bd
       0.1457669 -0.12846106 0.05792167 -0.032964602
0003e0 73 d0 b2 bc f3 29 1f bd d5 86 d4 3d c1 e0 2e 3d
       -0.021827912 -0.038858365 0.1037728 0.04269481
0003f0 0e 22 c0 3d 03 0a 73 bd cf 89 c5 bd 93 f6 ea 3d
       0.093814954 -0.05933572 -0.096454255 0.114728115

fcs1_bn.weight f4 [400]
000000 ad 06 56 3f 8b b8 51 3f 49 ea 55 3f 77 b4 14 3f
       0.83603936 0.81922215 0.83560616 0.5808787
000010 35 22 46 3f 50 2f 40 3f f6 93 87 3f 2a f5 4d 3f
       0.77395946 0.75072193 1.0592029 0.80452216
000020 10 4f 5d 3f bd fd 6b 3f 54 7f 57 3f f1 ce 28 3f
       0.86448765 0.9218405 0.8417866 0.6594077
000030 cb f1 72 3f f7 5b 4e 3f a1 0d 39 3f c5 70 57 3f
       0.94900197 0.8060908 0.7228642 0.8415645
000040 09 a4 66 3f 09 62 50 3f cb 01 49 3f 0e 58 52 3f
       0.9009405 0.8139959 0.7851836 0.8216561
000050 25 73 1d 3f dc a5 43 3f 2d 50 7f 3f e5 0c 47 3f
       0.6150382 0.76424956 0.99731714 0.7775405
000060 00 b9 78 3f 8f ff 46 3f 57 77 48 3f b2 8d 79 3f
       0.9715729 0.777337 0.783071 0.97481835
000070 fc fb 2a 3f 20 99 62 3f 9b 6f 50 3f 90 39 7c 3f
       0.6679075 0.885149 0.81420296 0.98525333
000080 cb ec 17 3f c2 28 32 3f 38 66 0e 3f ee 4b 42 3f
       0.5934569 0.6959344 0.55624723 0.7589711
000090 dc 54 3b 3f f0 44 77 3f 37 b9 17 3f d7 cc 55 3f
       0.7317636 0.96589565 0.5926699 0.83515686
0000a0 74 95 20 3f 12 e3 68 3f 27 fa 54 3f e0 b3 79 3f
       0.6272805 0.9097148 0.831942 0.9754009
0000b0 ac 56 1f 3f 0f e0 1e 3f ee 84 53 3f 9c 93 1c 3f
       0.62241626 0.62060636 0.8262471 0.61162734
0000c0 70 47 83 3f cd b1 e9 3e 43 66 46 3f ad 89 73 3f
       1.0256176 0.45643464 0.7749979 0.9513195
0000d0 95 ef 68 3f 76 c2 5c 3f b3 55 7c 3f a8 5e 66 3f
       0.90990573 0.86234224 0.98568267 0.89988184
0000e0 06 63 85 3f 4d 6f 66 3f f9 4c 3d 3f c1 a5 67 3f
       1.0420845 0.9001358 0.73945576 0.90487295
0000f0 82 59 63 3f f0 8e 6c 3f 96 01 84 3f d1 e6 85 3f
       0.88808453 0.92405605 1.0312984 1.0461065
000100 70 b8 0d 3f 3c c3 54 3f 19 09 2b 3f b9 cb 24 3f
       0.55359554 0.83110404 0.66810757 0.64373356
000110 a1 eb 63 3f cd d9 6f 3f 34 a6 80 3f 1c 28 47 3f
       0.89031416 0.9369171 1.0050721 0.7779558
000120 2e c9 5d 3f f6 11 5f 3f 49 2e 64 3f 03 9a 6d 3f
       0.866351 0.8713678 0.89133126 0.9281313
000130 43 56 42 3f bc 2e 36 3f 89 83 37 3f af 78 33 3f
       0.75912875 0.7116506 0.7168508 0.70106024
000140 a9 4d 33 3f ea 9a 39 3f 14 ed 67 3f f6 65 8b 3f
       0.70040375 0.72502005 0.9059613 1.0890491
000150 99 67 60 3f 91 ca 48 3f 55 32 48 3f f5 b2 40 3f
       0.8765808 0.7843409 0.782018 0.75273067
000160 83 e6 8b 3f c0 3f 64 3f 1f 65 3f 3f d1 bd 56 3f
       1.0929722 0.89159775 0.74763674 0.83883387
000170 44 e5 45 3f 18 df 34 3f 7e fc 60 3f c9 30 6b 3f
       0.77302957 0.70652914 0.8788527 0.91871315
000180 2d c2 35 3f 2f 65 03 3f 82 04 0f 3f f7 34 4c 3f
       0.70999414 0.5132627 0.55866253 0.7976832
000190 19 12 40 3f bc 9c 5a 3f db 37 4e 3f 43 5d 62 3f
       0.75027615 0.8539541 0.8055398 0.88423556
0001a0 b8 b2 2a 3f c8 9e 5d 3f 8e 84 1e 3f b8 d2 30 3f
       0.66678953 0.86570406 0.6192101 0.6907153
0001b0 64 d1 43 3f a3 33 34 3f fb d5 31 3f bd de 76 3f
       0.7649138 0.7039129 0.69467133 0.9643362
0001c0 30 b0 0f 3f 17 75 51 3f 0f e7 5b 3f b4 01 29 3f
       0.56128216 0.8181929 0.8589944 0.66018224
0001d0 88 6b 0f 3f a2 9a 3a 3f 47 71 93 3f 2e db 1b 3f
       0.56023455 0.728922 1.1518945 0.60881317
0001e0 41 ae 50 3f a8 1c 56 3f b0 b4 51 3f a6 1c 6e 3f
       0.8151589 0.83637476 0.8191633 0.93012464
0001f0 c8 21 40 3f 96 5b 3b 3f 3f cf 32 3f b7 e4 5a 3f
       0.75051546 0.73186624 0.6984748 0.8550524
000200 cb 40 5c 3f 8a 86 6f 3f 28 68 39 3f 8a 4c 27 3f
       0.86036366 0.93564665 0.72424555 0.65351164
000210 ae c5 64 3f 67 de 44 3f f9 60 3f 3f 06 46 23 3f
       0.89364135 0.7690186 0.74757344 0.6377872
000220 48 d8 05 3f 5f a6 28 3f 4e 1e 54 3f ec 56 73 3f
       0.52283144 0.6587886 0.8285874 0.9505451
000230 31 24 39 3f 07 72 4b 3f 2e 72 77 3f 17 9a 44 3f
       0.7232085 0.79470867 0.966586 0.7679762
000240 dc 89 96 3f 96 45 3c 3f 91 fb 1e 3f 59 7e 4d 3f
       1.1760821 0.7354368 0.6210261 0.80270916
000250 64 67 4e 3f 60 36 5d 3f 85 be 4f 3f 84 66 67 3f
       0.8062651 0.86411095 0.81150085 0.903908
000260 2c 0c a0 3f 7f 13 78 3f 35 63 59 3f 6e 77 1b 3f
       1.2503715 0.9690475 0.84917 0.6072911
000270 ca 1b 4c 3f 5e e9 4c 3f 27 03 4d 3f cc 2d 22 3f
       0.797299 0.8004359 0.80082935 0.6335113
000280 49 d7 2c 3f 9c ca 3a 3f 56 50 13 3f 2c 39 2c 3f
       0.67516 0.7296541 0.5754446 0.6727474
000290 cf 2d 2a 3f e2 8e 43 3f 3b c7 72 3f 04 81 44 3f
       0.6647615 0.76389897 0.9483525 0.7675936
0002a0 47 b7 47 3f 5b bb 5f 3f 89 7e 78 3f 86 3a 5e 3f
       0.78014034 0.87395257 0.9706808 0.8680805
0002b0 d3 0c 30 3f 31 68 1e 3f 71 9e 51 3f 29 6b 1b 3f
       0.6876957 0.61877733 0.8188239 0.6071039
0002c0 3b cc 39 3f 92 af 34 3f da 24 0e 3f f2 cd 21 3f
       0.72577256 0.705804 0.5552498 0.6320487
0002d0 70 74 80 3f d7 e4 55 3f 30 21 37 3f c2 2a 6e 3f
       1.0035534 0.83552307 0.71535015 0.93033993
0002e0 85 50 22 3f 3a 34 76 3f 57 06 1a 3f 19 a8 3d 3f
       0.63404113 0.9617344 0.60165924 0.7408462
0002f0 ae 72 7f 3f d6 e8 4e 3f e3 ee 6c 3f f1 b1 4c 3f
       0.9978436 0.8082403 0.9255201 0.7995902
000300 dc bf 33 3f 95 d0 59 3f 21 0d 3d 3f 94 55 4e 3f
       0.7021463 0.85083896 0.7384816 0.8059933
000310 67 e6 2e 3f 98 94 35 3f 3a 1a 2e 3f de 11 52 3f
       0.68320316 0.7092986 0.6800877 0.82058513
000320 ec 4d 38 3f 69 b9 0e 3f c8 9c 89 3f f0 80 16 3f
       0.719939 0.55751663 1.0750971 0.58790493
000330 ce ad 88 3f 39 11 54 3f d1 b3 5d 3f e2 5b 59 3f
       1.0678041 0.8283878 0.86602503 0.8490583
000340 23 be 3b 3f 08 12 26 3f a3 9a 6c 3f 7a 4d 64 3f
       0.73337 0.64871264 0.92423457 0.8918072
000350 46 89 97 3f 23 56 2a 3f f4 2e 4b 3f 95 68 1f 3f
       1.1838768 0.66537684 0.7936852 0.62268955
000360 92 e7 2b 3f 74 76 8d 3f 54 e8 52 3f e4 e1 81 3f
       0.67150223 1.1051774 0.82385755 1.0147061
000370 bf f3 4c 3f df f0 46 3f 67 4f 79 3f 99 da 38 3f
       0.8005943 0.7771129 0.97386783 0.72208554
000380 1a 02 3d 3f 1e 07 87 3f 71 ca 7d 3f f1 23 5c 3f
       0.7383133 1.0549047 0.99137026 0.8599234
000390 49 76 35 3f 7c 72 5b 3f 42 b4 8b 3f 4d e0 31 3f
       0.70883614 0.85721564 1.0914385 0.6948288
0003a0 b3 0f 4c 3f 28 8c 79 3f fe 55 3a 3f 0d 45 47 3f
       0.79711455 0.97479486 0.72787464 0.7783974
0003b0 94 d4 54 3f f5 8e 3e 3f fd b1 0c 3f 81 50 2d 3f
       0.8313687 0.74436885 0.5495909 0.67700964
0003c0 04 e3 82 3f f2 a6 73 3f bb 90 48 3f b1 1b 4d 3f
       1.022553 0.95176613 0.7834584 0.8012038
0003d0 70 b7 26 3f 66 ed 41 3f c6 36 44 3f 10 8d 3e 3f
       0.65123653 0.75752866 0.7664608 0.74433994
0003e0 f7 e2 52 3f ea c6 72 3f d7 b3 2a 3f 08 09 4f 3f
       0.8237757 0.9483477 0.66680664 0.80873156
0003f0 04 39 5c 3f 41 b1 67 3f cf aa 52 3f c4 5f 6d 3f
       0.860245 0.90504843 0.82291883 0.9272425

fcs1_bn.bias f4 [400]
000000 ce 71 50 bf b6 ce 7a bf d1 8e 5d bf eb d5 90 be
       -0.8142365 -0.97971666 -0.86546046 -0.28288206
000010 22 d3 91 be 71 8b b2 bf f1 5c 5c bf 1c e7 75 bf
       -0.28481394 -1.3948804 -0.8607932 -0.9605577
000020 3e 2e 78 bf 54 2b 42 bf 1e 7c 4b bf 60 ac 91 be
       -0.9694556 -0.75847363 -0.7948626 -0.28451824
000030 34 4b 3b bf 0f a4 24 be cb ce ad 3d f0 ac 74 bf
       -0.73161626 -0.16078208 0.08486708 -0.9557638
000040 e5 ea 2a bf 04 26 e7 3d 22 28 98 bf c3 ec 60 bf
       -0.6676467 0.11286548 -1.1887248 -0.8786127
000050 1e 00 1a bf e8 9e 38 bf ca 5f 49 bf 67 dd 1f bf
       -0.6015643 -0.7211747 -0.7866179 -0.6244721
000060 08 15 53 bf 7a 5f c2 be cf d5 45 bf 1f 0c 5e bf
       -0.82453966 -0.37963468 -0.7727937 -0.86737245
000070 67 80 50 bf c0 80 5f bf 58 72 15 be 0b 34 02 bf
       -0.81445926 -0.8730583 -0.145944 -0.5086066
000080 5e c2 8a bf 6d 89 64 be fa 4d d3 bb 3e 47 1f bf
       -1.0840566 -0.22318049 -0.0064485045 -0.6221808
000090 41 02 5e bf ef d6 3e bf 4a 52 f5 be 7f c8 27 bf
       -0.8672219 -0.7454671 -0.47914344 -0.6554031
0000a0 c2 17 eb be a6 36 57 bf fd 14 bf bd 13 fc 1f bf
       -0.45916563 -0.8406776 -0.09330175 -0.6249401
0000b0 c2 9d ef 3d 52 62 a0 bf d1 ce 2c bf bd c8 c9 be
       0.11700012 -1.2530005 -0.67503077 -0.39410964
0000c0 16 33 f5 3c bd 9c 04 3e 75 3c 37 bf bf 5b 23 bf
       0.029931586 0.12950416 -0.71576625 -0.6381187
0000d0 dd 62 19 bf 86 99 99 be 4e 4e 41 bf 1c fa 2e bf
       -0.5991648 -0.29999942 -0.7551011 -0.68350387
0000e0 5d ce 6f bf 32 cc 08 bf b9 43 1e bf e1 e9 4c bf
       -0.9367426 -0.5343658 -0.61822087 -0.8004437
0000f0 f4 f5 31 bf 5d ea 7b bf cb de 89 bf f2 79 36 bf
       -0.6951592 -0.98404485 -1.0771116 -0.71279824
000100 7b 40 2a be 5b 87 58 bf d3 74 f2 be aa 98 9f bd
       -0.1662616 -0.84581536 -0.47354755 -0.0779279
000110 ee 13 87 bf 23 5a 5f bf 42 cc 3c bf 3f b3 af bf
       -1.0552957 -0.8724691 -0.7374917 -1.3726577
000120 c2 e9 83 bf 8b 23 98 3c a2 39 23 bf df 4a 1b bf
       -1.0305712 0.018571636 -0.63759816 -0.6066112
000130 57 ed 5b bf c6 ac c1 be a1 d9 97 bf d6 13 f8 be
       -0.85909027 -0.37827128 -1.186329 -0.48452634
000140 3a fa 7a bf 26 95 60 bf 5a f2 f5 be b8 0b 8c be
       -0.98038065 -0.8772758 -0.48036462 -0.2735269
000150 80 f0 21 be c6 e0 88 bf 86 ad 59 bf 0a 87 88 bf
       -0.158144 -1.0693595 -0.850304 -1.0666211
000160 2c a7 7c bf 25 49 49 bf 6f b5 a8 3d 7f 26 f6 be
       -0.98692584 -0.78627235 0.08237731 -0.48076245
000170 8e b1 69 bf 27 88 a9 be d8 ab 5c bf 6c 78 4a bf
       -0.9128655 -0.33111688 -0.8619971 -0.7909
000180 4d 01 ee be c4 38 1d bf 9e c4 50 bf cb 58 b8 bf
       -0.46485367 -0.6141474 -0.81550014 -1.4402097
000190 40 0f ef be 25 90 19 bf fc ff 14 bf 9a d9 64 bf
       -0.46691322 -0.5998557 -0.582031 -0.89394534
0001a0 bf 5a 68 be 9d b2 79 bf e2 3f 89 bf 63 d6 7d bf
       -0.22690867 -0.9753817 -1.072262 -0.99155253
0001b0 e1 b2 71 bf 58 cc 44 bf e0 27 6c bf 4d 47 47 bf
       -0.9441357 -0.76874304 -0.92248344 -0.7784317
0001c0 8c 7a 53 3e 40 43 40 bf ef 5e 04 bf 4d 92 71 bf
       0.20652217 -0.75102615 -0.5170736 -0.9436386
0001d0 82 08 2b bf 1e fc 48 bf b5 0a be bd 3d 3d 3a bf
       -0.66809857 -0.785097 -0.09279386 -0.7274969
0001e0 35 46 81 bf b0 13 79 bf ec 9a 4a bf 8c 8d cd be
       -1.009955 -0.97295666 -0.7914264 -0.40147054
0001f0 d4 a0 43 bf 01 4e 91 bf 75 5c af be 53 fc 73 bf
       -0.7641728 -1.135193 -0.34250227 -0.9530689
000200 10 e9 21 bf 3f dc 00 be c9 ba 2e bf 5e b1 8c bc
       -0.6324625 -0.12584017 -0.6825376 -0.017174419
000210 4a 9c 7b be 95 07 64 bf db bb 51 be b1 bb 18 3d
       -0.24571338 -0.8907407 -0.20481817 0.03728837
000220 3b 57 e3 be d5 40 c5 3d 4b 84 7d bf 2a 32 ab bf
       -0.4440249 0.09631506 -0.9902999 -1.3374684
000230 ff 99 2d bd c0 06 4e bf a7 6a 8a bf 72 f4 fd be
       -0.04238319 -0.8047905 -1.0813798 -0.4960056
000240 bc d9 c1 be 14 11 33 bf cf 0d 4a be c2 8c 82 be
       -0.3786143 -0.69947934 -0.1973183 -0.25498015
000250 7e 69 47 bf 82 72 94 bf 30 34 39 bf ac 19 6c bf
       -0.77895343 -1.1597445 -0.72345257 -0.9222667
000260 0f 0e 71 bf d8 90 40 bf 56 e5 34 bf 12 de 7d bf
       -0.94162077 -0.75221014 -0.7066244 -0.9916698
000270 05 7a 5d bf 43 fb 50 bf d8 35 48 bf 6b 39 9a be
       -0.8651431 -0.81633395 -0.7820716 -0.3012193
000280 88 18 4e be bd c8 df be 9c 41 ab be ec 18 26 bf
       -0.20126545 -0.4370784 -0.33448493 -0.6488178
000290 34 01 05 bf a5 37 6a bf 05 49 3a bf ae 69 1e bf
       -0.5195496 -0.91491157 -0.7276767 -0.61880004
0002a0 8b 14 3a bf 69 08 76 bf 60 94 b0 be f1 f3 22 bf
       -0.72687596 -0.9610658 -0.344882 -0.63653475
0002b0 3f b9 34 bb 62 f2 50 bf f4 cc 49 bf d8 5b 1c bf
       -0.0027576236 -0.81619847 -0.7882836 -0.6107764
0002c0 dd 3a 3a 3e a7 14 f1 be fd 2a 60 be dc f1 15 bf
       0.18186517 -0.4708607 -0.21891399 -0.58572173
0002d0 0b 04 65 bf e7 c1 c4 be 71 3d 5c bf 98 38 2a bf
       -0.89459294 -0.38429186 -0.8603125 -0.66492605
0002e0 58 e8 4c bf a9 d1 f2 be 28 70 51 bf 0b ab 43 bf
       -0.8004203 -0.47425583 -0.8181176 -0.76432866
0002f0 0c 4c 4c bf a8 40 77 bf 1c e6 37 bf 6f 0b b2 bf
       -0.7980354 -0.9658303 -0.71835494 -1.3909739
000300 06 68 10 bf 17 7d 4d bf 7b a6 5c bf 47 b8 b9 be
       -0.5640873 -0.80268997 -0.8619153 -0.36273405
000310 d1 2d c0 be 3b c7 9b bf c5 b5 d3 be bf 88 7b bf
       -0.37534955 -1.2170175 -0.41349617 -0.9825553
000320 32 01 04 bf ec 81 83 bf e5 0f 6d bf ce a9 e1 be
       -0.51564324 -1.0274024 -0.9260238 -0.44074863
000330 e1 bd 0e bf 48 ed 0c bf 7c 80 cb be cc 73 a2 be
       -0.5575848 -0.5504956 -0.39746463 -0.3172897
000340 0e 05 0e bf e9 9e 9c bf 29 e0 19 bf e2 3b 1d bf
       -0.5547646 -1.2235996 -0.60107666 -0.614195
000350 01 21 83 bf 84 57 5c bf d1 96 2c be fd e0 4a bf
       -1.0244447 -0.8607104 -0.16854407 -0.79249555
000360 58 2b 39 bf 6a 71 a6 bf 08 55 54 bf 4c cd 40 bf
       -0.7233176 -1.3003361 -0.8294225 -0.7531326
000370 97 f3 80 bf dd b3 5e bf 0b c1 1e bf 7a 09 54 bf
       -1.0074338 -0.869932 -0.6201331 -0.8282696
000380 df 58 47 bf 87 33 63 bf 02 27 1f bf 06 f4 96 bf
       -0.7786998 -0.887505 -0.62168896 -1.179322
000390 9b a0 e6 be f6 e9 44 bf 1d fd 89 bf a9 5b 91 bf
       -0.45044407 -0.76919496 -1.0780369 -1.1356097
0003a0 84 5b 5c bf f3 df 30 bf 35 4b 71 bf f2 b7 20 bf
       -0.8607714 -0.6909172 -0.9425538 -0.6278068
0003b0 90 5f 20 bf 7c 84 6e bf 1a ac 54 bf f2 bb 7a bf
       -0.62645817 -0.93170905 -0.83075106 -0.9794303
0003c0 d3 eb d3 be 06 99 25 bf 05 76 d1 3d d9 b8 26 bf
       -0.41390857 -0.6468662 0.102275886 -0.65125805
0003d0 bf 8b 71 bf 88 3b 78 bf a8 74 7e bf 93 bb 13 3e
       -0.9435386 -0.9696584 -0.99396753 0.14427023
0003e0 4f a3 9d be 03 68 2a bf 92 32 34 bf 37 70 0f be
       -0.30788657 -0.6656496 -0.70389664 -0.1400765
0003f0 34 79 94 be 30 0d 40 bf a4 c8 5b bf 0b c1 28 bf
       -0.2899872 -0.7502012 -0.8585303 -0.6591956

fcs1_bn.running_mean f4 [400]
000000 05 1c 2c 40 df f4 95 be 24 93 b1 3e 27 3e 2e 3e
       2.6892102 -0.29288384 0.34682572 0.17015897
000010 f2 3f d9 bf 90 9a 3b 40 6f c7 b2 3c 38 9b 0c c0
       -1.697264 2.9313087 0.021823613 -2.1969738
000020 f3 cc e5 3e 47 7a 5f c0 6a c3 1b 40 2b 71 67 be
       0.44882926 -3.4918382 2.4338021 -0.22601764
000030 ba bb cf bf 6e 4b 35 3f 23 e4 ff 3f de 24 8c 3f
       -1.6229165 0.7081822 1.9991497 1.0948751
000040 c3 78 94 3e 87 87 27 3f 07 01 eb 3f d1 dd e7 3e
       0.28998384 0.65441173 1.8359689 0.4528642
000050 66 76 65 3f 49 2c 2d bf 78 a5 c5 bf c3 12 1c bf
       0.89633787 -0.676457 -1.5441122 -0.6096613
000060 54 bf 99 3f 43 0d 26 c0 5b c4 d7 3e 04 3e 25 bf
       1.2011514 -2.5945594 0.42141995 -0.64547753
000070 4e 1a 39 3f 5b 60 a7 bf bd 3d 4f c0 5e 0d 8e 3d
       0.7230576 -1.307628 -3.2381432 0.06936143
000080 84 5e 81 3d 46 bf 46 be 29 2f ce 3f a4 75 34 be
       0.063168555 -0.19408903 1.6108142 -0.17623001
000090 90 8e 11 c0 2f 69 77 be 9c 54 36 3f 2c f2 82 c0
       -2.2743263 -0.24161218 0.71222854 -4.092062
0000a0 87 28 1d 3e f4 42 4a 3f ec 99 8e 3f 2d 07 bd be
       0.15347491 0.7900841 1.1140723 -0.36919537
0000b0 39 b6 d4 3f e1 fd d9 3f 68 5f e6 bf a8 18 91 3f
       1.661811 1.7030603 -1.7997866 1.133565
0000c0 e3 42 0b bf 88 53 17 40 98 a4 6b c0 ee d2 64 bf
       -0.54398936 2.3644733 -3.681921 -0.89384353
0000d0 f4 c8 c8 bf 1e a4 0b bf bd 9e e3 3e 8a 2d 36 3d
       -1.5686326 -0.545473 0.44457045 0.044477023
0000e0 0f 86 83 be 81 d0 4e be 56 6e 0b c0 f3 2d d6 3d
       -0.25688216 -0.20196725 -2.1786094 0.10457983
0000f0 53 f7 8d 3f f3 3d 64 3f 87 d9 5d c0 dd 00 29 be
       1.1091102 0.89157027 -3.4664018 -0.16504236
000100 e9 81 d9 3f c4 f4 3b 3f e9 1b 29 c0 97 f7 0c 3e
       1.699277 0.7342036 -2.6423285 0.13766323
000110 38 3c 34 c0 fd 8d 90 c0 62 2d f3 3e 8b c6 bb 3f
       -2.8161755 -4.5173326 0.47495562 1.4669966
000120 7b 4b 10 bf e4 06 67 3f b1 32 da bf f4 08 70 be
       -0.56365174 0.9024489 -1.704672 -0.23440915
000130 77 d5 0e c0 72 53 aa 3f 8d 58 9e 3f ae 48 2e c0
       -2.2317789 1.3306715 1.2370774 -2.723186
000140 46 e8 6c bf e1 f3 da 3d b9 83 e4 3f c3 32 c3 bd
       -0.9254192 0.106910475 1.7852699 -0.095311664
000150 01 9c d1 3e 4c 18 bf 3e da f7 02 c0 da 6e 47 be
       0.40939334 0.37323225 -2.0463777 -0.1947588
000160 c0 99 92 be 23 ad 9c bf 82 8a c8 3f 0a a0 63 3e
       -0.28632927 -1.2240337 1.5667269 0.22229019
000170 03 d2 80 bf 8d 79 c1 3e 81 47 1b bf 23 ab 54 c0
       -1.006409 0.37788048 -0.6065598 -3.3229454
000180 b1 82 d3 3e 68 66 09 40 f1 b7 b7 bf ba 12 48 c0
       0.41310647 2.1468754 -1.435301 -3.126143
000190 7a ff 57 3e 7f 40 07 c0 6e f4 1b 3d 4d 18 3f 3f
       0.2109355 -2.1133115 0.038074903 0.74646455
0001a0 91 db 1b c0 ff 5e 38 bf f0 34 4f c0 58 8b 92 bd
       -2.4352763 -0.7201995 -3.237606 -0.07155484
0001b0 85 50 82 3e 1d 37 94 3f ac f7 0e c0 ed 20 83 3e
       0.25452057 1.1579319 -2.2338667 0.25611058
0001c0 4e f8 1b 40 02 63 b7 3f 51 b4 6f 3f 04 56 0b 3f
       2.4370303 1.432709 0.93634516 0.54428124
0001d0 4c b4 0b c0 51 7d f5 3e 9a e0 46 be 37 3e 80 bf
       -2.1828794 0.4794717 -0.19421616 -1.0018986
0001e0 8f 8f 8f bf f9 51 b3 bf 13 f2 76 3f 1b aa aa 3f
       -1.1215686 -1.4009391 0.96463126 1.3333162
0001f0 d2 2f 07 40 dc 6f 36 c0 10 31 ce ba ee 47 f3 3e
       2.1122937 -2.8505774 -0.0015731174 0.47515815
000200 0c b8 2e c0 03 01 e9 bc 22 a8 a9 bf f2 e9 05 40
       -2.7299833 -0.028442865 -1.3254435 2.092404
000210 55 b4 b1 3e 7b 33 b2 3f d5 66 33 3f 25 da b0 3f
       0.34707895 1.392196 0.70078784 1.3816572
000220 31 3e cb bf 4b f4 db 3f f1 e0 8a 3f 7c 2d 03 c0
       -1.5878354 1.7183927 1.0849897 -2.0496511
000230 2e 7e 86 3f 2e be cf 3f 5d db 6f 3e 17 f0 2e bf
       1.0507257 1.6229913 0.23423524 -0.683351
000240 0f a0 a1 be 9a dc 21 c0 05 ec 3b 3b 22 97 38 3f
       -0.31567428 -2.5290895 0.0028674614 0.7210561
000250 8b 66 1c 40 94 25 c0 bf e0 ae 1a bf 69 f2 05 3e
       2.4437587 -1.5011468 -0.6042309 0.13080753
000260 e5 86 0d 3f 82 e5 7d bf 70 ac 1a c0 c8 86 d2 3f
       0.5528396 -0.99178326 -2.4167747 1.6447382
000270 c0 ca e7 3f 37 c5 14 3d b3 f4 8d 3f 24 32 cf be
       1.8108749 0.03632089 1.1090301 -0.40467942
000280 20 3b 0e bf 56 dd c4 3f b5 1c 63 be 52 1a e3 bf
       -0.5555897 1.5380046 -0.2217892 -1.7742407
000290 db a4 de bf b0 16 47 be ac dc 22 be 17 73 e4 3f
       -1.739406 -0.19442248 -0.15904492 1.7847623
0002a0 02 b4 87 3f 2e db 67 bf 5e 91 f7 3f 2d 5b 31 c0
       1.0601809 -0.90568817 1.9341238 -2.77119
0002b0 3e 08 b2 be e5 96 2e 3f 5a 2f 26 3f d3 1f 18 bf
       -0.34771913 0.68198997 0.64916 -0.5942356
0002c0 dd bf f3 3f 34 a0 ae 3f 75 5e 17 3f c8 3c 6d bf
       1.9042927 1.364264 0.59128505 -0.9267087
0002d0 b8 0f 76 be 15 32 b4 3f ca 87 7e bf d3 eb 26 c0
       -0.24029434 1.4077784 -0.9942595 -2.6081436
0002e0 d4 72 0b 3e 1d b8 87 3e 88 82 6f bf 64 25 fd bf
       0.13618022 0.26507655 -0.9355855 -1.9777036
0002f0 5a a8 43 be c2 f1 ce bf ee 97 db 3d c2 47 46 c0
       -0.1910719 -1.6167529 0.10722338 -3.0981297
000300 80 ea 0d 40 a8 9b 9d 3f 66 36 45 bf fb 16 c8 bf
       2.2174377 1.2313128 -0.7703613 -1.5632013
000310 c9 7b 65 bf db e6 22 be 73 7e 9b bd 0a f3 21 bf
       -0.89642006 -0.15908377 -0.07592478 -0.63261473
000320 72 14 88 c0 7a a1 b3 bf e5 4a e9 3e 7b 3c 66 bd
       -4.252496 -1.4033654 0.45564952 -0.056210022
000330 ed 80 4f bf c3 b0 50 bf 90 a5 1a bf 2a 08 ba be
       -0.810561 -0.81519717 -0.6040888 -0.36334354
000340 ce d9 81 3f 0e 3c eb bf 52 7f fc bd bb a4 10 be
       1.0144594 -1.8377702 -0.12328972 -0.1412534
000350 79 83 7e 3f 83 a9 42 3f da 1e c0 bf b9 9e b5 bf
       0.9941936 0.76039904 -1.5009415 -1.4189063
000360 c0 4d f0 bd e7 b8 04 c0 59 be 6d bf e8 2c 8f bf
       -0.1173358 -2.0737855 -0.9286857 -1.1185579
000370 bd 9b 25 c0 ac 39 9f 3f d0 fe c5 bf 9f 52 06 c0
       -2.5876305 1.2439475 -1.5468388 -2.0987928
000380 c0 b4 0e c0 33 40 f2 3e 81 01 04 bf f3 98 43 3f
       -2.229782 0.47314605 -0.51564795 0.76405257
000390 d0 3b 45 3f fc 89 18 c0 48 37 bd 3e 81 f2 ce bf
       0.7704439 -2.383422 0.3695624 -1.6167756
0003a0 a3 29 1d 40 10 dd f9 3d 8c cb 28 3f 94 64 7c be
       2.4556663 0.122003675 0.6593559 -0.24647743
0003b0 9b df 94 bf f5 1f 9f bd d9 7f 25 bf 6f 84 57 bf
       -1.1630739 -0.07769767 -0.64648205 -0.8418645
0003c0 85 62 cc be c8 94 71 3e 43 06 ac 3f ab 72 4e 3f
       -0.39918914 0.23591912 1.3439411 0.8064372
0003d0 2d f7 e5 3f 04 6e a8 3f b8 b5 23 bf 75 bc c8 3f
       1.7966057 1.3158574 -0.63949156 1.5682513
0003e0 0e 13 cb 3e 1f 3a d9 3f d7 99 36 bf 2a eb 92 3f
       0.39662975 1.6970862 -0.7132849 1.1478016
0003f0 26 a9 8d bf 66 30 95 bd 46 82 8c bf 18 8b f2 bf
       -1.1067245 -0.07284622 -1.0977256 -1.8948698

fcs1_bn.running_var f4 [400]
000000 22 1d dd 41 b4 27 4a 41 2b b0 57 42 91 62 87 41
       27.639225 12.634693 53.92204 16.923128
000010 97 d7 c0 41 3c 40 77 42 8b 6c 5c 41 0d 8b df 41
       24.105268 61.81273 13.7765 27.942896
000020 56 4f 3d 41 fb e2 f2 41 91 c3 dd 41 87 5d 0d 41
       11.831869 30.36083 27.720491 8.835334
000030 8e e0 35 41 62 27 d2 41 85 8e 68 41 80 6a ce 41
       11.367323 26.26923 14.534795 25.802002
000040 92 55 23 41 f4 9f 7c 41 66 34 13 42 e4 63 35 41
       10.208391 15.789051 36.80117 11.336887
000050 d3 21 f8 41 5a ac 0f 41 e0 79 44 41 84 4b d0 41
       31.016516 8.979578 12.279755 26.036873
000060 e5 71 25 41 26 4c 0b 42 92 6e d0 41 70 fe 35 41
       10.340306 34.824364 26.05399 11.374619
000070 d5 39 17 42 02 b8 3e 41 15 82 0f 42 55 23 13 41
       37.806477 11.919924 35.877033 9.196126
000080 b4 fe 87 42 30 86 a3 41 70 ac 73 42 37 8b cf 41
       67.99747 20.440521 60.918396 25.942976
000090 96 b7 25 42 87 42 c6 41 9f ec ea 41 08 d0 47 42
       41.429283 24.782484 29.365538 49.953156
0000a0 60 78 b8 41 87 41 64 41 88 97 1e 41 55 5a 8a 42
       23.058777 14.265998 9.911995 69.17643
0000b0 f7 0b 55 41 35 64 00 42 52 b3 02 42 99 4f 4a 41
       13.315421 32.09786 32.675117 12.644433
0000c0 34 08 1b 41 65 e7 ae 41 2c 87 2a 42 8a 48 83 42
       9.689503 21.862986 42.632004 65.64168
0000d0 12 6a 68 41 11 75 5b 41 e8 c8 50 41 03 d3 65 41
       14.525896 13.716081 13.049049 14.364017
0000e0 8e ee 3d 42 04 b5 51 41 67 cc a7 41 2c d9 2e 41
       47.482964 13.106693 20.974806 10.9280205
0000f0 4d df 87 41 ae 56 47 41 58 e1 54 42 a5 ad 36 41
       16.984034 12.458662 53.220062 11.417394
000100 da 41 9d 41 2c be 7e 41 11 b5 a7 41 78 b4 3c 42
       19.657154 15.921429 20.963411 47.17624
000110 50 23 8e 41 40 40 27 42 fd 6b 7a 41 9a b9 f7 41
       17.767242 41.812744 15.651364 30.965626
000120 c1 56 43 41 68 92 6c 41 c0 3d 21 41 84 da 90 41
       12.20868 14.785744 10.077576 18.106697
000130 c1 85 b8 41 c3 2e bf 41 98 37 08 42 eb 5a 2f 42
       23.06531 23.897833 34.05429 43.838787
000140 44 43 4a 42 ee e0 ac 41 4a ab 4d 41 84 e1 31 41
       50.56569 21.609829 12.854319 11.117558
000150 f2 24 0c 41 b0 40 c0 41 2e d3 05 42 41 bd 73 42
       8.75902 24.031586 33.45623 60.93482
000160 d5 f7 1d 42 bf dc 70 42 85 50 92 41 2a 12 c6 42
       39.492023 60.215572 18.289316 99.03548
000170 78 9e 01 42 d3 6d 38 42 cd f5 3e 41 93 2e 39 42
       32.404755 46.10725 11.93501 46.295483
000180 22 5e ee 41 f8 62 ba 41 46 3c 96 42 63 e9 e3 41
       29.795963 23.298325 75.11772 28.488958
000190 23 f0 80 41 a7 19 8e 41 50 a4 54 41 9a 4c 2a 42
       16.117254 17.762526 13.290115 42.574806
0001a0 30 c8 54 42 ee c1 4c 41 8e 51 d7 41 78 88 79 41
       53.195496 12.797346 26.914822 15.595818
0001b0 2c 3e dd 41 71 58 24 41 21 a7 22 42 19 82 6b 41
       27.655357 10.271592 40.66321 14.719262
0001c0 1f 57 2a 41 13 be 9a 41 12 d7 4e 41 b6 49 11 42
       10.64627 19.34281 12.927507 36.321983
0001d0 02 5c 94 41 a6 a6 fe 41 23 14 28 41 b6 a2 6c 42
       18.544926 31.831371 10.504916 59.158897
0001e0 6c f2 2e 41 b7 14 7d 41 90 2b e2 41 a9 c6 83 41
       10.934185 15.817557 28.27127 16.472002
0001f0 34 46 95 41 3e f8 2c 42 86 23 14 41 20 36 39 41
       18.659279 43.242424 9.258673 11.575714
000200 31 d6 48 42 1e ea 43 41 f6 20 37 42 8d fe d3 41
       50.20917 12.2446575 45.78219 26.499292
000210 db dc 7e 41 ec f6 8d 41 bf 62 66 41 a7 55 3d 41
       15.92892 17.745567 14.399108 11.833411
000220 f1 03 b3 41 3a 91 1a 41 96 d6 1a 42 fb 34 1d 42
       22.376925 9.660456 38.709557 39.30174
000230 e5 03 67 41 f3 57 30 42 3a e9 77 41 3b f3 8c 41
       14.438451 44.085888 15.49444 17.618765
000240 cb 2f 33 41 5a 72 c0 41 f3 5c 1b 41 04 6d 49 41
       11.199168 24.055836 9.710193 12.589115
000250 de eb 6b 42 ed bd 1a 42 55 8a e3 40 fd 27 34 41
       58.98034 38.685474 7.110636 11.259763
000260 f9 d1 f2 41 7c ec 2f 41 74 ba bc 41 e4 2a 19 42
       30.352526 10.995235 23.591042 38.291885
000270 68 6e 02 42 76 82 32 41 9a 7c 44 42 d5 a3 78 41
       32.60782 11.156851 49.12168 15.539998
000280 ec d5 81 41 85 67 b5 41 39 21 a6 41 23 19 00 42
       16.229454 22.675547 20.766222 32.024548
000290 88 0d fd 41 48 6f 4c 41 0b 00 4d 41 4a 22 ef 41
       31.631607 12.777168 12.8125105 29.891743
0002a0 9c d9 12 42 13 41 45 41 4e 6b 75 41 a6 82 86 41
       36.71251 12.328387 15.338697 16.813793
0002b0 6e e9 2e 42 a1 59 f7 41 a2 f3 64 41 ef d3 cd 41
       43.72796 30.918764 14.309481 25.728483
0002c0 44 91 44 41 e1 05 0e 42 66 98 03 42 7f 6e de 41
       12.285465 35.50574 32.898827 27.803953
0002d0 0a 0c 6d 41 bb 2a 90 41 a0 aa 89 41 5d 81 f9 41
       14.815439 18.020864 17.208313 31.188166
0002e0 d8 88 9c 41 8e c6 62 41 62 5f f4 41 6b 09 68 41
       19.566818 14.173475 30.546574 14.502299
0002f0 f4 03 53 41 94 9d 81 41 08 13 42 41 98 2d 08 42
       13.188465 16.201942 12.129646 34.044525
000300 a0 25 50 42 7b ae 52 42 30 51 3a 42 81 0d 6f 42
       52.036743 52.67039 46.579285 59.763187
000310 ad 63 90 41 0f f6 c4 41 97 85 98 41 f9 6b 1c 41
       18.04867 24.620146 19.06523 9.7763605
000320 ec 3c 08 42 58 b4 ac 41 0c 9d fa 41 cb 85 5c 41
       34.059494 21.588058 31.326683 13.782664
000330 ae a3 1b 41 5c 73 98 41 2b 6a 4a 41 0a db 4f 41
       9.727461 19.056328 12.65092 12.990976
000340 a1 90 07 42 39 82 88 41 f0 fa 56 41 5d 23 a2 41
       33.89124 17.063585 13.436264 20.267267
000350 3c eb 88 42 72 f8 b4 41 f8 13 1a 42 07 fd cf 41
       68.45944 22.621311 38.5195 25.998549
000360 34 78 80 41 fa 2c 1d 42 a3 6f 75 42 ea 5b 46 41
       16.058693 39.293922 61.35902 12.39744
000370 ea 0c 86 41 65 50 8e 41 5f 9c 5e 41 2a 08 bd 41
       16.756306 17.789255 13.913177 23.628986
000380 a1 a2 7b 41 ef c8 8b 41 dd 5c 26 41 15 f5 c9 41
       15.727204 17.473112 10.397672 25.244669
000390 48 eb 48 41 67 f9 9b 41 30 5a a1 42 9d 79 88 42
       12.557442 19.496778 80.67615 68.237526
0003a0 03 10 45 42 c6 3a e1 41 8c 6d 7e 41 79 b3 4f 41
       49.265636 28.153698 15.901745 12.981317
0003b0 a8 eb 1f 41 04 50 28 42 d9 90 55 42 8c 74 29 42
       9.995033 42.07814 53.391453 42.363815
0003c0 34 75 75 41 8c 52 19 43 ef 29 8d 41 3b 6c 91 41
       15.341114 153.32245 17.645475 18.177847
0003d0 a3 f3 93 41 ef a5 34 42 46 10 6a 41 64 90 37 41
       18.493963 45.162045 14.628973 11.472752
0003e0 72 39 64 41 c5 41 49 41 2a 1e 7f 42 2e 2b 6e 41
       14.264025 12.578557 63.779457 14.885542
0003f0 ca 6b d7 41 ae 30 70 42 8b e1 64 41 9d d9 97 41
       26.927631 60.04754 14.305064 18.981256

fc2.weight f4 [300, 404]
000000 43 d3 31 3d 80 70 3f be cd 36 35 be bc bf 8a 3d
       0.043414366 -0.18695259 -0.17696686 0.06774852
000010 84 5e d1 bd aa f0 06 be f8 34 ff bd db 21 01 be
       -0.102231055 -0.13177744 -0.12461275 -0.12610571
000020 25 3e 87 bd 80 1e b1 be eb cb da bc db 56 66 bd
       -0.0660365 -0.34593582 -0.026708564 -0.056235176
000030 36 01 35 be e4 ea d5 3d e1 d4 ea bd eb 0e 4d bd
       -0.17676243 0.104451925 -0.11466385 -0.050063055
000040 70 59 75 3d 24 53 61 3d 47 35 e3 bd 3c 03 9b 3d
       0.059899747 0.05501093 -0.11094146 0.07568976
000050 f6 13 3f bb 4e c3 a6 3d 03 6f 17 bc 60 9e 3c 3d
       -0.0029156185 0.0814272 -0.009242776 0.046049476
000060 08 b6 17 bd 01 85 40 be 5a a6 43 3d 2f 47 dd bd
       -0.037038833 -0.18800737 0.047766067 -0.10804593
000070 3b 0c d3 bd 44 b2 8b bd ae c5 76 be bd c7 7a 3d
       -0.10305067 -0.06821111 -0.24098846 0.06122564
000080 27 01 f9 bd a7 ba f7 3c 8f 5a e9 3c 1a 21 01 3e
       -0.12158423 0.03024037 0.028485565 0.12610283
000090 43 dd 06 be 86 7a e7 bd fc 13 5d bd f0 26 e5 bd
       -0.13170342 -0.11302666 -0.053974137 -0.11189067
0000a0 41 3f 8f 3d 2e 9e c6 3b 76 3c a0 3d dc d6 66 be
       0.069944866 0.006061337 0.07824032 -0.225429
0000b0 17 9a 15 3d 0f 0d c4 bd 21 b7 e0 bd 38 50 e1 3c
       0.036523905 -0.09572803 -0.10972429 0.027504072
0000c0 db c0 a6 bd 61 eb 93 3b 21 a2 94 bd 36 eb 8f bd
       -0.08142253 0.0045141433 -0.07257486 -0.07027285
0000d0 2b 56 10 bd 64 f5 70 bd f3 36 ce bd 95 52 ec bd
       -0.035238426 -0.058827773 -0.100690745 -0.11539189
0000e0 10 c4 2b 3b c2 b2 29 be 73 80 9f bd 60 cc a7 bd
       0.0026209392 -0.16572097 -0.077881716 -0.08193278
0000f0 32 ab 1a be 19 b1 0e bd cf 70 36 bd 56 6f 1f 3c
       -0.15104368 -0.034836862 -0.044541176 0.009731134
000100 ae 07 14 3d d3 e4 18 be eb fa f8 bd 23 6e b5 bc
       0.036140136 -0.1493104 -0.12157234 -0.022147244
000110 f9 9d 81 be a1 a5 81 be fb 36 62 3d e1 06 d7 bc
       -0.25315836 -0.25321677 0.055228215 -0.026248397
000120 e1 16 56 be 3b 3e ef 3c 56 2f 10 bd 46 2a cf bd
       -0.20907165 0.029204478 -0.035201393 -0.10115485
000130 c7 8d 0b be 8e 50 1c 3d e5 95 dc bd 33 58 21 be
       -0.13628303 0.03816276 -0.107707776 -0.15756302
000140 cd 4a fe bd 5b bd fe bc 06 69 34 3d e2 64 c0 bc
       -0.12416611 -0.031096151 0.04404547 -0.023485605
000150 b8 97 cf bb 59 e8 13 3d 42 ff 9a bc 43 23 97 bd
       -0.006335225 0.036110256 -0.018920545 -0.073797725
000160 da c4 3a 3d 60 ee b6 bd c5 50 04 3d e3 2e 1b be
       0.04559789 -0.08932185 0.03230359 -0.15154605
000170 d7 79 d1 bc 22 71 b7 3c 96 b8 0d bd 60 e2 99 be
       -0.025570793 0.022392813 -0.034599863 -0.30055523
000180 e6 ed 03 3e a1 48 0f 3e 36 a7 4a 3d f7 31 87 bc
       0.1288372 0.1399255 0.04947587 -0.016503317
000190 50 3b 4d 3b d0 17 c0 bd b8 40 2c 3e f6 bf 4b bd
       0.003131587 -0.09379542 0.16821563 -0.049743615
0001a0 16 78 b6 bd 9b ea 31 bd 22 9a 5e b9 f9 b7 2d bd
       -0.08909623 -0.043436628 -0.00021228989 -0.042411778
0001b0 df fa 23 3d 0c 3a 08 3e 5a d2 cc bd c1 4d 93 3b
       0.04003417 0.13303393 -0.10001059 0.004495353
0001c0 30 b7 47 bd 71 3d e5 bd d2 32 9e bd 5f 46 2c bd
       -0.048758686 -0.1119336 -0.07724537 -0.0420593
0001d0 f2 a6 54 3c 53 b1 e5 bc 78 72 90 bd 75 d0 4c be
       0.012979256 -0.028038656 -0.07053083 -0.20001395
0001e0 64 36 cb 3c 39 ab eb bd d0 cc 48 be 18 55 f6 3c
       0.024806209 -0.115072675 -0.1960938 0.030069873
0001f0 2a e8 e7 3c 9a 93 bb bd 38 34 45 bd 19 0a 63 3c
       0.028308947 -0.09159012 -0.048145503 0.013857388
000200 2f a4 2e be fe 75 35 bc d8 0a a1 bd 82 c5 1b 3d
       -0.17054819 -0.011075495 -0.078633964 0.038030155
000210 8b a1 01 bd 68 78 cd bc 38 2b 18 be 35 70 19 3d
       -0.0316482 -0.025081828 -0.14860237 0.037460525
000220 0d d1 3c 3c f0 e7 3d bb 06 ac a5 bd 97 90 a6 3d
       0.011524451 -0.0028977357 -0.080894515 0.08133047
000230 18 2a 74 3d 6d 26 9f bd e7 7e 21 3d 30 79 28 be
       0.059610456 -0.07771001 0.039427664 -0.1645248
000240 37 de 5b bd 7a 23 2f be da 07 f2 3c 08 0f ff bc
       -0.053678717 -0.17103377 0.02954476 -0.031135097
000250 a6 33 66 3d e3 ab 10 bd 3c 76 18 3d 1f 8b 82 3d
       0.0562016 -0.035320174 0.037222132 0.063741915
000260 77 46 74 3d aa 7c 37 bd 3e d9 ab bd 7c 66 73 be
       0.059637513 -0.044796623 -0.08391045 -0.23769563
000270 ce 6d 10 be 78 08 c8 bd 52 b9 0b bc d9 bc 8b bc
       -0.14104387 -0.0976724 -0.0085280705 -0.017057823
000280 12 04 27 bc ee 16 37 3d ea d9 42 3d 38 8f aa bc
       -0.0101938415 0.0446996 0.0475711 -0.020820245
000290 96 3c 3e 3d 60 d4 b2 bd c4 6b a6 3d a1 f9 b8 bd
       0.046444498 -0.087319136 0.081260234 -0.09031988
0002a0 d7 84 50 bc 90 d0 48 be 42 85 8b bc 43 50 b3 bd
       -0.012726984 -0.1961081 -0.017031316 -0.08755543
0002b0 fe 58 08 be c8 a1 00 bc 28 a4 b6 3c 01 9a 58 bd
       -0.13315198 -0.007851072 0.022295073 -0.052881245
0002c0 b2 48 c1 bc 93 ca 8b bd 24 4c d0 3d c4 68 bd bd
       -0.023594234 -0.06825747 0.10170773 -0.09248498
0002d0 8c 52 5c 3c fd 7f d4 bd 1d 41 58 be d8 0f 23 be
       0.013447415 -0.10375974 -0.21118589 -0.15924013
0002e0 0a 95 8d bd 7f bb 3f be 64 8b 93 be 9d da ff bd
       -0.069131926 -0.18723868 -0.28817284 -0.12492869
0002f0 72 18 c0 bc 90 a5 69 bd ac 20 8e bd d6 74 c3 bd
       -0.023449156 -0.05704266 -0.069398254 -0.09543769
000300 ac 95 de bd ed 21 8e 3c 6b 30 c0 be a8 a8 18 be
       -0.108683914 0.017350161 -0.3753694 -0.14908087
000310 32 87 30 bd b8 d8 5a be 4f d1 50 bd 62 5c 0f bd
       -0.043097682 -0.21371734 -0.050980862 -0.035000212
000320 1d b9 a3 bd 30 41 da bd 4f 8c a3 bd b5 b0 e2 ba
       -0.07994292 -0.10656965 -0.07985746 -0.0017295094
000330 11 32 e5 bb ea 31 59 3d 62 92 0b 3e 19 06 3e bd
       -0.006994494 0.053026117 0.1363006 -0.046392534
000340 d5 f5 62 3d f8 03 4e be 2c 2b ed bc 8e c0 ef bd
       0.055410225 -0.20118701 -0.02895125 -0.11706649
000350 32 d6 1e b9 9f b5 c8 bc fc e0 3c be 08 7f bf 3c
       -0.00015147848 -0.024500666 -0.184452 0.023376003
000360 5b ed 4e 3d ae e7 8f bd fb ca da bd af 51 55 bd
       0.05051933 -0.07026611 -0.10683247 -0.052079853
000370 59 70 94 bd 52 41 ae bd 7c c6 38 bd 82 8a ef bd
       -0.07247991 -0.085085526 -0.045111164 -0.1169634
000380 a0 e3 63 be cb 94 97 bd 65 26 47 3c 6f 7f 09 be
       -0.22254801 -0.07401427 0.01215515 -0.13427518
000390 44 fc 65 3d c9 e5 c6 bd 01 bf cc 3c 5d e1 76 bd
       0.056148782 -0.09711797 0.024993422 -0.060273517
0003a0 bf 22 ca bd 71 40 43 bd 9a 1c 3d be 07 f9 c6 bd
       -0.098699085 -0.047668878 -0.18467942 -0.09715467
0003b0 3e 28 d3 bd fb ab 13 be 0d 91 0b be fe e1 1d be
       -0.1031041 -0.14421074 -0.13629551 -0.1541824
0003c0 1b f0 ef bc ee b6 f4 bb 1c 0e c0 3d 77 46 67 bc
       -0.029289296 -0.007468096 0.09377691 -0.014115921
0003d0 e8 74 56 bd 9f 95 0d be 09 45 81 be 68 68 40 3d
       -0.052357584 -0.13826607 -0.25247982 0.04697457
0003e0 9c 70 47 bd 40 9d e9 bc 3b 0a e0 bd de de 8e 3d
       -0.048691377 -0.028517365 -0.10939451 0.06976102
0003f0 1b 8b b5 bd 09 fe 3a bc 3b 0d 34 3d fb a4 00 bc
       -0.08864423 -0.011413106 0.04395793 -0.007851834
