agent_checkpoints/checkpoint_critic_10.pth (torch_old, 554781 bytes, 13 tensors)

fcs1.weight f4 [400, 33]
000000 d3 f2 be 3d 24 28 27 bd ae 06 fe bc 31 ee 03 3e
       0.09323659 -0.040809765 -0.031009044 0.12883832
000010 22 9c 51 bd 15 d4 e0 bc 99 06 37 bd 1c d5 1b bc
       -0.05117429 -0.027444879 -0.044684026 -0.009511258
000020 b1 4d 89 bc 0c d5 69 bd 89 2a 07 3c 83 28 e1 3d
       -0.016760679 -0.057087943 0.008249887 0.10994055
000030 e1 6f fb bc b6 cb 0d bd 9e 76 ec bb 97 e2 ee 3c
       -0.030692996 -0.034618102 -0.0072162887 0.02916078
000040 52 e5 29 3e 06 48 de 3d d6 c9 e1 3d fe 0a 2b be
       0.16591385 0.10853581 0.11024825 -0.16703412
000050 9f 2a 43 3d 26 77 30 bc bf 10 4c bc 89 2e f3 bd
       0.04764807 -0.010770595 -0.012455164 -0.1187411
000060 4a c5 c5 3c 16 72 42 3c d6 35 88 3c 3a 28 dc 3b
       0.024141926 0.0118680205 0.016627233 0.0067186626
000070 07 e2 b7 3c f4 48 6f bc 66 02 bb bc 5f d1 00 3d
       0.022446645 -0.014604796 -0.022828292 0.03144967
000080 a1 89 a3 3b c8 32 fc 3d 85 79 d7 3b 17 0f 36 3d
       0.004990772 0.12314373 0.0065757656 0.044447985
000090 a8 67 8f 3e 2a 12 ac 3e 96 97 23 be fe fb d7 3d
       0.2800877 0.33607608 -0.15975794 0.105461106
0000a0 70 39 5d bd 9a a2 07 bc b0 c8 21 bd 93 4d dd 3c
       -0.054009855 -0.008278513 -0.03949803 0.02701453
0000b0 ec 0b 21 bc 65 c6 af 3c f2 84 ff 3d 5b c6 9b bd
       -0.009829503 0.021456907 0.12476529 -0.07606193
0000c0 5a 59 9d 3d 1e 52 e6 bc f5 7f 84 3d 1d 68 93 3e
       0.07683058 -0.028115328 0.06469718 0.2879037
0000d0 9f ed bb bd a2 93 d9 3d 1c a7 b4 3c 55 ab 33 bc
       -0.09176182 0.10623862 0.02205234 -0.010966142
0000e0 1e ed 13 3c 14 47 7c 3c 86 b4 88 bc f7 43 0c bd
       0.009028701 0.015397806 -0.016687643 -0.034244504
0000f0 c4 83 70 3c 89 7c 07 bd c0 e5 6e bc 1e 0d 17 bd
       0.014679853 -0.03307775 -0.014581144 -0.036877744
000100 00 d4 be 38 3d c1 c5 bd 26 03 cc ba 23 a5 6c bd
       9.099394e-05 -0.09655998 -0.0015564903 -0.057774674
000110 8f 92 52 3c a7 fb 3a 3c b1 07 56 3d f5 c9 91 be
       0.012852325 0.011412538 0.05225343 -0.28474393
000120 b2 d8 8e be 8a 59 5a bd ae 30 1c 3d 06 20 2e 3c
       -0.278997 -0.053308047 0.038132362 0.010627752
000130 fb 13 11 bc 84 1c 89 3c 27 5a e6 bc e4 bb 79 bd
       -0.008854861 0.01673723 -0.02811916 -0.060970202
000140 f1 cf 5b 3c 86 b3 ce bc 61 5c 34 be 36 6e 61 be
       0.013416276 -0.025232088 -0.17613365 -0.22014698
000150 1b 9c 8c be 52 27 05 be 1a 96 7c bd 24 d8 07 be
       -0.2746285 -0.13003281 -0.061666586 -0.13266045
000160 6e c1 3f 3d a0 e5 e9 3b 8e ee 78 3d 2c 79 fa bc
       0.04681533 0.007137969 0.06077438 -0.030575357
000170 fb d5 6c bd 8b 47 e6 bc bb e8 f8 3c 22 6f 2b bd
       -0.057821255 -0.028110286 0.030384412 -0.04185403
000180 11 ea f9 3c 41 c4 18 3d 1c 64 8b 3d 80 02 1c bc
       0.03050712 0.037296537 0.06806204 -0.00952208
000190 4b bc 8a bd 9a af 9d bc 5b 0f 30 3c 46 a4 88 bd
       -0.06774195 -0.019248772 0.0107458485 -0.06671958
0001a0 0a 35 af 3d eb 3c 81 bc 32 84 4c bd 3c 8a a9 bc
       0.08555038 -0.015776118 -0.04993076 -0.020695798
0001b0 73 94 0d 3b f7 a6 d9 3c 91 a0 84 3d 42 03 40 3c
       0.0021603375 0.026568873 0.06475938 0.011719527
0001c0 b5 09 2c ba 16 0c 3b bd 31 64 51 3d 88 fd 7f 3e
       -0.0006562726 -0.045665823 0.05112094 0.24999058
0001d0 39 48 b1 3d 3a 95 73 3d fc 87 36 be df 3f 89 3c
       0.086563535 0.059468485 -0.17825311 0.016754089
0001e0 a5 ae 47 3d 4f eb 27 bd b2 57 cb bd 37 89 41 3d
       0.04875054 -0.040995892 -0.09928836 0.04725
0001f0 22 c5 d3 3c 25 50 78 3b 81 7a 14 3d 2b d8 8e 3b
       0.025850836 0.0037889567 0.03624964 0.0043592653
000200 40 13 7d ba 4f 9c fa bc d8 7b e9 bb 0d 6e 8d bd
       -0.00096540526 -0.030592112 -0.007125359 -0.06905756
000210 aa e9 26 3e d1 a3 3c bc d7 47 7f bd 89 4a 9f bc
       0.16300073 -0.011513666 -0.06232437 -0.01944472
000220 37 e8 33 3e bf 84 88 3d ca 6d bb 3d fd 96 ae bd
       0.17569052 0.06665944 0.091518 -0.085248925
000230 87 01 28 3e 9e da c8 bd 67 fe dc bc 84 99 46 bd
       0.16406833 -0.09807323 -0.026976777 -0.048486248
000240 5c 8d 39 bd bc 07 9e bc bd 35 80 bb ba dc 36 3d
       -0.045300826 -0.019290797 -0.003912656 0.044644095
000250 9b ff 81 bd a0 79 52 3d 2f af 9a bd b1 4e ca bc
       -0.06347581 0.051385522 -0.07552945 -0.024695726
000260 67 93 1b bd ab 50 95 3d 34 53 8a bb d9 50 b2 bd
       -0.03798237 0.07290777 -0.0042213444 -0.08706827
000270 a0 47 4a bd 19 cc 37 bd 4e b2 31 3d fb 04 f5 3b
       -0.049384713 -0.044872377 0.043382935 0.0074774004
000280 4e 76 3a bd eb 49 0f bd a7 64 3e 3c 80 0a 39 bb
       -0.04552298 -0.034982603 0.011620677 -0.0028235018
000290 55 9b c3 bd c2 55 af bc 81 c7 bc bb f3 d6 8a bd
       -0.095511116 -0.021403197 -0.0057610874 -0.067792796
0002a0 db 00 00 3e a8 e9 43 bc f1 93 61 3c f9 da 45 bd
       0.12500326 -0.011957563 0.013768182 -0.04830453
0002b0 f6 e6 67 3d d6 2b 66 3d 1a 63 8b bd cb ba 7f bc
       0.056616746 0.05619415 -0.068060115 -0.0156085
0002c0 cd b1 d4 3c cb 10 2d 3e 65 1f 16 bc 7e fd af bc
       0.025963688 0.16900937 -0.0091627585 -0.02148318
0002d0 85 db ec 3c 7a 05 17 bd 68 46 16 3d 59 b8 f4 bd
       0.028913269 -0.036870457 0.03668824 -0.11949224
0002e0 3e 0a 1f bd 19 08 ee 3c 91 f0 83 3d 95 72 d8 3d
       -0.038828127 0.029056596 0.06442369 0.1056873
0002f0 20 91 42 bc b7 03 87 3c 34 d3 e7 3d 12 6a 7d bc
       -0.011875421 0.016481264 0.11319581 -0.015467184
000300 bc 15 24 3d 6e 43 d5 3a 34 e9 55 3c c2 6d dc 3b
       0.04005979 0.0016270706 0.013056088 0.0067269513
000310 b0 e2 fc bc 23 cb 86 bd f6 b7 6c 3d c6 d2 08 3c
       -0.030869812 -0.06581714 0.057792626 0.008351034
000320 63 d0 ca bd e9 de 89 3d af 8e 54 3d b7 b3 8c 3d
       -0.09903028 0.0673197 0.051893886 0.068702154
000330 83 91 f2 3d 74 70 04 3d da 57 40 3c 95 3e b4 bd
       0.118441604 0.032333806 0.011739695 -0.08800999
000340 66 84 30 bd e6 a9 ca 3c 1c 96 22 3d ed 88 42 3d
       -0.043095015 0.024739217 0.039693937 0.047493864
000350 03 5b 68 bc a2 b7 6d 3d d2 5f f1 bd 46 a1 2a 3d
       -0.014181855 0.058036454 -0.117858544 0.04165771
000360 c5 75 dd 3c b1 cf e2 3b 2b 98 fb 3d 22 af c4 3d
       0.027033696 0.0069217314 0.12284883 0.096037164
000370 9f 5d 87 bd a1 79 17 bd bd ba 4b bd 1f b6 c1 bb
       -0.06609654 -0.03698123 -0.049738634 -0.005911603
000380 17 1b 76 3d 16 98 0f bd cb 4a ab 3d b4 d0 7c bc
       0.06008443 -0.03505715 0.08363875 -0.015430618
000390 20 aa 90 bc 6c 7b 7b bc 54 79 15 be 18 bd aa 3b
       -0.017659247 -0.01534925 -0.14597064 0.00521053
0003a0 93 16 f6 bc 7a db 8a 3b 7c 79 c8 bb 36 f6 3c 3b
       -0.030040061 0.0042375894 -0.0061179977 0.0028833277
0003b0 c5 d7 46 be 02 4b f8 bc e4 58 ec bc 8b 28 6d 3d
       -0.19418247 -0.030309204 -0.02885098 0.057899993
0003c0 30 27 2f 3d 07 85 1a 3d 08 27 33 bb 0c a0 96 3d
       0.04276198 0.03772452 -0.0027336497 0.07354745
0003d0 8a fb 92 bd 44 31 75 3d c0 05 a7 bc a7 e3 32 3e
       -0.071768835 0.059861436 -0.020388484 0.17469655
0003e0 1a de 73 be 77 0b d8 bd 33 53 29 be bc f1 c2 bb
       -0.23815194 -0.10549062 -0.16535644 -0.005949227
0003f0 45 fd b0 bd 24 cc 1d 3a b3 03 e1 bc ee 97 34 bc
       -0.08642057 0.0006019494 -0.027467584 -0.011022551

fcs1.bias f4 [400]
000000 2c ff 05 3e 5e bc 60 bd 81 37 2b be a8 1d 3d 39
       0.13085622 -0.05486714 -0.16720392 0.00018035492
000010 ad 5b 11 be cc 3f c4 3d 5f 1c 30 3d 97 2a fc 3d
       -0.14195128 0.09582481 0.042995807 0.12312811
000020 12 e1 7d bc 3d 57 01 be 34 42 0f 3e 1e a0 00 be
       -0.0154955555 -0.12630935 0.13990098 -0.1256108
000030 49 8b df 3d 97 b3 c5 3c 23 f4 73 3d cb ab 07 be
       0.109152384 0.024133487 0.059559 -0.13249128
000040 ad 16 13 be 61 a3 ac bd 45 06 ec bd d3 e5 19 be
       -0.14364119 -0.084295996 -0.11524633 -0.15029077
000050 4f 4e 45 bd c2 55 2a 3e dc 7e 06 3e 1d 50 1f 3e
       -0.048170384 0.16634277 0.1313433 0.15557905
000060 26 07 3c 3d 15 80 05 be 58 8b e4 3d c1 a0 2e 3e
       0.045905255 -0.1303714 0.1115939 0.1705351
000070 e1 3a e2 bd b2 87 1d bb cf 2c 1e 3d 92 0b c9 3d
       -0.110463865 -0.002403718 0.03861695 0.0981666
000080 26 1e 42 3c f7 02 31 be 17 8e a7 bc 32 7a f3 bd
       0.011848008 -0.17286287 -0.020453496 -0.11888541
000090 52 fd c2 3d bc ac fb 3d ff 22 80 3c d0 8b 15 be
       0.09520973 0.12288806 0.015641687 -0.14604115
0000a0 a0 51 69 bd bd ad 7d bd b3 40 a5 3d 75 d4 d9 3d
       -0.05696261 -0.061933268 0.08068981 0.10636226
0000b0 20 26 e2 3d 6c a7 65 bd 74 d7 8e 3d 6a ac 32 bd
       0.11042428 -0.05606787 0.06974688 -0.043621458
0000c0 db 7c 5e 3c 99 e7 16 3b 60 d7 0e be 29 bb 2f 3d
       0.013579573 0.0023026227 -0.13949347 0.0429031
0000d0 c9 1d 9e 3b 74 eb bb bc 70 0a 2f be 84 26 f5 bd
       0.004825328 -0.022939421 -0.17093825 -0.11970237
0000e0 74 97 1b 3e 12 2e 2d be 5a ca 9a bd 96 1d a1 bd
       0.15194494 -0.16912106 -0.07558127 -0.07866971
0000f0 f6 53 dc 3d 48 84 12 bd 6f a7 10 be 09 50 06 3e
       0.10758202 -0.035770684 -0.14126371 0.13116468
000100 26 98 1e 3e fe 14 df 3c 04 32 10 be df f2 c4 3d
       0.15487728 0.02723169 -0.1408158 0.096166365
000110 74 93 9d 3d 8b ea c9 3c 62 30 90 bc ab 2f 07 3d
       0.0769414 0.024647972 -0.017601196 0.033004444
000120 56 14 09 be d9 34 04 3e b8 39 ad bb 7d e2 23 be
       -0.13386664 0.12910785 -0.0052864216 -0.16004367
000130 63 52 11 3e df f0 83 bd ac c3 6c 3c 0c 92 9f 3d
       0.14191584 -0.06442427 0.014450949 0.07791528
000140 4d 5e 1f 3d 4f a6 0c 3e 16 33 23 be f5 ce 42 3d
       0.03890829 0.13735317 -0.15937456 0.04756065
000150 b4 ad 56 39 a4 4c fe bb 89 4f d4 bd e7 d4 e8 bd
       0.0002047334 -0.007760601 -0.103667326 -0.11368733
000160 c4 60 7c 3d 97 d7 51 3c f3 d1 c7 3b 4e 6c ce 3d
       0.06161572 0.012807748 0.006098026 0.10079251
000170 98 df cf 3c 31 1d 4a 3c 14 ac e6 3d 85 7d 72 ba
       0.025375172 0.012336061 0.1126329 -0.0009250271
000180 6b 9b 25 3e 59 6d 12 be 01 20 a3 3d 37 70 35 3d
       0.16172569 -0.14299525 0.07965089 0.04429647
000190 0b a7 91 3c 95 d1 53 bd 36 8d 0a bd 27 5c 55 3d
       0.017779848 -0.051713545 -0.033826075 0.052089836
0001a0 57 77 69 3c 6c e3 0f be 84 c5 1c be 50 46 b2 bd
       0.014249644 -0.14051598 -0.15309721 -0.08704817
0001b0 58 95 2e be b8 80 6f bd 97 c5 3a 3d b5 15 d0 bd
       -0.17049158 -0.058472365 0.045598593 -0.1016039
0001c0 92 07 e6 3c d1 fb 27 3e 7d d5 aa bd 67 c6 22 3e
       0.028079782 0.16404654 -0.08341501 0.15895997
0001d0 ef 0e 0e bc 64 ef 2d be 7c 86 3c bd 53 21 fe 3c
       -0.008670553 -0.16985852 -0.04602669 0.03102175
0001e0 e9 2d 0c 3e f3 cc 68 bd aa 6a fa bd e2 73 1b 3e
       0.13689388 -0.05683608 -0.12227376 0.15180925
0001f0 47 94 f8 3c ae 59 48 bd e7 26 a2 bd c1 3e 95 3d
       0.030344142 -0.04891365 -0.07917576 0.0728736
000200 fc 34 15 3e 52 09 2f bc 82 ed 06 3d 82 34 25 3d
       0.14570993 -0.0106833745 0.03294135 0.04033328
000210 de 54 c9 bc 3c c3 b4 3d 69 44 28 3e a8 cc a9 3d
       -0.0245766 0.088263005 0.16432346 0.08290988
000220 87 71 10 3e 1c f4 52 3d 68 66 06 bd aa be 4e 3d
       0.14105807 0.051502332 -0.032812506 0.0504748
000230 2b 65 cb bd f6 61 65 bd 13 55 06 3d 98 78 63 3d
       -0.09931406 -0.056001626 0.032795977 0.05553493
000240 3d d9 0c be 61 27 32 3d bd 17 ca 3d 2d a3 0d be
       -0.13754745 0.043494586 0.09867809 -0.13831778
000250 0b 33 85 3d b9 19 48 bd 0d 78 eb 3d 37 ce 2c 3e
       0.06503876 -0.048852656 0.11497507 0.1687554
000260 2a 9d b3 3d d6 9f 0b be 5a 06 77 3d a5 e9 b0 bd
       0.08770211 -0.13635191 0.06030879 -0.08638314
000270 8a d1 00 3e 58 41 70 3d 50 7a 9c 3d 16 c3 04 be
       0.12579933 0.058656067 0.07640517 -0.12965044
000280 d4 47 2f be db f9 df bd 2e fc 24 3e cd c6 a7 3d
       -0.17117244 -0.10936328 0.16111824 0.08192215
000290 c9 d9 3e 3d 29 b6 0e be 68 bc 54 bd 97 fa ee 3b
       0.046594415 -0.13936676 -0.05193749 0.007293056
0002a0 bb 0e d3 bc bc 7d 23 3e a6 4a 2c be 5b 99 02 bd
       -0.02576386 0.15965933 -0.16825351 -0.031884532
0002b0 1f 92 ef 3d b9 1a e6 3d 3c cf 07 be 91 a2 a4 3d
       0.11697792 0.11235566 -0.13262647 0.080388196
0002c0 98 72 76 bc 83 37 e4 bd 45 23 79 bc 11 53 06 be
       -0.01504197 -0.111434005 -0.015206163 -0.13117625
0002d0 98 91 56 bd 77 1a 32 3e d5 d5 15 be ef 93 0f be
       -0.052384943 0.17392908 -0.14632352 -0.14021276
0002e0 00 c7 cc 3d d0 91 d3 3d 71 bc e4 bd f0 b9 3a bd
       0.09998894 0.10330546 -0.11168755 -0.04558748
0002f0 9f 0c 76 ba c4 06 11 be a0 0c 3e 3c 1a 87 60 bd
       -0.0009386036 -0.14162737 0.01159969 -0.054816343
000300 34 c6 5e bd 5d 6f 77 3d 05 f3 af bd 0d d8 75 3c
       -0.05438824 0.06040894 -0.08591274 0.015005124
000310 41 73 21 3e d1 69 06 3e 03 66 f0 3d c2 d2 15 3e
       0.15766622 0.13126303 0.11738207 0.14631179
000320 14 d7 84 bd 96 37 21 3e 81 b5 25 be 49 22 29 3e
       -0.064863354 0.1574386 -0.1618252 0.16516985
000330 2e 08 31 3e b6 6a b7 3d 9f 7e 13 3c a9 9b 39 3d
       0.17288277 0.089559 0.009002357 0.045314465
000340 91 14 b2 bd 76 f3 d7 bd 9c 61 e6 bd bc d4 cb 3d
       -0.08695329 -0.10544483 -0.11249086 0.09952685
000350 0e 96 0d be 5b 44 7b 3c 5e 58 75 3d 2d 7c 04 be
       -0.13826773 0.015336121 0.059898727 -0.12937994
000360 33 37 fd bd e6 48 19 3b 71 c8 16 be b9 b3 b9 3c
       -0.12364044 0.0023389398 -0.147249 0.022668706
000370 d3 b7 f9 bd 24 f1 e7 bd 35 d5 9f bd 5a 36 28 3d
       -0.12193265 -0.11325291 -0.07804338 0.04106746
000380 33 ec 50 bd 51 b2 20 be 5b 7a 9d bd 57 2d 56 bd
       -0.051006507 -0.15693022 -0.07689353 -0.052289333
000390 d7 50 0d 3e cb 35 06 3e f0 26 4f 3c 13 06 8c 3d
       0.13800369 0.13106458 0.012643561 0.06837096
0003a0 0c 26 30 be ee a9 5a bc 44 98 b2 3d a0 49 82 3d
       -0.17202014 -0.013346178 0.087204486 0.06361699
0003b0 cc 6d a7 bd 56 59 ea 3d 26 94 82 3d 79 81 e1 bd
       -0.08175239 0.11442821 0.06375913 -0.11011023
0003c0 25 48 33 3d 9d d9 0d be ae 59 e0 3d 48 f0 f1 3d
       0.043769974 -0.13852544 0.10954605 0.11813408
0003d0 84 dd 62 bb 58 b2 8a 3d 5d 50 c6 bd 7a 55 af bd
       -0.0034616897 0.067722976 -0.09683297 -0.08561225
0003e0 c9 37 07 bd b4 d6 f5 bd 2b 55 f9 bc 79 c8 84 ba
       -0.033012185 -0.12003842 -0.030436119 -0.0010130546
0003f0 b5 f6 9f bd 30 7e e1 3d ee c7 68 3d a0 b4 c3 3d
       -0.078107275 0.110103965 0.056831293 0.09555936

fcs1_bn.weight f4 [400]
000000 00 33 7e 3f 89 6c e3 3e 13 56 5b 3f 57 b7 70 3f
       0.9929657 0.44418743 0.85678214 0.94029754
000010 8d bd 05 3f 3e 0f 87 3e f6 7f 44 3f 4f 08 44 3e
       0.52242357 0.26378816 0.7675775 0.19143794
000020 94 8f 61 3f 69 87 c0 3e 83 25 ea 3d d8 61 5f 3f
       0.8810971 0.3760331 0.11432936 0.8725867
000030 21 9d 20 3f 63 a2 09 3f e7 70 71 3f 8c fd f9 3e
       0.6273976 0.5376341 0.943129 0.48826253
000040 3d 83 48 3e d5 34 46 3d ee 33 90 3d c4 64 49 3f
       0.19581313 0.04839023 0.07041155 0.7866938
000050 8d 58 c9 3e 5d 8c c7 3e 4c f3 42 3f e5 9d 06 3f
       0.3932537 0.38974276 0.7615249 0.5258468
000060 86 0e 6f 3f c6 cf d6 3e 7e e4 97 3e fb de 8e 3e
       0.93381536 0.41955394 0.29666513 0.27904496
000070 83 d9 6d 3e 22 0c 03 3f 7e 6d b4 3e 61 02 40 3f
       0.23227505 0.5119039 0.35239786 0.7500363
000080 fc fe 3c 3d fa 13 95 3e 3e 20 13 3f af 6a 70 3f
       0.04614161 0.29116803 0.5747107 0.93912786
000090 21 7a 1a 3f 2c fe 42 bb d1 43 2c 3e 2b 46 06 3f
       0.60342604 -0.002975355 0.16822745 0.5245082
0000a0 53 43 d6 3e fe 7a e7 3c 01 d4 15 3e b6 ed 6c 3e
       0.4184824 0.02825689 0.14631654 0.23137555
0000b0 2d 52 ca 3d df 6d c4 3d 7f 75 9a b9 d4 ad e5 3e
       0.09878955 0.09591269 -0.0002946071 0.44859183
0000c0 62 60 81 3e 8c 85 9c 3d e2 63 a8 3e 53 49 8a 3e
       0.25268847 0.076426595 0.32888705 0.27009067
0000d0 af 24 e5 3e 36 9c 84 3e ec ec 58 3e f3 34 16 3f
       0.4475455 0.2590043 0.21184129 0.58674544
0000e0 02 50 f7 3e 60 84 b9 3e 1a 45 5e 3f 81 b0 e1 3e
       0.4830323 0.36233807 0.8682419 0.44079974
0000f0 8a 56 c7 3d ad e0 98 3e 90 4a 56 3f 1a 2c d4 3e
       0.09733303 0.29858914 0.83707523 0.41439897
000100 5a 23 19 3f 65 37 cc 3e 8c f4 ee 3d 07 8a 3e 3f
       0.5981957 0.39886013 0.11667737 0.74429363
000110 be 76 fa 3b ed f2 52 3f 96 56 c0 3d b2 d9 6d 3f
       0.0076435497 0.82401925 0.09391515 0.929103
000120 1e 7d 55 3f 0f 6e ad 3e 0d f5 06 3f b9 a6 8f 3e
       0.8339404 0.3387303 0.5271767 0.28056887
000130 4a ac 0a 3f 51 78 3e 3f 56 03 19 3e d8 f6 03 3b
       0.5416914 0.7440234 0.14942679 0.0020136144
000140 9f 74 2a 3e cb 52 42 3f 95 36 06 3f 63 30 1c 3f
       0.1664605 0.7590758 0.52427036 0.6101133
000150 5e 86 8a 3e 22 59 cd 3e 08 5e 71 3f 96 c6 dd 3e
       0.2705564 0.40107065 0.94284105 0.43315572
000160 f9 61 8a 3e 8a f8 53 3f e5 7a 58 3e a1 9d 19 3f
       0.27027872 0.82801116 0.2114063 0.6000615
000170 31 43 b0 3e 96 34 2b 3f 5c e6 82 3a 57 87 23 3f
       0.34426263 0.66877115 0.0009986865 0.6387839
000180 9c da d3 3e 3b bc e8 3d 7e 02 36 3e cb d9 76 3f
       0.41377723 0.11364027 0.17774388 0.96426076
000190 c7 5d a0 3e 18 4f 2e 3f 03 3f 4a 3e 3f ba 93 3e
       0.31321546 0.6808944 0.197506 0.28853032
0001a0 ba f7 59 3f 81 03 1c 3e 97 b9 50 3e 1d 25 77 3f
       0.85143626 0.15235712 0.20383297 0.96541005
0001b0 a7 27 33 3f 17 54 73 3e a8 76 c8 3e b3 bd 1e 3f
       0.6998238 0.23762546 0.39153028 0.6200821
0001c0 45 16 18 3f 0e 38 a6 3d e9 8e a9 3e 9c cd 75 3f
       0.5940898 0.0811616 0.33116844 0.9601686
0001d0 b4 74 e9 3e 26 a5 b2 3e 43 3f 0b 3e 93 26 a3 3e
       0.4559685 0.34891623 0.13598351 0.31865367
0001e0 56 71 21 3e bb 8a d5 3e 27 47 63 3f 70 36 e6 3d
       0.1576589 0.41707405 0.88780445 0.11240852
0001f0 49 f3 30 3f 9c e4 78 3f f4 2e 33 3f a7 f0 84 3f
       0.69121224 0.9722383 0.6999352 1.0385941
000200 24 29 2c 3f 70 5d 9b 3e 3f c5 86 3d 50 32 ac 3b
       0.67250276 0.30344725 0.065805905 0.005255021
000210 22 38 e0 3e 65 17 8d 3b b5 c2 12 3f 7f ab ac 3e
       0.43792826 0.0043057674 0.5732835 0.3372459
000220 f1 c3 16 3f 04 41 c8 3e c9 02 8a 3d 04 d8 0d 3f
       0.5889273 0.39112103 0.067388125 0.5540774
000230 5b e3 0b 3f 26 d9 3b 3f 2c ac 5c 3e da 13 64 3f
       0.5464379 0.7337822 0.21550053 0.8909279
000240 e0 3a 07 3e be 69 2c 3f 55 2a c9 3e 10 64 3e 3e
       0.13206053 0.6734885 0.3929011 0.18592858
000250 68 d1 26 3f c8 c6 a9 3e bb e4 69 3f d5 50 17 3e
       0.6516328 0.3315947 0.9136464 0.14776929
000260 8e b5 34 3f 7b 34 15 3f 01 06 75 3f e7 44 cd 3e
       0.7058953 0.58283204 0.95712286 0.4009163
000270 72 32 ef 3e 12 c0 3b 3f 83 9f fc 3e 3c 75 1e 3f
       0.46718174 0.7333995 0.49340448 0.61897635
000280 33 86 6d 3f 25 c9 33 3e 44 44 2f 3f 60 f2 04 3e
       0.92782897 0.175572 0.6846354 0.12983084
000290 3c ad 30 3f c0 93 a6 3e b3 2f 53 3e 46 0f 9d 3c
       0.69014335 0.325346 0.20623665 0.019172322
0002a0 ae 5d 65 3e 74 be 0a 3e dd f9 36 3f 26 92 3c 3f
       0.22399017 0.13549215 0.7147501 0.73660505
0002b0 2c 49 02 3f 05 aa 60 3f 4e 58 9c 3e 68 14 0b 3f
       0.508929 0.8775943 0.3053612 0.5432801
0002c0 b2 18 67 3f 70 d4 3a 3f 3a 7b a2 3e 20 84 3d 3f
       0.9027206 0.72980404 0.3173464 0.7402973
0002d0 b5 f3 ce 3e 26 14 56 3e 17 3f e0 3e 60 1a 91 3e
       0.4042031 0.20906124 0.43798134 0.28340435
0002e0 24 22 5a 3d 6a 8b 40 3f 66 63 7e 3f 4a 0e ce 3e
       0.053255215 0.7521273 0.9937042 0.40245277
0002f0 84 16 76 3f e9 6f d4 3e 15 fc de 3d 18 51 86 3f
       0.96128106 0.4149163 0.108879246 1.0493498
000300 3c 8a 3e 3f 42 b4 9c 3e a5 de e2 3e 83 65 ad 3e
       0.7442968 0.30606276 0.4431049 0.3386651
000310 8d ac b7 3e e8 0c 28 3f 36 8d 5f 3f 84 c3 d0 3b
       0.35873833 0.65644693 0.87324846 0.0063709635
000320 a3 57 24 3f 86 d3 74 3e cc 76 ad 3d bb ad 77 3f
       0.64196223 0.23908815 0.08469924 0.96749467
000330 b1 c9 b3 3e fb 34 b8 3e c2 09 74 3f dd 59 da 3d
       0.35114816 0.3597792 0.9532739 0.10661671
000340 99 2d c7 3d b1 f3 d2 3e 0a eb 06 3f cd f8 12 3f
       0.09725494 0.41201547 0.5270239 0.5741089
000350 89 a5 56 3f d4 9f c6 3e 2f b5 fe 3d ac 12 b2 3e
       0.83846337 0.38793814 0.12436902 0.3477987
000360 08 bc 59 3f 93 ef 98 3e 58 8b bd 3d ba 5a 46 3f
       0.8505254 0.2987028 0.09255093 0.7748219
000370 5a 6f d1 3e 57 78 0d 3e f1 fa 18 3f 18 b0 06 3f
       0.40905267 0.13815437 0.59757906 0.5261245
000380 dc 05 42 3f 9d 74 12 3f d9 71 ae 3d 36 95 40 3f
       0.7579019 0.5720919 0.085178085 0.7522768
000390 57 f9 f2 3e b3 50 5a 3f 1e 82 55 3a 53 75 e7 3e
       0.47455856 0.8527939 0.0008144694 0.452067
0003a0 07 0d 89 3c 41 54 62 3f 54 61 37 3f 70 aa b1 3d
       0.016729845 0.8840981 0.71632886 0.086750865
0003b0 94 78 61 3f 8d 06 cd 3e b3 0d 04 3f 4d 21 77 3e
       0.8807461 0.4004406 0.51583403 0.24133797
0003c0 79 e0 0c 3f 22 fd 63 3e 81 9b c6 3e c8 00 57 3f
       0.5503002 0.22264531 0.38790515 0.8398557
0003d0 bb f0 98 3e 23 59 1d 3f 21 11 16 3f 18 dc 8c 3e
       0.29871163 0.61464137 0.58619887 0.27511668
0003e0 67 7b b5 3e 9e ca 2c 3f c2 07 43 3f a2 03 23 3f
       0.3544571 0.6749667 0.7618371 0.6367742
0003f0 a5 b9 6d 3e 47 4f 3a 3f d5 3f 78 3f a8 96 50 3f
       0.23215349 0.7277722 0.969724 0.81479883

fcs1_bn.bias f4 [400]
000000 56 33 c3 3c 75 25 b8 bd e9 01 30 bd ae 27 d4 3b
       0.02382819 -0.08991519 -0.04297057 0.0064744567
000010 e9 cb 82 bd 92 59 ee bd 3a 4d 42 be 70 9c c6 bd
       -0.06386549 -0.11638178 -0.18974772 -0.09697807
000020 63 9b 79 bb 17 27 c4 bd da e3 95 bd 0f d9 dc bd
       -0.0038087002 -0.09577768 -0.0731885 -0.10783588
000030 d6 e9 38 be 32 fe a0 bd 85 6a 59 bd 36 b2 04 be
       -0.18057951 -0.07860984 -0.0530801 -0.12958607
000040 72 44 a5 bd 5c 3d 86 bd 4e e8 8c bc ff c4 c2 bd
       -0.080696955 -0.06554672 -0.017200615 -0.0951023
000050 9d 6a 83 3c 17 4b a3 bc 1b 7b 8e bd 24 e8 05 bd
       0.016042048 -0.019933267 -0.06957074 -0.03269209
000060 01 a8 7a bd b3 bd 96 bd b1 14 d6 bc b0 36 bb bd
       -0.061195377 -0.07360401 -0.026132913 -0.0914129
000070 97 9e 62 bd 4c f7 4e bc 4e 0a fc bd 39 3e fa bd
       -0.055327024 -0.012632202 -0.12306653 -0.12218899
000080 7a e4 20 bd 8b 03 39 bd 20 dd c8 bd 9a 4b 20 bc
       -0.039280392 -0.045169394 -0.09807801 -0.00978365
000090 c0 d6 97 bd 68 da 37 bc 11 d9 98 bd 67 81 7a bc
       -0.07414007 -0.011221506 -0.07463277 -0.015289641
0000a0 6e 84 6c 3c d1 e2 82 bd ce dc 6e bd f9 e5 83 bd
       0.014435871 -0.06390918 -0.058316045 -0.06440348
0000b0 48 91 8c bd 23 5d 7f bc f1 31 a1 bb 24 aa 28 bd
       -0.06863648 -0.01558617 -0.0049192836 -0.041177884
0000c0 32 e3 ac bd aa 20 52 bd 49 5c 80 3b 10 2c 2e bd
       -0.084417716 -0.051300682 0.0039172512 -0.04252249
0000d0 17 70 2c bd 49 e6 12 bd f7 18 b5 bd d5 af fe bd
       -0.042099085 -0.03586415 -0.08842652 -0.12435881
0000e0 97 00 0e be b7 25 ce bd c3 5c c1 bd 40 8a ce bd
       -0.13867413 -0.10065787 -0.09441521 -0.10084963
0000f0 35 aa 97 bc 9c bf d1 bc ef 98 3a bd 6b 78 57 bd
       -0.018513778 -0.025604062 -0.045556005 -0.052605074
000100 67 6b 4e bd 02 db f0 bd 30 32 4e bd f2 b9 22 bd
       -0.050395396 -0.117605224 -0.05034083 -0.039728113
000110 7c ae ef bc 14 ce 03 be a6 c7 fa bb 74 42 89 bd
       -0.029258005 -0.12871581 -0.0076531945 -0.06702128
000120 16 7f e1 bc e0 2e 0e be 0e 2e 31 bd 31 46 d8 bd
       -0.02752642 -0.13885069 -0.04325681 -0.10560263
000130 c5 14 07 be 7c c6 2a bd 6d 71 43 bd 1e 6f 3c bc
       -0.13191517 -0.041693196 -0.047715593 -0.011501102
000140 fd ce 6c bc 52 4f 90 bd ed 4a 50 bd 1f ff 94 bd
       -0.014453647 -0.07046379 -0.050852705 -0.07275223
000150 b7 f1 7c bd a1 36 e9 bc 19 5f 1f bd 63 ec bb bd
       -0.061753955 -0.028468432 -0.03890905 -0.091759466
000160 62 74 85 bd a5 8b 00 be 68 58 6b bd 5d 78 fa 3c
       -0.06516339 -0.1255327 -0.057457358 0.030574972
000170 59 76 5c bd 36 8e a4 bb 9e b1 fe bb cf e2 31 bc
       -0.053823803 -0.0050218357 -0.0077726385 -0.010857298
000180 2e 11 69 bd de 42 8e bd c9 e9 b7 bc 5e a9 3b 3c
       -0.05690115 -0.06946348 -0.022450345 0.0114539545
000190 33 d9 86 bd a4 8b 46 bd 27 a0 ce bd 4d f0 86 bd
       -0.06584396 -0.048473015 -0.100891404 -0.065888025
0001a0 e4 23 4d bd 22 d4 ef bc 86 bc f1 bc 67 11 e7 bd
       -0.050083056 -0.029275957 -0.02950884 -0.11282616
0001b0 c3 c6 0d bd c0 f6 2f bd 0a 34 82 bb 07 5d c9 bc
       -0.034613382 -0.04295993 -0.0039734887 -0.024580492
0001c0 59 42 b7 bd e5 bc 8b bd 19 f1 81 bd ec de 02 be
       -0.08948202 -0.06823138 -0.06344814 -0.1278035
0001d0 b4 d2 19 bd 10 8d ea bd 01 03 9a bd 67 5f 4a bd
       -0.037554458 -0.11452687 -0.07520104 -0.04940739
0001e0 3e a5 14 bd e3 d5 ef bc 75 a0 9a bd cd f2 91 bd
       -0.0362904 -0.029276794 -0.07550136 -0.07126389
0001f0 89 0c f4 bd c4 0e e4 bd d5 55 4d bd 4c 12 4c bd
       -0.119164534 -0.11135629 -0.050130684 -0.049822137
000200 8c b4 c4 bd 7c e7 bf bd 55 a3 5a bd be 86 d2 bc
       -0.09604749 -0.09370324 -0.05337842 -0.025699016
000210 8d 0a 05 bc 83 5f 89 bc 7e 56 4a bc e9 65 f1 bd
       -0.008120191 -0.016769176 -0.012349723 -0.11787016
000220 0e da dc bd 70 2b f6 bc 81 7c 8c bc f7 51 6a bd
       -0.10783778 -0.03005001 -0.017149212 -0.057207074
000230 27 1b a4 bd e9 0b 87 bd e2 8a 7f 3d 94 70 38 bd
       -0.080129914 -0.065940686 0.06238831 -0.045029238
000240 a1 eb 19 bd 65 37 ff bd ae b3 b8 bd b0 f4 50 bd
       -0.03757823 -0.124617375 -0.09018646 -0.051014602
000250 e3 39 91 bd 51 8a 8b 3c 40 27 91 bd 9d ce 98 bd
       -0.07091119 0.017033728 -0.070875645 -0.07461283
000260 ab f1 e0 bd fd 97 64 bd 06 ce d8 bd 78 d6 a9 bd
       -0.109835945 -0.05580901 -0.10586171 -0.0829286
000270 5e 3f d1 bc 29 68 64 bd 66 ab f9 bd 51 fb c9 bd
       -0.025542911 -0.055763397 -0.12190895 -0.09862388
000280 d3 61 21 be 55 d1 04 bd 31 30 2e bd 13 bb df bd
       -0.15759973 -0.032426197 -0.042526428 -0.109243535
000290 38 fb bf bd 9d e0 44 3a e6 48 b1 bc 52 2e 66 bd
       -0.09374088 0.00075102766 -0.021641206 -0.05619652
0002a0 d1 c6 62 bd 36 f0 89 bc 3a 82 52 bc 0f 45 87 bd
       -0.055365387 -0.016838174 -0.012848431 -0.06604969
0002b0 d3 e6 17 be bf cd 08 be 5b 98 c3 bd b0 f7 ad bd
       -0.14834146 -0.13359736 -0.09550544 -0.08494508
0002c0 03 a5 bf bd e7 58 9b bd 43 fb c9 bd fc f2 a7 bc
       -0.09357645 -0.07585316 -0.098623775 -0.020501606
0002d0 6c 8f d0 bd e3 6a ba bd e3 41 cc bd aa 60 b8 bd
       -0.101836056 -0.09102418 -0.099735044 -0.09002812
0002e0 05 f1 bf bd ef 2d 60 bd 68 08 c7 bd 7b a9 5b 3a
       -0.09372143 -0.054731306 -0.097184 0.00083794416
0002f0 8a 92 cf bd c4 f3 55 bd 25 af 52 bd 36 32 0c bb
       -0.10135372 -0.052234426 -0.051436562 -0.0021392233
000300 56 02 cd bd fd 04 65 bd fd a6 8f bd 80 5b ab b6
       -0.10010211 -0.05591296 -0.07014272 -5.106849e-06
000310 94 1a d0 bd d0 9e 5f bd d1 95 1b bd 51 2c 0f bd
       -0.101613194 -0.054594815 -0.037984673 -0.034954373
000320 f3 fe c1 3b 04 d3 a1 bd 8e f6 8a bd cd d8 d6 bd
       0.005920285 -0.07901576 -0.06785308 -0.1049057
000330 ca 61 14 bd 1c 08 a2 bc 9d 52 f8 bd 0a 8e b1 bc
       -0.03622607 -0.019779257 -0.12125132 -0.021674175
000340 bf eb 88 bd 47 de 4b bd b4 e1 33 be 8f 64 99 bd
       -0.0668559 -0.049772527 -0.17566568 -0.07489883
000350 88 00 b9 bd 16 a5 af 3b b0 84 81 bc 78 73 07 be
       -0.090333045 0.005360256 -0.01581034 -0.13227642
000360 54 86 93 bd c8 5a e3 bc 98 10 9f bd 09 dd eb bc
       -0.072033554 -0.027753249 -0.07766837 -0.028791921
000370 4d 15 8a bd a7 70 39 bd 56 52 83 bd 8d 58 54 bd
       -0.06742344 -0.04527345 -0.06412189 -0.05184226
000380 28 2a a1 bd 7c 5e 2d bd c3 3c 38 bc 6c f6 0d bd
       -0.07869369 -0.042326435 -0.0112449555 -0.034658834
000390 9c ec 33 bd 9c 1e a0 bd 24 cd 6c bb 87 bf dc bd
       -0.04392682 -0.07818338 -0.0036133016 -0.107787184
0003a0 b5 e2 56 bd fa 34 b6 bd d9 ff ff bc 0f d3 bd bd
       -0.0524623 -0.08896823 -0.031249927 -0.09268772
0003b0 3c e6 df bd bd 98 35 bd 40 68 96 bd c0 36 c5 bd
       -0.109325856 -0.044335116 -0.07344103 -0.09629583
0003c0 76 10 0f bd a3 fc 6a bd 0c 67 f8 bd 21 9f a1 bd
       -0.034927808 -0.05736984 -0.1212903 -0.078916796
0003d0 1b a5 2a bd b8 d3 fa bd 12 94 08 be 5c 94 17 be
       -0.041661363 -0.122474134 -0.13337734 -0.14802688
0003e0 19 3d 95 bd ac b9 f1 bc b5 fd 90 bd ee 53 60 bd
       -0.07287044 -0.02950748 -0.07079641 -0.05476754
0003f0 89 70 9d bd 85 11 81 bd bc 26 26 bd 2c 24 c5 bd
       -0.0768748 -0.0630217 -0.040564284 -0.0962604

fcs1_bn.running_mean f4 [400]
000000 67 cc 6a 3e 75 4a 04 3e 9f a7 95 be a0 f8 c9 bd
       0.22929536 0.12919028 -0.29229447 -0.098618746
000010 6c c1 e5 be 89 de c3 3e 1b 00 81 3e 3a 50 a4 3d
       -0.44874132 0.38255718 0.25195393 0.080231145
000020 bf 08 27 be 6a 85 b3 3c d2 0b 85 3e 71 64 a1 be
       -0.1631193 0.021914203 0.2598558 -0.31521943
000030 8e bd 5a 3c 6c 8e 6d be 5b 65 ee bd b7 dd e9 bd
       0.013350857 -0.23198861 -0.11640426 -0.11419242
000040 be f4 8c be b6 17 63 be e0 8d 1c bb 76 e0 bf bc
       -0.27530473 -0.22177014 -0.0023888275 -0.023422461
000050 1f a0 12 bf d8 0b 56 3e d6 71 5b 3e 9e f5 92 3d
       -0.57275575 0.20902956 0.21430144 0.07175754
000060 66 75 75 be 3b ce 9d be ca 68 dd bd 73 d2 26 3e
       -0.23970565 -0.30821404 -0.108110026 0.16291218
000070 d3 93 e4 be 87 ea 5e be c2 c0 ea bd 19 14 a9 bc
       -0.4464403 -0.21769153 -0.11462547 -0.020639466
000080 50 29 8c be e1 9d 72 be 16 93 87 be b3 48 bd be
       -0.2737527 -0.23693039 -0.26479405 -0.36969528
000090 61 e0 ab 3d 3f 0e f3 bc 12 93 d0 3c 69 f8 73 3c
       0.08392406 -0.029669879 0.025460754 0.014890769
0000a0 b1 f4 9d be 40 2c b8 be 33 8c b8 3b c7 19 21 be
       -0.30850747 -0.3597126 0.0056319474 -0.1573249
0000b0 67 c1 b7 3e 7e 55 60 be e8 3e 28 3e c7 ae 41 be
       0.35889742 -0.21907613 0.16430247 -0.18914329
0000c0 8e ae 21 3e 1e cc 62 3d 35 eb d4 be 9e b8 b1 be
       0.15789244 0.055370443 -0.415857 -0.34711164
0000d0 a6 fb bc 3d d3 fd e1 be 4a 7d c8 be c5 df 64 be
       0.09227686 -0.44138965 -0.39158088 -0.22350986
0000e0 06 5a cb 3e b9 e0 40 3d 76 3a 70 bd 68 4b 6e 3e
       0.3971712 0.047089312 -0.058649503 0.23270953
0000f0 30 80 5f be 24 e9 b9 3e 02 10 29 3e 73 ec d0 3d
       -0.21826243 0.36310685 0.16510013 0.10201349
000100 fe 29 10 be 0c 75 7b 3e 00 99 49 be f2 82 36 bd
       -0.14078519 0.24556369 -0.19687271 -0.044558473
000110 68 97 54 3d 12 91 9d be 47 d8 bd be 63 ef 8d 3d
       0.051902205 -0.30774742 -0.3707907 0.06930425
000120 6a cb 97 be 13 1e 46 bd 51 f7 0e be 4e 0a 15 bf
       -0.2964738 -0.048368525 -0.13961531 -0.5821885
000130 49 2c 56 bc 60 3c cd 3c 13 d4 45 be 6b 62 b5 3d
       -0.013072082 0.025053203 -0.19319181 0.08856662
000140 21 b7 d0 be 74 8e cf bc 20 42 89 bd bb c1 a2 bd
       -0.40764716 -0.025336482 -0.067020655 -0.079471074
000150 1a b8 1c be d7 e7 6c 3b 4e 52 9a be a9 99 1d be
       -0.15304604 0.003614893 -0.30140918 -0.15390648
000160 df 3c d6 3e 90 37 f9 bd f8 3a a5 3d 50 43 03 be
       0.41843316 -0.12168801 0.08067888 -0.12818646
000170 ba 0c bb 3e 00 57 df bc c7 f0 bf 3d 08 99 01 bd
       0.36533147 -0.027263165 0.093720965 -0.031640083
000180 20 95 f4 3e 09 21 dd be c2 2a 9f 3e 5f 87 3e bd
       0.47770023 -0.43189266 0.3108731 -0.04651582
000190 5b a7 8a 3d e5 67 f4 be 12 74 c8 3d 0b a9 72 3d
       0.06770202 -0.47735515 0.09787764 0.059243243
0001a0 cd be 9e be a1 8f c0 be 5c bc 19 3e fa e0 2e be
       -0.31004944 -0.3760958 0.1501326 -0.17078009
0001b0 78 a8 8b be 61 c3 9d 3d 7c a3 4e 3e 15 3e 02 bf
       -0.2727697 0.07703281 0.20179552 -0.5087598
0001c0 7a f0 61 bd 96 0c b8 3d 5a d1 c3 bd 05 d4 31 3e
       -0.055160977 0.089867756 -0.09561415 0.17366035
0001d0 6c 49 a2 be 06 02 9f be c6 26 62 bd 56 83 5e 3e
       -0.3169664 -0.3105623 -0.05521276 0.21729788
0001e0 16 a0 18 be 78 dc 83 be 3e 93 66 bd 5e 64 c4 3e
       -0.14904818 -0.25754142 -0.056292765 0.38357824
0001f0 51 2f 95 bc 3b 39 c0 be c6 72 92 3e 2b 51 d3 bd
       -0.018211039 -0.37543663 0.2860319 -0.10318216
000200 55 cd 87 3d 8b bb 0f 3e 39 91 18 3c b4 2d 4b be
       0.06630961 0.14036386 0.0093119675 -0.19841653
000210 75 c4 8e 3e 59 d6 05 be 72 70 8b 3d 21 04 fe 3d
       0.2788426 -0.13070048 0.068085566 0.12403131
000220 aa 09 93 3e 3a dc 2c be a4 42 76 be fe 49 67 be
       0.2871831 -0.16880885 -0.24048859 -0.2258682
000230 6a 06 bc bd ec 06 94 be 11 e4 2b bd 22 a4 fa bd
       -0.09180911 -0.2891153 -0.041965548 -0.12238337
000240 d3 f0 16 be c5 3f a7 be 92 47 73 bc e0 71 be be
       -0.14740305 -0.3266584 -0.014848607 -0.37196255
000250 f6 10 2e be 49 e3 87 3d 88 1d 1e be f5 fc e3 3e
       -0.16998658 0.06635148 -0.15440953 0.44528928
000260 eb 50 99 3e 61 08 87 be 88 e8 6d bd 04 e0 69 bc
       0.29944548 -0.2637358 -0.058083087 -0.014274601
000270 f3 43 69 be 7b 74 01 3f 6a 36 48 3e 12 5e 3c 3e
       -0.22779827 0.5056836 0.19552007 0.1839526
000280 67 a4 52 3e 88 18 72 be 1b 5d 38 be b2 e5 4a 3d
       0.20570527 -0.2364217 -0.18004267 0.04953546
000290 b9 f3 b8 3e 6d ac 5b be 7b e4 88 be 1c 61 99 bc
       0.36123446 -0.21452494 -0.26736817 -0.018723063
0002a0 fb a3 38 be 35 33 b1 3e cc 30 54 bd 06 27 3f be
       -0.18031304 0.3460938 -0.05180435 -0.1866723
0002b0 08 01 a8 3c 38 8e 18 3e c1 ae dd be fc 5a bd 3d
       0.020508304 0.14898002 -0.4329739 0.092458695
0002c0 eb 19 18 bf a1 2b d2 be 21 5f b5 bd 16 6d 9f be
       -0.5941455 -0.4104891 -0.08856035 -0.31137913
0002d0 2b c3 66 3c 99 24 0b bd aa d1 97 be 4b a5 43 be
       0.014084618 -0.03397045 -0.29652148 -0.19106023
0002e0 6d 41 56 3e a1 dd ef bb c9 c8 35 be 2a b7 14 3d
       0.20923395 -0.0073201214 -0.17752375 0.03630749
0002f0 23 cf da bd 5a 41 86 be 43 7d 4e 3c 3e 06 24 be
       -0.106840394 -0.26221734 0.012603107 -0.16018006
000300 92 e2 9d 3e de 1e 43 3e b7 7c 88 be 59 0c 77 3e
       0.30836922 0.19054744 -0.2665765 0.24125804
000310 b0 f0 d1 3d 68 a2 48 3e 32 c8 4d 3e 94 72 76 bd
       0.102509856 0.19593203 0.200959 -0.060167864
000320 a8 be 63 be 5c 20 b8 3d 1a 23 ea bc e6 dc 27 3e
       -0.22240698 0.08990547 -0.02858119 0.1639286
000330 27 d6 e7 3d d4 32 20 3e e2 9c da 3e c9 ac 02 3e
       0.11320143 0.1564439 0.42697817 0.12761225
000340 5d 0e 35 be 6b b5 81 be 11 cb b6 3e 81 39 50 be
       -0.1768126 -0.25333723 0.35701802 -0.20334436
000350 16 74 f2 bd 24 94 6f 3e f6 67 94 3d d0 33 97 3e
       -0.11838548 0.23396355 0.072463915 0.29531717
000360 64 bc 71 bd cc 7e 86 be e9 a7 2c be 4b e8 1a be
       -0.059017554 -0.26268613 -0.16860928 -0.15127675
000370 24 4a d6 be 9c cc 51 be b5 3c 02 be 96 1a ec bd
       -0.4185344 -0.20488209 -0.1271847 -0.11528508
000380 b0 5f 29 3d b8 47 81 be 9c 1b 87 be 89 f8 1f bf
       0.04135102 -0.2525003 -0.26388252 -0.6248861
000390 80 53 93 bd 4a 64 01 3e 8e c0 3c bb a2 9a 2d be
       -0.07193661 0.12635913 -0.0028801295 -0.16953519
0003a0 da 3a d5 bd 8d e2 57 be 3d a5 83 bd 36 e7 d1 3d
       -0.10411616 -0.21082516 -0.06428001 0.10249178
0003b0 2d 49 cf bd 5a 3c 6b be 3b a8 44 3d a2 ab 42 be
       -0.10121379 -0.22972241 0.048012 -0.19010785
0003c0 2c 7b 6a 3e 56 11 b8 be 3c b2 25 be 9e d2 87 3e
       0.22898549 -0.35950726 -0.16181272 0.26527876
0003d0 c9 df 30 bd 44 c4 12 3f 5c 87 d5 3c 39 2d 6c be
       -0.04318217 0.5733073 0.026065521 -0.23064126
0003e0 e2 38 43 3e 83 85 63 3d 0b b3 f8 3d 9d 2b 55 3d
       0.19064668 0.05554725 0.12143525 0.052043546
0003f0 23 5d 00 be 80 53 d4 3d 28 95 80 3d 52 ee eb 3e
       -0.12535529 0.10367489 0.06278449 0.4608026

fcs1_bn.running_var f4 [400]
000000 36 f8 34 40 d7 50 95 3f 7a 61 f9 3f ff 73 17 40
       2.8276496 1.1665295 1.9482872 2.3664548
000010 f9 8a 51 40 83 a2 dc 40 4c e2 d4 3f 8f 64 d4 3f
       3.2741072 6.894838 1.663156 1.6593188
000020 21 4d ee 3f b3 93 21 40 3b ce 29 40 36 bb 08 40
       1.8617288 2.5246398 2.6532123 2.1364264
000030 f6 b7 77 40 4b 51 33 3f 18 ac 7d 3f 05 3d 43 40
       3.870603 0.7004592 0.9909072 3.0505993
000040 7a 18 a1 40 8e 3a 66 40 48 a8 bf 3f eb 03 a8 3f
       5.034238 3.597324 1.497323 1.3126196
000050 49 32 bb 3f df 02 f9 40 00 be 5b 3f 2f 0e bc 3f
       1.4624721 7.7816005 0.8583679 1.4691828
000060 92 82 7b 3f 9e 08 9a 40 45 b7 61 3f 2c b5 7a 40
       0.9824611 4.813552 0.8817027 3.9173079
000070 05 c2 0a 40 09 ba 9f 3f ca 71 9d 40 8a a9 2e 3f
       2.168092 1.2478648 4.9201403 0.68227446
000080 4d cb a6 3f b9 6d 2f 3f cc ec c8 3f 82 7c 92 3f
       1.3030792 0.685268 1.5697265 1.1444247
000090 f6 5b 27 40 e3 5d e2 3f f9 a3 04 40 4b fa 1b 40
       2.6149879 1.7684902 2.072508 2.4371517
0000a0 42 a4 9c 40 10 9f c0 3f cb 9c 01 40 32 fc 98 40
       4.895051 1.5048542 2.025195 4.7807856
0000b0 18 06 eb 3f a8 7c 22 40 5e e8 f8 3f 10 dc 0e 40
       1.8361235 2.5388584 1.9445913 2.2321815
0000c0 18 d4 91 3f 72 24 65 40 84 fd 99 40 b7 37 19 40
       1.1392851 3.5803494 4.8121967 2.3940256
0000d0 91 14 23 40 6d 3b 88 3f 26 fa e8 3f 3d 91 9e 40
       2.5481303 1.0643135 1.8201339 4.9552293
0000e0 f0 e5 75 40 f2 22 19 40 5f 0f 85 3f 94 e4 8a 40
       3.8421593 2.392758 1.0395316 4.3404026
0000f0 2b ea 87 3f 1f 1b 11 40 a7 38 10 40 12 51 87 3f
       1.0618337 2.2672803 2.2534578 1.0571616
000100 b8 f0 2c 40 3f d7 a1 40 24 1e 0a 40 85 5d ea 3f
       2.7021923 5.057525 2.1580896 1.830979
000110 3d a1 b8 3f f3 87 ab 3f 52 ff 9f 3f f4 3a 97 40
       1.4424206 1.3400863 1.2499793 4.7259464
000120 4e dc 54 40 23 3d 01 40 2f 2c 1e 40 66 f9 99 3f
       3.3259463 2.0193565 2.4714468 1.2029235
000130 2c e5 b1 3f 82 d0 25 40 a2 92 56 40 ff de 08 40
       1.3898063 2.5908513 3.3526998 2.1386106
000140 b2 b5 13 3f 55 2f 61 40 03 62 7f 40 3b d0 01 40
       0.5769912 3.518514 3.9903572 2.0283344
000150 7d e5 06 40 5a 85 45 40 49 93 a3 3f e1 ff b4 3f
       2.1077569 3.0862641 1.2779323 1.4140588
000160 27 fd ba 3f 02 2c 3f 40 fc 70 9d 40 78 e4 7a 3f
       1.4608506 2.987061 4.920042 0.98004866
000170 2d da 9a 3f 8b a8 7e 40 63 f0 a0 3e 5a 61 dd 40
       1.2097832 3.979037 0.314334 6.9181337
000180 41 86 83 3f e1 63 22 40 aa 67 a2 40 7e 5f 82 40
       1.0275346 2.5373461 5.0751543 4.0741568
000190 74 e7 b0 40 a2 5e 42 3f 64 d0 d8 3f cf c0 9c 3f
       5.5282536 0.7592565 1.6938596 1.224634
0001a0 fc a7 6b 40 ec e3 0b 41 ee 32 43 40 1c 3d cd 3f
       3.682128 8.743145 3.0499835 1.6034274
0001b0 95 14 3f 3f f4 0a d9 3f 51 42 25 40 a3 5f 5b 3f
       0.7464078 1.6956468 2.5821726 0.85692805
0001c0 41 ce 4c 40 52 73 22 40 30 64 0e 41 bb 36 23 3f
       3.2000887 2.5382886 8.89946 0.6375539
0001d0 53 2b b2 40 13 10 ac 3f 96 d8 e8 3f 47 4d 1a 40
       5.5677886 1.3442405 1.8191097 2.4109666
0001e0 0d 09 a3 3f 62 b8 fa 3f 04 2a 99 3f bc 95 09 41
       1.2737137 1.9587519 1.1965947 8.599056
0001f0 aa 2a 3d 40 1a b9 1b 3f 51 2e 93 3f 66 a6 a3 3f
       2.955729 0.6082932 1.149851 1.2785156
000200 d6 e7 84 40 ae 9e 35 3f bf b5 b2 3f cf 4e 83 3f
       4.1533003 0.7094525 1.3961715 1.0258425
000210 e4 cc 15 40 3f 51 95 3f 25 7c 2b 3f ed 24 3d 3f
       2.3406305 1.1665419 0.66986305 0.7388447
000220 f0 f7 7d 3f 53 69 d2 3f 20 1e 21 40 37 28 bc 3f
       0.9920645 1.6438392 2.5174637 1.4699773
000230 2f 6b 00 40 ca cb 2b 3f a1 03 81 40 4e 2c 01 40
       2.006542 0.6710783 4.031693 2.0183291
000240 d7 82 29 3f 93 17 5e 3f 22 7d 62 3f 2f 8a 8c 40
       0.6621527 0.8675472 0.8847219 4.391868
000250 0f 04 58 3f 6f 79 89 3f 87 7c 74 40 b4 4d f5 3f
       0.8438119 1.0740184 3.8201005 1.9164338
000260 e4 23 c1 40 02 e7 4e 3f 70 ad 85 3f 07 0a 31 40
       6.035631 0.8082124 1.0443554 2.766237
000270 ff f7 48 40 d3 ab 94 3f ab d8 bd 3f b3 30 8a 40
       3.1401365 1.1614937 1.4831747 4.3184447
000280 06 4d 40 3f 46 07 ac 40 c2 41 99 3f 62 30 76 3f
       0.7511753 5.375888 1.1973193 0.96167576
000290 b4 89 d0 3f 95 32 19 40 f3 f6 15 40 64 e7 9f 3f
       1.6292024 2.3937123 2.3431976 1.249249
0002a0 cd 25 9a 40 8f d3 16 40 cc 8c 18 40 6f 90 24 3f
       4.8171144 2.3566625 2.3835936 0.6428289
0002b0 3a 3a e8 3f 28 37 96 3f 86 f9 42 40 92 84 f1 3f
       1.8142769 1.1735582 3.0464797 1.8868582
0002c0 9c 99 94 3f 39 15 59 40 d9 af b5 40 20 56 f8 40
       1.1609378 3.3919203 5.677716 7.7605133
0002d0 a2 ab cb 40 77 17 25 40 67 df 27 3f f7 ae 3d 40
       6.3647013 2.5795572 0.6557526 2.963804
0002e0 16 16 95 3f a7 3d c1 40 77 5c 77 3f 11 63 d8 3f
       1.1647365 6.038776 0.96625465 1.6905233
0002f0 5f ae 31 3f a6 9a b8 40 a2 77 87 3f f4 a0 ec 3f
       0.69406694 5.768878 1.0583384 1.8486619
000300 b4 90 7a 40 6b e4 74 3f 83 37 d4 40 b0 a2 dc 3f
       3.915082 0.9566104 6.6317763 1.7237148
000310 5e 07 26 40 7e d1 a4 40 6d 21 37 40 9a 21 30 40
       2.5941997 5.150573 2.8614151 2.7520509
000320 36 7d 06 40 5b 2a c6 40 60 12 14 40 92 fe 5f 3f
       2.1013923 6.1926703 2.3136215 0.8749782
000330 0e 48 3a 40 9b 4a 11 40 e9 8e 32 3f f3 54 99 3f
       2.9106479 2.2701786 0.69749314 1.197905
000340 1c 82 3f 3f 45 69 75 3f ef 6a 03 40 e6 2d 57 40
       0.74807906 0.95863754 2.0534017 3.3621764
000350 86 3d 38 40 ad 03 66 40 1f 90 9e 3f 36 ec aa 40
       2.878755 3.5939744 1.2387732 5.3413343
000360 8c c9 17 41 44 b3 d3 3f 33 45 1a 40 c3 88 8c 3f
       9.486706 1.6539083 2.4104736 1.0979236
000370 38 08 33 3f 1d b7 94 3f f6 01 dc 3f 97 ae 24 40
       0.69934416 1.1618382 1.7188098 2.573156
000380 5a 29 35 40 f4 19 09 40 fc a9 67 40 a6 d5 34 40
       2.830649 2.142209 3.61975 2.82554
000390 eb 8e f5 3e 44 08 00 3f fe 95 d9 3f 4a 67 52 40
       0.479606 0.5001261 1.6998899 3.2875543
0003a0 16 54 2e 40 1b 4d ed 3f 90 ec 96 3f f6 26 33 40
       2.7238822 1.8539156 1.1790943 2.799253
0003b0 14 45 8f 3f 8e 6c b8 3f 6c 02 de 3f 55 dd fb 3f
       1.1192956 1.4408128 1.7344489 1.967692
0003c0 9e 91 fd 3f d4 ec 8c 3f ec 44 d2 3f 29 56 ad 3f
       1.9810064 1.1009774 1.6427283 1.3541919
0003d0 d4 47 65 40 b2 e2 2b 40 ba 8f 0d 41 f4 6c 62 3f
       3.582509 2.6857114 8.8475895 0.884475
0003e0 30 b9 7b 3f 2c d5 01 3f 2e bd ce 3f 22 7b ac 40
       0.9832945 0.507159 1.6151483 5.390031
0003f0 39 b6 6b 40 0c ad cf 3f c9 37 b5 3f 8c 42 ac 3f
       3.682997 1.6224685 1.4157649 1.3457808

fc2.weight f4 [300, 404]
000000 fe c2 07 3d 04 4a 9a bd de 5c 5a 3d 30 59 18 bd
       0.033144943 -0.075336486 0.05331122 -0.03719443
000010 43 7b c7 bb ae ca 1b 3d f2 5d 96 bd c4 11 c7 3c
       -0.006087692 0.038035087 -0.073421374 0.024300463
000020 49 b9 61 3d 52 72 5e bd 39 75 17 3d 91 23 96 bd
       0.055108342 -0.054308243 0.036977027 -0.073310025
000030 9f 91 87 bd 76 8e f8 3c 16 6b 98 bb 58 bb aa bd
       -0.06619572 0.030341368 -0.0046514375 -0.08336514
000040 08 e2 c0 bd 26 24 b0 3d e9 f7 6e bd 6c f0 b4 bd
       -0.09418112 0.08600645 -0.058341894 -0.08834919
000050 b3 e6 1a 3c 42 87 f2 ba f4 8b 02 bd b9 98 98 3d
       0.009454417 -0.0018503445 -0.03187175 0.074510045
000060 5b 59 b3 bc 48 e0 9e bb 1e 8b 13 3d 18 94 08 bd
       -0.021893194 -0.0048485138 0.036021344 -0.03334436
000070 1a f4 9c bc 6f ff a3 bc 0b 3e 54 bd c8 0c c4 bd
       -0.019159365 -0.020019261 -0.05181698 -0.0957275
000080 8e 09 5d bd d5 3c 20 3c ff 29 f1 bc c9 b4 ef bc
       -0.05396419 0.0097801285 -0.02943897 -0.02926101
000090 b4 fb 1d 3d ea ad 96 bd 66 94 96 bb 6b d0 3d bc
       0.03857012 -0.0735739 -0.004595327 -0.011585335
0000a0 75 82 e6 bb 1e 83 48 bd 6c 37 6e bd 25 b1 c6 bd
       -0.0070345947 -0.048953168 -0.058158323 -0.097017564
0000b0 be db af 3c 2e e6 da bc eb 7b ee bc 00 12 c7 bd
       0.021467086 -0.026721086 -0.029111823 -0.0972023
0000c0 f3 ab 8e 3c 45 66 ab bd 7f 56 6d 3d fa 7f 12 3c
       0.017415976 -0.08369116 0.057943817 0.008941645
0000d0 83 12 a9 bd 55 88 d9 bc 31 b3 fc 3c 7d 83 a0 bc
       -0.08255484 -0.026554266 0.030847164 -0.019593948
0000e0 cb 41 4d bd ab e0 a1 bd ff 74 1e bd 87 04 04 bd
       -0.050111573 -0.0790418 -0.038685795 -0.03223088
0000f0 ad b1 8f bd 07 40 71 bd 48 c9 b1 3c 30 2c 84 bd
       -0.07016311 -0.05889895 0.021702424 -0.064537406
000100 3f e7 44 3d e5 9e f4 bc 63 57 70 3d fb a0 eb bc
       0.048072096 -0.029860923 0.05867709 -0.028763285
000110 ca 39 80 bd de 67 13 3c b0 08 dc bb 9a 44 8e bd
       -0.062610224 0.008996932 -0.006714903 -0.069466785
000120 df b9 9e 3c 5d 48 de bc 8c 80 ba bd 05 3c d6 bd
       0.01937574 -0.027134115 -0.091065496 -0.104606666
000130 49 34 12 3d 27 13 a1 bc de 98 18 3b ca 07 6a 3b
       0.035694394 -0.019662453 0.0023284475 0.003571021
000140 6b 7a 0e bd 66 95 b2 bc 96 66 01 bd e2 82 b0 bd
       -0.034784716 -0.021799754 -0.031591974 -0.08618714
000150 ea e8 e4 3b 7d 2b 9b bd d7 a5 b6 bd 1b 52 8f bd
       0.0069857733 -0.07576654 -0.0891835 -0.06998082
000160 a1 26 46 3d c4 1b 50 3d 38 0a c3 bc 12 ae 47 bc
       0.048376683 0.05080773 -0.023808584 -0.012187498
000170 48 e5 b2 bd 26 09 ec bd 4d 38 ab bc a3 18 70 3d
       -0.08735138 -0.115251824 -0.02090087 0.058617245
000180 b1 8c f6 bc 66 7f 64 bd 98 24 97 bd e9 30 8a bd
       -0.030096384 -0.05578556 -0.073800266 -0.0674761
000190 6b c3 51 3c 71 98 87 3c bf 84 5d bd ec ed a2 3d
       0.012802939 0.016552182 -0.054081675 0.07955536
0001a0 3b d3 8f bb 9a fa 4f bd fd a2 b0 bd af 91 82 3b
       -0.0043891943 -0.0507761 -0.086248375 0.003984652
0001b0 dd f8 9a bd 1e 3d 47 3d 4c 90 50 3c ee bd 17 3d
       -0.07566998 0.04864227 0.012729716 0.037046365
0001c0 21 83 a4 3b 76 0c 9c bc 74 42 8d bd a1 f2 a0 bd
       0.0050205146 -0.01904891 -0.068974406 -0.07858778
0001d0 f6 19 92 bd 11 84 b0 bd a2 31 2b 3d 92 ae 43 bd
       -0.07133858 -0.0861894 0.04179538 -0.047773905
0001e0 18 a3 04 be 8f 79 01 3c c8 49 e7 bd 26 49 83 bd
       -0.1295284 0.007902517 -0.112933695 -0.06410436
0001f0 05 3d 6b 3a ba 66 9c 3d 8b fd 47 bd 6b 75 13 3c
       0.0008973631 0.07636781 -0.04882578 0.009000163
000200 02 62 6e 3d e0 23 94 bd 24 6b 21 bd 33 8f 76 bc
       0.058198936 -0.07233405 -0.039408818 -0.01504879
000210 01 d8 3e 3d 36 b2 0e bd c0 5d 07 3d 85 05 56 3d
       0.046592716 -0.034837924 0.03304839 0.052251358
000220 03 6c 65 bc 48 c4 a3 3c 4b ff 36 bd ae 3f b0 3c
       -0.014002803 0.019991055 -0.04467706 0.02151474
000230 71 30 20 bd 92 8c f7 bb 3f 22 be bd 82 11 27 bd
       -0.039108697 -0.007554599 -0.09283876 -0.04078818
000240 39 fb b5 bc 72 27 0f bd 23 e8 b3 3d 33 b8 65 3d
       -0.022214519 -0.034949727 0.08784511 0.05608387
000250 23 c1 6e 3d 23 21 f0 3c a8 2a e8 bc a8 0b b7 bc
       0.05828966 0.029312676 -0.028340653 -0.022344425
000260 dd e7 05 be 83 c6 a3 3d 3d 3f 87 bd 6f 0e c9 3c
       -0.1307673 0.079968475 -0.066038586 0.024543015
000270 d7 a8 0a 3d 8a f7 4c bd 30 c4 e5 3c 4f 47 ae 3c
       0.033852424 -0.05004076 0.028047651 0.021274237
000280 1f 67 11 bd f2 15 2b 3d 58 61 82 3d 9a 7a e4 bc
       -0.035498735 0.041768976 0.06366223 -0.027890492
000290 b3 26 4c bd 5a a0 12 3a 20 d3 de bc 77 b8 54 bd
       -0.049841594 0.0005593352 -0.027200282 -0.051933732
0002a0 d4 e6 80 3c 53 58 78 bc 7e d2 c3 bd 78 ca a4 bc
       0.015735067 -0.015157777 -0.095616326 -0.020116076
0002b0 0b f3 88 bd ef e4 b7 bd f2 ed 12 3c 59 2e 12 3d
       -0.06686982 -0.089792125 0.008967863 0.03568873
0002c0 89 a7 80 3d 2f c8 81 3c 91 f4 2c 3c f5 1b 95 bd
       0.06281955 0.015842525 0.010556356 -0.07280723
0002d0 1e d4 26 bd 58 dc 33 bd 4e 7c 0a bd 94 e4 a4 bd
       -0.040729634 -0.043911308 -0.033809952 -0.0805141
0002e0 18 52 13 bd 2e 27 d0 bc ac 97 96 3c 5c d3 a3 3b
       -0.035966963 -0.025409307 0.01838287 0.0049995612
0002f0 3c d0 6a bd 7a d7 8d bd 29 7f c7 3b dd 98 07 3c
       -0.057327494 -0.069258645 0.0060881567 0.008276192
000300 d4 2c 89 39 69 92 37 bd 9f 66 91 3b 5d 23 e4 bc
       0.00026164076 -0.044817362 0.004437282 -0.027848894
000310 4a d2 49 3d 35 a4 1e bc 73 73 c9 3c 8c 38 31 3d
       0.049272813 -0.009682705 0.024591183 0.043266818
000320 2b 8f 61 3d f1 e0 2a bd 4d 4a 8c bd 38 a3 67 bd
       0.055068176 -0.041718427 -0.06850109 -0.056552142
000330 91 85 51 3c 78 2f 0f 3d 93 00 40 bd d4 92 bf bd
       0.012788192 0.03495738 -0.046875548 -0.09354177
000340 1b ca 40 3d d5 f0 d1 bd 28 1f 84 bc 87 e5 4f bd
       0.047067743 -0.10251013 -0.016128138 -0.050756004
000350 76 7e 7a 3c 6d fa 0c bc 18 7e 70 bd 16 10 3d bd
       0.01528894 -0.008604628 -0.058714002 -0.04615792
000360 b1 eb 83 bd a6 3a 25 3d 0e 96 06 3d 05 32 34 3d
       -0.06441439 0.040339135 0.032857947 0.043993015
000370 e3 dc f2 3c be 68 14 bd 03 12 c2 bd 05 ae 8f 3b
       0.029646343 -0.036232702 -0.09476092 0.0043847584
000380 44 01 94 3b 86 76 d5 3d 10 47 c5 3b fd 77 15 3b
       0.0045167524 0.10422997 0.006020434 0.0022807114
000390 c3 57 9b bc 62 5c 08 be 46 88 3e 3d 66 e4 46 bd
       -0.018962746 -0.13316491 0.04651668 -0.04855766
0003a0 3f 92 16 3d fd 59 0b bd 22 8a 33 bd da eb 1a bd
       0.036760565 -0.034021366 -0.043832906 -0.03782258
0003b0 4f 98 14 bd a8 09 58 3d 53 b9 2f bd 2c 1f 29 bd
       -0.036278065 0.052743584 -0.04290135 -0.041289493
0003c0 e2 c7 f4 bc 2b df 3c bd 5e 3e 05 bc cc 5f 0c 3d
       -0.029880468 -0.046111267 -0.008132545 0.034271047
0003d0 86 f0 31 bb 5d 52 18 bd a2 d3 f4 3b 03 c4 f8 ba
       -0.002715142 -0.037187923 0.0074715177 -0.0018979314
0003e0 54 c6 3d bd 2b 87 5a 3d 39 ef 65 bd 9c 01 40 bd
       -0.04633172 0.053351562 -0.056136344 -0.046876535
0003f0 6b 17 9a bc b9 d4 59 bd e4 ad 8f 3c 02 e7 a6 3d
       -0.018809995 -0.053181384 0.017538972 0.0814953
