agent_checkpoints/checkpoint_actor_1.pth (torch_old, 553585 bytes, 14 tensors)

fc1.weight f4 [400, 33]
0	0x3d8deabe	0.06929539
1	0x3d213d10	0.039364874
2	0xbd8911fe	-0.06692885
3	0xbd04dc7f	-0.032436844
4	0xbc8f5fa0	-0.017501652
5	0x3c67f2b7	0.014156989
6	0x3c9ed594	0.019388951
7	0x3d1c41ef	0.038148817
8	0xbc48fce9	-0.01226733
9	0xbcb3e68b	-0.021960517
10	0xbc8e294a	-0.017353673
11	0x3cff135b	0.03113716
12	0x3d363c7e	0.044491284
13	0x3d608fc7	0.054824617
14	0x3c796bd7	0.015223465
15	0xbc4f2e77	-0.012645355
16	0x3d55a710	0.052161276
17	0xbae55a01	-0.0017498137
18	0xbc551259	-0.013004863
19	0x3cafb992	0.021450792
20	0x3bd09f51	0.0063666482
21	0x3caba351	0.020951899
22	0x3d39d71d	0.045371164
23	0x3b87c8f6	0.0041438295
24	0x3d2ec559	0.042668674
25	0x3d613871	0.054985467
26	0xbd12fd95	-0.035886366
27	0xbd284afb	-0.041087132
28	0x3cbab8a3	0.02279312
29	0xbd0ba60d	-0.034093905
30	0x3d54eebf	0.0519855
31	0x3979c800	0.00023820996
32	0xbd4db4f2	-0.05022139
33	0x3d67606a	0.056488432
34	0x3c1b3138	0.009472184
35	0xbd9c0430	-0.07617986
36	0x3d73d46f	0.059528764
37	0x3d8c39e1	0.06846977
38	0x3caf66d1	0.021411331
39	0xbd1624de	-0.036656253
40	0xbbffa9a0	-0.0078022033
41	0x3bfb9ea4	0.0076788235
42	0xbd46cee5	-0.048537154
43	0x3d388fb6	0.04505893
44	0xbc9f6732	-0.019458387
45	0xbd07047d	-0.032963265
46	0xbc9d310c	-0.019188426
47	0x3ca33e3d	0.019927138
48	0xbd863f77	-0.06555074
49	0xbc999233	-0.018746471
50	0x3d102e1a	0.035200216
51	0xbcf4fa6e	-0.02990457
52	0xbd6cf0e6	-0.057846926
53	0xbd2992dc	-0.04139982
54	0xbd40052a	-0.046879925
55	0x3cfe447c	0.031038515
56	0x3cdd448c	0.027010225
57	0xbd0b2a7f	-0.033976074
58	0xbcd79a06	-0.026318561
59	0x3c973d32	0.018461797
60	0x3c90d38e	0.017679002
61	0xbcd59b6a	-0.026075084
62	0xbad05260	-0.001589369
63	0x3cd45e51	0.02592388
64	0x3cf4c806	0.029880535
65	0xbc0542f6	-0.0081336405
66	0xbc7fd71b	-0.01561525
67	0xbce053db	-0.027383735
68	0xbce65bd8	-0.028119966
69	0x3d49ddf4	0.049283937
70	0x3c877084	0.016533144
71	0xbc6c2263	-0.014412495
72	0x3d194280	0.037416935
73	0xbcc36aa6	-0.023854565
74	0xbd61cb48	-0.055125505
75	0xbbb5ce82	-0.0055482993
76	0x3ce8db92	0.028425012
77	0xbd4315c2	-0.04762817
78	0x3b71bd57	0.0036886537
79	0x3d61af97	0.055099096
80	0xbd36902f	-0.044571098
81	0xbd02c8fb	-0.03192995
82	0x3da61062	0.081085935
83	0xbcc68a79	-0.02423595
84	0xbd260279	-0.0405297
85	0x3cf5b3c6	0.02999295
86	0xbcb7f6ba	-0.022456516
87	0xbd7418e6	-0.059594058
88	0xbd1aca64	-0.03779067
89	0xbab862f9	-0.0014067582
90	0x3d1acc08	0.037792236
91	0x3d09065b	0.033453327
92	0xbd031d1f	-0.032010194
93	0xbcac87c9	-0.021060841
94	0x3b9a4e1a	0.0047090175
95	0x3b82a458	0.0039868765
96	0x3d5c249f	0.053745862
97	0xbceda79a	-0.029010583
98	0x3ccaf599	0.024775313
99	0x3da3f9bd	0.08006618
100	0x3aff8967	0.0019495905
101	0xbd6dc31f	-0.05804741
102	0x3d79a7a1	0.06095088
103	0x3d96337c	0.073340386
104	0x3d83cc5b	0.06435462
105	0x3d191ba2	0.03737987
106	0x3c9d4d6c	0.019201957
107	0x3d232f65	0.03984012
108	0xbb71e465	-0.0036909815
109	0xbd30dcb0	-0.043179214
110	0xbcbb9d85	-0.02290226
111	0xbcc0a0bf	-0.02351415
112	0x3d970adf	0.0737512
113	0xbd10a181	-0.035310272
114	0xbd40c6e5	-0.04706468
115	0x3d5819e2	0.05275906
116	0x3d338a9e	0.043833368
117	0x3d218c83	0.039440643
118	0x3c64a458	0.013955198
119	0x3c5eca6b	0.013598065
120	0x3d142c23	0.036174905
121	0x3c93c04d	0.018036032
122	0xbd28fccc	-0.04125671
123	0x3ce7f1b6	0.028313499
124	0x3c9a4b5f	0.018834768
125	0xbd2e648e	-0.042576365
126	0xbcadb5c7	-0.021204842
127	0xbd05e946	-0.03269317
128	0xbd4aba52	-0.049494095
129	0x3ca6b607	0.02035047
130	0xbc802f4c	-0.015647553
131	0x3a960281	0.0011444838
132	0x3ca7756a	0.02044173
133	0x3d32825c	0.04358135
134	0xbd3158d9	-0.043297622
135	0x3b4612e5	0.0030223664
136	0xbc316d2d	-0.010829252
137	0xbcc27a6b	-0.023740014
138	0xbc5d71fd	-0.013515946
139	0xbcce62ea	-0.02519365
140	0xba5b862c	-0.000837418
141	0x3d4dded6	0.05026134
142	0xbc8f4399	-0.017488288
143	0xbd6aa90c	-0.057290122
144	0x3cadf2c8	0.021233931
145	0x3c486a9f	0.012232452
146	0x3cb7ed8b	0.022452137
147	0xbd0e2f6b	-0.03471319
148	0xbd58f848	-0.052971154
149	0x3d057f72	0.032592244
150	0xbd5be51b	-0.05368529
151	0xbcb9e0c0	-0.022690177
152	0xbd1da1bd	-0.038484324
153	0xbd11aeff	-0.03556728
154	0xbc7a728b	-0.015286098
155	0x3d8bc138	0.06823963
156	0x3d01759d	0.031606305
157	0xbd8614ea	-0.06546958
158	0x3cf9a985	0.030476341
159	0x3d187779	0.037223313
160	0xbd1ded28	-0.038556248
161	0x3d0cfe95	0.034422476
162	0xbc2665a1	-0.010156066
163	0x3cf82b42	0.030294064
164	0x3da58210	0.08081448
165	0x3d240676	0.040045224
166	0xbcd862c9	-0.026414292
167	0xbd84efb6	-0.06491034
168	0x3b858245	0.004074367
169	0xbab2ecbb	-0.0013650873
170	0x3c96b9eb	0.0183992
171	0x3b6c6f53	0.0036077097
172	0xbd00c398	-0.031436533
173	0xbd41d51c	-0.047322378
174	0x3d6d09dc	0.05787073
175	0x3d7ee2cb	0.062228005
176	0xbb12cd29	-0.0022400117
177	0xbd566d8a	-0.05235056
178	0xbcd47f55	-0.025939623
179	0x3d35555f	0.04427087
180	0xbd2ff017	-0.042953577
181	0xbd0ced11	-0.03440577
182	0xbd234d85	-0.03986885
183	0xbd287bc4	-0.041133657
184	0x3cd9b9a7	0.026577784
185	0x3c5dbbab	0.013533513
186	0x3cf69049	0.030098097
187	0xbb11fa07	-0.0022274272
188	0x3d7558f6	0.059899293
189	0x3b95ccfc	0.004571555
190	0x3cd98356	0.026551884
191	0x3caf1f5b	0.021377256
192	0xbcd4d429	-0.025980072
193	0x3cd260c0	0.0256809
194	0xbcc6ee8a	-0.024283666
195	0x3b7dbecf	0.0038718467
196	0x3d18e399	0.03732643
197	0x3cb611b1	0.022225233
198	0xbd90c3df	-0.070686094
199	0x3c0029fa	0.007822508
200	0x3d2a8ee4	0.041640177
201	0x3cab32db	0.020898273
202	0xba4afa0c	-0.00077429484
203	0x3c680879	0.014162176
204	0xbd49cb46	-0.049266122
205	0x3d5480a1	0.051880483
206	0x3bae2e66	0.0053155897
207	0x3d100299	0.035158727
208	0xbc96e907	-0.018421663
209	0xbd087b81	-0.033320908
210	0xbb8105a1	-0.0039374386
211	0xbd637584	-0.055531994
212	0xbce19cd8	-0.02754061
213	0x3cac62ef	0.021043269
214	0xbd071972	-0.03298325
215	0xbbacdc99	-0.0052753207
216	0xbcdec60c	-0.027194045
217	0x3aa52209	0.0012598644
218	0x3c9b9132	0.018990133
219	0x3ca2e190	0.019882947
220	0xbc9efcde	-0.019407686
221	0x3d940282	0.07227041
222	0x39eb786f	0.00044912423
223	0xbc32f233	-0.010922003
224	0x3caf9c39	0.021436797
225	0xbd8231c6	-0.0635715
226	0x3d8f3a38	0.06993526
227	0xbbc37b90	-0.0059656575
228	0x3b8c7111	0.0042859395
229	0x3d21909d	0.039444555
230	0x3d1ce7b8	0.03830692
231	0xbb712b02	-0.0036799316
232	0x3be2eec1	0.0069254343
233	0x3c37dc64	0.011221979
234	0x3daed05e	0.08535837
235	0x3ac1c6ad	0.0014783941
236	0x3d603975	0.054742295
237	0xbd34d743	-0.044150602
238	0x3d851465	0.064980306
239	0x3cf13571	0.029444428
240	0xba2597fb	-0.00063168973
241	0xbc009798	-0.007848643
242	0x3d1abb8e	0.037776522
243	0xbcce4575	-0.025179604
244	0xb8bbee44	-8.961235e-05
245	0x3c959bc3	0.01826275
246	0xbc5abad0	-0.013350204
247	0x3c92f85e	0.017940696
248	0x3c88b968	0.016689971
249	0x3b2c5f11	0.0026301781
250	0xbc3a1ccb	-0.011359404
251	0xbcf26960	-0.029591262
252	0x3cf80f5c	0.030280761
253	0x3c1d92e0	0.009617537
254	0x3d5c164d	0.053732205
255	0x3d46f5e3	0.04857434

fc1.bias f4 [400]
0	0x3db5f519	0.08884639
1	0x3e2767b5	0.16348155
2	0x3dc4038f	0.09570991
3	0x3da34eb4	0.07973996
4	0xbe0ed05a	-0.13946667
5	0x3e08fc30	0.13377452
6	0x3c990cc5	0.018682847
7	0x3d971880	0.0737772
8	0xbda10e3c	-0.07864043
9	0xbe046315	-0.12928422
10	0xbe35c69b	-0.17751543
11	0xbd85b890	-0.06529343
12	0xbe255e6a	-0.16149297
13	0xbe2cdbbb	-0.16880696
14	0x3e363966	0.17795333
15	0x3da746e2	0.08167817
16	0xbb0d8c7e	-0.0021598632
17	0xbe03832d	-0.12843008
18	0xbdbe3a59	-0.09288473
19	0xbe23367d	-0.15938754
20	0xbd17795a	-0.036980964
21	0x3e2ad649	0.16683306
22	0xbcc894aa	-0.024484951
23	0x3d299a29	0.041406784
24	0xbc9e15d1	-0.019297512
25	0x3e099ad0	0.13437963
26	0x3e3befa2	0.18353131
27	0xbd91affa	-0.07113643
28	0xbdb91880	-0.09037876
29	0x3e0a32bc	0.13495916
30	0x3e3070d8	0.17230546
31	0x3d97c8f1	0.074113734
32	0xbd85a4c9	-0.06525571
33	0xbd10a120	-0.03530991
34	0x3defd7d9	0.117110915
35	0x3d85293e	0.06502007
36	0xbd6bf561	-0.05760706
37	0x3dad3c78	0.08458799
38	0x3d02d061	0.031937007
39	0xbd0fb9ca	-0.03508929
40	0xbd93be7d	-0.07214067
41	0x3d1af12d	0.03782766
42	0x3d1f2e9c	0.03886281
43	0x3e3df7c0	0.1855154
44	0xbcb88631	-0.022524925
45	0x3ca2fa36	0.0198947
46	0x3db85bc8	0.09001881
47	0x3de12214	0.10992828
48	0x3dd87351	0.1056887
49	0xbdab9d57	-0.083796196
50	0x3e34d376	0.17658791
51	0x3d711434	0.058857158
52	0x3e417832	0.18893507
53	0xbde60371	-0.11231125
54	0x3e1f8a21	0.15580036
55	0x3e1c0843	0.15237527
56	0xbd899f12	-0.067197934
57	0xbdd4a48e	-0.10382949
58	0x3d67ebcf	0.05662137
59	0x3e14fd9e	0.14549872
60	0xbddf3059	-0.108978935
61	0x3da0e83f	0.078567974
62	0x3d7a0154	0.061036423
63	0x3e11c60f	0.1423571
64	0x3e44520d	0.19171925
65	0x3dbc6aec	0.09200081
66	0x3af7023d	0.0018845272
67	0xbb95bc2f	-0.0045695524
68	0x3e2021d1	0.156379
69	0xbd9e0469	-0.07715685
70	0xbbba7042	-0.0056896517
71	0xbdc31f7d	-0.0952749
72	0xbe1ce3bf	-0.15321253
73	0x3e44f029	0.19232239
74	0x3e094e7e	0.13408849
75	0x3d6d14f6	0.057881318
76	0x3e2fd3d1	0.17170645
77	0x3e25b6e3	0.16183047
78	0x3e1129e7	0.1417614
79	0xbdbbb096	-0.091645405
80	0x3e12451b	0.14284174
81	0x3c86db87	0.0164621
82	0x3e51524f	0.20441554
83	0x3e2fa3bd	0.17152305
84	0x3d396394	0.04526098
85	0xbd6c39e6	-0.057672404
86	0x3e2dc5e2	0.16970018
87	0xbe0c35ee	-0.13692448
88	0xbdd6e70e	-0.10493289
89	0x3d312b86	0.043254398
90	0x3d54ef7b	0.0519862
91	0xbdc411ba	-0.095736936
92	0xbd8c575c	-0.068526
93	0x3d42c620	0.047552228
94	0xbca8241a	-0.020525027
95	0xbdec9967	-0.11552697
96	0x3e12a5d7	0.14321075
97	0x3e2cb14a	0.16864505
98	0x3c0ac82c	0.008470576
99	0x3dd9de22	0.106380716
100	0x3d33bae0	0.04387939
101	0x3e058976	0.13040718
102	0x3b1746a0	0.0023082867
103	0x3d715359	0.058917377
104	0x3e020e85	0.12700851
105	0xbd0b5ba4	-0.034022942
106	0x3e189c78	0.14903438
107	0x3d5ce79f	0.05393183
108	0xbdeb6acd	-0.1149498
109	0x3e0e31b7	0.13886152
110	0xbd0f17e0	-0.03493488
111	0xbdccfc96	-0.100091144
112	0xbd1e6022	-0.0386659
113	0xbe1d0ee9	-0.15337719
114	0xbd2873f5	-0.04112621
115	0xbcaa10ba	-0.020759929
116	0xbda14b8e	-0.07875739
117	0x3e45faf3	0.19334011
118	0x3e1a0db8	0.15044296
119	0x3d91bb60	0.07115817
120	0x3e30b489	0.17256369
121	0xbd35b3ba	-0.044360854
122	0x3dd4c75d	0.10389588
123	0x3e1a2b86	0.15055665
124	0x3e35571f	0.17709015
125	0x3dafe1db	0.085880004
126	0x3d925034	0.07144204
127	0x3e4837d9	0.19552554
128	0x3e067bc0	0.13133144
129	0xbdbca6eb	-0.092115246
130	0x3e1fc427	0.1560217
131	0xbd26faac	-0.040766403
132	0x3defe585	0.11713699
133	0xbe14f685	-0.14547165
134	0x3e2d0c1e	0.16899154
135	0x3e2b94dd	0.16756006
136	0xbc5e65b7	-0.013574055
137	0x3e1c6a60	0.15274954
138	0x3d4c8214	0.04992874
139	0xbd9e89fc	-0.07741162
140	0x3da71c93	0.08159747
141	0xbdd0145d	-0.10160134
142	0xbd8b1d88	-0.06792742
143	0x3e49ff93	0.197264
144	0x3cf6ad9e	0.030112084
145	0xbd8e5812	-0.06950392
146	0xbe43aafa	-0.19108191
147	0x3c1fed90	0.009761229
148	0x3d585afd	0.05282115
149	0x3c7134b8	0.014722042
150	0x3d31b121	0.043381814
151	0x3e06464e	0.13112757
152	0xbe12c2d7	-0.14332138
153	0x3d434a30	0.047678173
154	0xbca5bc81	-0.020231487
155	0xbe03c27a	-0.12867156
156	0xbe193ff6	-0.14965805
157	0xbcb293c4	-0.021798976
158	0xbe2863a0	-0.16444254
159	0x3e33b318	0.17548788
160	0xbdf774e6	-0.120828435
161	0x3c9392e2	0.018014375
162	0xba45529a	-0.0007527262
163	0xbda7a06b	-0.08184894
164	0x3e4cede0	0.20012617
165	0xbd12d976	-0.03585192
166	0xbd1870e9	-0.037217055
167	0x3e33ced6	0.1755937
168	0x3de8a605	0.11359791
169	0xbd32f877	-0.043693986
170	0xbe1ab54a	-0.15108219
171	0xbd298b77	-0.04139277
172	0xbd2948bb	-0.041329127
173	0xbdae3817	-0.08506792
174	0x3dd7f646	0.1054502
175	0xbcf837ad	-0.030299986
176	0x3d1dfe34	0.038572505
177	0x3e200afb	0.15629189
178	0x3cdf04f2	0.027224038
179	0x3e411bf0	0.18858314
180	0x3dee647b	0.11640259
181	0xbe052ab3	-0.1300457
182	0x3dff06b5	0.12452451
183	0xbd62ed32	-0.05540199
184	0x3df8aee6	0.12142734
185	0x3daa3ed0	0.08312762
186	0xbda3f3b6	-0.080054685
187	0xbd63ef09	-0.055647884
188	0xbe09de54	-0.13463718
189	0xbe1a92c1	-0.15095045
190	0xbd959899	-0.07304496
191	0x3d819c68	0.0632866
192	0xbce285c0	-0.027651668
193	0x3daa4ff3	0.0831603
194	0xbe07ac6f	-0.13249372
195	0x3cb9f5d2	0.022700224
196	0xbd731021	-0.059341554
197	0x3d8bddc9	0.068294115
198	0xbdccb93b	-0.099962674
199	0x3ddef361	0.108862646
200	0xbdaaeec6	-0.08346324
201	0x3c92579a	0.017864037
202	0xbd855291	-0.06509889
203	0x3e30bd5f	0.1725974
204	0x3d0b0d8e	0.033948474
205	0x3e06adcd	0.13152237
206	0xbd149443	-0.036274206
207	0x3e4260c3	0.18982224
208	0xbd398aed	-0.045298506
209	0x3de81785	0.11332611
210	0x3e461b4d	0.19346352
211	0xbdbe69b4	-0.09297505
212	0x3d52c859	0.051460598
213	0x3d710069	0.05883828
214	0x3cd2fde6	0.025755834
215	0x3decfa85	0.1157122
216	0x3e265bbe	0.16245934
217	0x3ae9a2f8	0.0017825058
218	0x3d9cda64	0.07658842
219	0x3e23247e	0.1593189
220	0xbe173578	-0.1476649
221	0x3df06946	0.11738829
222	0xbc3f3055	-0.011669238
223	0xbdfef7ef	-0.12449633
224	0x3d9dfb42	0.07713939
225	0xbdab65cd	-0.08369026
226	0xbe0d295f	-0.13785313
227	0xbbcaa42c	-0.0061841216
228	0x3d498fbb	0.049209338
229	0x3d924975	0.07142917
230	0xbd93e537	-0.07221454
231	0x3e44995f	0.19199131
232	0xbdfa966d	-0.12235723
233	0xbe15d423	-0.14631705
234	0x3dc14784	0.09437469
235	0x3e4e6971	0.2015741
236	0x3e32576e	0.17416164
237	0x3e146452	0.14491394
238	0x3d32a76f	0.04361671
239	0xbd84f4b0	-0.06491983
240	0xbdd46cf7	-0.10372346
241	0xbe10d8b3	-0.14145164
242	0x3d13d1e9	0.036088858
243	0x3d172422	0.036899693
244	0x3c5eb1b3	0.0135921715
245	0xbd106b54	-0.035258606
246	0x3b89fc18	0.00421096
247	0xbdabaa59	-0.083821006
248	0xbd14f9e0	-0.036371112
249	0x3e1ecebd	0.15508552
250	0xbdca236d	-0.09870038
251	0x3c555112	0.013019817
252	0xbdf8280b	-0.121170126
253	0xbd0cef04	-0.03440763
254	0x3dd5d26e	0.10440527
255	0x3dbd53a5	0.092444696

fc1_bn.weight f4 [400]
0	0x3f6a41ef	0.91506857
1	0x3f1e7798	0.61901236
2	0x3f0ead5b	0.5573327
3	0x3f1c1c4a	0.60980666
4	0x39d13800	0.0003990531
5	0x3efabc20	0.48971653
6	0x3f54ac38	0.83075285
7	0x3f3adb35	0.72990733
8	0x3f6cbe9c	0.92478347
9	0x3f2afa68	0.6678834
10	0x3f1e85a6	0.6192268
11	0x3f0d4add	0.5519236
12	0x3f0797de	0.52966106
13	0x3f55cfc5	0.83520156
14	0x3ea8b004	0.3294679
15	0x3f5d8cfc	0.8654325
16	0x3c56f9c0	0.0131210685
17	0x3eef7652	0.4676996
18	0x3f182720	0.594347
19	0x3cc4f7a0	0.024043858
20	0x3dae11d0	0.08499491
21	0x3f501357	0.8127951
22	0x3e3ec17c	0.18628496
23	0x3f7ec010	0.99511814
24	0x3f47534e	0.7786149
25	0x3ed8a9de	0.42317098
26	0x3f736c36	0.9508699
27	0x3e4e2840	0.20132542
28	0x3d086e40	0.033308268
29	0x3f36fda9	0.71480805
30	0x3e36b168	0.17841113
31	0x3f596897	0.84925216
32	0x3f2e1074	0.67993855
33	0x3eb60b58	0.3555553
34	0x3f28c8c4	0.65931344
35	0x3dc75ad8	0.09734124
36	0x3ec06ce4	0.37583077
37	0x3e85ec3a	0.2615679
38	0x3dec0fe8	0.115264714
39	0x3f1a020e	0.60159385
40	0x3e9d1d1e	0.30686277
41	0x3f2c2d71	0.6725684
42	0x3f5bd894	0.85877347
43	0x3ed2a6bc	0.41142833
44	0x3f05bc15	0.52240115
45	0x3f7f46a6	0.99717176
46	0x3f6849be	0.9073752
47	0x3eae23a4	0.34011567
48	0x3ebfa2e2	0.37428957
49	0x3edc1372	0.42983586
50	0x3eb63dce	0.35594028
51	0x3f51cb71	0.8195105
52	0x3f6485fc	0.89266944
53	0x3f106553	0.5640461
54	0x3e5be65c	0.21474594
55	0x3e3aed24	0.18254524
56	0x3f58b144	0.84645486
57	0x3f052f55	0.5202535
58	0x3d99de50	0.07513106
59	0x3e0cd5ec	0.1375348
60	0x3ee0923a	0.43861562
61	0x3e33b10c	0.17548007
62	0x3f4a8cb7	0.79120964
63	0x3e145468	0.14485323
64	0x3ea40110	0.3203206
65	0x3f20f232	0.6286956
66	0x3f24d6bc	0.6439016
67	0x3e1c3b28	0.15256941
68	0x3f56fd84	0.83980584
69	0x3f0fdd93	0.5619747
70	0x3da62da8	0.08114177
71	0x3f74d6de	0.9564036
72	0x3f140dff	0.57833856
73	0x3ec08834	0.37603915
74	0x3ecd725e	0.40126318
75	0x3f4bd53e	0.79622257
76	0x3f16d13b	0.5891301
77	0x3ea63188	0.32459664
78	0x3f3ff2ae	0.74979675
79	0x3f533c9c	0.8251436
80	0x3e4f9600	0.20272064
81	0x3f7f8d97	0.99825424
82	0x3d5325f0	0.051549852
83	0x3d1df910	0.038567603
84	0x3eb12fe4	0.3460685
85	0x3b245c00	0.002507925
86	0x3f213dff	0.62985224
87	0x3f1f82c8	0.6230893
88	0x3f4b5baa	0.79436743
89	0x3f56df0e	0.83934104
90	0x3caa2cc0	0.020773292
91	0x3e8f6bd6	0.2801196
92	0x3eddf466	0.43350524
93	0x3f7c4022	0.9853536
94	0x3edc92da	0.4308079
95	0x3edbafda	0.42907602
96	0x3f4c656e	0.7984227
97	0x3f27ec2e	0.65594757
98	0x3ee7b80a	0.45257598
99	0x3e8399fe	0.25703424
100	0x3f3db6bc	0.74106956
101	0x3ebd2a6a	0.36946422
102	0x3ed6557a	0.41862088
103	0x3f1eee97	0.6208281
104	0x3e564858	0.20926034
105	0x3f765bfc	0.96234107
106	0x3d846708	0.06464964
107	0x3ebdc872	0.3706699
108	0x3cc9cf60	0.024635017
109	0x3eeb82de	0.4599828
110	0x3f18b4eb	0.5965106
111	0x3f285208	0.6575017
112	0x3ee0de3e	0.43919557
113	0x3f1235e7	0.571135
114	0x3ee4403e	0.44580263
115	0x3f2ef8f8	0.68348646
116	0x3f524f38	0.8215213
117	0x3eb4924a	0.3526786
118	0x3ee01ecc	0.43773496
119	0x3f042b68	0.5162873
120	0x3f1c3ea3	0.61033076
121	0x3f03ae28	0.51437616
122	0x3eda733a	0.42666036
123	0x3f217acc	0.63078
124	0x3e70902c	0.23492497
125	0x3ee5fff2	0.44921833
126	0x3ed64536	0.4184968
127	0x3f23ba92	0.6395656
128	0x3f053c6c	0.5204532
129	0x3cdcd7e0	0.026958406
130	0x3f48ab02	0.7838594
131	0x3ea22c24	0.31674302
132	0x3f33c796	0.7022642
133	0x3eee1d18	0.46506572
134	0x3eeb900a	0.4600833
135	0x3f519d67	0.818808
136	0x3f119bd8	0.56878424
137	0x3f4f2a13	0.80923575
138	0x3eef6d18	0.4676292
139	0x3f7a7318	0.9783187
140	0x3e805fd6	0.25073117
141	0x3df971a0	0.121798754
142	0x3e91826a	0.2841981
143	0x3f055d03	0.5209505
144	0x3f14a3a1	0.5806218
145	0x3e1e3b28	0.15452254
146	0x3e3d2088	0.18469441
147	0x3f067317	0.52519363
148	0x3f0f743c	0.56036735
149	0x3eafa8d8	0.34308505
150	0x3ea369ea	0.31916744
151	0x3f09e680	0.5386734
152	0x3c404700	0.011735678
153	0x3f270946	0.65248525
154	0x3ed05b86	0.40694827
155	0x3f014a7b	0.50504273
156	0x3f01ba77	0.5067515
157	0x3ee4ca8a	0.44685775
158	0x3edd04ec	0.43167818
159	0x3f70f409	0.9412237
160	0x3f605e8d	0.87644273
161	0x3f15193d	0.58241636
162	0x3f235c96	0.6381315
163	0x3f39c285	0.7256244
164	0x3ea4f1d8	0.32215762
165	0x3f58a266	0.846228
166	0x3f242a70	0.64127254
167	0x3f74c8f7	0.9561915
168	0x3f128147	0.5722851
169	0x3f0d7de5	0.55270225
170	0x3f166311	0.58744913
171	0x3f07cca5	0.5304664
172	0x3b550600	0.0032504797
173	0x3e4abc70	0.19798446
174	0x3ed4dadc	0.41573226
175	0x3e7c52e4	0.24640995
176	0x3edc30e4	0.4300605
177	0x3f21aff5	0.63159114
178	0x3f04a44d	0.51813203
179	0x3ebd336c	0.36953294
180	0x3e275dc4	0.16344362
181	0x3f0bf28c	0.5466697
182	0x3dbe2138	0.0928368
183	0x3f315edc	0.6928537
184	0x3e4324c0	0.19056988
185	0x3f0cfbf8	0.55071974
186	0x3eb6889c	0.356511
187	0x3f183150	0.59450245
188	0x3f06a8bb	0.5260121
189	0x3ee16038	0.44018722
190	0x3f7345d2	0.9502841
191	0x3f519411	0.81866556
192	0x3f7875f3	0.97054976
193	0x3e869cc8	0.2629149
194	0x3d1653f0	0.036701143
195	0x3d8c5838	0.06852764
196	0x3f35d92f	0.7103452
197	0x3f1e2cd4	0.6178715
198	0x3e19cf64	0.1502052
199	0x3f19a892	0.6002284
200	0x3f7ad134	0.9797547
201	0x3f50269d	0.8130892
202	0x3e231030	0.15924144
203	0x3f123c1b	0.57122964
204	0x3f375ae6	0.71623075
205	0x3f25fdbb	0.64840287
206	0x3f6dcf00	0.9289398
207	0x3f299407	0.66241497
208	0x3e2eb344	0.17060572
209	0x3d54e820	0.051979184
210	0x3f52a548	0.8228345
211	0x3efd2d72	0.49448735
212	0x3f5cda7a	0.8627087
213	0x3e48532c	0.19562978
214	0x3f368178	0.71291304
215	0x3ea0845c	0.31350982
216	0x3f259b88	0.64690447
217	0x3f179751	0.59215266
218	0x3e483890	0.19552827
219	0x3f295ad7	0.66154236
220	0x3edff58e	0.4374203
221	0x3f16eb72	0.5895301
222	0x3eea3772	0.45745426
223	0x3ed5bc68	0.41745305
224	0x3dc93928	0.09825355
225	0x3efec28e	0.49757808
226	0x3f34ae48	0.7057843
227	0x3f1cc043	0.6123087
228	0x3f417f62	0.75584996
229	0x3e9a3a74	0.3012272
230	0x3f35717d	0.70876294
231	0x3e810c46	0.25204676
232	0x3f2383ba	0.63872874
233	0x3c45cb80	0.012072444
234	0x3f0a96d2	0.54136384
235	0x3ef0b1ec	0.47010744
236	0x3e819c00	0.2531433
237	0x3d11a010	0.035553038
238	0x3f68cccb	0.9093749
239	0x3f63c5d7	0.88973755
240	0x3f6350a9	0.8879495
241	0x3ef42dc4	0.47691166
242	0x3f4919e3	0.78555125
243	0x3f48be15	0.7841504
244	0x3df7e360	0.12103915
245	0x3f17be13	0.59274405
246	0x3d95d770	0.07316482
247	0x3e96b6ea	0.29436427
248	0x3f6af024	0.91772676
249	0x3ee83e6c	0.45360124
250	0x3f447930	0.7674742
251	0x3d6c6c70	0.0577206
252	0x3ef37e7e	0.47557443
253	0x3e05ef98	0.13079679
254	0x3f76b491	0.9636927
255	0x3e9fbdd8	0.31199527

fc1_bn.bias f4 [400]
0	0x00000000	0.0
1	0x00000000	0.0
2	0x00000000	0.0
3	0x00000000	0.0
4	0x00000000	0.0
5	0x00000000	0.0
6	0x00000000	0.0
7	0x00000000	0.0
8	0x00000000	0.0
9	0x00000000	0.0
10	0x00000000	0.0
11	0x00000000	0.0
12	0x00000000	0.0
13	0x00000000	0.0
14	0x00000000	0.0
15	0x00000000	0.0
16	0x00000000	0.0
17	0x00000000	0.0
18	0x00000000	0.0
19	0x00000000	0.0
20	0x00000000	0.0
21	0x00000000	0.0
22	0x00000000	0.0
23	0x00000000	0.0
24	0x00000000	0.0
25	0x00000000	0.0
26	0x00000000	0.0
27	0x00000000	0.0
28	0x00000000	0.0
29	0x00000000	0.0
30	0x00000000	0.0
31	0x00000000	0.0
32	0x00000000	0.0
33	0x00000000	0.0
34	0x00000000	0.0
35	0x00000000	0.0
36	0x00000000	0.0
37	0x00000000	0.0
38	0x00000000	0.0
39	0x00000000	0.0
40	0x00000000	0.0
41	0x00000000	0.0
42	0x00000000	0.0
43	0x00000000	0.0
44	0x00000000	0.0
45	0x00000000	0.0
46	0x00000000	0.0
47	0x00000000	0.0
48	0x00000000	0.0
49	0x00000000	0.0
50	0x00000000	0.0
51	0x00000000	0.0
52	0x00000000	0.0
53	0x00000000	0.0
54	0x00000000	0.0
55	0x00000000	0.0
56	0x00000000	0.0
57	0x00000000	0.0
58	0x00000000	0.0
59	0x00000000	0.0
60	0x00000000	0.0
61	0x00000000	0.0
62	0x00000000	0.0
63	0x00000000	0.0
64	0x00000000	0.0
65	0x00000000	0.0
66	0x00000000	0.0
67	0x00000000	0.0
68	0x00000000	0.0
69	0x00000000	0.0
70	0x00000000	0.0
71	0x00000000	0.0
72	0x00000000	0.0
73	0x00000000	0.0
74	0x00000000	0.0
75	0x00000000	0.0
76	0x00000000	0.0
77	0x00000000	0.0
78	0x00000000	0.0
79	0x00000000	0.0
80	0x00000000	0.0
81	0x00000000	0.0
82	0x00000000	0.0
83	0x00000000	0.0
84	0x00000000	0.0
85	0x00000000	0.0
86	0x00000000	0.0
87	0x00000000	0.0
88	0x00000000	0.0
89	0x00000000	0.0
90	0x00000000	0.0
91	0x00000000	0.0
92	0x00000000	0.0
93	0x00000000	0.0
94	0x00000000	0.0
95	0x00000000	0.0
96	0x00000000	0.0
97	0x00000000	0.0
98	0x00000000	0.0
99	0x00000000	0.0
100	0x00000000	0.0
101	0x00000000	0.0
102	0x00000000	0.0
103	0x00000000	0.0
104	0x00000000	0.0
105	0x00000000	0.0
106	0x00000000	0.0
107	0x00000000	0.0
108	0x00000000	0.0
109	0x00000000	0.0
110	0x00000000	0.0
111	0x00000000	0.0
112	0x00000000	0.0
113	0x00000000	0.0
114	0x00000000	0.0
115	0x00000000	0.0
116	0x00000000	0.0
117	0x00000000	0.0
118	0x00000000	0.0
119	0x00000000	0.0
120	0x00000000	0.0
121	0x00000000	0.0
122	0x00000000	0.0
123	0x00000000	0.0
124	0x00000000	0.0
125	0x00000000	0.0
126	0x00000000	0.0
127	0x00000000	0.0
128	0x00000000	0.0
129	0x00000000	0.0
130	0x00000000	0.0
131	0x00000000	0.0
132	0x00000000	0.0
133	0x00000000	0.0
134	0x00000000	0.0
135	0x00000000	0.0
136	0x00000000	0.0
137	0x00000000	0.0
138	0x00000000	0.0
139	0x00000000	0.0
140	0x00000000	0.0
141	0x00000000	0.0
142	0x00000000	0.0
143	0x00000000	0.0
144	0x00000000	0.0
145	0x00000000	0.0
146	0x00000000	0.0
147	0x00000000	0.0
148	0x00000000	0.0
149	0x00000000	0.0
150	0x00000000	0.0
151	0x00000000	0.0
152	0x00000000	0.0
153	0x00000000	0.0
154	0x00000000	0.0
155	0x00000000	0.0
156	0x00000000	0.0
157	0x00000000	0.0
158	0x00000000	0.0
159	0x00000000	0.0
160	0x00000000	0.0
161	0x00000000	0.0
162	0x00000000	0.0
163	0x00000000	0.0
164	0x00000000	0.0
165	0x00000000	0.0
166	0x00000000	0.0
167	0x00000000	0.0
168	0x00000000	0.0
169	0x00000000	0.0
170	0x00000000	0.0
171	0x00000000	0.0
172	0x00000000	0.0
173	0x00000000	0.0
174	0x00000000	0.0
175	0x00000000	0.0
176	0x00000000	0.0
177	0x00000000	0.0
178	0x00000000	0.0
179	0x00000000	0.0
180	0x00000000	0.0
181	0x00000000	0.0
182	0x00000000	0.0
183	0x00000000	0.0
184	0x00000000	0.0
185	0x00000000	0.0
186	0x00000000	0.0
187	0x00000000	0.0
188	0x00000000	0.0
189	0x00000000	0.0
190	0x00000000	0.0
191	0x00000000	0.0
192	0x00000000	0.0
193	0x00000000	0.0
194	0x00000000	0.0
195	0x00000000	0.0
196	0x00000000	0.0
197	0x00000000	0.0
198	0x00000000	0.0
199	0x00000000	0.0
200	0x00000000	0.0
201	0x00000000	0.0
202	0x00000000	0.0
203	0x00000000	0.0
204	0x00000000	0.0
205	0x00000000	0.0
206	0x00000000	0.0
207	0x00000000	0.0
208	0x00000000	0.0
209	0x00000000	0.0
210	0x00000000	0.0
211	0x00000000	0.0
212	0x00000000	0.0
213	0x00000000	0.0
214	0x00000000	0.0
215	0x00000000	0.0
216	0x00000000	0.0
217	0x00000000	0.0
218	0x00000000	0.0
219	0x00000000	0.0
220	0x00000000	0.0
221	0x00000000	0.0
222	0x00000000	0.0
223	0x00000000	0.0
224	0x00000000	0.0
225	0x00000000	0.0
226	0x00000000	0.0
227	0x00000000	0.0
228	0x00000000	0.0
229	0x00000000	0.0
230	0x00000000	0.0
231	0x00000000	0.0
232	0x00000000	0.0
233	0x00000000	0.0
234	0x00000000	0.0
235	0x00000000	0.0
236	0x00000000	0.0
237	0x00000000	0.0
238	0x00000000	0.0
239	0x00000000	0.0
240	0x00000000	0.0
241	0x00000000	0.0
242	0x00000000	0.0
243	0x00000000	0.0
244	0x00000000	0.0
245	0x00000000	0.0
246	0x00000000	0.0
247	0x00000000	0.0
248	0x00000000	0.0
249	0x00000000	0.0
250	0x00000000	0.0
251	0x00000000	0.0
252	0x00000000	0.0
253	0x00000000	0.0
254	0x00000000	0.0
255	0x00000000	0.0

fc1_bn.running_mean f4 [400]
0	0x00000000	0.0
1	0x00000000	0.0
2	0x00000000	0.0
3	0x00000000	0.0
4	0x00000000	0.0
5	0x00000000	0.0
6	0x00000000	0.0
7	0x00000000	0.0
8	0x00000000	0.0
9	0x00000000	0.0
10	0x00000000	0.0
11	0x00000000	0.0
12	0x00000000	0.0
13	0x00000000	0.0
14	0x00000000	0.0
15	0x00000000	0.0
16	0x00000000	0.0
17	0x00000000	0.0
18	0x00000000	0.0
19	0x00000000	0.0
20	0x00000000	0.0
21	0x00000000	0.0
22	0x00000000	0.0
23	0x00000000	0.0
24	0x00000000	0.0
25	0x00000000	0.0
26	0x00000000	0.0
27	0x00000000	0.0
28	0x00000000	0.0
29	0x00000000	0.0
30	0x00000000	0.0
31	0x00000000	0.0
32	0x00000000	0.0
33	0x00000000	0.0
34	0x00000000	0.0
35	0x00000000	0.0
36	0x00000000	0.0
37	0x00000000	0.0
38	0x00000000	0.0
39	0x00000000	0.0
40	0x00000000	0.0
41	0x00000000	0.0
42	0x00000000	0.0
43	0x00000000	0.0
44	0x00000000	0.0
45	0x00000000	0.0
46	0x00000000	0.0
47	0x00000000	0.0
48	0x00000000	0.0
49	0x00000000	0.0
50	0x00000000	0.0
51	0x00000000	0.0
52	0x00000000	0.0
53	0x00000000	0.0
54	0x00000000	0.0
55	0x00000000	0.0
56	0x00000000	0.0
57	0x00000000	0.0
58	0x00000000	0.0
59	0x00000000	0.0
60	0x00000000	0.0
61	0x00000000	0.0
62	0x00000000	0.0
63	0x00000000	0.0
64	0x00000000	0.0
65	0x00000000	0.0
66	0x00000000	0.0
67	0x00000000	0.0
68	0x00000000	0.0
69	0x00000000	0.0
70	0x00000000	0.0
71	0x00000000	0.0
72	0x00000000	0.0
73	0x00000000	0.0
74	0x00000000	0.0
75	0x00000000	0.0
76	0x00000000	0.0
77	0x00000000	0.0
78	0x00000000	0.0
79	0x00000000	0.0
80	0x00000000	0.0
81	0x00000000	0.0
82	0x00000000	0.0
83	0x00000000	0.0
84	0x00000000	0.0
85	0x00000000	0.0
86	0x00000000	0.0
87	0x00000000	0.0
88	0x00000000	0.0
89	0x00000000	0.0
90	0x00000000	0.0
91	0x00000000	0.0
92	0x00000000	0.0
93	0x00000000	0.0
94	0x00000000	0.0
95	0x00000000	0.0
96	0x00000000	0.0
97	0x00000000	0.0
98	0x00000000	0.0
99	0x00000000	0.0
100	0x00000000	0.0
101	0x00000000	0.0
102	0x00000000	0.0
103	0x00000000	0.0
104	0x00000000	0.0
105	0x00000000	0.0
106	0x00000000	0.0
107	0x00000000	0.0
108	0x00000000	0.0
109	0x00000000	0.0
110	0x00000000	0.0
111	0x00000000	0.0
112	0x00000000	0.0
113	0x00000000	0.0
114	0x00000000	0.0
115	0x00000000	0.0
116	0x00000000	0.0
117	0x00000000	0.0
118	0x00000000	0.0
119	0x00000000	0.0
120	0x00000000	0.0
121	0x00000000	0.0
122	0x00000000	0.0
123	0x00000000	0.0
124	0x00000000	0.0
125	0x00000000	0.0
126	0x00000000	0.0
127	0x00000000	0.0
128	0x00000000	0.0
129	0x00000000	0.0
130	0x00000000	0.0
131	0x00000000	0.0
132	0x00000000	0.0
133	0x00000000	0.0
134	0x00000000	0.0
135	0x00000000	0.0
136	0x00000000	0.0
137	0x00000000	0.0
138	0x00000000	0.0
139	0x00000000	0.0
140	0x00000000	0.0
141	0x00000000	0.0
142	0x00000000	0.0
143	0x00000000	0.0
144	0x00000000	0.0
145	0x00000000	0.0
146	0x00000000	0.0
147	0x00000000	0.0
148	0x00000000	0.0
149	0x00000000	0.0
150	0x00000000	0.0
151	0x00000000	0.0
152	0x00000000	0.0
153	0x00000000	0.0
154	0x00000000	0.0
155	0x00000000	0.0
156	0x00000000	0.0
157	0x00000000	0.0
158	0x00000000	0.0
159	0x00000000	0.0
160	0x00000000	0.0
161	0x00000000	0.0
162	0x00000000	0.0
163	0x00000000	0.0
164	0x00000000	0.0
165	0x00000000	0.0
166	0x00000000	0.0
167	0x00000000	0.0
168	0x00000000	0.0
169	0x00000000	0.0
170	0x00000000	0.0
171	0x00000000	0.0
172	0x00000000	0.0
173	0x00000000	0.0
174	0x00000000	0.0
175	0x00000000	0.0
176	0x00000000	0.0
177	0x00000000	0.0
178	0x00000000	0.0
179	0x00000000	0.0
180	0x00000000	0.0
181	0x00000000	0.0
182	0x00000000	0.0
183	0x00000000	0.0
184	0x00000000	0.0
185	0x00000000	0.0
186	0x00000000	0.0
187	0x00000000	0.0
188	0x00000000	0.0
189	0x00000000	0.0
190	0x00000000	0.0
191	0x00000000	0.0
192	0x00000000	0.0
193	0x00000000	0.0
194	0x00000000	0.0
195	0x00000000	0.0
196	0x00000000	0.0
197	0x00000000	0.0
198	0x00000000	0.0
199	0x00000000	0.0
200	0x00000000	0.0
201	0x00000000	0.0
202	0x00000000	0.0
203	0x00000000	0.0
204	0x00000000	0.0
205	0x00000000	0.0
206	0x00000000	0.0
207	0x00000000	0.0
208	0x00000000	0.0
209	0x00000000	0.0
210	0x00000000	0.0
211	0x00000000	0.0
212	0x00000000	0.0
213	0x00000000	0.0
214	0x00000000	0.0
215	0x00000000	0.0
216	0x00000000	0.0
217	0x00000000	0.0
218	0x00000000	0.0
219	0x00000000	0.0
220	0x00000000	0.0
221	0x00000000	0.0
222	0x00000000	0.0
223	0x00000000	0.0
224	0x00000000	0.0
225	0x00000000	0.0
226	0x00000000	0.0
227	0x00000000	0.0
228	0x00000000	0.0
229	0x00000000	0.0
230	0x00000000	0.0
231	0x00000000	0.0
232	0x00000000	0.0
233	0x00000000	0.0
234	0x00000000	0.0
235	0x00000000	0.0
236	0x00000000	0.0
237	0x00000000	0.0
238	0x00000000	0.0
239	0x00000000	0.0
240	0x00000000	0.0
241	0x00000000	0.0
242	0x00000000	0.0
243	0x00000000	0.0
244	0x00000000	0.0
245	0x00000000	0.0
246	0x00000000	0.0
247	0x00000000	0.0
248	0x00000000	0.0
249	0x00000000	0.0
250	0x00000000	0.0
251	0x00000000	0.0
252	0x00000000	0.0
253	0x00000000	0.0
254	0x00000000	0.0
255	0x00000000	0.0

fc1_bn.running_var f4 [400]
0	0x3f800000	1.0
1	0x3f800000	1.0
2	0x3f800000	1.0
3	0x3f800000	1.0
4	0x3f800000	1.0
5	0x3f800000	1.0
6	0x3f800000	1.0
7	0x3f800000	1.0
8	0x3f800000	1.0
9	0x3f800000	1.0
10	0x3f800000	1.0
11	0x3f800000	1.0
12	0x3f800000	1.0
13	0x3f800000	1.0
14	0x3f800000	1.0
15	0x3f800000	1.0
16	0x3f800000	1.0
17	0x3f800000	1.0
18	0x3f800000	1.0
19	0x3f800000	1.0
20	0x3f800000	1.0
21	0x3f800000	1.0
22	0x3f800000	1.0
23	0x3f800000	1.0
24	0x3f800000	1.0
25	0x3f800000	1.0
26	0x3f800000	1.0
27	0x3f800000	1.0
28	0x3f800000	1.0
29	0x3f800000	1.0
30	0x3f800000	1.0
31	0x3f800000	1.0
32	0x3f800000	1.0
33	0x3f800000	1.0
34	0x3f800000	1.0
35	0x3f800000	1.0
36	0x3f800000	1.0
37	0x3f800000	1.0
38	0x3f800000	1.0
39	0x3f800000	1.0
40	0x3f800000	1.0
41	0x3f800000	1.0
42	0x3f800000	1.0
43	0x3f800000	1.0
44	0x3f800000	1.0
45	0x3f800000	1.0
46	0x3f800000	1.0
47	0x3f800000	1.0
48	0x3f800000	1.0
49	0x3f800000	1.0
50	0x3f800000	1.0
51	0x3f800000	1.0
52	0x3f800000	1.0
53	0x3f800000	1.0
54	0x3f800000	1.0
55	0x3f800000	1.0
56	0x3f800000	1.0
57	0x3f800000	1.0
58	0x3f800000	1.0
59	0x3f800000	1.0
60	0x3f800000	1.0
61	0x3f800000	1.0
62	0x3f800000	1.0
63	0x3f800000	1.0
64	0x3f800000	1.0
65	0x3f800000	1.0
66	0x3f800000	1.0
67	0x3f800000	1.0
68	0x3f800000	1.0
69	0x3f800000	1.0
70	0x3f800000	1.0
71	0x3f800000	1.0
72	0x3f800000	1.0
73	0x3f800000	1.0
74	0x3f800000	1.0
75	0x3f800000	1.0
76	0x3f800000	1.0
77	0x3f800000	1.0
78	0x3f800000	1.0
79	0x3f800000	1.0
80	0x3f800000	1.0
81	0x3f800000	1.0
82	0x3f800000	1.0
83	0x3f800000	1.0
84	0x3f800000	1.0
85	0x3f800000	1.0
86	0x3f800000	1.0
87	0x3f800000	1.0
88	0x3f800000	1.0
89	0x3f800000	1.0
90	0x3f800000	1.0
91	0x3f800000	1.0
92	0x3f800000	1.0
93	0x3f800000	1.0
94	0x3f800000	1.0
95	0x3f800000	1.0
96	0x3f800000	1.0
97	0x3f800000	1.0
98	0x3f800000	1.0
99	0x3f800000	1.0
100	0x3f800000	1.0
101	0x3f800000	1.0
102	0x3f800000	1.0
103	0x3f800000	1.0
104	0x3f800000	1.0
105	0x3f800000	1.0
106	0x3f800000	1.0
107	0x3f800000	1.0
108	0x3f800000	1.0
109	0x3f800000	1.0
110	0x3f800000	1.0
111	0x3f800000	1.0
112	0x3f800000	1.0
113	0x3f800000	1.0
114	0x3f800000	1.0
115	0x3f800000	1.0
116	0x3f800000	1.0
117	0x3f800000	1.0
118	0x3f800000	1.0
119	0x3f800000	1.0
120	0x3f800000	1.0
121	0x3f800000	1.0
122	0x3f800000	1.0
123	0x3f800000	1.0
124	0x3f800000	1.0
125	0x3f800000	1.0
126	0x3f800000	1.0
127	0x3f800000	1.0
128	0x3f800000	1.0
129	0x3f800000	1.0
130	0x3f800000	1.0
131	0x3f800000	1.0
132	0x3f800000	1.0
133	0x3f800000	1.0
134	0x3f800000	1.0
135	0x3f800000	1.0
136	0x3f800000	1.0
137	0x3f800000	1.0
138	0x3f800000	1.0
139	0x3f800000	1.0
140	0x3f800000	1.0
141	0x3f800000	1.0
142	0x3f800000	1.0
143	0x3f800000	1.0
144	0x3f800000	1.0
145	0x3f800000	1.0
146	0x3f800000	1.0
147	0x3f800000	1.0
148	0x3f800000	1.0
149	0x3f800000	1.0
150	0x3f800000	1.0
151	0x3f800000	1.0
152	0x3f800000	1.0
153	0x3f800000	1.0
154	0x3f800000	1.0
155	0x3f800000	1.0
156	0x3f800000	1.0
157	0x3f800000	1.0
158	0x3f800000	1.0
159	0x3f800000	1.0
160	0x3f800000	1.0
161	0x3f800000	1.0
162	0x3f800000	1.0
163	0x3f800000	1.0
164	0x3f800000	1.0
165	0x3f800000	1.0
166	0x3f800000	1.0
167	0x3f800000	1.0
168	0x3f800000	1.0
169	0x3f800000	1.0
170	0x3f800000	1.0
171	0x3f800000	1.0
172	0x3f800000	1.0
173	0x3f800000	1.0
174	0x3f800000	1.0
175	0x3f800000	1.0
176	0x3f800000	1.0
177	0x3f800000	1.0
178	0x3f800000	1.0
179	0x3f800000	1.0
180	0x3f800000	1.0
181	0x3f800000	1.0
182	0x3f800000	1.0
183	0x3f800000	1.0
184	0x3f800000	1.0
185	0x3f800000	1.0
186	0x3f800000	1.0
187	0x3f800000	1.0
188	0x3f800000	1.0
189	0x3f800000	1.0
190	0x3f800000	1.0
191	0x3f800000	1.0
192	0x3f800000	1.0
193	0x3f800000	1.0
194	0x3f800000	1.0
195	0x3f800000	1.0
196	0x3f800000	1.0
197	0x3f800000	1.0
198	0x3f800000	1.0
199	0x3f800000	1.0
200	0x3f800000	1.0
201	0x3f800000	1.0
202	0x3f800000	1.0
203	0x3f800000	1.0
204	0x3f800000	1.0
205	0x3f800000	1.0
206	0x3f800000	1.0
207	0x3f800000	1.0
208	0x3f800000	1.0
209	0x3f800000	1.0
210	0x3f800000	1.0
211	0x3f800000	1.0
212	0x3f800000	1.0
213	0x3f800000	1.0
214	0x3f800000	1.0
215	0x3f800000	1.0
216	0x3f800000	1.0
217	0x3f800000	1.0
218	0x3f800000	1.0
219	0x3f800000	1.0
220	0x3f800000	1.0
221	0x3f800000	1.0
222	0x3f800000	1.0
223	0x3f800000	1.0
224	0x3f800000	1.0
225	0x3f800000	1.0
226	0x3f800000	1.0
227	0x3f800000	1.0
228	0x3f800000	1.0
229	0x3f800000	1.0
230	0x3f800000	1.0
231	0x3f800000	1.0
232	0x3f800000	1.0
233	0x3f800000	1.0
234	0x3f800000	1.0
235	0x3f800000	1.0
236	0x3f800000	1.0
237	0x3f800000	1.0
238	0x3f800000	1.0
239	0x3f800000	1.0
240	0x3f800000	1.0
241	0x3f800000	1.0
242	0x3f800000	1.0
243	0x3f800000	1.0
244	0x3f800000	1.0
245	0x3f800000	1.0
246	0x3f800000	1.0
247	0x3f800000	1.0
248	0x3f800000	1.0
249	0x3f800000	1.0
250	0x3f800000	1.0
251	0x3f800000	1.0
252	0x3f800000	1.0
253	0x3f800000	1.0
254	0x3f800000	1.0
255	0x3f800000	1.0

fc2.weight f4 [300, 400]
0	0x3c2f1ae1	0.010687561
1	0xbd208df6	-0.039197885
2	0x3d29b014	0.041427687
3	0x3cf36291	0.029710086
4	0x3d0349de	0.032052867
5	0x3d4c17e7	0.049827483
6	0x3bbd1f4d	0.0057715536
7	0xbd82ab75	-0.06380359
8	0x3cb86151	0.022507342
9	0xbd5db0cc	-0.054123685
10	0xbc1875f9	-0.009305471
11	0x3c48d8dc	0.012258735
12	0x3c16b0c5	0.009197419
13	0x3d4032ba	0.046923377
14	0x3b89d3da	0.004206163
15	0x3d233e3d	0.039854277
16	0x3d25061c	0.04028903
17	0x3d814474	0.063118845
18	0xbc4d99a4	-0.012548838
19	0xbd3365df	-0.043798324
20	0xbc01571e	-0.0078943055
21	0x3c4d3ef8	0.01252722
22	0xbd0421b2	-0.032258697
23	0xbb970045	-0.0046081864
24	0x3b9a4bd9	0.004708749
25	0x3d6a7547	0.05724075
26	0x3cef4151	0.02920595
27	0xbd4b9e26	-0.04971137
28	0x3d17caa1	0.037058476
29	0xbc8de011	-0.017318757
30	0x3d854bc0	0.06508589
31	0xbc11703b	-0.0088768555
32	0xbcb15df2	-0.021651242
33	0xbd7a01b7	-0.06103679
34	0x3cdf855c	0.02728527
35	0x3ccd79b3	0.025082445
36	0xbd9867f2	-0.07441701
37	0x3d88104a	0.06643732
38	0xbd039f5e	-0.032134406
39	0xbca2f1c7	-0.019890679
40	0x3d6a586d	0.057213236
41	0xbd09ecb2	-0.033672996
42	0xbd2f56b6	-0.042807303
43	0xbd017af4	-0.031611398
44	0x3d7d5e9c	0.061857805
45	0xbcdb66cc	-0.026782416
46	0x3d12ef42	0.035872705
47	0xb9b18c05	-0.00033864393
48	0xbc99b677	-0.018763764
49	0xbd31063e	-0.043218844
50	0x3ae54060	0.0017490499
51	0x3d372dc3	0.044721376
52	0x3d2a8bd5	0.04163726
53	0x3d7bf3e0	0.061511874
54	0xbd80b6c4	-0.0628486
55	0xbc078003	-0.0082702665
56	0xbb404a15	-0.0029341031
57	0x3cfd3082	0.03090692
58	0x3d5bd8dd	0.053673614
59	0x3bc5767c	0.0060260873
60	0xbd6529bb	-0.055948
61	0xbcf29e5f	-0.029616533
62	0x3be9b0d1	0.007131674
63	0xbd74b743	-0.059745084
64	0x3c1b3a9f	0.009474426
65	0xbd2d2b5e	-0.042277686
66	0x3a7d0915	0.00096525374
67	0x3d0c333d	0.034228552
68	0xbc4349ea	-0.011919478
69	0xbccb0710	-0.024783641
70	0x3cbd6043	0.02311719
71	0xbcecaec7	-0.028891934
72	0x3bef87fd	0.0073099122
73	0xbd0160e4	-0.031586543
74	0x3d28c7a0	0.041206002
75	0xbb8f6f7b	-0.004377303
76	0xbc6b4269	-0.014359095
77	0x3cb80022	0.022461
78	0x3d831219	0.06399936
79	0x3a20f8e4	0.0006140603
80	0x3d8ebbbb	0.069694005
81	0xbc2a684d	-0.010400844
82	0x3c7abd8a	0.015303979
83	0x3d11a9cb	0.035562318
84	0x3d0dfd52	0.034665413
85	0x3d5093f3	0.050922345
86	0x3d83b582	0.06431104
87	0x3d1a1b5a	0.03762374
88	0x3ce513cd	0.027963543
89	0x3bcd832b	0.00627174
90	0xbd16061c	-0.03662692
91	0x3d4c05e7	0.049810316
92	0x3d43abc8	0.047771245
93	0xbd749b09	-0.059718166
94	0xbc375916	-0.011190673
95	0x3d263d6a	0.040585913
96	0xbbae4afb	-0.005318997
97	0x3d974ef8	0.07388109
98	0x3d2cac97	0.042156782
99	0xbc980874	-0.018558718
100	0xbbf4f8cc	-0.007475948
101	0x3c448025	0.011993443
102	0xbd8d8e0f	-0.06911861
103	0x3c8a977d	0.016917938
104	0x3c564ae8	0.0130793825
105	0x3d0afc9d	0.033932317
106	0xbc73b08f	-0.014873638
107	0x3d73be00	0.05950737
108	0x3c585f19	0.013206267
109	0xbcfbed19	-0.030752705
110	0x3cdf0ded	0.02722832
111	0x3c8db42a	0.017297823
112	0xbce0fd78	-0.027464613
113	0x3bfe701b	0.007764829
114	0xbd193b7e	-0.03741025
115	0x3d46a2e2	0.04849518
116	0x3c83fc05	0.016111383
117	0x3cfa4a88	0.030553117
118	0x3cf8793c	0.030331247
119	0xb9b8efaa	-0.00035273778
120	0xbcbecf49	-0.0232922
121	0x3d66c5ae	0.056340866
122	0x3d368d2c	0.044568226
123	0xbd1acbd7	-0.037792053
124	0xbcb21086	-0.021736395
125	0x3d04ec7f	0.032452103
126	0xbca81112	-0.020515952
127	0x3cef536b	0.029214581
128	0x3cd55856	0.026043098
129	0xbcb1fbcc	-0.021726511
130	0xbd0f0e6a	-0.034925856
131	0x3d659c79	0.056057427
132	0x3d1c4168	0.038148314
133	0x3bde9da1	0.006793693
134	0xbcf9e559	-0.03050487
135	0x3cef92ec	0.029244862
136	0x3d517e0d	0.051145602
137	0x3d443101	0.047898296
138	0x3cf33e70	0.029692858
139	0x3c1bb5f3	0.009503829
140	0xbccac9fc	-0.024754517
141	0xbcd14c2b	-0.025549015
142	0x3d2caf7b	0.04215954
143	0xbc56179f	-0.013067155
144	0x3d2bf9a7	0.041986134
145	0xbc928861	-0.017887296
146	0xbd47b551	-0.0487569
147	0xbadfefad	-0.0017084979
148	0x3d439232	0.047746845
149	0xbc202af9	-0.0097758705
150	0x3d8975fa	0.06711955
151	0xbbcdd7a3	-0.0062818094
152	0x3c4b2c56	0.012400707
153	0x3cea9cbb	0.028639188
154	0xbbfd47b7	-0.0077294963
155	0x3bfd423f	0.0077288444
156	0xbd2b95ca	-0.041890897
157	0xbd4d01d0	-0.050050557
158	0xbd143b86	-0.03618958
159	0x3d70c2ff	0.058779713
160	0x3c0b96da	0.0085198525
161	0x3d0998a3	0.03359283
162	0x3d7855f4	0.060628846
163	0xbc1bd36f	-0.009510859
164	0x3cb86575	0.022509316
165	0xbd3f26d7	-0.0466679
166	0x3cbe4aef	0.02322909
167	0xbd0117ca	-0.031516828
168	0x3d09197c	0.03347157
169	0xbc66896b	-0.014070849
170	0xbb8a0363	-0.0042118295
171	0x3ad30fb3	0.0016102701
172	0xbca6483e	-0.02029812
173	0xbc3ae660	-0.011407465
174	0x3d0d645e	0.034519546
175	0xbbf509d9	-0.0074779806
176	0xba858ce9	-0.0010189089
177	0x3ca8edb4	0.020621158
178	0xbd097828	-0.033561856
179	0xbd7b9ffe	-0.061431877
180	0xbd5b73fe	-0.053577416
181	0xbd7ca42e	-0.06168001
182	0x38ebf306	0.0001125094
183	0xbd77a9c9	-0.060464654
184	0xbcf31397	-0.029672427
185	0x3c0b0236	0.008484414
186	0x3c84b44c	0.016199253
187	0x3d4be554	0.04977925
188	0xbd0c8525	-0.034306664
189	0xbba3d926	-0.0050002513
190	0xbcc05520	-0.02347809
191	0xbd218c5c	-0.039440498
192	0x3cbc9ea4	0.023024864
193	0xbd3b4b9b	-0.0457264
194	0xbd688801	-0.05677033
195	0x3d88453b	0.0665383
196	0x3d171e3b	0.036894064
197	0xbd2ba04e	-0.041900925
198	0xbc341b3e	-0.010992823
199	0xbd12a930	-0.03580588
200	0x3c0027ee	0.00782202
201	0xbc19d632	-0.009389447
202	0x3c629776	0.013830056
203	0xbcc7074c	-0.024295472
204	0x3cd0915a	0.025459934
205	0xbcb33f8b	-0.021880886
206	0x3c8e879a	0.017398644
207	0x3d80acfe	0.06282996
208	0xbca32e30	-0.019919485
209	0xbb2e6d99	-0.0026615618
210	0xbc7a8a1a	-0.015291715
211	0xbd4609c5	-0.04834916
212	0x3d1cc9ee	0.038278513
213	0x3d09c456	0.033634506
214	0xbcf43f52	-0.02981535
215	0xbd5ba5bb	-0.05362485
216	0xbadc0958	-0.0016787453
217	0x3d52da61	0.051477794
218	0xbc1fe0ee	-0.009758217
219	0x3ce981dc	0.028504305
220	0x3cba8c68	0.022772029
221	0x3c238a1b	0.009981657
222	0x3cb30ccc	0.021856688
223	0x3cf2fdae	0.02966198
224	0x3c93f19f	0.01805955
225	0xbcfd48d3	-0.030918514
226	0xbd1191b1	-0.035539333
227	0x3d1958a3	0.037438046
228	0xbd1c25ce	-0.03812199
229	0x3d283822	0.041069157
230	0x3995f236	0.00028599956
231	0x3cfe9144	0.031075127
232	0xbd224e08	-0.039625198
233	0xbd45f91b	-0.04833327
234	0x3d08d1ab	0.03340308
235	0xbc8d7da5	-0.017271826
236	0x3bacb20d	0.0052702487
237	0x3c7eeaf9	0.0155589515
238	0x3d212fd6	0.03935226
239	0xbc417ebe	-0.011810003
240	0x3cdc54dd	0.026895935
241	0xbb54845a	-0.003242752
242	0x3af4dd3d	0.0018681657
243	0xbc86e441	-0.016466262
244	0x3ca9beb6	0.02072082
245	0x3d4bf946	0.049798273
246	0x3d8da010	0.06915295
247	0x3c54c956	0.012987455
248	0x3d3d73af	0.046252903
249	0x3c62b99d	0.013838199
250	0x3cad4999	0.021153258
251	0x3d6b4031	0.057434265
252	0x3d3af4ef	0.045643743
253	0xbb1aa190	-0.0023594834
254	0x3bd70fa5	0.0065631443
255	0xbd4a020a	-0.04931835

fc2.bias f4 [300]
0	0x3cbde37e	0.023179766
1	0xbb896a46	-0.004193577
2	0xbd355516	-0.044270597
3	0x3c9c3bfc	0.019071572
4	0x3d191ea6	0.037382744
5	0x3cb1c00a	0.021698017
6	0xbccdd3ab	-0.025125345
7	0xbae05988	-0.0017116526
8	0xbb428adf	-0.0029684824
9	0xbd1d9312	-0.038470335
10	0x3ce04886	0.027378332
11	0x3cc4c780	0.02402091
12	0x3ca7451b	0.020418694
13	0x3d8b32f9	0.06796832
14	0x3cf95994	0.030438222
15	0xbbe2d83e	-0.0069227507
16	0x3c4515fc	0.012029167
17	0x3d29eb94	0.04148443
18	0x3c1a16fb	0.009404893
19	0xbc43127c	-0.0119062625
20	0xbccca201	-0.024979593
21	0x3d52c296	0.051455103
22	0x3d61a301	0.055087093
23	0xbcddabf2	-0.027059529
24	0x3d249826	0.040184163
25	0x3ccaf0e3	0.024773067
26	0x3cde56a1	0.027140917
27	0x3c308b29	0.010775366
28	0x3c93fcee	0.018064942
29	0xbd08b726	-0.03337779
30	0xbd5a5ca5	-0.05331101
31	0xbca426b4	-0.020037986
32	0x3c14d37b	0.009083624
33	0x3d24869d	0.04016744
34	0x3c02661a	0.007958913
35	0xbca95459	-0.020670103
36	0x3d0be0c2	0.034149893
37	0x3ca852aa	0.02054723
38	0x3c083a9a	0.008314753
39	0xbb384414	-0.002811675
40	0xbccff83c	-0.025386922
41	0xbbf7695a	-0.0075504007
42	0xbc60dbff	-0.013724326
43	0xbcdf5343	-0.027261382
44	0x3c7ea62d	0.015542549
45	0xbd0ca6b2	-0.03433866
46	0xbc9fb6c3	-0.019496327
47	0xbca9e690	-0.020739824
48	0x3c01394b	0.007887195
49	0xbc5d6f4a	-0.013515303
50	0x3cabb5be	0.020960685
51	0xbc3e359a	-0.011609459
52	0x3cdf73ca	0.027276892
53	0x3c4d46cf	0.012529089
54	0xbcf5ab05	-0.029988775
55	0xbce5247b	-0.027971497
56	0xbcac3e89	-0.021025913
57	0x3d6a5a15	0.057214815
58	0x3cf69ab9	0.030103074
59	0xbd578547	-0.052617338
60	0xbd65a86d	-0.056068826
61	0x3c9dca96	0.01926164
62	0x3c0185f4	0.007905472
63	0xbc92fc8c	-0.01794269
64	0x3d9d3882	0.07676794
65	0x3d676b94	0.05649908
66	0xbc8dcb74	-0.017308928
67	0xbd636378	-0.055514783
68	0x3d3e567c	0.046469197
69	0x3d4f1161	0.050553683
70	0xbc71c6f0	-0.014756903
71	0xbb99bc12	-0.004691609
72	0x3d131872	0.035911985
73	0x3d4a3a77	0.049372163
74	0x3d10008c	0.03515677
75	0xbbb9d21d	-0.0056707994
76	0x3d2f50dc	0.042801723
77	0xbb9284f1	-0.0044714143
78	0xbce2654d	-0.027636195
79	0x3c1d9016	0.009616872
80	0xbad09b75	-0.001591547
81	0xbb1ed214	-0.0024234103
82	0x3d9d9616	0.07694642
83	0xbb75a084	-0.0037479708
84	0x3cdcd4e2	0.02695698
85	0x3cb83e1d	0.022490555
86	0x3b1bd9d8	0.0023780968
87	0xbc05dfc8	-0.008171029
88	0xbd98a2ed	-0.074529506
89	0xbc43b538	-0.011945061
90	0xbd1e887d	-0.038704384
91	0xbd331978	-0.04372546
92	0x3d289d83	0.04116584
93	0xbcb9b83f	-0.022670863
94	0x3cf0c8b7	0.029392583
95	0x3d9ca275	0.07648174
96	0x3d592119	0.05301008
97	0x3bf7e89e	0.007565572
98	0xbc1ad9d1	-0.009451346
99	0x3ac52574	0.0015041069
100	0x3d498ba9	0.049205456
101	0x3c5f5730	0.013631627
102	0x3d6a150c	0.057148978
103	0xbd28e39b	-0.041232686
104	0x3daad9b7	0.08342307
105	0x3d854b38	0.065084875
106	0xbca4e5e1	-0.020129146
107	0x3c38714d	0.011257482
108	0xbd2fd623	-0.042928826
109	0xbc747c36	-0.014922192
110	0xbd162389	-0.036654983
111	0x3ce17326	0.027520727
112	0x3c11da11	0.008902089
113	0x3d4a1d7c	0.049344525
114	0x3d128d21	0.035779122
115	0x3cc2bb16	0.02377085
116	0x3d37d877	0.04488417
117	0x3d451f4c	0.04812555
118	0x3aa5f0ba	0.0012660243
119	0x3ceb18c0	0.028698325
120	0x3d815dca	0.06316717
121	0xbc088abc	-0.008333858
122	0xbb989d94	-0.0046574567
123	0x3d15e13a	0.036591746
124	0xbcb7c25a	-0.022431541
125	0xbce67e00	-0.028136253
126	0xbc70fe33	-0.014709043
127	0x3c9cbfbe	0.019134399
128	0x3c8de97f	0.017323254
129	0x3b85666a	0.0040710466
130	0x3d19f33c	0.037585482
131	0x3d412562	0.04715479
132	0xbcb3367c	-0.021876566
133	0x3d02c11f	0.031922456
134	0x3d2cff39	0.042235587
135	0x3da6cab1	0.08144129
136	0xbd0b44f4	-0.034001306
137	0x3cdab710	0.02669862
138	0x3cdb9154	0.026802696
139	0x3d2cad15	0.04215725
140	0x3d6c3682	0.05766917
141	0x3d031064	0.031998053
142	0xbcbe2c5c	-0.023214512
143	0x3aad0e6c	0.0013203151
144	0xbc9a7b72	-0.018857691
145	0x3d2e1244	0.04249789
146	0xbb1fbdd8	-0.002437463
147	0xbc18572c	-0.009298127
148	0x3ce6bc75	0.028166035
149	0xbca01fd1	-0.019546421
150	0x3d2c2c54	0.042034462
151	0xbc02cf91	-0.007984058
152	0xbcccdb06	-0.025006782
153	0x3d3d0f36	0.046157084
154	0x3d492cc6	0.049114965
155	0xbd7ab765	-0.061210055
156	0x3c4985a8	0.012299933
157	0x3ce92537	0.028460128
158	0xbc751fc0	-0.014961183
159	0x3d98f016	0.07467668
160	0xbd48dfd1	-0.049041573
161	0x3d34150d	0.043965388
162	0x3c43e4b9	0.011956387
163	0xbc3fc24a	-0.011704037
164	0x3c1553e5	0.00911424
165	0xbd321703	-0.043478977
166	0xbd15724e	-0.036485963
167	0xbbbf2826	-0.0058336435
168	0xbb0a8b47	-0.0021140145
169	0x3c492043	0.012275758
170	0xbc1d812a	-0.009613315
171	0xbc51f36a	-0.012814382
172	0xbc1199d2	-0.008886771
173	0xbbe73aef	-0.007056586
174	0x3d2b981a	0.041893102
175	0x3d6922ab	0.056917828
176	0xbd532964	-0.051553145
177	0xbb3f9204	-0.002923132
178	0x3c56df3d	0.013114748
179	0xbc0b255d	-0.008492795
180	0xbc3aa380	-0.0113915205
181	0x3ceffd53	0.0292956
182	0xbcf08de9	-0.029364543
183	0x3c51e3d9	0.012810671
184	0xbcc6d0b2	-0.024269436
185	0x3c78a415	0.015175839
186	0x3cba9fb6	0.022781234
187	0x3d80cfd9	0.06289644
188	0xbcccaccf	-0.024984745
189	0x3d5ea727	0.054358628
190	0xbd468e72	-0.04847569
191	0x3c922201	0.01783848
192	0x3d17d607	0.037069347
193	0x39ec1fda	0.0004503716
194	0x3cbae33d	0.022813434
195	0x3caf157c	0.02137255
196	0x3d069721	0.03285897
197	0xbd08e55f	-0.03342187
198	0xbc7786eb	-0.015107851
199	0x3bad7e15	0.005294571
200	0x3d6ab291	0.0572992
201	0x3ca941ed	0.020661319
202	0xbd02fef8	-0.03198144
203	0x3d424fb7	0.047439303
204	0x3b49553f	0.0030720977
205	0x3ce4d433	0.027933216
206	0xbb131b8c	-0.002244684
207	0x3d0d50ce	0.03450089
208	0x3cf1f9ee	0.029538121
209	0x3d67f6df	0.05663192
210	0x3d1c0e67	0.038099673
211	0x3d2dbd96	0.04241713
212	0xbc05fe38	-0.008178286
213	0xbccb0b78	-0.024785742
214	0x3d522534	0.05130501
215	0x3ba33f19	0.004981887
216	0xbbfba784	-0.0076798815
217	0xbc8661b0	-0.016404003
218	0x3d4dd192	0.05024869
219	0xbd6d54cb	-0.057942193
220	0x3da5cbab	0.08095487
221	0x3d400305	0.04687788
222	0x3c1435af	0.009046002
223	0x3c9cec84	0.019155748
224	0x3d2f7b2d	0.04284208
225	0xbbaf45a1	-0.0053488766
226	0x3da9840c	0.08277139
227	0x3d3881e5	0.045045752
228	0x3b960961	0.004578755
229	0x3c009086	0.007846957
230	0xbcaa102e	-0.020759668
231	0xbd0f5f8e	-0.035003237
232	0xbca306c1	-0.019900681
233	0x3d2b4385	0.04181244
234	0xbcbc9682	-0.023020986
235	0x3b888a72	0.0041668946
236	0xbd6ca2f7	-0.057772603
237	0xbbbe9c94	-0.0058170054
238	0xbd05254f	-0.032506283
239	0x3d542d78	0.051801175
240	0xbd64636d	-0.055758882
241	0x3c8afb61	0.01696557
242	0x3d740c38	0.059581965
243	0x3d355613	0.04427154
244	0xbd144a18	-0.036203474
245	0x3d770801	0.060310367
246	0xbd0acbcb	-0.03388576
247	0x3cfb4d0c	0.030676387
248	0x3c383918	0.011244081
249	0xbd30d0b8	-0.0431678
250	0x3cdb05c0	0.02673614
251	0x3c6f8401	0.0146188745
252	0x3d4e429a	0.050356485
253	0xbd3c3281	-0.0459466
254	0xbcbc12ee	-0.022958245
255	0x3cbf59b9	0.023358213
