agent_checkpoints/checkpoint_actor_18.pth (torch_old, 553585 bytes, 14 tensors)

fc1.weight f4 [400, 33]
00000000: 6959 7ebd 1ee8 5fba 58db 9cbb a48d 88bd
00000010: ac16 11bd b4e1 04bd 9c4f 0c3c f296 6a3d
00000020: fddf ccbc 2c82 043d 2ba7 11bd deaf f7bc
00000030: d517 7b3d effe 49bd d115 693d adb2 243c
00000040: fd94 d23c caeb f23c e03d 82bd 0479 d8bc
00000050: aac4 e13c d09a 04bc 9a59 ca3c 4d4a 03bd
00000060: 9f8d 393d d3b8 6a3d 5cd2 043d 1859 f7bc
00000070: 9295 36bc 5dec 33bd a641 8e3b 35b4 203d
00000080: 28d7 103c 13bb febc 1252 893b 864c 423c
00000090: 44f8 4b3d ae28 713d 5566 50bd c2aa c93c
000000a0: 6847 bdbc 186d 83bc 50d0 44bb 7e79 873c
000000b0: c760 063d 7917 0dbd 474e c03c b278 02bb
000000c0: 0b76 e63a e5fc 903c b5b1 553d 8c1f 263d
000000d0: cf96 42bd a447 9cbb 984a 543d 3749 593d
000000e0: 4caf 08bc 16b6 82bc b186 95bb 69f3 c13d
000000f0: f575 8bbc 1228 1cbd 0057 c73a 151d d83c
00000100: f53a 0d3d 915d 963d 7b70 8c3d c16d 9ebc
00000110: 2781 cabc 549c ae3c c80f d0bc af47 9ebc
00000120: 9f87 44bd 60ad c53c 79b1 4dbd 93b6 763a
00000130: 1c88 8ebb f7eb 66bc 935a f63c 12f2 21bc
00000140: cb60 343c 7a5d 9ebd 962b b2bb bf97 aebc
00000150: 62ab 5f3c bd9f a9bb d6b3 07bc 0ce6 f73b
00000160: 49df 123c b568 bc3c 85de 683d d8b8 e23b
00000170: d571 66bd 19a3 57bc 3b40 6cbd fbc4 44bd
00000180: 4a1a ac3b b836 1cbc ce0d 823d be12 b83d
00000190: a25b 1f3d df52 333b d376 61bc be8c 22bd
000001a0: 90a6 973b 9a78 17bd b7af 1abd 7c3a 3bbd
000001b0: 1fcf c7bc b789 fdbc 4609 473d 5078 153c
000001c0: e295 133d 67b1 9dbc f660 e2bc 1148 92bc
000001d0: dc9a 243c 0836 1bbd 3dd2 8b3d b9c6 f83c
000001e0: ed73 f83c 23ea 673d 994c 903b 8d68 7a3d
000001f0: 8e59 f0bb 69a8 413c 2dfe 5ebd 9ff2 f63c
00000200: ea6e c2bc 08b8 543d 00c0 e1b8 27cb 283d
00000210: c0e4 7dbd 52bd 3bbd 84ee 263d c8f8 443d
00000220: e699 8cbc b692 653c b0c6 063d d05f f3bb
00000230: cf85 71bc 52e0 fb3c c997 443d b101 b63a
00000240: 4dc7 d93b 044a 07bd ea70 83bd f755 ae3c
00000250: 1b77 52bb b99b 58bd 84b0 5bbd d979 fb3c
00000260: 9d3a f13c d256 0bbb 30e5 0c3c b864 253d
00000270: c2a5 10bd aac1 73bb feb9 9ebc 122f 39bd
00000280: 85d2 b939 f444 183c 6a47 553d d5a7 35bd
00000290: b95a 1fbd b21a 7bbb d399 efbc 2c0c 433d
000002a0: eeea 7dbd b7d0 55bd 813a 0bbc 5ea7 75bc
000002b0: 7784 97bc c113 703c d9f5 7a3d 219d 1c3c
000002c0: 668e 7fbd ba6f 61bd c8c6 f9bc 656b 153c
000002d0: 8457 8dbc f788 15bd 3f5b a13b bc80 2abb
000002e0: deeb acbb 8678 4cbb bcb8 59ba 0561 f63c
000002f0: 168b 763d f64d 6cbc b3ed 3ebd e74a febc
00000300: dd9e 043d aee3 1e3b 15bd 033d ffad 7f3c
00000310: 4078 d43a de87 acbc 89ae 983d dc43 09bc
00000320: 9939 c7bc f6ba ad3d 00bc 1c3d 80dc 2a3c
00000330: 3f12 51bd 3eff 193d 31fb ca3c 5be9 4abd
00000340: f30f 53bd 537f 0c3d 363a 32bd 8bf3 76bb
00000350: fe10 5fbd f493 5bbd d62b b23c 5c84 133c
00000360: 5e47 babc b57f 81bd df69 f1bc cd20 9abc
00000370: f4f4 8c3d 2e30 c9bb 282b a73c f0da 56bc
00000380: 4a57 5c3b 7d36 94bd f1d0 1bbd b02c 54bb
00000390: 617d 8a3c 27fb cdbc 2386 4bba 68aa f33c
000003a0: 4d10 41bb 4ae5 763d f698 6c3c 55d8 0b3d
000003b0: 7cbf e0bc cd64 5fbc d3b3 a73c 0ee0 a4bc
000003c0: 19fb b6bc 7ec6 0a3d c3c8 48bb 8091 93bc
000003d0: 6ce1 37bd 80f2 2fbd 12e1 f53b 6d52 d93b
000003e0: 4027 273a 40a5 5a3c e309 8dbd 55f8 723c
000003f0: 67f1 ea3c da2a 8dbc 0954 803c 252c fabc
-0.062096987 -0.0008541363 -0.00478689 -0.06667641 -0.035422012 -0.03244181 0.008563902 0.05727286
-0.02500915 0.032350704 -0.035559814 -0.030235227 0.061302025 -0.04931539 0.05690557 0.010052365
0.025705809 0.029653449 -0.06359458 -0.026424892 0.027559597 -0.008093551 0.024700928 -0.03205328
0.045301076 0.05730517 0.032427177 -0.03019385 -0.011144059 -0.043926585 0.004341322 0.03923436
0.00884036 -0.031095063 0.0041906917 0.011859065 0.04979731 0.058876686 -0.05087884 0.024617556
-0.023105338 -0.01604323 -0.003003139 0.016537424 0.032807138 -0.034446213 0.023474826 -0.0019908366
0.0017582787 0.017698715 0.052171428 0.04055743 -0.047507104 -0.0047692824 0.05182895 0.05304834
-0.008342575 -0.015955966 -0.0045631756 0.09470255 -0.01702402 -0.03812415 0.0015208423 0.026381055
0.034480054 0.07342065 0.068573914 -0.019339444 -0.024719788 0.021314777 -0.02539815 -0.01932129
-0.0479809 0.024130523 -0.05021808 0.0009411361 -0.0043497216 -0.014094344 0.030072486 -0.009884374
0.011009405 -0.07732673 -0.0054373248 -0.021312593 0.013651701 -0.005176513 -0.008282622 0.0075652655
0.008964368 0.022999147 0.056852836 0.0069190077 -0.056260902 -0.013161444 -0.057678442 -0.048039418
0.0052521573 -0.00953453 0.06350289 0.0898795 0.038905747 0.0027362627 -0.01376124 -0.039685003
0.00462801 -0.03698025 -0.03776523 -0.045710072 -0.024390755 -0.030949457 0.04859283 0.009122923
0.03603161 -0.019249631 -0.027634125 -0.01785663 0.010046687 -0.037893325 0.06827209 0.030368196
0.030328715 0.056619775 0.0044036624 0.061134864 -0.0073348945 0.011819937 -0.05444162 0.030144988
-0.023734529 0.05193332 -0.00010764599 0.041209366 -0.06198573 -0.045834847 0.04075481 0.04808882
-0.017163228 0.014012029 0.032904327 -0.007427193 -0.014741375 0.030746613 0.047996316 0.0013886002
0.006646073 -0.03302957 -0.06418021 0.021281226 -0.003211445 -0.052882884 -0.053635135 0.03069775
0.029446894 -0.0021261466 0.008599564 0.040379256 -0.03531433 -0.003719429 -0.019375797 -0.045210905
0.000354428 0.009293783 0.05207006 -0.04434951 -0.03890488 -0.0038315472 -0.029248154 0.04761903
-0.061991625 -0.052201 -0.008497835 -0.014993517 -0.018495781 0.014653147 0.061269615 0.009558947
-0.06239166 -0.05503819 -0.030490294 0.009119843 -0.017253645 -0.036507573 0.0049242075 -0.0026016673
-0.005277141 -0.0031199767 -0.00083054206 0.03007556 0.060191236 -0.014422884 -0.046613406 -0.031041576
0.032378066 0.0024244594 0.032162745 0.015605449 0.0016210154 -0.02106088 0.07455165 -0.008377995
-0.024319457 0.084829256 0.03826523 0.010428548 -0.05104279 0.037596934 0.02477798 -0.04953895
-0.051528882 0.034301113 -0.043512546 -0.0037681784 -0.054459564 -0.053607896 0.021749418 0.009003725
-0.022739109 -0.06323186 -0.029469429 -0.018814469 0.068826586 -0.0061397767 0.02040632 -0.013113722
0.0033621364 -0.07236955 -0.03804106 -0.0032375269 0.016905488 -0.025144173 -0.00077638234 0.029744342
-0.002945918 0.06027726 0.014440766 0.034141857 -0.027435057 -0.013634873 0.020471489 -0.020126369
-0.02233653 0.033880703 -0.0030637241 -0.018013716 -0.044892713 -0.042955875 0.007503637 0.0066321404
0.0006376393 0.013345063 -0.06886651 0.014829715 0.028679563 -0.017232347 0.015665071 -0.030538628

fc1.bias f4 [400]
00000000: aba8 ed3d 5c64 da3d 13bb 64bd e982 de3d
00000010: e781 3ebd d65c 97bd bd89 fc3d 2bc5 d43d
00000020: c266 ae3d 7461 333e 40ab a3bd b059 6d3e
00000030: 74db 393e 2e41 ee3c d568 6c3c 80ca 323d
00000040: 1df7 033e b817 2f3e 4216 243e bc55 a1bc
00000050: 3fe8 afbd c903 02bc a229 1fbe 0523 36bd
00000060: ab61 26be 327b 273c 6012 d9bd 8d95 4ebc
00000070: dc5e 963c 8173 bfbd ec05 3b3e 31ef 99bc
00000080: 69db 85bd 8e8f 173e fa64 403e 81bd c13d
00000090: 95bf 17be 30cf 163d 2102 113c 1350 c83b
000000a0: a39e 2c3e 4206 213e 8806 833d be79 53be
000000b0: 6961 06be f681 28bd 37be f13c 33be bc3d
000000c0: bd10 c93d dd7b fabd 7ece 83bd bcf4 ff3d
000000d0: 4110 2a3e 3136 5b3e ab3f f13d ea98 b63d
000000e0: f57c 33be 95ba 4b3e 5ecf 9bbd 63f0 3fbe
000000f0: 973b 063e b1f6 d6bd 771a 633d 1ef8 efbc
00000100: 4b57 e13d 2fa2 a7bd dfa5 593e 75c4 823d
00000110: d2d9 21be 707d 883d 527b 2bbd e12f 0a3d
00000120: e9e0 393e 9b25 17be 267f 1c3d d810 b63d
00000130: ebe0 113e 21cf 14be 8224 2abe 0975 203e
00000140: 49ef 2d3e 1a93 0e3e 2131 323e dc5e dcbd
00000150: a372 203d f7cc a9bd a80f 3f3e 141e 533d
00000160: 0276 df3c 0795 bfbd 535f 11bc 4382 583c
00000170: cca8 503e c008 443c b6c5 b23d 87c9 6a3c
00000180: 9c4a c0bd 977c e73d 4489 753b d608 07bc
00000190: 10cc b0bd 3436 013d 2d82 19bd 0502 bd3d
000001a0: effb cabc 2532 b73d de26 ac3d c8f0 fe3c
000001b0: b563 debd 8845 5f3d 2f8d a13c a63e 14be
000001c0: 103f babc f985 833c f6a4 f43d 1df9 2f3d
000001d0: b13f 913d c137 f23d fccd c5bc 21bd 19bd
000001e0: 5115 243d 1aa3 55bd ee46 133d 5b05 a33d
000001f0: 81e6 cabc 2c95 623e a857 c5bc 4038 7c3c
00000200: 2081 3c3e 3877 223e 6e64 e4bd 19cd 643d
00000210: 9b61 0d3e 536a 963d 503e c3bb 8083 283e
00000220: 6e40 43bc 251c a23d 5679 6f3b 210e 9f3d
00000230: abdd e0bd 430e 173e 29d3 09bd 9fe2 b53d
00000240: 775a 043e 8fb3 393e e439 1cbd 70db 82bd
00000250: 9ec1 ca3d f92d 293e 1514 ff3c 5eb5 fe3c
00000260: 23be 38be 9e6d 543c c113 a83d 9756 953d
00000270: ada8 863d 1b83 6c3e c78e a4bd fe24 c53d
00000280: 9096 4e3d c711 3a3e 76dd bebd 5d06 c83d
00000290: 04c9 473e fa35 13be 006e 193e da8a 593d
000002a0: 85dc 0fbc 7bb8 32bd fce2 6cbd 3062 fc3d
000002b0: ef93 73bd 3a41 a43c 997f 063e 3a43 873d
000002c0: 0505 f73d 3e99 03bc 3734 f43d 8df9 4e3d
000002d0: 9fb2 6a3e b4be f5bd f1bc e33d 6dfa 423e
000002e0: c141 083e 81ed 213e 0922 c03d 4d37 313e
000002f0: 9f4a fdbd 7452 cf3c ad97 a33d 908d 553e
00000300: 217f 81bc 2ae7 e7bb b7eb 113e f898 063e
00000310: 8595 2f3e 61f8 abbd 5145 113e a514 af3c
00000320: 9b4f 1b3e ac3a b73d 62aa fabd b3b9 e7bd
00000330: 8d4e be3d 9f0f 63bd b580 02be 2932 d83d
00000340: 941c 0bbe 33e0 d53d 75f0 bbbd 2891 2a3e
00000350: f313 2fbe 7870 643c 5e98 373e 5e3f e8bd
00000360: 3213 1cbe 5c9a 25be e7fa a73d 81c5 263d
00000370: 27d6 0cbe 0882 cc3c 4fac 1cbe fa8b 0b3d
00000380: 92ab 08be 45c5 ef3d 6335 03be 9a5d 08be
00000390: 3271 25bd 96b7 b73d 5408 c7bc 80cf 523e
000003a0: baef 173c b07d 08be 4e65 2a3e 55eb 003d
000003b0: d7d8 3dbe 46db acbd 2803 97bd 02d7 b63d
000003c0: 5c4c 713c 6d2f 553d ae2a c1bd 9f20 0f3e
000003d0: 0b66 e7bc 33ff f5bc a98b e7bd 7774 00be
000003e0: f171 513d 5357 f93d 9aea eebd bbc6 3f3d
000003f0: a09b 273e 1b41 cc3d 4302 a53d 0c3a cdbd
0.116044365 0.10663673 -0.05584247 0.10864813 -0.046510603 -0.07390754 0.12330959 0.10389169
0.08515693 0.17517644 -0.07991648 0.23178744 0.18150121 0.029083814 0.014429291 0.04365015
0.12887235 0.17098892 0.16024116 -0.019694202 -0.08589219 -0.007935473 -0.15543225 -0.04446699
-0.16248195 0.010222243 -0.10599208 -0.012608898 0.01835578 -0.093482025 0.18263978 -0.018790813
-0.0653599 0.14800856 0.1878852 0.09459973 -0.14819176 0.036818683 0.008850605 0.006113061
0.1685739 0.15725043 0.0639773 -0.2065191 -0.13123097 -0.041139565 0.029509647 0.09215965
0.09817646 -0.12230656 -0.0643587 0.12497851 0.16607763 0.21407391 0.11779722 0.08915885
-0.17528136 0.19895394 -0.076079115 -0.18744044 0.13108669 -0.104962714 0.05544516 -0.029293116
0.11002978 -0.08185231 0.21254681 0.063851275 -0.15805748 0.0666455 -0.041865654 0.033737067
0.18152203 -0.14760439 0.038207196 0.088899314 0.14245956 -0.14532138 -0.16615489 0.15669645
0.16985811 0.13923302 0.17401554 -0.107602805 0.039171826 -0.08291047 0.18658316 0.051542357
0.02727795 -0.093545966 -0.008872825 0.013214651 0.20376891 0.011964977 0.087291166 0.014330274
-0.093892306 0.113030605 0.003746585 -0.008241853 -0.08632672 0.031545833 -0.03747766 0.09228901
-0.024778334 0.08945111 0.08405851 0.031120673 -0.10858861 0.05450967 0.019720642 -0.14477023
-0.022735149 0.016055094 0.11945526 0.042962182 0.07092226 0.118270405 -0.024146073 -0.037533883
0.04005939 -0.0521575 0.035956316 0.07960006 -0.024768116 0.22127217 -0.02408965 0.01539427
0.18408632 0.15865791 -0.11151968 0.05585966 0.13806765 0.073444985 -0.005958356 0.16456413
-0.011917217 0.079155244 0.0036540828 0.07766367 -0.1097978 0.14751534 -0.033648644 0.08881115
0.12925135 0.18134902 -0.038141146 -0.06389511 0.09900211 0.16521443 0.031137506 0.031092342
-0.18041281 0.012965588 0.08206893 0.07291906 0.06575141 0.23096888 -0.08035045 0.09626196
0.050436556 0.18170844 -0.09319584 0.09766839 0.19510275 -0.14376059 0.14983368 0.053110935
-0.008780603 -0.043632966 -0.057833657 0.12323415 -0.059467252 0.020050634 0.13134612 0.06604619
0.12061504 -0.008032141 0.11924022 0.05053096 0.22919701 -0.11999264 0.11120022 0.19040842
0.13306333 0.15813257 0.09381492 0.17306252 -0.123677485 0.025307871 0.07987914 0.20854783
-0.01580769 -0.0070771175 0.14250074 0.1314429 0.17146881 -0.08396984 0.14186598 0.021372149
0.15167086 0.08946738 -0.12239529 -0.11314716 0.09292326 -0.05543482 -0.1274441 0.10556442
-0.1358512 0.10443153 -0.09176723 0.16656935 -0.17097454 0.01394283 0.17929217 -0.11340211
-0.15241697 -0.16172165 0.08202153 0.0407157 -0.13753568 0.024964347 -0.15300106 0.03406904
-0.13346699 0.11707548 -0.12813334 -0.13316956 -0.040391155 0.08970563 -0.024295963 0.20586967
0.009273464 -0.13329196 0.16640207 0.03147443 -0.18539749 -0.084402606 -0.07373649 0.08927728
0.014727678 0.052047182 -0.09431969 0.13977288 -0.0282469 -0.030028915 -0.11305935 -0.12544428
0.051134054 0.12174859 -0.116658404 0.046820384 0.1636796 0.099733554 0.08057072 -0.10020837

fc1_bn.weight f4 [400]
00000000: 7c2f 273f c0bd 753d 7ebd fe3e 551b 163f
00000010: de59 933e be22 7d3f 08f0 d83d 7c39 623e
00000020: 2498 113f 503d 7b3e 77c0 1f3f 878f 653f
00000030: eb36 613f 60fb 823d 6b93 593f 8486 793e
00000040: b994 363f abb3 1e3f b489 0e3e 6239 183f
00000050: 828f a33e 82d3 313f 1193 153f 501a 8e3e
00000060: 104d 533e 1a53 043f 7aa1 853e 15f2 513f
00000070: 20f2 ea3e a01c 013e 50e3 653e 80cf 323e
00000080: fcd6 9c3e 888e 623e e61e 4c3f 083c 513e
00000090: ec3d 3b3e 2921 023f 00b8 033d 5ace b93e
000000a0: 8c55 8e3e b6f5 a43e 0f2c 473f 7b9e 543f
000000b0: efd4 103f b02e 2f3e 541b 773e 69c3 473f
000000c0: 5a4e b13e 26b4 bd3e f6a5 dd3e 728c 853e
000000d0: 38a8 033f 28ee be3e 507e 1e3e 1568 6a3f
000000e0: 80bb cb3d 8684 0b3f becb 523f 9249 c13e
000000f0: 9c27 c33e 60d8 e63c 20a1 a63e 6a09 cb3e
00000100: bf24 5a3f 8ca3 353f b8cd ca3d edeb 343f
00000110: 90c1 503f 1463 c83e 3b10 433f b6d9 c43e
00000120: b966 263f 4089 ec3d afe0 3b3f 4053 543e
00000130: 021b b63e 0885 2e3e 0b93 7b3f 0810 0d3f
00000140: 185a 2d3e 38d1 203f 62a8 303f 1c7f 2e3f
00000150: 0035 cb3c 78e9 323f e03e 833c 1a23 753f
00000160: dce4 0b3e 9342 6f3f a46f 583f 7ca8 123f
00000170: f8a3 a63d f787 683f 30da 423e c02a 8a3c
00000180: fe98 e43e ae15 b13e ecc5 033e c898 e03e
00000190: ac7a 633e e473 323f 51ee 113f 8692 3d3f
000001a0: d96f 393f 3ceb 843e 689e d43d 58f9 533e
000001b0: 5502 7e3f aa12 4f3f 1895 4d3e 6080 9c3e
000001c0: 446d c93e 2b11 333f 30ff 133f 78d0 393f
000001d0: f13c 723f c56e 0b3f dc01 3e3e 46aa 0b3f
000001e0: 569d 903e 5483 603f bc91 163e 4030 543c
000001f0: 77ff 213f e856 7b3e 9a8c b53e 5e36 463f
00000200: de74 a73e 7095 dc3e 1278 c33e c29d 753f
00000210: 722f 403f 909e a03d 70c3 3b3e 948c 3e3e
00000220: b876 703e 4c3f b73e 408a 573c e79d 763f
00000230: 2e01 543f 6406 173f d24c 4d3f dae3 653f
00000240: 3d87 083f 60ba 5c3f 82d5 673f 0bc2 123f
00000250: 5606 aa3e d9e8 433f ca32 a93e 920c 113f
00000260: a07f d83e eabd 0d3f 0238 833e 08a0 313f
00000270: 46df 913e 3173 6a3f 303c 6b3e 600a fa3d
00000280: 2639 f73e 2665 df3e e0a2 433e 7375 023f
00000290: 8abd 4d3f 907c b13e 55b1 193f 1983 173f
000002a0: fe62 7b3f b41b 373f af17 0f3f a8b3 793f
000002b0: 8f77 743f 239b 453f 1915 503f e8dc 393e
000002c0: ae1b 8d3e 9080 073e 00bb db3d 48b3 d73d
000002d0: a483 5f3e ca07 cb3e 515d 573f 6459 493f
000002e0: 409d c13e 382f 283e a0da 2a3d 5e7c 543f
000002f0: 1a33 133f 705e 413f d10e 773f 90ae a73e
00000300: 74ae 653f a8f9 f03e 42d0 643f 225b 5d3f
00000310: 987b 2d3e b2b2 b63e 80f2 e03e 0c50 1f3f
00000320: 409c c73d ac1e 623f b260 853e 7237 ea3e
00000330: a71d 673f e40c ad3e 43d2 163f cc9a 4c3f
00000340: 352f 583f 615f 483f 7ab1 c73e aa7c 9c3e
00000350: 50af d13e 58b9 a33d e860 033e c0c1 ef3e
00000360: 93fb 7d3f 6041 453d b4d0 a83e 8289 e43e
00000370: 9d00 0c3f aa92 533f b250 8f3e 6468 0e3f
00000380: cec0 9e3e 3c17 943e d56d 6a3f d7a3 313f
00000390: b868 153f 40c0 833c 9cb0 2a3e 428d 293f
000003a0: eccd 093f a67b 3d3f eeec c03e a62d 9c3e
000003b0: b429 983e 6e19 fe3e 00c3 473f a81c 613e
000003c0: 984a 313e 188c f93e 003e ec3d 2a87 3b3f
000003d0: e28c d83e 2c89 db3e 5429 fa3e c8c0 b33e
000003e0: 5b96 243f 7f90 363f 25a0 273f fc90 123f
000003f0: 7295 163f d7fc 403f 06ec ab3e cbc5 133f
0.6530683 0.059995413 0.49753946 0.58635455 0.287795 0.9888114 0.10592657 0.22092241
0.56872773 0.24535108 0.62403053 0.8967213 0.87974423 0.06395602 0.84990567 0.2436772
0.7132068 0.619929 0.13919717 0.5946256 0.31945425 0.6946336 0.5842753 0.2775445
0.20634866 0.516893 0.2609976 0.8201001 0.45887852 0.12608576 0.22449994 0.17461967
0.3063277 0.22124684 0.7973465 0.20433056 0.1828534 0.5083185 0.032157898 0.36290246
0.27799642 0.32218713 0.77801603 0.8305432 0.5657491 0.17107654 0.24131519 0.7803255
0.3463009 0.37051505 0.4329068 0.26083714 0.51428556 0.37291074 0.15477872 0.91565067
0.09947872 0.5449909 0.82342136 0.37751442 0.38116157 0.028179348 0.32544804 0.3965562
0.8521232 0.7095268 0.09902519 0.70672494 0.8154535 0.3913809 0.7619664 0.3844735
0.6500049 0.11549616 0.73389715 0.20734882 0.3556748 0.17042935 0.98271245 0.55102587
0.169289 0.6281924 0.6900693 0.68162704 0.024805546 0.69887495 0.016021192 0.95756686
0.13661522 0.9346096 0.8454535 0.57288337 0.08136743 0.90832466 0.19028544 0.016866088
0.44647974 0.34586853 0.1286847 0.43866563 0.22214764 0.69708085 0.57004267 0.740517
0.7243629 0.2596072 0.10381776 0.20700586 0.9922231 0.80887854 0.20076406 0.30566692
0.39341176 0.6994807 0.5781126 0.72583723 0.9462424 0.54465896 0.18555397 0.5455669
0.28245038 0.8770039 0.14704031 0.012950957 0.63280433 0.24544871 0.35458833 0.7742671
0.3270635 0.43082762 0.38177544 0.95943844 0.75072396 0.078427434 0.18336272 0.18608314
0.23482788 0.3579048 0.01315552 0.9633469 0.828143 0.58994126 0.80195343 0.898008
0.5333136 0.86221886 0.9056016 0.57327336 0.3320796 0.7652717 0.3304656 0.56659806
0.4228487 0.5536791 0.25628668 0.69384813 0.28490657 0.9158202 0.22972178 0.1220901
0.48285788 0.43631858 0.191051 0.50960463 0.8036734 0.34665346 0.6003621 0.59184414
0.98197925 0.71526647 0.55895513 0.9753976 0.9549493 0.77189845 0.8128219 0.18150675
0.2756018 0.13232636 0.10729027 0.10532242 0.2182756 0.3965438 0.84126765 0.78652024
0.37815285 0.16424263 0.041712403 0.8300227 0.5749985 0.75534725 0.96506983 0.32750368
0.8971932 0.47065473 0.89380276 0.8646718 0.16941679 0.3568321 0.43935013 0.62231517
0.09746599 0.8832805 0.26050335 0.45745426 0.9027962 0.33798897 0.58914584 0.799237
0.8444703 0.78270537 0.3900259 0.3056386 0.40954065 0.07994336 0.12829936 0.46827507
0.99211997 0.04815805 0.32971728 0.4463616 0.54688436 0.82645667 0.27991253 0.5562804
0.31006473 0.28923976 0.9157384 0.69390625 0.58362913 0.016082883 0.16668934 0.6623117
0.53829837 0.740168 0.37680763 0.30503577 0.29719317 0.49628776 0.7803192 0.21983588
0.17313612 0.48739696 0.11535263 0.7325312 0.42294985 0.4287809 0.48859656 0.35108018
0.64291924 0.71314234 0.65478736 0.5725248 0.58821785 0.75385803 0.3357851 0.57723683

fc1_bn.bias f4 [400]
00000000: 0000 0000 0000 0000 0000 0000 0000 0000
00000010: 0000 0000 0000 0000 0000 0000 0000 0000
00000020: 0000 0000 0000 0000 0000 0000 0000 0000
00000030: 0000 0000 0000 0000 0000 0000 0000 0000
00000040: 0000 0000 0000 0000 0000 0000 0000 0000
00000050: 0000 0000 0000 0000 0000 0000 0000 0000
00000060: 0000 0000 0000 0000 0000 0000 0000 0000
00000070: 0000 0000 0000 0000 0000 0000 0000 0000
00000080: 0000 0000 0000 0000 0000 0000 0000 0000
00000090: 0000 0000 0000 0000 0000 0000 0000 0000
000000a0: 0000 0000 0000 0000 0000 0000 0000 0000
000000b0: 0000 0000 0000 0000 0000 0000 0000 0000
000000c0: 0000 0000 0000 0000 0000 0000 0000 0000
000000d0: 0000 0000 0000 0000 0000 0000 0000 0000
000000e0: 0000 0000 0000 0000 0000 0000 0000 0000
000000f0: 0000 0000 0000 0000 0000 0000 0000 0000
00000100: 0000 0000 0000 0000 0000 0000 0000 0000
00000110: 0000 0000 0000 0000 0000 0000 0000 0000
00000120: 0000 0000 0000 0000 0000 0000 0000 0000
00000130: 0000 0000 0000 0000 0000 0000 0000 0000
00000140: 0000 0000 0000 0000 0000 0000 0000 0000
00000150: 0000 0000 0000 0000 0000 0000 0000 0000
00000160: 0000 0000 0000 0000 0000 0000 0000 0000
00000170: 0000 0000 0000 0000 0000 0000 0000 0000
00000180: 0000 0000 0000 0000 0000 0000 0000 0000
00000190: 0000 0000 0000 0000 0000 0000 0000 0000
000001a0: 0000 0000 0000 0000 0000 0000 0000 0000
000001b0: 0000 0000 0000 0000 0000 0000 0000 0000
000001c0: 0000 0000 0000 0000 0000 0000 0000 0000
000001d0: 0000 0000 0000 0000 0000 0000 0000 0000
000001e0: 0000 0000 0000 0000 0000 0000 0000 0000
000001f0: 0000 0000 0000 0000 0000 0000 0000 0000
00000200: 0000 0000 0000 0000 0000 0000 0000 0000
00000210: 0000 0000 0000 0000 0000 0000 0000 0000
00000220: 0000 0000 0000 0000 0000 0000 0000 0000
00000230: 0000 0000 0000 0000 0000 0000 0000 0000
00000240: 0000 0000 0000 0000 0000 0000 0000 0000
00000250: 0000 0000 0000 0000 0000 0000 0000 0000
00000260: 0000 0000 0000 0000 0000 0000 0000 0000
00000270: 0000 0000 0000 0000 0000 0000 0000 0000
00000280: 0000 0000 0000 0000 0000 0000 0000 0000
00000290: 0000 0000 0000 0000 0000 0000 0000 0000
000002a0: 0000 0000 0000 0000 0000 0000 0000 0000
000002b0: 0000 0000 0000 0000 0000 0000 0000 0000
000002c0: 0000 0000 0000 0000 0000 0000 0000 0000
000002d0: 0000 0000 0000 0000 0000 0000 0000 0000
000002e0: 0000 0000 0000 0000 0000 0000 0000 0000
000002f0: 0000 0000 0000 0000 0000 0000 0000 0000
00000300: 0000 0000 0000 0000 0000 0000 0000 0000
00000310: 0000 0000 0000 0000 0000 0000 0000 0000
00000320: 0000 0000 0000 0000 0000 0000 0000 0000
00000330: 0000 0000 0000 0000 0000 0000 0000 0000
00000340: 0000 0000 0000 0000 0000 0000 0000 0000
00000350: 0000 0000 0000 0000 0000 0000 0000 0000
00000360: 0000 0000 0000 0000 0000 0000 0000 0000
00000370: 0000 0000 0000 0000 0000 0000 0000 0000
00000380: 0000 0000 0000 0000 0000 0000 0000 0000
00000390: 0000 0000 0000 0000 0000 0000 0000 0000
000003a0: 0000 0000 0000 0000 0000 0000 0000 0000
000003b0: 0000 0000 0000 0000 0000 0000 0000 0000
000003c0: 0000 0000 0000 0000 0000 0000 0000 0000
000003d0: 0000 0000 0000 0000 0000 0000 0000 0000
000003e0: 0000 0000 0000 0000 0000 0000 0000 0000
000003f0: 0000 0000 0000 0000 0000 0000 0000 0000
0.0 0.0 0.0 0.0 0.0 0.0 0.0 0.0
0.0 0.0 0.0 0.0 0.0 0.0 0.0 0.0
0.0 0.0 0.0 0.0 0.0 0.0 0.0 0.0
0.0 0.0 0.0 0.0 0.0 0.0 0.0 0.0
0.0 0.0 0.0 0.0 0.0 0.0 0.0 0.0
0.0 0.0 0.0 0.0 0.0 0.0 0.0 0.0
0.0 0.0 0.0 0.0 0.0 0.0 0.0 0.0
0.0 0.0 0.0 0.0 0.0 0.0 0.0 0.0
0.0 0.0 0.0 0.0 0.0 0.0 0.0 0.0
0.0 0.0 0.0 0.0 0.0 0.0 0.0 0.0
0.0 0.0 0.0 0.0 0.0 0.0 0.0 0.0
0.0 0.0 0.0 0.0 0.0 0.0 0.0 0.0
0.0 0.0 0.0 0.0 0.0 0.0 0.0 0.0
0.0 0.0 0.0 0.0 0.0 0.0 0.0 0.0
0.0 0.0 0.0 0.0 0.0 0.0 0.0 0.0
0.0 0.0 0.0 0.0 0.0 0.0 0.0 0.0
0.0 0.0 0.0 0.0 0.0 0.0 0.0 0.0
0.0 0.0 0.0 0.0 0.0 0.0 0.0 0.0
0.0 0.0 0.0 0.0 0.0 0.0 0.0 0.0
0.0 0.0 0.0 0.0 0.0 0.0 0.0 0.0
0.0 0.0 0.0 0.0 0.0 0.0 0.0 0.0
0.0 0.0 0.0 0.0 0.0 0.0 0.0 0.0
0.0 0.0 0.0 0.0 0.0 0.0 0.0 0.0
0.0 0.0 0.0 0.0 0.0 0.0 0.0 0.0
0.0 0.0 0.0 0.0 0.0 0.0 0.0 0.0
0.0 0.0 0.0 0.0 0.0 0.0 0.0 0.0
0.0 0.0 0.0 0.0 0.0 0.0 0.0 0.0
0.0 0.0 0.0 0.0 0.0 0.0 0.0 0.0
0.0 0.0 0.0 0.0 0.0 0.0 0.0 0.0
0.0 0.0 0.0 0.0 0.0 0.0 0.0 0.0
0.0 0.0 0.0 0.0 0.0 0.0 0.0 0.0
0.0 0.0 0.0 0.0 0.0 0.0 0.0 0.0

fc1_bn.running_mean f4 [400]
00000000: 0000 0000 0000 0000 0000 0000 0000 0000
00000010: 0000 0000 0000 0000 0000 0000 0000 0000
00000020: 0000 0000 0000 0000 0000 0000 0000 0000
00000030: 0000 0000 0000 0000 0000 0000 0000 0000
00000040: 0000 0000 0000 0000 0000 0000 0000 0000
00000050: 0000 0000 0000 0000 0000 0000 0000 0000
00000060: 0000 0000 0000 0000 0000 0000 0000 0000
00000070: 0000 0000 0000 0000 0000 0000 0000 0000
00000080: 0000 0000 0000 0000 0000 0000 0000 0000
00000090: 0000 0000 0000 0000 0000 0000 0000 0000
000000a0: 0000 0000 0000 0000 0000 0000 0000 0000
000000b0: 0000 0000 0000 0000 0000 0000 0000 0000
000000c0: 0000 0000 0000 0000 0000 0000 0000 0000
000000d0: 0000 0000 0000 0000 0000 0000 0000 0000
000000e0: 0000 0000 0000 0000 0000 0000 0000 0000
000000f0: 0000 0000 0000 0000 0000 0000 0000 0000
00000100: 0000 0000 0000 0000 0000 0000 0000 0000
00000110: 0000 0000 0000 0000 0000 0000 0000 0000
00000120: 0000 0000 0000 0000 0000 0000 0000 0000
00000130: 0000 0000 0000 0000 0000 0000 0000 0000
00000140: 0000 0000 0000 0000 0000 0000 0000 0000
00000150: 0000 0000 0000 0000 0000 0000 0000 0000
00000160: 0000 0000 0000 0000 0000 0000 0000 0000
00000170: 0000 0000 0000 0000 0000 0000 0000 0000
00000180: 0000 0000 0000 0000 0000 0000 0000 0000
00000190: 0000 0000 0000 0000 0000 0000 0000 0000
000001a0: 0000 0000 0000 0000 0000 0000 0000 0000
000001b0: 0000 0000 0000 0000 0000 0000 0000 0000
000001c0: 0000 0000 0000 0000 0000 0000 0000 0000
000001d0: 0000 0000 0000 0000 0000 0000 0000 0000
000001e0: 0000 0000 0000 0000 0000 0000 0000 0000
000001f0: 0000 0000 0000 0000 0000 0000 0000 0000
00000200: 0000 0000 0000 0000 0000 0000 0000 0000
00000210: 0000 0000 0000 0000 0000 0000 0000 0000
00000220: 0000 0000 0000 0000 0000 0000 0000 0000
00000230: 0000 0000 0000 0000 0000 0000 0000 0000
00000240: 0000 0000 0000 0000 0000 0000 0000 0000
00000250: 0000 0000 0000 0000 0000 0000 0000 0000
00000260: 0000 0000 0000 0000 0000 0000 0000 0000
00000270: 0000 0000 0000 0000 0000 0000 0000 0000
00000280: 0000 0000 0000 0000 0000 0000 0000 0000
00000290: 0000 0000 0000 0000 0000 0000 0000 0000
000002a0: 0000 0000 0000 0000 0000 0000 0000 0000
000002b0: 0000 0000 0000 0000 0000 0000 0000 0000
000002c0: 0000 0000 0000 0000 0000 0000 0000 0000
000002d0: 0000 0000 0000 0000 0000 0000 0000 0000
000002e0: 0000 0000 0000 0000 0000 0000 0000 0000
000002f0: 0000 0000 0000 0000 0000 0000 0000 0000
00000300: 0000 0000 0000 0000 0000 0000 0000 0000
00000310: 0000 0000 0000 0000 0000 0000 0000 0000
00000320: 0000 0000 0000 0000 0000 0000 0000 0000
00000330: 0000 0000 0000 0000 0000 0000 0000 0000
00000340: 0000 0000 0000 0000 0000 0000 0000 0000
00000350: 0000 0000 0000 0000 0000 0000 0000 0000
00000360: 0000 0000 0000 0000 0000 0000 0000 0000
00000370: 0000 0000 0000 0000 0000 0000 0000 0000
00000380: 0000 0000 0000 0000 0000 0000 0000 0000
00000390: 0000 0000 0000 0000 0000 0000 0000 0000
000003a0: 0000 0000 0000 0000 0000 0000 0000 0000
000003b0: 0000 0000 0000 0000 0000 0000 0000 0000
000003c0: 0000 0000 0000 0000 0000 0000 0000 0000
000003d0: 0000 0000 0000 0000 0000 0000 0000 0000
000003e0: 0000 0000 0000 0000 0000 0000 0000 0000
000003f0: 0000 0000 0000 0000 0000 0000 0000 0000
0.0 0.0 0.0 0.0 0.0 0.0 0.0 0.0
0.0 0.0 0.0 0.0 0.0 0.0 0.0 0.0
0.0 0.0 0.0 0.0 0.0 0.0 0.0 0.0
0.0 0.0 0.0 0.0 0.0 0.0 0.0 0.0
0.0 0.0 0.0 0.0 0.0 0.0 0.0 0.0
0.0 0.0 0.0 0.0 0.0 0.0 0.0 0.0
0.0 0.0 0.0 0.0 0.0 0.0 0.0 0.0
0.0 0.0 0.0 0.0 0.0 0.0 0.0 0.0
0.0 0.0 0.0 0.0 0.0 0.0 0.0 0.0
0.0 0.0 0.0 0.0 0.0 0.0 0.0 0.0
0.0 0.0 0.0 0.0 0.0 0.0 0.0 0.0
0.0 0.0 0.0 0.0 0.0 0.0 0.0 0.0
0.0 0.0 0.0 0.0 0.0 0.0 0.0 0.0
0.0 0.0 0.0 0.0 0.0 0.0 0.0 0.0
0.0 0.0 0.0 0.0 0.0 0.0 0.0 0.0
0.0 0.0 0.0 0.0 0.0 0.0 0.0 0.0
0.0 0.0 0.0 0.0 0.0 0.0 0.0 0.0
0.0 0.0 0.0 0.0 0.0 0.0 0.0 0.0
0.0 0.0 0.0 0.0 0.0 0.0 0.0 0.0
0.0 0.0 0.0 0.0 0.0 0.0 0.0 0.0
0.0 0.0 0.0 0.0 0.0 0.0 0.0 0.0
0.0 0.0 0.0 0.0 0.0 0.0 0.0 0.0
0.0 0.0 0.0 0.0 0.0 0.0 0.0 0.0
0.0 0.0 0.0 0.0 0.0 0.0 0.0 0.0
0.0 0.0 0.0 0.0 0.0 0.0 0.0 0.0
0.0 0.0 0.0 0.0 0.0 0.0 0.0 0.0
0.0 0.0 0.0 0.0 0.0 0.0 0.0 0.0
0.0 0.0 0.0 0.0 0.0 0.0 0.0 0.0
0.0 0.0 0.0 0.0 0.0 0.0 0.0 0.0
0.0 0.0 0.0 0.0 0.0 0.0 0.0 0.0
0.0 0.0 0.0 0.0 0.0 0.0 0.0 0.0
0.0 0.0 0.0 0.0 0.0 0.0 0.0 0.0

fc1_bn.running_var f4 [400]
00000000: 0000 803f 0000 803f 0000 803f 0000 803f
00000010: 0000 803f 0000 803f 0000 803f 0000 803f
00000020: 0000 803f 0000 803f 0000 803f 0000 803f
00000030: 0000 803f 0000 803f 0000 803f 0000 803f
00000040: 0000 803f 0000 803f 0000 803f 0000 803f
00000050: 0000 803f 0000 803f 0000 803f 0000 803f
00000060: 0000 803f 0000 803f 0000 803f 0000 803f
00000070: 0000 803f 0000 803f 0000 803f 0000 803f
00000080: 0000 803f 0000 803f 0000 803f 0000 803f
00000090: 0000 803f 0000 803f 0000 803f 0000 803f
000000a0: 0000 803f 0000 803f 0000 803f 0000 803f
000000b0: 0000 803f 0000 803f 0000 803f 0000 803f
000000c0: 0000 803f 0000 803f 0000 803f 0000 803f
000000d0: 0000 803f 0000 803f 0000 803f 0000 803f
000000e0: 0000 803f 0000 803f 0000 803f 0000 803f
000000f0: 0000 803f 0000 803f 0000 803f 0000 803f
00000100: 0000 803f 0000 803f 0000 803f 0000 803f
00000110: 0000 803f 0000 803f 0000 803f 0000 803f
00000120: 0000 803f 0000 803f 0000 803f 0000 803f
00000130: 0000 803f 0000 803f 0000 803f 0000 803f
00000140: 0000 803f 0000 803f 0000 803f 0000 803f
00000150: 0000 803f 0000 803f 0000 803f 0000 803f
00000160: 0000 803f 0000 803f 0000 803f 0000 803f
00000170: 0000 803f 0000 803f 0000 803f 0000 803f
00000180: 0000 803f 0000 803f 0000 803f 0000 803f
00000190: 0000 803f 0000 803f 0000 803f 0000 803f
000001a0: 0000 803f 0000 803f 0000 803f 0000 803f
000001b0: 0000 803f 0000 803f 0000 803f 0000 803f
000001c0: 0000 803f 0000 803f 0000 803f 0000 803f
000001d0: 0000 803f 0000 803f 0000 803f 0000 803f
000001e0: 0000 803f 0000 803f 0000 803f 0000 803f
000001f0: 0000 803f 0000 803f 0000 803f 0000 803f
00000200: 0000 803f 0000 803f 0000 803f 0000 803f
00000210: 0000 803f 0000 803f 0000 803f 0000 803f
00000220: 0000 803f 0000 803f 0000 803f 0000 803f
00000230: 0000 803f 0000 803f 0000 803f 0000 803f
00000240: 0000 803f 0000 803f 0000 803f 0000 803f
00000250: 0000 803f 0000 803f 0000 803f 0000 803f
00000260: 0000 803f 0000 803f 0000 803f 0000 803f
00000270: 0000 803f 0000 803f 0000 803f 0000 803f
00000280: 0000 803f 0000 803f 0000 803f 0000 803f
00000290: 0000 803f 0000 803f 0000 803f 0000 803f
000002a0: 0000 803f 0000 803f 0000 803f 0000 803f
000002b0: 0000 803f 0000 803f 0000 803f 0000 803f
000002c0: 0000 803f 0000 803f 0000 803f 0000 803f
000002d0: 0000 803f 0000 803f 0000 803f 0000 803f
000002e0: 0000 803f 0000 803f 0000 803f 0000 803f
000002f0: 0000 803f 0000 803f 0000 803f 0000 803f
00000300: 0000 803f 0000 803f 0000 803f 0000 803f
00000310: 0000 803f 0000 803f 0000 803f 0000 803f
00000320: 0000 803f 0000 803f 0000 803f 0000 803f
00000330: 0000 803f 0000 803f 0000 803f 0000 803f
00000340: 0000 803f 0000 803f 0000 803f 0000 803f
00000350: 0000 803f 0000 803f 0000 803f 0000 803f
00000360: 0000 803f 0000 803f 0000 803f 0000 803f
00000370: 0000 803f 0000 803f 0000 803f 0000 803f
00000380: 0000 803f 0000 803f 0000 803f 0000 803f
00000390: 0000 803f 0000 803f 0000 803f 0000 803f
000003a0: 0000 803f 0000 803f 0000 803f 0000 803f
000003b0: 0000 803f 0000 803f 0000 803f 0000 803f
000003c0: 0000 803f 0000 803f 0000 803f 0000 803f
000003d0: 0000 803f 0000 803f 0000 803f 0000 803f
000003e0: 0000 803f 0000 803f 0000 803f 0000 803f
000003f0: 0000 803f 0000 803f 0000 803f 0000 803f
1.0 1.0 1.0 1.0 1.0 1.0 1.0 1.0
1.0 1.0 1.0 1.0 1.0 1.0 1.0 1.0
1.0 1.0 1.0 1.0 1.0 1.0 1.0 1.0
1.0 1.0 1.0 1.0 1.0 1.0 1.0 1.0
1.0 1.0 1.0 1.0 1.0 1.0 1.0 1.0
1.0 1.0 1.0 1.0 1.0 1.0 1.0 1.0
1.0 1.0 1.0 1.0 1.0 1.0 1.0 1.0
1.0 1.0 1.0 1.0 1.0 1.0 1.0 1.0
1.0 1.0 1.0 1.0 1.0 1.0 1.0 1.0
1.0 1.0 1.0 1.0 1.0 1.0 1.0 1.0
1.0 1.0 1.0 1.0 1.0 1.0 1.0 1.0
1.0 1.0 1.0 1.0 1.0 1.0 1.0 1.0
1.0 1.0 1.0 1.0 1.0 1.0 1.0 1.0
1.0 1.0 1.0 1.0 1.0 1.0 1.0 1.0
1.0 1.0 1.0 1.0 1.0 1.0 1.0 1.0
1.0 1.0 1.0 1.0 1.0 1.0 1.0 1.0
1.0 1.0 1.0 1.0 1.0 1.0 1.0 1.0
1.0 1.0 1.0 1.0 1.0 1.0 1.0 1.0
1.0 1.0 1.0 1.0 1.0 1.0 1.0 1.0
1.0 1.0 1.0 1.0 1.0 1.0 1.0 1.0
1.0 1.0 1.0 1.0 1.0 1.0 1.0 1.0
1.0 1.0 1.0 1.0 1.0 1.0 1.0 1.0
1.0 1.0 1.0 1.0 1.0 1.0 1.0 1.0
1.0 1.0 1.0 1.0 1.0 1.0 1.0 1.0
1.0 1.0 1.0 1.0 1.0 1.0 1.0 1.0
1.0 1.0 1.0 1.0 1.0 1.0 1.0 1.0
1.0 1.0 1.0 1.0 1.0 1.0 1.0 1.0
1.0 1.0 1.0 1.0 1.0 1.0 1.0 1.0
1.0 1.0 1.0 1.0 1.0 1.0 1.0 1.0
1.0 1.0 1.0 1.0 1.0 1.0 1.0 1.0
1.0 1.0 1.0 1.0 1.0 1.0 1.0 1.0
1.0 1.0 1.0 1.0 1.0 1.0 1.0 1.0

fc2.weight f4 [300, 400]
00000000: 5123 cabc 0348 9d3d 18b7 063d b255 35bd
00000010: 3bb2 4ebd 8b3e 4a3d 9772 8d3d 8180 483d
00000020: 17af 1f3c a66c 7c3d 5c18 1c3d 673b 5a3c
00000030: a017 d73c 5f84 283d 4619 db3c d4bf 813d
00000040: 940b 2cbd a013 833d eec3 20bd 8835 323d
00000050: bf9e 203d 15b8 c23c e40b 783d 812a e7bc
00000060: f96f 94bc 15cc b9bc 9f1e c6bb 7fba 55bd
00000070: e824 d13c 93f1 f63c e8b9 52bc d07e 21bd
00000080: 9fb1 623c 3035 1d3c c827 8e3c e51b 3a3d
00000090: 3adf 0dbd 0113 6e3c 2833 8fbc 5dd7 7e3d
000000a0: 7f8a cfbb b89c 323d 35aa 813d 97ae c23b
000000b0: 10ce 13bd 5b05 33bc 5c6f 25bd e7ff 1d3c
000000c0: 4fdf 8c3b 1601 453d 1e2b 25bc ade5 853c
000000d0: 38cc 093d 4bd7 8fbc b5c9 eb3c 4d6e 4b3d
000000e0: becb 483d d880 6c3d 4ec9 903d 8835 c7bc
000000f0: 5091 813d 54c7 8b3c 980a 0ab7 ef4f b4bc
00000100: 5537 2b3d 3098 a13c 7bcc c6bc f5c9 e93c
00000110: 4c97 88bd 8853 e13c 333f 613d 4899 2bbd
00000120: f0c0 6c3d 6074 b4b9 ea11 0ebd 710f acbc
00000130: a70a 973d 73fc 01bd c3a5 f3bb 1b4c e3bc
00000140: 7b2f c83c 9342 693d 97db 46bd 9d4d a93d
00000150: 91f5 cd3c 9f4d 1c3d 210e 3f3c d4a8 2e3d
00000160: 62b6 4d3d f277 21bd b06c 163d 385c 3fbd
00000170: 3c6b 3bbd 5f33 00bd 17f9 5f3d a8fa 853d
00000180: 5805 fb3b f530 5bbd 8a1e 323d dbf9 793c
00000190: a7a3 1a3c c45a 453d 071b 083d c097 36bd
000001a0: 5599 babc 567f 103d 036c 653d 05b8 413d
000001b0: d4a0 1ebd e476 1c3d 76af ee3c c6f4 73bd
000001c0: 8607 323d 887b d83c 3b80 82bd 60ba b63a
000001d0: 3636 5c3d 6b9e 33bc b257 083d c4ff 3a3d
000001e0: 5c28 963d 6c55 563c 089b 213d 8cba 403d
000001f0: 8c04 133d eaa7 7cbc fd08 05bd 0c3a 86bd
00000200: 8298 0ebd 2f60 653d 0f5c 9b3b d2d6 d9bc
00000210: 3a35 efbc 8ab8 0dbd 986b 183b 3c2b 78bd
00000220: 7e9f c7bc d15a 19bd 404f 0f3b 5ed6 9b3c
00000230: f398 363c cf1c 903c cc4a c63c faf8 693c
00000240: 2f1f 1a3c 2703 90bc 20e0 5ebd 63d2 b3bc
00000250: ad4e 273d 2ea1 9bba 83eb 113b 906f 5abc
00000260: 735a 9abc 662f aabc 07b4 303d df54 0a3d
00000270: 425c 6d3d c6fc 863d 5b06 27bd c38c f0bb
00000280: 5307 3c3d 017b d43c eec5 45bd c2bc 3f3d
00000290: 903c 123d d2ed 30bd 95d2 333c 152f 613d
000002a0: eb27 39bc cf76 5e3d c65c b2bb f8a0 ee3a
000002b0: 36eb 4cbd 2967 8cbd c494 373d e285 c0bc
000002c0: 9383 99bc fc2f b63c 478d 41bd 17a1 53bd
000002d0: cf88 763d 662e ed3a 9e5d 9a3c d210 bd3c
000002e0: 0c01 46bd 7eac bf3c 7199 26bd b6d3 443c
000002f0: 9848 b23c 72d3 123d db43 cabb 43fb c8bc
00000300: 0efb 36bd 6046 ec3b a758 0ebd 86d7 423b
00000310: 066b 5cbd 5303 253c 3243 dfbc 9bfe bcbc
00000320: 767f 1a3c 2d00 28bd 4104 3d3c 8c8e 803c
00000330: 0714 233a 1f99 d33c 8600 743d 4d70 12bc
00000340: a372 193d 2a99 b13d 1739 033a a4cc 393d
00000350: 4fdc 6b3d f0a1 bdbc b032 c9bc 31d6 10bd
00000360: b268 d3bc d4d9 603c 3cc0 12bd 14c8 45bd
00000370: c150 4cbd 56be 3cbc 31e9 2bbd e208 f5bc
00000380: b1bc 55bd 15eb 853d 4574 e3bc 170e e9ba
00000390: d52d 01ba e1b0 cdbc 6221 66bc 2f68 8d3d
000003a0: ff12 1abd bfad 393d e9f4 b53d d0f5 afbc
000003b0: 2b68 473d 8507 b6bc b1b6 223d ee50 3bbc
000003c0: d9a8 93bb ae72 0a3d 8e6c f63c 4836 8f3c
000003d0: 3298 433d f0f8 21bc 3f31 c83c 165d 6b3d
000003e0: cfcc 01bd 3f14 a23c cebb 3cbb 28fb 0abc
000003f0: b5f5 6c3d 5b44 e0bc d014 0f3d 5dab 84bc
-0.024675043 0.07679751 0.032889456 -0.04427118 -0.050462943 0.049376052 0.06906622 0.048950676
0.0097463345 0.061627053 0.03810917 0.013319827 0.026256382 0.041141864 0.02674545 0.063354164
-0.04200323 0.064002275 -0.039249353 0.043508083 0.039213892 0.023769418 0.060558215 -0.02821851
-0.018119799 -0.022680322 -0.006046131 -0.05217981 0.025530294 0.030144488 -0.012861706 -0.03942758
0.0138362935 0.0095952 0.017352954 0.04543676 -0.034636714 0.014530898 -0.017480448 0.062217105
-0.0063336487 0.04360649 0.063312925 0.005941223 -0.03608519 -0.01092657 -0.040389404 0.009643531
0.0042990814 0.04809674 -0.010081081 0.01634487 0.033642024 -0.017558714 0.028782705 0.049665738
0.04902243 0.057740062 0.07069646 -0.024317518 0.06326544 0.01706282 -8.2279075e-06 -0.022010772
0.041800816 0.019725889 -0.024267426 0.028538683 -0.066694826 0.027505651 0.054991912 -0.041894227
0.057801187 -0.00034418982 -0.034685053 -0.021003457 0.07375079 -0.031734895 -0.007435532 -0.02774625
0.024436703 0.056948256 -0.04854926 0.08266757 0.02514151 0.038159963 0.011661083 0.042641476
0.050222762 -0.03942103 0.036724746 -0.046718806 -0.045756564 -0.03129899 0.05468091 0.065419495
0.007660549 -0.053513486 0.043486156 0.015257324 0.009438432 0.048182264 0.0332289 -0.044578314
-0.022778193 0.035277687 0.05601121 0.047294635 -0.038727596 0.03819932 0.0291364 -0.059559606
0.043464206 0.026426092 -0.06372114 0.0013941042 0.053762637 -0.010963063 0.033286758 0.045654073
0.07331917 0.01308189 0.03945449 0.047052905 0.035893008 -0.015420893 -0.032479275 -0.0655404
-0.03481341 0.05599993 0.004741199 -0.026591692 -0.029200185 -0.03459982 0.002325749 -0.060588107
-0.024368044 -0.037440125 0.0021867305 0.019023117 0.011144864 0.017591862 0.024205588 0.014280552
0.009406849 -0.017579628 -0.05441296 -0.021950906 0.040846515 -0.0011873597 0.002226562 -0.013332263
-0.018841958 -0.020774554 0.043140437 0.033772346 0.057949312 0.065911815 -0.040777545 -0.007340999
0.045905422 0.02593756 -0.048284464 0.046810873 0.03570229 -0.043195553 0.0109755 0.05497654
-0.011301021 0.054312523 -0.0054431884 0.0018205931 -0.050029002 -0.06855614 0.04481961 -0.02350134
-0.018739497 0.022239678 -0.047253873 -0.0516673 0.060189065 0.0018095493 0.018843468 0.02307931
-0.048340842 0.02339768 -0.040673677 0.012013366 0.021763131 0.03584618 -0.00617264 -0.024533873
-0.04467302 0.007210538 -0.034752514 0.0029730513 -0.053813003 0.010071593 -0.02725372 -0.023070624
0.009429803 -0.041015793 0.011536659 0.015692972 0.0006220941 0.02582985 0.05957081 -0.008937907
0.03746284 0.08671792 0.00050057605 0.045361176 0.05758315 -0.023148507 -0.024560302 -0.03536052
-0.025806759 0.013723809 -0.03582786 -0.048286512 -0.0498817 -0.011519989 -0.041970436 -0.029911462
-0.052181903 0.06538979 -0.027765403 -0.0017780688 -0.0004927789 -0.025108756 -0.014046045 0.06904637
-0.037615772 0.045331713 0.088846035 -0.021479517 0.048683327 -0.022220382 0.03972501 -0.011432869
-0.004506212 0.033800773 0.03008106 0.017481938 0.047752567 -0.0098860115 0.024437545 0.05746182
-0.03168946 0.019785045 -0.0028798464 -0.008482732 0.057851512 -0.027376344 0.034931958 -0.016194994

fc2.bias f4 [300]
00000000: 9f32 313d 6680 a1bc 19be 303c a9d4 17bd
00000010: d438 81bd 56f8 8abd 1898 bb3d 9df8 4d3d
00000020: 88df f6bc 3f1e 383c a671 9f3d dfdc 863d
00000030: 32eb 723d 3a6d 743d 802f 3f3b f79c 563d
00000040: 4518 b43d c524 67bc 5843 0ebd 6686 4e3d
00000050: b934 333d 9867 b13c 7557 6ebd b8df 903b
00000060: d6e9 6a3b 9899 22bc 74bd 083d 440e 023d
00000070: 7d42 c03d 45dd bd3c 7517 2f3d a5ab 0e3d
00000080: 063c 663d f8aa 8f3d b2c1 ac3d c94c d6bc
00000090: 245c a03b 45ed 8dbc b476 2d3d 0ff9 a1bc
000000a0: c3b0 26bd 4507 d43b af2c ca3c ec12 ef3b
000000b0: 82d7 903c 644e cc3d bb48 f3bc b0c1 b2bb
000000c0: da3c 3d3d b70e 99bc 99c8 8ebc b784 103c
000000d0: 148c abba 9054 ae3c 1cc0 ba3c 04c2 01bd
000000e0: c8d3 6abc 3f34 a53c 057f f73c 6e92 543c
000000f0: c9f2 493b 6c2a 7e3d 9d83 d93c 90dd 383b
00000100: 4b4c 1d3c 3f2e f639 9764 1f3d 6eca 01bd
00000110: b4d0 aebb 73c9 e3bc 3ecf 983c 06ca 4dbc
00000120: c0c0 7cbc 6ceb 09bd 4f66 bd3d 005b 8b3d
00000130: 7e19 e43c cb22 3dbd 0bff 4d3d cdb5 e43c
00000140: f108 93bc 78d4 c63c 7b88 243d 33eb a9bc
00000150: b1de 1dbd 4050 e93c fbf8 343d a17d c03b
00000160: 94a6 34bd 4fbb 09bc 9516 2b3b 9938 063b
00000170: c2ed 4d3d c75c 3d3d e772 0e3c 52b6 243d
00000180: 6893 28bd 885e 87bd e7ba f4bc e313 103d
00000190: 044c c0bc b981 873b 21f9 b93b b972 e83c
000001a0: 253e 90bd 1a23 133b 2c8c 5c3d 2db9 4a3d
000001b0: d238 d7b9 7bb8 5d3c 54e0 083d 61a2 e33b
000001c0: 216e 943d 51b8 e8bc 21a2 8c3b 68b6 323d
000001d0: 8837 2c3d 587d ae3b 45bc a9bc 25f8 42bd
000001e0: ef3e a7bb 23fc 273d d179 16bd e137 80bc
000001f0: b99b 123c d02a 663d 7b17 593d fa62 a63d
00000200: b82a 013d cc1f 63bd 63c0 883d 96d2 a23d
00000210: f191 79bd cf7d 8c3b ed44 88bc 9574 d1bc
00000220: d5b9 383d de02 193d ac70 f93c 8a00 123d
00000230: 7d14 41bd e2ba 87bd c2af 27bd 2a0e 15bd
00000240: 8a87 833c 7e7e c4bc 1a4d 6a3c 957d 7d3d
00000250: b500 013d 92c9 363d bafc b53d ac02 b03a
00000260: 7b54 033c 3d42 bdbb 7a48 bd3c 7726 4fbc
00000270: 337c 90bc 8d66 6a3c 36b0 9fba aaad 693c
00000280: e7af 7abc 8226 ab3c da57 9e3c 0e74 733d
00000290: 639c 103d e449 c03c 5b82 a3bc a1be 9d3c
000002a0: 7d0a ca3c cf94 7a3c e91a 47bd 616f 633d
000002b0: 447c 1d3b a5bc 523c da80 8b3b a5c4 233c
000002c0: adbf 3cbd 3606 593d 1ee5 ccbc c5ef 933d
000002d0: 0706 a03b 7625 8f3c c953 c5bc f3e5 00bd
000002e0: c0bc 6b3a ef64 2bbd cd3a 74bd 9c40 cdbc
000002f0: a9be d33d 6b8d 243b 7549 7bbc 1cba 21bd
00000300: 5dfb c2bc 11cb b43d 3412 1e3b 9cb0 3d3d
00000310: 2252 463c 25e0 2bbd 2a85 8fbc 9e78 6b3c
00000320: 3fd2 5cbd 016a 1abc 8b2f 84bb bc54 d1bb
00000330: 250d b83c 773a edb9 bde1 123c d8c9 1bbc
00000340: f49c b33b 661c 843d 0424 b53c b665 0d3d
00000350: d937 82bc c6e7 da3c 48cc e9bc ca4c 71bd
00000360: dd8b 183d c6c7 5ebc 283a 86bd e16f ce3c
00000370: 610b 8dbd 548e 2abd b783 913d cbc4 213d
00000380: b8e6 743d 2e24 47bd 6f89 f43b ca2a 23bd
00000390: 0365 d63b 65b5 933d 66c2 893c b78c 8abc
000003a0: 1803 29bc 186b 73bd 8e67 e13c 7a03 8ebc
000003b0: 8622 f83c ccd9 78bd 67bd 863c 306c d93c
000003c0: b9a6 933c 91c1 af3d 2dcb 0e3d 9d69 af3c
000003d0: 5b89 80bd 2d3b ab3b 51ed e03c 35a8 36bc
000003e0: 4347 0c3b 9e7f 8f3d f8be cd3b 4a54 adbc
000003f0: 8037 1d3d 79bd 4f3d 1ecf 32bd 4d75 90bd
0.043261167 -0.019714545 0.01078751 -0.037068043 -0.06309667 -0.067856476 0.09159869 0.050285924
-0.030135885 0.01123768 0.077853486 0.065850966 0.05930633 0.05967448 0.00291726 0.052395787
0.087936915 -0.014107888 -0.034732193 0.05042114 0.043751452 0.021655843 -0.058188874 0.0044212006
0.0035844943 -0.009924315 0.0333838 0.031751886 0.09387682 0.023176799 0.04274698 0.03483166
0.056209587 0.070150316 0.08435382 -0.02615966 0.0048937965 -0.017325053 0.042349532 -0.01977208
-0.040695917 0.006470593 0.02467951 0.007295957 0.017680887 0.09975889 -0.029697767 -0.0054552183
0.04620061 -0.018683774 -0.017429637 0.008820704 -0.0013088011 0.021280557 0.022796683 -0.03167917
-0.014332719 0.020166514 0.030211935 0.012974365 0.0030814877 0.062052175 0.026552016 0.0028208233
0.009600709 0.00046955232 0.03891429 -0.031687193 -0.005334938 -0.02780602 0.018653508 -0.012560373
-0.015426815 -0.03367178 0.092480294 0.06804466 0.027844187 -0.04617576 0.050292056 0.02791872
-0.0179486 0.024271235 0.04016922 -0.020742035 -0.038542453 0.028480649 0.04418276 0.005874351
-0.044104174 -0.008406474 0.002610599 0.0020480512 0.05027557 0.046231057 0.008694387 0.040212937
-0.041156203 -0.06609827 -0.029874278 0.035175215 -0.023473747 0.004135337 0.0056754504 0.028375017
-0.07043103 0.0022451342 0.053844616 0.049493004 -0.0004105033 0.013532753 0.03341706 0.0069468473
0.07247568 -0.028408201 0.004291788 0.043630987 0.042045146 0.0053250007 -0.020719657 -0.04759993
-0.005103938 0.04101194 -0.036737267 -0.015651645 0.00894826 0.056193173 0.05300091 0.08124347
0.03153488 -0.055450246 0.0667732 0.07950322 -0.060930196 0.0042874585 -0.016634429 -0.025568286
0.0450991 0.03735625 0.030449234 0.035645045 -0.04713868 -0.06627442 -0.0409391 -0.03639046
0.016055841 -0.023986097 0.014300609 0.061887342 0.031494815 0.044625826 0.088860944 0.0013428531
0.008015747 -0.0057757185 0.023105849 -0.012643448 -0.017637348 0.014306677 -0.0012183252 0.014262596
-0.015300727 0.020892385 0.019329 0.05943685 0.035305392 0.023472734 -0.01995962 0.019255938
0.024663204 0.015294268 -0.048609648 0.05552614 0.0024030367 0.012862359 0.0042573037 0.009995614
-0.046081234 0.05298444 -0.025011595 0.07223467 0.004883531 0.017473917 -0.024087803 -0.031469297
0.00089926645 -0.041844305 -0.05962639 -0.025055222 0.103391 0.0025108706 -0.015337338 -0.03948413
-0.0238015 0.08827794 0.0024119737 0.046311006 0.012104543 -0.041961808 -0.017519552 0.014372019
-0.053911444 -0.009424687 -0.004033988 -0.006388275 0.022467205 -0.00045247722 0.008964953 -0.0095085725
0.0054813568 0.06450729 0.0221119 0.034520827 -0.01589577 0.026721846 -0.028539792 -0.058911122
0.03724276 -0.013597434 -0.06554061 0.025199832 -0.06886936 -0.04163964 0.07105201 0.039494317
0.059790343 -0.048618488 0.0074626724 -0.03983573 0.0065428033 0.07212333 0.01681633 -0.016912801
-0.010315679 -0.059428304 0.027515199 -0.017335642 0.0302899 -0.060754582 0.016447736 0.026540846
0.018023835 0.08581842 0.034861732 0.021412665 -0.062761985 0.00522556 0.027456911 -0.011148502
0.002140478 0.07006763 0.0062788688 -0.021158356 0.038383007 0.050717805 -0.043654554 -0.07053623

fc2_bn.weight f4 [300]
00000000: eb6a 133f d07b 263f e07e f73c 0eff c93e
00000010: f0cd 603f 542c 083f 002c 2c3f 60db 073f
00000020: 0517 0a3f 62df 8d3e 733a 733f e354 383f
00000030: d59c 273f efac 3e3f 54ae 473f 2a82 2d3f
00000040: 0c64 e13e 403b 5b3e d630 8c3e 00fa 503d
00000050: 7019 343e c28f d73e 6249 8a3e a8a0 563e
00000060: aa45 f33e e79f 693f 189c 953e 8e4e 143f
00000070: aef1 1e3f db73 383f d097 5d3f 3857 143f
00000080: 8e9d 3c3f cd80 2a3f c007 c23d c019 fd3d
00000090: 9e63 623f c955 2f3f b0fc 633f 3a62 333f
000000a0: 0dfe 263f 5094 233e 201e 6d3d cc43 013e
000000b0: 82cd b23e c17a 523f 64d3 363e 6064 1f3f
000000c0: 5bc7 2d3f b088 0a3e 0b7f 723f d8c3 c23e
000000d0: 04a7 bd3e a8f0 3e3f 609e 3a3d 6ab6 5e3f
000000e0: 00fb 7c3d 6672 b93e 6a9c 6c3f 00ce 273d
000000f0: bf6a 573f 2cf3 8b3e f314 7a3f 3463 793f
00000100: 569b 923e 103e 6e3f a9af 4c3f b8a0 a03e
00000110: 44ad 743e ec58 693f be48 aa3e 3e3e 883e
00000120: 90d7 ea3e c8db df3e 8eb8 1a3f 0e0b 3b3f
00000130: 7ce0 763e a685 c03e 3355 053f 94c0 4e3e
00000140: 7a16 b53e 9dd8 5d3f bf65 583f fff2 783f
00000150: 459f 343f 00e1 253f 7c5e 083f e0cf 6e3d
00000160: d207 243f eb04 603f 160b 313f 6ad8 633f
00000170: 38b3 6c3f 722f 683f fed0 293f 1aa5 123f
00000180: cb9d 133f ccf6 e53e 60cd 733e 3da1 473f
00000190: d088 f93d 4d90 4f3f 54b6 6e3e 0065 ba3d
000001a0: ef7f 163f caea b63e e969 263f 9b5b 2d3f
000001b0: c9af 7e3f b813 823e a4de be3e 3ad4 2d3f
000001c0: 8055 ea3b 72a8 0a3f b33a 6e3f 4006 3c3e
000001d0: 26d9 a23e 7857 f43e 7c35 123f b85b 8a3d
000001e0: 33e5 383f b5c5 553f 0059 313d 9ce4 2e3f
000001f0: f8d6 c53d a8f3 ab3d e863 2a3e ba8c 8e3e
00000200: 4f85 6f3f 3923 373f 433b 473f fd94 0a3f
00000210: b8f5 0e3e a475 223f 3ced f93e 082f da3e
00000220: 7809 9a3d 413f 393f dad9 7a3f d86d db3d
00000230: b083 923e dd15 033f 76a2 9c3e 52b0 003f
00000240: c672 813e aa9b d13e 7e80 d63e 5a5a d13e
00000250: 30e1 123f 60fc a43d b0bb 263e 7364 623f
00000260: c06a ae3d 719b 1d3f e468 2d3f 4622 913e
00000270: b785 6e3f 8001 023f fe30 743f 8558 133f
00000280: e02b 013f 126b 383f 50d9 d63d b741 343f
00000290: b447 853e d2ca 123f d868 e83e 4c88 0c3f
000002a0: 7cc3 b23e 6f10 5a3f 1068 953d f505 0b3f
000002b0: fca8 163e 8719 123f 5063 453f 7c6a 553e
000002c0: 8e47 cb3e 36bf 833e ca16 ea3e b71a 283f
000002d0: 6380 083f c8e6 6d3e 621b 803e 29f4 033f
000002e0: db9d 7f3f 1222 953e f4c4 603f d658 363f
000002f0: 6438 1b3f 74c2 e43e 8087 2e3c 5e2d a23e
00000300: 0061 c63d 144a 423e 32d9 463f c6d1 b53e
00000310: a857 8d3d eeec 7f3f 405d 493d de15 1f3f
00000320: defd 2d3f 4a8a 2d3f e6f3 f23e b353 593f
00000330: 90be 843e a400 153f d779 2a3f dc38 1d3f
00000340: d8e5 cc3d ea0d 083f 15bc 403f ca07 173f
00000350: 897e 4c3f 140a c03e 36ad d33e 8eae 6b3f
00000360: a0c2 8d3d 48e4 cc3e 84a4 1b3e 9e12 663f
00000370: 2740 503f c241 133f e458 e53e 40a5 8b3d
00000380: 3c01 0d3f a39c 303f 5b89 283f 449f 793f
00000390: 1585 573f 9f76 2a3f 7875 db3e d918 5e3f
000003a0: fe8b 193f 4b54 503f 74bf 123f d948 133f
000003b0: 8b8e 133f 89f4 703f 8c79 953e acc4 ac3e
000003c0: c06f c73e 2042 413f ead8 813e 08c4 363e
000003d0: 7531 413f 6fab 553f fe95 733f b2ec d93e
000003e0: 385b 003e c6d8 db3e 3ad7 263f d032 1f3f
000003f0: 9f94 623f 1214 683f b87d 663f 6fcc 333f
0.5758502 0.6503267 0.030211866 0.39452404 0.87814236 0.5319264 0.6725464 0.53069115
0.53941375 0.2770949 0.9501106 0.72004527 0.6547368 0.74482626 0.7800038 0.6777674
0.44021642 0.21409321 0.2738101 0.05101967 0.17587829 0.42101866 0.27009112 0.20959723
0.47514087 0.91259617 0.29220653 0.57932365 0.62087524 0.7205178 0.8655977 0.57945585
0.7367791 0.66602784 0.094741344 0.12358427 0.88433254 0.6849027 0.89057446 0.70071757
0.652314 0.15974545 0.057890058 0.12623519 0.34922415 0.8221856 0.17854077 0.62262535
0.6788232 0.13528705 0.947251 0.38040042 0.37041485 0.7458596 0.045561194 0.8699709
0.06176281 0.36220092 0.9242617 0.04096794 0.84147257 0.27333963 0.97688216 0.97416997
0.28634137 0.9306345 0.79955536 0.3137262 0.2389422 0.9115131 0.33258623 0.26609987
0.45867586 0.43722367 0.6043786 0.73063743 0.24109071 0.37601966 0.5208313 0.2019065
0.3536871 0.8665865 0.8453025 0.9724578 0.70555526 0.6479645 0.5326917 0.058303714
0.6407443 0.87507504 0.6915754 0.89002097 0.92460966 0.90697396 0.6633452 0.57283175
0.5766265 0.44914854 0.23808813 0.77980405 0.12184298 0.8107956 0.2331174 0.091012955
0.5878896 0.35726005 0.65005356 0.67717904 0.99486977 0.2540567 0.37279236 0.6790196
0.0071513057 0.5416328 0.9305832 0.18361759 0.31806296 0.47722983 0.5711286 0.06755775
0.7222473 0.835048 0.043297768 0.6831758 0.09660143 0.08396083 0.16639674 0.2784174
0.9356279 0.7153812 0.778248 0.5413359 0.13960922 0.63460755 0.48813808 0.42614007
0.07521337 0.7236214 0.97988665 0.107143104 0.28616095 0.51205236 0.30592698 0.50269043
0.25282878 0.40939075 0.41894907 0.40889245 0.5737486 0.08055949 0.16282535 0.88434523
0.08516455 0.6156531 0.67738175 0.2834646 0.9317278 0.5078354 0.95387256 0.57556945
0.5045757 0.72038376 0.10490668 0.7041277 0.26031268 0.5734073 0.4539249 0.5489547
0.34914768 0.85181326 0.07295239 0.54305965 0.147129 0.570702 0.77104664 0.20841402
0.3970303 0.2573182 0.45720512 0.65665764 0.533209 0.23232567 0.2502089 0.51544434
0.99850243 0.29127556 0.87800527 0.712293 0.6063292 0.44679606 0.010652423 0.31675237
0.0968647 0.18973571 0.77675164 0.35511607 0.06901485 0.999709 0.049161196 0.6214274
0.67965496 0.6778914 0.47451705 0.8489334 0.25926638 0.582041 0.6659216 0.61414886
0.10004777 0.5314623 0.7528699 0.5899626 0.7988058 0.3750769 0.41343087 0.92063224
0.069218874 0.40017915 0.15199476 0.8987216 0.8134789 0.57522213 0.4479438 0.06818628
0.5508001 0.6898901 0.6583459 0.97508645 0.8418744 0.6658725 0.4286306 0.86756665
0.59979236 0.8137862 0.57323384 0.5753303 0.5763938 0.9412313 0.29194295 0.337438
0.38952446 0.75491524 0.25360805 0.17848217 0.7546609 0.8346471 0.95150745 0.42563397
0.12534797 0.42938823 0.6517216 0.6218691 0.8850803 0.90655625 0.9003558 0.70233816
