agent_checkpoints/checkpoint_critic.pth (torch_old, 554781 bytes, 13 tensors)

fcs1.weight f4 [400, 33]
0.26679114 -0.60370743 -0.16223447 0.15311109 -0.031896673 0.08611499 0.081350595 -0.5018314
-0.46418312 -0.1189189 0.61706126 -0.39038885 0.15301321 -0.25164238 -0.047367975 -1.1083597
0.080503136 -0.07943581 -0.14788894 0.30547497 0.20791985 -0.6362543 -0.029067287 0.91237164
0.83419025 0.277209 -0.18528877 0.0024454861 -0.2031376 0.0040972903 -0.013481587 -0.013421334
1.6790031 -0.9352742 0.70512486 -0.36189184 0.10963729 0.034403346 0.14865114 0.24934185
-0.05869882 0.06303891 -0.28713137 -0.21879481 0.11765785 -0.19125943 -0.123845875 0.27983356
0.87761986 -0.32382232 -0.38838676 -0.5284874 1.3111054 -0.26233935 0.22128062 0.1513304
0.24805985 -0.22207938 -0.23217061 0.7832659 0.018139081 -1.0147035 0.031423103 -0.038995486
0.023160037 0.35045087 -0.30486667 0.6747078 -0.28288367 -0.12844048 0.29133165 -0.24588877
0.015233959 0.42268053 -0.62847364 -0.16107197 0.43879196 0.09236481 -1.0363697 0.55704474
-0.3588025 0.30877742 0.40945497 -0.2701649 -0.3365449 -0.24890968 -0.03673203 0.19298938
-0.40151078 -0.016649893 -0.14137419 0.7847316 1.6750411 -0.03803497 -0.19094698 0.03198078
-0.0022494877 -0.030281473 0.47629672 -0.010370644 -0.14593607 0.049117822 -0.04359695 0.0080643855
0.050105896 0.026171412 -0.026171014 0.05323696 0.15629524 -0.04352775 -0.0035591512 0.049796686
0.04495274 0.09164455 0.004270541 0.025101347 -0.094427794 0.04154834 0.011829009 0.028624998
0.034036946 0.012849802 -0.008157349 -0.024561793 0.0092774425 0.3285202 0.03233798 0.09764469
-0.010757737 0.04869706 0.015538644 -8.177449 0.6859709 -0.82700616 -0.31855047 -0.46610093
0.008533935 0.17192632 -0.24892543 -0.33434716 -0.8863251 -0.3344525 -0.11132489 -0.25702423
0.38697058 -0.13308805 -1.0082481 -0.27714917 0.327912 0.6612846 -0.5681204 0.21186356
0.1787903 0.038001023 -0.011673432 0.024937889 -0.16140485 -0.56115985 0.71541697 -0.0013944543
-0.8919366 -0.009516854 0.044635516 -0.0055717044 3.1800315 -0.33691326 -0.23152967 -0.190146
-0.3793819 -0.05300075 0.014544705 0.5919789 0.46232167 0.30156633 0.37257722 -0.23574354
0.77750564 0.025232064 -0.620589 0.45583695 1.1123253 0.48831707 0.717832 -0.43154567
0.74603474 0.14934823 -0.14061001 0.0062976857 0.2757339 -0.07899275 0.6413321 -0.8444016
0.00022427899 0.22517282 0.035984237 0.014498544 0.007983178 0.8934312 1.0490367 0.50230265
-0.36513382 0.5507607 0.14215563 -0.47943258 -0.21775043 -0.2600065 -0.25567523 -0.4359902
0.5016721 -0.2252448 -0.1780623 -0.301925 -0.3050572 -0.1423372 0.41644052 0.10283216
0.07346333 0.04300184 0.12476581 -0.8213689 -0.09983535 -0.13336377 -0.28582177 -0.0035630378
-0.1746883 -0.027955744 -1.9313055 -0.021151442 0.02774918 0.03600425 -2.4183521 0.80123216
-0.09045695 -1.192646 0.019171327 -0.20542447 -0.078740135 0.15380895 0.13848306 -0.047660645
-0.4261517 0.1363065 -0.20126152 -0.035132356 -0.9086555 0.32606053 0.9164018 -0.1719575
-0.035168488 0.13438612 -0.07574205 -0.22937985 -0.47380298 -0.11626687 -0.31172574 0.57645345
00000000: d998 883e 928c 1abf cb20 26be 27c9 1c3e
00000010: 16a6 02bd 0e5d b03d 249b a63d 0678 00bf
00000020: 69a9 edbe c18b f3bd baf7 1d3f 0ce1 c7be
00000030: 7faf 1c3e 45d7 80be ec04 42bd bbde 8dbf
00000040: d4de a43d 3eaf a2bd 3370 17be 3767 9c3e
00000050: f1e8 543e 90e1 22bf 851e eebc 3091 693f
00000060: 7e8d 553f 57ee 8d3e 57bc 3dbe 7344 203b
00000070: 4e03 50be 9042 863b e0e1 5cbc 28e5 5bbc
00000080: 93e9 d63f 216e 6fbf 1083 343f e349 b9be
00000090: 8489 e03d 86ea 0c3d 0138 183e 7853 7f3e
000000a0: 2d6e 70bd 8b1a 813d e202 93be bf0b 60be
000000b0: 99f6 f03d 83d9 43be e8a2 fdbd 5846 8f3e
000000c0: b2ab 603f 0acc a5be a1da c6be f34a 07bf
000000d0: 4dd2 a73f 5851 86be 6397 623e 5bf6 1a3e
000000e0: 6703 7e3e c768 63be 22be 6dbe 1d84 483f
000000f0: 6998 943c cee1 81bf 83b5 003d bbb9 1fbd
00000100: 1eba bd3c 4c6e b33e 7c17 9cbe a6b9 2c3f
00000110: 21d6 90be e785 03be 6c29 953e 44ca 7bbe
00000120: db97 793c 9569 d83e a6e3 20bf 0df0 24be
00000130: 57a9 e03e c329 bd3d c3a7 84bf 7c9a 0e3f
00000140: f6b4 b7be 1318 9e3e 15a4 d13e 0e53 8abe
00000150: 9d4f acbe 2ee2 7ebe 5374 16bd 029f 453e
00000160: d292 cdbe 5b65 88bc 65c4 10be 2ce4 483f
00000170: bf67 d63f 8fca 1bbd 9b87 43be 47fe 023d
00000180: 246c 13bb da10 f8bc 2add f33e a2e9 29bc
00000190: 4470 15be c52f 493d b792 32bd 7c20 043c
000001a0: d73b 4d3d 6e65 d63c 9864 d6bc 000f 5a3d
000001b0: dc0b 203e 274a 32bd a640 69bb 9cf7 4b3d
000001c0: 5d20 383d 23b0 bb3d e5ef 8b3b 57a1 cd3c
000001d0: 5c63 c1bd 982e 2a3d 76ce 413c f97e ea3c
000001e0: 536a 0b3d fa87 523c 67a6 05bc d035 c9bc
000001f0: 6a00 183c cd33 a83e d474 043d f0f9 c73d
00000200: 3841 30bc 9276 473d cc95 7e3c d5d6 02c1
00000210: ca9b 2f3f adb6 53bf 0c19 a3be c8a4 eebe
00000220: ebd1 0b3c 740d 303e 4fe6 7ebe 8d2f abbe
00000230: 34e6 62bf 5c3d abbe 4efe e3bd ae98 83be
00000240: 0221 c63e 3c48 08be 460e 81bf 7fe6 8dbe
00000250: 15e4 a73e f349 293f 5770 11bf c3f2 583e
00000260: ce14 373e f6a6 1b3d ec41 3fbc 8b4a cc3c
00000270: 5047 25be 2ca8 0fbf 9125 373f 1fc6 b6ba
00000280: f555 64bf 94ec 1bbc bbd3 363d d892 b6bb
00000290: a385 4b40 e57f acbe 1d16 6dbe a2b5 42be
000002a0: 583e c2be 5017 59bd ea4c 6e3c ee8b 173f
000002b0: 6db5 ec3e e766 9a3e 71c2 be3e c166 71be
000002c0: 9c0a 473f 79b3 ce3c ecde 1ebf 7663 e93e
000002d0: ad60 8e3f b204 fa3e d7c3 373f 8ef3 dcbe
000002e0: 22fc 3e3f beee 183e 12fc 0fbe d15c ce3b
000002f0: fe2c 8d3e f3c6 a1bd 572e 243f b42a 58bf
00000300: 6f2c 6b39 b493 663e 3564 133d 4d8b 6d3c
00000310: e0cb 023c e8b7 643f d646 863f e896 003f
00000320: d2f2 babe a7fe 0c3f 3f91 113e 3078 f5be
00000330: f8f9 5ebe 921f 85be dde7 82be 1c3a dfbe
00000340: 956d 003f 93a6 66be f755 36be ea95 9abe
00000350: 7530 9cbe d8c0 11be b137 d53e ab99 d23d
00000360: f173 963d b322 303d 3885 ff3d 3b45 52bf
00000370: 7a76 ccbd 8390 08be 3b57 92be db81 69bb
00000380: 7de1 32be 7203 e5bc 0535 f7bf ca45 adbc
00000390: 4052 e33c 3179 133d 48c6 1ac0 8d1d 4d3f
000003a0: 7e41 b9bd a0a8 98bf 300d 9d3c cb5a 52be
000003b0: 8242 a1bd 1880 1d3e 81ce 0d3e cf37 43bd
000003c0: 8e30 dabe ee93 0b3e 8017 4ebe f2e6 0fbd
000003d0: a69d 68bf 68f1 a63e 4f99 6a3f a015 30be
000003e0: d50c 10bd 849c 093e a61e 9bbd 8de2 6abe
000003f0: 4e96 f2be 531d eebd 849a 9fbe 7492 133f

fcs1.bias f4 [400]
-0.08045268 -0.07177372 0.16927467 0.028457236 -0.14804661 -0.15478365 -0.14989324 -0.12545495
-0.10512678 -0.09277319 0.12959981 -0.07136927 0.15996073 -0.039797053 -0.14031035 -0.06556132
-0.07718331 -0.11960012 -0.16239814 0.006015407 -0.13520594 -0.050198626 -0.044551108 -0.10053176
-0.0066341884 -0.13475814 -0.056590773 0.15408239 0.16097277 0.014134831 0.04045528 0.15468518
0.16711706 -0.08210929 0.027774313 -0.03444051 -0.11963921 0.15442179 0.13805638 0.007494139
0.14340486 0.04810549 0.116207875 0.07378777 0.08236385 0.062263075 0.08727619 0.15300052
0.068175346 -0.111041315 0.06404917 0.1738325 0.1440371 0.1097945 -0.0662593 0.17194927
0.03179932 -0.0937168 -0.0065610763 0.12644173 -0.15983006 -0.039823014 0.12966973 -0.04698398
-0.070215434 -0.0467701 0.05706444 -0.13436614 0.021798322 0.044707812 0.045924466 -0.0035139653
0.08565801 -0.010247046 0.13524549 0.11336234 -0.12051151 -0.0340201 0.13532054 -0.01752762
-0.056089792 -0.010794061 -0.040078457 -0.060444575 0.038483065 0.14668402 0.024758466 0.09783933
0.13444196 -0.11343768 -0.12380029 -0.025528595 0.05232197 -0.021075731 -0.08158191 -0.11980166
0.0051227994 0.12938122 0.0073779286 0.16584998 -0.08226002 0.16078338 -0.11160683 0.13831162
0.0193485 0.17361051 0.165582 -0.05954311 -0.012727327 -0.047152843 0.03873274 -0.085804105
-0.040525492 -0.10616527 0.1063392 0.13747095 0.019103337 -0.0053836396 -0.13053523 -0.15869491
-0.13441116 -0.12893976 -0.1432286 0.0817843 -0.13418545 0.08343781 0.11583924 -0.00066639273
0.04111756 0.10679715 -0.15756197 0.15123072 0.17142668 0.16609287 -0.068018824 0.10739117
-0.06415529 0.02706679 0.14563324 0.036485046 0.06380411 -0.04633829 -0.08262817 0.14227262
-0.15713416 0.03044032 -0.01674956 -0.049075074 -0.16989619 -0.10349224 -0.099346675 0.026197102
0.06877254 -0.1582149 -0.066597916 -0.16598304 0.11915408 -0.15993673 -0.023327336 -0.024881348
-0.09533348 0.12499619 0.074466705 0.090901576 0.12278243 -0.08722499 0.084434 0.14079507
-0.04002189 -0.014169019 0.016456902 -0.17108226 -0.01830514 -0.02082948 -0.126437 0.12733988
-0.15183163 -0.06983687 0.10251349 0.027077012 0.07063676 0.0074715433 -0.16124198 -0.12486622
-0.058854397 -0.11724059 -0.108431764 -0.056279138 0.15507455 0.13453147 0.035074268 -0.11138266
-0.10502157 0.17064558 0.02146733 0.019761857 -0.09865848 -0.088848755 0.08546066 -0.01500922
-0.018174171 -0.085342824 -0.12900773 -0.11253598 -0.17105347 0.15944491 0.025475182 0.024545752
0.1306494 0.087665804 -0.025386663 0.10779278 0.0017850974 -0.16975491 0.14125912 -0.100228034
-0.13218684 -0.04038464 0.04189295 0.13687642 -0.17221181 -0.16301607 -0.11588592 -0.10156406
0.17156261 -0.0025171617 0.12670968 0.049119487 0.10131405 -0.09029708 0.07574684 0.06316182
0.059872217 -0.13068596 -0.059944022 0.14796188 -0.038274985 -0.12651716 -0.14736675 -0.0350947
0.08061859 -0.05122731 0.12395087 0.07469383 -0.13927232 0.0017568535 0.15888709 0.10831017
-0.06307532 -0.12884906 0.045147184 0.08363103 -0.035647206 -0.14813714 0.16816267 0.08427316
00000000: 60c4 a4bd 1afe 92bd 5756 2d3e 261f e93c
00000010: 8899 17be 9b7f 1ebe 9d7d 19be 4377 00be
00000020: b64c d7bd dfff bdbd d0b5 043e 0d2a 92bd
00000030: bfcc 233e 3c02 23bd 84ad 0fbe 0345 86bd
00000040: 4912 9ebd e8f0 f4bd b34b 26be e41c c53b
00000050: 6d73 0abe 139d 4dbd 397b 36bd 98e3 cdbd
00000060: 9b63 d9bb 0afe 09be bacb 67bd c6c7 1d3e
00000070: 0cd6 243e c795 673c 70b4 253d cb65 1e3e
00000080: bc20 2b3e ea28 a8bd f586 e33c 7e11 0dbd
00000090: 6705 f5bd bf20 1e3e a75e 0d3e 6591 f53b
000000a0: b9d8 123e 430a 453d 65fe ed3d 0b1e 973d
000000b0: 61ae a83d 9107 7f3d dcbd b23d 2bac 1c3e
000000c0: 849f 8b3d a169 e3bd 362c 833d 2601 323e
000000d0: 767e 133e f0db e03d f5b2 87bd 7813 303e
000000e0: 0140 023d 98ee bfbd 4cfe d6bb f179 013e
000000f0: 7eaa 23be 751d 23bd 24c8 043e 4672 40bd
00000100: 1ccd 8fbd 0192 3fbd 67bc 693d 4797 09be
00000110: 6592 b23c 8a1f 373d 4b1b 3c3d 8e4a 66bb
00000120: 776d af3d 3ae3 27bc cb7d 0a3e 842a e83d
00000130: bdce f6bd a958 0bbd 7891 0a3e 1596 8fbc
00000140: 69be 65bd 93d9 30bc 4f29 24bd bb94 77bd
00000150: 6ba0 1d3d 5634 163e 44d2 ca3c fd5f c83d
00000160: 27ab 093e 0452 e8bd 028b fdbd 5821 d1bc
00000170: 904f 563d 03a7 acbc 6b14 a7bd 935a f5bd
00000180: 28dd a73b 837c 043e 8dc2 f13b 94d4 293e
00000190: f177 a8bd 66a4 243e 1f92 e4bd 90a1 0d3e
000001a0: bf80 9e3c f4c6 313e 548e 293e 7ae3 73bd
000001b0: 4786 50bc 5723 41bd 39a6 1e3d 10ba afbd
000001c0: 0ffe 25bd 2d6d d9bd 5ec8 d93d 2fc5 0c3e
000001d0: 9a7e 9c3c 3e69 b0bb 07ab 05be eb80 22be
000001e0: 14a3 09be c908 04be 85aa 12be 877e a73d
000001f0: e967 09be 71e1 aa3d 203d ed3d dcb0 2eba
00000200: e36a 283d 77b8 da3d ed57 21be 3adc 1a3e
00000210: 7a8a 2f3e 4014 2a3e 744d 8bbd e7ef db3d
00000220: d963 83bd 2cbb dd3c e120 153e 5871 153d
00000230: bbab 823d 38cd 3dbd f538 a9bd eaaf 113e
00000240: c7e7 20be fa5d f93c 6036 89bc f202 49bd
00000250: 44f9 2dbe bdf3 d3bd 4576 cbbd 4e9b d63c
00000260: 9ed8 8c3d 1603 22be 7d64 88bd 75f7 29be
00000270: 0e07 f43d 74c6 23be f818 bfbc f8d3 cbbc
00000280: 333e c3bd 01fe ff3d 0082 983d 9b2a ba3d
00000290: 5b75 fb3d 04a3 b2bd bceb ac3d 952c 103e
000002a0: feed 23bd 2c25 68bc a0d0 863c 3030 2fbe
000002b0: a9f4 95bc 96a2 aabc b378 01be 6365 023e
000002c0: c079 1bbe a206 8fbd 98f2 d13d 9cd0 dd3c
000002d0: 01aa 903d d9d3 f43b 9e1c 25be dcb9 ffbd
000002e0: 4f11 71bd d61b f0bd 7911 debd f484 66bd
000002f0: ddcb 1e3e 9ec2 093e 09aa 0f3d 981c e4bd
00000300: 8d15 d7bd b7bd 2e3e 41dc af3c 9ee3 a13c
00000310: 750d cabd 56f6 b5bd 0006 af3d 3be9 75bc
00000320: 00e2 94bc 38c8 aebd 9a1a 04be 4479 e6bd
00000330: a428 2fbe 8745 233e 54b1 d03c 2c14 c93c
00000340: f5c8 053e 218a b33d b1f7 cfbc 76c2 dc3d
00000350: eef9 e93a 3bd4 2dbe 3ba6 103e 5b44 cdbd
00000360: fd5b 07be 5d6a 25bd f197 2b3d 5529 0c3e
00000370: 4b58 30be afed 26be 9955 edbd d100 d0bd
00000380: 1cae 2f3e f7f6 24bb 2fc0 013e 8431 493d
00000390: be7d cf3d aded b8bd 2921 9b3d fc5a 813d
000003a0: 923c 753d 8ad2 05be dd87 75bd 5283 173e
000003b0: 3bc6 1cbd b78d 01be 4fe7 16be 76bf 0fbd
000003c0: 5c1b a53d bad3 51bd f4d9 fd3d 14f9 983d
000003d0: 679d 0ebe 3946 e63a 4cb3 223e b9d1 dd3d
000003e0: a22d 81bd 02f1 03be 41ec 383d bf46 ab3d
000003f0: ce02 12bd 43b1 17be d632 2c3e 6897 ac3d

fcs1_bn.weight f4 [400]
0.38560537 0.60168177 0.6752185 1.6397641 0.6190632 0.11301947 0.7497598 0.5207673
0.11998278 0.3449453 0.861835 0.8388349 0.5516747 0.51408136 0.78091973 2.0731347
0.23411503 0.45009977 0.16415825 0.61672467 0.6134317 0.21154803 1.8022045 0.40874866
0.6034385 0.7546503 -0.0065147635 -0.0074528293 0.4124945 0.29818735 0.37134725 0.39046586
0.4002128 0.35636243 0.5763898 0.38547444 0.5728714 0.69900185 0.51336724 0.5433517
0.5229527 1.3695619 1.5099375 0.14729904 0.48747805 0.31598434 0.46293443 0.53397477
0.38094908 0.4572833 0.011422996 0.3559294 0.48672327 0.52841234 0.25341204 0.19134548
0.5235062 0.47180787 0.62411517 0.45220333 0.57236063 0.38335055 0.4429177 1.3564137
0.55134624 0.7368808 0.28131956 0.45910972 0.39814588 0.40567276 0.3462576 0.4894209
0.4520153 0.34620923 0.36023724 1.7325871 0.61436814 0.4327679 0.2608603 0.629198
1.9017782 0.5473964 0.32331696 0.6193291 0.4788153 0.016973104 0.60925406 0.4031401
0.5906849 0.5087836 0.3730531 0.62430763 0.5604955 0.41936788 -0.009462331 0.43915385
0.52094024 0.5914164 0.5288426 0.64386016 0.5315365 0.36056116 0.45216462 0.47336575
0.34465337 0.6348296 0.5235752 0.31745926 0.40590015 0.17726709 0.5304654 0.00067553
0.6232815 0.9134868 0.55644697 0.3122832 0.26306155 0.9772743 0.4695742 0.34282497
0.49924123 0.35328358 0.22024682 0.37521774 1.5782847 0.32121882 0.54883707 0.34294268
0.6397288 1.6185535 0.47761253 0.79595494 0.47148415 0.23290856 0.68884474 1.0055099
0.17766552 0.5944376 0.4896065 0.4188968 0.18196617 0.19784467 0.4593981 0.5678185
0.39765602 0.262319 0.5232447 0.73204285 0.5311335 0.47991586 0.32308462 0.5207809
1.6955177 0.31376907 0.23709132 0.4335184 0.57815236 0.44399792 0.41055074 0.30041426
0.70943207 0.5419571 0.43622336 0.44883853 0.7052476 0.41090825 0.5517333 0.6018565
0.40202025 0.503147 0.27330968 0.22937222 0.33397523 0.39005148 0.5403485 0.7258323
1.0198054 0.41714528 0.3773716 0.45831427 0.3413197 0.6887609 0.9136488 0.49654603
0.38596505 0.16928695 0.22378322 0.3333131 0.51405036 0.7974262 0.27446806 0.71543074
0.32597893 0.39182773 0.36865246 0.4105069 0.20396799 0.27602264 0.26474404 0.30452296
-0.005171904 0.5269477 0.4501308 0.8801807 0.57490426 0.2506386 0.68623406 0.31272498
0.5317346 0.5829407 0.37510365 0.3902427 0.7218608 0.38343027 0.26119822 1.1960734
2.5829117 0.36058578 0.50996435 0.49746707 0.5955581 0.37080818 0.3355481 0.679715
0.536536 0.6534066 0.3905568 0.39739195 0.977704 0.58543175 0.20218223 0.5342823
0.28355727 0.50969595 0.49226713 0.59887034 0.3395124 0.19520038 0.49509484 0.43744877
0.23294902 0.4774832 0.6595105 0.9669754 0.33651093 0.4419745 0.40467933 0.2599005
0.61130613 0.62841743 0.5143338 0.44010946 0.9049979 0.61917865 0.15565298 0.3085162
00000000: 116e c53e d107 1a3f 1fdb 2c3f cae3 d13f
00000010: ed7a 1e3f c076 e73d 42f0 3f3f 0151 053f
00000020: 88b9 f53d ac9c b03e 38a1 5c3f e2bd 563f
00000030: 8e3a 0d3f d69a 033f 5bea 473f 3dae 0440
00000040: dabb 6f3e 7a73 e63e 1a19 283e abe1 1d3f
00000050: dc09 1d3f 0ca0 583e a3ae e63f 8147 d13e
00000060: f27a 1a3f c330 413f cc79 d5bb dd36 f4bb
00000070: 7b32 d33e 03ac 983e 3a21 be3e 24eb c73e
00000080: b1e8 cc3e 2375 b63e 488e 133f e85c c53e
00000090: b3a7 123f c9f1 323f 096c 033f 1919 0b3f
000000a0: 3ae0 053f ce4d af3f a245 c13f 8fd5 163e
000000b0: b996 f93e b3c8 a13e be05 ed3e 92b2 083f
000000c0: c20b c33e 0921 ea3e 8527 3b3c 613c b63e
000000d0: cb33 f93e 0846 073f 39bf 813e 12f0 433e
000000e0: 8104 063f cd90 f13e 03c6 1f3f 3287 e73e
000000f0: 3a86 123f 8646 c43e 1cc6 e23e f79e ad3f
00000100: 0725 0d3f 38a4 3c3f 1e09 903e 6e10 eb3e
00000110: c7d9 cb3e 57b4 cf3e ad48 b13e 6095 fa3e
00000120: 8d6e e73e 5642 b13e 0471 b83e 6ac5 dd3f
00000130: 3b47 1d3f c193 dd3e 7b8f 853e 1f13 213f
00000140: 786d f33f 2c22 0c3f cd89 a53e 5a8c 1e3f
00000150: 4727 f53e 2e0b 8b3c 13f8 1b3f 6168 ce3e
00000160: 2037 173f a43f 023f d100 bf3e a0d2 1f3f
00000170: a27c 0f3f 63b7 d63e e507 1bbc c6d8 e03e
00000180: 575c 053f 1167 173f 3b62 073f 05d4 243f
00000190: c712 083f 799b b83e 1f82 e73e ff5c f23e
000001a0: 6876 b03e 3184 223f 0609 063f 058a a23e
000001b0: 25d2 cf3e 8185 353e 95cc 073f 0d16 313a
000001c0: 608f 1f3f 45da 693f 4f73 0e3f 95e3 9f3e
000001d0: 01b0 863e a62e 7a3f 086c f03e c186 af3e
000001e0: 8c9c ff3e 96e1 b43e 6288 613e 8a1c c03e
000001f0: 3c05 ca3f cb76 a43e 9680 0c3f 2f96 af3e
00000200: 44c5 233f c32c cf3f a189 f43e b4c3 4b3f
00000210: 5f66 f13e 957f 6e3e 2158 303f 8cb4 803f
00000220: f3ed 353e 102d 183f b4ad fa3e a479 d63e
00000230: 5755 3a3e cb97 4a3e 3a36 eb3e 8e5c 113f
00000240: 9299 cb3e ad4e 863e 5df3 053f 2967 3b3f
00000250: 5df8 073f 88b7 f53e 596b a53e e651 053f
00000260: b906 d93f 57a6 a03e 11c8 723e 20f6 dd3e
00000270: cb01 143f b253 e33e b533 d23e e6cf 993e
00000280: 579d 353f b3bd 0a3f ab58 df3e 2ace e53e
00000290: 1b8b 343f 9162 d23e 653e 0d3f 4513 1a3f
000002a0: 99d5 cd3e 3ece 003f 3fef 8b3e 8de0 6a3e
000002b0: cdfe aa3e d4b4 c73e 4754 0a3f 25d0 393f
000002c0: fc88 823f 1194 d53e da36 c13e 2ba8 ea3e
000002d0: 75c1 ae3e a252 303f e3e4 693f 483b fe3e
000002e0: 369d c53e 8f59 2d3e 6e27 653e 04a8 aa3e
000002f0: ce98 033f 2024 4c3f 1487 8c3e 7826 373f
00000300: b6e6 a63e a59d c83e 04c0 bc3e f62d d23e
00000310: fcdc 503e d752 8d3e 888c 873e 6fea 9b3e
00000320: 1379 a9bb 0be6 063f 8b77 e63e 8653 613f
00000330: ed2c 133f b453 803e 09ad 2f3f 7d1d a03e
00000340: c21f 083f 9a3b 153f 960d c03e e4cd c73e
00000350: dfcb 383f f950 c43e c6bb 853e ef18 993f
00000360: 6d4e 2540 b39e b83e 068d 023f 01b4 fe3e
00000370: 7f76 183f 92da bd3e f6cc ab3e cd01 2e3f
00000380: 6c5a 093f a845 273f 10f7 c73e f576 cb3e
00000390: cf4a 7a3f dbde 153f dc08 4f3e bac6 083f
000003a0: 6b2e 913e 6f7b 023f 700a fc3e 914f 193f
000003b0: 92d4 ad3e 9ce2 473e 127d fd3e 49f9 df3e
000003c0: 308a 6e3e ae78 f43e aed5 283f b38b 773f
000003d0: 294b ac3e 7b4a e23e 2132 cf3e ae11 853e
000003e0: 8f7e 1c3f f7df 203f 61ab 033f 0756 e13e
000003f0: f1ad 673f 7e82 1e3f 7f63 1f3e d6f5 9d3e

fcs1_bn.bias f4 [400]
-0.66630137 -0.97047037 -0.5770096 -1.1014628 -0.8740546 0.08912366 -0.83753264 -0.05166122
0.060456544 -0.23415767 -0.76498747 -0.9571858 -0.36429685 -0.7614771 -0.8255578 -0.66283494
-0.66720724 0.0053216578 0.056699406 -0.48222798 -0.7296937 -0.10747686 -0.8150179 -0.29377756
-0.6745205 -0.6322408 -0.055721175 -0.13707803 -0.14557017 -0.31569952 -0.48417738 -0.559223
-0.5032962 -0.5433453 -0.64032674 -0.169953 -0.37395912 -0.5015191 -0.8804338 -0.80728334
-0.5405586 0.31481826 -0.682756 -0.897446 -0.27643427 -0.15394326 -0.5304733 -0.6545017
-0.013328627 -0.33358985 -0.13157743 -0.76728487 -0.3040187 -0.55176246 0.082458094 -1.1510035
-0.597821 -0.22624508 -0.56632257 -0.5009886 -0.62487954 -0.41275918 -0.084949315 0.011298484
-0.47004503 -0.38952208 0.4375635 -0.44092596 -0.23444998 -0.28476405 -0.35730332 -0.8891855
-0.5655831 -0.30440575 0.09113562 -1.0066903 -0.17074026 -0.902045 -0.02932836 -0.62744105
-0.24428396 -0.32491854 -0.4289624 -0.5244842 -0.37858257 -0.12647218 -0.48456302 -0.3183506
-1.2070528 -0.6996654 -0.39431074 -0.44564503 -0.5051257 -0.60659194 -0.08131384 -0.48501337
-0.10519512 -0.61433136 -0.48383552 -1.0584309 -0.7583923 -0.660807 -0.40385115 -0.5065013
-0.0035167339 -0.30599996 -0.7296514 -0.20940614 -0.77296257 0.2704292 -0.34437343 -0.0048927004
-0.7671338 -1.0981902 -0.8673167 -0.24472728 -1.4226029 -1.1265419 -0.43381807 0.15203074
-0.35853332 -0.24850886 -0.20198354 -0.18380335 -0.31080282 -0.37631646 -0.62143725 -0.44519007
-0.42846805 0.029080285 -0.030662464 -0.3131708 -0.816941 -0.047701232 -0.34809983 -0.633352
-0.0017800039 -0.5289913 -0.48017636 -0.8849332 0.15016639 -0.82275444 -1.304195 -0.5088198
-0.23684672 -0.070996866 0.021661995 -0.8481321 -0.22084062 -0.6371043 -0.5308531 -0.6352396
-1.3097569 -0.34386563 0.057749655 -0.44159874 -0.75099725 -0.5965826 -0.06616693 0.016960617
-0.7610072 -0.5094159 -0.49621078 -0.3115811 -0.6808568 -0.21882941 -0.52712905 -0.72382575
-0.4377102 -0.29404286 -0.7380199 -0.12972854 -0.075596 -0.59744865 -0.77904576 -0.8812037
-1.0089171 -0.1743812 -0.32956675 -0.3711347 -0.16461527 -0.702043 -0.8248928 -0.53807384
-0.38614762 0.105005465 -0.47499475 -0.22376987 -0.50054926 -0.6133958 -0.13009192 -0.4096122
-0.43121952 -0.3919611 -0.10024692 -0.92462605 -0.27826968 0.14325838 0.047065444 -0.15678495
-0.03653057 -0.021699509 -0.43155947 -0.85118 -0.13171299 -0.0893703 -0.65301245 -0.042089716
-0.81500584 -0.68358266 -0.64775515 -0.93391114 -0.91229457 -0.43351832 -0.20564944 -1.0686513
0.0685433 -0.6919403 -0.30462238 -0.6281361 -0.5466708 -0.1743072 -0.15144113 -0.7237114
-0.5187607 -0.43806994 -0.22371791 -0.96770656 -0.41836128 -0.73467094 -0.05070354 -0.8116333
-0.32914692 -1.045292 -0.3859964 -0.03403572 -0.1305466 -0.18385695 -0.9436719 0.17852421
-0.21719573 -0.30061746 -0.8536737 -0.7595996 -0.72443557 -0.17385782 -0.09820921 -0.995493
-0.4200021 -0.0654862 -0.38548842 -0.40405327 -0.6840017 -0.34937277 0.0951707 -0.17510642
00000000: ba92 2abf bf70 78bf e7b6 13bf bcfc 8cbf
00000010: 0bc2 5fbf 7786 b63d 8a68 56bf b79a 53bd
00000020: 48a1 773d 07c7 6fbe 38d6 43bf 210a 75bf
00000030: 1e85 babe 2af0 42bf c257 53bf 8daf 29bf
00000040: 18ce 2abf 4d61 ae3b a33d 683d 96e6 f6be
00000050: 35cd 3abf d41c dcbd 03a5 50bf 036a 96be
00000060: 60ad 2cbf 88da 21bf e33b 64bd 2f5e 0cbe
00000070: 5910 15be 5ea3 a1be 19e6 f7be 3d29 0fbf
00000080: 05d8 00bf ad18 0bbf 74ec 23bf 2908 2ebe
00000090: 9277 bfbe 8e63 00bf 1c64 61bf 1faa 4ebf
000000a0: 0c62 0abf dc2f a13e 19c9 2ebf 05bf 65bf
000000b0: cb88 8dbe 4da3 1dbe 19cd 07bf 6c8d 27bf
000000c0: 5060 5abc 4acc aabe 3cbc 06be c86c 44bf
000000d0: 57a8 9bbe 4e40 0dbf cadf a83d 1554 93bf
000000e0: cc0a 19bf caac 67be 84fa 10bf ca40 00bf
000000f0: 1bf8 1fbf 2c55 d3be e8f9 adbd 471d 393c
00000100: bea9 f0be 706f c7be 5308 e03e 0cc1 e1be
00000110: a813 70be 98cc 91be 76f0 b6be a9a1 63bf
00000120: 0eca 10bf 12db 9bbe 50a5 ba3d 3adb 80bf
00000130: 89d6 2ebe 6cec 66bf 0742 f0bc fa9f 20bf
00000140: 9325 7abe b95b a6be f6a0 dbbe 9944 06bf
00000150: 93d5 c1be ec81 01be a518 f8be dafe a2be
00000160: b580 9abf 461d 33bf 19e3 c9be 962b e4be
00000170: eb4f 01bf 9c49 1bbf df87 a6bd ac53 f8be
00000180: 8a70 d7bd d244 1dbf 4ab9 f7be aa7a 87bf
00000190: ff25 42bf a62a 29bf 94c5 cebe 12aa 01bf
000001a0: 0179 66bb 07ac 9cbe 6fca 3abf 906e 56be
000001b0: e0e0 45bf b275 8a3e b751 b0be f252 a0bb
000001c0: e162 44bf 7f91 8cbf 7808 5ebf ca99 7abe
000001d0: da17 b6bf 8632 90bf 671d debe f2ad 1b3e
000001e0: ae91 b7be 1b79 7ebe c6d4 4ebe f236 3cbe
000001f0: 8c21 9fbe 8dac c0be 8316 1fbf f4ef e3be
00000200: 2a60 dbbe c739 ee3c d92f fbbc ec57 a0be
00000210: 0c23 51bf 5e62 43bd 243a b2be 5b23 22bf
00000220: 054f e9ba f96b 07bf add9 f5be fb8a 62bf
00000230: 38c5 193e 09a0 52bf ddef a6bf 0442 02bf
00000240: f287 72be ce66 91bd 7f74 b13c 2f1f 59bf
00000250: 0b24 62be 4419 23bf fde5 07bf 109f 22bf
00000260: 1da6 a7bf 280f b0be e78a 6c3d 3b19 e2be
00000270: 5b41 40bf a3b9 18bf 8782 87bd fef0 8a3c
00000280: 5ed1 42bf 1569 02bf 570f febe 8f87 9fbe
00000290: a24c 2ebf d114 60be eef1 06bf a54c 39bf
000002a0: 8d1b e0be c98c 96be dfee 3cbf 8fd7 04be
000002b0: 13d2 9abd 65f2 18bf 8b6f 47bf 9196 61bf
000002c0: 3224 81bf fc90 32be f9bc a8be 5e05 bebe
000002d0: e890 28be 17b9 33bf 2d2c 53bf 35bf 09bf
000002e0: 24b5 c5be 1b0d d73d 8332 f3be ee23 65be
000002f0: ff23 00bf 8207 1dbf d136 05be b1b8 d1be
00000300: cec8 dcbe 20af c8be 424e cdbd 4bb4 6cbf
00000310: 5d79 8ebe 53b2 123e b2c7 403d 3c8c 20be
00000320: 14a1 15bd 2bc3 b1bc 5df5 dcbe efe6 59bf
00000330: c5df 06be c707 b7bd d32b 27bf 4466 2cbd
00000340: 39a4 50bf 46ff 2ebf 48d3 25bf cd14 6fbf
00000350: 238c 69bf 1df6 ddbe c495 52be 91c9 88bf
00000360: 6e60 8c3d 0023 31bf 77f7 9bbe 87cd 20bf
00000370: 9ef2 0bbf 967d 32be 6213 1bbe 2645 39bf
00000380: 80cd 04bf b44a e0be 4f16 65be 9ebb 77bf
00000390: 7333 d6be 6513 3cbf 84ae 4fbd 33c7 4fbf
000003a0: f285 a8be 21cc 85bf 52a1 c5be 0a69 0bbd
000003b0: 02ae 05be ff44 3cbe 7b94 71bf 0dcf 363e
000003c0: 8f68 5ebe 88ea 99be 5c8a 5abf 1f75 42bf
000003d0: 9c74 39bf c907 32be e921 c9bd a1d8 7ebf
000003e0: 840a d7be a11d 86bd bd5e c5be 12e0 cebe
000003f0: bc1a 2fbf fde0 b2be dbe8 c23d 194f 33be

fcs1_bn.running_mean f4 [400]
3.588428 -4.187571 -0.1805138 -0.1326844 3.7306397 -2.9778287 0.70393366 -1.8272301
-3.4580646 3.1158764 1.1232527 0.46273792 -1.1102886 2.9593701 -1.5453986 0.12780397
-2.1208916 0.8585414 1.8736287 -1.6265731 -0.70208526 2.1181211 -0.13564242 -1.2649094
-0.060633674 0.06774417 -0.06434174 0.33282658 -1.4750526 1.7951585 -1.8257676 -0.35817996
2.3492281 -1.3929482 -1.8209682 0.36857748 -0.0031395846 -0.7960135 0.5934569 2.054823
-0.00940753 0.19138145 -0.18847378 1.3415656 -1.7075076 2.0252342 1.6412499 -1.6168088
-3.195973 -0.5264556 0.5317077 -1.600314 -1.4982975 5.074194 -0.7950244 1.9616551
0.8727273 1.3907996 0.05598254 1.0796782 2.4930615 -1.3387764 0.3072526 0.0226604
0.2727667 -1.006488 1.1033407 -3.0798717 -0.55458146 -3.2189155 0.9891294 2.8165526
-2.4998784 -0.28739148 3.635201 0.36232066 -1.557193 -1.512173 0.5638936 0.4245999
-0.080033734 0.7306784 0.20546849 -0.9752791 0.80054975 0.34493792 0.28684548 0.6207572
1.7390578 -1.4291549 -1.298112 -1.5857304 1.7805598 1.2020097 -0.09792885 -1.4568331
1.6681905 2.0377638 1.0990795 1.2689307 -1.467832 2.3976166 0.21576923 -0.7522474
0.051555675 -0.3410995 -0.99832547 4.027156 0.76975644 1.593829 -0.050416004 0.027760897
-2.3558116 -0.2853762 -0.67825866 2.0469391 -1.3558236 0.13278803 1.8538964 -2.9660518
0.4852969 -0.32885665 -0.844572 0.5263635 -0.37982336 -1.085951 -0.67495745 3.5104485
0.9342116 0.1063153 -2.8569655 -2.273116 3.5322032 2.6851072 1.1898127 0.17936097
-1.0643373 3.897823 -0.6572833 1.9098663 0.20695241 4.6445723 2.5617697 -2.051788
0.15365037 0.40488958 1.2491114 0.6300094 -0.58404297 -4.122051 5.890722 0.4901658
0.21645549 -2.40517 3.2236068 2.0701568 2.1159909 -1.4202784 1.7214293 -4.4735622
0.28646842 1.4665512 2.7470827 -1.1514295 -0.3720125 -2.8319142 0.2507808 -1.4408195
-0.34934586 -1.9281213 0.043123074 -1.661131 0.8141903 -1.5036457 2.441608 0.114556104
0.114457384 -1.854592 4.267507 4.343027 -1.4212564 -1.2067294 0.06499503 -1.175723
0.36641628 -1.8019241 0.9497167 -3.4498744 0.30963135 0.24547343 1.4353446 0.94987637
0.038029693 0.37885228 0.83579534 0.1889359 -1.4648376 -2.6952732 1.3299179 0.51976246
0.030550858 -0.0806798 2.2766473 -0.06072413 -1.8174932 2.4536314 -0.6200405 0.7008886
1.6232758 -0.42828408 1.238392 -2.1104624 -0.5113154 -0.05747052 2.2379212 0.12712015
0.037189137 -1.3619105 1.2507952 0.8325116 -0.55124843 1.0252078 -1.5638143 0.5316537
0.23548023 -2.219524 0.7512348 -2.775675 0.1843453 1.8217223 -1.3927494 -0.78032506
-0.92628217 -3.6866858 -1.3213073 0.026714206 -0.6832981 -3.3473184 -0.22888704 1.3035052
0.95508736 2.0915475 0.052173726 0.21103586 1.7111782 0.26566422 -0.7021073 -1.7061449
0.4892409 -0.4667192 -0.87849605 2.3330297 0.14934185 -0.21872707 -0.8603151 1.4236819
00000000: cea8 6540 9500 86c0 9cd8 38be 6bde 07be
00000010: cdc2 6e40 bf94 3ec0 ff34 343f ade2 e9bf
00000020: ee50 5dc0 856a 4740 bfc6 8f3f fceb ec3e
00000030: f01d 8ebf 5266 3d40 9fcf c5bf 0bdf 023e
00000040: b0bc 07c0 5fc9 5b3f 11d3 ef3f 8c33 d0bf
00000050: dcbb 33bf 4c8f 0740 d9e5 0abe 8de8 a1bf
00000060: 045b 78bd 75bd 8a3d 9ac5 83bd 3f68 aa3e
00000070: 86ce bcbf c1c7 e53f c1b2 e9bf 5d63 b7be
00000080: c159 1640 204c b2bf 7c15 e9bf 30b6 bc3e
00000090: 7dc1 4dbb 8ac7 4bbf cbec 173f 3882 0340
000000a0: 0a22 1abc 80f9 433e 45ff 40be 6cb8 ab3f
000000b0: 9c8f dabf 709d 0140 7a14 d23f 97f3 cebf
000000c0: d28a 4cc0 cbc5 06bf ff1d 083f 17d7 ccbf
000000d0: 36c8 bfbf cc5f a240 b886 4bbf 8417 fb3f
000000e0: 0e6b 5f3f b905 b23f f34d 653d e532 8a3f
000000f0: 528e 1f40 065d abbf 3650 9d3e 4ea2 b93c
00000100: 14a8 8b3e 99d4 80bf 453a 8d3f 9e1c 45c0
00000110: 0df9 0dbf b602 4ec0 9637 7d3f 6642 3440
00000120: 02fe 1fc0 fa24 93be 22a7 6840 1882 b93e
00000130: 1a52 c7bf e38e c1bf 555b 103f 2865 d93e
00000140: bae8 a3bd bd0d 3b3f 5566 523e e4ab 79bf
00000150: d4f0 4c3f b49b b03e 69dd 923e f2e9 1e3f
00000160: 7299 de3f 8cee b6bf 8928 a6bf 37f9 cabf
00000170: 62e9 e33f 74db 993f ec8e c8bd 8279 babf
00000180: 4487 d53f b96a 0240 a3ae 8c3f 526c a23f
00000190: ebe1 bbbf 8d72 1940 9cf2 5c3e 4993 40bf
000001a0: 0b2c 533d 98a4 aebe 4292 7fbf 76de 8040
000001b0: c20e 453f 9702 cc3f 0381 4ebd d26a e33c
000001c0: 9ec5 16c0 d41c 92be 5ca2 2dbf 0d01 0340
000001d0: a18b adbf 96f9 073e 7a4c ed3f cbd3 3dc0
000001e0: d678 f83e e65f a8be df35 58bf c2bf 063f
000001f0: 3578 c2be 7100 8bbf 03ca 2cbf 30ab 6040
00000200: 7e28 6f3f d6bb d93d 86d8 36c0 bc7a 11c0
00000210: 9e0f 6240 ccd8 2b40 c84b 983f 67aa 373e
00000220: 343c 88bf ef75 7940 b843 28bf 8076 f43f
00000230: 55eb 533e 56a0 9440 09f4 2340 7f50 03c0
00000240: 8656 1d3e b04d cf3e e2e2 9f3f 4c48 213f
00000250: d783 15bf d7e7 83c0 cb80 bc40 03f7 fa3e
00000260: 82a6 5d3e 4eee 19c0 934f 4e40 737d 0440
00000270: 656c 0740 afcb b5bf cc57 dc3f 6c27 8fc0
00000280: fdab 923e f3b7 bb3f 34d0 2f40 0b62 93bf
00000290: 6c78 bebe 153e 35c0 5766 803e c66c b8bf
000002a0: 76dd b2be aecc f6bf d2a1 303d f19f d4bf
000002b0: c76e 503f 7677 c0bf 4e43 1c40 649c ea3d
000002c0: a268 ea3d 4563 edbf 6b8f 8840 14fa 8a40
000002d0: bbeb b5bf 1c76 9abf 1d1c 853d 177e 96bf
000002e0: ea9a bb3e 73a5 e6bf a220 733f beca 5cc0
000002f0: 0088 9e3e 635d 7b3e 5fb9 b73f 192b 733f
00000300: 06c5 1b3d edf8 c13e aff6 553f 6a78 413e
00000310: cc7f bbbf 5b7f 2cc0 c03a aa3f 270f 053f
00000320: cb45 fa3c 733b a5bd 97b4 1140 deb9 78bd
00000330: 9ea3 e8bf 4c08 1d40 f9ba 1ebf 6f6d 333f
00000340: 80c7 cf3f 0d48 dbbe a183 9e3f d111 07c0
00000350: 91e5 02bf 3566 6bbd 1a3a 0f40 c92b 023e
00000360: a353 183d 1553 aebf 0f1a a03f 7b1f 553f
00000370: 9e1e 0dbf 023a 833f 112b c8bf 751a 083f
00000380: bb21 713e ae0c 0ec0 ed50 403f a9a4 31c0
00000390: 04c5 3c3e 322e e93f 9d45 b2bf 62c3 47bf
000003a0: d420 6dbf a9f2 6bc0 9920 a9bf c0d7 da3c
000003b0: a0ec 2ebf 773a 56c0 5d61 6abe 42d9 a63f
000003c0: 9b80 743f eadb 0540 1eb4 553d c919 583e
000003d0: e307 db3f 2405 883e 4ebd 33bf f562 dabf
000003e0: c97d fa3e d2f5 eebe 1ee5 60bf 5c50 1540
000003f0: 12ed 183e fdf9 5fbe 9c3d 5cbf 353b b63f

fcs1_bn.running_var f4 [400]
175.40587 60.657974 133.91327 24.801123 132.37718 110.96185 144.01775 49.151527
76.8898 49.76576 130.23436 208.22871 60.904697 165.40216 24.378477 30.386873
92.58396 91.79963 186.08278 61.066967 64.08418 99.47988 18.531347 161.23067
160.1419 24.840847 0.60807645 1.2674146 64.991035 63.19791 57.250183 112.01805
85.928055 172.89716 81.92404 57.015785 171.70071 99.888466 164.31259 258.88284
188.71663 19.19211 20.936504 73.859344 144.34525 106.481285 79.26903 126.70876
170.01315 112.57574 10.100637 197.52481 62.6663 95.92514 41.12891 87.65028
111.96311 66.348114 159.96458 77.060684 160.47253 180.33852 49.982006 24.242271
56.55966 32.056885 116.472084 30.950422 40.687614 62.80605 48.265915 124.49344
200.79591 83.91514 60.147568 31.24388 90.781975 130.7458 60.658375 57.106575
21.461515 89.75872 82.02349 100.08777 87.29226 3.2988148 16.308493 101.1514
155.05385 156.38203 59.99153 24.04062 62.65272 43.55265 4.049204 72.895874
100.37679 42.574364 26.869024 165.04712 126.91467 135.77908 27.997276 37.43119
92.59428 91.48136 208.47186 87.09946 128.44446 160.59679 50.03047 0.22822358
31.295588 29.573618 52.16192 130.652 72.37258 33.857693 146.518 236.16565
23.17749 17.226748 36.935146 45.114876 18.749397 48.622547 163.65422 114.40496
78.02785 24.481434 44.93678 26.596739 150.56517 58.194786 54.716076 22.78087
89.617455 102.580925 100.361565 161.45253 93.21578 92.02725 102.70493 58.233006
122.59658 162.44368 105.47285 204.60825 67.43597 121.91311 112.286064 51.97097
24.21966 139.81183 133.78537 24.038925 67.25954 117.52163 28.015913 149.36809
124.1287 129.49348 127.22551 72.0333 30.254213 66.09889 63.972206 60.938576
51.040863 93.64042 78.13723 40.802654 96.5019 105.563034 68.20149 85.31242
28.264992 82.94594 70.421135 74.93173 125.148186 98.93524 30.550638 64.46315
105.38258 98.879486 81.95238 57.93654 60.107586 19.611496 46.251995 123.946236
193.77383 64.83158 69.12237 136.40834 113.1039 67.51728 63.169865 94.724205
1.1934838 97.272675 145.86557 48.23481 149.15982 25.880968 192.74413 50.09202
187.86241 123.7892 97.368904 141.5296 29.434948 62.853935 74.510345 42.149498
24.386457 55.34576 71.148575 57.06971 24.395178 37.381615 59.5099 207.90453
20.971636 52.416702 60.532463 279.48996 26.576788 87.630684 40.75286 162.56815
36.852142 56.018044 97.88077 30.505697 11.560413 35.67258 185.9936 43.320564
94.62701 79.55812 22.791828 16.77335 66.19187 74.04296 17.794107 93.35647
16.194086 57.35827 46.52091 38.385227 27.593208 36.653637 109.831505 45.366306
00000000: e767 2f43 c4a1 7242 cce9 0543 b368 c641
00000010: 8f60 0443 78ec dd42 8b04 1043 2a9b 4442
00000020: 94c7 9942 2310 4742 ff3b 0243 8d3a 5043
00000030: 699e 7342 f466 2543 1f07 c341 5118 f341
00000040: fd2a b942 6999 b742 3115 3a43 9344 7442
00000050: 1a2b 8042 b3f5 c642 3340 9441 0d3b 2143
00000060: 5424 2043 0eba c641 e6aa 1b3f a43a a23f
00000070: 69fb 8142 a9ca 7c42 3000 6542 3e09 e042
00000080: 2adb ab42 ace5 2c43 1cd9 a342 2a10 6442
00000090: 62b3 2b43 e5c6 c742 0650 2443 0171 8143
000000a0: 75b7 3c43 7189 9941 f67d a741 fcb7 9342
000000b0: 6258 1043 6bf6 d442 be89 9e42 e36a fd42
000000c0: 5e03 2a43 c726 e142 369c 2141 5a86 4543
000000d0: 4baa 7a42 acd9 bf42 0184 2442 f24c af42
000000e0: 1ded df42 3cb2 8442 eff6 1f43 121f 9a42
000000f0: f878 2043 a956 3443 93ed 4742 2cf0 c141
00000100: 183d 6242 403a 0042 b5f1 e842 779a f741
00000110: 1ec0 2242 6539 7b42 4c10 4142 a4fc f842
00000120: c1cb 4843 8dd4 a742 1c97 7042 77f3 f941
00000130: 5f90 b542 edbe 0243 2da2 7242 226d 6442
00000140: 2fb1 ab41 7784 b342 070c a442 f02c c842
00000150: a395 ae42 c81f 5340 cb77 8241 844d ca42
00000160: c90d 1b43 cd61 1c43 54f7 6f42 3153 c041
00000170: 639c 7a42 ea35 2e42 1493 8140 b0ca 9142
00000180: ebc0 c842 264c 2a42 c3f3 d641 100c 2543
00000190: 50d4 fd42 72c7 0743 6cfa df41 8ab9 1542
000001a0: 4530 b942 75f6 b642 cc78 5043 ec32 ae42
000001b0: c871 0043 c798 2043 341f 4842 71b3 693e
000001c0: 5d5d fa41 c596 ec41 cea5 5042 e9a6 0243
000001d0: c3be 9042 476e 0742 9c84 1243 682a 6c43
000001e0: 806b b941 61d0 8941 97bd 1342 a275 3442
000001f0: c4fe 9541 7d7d 4242 7ba7 2343 57cf e442
00000200: 420e 9c42 fad9 c341 43bf 3342 1fc6 d441
00000210: af90 1643 76c7 6842 43dd 5a42 393f b641
00000220: 233c b342 6f29 cd42 1fb9 c842 d973 2143
00000230: 7b6e ba42 f40d b842 ed68 cd42 99ee 6842
00000240: 7331 f542 9571 2243 19f2 d242 b69b 4c43
00000250: 37df 8642 83d3 f342 7792 e042 46e2 4f42
00000260: ddc1 c141 d4cf 0b43 0ec9 0543 b84f c041
00000270: e284 8642 130b eb42 9720 e041 3b5e 1543
00000280: e541 f842 557e 0143 7673 fe42 0d11 9042
00000290: a108 f241 a232 8442 8ae3 7f42 1ac1 7342
000002a0: d829 4c42 e547 bb42 4346 9c42 eb35 2342
000002b0: f900 c142 4620 d342 2a67 8842 f69f aa42
000002c0: b41e e241 52e4 a542 9fd7 8c42 0cdd 9542
000002d0: df4b fa42 d8de c542 b567 f441 22ed 8042
000002e0: e2c3 d242 4cc2 c542 9ee7 a342 04bf 6742
000002f0: 2b6e 7042 58e4 9c41 0b02 3942 79e4 f742
00000300: 1ac6 4143 c5a9 8142 a73e 8a42 8968 0843
00000310: 3235 e242 d908 8742 f1ad 7c42 cb72 bd42
00000320: 14c4 983f 9c8b c242 96dd 1143 72f0 4042
00000330: ea28 1543 390c cf41 7fbe 4043 3a5e 4842
00000340: c7dc 3b43 1294 f742 e1bc c242 9487 0d43
00000350: c67a eb41 6e6a 7b42 4c05 9542 1699 2842
00000360: 7717 c341 0f62 5d42 124c 8e42 6247 6442
00000370: 5329 c341 c686 1542 230a 6e42 8fe7 4f43
00000380: e9c5 a741 b4aa 5142 3e21 7242 b7be 8b43
00000390: 439d d441 e942 af42 ee02 2342 7291 2243
000003a0: 9868 1342 7a12 6042 f4c2 c342 ab0b f441
000003b0: 74f7 3841 b9b0 0e42 5dfe 3943 4248 2d42
000003c0: 0741 bd42 c21d 9f42 aa55 b641 d22f 8641
000003d0: 3d62 8442 ff15 9442 555a 8e41 83b6 ba42
000003e0: 7d8d 8141 de6e 6542 6915 3a42 798a 1942
000003f0: e4be dc41 539d 1242 bba9 db42 1977 3542

fc2.weight f4 [300, 404]
0.32102218 1.4584254 0.12561905 0.41932255 0.61928844 -0.70047015 -0.54090685 0.057891633
-0.7569407 -1.2420446 -1.0181762 0.8553252 -0.10588126 0.38535705 -0.0019060075 0.072487116
-0.30371737 -0.52806383 -0.5501583 -0.5337426 -0.40518892 -1.0069293 0.800182 -0.29858077
0.3241227 0.20857541 0.0025583985 -0.04218177 -0.59309494 0.37016255 -0.34844974 0.12617397
-1.1619132 0.45399058 0.40173364 0.5549562 0.13375266 -0.9356171 -0.09825622 0.8574846
-0.7772601 -0.46527538 0.5433479 1.0503378 0.07362055 0.3416218 -0.93933475 -0.64209574
0.040540382 0.2155974 -0.08169982 0.11024266 -0.814994 0.2759677 -0.6406825 0.86139864
0.33699712 -0.5783137 0.63530254 -0.39792144 -0.3956898 0.8905622 0.40678737 0.39096072
-1.1028905 0.61912614 0.29242328 -0.33681828 -0.50689447 -0.16471604 0.8839431 0.06693694
-0.73552245 -0.39202595 -0.5752752 0.009865974 0.4835681 -0.17718242 0.3460915 -0.5766048
-0.38063288 0.15210466 0.07066855 0.025735725 -0.2699193 0.009872081 -0.66963315 -0.17842992
0.19458549 -1.3357838 -0.66672575 -0.3422711 0.6281877 0.3458535 0.040478777 0.5516808
-1.2309407 -0.60949874 0.3889015 -0.41874593 0.81645834 -0.8474177 -0.10574991 0.8751125
-0.31327745 -0.39677483 1.4924419 -0.10282037 1.5613348 -0.4186266 0.6439848 0.02956907
-1.2758281 -0.6590523 0.36054957 0.33497658 0.77967685 0.19245644 -0.9981766 -0.18838593
-0.9181999 -0.56463486 -0.32891983 -0.20871416 -0.5420924 0.93451816 -0.23075968 0.49840632
0.3100188 0.24915376 0.99279904 -0.3016261 0.7436622 -0.15922077 -2.1362107 -0.9423639
-0.96961766 0.53869146 0.16315448 -1.5485647 -0.856556 -0.2602213 0.37735516 0.41715193
-0.3807595 -0.7602678 -0.4223512 -1.1747922 -0.2553757 0.06816726 0.50567794 0.36135045
-1.0526984 0.038915373 -0.04997711 -0.068499885 -0.49974072 0.25381577 0.15888079 -0.11649282
-0.3592822 -0.3059006 1.4638879 -1.0527004 -0.20044495 0.7461891 -0.25034878 0.35568887
-0.02876066 0.12472139 0.6807443 0.1059159 -0.23913784 0.61841124 -0.12701589 0.27339777
-0.4620024 -0.38437268 0.44572884 0.3770013 -0.651184 -0.42183524 -0.15720482 -0.1324254
-0.29936522 0.26200566 -1.6076479 -0.4420383 -0.1155953 0.13986634 -0.0240879 -0.021562051
-0.05632184 0.806368 0.11022489 0.78815573 0.13846523 0.4595486 0.22626197 0.14645733
0.02780781 -0.40800405 -0.14645451 0.68293804 0.72482723 -0.4226451 0.39879686 -0.032903858
0.8512967 -1.1585974 0.1940392 0.5993866 -0.3430133 1.435408 0.58577 0.18993884
-0.08786722 0.89566875 -0.11294013 0.124625206 0.6006745 -0.81841964 -0.46901852 1.085043
-0.09081831 -0.0011466751 -0.2639316 -0.93130493 0.38289773 -0.098308675 0.0061134202 -0.3246119
-0.72002894 -1.1769742 0.38801414 -0.4326321 -0.104512 0.49164385 0.6496687 -0.88610655
-0.19382295 -0.44689617 0.09688458 -0.5971916 0.2524693 0.1950158 0.04947806 0.24264042
0.12788391 -0.15091303 -0.5367905 -0.39467373 -1.2455875 -1.6460867 -0.083281755 0.68778974
00000000: 055d a43e afad ba3f 48a2 003e 72b1 d63e
00000010: b089 1e3f 0352 33bf df78 0abf c71f 6d3d
00000020: dec6 41bf 51fb 9ebf 9953 82bf 98f6 5a3f
00000030: 46d8 d8bd 854d c53e 00d3 f9ba 2074 943d
00000040: d880 9bbe 312f 07bf 2dd7 0cbf 5ba3 08bf
00000050: ec74 cfbe 0fe3 80bf bad8 4c3f 94df 98be
00000060: 69f3 a53e cb94 553e ceaa 273b cbc6 2cbd
00000070: 12d5 17bf f285 bd3e 0168 b2be c033 013e
00000080: 92b9 94bf 7471 e83e 08b0 cd3e 9c11 0e3f
00000090: 75f6 083e 9a84 6fbf 8f3a c9bd 1c84 5b3f
000000a0: 85fa 46bf 9338 eebe d918 0b3f 7871 863f
000000b0: 5fc6 963d 0de9 ae3e 3e78 70bf 6360 24bf
000000c0: ac0d 263d 91c5 5c3e 3c52 a7bd e7c6 e13d
000000d0: 72a3 50bf a34b 8d3e c503 24bf 9f84 5c3f
000000e0: e38a ac3e 5e0c 14bf 30a3 223f 5cbc cbbe
000000f0: da97 cabe e2fb 633f 6f46 d03e 012c c83e
00000100: 842b 8dbf 0d7f 1e3f 81b8 953e 7273 acbe
00000110: d6c3 01bf 52ab 28be 184a 623f 3c16 893d
00000120: 334b 3cbf a0b7 c8be 3c45 13bf e5a4 213c
00000130: 3d96 f73e 4f6f 35be e832 b13e 5f9c 13bf
00000140: 50e2 c2be 53c1 1b3e acba 903d bad3 d23c
00000150: dd32 8abe 82be 213c 146d 2bbf 55b6 36be
00000160: 6b41 473e f7fa aabf 8aae 2abf 283e afbe
00000170: e9d0 203f b613 b13e 13cd 253d f43a 0d3f
00000180: 778f 9dbf 1c08 1cbf 191e c73e de65 d6be
00000190: 6a03 513f 5ef0 58bf 6993 d8bd 5f07 603f
000001a0: e765 a0be 1226 cbbe 5608 bf3f 7c93 d2bd
000001b0: d2d9 c73f 3a56 d6be 30dc 243f d63a f23c
000001c0: 564e a3bf a7b7 28bf f499 b83e 0d82 ab3e
000001d0: e798 473f 4d13 453e 8088 7fbf 3ee8 40be
000001e0: 260f 6bbf e98b 10bf 2e68 a8be 2ab9 55be
000001f0: 91c6 0abf 953c 6f3f 444c 6cbe 1d2f ff3e
00000200: c9ba 9e3e 2a22 7f3e 1428 7e3f bc6e 9abe
00000210: a560 3e3f c50a 23be adb7 08c0 c33e 71bf
00000220: dd38 78bf afe7 093f f811 273e 5e37 c6bf
00000230: 4147 5bbf ba3b 85be b234 c13e f094 d53e
00000240: e9f2 c2be e9a0 42bf 6b3e d8be 975f 96bf
00000250: 9bc0 82be 479b 8b3d 1c74 013f ed02 b93e
00000260: d2be 86bf ba65 1f3d ccb4 4cbd ab49 8cbd
00000270: 04de ffbe 24f4 813e a5b1 223e ca93 eebd
00000280: d6f3 b7be 019f 9cbe ae60 bb3f e3be 86bf
00000290: 7141 4dbe 4006 3f3f b72d 80be da1c b63e
000002a0: 7a9b ebbc ee6d ff3d 4245 2e3f 6fea d83d
000002b0: 8de0 74be 3350 1e3f 7410 02be cbfa 8b3e
000002c0: 948b ecbe 7fcc c4be 9236 e43e 5006 c13e
000002d0: ffb3 26bf cafa d7be 4dfa 20be 869a 07be
000002e0: 6646 99be 9b25 863e 68c7 cdbf d852 e2be
000002f0: 3bbd ecbd 1f39 0f3e fd53 c5bc e6a2 b0bc
00000300: bbb1 66bd 226e 4e3f 96bd e13d 93c4 493f
00000310: d4c9 0d3e f449 eb3e 38b1 673e e9f8 153e
00000320: 34cd e33c e8e5 d0be 2cf8 15be 07d5 2e3f
00000330: 478e 393f f064 d8be 1a2f cc3e 32c6 06bd
00000340: 95ee 593f eb4c 94bf 36b2 463e 6671 193f
00000350: 709f afbe 73bb b73f 06f5 153f 547f 423e
00000360: bbf3 b3bd 8c4a 653f 284d e7bd 803b ff3d
00000370: cec5 193f f383 51bf 3223 f0be b0e2 8a3f
00000380: f3fe b9bd 084c 96ba 0b22 87be 006a 6ebf
00000390: 2c0b c43e 0f56 c9bd 1653 c83b 8833 a6be
000003a0: d153 38bf 17a7 96bf caa9 c63e f481 ddbe
000003b0: 630a d6bd beb8 fb3e b050 263f e1d7 62bf
000003c0: 8679 46be 93cf e4be 6c6b c63d 8ce1 18bf
000003d0: a843 813e 39b2 473e 82a9 4a3d bb76 783e
000003e0: 00f4 023e f288 1abe 1a6b 09bf ad12 cabe
000003f0: 696f 9fbf f8b2 d2bf a08f aabd fd12 303f

fc2.bias f4 [300]
-0.027197829 0.045839556 -0.030400079 0.036891766 0.014585307 -0.027169656 -0.0017037868 -0.02462465
-0.04154583 -0.013332483 -0.028218558 -0.01670146 -0.04821981 -0.04566116 0.0037482555 -0.04502585
0.020885594 0.026225906 -0.03293038 0.013317783 0.0052580494 -0.044933125 -0.03665986 -0.018904326
0.0054689497 -0.0025256558 -0.020064631 -0.02460067 0.03672999 -0.025474494 -0.024416015 0.0136770485
0.00016576365 -0.0148464935 -0.00051637663 0.04563983 -0.02787072 0.04408881 0.0029709751 -0.034466736
0.036766376 0.02703619 0.0020923738 0.03166065 -0.0051956973 0.036299124 0.036369316 0.024426894
0.025791436 -0.014562633 -0.039601848 -0.0058910428 0.035879236 -0.019102389 0.047464248 0.020991052
-0.040519826 -0.012652122 0.02188217 0.02303498 -0.028374085 -0.03150115 0.0153189115 0.013054613
-0.049568627 -0.03765946 -0.03856095 -0.009337875 0.020479051 0.0020950427 -0.036157038 -0.034851745
-0.047422938 0.043278933 -0.016114669 -0.018135305 -0.040640857 0.016257094 0.040774208 0.022532348
0.012103188 -0.022977766 -0.039659154 0.026624216 -0.010659967 -0.017494442 0.049160622 -0.013373587
-0.047772963 0.037279516 0.00838378 -0.03348324 0.006998201 0.04464439 0.03332615 0.016885756
0.021372288 -0.022417534 0.047196314 0.024553066 0.0009149385 -0.045090362 -0.008306333 0.0075735496
-0.012560663 0.022492796 -0.04596671 0.023158355 0.017691808 -0.00057418883 0.012942653 0.026625138
0.023687234 -0.039692592 0.049291823 -0.026118968 -0.011769093 -0.018225027 0.0078708315 -0.006724462
0.030778252 0.035860628 0.027885158 -0.008457685 -0.042732242 0.04553699 -0.041446254 0.03863819
-0.047909535 0.023850298 0.014205865 -0.041983336 -0.044633206 0.010421334 -0.03762343 -0.03402329
-0.039281294 -0.008638737 0.023856862 -0.040703043 -0.039709423 0.0044865715 -0.019121692 -0.0048523233
0.0021109397 0.022871312 -0.036173496 0.0044510174 -0.030930564 -0.036960945 0.04472712 -0.007000159
0.029554335 0.030010277 -0.046647582 0.017569393 0.04321856 -0.0053044674 0.03490962 0.047531296
0.04737924 -0.032592013 -0.010947909 -0.02307216 0.009724063 0.0004250248 0.0033652151 0.021010533
-0.0066031325 -0.045957305 -0.01720576 -0.009774008 -0.032384627 0.00070132193 0.021819726 -0.017541772
-0.013016819 0.017980734 -0.016420389 -0.04319498 0.030448055 0.008022319 0.049264137 -0.044477873
0.02832211 -0.025817007 0.04103685 -0.04090578 0.016938973 0.0026243227 0.004072917 -0.00066398043
-0.044400882 0.021134838 -0.04703695 -0.035757773 0.024890319 -0.029140964 0.0050330446 -0.039508615
0.031982396 -0.034813035 0.040496368 0.018651655 -0.011501181 -0.003189641 -0.01895819 0.012863426
-0.0076938565 -0.035408247 0.0133425435 0.030338017 -0.035544474 0.0008144981 0.04731102 0.031615537
0.0012523994 -0.017173178 0.025627075 0.026638987 0.0010834461 -0.036856424 -0.011104575 0.021890163
0.011443644 -0.026575861 -0.04424812 0.03580292 0.026327064 -0.0072712316 0.017746996 -0.03458707
0.015078516 -0.019134909 -0.016356299 -0.010784992 -0.031675033 0.040558133 -0.020950044 0.040692557
0.036190044 -0.037572917 0.0014339378 -0.01859653 0.006600189 -0.023982154 0.03402838 0.009581995
-0.02304661 0.048881527 -0.019824602 0.049719755 -0.037554912 0.022510407 0.0061858296 0.011442146
00000000: fbcd debc 42c2 3b3d 9609 f9bc d21b 173d
00000010: 36f7 6e3c e692 debc 9951 dfba a2b9 c9bc
00000020: f62b 2abd 7d70 5abc 9b2a e7bc 80d1 88bc
00000030: 2382 45bd 3207 3bbd 4ba5 753b 076d 38bd
00000040: 4418 ab3c b6d7 d63c 02e2 06bd d532 5a3c
00000050: b74b ac3b cc0b 38bd a628 16bd 3fdd 9abc
00000060: e034 b33b 7985 25bb 955e a4bc 5887 c9bc
00000070: 3072 163d e3af d0bc 1804 c8bc b315 603c
00000080: d7d0 2d39 b53e 73bc 735d 07ba d5f0 3a3d
00000090: 2351 e4bc 7896 343d b1b4 423b fe2c 0dbd
000000a0: 5798 163d 007b dd3c 3520 093b 99ae 013d
000000b0: ab40 aabb 64ae 143d fef7 143d e91a c83c
000000c0: 9048 d33c 1c98 6ebc 8c35 22bd a609 c1bb
000000d0: 1bf6 123d 9d7c 9cbc df69 423d 6df5 ab3c
000000e0: 1ef8 25bd d94a 4fbc 3d42 b33c dbb3 bc3c
000000f0: c570 e8bc 5a07 01bd 2cfc 7a3c 04e3 553c
00000100: 7908 4bbd ce40 1abd 16f2 1dbd e3fd 18bc
00000110: afc3 a73c fc4c 093b 6719 14bd b4c0 0ebd
00000120: 8e3e 42bd 4045 313d e902 84bc 7e90 94bc
00000130: 0777 26bd 992d 853c db02 273d c295 b83c
00000140: 734c 463c de3b bcbc a371 22bd 071b da3c
00000150: 24a7 2ebc 8150 8fbc a65c 493d e41c 5bbc
00000160: 95ad 43bd 68b2 183d 1f5c 093c b925 09bd
00000170: 2a51 e53b 09dd 363d 0081 083d ff53 8a3c
00000180: f014 af3c faa4 b7bc ec50 413d 8323 c93c
00000190: 7cd8 6f3a acb0 38bd 4917 08bc 8a2b f83b
000001a0: 3dcb 4dbc d042 b83c 9747 3cbd 97b6 bd3c
000001b0: 69ee 903c 2985 16ba 6c0d 543c f61c da3c
000001c0: bb0b c23c b394 22bd 39e6 493d 72f7 d5bc
000001d0: 27d3 40bc a74c 95bc a9f4 003c e058 dcbb
000001e0: ac22 fc3c 98e2 123d 6a6f e43c 1a92 0abc
000001f0: 0108 2fbd ff84 3a3d 8cc3 29bd 1443 1e3d
00000200: ca3c 44bd b361 c33c b7bf 683c b8f6 2bbd
00000210: 4fd1 36bd 3ebe 2a3c 071b 1abd 015c 0bbd
00000220: 6ce5 20bd 7d89 0dbc 776f c33c 3cb8 26bd
00000230: 59a6 22bd 1704 933b 18a5 9cbc 3d00 9fbb
00000240: b157 0a3b 9e5c bb3c a92a 14bd d7d9 913b
00000250: 1862 fdbc 5c64 17bd c933 373d 9761 e5bb
00000260: ef1b f23c 1dd8 f53c 8911 3fbd b0ed 8f3c
00000270: f205 313d 19d1 adbb 64fd 0e3d 2db0 423d
00000280: bc10 423d 347f 05bd dc5e 33bc d401 bdbc
00000290: ad51 1f3c ddd5 de39 f18a 5c3b 481e ac3c
000002a0: 175f d8bb ba3d 3cbd 18f3 8cbc 2923 20bc
000002b0: bea5 04bd ebd8 373a 48bf b23c c3b3 8fbc
000002c0: 7f44 55bc 554c 933c 0d84 86bc 38ed 30bd
000002d0: 336e f93c 0b70 033c 31c9 493d 6e2e 36bd
000002e0: c503 e83c 307e d3bc 4216 283d d28c 27bd
000002f0: 9ac3 8a3c d4fc 2b3b 1b76 853b f90e 2eba
00000300: b3dd 35bd f822 ad3c d1a9 40bd be76 12bd
00000310: c8e6 cb3c 08b9 eebc 3dec a43b c9d3 21bd
00000320: f9ff 023d 1d98 0ebd 85df 253d 5bcb 983c
00000330: 736f 3cbc 4c09 51bb 354e 9bbc 1ec1 523c
00000340: bf1c fcbb 3d08 11bd af9a 5a3c 6f87 f83c
00000350: 1597 11bd 0b84 553a 33c9 413d 4b7f 013d
00000360: 8d27 a43a c4ae 8cbc dfef d13c 013a da3c
00000370: 6b02 8e3a c3f6 16bd f7ef 35bc 0053 b33c
00000380: 1f7e 3b3c 9fb5 d9bc 843d 35bd 15a6 123d
00000390: dbab d73c 8343 eebb 2662 913c 2cab 0dbd
000003a0: e10b 773c d0c0 9cbc a5fd 85bc 89b3 30bc
000003b0: aebd 01bd 4920 263d 6d9f abbc 3dad 263d
000003c0: 033c 143d 0fe6 19bd f8f2 bb3a c057 98bc
000003d0: 6646 d83b 3976 c4bc 5861 0b3d cdfd 1c3c
000003e0: 3fcc bcbc ff37 483d 3467 a2bc f1a6 4b3d
000003f0: 2ed3 19bd bf67 b83c 80b2 ca3b d777 3b3c
