agent_checkpoints/checkpoint_actor_0.pth (torch_old, 553585 bytes, 14 tensors)

fc1.weight f4 [400, 33]
000000 80 fb ee bc 64 01 79 bd 8a 4d 44 3b 7f cc 2f bd
       -0.029172659 -0.06079234 0.0029953443 -0.042919632
000010 78 a0 dd bb ea e7 32 bd 25 5f 9c bc c2 09 09 bc
       -0.006763514 -0.0436782 -0.019088337 -0.008364143
000020 96 ac ae bc d3 15 a7 bb d0 8e 74 3d 03 5a d0 3c
       -0.02132253 -0.005099037 0.05970651 0.025433546
000030 9d 38 00 3d 1d 8c 6e bd d2 3f a4 3c 2d 34 ef 3c
       0.03130399 -0.05823909 0.020049963 0.029199684
000040 fc 9d 96 3c a7 4f 88 3c 53 1d 60 3c a9 76 4d bd
       0.01838588 0.016639544 0.013678866 -0.05016199
000050 e1 ec 14 3a 8e 8c 7d bc c5 63 c0 bc 4f 85 49 3d
       0.00056810497 -0.015475405 -0.023485074 0.0491994
000060 1b 08 00 3d 54 d2 1a bd 55 8d 7e 3b ee 84 a2 bc
       0.03125773 -0.03779824 0.0038841565 -0.019838776
000070 d0 dc 2b bd d8 99 d5 3b 5d b9 56 bc d4 cb 6d 3c
       -0.04195863 0.0065185837 -0.0131057175 0.014513928
000080 69 b4 54 bd 4c 47 27 bd 16 84 1d 3d 15 db f0 3b
       -0.051929865 -0.04083948 0.038456045 0.0073503354
000090 1a 27 bd 3b ea e7 3d bd cc 32 25 bd 08 5c 14 bc
       0.0057724835 -0.04636375 -0.040331647 -0.009055145
0000a0 12 fd 46 3d 95 c3 c0 3c 64 12 cd 3c 81 ce 6d 3c
       0.04858119 0.02353076 0.025033183 0.014514566
0000b0 22 77 83 bc 79 18 da 3a 57 63 fb bb 74 b4 34 3d
       -0.016048018 0.0016639373 -0.0076717543 0.044117406
0000c0 d0 df a2 bc 3b 55 30 3d b0 2f 10 bd 5c fd 88 3b
       -0.019882113 0.043050032 -0.03520173 0.0041805934
0000d0 15 9e 23 bd 81 20 30 3d 12 b5 44 3b b4 e6 8f bc
       -0.03994568 0.04299975 0.0030015153 -0.017566063
0000e0 6f 3e 8f bd 79 f9 56 3d 83 e6 dd 3c b6 78 4e 3c
       -0.0699433 0.05248401 0.027087456 0.012602022
0000f0 ba b8 70 3c 84 c6 2f 3d b3 67 b7 bc f0 52 87 3d
       0.01469248 0.04291393 -0.022388315 0.06607616
000100 18 6f 3c bd 21 25 96 bc 91 63 ac 3c e0 c3 c4 bc
       -0.046004385 -0.018328251 0.02104357 -0.024019182
000110 d3 fa 89 3c ab b0 b3 3c ea 01 c6 bc eb 3f aa 3c
       0.016843235 0.021934828 -0.024170835 0.020782432
000120 d2 db 73 bb a5 87 b4 bc 69 9d a2 bc 0f c3 44 bd
       -0.003720988 -0.022037337 -0.01985045 -0.048037585
000130 71 27 4e 3b cc 25 cd bc bb 10 27 3d a3 ff c6 3c
       0.0031456614 -0.025042437 0.04078744 0.024291819
000140 62 a0 fd bc bf 78 04 3d f3 34 8e 3d 33 d5 88 bd
       -0.030960266 0.032341715 0.06943693 -0.066812895
000150 5a 47 f6 bc af f3 3f bd df 9a 21 3c df e0 17 3d
       -0.03006332 -0.046863254 0.009863584 0.03707969
000160 83 1c cf bc 0f 20 56 bc 87 04 7a bc a0 5f 3a 3d
       -0.02528215 -0.013069167 -0.015259868 0.04550135
000170 6c 5d ca bc 58 d8 8e 3c 26 6e ab bd 52 a9 ed 3c
       -0.02470275 0.017437145 -0.083706185 0.029011402
000180 3b aa a9 39 d0 f8 ab bb 07 63 e8 bc 0d b3 a6 3d
       0.00032361023 -0.0052481666 -0.028367532 0.0813962
000190 8b b8 17 3c d6 18 b6 3c 0f 56 b8 3c a0 67 4d 3c
       0.009260307 0.02222864 0.022501973 0.012536913
0001a0 2d d0 64 3d c6 e8 8f 3c fd 7c e5 3c 23 46 03 3d
       0.055862594 0.01756705 0.0280137 0.03204931
0001b0 2c 74 6a bb a3 e8 61 3b d1 46 3f 3c 40 3f a9 bc
       -0.003577481 0.0034470938 0.011674599 -0.020660043
0001c0 74 d0 02 3d 2c 03 02 bd 0c d3 03 3d 28 cd 79 3d
       0.031937078 -0.031741306 0.03218369 0.060986668
0001d0 fc dd 58 3c 83 0e 32 3d 4d 6f 1d bd c9 69 13 3a
       0.013236519 0.04347087 -0.038436223 0.0005623368
0001e0 9d 39 53 3d 5a bb 6b 3c 6b 44 17 3c 3c d1 49 3d
       0.051568616 0.01438793 0.009232621 0.049271807
0001f0 76 c8 b6 3c b7 b8 f6 3b f9 6b 8d bd 38 a9 77 3d
       0.022312384 0.007529344 -0.0690536 0.060464114
000200 59 10 22 3d 3b 35 ec 3c 34 00 0d bc fc 95 15 bd
       0.03956637 0.028833976 -0.008606005 -0.03651999
000210 2c 9f 8e 3d 6c 5d 76 bd 9c 33 17 bd ea 11 8a 3d
       0.069639534 -0.060147688 -0.036914453 0.06741698
000220 ff cd 38 3d b0 f2 08 bd b5 2a 48 bd 02 fe 0a bd
       0.04511833 -0.03343457 -0.048868854 -0.033933647
000230 81 35 2d bd 2a 5a 66 bd 68 55 75 bc a3 a9 1d 3d
       -0.042287353 -0.05623833 -0.014973976 0.038491856
000240 eb bf 9e 3c f9 3d 87 3d 1a d8 80 bb 0f e9 64 bd
       0.019378623 0.06603617 -0.0039320113 -0.055886324
000250 1d c7 6c 3d fc 29 40 bb 46 f0 5a 3d 02 ce aa bc
       0.057807077 -0.00293219 0.0534518 -0.020850185
000260 5f dd 37 3d e3 2a 13 3d 28 db 31 3d b5 67 0e bc
       0.04488885 0.03592957 0.043421894 -0.008691718
000270 c0 a1 91 bc 35 4b d5 ba 4c e8 81 3d 83 49 4a bd
       -0.017777324 -0.0016273024 0.06343135 -0.049386512
000280 7a 25 e4 bc 14 56 2c 3c 08 3e 43 3c b9 f5 2d 3d
       -0.027849901 0.0105185695 0.011916645 0.042470668
000290 43 eb 94 3c 6a a7 75 3d 3e 07 39 bd f6 e3 3d bd
       0.018178588 0.05997411 -0.045172922 -0.04635998
0002a0 43 0c 84 3d 16 c1 0d 39 5a 4a 4e 3d f4 09 b9 3c
       0.06447651 0.00013518738 0.050363876 0.022587754
0002b0 01 29 63 3d 3a a9 6a bc 69 fa 60 3b 8e b3 38 bd
       0.055459026 -0.014322573 0.0034328944 -0.04509311
0002c0 a4 c6 06 3d 20 aa 08 bd 46 7d 71 3d 88 4f 1b bd
       0.032904282 -0.03336537 0.05895736 -0.037917644
0002d0 60 bb 68 bd fa 40 32 3c 17 00 13 3d e0 55 50 bc
       -0.05681932 0.010879749 0.035888758 -0.012715787
0002e0 da 64 16 3d f1 f4 44 3d c7 0c b7 3b ed 74 e7 3a
       0.036717273 0.048085157 0.00558624 0.0017658748
0002f0 b8 a8 d3 bb 03 e5 81 bc 78 8b ba 3c 93 fc 92 3d
       -0.006459322 -0.015856272 0.022771582 0.07177081
000300 b4 a2 12 bd 37 23 3d 3a f0 68 c7 bb 08 8e 6a 3d
       -0.035799697 0.0007215025 -0.0060855076 0.057264358
000310 d3 d3 32 3d a6 b4 8f bd 45 be 7a bd e6 19 29 bd
       0.043659043 -0.07016878 -0.06121661 -0.041284464
000320 b6 c9 c3 bc ba 8e 14 3d 7b 26 4e bd e9 3c 82 bc
       -0.023899894 0.036268927 -0.050329667 -0.015898185
000330 c1 5f 9f 3b 41 ea 8c ba 37 ba ec 3c 32 39 a6 3c
       0.0048637097 -0.0010750965 0.028897388 0.020290945
000340 d9 9d 35 bc e1 34 ec 3b ce c0 3c 3d 2a 37 61 bd
       -0.011084997 0.007208452 0.04608231 -0.05498425
000350 86 9e 81 bc 17 7d 3d bd 71 15 01 bc 99 04 e6 3c
       -0.01582266 -0.046261873 -0.007878647 0.028078364
000360 91 20 01 3c cd a6 84 3c ff bd cc 3b 4c 7e 08 bd
       0.0078813 0.016192818 0.0062482352 -0.03332357
000370 d4 26 20 bd e6 ff 2c bd a5 7e 90 3c 2d 4e e0 bb
       -0.03909953 -0.04223623 0.017638514 -0.006845257
000380 6f 07 13 bd 68 88 29 3d d4 0d 7a bd d0 1a 77 bb
       -0.03589576 0.041389853 -0.061048344 -0.003770519
000390 b2 ea ae 3c 0c 46 35 bc 08 ca 35 3d a6 c5 29 3d
       0.021352146 -0.011064064 0.044382125 0.041448258
0003a0 32 58 b5 3c 27 42 1e bd 41 05 30 3c d1 cc 44 bd
       0.022136781 -0.038637307 0.01074344 -0.04804689
0003b0 f4 0a 24 3d 43 7c 44 bd 50 92 a5 bc 43 ed 24 3d
       0.04004951 -0.047970068 -0.020211369 0.040265333
0003c0 a9 fb c7 3c e6 8b 8c bd e8 21 2c 3d 34 3d 81 3d
       0.024411993 -0.06862621 0.042024523 0.06310502
0003d0 e2 69 31 3d cb 44 1c bc 71 44 bc 3b 7b c7 e1 bc
       0.04331387 -0.009537886 0.0057454635 -0.02756094
0003e0 22 62 d7 bc cc 9f 40 3d b5 8b a5 3c 55 e2 95 3c
       -0.02629191 0.047027394 0.020208219 0.0182964
0003f0 89 9e 0d 3d bd 4b 91 3c 80 ff 85 3c e7 39 22 bc
       0.03457502 0.01773631 0.016357183 -0.0099015

fc1.bias f4 [400]
000000 e0 a8 a2 bd 43 27 2d bd 37 90 4c 3e 92 fd 80 3d
       -0.079423666 -0.04227377 0.19976889 0.06298365
000010 d4 a4 ce bd 68 db 05 be 00 00 15 be c2 be e9 bd
       -0.10090032 -0.13071978 -0.14550781 -0.11413337
000020 04 47 bc bd b5 2a bf bd 7b 29 1e 3e a1 30 a9 bd
       -0.09193233 -0.093343176 0.15445511 -0.08261228
000030 7d 01 42 3e c0 80 77 bc a6 e7 03 be e5 b0 d4 bd
       0.1894588 -0.01510638 -0.12881336 -0.103853025
000040 2f a0 cc bd a5 a9 c0 bd 90 7f 36 be c4 13 12 3c
       -0.0999149 -0.09407357 -0.17822099 0.008915845
000050 93 1b 1c be fe eb 2e bd 8e 8d f5 bc 45 6d 9b bd
       -0.15244894 -0.04270553 -0.029974725 -0.07589201
000060 27 ad bc 3b 48 97 09 be a2 f8 50 bb f3 35 11 3e
       0.005757946 -0.13436615 -0.0031886478 0.14180736
000070 bf 56 34 3e d3 a9 13 3d 4d c7 6d 3d ff 26 3d 3e
       0.17611216 0.03605063 0.058051396 0.18471907
000080 5b d3 56 3e bb ba b5 bd 42 7d 47 3d d2 d0 26 bd
       0.20979063 -0.08873507 0.04870344 -0.04072649
000090 2d 02 99 bd 89 c3 45 3e 81 13 07 3e d3 f5 0f 3c
       -0.07471118 0.19312872 0.13191034 0.008786636
0000a0 67 22 14 3e 70 37 68 3d d2 2f fb 3d 84 d5 c1 3d
       0.14466248 0.056693494 0.122649804 0.09464553
0000b0 79 23 06 3e 57 7e b4 3d eb 56 00 3e 73 d9 4d 3e
       0.13099469 0.0881316 0.12533157 0.20102482
0000c0 0d d6 39 3d db 1a e0 bd b4 32 d7 3d b6 a3 38 3e
       0.04537015 -0.10942622 0.10507718 0.18031201
0000d0 2d de 0a 3e a5 db bb 3d c9 56 90 bd af 3a 5f 3e
       0.13561316 0.09172753 -0.07047803 0.2179973
0000e0 96 6a 09 3d 67 d2 7e bd ef df b9 3c f2 21 2e 3e
       0.033548914 -0.062212374 0.022689788 0.17005137
0000f0 0e 82 3d be 2e e0 8c 3b 89 d9 e2 3d 99 f6 50 bd
       -0.18506643 0.0042991852 0.11076648 -0.051016424
000100 17 54 cd bc 18 04 8d bd dc 7a 3c 3d c6 0b e3 bd
       -0.025064511 -0.068855464 0.046015605 -0.1108623
000110 da 26 5d 3d 1a 52 6c 3d e2 ce c4 3d ae 52 ba bb
       0.05399213 0.057695486 0.09609772 -0.0056861257
000120 d9 84 aa 3d ad bb 9f bb 05 9a 03 3e 80 25 cd 3d
       0.0832612 -0.0048746676 0.12851723 0.10016918
000130 cb 29 c8 bd cd 37 19 bc c9 ea 1e 3e a6 dc b9 3c
       -0.097735964 -0.009351683 0.15519251 0.022688221
000140 09 7d a1 bd 14 76 f1 3c 9d d3 84 bc 42 85 23 bd
       -0.07885177 0.02947525 -0.016214186 -0.039922006
000150 c8 72 ac 3d 3e f4 22 3e 00 ce c5 3c 52 ce 0b 3e
       0.0842033 0.15913484 0.02414608 0.13652924
000160 94 47 01 3e d6 ef af bd ba b5 c4 bd 52 b9 f8 bc
       0.12624961 -0.08590667 -0.09604974 -0.030361805
000170 db a4 8e 3d 06 f7 f0 bb 39 e5 84 bd a8 1c b9 bd
       0.069650374 -0.0073536662 -0.06489033 -0.09038669
000180 95 97 ea 3c e9 d5 f2 3d 2b 3a 04 3d a0 b6 37 3e
       0.028636733 0.118572064 0.032282036 0.1794076
000190 82 2a 99 bd 15 57 49 3e a1 17 f4 bd 9b 4f 01 3e
       -0.07478811 0.19662125 -0.11918569 0.12628023
0001a0 e8 b8 2d 3d 8f 1d 30 3e de aa 69 3e 62 64 96 bd
       0.04241267 0.17198776 0.22819087 -0.07343365
0001b0 02 be 02 bd f9 cd 90 bd 81 a1 9c 3d e4 f7 96 bd
       -0.031919487 -0.07070536 0.07647992 -0.073715
0001c0 92 fb de 3c a3 38 7f bd 51 fb fd 3d 71 e0 2b 3e
       0.027219567 -0.062309872 0.124014504 0.16784836
0001d0 c6 7a 71 3d 5f 75 33 bb 12 10 e4 bd b8 4f 15 be
       0.058954976 -0.002738319 -0.11135878 -0.14581192
0001e0 85 3f 24 be 53 66 bc bd 95 6e 29 be 33 65 e6 3d
       -0.16039856 -0.09199204 -0.1654609 0.11249771
0001f0 ad 62 cd bd 91 46 b8 3d 90 c1 fa 3d 50 1b 09 3d
       -0.100285865 0.089978345 0.1224395 0.033473313
000200 44 42 43 3d b5 e5 00 3e f2 95 25 be ab 3f 2d 3e
       0.047670618 0.12587626 -0.16170481 0.16918819
000210 1c ed 54 3e 03 0a 4f 3e 63 61 42 bc 8d 50 08 3e
       0.20793575 0.20218663 -0.011864039 0.13311978
000220 2e d3 df bc fb 96 2f 3d 53 33 0d 3e c1 50 ec 3c
       -0.027322378 0.042868596 0.1378911 0.0288471
000230 00 77 9e 3d 22 c4 2a bd 71 d6 99 bd 6e 4c 31 3e
       0.07737541 -0.041690953 -0.075116046 0.17314312
000240 30 7a df bd bb b9 21 3d 3a d3 ac ba eb 44 c5 bc
       -0.10911977 0.039483767 -0.0013185509 -0.024080714
000250 2a 7f 17 be 65 b6 0e be f9 ac ad bd 09 84 1f 3d
       -0.14794603 -0.13936765 -0.084802575 0.038944278
000260 7a 2d 9d 3d a9 52 42 be 84 40 65 bd 41 99 1b be
       0.076746896 -0.18976845 -0.05596973 -0.1519518
000270 90 fd 17 3e 87 ec 28 be ce 72 29 bd 2e 02 29 bd
       0.1484282 -0.16496478 -0.041369252 -0.041261844
000280 d9 f2 c5 bd 6a f0 2b 3e e8 27 b2 3d 58 5b 01 3e
       -0.0966546 0.1679093 0.08699018 0.12632501
000290 d7 d4 05 3e 79 de cd bd a0 2a 84 3d 0b 71 3e 3e
       0.13069473 -0.10052199 0.064534426 0.1859781
0002a0 ae 75 4c 3a 63 6a 1b bc df 9d b0 3c 52 4e 24 be
       0.0007799518 -0.009485814 0.021559654 -0.16045502
0002b0 14 4b 8c 3b c0 d1 f3 bc ba d5 19 be aa 6b 04 3e
       0.004281411 -0.029763103 -0.15022936 0.12931696
0002c0 c6 19 1a be 65 08 59 bd 15 42 03 3e a0 cb 60 3d
       -0.15048894 -0.05298652 0.12818177 0.054881692
0002d0 a5 2e 36 3d cd 12 79 3c 3a b5 35 be 3c e2 1d be
       0.044478077 0.015202236 -0.17744914 -0.15418333
0002e0 7f ab 0c bd 19 7c 08 be 2f d9 fb bd 17 0f 43 bd
       -0.03434324 -0.1332859 -0.12297284 -0.047621813
0002f0 ae 2c 4a 3e cf 1f 26 3e d1 a6 5b 3c ab 17 c9 bd
       0.19743606 0.16223072 0.013406471 -0.098189674
000300 90 e8 d3 bd f5 fb 49 3e 8e f9 89 3d 1a 18 24 3d
       -0.10347092 0.1972502 0.06737052 0.040062048
000310 56 c7 77 bd 9f 72 64 bd c4 77 00 3e 46 87 e7 bc
       -0.060492836 -0.055773374 0.12545687 -0.028262746
000320 85 7d 52 3a fb 73 9f bd ac c2 ef bd f7 60 ab bd
       0.0008029568 -0.077857934 -0.117070526 -0.08368104
000330 66 97 0f be eb f2 2b 3e f5 af b5 3c 04 7c 82 3d
       -0.14022598 0.16791885 0.02217863 0.0637131
000340 db d6 f6 3d b9 93 c7 3d 61 36 34 3b b5 6c dd 3d
       0.12052699 0.09744973 0.0027498233 0.1081175
000350 00 3c 23 3c 68 c6 1b be c7 1f 28 3e 8b e9 01 be
       0.009963036 -0.15212405 0.16418372 -0.12686746
000360 e4 1b a6 bd fb 2f 15 bc 71 97 11 3d c2 bd 18 3e
       -0.081107885 -0.009105678 0.035544816 0.14916137
000370 f5 66 4f be 4f 07 16 be ef 18 6c bd 7d 33 40 bd
       -0.20254119 -0.14651226 -0.057640966 -0.046924103
000380 c3 ed 36 3e 87 64 58 bc f3 8d ef 3d b3 52 88 3d
       0.17864136 -0.013207561 0.116969965 0.066563986
000390 e9 d9 0a 3e 57 c7 d7 bd 3f 4b cc 3d d2 22 87 3d
       0.13559689 -0.10536068 0.099752896 0.06598438
0003a0 19 f0 79 3d 6c b7 04 be e9 47 14 bd aa c6 29 3e
       0.06101999 -0.12960595 -0.03620139 0.1657969
0003b0 0c 26 c1 bc d6 21 b7 bd b4 ec 19 be 8b c7 5e 3b
       -0.023577712 -0.089420006 -0.15031701 0.0033993449
0003c0 65 32 c1 3d 48 f3 40 bd db 0f 0c 3e 54 f5 8d 3d
       0.0943344 -0.04710701 0.13677923 0.06931558
0003d0 fd 8e da bd 51 51 68 3c 75 b2 49 3e 55 0f 27 3e
       -0.10671804 0.014179544 0.19696982 0.16314442
0003e0 1f bf 8b bd 60 05 f3 bd da 4d 79 3d 73 59 b0 3d
       -0.06823563 -0.118662596 0.06086526 0.08610811
0003f0 89 9e 1b bd 92 70 1f be 4f 15 37 3e 2e 3d dc 3d
       -0.037992988 -0.15570286 0.17879222 0.107538566

fc1_bn.weight f4 [400]
000000 7e 86 e8 3e 51 12 61 3f 36 f6 73 3f 87 cc 5c 3f
       0.4541511 0.87918574 0.95297563 0.86249584
000010 6c 61 d6 3e 8e b9 81 3e 88 c3 64 3f a8 58 b5 3e
       0.41871202 0.2533688 0.89360857 0.35419202
000020 31 7e 04 3f 0b 30 76 3f b0 b3 eb 3e 7c 64 5f 3f
       0.5175505 0.9616706 0.46035528 0.872627
000030 c8 b6 59 3e 9a e1 01 3f 0d 17 7f 3f 70 28 00 3f
       0.21261132 0.50734866 0.9964455 0.500617
000040 b0 d8 32 3e 8c 28 1b 3f 96 2c 83 3e ce fc 45 3f
       0.17465472 0.60608745 0.25619954 0.77338874
000050 13 59 5d 3f 44 89 d2 3e 12 23 4d 3f 66 0a 69 3f
       0.8646404 0.4112035 0.8013164 0.9103149
000060 bc 2b 59 3f c1 d5 4b 3f f0 e1 08 3d 28 32 b8 3d
       0.8483236 0.7962304 0.033418596 0.089939415
000070 33 85 66 3f e7 0c 30 3f 80 27 dd 3d 88 d3 6d 3f
       0.90046996 0.6876969 0.1079855 0.92900896
000080 a0 91 08 3f a0 47 48 3d 0c 32 99 3e 08 bd a0 3d
       0.53347206 0.048896432 0.29920995 0.07848555
000090 00 3c a6 3e f4 d4 e7 3e 06 21 ea 3e 7e 30 dc 3e
       0.3246765 0.45279658 0.4572832 0.43005747
0000a0 f6 6b e6 3e a9 35 68 3f b5 50 59 3f f0 f2 28 3d
       0.45004243 0.9070688 0.84888774 0.04124731
0000b0 3a e2 1d 3f 14 8f 79 3e 58 a0 cf 3e f6 9c 9b 3e
       0.6167332 0.24370986 0.4055202 0.3039319
0000c0 88 31 7d 3e 04 86 6b 3e 80 33 b2 3b 16 3d 9e 3e
       0.24725926 0.23000342 0.005438268 0.3090598
0000d0 e4 65 ce 3e d0 f8 24 3d 0c 7e 28 3f 30 01 71 3e
       0.4031211 0.04027635 0.6581733 0.23535609
0000e0 22 88 b6 3e bb 71 33 3f a9 39 7b 3f 34 49 3d 3f
       0.35650736 0.70095414 0.9813486 0.73939824
0000f0 64 35 04 3e eb a0 5c 3f 46 0a e6 3e 9a be 2e 3f
       0.12910992 0.8618304 0.44929713 0.68259585
000100 dc 04 45 3e be c1 77 3f 88 1f 39 3e b5 62 50 3f
       0.19240135 0.9678 0.18078434 0.81400615
000110 48 49 6b 3f aa 78 0c 3f c7 31 63 3f 0d 54 4c 3f
       0.91908693 0.5487162 0.8874783 0.7981575
000120 10 63 d9 3e 1a 2e 10 3f 53 b0 02 3f 5e 95 d6 3e
       0.4245839 0.56320345 0.510503 0.41910833
000130 30 97 69 3d b9 5a 48 3f c0 33 b5 3c cb b4 2e 3f
       0.05702895 0.7826343 0.022119403 0.6824462
000140 6c dd a2 3e 73 1e 08 3f 70 33 cb 3e c4 a0 5b 3e
       0.31809556 0.5317146 0.3968768 0.21448046
000150 c6 e7 9f 3e 30 e9 49 3d 58 c2 4e 3e 64 6e 42 3f
       0.31231517 0.04929465 0.20191324 0.7594969
000160 93 ab 69 3f 80 ee cc 3c 5e 97 c5 3e b2 79 0b 3f
       0.91277426 0.02501607 0.38592046 0.5448257
000170 88 17 63 3e fb bb 17 3f 92 d8 e3 3e 2b 25 15 3f
       0.22176945 0.5927121 0.44501168 0.5825984
000180 48 60 63 3e a0 b1 8d 3d d8 48 e5 3e 05 36 57 3f
       0.22204697 0.06918645 0.44782138 0.840668
000190 1a 56 6f 3f 0f 95 65 3f 9f c5 06 3f 0b 80 60 3f
       0.93490756 0.8968057 0.52645296 0.8769538
0001a0 04 78 97 3e b7 18 5d 3f aa d8 13 3f e0 33 f8 3d
       0.29583752 0.86365837 0.5775248 0.12119269
0001b0 9c 09 ac 3e 8c f2 71 3f 94 c3 a1 3e 80 63 bd 3b
       0.3360108 0.9451072 0.31594527 0.0057796836
0001c0 96 95 7b 3f 37 e0 27 3f cf 61 1c 3f 68 c7 8e 3e
       0.98275125 0.655765 0.61086744 0.2788651
0001d0 43 d5 73 3f cf 47 69 3f 58 03 c3 3d e0 25 38 3f
       0.95247287 0.91125196 0.09522122 0.7193279
0001e0 82 55 75 3f f8 9f f6 3d ff ff 24 3f dc 1e 93 3e
       0.958336 0.1204223 0.6445312 0.2873448
0001f0 99 f6 5a 3f 6d da 57 3f 3b e7 41 3f 0c 2e bc 3e
       0.8553253 0.84317666 0.75743455 0.3675388
000200 8d b3 67 3f dc d2 c2 3e cc e6 54 3f f2 82 3c 3f
       0.9050835 0.38051498 0.8316467 0.73637307
000210 c8 63 b5 3d e4 e9 3c 3e bc 54 eb 3e c8 5e b7 3d
       0.088569224 0.18448597 0.45963085 0.08953625
000220 5c fa bd 3e 81 4e 45 3f 37 bb 73 3f 9e c0 eb 3e
       0.37105072 0.7707291 0.9520754 0.46045393
000230 66 b3 c2 3e 40 ce fb 3d 6c da 26 3f db 50 12 3f
       0.38027495 0.122951984 0.65177035 0.57154626
000240 40 a0 36 3f 58 e1 9d 3d 24 40 06 3f 76 da 8e 3e
       0.7133827 0.077089965 0.5244162 0.27901047
000250 70 11 5f 3e 2a 9d 3f 3f 58 6d b9 3d a8 03 4e 3e
       0.21783996 0.7484919 0.09054059 0.20118582
000260 d3 40 5e 3f 88 2c 31 3e 45 3b 56 3f c4 90 a2 3e
       0.86817664 0.17302144 0.8368419 0.31751072
000270 88 f4 21 3e 82 77 ef 3e 80 03 45 3e 00 93 21 3f
       0.15815938 0.46770865 0.19239616 0.6311493
000280 3f 16 5b 3f 28 1b f8 3d 08 82 25 3e fe 88 d3 3e
       0.8558082 0.12114555 0.16162884 0.41315454
000290 45 36 04 3f 39 d2 6e 3f 79 8a 64 3f 30 f3 6a 3e
       0.5164531 0.93289524 0.8927379 0.22944331
0002a0 81 84 53 3f 07 13 4a 3f 38 99 ef 3d a2 3b 4f 3f
       0.8262406 0.78935283 0.11699146 0.8095037
0002b0 6c 63 7b 3f be 12 c4 3e d8 7e 6e 3f 4e 72 79 3f
       0.9819858 0.3829555 0.931623 0.9744004
0002c0 b8 26 20 3f 33 c4 02 3f 72 3b 6a 3f df 7d 58 3f
       0.6255908 0.51080626 0.91496956 0.84567064
0002d0 76 cd 79 3f 54 ac 37 3e d3 a7 2b 3f 1f 22 4e 3f
       0.97579134 0.17936832 0.67052954 0.80520815
0002e0 5c b7 32 3e 30 c6 15 3f c4 e8 69 3e f0 fe 0e 3e
       0.17452759 0.58505535 0.228427 0.13964438
0002f0 3d bf 7d 3f 18 e7 c1 3d 20 83 2d 3d 20 98 6a 3f
       0.9911993 0.09467906 0.04236138 0.91638374
000300 40 b9 4b 3f 65 c5 1c 3f 14 91 5c 3f c8 df 03 3f
       0.79579544 0.612387 0.8615887 0.5151334
000310 fa 3a ae 3e 56 25 da 3e c5 f5 17 3f 00 b5 b4 3c
       0.3402937 0.4260661 0.5935939 0.022058964
000320 00 d7 3d 3d f8 fa a3 3e 99 87 0e 3f 77 bc 54 3f
       0.046347618 0.3202741 0.55675656 0.83100075
000330 8c 5f 87 3e e8 f7 a0 3d 20 11 51 3d ae b3 fb 3e
       0.26440084 0.07859784 0.051041722 0.49160522
000340 14 91 3f 3e 94 bf c7 3e 8c 9d 35 3e 35 af 39 3f
       0.18707687 0.3901335 0.1773588 0.7253297
000350 64 92 aa 3e 50 34 1a 3e fc 6d 28 3f 80 10 f6 3e
       0.33314812 0.15059018 0.6579282 0.48059464
000360 ad e1 4f 3f 5f ea 06 3f 07 f8 34 3f 50 c2 2a 3f
       0.8120373 0.5270137 0.7069096 0.6670275
000370 8c 99 61 3e 65 4a 66 3f 51 2d 17 3f 7c 17 da 3e
       0.2203123 0.8995727 0.5905352 0.42596042
000380 b7 1c 12 3f 50 9b 73 3f 94 67 5e 3f 78 52 6c 3f
       0.57075065 0.95158863 0.868768 0.9231334
000390 8c b4 5c 3e 46 61 c1 3e 17 80 1c 3f b0 2b dd 3e
       0.21553248 0.37769526 0.6113295 0.43197393
0003a0 72 ce cf 3e 8a 50 60 3f 54 5a 6d 3e a8 74 8a 3e
       0.40587193 0.8762289 0.23178989 0.27042127
0003b0 69 63 12 3f b6 b1 8a 3e 50 22 5d 3e 28 4b cd 3d
       0.5718294 0.27088708 0.2159512 0.100241005
0003c0 6f 3d 56 3f a8 73 80 3e a4 e4 df 3e 13 38 53 3f
       0.8368749 0.2508824 0.43729126 0.8250744
0003d0 40 29 a8 3c 8e a8 fc 3e 54 cb 89 3e fc d6 0f 3e
       0.020527482 0.49347347 0.2691294 0.14046854
0003e0 69 fe 0f 3f df 61 27 3f ce 09 53 3f 5d c1 7f 3f
       0.56247574 0.65383714 0.82436836 0.99904424
0003f0 b3 ea 29 3f e6 58 fb 3e 7c 40 71 3e 42 0f b8 3e
       0.6637375 0.49091262 0.23559755 0.3594914

fc1_bn.bias f4 [400]
000000 00 00 00 00 00 00 00 00 00 00 00 00 00 00 00 00
       0.0 0.0 0.0 0.0
000010 00 00 00 00 00 00 00 00 00 00 00 00 00 00 00 00
       0.0 0.0 0.0 0.0
000020 00 00 00 00 00 00 00 00 00 00 00 00 00 00 00 00
       0.0 0.0 0.0 0.0
000030 00 00 00 00 00 00 00 00 00 00 00 00 00 00 00 00
       0.0 0.0 0.0 0.0
000040 00 00 00 00 00 00 00 00 00 00 00 00 00 00 00 00
       0.0 0.0 0.0 0.0
000050 00 00 00 00 00 00 00 00 00 00 00 00 00 00 00 00
       0.0 0.0 0.0 0.0
000060 00 00 00 00 00 00 00 00 00 00 00 00 00 00 00 00
       0.0 0.0 0.0 0.0
000070 00 00 00 00 00 00 00 00 00 00 00 00 00 00 00 00
       0.0 0.0 0.0 0.0
000080 00 00 00 00 00 00 00 00 00 00 00 00 00 00 00 00
       0.0 0.0 0.0 0.0
000090 00 00 00 00 00 00 00 00 00 00 00 00 00 00 00 00
       0.0 0.0 0.0 0.0
0000a0 00 00 00 00 00 00 00 00 00 00 00 00 00 00 00 00
       0.0 0.0 0.0 0.0
0000b0 00 00 00 00 00 00 00 00 00 00 00 00 00 00 00 00
       0.0 0.0 0.0 0.0
0000c0 00 00 00 00 00 00 00 00 00 00 00 00 00 00 00 00
       0.0 0.0 0.0 0.0
0000d0 00 00 00 00 00 00 00 00 00 00 00 00 00 00 00 00
       0.0 0.0 0.0 0.0
0000e0 00 00 00 00 00 00 00 00 00 00 00 00 00 00 00 00
       0.0 0.0 0.0 0.0
0000f0 00 00 00 00 00 00 00 00 00 00 00 00 00 00 00 00
       0.0 0.0 0.0 0.0
000100 00 00 00 00 00 00 00 00 00 00 00 00 00 00 00 00
       0.0 0.0 0.0 0.0
000110 00 00 00 00 00 00 00 00 00 00 00 00 00 00 00 00
       0.0 0.0 0.0 0.0
000120 00 00 00 00 00 00 00 00 00 00 00 00 00 00 00 00
       0.0 0.0 0.0 0.0
000130 00 00 00 00 00 00 00 00 00 00 00 00 00 00 00 00
       0.0 0.0 0.0 0.0
000140 00 00 00 00 00 00 00 00 00 00 00 00 00 00 00 00
       0.0 0.0 0.0 0.0
000150 00 00 00 00 00 00 00 00 00 00 00 00 00 00 00 00
       0.0 0.0 0.0 0.0
000160 00 00 00 00 00 00 00 00 00 00 00 00 00 00 00 00
       0.0 0.0 0.0 0.0
000170 00 00 00 00 00 00 00 00 00 00 00 00 00 00 00 00
       0.0 0.0 0.0 0.0
000180 00 00 00 00 00 00 00 00 00 00 00 00 00 00 00 00
       0.0 0.0 0.0 0.0
000190 00 00 00 00 00 00 00 00 00 00 00 00 00 00 00 00
       0.0 0.0 0.0 0.0
0001a0 00 00 00 00 00 00 00 00 00 00 00 00 00 00 00 00
       0.0 0.0 0.0 0.0
0001b0 00 00 00 00 00 00 00 00 00 00 00 00 00 00 00 00
       0.0 0.0 0.0 0.0
0001c0 00 00 00 00 00 00 00 00 00 00 00 00 00 00 00 00
       0.0 0.0 0.0 0.0
0001d0 00 00 00 00 00 00 00 00 00 00 00 00 00 00 00 00
       0.0 0.0 0.0 0.0
0001e0 00 00 00 00 00 00 00 00 00 00 00 00 00 00 00 00
       0.0 0.0 0.0 0.0
0001f0 00 00 00 00 00 00 00 00 00 00 00 00 00 00 00 00
       0.0 0.0 0.0 0.0
000200 00 00 00 00 00 00 00 00 00 00 00 00 00 00 00 00
       0.0 0.0 0.0 0.0
000210 00 00 00 00 00 00 00 00 00 00 00 00 00 00 00 00
       0.0 0.0 0.0 0.0
000220 00 00 00 00 00 00 00 00 00 00 00 00 00 00 00 00
       0.0 0.0 0.0 0.0
000230 00 00 00 00 00 00 00 00 00 00 00 00 00 00 00 00
       0.0 0.0 0.0 0.0
000240 00 00 00 00 00 00 00 00 00 00 00 00 00 00 00 00
       0.0 0.0 0.0 0.0
000250 00 00 00 00 00 00 00 00 00 00 00 00 00 00 00 00
       0.0 0.0 0.0 0.0
000260 00 00 00 00 00 00 00 00 00 00 00 00 00 00 00 00
       0.0 0.0 0.0 0.0
000270 00 00 00 00 00 00 00 00 00 00 00 00 00 00 00 00
       0.0 0.0 0.0 0.0
000280 00 00 00 00 00 00 00 00 00 00 00 00 00 00 00 00
       0.0 0.0 0.0 0.0
000290 00 00 00 00 00 00 00 00 00 00 00 00 00 00 00 00
       0.0 0.0 0.0 0.0
0002a0 00 00 00 00 00 00 00 00 00 00 00 00 00 00 00 00
       0.0 0.0 0.0 0.0
0002b0 00 00 00 00 00 00 00 00 00 00 00 00 00 00 00 00
       0.0 0.0 0.0 0.0
0002c0 00 00 00 00 00 00 00 00 00 00 00 00 00 00 00 00
       0.0 0.0 0.0 0.0
0002d0 00 00 00 00 00 00 00 00 00 00 00 00 00 00 00 00
       0.0 0.0 0.0 0.0
0002e0 00 00 00 00 00 00 00 00 00 00 00 00 00 00 00 00
       0.0 0.0 0.0 0.0
0002f0 00 00 00 00 00 00 00 00 00 00 00 00 00 00 00 00
       0.0 0.0 0.0 0.0
000300 00 00 00 00 00 00 00 00 00 00 00 00 00 00 00 00
       0.0 0.0 0.0 0.0
000310 00 00 00 00 00 00 00 00 00 00 00 00 00 00 00 00
       0.0 0.0 0.0 0.0
000320 00 00 00 00 00 00 00 00 00 00 00 00 00 00 00 00
       0.0 0.0 0.0 0.0
000330 00 00 00 00 00 00 00 00 00 00 00 00 00 00 00 00
       0.0 0.0 0.0 0.0
000340 00 00 00 00 00 00 00 00 00 00 00 00 00 00 00 00
       0.0 0.0 0.0 0.0
000350 00 00 00 00 00 00 00 00 00 00 00 00 00 00 00 00
       0.0 0.0 0.0 0.0
000360 00 00 00 00 00 00 00 00 00 00 00 00 00 00 00 00
       0.0 0.0 0.0 0.0
000370 00 00 00 00 00 00 00 00 00 00 00 00 00 00 00 00
       0.0 0.0 0.0 0.0
000380 00 00 00 00 00 00 00 00 00 00 00 00 00 00 00 00
       0.0 0.0 0.0 0.0
000390 00 00 00 00 00 00 00 00 00 00 00 00 00 00 00 00
       0.0 0.0 0.0 0.0
0003a0 00 00 00 00 00 00 00 00 00 00 00 00 00 00 00 00
       0.0 0.0 0.0 0.0
0003b0 00 00 00 00 00 00 00 00 00 00 00 00 00 00 00 00
       0.0 0.0 0.0 0.0
0003c0 00 00 00 00 00 00 00 00 00 00 00 00 00 00 00 00
       0.0 0.0 0.0 0.0
0003d0 00 00 00 00 00 00 00 00 00 00 00 00 00 00 00 00
       0.0 0.0 0.0 0.0
0003e0 00 00 00 00 00 00 00 00 00 00 00 00 00 00 00 00
       0.0 0.0 0.0 0.0
0003f0 00 00 00 00 00 00 00 00 00 00 00 00 00 00 00 00
       0.0 0.0 0.0 0.0

fc1_bn.running_mean f4 [400]
000000 00 00 00 00 00 00 00 00 00 00 00 00 00 00 00 00
       0.0 0.0 0.0 0.0
000010 00 00 00 00 00 00 00 00 00 00 00 00 00 00 00 00
       0.0 0.0 0.0 0.0
000020 00 00 00 00 00 00 00 00 00 00 00 00 00 00 00 00
       0.0 0.0 0.0 0.0
000030 00 00 00 00 00 00 00 00 00 00 00 00 00 00 00 00
       0.0 0.0 0.0 0.0
000040 00 00 00 00 00 00 00 00 00 00 00 00 00 00 00 00
       0.0 0.0 0.0 0.0
000050 00 00 00 00 00 00 00 00 00 00 00 00 00 00 00 00
       0.0 0.0 0.0 0.0
000060 00 00 00 00 00 00 00 00 00 00 00 00 00 00 00 00
       0.0 0.0 0.0 0.0
000070 00 00 00 00 00 00 00 00 00 00 00 00 00 00 00 00
       0.0 0.0 0.0 0.0
000080 00 00 00 00 00 00 00 00 00 00 00 00 00 00 00 00
       0.0 0.0 0.0 0.0
000090 00 00 00 00 00 00 00 00 00 00 00 00 00 00 00 00
       0.0 0.0 0.0 0.0
0000a0 00 00 00 00 00 00 00 00 00 00 00 00 00 00 00 00
       0.0 0.0 0.0 0.0
0000b0 00 00 00 00 00 00 00 00 00 00 00 00 00 00 00 00
       0.0 0.0 0.0 0.0
0000c0 00 00 00 00 00 00 00 00 00 00 00 00 00 00 00 00
       0.0 0.0 0.0 0.0
0000d0 00 00 00 00 00 00 00 00 00 00 00 00 00 00 00 00
       0.0 0.0 0.0 0.0
0000e0 00 00 00 00 00 00 00 00 00 00 00 00 00 00 00 00
       0.0 0.0 0.0 0.0
0000f0 00 00 00 00 00 00 00 00 00 00 00 00 00 00 00 00
       0.0 0.0 0.0 0.0
000100 00 00 00 00 00 00 00 00 00 00 00 00 00 00 00 00
       0.0 0.0 0.0 0.0
000110 00 00 00 00 00 00 00 00 00 00 00 00 00 00 00 00
       0.0 0.0 0.0 0.0
000120 00 00 00 00 00 00 00 00 00 00 00 00 00 00 00 00
       0.0 0.0 0.0 0.0
000130 00 00 00 00 00 00 00 00 00 00 00 00 00 00 00 00
       0.0 0.0 0.0 0.0
000140 00 00 00 00 00 00 00 00 00 00 00 00 00 00 00 00
       0.0 0.0 0.0 0.0
000150 00 00 00 00 00 00 00 00 00 00 00 00 00 00 00 00
       0.0 0.0 0.0 0.0
000160 00 00 00 00 00 00 00 00 00 00 00 00 00 00 00 00
       0.0 0.0 0.0 0.0
000170 00 00 00 00 00 00 00 00 00 00 00 00 00 00 00 00
       0.0 0.0 0.0 0.0
000180 00 00 00 00 00 00 00 00 00 00 00 00 00 00 00 00
       0.0 0.0 0.0 0.0
000190 00 00 00 00 00 00 00 00 00 00 00 00 00 00 00 00
       0.0 0.0 0.0 0.0
0001a0 00 00 00 00 00 00 00 00 00 00 00 00 00 00 00 00
       0.0 0.0 0.0 0.0
0001b0 00 00 00 00 00 00 00 00 00 00 00 00 00 00 00 00
       0.0 0.0 0.0 0.0
0001c0 00 00 00 00 00 00 00 00 00 00 00 00 00 00 00 00
       0.0 0.0 0.0 0.0
0001d0 00 00 00 00 00 00 00 00 00 00 00 00 00 00 00 00
       0.0 0.0 0.0 0.0
0001e0 00 00 00 00 00 00 00 00 00 00 00 00 00 00 00 00
       0.0 0.0 0.0 0.0
0001f0 00 00 00 00 00 00 00 00 00 00 00 00 00 00 00 00
       0.0 0.0 0.0 0.0
000200 00 00 00 00 00 00 00 00 00 00 00 00 00 00 00 00
       0.0 0.0 0.0 0.0
000210 00 00 00 00 00 00 00 00 00 00 00 00 00 00 00 00
       0.0 0.0 0.0 0.0
000220 00 00 00 00 00 00 00 00 00 00 00 00 00 00 00 00
       0.0 0.0 0.0 0.0
000230 00 00 00 00 00 00 00 00 00 00 00 00 00 00 00 00
       0.0 0.0 0.0 0.0
000240 00 00 00 00 00 00 00 00 00 00 00 00 00 00 00 00
       0.0 0.0 0.0 0.0
000250 00 00 00 00 00 00 00 00 00 00 00 00 00 00 00 00
       0.0 0.0 0.0 0.0
000260 00 00 00 00 00 00 00 00 00 00 00 00 00 00 00 00
       0.0 0.0 0.0 0.0
000270 00 00 00 00 00 00 00 00 00 00 00 00 00 00 00 00
       0.0 0.0 0.0 0.0
000280 00 00 00 00 00 00 00 00 00 00 00 00 00 00 00 00
       0.0 0.0 0.0 0.0
000290 00 00 00 00 00 00 00 00 00 00 00 00 00 00 00 00
       0.0 0.0 0.0 0.0
0002a0 00 00 00 00 00 00 00 00 00 00 00 00 00 00 00 00
       0.0 0.0 0.0 0.0
0002b0 00 00 00 00 00 00 00 00 00 00 00 00 00 00 00 00
       0.0 0.0 0.0 0.0
0002c0 00 00 00 00 00 00 00 00 00 00 00 00 00 00 00 00
       0.0 0.0 0.0 0.0
0002d0 00 00 00 00 00 00 00 00 00 00 00 00 00 00 00 00
       0.0 0.0 0.0 0.0
0002e0 00 00 00 00 00 00 00 00 00 00 00 00 00 00 00 00
       0.0 0.0 0.0 0.0
0002f0 00 00 00 00 00 00 00 00 00 00 00 00 00 00 00 00
       0.0 0.0 0.0 0.0
000300 00 00 00 00 00 00 00 00 00 00 00 00 00 00 00 00
       0.0 0.0 0.0 0.0
000310 00 00 00 00 00 00 00 00 00 00 00 00 00 00 00 00
       0.0 0.0 0.0 0.0
000320 00 00 00 00 00 00 00 00 00 00 00 00 00 00 00 00
       0.0 0.0 0.0 0.0
000330 00 00 00 00 00 00 00 00 00 00 00 00 00 00 00 00
       0.0 0.0 0.0 0.0
000340 00 00 00 00 00 00 00 00 00 00 00 00 00 00 00 00
       0.0 0.0 0.0 0.0
000350 00 00 00 00 00 00 00 00 00 00 00 00 00 00 00 00
       0.0 0.0 0.0 0.0
000360 00 00 00 00 00 00 00 00 00 00 00 00 00 00 00 00
       0.0 0.0 0.0 0.0
000370 00 00 00 00 00 00 00 00 00 00 00 00 00 00 00 00
       0.0 0.0 0.0 0.0
000380 00 00 00 00 00 00 00 00 00 00 00 00 00 00 00 00
       0.0 0.0 0.0 0.0
000390 00 00 00 00 00 00 00 00 00 00 00 00 00 00 00 00
       0.0 0.0 0.0 0.0
0003a0 00 00 00 00 00 00 00 00 00 00 00 00 00 00 00 00
       0.0 0.0 0.0 0.0
0003b0 00 00 00 00 00 00 00 00 00 00 00 00 00 00 00 00
       0.0 0.0 0.0 0.0
0003c0 00 00 00 00 00 00 00 00 00 00 00 00 00 00 00 00
       0.0 0.0 0.0 0.0
0003d0 00 00 00 00 00 00 00 00 00 00 00 00 00 00 00 00
       0.0 0.0 0.0 0.0
0003e0 00 00 00 00 00 00 00 00 00 00 00 00 00 00 00 00
       0.0 0.0 0.0 0.0
0003f0 00 00 00 00 00 00 00 00 00 00 00 00 00 00 00 00
       0.0 0.0 0.0 0.0

fc1_bn.running_var f4 [400]
000000 00 00 80 3f 00 00 80 3f 00 00 80 3f 00 00 80 3f
       1.0 1.0 1.0 1.0
000010 00 00 80 3f 00 00 80 3f 00 00 80 3f 00 00 80 3f
       1.0 1.0 1.0 1.0
000020 00 00 80 3f 00 00 80 3f 00 00 80 3f 00 00 80 3f
       1.0 1.0 1.0 1.0
000030 00 00 80 3f 00 00 80 3f 00 00 80 3f 00 00 80 3f
       1.0 1.0 1.0 1.0
000040 00 00 80 3f 00 00 80 3f 00 00 80 3f 00 00 80 3f
       1.0 1.0 1.0 1.0
000050 00 00 80 3f 00 00 80 3f 00 00 80 3f 00 00 80 3f
       1.0 1.0 1.0 1.0
000060 00 00 80 3f 00 00 80 3f 00 00 80 3f 00 00 80 3f
       1.0 1.0 1.0 1.0
000070 00 00 80 3f 00 00 80 3f 00 00 80 3f 00 00 80 3f
       1.0 1.0 1.0 1.0
000080 00 00 80 3f 00 00 80 3f 00 00 80 3f 00 00 80 3f
       1.0 1.0 1.0 1.0
000090 00 00 80 3f 00 00 80 3f 00 00 80 3f 00 00 80 3f
       1.0 1.0 1.0 1.0
0000a0 00 00 80 3f 00 00 80 3f 00 00 80 3f 00 00 80 3f
       1.0 1.0 1.0 1.0
0000b0 00 00 80 3f 00 00 80 3f 00 00 80 3f 00 00 80 3f
       1.0 1.0 1.0 1.0
0000c0 00 00 80 3f 00 00 80 3f 00 00 80 3f 00 00 80 3f
       1.0 1.0 1.0 1.0
0000d0 00 00 80 3f 00 00 80 3f 00 00 80 3f 00 00 80 3f
       1.0 1.0 1.0 1.0
0000e0 00 00 80 3f 00 00 80 3f 00 00 80 3f 00 00 80 3f
       1.0 1.0 1.0 1.0
0000f0 00 00 80 3f 00 00 80 3f 00 00 80 3f 00 00 80 3f
       1.0 1.0 1.0 1.0
000100 00 00 80 3f 00 00 80 3f 00 00 80 3f 00 00 80 3f
       1.0 1.0 1.0 1.0
000110 00 00 80 3f 00 00 80 3f 00 00 80 3f 00 00 80 3f
       1.0 1.0 1.0 1.0
000120 00 00 80 3f 00 00 80 3f 00 00 80 3f 00 00 80 3f
       1.0 1.0 1.0 1.0
000130 00 00 80 3f 00 00 80 3f 00 00 80 3f 00 00 80 3f
       1.0 1.0 1.0 1.0
000140 00 00 80 3f 00 00 80 3f 00 00 80 3f 00 00 80 3f
       1.0 1.0 1.0 1.0
000150 00 00 80 3f 00 00 80 3f 00 00 80 3f 00 00 80 3f
       1.0 1.0 1.0 1.0
000160 00 00 80 3f 00 00 80 3f 00 00 80 3f 00 00 80 3f
       1.0 1.0 1.0 1.0
000170 00 00 80 3f 00 00 80 3f 00 00 80 3f 00 00 80 3f
       1.0 1.0 1.0 1.0
000180 00 00 80 3f 00 00 80 3f 00 00 80 3f 00 00 80 3f
       1.0 1.0 1.0 1.0
000190 00 00 80 3f 00 00 80 3f 00 00 80 3f 00 00 80 3f
       1.0 1.0 1.0 1.0
0001a0 00 00 80 3f 00 00 80 3f 00 00 80 3f 00 00 80 3f
       1.0 1.0 1.0 1.0
0001b0 00 00 80 3f 00 00 80 3f 00 00 80 3f 00 00 80 3f
       1.0 1.0 1.0 1.0
0001c0 00 00 80 3f 00 00 80 3f 00 00 80 3f 00 00 80 3f
       1.0 1.0 1.0 1.0
0001d0 00 00 80 3f 00 00 80 3f 00 00 80 3f 00 00 80 3f
       1.0 1.0 1.0 1.0
0001e0 00 00 80 3f 00 00 80 3f 00 00 80 3f 00 00 80 3f
       1.0 1.0 1.0 1.0
0001f0 00 00 80 3f 00 00 80 3f 00 00 80 3f 00 00 80 3f
       1.0 1.0 1.0 1.0
000200 00 00 80 3f 00 00 80 3f 00 00 80 3f 00 00 80 3f
       1.0 1.0 1.0 1.0
000210 00 00 80 3f 00 00 80 3f 00 00 80 3f 00 00 80 3f
       1.0 1.0 1.0 1.0
000220 00 00 80 3f 00 00 80 3f 00 00 80 3f 00 00 80 3f
       1.0 1.0 1.0 1.0
000230 00 00 80 3f 00 00 80 3f 00 00 80 3f 00 00 80 3f
       1.0 1.0 1.0 1.0
000240 00 00 80 3f 00 00 80 3f 00 00 80 3f 00 00 80 3f
       1.0 1.0 1.0 1.0
000250 00 00 80 3f 00 00 80 3f 00 00 80 3f 00 00 80 3f
       1.0 1.0 1.0 1.0
000260 00 00 80 3f 00 00 80 3f 00 00 80 3f 00 00 80 3f
       1.0 1.0 1.0 1.0
000270 00 00 80 3f 00 00 80 3f 00 00 80 3f 00 00 80 3f
       1.0 1.0 1.0 1.0
000280 00 00 80 3f 00 00 80 3f 00 00 80 3f 00 00 80 3f
       1.0 1.0 1.0 1.0
000290 00 00 80 3f 00 00 80 3f 00 00 80 3f 00 00 80 3f
       1.0 1.0 1.0 1.0
0002a0 00 00 80 3f 00 00 80 3f 00 00 80 3f 00 00 80 3f
       1.0 1.0 1.0 1.0
0002b0 00 00 80 3f 00 00 80 3f 00 00 80 3f 00 00 80 3f
       1.0 1.0 1.0 1.0
0002c0 00 00 80 3f 00 00 80 3f 00 00 80 3f 00 00 80 3f
       1.0 1.0 1.0 1.0
0002d0 00 00 80 3f 00 00 80 3f 00 00 80 3f 00 00 80 3f
       1.0 1.0 1.0 1.0
0002e0 00 00 80 3f 00 00 80 3f 00 00 80 3f 00 00 80 3f
       1.0 1.0 1.0 1.0
0002f0 00 00 80 3f 00 00 80 3f 00 00 80 3f 00 00 80 3f
       1.0 1.0 1.0 1.0
000300 00 00 80 3f 00 00 80 3f 00 00 80 3f 00 00 80 3f
       1.0 1.0 1.0 1.0
000310 00 00 80 3f 00 00 80 3f 00 00 80 3f 00 00 80 3f
       1.0 1.0 1.0 1.0
000320 00 00 80 3f 00 00 80 3f 00 00 80 3f 00 00 80 3f
       1.0 1.0 1.0 1.0
000330 00 00 80 3f 00 00 80 3f 00 00 80 3f 00 00 80 3f
       1.0 1.0 1.0 1.0
000340 00 00 80 3f 00 00 80 3f 00 00 80 3f 00 00 80 3f
       1.0 1.0 1.0 1.0
000350 00 00 80 3f 00 00 80 3f 00 00 80 3f 00 00 80 3f
       1.0 1.0 1.0 1.0
000360 00 00 80 3f 00 00 80 3f 00 00 80 3f 00 00 80 3f
       1.0 1.0 1.0 1.0
000370 00 00 80 3f 00 00 80 3f 00 00 80 3f 00 00 80 3f
       1.0 1.0 1.0 1.0
000380 00 00 80 3f 00 00 80 3f 00 00 80 3f 00 00 80 3f
       1.0 1.0 1.0 1.0
000390 00 00 80 3f 00 00 80 3f 00 00 80 3f 00 00 80 3f
       1.0 1.0 1.0 1.0
0003a0 00 00 80 3f 00 00 80 3f 00 00 80 3f 00 00 80 3f
       1.0 1.0 1.0 1.0
0003b0 00 00 80 3f 00 00 80 3f 00 00 80 3f 00 00 80 3f
       1.0 1.0 1.0 1.0
0003c0 00 00 80 3f 00 00 80 3f 00 00 80 3f 00 00 80 3f
       1.0 1.0 1.0 1.0
0003d0 00 00 80 3f 00 00 80 3f 00 00 80 3f 00 00 80 3f
       1.0 1.0 1.0 1.0
0003e0 00 00 80 3f 00 00 80 3f 00 00 80 3f 00 00 80 3f
       1.0 1.0 1.0 1.0
0003f0 00 00 80 3f 00 00 80 3f 00 00 80 3f 00 00 80 3f
       1.0 1.0 1.0 1.0

fc2.weight f4 [300, 400]
000000 f2 a4 a7 3c 25 99 74 bc 94 8b 3b bd c9 68 08 3d
       0.020464394 -0.014929091 -0.04578741 0.033303056
000010 b5 28 8a bc d4 09 73 bd 77 18 2a bd 78 92 16 3d
       -0.016865114 -0.059335545 -0.041527238 0.036760777
000020 bc 38 34 bd 6a 89 4b ba 2d 0a 12 3d 8b 14 b4 3c
       -0.04399942 -0.0007764312 0.035654236 0.021982452
000030 93 d3 e0 bc fb 12 5e 3c 33 63 17 3d a6 7c bd bc
       -0.027444636 0.01355433 0.036959838 -0.023130726
000040 81 04 2f 3d 36 d3 70 3c 22 69 17 bc 74 43 f5 bc
       0.042728905 0.014698794 -0.009241374 -0.02993939
000050 3c 4d 06 3c 42 e5 81 3c 51 75 67 3c 8b 62 4d bd
       0.008197125 0.015856389 0.0141270915 -0.050142806
000060 7a f5 24 3c ac c4 51 3d ed 47 72 3b 3e af 74 bc
       0.010068292 0.05121295 0.003696914 -0.014934359
000070 21 9c 27 3d ce 4b bb bc 0b 86 69 3d db c4 09 3d
       0.04092038 -0.022863295 0.0570126 0.033635
000080 de 4e 62 bd 02 1a 18 3d da 80 1c bd d5 d3 43 bd
       -0.055250995 0.037134178 -0.03820882 -0.04780944
000090 2c 1f c3 3c 41 36 2a 3d 4f 2f 2b 3d ef 81 17 3d
       0.023818575 0.041555647 0.041793164 0.03698915
0000a0 dc 9c 00 bd dd 42 44 3c 93 9c f2 3c 30 8c 11 3d
       -0.031399593 0.011978832 0.029615676 0.035534084
0000b0 c9 a3 70 3c 53 e1 83 3d fb 63 8c bd 7a c2 92 bc
       0.014687487 0.064394616 -0.06855007 -0.017915
0000c0 21 6a 4c 3d 7d 63 ac 3c bb d4 b0 ba 1a 3c 1b 3d
       0.0499059 0.021043533 -0.0013491133 0.037899114
0000d0 69 00 5c bd 95 c2 7f 3c 6e 7d 06 bd 02 b0 b9 3c
       -0.05371133 0.015610357 -0.032834463 0.022666935
0000e0 3b c2 07 3b 0a 1b d3 3b 2c 3e 15 bd 13 cf 1c bd
       0.0020715136 0.0064424323 -0.036436245 -0.03828342
0000f0 c0 fb 13 3d 59 33 04 3d 44 11 5d 3c 3b 29 f5 3c
       0.03612876 0.03227553 0.013492886 0.029926887
000100 15 32 bf bc 7e d3 90 39 4d a0 57 bc 70 65 6a bd
       -0.02333931 0.00027623394 -0.013160777 -0.057225645
000110 d9 8b 02 ba 8f 00 41 bd 89 84 08 bd 9b 1a f0 3b
       -0.00049799454 -0.047119673 -0.03332952 0.0073273904
000120 59 b7 15 39 d3 43 3a 3d 90 5d 1c 3d d7 49 ac bc
       0.0001427805 0.04547484 0.038175166 -0.021031303
000130 7a 73 2a 3d 63 da 07 3d 37 9d 1f bc 0e 59 3e bc
       0.041614033 0.033167254 -0.009742073 -0.011617912
000140 f6 a7 1c 3d ec 21 31 3d 26 1d 82 bc 07 53 45 3d
       0.038246118 0.04324524 -0.01588304 0.048174884
000150 7d 77 40 bc 20 2d 40 bd 74 6e 70 bd d1 e6 ce bb
       -0.011747238 -0.046918035 -0.058699086 -0.0063141366
000160 5e bd b9 bc 52 84 09 3c f6 be 44 bc 1d 65 27 bc
       -0.022673305 0.008393364 -0.012008419 -0.010216978
000170 0c 9c 6a 3c d4 ea 00 3d d8 b5 59 bd 1b e1 55 bd
       0.014319431 0.03147395 -0.053151935 -0.05221663
000180 00 f5 35 bd 68 31 c8 bc eb 48 13 bd f4 bc da bc
       -0.044423103 -0.024437621 -0.035958212 -0.026701428
000190 10 a4 6c bd 0c c7 43 ba c2 3b 73 bb 57 f1 eb 3c
       -0.05777365 -0.000746832 -0.0037114476 0.028801603
0001a0 df 08 59 bd e7 fe 9a 3c 21 83 fc 3c e6 8e 74 bc
       -0.052986976 0.018920375 0.030824246 -0.014926648
0001b0 2e a3 0b 3b 7b 95 87 38 30 22 0f 39 f1 86 14 bd
       0.002130698 6.4651445e-05 0.00013650279 -0.036261503
0001c0 c3 c3 67 bd eb d1 03 bd 4f e2 44 bb 92 72 90 bc
       -0.056583177 -0.032182615 -0.0030042117 -0.017632756
0001d0 25 33 03 bd 60 15 d6 bc 00 ff 80 bc da 73 3d bd
       -0.032031197 -0.02613324 -0.015746593 -0.046253063
0001e0 d1 f8 16 bc 29 01 02 3d 28 14 0c 3d 63 71 cc bc
       -0.009214596 0.031739388 0.03419891 -0.02495641
0001f0 54 de 6d 3d 29 13 c4 bc d8 4c 28 bd 59 00 07 3d
       0.058073357 -0.023934918 -0.04108891 0.032959316
000200 37 57 9f bc 0d 19 a5 bb 70 d0 84 bd 6f d0 35 3d
       -0.019450767 -0.0050383867 -0.06485069 0.04438823
000210 43 34 c7 3c fa 35 00 bd 3a e7 92 3c 39 7d 0d bd
       0.024316913 -0.031301476 0.017932523 -0.03454325
000220 e6 4c 29 bd 88 9b a3 3c e9 c9 22 bc 97 7a 3c 3d
       -0.0413331 0.019971624 -0.009935834 0.04601535
000230 a5 8e 08 3d 31 5f 1f 3d 0c 54 18 bb 63 74 45 3d
       0.03333916 0.03890914 -0.0023243455 0.0482067
000240 71 5a cb 3b a8 44 8b bd e1 ee 49 bd 9a b7 4f bd
       0.00620585 -0.068002045 -0.04930008 -0.050712205
000250 3f 99 3b bd 92 2a 43 bd 18 e6 32 bd 1a a7 97 bd
       -0.045800444 -0.04764802 -0.043676466 -0.07404919
000260 c8 46 30 bc 75 cc 47 bc 0f 4b 19 3d e3 85 52 bd
       -0.010759063 -0.012194742 0.037425097 -0.051397216
000270 88 3d a4 bc d4 31 87 bd d8 ba b1 3c be 5e 7e bd
       -0.020048872 -0.06601301 0.02169554 -0.062102072
000280 d5 74 66 3c b6 7a 21 3b e4 78 e7 bb a2 d4 4c bd
       0.014065941 0.0024639792 -0.007063972 -0.05000747
000290 72 00 3d bd 8f 84 57 bd 45 66 01 3d 7c fd a0 bc
       -0.046143003 -0.052616652 0.031591672 -0.01965212
0002a0 61 1e 42 bd 31 e7 72 bc aa 4f bc 3c 8d 6b 4b 3d
       -0.047392253 -0.014825628 0.022987206 0.049663115
0002b0 3c 93 b1 bc 25 d5 26 3d ad cf 01 3d cf 01 b7 bc
       -0.021676652 0.040730614 0.031692196 -0.02233973
0002c0 3d 49 b0 3c 13 39 d0 3b fe 66 b1 3c 4b da fe 3c
       0.021519298 0.00635446 0.021655556 0.03110995
0002d0 5f 5d 55 bd ce d3 76 bc 73 a6 96 bc 56 e3 5d 3d
       -0.052091 -0.015065147 -0.018389916 0.054171883
0002e0 6d e2 1f bd dc 98 c1 bc 2e ef 30 3a d8 9c 0f bd
       -0.039034296 -0.02363246 0.0006749508 -0.035061687
0002f0 0a 06 05 3d b8 2b cb 3c 13 54 1f bc 0a b9 79 bd
       0.032476462 0.02480112 -0.009724635 -0.060967483
000300 7d 2b 1e 3d b3 1e c5 bc df bd 29 3d b8 e6 32 3c
       0.038615692 -0.02406249 0.04144084 0.010919265
000310 ee 6d 82 bc 94 a6 03 3b 63 e6 b1 bc d3 e6 4e bd
       -0.01592156 0.0020088302 -0.021716302 -0.0505131
000320 9d 06 06 bd ca 34 15 3d ec e7 8b bd 08 ea 63 3d
       -0.03272115 0.036427297 -0.06831345 0.05564311
000330 0f 2f ea bc d5 28 8c 3c 74 b2 ad 3b d6 50 e8 bb
       -0.028586892 0.017109314 0.0053008143 -0.0070897145
000340 d5 a7 0a bc be e9 7a bc c3 5c 04 bd 47 ca 5a 3d
       -0.008462866 -0.015314518 -0.032315027 0.053415563
000350 f1 3d 2e bd 99 67 af 3c f5 f3 1f bd 50 7d 5c ba
       -0.04253954 0.021411704 -0.039051015 -0.0008411007
000360 01 4b 4c bd 21 33 69 3d 31 05 b6 3b e1 f9 53 3c
       -0.049876217 0.056933526 0.005554818 0.012937994
000370 71 1e 0d bd b0 34 9b bc 65 df b4 3c 5e d2 0f bc
       -0.03445286 -0.018946022 0.022079179 -0.008778183
000380 4e cc 30 3d 4b 59 26 3d c7 b5 b6 3c 1c 85 73 ba
       0.04316359 0.0406125 0.022303475 -0.0009289549
000390 73 85 cd bc 27 94 e0 3c 6b bc 49 bd 6a 53 35 bb
       -0.025088048 0.027414395 -0.049251955 -0.0027668127
0003a0 b5 97 83 3c 9d 72 eb 3c 98 fe 3e 3b c7 db 19 3d
       0.01606355 0.028741175 0.002914345 0.03756311
0003b0 77 38 86 3d 44 8c 83 3c 51 33 5e 3d 36 b0 76 bc
       0.065537386 0.016058095 0.054248158 -0.01505666
0003c0 94 41 25 3d 3b 1a 01 3d 22 75 25 3b 16 40 05 bd
       0.040345743 0.031519156 0.0025246819 -0.03253182
0003d0 02 47 47 3d 92 f0 49 3b 7a ba 61 3d 17 ca 9b 3c
       0.048651703 0.0030813557 0.05510948 0.019017262
0003e0 60 62 27 bd 7d 15 c9 bc cf ea 13 bb ac b0 91 3c
       -0.040865302 -0.02454638 -0.0022570377 0.017784439
0003f0 07 9b 08 3d 99 a4 84 3c 4c df 4c bc fc 31 c7 bb
       0.03335097 0.016191768 -0.01250441 -0.0060789566

fc2.bias f4 [300]
000000 cf e8 7f bc fe 55 13 bd 4d 1a 7c 3d 83 9b 18 3c
       -0.015619471 -0.03597068 0.06154852 0.009314421
000010 98 98 90 3c 30 aa aa bc 7b ef 4f 3d 40 bd 69 bc
       0.017650887 -0.020833105 0.050765496 -0.014266312
000020 d0 d4 a3 bc bb f1 6b bc c3 a4 d5 3b 71 31 c2 bc
       -0.019998938 -0.014400895 0.0065198853 -0.023705216
000030 88 bf 45 3d cd 44 ac 3b 61 de 8a 3d b1 f3 40 bd
       0.04827836 0.005257225 0.06780697 -0.047107402
000040 13 8d 0d 3d 5d 65 c6 bb 74 cc 1b 3d a8 df a8 3c
       0.034558367 -0.006054564 0.03803678 0.02061446
000050 f9 f9 3b bc c4 9c 6f 3d b3 91 27 bc 6e 55 71 3d
       -0.011473172 0.058499113 -0.0102276085 0.058919363
000060 35 ee 6b bd 00 00 3f bd 5b a2 67 3d 3f 29 2b bc
       -0.05760022 -0.04663086 0.05655132 -0.010446846
000070 d5 1f f4 3c a9 79 fe bb 43 2e 0b bd 73 83 cd 3c
       0.029800335 -0.007765968 -0.033979665 0.025087094
000080 7b 4b ec bc 22 07 b8 bb e4 0d 26 3d 6b e8 5b bc
       -0.028844586 -0.0056160847 0.04054059 -0.013422112
000090 03 38 e4 3c 5a 84 c4 3b b0 a0 27 bc 39 90 91 bb
       0.02785874 0.005997223 -0.010231182 -0.0044422415
0000a0 84 e6 69 3d b7 64 95 3b 0f 83 2e 3a 19 7d 28 bd
       0.057104602 0.0045591253 0.00066571025 -0.041134927
0000b0 a2 4e 3c 3d fe f8 8a 3d a3 06 29 bc 3b 8e 8f bc
       0.045973428 0.06785773 -0.010316524 -0.017523875
0000c0 2d ce 87 bc 19 44 e7 3c a7 8e 18 3d fa 14 06 3d
       -0.016577804 0.028230714 0.03724542 0.03273485
0000d0 52 d1 d3 bc 61 7a bd 3c 4d b7 c4 3a 09 56 48 3d
       -0.025856648 0.023129644 0.0015008241 0.048910175
0000e0 d7 b9 ac 3c 81 a9 49 bd f5 2d 08 bc 25 90 7c 3d
       0.02108471 -0.049233917 -0.008311738 0.061660904
0000f0 f5 a1 d2 bc c1 02 7e 3c 5f 5e df 3c 26 b2 b6 3c
       -0.025711993 0.015503586 0.02726668 0.022301745
000100 ad 25 a2 3c 06 80 93 3c e4 0c 1c 3c a1 79 0f bc
       0.019793356 0.018005382 0.009524558 -0.008757026
000110 8c 72 64 3d d5 2a 0b 3d f7 92 34 3d 04 d0 2a 3c
       0.055773303 0.033976395 0.04408547 0.010425571
000120 b1 8f 98 3d 76 b5 10 3c 5c b8 17 3d e4 3c 40 bd
       0.07449282 0.008832326 0.037041053 -0.04693307
000130 ad 55 4b 3c 22 d1 96 bc 80 fd d1 bc 15 c2 eb 3b
       0.012410563 -0.01841027 -0.025633574 0.0071947672
000140 1a f8 2a bc c6 06 0b bd 96 f7 81 3d c3 20 c2 3c
       -0.010435129 -0.033942007 0.063460514 0.023697263
000150 63 1f 54 bb fe 8b 76 bc 19 15 53 3d b2 f2 5f 3c
       -0.003236734 -0.015048025 0.051533792 0.013668703
000160 33 12 b5 3a 7c f5 28 3d 51 80 48 3b 17 24 cb bb
       0.0013814628 0.041249737 0.003059406 -0.0061993706
000170 0e 93 fb 3c da 2f 43 3d 6e a5 87 3c b5 52 96 bb
       0.03070977 0.047653057 0.016558375 -0.004587496
000180 a7 eb 03 3d cf 41 21 3c 01 d8 06 bd 3c 85 2b 3d
       0.032207157 0.00984235 -0.03292084 0.04187511
000190 c9 62 05 3d 03 ba 53 bd c6 b5 6a 3d 4d 1f 38 3c
       0.032564912 -0.051691066 0.05730226 0.011237931
0001a0 8f d4 99 bc f4 12 af bc 30 57 fb 3c f6 d8 06 bd
       -0.018778114 -0.021371342 0.030681223 -0.032921754
0001b0 fa c1 22 bc f8 6f 01 3d d6 0d f1 3a 76 70 92 3d
       -0.009933943 0.031600922 0.0018390964 0.071503565
0001c0 c3 97 51 3c 12 db 1e 3d 9e 90 86 bd 64 a1 12 3d
       0.0127925305 0.03878314 -0.06570552 0.035798445
0001d0 eb 8d 46 3d d4 3a 92 bb c1 d1 9a bc bb b4 4c 3d
       0.048475187 -0.0044625793 -0.018898847 0.049977046
0001e0 05 f6 a0 3c 69 66 ea ba 37 9c 28 3d fc e7 bd bb
       0.019648561 -0.0017883304 0.041164603 -0.005795477
0001f0 62 14 25 3d bc 2c 39 bc 6d 3d ad 3b be cc c5 3b
       0.04030264 -0.011302169 0.0052868635 0.00603637
000200 3a 88 4e 3d 0c 52 a9 3d dc 09 3e 3d 3e 02 17 3c
       0.050422885 0.08267602 0.04639612 0.009216843
000210 70 75 9c 3c 55 77 49 3d ac 9d f3 3c ef 70 33 bc
       0.019098967 0.04918607 0.02973827 -0.010952218
000220 d7 e9 09 3d 42 53 de 3c 93 28 79 3d d8 db 48 3d
       0.033670273 0.02713931 0.06082971 0.049037784
000230 69 cc 3c 3d 12 8e 07 bd d8 99 32 bd f3 06 f8 3b
       0.04609338 -0.033094473 -0.043603748 0.007569188
000240 a8 b7 29 bb 8f 72 8a 3d 63 15 23 bd 47 52 ab bb
       -0.0025896821 0.067601316 -0.039815318 -0.005228314
000250 78 0e fb bc 93 59 8a 3d 72 cc 33 bd f5 41 6a 3d
       -0.030646548 0.06755366 -0.043896146 0.057191808
000260 a2 33 f1 3c e3 a4 87 3d 3c 68 28 3d fc ed 1c 3c
       0.029443566 0.066232465 0.04111503 0.009578224
000270 ee f3 42 3a 0f c5 38 3d bf 5a 64 bc 4c aa aa 3d
       0.0007436861 0.045109805 -0.013937651 0.08333263
000280 d3 bd 2d bd 31 1e bd bc 62 22 01 bd 50 8f 57 3d
       -0.04241736 -0.023085685 -0.03152693 0.052626908
000290 44 06 a6 3c 6c 58 86 3b aa d6 23 bd dc eb 3b bb
       0.02026666 0.004099896 -0.03999964 -0.0028674519
0002a0 76 14 55 3d 32 0e 87 3d 45 e9 37 3c 96 f2 46 3d
       0.052021466 0.065945044 0.011225049 0.04857119
0002b0 11 b7 6f bc 0f 2d 1b 3d 70 39 04 bc ec 4c 23 bb
       -0.014631049 0.037884768 -0.008070335 -0.0024917675
0002c0 ab 0c 8f 3d 19 41 e4 bc d8 3b 31 3d 89 bf 85 bc
       0.06984838 -0.027863072 0.043269962 -0.016326683
0002d0 5d 61 55 bd 54 24 11 3d 17 70 fb bc ba c9 76 3d
       -0.052094806 0.035435036 -0.030693097 0.060250975
0002e0 75 73 3d 3c 55 6c 56 bd 6e 88 d1 bb 09 56 23 3d
       0.011563172 -0.052349407 -0.0063944375 0.03987697
0002f0 3e 12 95 bd 0e 2b 85 3d 12 94 86 bc 0f 7e b8 3c
       -0.0727887 0.06502353 -0.016428027 0.022521047
000300 a3 b0 80 3d 3e 11 8c bb a2 29 66 3d a3 40 73 3c
       0.06283691 -0.0042745164 0.056192048 0.014846954
000310 c6 1f 1e 3d 51 66 97 3b b4 0d ff 3c a3 9a 96 3c
       0.03860452 0.0046203514 0.031134464 0.018384283
000320 53 53 70 3c e5 f3 00 3d 9b d2 33 bd a0 08 20 3d
       0.014668304 0.031482596 -0.04390202 0.039070725
000330 7c bf 3f bd 14 d1 96 bc aa b6 fe bc fe f8 bd ba
       -0.046813473 -0.018410243 -0.03109296 -0.0014493761
000340 21 c3 ab 3d 75 27 3b bd eb f1 6f 3d af 1a f7 3c
       0.08386827 -0.045691926 0.05858032 0.03016409
000350 c0 93 8a bd ec 95 c7 bb 44 33 84 bb ad 08 5b 3d
       -0.06766462 -0.00609087 -0.0040344317 0.05347507
000360 5a 7c 6e bd 71 f4 1a 3d 38 c5 0c 3d b6 c5 37 3d
       -0.05822406 0.037830774 0.03436777 0.044866286
000370 20 7c 7f 3d 55 ed e5 bb 9c c5 c6 bb f0 ec 32 3d
       0.062374234 -0.0070168176 -0.0060660373 0.043682992
000380 75 ab 91 3b 63 89 4e bc 4d 60 34 3d 3e da 2a 3d
       0.004445488 -0.012605998 0.044037152 0.04171204
000390 54 2e 3e 3d a1 d1 c4 bc 84 34 2c 3d 2a b9 dd bc
       0.0464309 -0.02402574 0.04204227 -0.027065832
0003a0 59 de 3d ba 31 65 9f bc 08 a5 11 3c fc 1d ec 3c
       -0.000724291 -0.019457432 0.008889444 0.028822891
0003b0 14 82 1c 3d 1a ac 88 3d 97 bf 93 3c d1 69 1e 3d
       0.03820999 0.06673451 0.018035693 0.038675133
0003c0 2c 5b 08 bd a6 e5 8b 3d bc dd 95 bc ec be 43 3d
       -0.033290073 0.06830911 -0.018294208 0.0477895
0003d0 40 83 19 3d 74 64 64 3c 66 d5 59 3d 12 2e 69 bc
       0.037478685 0.0139399655 0.05318203 -0.014232175
0003e0 b9 23 8c bc 3a 41 8b 3a fc 38 51 bd dc d9 c1 ba
       -0.017106878 0.0010624297 -0.051079735 -0.0014789659
0003f0 fb 57 8e 3d 19 e9 b3 bc f7 73 fc 3c e2 3c 81 bb
       0.06950375 -0.021961736 0.030817015 -0.0039440254
