agent_checkpoints/checkpoint_critic_0.pth (torch_old, 554781 bytes, 13 tensors)

fcs1.weight f4 [400, 33]
0	0xbd7a3e28	-0.061094433
1	0x3c34c31b	0.011032845
2	0xbce3f97b	-0.027828922
3	0xbc18f255	-0.00933512
4	0xbe095ef1	-0.13415124
5	0x3e457e2b	0.1928641
6	0xbd2bbbc0	-0.0419271
7	0xbe05f819	-0.13082923
8	0xbd936641	-0.07197238
9	0x3c922d5d	0.017843897
10	0x3d817015	0.06320206
11	0x3d8a5094	0.0675365
12	0xbd17c3ea	-0.037052073
13	0xbd2f843b	-0.042850714
14	0x3c68abc6	0.01420111
15	0xbdb4c48d	-0.088265516
16	0xbd7e4948	-0.062081605
17	0xbd44de36	-0.04806348
18	0xbcfa64fc	-0.030565731
19	0xbbb4b51c	-0.005514754
20	0xbcda3908	-0.026638523
21	0x3c5771e0	0.0131497085
22	0x3c17509e	0.009235529
23	0xbd09cd9e	-0.033643357
24	0x3dab5aae	0.08366905
25	0xbca52c8e	-0.020162847
26	0xbc967fab	-0.018371424
27	0x3b2007ee	0.002441879
28	0x3d69edcd	0.05711155
29	0x3b864290	0.0040972903
30	0xbc5cd357	-0.013478122
31	0xbc5be528	-0.013421334
32	0xbddf6140	-0.10907221
33	0xbd496edd	-0.049177993
34	0xbd206e37	-0.03916761
35	0xbc6cb8f1	-0.01444839
36	0x3bc89a22	0.0061218897
37	0xbc659683	-0.014012936
38	0xbdf540fa	-0.11975284
39	0xbd7877a1	-0.060660962
40	0xbd5fb418	-0.05461511
41	0xbcfd8cc2	-0.030950908
42	0x3b45df12	0.0030192775
43	0x3d774b0b	0.0603743
44	0xbdaa6658	-0.08320302
45	0x3d1ccb9d	0.03828012
46	0xbd92fcc8	-0.071771204
47	0x3beae202	0.0071680555
48	0x3d18170a	0.037131347
49	0x3dac5965	0.08415488
50	0xbdd86f2c	-0.10568079
51	0xbb40c5ae	-0.0029414701
52	0xbe40a27a	-0.1881198
53	0x3d0a11d7	0.03370842
54	0xbdebcf36	-0.11514132
55	0x3d2f1515	0.042744715
56	0xbd0d31ce	-0.034471326
57	0xbdaa9d30	-0.083307624
58	0x3ccb90ed	0.02484938
59	0xbd34ba20	-0.044122815
60	0x3c94801b	0.018127492
61	0x3d922b97	0.0713722
62	0x3d00b583	0.031423103
63	0xbd1fae99	-0.03898487
64	0x3cbdba1e	0.023160037
65	0xbd2c2948	-0.042031556
66	0xbc000c12	-0.007815378
67	0xbde5d4d3	-0.112222336
68	0x3acdf75e	0.001571398
69	0xbce49878	-0.027904734
70	0xbd49e92e	-0.049294643
71	0x3d834bd0	0.064109445
72	0x3e75e36e	0.24012539
73	0x3ca7f759	0.020503687
74	0xbc611deb	-0.013740043
75	0xbd88bc2a	-0.066765144
76	0x3caad724	0.02085454
77	0xbdc134e0	-0.09433913
78	0xbc3ee19f	-0.011650472
79	0xbc961cd9	-0.018324303
80	0xbd85ac90	-0.06527054
81	0xbbb4b589	-0.0055148047
82	0xbcf3c498	-0.02975683
83	0x3cffcdd6	0.03122608
84	0x3e51ade6	0.20476493
85	0x3e946d99	0.28989866
86	0xbd597c50	-0.05309707
87	0x3c6d15a1	0.014470489
88	0xbd80a127	-0.06280737
89	0x3b832096	0.0040016873
90	0x3d20cf01	0.039259914
91	0x3d9e0d47	0.07717376
92	0x3d4e5587	0.050374534
93	0xbd1b85c7	-0.037969377
94	0x3cedbb09	0.02901985
95	0x3d02fe47	0.03198078
96	0xbb17bf7c	-0.0023154905
97	0xbcf810da	-0.030281473
98	0xbe216136	-0.1575974
99	0x3d685dc6	0.056730054
100	0x3d326290	0.043551028
101	0x3c068db7	0.008212498
102	0xbd3ad4da	-0.045613147
103	0xbe165f5c	-0.14684814
104	0x3aa99095	0.0012936766
105	0x3c6d55eb	0.0144858165
106	0x3d8b87ab	0.06812986
107	0xbd9da8c5	-0.07698206
108	0x3c7a21cc	0.015266847
109	0x3d457963	0.048211467
110	0x3c95af33	0.018272018
111	0xbd091dc1	-0.03347564
112	0xbcb3a9c6	-0.02193154
113	0x3d985822	0.07438685
114	0xbd8058d8	-0.062669456
115	0x3e4634f3	0.19356136
116	0x3c20c02d	0.009811443
117	0x3e2499c3	0.1607428
118	0x3d49b61e	0.049245946
119	0x3d4a5ce6	0.049405
120	0xbdafc106	-0.08581738
121	0xbc52cb56	-0.012865862
122	0xbd87370f	-0.066022985
123	0x3c3536f1	0.011060462
124	0xbd965b7b	-0.07341667
125	0x3d53218c	0.051545665
126	0x3d0809a2	0.03321231
127	0x3de097a7	0.109664254
128	0xbc304138	-0.010757737
129	0x3d43e1c4	0.04782273
130	0x3c7e95cc	0.015538644
131	0xbb725a46	-0.0036980077
132	0x3d57780d	0.052604724
133	0x3cc76db8	0.02434431
134	0xbd4ba343	-0.049716245
135	0xbc20fb07	-0.009825475
136	0xbae22527	-0.0017253504
137	0x3d40e676	0.047094785
138	0x3c78f763	0.0151957
139	0x3dff305b	0.12460395
140	0x3d24abae	0.04020279
141	0xbca921c1	-0.020645978
142	0xbda7dc4c	-0.08196315
143	0xbcd2be36	-0.025725465
144	0xbcecc5aa	-0.028902847
145	0x3d56ca84	0.052439228
146	0xbcf8b447	-0.0303594
147	0xbc79dfb2	-0.015251087
148	0x3c4c1b81	0.012457729
149	0x3d84ce84	0.06484702
150	0x3c0a43e4	0.008439038
151	0x3c9b03a7	0.01892264
152	0xbd9534b3	-0.07285442
153	0xbb92e517	-0.004482876
154	0x3dfd4f72	0.123686686
155	0xbbecf561	-0.0072314
156	0xbd0ee12e	-0.034882717
157	0xbd4dbade	-0.05022704
158	0xbc1a9e3d	-0.009437141
159	0xbabe342d	-0.0014511399
160	0x3cbe0d98	0.023199841
161	0xbc1bec94	-0.009516854
162	0x3d370f78	0.044692487
163	0xbbb692d8	-0.0055717044
164	0xbd8140da	-0.063111976
165	0xbc4e0c8a	-0.012576232
166	0x3bee2959	0.0072681126
167	0xbce2aed1	-0.02767125
168	0xbe5510ac	-0.20807141
169	0x3da3814b	0.07983645
170	0x3dd48436	0.1037678
171	0xbd26b03e	-0.04069542
172	0xbe66a607	-0.22524272
173	0x3ca203e3	0.019777244
174	0x3c698189	0.014252075
175	0xbd60194a	-0.054711618
176	0x3ca650ea	0.020302255
177	0xbc9ce081	-0.01915002
178	0x3c6175e5	0.013761018
179	0xba36ca4c	-0.00069728936
180	0xbc6eb800	-0.014570236
181	0xbdbf00ec	-0.09326348
182	0x3cfe7bcf	0.031064896
183	0x3d64047e	0.055668347
184	0xbdc41a32	-0.09575309
185	0xbcc68f07	-0.024238123
186	0x3d3be42d	0.045871902
187	0xbd6c7e12	-0.057737418
188	0x3d839936	0.06425707
189	0xbbac0186	-0.005249205
190	0xbb11917b	-0.0022211957
191	0xbd0f5d3b	-0.03500102
192	0x39261ca9	0.0001584167
193	0xbd8901b2	-0.066897765
194	0x3d136435	0.035984237
195	0x3c6ea02a	0.014564553
196	0x3c02cbe0	0.007983178
197	0xbeae6994	-0.34064925
198	0xbe138155	-0.14404805
199	0xbbe48c3a	-0.006974724
200	0xbd86fcc7	-0.06591182
201	0xbd800a5a	-0.062519744
202	0xbe1793d7	-0.1480249
203	0x3d45f6f8	0.04833123
204	0xbc5ea3f7	-0.013588897
205	0x3d1a9ecc	0.037749097
206	0xbcc72bf2	-0.024312947
207	0x3ca11860	0.019664943
208	0x3b057493	0.0020363673
209	0xbc1c969b	-0.0095573915
210	0x3cb1d495	0.021707812
211	0xbde3ba5a	-0.11119528
212	0x3d9d7d50	0.07689917
213	0xbdebc4ee	-0.11512171
214	0x3ca7d605	0.020487795
215	0xbc1f9bac	-0.009741705
216	0x3d390202	0.04516793
217	0x3e0077a9	0.12545647
218	0x3c2cd114	0.010547895
219	0xbd9c81ca	-0.07641943
220	0x3d58a43d	0.052891005
221	0x3bb789c5	0.00560114
222	0x3d1fd060	0.03901708
223	0x3cb98d2b	0.022650322
224	0x3dd4e45a	0.10395117
225	0xbce87d67	-0.028380109
226	0xbb905673	-0.004404837
227	0xbcad45ca	-0.021151442
228	0x3ce6cc35	0.028173545
229	0x3d137931	0.03600425
230	0x3d920b79	0.071310945
231	0x3d93b514	0.07212272
232	0xbd34a0b2	-0.044098563
233	0xbc2d6b8f	-0.010584726
234	0xbe0fc445	-0.14039715
235	0x3d8f496a	0.069964245
236	0xbd3d0297	-0.046145048
237	0xbd0c311b	-0.034226518
238	0x3c8b01dd	0.016968662
239	0x3e23d2a9	0.15998329
240	0x3d89248c	0.06696424
241	0x3d051eaa	0.032499947
242	0xbd8a6a15	-0.06758515
243	0xbd0f3650	-0.034963906
244	0x3de1c10f	0.11023151
245	0xbd0068f6	-0.0313501
246	0x3deef5fd	0.11668012
247	0x3d35e867	0.04441109
248	0x3dd1f29b	0.102513514
249	0x3df67428	0.12033874
250	0xbe02e549	-0.12782778
251	0xbcd12e6d	-0.025534833
252	0x3d60b691	0.05486161
253	0x3d8a8e26	0.06765394
254	0x3ce32fee	0.027732816
255	0x3c4781ab	0.012176911

fcs1.bias f4 [400]
0	0xbda4c0be	-0.08044575
1	0xbd931320	-0.07181382
2	0x3e2d8c69	0.16948093
3	0x3ce1f8cb	0.027584454
4	0xbe178d83	-0.14800076
5	0xbe1e4965	-0.15457685
6	0xbe193f18	-0.14965475
7	0xbe01510b	-0.12628572
8	0xbdd74a47	-0.10512214
9	0xbdbdfba3	-0.092765115
10	0x3e04843b	0.12941067
11	0xbd9249d9	-0.071429916
12	0x3e23f2cf	0.16010593
13	0xbd230d2b	-0.03980748
14	0xbe0ff39e	-0.14057776
15	0xbd82c415	-0.06385056
16	0xbd9e0f07	-0.0771771
17	0xbdf51404	-0.11966708
18	0xbe264357	-0.16236626
19	0x3bc72f13	0.0060786097
20	0xbe0a633d	-0.13514419
21	0xbd4d2e00	-0.050092697
22	0xbd3b5d46	-0.04574325
23	0xbdcde2ac	-0.10053
24	0xbbd83254	-0.0065977965
25	0xbe0a2117	-0.13489185
26	0xbd67cbde	-0.056590907
27	0x3e1dc8a4	0.1540857
28	0x3e24dcf6	0.16099915
29	0x3c656ce2	0.0140030105
30	0x3d25cf61	0.040480975
31	0x3e1e5027	0.15460263
32	0x3e2b25c3	0.16713624
33	0xbda812a2	-0.08206679
34	0x3ce18ff1	0.027534457
35	0xbd0d1ae4	-0.034449473
36	0xbdf487c2	-0.11939956
37	0x3e1e39fc	0.15451807
38	0x3e0d5290	0.13801026
39	0x3bf5eb50	0.007504858
40	0x3e12f2f4	0.14350492
41	0x3d3e72cd	0.0464962
42	0x3deb674b	0.11494311
43	0x3d970017	0.07373064
44	0x3da8874b	0.0822893
45	0x3d7e873b	0.062140685
46	0x3db2eb49	0.08736283
47	0x3e1ca401	0.15296938
48	0x3d8b6b30	0.06807554
49	0xbde36419	-0.111030765
50	0x3d832c33	0.06404915
51	0x3e31ff12	0.17382458
52	0x3e13ccd6	0.14433607
53	0x3de0d6c0	0.1097846
54	0xbd872a35	-0.06599847
55	0x3e300f9b	0.17193453
56	0x3d021457	0.03175768
57	0xbdbfc29c	-0.09363291
58	0xbbd61562	-0.0065333107
59	0x3e0180ef	0.1264684
60	0xbe23b142	-0.15985587
61	0xbd238121	-0.03991807
62	0x3e04e6a0	0.12978601
63	0xbd448902	-0.047982223
64	0xbd8ff86c	-0.070298046
65	0xbd402925	-0.04691424
66	0x3d69a8f5	0.057045896
67	0xbe09861c	-0.13430065
68	0x3cb452f1	0.022012206
69	0x3d37336f	0.044726785
70	0x3d3c3ab3	0.045954417
71	0xbb67337b	-0.0035278487
72	0x3daf69d3	0.08565106
73	0xbc280636	-0.010255387
74	0x3e0a3e9e	0.13500449
75	0x3dec0554	0.11524454
76	0xbdf658b1	-0.12028635
77	0xbd0b5c36	-0.034023486
78	0x3e0aa352	0.13538864
79	0xbc8eb646	-0.0174209
80	0xbd5a1c44	-0.053249612
81	0xbc325736	-0.0108850505
82	0xbd23de8a	-0.04000715
83	0xbd78c046	-0.06073024
84	0x3d1dc4ab	0.038517635
85	0x3e163456	0.14668402
86	0x3cceb796	0.025234025
87	0x3dc87527	0.0978797
88	0x3e099b4e	0.1343815
89	0xbde8000a	-0.113281325
90	0xbdfd943d	-0.1238179
91	0xbcd229ba	-0.025654662
92	0x3d545f85	0.051848907
93	0xbcad04d3	-0.021120464
94	0xbda71a7c	-0.08159348
95	0xbdf56460	-0.11982036
96	0x3ba65abc	0.0050767343
97	0x3e049f93	0.12951498
98	0x3bf66212	0.007519015
99	0x3e29c367	0.16578446
100	0xbda8c38c	-0.082404226
101	0x3e249bd9	0.16075076
102	0xbde49335	-0.1116089
103	0x3e0da44f	0.1383221
104	0x3c9bc8d0	0.019016653
105	0x3e314c5a	0.17314282
106	0x3e29a205	0.16565712
107	0xbd73f557	-0.059560146
108	0xbc509699	-0.012731218
109	0xbd417a12	-0.047235556
110	0x3d1e9ad5	0.038721878
111	0xbdafba10	-0.085804105
112	0xbd25f885	-0.04052021
113	0xbdd80a85	-0.105488814
114	0x3dd91f56	0.1060168
115	0x3e0cd6e4	0.1375385
116	0x3c9d0689	0.019168155
117	0xbbadba45	-0.005301746
118	0xbe05b2e1	-0.13056518
119	0xbe226923	-0.15860419
120	0xbe0989c1	-0.13431455
121	0xbe03fc44	-0.128892
122	0xbe12ab02	-0.14323047
123	0x3da72613	0.08161559
124	0xbe07f8ff	-0.13278578
125	0x3daad87c	0.08342072
126	0x3ded3d0c	0.115839094
127	0xba2c2507	-0.0006566797
128	0x3d28f208	0.041246444
129	0x3dde82f0	0.10864818
130	0xbe219b0c	-0.15781802
131	0x3e19f7e5	0.1503597
132	0x3e2f88ca	0.17142025
133	0x3e2a1cfb	0.16612618
134	0xbd8b3fa3	-0.06799247
135	0x3ddadc54	0.106865555
136	0xbd8339d1	-0.06407512
137	0x3cddb28d	0.027062679
138	0x3e151889	0.1456014
139	0x3d15636a	0.03647176
140	0x3d825f2a	0.06365807
141	0xbd3dd315	-0.04634388
142	0xbda931bd	-0.0826144
143	0x3e116bd1	0.14201285
144	0xbe20e2a6	-0.1571146
145	0x3cf96233	0.030442333
146	0xbc89f669	-0.01684113
147	0xbd48d2de	-0.049029224
148	0xbe2e23a5	-0.17005785
149	0xbdd3f331	-0.103491195
150	0xbdcb7ce3	-0.099359296
151	0x3cd6e992	0.026234422
152	0x3d8b0951	0.06788886
153	0xbe22070e	-0.15823004
154	0xbd890e0e	-0.06692134
155	0xbe29fa8f	-0.16599487
156	0x3df3ccd9	0.11904306
157	0xbe23c661	-0.15993644
158	0xbcbec389	-0.023286598
159	0xbccb7771	-0.024837228
160	0xbdc37191	-0.095431454
161	0x3e000f2a	0.12505785
162	0x3d988576	0.07447331
163	0x3dba065b	0.090832435
164	0x3dfb52be	0.12271641
165	0xbdb20ff1	-0.08694447
166	0x3dac8015	0.08422867
167	0x3e1016e5	0.14071234
168	0xbd23e778	-0.040015668
169	0xbc690ebe	-0.014224706
170	0x3c86e9cf	0.01646891
171	0xbe2f03cd	-0.17091294
172	0xbc96ded5	-0.018416801
173	0xbcaa9550	-0.02082315
174	0xbe0195a7	-0.12654744
175	0x3e026861	0.1273513
176	0xbe1cd5ee	-0.15315983
177	0xbd8ebe66	-0.06969909
178	0x3dd1ef51	0.10250724
179	0x3cdd54e6	0.027018022
180	0x3d909245	0.07059149
181	0x3bf56543	0.007488878
182	0xbe25e740	-0.16201496
183	0xbe00016a	-0.1250054
184	0xbd716924	-0.05893816
185	0xbdf0190a	-0.11723526
186	0xbdde11e7	-0.10843258
187	0xbd66c47a	-0.05633972
188	0x3e1ee8fb	0.15518562
189	0x3e0a26e4	0.13491398
190	0x3d0f4f64	0.034987822
191	0xbde4c448	-0.1117025
192	0xbdd6e0bd	-0.10492084
193	0x3e2e952f	0.17049097
194	0x3cb0b07f	0.021568535
195	0x3ca187df	0.019718109
196	0xbdca142e	-0.0986713
197	0xbdb603cf	-0.08887445
198	0x3daf41c5	0.085574664
199	0xbc74acae	-0.014933748
200	0xbc94e21b	-0.018174222
201	0xbdaf9b2d	-0.08574519
202	0xbe041625	-0.12899072
203	0xbde60eba	-0.112332776
204	0xbe2f7ea3	-0.17138152
205	0x3e234075	0.15942557
206	0x3cd15223	0.025551861
207	0x3cc7de8f	0.024398116
208	0x3e05d5e4	0.13069874
209	0x3db31cdb	0.08745738
210	0xbcd087e9	-0.025455432
211	0x3ddcbf1e	0.1077864
212	0x3b37af36	0.0028028018
213	0xbe2dc3f9	-0.16969289
214	0x3e107e97	0.1411079
215	0xbdd20724	-0.10255268
216	0xbe06b392	-0.13154438
217	0xbd24c634	-0.040228084
218	0x3d2e1767	0.042502787
219	0x3e0c3db1	0.13695408
220	0xbe307464	-0.172319
221	0xbe26d865	-0.16293485
222	0xbded91c6	-0.1160007
223	0xbdd042fd	-0.10169027
224	0x3e2f41a2	0.1711488
225	0xbb317a90	-0.002708111
226	0x3e015a34	0.12632066
227	0x3d490867	0.04908028
228	0x3dd04d5f	0.10171007
229	0xbdb8d2a4	-0.090245515
230	0x3d9b348d	0.07578383
231	0x3d816999	0.06318969
232	0x3d757cdc	0.05993353
233	0xbe05e352	-0.13074997
234	0xbd75ad6b	-0.059979837
235	0x3e176751	0.14785506
236	0xbd1c05ad	-0.03809135
237	0xbe017f79	-0.12646283
238	0xbe16edb2	-0.14739111
239	0xbd10b746	-0.035331033
240	0x3da4f3d9	0.08054323
241	0xbd526d5f	-0.051373836
242	0x3dfe4321	0.124151476
243	0x3d97dd1b	0.074152194
244	0xbe0e9b86	-0.13926515
245	0x3aec2b1d	0.001801822
246	0x3e228128	0.15869582
247	0x3dddc7ae	0.108291015
248	0xbd80074e	-0.06251393
249	0xbe044e49	-0.12920488
250	0x3d394316	0.045229994
251	0x3dab112b	0.08352884
252	0xbd12c691	-0.0358339
253	0xbe1815bd	-0.14852042
254	0x3e2c379e	0.16818091
255	0x3dac4a15	0.084125675

fcs1_bn.weight f4 [400]
0	0x3eaa624e	0.33278126
1	0x3f51b153	0.819112
2	0x3f6a2b2e	0.91472137
3	0x3f5c6998	0.86098623
4	0x3e89aec2	0.26891142
5	0x3e8f5f6c	0.2800249
6	0x3f63f1f4	0.89041066
7	0x3e8ddb55	0.277064
8	0x3ee4b1c4	0.44666874
9	0x3f82810f	1.0195636
10	0x3edee604	0.43534863
11	0x3f53fe4c	0.828099
12	0x3e1aaa3f	0.15104006
13	0x3edcc493	0.43118724
14	0x3f82246f	1.0167369
15	0x3f1428ed	0.5787495
16	0x3e1e06ce	0.15432283
17	0x3f0c542b	0.5481593
18	0x3e2f96e6	0.17147407
19	0x3f4c1277	0.79715675
20	0x3f529660	0.82260704
21	0x3ed113d5	0.40835443
22	0x3f3a1b41	0.72697836
23	0x3f61dee2	0.8823072
24	0x3f4fafcd	0.81127626
25	0x3f4a4e49	0.79025704
26	0x3c1414ab	0.009038131
27	0x3e3823d8	0.17982423
28	0x3f52c73c	0.8233526
29	0x3f4a14ca	0.7893797
30	0x3d869080	0.0657053
31	0x3f613452	0.8797046
32	0x3f116f58	0.5681052
33	0x3c8b15cc	0.016978167
34	0x3e95adc7	0.29234144
35	0x3cd76969	0.02629538
36	0x3eb265df	0.34843346
37	0x3ed92612	0.42411858
38	0x3f0d6ce5	0.55244285
39	0x3e9b51df	0.303359
40	0x3eed0fa1	0.46300986
41	0x3f5c0d51	0.8595782
42	0x3f5675aa	0.8377329
43	0x3dd8d976	0.105883524
44	0x3f2c4af9	0.673019
45	0x3e580115	0.21094163
46	0x3e8ab235	0.27089086
47	0x3e84fe26	0.2597515
48	0x3e5b9ddb	0.21446936
49	0x3e691d5f	0.2276511
50	0x3b78457b	0.003788321
51	0x3e851f1a	0.2600029
52	0x3ed1d09e	0.40979475
53	0x3bb79905	0.005602958
54	0x3f153675	0.5828622
55	0x3e74b057	0.23895393
56	0x3ec85e6c	0.39134538
57	0x3f21f28c	0.6326072
58	0x3f765904	0.9622958
59	0x3f31927a	0.6936413
60	0x3db5eb2a	0.088827446
61	0x3f58c228	0.8467126
62	0x3ef9e189	0.48804882
63	0x3f22b160	0.635519
64	0x3e26da96	0.16294321
65	0x3f64e032	0.89404595
66	0x3e3265c4	0.17421633
67	0x3f4dde55	0.80417377
68	0x3f76642a	0.9624659
69	0x3f0e14d6	0.55500543
70	0x3f636837	0.88830894
71	0x3f36eb67	0.71452945
72	0x3eb04d2b	0.34433874
73	0x3f1e4c85	0.6183551
74	0x3f19ed04	0.6012728
75	0x3ec5ea1c	0.38655174
76	0x3daeae5c	0.0852935
77	0x3f394f3a	0.72386515
78	0x3b657497	0.003501212
79	0x3f32b96f	0.698142
80	0x3e61a876	0.22036919
81	0x3f0d7f7e	0.5527266
82	0x3ec2859e	0.37992567
83	0x3e6619e5	0.22470815
84	0x3e89ee29	0.26939514
85	0x3be907af	0.0071115117
86	0x3e3e0d68	0.18559802
87	0x3f3d7223	0.74002284
88	0x3f702949	0.93812996
89	0x3df8be54	0.12145677
90	0x3e9b5faa	0.30346423
91	0x3ee1edeb	0.4412683
92	0x3e7023ff	0.23451231
93	0x3ef72db1	0.48277047
94	0x3eea2c96	0.4573714
95	0x3f09a7e9	0.53771836
96	0x3e801017	0.25012276
97	0x3d7b4574	0.061345533
98	0x3ee077e7	0.43841478
99	0x3f560b7a	0.8361126
100	0x3f6eb6af	0.93247503
101	0x3f62f0aa	0.88648474
102	0x3efb2f80	0.49059677
103	0x3f4dd86c	0.8040836
104	0x3eb2b5bd	0.3490428
105	0x3f5c4d07	0.86055034
106	0x3f0526b1	0.52012163
107	0x3e48b53e	0.19600388
108	0x3e647d35	0.22313388
109	0x3f7425c2	0.95370114
110	0x3e9ee740	0.31035805
111	0x3b13861b	0.0022510353
112	0x3f7f7d7d	0.99800855
113	0x3f26b779	0.6512371
114	0x3f11315a	0.5671593
115	0x3e41d04e	0.18927118
116	0x3f4e0327	0.8047356
117	0x3f57abe6	0.8424667
118	0x3d5c6295	0.053804953
119	0x3f26e9b1	0.65200335
120	0x3f6d0a57	0.925939
121	0x3def3a89	0.116810866
122	0x3f0dfd46	0.5546459
123	0x3e8c924b	0.27455363
124	0x3f3e6ce7	0.7438492
125	0x3f597e51	0.8495837
126	0x3f343ba5	0.7040351
127	0x3ee583de	0.4482717
128	0x3f5b3465	0.8562682
129	0x3e90e896	0.2830245
130	0x3f6101a6	0.8789314
131	0x3f25c342	0.64751065
132	0x3dafaba9	0.085776635
133	0x3e848f35	0.25890508
134	0x3ee0a695	0.43877092
135	0x3d831d0d	0.06402025
136	0x3ecdd993	0.40205058
137	0x3f42026d	0.7578495
138	0x3f6e76a2	0.9314977
139	0x3ee3e555	0.44510904
140	0x3ea0d413	0.314118
141	0x3cec1f38	0.02882348
142	0x3f16abc2	0.5885583
143	0x3f082e37	0.5319552
144	0x3f280e9a	0.6564728
145	0x3c8c154b	0.017099997
146	0x3ee575a2	0.4481631
147	0x3ea5a560	0.32352734
148	0x3e5233a9	0.2052752
149	0x3f5658de	0.8372935
150	0x3e1874a6	0.14888248
151	0x3dfd24af	0.123605125
152	0x3f581334	0.844043
153	0x3de6aa87	0.11262994
154	0x3f44cb63	0.76872844
155	0x3eafd9d1	0.34345868
156	0x3e0a88ca	0.13528743
157	0x3ed3287c	0.41241825
158	0x3da26e6c	0.079312176
159	0x3f16b974	0.5887673
160	0x3f57d133	0.8430359
161	0x3e01807f	0.12646674
162	0x3dd228b0	0.10261667
163	0x3ec400d8	0.38281894
164	0x3f02259e	0.5083865
165	0x3f5df22e	0.8669766
166	0x3f5a8e68	0.85373545
167	0x3e4373c2	0.19087127
168	0x3f55a779	0.8345867
169	0x3f4c2fca	0.7976042
170	0x3d8df89c	0.06932184
171	0x3f6367d1	0.88830286
172	0x3f801935	1.0007693
173	0x3ed29a61	0.41133407
174	0x3f791015	0.97290164
175	0x3f69d31d	0.9133776
176	0x3f09ad36	0.53779924
177	0x3f005013	0.50122184
178	0x3f4ef014	0.8083508
179	0x3f51d863	0.81970805
180	0x3f841ef8	1.0321951
181	0x3e71ed7d	0.23625751
182	0x3f3d8593	0.74031943
183	0x3f4a2605	0.78964263
184	0x3e25cad5	0.16190656
185	0x3f0b470d	0.5440529
186	0x3e75dce4	0.24010044
187	0x3e042e42	0.12908271
188	0x3f79214b	0.97316426
189	0x3c3dd79b	0.011587049
190	0x3d851751	0.06498588
191	0x3f67c9d1	0.9054232
192	0x3f5073dd	0.81426793
193	0x3f1cfd6b	0.61324185
194	0x3f41c236	0.7568697
195	0x3eef1c52	0.46701294
196	0x3ebbf34b	0.36709055
197	0x3ea23e55	0.3168818
198	0x3f04ef03	0.519272
199	0x3c08fce4	0.008361075
200	0x3c92d4d3	0.017923748
201	0x3ea62936	0.32453316
202	0x3f0c6578	0.5484233
203	0x3f44a414	0.76812863
204	0x3e643e43	0.22289376
205	0x3d718fe0	0.0589751
206	0x3d19660d	0.03745084
207	0x3eee8d92	0.46592385
208	0x3e21f844	0.15817362
209	0x3ec8d975	0.39228407
210	0x3e4ffc95	0.20311196
211	0x3f28415b	0.65724725
212	0x3eada3bd	0.33913985
213	0x3e16c8b8	0.14725006
214	0x3efbb060	0.49158
215	0x3f15f3e5	0.5857528
216	0x3f3acaf2	0.7296592
217	0x3f06dba4	0.52678895
218	0x3f2cee2c	0.6755092
219	0x3f303516	0.68831
220	0x3e428f3a	0.18999949
221	0x3f60d7c6	0.87829244
222	0x3f0be968	0.54653025
223	0x3eaf6459	0.34256247
224	0x3ef05755	0.4694163
225	0x3f657bbf	0.89641947
226	0x3f5f81db	0.8730752
227	0x3f64a6ca	0.89317
228	0x3e368a31	0.17826153
229	0x3e9595db	0.29215893
230	0x3efdd380	0.49575424
231	0x3ee2f523	0.4432765
232	0x3ed00609	0.40629604
233	0x3f6d8af0	0.92790127
234	0x3e2aa09c	0.1666283
235	0x3e969532	0.29410702
236	0x3f083e5d	0.5322016
237	0x3e2eb346	0.17060575
238	0x3e7b4e02	0.24541476
239	0x3dec528e	0.115391836
240	0x3f53baf5	0.8270715
241	0x3e97612f	0.29566333
242	0x3ecd60b1	0.40112832
243	0x3f52ccbc	0.8234365
244	0x3bb3fd7c	0.005492864
245	0x3f04a1cc	0.5180938
246	0x3ed16612	0.40898186
247	0x3e53a00d	0.20666523
248	0x3ef1860b	0.4717258
249	0x3f162ad5	0.58659106
250	0x3f4c0aae	0.79703796
251	0x3f823b8f	1.0174426
252	0x3f1a8f8a	0.60375273
253	0x3eb23a94	0.34810317
254	0x3e43fea6	0.1914011
255	0x3e978bfd	0.2959899

fcs1_bn.bias f4 [400]
0	0xbdcf16a1	-0.10111738
1	0xbe173030	-0.14764476
2	0xbd4bc102	-0.049744613
3	0x3d6b3f67	0.057433512
4	0xbe0edec4	-0.13952166
5	0xbacf4724	-0.0015814048
6	0xbd109dbe	-0.035306685
7	0xbdbd47bd	-0.092421986
8	0xbd117eef	-0.035521444
9	0xbdf3199d	-0.1187012
10	0xbd8ff564	-0.070292264
11	0xbd183a33	-0.037164878
12	0xbd8d2a6c	-0.06892857
13	0xbd98e37b	-0.074652635
14	0xbe16612e	-0.14685509
15	0xbd9588e3	-0.073015
16	0xbc62185b	-0.013799752
17	0xbd8cc5a0	-0.068736315
18	0xbe01df90	-0.12682939
19	0xbe17357e	-0.147665
20	0xbdbef14b	-0.09323367
21	0xbd1c368a	-0.03813795
22	0xbe0a08df	-0.13479947
23	0xbe09ecc0	-0.13469219
24	0xbdae5ac9	-0.0851341
25	0xbe190ae8	-0.14945567
26	0xbd0687dd	-0.032844413
27	0xbce0a934	-0.027424432
28	0xbd95bd29	-0.0731147
29	0xbcd792dd	-0.026315147
30	0xbd0d2b88	-0.034465343
31	0xbd33c452	-0.043888398
32	0xbd850d09	-0.06496627
33	0xbd6034fe	-0.054738037
34	0xbd820252	-0.06348099
35	0xbd65414b	-0.05597047
36	0xbdbb225b	-0.09137412
37	0xbde531b2	-0.11191119
38	0xbd4a34dc	-0.049366817
39	0xbe01d444	-0.12678629
40	0xbd9f3487	-0.07773691
41	0xbdc480c7	-0.09594875
42	0xbd4e1307	-0.050311115
43	0xbd6110a2	-0.054947503
44	0xbdde2274	-0.10846415
45	0xbd3c7219	-0.04600725
46	0xbe042f80	-0.12908745
47	0xbdcccd14	-0.10000053
48	0xbd41ddbb	-0.0473306
49	0xbd0ffa3c	-0.03515075
50	0xbd1b3334	-0.037890628
51	0xbd874c68	-0.0660637
52	0xbd837798	-0.06419295
53	0xbcae7c0b	-0.021299383
54	0xbd9b5fb2	-0.07586612
55	0xbdcc33ef	-0.09970843
56	0xbd14a6d0	-0.036291897
57	0xbe00175b	-0.1250891
58	0xbd86c214	-0.06579986
59	0xbc0dcbb9	-0.008654528
60	0xbd67e02d	-0.056610275
61	0xbdcce264	-0.10004118
62	0xbe100c7b	-0.14067261
63	0xbde3769b	-0.111066066
64	0xbdf016be	-0.11723088
65	0xbda28234	-0.079349905
66	0xbc22843d	-0.009919223
67	0xbc475cef	-0.012168153
68	0xbb95d01d	-0.004571928
69	0xbe17b49e	-0.14814994
70	0xbd78a65a	-0.06070552
71	0xbdb6b145	-0.0892053
72	0xbdf790ee	-0.1208819
73	0xbd1e446f	-0.038639482
74	0xbd3075ed	-0.043081213
75	0xbd1af6de	-0.037833087
76	0xbce8accd	-0.02840271
77	0xbda2ad04	-0.07943156
78	0xbca3dc94	-0.02000264
79	0xbe1c8858	-0.15286386
80	0xbd3ddfed	-0.04635613
81	0x3a928cd7	0.001118089
82	0xbc60a30e	-0.01371075
83	0xbd923189	-0.07138354
84	0xbda5bd09	-0.08092696
85	0xbcfd259f	-0.030901728
86	0xbd8b3899	-0.067979045
87	0xbcc5a420	-0.024126112
88	0x3da1e17a	0.07904334
89	0xbd8e6580	-0.06952953
90	0xbcfdb187	-0.03096844
91	0xbdff4210	-0.12463772
92	0x3cdb0ea5	0.026740381
93	0xbdc7b9d4	-0.09752241
94	0x3ce6ac8b	0.028158447
95	0xbddc9fa5	-0.10772637
96	0xbd6b88c3	-0.057503473
97	0xbd1e2093	-0.038605284
98	0xbdfe625d	-0.12421105
99	0xbd2ef64a	-0.04271535
100	0xbd942e6f	-0.07235419
101	0xbcfd7183	-0.030937916
102	0xbd8038dd	-0.06260846
103	0xbde79c9a	-0.11309166
104	0x3cd9df1c	0.026595645
105	0xbbf5a5d6	-0.007496576
106	0xbd0844da	-0.033268787
107	0xbcd248ed	-0.02566954
108	0xbbcbabd4	-0.006215552
109	0xbd825904	-0.06364635
110	0xbd84e730	-0.06489408
111	0xbc19725b	-0.009365643
112	0xbd9c58e8	-0.07634145
113	0xbdb8411b	-0.08996793
114	0xbddb507a	-0.10708709
115	0xbdafbe6e	-0.085812435
116	0xbe1633d8	-0.14668214
117	0x3b281869	0.0025649315
118	0xbc8a26e7	-0.016864253
119	0xbda0de5c	-0.07854912
120	0xbc9baeba	-0.019004215
121	0xbd810450	-0.06299651
122	0xbd0b3cb3	-0.033993434
123	0xbdeacd87	-0.114649825
124	0xbdfc1386	-0.12308411
125	0xbd24fb05	-0.040278453
126	0xbd1c677e	-0.038184635
127	0xbd80f8a0	-0.062974215
128	0xbdee636b	-0.11640056
129	0xbe0585db	-0.13039343
130	0xbcf534b8	-0.029932365
131	0xbdc49b8e	-0.09599982
132	0xbd81fef4	-0.063474566
133	0x3cfe255c	0.031023674
134	0xbd258f0d	-0.040419627
135	0xbc77b84c	-0.015119623
136	0xbdcf1491	-0.101113446
137	0xbdd6fae9	-0.10497076
138	0xbd76298b	-0.060098212
139	0xbdc796bd	-0.09745548
140	0xbc518230	-0.012787387
141	0xbd7f2608	-0.06229213
142	0xbd957a3a	-0.072987035
143	0xbe206a0e	-0.15665457
144	0xbd917a50	-0.071034074
145	0xbd43e975	-0.047830064
146	0xbd8cf020	-0.06881738
147	0xbd4920e6	-0.04910364
148	0xbcfb8147	-0.030701293
149	0xbdfdc54e	-0.123911485
150	0xbcce406d	-0.025177205
151	0xbd8f340d	-0.0699235
152	0xbd691d58	-0.05691275
153	0xbda9cfc4	-0.08291581
154	0xbcf51a6c	-0.029919825
155	0xbd8e83bb	-0.06958719
156	0xbd668c6a	-0.056286253
157	0xbd948734	-0.072523504
158	0xbd1bb753	-0.03801663
159	0xbda0eb04	-0.07857326
160	0xbcd7dbdc	-0.026349954
161	0xbd41465c	-0.04718624
162	0xbd37b8ef	-0.0448541
163	0xbdc785a2	-0.09742285
164	0xbdd5ec03	-0.10445406
165	0xbd5b1703	-0.053488743
166	0xbd8269a6	-0.06367807
167	0xbd7135c2	-0.058889158
168	0xbc624c14	-0.013812084
169	0xbe2304bd	-0.15919776
170	0xbd2d1359	-0.04225478
171	0xbe4929f8	-0.19644916
172	0xbdc2db52	-0.09514488
173	0xb94739b1	-0.0001899961
174	0xbd36102b	-0.044449013
175	0xbd9aae9a	-0.07552834
176	0xbe1339ef	-0.14377569
177	0xbdca00a0	-0.098634005
178	0xbdceb76a	-0.10093577
179	0xbc8208c4	-0.01587332
180	0x3cc74e9a	0.024329472
181	0xbca0c501	-0.019625189
182	0xbda09456	-0.07840793
183	0xbdd53f9c	-0.10412523
184	0xbc866402	-0.01640511
185	0xbd871385	-0.0659552
186	0xbc94ab11	-0.018147977
187	0xbcd1c503	-0.025606638
188	0xbcbc6984	-0.022999533
189	0xbd1ee5b4	-0.03879328
190	0xbd279c11	-0.04092032
191	0xbd64f3a6	-0.055896424
192	0xbd3d8b87	-0.04627564
193	0xbde4780f	-0.11155712
194	0xbca23b04	-0.019803531
195	0xbd95e732	-0.07319488
196	0xbd6a11b1	-0.057145778
197	0xbd738664	-0.059454337
198	0xbd815d51	-0.06316627
199	0xbccbbcda	-0.024870325
200	0xbd1fb479	-0.03899047
201	0xbda86178	-0.08221716
202	0x3be6ce6b	0.00704365
203	0xbd713977	-0.058892693
204	0xbd03ca2a	-0.03217522
205	0xbd2a68ab	-0.041603725
206	0xbd3941af	-0.045228656
207	0xbddb5320	-0.10709214
208	0xbda07835	-0.07835428
209	0xbd61b914	-0.055108145
210	0x3cb03446	0.0215093
211	0xbd938c1f	-0.0720446
212	0xbd1fa402	-0.03897477
213	0xbd8c37fb	-0.06846615
214	0xbe095223	-0.13410239
215	0x3ca96d9c	0.020682149
216	0xbd8e1501	-0.069376
217	0xbcd439d8	-0.025906488
218	0xbdae1be0	-0.085014105
219	0xbdeab90e	-0.11461078
220	0xbd8556ad	-0.06510673
221	0xbcc9d09c	-0.024635606
222	0xbda7283c	-0.08161971
223	0xbc6c158b	-0.014409433
224	0xbe31a00c	-0.1734621
225	0xbdf3914d	-0.11892948
226	0xbe3779b2	-0.17917517
227	0xbd825f23	-0.06365802
228	0xbd8abeb3	-0.06774654
229	0xbcca8629	-0.024722176
230	0xbe070178	-0.13184154
231	0xbdb067cd	-0.086135484
232	0xbcf65268	-0.030068591
233	0xbdba479e	-0.09095691
234	0xbd98879d	-0.07447741
235	0xba58df2a	-0.0008273
236	0xbd47dd6a	-0.04879514
237	0xbdbc0ad7	-0.09181755
238	0xbd166569	-0.036717806
239	0xbce44bce	-0.027868178
240	0xbdd04659	-0.10169668
241	0xbd908a45	-0.07057623
242	0xbd07c1c8	-0.03314379
243	0xbc53e12b	-0.012932102
244	0xbca33bd3	-0.019925987
245	0xbcfb75a6	-0.030695748
246	0x3d038a93	0.032114577
247	0x3ba39262	0.0049918154
248	0xbd8511d0	-0.06497538
249	0xbd38ce11	-0.045118395
250	0xbda6e56e	-0.08149229
251	0xbd5d41d0	-0.05401784
252	0xbd3ea773	-0.04654641
253	0xbe39b833	-0.18136673
254	0xbda464ed	-0.080270626
255	0xbd5fb2c3	-0.05461384

fcs1_bn.running_mean f4 [400]
0	0xbeb0bb6a	-0.34517986
1	0xbe8f24f0	-0.2795787
2	0x3cb473ba	0.022027839
3	0x3e74ed6a	0.23918691
4	0x3e167dff	0.14696501
5	0xbf287f90	-0.65819645
6	0xbd49418a	-0.04913477
7	0xbe2acf14	-0.16680557
8	0xbe5663c5	-0.20936497
9	0x3e96fa62	0.29487902
10	0x3e0503ed	0.12989779
11	0x3ea97386	0.3309595
12	0x3dca0f7e	0.09866236
13	0x3e359dd7	0.17735992
14	0x3d876168	0.06610376
15	0x3d4e7cdc	0.050412044
16	0xbe5973b2	-0.2123554
17	0xbdb83335	-0.08994142
18	0xbf0e1431	-0.5549956
19	0x3f040ed4	0.51585126
20	0x3caeace0	0.021322668
21	0xbd704727	-0.058661606
22	0xbb5b4ec6	-0.00334637
23	0xbd354f12	-0.04426486
24	0x3eb75af4	0.3581158
25	0xbe5568df	-0.20840786
26	0x3dc047c4	0.09388688
27	0x3dc6da05	0.09709553
28	0x3e48815f	0.19580601
29	0xbd824860	-0.06361461
30	0x3e250bbe	0.1611776
31	0x3c80b7a5	0.015712569
32	0xbeeb3cfa	-0.4594496
33	0xbd24d6a2	-0.040243752
34	0xbe497575	-0.19673713
35	0xbe9278a5	-0.2860767
36	0x3bf89aff	0.0075868363
37	0x3d83c0cf	0.0643326
38	0x3e58062e	0.21096107
39	0x3e7826f6	0.24233612
40	0xbe2e9a09	-0.17050947
41	0x3d8a7b2f	0.06761777
42	0x3eeab618	0.45842052
43	0x3e0ce747	0.137601
44	0xbea9d43e	-0.3316974
45	0xbeafc9d3	-0.34333667
46	0x3db0e6d9	0.08637781
47	0xbe7d1c24	-0.24717766
48	0x3ec75360	0.38930798
49	0xbed8f090	-0.42371035
50	0x3e1cd0c1	0.15314008
51	0xbe7af556	-0.2450765
52	0xbe4ab0a5	-0.19793947
53	0x3ed99afb	0.42501053
54	0xbf119645	-0.5686992
55	0xbe2bdfa4	-0.16784531
56	0xbc64f31d	-0.013973978
57	0x3d9e6d9f	0.07735752
58	0x3dea9b35	0.11455385
59	0xbe5959b3	-0.21225624
60	0xbe8aaaf1	-0.27083543
61	0xbd3b767d	-0.045767296
62	0x3ec5d8df	0.38642022
63	0x3e152fea	0.14569059
64	0xbea11f2e	-0.314691
65	0xbec9ee68	-0.39439702
66	0x3d8a21b2	0.06744708
67	0x3d9e06de	0.077161536
68	0x3dddfb6b	0.1083897
69	0x3c6e95e0	0.0145621
70	0xbd3b7e7f	-0.045774933
71	0xbde72286	-0.11285882
72	0x3be13e55	0.0068738856
73	0x3de38381	0.11109067
74	0x3f4cb8e7	0.7996964
75	0xbe703cbd	-0.2346067
76	0xbe795983	-0.24350552
77	0xbe57e211	-0.21082331
78	0x3d2d3cf9	0.042294476
79	0x3e2e6451	0.17030455
80	0xbf05d9e1	-0.5228558
81	0x3daa4e3a	0.08315702
82	0xbedcba6a	-0.43110973
83	0x3c3077f2	0.010770785
84	0x3da24247	0.07922798
85	0xbda1edf0	-0.07906711
86	0xbe65a756	-0.22427115
87	0xbcd22897	-0.02565412
88	0xbda87927	-0.08226233
89	0xbe87db4e	-0.26534504
90	0xbf474f0e	-0.77855
91	0x3d2adff9	0.041717503
92	0xbd90d6b5	-0.07072202
93	0x3de1885c	0.110123366
94	0xbea54915	-0.3228232
95	0x3cdd39d3	0.027005112
96	0x3cf0503f	0.02933514
97	0x3e499e2c	0.19689244
98	0x3e1dbc73	0.15403919
99	0x3ddc03e0	0.107429266
100	0xbee06fb3	-0.4383522
101	0x3cfb3e9d	0.030669505
102	0xbe82eab9	-0.25569704
103	0xbe4334f0	-0.19063163
104	0x3ea2c71e	0.3179254
105	0x3e734dd6	0.23760161
106	0xbe22082b	-0.15823428
107	0xbe3060e9	-0.17224468
108	0xbe7bdb97	-0.24595486
109	0x3e6e35ad	0.23262663
110	0xbe06f3cc	-0.13178939
111	0x3d2eaa86	0.042643093
112	0xbd710d4e	-0.05885058
113	0xbed06aee	-0.4070658
114	0x3ea79799	0.32732847
115	0x3ec156cb	0.3776153
116	0xbeb7d08f	-0.35901305
117	0xbe89850e	-0.26859325
118	0xbe160690	-0.14650941
119	0xbebb4d93	-0.36582622
120	0xbe24f9d1	-0.16110922
121	0xbf2526e5	-0.64512473
122	0xbe62a8b8	-0.22134674
123	0x3e9d0934	0.30671084
124	0xbdfd4a1a	-0.123676494
125	0x3d9daef3	0.076993845
126	0xbe07f71c	-0.13277858
127	0xbea51a4e	-0.3224663
128	0x3e87ffcb	0.26562342
129	0x3df61939	0.120165296
130	0xbed2b743	-0.41155443
131	0x3e825aac	0.25459802
132	0x3ee3bf86	0.44482058
133	0x3eab6363	0.33474264
134	0xbe18fa24	-0.14939171
135	0x3dbcb87b	0.09214874
136	0xbe51f1e2	-0.20502427
137	0x3e1073a5	0.14106615
138	0x3eef3d6a	0.46726543
139	0x3e66a6bd	0.22524543
140	0xbea7d079	-0.3277624
141	0xbe9dceb4	-0.30821764
142	0xbe2e4190	-0.17017198
143	0x3dd41e0a	0.10357292
144	0xbf05d804	-0.5228274
145	0x3c33db1d	0.010977534
146	0xbdbb8f22	-0.0915816
147	0xbc0962fb	-0.008385415
148	0xbd9f9995	-0.07792965
149	0xbc7c5cae	-0.015402956
150	0xbe4e4cd4	-0.20146495
151	0xbd9342d3	-0.0719048
152	0x3e66e0ce	0.22546694
153	0xbe9cfc96	-0.30661458
154	0xbe27e6b4	-0.163966
155	0xbef8dce4	-0.48606026
156	0x39cf8d9c	0.00039587624
157	0xbecb6537	-0.39725658
158	0xbe9beba2	-0.3045321
159	0x3e3e8de7	0.18608819
160	0xbe8de1be	-0.2771129
161	0x3e97d689	0.29655865
162	0x3eda95d6	0.4269244
163	0x3e470199	0.19434203
164	0x3f129a66	0.57266843
165	0xbeddd69b	-0.43327793
166	0xbeceea2e	-0.4041304
167	0x3e10c677	0.14138208
168	0xbdce2417	-0.10065477
169	0x3e3db502	0.1852608
170	0xbe787c36	-0.24266133
171	0xbeec71eb	-0.46180663
172	0xbe9d55e8	-0.30729604
173	0xbeb01853	-0.34393558
174	0xbec946c4	-0.39311802
175	0x3e665ecf	0.22497104
176	0xbde827f9	-0.11335749
177	0xbece3719	-0.4027641
178	0x3ed0c60c	0.40776098
179	0xbcbc2530	-0.022966951
180	0xbe4aca1b	-0.1980366
181	0xbe682a5b	-0.22672407
182	0xbee9d858	-0.4567287
183	0xbf22c389	-0.6357961
184	0xbeb3cfb8	-0.35119414
185	0x3e014f8f	0.12628005
186	0x3dc93587	0.09824663
187	0xbe8a837c	-0.2705344
188	0x3ecefb26	0.40425986
189	0x3d8c0a89	0.06837947
190	0xbcc62dc2	-0.02419174
191	0xbe95775b	-0.29192623
192	0x3deadbfd	0.11467741
193	0xbdf568b4	-0.11982861
194	0x3e2d68f5	0.16934569
195	0xbe5fa194	-0.21838981
196	0x3e0fba8a	0.14036003
197	0xbe701240	-0.23444462
198	0x3e33d5a7	0.1756197
199	0xbe4c45a5	-0.19948442
200	0x3e17e2a2	0.14832547
201	0xbe71213f	-0.23547839
202	0x3dfdabf8	0.12386316
203	0xbe6a5cd5	-0.22886975
204	0xbe35b069	-0.17743076
205	0xbc3ea571	-0.011636124
206	0xbda6378a	-0.08116062
207	0xbdc94f2b	-0.09829553
208	0x3e4866e7	0.19570504
209	0x3e7ea490	0.24867463
210	0xbe10abf0	-0.14128089
211	0x3d023ef1	0.031798307
212	0x3f1d3af6	0.6141809
213	0xbe162761	-0.1466346
214	0x3d100e9c	0.035170183
215	0xbf1a115c	-0.6018274
216	0x3dfebe32	0.124386206
217	0xbec292ca	-0.38002616
218	0x3e222547	0.15834533
219	0xbcf59716	-0.02997927
220	0x3cbbd84a	0.022930283
221	0xbf106f54	-0.56419873
222	0xbdb4f5c9	-0.08835942
223	0xbdcb2e56	-0.09920947
224	0x3e76788c	0.24069422
225	0xbe741ce2	-0.23839143
226	0xbd1559e6	-0.036462687
227	0xbe7ab704	-0.24483877
228	0xbecbb544	-0.39786732
229	0xbd839f5e	-0.06426881
230	0x3d2f41c6	0.042787336
231	0x3e7f7396	0.24946436
232	0x3d91a8c9	0.07112271
233	0xbed4e24f	-0.4157891
234	0xbf2c5aa0	-0.6732578
235	0x3e8a7209	0.27040127
236	0x3db3f6ca	0.08787306
237	0xbc473c70	-0.0121604055
238	0x3d546d73	0.05186219
239	0xbd3987b3	-0.04529543
240	0xbe89665d	-0.2683591
241	0x3eac6baf	0.33675906
242	0x3e1d2cc4	0.15349108
243	0x3ea652a2	0.3248492
244	0x3cedb519	0.029017018
245	0x3c31836c	0.010834556
246	0xbed53d20	-0.41648197
247	0x3edba67f	0.42900464
248	0xbedbca8c	-0.42927969
249	0xbe4eefdc	-0.20208687
250	0x3f4ccd46	0.8000072
251	0x3e84d737	0.25945446
252	0xbf0811cc	-0.53152156
253	0xbdef2483	-0.11676886
254	0x3ecdf468	0.4022553
255	0xbe5ce43f	-0.21571444

fcs1_bn.running_var f4 [400]
0	0x409985a1	4.797562
1	0x40db3c82	6.851136
2	0x3f3e559e	0.7434939
3	0x3f883a88	1.0642862
4	0x3f8a6d05	1.081452
5	0x3f830c64	1.0238156
6	0x3fd19100	1.6372375
7	0x4003d896	2.0600944
8	0x40004e5c	2.0047827
9	0x3fd192ce	1.6372926
10	0x4056c80b	3.3559597
11	0x40a3abc9	5.11472
12	0x408c93b0	4.3930283
13	0x407ab7d8	3.917471
14	0x3f3652e6	0.7122024
15	0x3f685019	0.9074722
16	0x3f9d56d4	1.2292123
17	0x4094d278	4.650692
18	0x404de3eb	3.217036
19	0x3fa7a534	1.3097291
20	0x3f98a05a	1.1923935
21	0x40a797d5	5.237284
22	0x3fffb330	1.9976559
23	0x404eea2b	3.2330425
24	0x40324a81	2.7857974
25	0x400008b0	2.0005302
26	0x403575fb	2.835326
27	0x3fc4e728	1.5383043
28	0x404dc44c	3.215106
29	0x3feec58e	1.8654039
30	0x40753370	3.8312645
31	0x405808e9	3.3755438
32	0x3fc30fb2	1.5239165
33	0x3f6304e6	0.8867935
34	0x40301963	2.7515495
35	0x408af359	4.3422055
36	0x3f5b2549	0.8560377
37	0x40004ad7	2.0045679
38	0x3f93f275	1.1558367
39	0x410b4b1e	8.705839
40	0x3fc0ad22	1.5052836
41	0x40ada2e6	5.426135
42	0x3fa11b17	1.2586392
43	0x3f83fe13	1.0311912
44	0x3fa361c3	1.276421
45	0x3f85f28b	1.0464643
46	0x41026e6b	8.1519575
47	0x4051ce1e	3.2782054
48	0x40b72b61	5.7240453
49	0x3ffc06ef	1.9689616
50	0x3fbdb1b3	1.4819854
51	0x3f43d46d	0.7649601
52	0x3f08e2a8	0.5347085
53	0x3fbbb6b0	1.4665127
54	0x40cb9814	6.362314
55	0x3f09285e	0.5357722
56	0x3fa0400b	1.2519544
57	0x3fcaf930	1.5857296
58	0x4049fae1	3.1559374
59	0x40f75865	7.7295403
60	0x4058ca0f	3.3873327
61	0x4036bd89	2.8553183
62	0x3f8f6fdb	1.120601
63	0x408547e0	4.165024
64	0x3f896a82	1.0735629
65	0x4005e627	2.0921724
66	0x404202fb	3.031432
67	0x3fd67d83	1.6757053
68	0x3ff554d7	1.9166516
69	0x3f727232	0.947055
70	0x3f5f1c72	0.8715278
71	0x4075f915	3.8433278
72	0x403339bb	2.8003986
73	0x3faa1c1c	1.3289828
74	0x3ff645cf	1.9240054
75	0x40169219	2.352667
76	0x3f8cadbc	1.099052
77	0x40b56298	5.6682854
78	0x3f9ba9ae	1.2161157
79	0x3fefd252	1.873606
80	0x3fcd5fb6	1.6044834
81	0x40048388	2.070528
82	0x3f4eb708	0.80748034
83	0x3f40931c	0.7522447
84	0x3fc75ffe	1.557617
85	0x3f89d8f8	1.0769339
86	0x3f8877a5	1.0661513
87	0x40e58e66	7.1736326
88	0x400b2097	2.1738641
89	0x3f767db1	0.9628554
90	0x4073efde	3.8115153
91	0x40a58fc4	5.1737995
92	0x3ef74a7c	0.48299015
93	0x4083fe8f	4.124824
94	0x3f46242c	0.77398944
95	0x4074838e	3.8205295
96	0x3f50fa0d	0.8163155
97	0x3f71aa84	0.9440081
98	0x3f73e697	0.9527373
99	0x40112e00	2.2684326
100	0x3fe825ac	1.8136497
101	0x404ea8be	3.2290492
102	0x40716c1d	3.7722237
103	0x40533696	3.3002067
104	0x3fbb29d3	1.4622139
105	0x4045ef5f	3.092735
106	0x408bca4a	4.3684435
107	0x3f80effb	1.0073236
108	0x4086dee6	4.2147093
109	0x405aa494	3.416295
110	0x3fe7679f	1.8078498
111	0x3f60f0f8	0.8786769
112	0x3fb84be5	1.4398161
113	0x3fab02b0	1.3360195
114	0x3fe4b30f	1.7867144
115	0x40664d00	3.5984497
116	0x4090fbe7	4.53075
117	0x3fb09598	1.3795652
118	0x407d408e	3.957065
119	0x407d2d63	3.9558952
120	0x400ce4aa	2.2014565
121	0x3f760ccb	0.9611327
122	0x4048854d	3.133136
123	0x4048c96b	3.1372936
124	0x3f9c9881	1.223404
125	0x405017bc	3.2514486
126	0x40188797	2.3832757
127	0x3ff10fd8	1.883296
128	0x3fd9216e	1.6963327
129	0x405d2855	3.4555867
130	0x3f509531	0.8147765
131	0x402159ed	2.5211136
132	0x3fcb1329	1.5865222
133	0x3f86f2a3	1.0542797
134	0x40305b78	2.7555828
135	0x40461a5d	3.095359
136	0x3fa5087b	1.2893213
137	0x404d9488	3.2121906
138	0x3fd34254	1.6504617
139	0x4052f0a1	3.2959368
140	0x405f8095	3.492223
141	0x409164c7	4.543552
142	0x3f9bb227	1.2163743
143	0x4075c1fe	3.8399653
144	0x40ae8757	5.454021
145	0x403ebf07	2.9804094
146	0x400fdc0a	2.247805
147	0x3fb59a0a	1.4187634
148	0x400b3b29	2.1754858
149	0x402cdcd9	2.7009795
150	0x3fd194c0	1.637352
151	0x40a6aa1b	5.208265
152	0x3f360252	0.7109729
153	0x3f659aa7	0.89689106
154	0x408e4695	4.446116
155	0x401aa90f	2.4165685
156	0x3fc8863d	1.5665966
157	0x408854d4	4.260355
158	0x40b23db4	5.570032
159	0x3f9a60f4	1.2060838
160	0x3fed7c83	1.8553623
161	0x406b0ce3	3.6726615
162	0x3f58e3be	0.84722507
163	0x40b89469	5.7681165
164	0x3f6edcb7	0.93305534
165	0x40914014	4.539072
166	0x3f8c1cbf	1.0946273
167	0x4080ee11	4.029061
168	0x400e0794	2.2192125
169	0x3f818d3c	1.0121226
170	0x4139c047	11.609443
171	0x3f64b5b0	0.89339733
172	0x3fe82329	1.813573
173	0x3f80d1fa	1.006408
174	0x3f7a1d18	0.97700644
175	0x4028fc79	2.6404097
176	0x3febfd92	1.8436759
177	0x3f9a4958	1.2053633
178	0x40c3ea50	6.1223526
179	0x401b28b2	2.4243588
180	0x3f96ebb5	1.1790682
181	0x3f558ac5	0.8341487
182	0x40018d40	2.0242462
183	0x3fc868c6	1.5656974
184	0x3fe865c6	1.8156059
185	0x40002d8e	2.0027804
186	0x401c3a9c	2.4410772
187	0x3f824360	1.0176811
188	0x4001a519	2.0257018
189	0x4003e486	2.060823
190	0x3f5c67cc	0.8609588
191	0x3f88fe80	1.0702667
192	0x3f11d129	0.5695978
193	0x3f81729e	1.0113103
194	0x4052ee40	3.2957916
195	0x4063e59b	3.560889
196	0x40079023	2.1181724
197	0x4076f0b4	3.8584414
198	0x40b74f33	5.728418
199	0x4013751e	2.3040233
200	0x3fdc99ae	1.7234399
201	0x3fb79b13	1.43442
202	0x3fb90473	1.4454483
203	0x40d2a8ba	6.5830965
204	0x3f9f7ace	1.2459352
205	0x4097a141	4.7384343
206	0x3ffdf128	1.983922
207	0x3ffb8aa2	1.9651682
208	0x3fbf86a7	1.4962968
209	0x4089889f	4.2979274
210	0x3f7b602d	0.9819363
211	0x409d315c	4.9122753
212	0x400e2ab9	2.2213576
213	0x4070daac	3.7633467
214	0x404ca347	3.1974657
215	0x3f95910e	1.1684892
216	0x40976301	4.7308354
217	0x3fbd06cf	1.4767703
218	0x3fb5f4b0	1.4215298
219	0x3f87caf1	1.0608808
220	0x401f7e49	2.4920828
221	0x3ffe3c8b	1.9862226
222	0x40b14766	5.5399656
223	0x40b4eb20	5.653702
224	0x408c5c6a	4.386281
225	0x400a5642	2.1615148
226	0x3fdb5aef	1.7137126
227	0x3fffe6f2	1.9992354
228	0x3f933dc2	1.1503222
229	0x40cf582f	6.4795146
230	0x400a40ae	2.1601977
231	0x3f320ca8	0.6955056
232	0x401cf0cf	2.4521978
233	0x3fa60124	1.2969098
234	0x405c21ca	3.4395623
235	0x3fdd11ec	1.7271094
236	0x4002398d	2.0347626
237	0x40b7dbf6	5.7456007
238	0x3f6969f7	0.91177315
239	0x40d1f531	6.5611806
240	0x401c0d0d	2.4382966
241	0x3fb4d715	1.4128138
242	0x40242c55	2.5652058
243	0x3fffc77e	1.9982755
244	0x4031d93e	2.7788844
245	0x3f86b894	1.0525079
246	0x3fc15005	1.5102545
247	0x3fc52f4e	1.5405061
248	0x40cc7a7d	6.389952
249	0x402aa763	2.6664665
250	0x4071433d	3.769729
251	0x40931c50	4.597206
252	0x402e7cf8	2.7263775
253	0x4103fcb1	8.249192
254	0x402bc374	2.6838045
255	0x40b4fa7b	5.655576

fc2.weight f4 [300, 404]
0	0x3d24949d	0.04018079
1	0x3c2493df	0.010045021
2	0x3d3a0df6	0.04542347
3	0x3d3d673d	0.046241034
4	0xbc98791a	-0.018612433
5	0xbd82ff3b	-0.063963376
6	0xbd058ea7	-0.032606747
7	0xbd06b52b	-0.03288762
8	0x3cf9babb	0.030484548
9	0xbb065fd1	-0.0020503888
10	0xbd82fd0d	-0.06395922
11	0xbd359523	-0.04433168
12	0xbd9375e3	-0.072002195
13	0xbc6cd02c	-0.014453929
14	0x3c43eb3e	0.011957942
15	0xbcd153f7	-0.025552733
16	0xbcc6cbd3	-0.024267113
17	0x3d63fcba	0.05566094
18	0xbcd7a52a	-0.026323874
19	0x3d2f2982	0.042764194
20	0xbd652518	-0.05594358
21	0xbcafdbf3	-0.021467185
22	0xbc3b9d76	-0.011451116
23	0x3d615e15	0.055021364
24	0x3d334130	0.04376334
25	0xbda226ae	-0.07917534
26	0x3c454ec0	0.012042701
27	0xbc9d0e76	-0.019171935
28	0x3d57182b	0.052513283
29	0xbd512b27	-0.051066544
30	0x3d4744dc	0.048649654
31	0x3cfa89b1	0.030583235
32	0xbc619a1e	-0.013769655
33	0x3d6cb18c	0.05778651
34	0xbd4914b2	-0.049092002
35	0x3d2572c6	0.04039266
36	0xbc9d3563	-0.019190496
37	0x3a80e365	0.0009833394
38	0x3d80a36b	0.062811695
39	0x3c8fed21	0.017569127
40	0x3d4a693a	0.049416758
41	0xbd5526a1	-0.052038793
42	0xbda6b18f	-0.08139335
43	0xbd5895d2	-0.052877255
44	0x3a0959f7	0.0005239541
45	0xbda104bf	-0.07862233
46	0xbd5a7011	-0.05332953
47	0x3c6d6da3	0.014491471
48	0xbcf90765	-0.030399034
49	0xbd5a6079	-0.05331466
50	0xbd2e9d1a	-0.042630292
51	0xbd65aeec	-0.05607502
52	0xbd61da4b	-0.05513982
53	0xbd0d721e	-0.03453266
54	0xbdb76410	-0.08954632
55	0xbc7d1628	-0.015447177
56	0xbcba029b	-0.02270632
57	0x3cf10b35	0.02942429
58	0x3c243314	0.010021944
59	0xbd0ff1f0	-0.03514284
60	0x3d4cbdea	0.049985804
61	0x3d8015e8	0.06254178
62	0xbd171629	-0.036886368
63	0x3c9e4dc1	0.019324185
64	0x3baf4ff2	0.0053501064
65	0xbce7916c	-0.028267585
66	0xbc1a68fb	-0.009424443
67	0xbc774774	-0.015092719
68	0x3c58f13c	0.0132411085
69	0xbd3cc7dd	-0.046089042
70	0xbd820211	-0.063480504
71	0x3c8d0ec1	0.01721895
72	0x3c2e3f95	0.010635276
73	0xbd8771aa	-0.066134766
74	0xbceb830b	-0.02874901
75	0xbd52857c	-0.051396832
76	0xbd6e0ac2	-0.05811573
77	0xbda3a99e	-0.07991336
78	0x3c0f3bb9	0.008742266
79	0xbd03dc01	-0.032192234
80	0x3b8e24e0	0.004337892
81	0x3cd467df	0.025928436
82	0x3c5c6c34	0.013453532
83	0x3c1ca668	0.009561159
84	0xbd762fef	-0.060104307
85	0xbd3d5cb8	-0.046231
86	0x3d5843b3	0.052798938
87	0x3c0569d4	0.008142907
88	0xbd4879f5	-0.048944432
89	0x3bcd073e	0.006256967
90	0xbc1937f7	-0.009351722
91	0xba20127c	-0.000610627
92	0xbd06fe3e	-0.032957308
93	0xbcc332b9	-0.023827897
94	0x3cffba44	0.031216748
95	0x3ceb60c1	0.02873266
96	0x3d1c241b	0.03812037
97	0x3cafc698	0.021457002
98	0xbc78e34a	-0.015190909
99	0xbd86fd22	-0.0659125
100	0xbd9295f7	-0.0715751
101	0xbd2ad4ae	-0.041706733
102	0xbd643a23	-0.055719506
103	0x3be8a7a4	0.0071000624
104	0xbca8cbee	-0.020605054
105	0x3d1c9795	0.038230497
106	0xbd4b563a	-0.04964278
107	0xbcdb02b2	-0.026734684
108	0xbba40038	-0.005004909
109	0xbd3b822c	-0.04577844
110	0xbc75af88	-0.014995463
111	0x3d018bac	0.031627342
112	0xbd419a38	-0.047266215
113	0xbcf76cd4	-0.03020326
114	0x3c767cf1	0.015044437
115	0xbd5aa345	-0.053378362
116	0xbd136cfe	-0.035992615
117	0xbd190bf7	-0.037364926
118	0xbca63065	-0.020286748
119	0xbd38bd32	-0.045102306
120	0x3d4ed7d0	0.050498784
121	0xbd3087d8	-0.0430983
122	0x3bcfc40d	0.0063405097
123	0xbd7c18f9	-0.061547253
124	0xbb0da6f8	-0.0021614414
125	0x3d3dc1b6	0.046327315
126	0x3d525d04	0.051358238
127	0xbbe1d3fb	-0.006891725
128	0xbcf5779e	-0.029964264
129	0x3cd3c7be	0.02585208
130	0xbcaa7b3e	-0.02081072
131	0xbca107ba	-0.019657005
132	0xbcbb1bac	-0.022840343
133	0x3cde6c6b	0.027151307
134	0xbd8667e8	-0.06562787
135	0x3b01df56	0.0019816956
136	0xbbff8a5a	-0.007798475
137	0xbd9bd243	-0.076084636
138	0xbd06468b	-0.03278212
139	0xbb8d919e	-0.0043203374
140	0x3c09c88d	0.008409631
141	0x3ca70953	0.020390188
142	0x3d4406bd	0.04785799
143	0xbde49fc7	-0.111632876
144	0xbd5f1ec8	-0.054472715
145	0xbcf2c784	-0.029636152
146	0xbd0d8888	-0.034554034
147	0xbd63d9ec	-0.05562775
148	0x3d094bf8	0.033519715
149	0x3ae88ea4	0.0017742706
150	0xbd219272	-0.0394463
151	0x3c98ab1f	0.018636284
152	0xbb696d11	-0.0035617987
153	0xbd7cb4b9	-0.061695788
154	0xbd1d6041	-0.038421873
155	0x3b1a1cab	0.0023515623
156	0xbc65ac93	-0.014018196
157	0xbd558fb0	-0.052138984
158	0x3d02bee4	0.03192033
159	0x3bfe708d	0.007764882
160	0xbc07e78e	-0.008294953
161	0x3cc84012	0.024444614
162	0xbcf827fd	-0.030292505
163	0xbd1df66c	-0.038565084
164	0xbd367a8a	-0.044550456
165	0x3d4e3229	0.050340805
166	0xbd4a711d	-0.04942428
167	0xbc8d6b80	-0.017263174
168	0x3cfdb6bd	0.030970925
169	0xbbf954d3	-0.007608989
170	0x3d06f5b8	0.03294918
171	0xbbf7957f	-0.007555663
172	0xbd403709	-0.046927486
173	0xbd08991d	-0.033349145
174	0xbd631830	-0.05544299
175	0x3c742add	0.0149027975
176	0xbd0e50ce	-0.03474503
177	0xbd095c3a	-0.03353522
178	0x3bb99d8e	0.005664534
179	0x3d918270	0.07104957
180	0xbd672545	-0.056432027
181	0xbc63fe1b	-0.013915564
182	0x3cdb5e22	0.026778284
183	0x3cc9e360	0.024644554
184	0xbd9a4619	-0.07532901
185	0xbcd05e12	-0.025435481
186	0xbb0272bc	-0.0019904813
187	0x3d59af56	0.05314573
188	0x3c83de48	0.016097203
189	0x3c0b454a	0.0085004065
190	0xbd415aad	-0.047205616
191	0x3bee4ba8	0.0072722025
192	0xbd8a2dc8	-0.06747013
193	0x3cdce74d	0.026965762
194	0x3cf34b95	0.029699126
195	0x3ca74100	0.020416737
196	0xbd1b4e82	-0.037916668
197	0x3cfaaace	0.030599024
198	0x3d0f2f65	0.03495731
199	0x3c278f76	0.010227075
200	0x3d5957a8	0.05306211
201	0x3beca294	0.0072215293
202	0xbcf5be26	-0.029997896
203	0x3d13408d	0.035950232
204	0x3c6cc212	0.014450567
205	0x3c4e1edb	0.012580599
206	0xbdaf9d21	-0.08574892
207	0xbd1f4d35	-0.03889199
208	0xbd1f77bc	-0.038932547
209	0x3b9e7a55	0.0048363605
210	0xbc016e27	-0.0078997975
211	0x3c9de5e9	0.019274669
212	0x3d711a63	0.058863055
213	0xbb1f06f7	-0.0024265626
214	0xbdad0e25	-0.084499635
215	0xbc98fa42	-0.01867402
216	0xbd835f99	-0.06414718
217	0xbd331b8f	-0.043727454
218	0xbc6451a1	-0.0139354775
219	0x3c10aca5	0.008830224
220	0x3d0d4f40	0.034499407
221	0x3d51828e	0.051149897
222	0x3ca26466	0.019823264
223	0xbd095bf8	-0.033534974
224	0x3c09c02d	0.008407635
225	0xbc81b58e	-0.015833642
226	0xbd8cb317	-0.06870096
227	0xbd942290	-0.07233155
228	0x3cc9bd59	0.02462642
229	0xbbf1f864	-0.007384347
230	0xbc342f02	-0.010997536
231	0x3cd0a6d7	0.02547018
232	0x3cee2c13	0.02907375
233	0x3c9e5086	0.019325506
234	0xbadbc625	-0.0016767426
235	0x3bd308a2	0.006440238
236	0x3beeab4d	0.0072836042
237	0xbd2f3f4e	-0.04278498
238	0xbd104eda	-0.03523145
239	0xbd4e4865	-0.05036201
240	0xbd039579	-0.03212497
241	0xbd0a0e84	-0.03370525
242	0xbd296822	-0.041359074
243	0x3ccfab54	0.02535025
244	0x3d6917f4	0.05690761
245	0x3c036193	0.008018869
246	0x3cdbe6eb	0.026843509
247	0x3d23d4b6	0.03999778
248	0xbc85f376	-0.016351443
249	0xbd257b44	-0.04040076
250	0xbcc61880	-0.024181604
251	0xbd589178	-0.052873105
252	0xbb1b4731	-0.0023693556
253	0x3cf9d5ec	0.030497514
254	0xbc8c133c	-0.017099015
255	0xbd8f1843	-0.069870494
