agent_checkpoints/checkpoint_actor.pth (torch_old, 553585 bytes, 14 tensors)

fc1.weight f4 [400, 33]
-0.053541042 0.123890735 0.103918165 -0.04239782 -0.0356328 0.0067167534 -0.05483297 -0.004274725
0.0062290295 -0.04117953 -0.047869526 -0.0014421376 -0.05267033 -0.089459896 0.041121658 0.35160568
0.087123595 -0.02271795 -0.031482637 0.006350242 -0.11137606 -0.049002435 0.008050376 0.025373695
-0.075640455 0.0078584105 0.0025716978 0.07518401 -0.1454765 0.0065185837 -0.10812911 0.014513928
-0.052170828 -0.043708637 -0.18208791 0.09304574 -0.016572567 -0.0126371905 0.035572093 -0.06359658
0.011790425 -0.14309879 -0.076481126 -0.096575595 -0.019511668 -0.06400209 -0.056475844 0.24603102
-0.119475104 -0.028799955 -0.00019628453 -0.038033374 0.023986986 -0.011053014 -0.008275859 0.042308778
0.010237187 0.047556426 -0.050774433 0.11446126 0.14568092 0.07607559 -0.022388315 -0.06491276
-0.046004385 -0.36120275 -0.08371615 0.034282114 -0.09954298 0.026312074 -0.024744345 0.022263773
0.006687881 -0.07999497 -0.1840335 -0.033648845 -0.041338477 0.0039585014 0.034571033 0.10108269
-0.14306834 0.1200327 0.072961584 -0.017319776 -0.0010387069 0.0015972786 0.04304612 0.021662353
0.025716979 0.01568762 -0.045549728 0.021891726 0.120017536 0.0048925676 -0.043006875 0.029011402
0.012868832 -0.0052481666 1.2777809 -0.11991406 -0.046353787 0.18514313 -0.0056535406 0.07686454
0.029825658 0.007176247 0.015642101 0.22893472 -0.017372949 0.015062292 0.049260743 -0.013727989
0.0026773198 0.24203748 -0.10276456 0.03327415 -0.040824525 0.03338919 -0.05183608 -0.044143856
0.05061119 -0.003699987 0.1259957 0.056013543 -0.14258224 0.11988481 0.28596732 0.1617609
0.03956637 -0.32619312 -0.008606005 -1.0543565 -0.061805144 -0.04521652 0.12486846 -0.001489812
-0.06461322 -0.0016065183 0.015256854 0.16455576 0.08863804 0.054875553 -0.0037219785 0.15722139
-0.1349955 -0.1837301 -0.009596238 0.0036535328 -0.015133157 -0.024267102 0.035491418 0.00937845
-0.04054667 -0.03582142 -0.11547446 -0.11440277 -0.03607878 -0.031147758 -0.047487043 0.030039437
-0.10067315 0.0105185695 -0.06750876 0.042470668 0.02397726 -0.0074569723 -0.13023745 0.102530256
-0.0058878562 -0.025865704 0.059877742 0.007812897 -0.013583698 0.04970811 -0.27485517 -0.042106308
-0.18702908 -0.05469416 0.0942689 0.06743564 0.05005785 -0.0062254146 -0.010921855 0.02592868
0.057984438 0.051820036 -0.021546012 -0.058402427 0.02680765 0.13735189 0.07145875 -0.07519639
0.21855047 0.16186664 -0.0060855076 -0.19708592 0.043659043 0.13394566 0.024339221 0.038407892
0.035210945 0.037840135 -0.014030675 -0.0048538838 -0.003387302 0.11822443 0.05244333 0.015464481
-0.021421732 0.0074713407 -0.05237365 -0.0024860369 -0.032612436 -0.12752779 -0.033264063 0.008285354
-0.042575296 0.041181266 0.014331644 0.0701359 -0.0034413594 -0.02745333 -0.09873793 -0.05172371
-0.2655498 -0.18071163 -0.1506661 -0.003770519 0.24345526 -0.011064064 -1.2777668 0.03208151
-0.04852303 -0.13917117 -0.025399342 -0.028485617 -0.020735415 0.03137668 -0.051497057 0.110181935
-0.037485372 0.03947183 0.036540527 -0.017445207 -0.008343468 -0.103839695 0.13672644 0.0021136529
-0.011990873 -0.025167042 -0.00681462 0.0053814906 -0.045911048 0.04298151 0.12429539 -0.029025842
00000000: da4d 5bbd 6dba fd3d 0cd3 d43d 56a9 2dbd
00000010: b3f3 11bd 3618 dc3b 8998 60bd fe12 8cbb
00000020: e31c cc3b deab 28bd d612 44bd 1c06 bdba
00000030: d8bc 57bd c036 b7bd 2f6f 283d a905 b43e
00000040: db6d b23d ff1a babc f0f3 00bd b115 d03b
00000050: 2219 e4bd c7b6 48bd b9e5 033c 7fdc cf3c
00000060: 62e9 9abd 90c0 003c ee89 283b 13fa 993d
00000070: cbf7 14be d899 d53b cb72 ddbd d4cb 6d3c
00000080: 14b1 55bd d407 33bd 4175 3abe c48e be3d
00000090: 31c3 87bc 380c 4fbc 0bb4 113d ec3e 82bd
000000a0: a02c 413c 7d88 12be 23a2 9cbd 6dc9 c5bd
000000b0: efd6 9fbc 8713 83bd 3753 67bd 8eef 7b3e
000000c0: 5daf f4bd e2ed ebbc bad1 4db9 e2c8 1bbd
000000d0: 5b80 c43c b317 35bc 7897 07bc f84b 2d3d
000000e0: e0b9 273c 87ca 423d daf8 4fbd aa6a ea3d
000000f0: 612d 153e 85cd 9b3d b367 b7bc fbf0 84bd
00000100: 186f 3cbd 91ef b8be 5f73 abbd 676b 0c3d
00000110: 31dd cbbd 6b8c d73c a7b4 cabc 8462 b63c
00000120: 0326 db3b 67d4 a3bd 4773 3cbe 5fd3 09bd
00000130: 8952 29bd 51b6 813b 5b9a 0d3d 7104 cf3d
00000140: 8280 12be b4d3 f53d e26c 953d 34e2 8dbc
00000150: 3825 88ba c75b d13a 2151 303d 3f75 b13c
00000160: 6aac d23c 5383 803c 5a92 3abd 4756 b33c
00000170: c1cb f53d d551 a03b fa27 30bd 52a9 ed3c
00000180: cbd7 523c d0f8 abbb 538e a33f 8195 f5bd
00000190: 78dd 3dbd 2996 3d3e 5641 b9bb 286b 9d3d
000001a0: f054 f43c b926 eb3b dd23 803c dd6d 6a3e
000001b0: b751 8ebc d5c7 763c a2c5 493d 5ceb 60bc
000001c0: f975 2f3b acd8 773e 3a76 d2bd 7a4a 083d
000001d0: 9e37 27bd 1ac3 083d 1252 54bd 30d0 34bd
000001e0: ae4d 4f3d 7b7b 72bb 0405 013e 756e 653d
000001f0: 1401 12be 2b86 f53d 4f6a 923e a6a4 253e
00000200: 5910 223d c902 a7be 3400 0dbc 27f5 86bf
00000210: 6427 7dbd f534 39bd 09bb ff3d cc45 c3ba
00000220: f053 84bd cf91 d2ba e2f7 793c 4e81 283e
00000230: dc87 b53d 30c5 603d 70ec 73bb a5fe 203e
00000240: 433c 0abe be23 3cbe 8a39 1dbc 1c70 6f3b
00000250: 10f1 77bc cdcb c6bc 735f 113d 12a8 193c
00000260: 4414 26bd 7bb9 12bd e07d ecbd 004c eabd
00000270: 58c7 13bd 9529 ffbc c681 42bd 4415 f63c
00000280: b92d cebd 1456 2c3c 0842 8abd b9f5 2d3d
00000290: f56b c43c 9e59 f4bb f75c 05be 62fb d13d
000002a0: ebee c0bb 50e4 d3bc 5d42 753d aa01 003c
000002b0: 298e 5ebc bb9a 4b3d d1b9 8cbe aa77 2cbd
000002c0: 8d84 3fbe fc06 60bd 0e10 c13d b21b 8a3d
000002d0: 7609 4d3d 90fe cbbb 95f1 32bc 6268 d43c
000002e0: 1781 6d3d 3f41 543d 4381 b0bc 6237 6fbd
000002f0: b89b db3c f9a5 0c3e f758 923d 9100 9abd
00000300: b2cb 5f3e 5ec0 253e f068 c7bb e4d0 49be
00000310: d3d3 323d 0d29 093e 0c63 c73c 9851 1d3d
00000320: 5a39 103d 42fe 1a3d ebe0 65bc 540d 9fbb
00000330: 7ffd 5dbb a61f f23d d1ce 563d bc5e 7d3c
00000340: a17c afbc 26d2 f43b c185 56bd c7ec 22bb
00000350: 9e94 05bd a596 02be e63f 08bd 4bbf 073c
00000360: 6f63 2ebd b0ad 283d 46cf 6a3c 69a3 8f3d
00000370: 6e88 61bb cee5 e0bc 1d37 cabd 3edc 53bd
00000380: 25f6 87be 780c 39be 3748 1abe d01a 77bb
00000390: 564c 793e 0c46 35bc dd8d a3bf e767 033d
000003a0: 16c0 46bd e382 0ebe 4812 d0bc ab5a e9bc
000003b0: 51dd a9bc d584 003d 94ee 52bd 11a7 e13d
000003c0: 438a 19bd 37ad 213d 85ab 153d 40e9 8ebc
000003d0: 0bb3 08bc e8a9 d4bd 0402 0c3e 3685 0a3b
000003e0: 5e75 44bc 1d2b cebc 2d4d dfbb 3757 b03b
000003f0: 390d 3cbd 610d 303d 958e fe3d 9ac7 edbc

fc1.bias f4 [400]
-0.17444563 -0.17326468 0.21231246 -0.29203728 -0.18032607 -0.3850725 0.07659356 -0.14889997
-0.08579227 -0.13004057 0.16378804 -0.29738605 0.07428881 -0.037372086 -0.7654462 -0.1441805
-0.43334287 -0.17579469 -0.33065894 -0.2946152 -0.41498637 -0.409363 0.016835636 0.12762827
-0.14516117 -0.60985076 -0.12032161 0.09785892 0.27872613 0.26375198 -0.05928716 0.22856173
0.28236404 -0.14164089 0.17938046 -0.114681244 -0.2359649 0.410158 0.014965528 0.14196306
-0.0065741036 0.06329968 0.2242192 0.17293721 -0.09834857 -0.18722424 0.0103453165 0.23051077
-0.053610545 -0.068819 0.15448472 0.1749083 0.37066108 0.33238474 -0.06261729 0.083584204
0.15498015 -0.16170987 -0.053947356 -0.13667297 -0.27757278 -0.30022854 0.12915117 -0.0700471
0.0705792 -0.0067232563 0.16798507 -0.32547277 0.028942434 0.07749282 0.014301491 0.119880766
0.024579098 -0.014543954 0.30400804 0.07720011 -0.047106765 -0.13907313 0.35231102 -0.14769085
-0.09932508 0.027241549 -0.16443671 -0.082452565 -0.10726404 0.12934919 -0.06439439 0.033375446
0.07227115 -0.222351 0.086873546 -0.065736234 0.12746713 -0.16446032 0.13651878 -0.29530245
0.13920052 0.2077307 -0.06275493 0.13990483 -0.14152153 -0.01245736 -0.21483593 -0.00016094245
-0.31264398 0.19711448 0.27418172 -0.03846783 -0.06087793 0.092775926 -0.07658194 -0.32038897
-0.11236624 -0.014010908 0.20910305 0.16133758 -0.050269324 0.010692885 -0.36118454 -0.26820213
-0.10689123 -0.008777032 -0.11179811 0.18467008 -0.38779727 0.2673272 -0.046145607 -0.045234103
0.010340103 0.2743459 -0.28383648 -0.26679024 0.25708765 0.1986751 -0.124609224 0.29945824
-0.13803944 0.30956057 0.28763562 -0.31019115 0.11883586 -0.30683932 -0.091071695 0.40995282
-0.21469149 -0.0013407542 -0.15536697 -0.23070587 -0.064208664 -0.10718473 -0.10762965 0.15858224
-0.13469186 -0.269316 -0.15250446 -0.2725787 -0.09164848 -0.11437313 0.10716237 0.0038557386
-0.10066894 -0.082194425 0.0068160277 -0.039987005 0.13033062 0.0481231 0.00793548 0.2515474
-0.11987355 0.010775992 0.095738076 -0.27261695 -0.25554153 -0.10504042 -0.08954457 0.18860374
-0.43282616 -0.41431475 0.070901886 -0.111390926 0.25241834 -0.13374075 -0.11771411 -0.24897577
-0.10980911 -0.14350948 0.09318514 -0.012155841 -0.013157085 0.2133427 -0.117072724 -0.20191139
-0.039931625 0.23659948 -0.18622777 0.18867856 -0.1940547 -0.020394716 -0.026527349 -0.0014728485
0.017850269 -0.031489596 -0.27767807 0.07381128 -0.025721803 0.15367931 0.051896296 0.06801625
0.014844683 0.2668232 -0.1871904 0.17004922 -0.54716915 -0.15890174 0.2711261 -0.0071031926
-0.15556052 -0.05171423 0.09742301 -0.0049166023 -0.43704367 -0.32493138 -0.3173138 -0.31939694
0.33704856 0.018871598 0.15675157 0.19132508 0.07550776 0.13575248 -0.008901196 -0.15198262
0.18734099 -0.2860792 -0.08895322 0.09907181 -0.06989352 -0.37813395 -0.18738188 -0.04038265
0.2243504 -0.21044034 0.046223417 -0.007695453 -0.62044466 0.09725085 0.012493201 -0.057597592
-0.29512683 -0.04235458 -0.056722794 -0.20111506 -0.0062612467 0.07515076 0.029924188 0.1286238
00000000: e0a1 32be 4c6c 31be 7068 593e e985 95be
00000010: 66a7 38be 3928 c5be 16dd 9c3d 3c79 18be
00000020: dcb3 afbd 5b29 05be 0db8 273e fc42 98be
00000030: bb24 983d 7913 19bd 48f4 43bf 0ea4 13be
00000040: 1edf ddbe 8603 34be 214c a9be ced7 96be
00000050: 1879 d4be 0798 d1be e3ea 893c fcb0 023e
00000060: 21a5 14be 2e1f 1cbf 2d6b f6bd 426a c83d
00000070: 31b5 8e3e 800a 873e 18d7 72bd 160c 6a3e
00000080: 0592 903e 4f0a 11be 83af 373e 00de eabd
00000090: c8a0 71be 3b00 d23e f931 753c c45e 113e
000000a0: 946b d7bb 43a3 813d b899 653e 7416 313e
000000b0: fa6a c9bd b6b7 3fbe 677f 293c 040b 6c3e
000000c0: bb96 5bbd faf0 8cbd 3e31 1e3e 291b 333e
000000d0: 4ac7 bd3e 552e aa3e 7e3d 80bd 322e ab3d
000000e0: 1eb3 1e3e 4697 25be e7f7 5cbd 00f4 0bbe
000000f0: 051e 8ebe 8eb7 99be 3440 043e db74 8fbd
00000100: d48b 903d c34e dcbb 4704 2c3e 5ea4 a6be
00000110: af18 ed3c 8eb4 9e3d cd50 6a3c 0c84 f53d
00000120: 1b5a c93c c449 6ebc f1a6 9b3e 171b 9e3d
00000130: 06f3 40bd 3069 0ebe 1c62 b43e 453c 17be
00000140: f36a cbbd ab29 df3c 1962 28be e4dc a8bd
00000150: 40ad dbbd 1d74 043e 35e1 83bd b1b4 083d
00000160: e602 943d fbaf 63be c2ea b13d b8a0 86bd
00000170: be86 023e 4968 28be 94cb 0b3e e231 97be
00000180: 958a 0e3e 5bb7 543e a885 80bd 3643 0f3e
00000190: 05eb 10be f419 4cbc f3fd 5bbe a9c2 28b9
000001a0: df12 a0be 61d8 493e 8c61 8c3e 7190 1dbd
000001b0: 235b 79bd 4e01 be3d fed6 9cbd 060a a4be
000001c0: 4520 e6bd 028e 65bc 1c1f 563e ae35 253e
000001d0: 35e7 4dbd 3631 2f3c 2eed b8be ca51 89be
000001e0: cae9 dabd 8acd 0fbc 68f6 e4bd 271a 3d3e
000001f0: 5d8d c6be 1cdf 883e 2d03 3dbd 6547 39bd
00000200: 8969 293c 1177 8c3e 0453 91be bb98 88be
00000210: fea0 833e 7c71 4b3e 1f33 ffbd 9752 993e
00000220: 365a 0dbe b97e 9e3e fa44 933e 60d1 9ebe
00000230: 3760 f33d 0b1a 9dbe cc83 babd 56e5 d13e
00000240: 16d8 5bbe 3fbc afba 8518 1fbe 293e 6cbe
00000250: d57f 83bd ab83 dbbd ef6c dcbd 6263 223e
00000260: aaec 09be c9e3 89be 212a 1cbe 6f8f 8bbe
00000270: 33b2 bbbd 763c eabd f277 db3d 8fb0 7c3b
00000280: 842b cebd 8d55 a8bd fc58 df3b 6ac9 23bd
00000290: 6475 053e ba1c 453d d103 023c d2ca 803e
000002a0: 4480 f5bd c98d 303c 5312 c43d 7394 8bbe
000002b0: 57d6 82be 6f1f d7bd 2563 b7bd 5721 413e
000002c0: 649b ddbe 1021 d4be 0235 913d ed20 e4bd
000002d0: fa3c 813e 56f3 08be 1814 f1bd 81f3 7ebe
000002e0: 99e3 e0bd 26f4 12be dad7 be3d 4b29 47bc
000002f0: d090 57bc 8276 5a3e d3c3 efbd dcc1 4ebe
00000300: 588f 23bd 2247 723e 7eb2 3ebe f434 413e
00000310: 46b6 46be d212 a7bc e24f d9bc 980c c1ba
00000320: ba3a 923c 3cfb 00bd d22b 8ebe 5e2a 973d
00000330: 88b6 d2bc 1c5e 1d3e 3691 543d 1b4c 8b3d
00000340: 1d37 733c 0d9d 883e d7ae 3fbe 6221 2e3e
00000350: 4713 0cbf 23b7 22be 0ad1 8a3e e6c1 e8bb
00000360: 424b 1fbe 4dd2 53bd b785 c73d 731b a1bb
00000370: 30c4 dfbe 685d a6be f476 a2be ff87 a3be
00000380: a191 ac3e 9c98 9a3c 7c83 203e b9ea 433e
00000390: d0a3 9a3d b302 0b3e 52d6 11bc 55a1 1bbe
000003a0: 51d6 3f3e f978 92be 1b2d b6bd 29e6 ca3d
000003b0: 5524 8fbd c69a c1be 09e1 3fbe 4768 25bd
000003c0: 1cbc 653e ac7d 57be c454 3d3d 232a fcbb
000003d0: 76d5 1ebf 742b c73d 48b0 4c3c 74eb 6bbd
000003e0: dd1a 97be ff7b 2dbd 2956 68bd 1bf1 4dbe
000003f0: 252b cdbb a4e8 993d 9223 f53c f5b5 033e

fc1_bn.weight f4 [400]
0.4541511 0.87918574 0.95297563 0.86249584 0.41871202 0.2533688 0.89360857 0.35419202
0.5175505 0.9616706 0.46035528 0.872627 0.21261132 0.50734866 0.9964455 0.500617
0.17465472 0.60608745 0.25619954 0.77338874 0.8646404 0.4112035 0.8013164 0.9103149
0.8483236 0.7962304 0.033418596 0.089939415 0.90046996 0.6876969 0.1079855 0.92900896
0.53347206 0.048896432 0.29920995 0.07848555 0.3246765 0.45279658 0.4572832 0.43005747
0.45004243 0.9070688 0.84888774 0.04124731 0.6167332 0.24370986 0.4055202 0.3039319
0.24725926 0.23000342 0.005438268 0.3090598 0.4031211 0.04027635 0.6581733 0.23535609
0.35650736 0.70095414 0.9813486 0.73939824 0.12910992 0.8618304 0.44929713 0.68259585
0.19240135 0.9678 0.18078434 0.81400615 0.91908693 0.5487162 0.8874783 0.7981575
0.4245839 0.56320345 0.510503 0.41910833 0.05702895 0.7826343 0.022119403 0.6824462
0.31809556 0.5317146 0.3968768 0.21448046 0.31231517 0.04929465 0.20191324 0.7594969
0.91277426 0.02501607 0.38592046 0.5448257 0.22176945 0.5927121 0.44501168 0.5825984
0.22204697 0.06918645 0.44782138 0.840668 0.93490756 0.8968057 0.52645296 0.8769538
0.29583752 0.86365837 0.5775248 0.12119269 0.3360108 0.9451072 0.31594527 0.0057796836
0.98275125 0.655765 0.61086744 0.2788651 0.95247287 0.91125196 0.09522122 0.7193279
0.958336 0.1204223 0.6445312 0.2873448 0.8553253 0.84317666 0.75743455 0.3675388
0.9050835 0.38051498 0.8316467 0.73637307 0.088569224 0.18448597 0.45963085 0.08953625
0.37105072 0.7707291 0.9520754 0.46045393 0.38027495 0.122951984 0.65177035 0.57154626
0.7133827 0.077089965 0.5244162 0.27901047 0.21783996 0.7484919 0.09054059 0.20118582
0.86817664 0.17302144 0.8368419 0.31751072 0.15815938 0.46770865 0.19239616 0.6311493
0.8558082 0.12114555 0.16162884 0.41315454 0.5164531 0.93289524 0.8927379 0.22944331
0.8262406 0.78935283 0.11699146 0.8095037 0.9819858 0.3829555 0.931623 0.9744004
0.6255908 0.51080626 0.91496956 0.84567064 0.97579134 0.17936832 0.67052954 0.80520815
0.17452759 0.58505535 0.228427 0.13964438 0.9911993 0.09467906 0.04236138 0.91638374
0.79579544 0.612387 0.8615887 0.5151334 0.3402937 0.4260661 0.5935939 0.022058964
0.046347618 0.3202741 0.55675656 0.83100075 0.26440084 0.07859784 0.051041722 0.49160522
0.18707687 0.3901335 0.1773588 0.7253297 0.33314812 0.15059018 0.6579282 0.48059464
0.8120373 0.5270137 0.7069096 0.6670275 0.2203123 0.8995727 0.5905352 0.42596042
0.57075065 0.95158863 0.868768 0.9231334 0.21553248 0.37769526 0.6113295 0.43197393
0.40587193 0.8762289 0.23178989 0.27042127 0.5718294 0.27088708 0.2159512 0.100241005
0.8368749 0.2508824 0.43729126 0.8250744 0.020527482 0.49347347 0.2691294 0.14046854
0.56247574 0.65383714 0.82436836 0.99904424 0.6637375 0.49091262 0.23559755 0.3594914
00000000: 7e86 e83e 5112 613f 36f6 733f 87cc 5c3f
00000010: 6c61 d63e 8eb9 813e 88c3 643f a858 b53e
00000020: 317e 043f 0b30 763f b0b3 eb3e 7c64 5f3f
00000030: c8b6 593e 9ae1 013f 0d17 7f3f 7028 003f
00000040: b0d8 323e 8c28 1b3f 962c 833e cefc 453f
00000050: 1359 5d3f 4489 d23e 1223 4d3f 660a 693f
00000060: bc2b 593f c1d5 4b3f f0e1 083d 2832 b83d
00000070: 3385 663f e70c 303f 8027 dd3d 88d3 6d3f
00000080: a091 083f a047 483d 0c32 993e 08bd a03d
00000090: 003c a63e f4d4 e73e 0621 ea3e 7e30 dc3e
000000a0: f66b e63e a935 683f b550 593f f0f2 283d
000000b0: 3ae2 1d3f 148f 793e 58a0 cf3e f69c 9b3e
000000c0: 8831 7d3e 0486 6b3e 8033 b23b 163d 9e3e
000000d0: e465 ce3e d0f8 243d 0c7e 283f 3001 713e
000000e0: 2288 b63e bb71 333f a939 7b3f 3449 3d3f
000000f0: 6435 043e eba0 5c3f 460a e63e 9abe 2e3f
00000100: dc04 453e bec1 773f 881f 393e b562 503f
00000110: 4849 6b3f aa78 0c3f c731 633f 0d54 4c3f
00000120: 1063 d93e 1a2e 103f 53b0 023f 5e95 d63e
00000130: 3097 693d b95a 483f c033 b53c cbb4 2e3f
00000140: 6cdd a23e 731e 083f 7033 cb3e c4a0 5b3e
00000150: c6e7 9f3e 30e9 493d 58c2 4e3e 646e 423f
00000160: 93ab 693f 80ee cc3c 5e97 c53e b279 0b3f
00000170: 8817 633e fbbb 173f 92d8 e33e 2b25 153f
00000180: 4860 633e a0b1 8d3d d848 e53e 0536 573f
00000190: 1a56 6f3f 0f95 653f 9fc5 063f 0b80 603f
000001a0: 0478 973e b718 5d3f aad8 133f e033 f83d
000001b0: 9c09 ac3e 8cf2 713f 94c3 a13e 8063 bd3b
000001c0: 9695 7b3f 37e0 273f cf61 1c3f 68c7 8e3e
000001d0: 43d5 733f cf47 693f 5803 c33d e025 383f
000001e0: 8255 753f f89f f63d ffff 243f dc1e 933e
000001f0: 99f6 5a3f 6dda 573f 3be7 413f 0c2e bc3e
00000200: 8db3 673f dcd2 c23e cce6 543f f282 3c3f
00000210: c863 b53d e4e9 3c3e bc54 eb3e c85e b73d
00000220: 5cfa bd3e 814e 453f 37bb 733f 9ec0 eb3e
00000230: 66b3 c23e 40ce fb3d 6cda 263f db50 123f
00000240: 40a0 363f 58e1 9d3d 2440 063f 76da 8e3e
00000250: 7011 5f3e 2a9d 3f3f 586d b93d a803 4e3e
00000260: d340 5e3f 882c 313e 453b 563f c490 a23e
00000270: 88f4 213e 8277 ef3e 8003 453e 0093 213f
00000280: 3f16 5b3f 281b f83d 0882 253e fe88 d33e
00000290: 4536 043f 39d2 6e3f 798a 643f 30f3 6a3e
000002a0: 8184 533f 0713 4a3f 3899 ef3d a23b 4f3f
000002b0: 6c63 7b3f be12 c43e d87e 6e3f 4e72 793f
000002c0: b826 203f 33c4 023f 723b 6a3f df7d 583f
000002d0: 76cd 793f 54ac 373e d3a7 2b3f 1f22 4e3f
000002e0: 5cb7 323e 30c6 153f c4e8 693e f0fe 0e3e
000002f0: 3dbf 7d3f 18e7 c13d 2083 2d3d 2098 6a3f
00000300: 40b9 4b3f 65c5 1c3f 1491 5c3f c8df 033f
00000310: fa3a ae3e 5625 da3e c5f5 173f 00b5 b43c
00000320: 00d7 3d3d f8fa a33e 9987 0e3f 77bc 543f
00000330: 8c5f 873e e8f7 a03d 2011 513d aeb3 fb3e
00000340: 1491 3f3e 94bf c73e 8c9d 353e 35af 393f
00000350: 6492 aa3e 5034 1a3e fc6d 283f 8010 f63e
00000360: ade1 4f3f 5fea 063f 07f8 343f 50c2 2a3f
00000370: 8c99 613e 654a 663f 512d 173f 7c17 da3e
00000380: b71c 123f 509b 733f 9467 5e3f 7852 6c3f
00000390: 8cb4 5c3e 4661 c13e 1780 1c3f b02b dd3e
000003a0: 72ce cf3e 8a50 603f 545a 6d3e a874 8a3e
000003b0: 6963 123f b6b1 8a3e 5022 5d3e 284b cd3d
000003c0: 6f3d 563f a873 803e a4e4 df3e 1338 533f
000003d0: 4029 a83c 8ea8 fc3e 54cb 893e fcd6 0f3e
000003e0: 69fe 0f3f df61 273f ce09 533f 5dc1 7f3f
000003f0: b3ea 293f e658 fb3e 7c40 713e 420f b83e

fc1_bn.bias f4 [400]
0.0 0.0 0.0 0.0 0.0 0.0 0.0 0.0
0.0 0.0 0.0 0.0 0.0 0.0 0.0 0.0
0.0 0.0 0.0 0.0 0.0 0.0 0.0 0.0
0.0 0.0 0.0 0.0 0.0 0.0 0.0 0.0
0.0 0.0 0.0 0.0 0.0 0.0 0.0 0.0
0.0 0.0 0.0 0.0 0.0 0.0 0.0 0.0
0.0 0.0 0.0 0.0 0.0 0.0 0.0 0.0
0.0 0.0 0.0 0.0 0.0 0.0 0.0 0.0
0.0 0.0 0.0 0.0 0.0 0.0 0.0 0.0
0.0 0.0 0.0 0.0 0.0 0.0 0.0 0.0
0.0 0.0 0.0 0.0 0.0 0.0 0.0 0.0
0.0 0.0 0.0 0.0 0.0 0.0 0.0 0.0
0.0 0.0 0.0 0.0 0.0 0.0 0.0 0.0
0.0 0.0 0.0 0.0 0.0 0.0 0.0 0.0
0.0 0.0 0.0 0.0 0.0 0.0 0.0 0.0
0.0 0.0 0.0 0.0 0.0 0.0 0.0 0.0
0.0 0.0 0.0 0.0 0.0 0.0 0.0 0.0
0.0 0.0 0.0 0.0 0.0 0.0 0.0 0.0
0.0 0.0 0.0 0.0 0.0 0.0 0.0 0.0
0.0 0.0 0.0 0.0 0.0 0.0 0.0 0.0
0.0 0.0 0.0 0.0 0.0 0.0 0.0 0.0
0.0 0.0 0.0 0.0 0.0 0.0 0.0 0.0
0.0 0.0 0.0 0.0 0.0 0.0 0.0 0.0
0.0 0.0 0.0 0.0 0.0 0.0 0.0 0.0
0.0 0.0 0.0 0.0 0.0 0.0 0.0 0.0
0.0 0.0 0.0 0.0 0.0 0.0 0.0 0.0
0.0 0.0 0.0 0.0 0.0 0.0 0.0 0.0
0.0 0.0 0.0 0.0 0.0 0.0 0.0 0.0
0.0 0.0 0.0 0.0 0.0 0.0 0.0 0.0
0.0 0.0 0.0 0.0 0.0 0.0 0.0 0.0
0.0 0.0 0.0 0.0 0.0 0.0 0.0 0.0
0.0 0.0 0.0 0.0 0.0 0.0 0.0 0.0
00000000: 0000 0000 0000 0000 0000 0000 0000 0000
00000010: 0000 0000 0000 0000 0000 0000 0000 0000
00000020: 0000 0000 0000 0000 0000 0000 0000 0000
00000030: 0000 0000 0000 0000 0000 0000 0000 0000
00000040: 0000 0000 0000 0000 0000 0000 0000 0000
00000050: 0000 0000 0000 0000 0000 0000 0000 0000
00000060: 0000 0000 0000 0000 0000 0000 0000 0000
00000070: 0000 0000 0000 0000 0000 0000 0000 0000
00000080: 0000 0000 0000 0000 0000 0000 0000 0000
00000090: 0000 0000 0000 0000 0000 0000 0000 0000
000000a0: 0000 0000 0000 0000 0000 0000 0000 0000
000000b0: 0000 0000 0000 0000 0000 0000 0000 0000
000000c0: 0000 0000 0000 0000 0000 0000 0000 0000
000000d0: 0000 0000 0000 0000 0000 0000 0000 0000
000000e0: 0000 0000 0000 0000 0000 0000 0000 0000
000000f0: 0000 0000 0000 0000 0000 0000 0000 0000
00000100: 0000 0000 0000 0000 0000 0000 0000 0000
00000110: 0000 0000 0000 0000 0000 0000 0000 0000
00000120: 0000 0000 0000 0000 0000 0000 0000 0000
00000130: 0000 0000 0000 0000 0000 0000 0000 0000
00000140: 0000 0000 0000 0000 0000 0000 0000 0000
00000150: 0000 0000 0000 0000 0000 0000 0000 0000
00000160: 0000 0000 0000 0000 0000 0000 0000 0000
00000170: 0000 0000 0000 0000 0000 0000 0000 0000
00000180: 0000 0000 0000 0000 0000 0000 0000 0000
00000190: 0000 0000 0000 0000 0000 0000 0000 0000
000001a0: 0000 0000 0000 0000 0000 0000 0000 0000
000001b0: 0000 0000 0000 0000 0000 0000 0000 0000
000001c0: 0000 0000 0000 0000 0000 0000 0000 0000
000001d0: 0000 0000 0000 0000 0000 0000 0000 0000
000001e0: 0000 0000 0000 0000 0000 0000 0000 0000
000001f0: 0000 0000 0000 0000 0000 0000 0000 0000
00000200: 0000 0000 0000 0000 0000 0000 0000 0000
00000210: 0000 0000 0000 0000 0000 0000 0000 0000
00000220: 0000 0000 0000 0000 0000 0000 0000 0000
00000230: 0000 0000 0000 0000 0000 0000 0000 0000
00000240: 0000 0000 0000 0000 0000 0000 0000 0000
00000250: 0000 0000 0000 0000 0000 0000 0000 0000
00000260: 0000 0000 0000 0000 0000 0000 0000 0000
00000270: 0000 0000 0000 0000 0000 0000 0000 0000
00000280: 0000 0000 0000 0000 0000 0000 0000 0000
00000290: 0000 0000 0000 0000 0000 0000 0000 0000
000002a0: 0000 0000 0000 0000 0000 0000 0000 0000
000002b0: 0000 0000 0000 0000 0000 0000 0000 0000
000002c0: 0000 0000 0000 0000 0000 0000 0000 0000
000002d0: 0000 0000 0000 0000 0000 0000 0000 0000
000002e0: 0000 0000 0000 0000 0000 0000 0000 0000
000002f0: 0000 0000 0000 0000 0000 0000 0000 0000
00000300: 0000 0000 0000 0000 0000 0000 0000 0000
00000310: 0000 0000 0000 0000 0000 0000 0000 0000
00000320: 0000 0000 0000 0000 0000 0000 0000 0000
00000330: 0000 0000 0000 0000 0000 0000 0000 0000
00000340: 0000 0000 0000 0000 0000 0000 0000 0000
00000350: 0000 0000 0000 0000 0000 0000 0000 0000
00000360: 0000 0000 0000 0000 0000 0000 0000 0000
00000370: 0000 0000 0000 0000 0000 0000 0000 0000
00000380: 0000 0000 0000 0000 0000 0000 0000 0000
00000390: 0000 0000 0000 0000 0000 0000 0000 0000
000003a0: 0000 0000 0000 0000 0000 0000 0000 0000
000003b0: 0000 0000 0000 0000 0000 0000 0000 0000
000003c0: 0000 0000 0000 0000 0000 0000 0000 0000
000003d0: 0000 0000 0000 0000 0000 0000 0000 0000
000003e0: 0000 0000 0000 0000 0000 0000 0000 0000
000003f0: 0000 0000 0000 0000 0000 0000 0000 0000

fc1_bn.running_mean f4 [400]
0.0 0.0 0.0 0.0 0.0 0.0 0.0 0.0
0.0 0.0 0.0 0.0 0.0 0.0 0.0 0.0
0.0 0.0 0.0 0.0 0.0 0.0 0.0 0.0
0.0 0.0 0.0 0.0 0.0 0.0 0.0 0.0
0.0 0.0 0.0 0.0 0.0 0.0 0.0 0.0
0.0 0.0 0.0 0.0 0.0 0.0 0.0 0.0
0.0 0.0 0.0 0.0 0.0 0.0 0.0 0.0
0.0 0.0 0.0 0.0 0.0 0.0 0.0 0.0
0.0 0.0 0.0 0.0 0.0 0.0 0.0 0.0
0.0 0.0 0.0 0.0 0.0 0.0 0.0 0.0
0.0 0.0 0.0 0.0 0.0 0.0 0.0 0.0
0.0 0.0 0.0 0.0 0.0 0.0 0.0 0.0
0.0 0.0 0.0 0.0 0.0 0.0 0.0 0.0
0.0 0.0 0.0 0.0 0.0 0.0 0.0 0.0
0.0 0.0 0.0 0.0 0.0 0.0 0.0 0.0
0.0 0.0 0.0 0.0 0.0 0.0 0.0 0.0
0.0 0.0 0.0 0.0 0.0 0.0 0.0 0.0
0.0 0.0 0.0 0.0 0.0 0.0 0.0 0.0
0.0 0.0 0.0 0.0 0.0 0.0 0.0 0.0
0.0 0.0 0.0 0.0 0.0 0.0 0.0 0.0
0.0 0.0 0.0 0.0 0.0 0.0 0.0 0.0
0.0 0.0 0.0 0.0 0.0 0.0 0.0 0.0
0.0 0.0 0.0 0.0 0.0 0.0 0.0 0.0
0.0 0.0 0.0 0.0 0.0 0.0 0.0 0.0
0.0 0.0 0.0 0.0 0.0 0.0 0.0 0.0
0.0 0.0 0.0 0.0 0.0 0.0 0.0 0.0
0.0 0.0 0.0 0.0 0.0 0.0 0.0 0.0
0.0 0.0 0.0 0.0 0.0 0.0 0.0 0.0
0.0 0.0 0.0 0.0 0.0 0.0 0.0 0.0
0.0 0.0 0.0 0.0 0.0 0.0 0.0 0.0
0.0 0.0 0.0 0.0 0.0 0.0 0.0 0.0
0.0 0.0 0.0 0.0 0.0 0.0 0.0 0.0
00000000: 0000 0000 0000 0000 0000 0000 0000 0000
00000010: 0000 0000 0000 0000 0000 0000 0000 0000
00000020: 0000 0000 0000 0000 0000 0000 0000 0000
00000030: 0000 0000 0000 0000 0000 0000 0000 0000
00000040: 0000 0000 0000 0000 0000 0000 0000 0000
00000050: 0000 0000 0000 0000 0000 0000 0000 0000
00000060: 0000 0000 0000 0000 0000 0000 0000 0000
00000070: 0000 0000 0000 0000 0000 0000 0000 0000
00000080: 0000 0000 0000 0000 0000 0000 0000 0000
00000090: 0000 0000 0000 0000 0000 0000 0000 0000
000000a0: 0000 0000 0000 0000 0000 0000 0000 0000
000000b0: 0000 0000 0000 0000 0000 0000 0000 0000
000000c0: 0000 0000 0000 0000 0000 0000 0000 0000
000000d0: 0000 0000 0000 0000 0000 0000 0000 0000
000000e0: 0000 0000 0000 0000 0000 0000 0000 0000
000000f0: 0000 0000 0000 0000 0000 0000 0000 0000
00000100: 0000 0000 0000 0000 0000 0000 0000 0000
00000110: 0000 0000 0000 0000 0000 0000 0000 0000
00000120: 0000 0000 0000 0000 0000 0000 0000 0000
00000130: 0000 0000 0000 0000 0000 0000 0000 0000
00000140: 0000 0000 0000 0000 0000 0000 0000 0000
00000150: 0000 0000 0000 0000 0000 0000 0000 0000
00000160: 0000 0000 0000 0000 0000 0000 0000 0000
00000170: 0000 0000 0000 0000 0000 0000 0000 0000
00000180: 0000 0000 0000 0000 0000 0000 0000 0000
00000190: 0000 0000 0000 0000 0000 0000 0000 0000
000001a0: 0000 0000 0000 0000 0000 0000 0000 0000
000001b0: 0000 0000 0000 0000 0000 0000 0000 0000
000001c0: 0000 0000 0000 0000 0000 0000 0000 0000
000001d0: 0000 0000 0000 0000 0000 0000 0000 0000
000001e0: 0000 0000 0000 0000 0000 0000 0000 0000
000001f0: 0000 0000 0000 0000 0000 0000 0000 0000
00000200: 0000 0000 0000 0000 0000 0000 0000 0000
00000210: 0000 0000 0000 0000 0000 0000 0000 0000
00000220: 0000 0000 0000 0000 0000 0000 0000 0000
00000230: 0000 0000 0000 0000 0000 0000 0000 0000
00000240: 0000 0000 0000 0000 0000 0000 0000 0000
00000250: 0000 0000 0000 0000 0000 0000 0000 0000
00000260: 0000 0000 0000 0000 0000 0000 0000 0000
00000270: 0000 0000 0000 0000 0000 0000 0000 0000
00000280: 0000 0000 0000 0000 0000 0000 0000 0000
00000290: 0000 0000 0000 0000 0000 0000 0000 0000
000002a0: 0000 0000 0000 0000 0000 0000 0000 0000
000002b0: 0000 0000 0000 0000 0000 0000 0000 0000
000002c0: 0000 0000 0000 0000 0000 0000 0000 0000
000002d0: 0000 0000 0000 0000 0000 0000 0000 0000
000002e0: 0000 0000 0000 0000 0000 0000 0000 0000
000002f0: 0000 0000 0000 0000 0000 0000 0000 0000
00000300: 0000 0000 0000 0000 0000 0000 0000 0000
00000310: 0000 0000 0000 0000 0000 0000 0000 0000
00000320: 0000 0000 0000 0000 0000 0000 0000 0000
00000330: 0000 0000 0000 0000 0000 0000 0000 0000
00000340: 0000 0000 0000 0000 0000 0000 0000 0000
00000350: 0000 0000 0000 0000 0000 0000 0000 0000
00000360: 0000 0000 0000 0000 0000 0000 0000 0000
00000370: 0000 0000 0000 0000 0000 0000 0000 0000
00000380: 0000 0000 0000 0000 0000 0000 0000 0000
00000390: 0000 0000 0000 0000 0000 0000 0000 0000
000003a0: 0000 0000 0000 0000 0000 0000 0000 0000
000003b0: 0000 0000 0000 0000 0000 0000 0000 0000
000003c0: 0000 0000 0000 0000 0000 0000 0000 0000
000003d0: 0000 0000 0000 0000 0000 0000 0000 0000
000003e0: 0000 0000 0000 0000 0000 0000 0000 0000
000003f0: 0000 0000 0000 0000 0000 0000 0000 0000

fc1_bn.running_var f4 [400]
1.0 1.0 1.0 1.0 1.0 1.0 1.0 1.0
1.0 1.0 1.0 1.0 1.0 1.0 1.0 1.0
1.0 1.0 1.0 1.0 1.0 1.0 1.0 1.0
1.0 1.0 1.0 1.0 1.0 1.0 1.0 1.0
1.0 1.0 1.0 1.0 1.0 1.0 1.0 1.0
1.0 1.0 1.0 1.0 1.0 1.0 1.0 1.0
1.0 1.0 1.0 1.0 1.0 1.0 1.0 1.0
1.0 1.0 1.0 1.0 1.0 1.0 1.0 1.0
1.0 1.0 1.0 1.0 1.0 1.0 1.0 1.0
1.0 1.0 1.0 1.0 1.0 1.0 1.0 1.0
1.0 1.0 1.0 1.0 1.0 1.0 1.0 1.0
1.0 1.0 1.0 1.0 1.0 1.0 1.0 1.0
1.0 1.0 1.0 1.0 1.0 1.0 1.0 1.0
1.0 1.0 1.0 1.0 1.0 1.0 1.0 1.0
1.0 1.0 1.0 1.0 1.0 1.0 1.0 1.0
1.0 1.0 1.0 1.0 1.0 1.0 1.0 1.0
1.0 1.0 1.0 1.0 1.0 1.0 1.0 1.0
1.0 1.0 1.0 1.0 1.0 1.0 1.0 1.0
1.0 1.0 1.0 1.0 1.0 1.0 1.0 1.0
1.0 1.0 1.0 1.0 1.0 1.0 1.0 1.0
1.0 1.0 1.0 1.0 1.0 1.0 1.0 1.0
1.0 1.0 1.0 1.0 1.0 1.0 1.0 1.0
1.0 1.0 1.0 1.0 1.0 1.0 1.0 1.0
1.0 1.0 1.0 1.0 1.0 1.0 1.0 1.0
1.0 1.0 1.0 1.0 1.0 1.0 1.0 1.0
1.0 1.0 1.0 1.0 1.0 1.0 1.0 1.0
1.0 1.0 1.0 1.0 1.0 1.0 1.0 1.0
1.0 1.0 1.0 1.0 1.0 1.0 1.0 1.0
1.0 1.0 1.0 1.0 1.0 1.0 1.0 1.0
1.0 1.0 1.0 1.0 1.0 1.0 1.0 1.0
1.0 1.0 1.0 1.0 1.0 1.0 1.0 1.0
1.0 1.0 1.0 1.0 1.0 1.0 1.0 1.0
00000000: 0000 803f 0000 803f 0000 803f 0000 803f
00000010: 0000 803f 0000 803f 0000 803f 0000 803f
00000020: 0000 803f 0000 803f 0000 803f 0000 803f
00000030: 0000 803f 0000 803f 0000 803f 0000 803f
00000040: 0000 803f 0000 803f 0000 803f 0000 803f
00000050: 0000 803f 0000 803f 0000 803f 0000 803f
00000060: 0000 803f 0000 803f 0000 803f 0000 803f
00000070: 0000 803f 0000 803f 0000 803f 0000 803f
00000080: 0000 803f 0000 803f 0000 803f 0000 803f
00000090: 0000 803f 0000 803f 0000 803f 0000 803f
000000a0: 0000 803f 0000 803f 0000 803f 0000 803f
000000b0: 0000 803f 0000 803f 0000 803f 0000 803f
000000c0: 0000 803f 0000 803f 0000 803f 0000 803f
000000d0: 0000 803f 0000 803f 0000 803f 0000 803f
000000e0: 0000 803f 0000 803f 0000 803f 0000 803f
000000f0: 0000 803f 0000 803f 0000 803f 0000 803f
00000100: 0000 803f 0000 803f 0000 803f 0000 803f
00000110: 0000 803f 0000 803f 0000 803f 0000 803f
00000120: 0000 803f 0000 803f 0000 803f 0000 803f
00000130: 0000 803f 0000 803f 0000 803f 0000 803f
00000140: 0000 803f 0000 803f 0000 803f 0000 803f
00000150: 0000 803f 0000 803f 0000 803f 0000 803f
00000160: 0000 803f 0000 803f 0000 803f 0000 803f
00000170: 0000 803f 0000 803f 0000 803f 0000 803f
00000180: 0000 803f 0000 803f 0000 803f 0000 803f
00000190: 0000 803f 0000 803f 0000 803f 0000 803f
000001a0: 0000 803f 0000 803f 0000 803f 0000 803f
000001b0: 0000 803f 0000 803f 0000 803f 0000 803f
000001c0: 0000 803f 0000 803f 0000 803f 0000 803f
000001d0: 0000 803f 0000 803f 0000 803f 0000 803f
000001e0: 0000 803f 0000 803f 0000 803f 0000 803f
000001f0: 0000 803f 0000 803f 0000 803f 0000 803f
00000200: 0000 803f 0000 803f 0000 803f 0000 803f
00000210: 0000 803f 0000 803f 0000 803f 0000 803f
00000220: 0000 803f 0000 803f 0000 803f 0000 803f
00000230: 0000 803f 0000 803f 0000 803f 0000 803f
00000240: 0000 803f 0000 803f 0000 803f 0000 803f
00000250: 0000 803f 0000 803f 0000 803f 0000 803f
00000260: 0000 803f 0000 803f 0000 803f 0000 803f
00000270: 0000 803f 0000 803f 0000 803f 0000 803f
00000280: 0000 803f 0000 803f 0000 803f 0000 803f
00000290: 0000 803f 0000 803f 0000 803f 0000 803f
000002a0: 0000 803f 0000 803f 0000 803f 0000 803f
000002b0: 0000 803f 0000 803f 0000 803f 0000 803f
000002c0: 0000 803f 0000 803f 0000 803f 0000 803f
000002d0: 0000 803f 0000 803f 0000 803f 0000 803f
000002e0: 0000 803f 0000 803f 0000 803f 0000 803f
000002f0: 0000 803f 0000 803f 0000 803f 0000 803f
00000300: 0000 803f 0000 803f 0000 803f 0000 803f
00000310: 0000 803f 0000 803f 0000 803f 0000 803f
00000320: 0000 803f 0000 803f 0000 803f 0000 803f
00000330: 0000 803f 0000 803f 0000 803f 0000 803f
00000340: 0000 803f 0000 803f 0000 803f 0000 803f
00000350: 0000 803f 0000 803f 0000 803f 0000 803f
00000360: 0000 803f 0000 803f 0000 803f 0000 803f
00000370: 0000 803f 0000 803f 0000 803f 0000 803f
00000380: 0000 803f 0000 803f 0000 803f 0000 803f
00000390: 0000 803f 0000 803f 0000 803f 0000 803f
000003a0: 0000 803f 0000 803f 0000 803f 0000 803f
000003b0: 0000 803f 0000 803f 0000 803f 0000 803f
000003c0: 0000 803f 0000 803f 0000 803f 0000 803f
000003d0: 0000 803f 0000 803f 0000 803f 0000 803f
000003e0: 0000 803f 0000 803f 0000 803f 0000 803f
000003f0: 0000 803f 0000 803f 0000 803f 0000 803f

fc2.weight f4 [300, 400]
-0.12736388 0.01358364 0.056537062 0.2093457 -0.16422495 -0.17325634 -0.12372672 0.024545586
-0.029240612 0.052985486 0.05002633 0.063974924 -0.02406004 0.09519873 0.25839606 -0.03315508
0.17379431 0.2372798 -0.020769512 0.0039512925 0.05321985 0.20521413 0.024430681 -0.14515011
0.017506663 0.21336938 0.052540194 0.02703493 0.081588805 -0.0852438 0.07712707 -0.07049091
-0.014899031 0.22456981 0.046063144 0.19592823 -0.020001471 -0.1229691 0.04213752 -0.14965235
-0.06929711 0.051010825 -0.21340865 0.14184235 0.11490152 0.16878568 0.045171376 -0.1192024
0.037915412 -0.0026772702 -0.07621306 -0.03568793 -0.15410249 -0.13704027 0.0057823844 0.024237486
-0.02059053 0.029807582 -0.2501718 -0.00032042278 0.14218958 0.03418487 0.021151455 0.051688343
-0.037329327 -0.13309456 -0.18925112 -0.12977159 0.060129363 -0.16129911 -0.07356489 -0.056979768
0.028777352 0.039247807 0.06994263 0.07455755 0.030381229 0.023082511 -0.16321339 0.031671975
0.034276057 -0.09203322 -0.13295926 0.17395595 0.09303103 -0.14550763 0.04109591 0.04298721
-0.07028836 0.04628881 -0.14063089 -0.021445394 -0.024215952 -0.10485887 -0.27108017 0.07339199
-0.14119512 0.009408327 -0.06978712 0.08229516 -0.06646989 0.03911339 0.042310223 0.045537207
0.092409775 -0.08451746 0.013811403 -0.21991014 -0.043235082 0.018515622 -0.04254627 -0.08276808
-0.25174332 -0.11207474 0.06136623 -0.12346536 -0.010988779 -0.08600359 0.09229967 0.0050347433
-0.1205611 0.19994555 0.15450615 -0.12548102 0.1216486 0.014025694 -0.012810069 0.16253452
-0.0050792573 0.026400067 -0.011593369 0.032830335 -0.0041750893 -0.14714575 -0.15756257 -0.08231946
-0.07414839 -0.24835967 -0.056362785 -0.022094117 0.057365388 0.052408215 0.09450097 -0.101194255
-0.0033400264 0.005137102 -0.0073944526 -0.11675028 -0.0067556417 0.130451 0.02383301 -0.17751355
0.033771787 -0.006938707 -0.078297436 0.025099268 -0.10607651 -0.2885656 0.119422555 -0.17956984
0.106288075 0.0510818 0.12467258 -0.011797688 -0.13532475 -0.14542164 -0.10696756 -0.23334372
0.026201049 0.05920394 -0.031975683 0.13158178 0.113983124 0.065374926 0.04421492 -0.03292135
0.24102476 0.2500923 0.16043897 0.1018952 -0.18876112 -0.029712372 -0.090922244 0.08015251
-0.0036512373 0.021158943 -0.19475083 -0.02036179 0.063334 -0.036844004 0.21753256 0.118700884
-0.097905874 -0.12075954 -0.102554396 -0.30491477 0.08681651 -0.08171558 -0.10541013 -0.17183295
-0.15495852 0.16133146 -0.12046617 -0.047585603 -0.11834523 0.032955393 0.10965834 -0.073815174
0.17758648 -0.08503557 -0.014518672 0.13243411 0.1324934 -0.017710892 -0.25929508 -0.031969026
-0.060514435 0.48161265 0.022310758 -0.027720118 0.018729176 0.015316021 -0.06306167 -0.037285488
-0.15725748 0.14934647 0.0024927284 0.04470669 -0.042121526 -0.11811945 -0.02436058 0.11512876
-0.03755002 0.10541949 0.296911 0.09734382 -0.046750106 0.12148822 0.020776113 -0.1293107
-0.046272706 -0.07593595 0.02758439 -0.075315155 0.17904295 -0.101496615 0.07262568 0.11220557
0.08924679 -0.014191828 0.068162024 0.123968095 -0.07853653 0.028548956 0.1291362 0.028024033
00000000: ad6b 02be ea8d 5e3c 6893 673d b85e 563e
00000010: 962a 28be 1c6a 31be 6f64 fdbd d313 c93c
00000020: 028a efbc 4f07 593d 69e8 4c3d 4905 833d
00000030: 9019 c5bc 8df7 c23d 7d4c 843e 9fcd 07bd
00000040: 23f7 313e 7af9 723e d324 aabc d879 813b
00000050: 0ffd 593d a723 523e da22 c83c 3ba2 14be
00000060: 226a 8f3c 817d 5a3e 6334 573d 5c78 dd3c
00000070: 0818 a73d 4d94 aebd ccf4 9d3d 8a5d 90bd
00000080: 111b 74bc a1f5 653e b5ac 3c3d 69a1 483e
00000090: 20da a3bc 39d7 fbbd 6498 2c3d 773e 19be
000000a0: a5eb 8dbd baf0 503d cc87 5abe 1f3f 113e
000000b0: 7d51 eb3d 27d6 2c3e 9f05 393d 6320 f4bd
000000c0: 314d 1b3d 2475 2fbb 9815 9cbd 822d 12bd
000000d0: 0bcd 1dbe 4954 0cbe 287a bd3b b18d c63c
000000e0: 79ad a8bc 082f f43c 8516 80be 6bfe a7b9
000000f0: 259a 113e 6f05 0c3d d145 ad3c 28b7 533d
00000100: a3e6 18bd f149 08be 0ccb 41be d8e2 04be
00000110: 354a 763d 982b 25be 30a9 96bd 9e63 69bd
00000120: 7bbe eb3c 4fc2 203d 153e 8f3d a1b1 983d
00000130: 0ee2 f83c 8917 bd3c 6921 27be 79ba 013d
00000140: 0d65 0c3d ea7b bcbd 7926 08be 8221 323e
00000150: 0d87 be3d f4ff 14be 2f54 283d 5b13 303d
00000160: 58f3 8fbd 5699 3d3d 8b01 10be 40ae afbc
00000170: 8860 c6bc 3fc0 d6bd 05cb 8abe 8a4e 963d
00000180: 7495 10be 6225 1a3c 8dec 8ebd 5d8a a83d
00000190: 5e21 88bd 5d35 203d 7c4d 2d3d 3985 3a3d
000001a0: 5641 bd3d 7d17 adbd 3949 623c 2030 61be
000001b0: 4517 31bd 13ae 973c ff44 2ebd 5082 a9bd
000001c0: 80e4 80be 7187 e5bd 285b 7b3d 68db fcbd
000001d0: 480a 34bc a622 b0bd 9c07 bd3d 7dfa a43b
000001e0: bde8 f6bd 87be 4c3e dc36 1e3e 197e 00be
000001f0: e722 f93d 06cc 653c 53e1 51bc 736f 263e
00000200: e66f a6bb f444 d83c 1df2 3dbc 1a79 063d
00000210: 30cf 88bb 60ad 16be 1558 21be 1b97 a8bd
00000220: 1cdb 97bd ff51 7ebe aadc 66bd b9fe b4bc
00000230: f8f7 6a3d ffa9 563d b989 c13d ef3e cfbd
00000240: 58e4 5abb 2355 a83b 2a4d f2bb c51a efbd
00000250: 6e5e ddbb f294 053e 723d c33c 1dc6 35be
00000260: 4954 0a3d 185e e3bb 685a a0bd fb9c cd3c
00000270: a43e d9bd dfbe 93be d093 f43d 28e1 37be
00000280: 90ad d93d 263b 513d 5654 ff3d 174b 41bc
00000290: 9292 0abe 69e9 14be cf11 dbbd a8f1 6ebe
000002a0: 95a3 d63c d57f 723d eff8 02bd 60bd 063e
000002b0: fc6f e93d 4ae3 853d b41a 353d 8ad8 06bd
000002c0: 32cf 763e 190c 803e 1d4a 243e 6eae d03d
000002d0: 984a 41be 5c67 f3bc 7135 babd 0027 a43d
000002e0: 9949 6fbb 8555 ad3c c36c 47be c5cd a6bc
000002f0: 42b5 813d bde9 16bd dbc0 5e3e 7319 f33d
00000300: e082 c8bd c750 f7bd 0a08 d2bd ca1d 9cbe
00000310: dbcc b13d 7f5a a7bd 44e1 d7bd faf4 2fbe
00000320: 72ad 1ebe 1334 253e f8b6 f6bd 1fe9 42bd
00000330: fc5e f2bd 3cfc 063d 8d94 e03d 692c 97bd
00000340: 3bd9 353e 2127 aebd b9df 6dbc cf9c 073e
00000350: 5aac 073e 6f16 91bc 53c2 84be f4f1 02bd
00000360: fcdd 77bd ef95 f63e 0dc5 b63c 4d15 e3bc
00000370: ee6d 993c 0cf0 7a3c 7a26 81bd abb8 18bd
00000380: 1b08 21be 48ee 183e 0b5d 233b 5d1e 373d
00000390: 9f87 2cbd 9ce8 f1bd d78f c7bc a1c8 eb3d
000003a0: 0dce 19bd 2ce6 d73d b804 983e 325c c73d
000003b0: 0a7d 3fbd d1ce f83d ab32 aa3c 066a 04be
000003c0: 7388 3dbd 4f84 9bbd a9f8 e13c d53e 9abd
000003d0: 0957 373e 75dd cfbd c6bc 943d 09cc e53d
000003e0: 05c7 b63d d784 68bc 8898 8b3d fce2 fd3d
000003f0: c3d7 a0bd 80df e93c 483c 043e a892 e53c

fc2.bias f4 [300]
-0.16827266 0.03977742 0.11729395 0.08510352 -0.1280427 -0.126111 0.11902712 -0.123414285
-0.12492732 -0.083538055 -0.07747173 -0.01770422 0.05162815 0.012760748 0.022904113 0.032090362
0.04546089 0.028102737 -0.030228479 -0.108540826 0.038594853 0.024634382 -0.030108085 0.04545915
0.04708411 -0.04299425 -0.123517975 -0.010931422 0.040402267 -0.037685987 0.05880614 0.0073005776
-0.035378803 0.019669285 0.10167163 0.116195336 0.061104532 0.035985574 -0.06535492 0.11104898
0.043173745 -0.06436561 0.10099297 -0.009904889 0.00027896924 -0.018297656 -0.01650785 -0.055732522
0.04094862 0.045098823 0.057220183 -0.033084795 -0.109118104 0.07712437 0.04078781 0.047552112
0.023216011 -0.010743487 -0.038829833 0.01851399 -0.039402567 -0.024261834 0.09796929 0.008935346
0.009535118 -0.10454384 0.0839638 -0.017225416 0.14133954 0.009037206 0.046690397 0.006391028
-0.004068663 -0.016273424 0.08697888 -0.2158209 0.02781779 -0.026544081 -0.13849245 0.14425214
-0.18837512 0.036714848 0.016343083 0.06127343 0.039614495 0.009858342 0.003713986 -0.031195909
0.015996678 0.067147836 -0.042012885 -0.020680074 0.033736505 0.08528711 0.0055974876 0.043504406
-0.09741513 0.04545659 0.028907072 0.09621955 0.0036135428 0.0049170274 0.020325076 0.11094806
-0.0031404085 0.022552857 0.08715095 -0.24924657 -0.04831127 0.046844408 -0.12775567 0.09248237
-0.006503066 0.056655094 -0.15196119 -0.11516048 0.018600667 -0.0053085936 0.007309089 0.04498407
-0.23123649 -0.052493777 0.022257356 0.014408486 0.0621095 0.02587435 -0.06679533 0.008031959
0.026292825 0.0039662216 0.027833171 0.072418116 -0.012833454 0.09558426 -0.07100488 0.05905964
0.0046814126 0.05509387 0.032148473 -0.0073415544 -0.15655397 -0.004133849 -0.15059069 0.05594019
-0.10380176 0.023546347 -0.031339355 -0.029095093 -0.16656026 0.03616669 -0.09247722 0.051816624
0.015625443 0.076175325 0.05115473 -0.07243479 -0.03431807 0.10503264 -0.004985938 0.1356279
-0.15679531 -0.15924263 0.05442095 0.08194182 -0.0034974283 -0.16715255 -0.19136107 0.03516701
0.032876194 0.028115254 0.025569066 0.036073446 0.079289004 0.07101453 -0.08142276 0.10225089
0.017689165 0.0062300325 -0.11175008 -0.10866968 0.02064279 0.1432582 0.06976963 0.054181855
0.1307456 -0.0601238 -0.014571878 0.06713551 0.005076361 -0.15789519 -0.027869893 0.029107615
0.15208331 0.040348127 0.12426885 -0.06211689 0.09465244 -0.18326306 0.069952875 -0.11147259
-0.026934674 0.048754316 -0.026789658 0.09682744 -0.042465303 -0.061463606 0.07244888 -0.100858994
0.0639843 -0.13719513 0.11806958 0.034593344 0.054754168 -0.012138904 -0.25498167 -0.007651096
0.026050396 -0.057661925 0.032153178 -0.0794836 0.049732212 0.006657784 0.017497681 -0.10087467
-0.025300832 -0.002717869 0.00924766 -0.10443948 0.035847582 0.0025451179 -0.013493277 -0.005760789
0.013460979 0.020456042 -0.20128024 0.046454266 0.028674055 0.016492777 -0.09213095 -0.30512533
-0.010584287 -0.12163569 0.0006728858 0.17502491 0.03675265 0.039795995 0.096337475 -0.13999398
0.013983431 0.016301515 -0.12926894 -0.02092118 -0.0049446933 -0.1501577 0.018013082 -0.08180867
00000000: ab4f 2cbe a6ed 223d cf37 f03d c14a ae3d
00000010: a01d 03be 3e23 01be 7ec4 f33d a1c0 fcbd
00000020: e5d9 ffbd 0016 abbd 80a9 9ebd 7108 91bc
00000030: 0a78 533d 7512 513c 68a1 bb3c 2f71 033d
00000040: 3335 3a3d b637 e63c b7a1 f7bc a74a debd
00000050: a315 1e3d 0bce c93c 3ba5 f6bc 6033 3a3d
00000060: 45db 403d bd1a 30bd fef6 fcbd b519 33bc
00000070: d97c 253d 9f5c 1abd b5de 703d af39 ef3b
00000080: 5de9 10bd 7b21 a13c 3739 d03d d2f7 ed3d
00000090: bf48 7a3d 9c65 133d cdd8 85bd a66d e33d
000000a0: f4d6 303d 1ed2 83bd 67d5 ce3d 1e48 22bc
000000b0: 9e42 9239 f7e4 95bc 783b 87bc c947 64bd
000000c0: bdb9 273d 8bb9 383d b65f 6a3d ec83 07bd
000000d0: 5079 dfbd 62f3 9d3d 1e11 273d 01c6 423d
000000e0: 812f be3c 7305 30bc 080c 1fbd a7aa 973c
000000f0: 9664 21bd c1c0 c6bc 20a4 c83d 8f65 123c
00000100: 2f39 1c3c 151b d6bd 36f5 ab3d 511c 8dbc
00000110: 50bb 103e ca10 143c 6e3e 3f3d d46b d13b
00000120: 6b52 85bb d84f 85bc fc21 b23d 2700 5dbe
00000130: 22e2 e33c f972 d9bc f7d0 0dbe d5b6 133e
00000140: 68e5 40be 4f62 163d eee1 853c d9f9 7a3d
00000150: cf42 223d e284 213c 5866 733b 908e ffbc
00000160: 770b 833c ce84 893d b415 2cbd 4269 a9bc
00000170: 4a2f 0a3d 02ab ae3d 216b b73b ad31 323d
00000180: 9581 c7bd b030 3a3d 86ce ec3c c10e c53d
00000190: 30d1 6c3b 041f a13b c680 a63c bd38 e33d
000001a0: 50cf 4dbb c5c0 b83c 337c b23d 7e3a 7fbe
000001b0: 0ae2 45bd ecdf 3f3d 62d2 02be 6667 bd3d
000001c0: ac17 d5bb 2c0f 683d b79b 1bbe 42d9 ebbd
000001d0: 6d60 983c b6f3 adbb 1581 ef3b 3741 383d
000001e0: 42c9 6cbe b703 57bd 0f55 b63c 9211 6c3c
000001f0: 8866 7e3d 72f6 d33c fdcb 88bd 7a98 033c
00000200: 0d64 d73c 14f7 813b 6402 e43c f34f 943d
00000210: 6843 52bc aec1 c33d 026b 91bd 85e8 713d
00000220: 8966 993b 1caa 613d 1eae 033d 6c91 f0bb
00000230: af4f 20be 3d75 87bb 7234 1abe 8a21 653d
00000240: 0496 d4bd 45e4 c03c b25d 00bd d558 eebc
00000250: c68e 2abe 8623 143d b264 bdbd ab3d 543d
00000260: ee00 803c cf01 9c3d 9f87 513d b158 94bd
00000270: 1b91 0cbd 5a1b d73d 1461 a3bb 0ae2 0a3e
00000280: f38e 20be 8010 23be 81e8 5e3d 1dd1 a73d
00000290: 1c35 65bb 0a2a 2bbe 28f4 43be 480b 103d
000002a0: 30a9 063d f651 e63c 3876 d13c c0c1 133d
000002b0: 4662 a23d 1170 913d fac0 a6bd ea68 d13d
000002c0: dee8 903c 4d25 cc3b 3add e4bd 368e debd
000002d0: 111b a93c 47b2 123e 61e3 8e3d cbed 5d3d
000002e0: 2de2 053e 6044 76bd e3be 6ebc 587e 893d
000002f0: 9a57 a63b 47af 21be 674f e4bc 1873 ee3c
00000300: babb 1b3e 1444 253d ab80 fe3d 486e 7ebd
00000310: 23d9 c13d 50a9 3bbe 7443 8f3d be4b e4bd
00000320: 1ba6 dcbc 9bb2 473d fc75 dbbc 774d c63d
00000330: 19f0 2dbd 43c1 7bbd 1460 943d 298f cebd
00000340: 330a 833d e17c 0cbe 77ce f13d c0b1 0d3d
00000350: e845 603d 41e2 46bc f58c 82be 0cb6 fabb
00000360: a467 d53c e92e 6cbd 0db3 033d 4cc8 a2bd
00000370: 01b4 4b3d 8a29 da3b 4c57 8f3c 6197 cebd
00000380: b143 cfbc 461e 32bb 7f83 173c 5ee4 d5bd
00000390: ead4 123d fecb 263b e812 5dbc 00c5 bcbb
000003a0: 708b 5c3c 6e93 a73c 681c 4ebe d446 3e3d
000003b0: dae5 ea3c dc1b 873c 27af bcbd 6339 9cbe
000003c0: b869 2dbc 221c f9bd 9a64 303a bb39 333e
000003d0: f289 163d 2001 233d 954c c53d 955a 0fbe
000003e0: c31a 653c c18a 853c 145f 04be e562 abbc
000003f0: 1807 a2bb f1c2 19be 2c90 933c 4e8b a7bd

fc2_bn.weight f4 [300]
0.3464409 0.79783714 0.56144834 0.30733138 0.55835706 0.2960254 0.1893214 0.9670707
0.5848015 0.8866055 0.89014083 0.2736357 0.107254386 0.114949465 0.7360134 0.15490335
0.57129496 0.48456275 0.12681746 0.54569924 0.3647381 0.39314896 0.004412353 0.28262657
0.36514282 0.10962647 0.061360896 0.15024424 0.36478692 0.054296017 0.6713073 0.17365569
0.25535256 0.2220552 0.66627324 0.7420839 0.5882716 0.7496779 0.6476285 0.44632763
0.71128327 0.06309652 0.14505833 0.9847916 0.54984504 0.06020099 0.59939265 0.051117063
0.2931559 0.38706553 0.19033182 0.019136846 0.36151427 0.4614423 0.21225631 0.53709054
0.03752047 0.89037937 0.37516642 0.95010966 0.60085577 0.047002196 0.9625844 0.8192176
0.35540468 0.751579 0.2184419 0.17096233 0.19358546 0.80778843 0.43563563 0.5008538
0.0692184 0.696337 0.59601176 0.01701212 0.59245074 0.4889043 0.6428258 0.18264681
0.19503534 0.49697232 0.56032294 0.8348959 0.9115148 0.58832747 0.48156333 0.4380377
0.8825951 0.037157595 0.78998405 0.17428422 0.26526332 0.2784381 0.033866286 0.6139689
0.3059078 0.4054988 0.14614862 0.91113645 0.32709742 0.16216254 0.7680263 0.8881721
0.39185482 0.035345197 0.7739492 0.81672084 0.7199818 0.9100351 0.8716916 0.08272737
0.13953471 0.7352531 0.5162177 0.7634675 0.85555255 0.43493295 0.00811404 0.5790507
0.7313808 0.7252303 0.4953059 0.4022795 0.889977 0.79457575 0.95700586 0.2020433
0.30677158 0.73164314 0.96448964 0.9904071 0.09276396 0.67241013 0.6339882 0.20882982
0.44063115 0.6549142 0.38005197 0.8400798 0.40827596 0.39580774 0.61764383 0.33013582
0.1581341 0.8519016 0.57193244 0.116325915 0.9112868 0.79152787 0.42862928 0.2868263
0.30727637 0.3464843 0.92378336 0.60648954 0.55821246 0.28394085 0.965541 0.047106326
0.067742944 0.26067227 0.9166548 0.7032328 0.0462628 0.07084924 0.44054127 0.8606293
0.5461573 0.99877703 0.08160049 0.67464906 0.34860432 0.5783509 0.40862918 0.1857794
0.08305919 0.15534979 0.19687754 0.04209584 0.5905228 0.41931784 0.4977734 0.33734888
0.11679137 0.09320474 0.32562238 0.049866736 0.74455714 0.7484153 0.15924609 0.62727904
0.15927869 0.3584736 0.36151332 0.2120263 0.7073178 0.6210663 0.584467 0.5721492
0.034763396 0.628969 0.84237427 0.20251006 0.09848422 0.4864939 0.7236198 0.6532565
0.7458253 0.47631276 0.46755725 0.052370727 0.015538633 0.05338365 0.077923715 0.5298658
0.36492914 0.27974045 0.08912039 0.8953074 0.49746442 0.7353488 0.036009908 0.20482337
0.7407053 0.7863455 0.12008375 0.8972577 0.7723719 0.8928128 0.13218099 0.0062140822
0.08791113 0.48876292 0.6309634 0.3723833 0.32852966 0.6158735 0.18142253 0.23009413
0.036067605 0.5758857 0.12589127 0.6281095 0.46357334 0.13676357 0.93579274 0.7891406
0.91090167 0.060059726 0.15334517 0.20088512 0.5321365 0.7032722 0.04103875 0.6838222
00000000: b460 b13e 0e3f 4c3f 14bb 0f3f 8a5a 9d3e
00000010: 7df0 0e3f a490 973e 78dd 413e f291 773f
00000020: 8db5 153f 94f8 623f 45e0 633f fa19 8c3e
00000030: 30a8 db3d a06a eb3d 606b 3c3f fc9e 1e3e
00000040: 6340 123f 9c18 f83e 70dc 013e f2b2 0b3f
00000050: f4be ba3e d24a c93e 8095 903b 6eb4 903e
00000060: 00f4 ba3e d883 e03d 9055 7b3d a0d9 193e
00000070: 5ac5 ba3e 8065 5e3d ccda 2b3f ccd2 313e
00000080: 92bd 823e 7062 633e e290 2a3f 36f9 3d3f
00000090: f898 163f e4ea 3f3f fbca 253f 0e85 e43e
000000a0: a916 363f c038 813d 2c8a 143e 4d1b 7c3f
000000b0: a5c2 0c3f 5095 763d cc71 193f 2060 513d
000000c0: 8818 963e 742d c63e 58e6 423e e0c4 9c3c
000000d0: 6618 b93e 2a42 ec3e b859 593e c47e 093f
000000e0: 10af 193d e7ef 633f d015 c03e 633a 733f
000000f0: afd1 193f 6085 403d ee6b 763f 3fb8 513f
00000100: 9af7 b53e 7b67 403f 3caf 5f3e c010 2f3e
00000110: 443b 463e 39cb 4e3f a20b df3e f437 003f
00000120: 60c2 8d3d 2443 323f 3a94 183f 005d 8b3c
00000130: daaa 173f aa51 fa3e 3b90 243f c407 3b3e
00000140: 58b7 473e 2873 fe3e 5371 0f3f bdbb 553f
00000150: 0959 693f a19c 163f 788f f63e 7a46 e03e
00000160: c1f1 613f 9032 183d 653c 4a3f 9077 323e
00000170: 98d0 873e 708f 8e3e 60b7 0a3d 112d 1d3f
00000180: f29f 9c3e 8a9d cf3e fca7 153e 3d40 693f
00000190: 5079 a73e f00d 263e 5f9d 443f 3f5f 633f
000001a0: 32a1 c83e 20c6 103d 8921 463f 9e14 513f
000001b0: ba50 383f 0ff8 683f 2e27 5f3f f86c a93d
000001c0: 30e2 0e3e 8c39 3c3f d826 043f 9b72 433f
000001d0: 7e05 5b3f 88af de3e c0f0 043c ab3c 143f
000001e0: c63b 3b3f b1a8 393f bc98 fd3e 94f7 cd3e
000001f0: 88d5 633f 5169 4b3f 56fe 743f 70e4 4e3e
00000200: 2a11 9d3e f74c 3b3f cbe8 763f 528b 7d3f
00000210: 08fb bd3d 1223 2c3f 0d4d 223f 7cd7 553e
00000220: 689a e13e 75a8 273f 2c96 c23e 780f 573f
00000230: 8c09 d13e 50a7 ca3e e81d 1e3f 9007 a93e
00000240: e8ed 213e 3916 5a3f 2a6a 123f 483c ee3d
00000250: 174a 693f 92a1 4a3f 4c75 db3e e6da 923e
00000260: 5453 9d3e 6466 b13e 117d 6c3f e642 1b3f
00000270: 03e7 0e3f b260 913e b22d 773f 90f2 403d
00000280: d0bc 8a3d d676 853e e4a9 6a3f 1107 343f
00000290: 107e 3d3d 6819 913d a08e e13e 3452 5c3f
000002a0: f7d0 0b3f daaf 7f3f 281e a73d cdb5 2c3f
000002b0: 447c b23e ce0e 143f d837 d13e f43c 3e3e
000002c0: f01a aa3d 0414 1f3e 449a 493e b06c 2c3d
000002d0: 812c 173f d4b0 d63e 28dc fe3e feb8 ac3e
000002e0: 5030 ef3d 20e2 be3d fab7 a63e 1041 4c3d
000002f0: 4c9b 3e3f 2598 3f3f 6811 233e 5c95 203f
00000300: f419 233e da89 b73e 4618 b93e 6c1d 593e
00000310: c812 353f 33fe 1e3f a19f 153f 5f78 123f
00000320: 1064 0e3d 1d04 213f d7a5 573f cc5e 4f3e
00000330: 18b2 c93d ba15 f93e 263f 393f d13b 273f
00000340: 68ee 3e3f 44df f33e aa63 ef3e b082 563d
00000350: c095 7e3c d0a8 5a3d 7896 9f3d 49a5 073f
00000360: fed7 ba3e 243a 8f3e c084 b63d de32 653f
00000370: a8b3 fe3e d23f 3c3f 207f 133d 38bd 513e
00000380: dd9e 3d3f f04d 493f 78ee f53d aeb2 653f
00000390: 2aba 453f 618f 643f 745a 073e 809f cb3b
000003a0: c00a b43d 223f fa3e d186 213f 06a9 be3e
000003b0: 0a35 a83e e3a9 1d3f d4c6 393e cc9d 6b3e
000003c0: a0bb 133d 3f6d 133f a4e9 003e c9cb 203f
000003d0: 7c59 ed3e c00b 0c3e 1d90 6f3f 1e05 4a3f
000003e0: da30 693f 3001 763d 8406 1d3e d4b4 4d3e
000003f0: 193a 083f a609 343f 4018 283d f90e 2f3f
