agent_checkpoints/checkpoint_critic_18.pth (torch_old, 554781 bytes, 13 tensors)

fcs1.weight f4 [400, 33]
0	0x3d954f9b	0.07290574
1	0x3d4f4679	0.050604317
2	0xbcac84b7	-0.021059377
3	0xbd59a66f	-0.05313724
4	0xbd245cc7	-0.040127542
5	0x3e17d5d3	0.14827661
6	0xbd9ac9e0	-0.07558036
7	0x3c836190	0.016037732
8	0xbd4ca573	-0.049962472
9	0xbd346b10	-0.044047415
10	0xbd5a57a9	-0.053306255
11	0x3d2139a3	0.039361607
12	0xbd2a5fb3	-0.041595172
13	0x3d6ef489	0.058338676
14	0xbd5f33bf	-0.05449271
15	0x3cc60370	0.024171561
16	0xbc6320a2	-0.013862761
17	0x3d878b34	0.06618348
18	0xbe7eb5bc	-0.24874014
19	0xbd73f5c6	-0.05956056
20	0xbbcc0a4f	-0.006226815
21	0xbc5a9709	-0.013341674
22	0xbdab5271	-0.08365334
23	0xbd314b37	-0.04328462
24	0xbdd7bc1a	-0.105339244
25	0x3c03db2c	0.00804786
26	0x3d69bd3c	0.057065234
27	0xbca37f7e	-0.019958254
28	0x3b87de97	0.004146408
29	0xbb7d0900	-0.00386101
30	0x3a7f71d8	0.0009744442
31	0x3c9543e6	0.018220853
32	0x3d16a763	0.036780726
33	0x3c8d290d	0.017231489
34	0xbd243e0c	-0.040098235
35	0x3d5eaaa7	0.054361966
36	0xbdb03bc8	-0.08605152
37	0x3d71f7ea	0.05907432
38	0xbba8f999	-0.0051567075
39	0xbddb17a6	-0.1069787
40	0x3dc5a8fe	0.09651373
41	0x3d74d2c0	0.0597713
42	0xbd9f03cd	-0.07764397
43	0x3d86a88c	0.065751165
44	0xbd088392	-0.0333286
45	0x3d9580cd	0.072999574
46	0xbd2be065	-0.041962046
47	0x3b344448	0.002750652
48	0x3c6fc40f	0.014634146
49	0x39115270	0.00013858988
50	0x3c6764b8	0.014123134
51	0xbd881a5c	-0.06645653
52	0xbd572997	-0.052529898
53	0xbd2b556c	-0.04182951
54	0x3d86f27c	0.06589219
55	0x3dba26b7	0.090894155
56	0xbb8ae03b	-0.004238156
57	0x3d65d99a	0.056115724
58	0x3d3e7fc1	0.046508554
59	0xbd7de93d	-0.06199001
60	0xbd1e91e2	-0.038713343
61	0xbd58d68b	-0.05293898
62	0x3b268030	0.0025405996
63	0x3b238e8a	0.0024956786
64	0xbc90ad36	-0.017660718
65	0xbd88154a	-0.066446856
66	0xbd46f827	-0.0485765
67	0xbd1eb5a3	-0.03874744
68	0xbc9b17ca	-0.018932242
69	0xbd7e3e09	-0.06207088
70	0xbddd33fe	-0.10800932
71	0x3e172edf	0.14763974
72	0x3d0f2356	0.03494581
73	0xbe07cfc1	-0.13262846
74	0x3caa161c	0.020762496
75	0x3c281d5f	0.010260909
76	0xbd17f0f9	-0.037095044
77	0x3d3b05df	0.045659896
78	0xbda11354	-0.07865015
79	0xbc854746	-0.016269337
80	0xbd92cfdc	-0.07168552
81	0x3c507efc	0.012725588
82	0x3c6a5f90	0.01430501
83	0x3da68d30	0.08132398
84	0x3e091923	0.13388495
85	0xbc7e6060	-0.015525907
86	0xbcb537b2	-0.022121284
87	0x3d2656ae	0.040610008
88	0xbde935b1	-0.11387194
89	0xbd2494f3	-0.04018111
90	0x3d750e76	0.059828244
91	0x3d908c81	0.07058049
92	0x3c3c2749	0.011483976
93	0xbd392522	-0.04520143
94	0x3a0e4c7c	0.0005428267
95	0xbd25427e	-0.040346615
96	0x3d3a42fc	0.045474038
97	0xbbac97f0	-0.005267136
98	0xbca77907	-0.020443453
99	0xbd80c1d0	-0.06286967
100	0xbdc8a3d4	-0.09796873
101	0xbcb8147f	-0.02247071
102	0xbdd303bb	-0.10303446
103	0xbdfe0c68	-0.1240471
104	0xbe2287f8	-0.1587218
105	0x3e65a867	0.22427522
106	0xbc528920	-0.012850076
107	0x3c1127bd	0.008859572
108	0x3cebd61d	0.02878862
109	0xbcb1bf9c	-0.021697812
110	0xbd8a513e	-0.06753777
111	0x3d817725	0.06321553
112	0x3d92bbda	0.07164736
113	0xbda3fb15	-0.080068745
114	0x3d655e05	0.055997867
115	0x3b37c180	0.002803892
116	0x3d93f3c6	0.072242305
117	0x3ceef4ea	0.029169519
118	0x3e54cbbe	0.20780846
119	0xbdcbdb46	-0.099539325
120	0x3c4bff88	0.01245106
121	0x3d4faf6d	0.05070441
122	0x3dc82ddb	0.09774371
123	0x3ab3982e	0.0013701969
124	0x3c6a65fb	0.014306541
125	0xbc6dbb5e	-0.014510004
126	0x3d22892f	0.03968161
127	0xbd18259f	-0.037145253
128	0x3b004700	0.001957357
129	0xbc918e00	-0.017767906
130	0xbd4125b7	-0.04715511
131	0xbe0f59a3	-0.13999037
132	0x3e25e465	0.16200407
133	0x3cf696d4	0.030101217
134	0x3d70b571	0.058766786
135	0x3e630f71	0.22173859
136	0x3ea8259f	0.32841203
137	0xbd91f08d	-0.071259595
138	0x3e20f1c9	0.15717234
139	0xbd9ff670	-0.07810676
140	0x3cd1b5d9	0.025599407
141	0xbdaabec7	-0.08337169
142	0x3d79e142	0.06100584
143	0xbd15d262	-0.03657759
144	0x3b42303c	0.00296308
145	0x3dbbc439	0.09168286
146	0xbd1264a2	-0.035740502
147	0x3d2f43ba	0.0427892
148	0xbd45aae2	-0.04825867
149	0x3dab0a7a	0.083516076
150	0x3dd3a598	0.10334319
151	0xbdebdabc	-0.1151633
152	0x3d9f71e8	0.07785398
153	0xba095a70	-0.00052396115
154	0xbd26f727	-0.040763047
155	0x3cba254d	0.022722865
156	0xbcc7d7b4	-0.024394847
157	0xbd08632e	-0.03329771
158	0x3c82675a	0.015918422
159	0x3c10ca9d	0.008837369
160	0xbd285c89	-0.041103873
161	0xbc91f470	-0.017816752
162	0xbb5c03ed	-0.0033571676
163	0x3d2ea123	0.04263414
164	0x3d1aac10	0.037761748
165	0x3d7e5af9	0.062098477
166	0x3c8a940c	0.016916297
167	0x3d0df94e	0.034661584
168	0x3cb7ac19	0.02242093
169	0xbeaa2336	-0.3322999
170	0xbd771272	-0.060320325
171	0x3d3ea283	0.046541702
172	0xbbed99b2	-0.007250988
173	0x3cfd8085	0.030945072
174	0xbdaaecd6	-0.08345954
175	0xbda3b07a	-0.079926446
176	0xbd6f894c	-0.058480546
177	0xbd464d13	-0.048413347
178	0x3d804ec8	0.06265026
179	0xbb69a493	-0.0035651072
180	0x39d794cd	0.0004111886
181	0x3d091ac0	0.033472776
182	0x3e54352c	0.20723408
183	0x3d570973	0.052499246
184	0x3daea74f	0.08528005
185	0x3ce44a37	0.02786742
186	0xbd1f8c78	-0.03895232
187	0x3b03ddc4	0.0020121196
188	0x3c64ea69	0.013971903
189	0xbd6d1e57	-0.057890262
190	0xbcb76a72	-0.022389624
191	0x3d806c82	0.06270696
192	0x3d0ed19b	0.034867864
193	0x3da7364a	0.08164652
194	0x3cf3d836	0.029766183
195	0x3cee4d30	0.02908954
196	0xbd33864f	-0.04382926
197	0xbd9a6074	-0.07537928
198	0xbce02862	-0.027363006
199	0x3c2f8028	0.010711707
200	0xbc7bd202	-0.015369894
201	0xbd00392f	-0.031304535
202	0x3ddad70d	0.10685549
203	0xbd34a6cc	-0.044104382
204	0x3dfd5ffa	0.12371822
205	0x3da62515	0.081125416
206	0xbc3f04d5	-0.011658867
207	0x3d23aec7	0.039961603
208	0x3d76637e	0.060153477
209	0x3c7a9427	0.015294111
210	0x3ca02e07	0.019553198
211	0x3d4c2657	0.04984125
212	0x3da21448	0.079140246
213	0xbd91e553	-0.07123818
214	0x3d363c29	0.044490967
215	0x3c6f0835	0.014589359
216	0x3d9c6ac7	0.07637554
217	0x3e2e8bdf	0.17045544
218	0xbd93a587	-0.07209306
219	0x3db56916	0.08857934
220	0xbd8675f0	-0.065654635
221	0x3b41ea53	0.002958913
222	0x3d030e46	0.031996034
223	0x3cd0782d	0.02544793
224	0x3d191c2d	0.037380386
225	0x3cc0a3c5	0.023515591
226	0xbda2dc01	-0.07952119
227	0x3d0c7b2b	0.03429715
228	0x3ca0eb33	0.019643402
229	0xbc9217a4	-0.017833538
230	0x3d3de33e	0.046359293
231	0x3c84041d	0.016115243
232	0x3dd90348	0.10596329
233	0x3d85326f	0.0650376
234	0xbdde9f21	-0.10870195
235	0xbe954d0a	-0.2916034
236	0xbd614036	-0.054992877
237	0x3cf5c177	0.029999478
238	0x3da957e5	0.08268718
239	0xbd5ff57f	-0.054677483
240	0x3d895bb4	0.06706944
241	0xbd9cff83	-0.076659225
242	0xbcbe024a	-0.02319445
243	0xbb2b6b3c	-0.0026156446
244	0xbd88f7ec	-0.06687912
245	0x3d59f9ab	0.053216618
246	0xbd11fcb3	-0.035641383
247	0x3b85175b	0.004061622
248	0x3d7c4086	0.06158497
249	0x3dce8c40	0.10085344
250	0xbdcf2296	-0.101140186
251	0x3d4e8e5f	0.050428744
252	0x3d85a215	0.06525055
253	0x3cb5469c	0.022128396
254	0xbbb968cf	-0.005658246
255	0xbc93634e	-0.017991688

fcs1.bias f4 [400]
0	0x3dd9e0e0	0.106385946
1	0x3d8e8332	0.06958617
2	0xbd9e93ac	-0.0774301
3	0x3db33716	0.08750741
4	0xbd9cd83a	-0.076584294
5	0xbd692fb7	-0.05693027
6	0x3d8fec74	0.07027522
7	0x3d38912f	0.045060333
8	0x3d03feb3	0.032225322
9	0x3e21f10a	0.15814605
10	0xbd7faee0	-0.062422633
11	0x3e2bb0b4	0.16766626
12	0x3e31490a	0.17313018
13	0x3c2d703d	0.010585842
14	0xbbf59b6f	-0.007495336
15	0x3ca257ed	0.019817317
16	0x3dbd027d	0.0922899
17	0x3df69631	0.120403655
18	0x3df47b25	0.119375505
19	0xbd59c737	-0.0531685
20	0xbdee2e85	-0.11629967
21	0xbc7d3c5c	-0.015456285
22	0xbe273d9e	-0.16332099
23	0xbd898987	-0.067156844
24	0xbe142b18	-0.14469564
25	0xbc98aad8	-0.018636152
26	0xbda60f11	-0.081083424
27	0xbd2bf1bf	-0.041978594
28	0x3c3b2f1d	0.011424807
29	0xbd8c8ced	-0.06862817
30	0x3e2e8635	0.17043383
31	0xbc13f819	-0.009031319
32	0xbdbb97d9	-0.09159822
33	0x3dd4a6a2	0.10383345
34	0x3e1fa3c8	0.15589821
35	0x3ddfd7ce	0.10929833
36	0xbe059c44	-0.13047892
37	0x3c9944a1	0.018709483
38	0x3c40ed60	0.011775345
39	0xbd0bacf6	-0.034100495
40	0x3e2a6fc9	0.16644205
41	0x3df31147	0.1186853
42	0x3d008c6a	0.03138391
43	0xbe2c8b89	-0.16850103
44	0xbe02936c	-0.1275155
45	0xbcebe6eb	-0.028796634
46	0x3d27e52b	0.040990036
47	0x3d121040	0.03566003
48	0x3d8c4226	0.06848554
49	0xbdf97cb6	-0.1218199
50	0xbdbcfc7e	-0.092278466
51	0x3ddaddb2	0.10686816
52	0x3e0cd20b	0.13752
53	0x3e249192	0.16071156
54	0x3db7082c	0.089371055
55	0x3db079c2	0.086169735
56	0xbe1deab4	-0.15421563
57	0x3e2f352a	0.17110124
58	0xbd4e53a6	-0.050372742
59	0xbe2de59f	-0.16982125
60	0x3dd9379a	0.10606308
61	0xbdf31724	-0.11869648
62	0x3da47459	0.08030004
63	0xbd93fa05	-0.07225422
64	0x3dc4d4ea	0.09610923
65	0xbdd086db	-0.10181972
66	0x3e2f4568	0.1711632
67	0x3c9cadf3	0.019125914
68	0xbe28ca90	-0.16483521
69	0x3d059496	0.032612406
70	0xbd4d5b48	-0.05013588
71	0x3b83ddc5	0.0040242397
72	0x3e2b050c	0.16701144
73	0xbe0cc556	-0.13747153
74	0xbbb2559e	-0.0054423353
75	0x3dda05e2	0.10645653
76	0x3de499a0	0.11162114
77	0xbe0eb184	-0.13934904
78	0xbe156ae7	-0.14591561
79	0x3e04a9fe	0.12955472
80	0x3e148d6c	0.14507073
81	0x3dba61cc	0.091006845
82	0x3e1c5ec8	0.15270531
83	0xbe12fd5b	-0.1435446
84	0xbbbd1e06	-0.0057714013
85	0xbdb37b66	-0.08763771
86	0x3e2783ea	0.16358915
87	0xbc333a8f	-0.010939254
88	0xbcf9238e	-0.030412462
89	0xbde9b75d	-0.11411927
90	0xbc18db15	-0.009329577
91	0xbb76a8aa	-0.0037637153
92	0x3e19b5b6	0.15010723
93	0xbce39737	-0.027782066
94	0x3d3defaf	0.04637116
95	0xbce97920	-0.02850014
96	0xbdfd5fc7	-0.12371784
97	0x3d94dd58	0.072687805
98	0xbc4b1132	-0.012394236
99	0xbd22505f	-0.03962743
100	0xbe0149c5	-0.12625797
101	0x3ca49a92	0.020093236
102	0xbcadb05b	-0.021202257
103	0x3de57a88	0.112050116
104	0xbc91cabe	-0.01779687
105	0x3d783348	0.06059578
106	0x3d8d70bc	0.06906268
107	0xbb962248	-0.0045817234
108	0xbdac0af9	-0.0840053
109	0x3da043b1	0.07825411
110	0x3d40e844	0.047096506
111	0xbe04345c	-0.12910599
112	0xbd738d30	-0.05946082
113	0x3b953a66	0.004554081
114	0x3dd9997b	0.10624977
115	0x3d9eab2f	0.077474944
116	0x3d010ecd	0.031508256
117	0x3e207ee4	0.15673405
118	0xbd152b48	-0.03641823
119	0xbd831894	-0.06401172
120	0xbbf80223	-0.007568614
121	0xbd9efd73	-0.07763185
122	0x3d695a37	0.0569708
123	0x3d2d8640	0.04236436
124	0xbd6ef0ad	-0.058334995
125	0x3e319140	0.17340565
126	0xbd13554c	-0.035970017
127	0xbb88ced2	-0.0041750455
128	0x3e24b5c1	0.16084959
129	0x3e0dbda4	0.13841873
130	0xbe1cd725	-0.15316446
131	0x3ca36a4a	0.019948144
132	0x3e1e2d2f	0.15446924
133	0x3da5ab2b	0.08089288
134	0xbd04da29	-0.032434616
135	0x3e2eee53	0.17083101
136	0x3b5ab2c0	0.0033370703
137	0x3dc2553a	0.09488912
138	0xbc4538d0	-0.012037471
139	0x3d3f1f1e	0.046660535
140	0xbddf8632	-0.109142676
141	0x3dfc5797	0.12321394
142	0xbd9b85aa	-0.07593854
143	0x3d5fbbcf	0.054622468
144	0x3dfa2fc3	0.12216141
145	0x3e1ce969	0.15323414
146	0xbd2bdc96	-0.041958414
147	0xbd9f75ed	-0.077861644
148	0x3d42b389	0.0475345
149	0x3e28700e	0.16448995
150	0x3d0e01d1	0.0346697
151	0x3d29180c	0.0412827
152	0xbe1d63a1	-0.15370037
153	0x3ce85823	0.02836234
154	0x3d364add	0.04450499
155	0x3d01099d	0.03150331
156	0x3d54b3cf	0.05192929
157	0x3e31951f	0.17342041
158	0xbded3154	-0.11581674
159	0x3d2f89ff	0.042856213
160	0x3c73f3e8	0.014889695
161	0x3e1b3214	0.15155822
162	0xbdcf215c	-0.10113785
163	0x3d91db72	0.07121934
164	0x3e2cd4bb	0.16878025
165	0xbe088e1b	-0.13335459
166	0x3dcf47fb	0.10121151
167	0x3d26ca63	0.040720355
168	0xbcdccb67	-0.026952459
169	0xbdb5f32f	-0.08884274
170	0xbd340b2d	-0.04395597
171	0x3db49533	0.0881752
172	0xbd2dbd8d	-0.042417098
173	0x3cea58df	0.02860683
174	0x3dbbaa97	0.09163397
175	0x3d42d8ad	0.04756992
176	0x3ddbd07b	0.10733124
177	0xbb6d9b81	-0.0036256018
178	0x3e100f0d	0.14068241
179	0x3d688d5a	0.05677543
180	0x3e2e0ae2	0.16996339
181	0xbdd42db1	-0.103602774
182	0x3dc36b51	0.09541953
183	0x3e233933	0.15939789
184	0x3e1b9298	0.1519264
185	0x3e26ef5f	0.1630225
186	0x3df80744	0.12110761
187	0x3e1ab085	0.151064
188	0xbe0e4d79	-0.13896741
189	0xba79a419	-0.00095230486
190	0x3cf68f46	0.030097615
191	0x3e2a7b2f	0.16648553
192	0xbc9a27ba	-0.018817771
193	0xba877b22	-0.0010336379
194	0x3d9f3bdc	0.07775089
195	0x3decc7aa	0.115615204
196	0x3e03ba74	0.12864095
197	0xbdb761e7	-0.0895422
198	0x3e0d4c32	0.13798597
199	0x3b05b12f	0.00203998
200	0x3e183540	0.14864063
201	0x3d1b8fac	0.037978813
202	0xbe04f7a8	-0.12985098
203	0xbda186cd	-0.07887039
204	0x3d7eb16a	0.062180914
205	0xbdbc5e3e	-0.09197663
206	0xbe033633	-0.12813644
207	0x3dd73b18	0.10509318
208	0xbe0dd232	-0.13849714
209	0x3d83d203	0.06436541
210	0xbdb0180b	-0.08598336
211	0x3e18ba9e	0.14914939
212	0xbe312092	-0.17297581
213	0xbc018e75	-0.0079075
214	0x3e2d444c	0.16920584
215	0xbdf2dd3c	-0.11858603
216	0xbe189f3a	-0.1490449
217	0xbe0baaac	-0.13639325
218	0x3da0fc4c	0.07860622
219	0x3d65bfa1	0.056090955
220	0xbdf607de	-0.12013219
221	0xbc3794b0	-0.011204883
222	0xbe31ccc1	-0.17363264
223	0x3c560a21	0.013063938
224	0xbe0b5bcc	-0.13609236
225	0x3dda28bf	0.10652303
226	0xbe1ad66c	-0.15120858
227	0xbde3c82d	-0.11122165
228	0xbd1bc593	-0.03803022
229	0x3d836c78	0.06417173
230	0xbd5a3654	-0.053274468
231	0x3e187084	0.14886671
232	0xbd19c4c5	-0.03754117
233	0xbe02e186	-0.12781343
234	0x3df71f9d	0.12066577
235	0xbb87f91e	-0.00414957
236	0xbe2a76e7	-0.1664692
237	0xbdd859fb	-0.105640374
238	0xbde05ae0	-0.10954833
239	0x3dab95af	0.08378159
240	0xbc7e87b7	-0.015535287
241	0x3cfbcafe	0.030736443
242	0xbe08b5eb	-0.13350646
243	0x3dfe2995	0.12410275
244	0xbcad86c7	-0.02118243
245	0xbd54285a	-0.051796295
246	0xbdd929c4	-0.10603669
247	0xbe1fae46	-0.15593824
248	0x3d8888c8	0.06666714
249	0x3d99ba6a	0.07506259
250	0xbe058d45	-0.13042171
251	0xbb770ca1	-0.0037696736
252	0x3dd6235c	0.10455963
253	0x3dadda36	0.08488886
254	0x3d4f7855	0.050651867
255	0xbdc2c8e3	-0.09510972

fcs1_bn.weight f4 [400]
0	0x3f1384f2	0.57624733
1	0x3d15a92f	0.0365383
2	0x3edc7fb5	0.43066183
3	0x3f10e0e2	0.56593144
4	0x3eb2a657	0.34892532
5	0x3f7986bc	0.97471213
6	0x3d8cf6b7	0.068829946
7	0x3eb54a75	0.3540837
8	0x3f12144a	0.5706221
9	0x3ea014fe	0.31266016
10	0x3f1b3997	0.6063475
11	0x3f6ca3f2	0.9243766
12	0x3f55f065	0.8356994
13	0x3daf9134	0.08572617
14	0x3f42f09c	0.7614839
15	0x3e59d4f8	0.21272647
16	0x3f39c83d	0.72571164
17	0x3f118475	0.5684274
18	0x3dbf62f7	0.09345048
19	0x3f101378	0.56279707
20	0x3ea1e5cf	0.31620643
21	0x3f1b97d5	0.6077855
22	0x3f017efb	0.5058438
23	0x3e95a51a	0.29227525
24	0x3e26e49a	0.16298142
25	0x3eeeda55	0.4665095
26	0x3e475437	0.19465719
27	0x3f4a435e	0.79009044
28	0x3edfb53f	0.43692967
29	0x3e034ddb	0.12822668
30	0x3e90d9fc	0.2829131
31	0x3ddc4028	0.10754424
32	0x3e7fc8d9	0.24978961
33	0x3e206c96	0.15666422
34	0x3f1dd30c	0.61650157
35	0x3e4c654d	0.19960518
36	0x3e23cd8f	0.15996383
37	0x3f13ea49	0.57779366
38	0x3c18aa6c	0.0093179755
39	0x3ef0d042	0.47033888
40	0x3e7697c9	0.24081339
41	0x3e8e7f23	0.27831373
42	0x3f3717fc	0.7152097
43	0x3f3f840a	0.7481085
44	0x3ef03d3c	0.46921718
45	0x3df47529	0.11936409
46	0x3e85feba	0.26170903
47	0x3f4ef85e	0.8084773
48	0x3e8edc3e	0.27902406
49	0x3ecd2a4b	0.4007133
50	0x3ed538ee	0.41644996
51	0x3e7e0467	0.24806367
52	0x3ef94207	0.48683187
53	0x3eb3a641	0.3508778
54	0x3d955c36	0.072929785
55	0x3f591846	0.84802663
56	0x3d4ca484	0.04996158
57	0x3f0afdbd	0.54293424
58	0x3f5d9f8a	0.8657156
59	0x3ec65f89	0.38744763
60	0x3ec43ab6	0.38326043
61	0xbb122d6e	-0.002230491
62	0x3eb964c8	0.36209702
63	0x3e88d705	0.26726547
64	0x3f5274fd	0.8220976
65	0x3f340862	0.7032529
66	0x3cd47c8b	0.025938293
67	0x3f4e7578	0.80647993
68	0x3f4149ec	0.7550342
69	0x3ed4f667	0.4159424
70	0x3f328c89	0.6974569
71	0x3e8a88e9	0.2705758
72	0x3f2bf280	0.671669
73	0x3dadaf17	0.08480661
74	0x3f30e2e0	0.69096184
75	0x3e649d22	0.22325566
76	0x3ed20347	0.41018125
77	0x3e860f47	0.2618353
78	0x3f710aca	0.9415709
79	0x3eefb7ad	0.4681982
80	0x3e8b309d	0.27185526
81	0x3f1be211	0.60891825
82	0x3f1f788e	0.62293327
83	0x3f377b07	0.716721
84	0x3c03063b	0.007997091
85	0x3f2c7272	0.6736213
86	0x39344572	0.00017192008
87	0x3f61bef3	0.8818199
88	0x3dbaa718	0.09113902
89	0x3f65fe2d	0.89840966
90	0x3f554573	0.83309096
91	0x3efdc748	0.49566102
92	0x3e4433e6	0.19160423
93	0x3f511011	0.8166514
94	0x3de8272b	0.11335596
95	0x3b175011	0.0023088495
96	0x3ee1b07c	0.4407996
97	0x3eaf5b4a	0.34249336
98	0x3e002ee9	0.12517895
99	0x3ec31d60	0.3810835
100	0x3e264bc4	0.1623984
101	0x3f2a2a3c	0.66470695
102	0x3f088c14	0.5333874
103	0x3f25569a	0.6458527
104	0x3f27e7a7	0.6558785
105	0x3e14fb95	0.14549096
106	0x3db53757	0.08848446
107	0x3de2a852	0.11067261
108	0x3f6eb214	0.93240476
109	0x3f53af4e	0.8268937
110	0x3e381ca1	0.17979671
111	0x3e807fcc	0.250975
112	0x3eb2438a	0.34817153
113	0x3f2cbe7b	0.6747815
114	0x3f19d8b6	0.600963
115	0x3f3547e4	0.7081282
116	0x3f6ee0ac	0.9331157
117	0x3edde0d8	0.43335605
118	0x3e08c2e1	0.1335559
119	0x3eee5dd6	0.46555966
120	0x3ea5502f	0.32287738
121	0x3f5ec650	0.8702135
122	0x3e32f115	0.17474778
123	0x3b5fd86c	0.0034156097
124	0x3f0e0623	0.55478114
125	0x3e2e4ebb	0.17022221
126	0x3e991a79	0.2990301
127	0x3f48886a	0.7833315
128	0x3e8ece53	0.27891788
129	0x3ec76338	0.38942885
130	0x3e84a4b8	0.2590692
131	0x3f6eb82f	0.9324979
132	0x3f444e8b	0.7668235
133	0x3d7eccf9	0.062207196
134	0x3e5cc05c	0.21557754
135	0x3e7aeea4	0.24505097
136	0x3e68fe20	0.22753191
137	0x3ea4ca09	0.3218539
138	0xba7170b5	-0.0009210215
139	0x3f7282cd	0.94730836
140	0x3f5d33aa	0.8640696
141	0x3f0150a1	0.50513655
142	0x3f4bf04f	0.79663557
143	0x3f5205aa	0.8203989
144	0x3ee587a9	0.44830063
145	0x3f599a80	0.85001373
146	0x3f4e61b9	0.8061786
147	0x3ef7a531	0.4836822
148	0x3e6e440c	0.23268145
149	0x3f348586	0.7051624
150	0x3eaeda72	0.34151036
151	0x3f2e0d4f	0.6798906
152	0x3eada68f	0.33916137
153	0x3edd405b	0.43213162
154	0x3e06fec9	0.1318313
155	0x3f2d0332	0.67583
156	0x3eb24c06	0.34823626
157	0x3f59ab42	0.85026944
158	0x3e1fa9c3	0.15592103
159	0x3dbb34dc	0.091409415
160	0x3ed2c0df	0.41162774
161	0x3e995810	0.2995
162	0x3e0be334	0.1366089
163	0x3ee984c7	0.45609114
164	0x3f3fe7cd	0.74963075
165	0x3e9600a0	0.29297352
166	0x3f25116c	0.6447971
167	0x3f0ceb8e	0.5504693
168	0x3f88c6c4	1.0685658
169	0x3f2619e6	0.6488327
170	0x3f044c57	0.51678985
171	0x3f65d928	0.8978448
172	0x3f7bfd34	0.9843323
173	0x3f26dee5	0.6518386
174	0x3f4108c0	0.75403976
175	0x3e836248	0.2566092
176	0x3e9decfe	0.30844873
177	0x3daf351f	0.08555054
178	0x3d2d5cf0	0.04232496
179	0x3dd59270	0.10428321
180	0x3e312248	0.17298234
181	0x3ea4567f	0.3209724
182	0x3f482872	0.78186715
183	0x3f3bae74	0.7331307
184	0x3e9db11d	0.3079919
185	0x3e30c7b9	0.17263688
186	0x3cfced61	0.03087491
187	0x3f5e9bb5	0.8695634
188	0x3edc8b70	0.43075132
189	0x3f52eef7	0.8239588
190	0x3f5f5fa7	0.8725533
191	0x3e95d863	0.29266652
192	0x3f4aaf80	0.7917404
193	0x3f143787	0.5789723
194	0x3f5f5483	0.8723833
195	0x3f44f7e3	0.76940745
196	0x3e03eeb9	0.12884034
197	0x3eba5514	0.36393034
198	0x3ebbea76	0.36702317
199	0x3f374f12	0.71605027
200	0x3e0be971	0.1366327
201	0x3f626a60	0.88443565
202	0x3e86c4b2	0.26321942
203	0x3ef38ce3	0.47568426
204	0x3f69dc22	0.9135152
205	0x3e7a4ac7	0.24442588
206	0x3f0b5b0f	0.5443582
207	0x3f3d9332	0.7405273
208	0x3f4907c3	0.7852747
209	0x3f6078bb	0.8768422
210	0x3ebdbbea	0.3705743
211	0x3e759ab4	0.23984796
212	0x3ee38c4f	0.44442984
213	0x3de405c4	0.11133912
214	0x3df90629	0.12159378
215	0x3ee5f886	0.4491617
216	0x3f5e0bd0	0.86736774
217	0x3c01caa8	0.007921852
218	0x3e57c93c	0.21072859
219	0x3eb9927e	0.36244577
220	0x3eef2d82	0.46714407
221	0x3f5428a7	0.8287453
222	0x3e81a148	0.2531836
223	0x3f0b8288	0.5449605
224	0x3e9ce31f	0.3064203
225	0x3ea47e33	0.32127532
226	0x3f72e91c	0.94886947
227	0x3f30ac92	0.6901332
228	0x3edf46b7	0.4360864
229	0x391e5516	0.00015099751
230	0x3e3c57bd	0.18392844
231	0x3f166251	0.5874377
232	0x3ef881a3	0.48536405
233	0x3f20a358	0.6274924
234	0x3eb23d4a	0.34812385
235	0x3e6795fc	0.22615808
236	0x3e85e4dd	0.2615117
237	0x3ef468de	0.47736257
238	0x3f5a5329	0.8528314
239	0x3e97a1db	0.29615673
240	0x3e2061f1	0.15662362
241	0x3f03877b	0.513786
242	0x3d77a45b	0.060459476
243	0x3f257f75	0.6464761
244	0x3ecfaee6	0.40563124
245	0x3e9a5065	0.3013946
246	0x3f0f1c6e	0.55902755
247	0x3eccd647	0.4000723
248	0x3f15e58e	0.585534
249	0x3f3bd375	0.7336953
250	0x3f299591	0.66243845
251	0x3f04cf7b	0.5187909
252	0x3f01eb55	0.50749713
253	0x3f1c1d26	0.60981977
254	0x3e9aa992	0.30207497
255	0x3efff35c	0.49990356

fcs1_bn.bias f4 [400]
0	0xbe1b45fb	-0.15163414
1	0xbca2bccd	-0.019865418
2	0xbd846588	-0.06464678
3	0xbdd5753c	-0.10422751
4	0xbd0d40ce	-0.03448563
5	0xbd8bf1c8	-0.068332255
6	0xbce5bc0e	-0.028043773
7	0xbd25866d	-0.0404114
8	0xbd3400cb	-0.04394607
9	0xbc319170	-0.010837898
10	0xbda18ce7	-0.07888203
11	0xbdeec4d9	-0.116586395
12	0xbde49247	-0.11160713
13	0xbd1346bc	-0.03595613
14	0xbd02f33f	-0.03197026
15	0xbd58a2e9	-0.05288974
16	0xbcf33fbd	-0.029693479
17	0xbd090925	-0.033455987
18	0xbcc2839b	-0.023744395
19	0xbd995c8d	-0.07488356
20	0x3cdd8cc7	0.027044667
21	0xbe0f283f	-0.13980196
22	0xbdfcc4ab	-0.12342199
23	0xbc3a295d	-0.011362401
24	0xbd5f84a6	-0.054569863
25	0xbd1fced1	-0.039015595
26	0xbd410aa3	-0.047129285
27	0xbcbf23d6	-0.023332518
28	0x3cd609a7	0.02612765
29	0xbd7ed8e3	-0.062218558
30	0xbc9c9ee1	-0.019118728
31	0xbd93bfc4	-0.07214311
32	0xbb83c9d3	-0.004021862
33	0xbdcd960b	-0.10038384
34	0xbd73f494	-0.05955942
35	0xbdae4abb	-0.085103475
36	0xbd53484d	-0.051582623
37	0xb9773b74	-0.00023577904
38	0xbd18a2aa	-0.037264504
39	0xbc0be02f	-0.008537336
40	0xbd560f6d	-0.052260805
41	0xbe0fcc50	-0.14042783
42	0xbdd6a189	-0.10480029
43	0xbdf51484	-0.11966804
44	0xbdca7f08	-0.098875105
45	0xbd01e5bd	-0.031713236
46	0xbdf63c01	-0.120231636
47	0xbd5d76a6	-0.05406823
48	0xbd49a97a	-0.04923389
49	0xbd976d31	-0.073938735
50	0xbde68a77	-0.11256879
51	0xbd41b0a3	-0.047287595
52	0xbd3d8bc5	-0.046275873
53	0xbda2d01e	-0.079498515
54	0xbd7a033f	-0.061038252
55	0x3c39db54	0.011343796
56	0xbd2644e2	-0.040593036
57	0xbd29b7db	-0.041435104
58	0x3bd75a56	0.006572048
59	0x3cc7e2ff	0.024400232
60	0xbc6a291e	-0.01429203
61	0xbd007890	-0.031364977
62	0xbd9977a9	-0.074935265
63	0xbdcc4558	-0.09974164
64	0xbe01a69e	-0.12661216
65	0xbde6f096	-0.11276357
66	0xbd6d18f5	-0.05788513
67	0xbd678dd4	-0.056531742
68	0xbd7e1576	-0.062032185
69	0xbd6c7137	-0.057725158
70	0x3bbbc5cd	0.005730367
71	0xbdd3c4cd	-0.10340271
72	0xbdda6140	-0.1066308
73	0xbd5f3bde	-0.054500453
74	0xbe113d4d	-0.1418354
75	0x3cfc2463	0.03077907
76	0xbd9fbbb4	-0.077994734
77	0xbdc8ef2f	-0.09811246
78	0x3ca8f1db	0.020623138
79	0xbdf15dad	-0.11785445
80	0xbd68e8e7	-0.056862738
81	0xbd0320da	-0.03201375
82	0xbddcbd4d	-0.10778294
83	0x3d11689f	0.035500165
84	0xbc92688c	-0.017872117
85	0xbda71d7e	-0.08159922
86	0xbcaf915d	-0.02143162
87	0xbd95b6be	-0.07310246
88	0xbd2125e6	-0.039342783
89	0xbd2c504f	-0.042068776
90	0xbcb32c8a	-0.021871824
91	0xbd0b95db	-0.03407846
92	0xbbe48bd7	-0.006974678
93	0xbd7e419f	-0.0620743
94	0xbd795d26	-0.06087985
95	0xbc1b679e	-0.0094851535
96	0xbdf82907	-0.121172
97	0xbdbd498b	-0.09242543
98	0xbd20e36d	-0.03927939
99	0xbdbaabea	-0.09114821
100	0xbdaca829	-0.084305115
101	0xbce8d38f	-0.028421191
102	0xbc8ed02e	-0.017433252
103	0xbda8a2b5	-0.08234159
104	0xbdf7cbdf	-0.12099432
105	0xbdb7ad18	-0.08968562
106	0xbc7e4aaa	-0.015520731
107	0xbd51ae4b	-0.05119161
108	0x3b79cb4c	0.003811556
109	0xbdf9c3c0	-0.121955395
110	0xbdc99bb9	-0.09844155
111	0xbbddb87e	-0.006766378
112	0xbdb167a9	-0.0866235
113	0xbdada4e4	-0.08478716
114	0x3cbcb40b	0.02303507
115	0xbcdd6c6f	-0.027029244
116	0xbbfa18db	-0.0076323575
117	0xbe191e5b	-0.14952986
118	0xbda6ca7d	-0.0814409
119	0xbdcd8ee0	-0.10037017
120	0xbdd2afbc	-0.10287425
121	0xbd76c953	-0.06025059
122	0xbdfec8f2	-0.12440671
123	0xbc51268f	-0.012765541
124	0xbdbb092d	-0.091326095
125	0xbd7fd222	-0.062456258
126	0xbd69d494	-0.057087496
127	0x3d3e4b98	0.04645881
128	0xbdad9805	-0.08476261
129	0xbe10a3f0	-0.14125037
130	0xbd88df6e	-0.06683241
131	0xbdb1c51c	-0.08680174
132	0xbd9340f0	-0.0719012
133	0xbd5957c6	-0.053062223
134	0xbd8173c6	-0.0632091
135	0x3b05cc2f	0.0020415892
136	0xbbdb0cdf	-0.006684884
137	0xbd7ab8d0	-0.061211407
138	0xbc9f59f5	-0.019452075
139	0xbda73f9e	-0.08166431
140	0x3cae66b9	0.021289216
141	0xbc2f07e7	-0.010683036
142	0xbd1033c2	-0.03520561
143	0xbdda9985	-0.10673813
144	0xbd8f127b	-0.06985947
145	0xbd5767e0	-0.052589297
146	0xbdaed895	-0.085374035
147	0xbdcbf9f6	-0.09959786
148	0xbd658a01	-0.056039814
149	0xbe0f4486	-0.13990983
150	0xbdcedc4f	-0.10100614
151	0xbd8c05e1	-0.06837059
152	0xbcd5dab3	-0.02610526
153	0xbd800a2e	-0.062519416
154	0xbdf7a4e3	-0.120919965
155	0xbd67ae4d	-0.05656271
156	0xbd1cdad1	-0.038294617
157	0xbdd87064	-0.10568312
158	0xbd30f6a2	-0.043203957
159	0xbdb8ce9d	-0.09023783
160	0xbd93766c	-0.072003216
161	0xbd45dead	-0.048308063
162	0xbdb36b43	-0.08760693
163	0xbd8d7032	-0.06906165
164	0xbd110937	-0.03540918
165	0xbd5e1388	-0.054217845
166	0x3ca54893	0.020176208
167	0xbd6a1d41	-0.057156805
168	0xbdb7fdf8	-0.089839876
169	0xbd54dd6a	-0.05196897
170	0x3c49d86a	0.012319664
171	0xbd9dcab3	-0.077046774
172	0xbe145626	-0.14485988
173	0xbda83c9b	-0.082146846
174	0xbe37d12f	-0.17950891
175	0xbdfa2824	-0.122146875
176	0xbda83e55	-0.08215014
177	0xbcdcee76	-0.026969176
178	0xbca90ebd	-0.02063691
179	0xbcab14fa	-0.020884026
180	0xbd309c4d	-0.04311781
181	0xbdf0a8d0	-0.117509484
182	0xbc8593b2	-0.016305778
183	0xbdbd2df7	-0.09237283
184	0xbce375c1	-0.02776611
185	0xbdc81316	-0.09769265
186	0x3bca9e3e	0.0061834147
187	0xbe239415	-0.15974458
188	0xbdcd6a8a	-0.10030086
189	0xbd74ae46	-0.059736513
190	0xbdc38837	-0.09547465
191	0xbda49e82	-0.080380455
192	0xbdeba8cb	-0.11506804
193	0xbd70ea09	-0.058816943
194	0xbdf9cf94	-0.121977955
195	0xbdaa3547	-0.08310943
196	0xbdadc8a1	-0.084855326
197	0xbd36448c	-0.044498965
198	0xbdab6539	-0.08368916
199	0xbdd5a35b	-0.10431548
200	0xbd2cb18c	-0.04216151
201	0xbdad4edb	-0.08462306
202	0xbe09715c	-0.1342215
203	0xbdd6bcdc	-0.10485241
204	0xbd723da1	-0.059140805
205	0xbdeac1a9	-0.11462719
206	0xbdea61d9	-0.11444444
207	0xbc29d1b2	-0.010364937
208	0xbd55d6e0	-0.052206874
209	0xbd92e8bb	-0.07173296
210	0xbd80a1cb	-0.062808596
211	0xbdcd2219	-0.10016269
212	0xbe02f984	-0.12790495
213	0xbcae333d	-0.021264667
214	0xbdad50ba	-0.08462663
215	0xbe04ba6d	-0.12961741
216	0xbde62314	-0.11237159
217	0xbd075b9f	-0.03304636
218	0x3a136111	0.0005622069
219	0xbd10fb46	-0.035395883
220	0xbdc87ff6	-0.097900316
221	0xbd1b630d	-0.03793626
222	0xbdbeca44	-0.09315923
223	0xbd98489d	-0.07435725
224	0xbcdab094	-0.026695527
225	0xbda7ebfa	-0.08199306
226	0xbda2f228	-0.07956344
227	0xbd8f9859	-0.0701148
228	0xbd6c1d91	-0.057645384
229	0xbc482b24	-0.012217317
230	0xbdb227e3	-0.08699014
231	0xbde9053a	-0.1137795
232	0xbe00a4c9	-0.1256286
233	0xbe1475f6	-0.14498124
234	0xbdbcd597	-0.092204265
235	0xbd8a7487	-0.06760507
236	0xbd4cc30d	-0.049990702
237	0xbd2a436e	-0.041568212
238	0xbd1e9225	-0.038713593
239	0xbce23b1b	-0.027616074
240	0xbd8c4e45	-0.06850866
241	0xbd0485cd	-0.032354165
242	0xbd30c2b8	-0.04315445
243	0xbe0060fa	-0.12536994
244	0xbd38bb48	-0.04510048
245	0xbe10facc	-0.14158171
246	0xbd985853	-0.074387215
247	0xbdf801b9	-0.121097036
248	0xbdf78395	-0.12085644
249	0x3c8192fa	0.015817154
250	0xbd1a772b	-0.037711304
251	0xbd226313	-0.039645266
252	0xbd557460	-0.052112937
253	0xbd8ae654	-0.06782213
254	0xbdc8f1f1	-0.09811772
255	0xbd3720f1	-0.04470915

fcs1_bn.running_mean f4 [400]
0	0xbc3bee3a	-0.011470372
1	0x3e8dcc91	0.27695134
2	0xbea97719	-0.33098677
3	0xbd0663ad	-0.032809902
4	0xbd8a53f0	-0.06754291
5	0xbe22dd9e	-0.15904853
6	0x3de80ee2	0.11330964
7	0x3e36135b	0.17780821
8	0xbe24053a	-0.16017619
9	0x3d4ee32a	0.05050961
10	0xbd0d8cdf	-0.034558173
11	0x3e019efe	0.12658307
12	0xbd3bb3e0	-0.04582584
13	0xbe8ebfe2	-0.2788077
14	0xbca097b9	-0.019603597
15	0xbe2f1aa3	-0.17100005
16	0xbea0088e	-0.31256527
17	0x3eba24e9	0.36356285
18	0x3db9cb46	0.090719745
19	0xbe016f5e	-0.1264014
20	0xbc99be2e	-0.018767443
21	0x3e9775cf	0.29582068
22	0x3ea27c16	0.31735295
23	0x3e390d0c	0.18071383
24	0xbe672e46	-0.22576246
25	0xbd01e4e3	-0.031712424
26	0xbe455ddd	-0.19274087
27	0xbf19f6a6	-0.6014198
28	0x3ea9c782	0.33160025
29	0xbe48dba4	-0.19615036
30	0x3e8d8009	0.27636746
31	0x3d928fca	0.07156332
32	0xbe5fdb86	-0.21861085
33	0x3d578d0b	0.052624743
34	0xbe8717a4	-0.26385224
35	0x3ec52a42	0.38508803
36	0x3cb4d7ce	0.02207556
37	0x3dbc02e2	0.09180237
38	0x3e35facb	0.17771451
39	0xbc637110	-0.013881937
40	0x3e938e64	0.28819573
41	0x3de7eb74	0.11324206
42	0x3e6f3a58	0.233621
43	0xbf274952	-0.6534625
44	0xbe8a8aff	-0.2705917
45	0x3ea36a54	0.3191706
46	0xbe060ac0	-0.13090038
47	0x3dd92fa2	0.10604788
48	0x3dd25f79	0.10272116
49	0xbeed80fb	-0.46387467
50	0xbe964a30	-0.29353476
51	0xbd527c52	-0.051388092
52	0x3e9dbbf1	0.3080745
53	0xbe5e8b39	-0.21732797
54	0x3d1979db	0.037469726
55	0xbdfb355f	-0.12266039
56	0xbeca32d8	-0.39491916
57	0xbdd55093	-0.10415759
58	0xbe7e8f1f	-0.24859284
59	0xbc86f79c	-0.016475491
60	0x3ec0ecb3	0.37680587
61	0x3e0daaef	0.13834737
62	0xbda68cce	-0.08132325
63	0xbe3c0814	-0.18362457
64	0x3dc9f5e4	0.09861353
65	0xbe737113	-0.23773603
66	0x3ddd4c1b	0.108055316
67	0x3e812378	0.25222373
68	0xbef0bc0f	-0.47018477
69	0xbe86b3b7	-0.26308987
70	0xbeb9ebc6	-0.36312693
71	0xbe000192	-0.12500599
72	0x3de743f8	0.11292261
73	0x3cae7f35	0.021300891
74	0x3da3464f	0.07972395
75	0x3e767347	0.24067412
76	0x3d396464	0.045261756
77	0x3dbf7a13	0.09349456
78	0xbdf11395	-0.11771313
79	0xbe39b2ba	-0.18134585
80	0x3e91684a	0.2839988
81	0x3e88e0b5	0.26733938
82	0x3ef9aa66	0.48762816
83	0xbed76570	-0.42069578
84	0x3e863e31	0.26219323
85	0xbe9e4deb	-0.30918822
86	0x3e9aeaa6	0.30257148
87	0x3ed332a7	0.41249582
88	0x3e8047c0	0.2505474
89	0xbe9b79fd	-0.30366507
90	0xbd654498	-0.05597362
91	0x3e2c8b44	0.1685
92	0x3e9d2367	0.30691072
93	0xbe3433d2	-0.17597893
94	0xbec5e9a7	-0.38654825
95	0xbe98acd9	-0.29819372
96	0xbf0c1057	-0.5471243
97	0x3ecda30b	0.40163454
98	0xbe245016	-0.16046175
99	0x3c23565c	0.00996932
100	0x3db3b882	0.087754264
101	0xbee98517	-0.45609352
102	0xbe5645a6	-0.20925006
103	0xbdaafd83	-0.08349135
104	0xbe1750e6	-0.14776954
105	0xbecd49a1	-0.40095237
106	0x3cafd68d	0.02146461
107	0xbee26c20	-0.44223118
108	0xbea94668	-0.33061528
109	0xbcde529d	-0.027139002
110	0x3e0e2338	0.13880622
111	0xbe018027	-0.12646542
112	0x3d8786f4	0.06617537
113	0x3e23994d	0.15976448
114	0xbd8f46e8	-0.06995946
115	0x3efc4c2a	0.4927686
116	0x3d61adf2	0.055097528
117	0xbc866e18	-0.016409919
118	0xbebec9da	-0.37263376
119	0xbe9b356b	-0.30314192
120	0xbc2dbf66	-0.010604715
121	0x3ddd2e0e	0.107998
122	0xbcc5d711	-0.024150403
123	0xbd6a5217	-0.057207193
124	0xbe272e12	-0.16326168
125	0xbed16595	-0.40897813
126	0xbe551922	-0.20810369
127	0xbe4b8419	-0.1987461
128	0x3e52c1eb	0.20581786
129	0x3c5e9361	0.013584943
130	0xbe7a41f6	-0.24439225
131	0xbdc7eeb3	-0.09762325
132	0x3efef9f2	0.49800068
133	0x3dd19fc5	0.10235552
134	0x3c828cf4	0.015936352
135	0x3e670fe9	0.22564663
136	0xbeecabcc	-0.4622482
137	0xbe1542b8	-0.14576232
138	0xbe57b910	-0.2106669
139	0xbe6912be	-0.22761056
140	0xbdd02d77	-0.10164922
141	0x3e21fa6a	0.15818182
142	0x3de69e02	0.11260606
143	0xbe5ef55f	-0.21773289
144	0xbd487bfe	-0.048946373
145	0x3e7614b7	0.2403134
146	0xbe3801b3	-0.17969398
147	0xbd198e92	-0.03748948
148	0xbee8edc0	-0.4549389
149	0x3ebd57b3	0.36980972
150	0xbe9db52a	-0.3080228
151	0x3c5374bd	0.012906251
152	0xbec170a4	-0.3778125
153	0xbe722b90	-0.2364943
154	0x3db134a4	0.086526185
155	0xbce82d43	-0.028341895
156	0x3e34fea8	0.17675269
157	0x3e65648e	0.2240164
158	0xbe57cf56	-0.21075186
159	0x3d13fe4a	0.03613118
160	0x3d703a31	0.058649246
161	0x3e7156ce	0.2356827
162	0x3e13d5e1	0.14437057
163	0x3e68ffc4	0.22753817
164	0xbd996f68	-0.07491952
165	0xbee33a64	-0.44380486
166	0x3e9778e3	0.29584417
167	0x3dc8ce83	0.09805014
168	0xbbb920dc	-0.005649669
169	0xbee87458	-0.45401263
170	0xbbf6e287	-0.0075343284
171	0x3ec3cbd3	0.38241443
172	0x3ea89ccb	0.32932124
173	0xbe31a95c	-0.17349762
174	0xbe53e099	-0.20691146
175	0xbd76012d	-0.060059715
176	0xbc83d015	-0.016090432
177	0xbeaf072f	-0.34185168
178	0xbe85ba34	-0.26118624
179	0xbe01f4fe	-0.12691113
180	0x3e5455ae	0.20735809
181	0xbdec2775	-0.11530963
182	0x3ee3ff45	0.44530693
183	0x3ee2be26	0.44285697
184	0xbe09a01f	-0.13439988
185	0x3e6f026f	0.23340772
186	0x3ec14b7d	0.37752905
187	0x3e2d71df	0.1693797
188	0xbe0326d9	-0.12807788
189	0xbde52b23	-0.11189868
190	0xbe2467d4	-0.16055232
191	0xbea13c59	-0.31491354
192	0xbe145bec	-0.1448819
193	0x3be22af4	0.006902093
194	0xbeabe936	-0.33576363
195	0x3e177a09	0.14792646
196	0xbcb5af35	-0.022178272
197	0xbbebe864	-0.007199334
198	0x3d87b67e	0.066266045
199	0xbc4feb58	-0.012690388
200	0xbc3ceffd	-0.011531827
201	0xbec0da90	-0.3766675
202	0xbe0159b2	-0.12631872
203	0x3db49951	0.08818305
204	0xbca2f235	-0.019890884
205	0xbe8c7a17	-0.27436897
206	0x3d53b3aa	0.051685013
207	0x3ecb8fbe	0.39758104
208	0xbe2e91dd	-0.1704783
209	0xbdacc87e	-0.08436678
210	0xbe1ae0ca	-0.15124813
211	0xbdab524d	-0.08365307
212	0xbe753b7e	-0.23948476
213	0xbdf03b9c	-0.117301196
214	0x3efa2189	0.4885371
215	0xbe945865	-0.2897369
216	0xbe13031f	-0.1435666
217	0x3c3aee71	0.011409388
218	0x3ea80a60	0.32820415
219	0xbe836c6c	-0.25668657
220	0xbe0313d4	-0.12800533
221	0xbeec04b8	-0.4609735
222	0xbeeac2d2	-0.4585176
223	0xbe3a1609	-0.18172468
224	0x3e281e9e	0.1641793
225	0x3c839e16	0.016066592
226	0xbdbd081c	-0.09230062
227	0xbe9e8c4e	-0.3096642
228	0xbd27195c	-0.04079567
229	0x3e2aa9da	0.16666356
230	0xbeef7f3c	-0.4677676
231	0xbcfd34a6	-0.030908894
232	0xbc488014	-0.012237567
233	0xbe2fc6ea	-0.17165723
234	0xbe30d0a1	-0.17267086
235	0x3f0d9085	0.55298644
236	0x3e09a602	0.13442233
237	0x3d98f03a	0.074676946
238	0xbe06bb74	-0.13157445
239	0x3e3ced39	0.18449868
240	0xbc28adbd	-0.010295329
241	0xbe835688	-0.25651956
242	0xbe6ce6ca	-0.23134914
243	0xbd670740	-0.0564034
244	0xbde78ae9	-0.11305792
245	0x3dd5c4df	0.10437941
246	0x3ea1413c	0.31495082
247	0xbe2039ca	-0.15647045
248	0xbe60972a	-0.21932665
249	0x3d4f7701	0.0506506
250	0xbe398423	-0.18116812
251	0xbdd4d9dd	-0.103931166
252	0x3f1962c0	0.59916306
253	0xbcab241e	-0.020891245
254	0x3dba273b	0.09089514
255	0xbf4f2086	-0.80909

fcs1_bn.running_var f4 [400]
0	0x4055594d	3.3335755
1	0x3fce006b	1.6093878
2	0x4012dee0	2.2948532
3	0x40022f14	2.0341234
4	0x3fd3a44a	1.6534512
5	0x400ee225	2.2325528
6	0x4019a21e	2.4005198
7	0x3ff53501	1.91568
8	0x3f8e2949	1.1106349
9	0x401dac01	2.4636233
10	0x406ebc2e	3.7302356
11	0x3f602228	0.8755212
12	0x40545439	3.3176405
13	0x3fd53d0a	1.6659253
14	0x4055d782	3.3412786
15	0x3fe2cd94	1.7718987
16	0x405b05a4	3.4222193
17	0x404e4415	3.2229054
18	0x4049ed1b	3.1550968
19	0x40481213	3.1261032
20	0x3fb9348d	1.4469162
21	0x40c787af	6.235313
22	0x4023af6d	2.5575821
23	0x40521ed3	3.2831314
24	0x3f8e9b5f	1.1141165
25	0x40cc1ca3	6.3784957
26	0x40378064	2.8672113
27	0x40757acb	3.8356197
28	0x40603838	3.5034313
29	0x3ff268b4	1.8938203
30	0x3fe70f9b	1.8051637
31	0x404e4302	3.2228398
32	0x3f6e58a5	0.9310401
33	0x407930c6	3.893602
34	0x4086a61c	4.207777
35	0x3f5a14ec	0.85188174
36	0x4051152c	3.2669172
37	0x3fa0264e	1.251169
38	0x3fe1b1ea	1.763242
39	0x3fa9eab0	1.3274746
40	0x402e4263	2.722802
41	0x4012b9a1	2.29258
42	0x3fa48a43	1.2854694
43	0x4027bd79	2.6209395
44	0x3f963786	1.1735694
45	0x404ce372	3.2013822
46	0x402b6d83	2.678559
47	0x40934155	4.601725
48	0x40d72aaf	6.7239604
49	0x3fc54994	1.5413079
50	0x400b50a0	2.176796
51	0x3feceaf5	1.8509203
52	0x400fc6db	2.2465122
53	0x3fc219dd	1.5164143
54	0x3f6cc67e	0.92490375
55	0x40c2a2ac	6.0823574
56	0x4020206b	2.5019786
57	0x3f4bd845	0.79626876
58	0x3fbd9ba2	1.481312
59	0x409bea73	4.8723693
60	0x4048dad4	3.1383562
61	0x3fdf81ed	1.7461525
62	0x3fefcb73	1.8733963
63	0x407fed5e	3.9988627
64	0x404b09c0	3.17247
65	0x405a2028	3.4082127
66	0x404b2328	3.1740208
67	0x3f900220	1.1250648
68	0x409e2e6b	4.9431663
69	0x404d30ef	3.2061117
70	0x404888a9	3.133341
71	0x40a593c5	5.1742883
72	0x3fc19740	1.5124283
73	0x40aa91d8	5.330303
74	0x3f8179db	1.0115312
75	0x3febfe35	1.8436953
76	0x401dbbd9	2.4645903
77	0x3fa50244	1.2891316
78	0x3fe3a6d0	1.7785282
79	0x40e98834	7.2978764
80	0x3f3b410a	0.73146117
81	0x40383265	2.8780758
82	0x40921ec8	4.5662575
83	0x3f66cacd	0.901532
84	0x40220ed5	2.5321553
85	0x3f5b12f8	0.8557582
86	0x3f70d48b	0.94074315
87	0x4011a40a	2.2756371
88	0x40cf25f0	6.473381
89	0x409b8a3b	4.860624
90	0x400b8efa	2.1806016
91	0x404d7100	3.210022
92	0x3fb38709	1.4025584
93	0x408d9bd1	4.4252706
94	0x40b07087	5.5137362
95	0x4010b2a6	2.2609038
96	0x40056277	2.0841348
97	0x405deab5	3.4674504
98	0x3f8b48bb	1.088157
99	0x40ab6b83	5.356874
100	0x3fc390f2	1.5278609
101	0x3f9814ce	1.1881349
102	0x4012d145	2.2940228
103	0x3fee22f7	1.860442
104	0x3f36ba54	0.71378064
105	0x40344180	2.8164978
106	0x3f45ed29	0.77315
107	0x40d2b5ac	6.5846767
108	0x3f30b167	0.69020694
109	0x3ff92107	1.9463204
110	0x3f874a8b	1.0569624
111	0x3ff21f6a	1.8915837
112	0x3f77960a	0.96713316
113	0x407820d9	3.8770049
114	0x3f966f9c	1.175281
115	0x405e3fb6	3.4726386
116	0x407f8da8	3.993021
117	0x403fa4bf	2.9944303
118	0x40c5f31f	6.185928
119	0x4097ee0f	4.74781
120	0x3f173710	0.59068394
121	0x3facaf08	1.3490915
122	0x3fc19775	1.5124346
123	0x401bc2d7	2.433767
124	0x3f79780e	0.97448814
125	0x3fd93b91	1.6971303
126	0x3fd95912	1.6980307
127	0x3fdd3d69	1.7284366
128	0x405625a5	3.3460476
129	0x402743e7	2.6135194
130	0x40235c1e	2.5524974
131	0x3f8dd6e0	1.10812
132	0x3f4d9032	0.8029815
133	0x400e0081	2.2187808
134	0x3fe7d259	1.8111068
135	0x3f63b407	0.88946575
136	0x40bc9d15	5.894175
137	0x4083270e	4.0985174
138	0x3fbe46b8	1.4865332
139	0x3fac3632	1.3454039
140	0x3f47caee	0.7804402
141	0x401f6e9b	2.4911258
142	0x3fc970e8	1.5737581
143	0x40b3c0e9	5.6172986
144	0x4048a277	3.134916
145	0x3f9773bd	1.1832196
146	0x4006cdca	2.1063104
147	0x407079ca	3.7574334
148	0x402ee4ed	2.7327225
149	0x402cfb7e	2.7028499
150	0x400f7bac	2.2419233
151	0x3f577c17	0.8417372
152	0x400de500	2.217102
153	0x402e503b	2.7236469
154	0x3f9ebfe7	1.2402314
155	0x40541995	3.3140614
156	0x3ffbd40e	1.9674089
157	0x4002b43c	2.0422506
158	0x4079a70f	3.9008214
159	0x3faef63b	1.3668894
160	0x3fd8bc28	1.6932421
161	0x40daff0f	6.843635
162	0x402b348c	2.6750822
163	0x40507a07	3.257448
164	0x405f2bb0	3.4870415
165	0x3ff95a9b	1.9480776
166	0x405f056b	3.4847057
167	0x3fc443d9	1.5333205
168	0x3f1eba9f	0.6200351
169	0x40980d50	4.751625
170	0x4089c1e6	4.3049192
171	0x3fa053a5	1.2525526
172	0x3f9a6ca0	1.20644
173	0x40bdb1bf	5.9279475
174	0x4060c93f	3.512283
175	0x3fcd7ea2	1.605427
176	0x401901ed	2.3907425
177	0x40559b10	3.3375893
178	0x409466da	4.637555
179	0x3f597189	0.84938866
180	0x3fb21180	1.391159
181	0x401f36ec	2.4877272
182	0x409cfbd6	4.9057417
183	0x405a0f1a	3.4071717
184	0x407cd3f7	3.9504373
185	0x3f59442a	0.84869635
186	0x3ff18158	1.8867598
187	0x3fa3f875	1.2810198
188	0x4033bf39	2.8085463
189	0x3f6875ef	0.9080495
190	0x403a5a8b	2.9117763
191	0x400591da	2.087027
192	0x3f7f4a86	0.9972309
193	0x3f4f0a50	0.8087511
194	0x40adbeec	5.429556
195	0x409cb5d0	4.897194
196	0x40171291	2.3605082
197	0x4045c37d	3.0900567
198	0x40107d9d	2.2576668
199	0x3f5db264	0.8660033
200	0x3f11594b	0.56776875
201	0x40bb3a3d	5.850859
202	0x3ff87703	1.941132
203	0x3f8fee0a	1.1244519
204	0x4068e13d	3.6387475
205	0x405e2b1f	3.471382
206	0x408b9202	4.361573
207	0x40095271	2.1456568
208	0x40fd546b	7.916555
209	0x3f3f82ea	0.74809134
210	0x3f86ae43	1.052193
211	0x3f643d45	0.8915599
212	0x3fae806d	1.3632942
213	0x3f189656	0.59604394
214	0x3f3ab133	0.72926635
215	0x3f614149	0.8799024
216	0x3fb29693	1.3952202
217	0x3f6ea6a6	0.93223035
218	0x40e80baf	7.251426
219	0x408d57f4	4.4169865
220	0x40a0cfbf	5.0253596
221	0x3faf252a	1.3683217
222	0x3f351cb7	0.7074694
223	0x40894406	4.2895536
224	0x3ffd3dd0	1.9784489
225	0x3f6eec48	0.93329287
226	0x3f9d1dcf	1.2274722
227	0x3faf8748	1.371316
228	0x40b0bb48	5.5228615
229	0x3f484d1b	0.78242654
230	0x3f858ba5	1.0433241
231	0x40a11667	5.0339847
232	0x3fb39ca3	1.4032177
233	0x4040115c	3.0010595
234	0x3fdbe1da	1.71783
235	0x3fd77826	1.6833541
236	0x3fe6b717	1.8024625
237	0x3f8fcb3e	1.12339
238	0x3f04feae	0.5195111
239	0x3fa043d1	1.2520696
240	0x4040f0da	3.0147004
241	0x3f1a4b1a	0.60270846
242	0x3fd9b673	1.7008804
243	0x406d173e	3.7045436
244	0x3f8106d5	1.008021
245	0x3f2ce0e3	0.6753065
246	0x3fe3b6ee	1.7790201
247	0x3f9f6f26	1.2455795
248	0x40353ece	2.8319583
249	0x3f8dafef	1.1069316
250	0x3f59ec4f	0.85126203
251	0x3ff9c961	1.9514581
252	0x3fc17c8b	1.5116132
253	0x402c2ebd	2.6903527
254	0x3fca4e42	1.5805132
255	0x40bedef3	5.9647155

fc2.weight f4 [300, 404]
0	0xbc9133c5	-0.017724881
1	0xbd5e168a	-0.054220714
2	0xbceade0e	-0.028670337
3	0x3d83c398	0.06433791
4	0x3dc969b0	0.098346114
5	0xbd8728ce	-0.0659958
6	0xbcb7db58	-0.022443458
7	0xbd82a7f4	-0.06379691
8	0x3d8098ad	0.062791206
9	0xbbdbbb80	-0.0067057014
10	0x3ce8ef70	0.028434485
11	0x3cd3a21e	0.02583414
12	0xbce21967	-0.027600003
13	0xbdf1789d	-0.11790583
14	0xbdaaad86	-0.08333878
15	0xbd2ed048	-0.0426791
16	0x3c82555e	0.015909847
17	0x3c7b097c	0.0153220855
18	0x3d0cb99d	0.034356702
19	0xbce9f94d	-0.028561259
20	0xbc7f2215	-0.015572091
21	0xbdc093b4	-0.09403172
22	0x3cfa9b15	0.030591527
23	0x3d4b8386	0.049685977
24	0x3ce0a395	0.027421752
25	0xbde65020	-0.112457514
26	0x3dd3132d	0.10306392
27	0xbd4e0146	-0.050294183
28	0x3da230af	0.07919442
29	0xbc74ba19	-0.014936947
30	0xbd81e14a	-0.063417986
31	0xbcc76863	-0.024341768
32	0xbd7147bc	-0.0589063
33	0x3c8d61b1	0.017258497
34	0xbc212eee	-0.009837849
35	0xbdc0f6f2	-0.09422101
36	0xbdf72363	-0.12067296
37	0xbe022c29	-0.12712158
38	0xbd2f53f1	-0.042804662
39	0x3daaa580	0.08332348
40	0x3d7edfb2	0.06222505
41	0x3d82c02d	0.06384311
42	0xbcbdefd0	-0.02318564
43	0xbd54bb4d	-0.051936436
44	0x3d30f245	0.043199796
45	0xbd986459	-0.07441015
46	0x3d59a407	0.053134944
47	0x3ca2d1ef	0.019875495
48	0xbd66c324	-0.056338444
49	0xbd0b05a3	-0.033940922
50	0x3d0b7d3d	0.034054983
51	0xbc8334ce	-0.01601639
52	0xbd2d602f	-0.042328056
53	0xbd400c63	-0.046886813
54	0x3d213e81	0.03936625
55	0xbdf61f27	-0.120176606
56	0xbc7e4330	-0.015518948
57	0xbde74742	-0.11292888
58	0x3ae0101d	0.0017094646
59	0xbd08cc68	-0.033398062
60	0x3b4b83c8	0.003105389
61	0x3cd8ec32	0.026479814
62	0xbd856269	-0.06512911
63	0xbb842514	-0.0040327404
64	0x3d601e07	0.054716136
65	0xbc49b2c2	-0.012310686
66	0xbcfb359b	-0.03066521
67	0x3da83703	0.08213618
68	0xbd9932b4	-0.07480374
69	0xb9a9825d	-0.0003233132
70	0xbdca98b7	-0.09892409
71	0xbd4aeaaa	-0.0495402
72	0x3ce94465	0.028474996
73	0x3ca5b74f	0.02022901
74	0x3cbc3cf9	0.022978293
75	0x3c821631	0.015879722
76	0xbcb3b37e	-0.021936174
77	0xbddec040	-0.108765125
78	0xbb45f42a	-0.0030205348
79	0x3d5b2ea6	0.053511284
80	0xbdc252ed	-0.09488473
81	0xbccc00a2	-0.024902645
82	0xbd857db8	-0.065181196
83	0xbd002963	-0.03128947
84	0xbcc44475	-0.023958424
85	0xbd808b3c	-0.06276557
86	0x3d102c55	0.03519853
87	0x3dc5df01	0.09661675
88	0x3cded078	0.027199015
89	0x3c8ba562	0.017046634
90	0x3dee9d06	0.116510436
91	0xbd2b0626	-0.04175391
92	0xbd0af67c	-0.033926472
93	0xbdfbdcfd	-0.122980095
94	0xbdbc3c47	-0.091911845
95	0x3c564585	0.013078098
96	0xbd83ba0a	-0.064319685
97	0x3cc43dc4	0.023955233
98	0x3d7101c0	0.05883956
99	0x3b57c24d	0.0032922209
100	0xbc913fff	-0.017730711
101	0xbd85d51f	-0.0653479
102	0xbd877b19	-0.06615276
103	0xbd39bd1a	-0.045346357
104	0xbd93dbb6	-0.07219641
105	0xbd33ed1e	-0.043927304
106	0xbd744a23	-0.059641015
107	0x3ce37de1	0.027769985
108	0xbd666a57	-0.056253757
109	0x3d61426e	0.054994993
110	0xbd71d9a4	-0.05904545
111	0xbd0fdbba	-0.035121657
112	0xbd19d422	-0.03755582
113	0xbd209a3d	-0.039209593
114	0x3d09a207	0.033601787
115	0xbddc3b8e	-0.10753547
116	0xbd899479	-0.06717772
117	0xbc525f0b	-0.012840043
118	0x3b80ae94	0.0039270613
119	0xbd56a7d2	-0.05240614
120	0xbc6c7b17	-0.014433644
121	0xbe1e9e64	-0.15490109
122	0x3c8383ac	0.016053997
123	0xbc9b7469	-0.018976407
124	0xbcb14c18	-0.02164273
125	0xbda7e86e	-0.08198629
126	0xbc5e943a	-0.013585145
127	0x3da58789	0.08082492
128	0x3be0b5e5	0.006857621
129	0x3c8946ca	0.016757388
130	0x3d0e6056	0.03475984
131	0xbce31d46	-0.02772392
132	0x3d1c32f0	0.038134515
133	0xbdc97d93	-0.098384045
134	0xbcd2fbdd	-0.025754863
135	0x3da39807	0.07987981
136	0xbcc137d2	-0.023586188
137	0xbca042a9	-0.019563036
138	0x3cdec5a3	0.02719385
139	0xbd46e543	-0.048558485
140	0xbdd128dd	-0.10212872
141	0xbcb7e62a	-0.022448618
142	0x3d8bb2ee	0.068212375
143	0xbce282c2	-0.02765024
144	0xbd5280b8	-0.051392287
145	0x3bfaf138	0.00765815
146	0xbcd27f2e	-0.02569541
147	0x3da8954a	0.082316
148	0xbd6c6989	-0.057717834
149	0x3cf2b1bb	0.029625764
150	0xbd4ef7b9	-0.050529215
151	0xbdb79a4f	-0.08964979
152	0x3ccbda89	0.02488448
153	0x3c9ed966	0.019390773
154	0xbce24f5b	-0.02762573
155	0xbdce1db3	-0.100642584
156	0x3c693b29	0.014235296
157	0xbc521264	-0.0128217675
158	0x3cd513cc	0.026010416
159	0xbcdfd51f	-0.027323304
160	0xbc616616	-0.013757249
161	0xbcc19ef0	-0.023635358
162	0xbd0928d9	-0.03348622
163	0xbbece25c	-0.0072291326
164	0x3c4c46a8	0.012468018
165	0xbd5ef427	-0.05443206
166	0xbdb6a10e	-0.089174375
167	0xbb7334c6	-0.0037110313
168	0x3dd7bd65	0.10534171
169	0xbd4beefb	-0.049788456
170	0x3c0acbc1	0.00847143
171	0xbda078fb	-0.07835575
172	0x3c396d0b	0.011317502
173	0xbd913759	-0.07090635
174	0xbd8945b2	-0.067027465
175	0x3e0325ac	0.1280734
176	0x3d2e12d8	0.04249844
177	0xbd096767	-0.033545878
178	0xbd77a23d	-0.060457457
179	0xbda7b153	-0.08188119
180	0xbd728c74	-0.059215978
181	0xbd9aaa91	-0.07552064
182	0xbdbbd00a	-0.0917054
183	0xbbff9426	-0.007799643
184	0xbce599f8	-0.02802752
185	0xbd44e640	-0.048071146
186	0x3c6dc771	0.014512883
187	0xbc7b2d02	-0.015330555
188	0x3c8efb37	0.017453773
189	0xbd165399	-0.03670082
190	0x3ceb2302	0.028703216
191	0x3d5c789a	0.053825952
192	0xbb8d2bf2	-0.004308217
193	0xbcccdfd2	-0.02500907
194	0x3cd0b57b	0.025477162
195	0x3c8ecda4	0.017432041
196	0x3c05d7b7	0.008169106
197	0x3c76a913	0.015054959
198	0xbc6f4806	-0.014604574
199	0x3d2cbbc6	0.042171262
200	0x3d3f95a4	0.046773568
201	0xbcbdad5d	-0.023153955
202	0xbdab71d8	-0.08371323
203	0x3d337d1c	0.043820485
204	0x3d737694	0.059439257
205	0x3b8d7c14	0.00431777
206	0xbcefca08	-0.02927114
207	0x3cc370c1	0.023857476
208	0xbcd2b814	-0.02572254
209	0x3d018f5f	0.03163087
210	0xbd331e2b	-0.043729942
211	0x3d43fdc9	0.04784945
212	0x3c748d74	0.014926303
213	0xbdacb544	-0.08433011
214	0x3c98585d	0.018596822
215	0xbd38f317	-0.045153704
216	0x3dcc3d04	0.09972575
217	0xbd2a8b05	-0.041636486
218	0x3cbd1733	0.023082351
219	0xbd503ff0	-0.050842226
220	0xbd5622da	-0.05227933
221	0x3ba877e2	0.0051412443
222	0xbd6411ba	-0.055680968
223	0x3bed629e	0.007244422
224	0xbd2dc838	-0.04242727
225	0xbc6cbe2d	-0.014449638
226	0x3cdd8ab0	0.02704367
227	0x3c44367c	0.011975881
228	0xbd687536	-0.056752406
229	0x3d4f02bf	0.05053973
230	0x3dc1f029	0.09469635
231	0xbc4b4131	-0.01240568
232	0x3d261303	0.040545475
233	0xbd08a953	-0.033364605
234	0x3bae49b9	0.005318847
235	0xbd867160	-0.06564593
236	0xbd3ba216	-0.045808874
237	0xbb8a7a92	-0.0042260373
238	0x3d5f6588	0.054540187
239	0x3ddbd0cf	0.107331865
240	0xbcf78ee4	-0.030219503
241	0xbdeae237	-0.11468928
242	0xbd1fdd4b	-0.0390294
243	0xbd8ce7db	-0.068801604
244	0x3da07cc7	0.078362994
245	0xbd80043e	-0.06250809
246	0x3d042c1b	0.032268625
247	0xbd873041	-0.066010006
248	0xbdb0c9cc	-0.0863224
249	0x3ba95c3c	0.005168466
250	0xbde065bf	-0.109569065
251	0xbc811d5b	-0.015761068
252	0xbdd7f994	-0.1054565
253	0x3ddbfff6	0.1074218
254	0xbda00fc0	-0.07815504
255	0xbc89c269	-0.016816335
