agent_checkpoints/checkpoint_actor_7.pth (torch_old, 553585 bytes, 14 tensors)

fc1.weight f4 [400, 33]
0	0x3c9bb686	0.019007932
1	0xbcffeb13	-0.031240022
2	0xbd76e6c9	-0.060278688
3	0x3d85e94a	0.06538637
4	0xbba716ef	-0.0050991694
5	0x3d87d622	0.066326395
6	0x3d247ced	0.0401582
7	0xbce86cab	-0.02837213
8	0x3c9bc0af	0.019012777
9	0xbd2646ac	-0.04059474
10	0x3cf92dd1	0.030417355
11	0x3d3fe5be	0.04684996
12	0x3c08f928	0.008360185
13	0x3bc0a202	0.005878688
14	0xbcdc0136	-0.026856046
15	0xbd62ee14	-0.05540283
16	0x3d05b89d	0.032646764
17	0x3ce30aff	0.027715204
18	0xbc1e0b35	-0.009646227
19	0x3cfc725a	0.030816246
20	0xbd237ca7	-0.0399138
21	0x3d2e8fa9	0.042617474
22	0xbd1bc74e	-0.03803187
23	0x3ce52d94	0.027975835
24	0x3d8a01df	0.06738638
25	0x3d274383	0.04083587
26	0x3d0b4b47	0.034007337
27	0x3ba3a06b	0.0049934885
28	0xbd129eae	-0.03579586
29	0x3cdb9016	0.026802104
30	0xbae930d9	-0.0017791047
31	0xbd1d39c3	-0.038385164
32	0x3cccc91d	0.024998242
33	0xbcdaed82	-0.02672458
34	0x3cb937c5	0.0226096
35	0xbd07695d	-0.033059467
36	0x3ae607bf	0.0017549916
37	0x3d30e701	0.043189052
38	0xbc83df30	-0.016097635
39	0xbcba8125	-0.022766659
40	0x3cdb2d70	0.026755065
41	0xbbb6c2cb	-0.0055774204
42	0xbd188378	-0.037234753
43	0x3d70fb6e	0.058833532
44	0xbc866306	-0.01640464
45	0x3d24e771	0.040259782
46	0x3c60aca9	0.01371304
47	0xba3d41e4	-0.00072195963
48	0xbc44243f	-0.011971532
49	0xbc5c0763	-0.0134294955
50	0xbd552f83	-0.052047264
51	0x3c706998	0.014673613
52	0x3c60a5c4	0.013711397
53	0x3ca85a74	0.020550944
54	0x3c2ec4fd	0.010667083
55	0x3d56718e	0.052354388
56	0x3c407da2	0.011748703
57	0xbba80f47	-0.0051287743
58	0x3cdc7587	0.02691151
59	0x3d762925	0.060097832
60	0xbc314419	-0.010819458
61	0xbd97eda7	-0.074183755
62	0x3c54bc64	0.012984369
63	0xbc413b61	-0.011793942
64	0xbd47d58b	-0.048787635
65	0x3d09d6e4	0.0336522
66	0x3d06cad1	0.032908265
67	0xbb971c4f	-0.004611529
68	0xbd13e414	-0.036106184
69	0x3c10428b	0.008804928
70	0xbbedf8f4	-0.0072623435
71	0x3d30c8da	0.043160297
72	0xbc254363	-0.010086867
73	0x3b0d4a03	0.0021559007
74	0xbd5819ec	-0.052759096
75	0x3d8461dc	0.06463978
76	0xbd80e521	-0.06293703
77	0x3d3d7c41	0.046261076
78	0x3c4c877e	0.012483476
79	0x3d342bc3	0.043987047
80	0xbb1af464	-0.0023644203
81	0x3c6a5ff7	0.014305106
82	0xbc03f0c4	-0.0080530085
83	0xbc22f956	-0.009947142
84	0xbb081a30	-0.0020767562
85	0x39bc5f51	0.0003592917
86	0x3d2a41c2	0.041566618
87	0xbd77566a	-0.060385145
88	0xbcad3148	-0.021141663
89	0xbcab4233	-0.02090559
90	0xbd6d48c0	-0.057930708
91	0x3d831c80	0.0640192
92	0xbb8f7194	-0.0043775532
93	0xbc95994e	-0.018261578
94	0x3d666923	0.05625261
95	0xbc87108c	-0.016487382
96	0x3d157b39	0.036494467
97	0x3c95b07e	0.018272635
98	0x3cb0c33f	0.021577476
99	0xbb727441	-0.0036995562
100	0x3cb4d129	0.022072392
101	0xb92626f2	-0.00015845502
102	0xbd06d52e	-0.032918148
103	0xbcfa0529	-0.030520039
104	0x3b13d5c9	0.0022557846
105	0x3d2c7188	0.04210046
106	0x3cd661a1	0.0261696
107	0xbc0ff365	-0.008786057
108	0x3c60be55	0.013717254
109	0x3c871bdb	0.016492775
110	0x3c664176	0.014053693
111	0x3d02480a	0.031806983
112	0xbbfce5f5	-0.0077178427
113	0xbb929324	-0.004473107
114	0x3cf523d2	0.029924307
115	0x3d072034	0.032989696
116	0x3cdd67b8	0.027026996
117	0xb9f85f9e	-0.00047373486
118	0xbd0177a7	-0.03160825
119	0xbcdb2bf1	-0.026754351
120	0xbd329489	-0.043598685
121	0xbd23cd6f	-0.03999084
122	0xbd286d0c	-0.04111962
123	0x3d327cac	0.043575928
124	0x3cee4c26	0.029089045
125	0x3a363ec8	0.0006952104
126	0xbc2c332b	-0.010510246
127	0x3d41e333	0.047335815
128	0x3c83df02	0.01609755
129	0xbd4cb69e	-0.049978845
130	0x3d4231af	0.047410663
131	0x3cda001d	0.026611382
132	0x3d8816c4	0.06644967
133	0x3d4855c7	0.04890993
134	0x3c2cf960	0.0105575025
135	0xbb8f1876	-0.0043669296
136	0x3d2f9aa6	0.042872094
137	0x3c5e3ed1	0.013564781
138	0x3ce2f147	0.02770294
139	0x3d59f6f8	0.053214043
140	0x3c9c375d	0.019069368
141	0xba3f4e26	-0.0007297717
142	0x3d37824d	0.044802
143	0x3d7fb5c0	0.06242919
144	0x3d5a7cbb	0.05334161
145	0x3a947c24	0.0011328501
146	0x3cae40b4	0.021271087
147	0xbd59c9a1	-0.053170804
148	0x3caeec37	0.02135287
149	0x3c3b3185	0.011425381
150	0xbd408010	-0.04699713
151	0x3c4c9d14	0.012488622
152	0x3c1b6c83	0.00948632
153	0xbcbe4c0e	-0.023229625
154	0xbbe5ff1f	-0.007018938
155	0xbd3d84e2	-0.046269305
156	0x3cf5c333	0.030000305
157	0x3d052921	0.032509927
158	0xbd90676d	-0.07050977
159	0x3c36d143	0.01115829
160	0x3ccb1129	0.024788456
161	0x3d415787	0.047202613
162	0xbc84bf85	-0.016204605
163	0xbc690280	-0.014221787
164	0xbc920722	-0.017825667
165	0x3d1bb614	0.03801544
166	0x3d24c7a5	0.04022946
167	0x3c6adef8	0.014335386
168	0x3d17b317	0.037036028
169	0xbd43b719	-0.047782037
170	0x3cd48802	0.02594376
171	0x3c8e5d6b	0.01737853
172	0x3d6b3ff1	0.057434026
173	0xbcac16dc	-0.021006994
174	0x3d82f699	0.06394691
175	0x3d08c3ce	0.03338986
176	0x3d2cd233	0.04219265
177	0xbcdb228c	-0.026749872
178	0x3d0dcde7	0.034620192
179	0x3b80c9b7	0.0039302963
180	0xbd60e168	-0.054902464
181	0x3abb2106	0.001427681
182	0x3ce55035	0.027992347
183	0x3c2ae8a1	0.01043144
184	0x3be40368	0.006958414
185	0x3c562eb2	0.0130726565
186	0xbce446a9	-0.027865725
187	0xbcd59670	-0.02607271
188	0xbd716109	-0.05893043
189	0x3c802e20	0.015646994
190	0x3ca33ebf	0.01992738
191	0xbd820cdd	-0.0635011
192	0xbd31f415	-0.043445665
193	0xbc0799cf	-0.008276417
194	0x3ae68e00	0.0017589927
195	0x3cfd19c5	0.030896077
196	0xbcfcb2dd	-0.030847007
197	0x3c586e2a	0.013209859
198	0xbd2f1ac8	-0.04275015
199	0xbc7c6284	-0.015404347
200	0x3d4aacc3	0.049481165
201	0xbad63dad	-0.0016345285
202	0x3bba3dd7	0.0056836414
203	0x3b82569a	0.003977609
204	0xbc862faf	-0.01638016
205	0x3cd25f48	0.0256802
206	0x3d2b7280	0.041857243
207	0x3d39c76a	0.04535619
208	0x3d5b8828	0.053596646
209	0xbda43e53	-0.080197
210	0xbcdf1f37	-0.027236564
211	0xbcef4b30	-0.029210657
212	0x3d01582c	0.031578228
213	0x3d70e44d	0.058811475
214	0xbaad2252	-0.0013209081
215	0xbc8c75d0	-0.017146021
216	0x3c866d07	0.01640941
217	0x3d2d34db	0.042286735
218	0xbcea842a	-0.028627474
219	0x3d21164c	0.039327905
220	0xbd89cdd3	-0.06728711
221	0x3996fa40	0.0002879668
222	0xbd8223c1	-0.06354476
223	0x3d29d8be	0.041466467
224	0x3cdf8581	0.02728534
225	0xbd67f55e	-0.056630485
226	0x3d064f13	0.032790255
227	0xbb0766d0	-0.0020660646
228	0x3d327150	0.043565094
229	0x3d24c0a7	0.04022279
230	0x3d1ec263	0.0387596
231	0xbc9ab206	-0.018883716
232	0xbcb5a5f3	-0.022173857
233	0x3bbccc31	0.005761646
234	0xbc15d668	-0.009145357
235	0x3c9cb1f1	0.019127818
236	0xbd8898c2	-0.06669761
237	0x3c0cf664	0.008603666
238	0x3d235309	0.03987411
239	0xbd519e5d	-0.051176418
240	0x3c825c2d	0.015913093
241	0x3d8609aa	0.06544812
242	0x3d07c816	0.0331498
243	0xbd0ec9c1	-0.034860376
244	0xbcde7864	-0.027157016
245	0x3c3ce4b2	0.011529135
246	0x3c7e83d0	0.015534356
247	0xbb82b693	-0.0039890497
248	0xbd368ce3	-0.044567954
249	0x3cd14f19	0.025550412
250	0x3cc448ae	0.023960438
251	0x3dad3120	0.084566355
252	0x3d2f03b8	0.042728156
253	0x3b70c0af	0.0036735942
254	0x3d6c26ad	0.05765407
255	0xbd2ef4ee	-0.042714052

fc1.bias f4 [400]
0	0x3e1c296c	0.15250176
1	0xbdf75bed	-0.1207808
2	0x3def1c0b	0.11675271
3	0xbdcc3553	-0.09971108
4	0x3bd52aca	0.006505345
5	0xbc37c46c	-0.011216264
6	0xbb94c3dc	-0.00453995
7	0xbd264a01	-0.04059792
8	0xbdc7572b	-0.09733423
9	0xbe178afb	-0.1479911
10	0xbdcf5124	-0.10122898
11	0x3dff07ad	0.12452636
12	0xbde1ee6f	-0.11031806
13	0xbc0e7880	-0.008695722
14	0x3e282549	0.16420473
15	0x3d4e6fa1	0.050399426
16	0x3e3fbd44	0.18724543
17	0x3e344773	0.1760538
18	0x3dbf8f1e	0.09353469
19	0x3def09b6	0.11671774
20	0xbdfb6989	-0.122759886
21	0xbd650c07	-0.055919673
22	0xbde6f61f	-0.112774126
23	0xbd380eef	-0.044936117
24	0x3de55104	0.11197093
25	0x3cb2c8fb	0.02182435
26	0xb8cf633d	-9.889014e-05
27	0xbe0e5852	-0.13900879
28	0x3d39cdee	0.045362405
29	0x3e0dfa7b	0.13865082
30	0x3da80d20	0.082056284
31	0xbdacb02b	-0.08432039
32	0x3db589cb	0.088641725
33	0xb7ad43e0	-2.0654814e-05
34	0x3e02f368	0.12788165
35	0x3e11cb83	0.1423779
36	0xbd5b8364	-0.0535921
37	0x3d482baf	0.048869785
38	0xbc297866	-0.010343647
39	0xbd263dd2	-0.0405863
40	0xbe210fc1	-0.15728666
41	0x3e31c1de	0.1735911
42	0x3d60589f	0.054772016
43	0x3a8cfa80	0.0010755807
44	0xbdf303d3	-0.11865964
45	0xbd8b0285	-0.0678759
46	0x3d8ce6f0	0.06879985
47	0x3d793dbf	0.0608499
48	0x3e0f09f3	0.13968639
49	0xbd82eeb9	-0.06393189
50	0x3dfb8ace	0.12282334
51	0xbd813e9c	-0.0631077
52	0x3da2d01d	0.07949851
53	0x3d27e4ca	0.040989675
54	0x3b97f73a	0.004637626
55	0x3cf2cc6c	0.029638492
56	0xbe21594e	-0.15756723
57	0x3d0103ef	0.031497892
58	0x3e2e9696	0.17049631
59	0xbcdf9d7d	-0.027296776
60	0x3de5bb6c	0.112173885
61	0x3d1ea442	0.038730867
62	0x3dd1be54	0.1024138
63	0xbd8a3af0	-0.06749523
64	0x3de83f92	0.1134025
65	0x3e229f46	0.1588107
66	0xbdc35824	-0.09538296
67	0x3e1b211d	0.1514935
68	0xbd1e8a38	-0.038706034
69	0xbc1ec65e	-0.009690849
70	0xbdf663ef	-0.120307796
71	0x3dcc0468	0.09961778
72	0x3d9780f0	0.0739764
73	0x3e2b47d4	0.16726619
74	0xbd6be85d	-0.057594646
75	0x3d372833	0.04471607
76	0x3bf26d0b	0.007398253
77	0x3e48c906	0.19607934
78	0x3d84ac8d	0.06478224
79	0xbde458f7	-0.11149781
80	0x3de0fb11	0.10985387
81	0x3e0cd191	0.13751818
82	0x3d18a48d	0.037266303
83	0x3db1505b	0.08657905
84	0x3df5554f	0.11979162
85	0x3d7c1701	0.061545376
86	0x3dca46d9	0.09876794
87	0x3e2de282	0.16980937
88	0xbcc8e090	-0.024521142
89	0xbde5e019	-0.11224384
90	0x3b1e3c3b	0.0024144787
91	0xbcd383e1	-0.02581972
92	0x3c1fe5d6	0.009759387
93	0x3dd71c92	0.10503496
94	0xbd10bb07	-0.035334613
95	0x3c9bf7af	0.019039003
96	0x3dd46957	0.103716545
97	0xbde0239b	-0.10944291
98	0xbd76934d	-0.06019907
99	0x3ce29741	0.027660014
100	0x3de00e56	0.10940234
101	0x3d0102ee	0.031496935
102	0x3d16c00c	0.036804244
103	0x3e3032ac	0.1720683
104	0x3e4cee8d	0.20012875
105	0x3c4e5bb4	0.012595106
106	0xbd488341	-0.0489533
107	0xbd5c5ac4	-0.0537975
108	0xbd2b8a4f	-0.04187995
109	0x3e0b82f6	0.13624176
110	0xbcdf7b62	-0.027280513
111	0x3dcb9f0b	0.099424444
112	0xbdae986d	-0.08525167
113	0xbdaec921	-0.08534456
114	0x3e08cc04	0.13359076
115	0xbd27ac5c	-0.04093586
116	0xbd34116b	-0.043961924
117	0xbd3425a9	-0.043981228
118	0xbd5ffbe6	-0.05468359
119	0xbd2d3d7d	-0.042294968
120	0x3d0c8c31	0.034313384
121	0xbc3282c5	-0.010895436
122	0x3d9ad9be	0.07561062
123	0x3e091dbc	0.13390249
124	0xbe06349c	-0.13106006
125	0x3e37579c	0.17904514
126	0x3de05b46	0.10954909
127	0x3d8bd70e	0.06828128
128	0x3c9b7520	0.018976748
129	0x3e15d9d8	0.14633882
130	0x3df74091	0.12072862
131	0xbdccd89f	-0.10002255
132	0x3d83f76d	0.06443677
133	0xbdecca05	-0.1156197
134	0x3ddbcbe4	0.107322484
135	0x3deb3ad6	0.114858314
136	0x3d2beeda	0.041975833
137	0x3e29d026	0.16583309
138	0x3d0c64ab	0.034275692
139	0xbd2f5d53	-0.04281361
140	0xb98ec4c5	-0.00027230955
141	0xbe0c8f0d	-0.13726445
142	0x3dcd5618	0.10026187
143	0x3d1e7b43	0.03869177
144	0x3d8eb1c9	0.069675036
145	0xbdc19ae7	-0.094533734
146	0x3d85bac1	0.06529761
147	0x3d359e19	0.044340227
148	0x3e3dfcc5	0.18553455
149	0x3dee1a80	0.11626148
150	0x3e2e5657	0.17025124
151	0xbe1edd30	-0.15514064
152	0xbcc2244e	-0.023698952
153	0x3c74877d	0.014924881
154	0x3e249652	0.16072968
155	0x3d4eed19	0.050519083
156	0xbd6ae134	-0.057343677
157	0x3e0360e8	0.12829936
158	0xbe012415	-0.1261142
159	0x3d8a79e3	0.06761529
160	0xbe044d5f	-0.1292014
161	0x3e2e1243	0.16999154
162	0x3e4207a4	0.18948227
163	0x3cda9a90	0.02668503
164	0x3ddc4c8d	0.107567884
165	0x3e226651	0.15859343
166	0xbdeb945e	-0.11502908
167	0xbd6c072c	-0.057624027
168	0xbbfcbaf8	-0.007712718
169	0xbd3caa7a	-0.046061017
170	0x3e494fd9	0.19659366
171	0x3e015bc8	0.12632668
172	0x3de2abde	0.11067937
173	0x3e1aea63	0.15128474
174	0xbc8cbb25	-0.017179081
175	0x3c9dbad3	0.019254124
176	0x3dc50320	0.09619737
177	0x3db9ea13	0.09077849
178	0xbd23a7e4	-0.039955035
179	0x3d0b720a	0.034044303
180	0x3e4c9fd3	0.19982843
181	0xbe1b9198	-0.15192258
182	0x3e3b24e9	0.18275799
183	0xbe109211	-0.1411822
184	0x3cf22e7d	0.029563183
185	0x3d2f3df2	0.042783685
186	0xbe292dba	-0.1652135
187	0xbd8e94a8	-0.06961948
188	0x3dd32c7d	0.1031122
189	0xbe1a5255	-0.1507047
190	0xbd6c894c	-0.057748124
191	0xbd0bd92e	-0.034142666
192	0x3c9f7cc8	0.01946868
193	0xbe004205	-0.12525184
194	0x3e19a31e	0.1500363
195	0xbddeb103	-0.10873606
196	0xbd8b1f21	-0.06793047
197	0x3e0023f5	0.12513717
198	0x3e234e6c	0.15947884
199	0x3cffcf81	0.031226875
200	0xbd9e4d43	-0.0772958
201	0x3d8de063	0.06927564
202	0xbc72f5af	-0.014829083
203	0x3e2598eb	0.16171615
204	0xbd147c8f	-0.0362516
205	0x3d1a2a54	0.037638023
206	0x3d0e7682	0.034780987
207	0xbe29888d	-0.16555996
208	0xbc7cc471	-0.015427695
209	0x3dba1728	0.09086448
210	0x3d2c4130	0.042054355
211	0x3d2790fd	0.040909756
212	0xbd8a251f	-0.067453615
213	0x3e341429	0.17585815
214	0xbde10993	-0.10988154
215	0xbdd32163	-0.103091024
216	0xbb187f92	-0.0023269397
217	0x3deded22	0.11617495
218	0xbd9c0413	-0.076179646
219	0xbd3e8161	-0.046510104
220	0x3d80aab2	0.062825575
221	0x3db29ec5	0.08721689
222	0xbce3a6e1	-0.027789535
223	0x3e0b11db	0.1358103
224	0x3df7cc10	0.12099469
225	0x3d907a69	0.07054598
226	0x3d1c240e	0.038120322
227	0x3e27cc49	0.16386522
228	0x3dc1f0f2	0.09469785
229	0xbdd7c4a2	-0.105355516
230	0xbc808b35	-0.01569138
231	0x3da23134	0.07919541
232	0xbcd967d0	-0.02653876
233	0x3dffa73c	0.12483069
234	0xbc8e046e	-0.017336097
235	0x3dae1148	0.0849939
236	0x3d32267b	0.04349373
237	0x3c96828f	0.018372802
238	0x3c24c319	0.0100562805
239	0xbbb8792c	-0.005629679
240	0xbd2efe27	-0.042722847
241	0x3c90ad7e	0.017660853
242	0xbcfa464d	-0.0305511
243	0x3ddb59d1	0.107104905
244	0x3dd83667	0.105572514
245	0x3e14fe65	0.14550169
246	0x3e06a224	0.13147789
247	0x3ddeb422	0.10874201
248	0xbe1be39d	-0.15223546
249	0x3e16868e	0.14699766
250	0x3e36a5a2	0.17836621
251	0x3ad1482a	0.0015966941
252	0xbae36b8b	-0.0017350776
253	0xbd78dc41	-0.060756925
254	0xbda759a2	-0.08171393
255	0x3d548a85	0.051889915

fc1_bn.weight f4 [400]
0	0x3f11af8d	0.56908494
1	0x3f11c350	0.5693865
2	0x3dca9380	0.09891415
3	0x3e80aec6	0.25133342
4	0x3f75504e	0.9582566
5	0x3e20917c	0.15680498
6	0x3f6ebd96	0.93258035
7	0x3f7170ab	0.9431254
8	0x3f329fee	0.69775283
9	0x3f38cb7b	0.72185487
10	0x3f0d40c8	0.55176973
11	0x3e159a00	0.14609528
12	0x3f735c64	0.9506285
13	0x3d923770	0.0713948
14	0x3e980638	0.29692245
15	0x3f0fddad	0.56197625
16	0x3adcfc00	0.001685977
17	0x3f082522	0.5318166
18	0x3f5758f9	0.84120136
19	0x3f210705	0.62901336
20	0x3e9ef1aa	0.3104375
21	0x3f087f48	0.53319216
22	0x3e77b0cc	0.24188536
23	0x3f45a1f7	0.77200264
24	0x3ee817cc	0.45330656
25	0x3e90eb3c	0.2830447
26	0x3e12c374	0.14332372
27	0x3e97967e	0.29607004
28	0x3efbae24	0.49156296
29	0x3dcd08e8	0.10011464
30	0x3f0cd534	0.5501282
31	0x3f7c6bd6	0.98602045
32	0x3f0d710d	0.55250627
33	0x3e2c1264	0.1680389
34	0x3ed4fe26	0.4160015
35	0x3f6f55a0	0.9349003
36	0x3ec4a74e	0.38408893
37	0x3dbe88c8	0.09303433
38	0x3f3acc8c	0.72968364
39	0x3f093fb5	0.53612834
40	0x3d4d2f60	0.05009401
41	0x3ee994e8	0.4562142
42	0x3f185911	0.59510905
43	0x3f1fc3ce	0.6240815
44	0x3f21e754	0.63243604
45	0x3dc753e0	0.09732795
46	0x3c702e40	0.014659464
47	0x3ec8476a	0.39116985
48	0x3ee71668	0.45134282
49	0x3eb0d754	0.34539282
50	0x3e39074c	0.1806919
51	0x3b1d0700	0.002396047
52	0x3f2973fa	0.6619259
53	0x3eee88b4	0.4658867
54	0x3e6a3e98	0.2287544
55	0x3e9ed384	0.3102075
56	0x3eb52c82	0.3538552
57	0x3f2b8d84	0.6701281
58	0x3f719ef9	0.943832
59	0x3f55b83a	0.8348423
60	0x3eda737e	0.4266624
61	0x3f3c0a34	0.7345307
62	0x3ea39f72	0.31957585
63	0x3f1b33c5	0.6062587
64	0x3ea1467e	0.31499094
65	0x3ec11210	0.37709093
66	0x3de981b8	0.11401695
67	0x3ee88e52	0.45421082
68	0x3f26345f	0.6492366
69	0x3f1f894a	0.6231886
70	0x3e296018	0.16540563
71	0x3f60250d	0.87556535
72	0x3f2d830d	0.6777809
73	0x3e3197f8	0.17343128
74	0x3ea90b76	0.33016557
75	0x3e7a19f4	0.24423963
76	0x3eca4390	0.3950467
77	0x3f4b987b	0.7952954
78	0x3c409c80	0.0117560625
79	0x3ee7891e	0.452218
80	0x3f03152e	0.5120419
81	0x3e88f7e4	0.26751626
82	0x3f6d4ee5	0.9269851
83	0x3f1dcbef	0.616393
84	0x3f6ae62c	0.91757464
85	0x3f43a0b3	0.7641708
86	0x3ebfecd4	0.37485373
87	0x3f0b2abb	0.54362077
88	0x3f48078d	0.7813652
89	0x3f79655e	0.974203
90	0x3e2b05d0	0.16701436
91	0x3f651621	0.8948689
92	0x3f04fab3	0.51945037
93	0x3df96830	0.12178075
94	0x3f6d2327	0.92631763
95	0x3e19be48	0.15013993
96	0x3e7384b8	0.23781097
97	0x3e971dbc	0.29514873
98	0x3f5a8291	0.8535548
99	0x3f7dc80a	0.9913336
100	0x3dacb510	0.084329724
101	0x3f3503ac	0.7070873
102	0x3e53b668	0.20675051
103	0x3f02e114	0.5112469
104	0x3ef4d84a	0.47821265
105	0x3f5eaad4	0.86979413
106	0x3f08315e	0.5320033
107	0x3f2b2c60	0.66864586
108	0x3f1aa799	0.60411984
109	0x3f47d4be	0.78058994
110	0x3f6f555a	0.9348961
111	0x3d3f38f0	0.04668516
112	0x3eed5074	0.46350443
113	0x3f334978	0.7003398
114	0x3f68eb9a	0.909845
115	0x3d377de0	0.044797778
116	0x3f01229e	0.50443447
117	0x3f2d3fa9	0.6767526
118	0x3efd7484	0.49502957
119	0x3edb5fd6	0.42846555
120	0x3f33b6a6	0.70200574
121	0x3d6ac3a0	0.05731547
122	0x3f301705	0.68785125
123	0x3f03effb	0.51538056
124	0x3e01b1f8	0.12665546
125	0x3c943c60	0.018095195
126	0x3f07d1c0	0.5305443
127	0x3ef80f60	0.4844923
128	0x3f59df57	0.85106415
129	0x3e63523c	0.22199339
130	0x3eff5caa	0.49875385
131	0x3f5d4a09	0.86441094
132	0x3e6c2fa0	0.23065042
133	0x3ecd4376	0.4009053
134	0x3e7a87cc	0.24465865
135	0x3f1fc949	0.6241651
136	0x3ed4dfe4	0.41577065
137	0x3f38f476	0.7224802
138	0x3f3dd82f	0.74157995
139	0x3f52a6e4	0.82285905
140	0x3ebb5e80	0.36595535
141	0x3f6b038e	0.918023
142	0x3f797828	0.9744897
143	0x3bbaf900	0.0057059526
144	0x3f01aad1	0.5065127
145	0x3f6a84c9	0.91608864
146	0x3e9387fc	0.28814685
147	0x3ed047da	0.40679818
148	0x3f4fcb98	0.81170034
149	0x3efd8aea	0.49520046
150	0x3eb0bf18	0.34520793
151	0x3f4acbb2	0.79217064
152	0x3e8c4e52	0.27403504
153	0x3e81743c	0.25283992
154	0x3f4e985e	0.80701244
155	0x3ef022e6	0.46901625
156	0x3f3f1d10	0.7465372
157	0x3efa1bde	0.48849386
158	0x3e8c340c	0.2738346
159	0x3f16259b	0.5865113
160	0x3f577601	0.84164435
161	0x3e46f068	0.19427645
162	0x3f5e1bc4	0.86761117
163	0x3f340c0f	0.703309
164	0x3eab2ab0	0.33431005
165	0x3d926008	0.07147223
166	0x3f194103	0.59864825
167	0x3f59b2f9	0.85038716
168	0x3df53330	0.11972654
169	0x3f36baa0	0.7137852
170	0x3f219d0d	0.63130265
171	0x3ea6b794	0.32561934
172	0x3f4e1d48	0.8051343
173	0x3e12d628	0.14339507
174	0x3f244bb0	0.6417799
175	0x3f7ef623	0.99594325
176	0x3ec33a08	0.38130212
177	0x3f1f4ca0	0.62226295
178	0x3f6b198b	0.9183585
179	0x3c946380	0.018113852
180	0x3eb46676	0.35234421
181	0x3c7af980	0.0153182745
182	0x3db300b8	0.087403715
183	0x3f794a96	0.97379434
184	0x3dbde038	0.09271282
185	0x3ead4a6e	0.33845848
186	0x3f66a18d	0.90090257
187	0x3ef71218	0.48255992
188	0x3f251960	0.64491844
189	0x3c44d3c0	0.012013376
190	0x3f18da3e	0.5970801
191	0x3e3eb018	0.18621862
192	0x3eb1c7aa	0.34722644
193	0x3daf0310	0.08545506
194	0x3f3919db	0.7230508
195	0x3f27fe20	0.6562214
196	0x3f59b0fe	0.85035694
197	0x3e71c154	0.23608905
198	0x3e3d474c	0.18484229
199	0x3f3cadaa	0.7370249
200	0x3f6f3ed1	0.93455225
201	0x3e8d6372	0.27614933
202	0x3f54ab3f	0.830738
203	0x3f1236d2	0.571149
204	0x3e7c4b8c	0.24638194
205	0x3f5b2507	0.85603374
206	0x3f44d73c	0.7689092
207	0x3f26130a	0.648728
208	0x3de09700	0.10966301
209	0x3f22f367	0.6365265
210	0x3f48d847	0.78455013
211	0x3f387967	0.72060245
212	0x3f2d7e1d	0.6777056
213	0x3f26223a	0.64895976
214	0x3e27477c	0.16335863
215	0x3f3af622	0.7303182
216	0x3f28b106	0.65895116
217	0x3f52007e	0.82032
218	0x3f13ba9a	0.57706606
219	0x3f51a485	0.8189166
220	0x3efaa73e	0.4895572
221	0x3f6d63d9	0.9273048
222	0x3d5b5b30	0.05355376
223	0x3ea69e70	0.32542753
224	0x3f7c5000	0.9855957
225	0x3f59c3d0	0.8506441
226	0x3ecb794c	0.3974098
227	0x3f1b6a4e	0.60709083
228	0x3e0d8140	0.13818836
229	0x3f63d5cf	0.8899812
230	0x3f3dc760	0.7413235
231	0x3f3aebe2	0.7301618
232	0x3f72e22e	0.9487637
233	0x3f1bc6f1	0.60850435
234	0x3f7efe55	0.9960683
235	0x3f4e34c9	0.80549294
236	0x3f31170f	0.6917581
237	0x3f2fb64c	0.6863754
238	0x3f584495	0.8447965
239	0x3f515de8	0.81783915
240	0x3e82314c	0.25428236
241	0x3ef5df9e	0.4802217
242	0x3f18488f	0.59485716
243	0x3f555e49	0.8334699
244	0x3e576d84	0.2103787
245	0x3c03c4c0	0.008042514
246	0x3f766a4b	0.9625594
247	0x3f1a6584	0.6031115
248	0x3e9195ba	0.28434545
249	0x3e8d3f12	0.2758718
250	0x3e28515c	0.16437286
251	0x3ef87834	0.48529208
252	0x3f38bd80	0.72164154
253	0x3e5cd580	0.21565819
254	0x3f268d19	0.6505905
255	0x3dd85f38	0.105650365

fc1_bn.bias f4 [400]
0	0x00000000	0.0
1	0x00000000	0.0
2	0x00000000	0.0
3	0x00000000	0.0
4	0x00000000	0.0
5	0x00000000	0.0
6	0x00000000	0.0
7	0x00000000	0.0
8	0x00000000	0.0
9	0x00000000	0.0
10	0x00000000	0.0
11	0x00000000	0.0
12	0x00000000	0.0
13	0x00000000	0.0
14	0x00000000	0.0
15	0x00000000	0.0
16	0x00000000	0.0
17	0x00000000	0.0
18	0x00000000	0.0
19	0x00000000	0.0
20	0x00000000	0.0
21	0x00000000	0.0
22	0x00000000	0.0
23	0x00000000	0.0
24	0x00000000	0.0
25	0x00000000	0.0
26	0x00000000	0.0
27	0x00000000	0.0
28	0x00000000	0.0
29	0x00000000	0.0
30	0x00000000	0.0
31	0x00000000	0.0
32	0x00000000	0.0
33	0x00000000	0.0
34	0x00000000	0.0
35	0x00000000	0.0
36	0x00000000	0.0
37	0x00000000	0.0
38	0x00000000	0.0
39	0x00000000	0.0
40	0x00000000	0.0
41	0x00000000	0.0
42	0x00000000	0.0
43	0x00000000	0.0
44	0x00000000	0.0
45	0x00000000	0.0
46	0x00000000	0.0
47	0x00000000	0.0
48	0x00000000	0.0
49	0x00000000	0.0
50	0x00000000	0.0
51	0x00000000	0.0
52	0x00000000	0.0
53	0x00000000	0.0
54	0x00000000	0.0
55	0x00000000	0.0
56	0x00000000	0.0
57	0x00000000	0.0
58	0x00000000	0.0
59	0x00000000	0.0
60	0x00000000	0.0
61	0x00000000	0.0
62	0x00000000	0.0
63	0x00000000	0.0
64	0x00000000	0.0
65	0x00000000	0.0
66	0x00000000	0.0
67	0x00000000	0.0
68	0x00000000	0.0
69	0x00000000	0.0
70	0x00000000	0.0
71	0x00000000	0.0
72	0x00000000	0.0
73	0x00000000	0.0
74	0x00000000	0.0
75	0x00000000	0.0
76	0x00000000	0.0
77	0x00000000	0.0
78	0x00000000	0.0
79	0x00000000	0.0
80	0x00000000	0.0
81	0x00000000	0.0
82	0x00000000	0.0
83	0x00000000	0.0
84	0x00000000	0.0
85	0x00000000	0.0
86	0x00000000	0.0
87	0x00000000	0.0
88	0x00000000	0.0
89	0x00000000	0.0
90	0x00000000	0.0
91	0x00000000	0.0
92	0x00000000	0.0
93	0x00000000	0.0
94	0x00000000	0.0
95	0x00000000	0.0
96	0x00000000	0.0
97	0x00000000	0.0
98	0x00000000	0.0
99	0x00000000	0.0
100	0x00000000	0.0
101	0x00000000	0.0
102	0x00000000	0.0
103	0x00000000	0.0
104	0x00000000	0.0
105	0x00000000	0.0
106	0x00000000	0.0
107	0x00000000	0.0
108	0x00000000	0.0
109	0x00000000	0.0
110	0x00000000	0.0
111	0x00000000	0.0
112	0x00000000	0.0
113	0x00000000	0.0
114	0x00000000	0.0
115	0x00000000	0.0
116	0x00000000	0.0
117	0x00000000	0.0
118	0x00000000	0.0
119	0x00000000	0.0
120	0x00000000	0.0
121	0x00000000	0.0
122	0x00000000	0.0
123	0x00000000	0.0
124	0x00000000	0.0
125	0x00000000	0.0
126	0x00000000	0.0
127	0x00000000	0.0
128	0x00000000	0.0
129	0x00000000	0.0
130	0x00000000	0.0
131	0x00000000	0.0
132	0x00000000	0.0
133	0x00000000	0.0
134	0x00000000	0.0
135	0x00000000	0.0
136	0x00000000	0.0
137	0x00000000	0.0
138	0x00000000	0.0
139	0x00000000	0.0
140	0x00000000	0.0
141	0x00000000	0.0
142	0x00000000	0.0
143	0x00000000	0.0
144	0x00000000	0.0
145	0x00000000	0.0
146	0x00000000	0.0
147	0x00000000	0.0
148	0x00000000	0.0
149	0x00000000	0.0
150	0x00000000	0.0
151	0x00000000	0.0
152	0x00000000	0.0
153	0x00000000	0.0
154	0x00000000	0.0
155	0x00000000	0.0
156	0x00000000	0.0
157	0x00000000	0.0
158	0x00000000	0.0
159	0x00000000	0.0
160	0x00000000	0.0
161	0x00000000	0.0
162	0x00000000	0.0
163	0x00000000	0.0
164	0x00000000	0.0
165	0x00000000	0.0
166	0x00000000	0.0
167	0x00000000	0.0
168	0x00000000	0.0
169	0x00000000	0.0
170	0x00000000	0.0
171	0x00000000	0.0
172	0x00000000	0.0
173	0x00000000	0.0
174	0x00000000	0.0
175	0x00000000	0.0
176	0x00000000	0.0
177	0x00000000	0.0
178	0x00000000	0.0
179	0x00000000	0.0
180	0x00000000	0.0
181	0x00000000	0.0
182	0x00000000	0.0
183	0x00000000	0.0
184	0x00000000	0.0
185	0x00000000	0.0
186	0x00000000	0.0
187	0x00000000	0.0
188	0x00000000	0.0
189	0x00000000	0.0
190	0x00000000	0.0
191	0x00000000	0.0
192	0x00000000	0.0
193	0x00000000	0.0
194	0x00000000	0.0
195	0x00000000	0.0
196	0x00000000	0.0
197	0x00000000	0.0
198	0x00000000	0.0
199	0x00000000	0.0
200	0x00000000	0.0
201	0x00000000	0.0
202	0x00000000	0.0
203	0x00000000	0.0
204	0x00000000	0.0
205	0x00000000	0.0
206	0x00000000	0.0
207	0x00000000	0.0
208	0x00000000	0.0
209	0x00000000	0.0
210	0x00000000	0.0
211	0x00000000	0.0
212	0x00000000	0.0
213	0x00000000	0.0
214	0x00000000	0.0
215	0x00000000	0.0
216	0x00000000	0.0
217	0x00000000	0.0
218	0x00000000	0.0
219	0x00000000	0.0
220	0x00000000	0.0
221	0x00000000	0.0
222	0x00000000	0.0
223	0x00000000	0.0
224	0x00000000	0.0
225	0x00000000	0.0
226	0x00000000	0.0
227	0x00000000	0.0
228	0x00000000	0.0
229	0x00000000	0.0
230	0x00000000	0.0
231	0x00000000	0.0
232	0x00000000	0.0
233	0x00000000	0.0
234	0x00000000	0.0
235	0x00000000	0.0
236	0x00000000	0.0
237	0x00000000	0.0
238	0x00000000	0.0
239	0x00000000	0.0
240	0x00000000	0.0
241	0x00000000	0.0
242	0x00000000	0.0
243	0x00000000	0.0
244	0x00000000	0.0
245	0x00000000	0.0
246	0x00000000	0.0
247	0x00000000	0.0
248	0x00000000	0.0
249	0x00000000	0.0
250	0x00000000	0.0
251	0x00000000	0.0
252	0x00000000	0.0
253	0x00000000	0.0
254	0x00000000	0.0
255	0x00000000	0.0

fc1_bn.running_mean f4 [400]
0	0x00000000	0.0
1	0x00000000	0.0
2	0x00000000	0.0
3	0x00000000	0.0
4	0x00000000	0.0
5	0x00000000	0.0
6	0x00000000	0.0
7	0x00000000	0.0
8	0x00000000	0.0
9	0x00000000	0.0
10	0x00000000	0.0
11	0x00000000	0.0
12	0x00000000	0.0
13	0x00000000	0.0
14	0x00000000	0.0
15	0x00000000	0.0
16	0x00000000	0.0
17	0x00000000	0.0
18	0x00000000	0.0
19	0x00000000	0.0
20	0x00000000	0.0
21	0x00000000	0.0
22	0x00000000	0.0
23	0x00000000	0.0
24	0x00000000	0.0
25	0x00000000	0.0
26	0x00000000	0.0
27	0x00000000	0.0
28	0x00000000	0.0
29	0x00000000	0.0
30	0x00000000	0.0
31	0x00000000	0.0
32	0x00000000	0.0
33	0x00000000	0.0
34	0x00000000	0.0
35	0x00000000	0.0
36	0x00000000	0.0
37	0x00000000	0.0
38	0x00000000	0.0
39	0x00000000	0.0
40	0x00000000	0.0
41	0x00000000	0.0
42	0x00000000	0.0
43	0x00000000	0.0
44	0x00000000	0.0
45	0x00000000	0.0
46	0x00000000	0.0
47	0x00000000	0.0
48	0x00000000	0.0
49	0x00000000	0.0
50	0x00000000	0.0
51	0x00000000	0.0
52	0x00000000	0.0
53	0x00000000	0.0
54	0x00000000	0.0
55	0x00000000	0.0
56	0x00000000	0.0
57	0x00000000	0.0
58	0x00000000	0.0
59	0x00000000	0.0
60	0x00000000	0.0
61	0x00000000	0.0
62	0x00000000	0.0
63	0x00000000	0.0
64	0x00000000	0.0
65	0x00000000	0.0
66	0x00000000	0.0
67	0x00000000	0.0
68	0x00000000	0.0
69	0x00000000	0.0
70	0x00000000	0.0
71	0x00000000	0.0
72	0x00000000	0.0
73	0x00000000	0.0
74	0x00000000	0.0
75	0x00000000	0.0
76	0x00000000	0.0
77	0x00000000	0.0
78	0x00000000	0.0
79	0x00000000	0.0
80	0x00000000	0.0
81	0x00000000	0.0
82	0x00000000	0.0
83	0x00000000	0.0
84	0x00000000	0.0
85	0x00000000	0.0
86	0x00000000	0.0
87	0x00000000	0.0
88	0x00000000	0.0
89	0x00000000	0.0
90	0x00000000	0.0
91	0x00000000	0.0
92	0x00000000	0.0
93	0x00000000	0.0
94	0x00000000	0.0
95	0x00000000	0.0
96	0x00000000	0.0
97	0x00000000	0.0
98	0x00000000	0.0
99	0x00000000	0.0
100	0x00000000	0.0
101	0x00000000	0.0
102	0x00000000	0.0
103	0x00000000	0.0
104	0x00000000	0.0
105	0x00000000	0.0
106	0x00000000	0.0
107	0x00000000	0.0
108	0x00000000	0.0
109	0x00000000	0.0
110	0x00000000	0.0
111	0x00000000	0.0
112	0x00000000	0.0
113	0x00000000	0.0
114	0x00000000	0.0
115	0x00000000	0.0
116	0x00000000	0.0
117	0x00000000	0.0
118	0x00000000	0.0
119	0x00000000	0.0
120	0x00000000	0.0
121	0x00000000	0.0
122	0x00000000	0.0
123	0x00000000	0.0
124	0x00000000	0.0
125	0x00000000	0.0
126	0x00000000	0.0
127	0x00000000	0.0
128	0x00000000	0.0
129	0x00000000	0.0
130	0x00000000	0.0
131	0x00000000	0.0
132	0x00000000	0.0
133	0x00000000	0.0
134	0x00000000	0.0
135	0x00000000	0.0
136	0x00000000	0.0
137	0x00000000	0.0
138	0x00000000	0.0
139	0x00000000	0.0
140	0x00000000	0.0
141	0x00000000	0.0
142	0x00000000	0.0
143	0x00000000	0.0
144	0x00000000	0.0
145	0x00000000	0.0
146	0x00000000	0.0
147	0x00000000	0.0
148	0x00000000	0.0
149	0x00000000	0.0
150	0x00000000	0.0
151	0x00000000	0.0
152	0x00000000	0.0
153	0x00000000	0.0
154	0x00000000	0.0
155	0x00000000	0.0
156	0x00000000	0.0
157	0x00000000	0.0
158	0x00000000	0.0
159	0x00000000	0.0
160	0x00000000	0.0
161	0x00000000	0.0
162	0x00000000	0.0
163	0x00000000	0.0
164	0x00000000	0.0
165	0x00000000	0.0
166	0x00000000	0.0
167	0x00000000	0.0
168	0x00000000	0.0
169	0x00000000	0.0
170	0x00000000	0.0
171	0x00000000	0.0
172	0x00000000	0.0
173	0x00000000	0.0
174	0x00000000	0.0
175	0x00000000	0.0
176	0x00000000	0.0
177	0x00000000	0.0
178	0x00000000	0.0
179	0x00000000	0.0
180	0x00000000	0.0
181	0x00000000	0.0
182	0x00000000	0.0
183	0x00000000	0.0
184	0x00000000	0.0
185	0x00000000	0.0
186	0x00000000	0.0
187	0x00000000	0.0
188	0x00000000	0.0
189	0x00000000	0.0
190	0x00000000	0.0
191	0x00000000	0.0
192	0x00000000	0.0
193	0x00000000	0.0
194	0x00000000	0.0
195	0x00000000	0.0
196	0x00000000	0.0
197	0x00000000	0.0
198	0x00000000	0.0
199	0x00000000	0.0
200	0x00000000	0.0
201	0x00000000	0.0
202	0x00000000	0.0
203	0x00000000	0.0
204	0x00000000	0.0
205	0x00000000	0.0
206	0x00000000	0.0
207	0x00000000	0.0
208	0x00000000	0.0
209	0x00000000	0.0
210	0x00000000	0.0
211	0x00000000	0.0
212	0x00000000	0.0
213	0x00000000	0.0
214	0x00000000	0.0
215	0x00000000	0.0
216	0x00000000	0.0
217	0x00000000	0.0
218	0x00000000	0.0
219	0x00000000	0.0
220	0x00000000	0.0
221	0x00000000	0.0
222	0x00000000	0.0
223	0x00000000	0.0
224	0x00000000	0.0
225	0x00000000	0.0
226	0x00000000	0.0
227	0x00000000	0.0
228	0x00000000	0.0
229	0x00000000	0.0
230	0x00000000	0.0
231	0x00000000	0.0
232	0x00000000	0.0
233	0x00000000	0.0
234	0x00000000	0.0
235	0x00000000	0.0
236	0x00000000	0.0
237	0x00000000	0.0
238	0x00000000	0.0
239	0x00000000	0.0
240	0x00000000	0.0
241	0x00000000	0.0
242	0x00000000	0.0
243	0x00000000	0.0
244	0x00000000	0.0
245	0x00000000	0.0
246	0x00000000	0.0
247	0x00000000	0.0
248	0x00000000	0.0
249	0x00000000	0.0
250	0x00000000	0.0
251	0x00000000	0.0
252	0x00000000	0.0
253	0x00000000	0.0
254	0x00000000	0.0
255	0x00000000	0.0

fc1_bn.running_var f4 [400]
0	0x3f800000	1.0
1	0x3f800000	1.0
2	0x3f800000	1.0
3	0x3f800000	1.0
4	0x3f800000	1.0
5	0x3f800000	1.0
6	0x3f800000	1.0
7	0x3f800000	1.0
8	0x3f800000	1.0
9	0x3f800000	1.0
10	0x3f800000	1.0
11	0x3f800000	1.0
12	0x3f800000	1.0
13	0x3f800000	1.0
14	0x3f800000	1.0
15	0x3f800000	1.0
16	0x3f800000	1.0
17	0x3f800000	1.0
18	0x3f800000	1.0
19	0x3f800000	1.0
20	0x3f800000	1.0
21	0x3f800000	1.0
22	0x3f800000	1.0
23	0x3f800000	1.0
24	0x3f800000	1.0
25	0x3f800000	1.0
26	0x3f800000	1.0
27	0x3f800000	1.0
28	0x3f800000	1.0
29	0x3f800000	1.0
30	0x3f800000	1.0
31	0x3f800000	1.0
32	0x3f800000	1.0
33	0x3f800000	1.0
34	0x3f800000	1.0
35	0x3f800000	1.0
36	0x3f800000	1.0
37	0x3f800000	1.0
38	0x3f800000	1.0
39	0x3f800000	1.0
40	0x3f800000	1.0
41	0x3f800000	1.0
42	0x3f800000	1.0
43	0x3f800000	1.0
44	0x3f800000	1.0
45	0x3f800000	1.0
46	0x3f800000	1.0
47	0x3f800000	1.0
48	0x3f800000	1.0
49	0x3f800000	1.0
50	0x3f800000	1.0
51	0x3f800000	1.0
52	0x3f800000	1.0
53	0x3f800000	1.0
54	0x3f800000	1.0
55	0x3f800000	1.0
56	0x3f800000	1.0
57	0x3f800000	1.0
58	0x3f800000	1.0
59	0x3f800000	1.0
60	0x3f800000	1.0
61	0x3f800000	1.0
62	0x3f800000	1.0
63	0x3f800000	1.0
64	0x3f800000	1.0
65	0x3f800000	1.0
66	0x3f800000	1.0
67	0x3f800000	1.0
68	0x3f800000	1.0
69	0x3f800000	1.0
70	0x3f800000	1.0
71	0x3f800000	1.0
72	0x3f800000	1.0
73	0x3f800000	1.0
74	0x3f800000	1.0
75	0x3f800000	1.0
76	0x3f800000	1.0
77	0x3f800000	1.0
78	0x3f800000	1.0
79	0x3f800000	1.0
80	0x3f800000	1.0
81	0x3f800000	1.0
82	0x3f800000	1.0
83	0x3f800000	1.0
84	0x3f800000	1.0
85	0x3f800000	1.0
86	0x3f800000	1.0
87	0x3f800000	1.0
88	0x3f800000	1.0
89	0x3f800000	1.0
90	0x3f800000	1.0
91	0x3f800000	1.0
92	0x3f800000	1.0
93	0x3f800000	1.0
94	0x3f800000	1.0
95	0x3f800000	1.0
96	0x3f800000	1.0
97	0x3f800000	1.0
98	0x3f800000	1.0
99	0x3f800000	1.0
100	0x3f800000	1.0
101	0x3f800000	1.0
102	0x3f800000	1.0
103	0x3f800000	1.0
104	0x3f800000	1.0
105	0x3f800000	1.0
106	0x3f800000	1.0
107	0x3f800000	1.0
108	0x3f800000	1.0
109	0x3f800000	1.0
110	0x3f800000	1.0
111	0x3f800000	1.0
112	0x3f800000	1.0
113	0x3f800000	1.0
114	0x3f800000	1.0
115	0x3f800000	1.0
116	0x3f800000	1.0
117	0x3f800000	1.0
118	0x3f800000	1.0
119	0x3f800000	1.0
120	0x3f800000	1.0
121	0x3f800000	1.0
122	0x3f800000	1.0
123	0x3f800000	1.0
124	0x3f800000	1.0
125	0x3f800000	1.0
126	0x3f800000	1.0
127	0x3f800000	1.0
128	0x3f800000	1.0
129	0x3f800000	1.0
130	0x3f800000	1.0
131	0x3f800000	1.0
132	0x3f800000	1.0
133	0x3f800000	1.0
134	0x3f800000	1.0
135	0x3f800000	1.0
136	0x3f800000	1.0
137	0x3f800000	1.0
138	0x3f800000	1.0
139	0x3f800000	1.0
140	0x3f800000	1.0
141	0x3f800000	1.0
142	0x3f800000	1.0
143	0x3f800000	1.0
144	0x3f800000	1.0
145	0x3f800000	1.0
146	0x3f800000	1.0
147	0x3f800000	1.0
148	0x3f800000	1.0
149	0x3f800000	1.0
150	0x3f800000	1.0
151	0x3f800000	1.0
152	0x3f800000	1.0
153	0x3f800000	1.0
154	0x3f800000	1.0
155	0x3f800000	1.0
156	0x3f800000	1.0
157	0x3f800000	1.0
158	0x3f800000	1.0
159	0x3f800000	1.0
160	0x3f800000	1.0
161	0x3f800000	1.0
162	0x3f800000	1.0
163	0x3f800000	1.0
164	0x3f800000	1.0
165	0x3f800000	1.0
166	0x3f800000	1.0
167	0x3f800000	1.0
168	0x3f800000	1.0
169	0x3f800000	1.0
170	0x3f800000	1.0
171	0x3f800000	1.0
172	0x3f800000	1.0
173	0x3f800000	1.0
174	0x3f800000	1.0
175	0x3f800000	1.0
176	0x3f800000	1.0
177	0x3f800000	1.0
178	0x3f800000	1.0
179	0x3f800000	1.0
180	0x3f800000	1.0
181	0x3f800000	1.0
182	0x3f800000	1.0
183	0x3f800000	1.0
184	0x3f800000	1.0
185	0x3f800000	1.0
186	0x3f800000	1.0
187	0x3f800000	1.0
188	0x3f800000	1.0
189	0x3f800000	1.0
190	0x3f800000	1.0
191	0x3f800000	1.0
192	0x3f800000	1.0
193	0x3f800000	1.0
194	0x3f800000	1.0
195	0x3f800000	1.0
196	0x3f800000	1.0
197	0x3f800000	1.0
198	0x3f800000	1.0
199	0x3f800000	1.0
200	0x3f800000	1.0
201	0x3f800000	1.0
202	0x3f800000	1.0
203	0x3f800000	1.0
204	0x3f800000	1.0
205	0x3f800000	1.0
206	0x3f800000	1.0
207	0x3f800000	1.0
208	0x3f800000	1.0
209	0x3f800000	1.0
210	0x3f800000	1.0
211	0x3f800000	1.0
212	0x3f800000	1.0
213	0x3f800000	1.0
214	0x3f800000	1.0
215	0x3f800000	1.0
216	0x3f800000	1.0
217	0x3f800000	1.0
218	0x3f800000	1.0
219	0x3f800000	1.0
220	0x3f800000	1.0
221	0x3f800000	1.0
222	0x3f800000	1.0
223	0x3f800000	1.0
224	0x3f800000	1.0
225	0x3f800000	1.0
226	0x3f800000	1.0
227	0x3f800000	1.0
228	0x3f800000	1.0
229	0x3f800000	1.0
230	0x3f800000	1.0
231	0x3f800000	1.0
232	0x3f800000	1.0
233	0x3f800000	1.0
234	0x3f800000	1.0
235	0x3f800000	1.0
236	0x3f800000	1.0
237	0x3f800000	1.0
238	0x3f800000	1.0
239	0x3f800000	1.0
240	0x3f800000	1.0
241	0x3f800000	1.0
242	0x3f800000	1.0
243	0x3f800000	1.0
244	0x3f800000	1.0
245	0x3f800000	1.0
246	0x3f800000	1.0
247	0x3f800000	1.0
248	0x3f800000	1.0
249	0x3f800000	1.0
250	0x3f800000	1.0
251	0x3f800000	1.0
252	0x3f800000	1.0
253	0x3f800000	1.0
254	0x3f800000	1.0
255	0x3f800000	1.0

fc2.weight f4 [300, 400]
0	0x3d4c77e1	0.049919013
1	0x3c31f41a	0.010861421
2	0x3bcfb367	0.006338525
3	0xbc6b063f	-0.014344751
4	0x3cdeb170	0.027184218
5	0xbd0ce569	-0.03439847
6	0x3cb72964	0.022358604
7	0x3da838d7	0.08213966
8	0xbc6590de	-0.01401159
9	0x3dab37f8	0.083602846
10	0xbd127e50	-0.035764992
11	0xbc4902ce	-0.012268735
12	0xbd4e72bb	-0.050402384
13	0xbd625667	-0.05525818
14	0x3d439eff	0.047759052
15	0x3d44a69d	0.048010457
16	0xbd17167e	-0.036886685
17	0x3d3473fa	0.044055916
18	0xbd86b120	-0.06576753
19	0xbab03448	-0.0013443315
20	0x3d79da87	0.06099942
21	0xbd2016b3	-0.039084148
22	0xbd81b3a0	-0.06333089
23	0xbce3823d	-0.027772063
24	0x3c1c44a2	0.009537848
25	0xbb565b9c	-0.0032708412
26	0x3c37675c	0.011194076
27	0xbcafa6e4	-0.021441884
28	0x3ce820aa	0.028335888
29	0xbd2a9dc3	-0.04165436
30	0xbcc3e73f	-0.023913978
31	0xbcf068f2	-0.029346917
32	0xba9a568a	-0.0011775058
33	0x3d1ec9cf	0.03876668
34	0xbbbed04a	-0.00582317
35	0x3d3c8580	0.046025753
36	0xbd09b1a1	-0.033616666
37	0xbc9ca64b	-0.019122263
38	0x3c08783c	0.008329447
39	0x3d81ccd7	0.06337898
40	0x3c1fc181	0.009750725
41	0xbbf7094e	-0.007538951
42	0x3bc58bd6	0.0060286326
43	0x3cb8c2a8	0.022553757
44	0x3c8b687d	0.017017597
45	0xbabfcac7	-0.0014632576
46	0xbc02484c	-0.007951807
47	0xbcab0262	-0.02087516
48	0x3d415c92	0.047207423
49	0x3d7877cc	0.060661122
50	0xbd148278	-0.036257237
51	0x3c13ba0a	0.009016523
52	0xbb1604ed	-0.002289112
53	0xbb89ea09	-0.0042088074
54	0xbca057de	-0.019573148
55	0x3d3d6ba5	0.046245236
56	0xbcae02ce	-0.021241572
57	0xbd479e7c	-0.048735127
58	0xbc9da7de	-0.019245084
59	0x3c634586	0.013871556
60	0x3d484d35	0.048901755
61	0xbc057746	-0.008146113
62	0xbc9e030b	-0.01928856
63	0x3d161205	0.03663828
64	0x3d1f2f61	0.038863543
65	0x3bc29bd0	0.0059389845
66	0xbd022ea7	-0.031782772
67	0x3d1154ba	0.035481192
68	0x3d3ea4f9	0.04654405
69	0xbc8bd24b	-0.017068049
70	0x3cf7668e	0.03020027
71	0xbce595eb	-0.028025588
72	0x3d3ce596	0.046117388
73	0xbc41234d	-0.0117882015
74	0xbd0db5c3	-0.03459717
75	0xbd774425	-0.060367722
76	0xbd41e434	-0.047336772
77	0x3c902e5c	0.01760023
78	0x3d1879c5	0.037225503
79	0xbc9f6389	-0.019456642
80	0xbb9b5105	-0.004739883
81	0xbd421492	-0.0473829
82	0x3d11c50b	0.035588305
83	0xbd8515da	-0.064983085
84	0xbda3dc9a	-0.08001061
85	0x3cdb6834	0.026783086
86	0xbcc6d4cf	-0.024271397
87	0xbd2437f5	-0.040092427
88	0xbc03723c	-0.008022841
89	0x3d942c59	0.07235021
90	0xbb38a313	-0.0028173372
91	0x3d01c996	0.031686388
92	0x3d4c9279	0.049944375
93	0x3cbc08f7	0.022953494
94	0x3d8499f7	0.06474679
95	0x39b0245d	0.0003359643
96	0x3d7dcd43	0.06196333
97	0xbd0f803c	-0.035034403
98	0x3c0d5cc6	0.008628076
99	0x3d066c3a	0.032818057
100	0xbc96e2e2	-0.018418733
101	0xbd54cd1f	-0.05195343
102	0x3d925c93	0.071465634
103	0xbcf20119	-0.029541539
104	0x3da7916b	0.08182033
105	0xbd6f9086	-0.058487438
106	0xbc9fe150	-0.019516617
107	0xbc8bf0f0	-0.017082661
108	0x3d25e816	0.040504538
109	0x3ce8a195	0.02839736
110	0x3ccf47de	0.025302824
111	0xbc8f3c5f	-0.017484842
112	0xbd326212	-0.04355056
113	0xbb195836	-0.0023398525
114	0x3d92602d	0.0714725
115	0x3c1b010b	0.009460698
116	0x3be66722	0.0070313374
117	0x3d590200	0.052980423
118	0x3c8d8528	0.017275408
119	0xbce33c62	-0.027738754
120	0x3d2a5f55	0.041594822
121	0x3b30233c	0.002687647
122	0xbc1c6008	-0.00954438
123	0xbd323bf8	-0.043514222
124	0xbcbc3475	-0.022974232
125	0x3d662c78	0.056194752
126	0x3d4e4a0e	0.050363593
127	0xbcbf6211	-0.023362191
128	0x3bcef436	0.0063157333
129	0x3d210534	0.039311603
130	0xbd4002d4	-0.046877697
131	0x3af68a28	0.0018809484
132	0xbce946f0	-0.028476208
133	0x3b698e2b	0.0035637717
134	0x3d644749	0.055732045
135	0x3c046764	0.008081291
136	0xbcba0ff1	-0.02271268
137	0x3b566b66	0.0032717823
138	0x3d91648c	0.07099256
139	0xbcda91cd	-0.026680851
140	0x3d8af049	0.06784112
141	0x3ca04014	0.019561805
142	0x3d35d320	0.044390798
143	0xbb97e940	-0.00463596
144	0xbc354ce6	-0.011065697
145	0xbbd9fdbc	-0.006652562
146	0xbcc6bf0c	-0.02426102
147	0x3dba0cf7	0.09084504
148	0xbd75c389	-0.06000093
149	0x3ade70e2	0.0016970898
150	0xbc8ef438	-0.017450437
151	0x3ce54c07	0.027990354
152	0x3c4b908e	0.012424601
153	0xbb92bd1d	-0.0044781105
154	0xbce90d66	-0.028448772
155	0xbc0b91ca	-0.008518646
156	0xbd8aced6	-0.06777732
157	0xbca0f967	-0.019650174
158	0xbc40810c	-0.011749517
159	0xbd1bd0f0	-0.038041055
160	0x3bd4749c	0.0064836275
161	0x3c9eeea8	0.01940091
162	0x3cea9be9	0.028638797
163	0x3d888fae	0.0666803
164	0xbcfe15d8	-0.031016275
165	0xbc84a2e9	-0.016190963
166	0xbccfdcb3	-0.025373792
167	0x3c3fdfeb	0.011711101
168	0xbd642362	-0.055697806
169	0x3bcd986a	0.0062742727
170	0xbcb539e4	-0.022122331
171	0xbd463f4c	-0.04840021
172	0xbb7ad925	-0.00382764
173	0xbc1a0900	-0.00940156
174	0xbc61cca6	-0.013781702
175	0x3d48922c	0.048967525
176	0x3cf41195	0.02979354
177	0xbd7635d9	-0.060109947
178	0x3dbaca83	0.09120657
179	0xbc592c67	-0.013255215
180	0xbd390cd5	-0.045178253
181	0xbc2fddd5	-0.010734041
182	0x3d80108c	0.06253156
183	0x3d83a619	0.06428165
184	0x3d3b5f09	0.04574493
185	0xbc475b00	-0.012167692
186	0x3d6b0d4d	0.05738573
187	0xbd3c16e2	-0.04592026
188	0xbd1c2162	-0.038117774
189	0xbcd2f9ef	-0.025753943
190	0x3c5611e7	0.013065792
191	0x3c3214e9	0.010869243
192	0xbaacc13f	-0.001318015
193	0x3ce4a887	0.027912391
194	0x3bf3c292	0.007438966
195	0xbc722581	-0.014779449
196	0x3ccea4b3	0.02522502
197	0x3d6d250a	0.05789665
198	0x3c9a3b75	0.01882718
199	0xbcb58739	-0.022159206
200	0xbccbd1e7	-0.024880363
201	0x3d08efd2	0.033431835
202	0xbd9a0c39	-0.075218625
203	0x399e6405	0.0003021063
204	0x3da35361	0.07974888
205	0x3d239a4d	0.039942075
206	0x3bddb84d	0.006766355
207	0x3d118998	0.03553161
208	0x3dc580d2	0.09643711
209	0x3d08c0f3	0.033387136
210	0x3d66033f	0.05615544
211	0x3c94871c	0.018130831
212	0xbbc21f61	-0.005924151
213	0x3db1988f	0.08671676
214	0xbd1228e9	-0.035683546
215	0xbcdd44f6	-0.027010422
216	0x3c5b6a0f	0.013391986
217	0xbd2561c3	-0.040376436
218	0xbb2108e9	-0.0024571961
219	0x3d8d2074	0.068909556
220	0x3bb0b51a	0.0053926827
221	0x3d0d42df	0.0344876
222	0xbcfade4a	-0.030623574
223	0xbd753d88	-0.059873134
224	0xbd63419e	-0.0554825
225	0xbd1a09e1	-0.037607078
226	0x3d3ed06c	0.046585485
227	0x3ccc3797	0.024928851
228	0x3ccde5e0	0.025134027
229	0x3aee2a68	0.0018170597
230	0x3d566c27	0.052349236
231	0x3d8bec4b	0.06832179
232	0x3c8940df	0.016754566
233	0x3cd2fe26	0.025755953
234	0xbc0857eb	-0.0083217425
235	0x3d89b1b8	0.0672335
236	0x3c7fd15b	0.015613879
237	0x3d52979c	0.051414117
238	0xbaadfe1a	-0.0013274581
239	0xbb25d234	-0.0025302293
240	0x3a96a2e1	0.0011492633
241	0x3b7ed97b	0.0038886953
242	0xbce75d2c	-0.02824267
243	0x3c7f72e2	0.015591355
244	0x3d688889	0.056770835
245	0x3d2c404f	0.042053517
246	0x3c226e88	0.009914048
247	0xbcac78b2	-0.021053646
248	0x3cbd9315	0.023141423
249	0xbd82eef8	-0.06393236
250	0xbd8991b4	-0.06717244
251	0xbd0a29ef	-0.033731397
252	0xbceb60b7	-0.02873264
253	0x3d769a5d	0.060205806
254	0xbd348370	-0.04407066
255	0xbc27e2bd	-0.01024693

fc2.bias f4 [300]
0	0x3caf329a	0.021386433
1	0x3d2bae0f	0.041914042
2	0xbc40482a	-0.011735955
3	0x3d089022	0.03334058
4	0xbc734a5f	-0.014849274
5	0xbd26d933	-0.04073448
6	0x3cf04f03	0.02933455
7	0x3bbe0359	0.005798739
8	0x3d0d3d43	0.03448225
9	0x3c57e0af	0.013176127
10	0xbd0dbf88	-0.034606487
11	0x3d4fea3b	0.05076049
12	0xbc345400	-0.011006355
13	0xbb081c64	-0.0020768875
14	0x3d52ff70	0.051513135
15	0x3cb8adb2	0.022543762
16	0x3d080cdd	0.033215392
17	0x3ce3141e	0.027719554
18	0xbd13e8e7	-0.036110785
19	0x3caefc0f	0.021360425
20	0x3d7c7533	0.061635207
21	0x3cb27f43	0.021789199
22	0xbb865108	-0.004099015
23	0xbcede9ca	-0.029042143
24	0x3d42bc34	0.047542766
25	0x3c403681	0.011731745
26	0x3ca52a68	0.020161822
27	0x3d64cd92	0.05586011
28	0x3cd7925d	0.026314909
29	0xbd3efda9	-0.046628628
30	0xbd098759	-0.033576343
31	0xbc1ccb4a	-0.009569952
32	0xbb6a7b1f	-0.0035778952
33	0x3bf26e55	0.0073984065
34	0x3c3ea315	0.0116355615
35	0x3b1c1696	0.0023817173
36	0x3d0a3fb7	0.03375217
37	0x3d022b84	0.03177978
38	0x3d407fd2	0.0469969
39	0x3cfb5373	0.03067944
40	0x3d818aa3	0.06325271
41	0xbd1ebac8	-0.038752347
42	0x3d7ada2a	0.061243214
43	0x3d130619	0.035894487
44	0x3d351ea4	0.044218674
45	0xbc745c9d	-0.014914659
46	0x3d0db593	0.03459699
47	0xbc97295f	-0.018452344
48	0xbccf0124	-0.025269099
49	0x3cdad2f7	0.026711924
50	0x3ceea6b4	0.029132225
51	0x3ccefe97	0.025267882
52	0x3d201e4f	0.039091405
53	0x3d127d1e	0.035763852
54	0xbc271090	-0.01019682
55	0x399ec248	0.0003028086
56	0x3c09f88a	0.008421073
57	0x3d343565	0.043996233
58	0x3ce3d1f2	0.02781007
59	0x3c9bf16f	0.019036023
60	0xbbfc4a9a	-0.007699323
61	0x3b66a3d3	0.0035192862
62	0x3bfab6b9	0.007651177
63	0x3d06cae3	0.03290833
64	0xbc4637fa	-0.012098307
65	0xba429dc2	-0.00074240204
66	0x3cbd535d	0.02311104
67	0x3cf60ed7	0.030036373
68	0x3c2a504a	0.010395119
69	0x3b59bc48	0.0033223797
70	0x3d28d8f3	0.041222524
71	0x3d010807	0.031501796
72	0x3d609b0a	0.054835357
73	0x3c1cbd79	0.009566658
74	0x3d79b968	0.060967833
75	0xbbd8aa81	-0.0066121225
76	0x3cb2523f	0.021767734
77	0xbb5014ba	-0.0031750635
78	0xbd7141a6	-0.058900498
79	0x3d896508	0.06708723
80	0xbced4a6d	-0.028966153
81	0xbb47efa7	-0.0030507834
82	0xbb1136c5	-0.002215789
83	0x3bf78c45	0.007554563
84	0x3bc0ff81	0.0058898334
85	0x3cbae279	0.022813069
86	0x39ef0bc1	0.0004559439
87	0xbba03daa	-0.0048901634
88	0xbc9cc082	-0.019134764
89	0xbb8f3b16	-0.0043710573
90	0x3cac5fd1	0.021041783
91	0xbd2b27f6	-0.041786157
92	0x3a1247ff	0.0005580186
93	0x3ca077d8	0.019588396
94	0x3cbbea61	0.022938909
95	0x3c1f726b	0.009731869
96	0xbad2a67c	-0.0016071345
97	0xbb345ba8	-0.0027520452
98	0x3d86ad35	0.06576005
99	0x3d54ce22	0.051954396
100	0xbb44895c	-0.00299891
101	0xbcb78d22	-0.022406165
102	0xbb172594	-0.002306317
103	0x3d250bbb	0.04029439
104	0x3d496f65	0.0491785
105	0x3a704b70	0.00091665145
106	0x3d31add3	0.043378662
107	0xbcfba275	-0.030717114
108	0xbc5b34da	-0.0133793
109	0xbb59196c	-0.0033126725
110	0xbd3ef08c	-0.046616122
111	0x3d7e6e4d	0.06211691
112	0x3d76aeca	0.060225286
113	0xbd3f875a	-0.04675994
114	0x3c30f0f3	0.010799634
115	0xbcec02d6	-0.028809946
116	0xbcd6d3a4	-0.026223965
117	0x3d7280a6	0.05920472
118	0xbc5e7992	-0.013578789
119	0x3ca5c363	0.02023477
120	0xbc1ee649	-0.009698459
121	0xbc97f632	-0.018550012
122	0xbd07a2fd	-0.033114422
123	0x3ca39497	0.019968314
124	0xbc87cf4a	-0.016578335
125	0xbce4f51b	-0.027948907
126	0xbd5994bd	-0.053120364
127	0x3c458005	0.012054448
128	0x3d221950	0.03957492
129	0xbce48d5f	-0.027899442
130	0xbcffba61	-0.031216802
131	0x3d9372a4	0.071996
132	0x3a487889	0.00076473557
133	0xbd2afdf2	-0.041746087
134	0xbd182d0a	-0.037152328
135	0x3ade4fcf	0.0016961041
136	0xbc200462	-0.00976667
137	0x3d075f14	0.033049658
138	0xbc441e2a	-0.011970082
139	0xbcbf518f	-0.02335432
140	0xbc602a5b	-0.013681973
141	0x3d56e7c9	0.05246714
142	0x3d532cfe	0.05155658
143	0x3c603b66	0.013686037
144	0x3d83fec6	0.064450786
145	0x3cb5a61a	0.02217393
146	0x3d2669fb	0.040628415
147	0x3c6e4894	0.014543671
148	0x3ba7dc4e	0.005122698
149	0xbcfd676b	-0.030933103
150	0xbd4a3fab	-0.049377125
151	0x3d359618	0.044332594
152	0x3c2d9302	0.010594131
153	0x3cd7e997	0.026356502
154	0x3d59d3ed	0.053180624
155	0x3d69fdf0	0.05712694
156	0x3c9db2f6	0.019250374
157	0x3d25ae5e	0.040449493
158	0xbceb13a1	-0.028695883
159	0x3d6af0fc	0.057358727
160	0xbd2bfafd	-0.041987408
161	0x3cc036c0	0.023463607
162	0xbc86efa1	-0.016471686
163	0x3c7ac790	0.0153063685
164	0x3c9c5451	0.019083174
165	0x3c764bb9	0.015032702
166	0x3b532253	0.0032216504
167	0x3d075122	0.03303636
168	0xbd047113	-0.0323344
169	0xbce386ff	-0.027774332
170	0x3d0bdd7e	0.03414678
171	0x3d255708	0.040366203
172	0x3d33ee5f	0.0439285
173	0xbc65a0f2	-0.014015423
174	0xbc361eb5	-0.01111572
175	0x3d6b12c3	0.05739094
176	0x3d853883	0.065049194
177	0xbc9d0c3a	-0.01917087
178	0x3c9bfc2c	0.019041143
179	0x3cd9fc92	0.026609693
180	0x3d1e9409	0.038715396
181	0xbd442c3f	-0.04789376
182	0x3d522768	0.051307112
183	0xbc7b34a4	-0.015332375
184	0x3d29d6f6	0.04146477
185	0x3d075056	0.0330356
186	0xbd04da10	-0.032434523
187	0x3c038da1	0.008029372
188	0xbbbe9b96	-0.005816887
189	0x3cbe9d9e	0.023268517
190	0x3d8666b2	0.06562556
191	0xbc413361	-0.011792035
192	0x3d8371e9	0.06418211
193	0x3d0a9798	0.033835977
194	0x3d4d7611	0.050161425
195	0xbc841d09	-0.016127126
196	0xbc8bb3e2	-0.017053548
197	0x3bfbc902	0.007683874
198	0x3cedb88a	0.02901866
199	0xbc9da534	-0.019243814
200	0x3c97099b	0.018437197
201	0x3ce91f85	0.028457412
202	0x3c9da6b9	0.019244539
203	0xbd35527c	-0.044268116
204	0xbc1e31e2	-0.009655448
205	0xbd08416f	-0.033265527
206	0x3d321a4a	0.043482102
207	0xbd3a59e7	-0.045495894
208	0x3ac43c7e	0.0014971641
209	0xbd4d73e5	-0.050159354
210	0xbcba96f1	-0.022777053
211	0x3d208fef	0.039199766
212	0x3d8c37dc	0.06846592
213	0x3cad4621	0.021151604
214	0x3d307b2b	0.043086212
215	0x3d8384ad	0.0642179
216	0xbbb87d3d	-0.005630164
217	0xbd19a5c5	-0.037511606
218	0xbc8e1427	-0.017343594
219	0xbbb200ca	-0.005432223
220	0x3d2c11cb	0.042009156
221	0x3d694c63	0.056957614
222	0xbd15648c	-0.036472842
223	0x3d97383e	0.07383774
224	0x3d2d6b1a	0.042338468
225	0xbd0be9dc	-0.034158573
226	0x3c07dea9	0.008292832
227	0x3c832a2e	0.016011324
228	0xbd1a2f24	-0.037642613
229	0x3cb0d51a	0.02158599
230	0xbc3a11df	-0.0113568
231	0x3cd114b7	0.025522573
232	0xb93022c5	-0.0001679762
233	0x3cdb1e33	0.026747799
234	0x3d3f4b23	0.046702515
235	0xbc7fdfe6	-0.015617346
236	0xbc2f2ab1	-0.010691331
237	0x3be2ae3f	0.0069177444
238	0x3b92c709	0.0044792932
239	0xbc20f027	-0.009822882
240	0x3d59b77f	0.05315351
241	0x3c8afc7d	0.016966099
242	0x3c58856b	0.013215403
243	0xbbd249da	-0.006417495
244	0x3d15b6d9	0.03655133
245	0x3b08981d	0.002084262
246	0xbd2a1071	-0.041519586
247	0x3d1be880	0.038063526
248	0x3d08bd5e	0.03338372
249	0x3d977f8c	0.073973745
250	0x3d84af0b	0.06478699
251	0xbbbb7f03	-0.005721928
252	0x3c839f6b	0.016067227
253	0x3d8320d9	0.064027496
254	0x3d7dcf6c	0.06196539
255	0x3d561cb2	0.05227346
