agent_checkpoints/checkpoint_actor_13.pth (torch_old, 553585 bytes, 14 tensors)

fc1.weight f4 [400, 33]
000000 b9 4e cd bc fc c8 7f 3d df dd e7 3c d3 ce e0 bb
       -0.025061952 0.062447533 0.028304039 -0.006860593
000010 69 ee a4 3c 19 a9 72 bb a2 a2 f4 bc 50 75 88 bc
       0.020133214 -0.003702706 -0.029862706 -0.016657501
000020 89 9a c3 bc 09 df 3c 3d 19 da dc bc a5 b2 73 3d
       -0.023877399 0.04611114 -0.026959466 0.05949654
000030 c1 9c 05 bd ba 9b cc bc 54 46 b4 bc 6a 39 81 bc
       -0.032620195 -0.0249766 -0.022006191 -0.015774447
000040 1c e6 8b bd 4d 18 3f bd cc 54 0f bd a1 c9 c1 b9
       -0.06830999 -0.046654034 -0.034992978 -0.00036962054
000050 62 77 54 3d ab e7 bd bc f4 fa 5a 3d a5 9c 01 3d
       0.051871665 -0.023181757 0.053461984 0.03164353
000060 d3 b8 a3 3c 08 c8 5e bd 0b 45 05 3d f3 1c 97 ba
       0.019985592 -0.054389983 0.032536548 -0.0011529013
000070 c7 0d dc 3c 26 89 90 3c 6a 4b 4f bd cb 54 00 3d
       0.026862038 0.017643522 -0.05060903 0.031330865
000080 f2 0b 04 bb ab 26 7f 3c 26 4c 00 3d 2d 31 74 3c
       -0.0020148722 0.015573184 0.03132262 0.014904303
000090 fb 7c c2 3c 60 0d 1c 3c b4 f6 2b bd 79 20 11 bc
       0.023741236 0.009524673 -0.04198332 -0.00885784
0000a0 6e 0a 09 3d b0 06 72 bc ac be 68 3d 8b e6 32 3d
       0.033457212 -0.014772102 0.056822464 0.043676894
0000b0 5a ea e9 bc 07 51 67 bd cc 01 4f bd 4b 18 f8 3b
       -0.02855413 -0.056473758 -0.050538823 0.0075712553
0000c0 d1 f7 35 3d 45 00 1e bd 7d fa f3 3b 98 bc d6 bb
       0.04442579 -0.038574476 0.007445632 -0.006553244
0000d0 17 af 3a bb 45 59 85 3c 9d 5c c9 ba d7 35 17 bd
       -0.002848571 0.016277919 -0.0015362684 -0.03691658
0000e0 08 fe 8f 3c e3 4c 07 bd c8 79 20 bd 59 e7 12 3d
       0.017577186 -0.03303231 -0.03917864 0.03586516
0000f0 0c f1 18 bc 57 7b d8 bc c2 80 36 bd e7 1b 0a 3c
       -0.009334814 -0.026426 -0.044556387 0.008429504
000100 a8 92 ae bb 49 f6 e8 3c b6 f7 d8 3a 01 21 d9 bb
       -0.0053275414 0.02843775 0.0016553316 -0.006626249
000110 7a 05 1c bd 3d ef ec bc 47 e3 40 3d 24 33 9f bc
       -0.03809116 -0.028922671 0.04709175 -0.019433565
000120 e9 a3 e0 bc 78 11 47 3c a4 cf c8 bc ae 50 10 bd
       -0.027421908 0.012150161 -0.024513073 -0.035233192
000130 cc 8d cb bc 3e a0 61 3d ca 60 f1 bb ef e9 0a bd
       -0.024847887 0.05508446 -0.0073662745 -0.033914503
000140 53 33 43 bd 36 d4 bd 3b 87 01 6f 3c 55 fa 44 3b
       -0.04765637 0.00579312 0.0145877665 0.0030056436
000150 b6 b7 30 ba eb 3b 38 bc df cc fa 3a 3f 01 1f bd
       -0.0006741242 -0.011244754 0.0019134543 -0.038819548
000160 bb f1 9d bc bf 5f 60 ba 81 41 ed bc 2b c8 02 bd
       -0.019280305 -0.0008559189 -0.028961899 -0.031929176
000170 8d c1 9b 3c 08 3d d4 3c 66 b5 92 3c 87 8a b1 bc
       0.01901319 0.025908008 0.017908763 -0.0216725
000180 12 83 3f 3d 8d 4a 1e 3d b2 d9 4b 3d cf 31 03 3b
       0.046755858 0.038645316 0.049768157 0.0020018702
000190 3f 6e d1 bc fa a7 54 3d 32 cc 19 3d b8 b4 fc 3c
       -0.025565265 0.051918007 0.03754825 0.030847892
0001a0 68 0d 2b bc 68 ce 8b b9 79 24 1a 3d 03 7e 35 3d
       -0.010440208 -0.0002666593 0.03763244 0.044309627
0001b0 f1 5b ae bc d0 81 60 bc 5d 56 6d bd 2c 17 24 3d
       -0.021284075 -0.013702825 -0.05794369 0.04006116
0001c0 da e2 b5 bd 42 6a 9d 3c 40 98 1c bb d3 e4 c0 bb
       -0.08881159 0.019215707 -0.002389446 -0.005886653
0001d0 e8 ae 0f bd d0 33 31 bd c2 b6 fe 3c 79 52 89 3d
       -0.035078913 -0.043262303 0.031093005 0.067051835
0001e0 fb 77 9c bc b2 1f 73 3c e8 0c 57 bd ea 35 2d bd
       -0.01910018 0.0148391 -0.052502543 -0.042287745
0001f0 2e f4 49 3d 13 05 34 3c bd cb 88 bd 8d c4 2a bd
       0.049305134 0.010987538 -0.06679485 -0.04169135
000200 2c f2 2b bc 68 5b 02 3c 51 d6 44 3d b4 79 0e bd
       -0.01049475 0.007956363 0.04805595 -0.034784034
000210 a6 62 2d bd d7 c9 3b 3d 83 de 29 bc bd 78 a8 bc
       -0.042330407 0.045846786 -0.010367992 -0.020565385
000220 5b 65 54 ba 8e bd e7 bc c0 04 cf 3c 7d d0 99 bb
       -0.00081022613 -0.028288629 0.02527082 -0.004694043
000230 8b 4a a2 bc 26 52 d0 3c c5 01 51 3d 76 ea 62 3d
       -0.019810935 0.025429796 0.05102708 0.05539938
000240 2c a8 c9 3c dd e8 5c bc 57 b6 0a 3d ca a6 82 3d
       0.024616323 -0.013483253 0.0338653 0.06379469
000250 e9 bc 32 bd 5b 3b 80 bc 7e c6 d6 bc cd 68 6f 3d
       -0.04363719 -0.015653303 -0.026217695 0.058449555
000260 48 d2 5a bc d1 6c 04 bd 33 f4 7e 3d d9 03 03 3c
       -0.013355799 -0.032330338 0.062244605 0.007996523
000270 01 6b 79 3d 01 c0 6a 3c 98 59 2c bd 93 bc 86 3a
       0.060893063 0.014328004 -0.04207763 0.0010279588
000280 cc 84 95 bc 0a 5d 21 bd 17 ae 04 bd ea 72 da bc
       -0.018251799 -0.03939537 -0.032392588 -0.026666123
000290 b7 80 7d bc fa fd 0b 3b b5 dc 82 bd 6d 18 2a 3b
       -0.015472583 0.0021361099 -0.06389753 0.00259545
0002a0 15 66 3f 3c 6c 2b 32 3d cf 54 50 3d 34 d4 1f 3c
       0.011682053 0.04349844 0.05086213 0.009755183
0002b0 4a 0e d1 bc d4 29 0b 3d 44 b5 2f bd 77 b9 e5 bc
       -0.025519509 0.033975437 -0.042897478 -0.028042538
0002c0 d5 94 37 3c a0 ef 9b 3c 7e 70 4c 3d a2 6d 6f ba
       0.011204918 0.01903516 0.04991197 -0.0009133463
0002d0 82 4f bd 3a 0e 28 38 3d 90 7b 3a 3c 29 31 90 3c
       0.0014443251 0.044960074 0.011381999 0.017601566
0002e0 80 7d 90 bc 9f 08 e8 bc 8d dd 26 3d 40 fc 0e bd
       -0.017637968 -0.028324423 0.04073863 -0.034908533
0002f0 36 15 af 3c 1d da 56 3d a6 6b d7 3c 43 dd 76 3d
       0.021372419 0.052454103 0.026296448 0.060269605
000300 ed 5e 04 bc 1f 4c 0a bd e8 6b 08 3c 0e 51 9a bb
       -0.008079273 -0.033764 0.008326508 -0.0047093695
000310 7a 6b e8 3c b2 70 10 bd 1d 10 b6 bc a9 c9 3f bd
       0.028371561 -0.035263725 -0.02222448 -0.046823177
000320 4d 1a 85 3c 56 2d 6d 3c 8b a8 16 3d 16 65 3c 3c
       0.016247893 0.014476141 0.03678183 0.01149871
000330 b7 dd 8d bc ca b1 0d bd 87 16 04 3d 32 c5 e4 b8
       -0.017317636 -0.03459338 0.032248046 -0.00010908618
000340 9f 0e 11 bc b7 c8 30 3d e7 26 7a 3c 07 f0 42 bd
       -0.008853584 0.043160167 0.015268064 -0.04759219
000350 b7 58 bd bc 99 9f 91 3c 1d c4 3b 3d 25 37 d8 3c
       -0.023113592 0.017776297 0.045841325 0.026393482
000360 43 58 1f 3d 55 a7 cc bb 92 58 10 3d 65 44 5f 3d
       0.038902532 -0.0062455335 0.035240717 0.054508585
000370 e5 9f 21 3c 7b e1 96 ba 82 75 00 bc fe 3f f8 3c
       0.009864782 -0.001151129 -0.007840516 0.030303951
000380 89 36 b7 bd cd 1d 21 bd 1a 5e 01 3d a0 da 14 3b
       -0.08945949 -0.03933506 0.031583883 0.0022713318
000390 f7 f4 b9 bc 90 8c 83 bb 3e 5a e4 3c 40 ab 1a 3c
       -0.022699816 -0.004014559 0.027875062 0.009440243
0003a0 58 72 84 bc 2b 37 c0 3b fc cd 70 39 14 fa b7 bc
       -0.016167805 0.0058659515 0.00022964919 -0.022458114
0003b0 26 8d 3c bd 4f 76 94 3c 52 3b 56 3c 5f c5 4c 3d
       -0.046033047 0.01812282 0.0130756665 0.049992915
0003c0 82 95 41 bd a0 45 e8 3c c3 21 da 3c e9 da fe 3c
       -0.047261722 0.028353512 0.026627427 0.031110244
0003d0 79 b4 58 3b a6 76 05 bc e3 b0 70 3b 7f 42 a4 3c
       0.0033066554 -0.008145964 0.0036726526 0.020051239
0003e0 b1 3a b4 3c 9a 8d 06 3d 7a 40 8f 3c c8 b7 75 3c
       0.022000642 0.032849886 0.0174868 0.01499743
0003f0 86 26 6a 3d 0d a4 ab bc 08 e0 3e bc 9e 64 02 bd
       0.057165645 -0.020952249 -0.011650093 -0.031834237

fc1.bias f4 [400]
000000 f6 77 0c 3e c4 8e 57 3d 13 54 89 3b 9f ca 02 be
       0.13717636 0.052626386 0.0041909306 -0.12772606
000010 03 27 1b 3a 11 e8 1d bd 1d a7 0e 3d bc 84 06 3e
       0.0005918594 -0.038551394 0.03482734 0.13136572
000020 cf e9 d7 3d 78 9e a9 bd e8 d2 b2 bd a1 8d ff 3d
       0.10542642 -0.08282179 -0.087316334 0.124781854
000030 fa 3b 99 3d ec 70 0f 3e 87 95 37 3d a9 8f 18 3d
       0.07482143 0.1400792 0.044820335 0.03724638
000040 50 58 e1 bd 08 8f ff 3d 00 4c 03 3e e8 74 9d 3d
       -0.110031724 0.12478453 0.1282196 0.07688314
000050 41 59 20 3e c2 74 da bd b1 7a 3b 3e cc ca f5 bc
       0.15659048 -0.10666801 0.18308522 -0.030003928
000060 44 1e f9 bc 6e 7d 09 3e d3 9c 05 3e 63 b6 c9 3d
       -0.03040994 0.13426754 0.13048105 0.09849241
000070 8d 09 b1 3d 77 35 b5 bb f2 f2 45 3d 84 5a 23 3e
       0.086444 -0.005530055 0.048327394 0.15952498
000080 d3 7c a3 bc f0 2d 2d 3e ce 8c 09 bb 71 09 2f bd
       -0.019956982 0.16912055 -0.0020988467 -0.042733613
000090 da f6 7e bd 4e fa 2d 3e 75 66 b5 bd af 08 50 3d
       -0.062247135 0.16990015 -0.08857433 0.05078953
0000a0 69 a6 81 bd d7 07 9d bd da e4 c0 3d 3c 20 a3 bd
       -0.06330568 -0.07667511 0.0941865 -0.079651326
0000b0 59 d3 58 bd ba 44 8a 3d e3 98 30 bd ab 44 3b bd
       -0.05293593 0.0675139 -0.043114554 -0.045719784
0000c0 e2 4e 1e 3d a7 97 01 be 62 87 ad bd ca a1 09 be
       0.038649447 -0.12655507 -0.08473088 -0.13440624
0000d0 99 ac 46 3b 08 5f e1 3c 4b 9b 80 3d 99 44 93 3a
       0.0030315279 0.027511135 0.0627962 0.0011235654
0000e0 b7 44 03 be be 28 bc 3d 18 1d dd bc af 4b 4d 3e
       -0.12819181 0.091874585 -0.026991412 0.20048402
0000f0 39 47 a6 3d 88 df f7 b9 dd 5f 42 3e 79 4e 64 bd
       0.081190534 -0.00047278055 0.18981881 -0.0557389
000100 02 91 34 bd 0c ba 00 3e 22 23 de 3d cc df 83 3c
       -0.044083603 0.12570971 0.10846545 0.016097926
000110 2a da 3b bb 9a f4 3e 3e 79 aa 65 3e c5 d0 41 3e
       -0.0028663971 0.18647996 0.22428311 0.18927296
000120 8a 30 18 be 8a f0 35 3e 5f be c8 3d 53 db 28 3e
       -0.14862266 0.1776754 0.098019354 0.16489916
000130 f0 2b a0 3d 7b 54 3b bc b6 94 e3 3d 7c 0d 41 3e
       0.078208804 -0.011433716 0.11112349 0.188528
000140 e0 44 0f 3e 94 0f 90 bb 3e 6d 41 be 55 f8 15 be
       0.13991117 -0.0043963883 -0.18889329 -0.14645512
000150 42 95 c7 3d dc e0 6b 3c b0 d2 32 3e d5 a2 91 bd
       0.097452655 0.014396872 0.17463183 -0.07111136
000160 ad 63 e9 bc 5c 3f 25 3e e7 66 af bd 47 ac 0b be
       -0.028489912 0.16137451 -0.08564549 -0.13639937
000170 e2 3c 1d be 85 9a 21 3d 46 f1 29 bc ce ca fb bc
       -0.15355256 0.039454002 -0.0103724655 -0.030736353
000180 6e 61 61 bc 33 4f b6 bc d5 e3 2c be b9 2c 46 3e
       -0.013756139 -0.022254562 -0.16883786 0.19352998
000190 06 c1 30 3e 6e 5a 1d 3d 39 2f 36 3e 6a 01 0d 3d
       0.17261133 0.03841632 0.17791452 0.034425177
0001a0 10 b7 a5 3d ef 88 c1 3d 97 10 3f 3c fe 02 66 bd
       0.08091557 0.09449946 0.01166167 -0.056155197
0001b0 a8 a0 28 bd 1e 89 12 be 1d 7c 01 3d 79 43 c2 3d
       -0.04116884 -0.14310119 0.031612504 0.09485526
0001c0 44 03 ef bd e2 70 09 bb ad fe 9e bd be 57 ad 3d
       -0.11670545 -0.0020971824 -0.07763419 0.08464001
0001d0 43 a4 27 3e 62 92 db 3d ce e7 81 bd aa 20 3d b9
       0.16371255 0.1072128 -0.06343041 -0.00018036613
0001e0 c8 8f 4a 3e db eb f8 3d 5b 12 22 3e d1 97 d4 bb
       0.1978141 0.12154361 0.15827315 -0.0064878245
0001f0 ad 40 2f 3e b3 e4 a0 3d 59 82 20 3d 8b 19 e7 3d
       0.17114516 0.07856121 0.03918681 0.11284169
000200 89 0f 02 bc 0d b9 dd bc 39 56 90 3d 24 a4 47 bd
       -0.007938274 -0.027065778 0.07047696 -0.04874052
000210 77 51 eb bd b3 dd 1a bd a6 12 ce 3c e2 57 d3 bd
       -0.114901476 -0.037809085 0.025155377 -0.10319497
000220 d6 56 13 be 95 77 39 bd 9f 8f fd bd 3e 81 73 3d
       -0.14388594 -0.045280058 -0.12380909 0.059449427
000230 78 50 8c bd 17 43 40 3e 0a 79 ae bd 03 5e 11 be
       -0.06851286 0.18775593 -0.0851918 -0.14196019
000240 90 03 e9 3c 35 85 0c be 43 a7 fc 3d 88 52 b2 3c
       0.028444082 -0.1372269 0.1233659 0.02176787
000250 a1 57 ef 3d 7e a2 1c be ea 65 23 3d 4d 37 05 bd
       0.11686636 -0.15296361 0.039892115 -0.032523442
000260 42 15 9f bd e3 70 b9 bb ca d3 2c 3d 38 f6 d4 3d
       -0.077677265 -0.005659209 0.042194165 0.10398525
000270 be bd e9 3c 63 74 b3 bd f4 0c b8 3d ec 66 12 3e
       0.028532859 -0.087624334 0.089868456 0.14297074
000280 cd 8c 22 3e 4e 27 6a 3d 42 04 ac 3d a2 3d ad 3b
       0.15874024 0.05716639 0.083992496 0.005286888
000290 68 8f 59 bd dd e0 0b be 2d 21 0d be 7d 71 45 bb
       -0.05311528 -0.13659997 -0.13782187 -0.0030127459
0002a0 ab ba e6 3d 9a c7 36 bd ab ae 1e be cf 64 87 3d
       0.11266073 -0.04462395 -0.15496318 0.066110246
0002b0 cd d8 5d ba d1 7b 3a 3e 6d 95 21 3d d8 17 23 be
       -0.0008462787 0.18211295 0.039449144 -0.15927064
0002c0 d7 c6 93 3c 35 6c ed bd 87 7b 14 bd 4d 0f 23 3e
       0.01803915 -0.115929045 -0.036250617 0.15923806
0002d0 bf 6c 8d bb 39 1c 16 bd 13 58 a2 bd 98 44 50 3e
       -0.004315942 -0.03664801 -0.07926955 0.20338666
0002e0 a7 a3 c2 3d 0a af 81 3d 7a e8 3e bd ac 8f 43 bc
       0.095038705 0.06332214 -0.046608426 -0.0119361095
0002f0 e6 b0 d8 3d 6c ee 18 3e e7 78 c6 bc 31 ad be bd
       0.10580616 0.149347 -0.024227573 -0.093103774
000300 b8 46 17 3e b0 b3 86 3c 2d 05 e8 3d b7 7e 51 bd
       0.14773071 0.016443104 0.11329112 -0.051146235
000310 f0 1e 98 3d 95 59 df bd 12 ca 79 bd b1 45 a0 3c
       0.07427776 -0.10905758 -0.060983725 0.019564481
000320 78 0f 4d bd 8b e0 09 be c5 ec cf bd 86 e4 b7 bd
       -0.05006358 -0.13464563 -0.10152582 -0.08979134
000330 60 dc 5e bb 77 7c 31 3e 24 1c 24 3d 99 8d 83 3d
       -0.0034005865 0.17332636 0.0400659 0.06423492
000340 a2 3d f2 bd d8 53 b9 bd a3 cc f1 bd 97 6e 29 3e
       -0.11828162 -0.09049195 -0.118066095 0.16546093
000350 1f f7 1d 3d 8b c3 65 bd 86 a6 8d bd 83 86 9d bd
       0.03856575 -0.056094687 -0.069165275 -0.07691672
000360 af af 08 3e ee 90 0b 3e e4 f5 c9 bd 7c 0e 3b 3e
       0.13348268 0.13629505 -0.09861353 0.18267244
000370 1e fa 71 bd ea 51 80 bd 7a 9c e3 bd 8e 09 3f 3e
       -0.05907642 -0.06265624 -0.1111383 0.18655989
000380 54 31 fb 3c 7a 42 97 bd 1a 11 22 3e 76 72 d4 bd
       0.03066317 -0.07385726 0.15826836 -0.10373394
000390 74 4d d1 bd 83 87 16 3e e7 86 ee bc 9c f8 8b 3d
       -0.10219851 0.14700131 -0.02911706 0.06834528
0003a0 0c 43 57 bd 13 ba bb 3d 80 55 ff 3c 6d d0 d6 bd
       -0.052554175 0.0916635 0.0311687 -0.10488973
0003b0 7a 83 39 bc 1b 24 1a be 41 ab 93 bd 5d 4e 12 be
       -0.01132285 -0.15052836 -0.072103985 -0.14287706
0003c0 93 d5 f9 3c 73 8e 81 bc 65 7b 87 bc f1 e4 a7 3d
       0.030497348 -0.015814995 -0.016538331 0.08197964
0003d0 01 3c 0a be be fb 98 3d 87 7e 38 3e 19 f8 17 3e
       -0.13499452 0.07469891 0.18017016 0.14840735
0003e0 48 1a f2 3d 01 d0 49 bd 2c e4 fa bd 5d 3e 1e 3e
       0.11821419 -0.049270634 -0.122505516 0.15453477
0003f0 67 7d 07 3e 76 1e 98 3c b6 58 99 3d 99 35 03 be
       0.13231431 0.018569212 0.074876234 -0.12813415

fc1_bn.weight f4 [400]
000000 08 0d dd 3e 00 5a 31 3c 0a 57 22 3f 93 d5 00 3f
       0.43174005 0.01082468 0.6341406 0.5032589
000010 d5 9c 77 3f 20 79 d6 3e a8 7f 67 3f 84 bb a6 3e
       0.9672368 0.41889286 0.9042916 0.32564938
000020 9e 23 cb 3e cc ef 0a 3e 68 08 4b 3f 44 13 02 3e
       0.3967561 0.13568038 0.793097 0.12702662
000030 60 56 fd 3d b4 a4 05 3f 21 f1 38 3f 0e 33 9d 3e
       0.1236999 0.5220444 0.72242934 0.30703014
000040 74 c2 b7 3e 40 cc 07 3d 16 d9 d1 3e ac 31 54 3e
       0.35890543 0.033153772 0.40985936 0.20722073
000050 76 11 2b 3f 82 f9 fb 3e 8d 88 12 3f 84 c3 02 3f
       0.6682352 0.49213797 0.5723961 0.51079583
000060 fc 23 b4 3e 18 ce ec 3d 1c 24 04 3e d8 94 e0 3e
       0.35183704 0.11562747 0.129044 0.4386356
000070 e4 e5 4a 3e 24 2a 0e 3e 3e 53 cd 3e da b5 db 3e
       0.19814259 0.13883263 0.4010257 0.4291218
000080 fc 71 1b 3e 63 af 66 3f 38 6b d8 3d 10 24 19 3d
       0.151802 0.9011137 0.10567325 0.037387908
000090 a8 7e 27 3e d7 25 1a 3f b4 6e 9b 3e 8a 7a 04 3f
       0.1635691 0.6021399 0.30357897 0.5174948
0000a0 20 40 85 3c 52 a0 dc 3e 04 fd 56 3f 94 7b 3f 3e
       0.016265929 0.43091065 0.8397982 0.18699485
0000b0 57 71 06 3f 20 1c 8d 3c e8 dc 0d 3f 17 d0 35 3f
       0.5251669 0.017225325 0.554152 0.71020645
0000c0 54 9b f3 3e 48 32 64 3f 88 7b 6f 3f 29 65 62 3f
       0.47579443 0.89139223 0.9354787 0.8843561
0000d0 83 2e 73 3f 2a c1 c2 3e 60 4d 79 3e ff 34 47 3f
       0.94992846 0.38037997 0.24345922 0.7781524
0000e0 f4 a3 67 3e 60 5f e1 3d bc e2 7a 3e ea c5 e0 3e
       0.22621137 0.110045195 0.24500555 0.43900996
0000f0 93 cd 7e 3f 5c 95 02 3e 5a 35 ef 3e b4 db 16 3e
       0.9953243 0.12752289 0.46720392 0.14732248
000100 46 fb dd 3e 2c e4 4b 3f c8 36 3f 3e 30 3a ff 3e
       0.4335577 0.7964504 0.18673241 0.4984908
000110 33 07 32 3f d8 fa 3c 3f 80 f1 d0 3d a2 97 95 3e
       0.69542235 0.7382026 0.102023125 0.2921725
000120 32 6c f0 3e 34 ab 1b 3f 23 84 4f 3f 45 d8 0f 3f
       0.46957546 0.6080811 0.81061 0.56189376
000130 dc e8 c5 3e b0 7f 5a 3d 70 34 db 3e 58 0e c6 3e
       0.3865422 0.05334443 0.42813444 0.38682818
000140 18 7d d1 3d 5a c1 4b 3f fd df 2c 3f 3b eb 1e 3f
       0.10228938 0.79591906 0.6752928 0.62077683
000150 90 3b 40 3d e4 df 20 3f f6 f1 1e 3f c7 69 7b 3f
       0.046931803 0.6284163 0.62087953 0.9820828
000160 e0 a2 ac 3e 07 3d 1a 3f e4 aa 00 3f d2 72 60 3f
       0.33718014 0.6024937 0.5026076 0.876752
000170 ee 83 13 3f d8 bf 57 3f d8 7e b3 3d 87 dc 22 3f
       0.57623184 0.84277105 0.08764428 0.6361775
000180 20 2e 68 3d 9b a6 5f 3f 5b ce 52 3f 61 90 11 3f
       0.056684613 0.87363595 0.82346123 0.5686093
000190 fe 79 e8 3e c5 fe 5a 3f c7 ad 1b 3f 6a a9 eb 3e
       0.45405573 0.85545 0.6081204 0.4602769
0001a0 d1 ef 51 3f 99 5e 2b 3f c0 f4 f5 3d c0 93 cb 3d
       0.82006556 0.6694122 0.12009573 0.099402905
0001b0 2e 50 a2 3e 96 e1 45 3f d0 c5 44 3e 85 e7 0b 3f
       0.31701797 0.7729734 0.19216084 0.54650146
0001c0 85 c0 6b 3f c1 ce 74 3f 54 19 35 3f be 78 0c 3f
       0.92090636 0.9562798 0.7074177 0.5487174
0001d0 83 ee 00 3f 78 20 6b 3f 90 f2 86 3e c0 dd 45 3e
       0.5036394 0.9184642 0.26356936 0.19322872
0001e0 b0 e7 03 3f 7f bc 54 3f 1e 54 a7 3e 9a 3d 8c 3e
       0.515254 0.8310012 0.32681364 0.27390748
0001f0 8b ba 43 3f ba 0d 18 3f 08 c1 fc 3d 0d 41 4a 3f
       0.76456517 0.59395945 0.12341505 0.7900551
000200 bb ff 58 3f d8 93 d1 3e de 7d a2 3e b8 d7 9e 3d
       0.84765214 0.40933108 0.31736654 0.07755989
000210 98 5e f0 3e ec 59 c3 3e 58 30 e6 3e af 93 49 3f
       0.4694717 0.38154542 0.44958758 0.7874097
000220 29 1d 05 3f 7c 94 25 3e d8 81 aa 3d 1c 26 7d 3f
       0.5199762 0.16169924 0.08325547 0.98886275
000230 a0 0c ac 3d 5f 5e 63 3f 89 91 64 3f 2c 90 ab 3e
       0.084008455 0.88815874 0.8928457 0.33508432
000240 3c 69 a3 3e e7 86 14 3f 60 f7 c4 3c 98 ea b9 3e
       0.31916225 0.58018345 0.024043739 0.36311793
000250 20 d9 f9 3d 95 a6 27 3f bc 12 7e 3e 40 0a 4c 3d
       0.121996164 0.6548856 0.24811834 0.049814463
000260 e8 fa 08 3e 80 a9 54 3c 6e 72 c6 3e ba e3 dd 3e
       0.13376963 0.012979865 0.38759178 0.43337804
000270 3e d3 26 3f 54 b7 d0 3e 00 54 b3 3a b6 f0 16 3f
       0.6516608 0.40764868 0.001368165 0.58961046
000280 49 1e 38 3f 42 b3 77 3f ec 2b d9 3e 1c 55 a6 3e
       0.7192121 0.967579 0.42416322 0.32486808
000290 98 85 37 3f c0 5b 8d 3c a6 53 5c 3f cf b1 4a 3f
       0.7168822 0.017255664 0.8606514 0.79177564
0002a0 b8 90 a0 3e 41 1d 20 3f 00 6c 57 3e a8 c4 80 3d
       0.31360412 0.6254464 0.21037292 0.06287509
0002b0 58 ba b1 3d 60 90 87 3e e1 7a 49 3f 68 b3 1a 3e
       0.086781204 0.26477337 0.78703123 0.151075
0002c0 76 e6 5a 3f e6 c2 c4 3e 80 be a0 3d b7 04 54 3f
       0.85507905 0.38429946 0.07848835 0.82819694
0002d0 72 f9 f5 3e e0 3b b8 3d b2 d4 94 3e 24 30 1f 3f
       0.48041874 0.08995795 0.29068524 0.6218283
0002e0 68 d3 b0 3e 90 5f 38 3d 30 25 fd 3e 52 2e ef 3e
       0.3453629 0.04501301 0.49442434 0.46715027
0002f0 30 c3 6a 3f 9c 40 23 3f e0 7b 8f 3e c8 53 a7 3e
       0.9170408 0.6377046 0.28024197 0.32681108
000300 ac e3 45 3e b0 1b 6f 3f 38 f3 84 3e dc 9d 16 3e
       0.19325131 0.9340162 0.2596681 0.14708656
000310 e4 a5 05 3e 10 31 49 3e 80 5a 41 3d 27 41 40 3f
       0.13051564 0.19647622 0.04720545 0.75099415
000320 7a ec 7c 3f a4 c7 26 3f 68 31 f7 3e 36 4f 92 3e
       0.98798335 0.6514838 0.4827988 0.28576058
000330 30 a0 5a 3e 92 35 65 3f 32 80 eb 3e c3 af 70 3f
       0.21350169 0.89534867 0.45996243 0.9401819
000340 bc 82 6d 3e 7a 5f ab 3e f6 31 a3 3e 56 ab f2 3e
       0.23194402 0.3347128 0.31874055 0.47396344
000350 80 1a 57 3f ea a8 93 3e 24 51 7b 3f ed 4e 2b 3f
       0.8402481 0.2883981 0.98170686 0.66917306
000360 48 2b 09 3f ca a8 a8 3e 8a 47 be 3e 96 71 6c 3f
       0.53581667 0.32941276 0.37163955 0.9236082
000370 79 96 08 3f a0 c9 ab 3d 46 55 eb 3e 2c 48 08 3f
       0.53354603 0.08388066 0.45963496 0.53235126
000380 2c d6 e4 3e 60 7b 19 3d 35 e1 1e 3f 3c 3f fa 3e
       0.4469465 0.037471175 0.6206239 0.4887637
000390 16 04 16 3f bc 3a dc 3e 10 8f 0a 3f 85 c1 0b 3f
       0.58599985 0.4301356 0.54124546 0.5459216
0003a0 a2 43 76 3f 92 29 1d 3f 68 9e fa 3e c7 3d 2c 3f
       0.9619695 0.61391556 0.4894898 0.67281765
0003b0 4a 1b eb 3e ac af 53 3f a4 9d dc 3e 80 f2 82 3c
       0.45919257 0.8268993 0.4308902 0.015984774
0003c0 fd dd 73 3f b8 fa 8c 3d e2 e2 90 3e a2 fb ba 3e
       0.952606 0.06883758 0.28298098 0.36520106
0003d0 88 db 84 3d 88 fe 60 3e a4 54 35 3e 33 b4 2c 3f
       0.06487185 0.21972096 0.17708069 0.6746246
0003e0 a6 91 25 3f 7c 0e ba 3e f0 62 4d 3d 80 02 9c 3c
       0.64675367 0.36339176 0.050143182 0.01904416
0003f0 71 3e 5b 3f 12 c3 8b 3e 2a 08 4c 3f e3 eb 39 3f
       0.85642153 0.27297264 0.7969996 0.7262556

fc1_bn.bias f4 [400]
000000 00 00 00 00 00 00 00 00 00 00 00 00 00 00 00 00
       0.0 0.0 0.0 0.0
000010 00 00 00 00 00 00 00 00 00 00 00 00 00 00 00 00
       0.0 0.0 0.0 0.0
000020 00 00 00 00 00 00 00 00 00 00 00 00 00 00 00 00
       0.0 0.0 0.0 0.0
000030 00 00 00 00 00 00 00 00 00 00 00 00 00 00 00 00
       0.0 0.0 0.0 0.0
000040 00 00 00 00 00 00 00 00 00 00 00 00 00 00 00 00
       0.0 0.0 0.0 0.0
000050 00 00 00 00 00 00 00 00 00 00 00 00 00 00 00 00
       0.0 0.0 0.0 0.0
000060 00 00 00 00 00 00 00 00 00 00 00 00 00 00 00 00
       0.0 0.0 0.0 0.0
000070 00 00 00 00 00 00 00 00 00 00 00 00 00 00 00 00
       0.0 0.0 0.0 0.0
000080 00 00 00 00 00 00 00 00 00 00 00 00 00 00 00 00
       0.0 0.0 0.0 0.0
000090 00 00 00 00 00 00 00 00 00 00 00 00 00 00 00 00
       0.0 0.0 0.0 0.0
0000a0 00 00 00 00 00 00 00 00 00 00 00 00 00 00 00 00
       0.0 0.0 0.0 0.0
0000b0 00 00 00 00 00 00 00 00 00 00 00 00 00 00 00 00
       0.0 0.0 0.0 0.0
0000c0 00 00 00 00 00 00 00 00 00 00 00 00 00 00 00 00
       0.0 0.0 0.0 0.0
0000d0 00 00 00 00 00 00 00 00 00 00 00 00 00 00 00 00
       0.0 0.0 0.0 0.0
0000e0 00 00 00 00 00 00 00 00 00 00 00 00 00 00 00 00
       0.0 0.0 0.0 0.0
0000f0 00 00 00 00 00 00 00 00 00 00 00 00 00 00 00 00
       0.0 0.0 0.0 0.0
000100 00 00 00 00 00 00 00 00 00 00 00 00 00 00 00 00
       0.0 0.0 0.0 0.0
000110 00 00 00 00 00 00 00 00 00 00 00 00 00 00 00 00
       0.0 0.0 0.0 0.0
000120 00 00 00 00 00 00 00 00 00 00 00 00 00 00 00 00
       0.0 0.0 0.0 0.0
000130 00 00 00 00 00 00 00 00 00 00 00 00 00 00 00 00
       0.0 0.0 0.0 0.0
000140 00 00 00 00 00 00 00 00 00 00 00 00 00 00 00 00
       0.0 0.0 0.0 0.0
000150 00 00 00 00 00 00 00 00 00 00 00 00 00 00 00 00
       0.0 0.0 0.0 0.0
000160 00 00 00 00 00 00 00 00 00 00 00 00 00 00 00 00
       0.0 0.0 0.0 0.0
000170 00 00 00 00 00 00 00 00 00 00 00 00 00 00 00 00
       0.0 0.0 0.0 0.0
000180 00 00 00 00 00 00 00 00 00 00 00 00 00 00 00 00
       0.0 0.0 0.0 0.0
000190 00 00 00 00 00 00 00 00 00 00 00 00 00 00 00 00
       0.0 0.0 0.0 0.0
0001a0 00 00 00 00 00 00 00 00 00 00 00 00 00 00 00 00
       0.0 0.0 0.0 0.0
0001b0 00 00 00 00 00 00 00 00 00 00 00 00 00 00 00 00
       0.0 0.0 0.0 0.0
0001c0 00 00 00 00 00 00 00 00 00 00 00 00 00 00 00 00
       0.0 0.0 0.0 0.0
0001d0 00 00 00 00 00 00 00 00 00 00 00 00 00 00 00 00
       0.0 0.0 0.0 0.0
0001e0 00 00 00 00 00 00 00 00 00 00 00 00 00 00 00 00
       0.0 0.0 0.0 0.0
0001f0 00 00 00 00 00 00 00 00 00 00 00 00 00 00 00 00
       0.0 0.0 0.0 0.0
000200 00 00 00 00 00 00 00 00 00 00 00 00 00 00 00 00
       0.0 0.0 0.0 0.0
000210 00 00 00 00 00 00 00 00 00 00 00 00 00 00 00 00
       0.0 0.0 0.0 0.0
000220 00 00 00 00 00 00 00 00 00 00 00 00 00 00 00 00
       0.0 0.0 0.0 0.0
000230 00 00 00 00 00 00 00 00 00 00 00 00 00 00 00 00
       0.0 0.0 0.0 0.0
000240 00 00 00 00 00 00 00 00 00 00 00 00 00 00 00 00
       0.0 0.0 0.0 0.0
000250 00 00 00 00 00 00 00 00 00 00 00 00 00 00 00 00
       0.0 0.0 0.0 0.0
000260 00 00 00 00 00 00 00 00 00 00 00 00 00 00 00 00
       0.0 0.0 0.0 0.0
000270 00 00 00 00 00 00 00 00 00 00 00 00 00 00 00 00
       0.0 0.0 0.0 0.0
000280 00 00 00 00 00 00 00 00 00 00 00 00 00 00 00 00
       0.0 0.0 0.0 0.0
000290 00 00 00 00 00 00 00 00 00 00 00 00 00 00 00 00
       0.0 0.0 0.0 0.0
0002a0 00 00 00 00 00 00 00 00 00 00 00 00 00 00 00 00
       0.0 0.0 0.0 0.0
0002b0 00 00 00 00 00 00 00 00 00 00 00 00 00 00 00 00
       0.0 0.0 0.0 0.0
0002c0 00 00 00 00 00 00 00 00 00 00 00 00 00 00 00 00
       0.0 0.0 0.0 0.0
0002d0 00 00 00 00 00 00 00 00 00 00 00 00 00 00 00 00
       0.0 0.0 0.0 0.0
0002e0 00 00 00 00 00 00 00 00 00 00 00 00 00 00 00 00
       0.0 0.0 0.0 0.0
0002f0 00 00 00 00 00 00 00 00 00 00 00 00 00 00 00 00
       0.0 0.0 0.0 0.0
000300 00 00 00 00 00 00 00 00 00 00 00 00 00 00 00 00
       0.0 0.0 0.0 0.0
000310 00 00 00 00 00 00 00 00 00 00 00 00 00 00 00 00
       0.0 0.0 0.0 0.0
000320 00 00 00 00 00 00 00 00 00 00 00 00 00 00 00 00
       0.0 0.0 0.0 0.0
000330 00 00 00 00 00 00 00 00 00 00 00 00 00 00 00 00
       0.0 0.0 0.0 0.0
000340 00 00 00 00 00 00 00 00 00 00 00 00 00 00 00 00
       0.0 0.0 0.0 0.0
000350 00 00 00 00 00 00 00 00 00 00 00 00 00 00 00 00
       0.0 0.0 0.0 0.0
000360 00 00 00 00 00 00 00 00 00 00 00 00 00 00 00 00
       0.0 0.0 0.0 0.0
000370 00 00 00 00 00 00 00 00 00 00 00 00 00 00 00 00
       0.0 0.0 0.0 0.0
000380 00 00 00 00 00 00 00 00 00 00 00 00 00 00 00 00
       0.0 0.0 0.0 0.0
000390 00 00 00 00 00 00 00 00 00 00 00 00 00 00 00 00
       0.0 0.0 0.0 0.0
0003a0 00 00 00 00 00 00 00 00 00 00 00 00 00 00 00 00
       0.0 0.0 0.0 0.0
0003b0 00 00 00 00 00 00 00 00 00 00 00 00 00 00 00 00
       0.0 0.0 0.0 0.0
0003c0 00 00 00 00 00 00 00 00 00 00 00 00 00 00 00 00
       0.0 0.0 0.0 0.0
0003d0 00 00 00 00 00 00 00 00 00 00 00 00 00 00 00 00
       0.0 0.0 0.0 0.0
0003e0 00 00 00 00 00 00 00 00 00 00 00 00 00 00 00 00
       0.0 0.0 0.0 0.0
0003f0 00 00 00 00 00 00 00 00 00 00 00 00 00 00 00 00
       0.0 0.0 0.0 0.0

fc1_bn.running_mean f4 [400]
000000 00 00 00 00 00 00 00 00 00 00 00 00 00 00 00 00
       0.0 0.0 0.0 0.0
000010 00 00 00 00 00 00 00 00 00 00 00 00 00 00 00 00
       0.0 0.0 0.0 0.0
000020 00 00 00 00 00 00 00 00 00 00 00 00 00 00 00 00
       0.0 0.0 0.0 0.0
000030 00 00 00 00 00 00 00 00 00 00 00 00 00 00 00 00
       0.0 0.0 0.0 0.0
000040 00 00 00 00 00 00 00 00 00 00 00 00 00 00 00 00
       0.0 0.0 0.0 0.0
000050 00 00 00 00 00 00 00 00 00 00 00 00 00 00 00 00
       0.0 0.0 0.0 0.0
000060 00 00 00 00 00 00 00 00 00 00 00 00 00 00 00 00
       0.0 0.0 0.0 0.0
000070 00 00 00 00 00 00 00 00 00 00 00 00 00 00 00 00
       0.0 0.0 0.0 0.0
000080 00 00 00 00 00 00 00 00 00 00 00 00 00 00 00 00
       0.0 0.0 0.0 0.0
000090 00 00 00 00 00 00 00 00 00 00 00 00 00 00 00 00
       0.0 0.0 0.0 0.0
0000a0 00 00 00 00 00 00 00 00 00 00 00 00 00 00 00 00
       0.0 0.0 0.0 0.0
0000b0 00 00 00 00 00 00 00 00 00 00 00 00 00 00 00 00
       0.0 0.0 0.0 0.0
0000c0 00 00 00 00 00 00 00 00 00 00 00 00 00 00 00 00
       0.0 0.0 0.0 0.0
0000d0 00 00 00 00 00 00 00 00 00 00 00 00 00 00 00 00
       0.0 0.0 0.0 0.0
0000e0 00 00 00 00 00 00 00 00 00 00 00 00 00 00 00 00
       0.0 0.0 0.0 0.0
0000f0 00 00 00 00 00 00 00 00 00 00 00 00 00 00 00 00
       0.0 0.0 0.0 0.0
000100 00 00 00 00 00 00 00 00 00 00 00 00 00 00 00 00
       0.0 0.0 0.0 0.0
000110 00 00 00 00 00 00 00 00 00 00 00 00 00 00 00 00
       0.0 0.0 0.0 0.0
000120 00 00 00 00 00 00 00 00 00 00 00 00 00 00 00 00
       0.0 0.0 0.0 0.0
000130 00 00 00 00 00 00 00 00 00 00 00 00 00 00 00 00
       0.0 0.0 0.0 0.0
000140 00 00 00 00 00 00 00 00 00 00 00 00 00 00 00 00
       0.0 0.0 0.0 0.0
000150 00 00 00 00 00 00 00 00 00 00 00 00 00 00 00 00
       0.0 0.0 0.0 0.0
000160 00 00 00 00 00 00 00 00 00 00 00 00 00 00 00 00
       0.0 0.0 0.0 0.0
000170 00 00 00 00 00 00 00 00 00 00 00 00 00 00 00 00
       0.0 0.0 0.0 0.0
000180 00 00 00 00 00 00 00 00 00 00 00 00 00 00 00 00
       0.0 0.0 0.0 0.0
000190 00 00 00 00 00 00 00 00 00 00 00 00 00 00 00 00
       0.0 0.0 0.0 0.0
0001a0 00 00 00 00 00 00 00 00 00 00 00 00 00 00 00 00
       0.0 0.0 0.0 0.0
0001b0 00 00 00 00 00 00 00 00 00 00 00 00 00 00 00 00
       0.0 0.0 0.0 0.0
0001c0 00 00 00 00 00 00 00 00 00 00 00 00 00 00 00 00
       0.0 0.0 0.0 0.0
0001d0 00 00 00 00 00 00 00 00 00 00 00 00 00 00 00 00
       0.0 0.0 0.0 0.0
0001e0 00 00 00 00 00 00 00 00 00 00 00 00 00 00 00 00
       0.0 0.0 0.0 0.0
0001f0 00 00 00 00 00 00 00 00 00 00 00 00 00 00 00 00
       0.0 0.0 0.0 0.0
000200 00 00 00 00 00 00 00 00 00 00 00 00 00 00 00 00
       0.0 0.0 0.0 0.0
000210 00 00 00 00 00 00 00 00 00 00 00 00 00 00 00 00
       0.0 0.0 0.0 0.0
000220 00 00 00 00 00 00 00 00 00 00 00 00 00 00 00 00
       0.0 0.0 0.0 0.0
000230 00 00 00 00 00 00 00 00 00 00 00 00 00 00 00 00
       0.0 0.0 0.0 0.0
000240 00 00 00 00 00 00 00 00 00 00 00 00 00 00 00 00
       0.0 0.0 0.0 0.0
000250 00 00 00 00 00 00 00 00 00 00 00 00 00 00 00 00
       0.0 0.0 0.0 0.0
000260 00 00 00 00 00 00 00 00 00 00 00 00 00 00 00 00
       0.0 0.0 0.0 0.0
000270 00 00 00 00 00 00 00 00 00 00 00 00 00 00 00 00
       0.0 0.0 0.0 0.0
000280 00 00 00 00 00 00 00 00 00 00 00 00 00 00 00 00
       0.0 0.0 0.0 0.0
000290 00 00 00 00 00 00 00 00 00 00 00 00 00 00 00 00
       0.0 0.0 0.0 0.0
0002a0 00 00 00 00 00 00 00 00 00 00 00 00 00 00 00 00
       0.0 0.0 0.0 0.0
0002b0 00 00 00 00 00 00 00 00 00 00 00 00 00 00 00 00
       0.0 0.0 0.0 0.0
0002c0 00 00 00 00 00 00 00 00 00 00 00 00 00 00 00 00
       0.0 0.0 0.0 0.0
0002d0 00 00 00 00 00 00 00 00 00 00 00 00 00 00 00 00
       0.0 0.0 0.0 0.0
0002e0 00 00 00 00 00 00 00 00 00 00 00 00 00 00 00 00
       0.0 0.0 0.0 0.0
0002f0 00 00 00 00 00 00 00 00 00 00 00 00 00 00 00 00
       0.0 0.0 0.0 0.0
000300 00 00 00 00 00 00 00 00 00 00 00 00 00 00 00 00
       0.0 0.0 0.0 0.0
000310 00 00 00 00 00 00 00 00 00 00 00 00 00 00 00 00
       0.0 0.0 0.0 0.0
000320 00 00 00 00 00 00 00 00 00 00 00 00 00 00 00 00
       0.0 0.0 0.0 0.0
000330 00 00 00 00 00 00 00 00 00 00 00 00 00 00 00 00
       0.0 0.0 0.0 0.0
000340 00 00 00 00 00 00 00 00 00 00 00 00 00 00 00 00
       0.0 0.0 0.0 0.0
000350 00 00 00 00 00 00 00 00 00 00 00 00 00 00 00 00
       0.0 0.0 0.0 0.0
000360 00 00 00 00 00 00 00 00 00 00 00 00 00 00 00 00
       0.0 0.0 0.0 0.0
000370 00 00 00 00 00 00 00 00 00 00 00 00 00 00 00 00
       0.0 0.0 0.0 0.0
000380 00 00 00 00 00 00 00 00 00 00 00 00 00 00 00 00
       0.0 0.0 0.0 0.0
000390 00 00 00 00 00 00 00 00 00 00 00 00 00 00 00 00
       0.0 0.0 0.0 0.0
0003a0 00 00 00 00 00 00 00 00 00 00 00 00 00 00 00 00
       0.0 0.0 0.0 0.0
0003b0 00 00 00 00 00 00 00 00 00 00 00 00 00 00 00 00
       0.0 0.0 0.0 0.0
0003c0 00 00 00 00 00 00 00 00 00 00 00 00 00 00 00 00
       0.0 0.0 0.0 0.0
0003d0 00 00 00 00 00 00 00 00 00 00 00 00 00 00 00 00
       0.0 0.0 0.0 0.0
0003e0 00 00 00 00 00 00 00 00 00 00 00 00 00 00 00 00
       0.0 0.0 0.0 0.0
0003f0 00 00 00 00 00 00 00 00 00 00 00 00 00 00 00 00
       0.0 0.0 0.0 0.0

fc1_bn.running_var f4 [400]
000000 00 00 80 3f 00 00 80 3f 00 00 80 3f 00 00 80 3f
       1.0 1.0 1.0 1.0
000010 00 00 80 3f 00 00 80 3f 00 00 80 3f 00 00 80 3f
       1.0 1.0 1.0 1.0
000020 00 00 80 3f 00 00 80 3f 00 00 80 3f 00 00 80 3f
       1.0 1.0 1.0 1.0
000030 00 00 80 3f 00 00 80 3f 00 00 80 3f 00 00 80 3f
       1.0 1.0 1.0 1.0
000040 00 00 80 3f 00 00 80 3f 00 00 80 3f 00 00 80 3f
       1.0 1.0 1.0 1.0
000050 00 00 80 3f 00 00 80 3f 00 00 80 3f 00 00 80 3f
       1.0 1.0 1.0 1.0
000060 00 00 80 3f 00 00 80 3f 00 00 80 3f 00 00 80 3f
       1.0 1.0 1.0 1.0
000070 00 00 80 3f 00 00 80 3f 00 00 80 3f 00 00 80 3f
       1.0 1.0 1.0 1.0
000080 00 00 80 3f 00 00 80 3f 00 00 80 3f 00 00 80 3f
       1.0 1.0 1.0 1.0
000090 00 00 80 3f 00 00 80 3f 00 00 80 3f 00 00 80 3f
       1.0 1.0 1.0 1.0
0000a0 00 00 80 3f 00 00 80 3f 00 00 80 3f 00 00 80 3f
       1.0 1.0 1.0 1.0
0000b0 00 00 80 3f 00 00 80 3f 00 00 80 3f 00 00 80 3f
       1.0 1.0 1.0 1.0
0000c0 00 00 80 3f 00 00 80 3f 00 00 80 3f 00 00 80 3f
       1.0 1.0 1.0 1.0
0000d0 00 00 80 3f 00 00 80 3f 00 00 80 3f 00 00 80 3f
       1.0 1.0 1.0 1.0
0000e0 00 00 80 3f 00 00 80 3f 00 00 80 3f 00 00 80 3f
       1.0 1.0 1.0 1.0
0000f0 00 00 80 3f 00 00 80 3f 00 00 80 3f 00 00 80 3f
       1.0 1.0 1.0 1.0
000100 00 00 80 3f 00 00 80 3f 00 00 80 3f 00 00 80 3f
       1.0 1.0 1.0 1.0
000110 00 00 80 3f 00 00 80 3f 00 00 80 3f 00 00 80 3f
       1.0 1.0 1.0 1.0
000120 00 00 80 3f 00 00 80 3f 00 00 80 3f 00 00 80 3f
       1.0 1.0 1.0 1.0
000130 00 00 80 3f 00 00 80 3f 00 00 80 3f 00 00 80 3f
       1.0 1.0 1.0 1.0
000140 00 00 80 3f 00 00 80 3f 00 00 80 3f 00 00 80 3f
       1.0 1.0 1.0 1.0
000150 00 00 80 3f 00 00 80 3f 00 00 80 3f 00 00 80 3f
       1.0 1.0 1.0 1.0
000160 00 00 80 3f 00 00 80 3f 00 00 80 3f 00 00 80 3f
       1.0 1.0 1.0 1.0
000170 00 00 80 3f 00 00 80 3f 00 00 80 3f 00 00 80 3f
       1.0 1.0 1.0 1.0
000180 00 00 80 3f 00 00 80 3f 00 00 80 3f 00 00 80 3f
       1.0 1.0 1.0 1.0
000190 00 00 80 3f 00 00 80 3f 00 00 80 3f 00 00 80 3f
       1.0 1.0 1.0 1.0
0001a0 00 00 80 3f 00 00 80 3f 00 00 80 3f 00 00 80 3f
       1.0 1.0 1.0 1.0
0001b0 00 00 80 3f 00 00 80 3f 00 00 80 3f 00 00 80 3f
       1.0 1.0 1.0 1.0
0001c0 00 00 80 3f 00 00 80 3f 00 00 80 3f 00 00 80 3f
       1.0 1.0 1.0 1.0
0001d0 00 00 80 3f 00 00 80 3f 00 00 80 3f 00 00 80 3f
       1.0 1.0 1.0 1.0
0001e0 00 00 80 3f 00 00 80 3f 00 00 80 3f 00 00 80 3f
       1.0 1.0 1.0 1.0
0001f0 00 00 80 3f 00 00 80 3f 00 00 80 3f 00 00 80 3f
       1.0 1.0 1.0 1.0
000200 00 00 80 3f 00 00 80 3f 00 00 80 3f 00 00 80 3f
       1.0 1.0 1.0 1.0
000210 00 00 80 3f 00 00 80 3f 00 00 80 3f 00 00 80 3f
       1.0 1.0 1.0 1.0
000220 00 00 80 3f 00 00 80 3f 00 00 80 3f 00 00 80 3f
       1.0 1.0 1.0 1.0
000230 00 00 80 3f 00 00 80 3f 00 00 80 3f 00 00 80 3f
       1.0 1.0 1.0 1.0
000240 00 00 80 3f 00 00 80 3f 00 00 80 3f 00 00 80 3f
       1.0 1.0 1.0 1.0
000250 00 00 80 3f 00 00 80 3f 00 00 80 3f 00 00 80 3f
       1.0 1.0 1.0 1.0
000260 00 00 80 3f 00 00 80 3f 00 00 80 3f 00 00 80 3f
       1.0 1.0 1.0 1.0
000270 00 00 80 3f 00 00 80 3f 00 00 80 3f 00 00 80 3f
       1.0 1.0 1.0 1.0
000280 00 00 80 3f 00 00 80 3f 00 00 80 3f 00 00 80 3f
       1.0 1.0 1.0 1.0
000290 00 00 80 3f 00 00 80 3f 00 00 80 3f 00 00 80 3f
       1.0 1.0 1.0 1.0
0002a0 00 00 80 3f 00 00 80 3f 00 00 80 3f 00 00 80 3f
       1.0 1.0 1.0 1.0
0002b0 00 00 80 3f 00 00 80 3f 00 00 80 3f 00 00 80 3f
       1.0 1.0 1.0 1.0
0002c0 00 00 80 3f 00 00 80 3f 00 00 80 3f 00 00 80 3f
       1.0 1.0 1.0 1.0
0002d0 00 00 80 3f 00 00 80 3f 00 00 80 3f 00 00 80 3f
       1.0 1.0 1.0 1.0
0002e0 00 00 80 3f 00 00 80 3f 00 00 80 3f 00 00 80 3f
       1.0 1.0 1.0 1.0
0002f0 00 00 80 3f 00 00 80 3f 00 00 80 3f 00 00 80 3f
       1.0 1.0 1.0 1.0
000300 00 00 80 3f 00 00 80 3f 00 00 80 3f 00 00 80 3f
       1.0 1.0 1.0 1.0
000310 00 00 80 3f 00 00 80 3f 00 00 80 3f 00 00 80 3f
       1.0 1.0 1.0 1.0
000320 00 00 80 3f 00 00 80 3f 00 00 80 3f 00 00 80 3f
       1.0 1.0 1.0 1.0
000330 00 00 80 3f 00 00 80 3f 00 00 80 3f 00 00 80 3f
       1.0 1.0 1.0 1.0
000340 00 00 80 3f 00 00 80 3f 00 00 80 3f 00 00 80 3f
       1.0 1.0 1.0 1.0
000350 00 00 80 3f 00 00 80 3f 00 00 80 3f 00 00 80 3f
       1.0 1.0 1.0 1.0
000360 00 00 80 3f 00 00 80 3f 00 00 80 3f 00 00 80 3f
       1.0 1.0 1.0 1.0
000370 00 00 80 3f 00 00 80 3f 00 00 80 3f 00 00 80 3f
       1.0 1.0 1.0 1.0
000380 00 00 80 3f 00 00 80 3f 00 00 80 3f 00 00 80 3f
       1.0 1.0 1.0 1.0
000390 00 00 80 3f 00 00 80 3f 00 00 80 3f 00 00 80 3f
       1.0 1.0 1.0 1.0
0003a0 00 00 80 3f 00 00 80 3f 00 00 80 3f 00 00 80 3f
       1.0 1.0 1.0 1.0
0003b0 00 00 80 3f 00 00 80 3f 00 00 80 3f 00 00 80 3f
       1.0 1.0 1.0 1.0
0003c0 00 00 80 3f 00 00 80 3f 00 00 80 3f 00 00 80 3f
       1.0 1.0 1.0 1.0
0003d0 00 00 80 3f 00 00 80 3f 00 00 80 3f 00 00 80 3f
       1.0 1.0 1.0 1.0
0003e0 00 00 80 3f 00 00 80 3f 00 00 80 3f 00 00 80 3f
       1.0 1.0 1.0 1.0
0003f0 00 00 80 3f 00 00 80 3f 00 00 80 3f 00 00 80 3f
       1.0 1.0 1.0 1.0

fc2.weight f4 [300, 400]
000000 ce 53 38 bd 88 10 5d 3c 1e 52 4f 3c 12 6d 88 3c
       -0.045001797 0.013492711 0.012653856 0.016653571
000010 d9 7f 67 bd c0 2d 1b 3a fa 9a a3 3c 4f 95 30 bd
       -0.05651841 0.0005919598 0.01997136 -0.04311114
000020 02 89 e6 3c 0c 4c 90 3d 1a 8f fc 3c 27 cf 85 bc
       0.028141502 0.07045755 0.030829955 -0.01633413
000030 d4 9e e1 3c 57 c0 84 3d 74 c7 9f bc db 0b 19 bd
       0.027541555 0.064819984 -0.019504286 -0.037364822
000040 ec 46 b1 3c 94 24 de 3c 4e c0 a9 3c 3d 11 1b 3d
       0.021640263 0.027117051 0.02072158 0.037858237
000050 ed 37 67 3c 62 39 51 bd d5 65 06 bd e2 89 f5 bc
       0.014112455 -0.051080115 -0.03281196 -0.029972974
000060 3f 46 74 3c 6f 6b b6 3c 18 12 38 3c b0 72 9d 3a
       0.014909326 0.022268025 0.011234783 0.0012012329
000070 00 95 06 3d bb 26 00 3d 71 fc 1e 3d da ce 6c bd
       0.03285694 0.031286936 0.038814966 -0.057814457
000080 b6 2b 12 3d 51 a5 bc bc 19 7c e4 bc 1c a4 6f 3d
       0.035686217 -0.023028048 -0.027891206 0.058506116
000090 7d 0b c8 3a 20 47 70 3d 63 30 95 bb 9b 58 53 3d
       0.0015262213 0.05866158 -0.0045528873 0.051598173
0000a0 cf d3 55 bc aa 7b 02 3c 68 4e d3 3c 85 97 7d 3d
       -0.013050987 0.007964054 0.025794223 0.06191208
0000b0 30 53 72 3d a8 7f 22 3d 61 6b 7f ba 1c fb e2 3c
       0.059161365 0.039672524 -0.0009743479 0.027707629
0000c0 ea bd bd bc d2 d8 86 3d 73 8f f1 3c cd b5 d5 3c
       -0.023161847 0.06584324 0.029487347 0.026087666
0000d0 17 e6 71 bd c5 ef 83 bd 0a 88 25 3c 9c 17 99 ba
       -0.05905732 -0.06442217 0.010103235 -0.001168001
0000e0 31 1f 11 bd 7d 99 7a 3c e1 ab 88 3c 23 be 23 3a
       -0.035430137 0.0152953835 0.01668352 0.0006246289
0000f0 1e 67 15 bd e9 74 08 bd 82 8d 2d 3d b7 b3 35 3d
       -0.036475293 -0.03331462 0.04237128 0.044360843
000100 b1 15 66 3d 98 38 75 bc 6b 33 24 3c 20 dd 33 3d
       0.05617303 -0.014967106 0.010022025 0.043912053
000110 d2 ef 86 bc 16 25 14 3d a2 1f 96 bc 20 8e 1f bd
       -0.016471777 0.03616818 -0.01832563 -0.0389539
000120 16 37 83 bc 5c ca ea bc aa b9 fc bc 2d 8d 00 bd
       -0.016017478 -0.028660946 -0.03085025 -0.031384636
000130 08 bd 8c 3d 05 72 6b 3c 17 60 d1 bc f4 c6 3d 3d
       0.06871992 0.014370446 -0.025558515 0.046332315
000140 3c 56 19 bd cb a0 65 3d f1 1a 8c 3c 8d 30 cf 3b
       -0.037435755 0.056061547 0.01710269 0.0063229264
000150 38 62 97 3c 20 af 16 3d 27 19 39 bd 3a 24 3e bd
       0.018479452 0.036788106 -0.045190003 -0.046421267
000160 d7 bb a9 bd 5f 27 82 bd b4 6e 8c bc 11 fb a9 3c
       -0.08287781 -0.06355166 -0.017142631 0.0207496
000170 2e 8a 38 3d 78 b5 c1 3c 98 f7 37 3c fc 75 29 3b
       0.045053653 0.023646101 0.011228465 0.0025857678
000180 66 a3 20 3d 37 21 c5 bc ab 4c 2c bd ad 03 6c bd
       0.03921833 -0.02406369 -0.042065304 -0.057620693
000190 0c b4 84 bd 10 86 85 3d 35 93 06 3d 1b 4b b6 bc
       -0.06479654 0.06519711 0.03285523 -0.02225261
0001a0 cd 08 87 bd 58 ec 02 bc c1 0d ef bc 8d 3d 75 3d
       -0.065934755 -0.007990919 -0.029181363 0.059873153
0001b0 c2 a0 b1 bc 27 34 1f bd 98 c9 45 3d 2b f9 90 3c
       -0.0216831 -0.038868096 0.048287958 0.017696938
0001c0 cd 1f 99 3d c4 d2 4f bc fe c2 d3 bc e2 95 05 3d
       0.07476769 -0.012684528 -0.025849815 0.032613643
0001d0 1d 99 6f bb 7b 12 4a 3d 6f 65 95 3c 8d 5f f6 3c
       -0.0036559768 0.04933403 0.018236844 0.030074859
0001e0 ed 70 dd bb 00 77 a7 3c 1c c4 87 3d b0 4c 87 bd
       -0.0067578466 0.020442486 0.06629202 -0.06606424
0001f0 68 99 e3 bc 8c 4f 02 bd da b6 0e 3d 6d 38 9c bb
       -0.02778311 -0.031814143 0.03484235 -0.0047674687
000200 d9 70 66 3c f6 f7 1d bd f0 2e cf bc 58 89 36 3d
       0.014064991 -0.038566552 -0.025290936 0.044564575
000210 23 c4 7f 3b 13 93 a4 3b 3b c2 ce bb 25 ac 8c bd
       0.0039026819 0.0050224154 -0.006309775 -0.068687715
000220 f6 dc 14 3c 15 0b f0 3c bc 0e 09 3d 08 43 98 3d
       0.009085884 0.02930216 0.033461317 0.0743466
000230 1a 69 10 3b c1 9e 1c 3d 3e 76 cf bc a2 c3 08 bd
       0.0022035302 0.038237337 -0.025324937 -0.033389695
000240 43 44 bd 3b b0 48 fa bc 07 5f cc 3c cb 31 06 bd
       0.0057759597 -0.030552238 0.024947656 -0.03276233
000250 00 cc a8 bc fb 39 72 bd a9 8f a1 bc 8c 87 62 3d
       -0.020605087 -0.059137326 -0.019721823 0.05530505
000260 ae 05 19 3b ac ec 18 bd 94 f2 b4 bd 8e 10 a3 3d
       0.0023349333 -0.037335083 -0.088353306 0.07962142
000270 05 3f 10 bc a7 6f 3d 3d ff 6c 02 bb 33 51 71 bd
       -0.0088040875 0.046249058 -0.0019901393 -0.05891533
000280 07 1f a3 3b 1f ad ab bd 54 3f 51 bd 07 3e 91 3d
       0.004978064 -0.083826296 -0.051085785 0.07091909
000290 b0 18 03 bd e4 66 8f bd 2d cb e3 3c e3 e5 a5 3c
       -0.032005966 -0.07002047 0.027806843 0.02025122
0002a0 ea 81 47 3d 0f d7 27 bd bc 67 32 3d 52 d5 78 3c
       0.04870788 -0.04097658 0.04355596 0.015187578
0002b0 04 71 3a 3d 8f cf 5c bd db c7 9c 3c 39 f9 02 bd
       0.045517936 -0.05390888 0.019138267 -0.03197596
0002c0 72 a7 5f 3c 64 d3 04 bd e4 ac 72 3d ee ed f1 bc
       0.013650762 -0.03242816 0.059246913 -0.029532399
0002d0 6a f2 14 3d 1f a9 19 bd c3 86 56 3b 08 8d 74 3b
       0.036363997 -0.037514802 0.0032734133 0.0037315506
0002e0 69 c7 af bc 09 35 55 bc 1e 72 59 3d 62 f4 09 bd
       -0.02145739 -0.013013133 0.053087346 -0.033680327
0002f0 f3 50 4d 3d 13 13 34 3c 7b f0 cf bc 5b 6f a0 3d
       0.050126027 0.010990876 -0.025383225 0.07833739
000300 dc 4d 14 3d 32 e8 a0 3c 53 53 f1 bb 45 ad 89 3c
       0.036207065 0.01964197 -0.0073646693 0.016806254
000310 d2 5b 50 bd b6 9c bf 3c c0 4d ed bb 65 61 85 3c
       -0.050868817 0.023390155 -0.0072419345 0.016281793
000320 22 a8 59 3d a7 fc 13 3a 85 6b bc bb 49 e2 28 3d
       0.05313886 0.0005645253 -0.005750122 0.041231427
000330 13 2e 5a 3d 77 e5 4a 3b d6 bb ac bc 12 da 17 bd
       0.053266596 0.0030959526 -0.02108566 -0.037073202
000340 40 50 51 bd ae 5e 9b 3d 6c c5 04 bb 24 f4 a9 bc
       -0.051101923 0.07586418 -0.0020259274 -0.020746298
000350 e3 34 0d 3d ef de e7 3c 61 38 d4 bc 55 6a 68 bd
       0.034474265 0.028304545 -0.02590579 -0.05674203
000360 b3 07 ec bc e8 ed c0 3c 8e 14 a2 bb 54 aa e3 3c
       -0.028812265 0.023550943 -0.004946298 0.02779118
000370 7a cc 25 bc 82 ff 55 bd 80 63 b5 bc 32 f2 a8 3d
       -0.010119552 -0.052245624 -0.022142172 0.0824932
000380 44 9a 5e bb 76 e5 5e bd d8 82 26 bd 58 8c 9f 3c
       -0.0033966461 -0.05441805 -0.040652126 0.0194761
000390 a0 4f 73 3d 9f fa bd 3c a3 93 92 3b b9 d2 5a bd
       0.05940211 0.023190795 0.004473166 -0.053423617
0003a0 14 18 8d bc 44 c3 f1 3c 4d 9e 4f bd 1e 6d 3d bb
       -0.017223395 0.029512055 -0.050688077 -0.002890415
0003b0 9e 6c 3f 3b 15 cf cc 3b 77 1c 82 3d 78 4c 6e 3c
       0.0029209028 0.006250272 0.063530855 0.014544599
0003c0 55 14 03 3b 94 d6 99 3d 68 91 48 3d 59 2a 15 3d
       0.0020001133 0.07511631 0.048966795 0.03641734
0003d0 da 0d 4f 3d b8 ae 2f 3d e7 34 94 3c 17 f2 1b 3d
       0.05055032 0.042891234 0.018091632 0.03807267
0003e0 06 7d 08 bd 06 1c 28 bd ea e4 2d bc ce b8 97 3d
       -0.033322357 -0.04104235 -0.010613659 0.074082956
0003f0 a5 61 d1 3c 19 88 9b 3d 30 30 8d bc 3a 1f 44 3d
       0.025559256 0.07594318 -0.017234892 0.047881342
