agent_checkpoints/checkpoint_critic_1.pth (torch_old, 554781 bytes, 13 tensors)

fcs1.weight f4 [400, 33]
00000000: 691e 65bd 1303 aa3d 5fbf 143c afc5 d4bd
00000010: bb78 ac3b 9c7a 003c dfe3 b63d 7611 09bc
00000020: a88d b6bd 9204 cfbb f75c e03d 574c 33bd
00000030: 9238 513d 1970 c1bc f7bd 913d 1796 5fbc
00000040: 4490 003e a7ee 013e 94b4 a23d 451f 793b
00000050: de69 dc3a c785 5cbc e92c 04bd 5362 8b3d
00000060: 95e3 86bc 23d9 88bc fc77 483d ba01 c7bc
00000070: ee2c 53bc 74cd 693c aae7 5b3b 1a56 d0bc
00000080: 5250 dc3c 5d79 0a3e 2a69 f4bb b58f 6b3d
00000090: 2e60 be3d 8545 903d 3501 38bd aa27 71bd
000000a0: 7dc6 093d b56f 8e3d 6ba4 69bc 2cbf b93d
000000b0: 7ab9 0cbd bdd4 e23c 9526 2a3d 12c5 ddbc
000000c0: f468 b5bc 7d34 813d 2463 23be 4093 95ba
000000d0: 9ea0 d8bd 357a 173e 6ffc a43d 08c4 e1bd
000000e0: 2bb2 283d d8f5 fc3c f54c bebc f002 903d
000000f0: 9b98 523c 89b1 5d3d 9870 d43b 5db8 d13c
00000100: 713e 403d c1f9 afbd 3439 1d3d e75c 0a3c
00000110: 7ec0 a7bd 2d62 2ebe fa54 16be 5e4c c73d
00000120: 149f dc3d 0b0c 80bc db11 8dbc 3aac dc3c
00000130: 8575 e83d 738d b8bc b2a5 97bd 5f73 2a3d
00000140: 33f8 973d 43fe 90bd 8aa7 12bc 41e9 c8bc
00000150: 0f65 4e3c 415f e43d 8d5c 1cbc 8bad 01be
00000160: 7653 75bd cac6 763d f41f 363d b2b7 9e3b
00000170: 45b4 80bd e541 fe3c 05ae e43b 786e 20bd
00000180: baa1 f9bc 5d86 a0bc 0a56 e6bd ca70 c9bd
00000190: 7df3 873d 48e1 d73c 52cd debc b1a5 64bd
000001a0: c9c5 243e e4c8 1cbd b6f3 00bd b3a8 c13d
000001b0: edfa c7bd c910 893d dba0 93bd 5325 2bbb
000001c0: 5175 30bd 4624 8a3d 23b2 e83c 8d73 943d
000001d0: dfc0 43bd f011 183e 328b 91bc ac96 5f3d
000001e0: 540a 98bd 9de9 b2bd 95a1 b5bc 5250 ab3c
000001f0: b754 9fbd 894a 14bc da09 4cbd d61e 2b3d
00000200: 106d 83bb e44f 223d 4db8 d3bc 6750 48bc
00000210: 11d9 83bc fd20 b8bb 6d29 d03c 83e4 463d
00000220: 136b 04bd 0fab 21bd d52a 13bd de2a b33c
00000230: 3606 4bbd ecee 2a3d c5eb da3c 963a 9bbb
00000240: 3f5f 32bd 37a6 643c 083c 18bd d381 32bd
00000250: 9587 873c a506 303d f2dd 8ebc 4b72 28bc
00000260: 97f7 45bd 2508 90bb 9cc2 513d 8c64 daba
00000270: 4002 bd3c fcc3 5ebd b16e 32bd 8dfd 213d
00000280: 2a3d 01bd a81e b8bb 0380 a8bc 0480 5f3c
00000290: 12ed 5f3c ecb7 9f3d 2bd8 263c a9de 903d
000002a0: 7bdb 323e 185c b33d a698 5abc 0316 f2bd
000002b0: 36b2 e9b9 1418 463d aa54 ad3c da5e 89bc
000002c0: e738 f53b 43a6 24bd afec 913d c49d 893d
000002d0: 1007 ce3c 3382 f1bd a207 9fbd 9405 b53c
000002e0: 2fca 863c b549 b6bc 8109 1abd 1740 483d
000002f0: 364e 5dbd e05d da3c 301d 943c e8bd 86bd
00000300: 4caf dc3c e57c 853d 2c47 003c 7a3e 143d
00000310: 5df5 d8bc 10fa 113e 992b 2fbc 6f77 973c
00000320: d6c5 ab3c 33f5 153d fdf0 49be e7c8 8abd
00000330: 1c08 02bd fdb7 53bc 235e 66bd 8658 abbc
00000340: 6eb5 aa3b a973 d2bc 3af9 3cbc 7784 1dbd
00000350: 12eb e13d 6853 6e3a 6ae1 e83d 34bc 6ebc
00000360: ffc4 313e 3b76 48bb 04fd e23c 45a8 a4bd
00000370: 039b bebd f162 5b3d b72d c43c 563d aabd
00000380: 4b0e 913d 54a5 0a3c ab1a 8b3c 5057 423b
00000390: d7f9 e53c 34f7 19bc 2c34 d3bd 81a2 d53d
000003a0: a169 5e3d 855a 583d 8228 f4bd 15a9 30bc
000003b0: 4484 8abd 69d5 bc3d 4cb4 a03d 8d3a e93d
000003c0: c3b1 703d 7407 0cbd 0d94 30bd fea7 0dbd
000003d0: 742a aa3d c491 6a3d 0cf0 cdbd f42a 8f3c
000003e0: 9af9 bcbd 9b76 0e3d 5901 a6bd 5aa0 c53d
000003f0: 0e64 2e3d dc0d b83c 10d5 2cbd 3092 52bc
-0.055937205 0.083013676 0.00907883 -0.10389268 0.0052634156 0.007841732 0.08930182 -0.008365979
-0.089137375 -0.0063176835 0.10955232 -0.043773975 0.05107934 -0.023613023 0.07116311 -0.013646624
0.12555033 0.12688695 0.07944599 0.0038013023 0.0016816219 -0.013459629 -0.032269392 0.06805863
-0.016465941 -0.016705101 0.04894255 -0.024292815 -0.01288913 0.014270175 0.003355483 -0.025431681
0.026893768 0.13522859 -0.0074588256 0.057510097 0.092956886 0.0704451 -0.044923026 -0.058875717
0.03363656 0.069549 -0.014260392 0.09069666 -0.03435657 0.027689332 0.0415407 -0.02707151
-0.022144772 0.063088395 -0.15955788 -0.0011411682 -0.1057751 0.14792712 0.080559604 -0.11023718
0.04118554 0.030878946 -0.023230055 0.0703181 0.012853767 0.05412439 0.006483149 0.025600607
0.04693455 -0.08592559 0.03838463 0.008445001 -0.08191012 -0.17029639 -0.14680853 0.09731363
0.10772529 -0.015630743 -0.017220428 0.026937593 0.1135054 -0.022528386 -0.07404651 0.041613933
0.07420387 -0.070797466 -0.008951077 -0.024525287 0.012597336 0.11150981 -0.00954355 -0.12663858
-0.059894048 0.060248174 0.044464067 0.0048436755 -0.06284384 0.03103728 0.0069787526 -0.03916785
-0.030472625 -0.01959532 -0.112468794 -0.09835966 0.066382386 0.02635254 -0.027197514 -0.05582208
0.16091074 -0.03827752 -0.03148242 0.09456005 -0.09764657 0.06692655 -0.07208415 -0.0026114776
-0.04308063 0.067452 0.028405255 0.07248602 -0.047791358 0.14850593 -0.017766569 0.05458705
-0.07423845 -0.087359644 -0.022171775 0.020912323 -0.0777983 -0.009050974 -0.049814083 0.041777454
-0.004010804 0.03962697 -0.025844717 -0.012226201 -0.016094716 -0.005619167 0.025410378 0.04855777
-0.032328676 -0.039469775 -0.03592952 0.021871027 -0.04956647 0.04173176 0.026723752 -0.0047372086
-0.043547865 0.013955644 -0.037166625 -0.04358084 0.016544143 0.042975087 -0.017439816 -0.010281156
-0.048331823 -0.004395502 0.051210985 -0.0016662045 0.023072362 -0.054386124 -0.043562595 0.039548445
-0.03155247 -0.005618889 -0.020568853 0.013641361 0.013667362 0.07798752 0.010183374 0.07073719
0.17466538 0.087578 -0.013342058 -0.11820605 -0.00044574 0.048362806 0.021158535 -0.016768862
0.00748359 -0.040197622 0.07125222 0.067195445 0.025149852 -0.11792412 -0.07765128 0.022097386
0.01645383 -0.022251943 -0.03760672 0.048889246 -0.054029666 0.026656091 0.018080324 -0.065791905
0.026939057 0.06517962 0.007829469 0.036192395 -0.026484186 0.14255548 -0.010691547 0.018489568
0.020968359 0.036610793 -0.19720836 -0.067766 -0.031746015 -0.012922284 -0.05624212 -0.020916235
0.0052096164 -0.025689917 -0.01153403 -0.038456406 0.11031164 0.0009091408 0.11371119 -0.014571238
0.17360304 -0.003058805 0.027708538 -0.08039907 -0.0930691 0.053561155 0.02394758 -0.0831248
0.07082804 0.008462269 0.01698049 0.0029654093 0.028073234 -0.009397317 -0.10312685 0.10431386
0.054299954 0.0528207 -0.11921789 -0.0107825 -0.06763509 0.09220392 0.07846889 0.11388121
0.058763277 -0.034186795 -0.043109942 -0.034584038 0.083088785 0.05726792 -0.10055551 0.017476536
-0.09227295 0.03478108 -0.08105726 0.09649725 0.04257589 0.022467546 -0.04219538 -0.012852237

fcs1.bias f4 [400]
00000000: 372a 483d ce0a 1f3e 6fd2 bb3d f04f ee3c
00000010: 7064 f1bd a10e ee3d f662 1f39 9872 6c3d
00000020: bfa9 aabd b15a 14be f1e8 1ebe 24cd 56bd
00000030: 4b68 04be 7669 1abe 688f 2f3e 8c42 8d3d
00000040: 2837 bdbc 88da 1dbe 320f fdbd 1838 28be
00000050: 0dc9 31bd 0d8e fd3d 87b8 bbbc 4d2f 1e3d
00000060: 1e30 51bc 3f2e d83d bf6b 2a3e 4b15 91bd
00000070: 8636 09be bf23 d13d 67f4 eb3d b0cd 623c
00000080: 7e56 a0bd 9627 28bd 28d5 c93d 9408 553d
00000090: b5ec 77bd 0bb6 4a3d 5119 5f3d fd2e 4cbd
000000a0: f079 ccbd ff96 2e3d 8754 2f3d 92f1 2c3e
000000b0: 0f50 ebbc 6585 d23c 07d3 1d3d 7510 a03d
000000c0: 7b72 a73d e990 f8bd 5965 173e 52d2 0b3d
000000d0: db17 323e 925f 09be 72cb 1e3e 007f 023e
000000e0: cb25 88bd d082 24be d760 e83c 17cc d93d
000000f0: a51e b6bd 2d0e 943d 7a8b de3c 4960 173e
00000100: 5baa 2d3e 58fb a13d bac8 f8bc b899 6ebd
00000110: 004f fb3d 4079 c0bd f583 84bd a7d6 d0bd
00000120: 39bf 31be 9872 203e 46a8 e43d 9204 923d
00000130: bf90 033e 2225 fe3d 683c f63d fd47 e8bd
00000140: 6496 e83d 68df 49bc ab10 2b3e 06e0 1c3e
00000150: 2860 1f3d 1811 c0bd acd4 273e 059c 30be
00000160: e81d 99bd 2bd1 533d e112 a53c 1d14 07be
00000170: 0048 d0bd f924 0b3d e559 09bd 7acd 0fbe
00000180: ebc6 ce3d 3e65 033e f8ec 89bc 158b b43d
00000190: 6de0 133d 0ef1 c53d 343d 903a 921c 583d
000001a0: e0cb f73d b6a0 5dbd fa25 003e 509a 473d
000001b0: 4c48 10be 15ab 0d3e 9489 8bbd 1871 2ebe
000001c0: a349 34bd 803e 30be e554 4cbd dac0 30bd
000001d0: 3763 00be eb2e 113e 7886 de3d 5d8f b33d
000001e0: b88c 243e 2ec6 90bd b45d 893d 43a9 043e
000001f0: 08b2 0e3e 0d80 823d bc95 a33d 6300 213e
00000200: b0ee 143e 6120 0ebe d469 123e 8f15 8cbd
00000210: 8635 e73d eec6 2dbe d704 1f3e cba7 143e
00000220: 5fa3 4bbd c3c3 223e 739b 0f3d e645 ebbd
00000230: 4aa5 8c3d f03b e1bd 5787 babd 9f69 193e
00000240: 6d5a ab3b d2ce c1bd 8aa6 2abe a335 12bc
00000250: bb88 a13c 7b25 f8bc 04b8 003c eedf 113e
00000260: a8d1 22be aa91 253d f52e a4bc 3009 1dbe
00000270: f234 2dbe c303 04bc bec0 2bbe 3843 303e
00000280: 36c4 18be 6aeb 9fbb f7ae 88bb 195d d0bd
00000290: 19a4 263e f937 cebc 0ea1 88bd ac42 103e
000002a0: ee7b 683d e88a 56bd 55e5 2cbe 3c26 09bd
000002b0: 286e 31bd 79c8 42bd 72d2 d33d 916b 55bc
000002c0: 1617 433d ac75 113e dbaa 3a3b 5319 283e
000002d0: 58ad 953d aa4b 05be 9add b23d 3881 93bd
000002e0: a4be 0c3e 961e 4b3d 654a d7bd 3994 d7bd
000002f0: 019c 30be 7f87 2abe d78b e2bd 40e1 363d
00000300: 7988 4cbd 72f3 093d 6239 18be 4eb4 66ba
00000310: 369c a8bd 633b 3a3d 8b63 f7bd 7f0e ab3d
00000320: c2a7 94bd 35ea 9d3c 6484 97bd 72b2 173e
00000330: 06be 863c 994b ad3d 9588 8cbd bbdc 0e3e
00000340: 0deb 83bd 72e6 e23d f7e1 2a3e cd98 b3bd
00000350: 082c 213d b899 103d 6c3b 3dba 1241 9a3d
00000360: e5c7 1d3e 77b6 a0ba fd50 2e3d 2c61 dd3d
00000370: b18b 12be d23b d23d 59c6 b03b 7a87 01be
00000380: 087d 923d 029c a3bd 1920 03be e993 68bd
00000390: df21 b93c 2888 cd3d fe7f 9dbd 6c56 153e
000003a0: 4245 fdbd 4a5c 02be 693d 8c3d 3b7f 273e
000003b0: 8ef9 063e f690 003e 65de 2b3c 4a62 7dbd
000003c0: 6080 04be 2d44 febd 7907 5d3d 6d04 49bc
000003d0: 0c6c e2bc 4008 08bd 9073 afb9 29e2 d0bd
000003e0: 5ecc 21bd 0939 123e 1b7f bdbd 64bf 53bc
000003f0: c5b1 0cbe 27df 8ebd c476 713d d956 9a3d
0.048868384 0.15531465 0.091709964 0.029090852 -0.11786735 0.11623884 0.00015200287 0.057726473
-0.08333158 -0.14487721 -0.15518548 -0.05244173 -0.1293041 -0.15079293 0.17144549 0.068974584
-0.02309759 -0.15415394 -0.12356414 -0.16427648 -0.043404628 0.1238061 -0.022915138 0.03861933
-0.01276782 0.10555696 0.16642664 -0.070841394 -0.13399705 0.10211896 0.115212254 0.013842985
-0.07828997 -0.041053377 0.098551095 0.052010134 -0.060528476 0.049490016 0.054467503 -0.0498495
-0.09984195 0.04262447 0.04280522 0.16889027 -0.028724698 0.025698373 0.03853133 0.07815639
0.08176132 -0.121370144 0.14784755 0.034136124 0.17391913 -0.13415363 0.15507296 0.12743759
-0.066478334 -0.16065526 0.02836649 0.1063463 -0.08892564 0.07229266 0.027166117 0.14782824
0.16959517 0.07909268 -0.030369151 -0.058252066 0.122709274 -0.093981266 -0.06470481 -0.10197192
-0.17358102 0.15668714 0.11164908 0.07129778 0.12848185 0.12409426 0.1202324 -0.11341856
0.1135681 -0.012321331 0.16705577 0.15319833 0.03891006 -0.093782604 0.16389722 -0.17247017
-0.07476407 0.05171315 0.020150604 -0.13191266 -0.10169983 0.033970807 -0.033532996 -0.14043227
0.10096534 0.1283159 -0.016836628 0.0881559 0.0361027 0.09665118 0.0011004568 0.05276162
0.12099433 -0.054108344 0.12514487 0.04873115 -0.14090079 0.13834794 -0.0681335 -0.1703533
-0.044015538 -0.17211342 -0.04988565 -0.043152668 -0.12537847 0.14178054 0.10865492 0.08767579
0.16069305 -0.0706905 0.067073256 0.12955193 0.13935101 0.0637208 0.07987544 0.15722804
0.14544177 -0.13879539 0.14298183 -0.068400495 0.11289506 -0.16970417 0.1552919 0.14517133
-0.04971635 0.1589499 0.035060357 -0.114879414 0.06867464 -0.1099776 -0.09107845 0.14981697
0.0052292855 -0.09463276 -0.16665092 -0.008923921 0.019718518 -0.03029131 0.007856373 0.14245579
-0.1590029 0.04042212 -0.020041922 -0.15335536 -0.16914728 -0.0080575375 -0.16772744 0.17213142
-0.14918599 -0.0048803585 -0.004171248 -0.10174007 0.16273536 -0.025173174 -0.06671344 0.14087933
0.056758814 -0.052378565 -0.16884358 -0.03348373 -0.043317944 -0.047554467 0.10342874 -0.013026134
0.04762944 0.14205045 0.0028483185 0.1641591 0.07308453 -0.13017145 0.087336734 -0.07202381
0.13744599 0.049589716 -0.105122365 -0.10526318 -0.17247011 -0.1665325 -0.110618286 0.04464841
-0.049934838 0.033679433 -0.1486564 -0.0008800671 -0.0823292 0.04546679 -0.12079533 0.08352374
-0.0725856 0.019276718 -0.073982984 0.14814165 0.016448032 0.08461685 -0.068619885 0.1395139
-0.06441317 0.1107911 0.16687761 -0.08769379 0.039348632 0.035302848 -0.00072186324 0.075319424
0.15408285 -0.001226141 0.042557705 0.1080955 -0.143111 0.10265316 0.0053947386 -0.12649336
0.07152754 -0.079887405 -0.12805213 -0.056781683 0.022599159 0.10035735 -0.07690428 0.14583749
-0.123667255 -0.12730518 0.068476506 0.16357128 0.13181135 0.12555298 0.010490035 -0.061861314
-0.12939596 -0.12415347 0.053962205 -0.012269122 -0.027639411 -0.033210993 -0.00033464702 -0.101993866
-0.03950154 0.1427957 -0.09252759 -0.012924049 -0.13739689 -0.06976157 0.058951154 0.07536096

fcs1_bn.weight f4 [400]
00000000: b946 593f 2c66 103f 368f e53e d3c0 213f
00000010: 58d3 3039 73f2 c23e 986d 4f3f ca53 363f
00000020: 9be3 633f f298 2f3f f950 283f 5e5f 2a3f
00000030: 1c78 f53e 0b3c 593f 3b6e a33e 0cd1 4b3f
00000040: a7cf 473b e9d7 ba3e 7536 013f d22d 863b
00000050: c7fa 763d a3c0 503f fdff 533e 2fb6 833f
00000060: 4043 2f3f 64c5 bb3e 46ef 783f ba66 8c3e
00000070: fcb8 f23b a36c 383f d1d1 b03d a7f2 4e3f
00000080: 7135 253f 9faa d13e 1e40 113f 3c48 ec3d
00000090: a2d4 a13e 5248 9a3e 3dd4 d53d c281 2b3f
000000a0: 909f 9c3e 58dd 2e3f 48d1 483f 5fdc ae3e
000000b0: eeae f83e 7c83 823f 1471 6b3f 34b6 bb3e
000000c0: 8fb5 a43e b516 a13e 2f66 9c3e b1bf 3b3f
000000d0: 35e9 743f 2c77 153f e5fe 5d3e bc19 2e3e
000000e0: 9fbe 463f 8f32 e53e 280e af3d da19 193e
000000f0: e2e2 ad3e 228d 293e 4a1c 633f 6860 0d3e
00000100: 08ef 803e c0ff 113f eb95 0e3f 6f5b ce3d
00000110: 8fd6 523f 0058 0e3f 901f dd3d 336d 7a3f
00000120: a3e5 103f 908b 8a3e b93d ab3e dc9a 3c3f
00000130: 64ce 0f3f b7a4 653e 1c3c 403f e356 5e3f
00000140: adfb 023e d5c6 733f 08fb 6a3d 2258 643c
00000150: b341 af3e bc04 48b9 9393 133f 98d0 233f
00000160: f7fc 353f d2e5 443f 1453 1dbb e0cc 8a3e
00000170: 5179 fe3e 6067 6d3f 06d6 f53e 32f0 cd3e
00000180: 296f 273f 47e4 143f 7635 d23e 5a44 883e
00000190: bdfe 2c3f aeab be3e 7e27 de3e 5184 213f
000001a0: 6e9c 283e e57f 733f f615 4b3c 491b af3e
000001b0: 6f23 363b 48e5 ee3e 685a 1e3f 3e43 2f3f
000001c0: e30b df3e f049 113f d8e8 ee3e 113e 2a3f
000001d0: 629b 523f 9c21 b03e bf01 fe3e 99b5 0b3f
000001e0: 08b4 043f 599e cd3e c883 f83e de43 2b3f
000001f0: 59f2 763e 3463 f93e a55e 163f a44f 193f
00000200: 9677 053f 40ad fa3c aafc 303f ca22 993e
00000210: 0e6c 3e3f 173e 083f f044 b93e 44c5 403f
00000220: 891d 193f 780c 413f a227 d43e 7b57 7c3f
00000230: 93d8 363e 65d5 a73d 6d30 5f3e 9bae fa3e
00000240: c9ff ff3e b126 1e3e e2cc 9c3e f91a 063f
00000250: 5c6c 073f da05 8d3e 95be c83e aa1f fd3e
00000260: 0dce 45ba b65e 173f d121 bc3e bbd3 243f
00000270: d637 d43e c2d3 c63e 3467 da3e b82c 663f
00000280: 3e15 5f3f d58b 193f b85a 0a3f c903 183f
00000290: 7b7f 823e 607b 4e3f 3f7e 233f c431 6e3f
000002a0: 1e13 023f 3c96 053f ee4f 133f 0707 093f
000002b0: 9c1c e53a 59d4 ec3d e122 d33e cdf1 383e
000002c0: 2f28 c13e d483 0f3f 53d2 003f fe21 a73e
000002d0: e501 0b3e 3e36 193f 8e76 263e 305d 2c3f
000002e0: e575 693e 3196 103f c682 993e e2e4 243f
000002f0: 5a88 f73e 11b6 ba3e 0198 663f 1fdb 3f3f
00000300: 3353 6d3f 35e7 643e a035 e2ba 0542 aa3c
00000310: b5b1 153f f546 0a3f 7126 653e 12c9 f43e
00000320: e8c0 663f 37a3 3c3f ab50 613e 271e f13e
00000330: 282d 2a3f 14b8 183f 0be9 663f 7a45 263f
00000340: adb2 063e d1f2 413d 94a0 4c3f a0de 0c3f
00000350: d95d 503f 0d0e 963e 8e22 273f 8d46 963e
00000360: 08be 033f 5d78 003f cac5 133e bbfc 2a3f
00000370: 2b77 de3e 16b6 153f 33de d93e 5ac7 a73e
00000380: 4abb 013e 02f4 bb3e 30d1 243f 1185 fc3e
00000390: ffba 303f 55d3 ac3e 70c8 283f a0de 873e
000003a0: 7e8c 163f d0a8 b33a c2b3 043f 6719 f23e
000003b0: 02b6 8a3e 303c 593d fa76 653f 4d1d 4d3f
000003c0: b573 5f3f 390a cc3e 6ebd 4b3f 4f2d 413f
000003d0: f023 673e 0147 113f 3b3b 0e3d d8f2 4d3e
000003e0: 4e76 573f 2854 f53e d8d2 323f 43b9 b33d
000003f0: da11 163f 1b2d 133e 11fe 5e3f d985 aa3e
0.8487354 0.564059 0.44835824 0.6318485 0.000168634 0.380756 0.810266 0.712216
0.89019173 0.6859275 0.65748554 0.6655177 0.479432 0.84857243 0.31920037 0.79615855
0.003048876 0.3649285 0.5047372 0.0040948177 0.060297754 0.8154394 0.2070312 1.0289973
0.6846199 0.36674035 0.972401 0.27422124 0.0074073058 0.72040766 0.08633769 0.8083901
0.6453467 0.40950486 0.5673846 0.11537215 0.31607538 0.301333 0.10440872 0.6699487
0.30590487 0.68306494 0.7844434 0.34152505 0.4857096 1.0196376 0.9196942 0.36662447
0.32169768 0.31462637 0.3054671 0.7333937 0.95668346 0.58384967 0.21679266 0.17002004
0.77634615 0.44765136 0.08547622 0.14951268 0.3396216 0.16557744 0.8871504 0.13806307
0.25182366 0.5703087 0.55697507 0.10076033 0.8235864 0.5560303 0.10797036 0.97822875
0.566004 0.27059603 0.33445528 0.73673797 0.561743 0.22426115 0.7509172 0.8685133
0.12791319 0.9522527 0.05736831 0.013937028 0.34229812 -0.0001907525 0.57647055 0.63990164
0.7108912 0.7691318 -0.0024005817 0.27109432 0.49701932 0.9273586 0.4801485 0.40222317
0.6540399 0.58160824 0.41056412 0.26614648 0.675762 0.37240356 0.43389505 0.63092524
0.16465923 0.95117027 0.012395373 0.34200504 0.0027792116 0.46659303 0.618567 0.6846198
0.43563756 0.56753445 0.4666202 0.66500956 0.82268345 0.34400642 0.49610707 0.5457397
0.51837206 0.40159872 0.4853804 0.6690043 0.24115886 0.48708498 0.58738166 0.59887147
0.521356 0.03060019 0.69135535 0.29909354 0.7438363 0.5321974 0.36185408 0.75301003
0.5981069 0.7540965 0.41436487 0.98570985 0.17856054 0.08194999 0.21795817 0.48961338
0.49999836 0.15444447 0.30625063 0.52384907 0.5289972 0.27543527 0.39207903 0.4943822
-0.00075456576 0.5912889 0.3674455 0.64385575 0.4144885 0.38833433 0.42656863 0.89911985
0.8714179 0.5997899 0.54044676 0.59380776 0.25487885 0.80657005 0.6386451 0.93044686
0.5081042 0.52182364 0.5754384 0.5352635 0.001747984 0.115639396 0.41237548 0.1806099
0.3772597 0.5606053 0.5032093 0.3264312 0.13574941 0.5984839 0.16256163 0.6732969
0.2279888 0.56479174 0.29982585 0.6441175 0.48346215 0.3646703 0.9007569 0.7494373
0.92705077 0.22353823 -0.0017258413 0.020783434 0.58474284 0.5401452 0.22377945 0.47809654
0.901381 0.73686546 0.22003429 0.47093317 0.6647515 0.5965588 0.90199345 0.6494976
0.13154097 0.04735071 0.7993252 0.550272 0.813932 0.29307595 0.652871 0.293507
0.5146184 0.5018366 0.1443092 0.66791886 0.43450293 0.58480966 0.42552337 0.3276928
0.12669101 0.367096 0.64381695 0.49320272 0.69035333 0.33754984 0.65930843 0.26537037
0.58808124 0.0013706926 0.5183679 0.47285005 0.27091986 0.053035915 0.8963467 0.80122834
0.8728593 0.3985155 0.7958592 0.7545976 0.22572303 0.5674897 0.034724455 0.20112169
0.84164894 0.4791577 0.6985297 0.0877557 0.5862099 0.14372675 0.87106425 0.33305243

fcs1_bn.bias f4 [400]
00000000: b2f6 78bd bd0c 0ebd bd57 79bd dfe3 0e3d
00000010: d232 e6bb d171 cbbd 99d2 9abd 055e f5bd
00000020: 7c5d 3bbd 7edf 82bc 41a1 4cbc 1c03 e6bc
00000030: 4974 41bd a34b 8dbd 9e33 ecbd f87a 98bd
00000040: 4b94 33bc da12 b1bc 92e3 a5bd 35bc dfbc
00000050: 90d5 c5bd 2a92 3a3c 54da 1dbd 548a 4ebd
00000060: 1d18 0abe 8f26 22bd c4af 46bd 94f0 a0bd
00000070: 1335 e2bc 14d5 a2bd 386d 86bd d91f 68bd
00000080: 9373 22bd 47fd 2fbd faf4 68bd 1d67 53bd
00000090: e8eb 9fbd a2d1 e6bc 0cef c0bd ae9c f8bc
000000a0: 8755 aebd 7ed0 d9bd c84a 83bd cae5 b3bd
000000b0: 2234 05be 1495 023d 0b78 7fbd f0e7 7dbd
000000c0: 99fa a8bd d16c edbd b1f5 9dbd 999f 18be
000000d0: 85f7 83bd f247 28bd 9733 1bbd c3ae afbd
000000e0: 4370 3d3c de1d eabd d82d 03bd b145 9ebd
000000f0: f8c9 a3bd f2d1 9fbc c182 9bbd 2b1f bebd
00000100: fedd 39bd 0e74 84bd 035e d1bd fe39 49bd
00000110: 599c b83c 83b0 c9bd 573b e4bc f5c3 45bd
00000120: 312c bbbd b483 dbbd 28c4 92bd a16c a5bd
00000130: f660 9abd 81cc b3bd 0450 45bb 5f7a 9abd
00000140: 0590 68bd 2a55 acbd 4af0 3ebd 7345 dcbc
00000150: 54d3 7ebd ed49 2cbb 22d2 c8bd 69e1 84bd
00000160: 3465 0ebe 858a 01be 69c8 20bc 072b 96bc
00000170: 8547 eabd 118b 72bd c0d1 08bd aa25 66bd
00000180: 780e 37be 9d4c 16bb 2458 60bd f00b b4bd
00000190: 90cc a7bd 4df5 8abd 4dba 293c 9256 b7bd
000001a0: e760 1fbd 2712 dcbd 6de8 10bd b6c5 56bc
000001b0: f8fb 8bbc d8be 753b 95f7 f8bd 24e4 d2bc
000001c0: 73ce fbbd dafc 8abd e0f2 edbb e84c d6bd
000001d0: 114d d5bc c0e5 27bd d9bc a0bd 906e 45bd
000001e0: b670 b6bd 7ec2 86bd 8b2a 80bd a992 6cbd
000001f0: 244a d9bc c5ee ddbc 685b 4dbd 5419 62bd
00000200: e28b 4ebd d251 45bd 6f08 1abe 07dc bd3c
00000210: 7242 193d 837b 063d 6ee5 6d3c 54c6 e1bc
00000220: b87c 0fbe 5f32 bdbd ac4d 8abd 748f 2fbc
00000230: 4510 86bd b4e3 fabc 07fc d2bd f793 a8bd
00000240: 1ed6 eebd d7ab b4bd 20cb 0dbc 9c74 b43c
00000250: 1edf 97bd 3573 fcbb 4d1f 12be 0171 2abd
00000260: e9ff b7bc 90a5 44bc 4e40 3ebd 1703 b6bc
00000270: c66a 03be 0601 7dbd dea6 0fbe fac7 abbd
00000280: c18e d1bc 66bb 5e3d 669b 923d 7466 0fbe
00000290: 1969 a2bd 6a6b 6dbd c3fa 5e3d bbb5 7cbd
000002a0: d56c e6bd 94b2 f2bc ece3 86bc e8bf 68bd
000002b0: 9063 efbb ef82 d6bd e01f 82bd bd6e 8abd
000002c0: 766a 16be 8eb9 efbd fb55 593c 4511 61bd
000002d0: 5641 66bd 3e27 14bc 5cf8 5cbc a39c 0bbd
000002e0: fa1f ddbd d90b ecbd 562e 6cbd 259d 90bd
000002f0: 39ee 84bd ff4e 7ebe 23de 16be b297 6ebd
00000300: 8b7e 543c 7441 96bc 51f0 25bc 658b 92bd
00000310: 4ab0 a0bc 74e6 b4bd 38f0 8abd e7f5 cdbd
00000320: 4277 8bbd dea0 98bd 7614 9fbd 47e8 c9bd
00000330: 784c 65bd 9864 a9bd 318e 63bd 76f7 c9bd
00000340: 8ff1 d13c 05c1 cabc 21a5 4bbd e5cf 8a3c
00000350: 9e66 4abd 00c2 59bd 4653 cbbc 504d 2ebc
00000360: 7051 10bc 2ccc 37bd cbe2 94bd 261a 12be
00000370: c4c0 b2bd 9be1 3bbe 20f1 fdbb d3a7 a8bd
00000380: c53c 86bc 1e0d 9ebd 1a1b a3bd 5cc4 3bbe
00000390: 445b 6cbd 97e7 0dbe fb70 95bd 1aa0 b6bd
000003a0: 598b 603c 7629 06bc 8d35 99bd 2fa6 c5bd
000003b0: d7b5 33bc 01a0 01bd 1492 8f3d ad21 a4bd
000003c0: 2880 19bd b40d 79bd b4aa d2bd 4f9b f3bc
000003d0: 456a 56bd 93f4 e2bd 8cc5 04bd af9a bbbd
000003e0: 2e38 0abd 901e 25bd 4e9b d6bd aa1e 24bd
000003f0: 53b3 2c3d 465e 86bd 3658 61bd dfbd 23bd
-0.060782142 -0.034680117 -0.06087469 0.034885284 -0.007025101 -0.09933818 -0.075596996 -0.119808234
-0.04574345 -0.01597571 -0.012489618 -0.028077655 -0.04723004 -0.06899192 -0.11533283 -0.074453294
-0.010960649 -0.021615434 -0.08100046 -0.027311424 -0.096598744 0.011387387 -0.038538292 -0.05042489
-0.13485761 -0.039587554 -0.048507467 -0.07858387 -0.027613198 -0.07950798 -0.065638006 -0.056670997
-0.039661 -0.042966153 -0.056874253 -0.05161201 -0.078086674 -0.028176133 -0.094205946 -0.030348148
-0.08512407 -0.1063547 -0.06410748 -0.08784063 -0.13008168 0.031880453 -0.06237034 -0.06198877
-0.08250923 -0.11593021 -0.077128775 -0.14904632 -0.06443695 -0.041084237 -0.037890997 -0.08578255
0.01156241 -0.11431478 -0.032026142 -0.07728136 -0.07997507 -0.01950929 -0.07593299 -0.092832886
-0.045377724 -0.06467448 -0.102230094 -0.04912757 0.02253549 -0.0984812 -0.027860327 -0.048282582
-0.09139288 -0.1071848 -0.0716632 -0.0807736 -0.07538025 -0.087792404 -0.0030107507 -0.07542872
-0.056777973 -0.08414681 -0.046615876 -0.026888585 -0.062213257 -0.002628918 -0.09805705 -0.06488306
-0.13905793 -0.12650497 -0.0098134065 -0.018331064 -0.114394225 -0.059214655 -0.03340316 -0.056188263
-0.17876613 -0.0022933849 -0.054771557 -0.087913394 -0.08193314 -0.06785069 0.010359359 -0.08952059
-0.038910773 -0.1074565 -0.03537791 -0.013108661 -0.017087922 0.0037497785 -0.121565975 -0.025743552
-0.122952364 -0.06786509 -0.007261619 -0.104638875 -0.026037725 -0.04099059 -0.0784852 -0.048201144
-0.08908217 -0.06580065 -0.062581144 -0.057757054 -0.02652461 -0.027091393 -0.050136 -0.055199936
-0.05042637 -0.048173733 -0.1504228 0.023176206 0.037416883 0.032832634 0.014520032 -0.02756039
-0.1401242 -0.09238123 -0.06753096 -0.010715354 -0.06546072 -0.030626155 -0.10301977 -0.08231347
-0.11661933 -0.08821838 -0.008654386 0.02202826 -0.07415603 -0.0077041634 -0.14269753 -0.041611675
-0.022460895 -0.012002364 -0.046448044 -0.02221827 -0.128337 -0.061768554 -0.14028499 -0.08387752
-0.025580766 0.054377936 0.07158546 -0.14003927 -0.07930202 -0.057963766 0.054438364 -0.06169675
-0.11251227 -0.029626168 -0.016466103 -0.05682364 -0.00730557 -0.10474192 -0.06353736 -0.06759403
-0.14689049 -0.117053136 0.013265128 -0.05494811 -0.056214653 -0.009042559 -0.013486948 -0.034084927
-0.10797115 -0.11525697 -0.057661377 -0.07061223 -0.0649075 -0.24834822 -0.14733176 -0.058250137
0.012969623 -0.018341757 -0.010128097 -0.07155494 -0.019615311 -0.08833018 -0.06784099 -0.10056668
-0.06809856 -0.07452558 -0.077675745 -0.098587565 -0.05598113 -0.0827114 -0.055555526 -0.098616526
0.02562788 -0.024750242 -0.049718026 0.016944835 -0.04941427 -0.05316353 -0.024819981 -0.01063855
-0.008808479 -0.044872448 -0.0726982 -0.14267787 -0.087281734 -0.1834778 -0.0077496916 -0.08235135
-0.016386399 -0.07717346 -0.079641536 -0.18336624 -0.057704225 -0.13857876 -0.0729694 -0.08917256
0.013705098 -0.008188596 -0.07480917 -0.09650838 -0.010968647 -0.031646732 0.07010284 -0.08014236
-0.037475735 -0.060804084 -0.10286465 -0.029737143 -0.05234744 -0.11081805 -0.032414958 -0.09160363
-0.033744983 -0.04031235 -0.10478841 -0.040068306 0.042163204 -0.0656095 -0.055015765 -0.039975997

fcs1_bn.running_mean f4 [400]
00000000: 4b89 30be 091f e13e 0dbf ad3d d3e8 83be
00000010: ec1b 99bc 4dfb 2b3e 05c6 77be ab66 f23e
00000020: 3505 6bbe c6ef bcbe d6dd 82be 729b e93c
00000030: 095b 1a3e d28a dfbe b5df 0abe e1d6 35bd
00000040: bb42 3bbd d488 0cbe 8556 94be f5ea aebd
00000050: c5bd 1c3d a6b8 2a3d 4782 a13e ecd9 5e3e
00000060: 352e 2b3e ce95 b2bd 5088 af3d e5b1 81be
00000070: a9b8 22bd e6fa e53d 5927 8c3e baee 65be
00000080: 2812 5abe 337e a6be 66fb 10be 8c03 81be
00000090: b3c7 75be 8ebe 543d e77e 923e 919b a8bd
000000a0: 2a5f adbe 123c 80be bc84 39be ea06 b6bd
000000b0: f5bf fd3b c13c f6be 12dc bdbc df45 783d
000000c0: 7cb3 a93e 9e04 cfbe 461c d13e 1152 933c
000000d0: 1ca9 96be ffb2 aa3c 5326 79be 1d3e a83c
000000e0: c13c 05bf 20e7 ecbe 5ca4 b0bd c941 b3bd
000000f0: e480 12be caf9 a1bd d965 dbbd fd46 6ebe
00000100: 3a7f 9e3e 6e34 1f3f ecd7 5f3d a248 36be
00000110: 1a9d eb3e 33be 0bbf 3666 73be 615b 7ebe
00000120: 0cda 98bd 982f cd3e 400e a23e 1418 03be
00000130: ed5c 8ebb afd5 a3be 56f5 ffbe f70d c5bd
00000140: 5629 31bd f377 92bd 780c c03d 913c 033e
00000150: 3b90 abbe 17b6 943d 022f 82bd 2374 dfbe
00000160: a83c 65bd aaf3 aa3e 8bea 28be e17b b3be
00000170: e8c1 db3c e22e ecbe 96cd 31bd ff96 5bbe
00000180: b1cf c63e 68e3 013e 03a5 be3d 498b 3b3e
00000190: c79f 89bc 256b 8e3e ca3e ae3d 6012 8f3d
000001a0: a955 81be 45af a5bd 0ceb d6bc 1d96 0f3e
000001b0: 38c2 09bd 0638 35be 5658 bebe d650 efbe
000001c0: cdb4 b43e 9ade 633d c009 f3be 9685 ee3d
000001d0: 4faa 9e3d c736 90bd 54ab 2bbe 588d ebbd
000001e0: 9058 413e 5223 92be 6217 4a3e cd75 bbbc
000001f0: 87d2 063f 3766 27be 56a8 1e3d bbba f6bd
00000200: 187f b9bd c966 82bd 0bb3 023d 0472 d9be
00000210: 0935 63be e294 83bd e03d 733d 0439 a33d
00000220: f5c4 9fbd 1ed7 8d3e f48a 0fbd 8499 993e
00000230: ac06 893c cb57 14bf d157 15be 83a1 4b3d
00000240: 54ba 1b3d b19b 83be 43fd 79be 8c69 c03d
00000250: 6c23 5b3e 21a3 2dbe 2691 b23e d0b2 e83e
00000260: a665 70be fd82 dabd 4718 9ebe f0e6 68be
00000270: 5701 56be 93df 34be 7aa5 b7be 5b05 e83c
00000280: 477b 44be dfa5 983e ca42 643c 7ac3 99be
00000290: b2fe de3d d2ec 4fbd 6855 95be 34ac dfbc
000002a0: eb94 46be 0cb1 1bbe 076e 3b3b 2f61 193e
000002b0: d8b6 5fbb 8ec0 c03c fca2 12be 4a2e 80be
000002c0: e3f4 5f3e 2e16 7d3e 4a86 313d caf4 133e
000002d0: e29c ecbb c654 7ebe 3e7f ffbd f8ea c93d
000002e0: 2f98 cfbe cd01 f6bd 8a72 abbe 68d3 69be
000002f0: 7a05 a2bd 9848 093e 6b26 a6bd dce8 b5bd
00000300: b4f3 c7be fe99 dcbd e46b 5bbe 5363 2dbe
00000310: d285 263c a009 61be a87c 323e fc77 5d3e
00000320: d9ce 63be 75e0 d03c 4c4e d83d 1a52 853e
00000330: c0ea 7dbe 46c9 983e b600 64be dd0c 283f
00000340: 5cc4 1a3e 6d43 063e 2661 3ebe c7fd a4be
00000350: 2136 9abb 84f3 cf3b 7550 c5be 6462 3cbd
00000360: 5594 be3e 6170 023e 2fbf c3bd 0571 c43d
00000370: 598c 1ebe 38d2 8dbc 86b7 2cbe c9cc c7be
00000380: 50ac 11be 866f 95bd 0dfb ebbe b7f1 03be
00000390: 23a5 adbe 6c68 13be 7fe2 c53d 1e48 923e
000003a0: 1c71 2ebf 6c0d a1bd 4d3a e4bd dde3 533e
000003b0: 3328 d63a a8a1 5abd a9d0 5cbe fd4b 34be
000003c0: 1573 04bd 0774 32be 8add fa3e 98c1 9a3d
000003d0: 92ff 15be 9e65 d3bd c10e d03d 4a48 b6be
000003e0: 517f 0ebd 8893 4bbe dcf9 403e 6af7 41be
000003f0: 2e1c 5dbe 5012 afbe 19a2 923e e358 013e
-0.17239873 0.4396899 0.08483706 -0.25763568 -0.018690072 0.16795082 -0.24196632 0.47343954
-0.22951205 -0.36901683 -0.25559872 0.028516505 0.1507379 -0.436606 -0.135619 -0.044394378
-0.045717936 -0.13724071 -0.2897226 -0.08540908 0.038266916 0.04168 0.31544706 0.21762818
0.16716845 -0.08719979 0.085709214 -0.25331035 -0.039726887 0.11229496 0.2737377 -0.22454348
-0.21295989 -0.32518157 -0.14158401 -0.2519802 -0.2400196 0.05193954 0.28612444 -0.08232797
-0.33861667 -0.2504583 -0.1811704 -0.088880375 0.0077438303 -0.48093227 -0.023176227 0.06061351
0.33144748 -0.4043321 0.40841883 0.017983468 -0.29425895 0.020837305 -0.24331026 0.02053743
-0.5204583 -0.46270084 -0.08625099 -0.08752782 -0.1430698 -0.079089716 -0.10712785 -0.23269267
0.3095644 0.62189376 0.05464928 -0.17801145 0.46018296 -0.54587096 -0.23769459 -0.24839546
-0.07463464 0.40075374 0.31651497 -0.12802154 -0.0043445737 -0.31998965 -0.49991864 -0.09621804
-0.04325231 -0.07151785 0.09377378 0.12816073 -0.33508477 0.072612934 -0.06356622 -0.43643293
-0.05596605 0.33389026 -0.16495721 -0.3505545 0.02682586 -0.4612952 -0.043408953 -0.21444319
0.3883033 0.12684405 0.09308817 0.18314852 -0.01679982 0.2781612 0.0850807 0.06985927
-0.25260666 -0.08090071 -0.026235126 0.14022107 -0.033632487 -0.17697152 -0.3717677 -0.4674136
0.3529419 0.05563221 -0.47468376 0.11646573 0.077473275 -0.07041698 -0.16764575 -0.115015686
0.1888144 -0.28542572 0.19735482 -0.02288332 0.5266499 -0.16347586 0.038734756 -0.12047335
-0.09057444 -0.06367261 0.03190903 -0.424698 -0.221882 -0.064248815 0.05938518 0.07969859
-0.078012384 0.27703184 -0.035044625 0.29999936 0.016726814 -0.5794646 -0.1458428 0.049714576
0.038019493 -0.2570472 -0.24413018 0.093951315 0.21400231 -0.1695676 0.34876364 0.45448923
-0.23476276 -0.10669515 -0.30877897 -0.22744346 -0.20898949 -0.17663412 -0.35868436 0.028322866
-0.19187652 0.2981405 0.013931939 -0.3003195 0.10888423 -0.05076296 -0.29166722 -0.027303793
-0.19392745 -0.15204257 0.0028599517 0.14978479 -0.0034136083 0.023529317 -0.14319986 -0.25035316
0.2187076 0.24715492 0.04334096 0.14448848 -0.0072208503 -0.24837026 -0.124754414 0.0985927
-0.40545794 -0.12012062 -0.33485824 -0.22834551 -0.07911201 0.13406599 -0.081127964 -0.08882305
-0.39053118 -0.10771559 -0.21427876 -0.1693242 0.010163741 -0.21976328 0.17430365 0.21627802
-0.22246875 0.025497654 0.10561809 0.260392 -0.24796581 0.2984106 -0.22265896 0.6564463
0.15113968 0.13111658 -0.18591747 -0.32224867 -0.0047061597 0.006346168 -0.38537946 -0.04599227
0.37222543 0.12738182 -0.0955795 0.09591869 -0.15483226 -0.017312154 -0.16866884 -0.39023426
-0.14225888 -0.07296662 -0.46089974 -0.12885176 -0.33915052 -0.14395303 0.09662341 0.28570646
-0.6814134 -0.07863888 -0.111439325 0.20692392 0.0016338885 -0.053376824 -0.21563973 -0.17607112
-0.032336313 -0.17427073 0.48997146 0.07556456 -0.14648274 -0.10322116 0.10159064 -0.35602027
-0.034789387 -0.19880497 0.18845314 -0.18942037 -0.21592781 -0.3419366 0.28639296 0.12631564

fcs1_bn.running_var f4 [400]
00000000: 083b a43f 8342 1b40 1217 8740 9efc 9c3f
00000010: e83f 0340 b05f 0b40 a9b2 0840 f2f3 473f
00000020: 1d87 e340 44c8 c23f bcd0 953f 9d8c 8a3f
00000030: 4d34 a83f 6e69 ce3f e6bb 263f 0232 903f
00000040: 749a 3c3f 5c30 4840 5bc3 8b40 4fdb 9f3f
00000050: 0986 7640 f10d cc3f e653 a03f aecc 433f
00000060: 8837 1640 e876 a540 61b7 263f ca60 6e3f
00000070: c405 2640 546d 7b3f 1a30 6040 5c2f 6840
00000080: 7a8d bd3f a406 ec3f eb43 1d40 00dd 583f
00000090: d5dd 8540 02f7 723f 5bfc 1340 2246 2b3f
000000a0: 09da e43f 93b6 c63f f910 ba40 0a82 0c40
000000b0: 3053 7940 5e9f 953f 2a0d e23f 825d 4e3f
000000c0: 7ab6 c840 e972 4040 9f12 c43f ce8d 2b40
000000d0: e9c1 bf3e 3276 973f e427 433f 31ce 2f40
000000e0: e3f4 0540 af84 ac3f 2ac9 693f 65ae ed3f
000000f0: bdfe a140 a77d 9c3f 7db6 1f3f f6cb 0640
00000100: dd10 3740 7520 9240 37a9 a440 11d3 c640
00000110: 4868 1640 0010 903f 43c4 d83f 0487 143f
00000120: 1157 8e3f 2af9 b63f 3695 4540 eb6b 0240
00000130: 2908 ab3f 2f0c a640 7875 bc3f 571e 653f
00000140: 12a4 0941 8162 5e40 1a3f 8d3f cfe0 ac40
00000150: 4874 9b3f 3203 d13f 17f4 b840 8943 b63f
00000160: 1bdd 8040 a2cb 1540 a0ad 513f d8cc 9240
00000170: bcd6 7e3f b4ec 5940 4064 3a3f 1a18 6e40
00000180: c1c5 9440 ad8a fa3f 4156 f63f 7f8c 933f
00000190: 85f3 863f 288f 3a40 d23b cb3f 8744 8a3f
000001a0: d72b 8e3f 65fc 753f bc32 af3f 6c86 a93f
000001b0: bbe1 0140 681f 4b3f 284f e73f 8e6a d33f
000001c0: 7033 2a40 87b8 d93f 89eb 823f 6928 8c3f
000001d0: 79d3 0440 b923 323f 7391 3d3f 703b 863f
000001e0: 27c8 b640 1aec 1d40 693c ff3f 4dd4 833f
000001f0: 7032 e93f 580d 8d3f dbcb 413f 2c81 2540
00000200: 5a04 ea3f 770d 3640 9c61 2e40 3532 003f
00000210: 99df 0f40 8f33 833f 2b04 8e40 76dd 1840
00000220: 16ed 6e3f 7acf ca3f b5e7 4240 e077 e93f
00000230: 5bd4 ad40 1019 c73f 429b ee3f 44e4 5a40
00000240: dc55 2d40 7aae ff3f cf92 f93f 2d4d f93f
00000250: e817 e83f febb 8040 d8ca ab3f 9adc bb3f
00000260: e5f8 3440 cba3 a940 fecc b33f 0ba1 a53f
00000270: e474 5f3f 8c99 3641 dfc1 1940 ed7b 0740
00000280: ff5d 1140 e2fd b93f 9013 8c40 affa 1240
00000290: 2eab 9440 d27f 283f 60a9 3440 c771 ce3f
000002a0: 167b e73f c5a6 b43f 1694 cd3f 44ba c33f
000002b0: 9c5c 473f b5f0 3e40 b3d4 e53f c91a 4540
000002c0: c0bb 0540 7677 ba3f c6a0 1a40 5272 2340
000002d0: 7ec3 ff3f 472b 6a3f 7138 493f 56f3 5940
000002e0: 0133 653f 656c d03f 2e68 1540 3931 763f
000002f0: 9271 f43f 3c82 8f3f be87 9b40 cda2 ad40
00000300: 893b 8d40 7cbf 8a40 e136 643f 9150 b83f
00000310: 7422 6840 f16b 2041 dc7e 393f 718b 0240
00000320: be66 6840 52e6 5d40 29a3 b23f e992 9440
00000330: 17a1 a83f 7435 7f3f f92f 2340 59b8 373f
00000340: 1bc5 6740 7c85 0b40 115a 583f 07b6 3d3f
00000350: d601 e43f 4662 8d3f 1dd3 ae3f 9756 423f
00000360: da18 5d40 14e4 6d40 cf9b 8140 f03c 2240
00000370: 2256 d23f d355 843f 019a 2d40 6ffb fa40
00000380: 7bbc 303f 55d0 b140 e49a a03f 7997 b240
00000390: b055 7a40 0fbf bc3f 8178 343f 7958 2440
000003a0: 3c67 7640 5e38 063f e7c2 553f ff73 913f
000003b0: 7be2 b53f 7c63 bb3f 6c29 a83f 9ed8 ae3f
000003c0: ac7b 2440 8f02 0a40 5b26 d03f ce60 0240
000003d0: 0964 b33f 8646 0340 e770 6040 1bb0 1040
000003e0: 07bd 9f40 8440 9c3f 3cfb 5140 de5c 1640
000003f0: 2d39 263f e3ec 3940 dca8 f53f f4dd 813f
1.2830515 2.4259346 4.221566 1.2264593 2.0507755 2.1777153 2.1359046 0.78106606
7.1102433 1.5217366 1.1704326 1.0824162 1.3140961 1.6125925 0.6513046 1.1265261
0.73673177 3.1279516 4.367597 1.2488803 3.8519309 1.5941755 1.2525604 0.7648419
2.3471394 5.170765 0.65123564 0.9311644 2.594102 0.98213696 3.502936 3.6278906
1.48088 1.8439527 2.4572704 0.8471222 4.183329 0.94908154 2.3122776 0.6690389
1.7879039 1.5524467 5.814572 2.195437 3.8957024 1.168926 1.7660267 0.8061143
6.272275 3.0070136 1.5318183 2.68053 0.3745263 1.1832945 0.76232743 2.74696
2.0930717 1.3477992 0.91322577 1.8568846 5.062346 1.2225846 0.6238783 2.1061988
2.8604043 4.566462 5.145656 6.213265 2.3501148 1.1254883 1.6934894 0.5801852
1.112032 1.4294789 3.087232 2.0378368 1.3361865 5.1889873 1.4723349 0.8949942
8.602556 3.4747622 1.1034882 5.4024425 1.2144861 1.63291 5.779796 1.423936
4.0269904 2.3405538 0.81905556 4.5875053 0.9954641 3.4050722 0.7280922 3.720221
4.64914 1.957357 1.9245073 1.1527251 1.0543066 2.9149876 1.5877631 1.0802163
1.1107129 0.9608825 1.3687358 1.3244147 2.0294025 0.793448 1.8071032 1.6516893
2.6593895 1.7009438 1.022813 1.0949832 2.0754073 0.6958576 0.7405006 1.0486889
5.7119327 2.4675355 1.9940311 1.0299164 1.8218517 1.1019697 0.75701684 2.586009
1.8282578 2.8445718 2.7247076 0.5007661 2.2480223 1.025011 4.438009 2.388517
0.93330514 1.5844567 3.0453923 1.8239708 5.4321723 1.5554523 1.8641131 3.4201822
2.7083654 1.9975121 1.9497927 1.9476677 1.8132296 4.0229483 1.3421278 1.4676697
2.8276913 5.3012443 1.4046934 1.2939771 0.87287736 11.412487 2.402458 2.1169388
2.271362 1.4530604 4.377388 2.2965505 4.645896 0.6582004 2.8228378 1.6128472
1.8084438 1.4113394 1.6060817 1.5291219 0.77875686 2.9834416 1.7955536 3.0797598
2.0895844 1.4567707 2.4160628 2.5538526 1.9981534 0.91472286 0.7860175 3.405477
0.8953095 1.6283079 2.3344836 0.9616886 1.9097159 1.1211619 4.86032 5.426123
4.4135175 4.3358746 0.8914624 1.4399587 3.6271029 10.026353 0.724592 2.0397608
3.631271 3.4671826 1.3956043 4.6429334 1.3174161 0.9969094 2.549803 0.7176567
3.6214054 2.1800222 0.8451243 0.74105877 1.781306 1.1045616 1.3658177 0.75913376
3.4546418 3.7170458 4.0502696 2.5349693 1.6432536 1.0338691 2.7125247 7.8431926
0.690376 5.556681 1.2547269 5.5809903 3.91148 1.4745806 0.70496374 2.5679
3.850051 0.5242976 0.8350052 1.1363524 1.4209741 1.4639735 1.3137641 1.3659856
2.5700483 2.1564062 1.6261705 2.0371585 1.4014903 2.0511794 3.506891 2.2607486
4.9918246 1.2207189 3.2809591 2.3494182 0.64930993 2.9050834 1.9192157 1.014586

fc2.weight f4 [300, 404]
00000000: 64de 8d3c f0b6 34bd d042 0abc 52c5 24bd
00000010: ab4a 5ebd 38ca 19bc 3329 03bc 9db7 293c
00000020: d66a 44bd 14e1 c73c 4e1a 1c3d 0a77 223c
00000030: 07e0 d0bc a3a3 55bd 9bcf 933c c860 0bbd
00000040: 6ed9 15bc 3dbf 91bc a168 f5bc 07d7 49bd
00000050: fc34 65bd cf64 cabc 0e2a 463b 78f5 9cbc
00000060: b78b 9bbd 6ed9 2c3d e33e 643c 0439 ab3c
00000070: fd27 27bc 3025 cf3c e0e7 a8bc ea6c 82bd
00000080: bec1 233d 77aa 10bd 9af7 5ebd b8c3 9c3c
00000090: d3dd 5ebd 372f 3dbd 6f3c 393c 83c9 45bc
000000a0: b29e 6bbd d617 ddbc de10 d4bc a369 0fbd
000000b0: a7b6 523d 30f8 18bd b62a 13bd a0a9 43bd
000000c0: 9321 2a3d 18a6 a43c 3040 26bc 0545 3fbd
000000d0: d670 a4bc ccb4 00bd 731b 4f3c 65e4 11bc
000000e0: f21f 613b 4839 a5bc 7685 45bd aeb9 dd3b
000000f0: 7e9c 3abc f86d a93b 48f2 873c cd31 4abc
00000100: bd81 b1bb 17df e33b c7ac c03c d742 ec3c
00000110: 866f e7bc b139 aa3b 5fc9 13bd 4f2c c3bc
00000120: b472 0bbd 37f3 75bc 09d0 483d 4993 95bd
00000130: a54a cdbc b233 9a3c 0f81 78bc 1584 9db9
00000140: 9d9f 293d c8db e23c a65a a93c d365 923a
00000150: c7f0 37bd 5729 3fbd ea0d 033d dc64 423d
00000160: 4c5d 74bd fce2 c93c 66df 1e3d dc9e 763d
00000170: 55e0 ce3a ad2b db3c 0c5f 0d3c e0fc d83a
00000180: dc09 043d fa93 283d 5138 ef3c 3ac9 a4bc
00000190: 8d65 acbc 2a58 2abd ef08 c63c c460 01bd
000001a0: 6f0e 11bd 0200 fdbc 4601 883c 9e46 2b3c
000001b0: a902 0cbd 7ff9 32bb d78a 673d 2b7e 81bc
000001c0: 9a47 993c 6ecf e43c 4651 15bd bafe 183d
000001d0: 33f3 2fbd aaf8 93bc 8b33 213d 80f7 71bd
000001e0: b283 263c 3cc8 083d e385 a33c 3b5d 25bc
000001f0: 2964 a3bc 9ad5 83bc df45 90bc 3243 25bc
00000200: 8f42 3fbd ec2c e53c 53d9 20bd 55ca fc3b
00000210: eea0 db3c 4530 a43c b9ac d93c 5c55 75bd
00000220: f960 3b3d 38cb 80bc 54de 053b 8973 17bb
00000230: 5af8 22bd 5629 e4bb c4b1 bdbc 76b8 6c3c
00000240: 126e 023d ef25 dd3c d658 48bb 1294 093c
00000250: 2fa9 30bd 7b04 38bd a69f c33c c2d5 d13b
00000260: 5e6f 0fbd 10b1 233b 2cb2 b03c a068 54bd
00000270: 46e8 4d3d bddd 283d cdbc 8abd 41e7 fe3b
00000280: 18e2 3dbd b0f3 3abd 517f 533d e7a3 14bd
00000290: ecbf 35bd 464c c7bc b93e 703c 3088 84bc
000002a0: f001 31bc 9404 7cbd 7f4f 27bc 7996 36bd
000002b0: 6fe9 ccba 2e44 c43c 9fda 78bd aff3 febc
000002c0: 5c1b 6cbc 09a0 71bd 83e7 073d 3e6c 893c
000002d0: 19b3 733d 98cf 51ba 37ab 80bb 30f3 b53c
000002e0: a4e7 2c3d 95b8 1a3d 1b06 3ebd 7e25 17bd
000002f0: aae6 09bd 2a92 f13b fe1a 763c 3290 3bbd
00000300: b840 ecbc 61bb 353d 5c63 65bd 59f5 133c
00000310: bec0 abbc 362d a73c abb4 333c 9ef4 033d
00000320: 11fe 52bd 07d5 713c 9d1c 67bd 4b84 253d
00000330: e30a 863c 7ac2 8fbc 3773 a0bc bb9d 2d3d
00000340: 71fe b13a 6085 eb3c ad3a 8dbb db3b cfbc
00000350: 6106 57ba a059 24bc 7649 793d 5c54 2dbd
00000360: 501c 01bc 32e7 913d 7e24 d4bc 425e 48bd
00000370: 47cc 9b3c db88 11bd 4f06 973d c3cd 01bc
00000380: 87e6 cb3c 41cb 96bc fe5f c3bc 5718 523c
00000390: 395b 62bd 9674 a73c e2e4 10bc 6001 84bd
000003a0: 8fea 243d e024 5e3d 8d30 273c fcf2 31bd
000003b0: ab9f a5bc 6ad2 44bd 6c8a 81bd 0ee4 283d
000003c0: 1dcc 99bd f5d8 203d 1db7 45bd 7147 233d
000003d0: f392 3ebd 2ccc 1d3c 4896 373d 1355 d43c
000003e0: 9d10 543d b5a9 2a3d b26c 8fbc b86c 883c
000003f0: e403 273d c8d0 c43c 25cf 74bc 8d62 f8bc
0.017317958 -0.044119775 -0.008438781 -0.04022724 -0.054270428 -0.009386592 -0.008005428 0.010358718
-0.04795345 0.024399318 0.038111024 0.009916076 -0.02549745 -0.05215801 0.01804333 -0.034027845
-0.009146078 -0.017791385 -0.029957118 -0.04927733 -0.055958733 -0.024706272 0.003023747 -0.019160017
-0.07595008 0.042199545 0.013931009 0.02090121 -0.010202405 0.025286287 -0.02061838 -0.0636843
0.03997969 -0.035318818 -0.05443535 0.019136295 -0.054410767 -0.046187606 0.011305912 -0.01207197
-0.05752439 -0.026988905 -0.02588695 -0.035012852 0.051443722 -0.037346065 -0.035929404 -0.04776919
0.041535925 0.02009873 -0.010147139 -0.04669668 -0.020073336 -0.03142242 0.012640822 -0.008904551
0.0034351316 -0.020168915 -0.04822298 0.0067665195 -0.01138985 0.00517058 0.01659502 -0.012340975
-0.0054170773 0.0069540846 0.023519887 0.028840465 -0.02825142 0.0051948656 -0.036080714 -0.023824839
-0.034044936 -0.0150116 0.049026523 -0.07303483 -0.025060007 0.018823478 -0.015167489 -0.00030043782
0.041411985 0.02769269 0.020673107 0.0011169262 -0.044907358 -0.046670284 0.03199569 0.04745947
-0.059659287 0.024644367 0.038787268 0.060210094 0.0015783409 0.026754225 0.008628618 0.0016554855
0.032235965 0.041156746 0.029201658 -0.020115484 -0.021044517 -0.041587986 0.024174182 -0.031586424
-0.035414156 -0.030883793 0.01660217 0.010453848 -0.034182224 -0.0027309356 0.056528892 -0.015807232
0.0187109 0.027930941 -0.03645446 0.0373523 -0.042956542 -0.018062908 0.039355796 -0.059073925
0.010163235 0.033394083 0.019961303 -0.010093029 -0.019945221 -0.016093064 -0.017611442 -0.010086821
-0.046694335 0.027975522 -0.039269757 0.0077145495 0.026810136 0.020042548 0.026571618 -0.05989586
0.045746777 -0.015721902 0.0020426707 -0.0023109636 -0.039787628 -0.0069629354 -0.023156054 0.014448276
0.031843252 0.026995627 -0.0030570528 0.008397119 -0.043130096 -0.044926148 0.023879837 0.0064036557
-0.035018317 0.0024977364 0.021569334 -0.05185759 0.05027034 0.04122709 -0.06774292 0.0077790325
-0.046358198 -0.045642555 0.05163509 -0.036289122 -0.044372484 -0.024328362 0.014663392 -0.01617822
-0.010803685 -0.061527804 -0.010211824 -0.044577096 -0.0015633533 0.023958292 -0.06075537 -0.031122057
-0.01441082 -0.058990512 0.03317977 0.016775247 0.059496973 -0.0008003651 -0.0039266604 0.022210687
0.042213097 0.037773687 -0.04639254 -0.03690099 -0.033667244 0.0073721604 0.015021084 -0.045791812
-0.028839454 0.04436815 -0.05600296 0.009030663 -0.02096593 0.0204073 0.010968368 0.032215707
-0.051511828 0.014760262 -0.056423772 0.040409368 0.016362613 -0.017548788 -0.019586189 0.04238675
0.0013579858 0.028750122 -0.004309973 -0.025297096 -0.00082025497 -0.010031134 0.060861073 -0.04231678
-0.007880285 0.07124175 -0.025896307 -0.048918016 0.019018305 -0.035530906 0.0737425 -0.007922593
0.024890197 -0.018407466 -0.023849484 0.012823186 -0.055262778 0.020441335 -0.008843632 -0.06445575
0.040262755 0.054234385 0.0102044465 -0.04344462 -0.020217737 -0.04805223 -0.0632523 0.041233115
-0.07509635 0.039269406 -0.048270334 0.039863054 -0.04652686 0.009631198 0.044821054 0.025919473
0.051773656 0.04166575 -0.017507885 0.016653404 0.040775195 0.024025336 -0.014941965 -0.03032043

fc2.bias f4 [300]
00000000: 61d5 a7b9 177c f4bc 6223 bd3c 9112 afbb
00000010: 2018 363c dc75 2f3d 3aaa 45bd 91aa 7c3c
00000020: 4f6c 00bd 41a6 ae3b 3e84 1cbd e4a9 3b3d
00000030: 7648 b5bc 71ce b0bc 5628 df3c 363a a53c
00000040: c10c df3b c536 353d 11d7 7a3c 9540 133d
00000050: 9307 473d f532 1b3d fc65 4e3c b2a9 083d
00000060: b015 cebb e40d 5abc 9042 1b3d 0a52 d5bc
00000070: 94a5 37bc 8c71 3cbd 01ed d9bc 517d fc3c
00000080: bb8e b0bc 8f2e f33c fe17 19bd f8d3 7d3c
00000090: ddae 053d d10d 493c 106b f43c fd00 1cbd
000000a0: fb73 093d eff6 053d c9e4 44bd 8bf4 993c
000000b0: ccfe 40bd a5fc 1f3d abce e73a 3b30 5dbc
000000c0: ad14 263d c02c 1fbd 8960 1b3d 9743 a33c
000000d0: 1352 25bd 9d95 ffbc c461 9cbc 761e 0f3d
000000e0: 6938 02bd b60c f1bc 77ac 153d f144 093d
000000f0: 9328 20bd c2bb ae3c d8d7 3abd 8036 19bd
00000100: b57b 263d 3de2 1abd 6bfe 843b a55a 113c
00000110: d697 07bb c4b2 b63c b9be e7bb bb6a 91bc
00000120: 1968 05bd 34c0 c53c 7b7f 2b3d 29bb 413c
00000130: f3ca f03b 2735 303d de04 ff3c cc91 edbc
00000140: c1f6 553b 8ff4 d3bc 53d2 90bc 9b7e a93a
00000150: 4517 34bd 93ac 2abd cf91 23bd 3f23 1bbd
00000160: 61aa c03c 6f99 813a d412 dcb8 a0c4 1c3c
00000170: d4ec 7d3b 9f66 433b 1c54 2a3d 336f 58bc
00000180: d876 e4bc 4d4b 48bd 4704 05bd fc26 31bd
00000190: e9c2 003d 7886 56bc 49df 98bc bde5 0b3d
000001a0: 2f05 18bd 0ff4 2439 055d 35bc a984 273d
000001b0: f586 c8bc ef81 213d 9514 acbc 220f a63a
000001c0: f68c 303c b2d7 40bc be79 683c 2f77 823c
000001d0: f92d 0f3c 1fee 443d 7250 b8bc c556 033d
000001e0: 8dd4 15bd 2aa9 ae3c 664c 1cbd b77e d2bc
000001f0: e4ae 3a3d a23c 42bd 1cc3 aabc 96e2 c33c
00000200: e77f 23bb f164 2cbc d08a 193d e05e 543c
00000210: aafd 243d 287d 24bd cac4 c2bc ec0e 113c
00000220: 7b7a cc3c d848 4a3d 9294 2e3d 809a 0c3d
00000230: 49a4 f7bc 14c5 983c c3eb 3e3c a628 24bd
00000240: 12c6 90bb f715 00bc 6f76 19bd d8f2 c3bb
00000250: 5daf 393d 2fac 1ebd 6ac0 373d 9d98 4cbc
00000260: 5b5d 37bd 3114 c2bc c41c 2c39 87dc 21bd
00000270: 9f17 d9bc fc33 923c e628 f63b be5f 02bd
00000280: f644 113d c4e4 db3c 22d3 44bd 3cc2 97bc
00000290: 3862 30bd 3efd 3ebd eef9 973b 1f9b 49bd
000002a0: 7b89 8b3c 7deb 3a3d 368d 9abc da02 3dbd
000002b0: 4b57 87bc 09c9 cfbc b194 fa3c 7a6b cabc
000002c0: e955 bdbc ecfc ff3c 9fd2 86bb c946 d73a
000002d0: 4883 03bd a7a9 1bbd 5c3b 2bbc 277c dcbb
000002e0: 2c33 2d3c ee48 6cbc c6f0 853c 1038 123d
000002f0: 26c5 453d 759b 123c a434 e63a 706f 4abc
00000300: ae59 c23c b50b 243c a24e b6bb 2ff4 043d
00000310: 88ae 9f3a 21f2 463b 3278 1cbd ff7c a53b
00000320: 0178 2bbc 4c50 9a3c 30cd 40bc 77b8 883b
00000330: d0a9 4a3d 5dfe b3bc 31ce f93c d360 ca3c
00000340: eb25 383b 6e21 283d 3276 87bc dc23 1ebd
00000350: cf6e 28bd 4940 2c3d 241e 8dbc 9acd 07bd
00000360: 8013 98bc 4f36 a4bc 493b 85bc 6e3e 2ebd
00000370: 042c d83c 4d9b 813b ba17 173d 2f15 343d
00000380: 71e9 9e3c bd79 703c 2614 d0bb 6c90 9c3c
00000390: d96f 9b3b 5bac 703c 726e 23bd 3702 60bb
000003a0: ec27 64bc c1e2 b4bc 27dc c0bb 2d16 0ebd
000003b0: aa44 ba3c 8f58 c7bc c2dc f5bc a730 483c
000003c0: 7794 983b 8d71 fb3c 88af ff3c 51ff 1a3d
000003d0: e464 2d3c 7a01 d33c 87cf 343c 025a 9e3c
000003e0: ef9e 803c 2b71 21bb d8c3 15bd f2e0 3dbc
000003f0: 8ae1 d13b 20ce ffbb 0da1 05bd 0c0f e13b
-0.00032011702 -0.029844327 0.02308816 -0.0053427895 0.01111415 0.04283701 -0.048258044 0.015421526
-0.03135329 0.0053298776 -0.038212053 0.045816317 -0.022129279 -0.021582814 0.027240913 0.020169359
0.0068069403 0.044241685 0.015310065 0.035950262 0.048591208 0.037890393 0.012597557 0.03336496
-0.0062892064 -0.013308976 0.037905276 -0.026040096 -0.0112089105 -0.046006724 -0.02660227 0.030821474
-0.021552434 0.029685287 -0.037376396 0.015492432 0.032637466 0.0122713605 0.029836208 -0.03808688
0.033557873 0.032706197 -0.04806975 0.018793365 -0.047117993 0.0390593 0.0017685493 -0.013500269
0.04054706 -0.038861036 0.03793386 0.01992969 -0.040361475 -0.03119927 -0.019089587 0.03494116
-0.03179208 -0.029425006 0.03654143 0.033513013 -0.039101195 0.021329764 -0.045616 -0.03740549
0.04064532 -0.037813414 0.0040586493 0.008871709 -0.0020689867 0.022302039 -0.0070722965 -0.017751088
-0.03256998 0.024139501 0.04186962 0.011824408 0.007348412 0.04301944 0.03113025 -0.029000185
0.0032648297 -0.02587345 -0.017678415 0.0012931408 -0.043967504 -0.041668486 -0.039933976 -0.03787541
0.023518743 0.0009887646 -0.000104939245 0.009568363 0.0038745897 0.0029815806 0.04158412 -0.013210106
-0.0278887 -0.048899937 -0.032474782 -0.04325007 0.03143588 -0.013093583 -0.018661158 0.034154642
-0.03711432 0.00015731178 -0.011069541 0.040898 -0.024478415 0.039430555 -0.021005908 0.0012669305
0.010775795 -0.011770176 0.014189182 0.015925972 0.008738988 0.048078652 -0.022499297 0.03206517
-0.036579657 0.021320898 -0.038158797 -0.025695188 0.045576945 -0.047421105 -0.020844989 0.023911756
-0.0024948062 -0.010522113 0.037485898 0.012962073 0.040280975 -0.04015842 -0.023775477 0.008853655
0.024960747 0.049385875 0.042622156 0.03432703 -0.030229704 0.018648662 0.01165289 -0.040077828
-0.004418143 -0.007817737 -0.037466463 -0.005979877 0.045333255 -0.038738426 0.044861235 -0.012487558
-0.044766765 -0.023691269 0.00016413914 -0.039516952 -0.026500521 0.017847054 0.0075121997 -0.031829588
0.035466157 0.026842482 -0.048052914 -0.018525235 -0.04306242 -0.04662823 0.0046379482 -0.0492202
0.01703333 0.045634735 -0.018866163 -0.046145298 -0.016521117 -0.025364416 0.03058848 -0.024709452
-0.023112254 0.031248532 -0.0041144635 0.0016424294 -0.03210762 -0.03800359 -0.010451164 -0.0067286673
0.010571282 -0.014421685 0.016350161 0.035697997 0.04828372 0.008948197 0.0017563296 -0.01235567
0.023724403 0.010012557 -0.005563573 0.032459434 0.0012182752 0.0030356722 -0.038200565 0.005050301
-0.010465623 0.018837117 -0.0117676705 0.0041723805 0.049478352 -0.021971876 0.030493828 0.024704373
0.0028098773 0.041047506 -0.016535852 -0.038608417 -0.0411213 0.042053495 -0.017226286 -0.03315506
-0.018563986 -0.020045428 -0.01626362 -0.042540006 0.026388176 0.003955281 0.03688786 0.043965515
0.019398423 0.014677462 -0.006350058 0.019111834 0.004743558 0.01468953 -0.03990025 -0.0034181008
-0.013925534 -0.022080781 -0.005885619 -0.034689117 0.02273782 -0.02433422 -0.030012492 0.012218631
0.0046563703 0.030693794 0.03121163 0.037841145 0.010583136 0.02575754 0.0110358065 0.019330028
0.015700785 -0.0024634104 -0.036563724 -0.011589276 0.00640506 -0.0078065544 -0.032624293 0.006868249
