agent_checkpoints/checkpoint_actor.pth (torch_old, 553585 bytes, 14 tensors)

fc1.weight f4 [400, 33]
00000000: 3b79 bd3c dd12 1b3d 04eb 673d 10ca 87bd
00000010: 4d6f d8bc f808 acbd 19a6 50bd 086f 0c3e
00000020: 951c 29be f40e a33d 2e7a ed3d e468 3a3d
00000030: cc16 b43d 9849 993c 190a 373e a9ca 593e
00000040: 3649 b2bc d6e4 683b 0ddb 7bbd e9be 52bd
00000050: ffb6 d83d 2580 90bd 961f 6d3c c337 873d
00000060: b8a1 5fbd b1c0 0bbd c11a 33be 98d8 4dbd
00000070: c59f 39be d899 d53b 66cf 8d3c d4cb 6d3c
00000080: 5c3a 3fbe 7579 c43d 9810 6bbd f320 e83d
00000090: 79d2 03bd 05e6 5abc 3c3d 52bd 9037 4f39
000000a0: 20d5 73bd 38e8 04bd 0bcf 1fbe 381e efbd
000000b0: c3ec 7ebd 3c6c 07bd d128 73bd 7c86 103e
000000c0: f8ea 2abe 671f d63c bae7 79bc 6ae9 9ebc
000000d0: 6e70 583c f426 9a3c 2344 ec3c 4264 ce3b
000000e0: 8523 03bc 1af8 973d 9071 22be e5f1 263e
000000f0: 0d44 633e d8c6 693d b367 b7bc 958f 10be
00000100: 186f 3cbd 65bd 86be 8342 05be 56d5 ed3d
00000110: 511c 48bd de5d 7a3a 3b87 52bd c064 523c
00000120: fb25 293d 96c7 15bd 46cb 0abe 8d37 213b
00000130: 59f1 983d 67cc 673d 1894 d2bc 7e77 003d
00000140: 42a8 8abd 3853 a23d bc6e b4ba bfbe ddbb
00000150: af15 c53c 2edb aa3c f8ed e43c f4a3 75bd
00000160: fb30 ec3c aeb4 27bd fe28 28bd f923 263d
00000170: 092e 3fbd f23f af3d 95c4 7cbd 52a9 ed3c
00000180: 2ae0 8abd d0f8 abbb d60e d03f 9b7b 3dbe
00000190: d3c3 063d d679 d43d 7166 a33c 35bb 203d
000001a0: 747b 083d 1d28 73bd 5e19 43bd 6231 653e
000001b0: b853 bb3d fbcf dc3c e93e c83c c203 2ebd
000001c0: 2dc3 80bd 2a64 4d3e b870 f0bd 94ca 89bb
000001d0: 16ae 7d3c d2a1 bdbc 1000 ee3c 75ba ca3d
000001e0: 8463 413d f073 0b3d a5a1 6abd 1a13 bf3d
000001f0: 1d92 183c cb54 0bbe b314 4b3e 1c41 213e
00000200: 5910 223d 8544 74be 3400 0dbc 97ac 57bf
00000210: 54ac c6bd 9d26 16bc 37c3 b93b 24c5 273d
00000220: 2124 57bc 8d21 5c3c 44e7 093d 6168 15bc
00000230: a669 1abd 37c6 a23d 1292 993d 6933 c23d
00000240: 7ce9 44bd 67e5 c0bd 6fe6 8dbc 4398 c4bd
00000250: 6fad 2b3c ac0d 38bd aa61 083d 05da cfbc
00000260: 1cd4 5c3d 976d 5e3c 71db 48bc df70 5f3d
00000270: f5de 84bb a6f1 9dbd 8b5f ba3c ba93 a13c
00000280: b010 89bd 1456 2c3c 8c42 6abd b9f5 2d3d
00000290: 4be3 4bbc 950a e03d c599 dfbc 6252 103c
000002a0: 3ac2 493b 4708 95bc f67f d0bb eead 5f3b
000002b0: db9d fa3b 40b3 063e b32b 23be e6d0 c6bd
000002c0: c074 b5bd 0048 95bd b61b d83d 3b8d 2e3e
000002d0: 3c1d 10be c507 ac3c 1bfa 583d c01f 31bd
000002e0: 066c be3c 7557 d6bd b53e f43d 8f11 02be
000002f0: dea3 9dbd 1e00 2a3e 7145 8ebc 5562 353d
00000300: 4599 3d3e b332 ca3b f068 c7bb 879e 27be
00000310: d3d3 323d c039 843d 6260 333d f298 ee3d
00000320: 5444 983d dec3 13bd 5fd8 3dbd 2bf7 48bd
00000330: ea8e 58b9 30b5 cc3c 99a1 fe3d 9a49 8fbd
00000340: 3b2b f73c a6f3 973d a8a1 573c 5fcb debc
00000350: 1009 7e3c 8631 91bd 8ecb 1abd 9dbb 383d
00000360: 06a3 1bbd 4b20 ccbc acca c7bc aa90 85bc
00000370: c421 ebbd 5d88 84bd a9e1 b9bd 7c7b 87bd
00000380: a38f 92be 4013 d6bd a1ba 4ebe d01a 77bb
00000390: 1c48 2b3e 0c46 35bc 3505 94bf 7dff 2d3d
000003a0: 326a 1abe f084 52be e70d 63bb c68d 95bd
000003b0: f648 723c 8614 0ebc 7ba9 26be 79ec 573e
000003c0: d72e e2bd 77d8 0fbc 47fe bfbd 3e64 15bd
000003d0: 9935 733d 1414 16bd 71d7 723d 3455 8abd
000003e0: dee6 5e3c 9bf3 653c f5fd 243d a96c 36bc
000003f0: 711b 803d f064 15bd 4560 d63c c724 b53c
0.023129096 0.037859786 0.056620613 -0.06630337 -0.02642026 -0.08400148 -0.050939653 0.1371423
-0.1651481 0.079618365 0.115955696 0.045510188 0.08793411 0.01871185 0.17874946 0.21268715
-0.021763425 0.0035536787 -0.0614882 -0.051451597 0.10581779 -0.07055692 0.014472863 0.066024326
-0.054597586 -0.03411931 -0.17490675 -0.050255388 -0.18127353 0.0065185837 0.01731081 0.014513928
-0.18674606 0.095934786 -0.057388872 0.113344096 -0.032183144 -0.013360505 -0.05132793 0.00019761757
-0.059529424 -0.032448024 -0.15606324 -0.11675686 -0.062237512 -0.033062205 -0.059365097 0.14113802
-0.16691196 0.02613802 -0.015253002 -0.01939841 0.013210399 0.018817402 0.028841084 0.0062985728
-0.008004074 0.074203685 -0.15863633 0.16303213 0.22193928 0.057074398 -0.022388315 -0.14117272
-0.046004385 -0.26316372 -0.13013653 0.11612956 -0.04885513 0.00095507305 -0.051398497 0.0128414035
0.041295987 -0.036567293 -0.13554105 0.0024599761 0.074679084 0.056591418 -0.025705382 0.031363957
-0.06770374 0.07926029 -0.0013765912 -0.0067671235 0.024058191 0.020856466 0.027945504 -0.05997081
0.02883195 -0.040943794 -0.04105472 0.04056165 -0.046674762 0.085571185 -0.061710913 0.029011402
-0.06781037 -0.0052481666 1.6254528 -0.18504183 0.032901596 0.10374801 0.019946309 0.039241035
0.03332086 -0.059364427 -0.047631614 0.2238212 0.091468275 0.026954642 0.02444406 -0.042484052
-0.06287227 0.20057741 -0.117402494 -0.0042050574 0.0154834 -0.023148451 0.029052764 0.09898845
0.047214046 0.034046113 -0.057283062 0.09329815 0.00931218 -0.13606565 0.19832115 0.15747494
0.03956637 -0.23854263 -0.008606005 -0.84247726 -0.09700838 -0.00916448 0.0056690234 0.040959492
-0.013131172 0.0134357335 0.033667818 -0.009119124 -0.03769841 0.07947963 0.07498564 0.09482462
-0.04807423 -0.09418755 -0.017321793 -0.09599354 0.0104783615 -0.044934914 0.033296265 -0.025372515
0.05391322 0.013575933 -0.01225935 0.054551 -0.004054899 -0.077121064 0.022750637 0.019723762
-0.06692636 0.0105185695 -0.05719237 0.042470668 -0.012444328 0.10939518 -0.027295003 0.008808704
0.0030785934 -0.018192424 -0.0063629104 0.003413077 0.0076482124 0.13154316 -0.15934639 -0.09707813
-0.08860159 -0.072891235 0.105521604 0.17046063 -0.14073652 0.020999799 0.052972894 -0.04324317
0.023244869 -0.104659 0.11926023 -0.1270201 -0.07697271 0.16601607 -0.017367097 0.04428323
0.18515499 0.0061705946 -0.0060855076 -0.16369067 0.043659043 0.064563274 0.04379309 0.11650266
0.074349076 -0.036075465 -0.046348926 -0.049063843 -0.00020652605 0.02498874 0.12433166 -0.0699646
0.030171981 0.07419519 0.0131611 -0.027196584 0.01550509 -0.07089524 -0.03779178 0.045100797
-0.03799727 -0.024917742 -0.024388634 -0.016304333 -0.1148105 -0.06471322 -0.090762444 -0.0661535
-0.2862521 -0.104528904 -0.20188381 -0.003770519 0.16726726 -0.011064064 -1.1564089 0.04247998
-0.15079573 -0.20558524 -0.0034645738 -0.07302432 0.014787903 -0.008671885 -0.16275589 0.21086301
-0.1104409 -0.008779637 -0.093746714 -0.03647255 0.059377287 -0.03664024 0.059287492 -0.067545325
0.013604848 0.014035131 0.040281255 -0.011134305 0.06255234 -0.036473215 0.026168952 0.022112263

fc1.bias f4 [400]
00000000: 75bb 48bd d382 7fbe dbca 063e 1d4c 51be
00000010: 3d17 2ebe f20e b4be 4c4f d439 b918 98bd
00000020: b6e8 2dbe cc03 2cbe c7d6 cd3d 8aa9 13be
00000030: 1e32 96bc 0caa 493d 33f0 13bf 14f5 26be
00000040: 62b7 97be 5f83 7bbe 7726 fcbd e59f cabe
00000050: 3844 dcbe b1ec 84be 4dfb a93d 26e0 ad3d
00000060: 2108 15be 9819 0ebf 3b81 04be b27e 143e
00000070: e14b 4d3e 7c03 843e 22ca 17bd c443 7f3e
00000080: d597 923e acc5 3cbe bd54 7f3e c539 b2bd
00000090: 3b81 51be fa5c e13e 8944 fb3d 7787 723d
000000a0: 315b 883c 34e4 8d3e ba54 6f3e d159 b93d
000000b0: 9699 cabb b420 06be 3a7a 863d 05bb 9e3e
000000c0: 5060 833d 85ac cfbc a5be 143e 2d0b 073e
000000d0: 5611 963e f082 c23e 9539 46be 5c4d 203e
000000e0: 65e4 a83d 1306 63be 92c8 32bd aac5 75bd
000000f0: 4f39 8cbe 42e1 0abe 8350 403e 147d cfbd
00000100: 36c4 fd3d 2cef 383c ff01 623e 19ed 8abe
00000110: 6f00 443d 406b 1f3e 2e06 c53d 155b 353e
00000120: 8ec4 833c 3665 80bc 81f5 953e c510 e6bc
00000130: 7520 acbc be36 30be 9798 573e c6d7 04be
00000140: 71a6 d5bc f086 71bc 33b8 18be e572 9d3d
00000150: 3a7d 3abc efb3 303e 8281 eebd 148c ba3d
00000160: a1e2 ea3d 08d7 3fbe cc3b 013e 2b8d 0dbe
00000170: 3f0a f33d 9ef0 99bd d563 c23d df49 a0be
00000180: 391b 063e ed95 5f3e 5203 07be fc2c 923e
00000190: c328 c2bd 6f6b 81bd 6fc6 81be e866 973b
000001a0: a5dc 18be e54e 073e 6037 943e 1a72 52b9
000001b0: d894 223d de73 9b3d a7cf acbd 5ce8 0fbe
000001c0: 687d a23c 085a 31bd 2213 743e 38b8 563e
000001d0: b213 08be 835e d43c bb24 e0be 4160 83be
000001e0: 9267 d2bd fc47 5ebd bf28 8abd 0cd0 9a3e
000001f0: 192a 96be 81a8 993e d59b 89bd c24e fdbd
00000200: 0bf9 f23d a993 963e b362 6bbe f922 8dbe
00000210: 43b8 703e ec5f 963e ee90 50be 751f 3e3e
00000220: 89e5 5bbe 41ed 923e fc5c 863e 1a65 5dbe
00000230: 735c 3d3e c338 a0be 006e 44be 68b2 b63e
00000240: d2c5 88be 379e 4e3d 3d6b ac3b 1580 03be
00000250: 5e36 6ebe 0f12 21be a18d b9bd 29b3 e43d
00000260: 9f4b 8bbd 18c6 4cbe 8871 1cbe e706 5ebe
00000270: 84f6 c43d f72f e73d fe62 ba3a 8111 e33c
00000280: 8c52 04be 7984 8d3c fb14 353c 9652 a7bc
00000290: b478 253e 9209 363e 4b62 c83d 4dd6 aa3e
000002a0: 0f3a 1dbe 6670 b03d 7ec2 803c 9828 bbbe
000002b0: 5acc 72be 95bc c1bd 20a7 a1bd 3719 823e
000002c0: c1e2 c9be 6c4d a2be 3683 cf3d 15ff d6bd
000002d0: cb8f 613e 0ff1 f6bc 7313 41bd dbf8 2ebe
000002e0: 5559 4e3d fe30 a5be 52ed b33d af5b c7bc
000002f0: f72a b03d f1a3 903e 8db6 55be ec5b 06be
00000300: 4a70 dbbd c4f5 203e 6db7 c7bd 148a 273c
00000310: 8074 74be 7aa2 963b dfb3 f53c bc4d 983d
00000320: baf7 8c3c 95b9 f8bd 2cbd b5be fafa 243c
00000330: 6292 e3bc 698a 2e3e 4d02 d93d fcd3 e2bc
00000340: 48ec 1a3d 61e2 733e c503 1dbe e213 923d
00000350: e9a4 09bf 80b0 b0bd 04f6 2e3e c237 1a3c
00000360: 1810 69bd 5273 0abe c7d5 f639 0673 aebd
00000370: 3ba1 e8be 3cdb 96be 9f12 61be 6175 7fbe
00000380: ba41 913e 7ca0 333d 9647 683e a45b 4c3e
00000390: 65d0 193e 328d 883d 6c75 e1bc 92a3 2ebd
000003a0: 4e78 223e 4887 99be 5aad 31be cba3 d43d
000003b0: 1470 6ebc 4b44 acbe 9fef 73be 042f f9bc
000003c0: 0060 503e 2f29 50be 1bae 223c 2b1e 073e
000003d0: 6b34 06bf f952 903d 09dd 6b3d 423f 5cbc
000003e0: 2350 3fbe a62c 47bc 1425 1dbe ea52 aabe
000003f0: 2916 e03c 27d0 e7bd bf54 193e 9614 e13d
-0.049006898 -0.24952249 0.1316332 -0.20439191 -0.17001052 -0.35167652 0.00040494872 -0.074265905
-0.16983303 -0.16798323 0.10050731 -0.14420143 -0.018334445 0.049234435 -0.5778839 -0.16304427
-0.29632097 -0.24561833 -0.12312024 -0.39575115 -0.43020797 -0.2596183 0.08299885 0.084900185
-0.14553882 -0.555078 -0.12939923 0.14501455 0.20048477 0.25783908 -0.037058003 0.24928194
0.28631464 -0.18434781 0.24934669 -0.08702425 -0.20459454 0.44016248 0.122689314 0.05921122
0.016645046 0.27713168 0.23372164 0.09050334 -0.0061828597 -0.13098413 0.065662816 0.3100206
0.064148545 -0.025350818 0.1452585 0.13187857 0.293101 0.37990522 -0.19357903 0.1565451
0.08246688 -0.22170286 -0.04364831 -0.06000296 -0.27387473 -0.13562492 0.18780713 -0.10131279
0.1239094 0.011287492 0.22071074 -0.27134016 0.047851976 0.15568256 0.09620319 0.17710526
0.016084936 -0.015673261 0.29288867 -0.028084168 -0.02101157 -0.17208382 0.21054302 -0.12972936
-0.026080342 -0.014741644 -0.14914016 0.0768793 -0.011382395 0.17256139 -0.116457954 0.09108749
0.11469007 -0.18734372 0.12620467 -0.13823383 0.11867189 -0.07516597 0.09491698 -0.3130636
0.13096322 0.21834536 -0.1318486 0.28549945 -0.09480431 -0.063193195 -0.25346705 0.0046204217
-0.14927919 0.1321369 0.28948498 -0.00020069667 0.03969273 0.07590459 -0.08438044 -0.14053482
0.019835189 -0.04329875 0.23835424 0.20968711 -0.13288763 0.025923973 -0.43778023 -0.25659373
-0.10273661 -0.05426787 -0.06746053 0.30236852 -0.29328993 0.3001137 -0.06719176 -0.123685375
0.118639074 0.2940953 -0.2298687 -0.27565745 0.2350779 0.29370058 -0.20367786 0.18566687
-0.2147428 0.28696635 0.26242816 -0.21620598 0.18492298 -0.31293306 -0.19182587 0.35682988
-0.26713425 0.050443854 0.0052618072 -0.12841828 -0.23262927 -0.15729545 -0.09060217 0.111669846
-0.06801533 -0.19997442 -0.15277684 -0.2168232 0.096173316 0.112884454 0.0014220176 0.027718307
-0.12922114 0.017275082 0.011052365 -0.020425122 0.16159326 0.17777088 0.09784373 0.33366624
-0.15354179 0.08615188 0.015717741 -0.36554408 -0.23710766 -0.09459797 -0.07893205 0.25409862
-0.39430812 -0.31699693 0.101324484 -0.10497872 0.22027509 -0.030144243 -0.04713769 -0.17087118
0.050378162 -0.3226394 0.087855 -0.02433571 0.08601945 0.28250077 -0.20870419 -0.13121003
-0.10714777 0.15718752 -0.097517826 0.0102257915 -0.23872566 0.0045970054 0.029992996 0.07436702
0.017207969 -0.12144772 -0.3549589 0.010069603 -0.027779762 0.17044987 0.10596142 -0.027688973
0.03782299 0.23816825 -0.15333469 0.071326986 -0.5376726 -0.08627415 0.17086035 0.009412708
-0.056900114 -0.13520554 0.00047080053 -0.08518033 -0.4543551 -0.29464138 -0.2197976 -0.2494712
0.28370458 0.04385422 0.22683558 0.19956833 0.15020902 0.06667556 -0.027521811 -0.04263646
0.15866205 -0.29986024 -0.17351285 0.103828035 -0.014553089 -0.33645853 -0.23821877 -0.030417927
0.20349121 -0.2032821 0.009929205 0.13195102 -0.52423733 0.07047076 0.057583842 -0.013442816
-0.18682913 -0.012156641 -0.15346175 -0.33266383 0.027354317 -0.11318999 0.14973734 0.109902546

fc1_bn.weight f4 [400]
00000000: 7e86 e83e 5112 613f 36f6 733f 87cc 5c3f
00000010: 6c61 d63e 8eb9 813e 88c3 643f a858 b53e
00000020: 317e 043f 0b30 763f b0b3 eb3e 7c64 5f3f
00000030: c8b6 593e 9ae1 013f 0d17 7f3f 7028 003f
00000040: b0d8 323e 8c28 1b3f 962c 833e cefc 453f
00000050: 1359 5d3f 4489 d23e 1223 4d3f 660a 693f
00000060: bc2b 593f c1d5 4b3f f0e1 083d 2832 b83d
00000070: 3385 663f e70c 303f 8027 dd3d 88d3 6d3f
00000080: a091 083f a047 483d 0c32 993e 08bd a03d
00000090: 003c a63e f4d4 e73e 0621 ea3e 7e30 dc3e
000000a0: f66b e63e a935 683f b550 593f f0f2 283d
000000b0: 3ae2 1d3f 148f 793e 58a0 cf3e f69c 9b3e
000000c0: 8831 7d3e 0486 6b3e 8033 b23b 163d 9e3e
000000d0: e465 ce3e d0f8 243d 0c7e 283f 3001 713e
000000e0: 2288 b63e bb71 333f a939 7b3f 3449 3d3f
000000f0: 6435 043e eba0 5c3f 460a e63e 9abe 2e3f
00000100: dc04 453e bec1 773f 881f 393e b562 503f
00000110: 4849 6b3f aa78 0c3f c731 633f 0d54 4c3f
00000120: 1063 d93e 1a2e 103f 53b0 023f 5e95 d63e
00000130: 3097 693d b95a 483f c033 b53c cbb4 2e3f
00000140: 6cdd a23e 731e 083f 7033 cb3e c4a0 5b3e
00000150: c6e7 9f3e 30e9 493d 58c2 4e3e 646e 423f
00000160: 93ab 693f 80ee cc3c 5e97 c53e b279 0b3f
00000170: 8817 633e fbbb 173f 92d8 e33e 2b25 153f
00000180: 4860 633e a0b1 8d3d d848 e53e 0536 573f
00000190: 1a56 6f3f 0f95 653f 9fc5 063f 0b80 603f
000001a0: 0478 973e b718 5d3f aad8 133f e033 f83d
000001b0: 9c09 ac3e 8cf2 713f 94c3 a13e 8063 bd3b
000001c0: 9695 7b3f 37e0 273f cf61 1c3f 68c7 8e3e
000001d0: 43d5 733f cf47 693f 5803 c33d e025 383f
000001e0: 8255 753f f89f f63d ffff 243f dc1e 933e
000001f0: 99f6 5a3f 6dda 573f 3be7 413f 0c2e bc3e
00000200: 8db3 673f dcd2 c23e cce6 543f f282 3c3f
00000210: c863 b53d e4e9 3c3e bc54 eb3e c85e b73d
00000220: 5cfa bd3e 814e 453f 37bb 733f 9ec0 eb3e
00000230: 66b3 c23e 40ce fb3d 6cda 263f db50 123f
00000240: 40a0 363f 58e1 9d3d 2440 063f 76da 8e3e
00000250: 7011 5f3e 2a9d 3f3f 586d b93d a803 4e3e
00000260: d340 5e3f 882c 313e 453b 563f c490 a23e
00000270: 88f4 213e 8277 ef3e 8003 453e 0093 213f
00000280: 3f16 5b3f 281b f83d 0882 253e fe88 d33e
00000290: 4536 043f 39d2 6e3f 798a 643f 30f3 6a3e
000002a0: 8184 533f 0713 4a3f 3899 ef3d a23b 4f3f
000002b0: 6c63 7b3f be12 c43e d87e 6e3f 4e72 793f
000002c0: b826 203f 33c4 023f 723b 6a3f df7d 583f
000002d0: 76cd 793f 54ac 373e d3a7 2b3f 1f22 4e3f
000002e0: 5cb7 323e 30c6 153f c4e8 693e f0fe 0e3e
000002f0: 3dbf 7d3f 18e7 c13d 2083 2d3d 2098 6a3f
00000300: 40b9 4b3f 65c5 1c3f 1491 5c3f c8df 033f
00000310: fa3a ae3e 5625 da3e c5f5 173f 00b5 b43c
00000320: 00d7 3d3d f8fa a33e 9987 0e3f 77bc 543f
00000330: 8c5f 873e e8f7 a03d 2011 513d aeb3 fb3e
00000340: 1491 3f3e 94bf c73e 8c9d 353e 35af 393f
00000350: 6492 aa3e 5034 1a3e fc6d 283f 8010 f63e
00000360: ade1 4f3f 5fea 063f 07f8 343f 50c2 2a3f
00000370: 8c99 613e 654a 663f 512d 173f 7c17 da3e
00000380: b71c 123f 509b 733f 9467 5e3f 7852 6c3f
00000390: 8cb4 5c3e 4661 c13e 1780 1c3f b02b dd3e
000003a0: 72ce cf3e 8a50 603f 545a 6d3e a874 8a3e
000003b0: 6963 123f b6b1 8a3e 5022 5d3e 284b cd3d
000003c0: 6f3d 563f a873 803e a4e4 df3e 1338 533f
000003d0: 4029 a83c 8ea8 fc3e 54cb 893e fcd6 0f3e
000003e0: 69fe 0f3f df61 273f ce09 533f 5dc1 7f3f
000003f0: b3ea 293f e658 fb3e 7c40 713e 420f b83e
0.4541511 0.87918574 0.95297563 0.86249584 0.41871202 0.2533688 0.89360857 0.35419202
0.5175505 0.9616706 0.46035528 0.872627 0.21261132 0.50734866 0.9964455 0.500617
0.17465472 0.60608745 0.25619954 0.77338874 0.8646404 0.4112035 0.8013164 0.9103149
0.8483236 0.7962304 0.033418596 0.089939415 0.90046996 0.6876969 0.1079855 0.92900896
0.53347206 0.048896432 0.29920995 0.07848555 0.3246765 0.45279658 0.4572832 0.43005747
0.45004243 0.9070688 0.84888774 0.04124731 0.6167332 0.24370986 0.4055202 0.3039319
0.24725926 0.23000342 0.005438268 0.3090598 0.4031211 0.04027635 0.6581733 0.23535609
0.35650736 0.70095414 0.9813486 0.73939824 0.12910992 0.8618304 0.44929713 0.68259585
0.19240135 0.9678 0.18078434 0.81400615 0.91908693 0.5487162 0.8874783 0.7981575
0.4245839 0.56320345 0.510503 0.41910833 0.05702895 0.7826343 0.022119403 0.6824462
0.31809556 0.5317146 0.3968768 0.21448046 0.31231517 0.04929465 0.20191324 0.7594969
0.91277426 0.02501607 0.38592046 0.5448257 0.22176945 0.5927121 0.44501168 0.5825984
0.22204697 0.06918645 0.44782138 0.840668 0.93490756 0.8968057 0.52645296 0.8769538
0.29583752 0.86365837 0.5775248 0.12119269 0.3360108 0.9451072 0.31594527 0.0057796836
0.98275125 0.655765 0.61086744 0.2788651 0.95247287 0.91125196 0.09522122 0.7193279
0.958336 0.1204223 0.6445312 0.2873448 0.8553253 0.84317666 0.75743455 0.3675388
0.9050835 0.38051498 0.8316467 0.73637307 0.088569224 0.18448597 0.45963085 0.08953625
0.37105072 0.7707291 0.9520754 0.46045393 0.38027495 0.122951984 0.65177035 0.57154626
0.7133827 0.077089965 0.5244162 0.27901047 0.21783996 0.7484919 0.09054059 0.20118582
0.86817664 0.17302144 0.8368419 0.31751072 0.15815938 0.46770865 0.19239616 0.6311493
0.8558082 0.12114555 0.16162884 0.41315454 0.5164531 0.93289524 0.8927379 0.22944331
0.8262406 0.78935283 0.11699146 0.8095037 0.9819858 0.3829555 0.931623 0.9744004
0.6255908 0.51080626 0.91496956 0.84567064 0.97579134 0.17936832 0.67052954 0.80520815
0.17452759 0.58505535 0.228427 0.13964438 0.9911993 0.09467906 0.04236138 0.91638374
0.79579544 0.612387 0.8615887 0.5151334 0.3402937 0.4260661 0.5935939 0.022058964
0.046347618 0.3202741 0.55675656 0.83100075 0.26440084 0.07859784 0.051041722 0.49160522
0.18707687 0.3901335 0.1773588 0.7253297 0.33314812 0.15059018 0.6579282 0.48059464
0.8120373 0.5270137 0.7069096 0.6670275 0.2203123 0.8995727 0.5905352 0.42596042
0.57075065 0.95158863 0.868768 0.9231334 0.21553248 0.37769526 0.6113295 0.43197393
0.40587193 0.8762289 0.23178989 0.27042127 0.5718294 0.27088708 0.2159512 0.100241005
0.8368749 0.2508824 0.43729126 0.8250744 0.020527482 0.49347347 0.2691294 0.14046854
0.56247574 0.65383714 0.82436836 0.99904424 0.6637375 0.49091262 0.23559755 0.3594914

fc1_bn.bias f4 [400]
00000000: 0000 0000 0000 0000 0000 0000 0000 0000
00000010: 0000 0000 0000 0000 0000 0000 0000 0000
00000020: 0000 0000 0000 0000 0000 0000 0000 0000
00000030: 0000 0000 0000 0000 0000 0000 0000 0000
00000040: 0000 0000 0000 0000 0000 0000 0000 0000
00000050: 0000 0000 0000 0000 0000 0000 0000 0000
00000060: 0000 0000 0000 0000 0000 0000 0000 0000
00000070: 0000 0000 0000 0000 0000 0000 0000 0000
00000080: 0000 0000 0000 0000 0000 0000 0000 0000
00000090: 0000 0000 0000 0000 0000 0000 0000 0000
000000a0: 0000 0000 0000 0000 0000 0000 0000 0000
000000b0: 0000 0000 0000 0000 0000 0000 0000 0000
000000c0: 0000 0000 0000 0000 0000 0000 0000 0000
000000d0: 0000 0000 0000 0000 0000 0000 0000 0000
000000e0: 0000 0000 0000 0000 0000 0000 0000 0000
000000f0: 0000 0000 0000 0000 0000 0000 0000 0000
00000100: 0000 0000 0000 0000 0000 0000 0000 0000
00000110: 0000 0000 0000 0000 0000 0000 0000 0000
00000120: 0000 0000 0000 0000 0000 0000 0000 0000
00000130: 0000 0000 0000 0000 0000 0000 0000 0000
00000140: 0000 0000 0000 0000 0000 0000 0000 0000
00000150: 0000 0000 0000 0000 0000 0000 0000 0000
00000160: 0000 0000 0000 0000 0000 0000 0000 0000
00000170: 0000 0000 0000 0000 0000 0000 0000 0000
00000180: 0000 0000 0000 0000 0000 0000 0000 0000
00000190: 0000 0000 0000 0000 0000 0000 0000 0000
000001a0: 0000 0000 0000 0000 0000 0000 0000 0000
000001b0: 0000 0000 0000 0000 0000 0000 0000 0000
000001c0: 0000 0000 0000 0000 0000 0000 0000 0000
000001d0: 0000 0000 0000 0000 0000 0000 0000 0000
000001e0: 0000 0000 0000 0000 0000 0000 0000 0000
000001f0: 0000 0000 0000 0000 0000 0000 0000 0000
00000200: 0000 0000 0000 0000 0000 0000 0000 0000
00000210: 0000 0000 0000 0000 0000 0000 0000 0000
00000220: 0000 0000 0000 0000 0000 0000 0000 0000
00000230: 0000 0000 0000 0000 0000 0000 0000 0000
00000240: 0000 0000 0000 0000 0000 0000 0000 0000
00000250: 0000 0000 0000 0000 0000 0000 0000 0000
00000260: 0000 0000 0000 0000 0000 0000 0000 0000
00000270: 0000 0000 0000 0000 0000 0000 0000 0000
00000280: 0000 0000 0000 0000 0000 0000 0000 0000
00000290: 0000 0000 0000 0000 0000 0000 0000 0000
000002a0: 0000 0000 0000 0000 0000 0000 0000 0000
000002b0: 0000 0000 0000 0000 0000 0000 0000 0000
000002c0: 0000 0000 0000 0000 0000 0000 0000 0000
000002d0: 0000 0000 0000 0000 0000 0000 0000 0000
000002e0: 0000 0000 0000 0000 0000 0000 0000 0000
000002f0: 0000 0000 0000 0000 0000 0000 0000 0000
00000300: 0000 0000 0000 0000 0000 0000 0000 0000
00000310: 0000 0000 0000 0000 0000 0000 0000 0000
00000320: 0000 0000 0000 0000 0000 0000 0000 0000
00000330: 0000 0000 0000 0000 0000 0000 0000 0000
00000340: 0000 0000 0000 0000 0000 0000 0000 0000
00000350: 0000 0000 0000 0000 0000 0000 0000 0000
00000360: 0000 0000 0000 0000 0000 0000 0000 0000
00000370: 0000 0000 0000 0000 0000 0000 0000 0000
00000380: 0000 0000 0000 0000 0000 0000 0000 0000
00000390: 0000 0000 0000 0000 0000 0000 0000 0000
000003a0: 0000 0000 0000 0000 0000 0000 0000 0000
000003b0: 0000 0000 0000 0000 0000 0000 0000 0000
000003c0: 0000 0000 0000 0000 0000 0000 0000 0000
000003d0: 0000 0000 0000 0000 0000 0000 0000 0000
000003e0: 0000 0000 0000 0000 0000 0000 0000 0000
000003f0: 0000 0000 0000 0000 0000 0000 0000 0000
0.0 0.0 0.0 0.0 0.0 0.0 0.0 0.0
0.0 0.0 0.0 0.0 0.0 0.0 0.0 0.0
0.0 0.0 0.0 0.0 0.0 0.0 0.0 0.0
0.0 0.0 0.0 0.0 0.0 0.0 0.0 0.0
0.0 0.0 0.0 0.0 0.0 0.0 0.0 0.0
0.0 0.0 0.0 0.0 0.0 0.0 0.0 0.0
0.0 0.0 0.0 0.0 0.0 0.0 0.0 0.0
0.0 0.0 0.0 0.0 0.0 0.0 0.0 0.0
0.0 0.0 0.0 0.0 0.0 0.0 0.0 0.0
0.0 0.0 0.0 0.0 0.0 0.0 0.0 0.0
0.0 0.0 0.0 0.0 0.0 0.0 0.0 0.0
0.0 0.0 0.0 0.0 0.0 0.0 0.0 0.0
0.0 0.0 0.0 0.0 0.0 0.0 0.0 0.0
0.0 0.0 0.0 0.0 0.0 0.0 0.0 0.0
0.0 0.0 0.0 0.0 0.0 0.0 0.0 0.0
0.0 0.0 0.0 0.0 0.0 0.0 0.0 0.0
0.0 0.0 0.0 0.0 0.0 0.0 0.0 0.0
0.0 0.0 0.0 0.0 0.0 0.0 0.0 0.0
0.0 0.0 0.0 0.0 0.0 0.0 0.0 0.0
0.0 0.0 0.0 0.0 0.0 0.0 0.0 0.0
0.0 0.0 0.0 0.0 0.0 0.0 0.0 0.0
0.0 0.0 0.0 0.0 0.0 0.0 0.0 0.0
0.0 0.0 0.0 0.0 0.0 0.0 0.0 0.0
0.0 0.0 0.0 0.0 0.0 0.0 0.0 0.0
0.0 0.0 0.0 0.0 0.0 0.0 0.0 0.0
0.0 0.0 0.0 0.0 0.0 0.0 0.0 0.0
0.0 0.0 0.0 0.0 0.0 0.0 0.0 0.0
0.0 0.0 0.0 0.0 0.0 0.0 0.0 0.0
0.0 0.0 0.0 0.0 0.0 0.0 0.0 0.0
0.0 0.0 0.0 0.0 0.0 0.0 0.0 0.0
0.0 0.0 0.0 0.0 0.0 0.0 0.0 0.0
0.0 0.0 0.0 0.0 0.0 0.0 0.0 0.0

fc1_bn.running_mean f4 [400]
00000000: 0000 0000 0000 0000 0000 0000 0000 0000
00000010: 0000 0000 0000 0000 0000 0000 0000 0000
00000020: 0000 0000 0000 0000 0000 0000 0000 0000
00000030: 0000 0000 0000 0000 0000 0000 0000 0000
00000040: 0000 0000 0000 0000 0000 0000 0000 0000
00000050: 0000 0000 0000 0000 0000 0000 0000 0000
00000060: 0000 0000 0000 0000 0000 0000 0000 0000
00000070: 0000 0000 0000 0000 0000 0000 0000 0000
00000080: 0000 0000 0000 0000 0000 0000 0000 0000
00000090: 0000 0000 0000 0000 0000 0000 0000 0000
000000a0: 0000 0000 0000 0000 0000 0000 0000 0000
000000b0: 0000 0000 0000 0000 0000 0000 0000 0000
000000c0: 0000 0000 0000 0000 0000 0000 0000 0000
000000d0: 0000 0000 0000 0000 0000 0000 0000 0000
000000e0: 0000 0000 0000 0000 0000 0000 0000 0000
000000f0: 0000 0000 0000 0000 0000 0000 0000 0000
00000100: 0000 0000 0000 0000 0000 0000 0000 0000
00000110: 0000 0000 0000 0000 0000 0000 0000 0000
00000120: 0000 0000 0000 0000 0000 0000 0000 0000
00000130: 0000 0000 0000 0000 0000 0000 0000 0000
00000140: 0000 0000 0000 0000 0000 0000 0000 0000
00000150: 0000 0000 0000 0000 0000 0000 0000 0000
00000160: 0000 0000 0000 0000 0000 0000 0000 0000
00000170: 0000 0000 0000 0000 0000 0000 0000 0000
00000180: 0000 0000 0000 0000 0000 0000 0000 0000
00000190: 0000 0000 0000 0000 0000 0000 0000 0000
000001a0: 0000 0000 0000 0000 0000 0000 0000 0000
000001b0: 0000 0000 0000 0000 0000 0000 0000 0000
000001c0: 0000 0000 0000 0000 0000 0000 0000 0000
000001d0: 0000 0000 0000 0000 0000 0000 0000 0000
000001e0: 0000 0000 0000 0000 0000 0000 0000 0000
000001f0: 0000 0000 0000 0000 0000 0000 0000 0000
00000200: 0000 0000 0000 0000 0000 0000 0000 0000
00000210: 0000 0000 0000 0000 0000 0000 0000 0000
00000220: 0000 0000 0000 0000 0000 0000 0000 0000
00000230: 0000 0000 0000 0000 0000 0000 0000 0000
00000240: 0000 0000 0000 0000 0000 0000 0000 0000
00000250: 0000 0000 0000 0000 0000 0000 0000 0000
00000260: 0000 0000 0000 0000 0000 0000 0000 0000
00000270: 0000 0000 0000 0000 0000 0000 0000 0000
00000280: 0000 0000 0000 0000 0000 0000 0000 0000
00000290: 0000 0000 0000 0000 0000 0000 0000 0000
000002a0: 0000 0000 0000 0000 0000 0000 0000 0000
000002b0: 0000 0000 0000 0000 0000 0000 0000 0000
000002c0: 0000 0000 0000 0000 0000 0000 0000 0000
000002d0: 0000 0000 0000 0000 0000 0000 0000 0000
000002e0: 0000 0000 0000 0000 0000 0000 0000 0000
000002f0: 0000 0000 0000 0000 0000 0000 0000 0000
00000300: 0000 0000 0000 0000 0000 0000 0000 0000
00000310: 0000 0000 0000 0000 0000 0000 0000 0000
00000320: 0000 0000 0000 0000 0000 0000 0000 0000
00000330: 0000 0000 0000 0000 0000 0000 0000 0000
00000340: 0000 0000 0000 0000 0000 0000 0000 0000
00000350: 0000 0000 0000 0000 0000 0000 0000 0000
00000360: 0000 0000 0000 0000 0000 0000 0000 0000
00000370: 0000 0000 0000 0000 0000 0000 0000 0000
00000380: 0000 0000 0000 0000 0000 0000 0000 0000
00000390: 0000 0000 0000 0000 0000 0000 0000 0000
000003a0: 0000 0000 0000 0000 0000 0000 0000 0000
000003b0: 0000 0000 0000 0000 0000 0000 0000 0000
000003c0: 0000 0000 0000 0000 0000 0000 0000 0000
000003d0: 0000 0000 0000 0000 0000 0000 0000 0000
000003e0: 0000 0000 0000 0000 0000 0000 0000 0000
000003f0: 0000 0000 0000 0000 0000 0000 0000 0000
0.0 0.0 0.0 0.0 0.0 0.0 0.0 0.0
0.0 0.0 0.0 0.0 0.0 0.0 0.0 0.0
0.0 0.0 0.0 0.0 0.0 0.0 0.0 0.0
0.0 0.0 0.0 0.0 0.0 0.0 0.0 0.0
0.0 0.0 0.0 0.0 0.0 0.0 0.0 0.0
0.0 0.0 0.0 0.0 0.0 0.0 0.0 0.0
0.0 0.0 0.0 0.0 0.0 0.0 0.0 0.0
0.0 0.0 0.0 0.0 0.0 0.0 0.0 0.0
0.0 0.0 0.0 0.0 0.0 0.0 0.0 0.0
0.0 0.0 0.0 0.0 0.0 0.0 0.0 0.0
0.0 0.0 0.0 0.0 0.0 0.0 0.0 0.0
0.0 0.0 0.0 0.0 0.0 0.0 0.0 0.0
0.0 0.0 0.0 0.0 0.0 0.0 0.0 0.0
0.0 0.0 0.0 0.0 0.0 0.0 0.0 0.0
0.0 0.0 0.0 0.0 0.0 0.0 0.0 0.0
0.0 0.0 0.0 0.0 0.0 0.0 0.0 0.0
0.0 0.0 0.0 0.0 0.0 0.0 0.0 0.0
0.0 0.0 0.0 0.0 0.0 0.0 0.0 0.0
0.0 0.0 0.0 0.0 0.0 0.0 0.0 0.0
0.0 0.0 0.0 0.0 0.0 0.0 0.0 0.0
0.0 0.0 0.0 0.0 0.0 0.0 0.0 0.0
0.0 0.0 0.0 0.0 0.0 0.0 0.0 0.0
0.0 0.0 0.0 0.0 0.0 0.0 0.0 0.0
0.0 0.0 0.0 0.0 0.0 0.0 0.0 0.0
0.0 0.0 0.0 0.0 0.0 0.0 0.0 0.0
0.0 0.0 0.0 0.0 0.0 0.0 0.0 0.0
0.0 0.0 0.0 0.0 0.0 0.0 0.0 0.0
0.0 0.0 0.0 0.0 0.0 0.0 0.0 0.0
0.0 0.0 0.0 0.0 0.0 0.0 0.0 0.0
0.0 0.0 0.0 0.0 0.0 0.0 0.0 0.0
0.0 0.0 0.0 0.0 0.0 0.0 0.0 0.0
0.0 0.0 0.0 0.0 0.0 0.0 0.0 0.0

fc1_bn.running_var f4 [400]
00000000: 0000 803f 0000 803f 0000 803f 0000 803f
00000010: 0000 803f 0000 803f 0000 803f 0000 803f
00000020: 0000 803f 0000 803f 0000 803f 0000 803f
00000030: 0000 803f 0000 803f 0000 803f 0000 803f
00000040: 0000 803f 0000 803f 0000 803f 0000 803f
00000050: 0000 803f 0000 803f 0000 803f 0000 803f
00000060: 0000 803f 0000 803f 0000 803f 0000 803f
00000070: 0000 803f 0000 803f 0000 803f 0000 803f
00000080: 0000 803f 0000 803f 0000 803f 0000 803f
00000090: 0000 803f 0000 803f 0000 803f 0000 803f
000000a0: 0000 803f 0000 803f 0000 803f 0000 803f
000000b0: 0000 803f 0000 803f 0000 803f 0000 803f
000000c0: 0000 803f 0000 803f 0000 803f 0000 803f
000000d0: 0000 803f 0000 803f 0000 803f 0000 803f
000000e0: 0000 803f 0000 803f 0000 803f 0000 803f
000000f0: 0000 803f 0000 803f 0000 803f 0000 803f
00000100: 0000 803f 0000 803f 0000 803f 0000 803f
00000110: 0000 803f 0000 803f 0000 803f 0000 803f
00000120: 0000 803f 0000 803f 0000 803f 0000 803f
00000130: 0000 803f 0000 803f 0000 803f 0000 803f
00000140: 0000 803f 0000 803f 0000 803f 0000 803f
00000150: 0000 803f 0000 803f 0000 803f 0000 803f
00000160: 0000 803f 0000 803f 0000 803f 0000 803f
00000170: 0000 803f 0000 803f 0000 803f 0000 803f
00000180: 0000 803f 0000 803f 0000 803f 0000 803f
00000190: 0000 803f 0000 803f 0000 803f 0000 803f
000001a0: 0000 803f 0000 803f 0000 803f 0000 803f
000001b0: 0000 803f 0000 803f 0000 803f 0000 803f
000001c0: 0000 803f 0000 803f 0000 803f 0000 803f
000001d0: 0000 803f 0000 803f 0000 803f 0000 803f
000001e0: 0000 803f 0000 803f 0000 803f 0000 803f
000001f0: 0000 803f 0000 803f 0000 803f 0000 803f
00000200: 0000 803f 0000 803f 0000 803f 0000 803f
00000210: 0000 803f 0000 803f 0000 803f 0000 803f
00000220: 0000 803f 0000 803f 0000 803f 0000 803f
00000230: 0000 803f 0000 803f 0000 803f 0000 803f
00000240: 0000 803f 0000 803f 0000 803f 0000 803f
00000250: 0000 803f 0000 803f 0000 803f 0000 803f
00000260: 0000 803f 0000 803f 0000 803f 0000 803f
00000270: 0000 803f 0000 803f 0000 803f 0000 803f
00000280: 0000 803f 0000 803f 0000 803f 0000 803f
00000290: 0000 803f 0000 803f 0000 803f 0000 803f
000002a0: 0000 803f 0000 803f 0000 803f 0000 803f
000002b0: 0000 803f 0000 803f 0000 803f 0000 803f
000002c0: 0000 803f 0000 803f 0000 803f 0000 803f
000002d0: 0000 803f 0000 803f 0000 803f 0000 803f
000002e0: 0000 803f 0000 803f 0000 803f 0000 803f
000002f0: 0000 803f 0000 803f 0000 803f 0000 803f
00000300: 0000 803f 0000 803f 0000 803f 0000 803f
00000310: 0000 803f 0000 803f 0000 803f 0000 803f
00000320: 0000 803f 0000 803f 0000 803f 0000 803f
00000330: 0000 803f 0000 803f 0000 803f 0000 803f
00000340: 0000 803f 0000 803f 0000 803f 0000 803f
00000350: 0000 803f 0000 803f 0000 803f 0000 803f
00000360: 0000 803f 0000 803f 0000 803f 0000 803f
00000370: 0000 803f 0000 803f 0000 803f 0000 803f
00000380: 0000 803f 0000 803f 0000 803f 0000 803f
00000390: 0000 803f 0000 803f 0000 803f 0000 803f
000003a0: 0000 803f 0000 803f 0000 803f 0000 803f
000003b0: 0000 803f 0000 803f 0000 803f 0000 803f
000003c0: 0000 803f 0000 803f 0000 803f 0000 803f
000003d0: 0000 803f 0000 803f 0000 803f 0000 803f
000003e0: 0000 803f 0000 803f 0000 803f 0000 803f
000003f0: 0000 803f 0000 803f 0000 803f 0000 803f
1.0 1.0 1.0 1.0 1.0 1.0 1.0 1.0
1.0 1.0 1.0 1.0 1.0 1.0 1.0 1.0
1.0 1.0 1.0 1.0 1.0 1.0 1.0 1.0
1.0 1.0 1.0 1.0 1.0 1.0 1.0 1.0
1.0 1.0 1.0 1.0 1.0 1.0 1.0 1.0
1.0 1.0 1.0 1.0 1.0 1.0 1.0 1.0
1.0 1.0 1.0 1.0 1.0 1.0 1.0 1.0
1.0 1.0 1.0 1.0 1.0 1.0 1.0 1.0
1.0 1.0 1.0 1.0 1.0 1.0 1.0 1.0
1.0 1.0 1.0 1.0 1.0 1.0 1.0 1.0
1.0 1.0 1.0 1.0 1.0 1.0 1.0 1.0
1.0 1.0 1.0 1.0 1.0 1.0 1.0 1.0
1.0 1.0 1.0 1.0 1.0 1.0 1.0 1.0
1.0 1.0 1.0 1.0 1.0 1.0 1.0 1.0
1.0 1.0 1.0 1.0 1.0 1.0 1.0 1.0
1.0 1.0 1.0 1.0 1.0 1.0 1.0 1.0
1.0 1.0 1.0 1.0 1.0 1.0 1.0 1.0
1.0 1.0 1.0 1.0 1.0 1.0 1.0 1.0
1.0 1.0 1.0 1.0 1.0 1.0 1.0 1.0
1.0 1.0 1.0 1.0 1.0 1.0 1.0 1.0
1.0 1.0 1.0 1.0 1.0 1.0 1.0 1.0
1.0 1.0 1.0 1.0 1.0 1.0 1.0 1.0
1.0 1.0 1.0 1.0 1.0 1.0 1.0 1.0
1.0 1.0 1.0 1.0 1.0 1.0 1.0 1.0
1.0 1.0 1.0 1.0 1.0 1.0 1.0 1.0
1.0 1.0 1.0 1.0 1.0 1.0 1.0 1.0
1.0 1.0 1.0 1.0 1.0 1.0 1.0 1.0
1.0 1.0 1.0 1.0 1.0 1.0 1.0 1.0
1.0 1.0 1.0 1.0 1.0 1.0 1.0 1.0
1.0 1.0 1.0 1.0 1.0 1.0 1.0 1.0
1.0 1.0 1.0 1.0 1.0 1.0 1.0 1.0
1.0 1.0 1.0 1.0 1.0 1.0 1.0 1.0

fc2.weight f4 [300, 400]
00000000: 7fe6 88bc 8f55 7b3c 10e4 353e a99a 023e
00000010: 2800 c0bd c826 b4bd 1d8f 9cbd 4a81 9e3d
00000020: 5c74 20bd 4fa7 953c ca88 acbd 4e81 f53d
00000030: 1b3f e3bd 346b f63d e447 2d3e b331 f13c
00000040: 87ce 963d efe2 c73d 3f8d 7e3d cdd3 00bb
00000050: 2314 bf3c bbc5 1dbe c749 b73d ab24 9cbd
00000060: 9165 06bd b426 213e 0781 503d d3e5 c33d
00000070: 0034 6c3d c5a2 c5bd f24b 623e fe3f d93a
00000080: b0a4 14be 242b e53c 75b3 dfbc e05b 2b3e
00000090: ddf5 363e b112 233c 3a15 51bb a761 98bd
000000a0: fda3 39bd 773c 613d 958a c9bd cd8a 613e
000000b0: 5d50 323e 9ac2 cd3d 21c5 d5bd 9faa ccbd
000000c0: 1f49 1b3c 2724 bc3d e06e 0ebd d6a5 00bd
000000d0: 7eba ffbd a8d7 c3bd d2d3 f93d 5d81 6dbc
000000e0: 9507 c73c 0028 0a3d a51a 1cbe d963 febd
000000f0: e28e bf3d 2414 ed3d 001d 083e df88 983c
00000100: 8932 49bd 4483 52be 6f4b 2ebe d5fe f7bc
00000110: 9394 393c 3ae7 aabe 8d3f 863d 64ef 11bd
00000120: dcce 353e 6670 693a d789 763e 5f3d 0d3e
00000130: 332c 513e 32fd 133d 64b0 9fbc 5b97 903d
00000140: f91b 7fbd 2f30 b63d 4413 28bd ad11 163e
00000150: c2bf b83d 18c4 30be 0b42 4a3d 0595 0a3e
00000160: cdd2 45bb 9c36 693d 8827 14be aa4e 0dbe
00000170: a355 30bd ecb2 26be a691 28be 01d6 55bd
00000180: 077d cf3d 6d41 0f3d f1be 75bd 9044 71bd
00000190: cd7e e73c 467b 57be 870b 52bb f15e 8c3d
000001a0: 58d4 83bb bdba 9bbb f4ea 193e 853d 2ebe
000001b0: 3ed0 8a3d 0c39 34bd 1249 58bb 76ed 88bd
000001c0: a16d 57be ccf0 ab3c adce 413c 84f9 36bd
000001d0: 0303 e3bc a1bd 3ebe 0c23 433d 3010 d93b
000001e0: cd5c fd3b 130b 8b3e 8a1d 173e fcd5 5cbd
000001f0: f853 673d db90 3c3e 78c5 69be 3712 bc3c
00000200: e3dd 63bc 9f5a 823c 4c5c 8ebd b785 1d3e
00000210: 18c3 033e 9084 f0bd 574b fabb 5a3f 2cbd
00000220: 4359 7bbd 1e5b 59be 2ef3 123e c556 bfbc
00000230: 8d4d 85bd da08 563d 3c2f e53d ce03 293d
00000240: 8255 033d e02e 01be e9c5 e03d 8ea8 3dbd
00000250: 06bf c93c 1e6c 21bd 3227 8cbc 027c 2abe
00000260: ea6c 8d3d 4ccb 043e bae3 07bd 0916 acbc
00000270: 4656 17be 75a6 4bbe 5de1 5abc 74db 3dbe
00000280: ff95 b43c d631 eb3d f936 0b3e a096 8cbb
00000290: 9683 0b3d 0730 d3bd 59b2 a1bd 877a 03be
000002a0: 7ff3 753d 47f6 6e3e 550d eb3c a41b b03d
000002b0: 5816 f73d b3b6 103e b67e 743b 0235 13be
000002c0: 80bf 843e 3cbf c13e fd8b db3d d2b1 683d
000002d0: 1c30 7dbe 1c75 253c 9c8c 19be be23 763c
000002e0: 0f53 2bbe 656b 033d be59 87be 6b06 5abb
000002f0: babc c33d b5b5 2ebd d018 753e 1b99 103e
00000300: e952 f5bc a1f3 743d a5b0 403c 9f31 89be
00000310: b5d6 323d 2080 bbbd b449 4abd 388f 34be
00000320: e2ec 25bd 5995 75bd bfb4 2dbb 10ce 43bd
00000330: 2c41 0dbe 5105 dc3d be74 ecbb 357a 93bc
00000340: c383 4e3d 0792 13bc 868f fd3c 00cd 1e3e
00000350: 608b 9d3d 3bef 273d 3496 90bd 6abd 1c3e
00000360: c5ee 1bbe 5bf6 673e f26a 9fbd 88f7 7039
00000370: bfdb 33bd 0b89 c73a 2489 84bd 605a 9c3a
00000380: e787 07be 6fe1 8c3e cb65 b03d 2d72 103e
00000390: 10cf 82bc a2d0 c0bd 54c4 dabc 5397 2c3e
000003a0: 9587 313d 5339 243e 18c5 b6bc 4a55 273c
000003b0: 9380 733d 720f 813d a6b1 d53d 975c 11bd
000003c0: cd20 d03b f2a7 bfbd bf49 31bd 65ab 1ebe
000003d0: 3e70 8a3b 7de7 d13c abe0 cf3d 19ff d03d
000003e0: 155d 8a3d bfbf c93d ed75 34bd 90a5 bebd
000003f0: 10be c1bd 95d3 923d 6bc5 633c b3b6 153d
-0.016711472 0.015340223 0.1776278 0.1275431 -0.0937503 -0.087964594 -0.07644484 0.07739504
-0.03917347 0.018268256 -0.08424528 0.119875535 -0.11096021 0.12032166 0.16921955 0.029442644
0.07363611 0.09760081 0.06214642 -0.0019657493 0.023325032 -0.1540746 0.08949619 -0.07624181
-0.032811705 0.1573742 0.0509043 0.0956532 0.05766678 -0.096501864 0.22099283 0.0016574857
-0.14515948 0.027974673 -0.027307251 0.16734266 0.17867227 0.009953187 -0.003190352 -0.07440501
-0.045322407 0.054989304 -0.098408855 0.22025605 0.17413469 0.10046883 -0.1043799 -0.09993481
0.009477883 0.09186583 -0.034773707 -0.031408153 -0.124867424 -0.095626175 0.12198605 -0.014496175
0.024295608 0.033729553 -0.15244539 -0.12421388 0.093534246 0.11576107 0.13292313 0.018619953
-0.04912046 -0.20557886 -0.17020963 -0.03027288 0.011326927 -0.33379537 0.0655509 -0.03562869
0.17754692 0.00089049933 0.24076019 0.13792942 0.20427017 0.036130138 -0.01949329 0.07060119
-0.062282536 0.08895909 -0.041033998 0.1465518 0.0902095 -0.17262304 0.04937939 0.13533409
-0.0030185462 0.056936845 -0.14468205 -0.13799539 -0.04305042 -0.16279191 -0.1646181 -0.052206043
0.10131269 0.034974504 -0.05999655 -0.058903277 0.028258706 -0.21043119 -0.0032050328 0.06854046
-0.004023116 -0.0047524855 0.15031034 -0.17015655 0.06778 -0.043999717 -0.0033002538 -0.06685917
-0.21037914 0.020988844 0.0118290605 -0.04467155 -0.027711397 -0.18627025 0.047640845 0.006624244
0.00773201 0.27156886 0.14757362 -0.05391501 0.056476563 0.18414633 -0.22829235 0.022957904
-0.013907882 0.015912352 -0.06951198 0.1538304 0.12867391 -0.11744034 -0.0076383757 -0.042052604
-0.061364423 -0.21226165 0.14350578 -0.023356805 -0.06508932 0.052254535 0.1119065 0.041263394
0.03206397 -0.12615538 0.10975248 -0.046303324 0.02462722 -0.03940975 -0.017108534 -0.16648868
0.06905539 0.12968177 -0.03317616 -0.0210066 -0.14779004 -0.19887717 -0.013359395 -0.18540746
0.02204418 0.11484115 0.13595189 -0.004290417 0.034061037 -0.10311895 -0.07895345 -0.12839709
0.06004667 0.23336135 0.02869288 0.08599022 0.120648086 0.14132194 0.003730697 -0.1437569
0.25927353 0.37841213 0.1072006 0.056810208 -0.24725384 0.010098722 -0.14995044 0.01502317
-0.16730903 0.03208484 -0.26435655 -0.0033267986 0.09557481 -0.042653758 0.23935246 0.14120905
-0.029946761 0.059802655 0.011760865 -0.2679567 0.04366179 -0.09155297 -0.049386695 -0.17632759
-0.040509112 -0.059956882 -0.0026505438 -0.04780394 -0.13794392 0.107432015 -0.007216065 -0.018002609
0.050418627 -0.009006984 0.030952226 0.15507889 0.07692599 0.040999632 -0.07059899 0.1530663
-0.15227802 0.22652571 -0.0778407 0.00022980396 -0.043910738 0.0015223337 -0.0647147 0.0011928789
-0.13235436 0.27515742 0.086131655 0.14106055 -0.015967876 -0.094147936 -0.026704945 0.168546
0.04334219 0.16037492 -0.022310778 0.010213206 0.05944879 0.06301774 0.104342744 -0.03548869
0.0063515664 -0.09358205 -0.04328322 -0.1549507 0.004224806 0.025623078 0.10150274 0.10204906
0.06756035 0.09851026 -0.044057775 -0.09308922 -0.0946008 0.07169262 0.013902049 0.03655119

fc2.bias f4 [300]
00000000: ce77 7fbd 6b6b 313d b70b c53d 0b38 933d
00000010: 2aac 42be cf74 70be 3d7e ba3d b011 13be
00000020: 61e8 a8bd 4a93 e1bd 773f 9cbc 1981 b0bd
00000030: b320 34bc 2d5b 403c a017 ac3c 9bd2 f13c
00000040: e5ab c03d b49d 263d a716 16bb 48a5 37be
00000050: 2807 573c beea eebc 92b8 8fbc 5f71 513b
00000060: 01b6 183d 2335 593c dd65 efbd 2822 dbbd
00000070: a7a4 963d 9e98 693d 20e3 c83c f2bc 423c
00000080: 88a8 003c 2aad 9cbc 1587 d33d b443 c73d
00000090: 73a8 703c f78d d93b 6c2f e8bd ba63 c33d
000000a0: b2b6 07bb b078 01be fbb8 ad3d 23d0 d23c
000000b0: b125 993c 4b95 1f3d b0d6 e9bd 18c1 2abc
000000c0: 4dff 1e3c 9ea4 f03c 385d 503d af02 113c
000000d0: 0565 cbbd 17c7 8d3d 4d33 9a3d 2b58 063d
000000e0: 4ff9 0f3d 4cf9 83bd 31cf 7cbc 7dfe 193d
000000f0: 44ad d6bd e40e 64bc 650b bd3d d993 1fbc
00000100: aca5 85bc 0e63 f5bc 3962 b83d 28f9 2cbd
00000110: 155b e53d 3588 ccba 800b 95bb 3a35 383c
00000120: 9d5f a33c a77a 60bc 1027 e53c ec81 38be
00000130: c09f 993d f924 2bbd 9472 94bd 31e4 9c3d
00000140: b9b5 2fbe c0e8 c13c 4de7 80bc 2544 783c
00000150: 0f22 8f3d ded1 073d cab0 413d a161 03bd
00000160: 05b4 f33c ad45 773d 3d42 02bd c76f 103d
00000170: d1b5 e33c 69c1 df3c 0c65 273d 9f87 843d
00000180: 9fda f4bd 1282 103d f92c 913c 7342 f83d
00000190: 5212 1b3c 1307 2bbd 60d8 723d 15e9 ae3d
000001a0: 84fb 29bd a9c8 403c 0c76 ef3d 2be6 7dbe
000001b0: cc7b d2bd d97e ff3c a2f4 06be 96d9 c53d
000001c0: e30a 97bb c55a d83c d3ee 2fbe a792 a5bd
000001d0: 4166 54bc 1601 8a3a 68d5 f83a a73d 9d3d
000001e0: a59c 84be c6bd 75bc a892 f6bc 6cfb 233c
000001f0: 18f6 02bc d7f1 853d 00b7 0cbd 84a9 b13c
00000200: e588 c8bd 76e8 e53c aff1 663d 485f 7b3d
00000210: e051 8d3c f3ab ca3d eea7 36be b886 093d
00000220: eb08 213c 5e5c 3d3c 9bac e43d 7dba 09bd
00000230: 2a5b b6bd f9da 77bc b710 cdbd 2227 1b3d
00000240: 815c 87bc 44f3 653d b740 953c 7036 90bc
00000250: 1e41 0bbe a50b 0e3d 4279 9cbd dd28 c03d
00000260: 57aa 273c 06af bd3d b231 273d 0da5 d2bd
00000270: 0e28 4fbd 64a3 b53d d256 143c 5769 da3d
00000280: 4da6 05be 01cc 38be 4e1b a93d 70c1 9b3d
00000290: 97fd 97bd 86a7 06be b82e 22be 6bf6 423d
000002a0: 4481 1a3d cafb 7d3d 769c 28bd c1cc 8d3c
000002b0: 5def 5e3d 7985 ae3d 32ae 3ebd 6b37 c93d
000002c0: d93c 633d e6d3 423d 90cb adbd b30d cabd
000002d0: 3839 203d 2a4e d13d 053a 803d e3f3 d83c
000002e0: 713f cc3d 55b4 0fbd 9397 153b eada ae3d
000002f0: 684d 3dbd 92bd 3bbe 90d3 70bc fc84 1d3c
00000300: 2d4d e83d 7f77 8cbd 9adb 403d 8e5e 8e3b
00000310: dcb8 873d 05d4 23be a5ab 7c3d 86ce ecbd
00000320: cb7c d5bc 976b 783d ceba c0bb 01d0 9f3d
00000330: 9952 1c3d 8e78 4dbd ad53 e23b 50b8 b0bd
00000340: e002 6a3d 17fb 57be 9d31 3c3e 9a9a 1b3d
00000350: db9a 50bc df1b 853d cca3 80be c3fb 51bd
00000360: de60 7bbb 0f55 2dbd fa98 8f3d 0bca 93bd
00000370: af48 363c d75c 0dbb 0f8b 473d 666c d1bd
00000380: 3260 2fbd 6eb8 7d3d f327 823d 5abd 1bbe
00000390: 8d0e 543d 03ba f33c 8c74 143c 3f23 883c
000003a0: 24f7 443c ea4d 733d a84e e3bd 197f 303d
000003b0: 3c73 133d 9284 353d 77bd 31bd 565b 55be
000003c0: f5a9 3e3a 6872 0dbe ca9a d4bc ac0d 1e3e
000003d0: 3225 923d fc96 a23c 3b91 9a3d 9a0b 0cbe
000003e0: 6852 3d3c 40b7 973d 7c85 77bd 0376 30bd
000003f0: 3482 9ebd da3a 1dbe 78c8 463d 9e94 0ebe
-0.062370114 0.043315332 0.09621375 0.07188424 -0.19010988 -0.23482059 0.09106109 -0.14362216
-0.08247448 -0.11014421 -0.019073231 -0.086183734 -0.010994124 0.011740488 0.021007359 0.02951937
0.09407786 0.04067774 -0.0022901685 -0.17934144 0.013124265 -0.029164668 -0.017544065 0.0031958444
0.037282947 0.013257298 -0.11689351 -0.10699874 0.07355624 0.057030313 0.024522364 0.011885868
0.007852681 -0.01912554 0.10328499 0.0972971 0.014688599 0.006639238 -0.1133717 0.09540506
-0.002070826 -0.12643695 0.08482548 0.025734013 0.01869473 0.038960736 -0.114179015 -0.010422014
0.009704423 0.02937537 0.05087015 0.0088507375 -0.09931377 0.06922739 0.07529316 0.032798927
0.03514987 -0.06444034 -0.015430258 0.037596215 -0.104822665 -0.013919566 0.09230689 -0.0097398395
-0.01631435 -0.02995446 0.090031095 -0.0422298 0.11199013 -0.0015604558 -0.00454849 0.011243159
0.019943053 -0.013701118 0.027972728 -0.18018311 0.07501173 -0.041783307 -0.072484165 0.076607116
-0.17159165 0.023670554 -0.015735293 0.015152966 0.06988918 0.03315913 0.04728774 -0.032075528
0.029748926 0.060369182 -0.03180145 0.03526285 0.027796658 0.027313905 0.04086785 0.0647118
-0.11955761 0.035280295 0.01772164 0.12122049 0.009464817 -0.041754793 0.059288383 0.085405506
-0.04149963 0.011766591 0.116924375 -0.24794833 -0.10277519 0.031188415 -0.13179258 0.09660642
-0.004609452 0.02641047 -0.17180948 -0.08084612 -0.012963832 0.0010528888 0.0018984498 0.07677775
-0.2590076 -0.014998859 -0.030099228 0.010008674 -0.007993244 0.06540268 -0.03435421 0.021687277
-0.097917356 0.028064948 0.05638283 0.061370164 0.017250955 0.09896078 -0.17837498 0.033575743
0.009828786 0.011557667 0.111657344 -0.033625115 -0.08904107 -0.015127891 -0.10012954 0.037879117
-0.016523601 0.0561402 0.018219335 -0.017604083 -0.13599059 0.034679074 -0.076403156 0.09382794
0.010233483 0.09261899 0.040818878 -0.10285387 -0.05057531 0.08869055 0.009053903 0.10664623
-0.1305172 -0.18046571 0.08257161 0.07605255 -0.07421415 -0.13149843 -0.15838134 0.047598284
0.037720934 0.062007703 -0.041164838 0.017309548 0.054427493 0.08521552 -0.046552844 0.09825023
0.05547795 0.047565363 -0.08486092 -0.09865894 0.039117068 0.10219987 0.06261066 0.026483482
0.09973038 -0.035084087 0.002282594 0.08537848 -0.0462164 -0.18334034 -0.014698878 0.0096142255
0.11342845 -0.068587296 0.04708443 0.004344768 0.06627056 -0.15998848 0.06168713 -0.11562829
-0.026060482 0.06064948 -0.005881644 0.078033455 0.03816471 -0.050163798 0.0069069476 -0.08628905
0.057131648 -0.21091877 0.18378301 0.037989236 -0.012732233 0.064994566 -0.25124967 -0.05126549
-0.0038357298 -0.042317446 0.070116 -0.07216271 0.011125728 -0.002157023 0.0487166 -0.102257535
-0.04281635 0.061943464 0.06355276 -0.1520895 0.05177169 0.029751783 0.00906099 0.01661837
0.012021814 0.059400477 -0.11098987 0.04308996 0.035998568 0.044315882 -0.04339358 -0.20835623
0.00072732504 -0.13813174 -0.025952715 0.15434903 0.07136001 0.019847386 0.07547232 -0.136763
0.011555292 0.07407999 -0.060430035 -0.043081295 -0.07739678 -0.15354481 0.048531026 -0.1392388

fc2_bn.weight f4 [300]
00000000: b460 b13e 0e3f 4c3f 14bb 0f3f 8a5a 9d3e
00000010: 7df0 0e3f a490 973e 78dd 413e f291 773f
00000020: 8db5 153f 94f8 623f 45e0 633f fa19 8c3e
00000030: 30a8 db3d a06a eb3d 606b 3c3f fc9e 1e3e
00000040: 6340 123f 9c18 f83e 70dc 013e f2b2 0b3f
00000050: f4be ba3e d24a c93e 8095 903b 6eb4 903e
00000060: 00f4 ba3e d883 e03d 9055 7b3d a0d9 193e
00000070: 5ac5 ba3e 8065 5e3d ccda 2b3f ccd2 313e
00000080: 92bd 823e 7062 633e e290 2a3f 36f9 3d3f
00000090: f898 163f e4ea 3f3f fbca 253f 0e85 e43e
000000a0: a916 363f c038 813d 2c8a 143e 4d1b 7c3f
000000b0: a5c2 0c3f 5095 763d cc71 193f 2060 513d
000000c0: 8818 963e 742d c63e 58e6 423e e0c4 9c3c
000000d0: 6618 b93e 2a42 ec3e b859 593e c47e 093f
000000e0: 10af 193d e7ef 633f d015 c03e 633a 733f
000000f0: afd1 193f 6085 403d ee6b 763f 3fb8 513f
00000100: 9af7 b53e 7b67 403f 3caf 5f3e c010 2f3e
00000110: 443b 463e 39cb 4e3f a20b df3e f437 003f
00000120: 60c2 8d3d 2443 323f 3a94 183f 005d 8b3c
00000130: daaa 173f aa51 fa3e 3b90 243f c407 3b3e
00000140: 58b7 473e 2873 fe3e 5371 0f3f bdbb 553f
00000150: 0959 693f a19c 163f 788f f63e 7a46 e03e
00000160: c1f1 613f 9032 183d 653c 4a3f 9077 323e
00000170: 98d0 873e 708f 8e3e 60b7 0a3d 112d 1d3f
00000180: f29f 9c3e 8a9d cf3e fca7 153e 3d40 693f
00000190: 5079 a73e f00d 263e 5f9d 443f 3f5f 633f
000001a0: 32a1 c83e 20c6 103d 8921 463f 9e14 513f
000001b0: ba50 383f 0ff8 683f 2e27 5f3f f86c a93d
000001c0: 30e2 0e3e 8c39 3c3f d826 043f 9b72 433f
000001d0: 7e05 5b3f 88af de3e c0f0 043c ab3c 143f
000001e0: c63b 3b3f b1a8 393f bc98 fd3e 94f7 cd3e
000001f0: 88d5 633f 5169 4b3f 56fe 743f 70e4 4e3e
00000200: 2a11 9d3e f74c 3b3f cbe8 763f 528b 7d3f
00000210: 08fb bd3d 1223 2c3f 0d4d 223f 7cd7 553e
00000220: 689a e13e 75a8 273f 2c96 c23e 780f 573f
00000230: 8c09 d13e 50a7 ca3e e81d 1e3f 9007 a93e
00000240: e8ed 213e 3916 5a3f 2a6a 123f 483c ee3d
00000250: 174a 693f 92a1 4a3f 4c75 db3e e6da 923e
00000260: 5453 9d3e 6466 b13e 117d 6c3f e642 1b3f
00000270: 03e7 0e3f b260 913e b22d 773f 90f2 403d
00000280: d0bc 8a3d d676 853e e4a9 6a3f 1107 343f
00000290: 107e 3d3d 6819 913d a08e e13e 3452 5c3f
000002a0: f7d0 0b3f daaf 7f3f 281e a73d cdb5 2c3f
000002b0: 447c b23e ce0e 143f d837 d13e f43c 3e3e
000002c0: f01a aa3d 0414 1f3e 449a 493e b06c 2c3d
000002d0: 812c 173f d4b0 d63e 28dc fe3e feb8 ac3e
000002e0: 5030 ef3d 20e2 be3d fab7 a63e 1041 4c3d
000002f0: 4c9b 3e3f 2598 3f3f 6811 233e 5c95 203f
00000300: f419 233e da89 b73e 4618 b93e 6c1d 593e
00000310: c812 353f 33fe 1e3f a19f 153f 5f78 123f
00000320: 1064 0e3d 1d04 213f d7a5 573f cc5e 4f3e
00000330: 18b2 c93d ba15 f93e 263f 393f d13b 273f
00000340: 68ee 3e3f 44df f33e aa63 ef3e b082 563d
00000350: c095 7e3c d0a8 5a3d 7896 9f3d 49a5 073f
00000360: fed7 ba3e 243a 8f3e c084 b63d de32 653f
00000370: a8b3 fe3e d23f 3c3f 207f 133d 38bd 513e
00000380: dd9e 3d3f f04d 493f 78ee f53d aeb2 653f
00000390: 2aba 453f 618f 643f 745a 073e 809f cb3b
000003a0: c00a b43d 223f fa3e d186 213f 06a9 be3e
000003b0: 0a35 a83e e3a9 1d3f d4c6 393e cc9d 6b3e
000003c0: a0bb 133d 3f6d 133f a4e9 003e c9cb 203f
000003d0: 7c59 ed3e c00b 0c3e 1d90 6f3f 1e05 4a3f
000003e0: da30 693f 3001 763d 8406 1d3e d4b4 4d3e
000003f0: 193a 083f a609 343f 4018 283d f90e 2f3f
0.3464409 0.79783714 0.56144834 0.30733138 0.55835706 0.2960254 0.1893214 0.9670707
0.5848015 0.8866055 0.89014083 0.2736357 0.107254386 0.114949465 0.7360134 0.15490335
0.57129496 0.48456275 0.12681746 0.54569924 0.3647381 0.39314896 0.004412353 0.28262657
0.36514282 0.10962647 0.061360896 0.15024424 0.36478692 0.054296017 0.6713073 0.17365569
0.25535256 0.2220552 0.66627324 0.7420839 0.5882716 0.7496779 0.6476285 0.44632763
0.71128327 0.06309652 0.14505833 0.9847916 0.54984504 0.06020099 0.59939265 0.051117063
0.2931559 0.38706553 0.19033182 0.019136846 0.36151427 0.4614423 0.21225631 0.53709054
0.03752047 0.89037937 0.37516642 0.95010966 0.60085577 0.047002196 0.9625844 0.8192176
0.35540468 0.751579 0.2184419 0.17096233 0.19358546 0.80778843 0.43563563 0.5008538
0.0692184 0.696337 0.59601176 0.01701212 0.59245074 0.4889043 0.6428258 0.18264681
0.19503534 0.49697232 0.56032294 0.8348959 0.9115148 0.58832747 0.48156333 0.4380377
0.8825951 0.037157595 0.78998405 0.17428422 0.26526332 0.2784381 0.033866286 0.6139689
0.3059078 0.4054988 0.14614862 0.91113645 0.32709742 0.16216254 0.7680263 0.8881721
0.39185482 0.035345197 0.7739492 0.81672084 0.7199818 0.9100351 0.8716916 0.08272737
0.13953471 0.7352531 0.5162177 0.7634675 0.85555255 0.43493295 0.00811404 0.5790507
0.7313808 0.7252303 0.4953059 0.4022795 0.889977 0.79457575 0.95700586 0.2020433
0.30677158 0.73164314 0.96448964 0.9904071 0.09276396 0.67241013 0.6339882 0.20882982
0.44063115 0.6549142 0.38005197 0.8400798 0.40827596 0.39580774 0.61764383 0.33013582
0.1581341 0.8519016 0.57193244 0.116325915 0.9112868 0.79152787 0.42862928 0.2868263
0.30727637 0.3464843 0.92378336 0.60648954 0.55821246 0.28394085 0.965541 0.047106326
0.067742944 0.26067227 0.9166548 0.7032328 0.0462628 0.07084924 0.44054127 0.8606293
0.5461573 0.99877703 0.08160049 0.67464906 0.34860432 0.5783509 0.40862918 0.1857794
0.08305919 0.15534979 0.19687754 0.04209584 0.5905228 0.41931784 0.4977734 0.33734888
0.11679137 0.09320474 0.32562238 0.049866736 0.74455714 0.7484153 0.15924609 0.62727904
0.15927869 0.3584736 0.36151332 0.2120263 0.7073178 0.6210663 0.584467 0.5721492
0.034763396 0.628969 0.84237427 0.20251006 0.09848422 0.4864939 0.7236198 0.6532565
0.7458253 0.47631276 0.46755725 0.052370727 0.015538633 0.05338365 0.077923715 0.5298658
0.36492914 0.27974045 0.08912039 0.8953074 0.49746442 0.7353488 0.036009908 0.20482337
0.7407053 0.7863455 0.12008375 0.8972577 0.7723719 0.8928128 0.13218099 0.0062140822
0.08791113 0.48876292 0.6309634 0.3723833 0.32852966 0.6158735 0.18142253 0.23009413
0.036067605 0.5758857 0.12589127 0.6281095 0.46357334 0.13676357 0.93579274 0.7891406
0.91090167 0.060059726 0.15334517 0.20088512 0.5321365 0.7032722 0.04103875 0.6838222
