agent_checkpoints/checkpoint_actor_8.pth (torch_old, 553585 bytes, 14 tensors)

fc1.weight f4 [400, 33]
0	0x3c530140	0.012878716
1	0xbd82d1ad	-0.06387649
2	0x3ccb1026	0.024787974
3	0x3c78578a	0.01515759
4	0x3d04b6c4	0.03240086
5	0xbc767952	-0.015043573
6	0x3ca85976	0.02055047
7	0x3c2144ee	0.009843094
8	0xbd95741e	-0.07297538
9	0x3d366159	0.04452643
10	0xbd74a19f	-0.059724446
11	0xbbad6c9c	-0.0052924883
12	0xbd2e9f87	-0.042632606
13	0xbc971a43	-0.01844514
14	0xbd204ae1	-0.03913391
15	0xbce0f31c	-0.027459674
16	0x3d1b9a00	0.037988663
17	0xbb289757	-0.0025724971
18	0x3cd7f442	0.026361588
19	0x3d72466b	0.059149187
20	0xbc6094eb	-0.01370738
21	0x3c4ac3c3	0.012375775
22	0xbd4ae180	-0.04953146
23	0xbb590c05	-0.0033118736
24	0xbd610cb3	-0.05494375
25	0xbd439e01	-0.047758106
26	0xbd82ddc7	-0.06389957
27	0xbcf55295	-0.029946605
28	0x3d0478ba	0.032341696
29	0x3cefe156	0.029282253
30	0x3bd44fec	0.006479254
31	0x3d4af641	0.049551252
32	0x3c9de1f2	0.019272778
33	0x3c3c39c1	0.011488379
34	0xbd38caff	-0.045115467
35	0x3ccd009a	0.0250247
36	0x3c90229b	0.017594626
37	0x3c68f4f3	0.014218557
38	0x3aad0a66	0.0013201952
39	0x3d117ac8	0.035517484
40	0x3cd4f7ef	0.02599713
41	0xba8d5708	-0.0010783384
42	0x3d1eef3e	0.038802378
43	0x3cfdac4e	0.03096595
44	0xbcf972d4	-0.030450262
45	0xbd0e40d7	-0.034729805
46	0xbc89fc9a	-0.016844083
47	0xbd2a6ad4	-0.041605785
48	0x3d68cb5e	0.05683457
49	0xbd1b2db6	-0.03788539
50	0xbca620aa	-0.020279247
51	0xbcdb55df	-0.026774345
52	0x3d31b59f	0.043386098
53	0xbba68000	-0.0050811768
54	0x3c8c3cd5	0.01711885
55	0x3b86c2dd	0.004112585
56	0x3ce4a939	0.027912723
57	0x3cdb2823	0.026752537
58	0xbd8d5754	-0.06901422
59	0x3d6977f4	0.05699916
60	0xbbeeb705	-0.007285001
61	0x3b8a7ba5	0.0042261654
62	0x3c58b564	0.013226841
63	0x3c476c26	0.012171781
64	0xbd4b6d98	-0.049665064
65	0xbcebead3	-0.028798496
66	0x3cfc32f6	0.030786019
67	0xbc85d425	-0.01633651
68	0xbd28a981	-0.041177277
69	0x3ccb9817	0.024852796
70	0xbca0db68	-0.019635871
71	0xbca6d7cf	-0.020366577
72	0xbd853dc9	-0.06505925
73	0x3cc73328	0.024316385
74	0x3d152842	0.036415346
75	0xbc9809bf	-0.018559335
76	0xbd489894	-0.048973635
77	0xbbcef658	-0.0063159876
78	0x3d5efda4	0.05444111
79	0x3cd37a50	0.02581516
80	0x3d5a11ab	0.053239506
81	0xbc1608c1	-0.0091573605
82	0x3d05b4f7	0.032643285
83	0xbc427761	-0.011869282
84	0xbd4b8020	-0.049682736
85	0xbbfb0fd8	-0.007661801
86	0x3caecd39	0.021338092
87	0x3d06b877	0.032890763
88	0x3d3db693	0.046316694
89	0xbd625df2	-0.055265374
90	0x3d642e1a	0.05570803
91	0xbd035dab	-0.03207175
92	0x3cf4217c	0.029801123
93	0xbd669824	-0.056297436
94	0xbb0f8b60	-0.0021903142
95	0xbc9c1d77	-0.019057019
96	0x3cc8f500	0.024530888
97	0x3d4215e3	0.047384154
98	0x3ce94cb6	0.028478961
99	0xbd20620a	-0.039155997
100	0xbd74ef7f	-0.059798714
101	0x3cefbade	0.02926391
102	0x3d3dbf4e	0.04632502
103	0xbc52ed28	-0.012873925
104	0x3d4cc438	0.049991816
105	0xbd03e0ad	-0.03219669
106	0x3d3504c6	0.044194005
107	0x3cbaa8e4	0.022785611
108	0xbce9ce97	-0.028540893
109	0x38f9006e	0.00011873325
110	0x3c92eaa1	0.017934145
111	0xbd217777	-0.03942057
112	0xbd1f4cdf	-0.03889167
113	0xbd037fb2	-0.0321042
114	0xbd8cb963	-0.06871297
115	0x3d2376c8	0.0399082
116	0xbc301fec	-0.010749798
117	0x3d1dcc12	0.038524695
118	0x3cb2b08a	0.021812696
119	0x3cbf2c43	0.023336535
120	0xbc96efb7	-0.018424852
121	0x3c29bb91	0.010359661
122	0x3a05a796	0.00050985196
123	0x3d070630	0.032964885
124	0xbc1b7ef3	-0.009490716
125	0xbc76a737	-0.015054516
126	0xbc27cd7f	-0.010241865
127	0xbd0be336	-0.034152232
128	0x3a9b4b00	0.0011847913
129	0xbcf9d1b0	-0.030495495
130	0xbc5431e0	-0.012951344
131	0x3c8b5004	0.017005928
132	0x3dc5027b	0.09619614
133	0xbc9c0c82	-0.019048933
134	0xbd816daa	-0.06319745
135	0x3d14aadb	0.036295753
136	0x3d6739b4	0.056451514
137	0x3d6b3465	0.057423014
138	0x3d18fe62	0.037351973
139	0xbc1c77fa	-0.009550089
140	0xbc9e0dae	-0.019293632
141	0xbcd41e96	-0.02589349
142	0x3d1799a4	0.037011757
143	0x3ccfa996	0.02534942
144	0xba877614	-0.0010334873
145	0x3d9d2fb6	0.07675116
146	0xbc3a2655	-0.011361678
147	0xbd3d0e82	-0.046156414
148	0xbd137c5f	-0.03600728
149	0x3d0ef6d2	0.034903355
150	0xbc584f07	-0.013202435
151	0x39d56748	0.00040703476
152	0x3d119fe6	0.03555288
153	0x3cd93675	0.026515225
154	0x3ce11389	0.027475135
155	0xbd409733	-0.047019195
156	0x3cead6f8	0.028666958
157	0x3d10b7cd	0.035331536
158	0x3cfb0762	0.030643169
159	0xbcaf453a	-0.021395314
160	0xbc16030d	-0.009156001
161	0x3c069c28	0.0082159415
162	0x3d1586b3	0.036505412
163	0x3cab82b2	0.020936344
164	0xbcd57ba3	-0.026059931
165	0x3d06cf6b	0.032912653
166	0xbcfe4e2d	-0.031043136
167	0xbc1905e4	-0.009339783
168	0xbbf14dc5	-0.007364007
169	0xbcd84aea	-0.02640291
170	0x3d86ec7d	0.06588075
171	0xbd06f971	-0.03295273
172	0x3d74b51f	0.059743043
173	0x3d43dec5	0.04781987
174	0x3be69c7e	0.0070376983
175	0x3a10af18	0.0005519255
176	0x3d4459af	0.04793709
177	0x3d4dcc27	0.050243523
178	0x3da5bc1e	0.08092521
179	0xba5c1bb2	-0.0008396461
180	0xbda70d5b	-0.08156844
181	0xbc82b52c	-0.01595553
182	0x3d6f9935	0.05849572
183	0x3d67f779	0.056632493
184	0xbbc2d93a	-0.0059463056
185	0x3cdffed3	0.02734319
186	0x3ce9d262	0.028542701
187	0xbcbfbfb3	-0.023406839
188	0xbd3798fa	-0.044823624
189	0x3d10f63e	0.035391085
190	0x3ce0a0f5	0.0274205
191	0x3d758bcd	0.059947778
192	0xbc79f5d5	-0.015256365
193	0x3c235d6a	0.009971002
194	0x3bee6768	0.0072755106
195	0xbb7b5ed6	-0.0038356087
196	0x3d258b49	0.040416036
197	0x3c05e3e2	0.008172007
198	0x3ca4dcc2	0.020124797
199	0xbceb4be7	-0.028722716
200	0xbc2be92a	-0.010492602
201	0xbcae1f76	-0.021255236
202	0xbcad2218	-0.021134421
203	0x3cc424eb	0.023943385
204	0xbd2cbb6c	-0.042170927
205	0xbc8305ea	-0.015994031
206	0x3b7f6a0d	0.0038973123
207	0x3b04b6b5	0.0020250503
208	0x3d596ae6	0.053080462
209	0xbb2f8040	-0.0026779324
210	0xbc76a2ce	-0.015053464
211	0x3d9c5baf	0.07634675
212	0x3c97576d	0.018474305
213	0xbd094a46	-0.0335181
214	0x3b71d126	0.0036898344
215	0x3d311940	0.04323697
216	0xbbdd803d	-0.006759672
217	0xbbed100c	-0.007234579
218	0x3cb96c80	0.022634745
219	0x3cc22d58	0.023703262
220	0x3ca570c3	0.02019537
221	0x3ced3857	0.028957529
222	0xbce73f14	-0.02822832
223	0xbd4519f2	-0.048120447
224	0xbd876b3e	-0.06612252
225	0xbd2b8f86	-0.04188492
226	0x3d749ff1	0.059722845
227	0xbcad38da	-0.021145273
228	0x3d2d34ae	0.042286567
229	0xbd035652	-0.032064743
230	0xbc159d53	-0.009131747
231	0x3d48e170	0.04904312
232	0x3d2f9548	0.042866975
233	0xbd5101cf	-0.051027115
234	0x3cbac86c	0.022800647
235	0x3d2e39f5	0.04253574
236	0x3d8f6ad6	0.07002799
237	0xbc4a4300	-0.012345076
238	0x3d2d0a05	0.042245883
239	0x3cf6c22b	0.030121883
240	0x3c3168d8	0.010828219
241	0x3cd0d1f2	0.025490735
242	0x3d26b4dc	0.040699825
243	0x3d4b7c1d	0.04967891
244	0x3cf94014	0.030426063
245	0x3cd1e8e4	0.025623746
246	0xbc9fdce8	-0.019514516
247	0x3ce043f1	0.027376147
248	0xbcecf9ea	-0.028927762
249	0xbcc39dd9	-0.023878979
250	0x3c446960	0.011988014
251	0xbc8ae616	-0.016955417
252	0x3bbdffe6	0.0057983277
253	0x3cc17b3c	0.023618333
254	0x3cd213a7	0.025644137
255	0x3d1802f7	0.037112202

fc1.bias f4 [400]
0	0xbe19e69a	-0.15029374
1	0x3db6938f	0.08914863
2	0x3d66b344	0.056323305
3	0x3e1c3a0c	0.15256518
4	0xbd1d7c5f	-0.038448688
5	0xbe023ead	-0.12719221
6	0x3db6b27d	0.08920763
7	0x3e0b80ee	0.13623402
8	0xbd3110a4	-0.04322876
9	0x3e03605c	0.12829727
10	0x3e1d4591	0.15358569
11	0xbd8f1fcc	-0.06988487
12	0x3e040b90	0.12895036
13	0xbd508a9e	-0.050913446
14	0x3e42210b	0.18957917
15	0x3e12e2d6	0.14344344
16	0x3c75fa0e	0.015013231
17	0xbe11a8fc	-0.14224619
18	0x3db57ad7	0.088613205
19	0xbe1a225d	-0.15052171
20	0xbe0f631a	-0.14002648
21	0x3d3b6078	0.045746297
22	0xbdfdbe0c	-0.12389764
23	0xbd174c77	-0.036938157
24	0x3e3f8086	0.18701372
25	0x3ced1716	0.028941672
26	0x3d83020b	0.06396874
27	0xbe1a6f46	-0.1508151
28	0x3e153be8	0.14573634
29	0xbd8e3b74	-0.069449335
30	0xbdda3bce	-0.10655938
31	0xbe03d2c8	-0.12873375
32	0xbda09c3d	-0.078423
33	0xbe0ec369	-0.1394173
34	0x3d900233	0.070316695
35	0xbd32ebd6	-0.043681942
36	0x3dc46eaa	0.0959142
37	0x3e0cab8c	0.13737315
38	0x3e19b8a6	0.15011844
39	0x3e45d3aa	0.19319025
40	0x3e0342c3	0.12818436
41	0x3d5baeb5	0.05363341
42	0xbd7fc067	-0.06243935
43	0xbdb62f7f	-0.08895778
44	0xbda5e046	-0.080994174
45	0xbcd69665	-0.02619476
46	0xbd9adf80	-0.075621605
47	0xbde298d2	-0.110643044
48	0x3e00eee4	0.1259113
49	0x3b37f234	0.0028067948
50	0x3d3c8e40	0.046034098
51	0xbdb6fea7	-0.0893529
52	0xbe2b1f3f	-0.16711138
53	0x3db61595	0.08890835
54	0xbdc0b82e	-0.094101295
55	0x3de4f233	0.11179008
56	0xbe19601c	-0.14978069
57	0x3dac7f61	0.08422733
58	0x3d852844	0.06501821
59	0xbd335830	-0.043785274
60	0x3dfb2a20	0.12263894
61	0xbe11a1ae	-0.14221832
62	0xbdc88ca8	-0.09792453
63	0x3e1d2fc4	0.15350252
64	0xbd65550b	-0.055989306
65	0x3d981894	0.07426563
66	0xbdae73c2	-0.08518173
67	0x3d85e737	0.06538241
68	0x3d8c7456	0.06858127
69	0x3dab3382	0.08359434
70	0xbd7477cc	-0.05968456
71	0xbd244bac	-0.04011123
72	0xbca064a0	-0.019579232
73	0x3e01a73c	0.12661451
74	0xbdb1ff76	-0.086913034
75	0xbdbbe275	-0.091740526
76	0xbdd23d13	-0.10265555
77	0x3d8cb67a	0.06870742
78	0x3db4fa27	0.08836775
79	0x3e1eb863	0.15500025
80	0xbe1c359c	-0.15254825
81	0x3dc84061	0.09777904
82	0xbe46368f	-0.1935675
83	0x3cda19d1	0.026623638
84	0xbdb5051e	-0.08838867
85	0xbd4678cb	-0.04845504
86	0x3dc06e56	0.09396045
87	0x3d2eca4d	0.042673398
88	0x3cad0b74	0.021123625
89	0xbd82b509	-0.06382186
90	0x3e125681	0.14290811
91	0xbd33606e	-0.043793134
92	0xbd93a918	-0.072099864
93	0xbda85a8e	-0.08220397
94	0x3dcd95a9	0.10038311
95	0x3ca1eac9	0.019765275
96	0xbcf86a44	-0.030324109
97	0x3e039dc7	0.12853156
98	0xbc4f8a8e	-0.012667311
99	0x3dbb95fe	0.09159468
100	0x3cac2e6d	0.021018231
101	0xbdc48e41	-0.09597445
102	0x3e6037a5	0.21896227
103	0x3cd980fa	0.026550759
104	0x3da555ea	0.080730274
105	0x3e0f6457	0.1400312
106	0x3da6a3ee	0.08136736
107	0x3bd82e0c	0.006597286
108	0xbdb530c2	-0.088471904
109	0xbe2297b6	-0.15878186
110	0x3d5a06a3	0.053228986
111	0x3ddb5f6e	0.10711561
112	0xbdc768b4	-0.097367674
113	0xbdd46c63	-0.103722356
114	0xbdc5048b	-0.09620007
115	0xbd8d7287	-0.0690661
116	0x3e2e8acb	0.17045133
117	0x3d72f770	0.059318006
118	0x3da38910	0.07985127
119	0xbd376e6e	-0.04478305
120	0xb9d54741	-0.00040679614
121	0xbdde7699	-0.108624645
122	0xbe273ebc	-0.16332525
123	0xbd0b5821	-0.034019593
124	0xbdf7ed9b	-0.121058665
125	0x3e2d9ebf	0.16955088
126	0xbe08ff37	-0.13378607
127	0xbb87fbac	-0.0041498747
128	0x3e30bfa4	0.17260605
129	0xbc17b847	-0.009260244
130	0x3dc024fc	0.09382054
131	0xbe1f7dab	-0.15575282
132	0xbd1787e6	-0.036994837
133	0x3d80eafc	0.0629482
134	0xbdfe46b5	-0.1241583
135	0xbe28071a	-0.16408959
136	0x3e3185ed	0.17336245
137	0xbdb737bc	-0.08946177
138	0xbd3bca86	-0.04584744
139	0xbcd71547	-0.026255263
140	0x3c97438d	0.018464828
141	0x3de259b5	0.110522665
142	0xbe058de6	-0.13042411
143	0x3e3ab8a2	0.18234494
144	0x3e0c08d6	0.13675246
145	0x3d84e54a	0.06489046
146	0x3e0c45fb	0.1369857
147	0x3d8d042a	0.0688556
148	0xbdb570fd	-0.088594414
149	0x3e04ed05	0.12981041
150	0x3d06b72a	0.032889523
151	0xbe25d601	-0.16194917
152	0x3e43714b	0.19086187
153	0x3d286560	0.041112304
154	0x3e1946bc	0.1496839
155	0xbe2d2cf2	-0.16911677
156	0x3e083321	0.13300754
157	0x3d958e6f	0.07302558
158	0x3b849c9a	0.0040469887
159	0x3d6b6b52	0.057475396
160	0x3dc70d3a	0.0971932
161	0x3d930730	0.07179105
162	0x3d43e119	0.04782209
163	0xbcebb4c5	-0.028772721
164	0xbd96a7fb	-0.073562585
165	0x3d93213a	0.07184072
166	0x3ca7a612	0.02046493
167	0x3e2fbc8d	0.1716177
168	0x3e2a5855	0.16635258
169	0x3dadf93b	0.084948026
170	0x3cc708ee	0.02429625
171	0x3df9181f	0.12162804
172	0x3d823689	0.06358058
173	0x3e28f13e	0.16498277
174	0x3dbc793f	0.09202813
175	0x3df52e34	0.11971703
176	0x3e2cfb53	0.16892748
177	0xbce6cce4	-0.028173871
178	0xbe259161	-0.16168739
179	0xbe2342e2	-0.15943483
180	0xbd72e2c5	-0.059298296
181	0xbd0648a1	-0.032784108
182	0x3e2571ca	0.16156688
183	0x3bed400d	0.0072403015
184	0xbdc5e285	-0.09662346
185	0x3da75dcc	0.08172187
186	0x3df9de8a	0.12200649
187	0x3dbdff77	0.09277242
188	0xbdd149e4	-0.10219172
189	0xbe0def7c	-0.13860887
190	0xbc20d969	-0.00981746
191	0x3dfe9868	0.12431413
192	0x3bc7bf8a	0.0060958313
193	0xbdcee2e2	-0.10101868
194	0x3e48ebd8	0.19621217
195	0xbde0caab	-0.10976156
196	0x3e0763b8	0.13221633
197	0xbe0f766c	-0.14010018
198	0xbdf309b1	-0.11867083
199	0x3e2170c7	0.15765677
200	0xbdb6dacd	-0.08928452
201	0xbcf62132	-0.030045126
202	0x3e1a0253	0.15039949
203	0x3db5b34a	0.08872087
204	0x3e1f8106	0.15576562
205	0x3dcae97e	0.09907816
206	0xbcbdfd4f	-0.023192076
207	0x3de8bca8	0.11364108
208	0x3e2b8634	0.16750413
209	0x3d82db65	0.063895024
210	0x3d0f6fc4	0.035018697
211	0x3e05030d	0.12989445
212	0x3da6d135	0.08145372
213	0xbd07172a	-0.032981075
214	0x3e17b170	0.14813781
215	0xbe0713ef	-0.13191198
216	0x3e2fae31	0.17156292
217	0xbd71071a	-0.058844663
218	0x3d07b2fa	0.03312967
219	0x3e10bcbd	0.14134498
220	0x3b36ae3c	0.0027874848
221	0x3da58de7	0.08083706
222	0x3db8bb39	0.09020085
223	0x3d34ef64	0.044173613
224	0x3cddfcd1	0.027098091
225	0x3e10107f	0.14068793
226	0xbe22da3b	-0.15903561
227	0xbd6c1e30	-0.057645977
228	0xbe0d4dbc	-0.13799185
229	0x3e1c5f6d	0.15270777
230	0xbcf98f65	-0.030463884
231	0x3e2de86c	0.16983193
232	0xbe030178	-0.12793529
233	0xbdc01799	-0.09379501
234	0x3b2dd62c	0.0026525361
235	0xbdf42c81	-0.11922551
236	0xbc8bad34	-0.017050363
237	0xbdb03387	-0.08603578
238	0x3e3dc5ef	0.18532537
239	0x3cea25d2	0.028582487
240	0xbd457adc	-0.04821287
241	0xbd1aa1a1	-0.037751798
242	0xbcfde152	-0.03099123
243	0xbc28714d	-0.010280919
244	0xbd543641	-0.051809553
245	0xbe0cdd3f	-0.13756274
246	0x3e0024c1	0.1251402
247	0xbe25973e	-0.16170976
248	0xbdc8cc03	-0.09804537
249	0x3cf6d506	0.030130874
250	0xbd20d474	-0.03926511
251	0xbd9422c5	-0.07233194
252	0x3e151c84	0.14561659
253	0x3d30e74e	0.04318934
254	0x3b5ad6f9	0.0033392294
255	0x3e0d4e03	0.1379929

fc1_bn.weight f4 [400]
0	0x3f4aa24f	0.79153913
1	0x3ef2ee46	0.47447413
2	0x3f392e51	0.723363
3	0x3ea14c3a	0.3150347
4	0x3e65fb50	0.2245915
5	0x3ece8df6	0.40342683
6	0x3f7f56fb	0.99742097
7	0x3e6df548	0.23238099
8	0x3f02d128	0.511004
9	0x3eecbb9e	0.4623689
10	0x3ee292f4	0.4425274
11	0x3e9a5e0e	0.30149883
12	0x3d1d8900	0.03846073
13	0x3f0113a9	0.50420624
14	0x3df777b8	0.120833814
15	0x3e9d22e0	0.3069067
16	0x3f4ec916	0.8077558
17	0x3f399af9	0.72502095
18	0x3db1c0c8	0.08679348
19	0x3f3fba03	0.74893206
20	0x3f53391c	0.82509017
21	0x3e8671fa	0.26258832
22	0x3f77bce4	0.967726
23	0x3f3983df	0.72466844
24	0x3e948e70	0.2901492
25	0x3d41e100	0.047333717
26	0x3ecf3ce0	0.4047613
27	0x3f3842f4	0.7197716
28	0x3f7e9666	0.9944824
29	0x3efb3020	0.49060154
30	0x3cecb840	0.028896451
31	0x3f4adad5	0.7924016
32	0x3f33140d	0.6995247
33	0x3ef9bcf0	0.4877696
34	0x3ec22dba	0.37925512
35	0x3ea9f0b2	0.33191448
36	0x3f58924a	0.8459822
37	0x3f07e756	0.53087366
38	0x3ea509fc	0.3223418
39	0x3ed56016	0.4167487
40	0x3ec0811e	0.3759851
41	0x3f3a9ff5	0.72900325
42	0x3f0e9b33	0.55705565
43	0x3da5c958	0.08095044
44	0x3effe254	0.49977362
45	0x3f2e1566	0.680014
46	0x3df88e40	0.12136507
47	0x3e492c38	0.19645774
48	0x3f0f4ef0	0.55979824
49	0x3d135910	0.03597361
50	0x3e0fbad0	0.14036107
51	0x3e678a70	0.22611403
52	0x3f315b07	0.6927952
53	0x3e19c3ec	0.15016145
54	0x3f4c04dd	0.7969492
55	0x3f7cfefe	0.9882659
56	0x3e81b354	0.2533213
57	0x3f188030	0.595706
58	0x3d5a1d00	0.053250313
59	0x3f38191f	0.7191333
60	0x3e9adc08	0.30245996
61	0x3f4cb3a7	0.7996163
62	0x3f5bce22	0.8586141
63	0x3f1ca8de	0.6119517
64	0x3f0abc14	0.54193234
65	0x3f6c790b	0.92372197
66	0x3e89e6a8	0.2693379
67	0x3f24aacb	0.6432311
68	0x3f7894ff	0.9710235
69	0x3f7cc7ec	0.98742557
70	0x3f41fa64	0.7577269
71	0x3f672374	0.9028847
72	0x3ee6e2c6	0.4509489
73	0x3ef244c8	0.473181
74	0x3ecbffc6	0.39843577
75	0x3f5f0573	0.8711769
76	0x3ec4e0a0	0.38452625
77	0x3f7145f2	0.94247353
78	0x3e4d2ce0	0.2003665
79	0x3e8efb9e	0.27926344
80	0x3f4c9038	0.7990756
81	0x3f7c92ab	0.986613
82	0x3e449e88	0.192011
83	0x3d89e838	0.06733745
84	0x3d8f42c0	0.069951534
85	0x3e8dd48a	0.27701217
86	0x3f721e13	0.9457714
87	0x3f720ecd	0.94553834
88	0x3e1a71bc	0.15082449
89	0x3f0b56e6	0.5442947
90	0x3e78e71c	0.24306911
91	0x3f4b603c	0.79443717
92	0x3ce1b680	0.027552843
93	0x3f0edfcf	0.55810255
94	0x3e53a670	0.2066896
95	0x3ed0a9e6	0.40754622
96	0x3f70b44a	0.940251
97	0x3db9f3f8	0.090797365
98	0x3d95af78	0.07308859
99	0x3f1dbd5a	0.6161705
100	0x3f2a5440	0.66534805
101	0x3f5fcbb4	0.874202
102	0x3f110fb7	0.56664604
103	0x3e842264	0.25807488
104	0x3e2c5048	0.168275
105	0x3d274700	0.040839195
106	0x3f52b16c	0.82301974
107	0x3eafb6ba	0.34319097
108	0x3f0e0d48	0.55489016
109	0x3e04d4b4	0.12971765
110	0x3f634fe1	0.8879376
111	0x3eecc1de	0.4624166
112	0x3e971dba	0.29514867
113	0x3d26ca60	0.040720344
114	0x3f7eeb01	0.9957734
115	0x3ecefa24	0.40425217
116	0x3eac328c	0.33632314
117	0x3e846918	0.2586143
118	0x3f5c8ca3	0.86152095
119	0x3f31eab6	0.69498765
120	0x3effbd2a	0.49949008
121	0x3f7a2e39	0.9772678
122	0x3f21646b	0.6304385
123	0x3e59631c	0.21229213
124	0x3e7b8080	0.24560738
125	0x3ecf778e	0.405209
126	0x3edf93e6	0.43667525
127	0x3d9bd0c0	0.07608175
128	0x3e107408	0.14106762
129	0x3e159158	0.14606225
130	0x3d05a780	0.032630444
131	0x3e82f60a	0.25578338
132	0x3e6101e4	0.21973377
133	0x3f51a83b	0.81897324
134	0x3f338fb8	0.7014117
135	0x3f6b8782	0.92003644
136	0x3f500041	0.8125039
137	0x3e6545ac	0.22389859
138	0x3f7145fc	0.9424741
139	0x3f0fb334	0.5613282
140	0x3f69444f	0.91119856
141	0x3f176ebc	0.5915334
142	0x3ee464d0	0.44608164
143	0x3f28078d	0.6563652
144	0x3ec67260	0.38759136
145	0x3eb73286	0.35780734
146	0x3ef89a1a	0.4855507
147	0x3dcdba10	0.10045254
148	0x3f4149d9	0.7550331
149	0x3ed6913e	0.41907686
150	0x3f439e73	0.7641365
151	0x3e99c0fc	0.30030048
152	0x3f631b9c	0.88714004
153	0x3f768537	0.9629702
154	0x3d6d6760	0.057959914
155	0x3ef97fe6	0.4873039
156	0x3ed1f7ae	0.41009277
157	0x3ea42c06	0.32064837
158	0x3f389bc1	0.7211266
159	0x3f7ead87	0.9948353
160	0x3e380070	0.17968917
161	0x3f63b15d	0.8894251
162	0x3eb67028	0.35632443
163	0x3c659000	0.014011383
164	0x3f0e9d8a	0.55709136
165	0x3eccf8d0	0.4003358
166	0x3e8806e8	0.2656777
167	0x3e891afc	0.267784
168	0x3f6a0187	0.9140858
169	0x3f5b81ae	0.8574475
170	0x3f76c6e9	0.9639726
171	0x3f66290f	0.899064
172	0x3f69deb0	0.9135542
173	0x3f5f9e25	0.87350684
174	0x3b9aee00	0.004728079
175	0x3f6a2856	0.914678
176	0x3ee6459a	0.44974977
177	0x3f5849b3	0.84487456
178	0x3f5d838a	0.8652884
179	0x3d73b310	0.05949694
180	0x3f2f223d	0.6841162
181	0x3e01cdc4	0.1267615
182	0x3f5d33eb	0.86407346
183	0x3f5275d9	0.8221107
184	0x3f4c0719	0.7969833
185	0x3f297c1f	0.6620502
186	0x3d8cadb0	0.06869066
187	0x3f1c4929	0.61049134
188	0x3f1f3797	0.621942
189	0x3f4157dc	0.7552469
190	0x3cd72ae0	0.026265562
191	0x3ee6a33c	0.45046413
192	0x3e1fae6c	0.1559388
193	0x3f781933	0.9691345
194	0x3ee7c9f2	0.4527126
195	0x3ecd0924	0.40046036
196	0x3dcc8988	0.099871695
197	0x3e871356	0.2638194
198	0x3f4a99a1	0.7914067
199	0x3f27127b	0.65262574
200	0x3f4076b8	0.7518115
201	0x3f2de2c7	0.6792416
202	0x3f2bca96	0.67105997
203	0x3f6e2476	0.93024385
204	0x3d4691f0	0.04847902
205	0x3ec41f62	0.38305193
206	0x3f644c36	0.8917879
207	0x3e5ca2bc	0.21546453
208	0x3d7ab500	0.06120777
209	0x3f2ac255	0.6670278
210	0x3f72632f	0.9468259
211	0x3f35274a	0.70763075
212	0x3f743ef3	0.9540855
213	0x3ef843d2	0.48489243
214	0x3eef7faa	0.46777087
215	0x3ee2ff9e	0.44335645
216	0x3f741c42	0.9535562
217	0x3f717de4	0.9433272
218	0x3e09cfe8	0.13458216
219	0x3ebfb9f2	0.37446553
220	0x3dcd2680	0.10017109
221	0x3f246925	0.6422294
222	0x3f588909	0.845841
223	0x3f3564f6	0.7085718
224	0x3eefc816	0.4683234
225	0x3f24bf33	0.64354247
226	0x3d8d5d08	0.0690251
227	0x3f26ebc8	0.65203524
228	0x3e7c491c	0.24637264
229	0x3f414d7e	0.7550887
230	0x3ead305a	0.33825952
231	0x3dd42878	0.10359281
232	0x3cbc1dc0	0.022963405
233	0x3efee468	0.49783635
234	0x3ec76852	0.38946778
235	0x3e875d94	0.26438582
236	0x3f7c6bf0	0.986022
237	0x3e9b846e	0.30374473
238	0x3ebc1e3a	0.3674181
239	0x3ef12dfa	0.4710539
240	0x3f629fca	0.8852507
241	0x3f0175db	0.5057046
242	0x3f6e0c4a	0.929875
243	0x3f4235f9	0.75863606
244	0x3ee9a87e	0.45636362
245	0x3f1325e7	0.5747971
246	0x3f76537e	0.9622115
247	0x3d44e7d0	0.048072636
248	0x3f0baf0f	0.54563993
249	0x3f4aa181	0.79152685
250	0x3e7c9940	0.24667835
251	0x3ec38c5e	0.3819303
252	0x3f7b3597	0.98128647
253	0x3e5b9c0c	0.21446246
254	0x3f0e9866	0.5570129
255	0x3ee0a920	0.43879032

fc1_bn.bias f4 [400]
0	0x00000000	0.0
1	0x00000000	0.0
2	0x00000000	0.0
3	0x00000000	0.0
4	0x00000000	0.0
5	0x00000000	0.0
6	0x00000000	0.0
7	0x00000000	0.0
8	0x00000000	0.0
9	0x00000000	0.0
10	0x00000000	0.0
11	0x00000000	0.0
12	0x00000000	0.0
13	0x00000000	0.0
14	0x00000000	0.0
15	0x00000000	0.0
16	0x00000000	0.0
17	0x00000000	0.0
18	0x00000000	0.0
19	0x00000000	0.0
20	0x00000000	0.0
21	0x00000000	0.0
22	0x00000000	0.0
23	0x00000000	0.0
24	0x00000000	0.0
25	0x00000000	0.0
26	0x00000000	0.0
27	0x00000000	0.0
28	0x00000000	0.0
29	0x00000000	0.0
30	0x00000000	0.0
31	0x00000000	0.0
32	0x00000000	0.0
33	0x00000000	0.0
34	0x00000000	0.0
35	0x00000000	0.0
36	0x00000000	0.0
37	0x00000000	0.0
38	0x00000000	0.0
39	0x00000000	0.0
40	0x00000000	0.0
41	0x00000000	0.0
42	0x00000000	0.0
43	0x00000000	0.0
44	0x00000000	0.0
45	0x00000000	0.0
46	0x00000000	0.0
47	0x00000000	0.0
48	0x00000000	0.0
49	0x00000000	0.0
50	0x00000000	0.0
51	0x00000000	0.0
52	0x00000000	0.0
53	0x00000000	0.0
54	0x00000000	0.0
55	0x00000000	0.0
56	0x00000000	0.0
57	0x00000000	0.0
58	0x00000000	0.0
59	0x00000000	0.0
60	0x00000000	0.0
61	0x00000000	0.0
62	0x00000000	0.0
63	0x00000000	0.0
64	0x00000000	0.0
65	0x00000000	0.0
66	0x00000000	0.0
67	0x00000000	0.0
68	0x00000000	0.0
69	0x00000000	0.0
70	0x00000000	0.0
71	0x00000000	0.0
72	0x00000000	0.0
73	0x00000000	0.0
74	0x00000000	0.0
75	0x00000000	0.0
76	0x00000000	0.0
77	0x00000000	0.0
78	0x00000000	0.0
79	0x00000000	0.0
80	0x00000000	0.0
81	0x00000000	0.0
82	0x00000000	0.0
83	0x00000000	0.0
84	0x00000000	0.0
85	0x00000000	0.0
86	0x00000000	0.0
87	0x00000000	0.0
88	0x00000000	0.0
89	0x00000000	0.0
90	0x00000000	0.0
91	0x00000000	0.0
92	0x00000000	0.0
93	0x00000000	0.0
94	0x00000000	0.0
95	0x00000000	0.0
96	0x00000000	0.0
97	0x00000000	0.0
98	0x00000000	0.0
99	0x00000000	0.0
100	0x00000000	0.0
101	0x00000000	0.0
102	0x00000000	0.0
103	0x00000000	0.0
104	0x00000000	0.0
105	0x00000000	0.0
106	0x00000000	0.0
107	0x00000000	0.0
108	0x00000000	0.0
109	0x00000000	0.0
110	0x00000000	0.0
111	0x00000000	0.0
112	0x00000000	0.0
113	0x00000000	0.0
114	0x00000000	0.0
115	0x00000000	0.0
116	0x00000000	0.0
117	0x00000000	0.0
118	0x00000000	0.0
119	0x00000000	0.0
120	0x00000000	0.0
121	0x00000000	0.0
122	0x00000000	0.0
123	0x00000000	0.0
124	0x00000000	0.0
125	0x00000000	0.0
126	0x00000000	0.0
127	0x00000000	0.0
128	0x00000000	0.0
129	0x00000000	0.0
130	0x00000000	0.0
131	0x00000000	0.0
132	0x00000000	0.0
133	0x00000000	0.0
134	0x00000000	0.0
135	0x00000000	0.0
136	0x00000000	0.0
137	0x00000000	0.0
138	0x00000000	0.0
139	0x00000000	0.0
140	0x00000000	0.0
141	0x00000000	0.0
142	0x00000000	0.0
143	0x00000000	0.0
144	0x00000000	0.0
145	0x00000000	0.0
146	0x00000000	0.0
147	0x00000000	0.0
148	0x00000000	0.0
149	0x00000000	0.0
150	0x00000000	0.0
151	0x00000000	0.0
152	0x00000000	0.0
153	0x00000000	0.0
154	0x00000000	0.0
155	0x00000000	0.0
156	0x00000000	0.0
157	0x00000000	0.0
158	0x00000000	0.0
159	0x00000000	0.0
160	0x00000000	0.0
161	0x00000000	0.0
162	0x00000000	0.0
163	0x00000000	0.0
164	0x00000000	0.0
165	0x00000000	0.0
166	0x00000000	0.0
167	0x00000000	0.0
168	0x00000000	0.0
169	0x00000000	0.0
170	0x00000000	0.0
171	0x00000000	0.0
172	0x00000000	0.0
173	0x00000000	0.0
174	0x00000000	0.0
175	0x00000000	0.0
176	0x00000000	0.0
177	0x00000000	0.0
178	0x00000000	0.0
179	0x00000000	0.0
180	0x00000000	0.0
181	0x00000000	0.0
182	0x00000000	0.0
183	0x00000000	0.0
184	0x00000000	0.0
185	0x00000000	0.0
186	0x00000000	0.0
187	0x00000000	0.0
188	0x00000000	0.0
189	0x00000000	0.0
190	0x00000000	0.0
191	0x00000000	0.0
192	0x00000000	0.0
193	0x00000000	0.0
194	0x00000000	0.0
195	0x00000000	0.0
196	0x00000000	0.0
197	0x00000000	0.0
198	0x00000000	0.0
199	0x00000000	0.0
200	0x00000000	0.0
201	0x00000000	0.0
202	0x00000000	0.0
203	0x00000000	0.0
204	0x00000000	0.0
205	0x00000000	0.0
206	0x00000000	0.0
207	0x00000000	0.0
208	0x00000000	0.0
209	0x00000000	0.0
210	0x00000000	0.0
211	0x00000000	0.0
212	0x00000000	0.0
213	0x00000000	0.0
214	0x00000000	0.0
215	0x00000000	0.0
216	0x00000000	0.0
217	0x00000000	0.0
218	0x00000000	0.0
219	0x00000000	0.0
220	0x00000000	0.0
221	0x00000000	0.0
222	0x00000000	0.0
223	0x00000000	0.0
224	0x00000000	0.0
225	0x00000000	0.0
226	0x00000000	0.0
227	0x00000000	0.0
228	0x00000000	0.0
229	0x00000000	0.0
230	0x00000000	0.0
231	0x00000000	0.0
232	0x00000000	0.0
233	0x00000000	0.0
234	0x00000000	0.0
235	0x00000000	0.0
236	0x00000000	0.0
237	0x00000000	0.0
238	0x00000000	0.0
239	0x00000000	0.0
240	0x00000000	0.0
241	0x00000000	0.0
242	0x00000000	0.0
243	0x00000000	0.0
244	0x00000000	0.0
245	0x00000000	0.0
246	0x00000000	0.0
247	0x00000000	0.0
248	0x00000000	0.0
249	0x00000000	0.0
250	0x00000000	0.0
251	0x00000000	0.0
252	0x00000000	0.0
253	0x00000000	0.0
254	0x00000000	0.0
255	0x00000000	0.0

fc1_bn.running_mean f4 [400]
0	0x00000000	0.0
1	0x00000000	0.0
2	0x00000000	0.0
3	0x00000000	0.0
4	0x00000000	0.0
5	0x00000000	0.0
6	0x00000000	0.0
7	0x00000000	0.0
8	0x00000000	0.0
9	0x00000000	0.0
10	0x00000000	0.0
11	0x00000000	0.0
12	0x00000000	0.0
13	0x00000000	0.0
14	0x00000000	0.0
15	0x00000000	0.0
16	0x00000000	0.0
17	0x00000000	0.0
18	0x00000000	0.0
19	0x00000000	0.0
20	0x00000000	0.0
21	0x00000000	0.0
22	0x00000000	0.0
23	0x00000000	0.0
24	0x00000000	0.0
25	0x00000000	0.0
26	0x00000000	0.0
27	0x00000000	0.0
28	0x00000000	0.0
29	0x00000000	0.0
30	0x00000000	0.0
31	0x00000000	0.0
32	0x00000000	0.0
33	0x00000000	0.0
34	0x00000000	0.0
35	0x00000000	0.0
36	0x00000000	0.0
37	0x00000000	0.0
38	0x00000000	0.0
39	0x00000000	0.0
40	0x00000000	0.0
41	0x00000000	0.0
42	0x00000000	0.0
43	0x00000000	0.0
44	0x00000000	0.0
45	0x00000000	0.0
46	0x00000000	0.0
47	0x00000000	0.0
48	0x00000000	0.0
49	0x00000000	0.0
50	0x00000000	0.0
51	0x00000000	0.0
52	0x00000000	0.0
53	0x00000000	0.0
54	0x00000000	0.0
55	0x00000000	0.0
56	0x00000000	0.0
57	0x00000000	0.0
58	0x00000000	0.0
59	0x00000000	0.0
60	0x00000000	0.0
61	0x00000000	0.0
62	0x00000000	0.0
63	0x00000000	0.0
64	0x00000000	0.0
65	0x00000000	0.0
66	0x00000000	0.0
67	0x00000000	0.0
68	0x00000000	0.0
69	0x00000000	0.0
70	0x00000000	0.0
71	0x00000000	0.0
72	0x00000000	0.0
73	0x00000000	0.0
74	0x00000000	0.0
75	0x00000000	0.0
76	0x00000000	0.0
77	0x00000000	0.0
78	0x00000000	0.0
79	0x00000000	0.0
80	0x00000000	0.0
81	0x00000000	0.0
82	0x00000000	0.0
83	0x00000000	0.0
84	0x00000000	0.0
85	0x00000000	0.0
86	0x00000000	0.0
87	0x00000000	0.0
88	0x00000000	0.0
89	0x00000000	0.0
90	0x00000000	0.0
91	0x00000000	0.0
92	0x00000000	0.0
93	0x00000000	0.0
94	0x00000000	0.0
95	0x00000000	0.0
96	0x00000000	0.0
97	0x00000000	0.0
98	0x00000000	0.0
99	0x00000000	0.0
100	0x00000000	0.0
101	0x00000000	0.0
102	0x00000000	0.0
103	0x00000000	0.0
104	0x00000000	0.0
105	0x00000000	0.0
106	0x00000000	0.0
107	0x00000000	0.0
108	0x00000000	0.0
109	0x00000000	0.0
110	0x00000000	0.0
111	0x00000000	0.0
112	0x00000000	0.0
113	0x00000000	0.0
114	0x00000000	0.0
115	0x00000000	0.0
116	0x00000000	0.0
117	0x00000000	0.0
118	0x00000000	0.0
119	0x00000000	0.0
120	0x00000000	0.0
121	0x00000000	0.0
122	0x00000000	0.0
123	0x00000000	0.0
124	0x00000000	0.0
125	0x00000000	0.0
126	0x00000000	0.0
127	0x00000000	0.0
128	0x00000000	0.0
129	0x00000000	0.0
130	0x00000000	0.0
131	0x00000000	0.0
132	0x00000000	0.0
133	0x00000000	0.0
134	0x00000000	0.0
135	0x00000000	0.0
136	0x00000000	0.0
137	0x00000000	0.0
138	0x00000000	0.0
139	0x00000000	0.0
140	0x00000000	0.0
141	0x00000000	0.0
142	0x00000000	0.0
143	0x00000000	0.0
144	0x00000000	0.0
145	0x00000000	0.0
146	0x00000000	0.0
147	0x00000000	0.0
148	0x00000000	0.0
149	0x00000000	0.0
150	0x00000000	0.0
151	0x00000000	0.0
152	0x00000000	0.0
153	0x00000000	0.0
154	0x00000000	0.0
155	0x00000000	0.0
156	0x00000000	0.0
157	0x00000000	0.0
158	0x00000000	0.0
159	0x00000000	0.0
160	0x00000000	0.0
161	0x00000000	0.0
162	0x00000000	0.0
163	0x00000000	0.0
164	0x00000000	0.0
165	0x00000000	0.0
166	0x00000000	0.0
167	0x00000000	0.0
168	0x00000000	0.0
169	0x00000000	0.0
170	0x00000000	0.0
171	0x00000000	0.0
172	0x00000000	0.0
173	0x00000000	0.0
174	0x00000000	0.0
175	0x00000000	0.0
176	0x00000000	0.0
177	0x00000000	0.0
178	0x00000000	0.0
179	0x00000000	0.0
180	0x00000000	0.0
181	0x00000000	0.0
182	0x00000000	0.0
183	0x00000000	0.0
184	0x00000000	0.0
185	0x00000000	0.0
186	0x00000000	0.0
187	0x00000000	0.0
188	0x00000000	0.0
189	0x00000000	0.0
190	0x00000000	0.0
191	0x00000000	0.0
192	0x00000000	0.0
193	0x00000000	0.0
194	0x00000000	0.0
195	0x00000000	0.0
196	0x00000000	0.0
197	0x00000000	0.0
198	0x00000000	0.0
199	0x00000000	0.0
200	0x00000000	0.0
201	0x00000000	0.0
202	0x00000000	0.0
203	0x00000000	0.0
204	0x00000000	0.0
205	0x00000000	0.0
206	0x00000000	0.0
207	0x00000000	0.0
208	0x00000000	0.0
209	0x00000000	0.0
210	0x00000000	0.0
211	0x00000000	0.0
212	0x00000000	0.0
213	0x00000000	0.0
214	0x00000000	0.0
215	0x00000000	0.0
216	0x00000000	0.0
217	0x00000000	0.0
218	0x00000000	0.0
219	0x00000000	0.0
220	0x00000000	0.0
221	0x00000000	0.0
222	0x00000000	0.0
223	0x00000000	0.0
224	0x00000000	0.0
225	0x00000000	0.0
226	0x00000000	0.0
227	0x00000000	0.0
228	0x00000000	0.0
229	0x00000000	0.0
230	0x00000000	0.0
231	0x00000000	0.0
232	0x00000000	0.0
233	0x00000000	0.0
234	0x00000000	0.0
235	0x00000000	0.0
236	0x00000000	0.0
237	0x00000000	0.0
238	0x00000000	0.0
239	0x00000000	0.0
240	0x00000000	0.0
241	0x00000000	0.0
242	0x00000000	0.0
243	0x00000000	0.0
244	0x00000000	0.0
245	0x00000000	0.0
246	0x00000000	0.0
247	0x00000000	0.0
248	0x00000000	0.0
249	0x00000000	0.0
250	0x00000000	0.0
251	0x00000000	0.0
252	0x00000000	0.0
253	0x00000000	0.0
254	0x00000000	0.0
255	0x00000000	0.0

fc1_bn.running_var f4 [400]
0	0x3f800000	1.0
1	0x3f800000	1.0
2	0x3f800000	1.0
3	0x3f800000	1.0
4	0x3f800000	1.0
5	0x3f800000	1.0
6	0x3f800000	1.0
7	0x3f800000	1.0
8	0x3f800000	1.0
9	0x3f800000	1.0
10	0x3f800000	1.0
11	0x3f800000	1.0
12	0x3f800000	1.0
13	0x3f800000	1.0
14	0x3f800000	1.0
15	0x3f800000	1.0
16	0x3f800000	1.0
17	0x3f800000	1.0
18	0x3f800000	1.0
19	0x3f800000	1.0
20	0x3f800000	1.0
21	0x3f800000	1.0
22	0x3f800000	1.0
23	0x3f800000	1.0
24	0x3f800000	1.0
25	0x3f800000	1.0
26	0x3f800000	1.0
27	0x3f800000	1.0
28	0x3f800000	1.0
29	0x3f800000	1.0
30	0x3f800000	1.0
31	0x3f800000	1.0
32	0x3f800000	1.0
33	0x3f800000	1.0
34	0x3f800000	1.0
35	0x3f800000	1.0
36	0x3f800000	1.0
37	0x3f800000	1.0
38	0x3f800000	1.0
39	0x3f800000	1.0
40	0x3f800000	1.0
41	0x3f800000	1.0
42	0x3f800000	1.0
43	0x3f800000	1.0
44	0x3f800000	1.0
45	0x3f800000	1.0
46	0x3f800000	1.0
47	0x3f800000	1.0
48	0x3f800000	1.0
49	0x3f800000	1.0
50	0x3f800000	1.0
51	0x3f800000	1.0
52	0x3f800000	1.0
53	0x3f800000	1.0
54	0x3f800000	1.0
55	0x3f800000	1.0
56	0x3f800000	1.0
57	0x3f800000	1.0
58	0x3f800000	1.0
59	0x3f800000	1.0
60	0x3f800000	1.0
61	0x3f800000	1.0
62	0x3f800000	1.0
63	0x3f800000	1.0
64	0x3f800000	1.0
65	0x3f800000	1.0
66	0x3f800000	1.0
67	0x3f800000	1.0
68	0x3f800000	1.0
69	0x3f800000	1.0
70	0x3f800000	1.0
71	0x3f800000	1.0
72	0x3f800000	1.0
73	0x3f800000	1.0
74	0x3f800000	1.0
75	0x3f800000	1.0
76	0x3f800000	1.0
77	0x3f800000	1.0
78	0x3f800000	1.0
79	0x3f800000	1.0
80	0x3f800000	1.0
81	0x3f800000	1.0
82	0x3f800000	1.0
83	0x3f800000	1.0
84	0x3f800000	1.0
85	0x3f800000	1.0
86	0x3f800000	1.0
87	0x3f800000	1.0
88	0x3f800000	1.0
89	0x3f800000	1.0
90	0x3f800000	1.0
91	0x3f800000	1.0
92	0x3f800000	1.0
93	0x3f800000	1.0
94	0x3f800000	1.0
95	0x3f800000	1.0
96	0x3f800000	1.0
97	0x3f800000	1.0
98	0x3f800000	1.0
99	0x3f800000	1.0
100	0x3f800000	1.0
101	0x3f800000	1.0
102	0x3f800000	1.0
103	0x3f800000	1.0
104	0x3f800000	1.0
105	0x3f800000	1.0
106	0x3f800000	1.0
107	0x3f800000	1.0
108	0x3f800000	1.0
109	0x3f800000	1.0
110	0x3f800000	1.0
111	0x3f800000	1.0
112	0x3f800000	1.0
113	0x3f800000	1.0
114	0x3f800000	1.0
115	0x3f800000	1.0
116	0x3f800000	1.0
117	0x3f800000	1.0
118	0x3f800000	1.0
119	0x3f800000	1.0
120	0x3f800000	1.0
121	0x3f800000	1.0
122	0x3f800000	1.0
123	0x3f800000	1.0
124	0x3f800000	1.0
125	0x3f800000	1.0
126	0x3f800000	1.0
127	0x3f800000	1.0
128	0x3f800000	1.0
129	0x3f800000	1.0
130	0x3f800000	1.0
131	0x3f800000	1.0
132	0x3f800000	1.0
133	0x3f800000	1.0
134	0x3f800000	1.0
135	0x3f800000	1.0
136	0x3f800000	1.0
137	0x3f800000	1.0
138	0x3f800000	1.0
139	0x3f800000	1.0
140	0x3f800000	1.0
141	0x3f800000	1.0
142	0x3f800000	1.0
143	0x3f800000	1.0
144	0x3f800000	1.0
145	0x3f800000	1.0
146	0x3f800000	1.0
147	0x3f800000	1.0
148	0x3f800000	1.0
149	0x3f800000	1.0
150	0x3f800000	1.0
151	0x3f800000	1.0
152	0x3f800000	1.0
153	0x3f800000	1.0
154	0x3f800000	1.0
155	0x3f800000	1.0
156	0x3f800000	1.0
157	0x3f800000	1.0
158	0x3f800000	1.0
159	0x3f800000	1.0
160	0x3f800000	1.0
161	0x3f800000	1.0
162	0x3f800000	1.0
163	0x3f800000	1.0
164	0x3f800000	1.0
165	0x3f800000	1.0
166	0x3f800000	1.0
167	0x3f800000	1.0
168	0x3f800000	1.0
169	0x3f800000	1.0
170	0x3f800000	1.0
171	0x3f800000	1.0
172	0x3f800000	1.0
173	0x3f800000	1.0
174	0x3f800000	1.0
175	0x3f800000	1.0
176	0x3f800000	1.0
177	0x3f800000	1.0
178	0x3f800000	1.0
179	0x3f800000	1.0
180	0x3f800000	1.0
181	0x3f800000	1.0
182	0x3f800000	1.0
183	0x3f800000	1.0
184	0x3f800000	1.0
185	0x3f800000	1.0
186	0x3f800000	1.0
187	0x3f800000	1.0
188	0x3f800000	1.0
189	0x3f800000	1.0
190	0x3f800000	1.0
191	0x3f800000	1.0
192	0x3f800000	1.0
193	0x3f800000	1.0
194	0x3f800000	1.0
195	0x3f800000	1.0
196	0x3f800000	1.0
197	0x3f800000	1.0
198	0x3f800000	1.0
199	0x3f800000	1.0
200	0x3f800000	1.0
201	0x3f800000	1.0
202	0x3f800000	1.0
203	0x3f800000	1.0
204	0x3f800000	1.0
205	0x3f800000	1.0
206	0x3f800000	1.0
207	0x3f800000	1.0
208	0x3f800000	1.0
209	0x3f800000	1.0
210	0x3f800000	1.0
211	0x3f800000	1.0
212	0x3f800000	1.0
213	0x3f800000	1.0
214	0x3f800000	1.0
215	0x3f800000	1.0
216	0x3f800000	1.0
217	0x3f800000	1.0
218	0x3f800000	1.0
219	0x3f800000	1.0
220	0x3f800000	1.0
221	0x3f800000	1.0
222	0x3f800000	1.0
223	0x3f800000	1.0
224	0x3f800000	1.0
225	0x3f800000	1.0
226	0x3f800000	1.0
227	0x3f800000	1.0
228	0x3f800000	1.0
229	0x3f800000	1.0
230	0x3f800000	1.0
231	0x3f800000	1.0
232	0x3f800000	1.0
233	0x3f800000	1.0
234	0x3f800000	1.0
235	0x3f800000	1.0
236	0x3f800000	1.0
237	0x3f800000	1.0
238	0x3f800000	1.0
239	0x3f800000	1.0
240	0x3f800000	1.0
241	0x3f800000	1.0
242	0x3f800000	1.0
243	0x3f800000	1.0
244	0x3f800000	1.0
245	0x3f800000	1.0
246	0x3f800000	1.0
247	0x3f800000	1.0
248	0x3f800000	1.0
249	0x3f800000	1.0
250	0x3f800000	1.0
251	0x3f800000	1.0
252	0x3f800000	1.0
253	0x3f800000	1.0
254	0x3f800000	1.0
255	0x3f800000	1.0

fc2.weight f4 [300, 400]
0	0xbd4a52ce	-0.049395375
1	0x3d138b3d	0.03602146
2	0x3ba83c7e	0.0051341644
3	0xbd1383c0	-0.03601432
4	0xbc883778	-0.016628012
5	0xbd7a0419	-0.061039064
6	0x3d4c2f80	0.049849987
7	0xbd0e8f56	-0.034804665
8	0xbd0ab79b	-0.033866506
9	0xbcc28b4c	-0.023748063
10	0xbc94e462	-0.018175308
11	0xbcd8d7b5	-0.026470045
12	0x3d4f1aba	0.050562598
13	0xbd58d3ca	-0.052936353
14	0xbae8083f	-0.0017702653
15	0x3a4db158	0.00078465557
16	0x3bfdd111	0.00774587
17	0x3cdcf317	0.026971383
18	0x3c5f62c1	0.013634385
19	0x3b33915d	0.0027399876
20	0x3d19edfa	0.037580468
21	0x3bf32172	0.0074197585
22	0x3c6f16e2	0.014592858
23	0x3c4df66d	0.0125709595
24	0xbd4026d6	-0.046912037
25	0xbce662a0	-0.0281232
26	0xbd0de9dd	-0.034646858
27	0xbd4c6164	-0.049897566
28	0x3c7975c9	0.015225836
29	0xbd1fe131	-0.03903312
30	0x3b56e43e	0.0032789852
31	0x3ca366ce	0.019946482
32	0x3d28faa1	0.041254643
33	0xbce862d9	-0.028367447
34	0xbc273373	-0.010205138
35	0xbd8e66d3	-0.06953206
36	0xbd12598d	-0.035729934
37	0x3d0f288b	0.034950774
38	0xbd09a80a	-0.03360752
39	0x3da9095a	0.08253737
40	0x3d35ae56	0.044355713
41	0x3d0e9d94	0.034818247
42	0xbc365c01	-0.011130334
43	0x3d9f1ecb	0.07769545
44	0x3da53120	0.080660105
45	0xbd069af1	-0.032862607
46	0xbd869f3f	-0.065733425
47	0x3d8ab8df	0.067735426
48	0x3d4eba03	0.050470363
49	0x3d51d149	0.05122498
50	0xbbda2ada	-0.0066579403
51	0x3d2e7885	0.042595405
52	0xbceafefc	-0.02868604
53	0x3c50bb61	0.012739987
54	0x3d05789f	0.032585736
55	0x3a4854e7	0.0007642046
56	0xbcf40b4a	-0.02979054
57	0xbd694485	-0.05695011
58	0xbca6d33c	-0.020364396
59	0x3d8d9004	0.069122344
60	0x3c33cafc	0.010973688
61	0xbd213538	-0.039357394
62	0xba871c69	-0.001030815
63	0x3cc0f371	0.023553582
64	0x3ce8cf2f	0.028419105
65	0x3bb233e2	0.005438314
66	0x3d1d4f37	0.038405623
67	0x3d3cad39	0.046063635
68	0x3d2d059d	0.04224168
69	0x3d80a380	0.06281185
70	0xbd5f856b	-0.054570597
71	0xbb33f477	-0.0027458945
72	0x3c13df74	0.009025443
73	0x3d063c93	0.03277261
74	0x3d53d900	0.05172062
75	0xbd57d3c9	-0.05269221
76	0x3c435b6a	0.01192365
77	0x3d2f94dd	0.042866576
78	0xbd5fca40	-0.05463624
79	0x3d303517	0.04301938
80	0xbc8787c7	-0.016544236
81	0xbd082514	-0.033238485
82	0xbcafb66f	-0.021449296
83	0xbcbd52da	-0.023110796
84	0x3c3f392d	0.011671347
85	0x3ce84670	0.0283539
86	0x3db29e2c	0.08721575
87	0x3c89cde0	0.016821802
88	0x3c4ffb2b	0.01269416
89	0x3d613401	0.054981235
90	0xbd2f0667	-0.042730715
91	0x3d498d82	0.049207218
92	0x3d8e3dbf	0.06945371
93	0x3d77955c	0.060445175
94	0xbc7753c0	-0.015095651
95	0xbcd1bb20	-0.025601923
96	0x3b8781d4	0.0041353498
97	0x3d013a55	0.03154977
98	0x3cca3791	0.0246847
99	0xbbe93475	-0.007116849
100	0x3d000196	0.031251512
101	0x3d4ea1c4	0.05044724
102	0xbd45a705	-0.048254985
103	0xbd2a60e9	-0.041596327
104	0xbd394608	-0.045232803
105	0x3d48e1bc	0.049043402
106	0xbb095518	-0.002095526
107	0x3b2664cc	0.002538967
108	0xbb98b3c2	-0.0046601007
109	0x3bc1367f	0.005896389
110	0x3d934ac0	0.07191992
111	0x3c8cb5e7	0.017176582
112	0xbc059d2c	-0.0081551485
113	0x3b9939c8	0.0046760775
114	0x3d3344a2	0.043766625
115	0xbca8922b	-0.02057751
116	0x3d1c44d2	0.03815157
117	0x3d1e6d56	0.03867849
118	0x3caa0b45	0.020757327
119	0x3cad761e	0.021174487
120	0xbd46be4b	-0.04852132
121	0xbd55d043	-0.052200567
122	0x3da3fa5f	0.08006739
123	0xbcc318a9	-0.02381547
124	0x3ca1f30f	0.01976922
125	0xbd096c6b	-0.03355066
126	0xbd5902aa	-0.052981056
127	0xbbaaec26	-0.0052161394
128	0xbd184b12	-0.037180968
129	0x3d8cfde8	0.06884366
130	0x3d2a4067	0.041565325
131	0x3da0b955	0.07847849
132	0xbce2ddb2	-0.027693603
133	0x3cb4cb2b	0.022069534
134	0x3d0328ae	0.032021217
135	0xbcb97d39	-0.022642719
136	0xbbbdfbbf	-0.0057978327
137	0xbcc8c01b	-0.024505666
138	0xbd662dd6	-0.056196056
139	0x3d59a2ed	0.053133894
140	0x3d1d1a3e	0.038355105
141	0x3d06cefa	0.032912232
142	0x3d4d4d95	0.050122816
143	0x3cca2f6a	0.024680812
144	0x3d942590	0.07233727
145	0x3c686f0e	0.014186634
146	0x3d1f5880	0.03890276
147	0xbd679e62	-0.05654753
148	0xbce9cdeb	-0.028540572
149	0x3d858be5	0.065208234
150	0xbd34888a	-0.044075526
151	0x3d80c76b	0.06288036
152	0x3d838dda	0.064235404
153	0xbcbae5ba	-0.02281462
154	0x3d977f9e	0.07397388
155	0x3d1c493a	0.03815577
156	0x3d1e5a53	0.03866036
157	0xbc8a8d54	-0.016913094
158	0xba99e158	-0.0011740131
159	0x3ca577a3	0.020198649
160	0x3d12fddd	0.035886634
161	0xbbff3dd7	-0.0077893543
162	0x3c5279f1	0.012846456
163	0x3d8ed971	0.069750674
164	0x3d70d230	0.0587942
165	0xbd624e02	-0.055250175
166	0x3d3bfddc	0.045896396
167	0x3d973862	0.07383801
168	0x3bd02621	0.0063522016
169	0xbced4acb	-0.028966328
170	0xbd0fe65b	-0.035131793
171	0x3d15ef88	0.036605388
172	0x3c24e33c	0.0100639425
173	0xbd21916a	-0.03944532
174	0x3d6d429a	0.057924844
175	0x3c7aa35b	0.015297736
176	0x3d80aa99	0.06282539
177	0x3d37f012	0.044906683
178	0x3cf247f8	0.029575333
179	0xbd16ede6	-0.03684797
180	0xbc5f77ea	-0.01363943
181	0xbcf8edf9	-0.030386912
182	0x3a5e3fb6	0.00084781216
183	0xbc809a0c	-0.015698455
184	0x3d02a9d8	0.031900257
185	0x3d56b355	0.052417118
186	0xb93582dc	-0.00017310254
187	0x3a2c0dcf	0.0006563337
188	0xbc1bfc25	-0.009520565
189	0x3d867720	0.0656569
190	0x3dbc4566	0.09192924
191	0x3d07bb56	0.03313764
192	0x3d259e35	0.04043408
193	0x3ccf4afa	0.025304306
194	0x3c0f75f8	0.008756153
195	0x3d0fdd15	0.03512295
196	0xbc8755a9	-0.016520338
197	0x3d3dc982	0.04633475
198	0x3cd50de6	0.026007604
199	0x3da2a2e5	0.07941226
200	0xbd450169	-0.048097048
201	0x3d503736	0.050833903
202	0x3d460310	0.048342764
203	0x3d0e3123	0.03471483
204	0x3d132339	0.035922263
205	0x3c205016	0.009784719
206	0x3d28e502	0.041234024
207	0x3d3cbe93	0.046080183
208	0x3d2e53a3	0.04256023
209	0xbc9715b9	-0.018442975
210	0x3d0bc980	0.034127712
211	0x3d21bced	0.039486814
212	0x3d97f962	0.07420613
213	0xbce97af1	-0.028501006
214	0x3b1cd55a	0.0023930878
215	0xbd858564	-0.06519583
216	0xbc4159b1	-0.011801169
217	0x3bfb8c1c	0.0076766144
218	0xbd3d2c44	-0.046184793
219	0x3d23e63b	0.040014487
220	0x3dc074a7	0.0939725
221	0xbbc96f7e	-0.006147324
222	0x3d54611e	0.05185043
223	0xbd16b39a	-0.036792375
224	0x3d0eb214	0.034837797
225	0x3b586cc5	0.0033023816
226	0xbd1d7747	-0.03844383
227	0xbd476576	-0.048680745
228	0xbd0ec9d7	-0.03486046
229	0x3d4cd71f	0.050009843
230	0x3d18d36b	0.037311
231	0xbd49448d	-0.04913764
232	0xbcd05524	-0.025431223
233	0x3d2f0b67	0.042735483
234	0x3d221f3e	0.039580576
235	0xbd178130	-0.036988437
236	0x3d7b8b41	0.0614121
237	0xbc740114	-0.014892835
238	0xbd35150c	-0.044209525
239	0x3b32ac30	0.0027263276
240	0x3c14965c	0.009069052
241	0x3d1d47bc	0.03839849
242	0x3da245a8	0.07923442
243	0x3ce6d99f	0.028179942
244	0x3bfdd2a3	0.007746057
245	0x3a8e622e	0.0010863
246	0x3c08e31f	0.008354931
247	0x3d8d56ba	0.069013074
248	0x3d3be165	0.04586925
249	0x3d28acfb	0.041180592
250	0x3c34dc34	0.011038829
251	0xbcc0aef5	-0.023520926
252	0x3da353be	0.07974957
253	0xbd2ee304	-0.042696968
254	0xbcf34833	-0.029697513
255	0xbca59775	-0.020213822

fc2.bias f4 [300]
0	0x3d9a0071	0.075196154
1	0xbb490500	-0.0030673146
2	0x3cd0e9ff	0.025502203
3	0x3d646e96	0.055769525
4	0x3c72d5cb	0.01482148
5	0x3d6fd762	0.058555014
6	0x3c8df4af	0.017328588
7	0x3d3534c0	0.04423976
8	0x3c7d6809	0.015466698
9	0xbc18ab9b	-0.009318258
10	0xbb9a6cf2	-0.0047126943
11	0xbce71fc0	-0.028213382
12	0xbca537c0	-0.020168185
13	0xbd81296c	-0.06306729
14	0x3d399cd6	0.045315586
15	0xbc946f28	-0.01811941
16	0x3d910398	0.070807636
17	0x3d4c12a2	0.049822457
18	0x3d014729	0.031562004
19	0xbd1ca412	-0.038242407
20	0x3cd81223	0.026375836
21	0x3d02370c	0.031790778
22	0x3cfc153c	0.030771844
23	0x3dae80ed	0.085206844
24	0x3c880f55	0.016608873
25	0xbcdc757f	-0.026911495
26	0x3d26fbfc	0.040767655
27	0xbd2ec73c	-0.042670473
28	0x3cabb86b	0.02096196
29	0x3d3713ba	0.044696547
30	0x3ced88f8	0.028995976
31	0xbd0268f1	-0.03183836
32	0x3d82d3a4	0.063880235
33	0x3bca6719	0.006176841
34	0x3d1af91a	0.037835218
35	0xbae5299f	-0.0017483718
36	0x3c796068	0.015220739
37	0x3b0bd40f	0.0021336114
38	0x3c87ddc3	0.016585236
39	0x3d2196c1	0.03945041
40	0x3d85c0b2	0.06530894
41	0x3d02e556	0.031956993
42	0x3c38c79b	0.011278058
43	0xbc37dcaa	-0.011222044
44	0x3cef9cc7	0.029249562
45	0xbd1c3a96	-0.03814181
46	0xbbe06a4f	-0.0068486105
47	0x3d99a05b	0.075012885
48	0xbce4a1b9	-0.027909147
49	0xbc0869a8	-0.008325972
50	0x3c832381	0.01600814
51	0x3d675bf1	0.056484167
52	0x3c23ca1f	0.00999692
53	0x3c96431f	0.018342553
54	0x3d18e3b5	0.037326533
55	0xbc02705a	-0.007961357
56	0x3d975a0c	0.07390222
57	0x3c6424e3	0.01392481
58	0x3d284e40	0.04109025
59	0xbd34902a	-0.044082798
60	0xbc869658	-0.016429111
61	0xbc1dd9dc	-0.009634461
62	0x3d22f61a	0.039785482
63	0xbd259f23	-0.040434968
64	0x3cfa89f8	0.030583367
65	0xbc7b2304	-0.015328173
66	0x3cf64692	0.030062947
67	0xbce48583	-0.027895695
68	0x3cf1031a	0.029420424
69	0x3b5f6c77	0.003409175
70	0x3c8b21a2	0.01698381
71	0x3d8a53ec	0.06754288
72	0xbce0915c	-0.027413063
73	0x3aa97527	0.0012928591
74	0xbbf6da33	-0.0075333356
75	0x3c410356	0.0117805805
76	0x3d9a2c0c	0.075279325
77	0x3d83a491	0.06427873
78	0x3b6f5cba	0.0036523775
79	0xbb9bd8e5	-0.0047560805
80	0x3c34d36d	0.011036736
81	0xbc785baa	-0.015158573
82	0x3c667810	0.014066711
83	0x3c9a73eb	0.018854102
84	0x3c9c79bf	0.019101022
85	0x3d5be2ea	0.0536832
86	0xbd3f5a32	-0.046716876
87	0x3d96518e	0.07339774
88	0x3c96f4fa	0.01842736
89	0x3b258123	0.0025253973
90	0xbd3660fd	-0.04452609
91	0xbca5fb3f	-0.020261405
92	0x3d81aa17	0.0633127
93	0xbd13f0d5	-0.036118347
94	0xbd15699b	-0.036477666
95	0x3d301d47	0.04299667
96	0x3d907c56	0.07054965
97	0xbc8f86f5	-0.017520407
98	0xbbd1ad57	-0.0063988375
99	0x3d5376f5	0.05162712
100	0xbd4cafb6	-0.04997226
101	0xb9dde350	-0.00042321766
102	0x3c8dd72b	0.017314514
103	0xbbc75ebf	-0.0060842927
104	0x3c99f9c0	0.018795848
105	0x3ccbb007	0.02486421
106	0x3d343449	0.043995176
107	0x3caf1f7f	0.021377323
108	0x3c8a3c01	0.016874315
109	0x3d3bddf6	0.045865975
110	0x3d2f32e3	0.04277314
111	0x3bb77242	0.0055983374
112	0x3d08eb84	0.03342773
113	0x39b656e5	0.00034778487
114	0xbd3ff630	-0.046865642
115	0x3d3b50ad	0.045731235
116	0xbd434b8f	-0.04767948
117	0xbd3f3358	-0.046679825
118	0x3d37e517	0.04489621
119	0x3cd30b5f	0.025762258
120	0xbbcfe9db	-0.0063450164
121	0xbb3c27c8	-0.0028710235
122	0x3cf75039	0.03018962
123	0x3c0b149e	0.008488802
124	0x3da82d3a	0.08211751
125	0x3d744dfa	0.059644677
126	0x3c622b99	0.01380434
127	0x3d224fbd	0.039626826
128	0x3d059589	0.03261331
129	0x3c1ffb7d	0.009764549
130	0x3d2cfb73	0.04223199
131	0x3d56456c	0.0523123
132	0xbcbc26ba	-0.022967685
133	0x3d261cf4	0.040554956
134	0xbcaaf857	-0.02087037
135	0x3c8908eb	0.016727885
136	0x3d6447da	0.055732585
137	0xbd5aaee5	-0.05338945
138	0x3c3acd44	0.011401478
139	0x3ccfcf39	0.025367366
140	0xbd8eeb21	-0.06978441
141	0xbc316825	-0.010828053
142	0xbd10bf91	-0.035338942
143	0x3bfaed69	0.007657696
144	0x3b8c1010	0.0042743757
145	0x3d632d30	0.055463016
146	0xbd399a1f	-0.045312997
147	0x3d36dbc9	0.044643197
148	0xbd6a5f5a	-0.05721984
149	0xbcbc05c6	-0.022951972
150	0x395732bb	0.00020522896
151	0xbca3f347	-0.020013465
152	0x3ca6cd0a	0.020361442
153	0x3d03a011	0.032135073
154	0x3c965883	0.018352753
155	0x3c2715ef	0.0101981005
156	0x3d22ffa1	0.039794568
157	0x3d7b3dda	0.061338283
158	0x3ca2bb0c	0.019864582
159	0xbad04994	-0.0015891069
160	0x3b93b12d	0.004507205
161	0x3d2b069f	0.04175436
162	0x3d10d4eb	0.035359304
163	0x3d301d28	0.042996556
164	0x3c1affd3	0.009460407
165	0xbd00df1b	-0.03146277
166	0x3c9691e4	0.018380113
167	0x3d69b9fc	0.057062134
168	0xbcc99a02	-0.02460957
169	0xbc9d5c27	-0.01920898
170	0xbaa7adbc	-0.0012792866
171	0x3d350b21	0.044200066
172	0xbceedde3	-0.029158538
173	0x3d19f8b4	0.037590697
174	0xbd30462e	-0.04303568
175	0x3cb2d2bc	0.021829002
176	0xbc01870e	-0.007905735
177	0x3d90a336	0.0706238
178	0x3d66e81a	0.056373693
179	0xbd5bf89f	-0.0537039
180	0xbbe406fb	-0.00695884
181	0x3d6b87ac	0.057502434
182	0xbd3c7b2d	-0.046015907
183	0xbbc5e964	-0.006039785
184	0xbdb35e85	-0.087582625
185	0xbb499df3	-0.003076431
186	0xbcbadb7b	-0.022809735
187	0xbd34a534	-0.044102862
188	0x3cc8315a	0.024437595
189	0xbd3e4e5c	-0.046461448
190	0xbcabc80c	-0.020969413
191	0x3cfc9508	0.030832782
192	0x3d4872e3	0.04893769
193	0x3d617aba	0.05504868
194	0xbc1522a7	-0.0091025
195	0xbd2e7490	-0.04259163
196	0x3d73a8da	0.0594872
197	0x3ccc345b	0.024927309
198	0x3ccd1ab1	0.025037142
199	0xbcbcc211	-0.023041757
200	0xbb0eae6d	-0.0021771446
201	0x3c91e8ab	0.01781114
202	0x3dab68da	0.08369608
203	0xbc09894c	-0.0083945505
204	0xbb9a6e48	-0.0047128536
205	0xbcccdfd9	-0.025009083
206	0xbc98a36f	-0.018632619
207	0x3c2fc8d4	0.0107290335
208	0x3d36621a	0.04452715
209	0xbca1e708	-0.019763485
210	0xbce10409	-0.027467744
211	0xbd07afa2	-0.03312648
212	0x3cb6efb9	0.022331106
213	0xbbcfcd4d	-0.0063416124
214	0xbd471bd4	-0.048610523
215	0x3d0e703a	0.034774996
216	0xbb8801d2	-0.0041506076
217	0xbcc3d2d1	-0.023904236
218	0x3ce5df1b	0.028060487
219	0xbcece7b5	-0.02891908
220	0x3a84cba2	0.0010131488
221	0x3c0a12cd	0.008427334
222	0x3c46d56b	0.012135844
223	0xbd38ae05	-0.045087833
224	0xbc354130	-0.011062905
225	0xbd164f5e	-0.036696784
226	0xbd0bb0cb	-0.03410415
227	0xbcc21a6a	-0.023694236
228	0xbd19c1cd	-0.03753834
229	0x3d1009d3	0.03516562
230	0xbc30450f	-0.010758652
231	0x3cdd5c88	0.027021661
232	0x3d952f2a	0.072843865
233	0x3a03d640	0.0005029179
234	0x3c276ebc	0.010219272
235	0x3d4d1d0e	0.050076537
236	0x3bc74e6c	0.0060823467
237	0xbc970701	-0.018435957
238	0x3d47058f	0.048589285
239	0x3ad846dc	0.001650061
240	0x3bfd2fa9	0.007726629
241	0xbcb5022a	-0.022095758
242	0x3c522eb0	0.012828514
243	0x3d73245c	0.059360847
244	0xbb5f4671	-0.0034069086
245	0x3c01b122	0.007915767
246	0x3c007d5a	0.007842386
247	0x3b7acfa9	0.0038270748
248	0x3d2d2297	0.042269316
249	0x3cace990	0.021107465
250	0xbc0b2f08	-0.0084951
251	0xbceb78b6	-0.028744083
252	0x3c7fd539	0.015614801
253	0x3d822df5	0.06356422
254	0xbc008b64	-0.007845733
255	0xbcf5efc9	-0.030021565
