agent_checkpoints/checkpoint_actor_17.pth (torch_old, 553585 bytes, 14 tensors)

fc1.weight f4 [400, 33]
000000 3a 8a 22 3c 93 4a 03 bd a1 a3 33 3d 46 88 a5 3d
       0.009920651 -0.03205354 0.04385722 0.08082633
000010 3d b7 2e 3c c8 95 09 bd fb 13 10 3d 91 39 57 3b
       0.010663805 -0.03359011 0.035175305 0.0032840709
000020 24 78 a7 3c 97 c4 02 bc 32 2e 81 3b 86 87 0c bd
       0.02044303 -0.007981441 0.0039422745 -0.034308933
000030 6a f6 2c bc c0 4a 68 3c d5 3c fe bc 46 d5 19 3c
       -0.010556797 0.014177978 -0.031034866 0.009389227
000040 e5 07 ad 3c 99 59 a3 bc 2f f4 2b bd b8 5b fc bc
       0.021121928 -0.019940184 -0.04198092 -0.030805454
000050 95 ca 0b bc 3b ca 5c bd 00 ac ee 3b 41 af 0e 3b
       -0.008532186 -0.0539038 0.0072836876 0.002177194
000060 9c c2 8e bb b6 01 31 bd e7 5b 18 3d 94 a4 95 bd
       -0.0043566953 -0.043214522 0.03719702 -0.073067814
000070 ae 24 c3 3c ea 79 f7 bc 1f 47 58 3d f3 a0 d0 bc
       0.023821201 -0.0302095 0.0528022 -0.025467372
000080 13 ab d0 3c 18 66 9d bd f5 f8 da b9 84 80 29 3d
       0.0254722 -0.076854885 -0.00041765688 0.041382328
000090 60 9a 21 3c a6 7f 09 bd 94 eb d7 3c 33 59 a9 bc
       0.009863466 -0.033569 0.02635745 -0.020672416
0000a0 3a bd ad 3a 7a 7c 41 bd 83 ad c4 3c 10 f1 a9 3c
       0.0013255246 -0.04723785 0.024008518 0.02074483
0000b0 fa 57 9c bc af da f6 bc 92 43 48 bd ff d7 01 bd
       -0.01908492 -0.030133573 -0.048892565 -0.03170013
0000c0 dc ce 15 bd ec 1d fb bc 9f df 31 bd de 87 a3 bc
       -0.03657423 -0.030653916 -0.043426152 -0.019962247
0000d0 21 15 0a 3d 8b 82 02 bd 85 57 d0 b9 f9 b8 ce 3b
       0.033711556 -0.031862777 -0.0003973806 0.0063086716
0000e0 f5 67 b2 3c 40 63 f8 3c 99 d8 50 bd 3f 86 6a bd
       0.021778086 0.030320764 -0.050987814 -0.057256933
0000f0 89 18 56 bd fb 94 39 bd ed b5 a4 bc 3b 3f 36 3d
       -0.052269492 -0.045308094 -0.02010628 0.044493895
000100 97 82 03 3d 2a 56 5d 3d 59 d0 4b 3c ca 48 9b bb
       0.032106962 0.05403725 0.012439811 -0.0047389017
000110 94 44 8f bc 52 52 1c 3d fc 41 91 bc 2d aa 79 3c
       -0.017488755 0.038164444 -0.01773166 0.015238327
000120 a5 a7 2f bd dc ab 1f 3d 99 41 d8 3c fa cb 23 bc
       -0.042884488 0.038982257 0.026398467 -0.009997362
000130 f3 9a 0e 3d 63 8e d3 ba 02 5a 6c 3c 9e 52 72 bc
       0.03481574 -0.0016140457 0.014425756 -0.014790205
000140 88 39 bc bc af 2f 3b bc ce 89 c0 bc e0 22 1e 3d
       -0.022976652 -0.011424943 -0.02350321 0.03860748
000150 bf c5 8a bc 1f 57 65 bc d2 1f 66 3d 16 92 a6 bc
       -0.016939996 -0.013997822 0.05618269 -0.020333331
000160 8f a3 c2 bb b9 d4 41 3d 97 65 32 bd 2a b9 66 bd
       -0.005939908 0.04732201 -0.043553915 -0.05632893
000170 d0 74 5f 3d c5 83 9a bd 0a a1 a3 bc 62 01 ac 3c
       0.05455476 -0.07544664 -0.01997425 0.020996753
000180 31 49 e4 3c 98 91 1d bc f0 2e 89 3c 23 cb 78 3d
       0.027866932 -0.009617232 0.016746014 0.0607406
000190 d3 38 39 bc 1d af 62 bc c8 bc 66 3d 70 3e a3 bc
       -0.011305052 -0.013835696 0.05633238 -0.019927233
0001a0 81 8b 03 bd 38 fc bd 3b db 8e c3 bc f3 a8 31 3c
       -0.032115463 0.005797889 -0.02387183 0.010843503
0001b0 41 26 49 3d af cc 6b 3d 15 cf 59 3d 4b 59 55 3d
       0.049108747 0.05756825 0.053176004 0.05208711
0001c0 31 4b 85 3d 40 54 0e 3c 02 a6 a6 bc 9a 8a 03 3c
       0.06508482 0.008687079 -0.02034283 0.008028651
0001d0 4d ec 57 3d a6 8f 56 3b 50 0f 1c 3c 64 e7 1d 3d
       0.05271559 0.003273943 0.009525135 0.03855075
0001e0 81 20 8a 3c fb 02 48 3d 87 f2 8f bc 2c 3b e1 3c
       0.016861202 0.048830967 -0.0175717 0.027494036
0001f0 3d 1b 7c 3d 5c 2b e9 3b 9e 7a 84 bd 76 e9 da bc
       0.061549414 0.0071157645 -0.064687 -0.026722651
000200 58 08 d8 bb f4 d8 03 bd 7f 5e 15 3d de a3 6a 3c
       -0.0065927915 -0.032189324 0.03646707 0.014321296
000210 ed 67 5b bd 34 6f 32 bd 58 46 1b 3d 19 70 3e 3b
       -0.05356591 -0.043563083 0.037908882 0.0029058515
000220 ea d7 34 3d 5a 62 c3 ba 81 4c a7 3c 08 ef 14 3c
       0.044151224 -0.001490663 0.020422222 0.009090193
000230 59 9a e0 3c ef 6c 76 3c 80 9f 55 3d d9 02 0a bd
       0.027417349 0.01504062 0.052154064 -0.033694122
000240 5b 58 87 bd 2a dd 4a bd d5 8e 0a 3b 61 1b c9 bc
       -0.06608649 -0.049527325 0.0021142263 -0.024549188
000250 8c af 2c 3d 3b 9f 1d bd 97 f4 54 bd 0c b9 f2 bb
       0.042159602 -0.038481932 -0.05199107 -0.007407313
000260 0c 0b 89 ba ff 0a 7c 3d 20 84 e2 3a f5 6e 99 3c
       -0.0010455563 0.061533924 0.0017281808 0.018729666
000270 2a a6 1b bd c7 73 2b bc ba 32 56 3c de 92 ad bc
       -0.038000263 -0.010464615 0.013073618 -0.021188196
000280 99 00 67 3d ed ed 26 3d 4e 0b 4b 3d b8 cd 11 bc
       0.056397054 0.040754247 0.049571328 -0.008899145
000290 23 07 5d 3d 1d 56 80 3d 17 df 12 bd c9 7a ab bc
       0.053961884 0.06266425 -0.035857286 -0.020932572
0002a0 14 f1 3a 3c 98 09 ac 3c 1f ed 4d 3d 64 cb b5 bc
       0.011410017 0.021000668 0.050274964 -0.02219171
0002b0 13 43 37 bd 2a 7e d6 bc 56 d0 17 bd a7 44 35 bd
       -0.0447417 -0.026183207 -0.03706392 -0.044254925
0002c0 b4 0f 23 bd f9 f6 49 3d 32 90 3c 3d 20 36 c2 3c
       -0.039809898 0.049307797 0.046035953 0.02370745
0002d0 95 fc 1c bc 86 70 16 3d 38 92 4e 3d 03 4d 2e 3d
       -0.009581705 0.036728404 0.050432414 0.042553913
0002e0 19 fb ba bc 7f 39 95 3c 22 9a 1f 3d 69 26 1c bd
       -0.02282481 0.018215893 0.038965352 -0.03812257
0002f0 d9 69 5b bd 02 f7 3c 3d 03 1c 5a 3d 67 90 a2 bd
       -0.05356774 0.046134003 0.05324937 -0.07937699
000300 8a 88 d0 bc 20 b5 7e 3c a3 03 f1 bc 74 00 08 3d
       -0.025455732 0.015546113 -0.02942068 0.033203557
000310 60 1e 85 ba 60 6c 50 bb 94 d9 a0 bd a9 af 03 bc
       -0.0010156147 -0.0031802878 -0.07854 -0.008037486
000320 b5 f0 67 3d 80 c5 fb 3b 36 d4 4d 3c ea 70 06 bd
       0.05662604 0.007683456 0.012562802 -0.032822527
000330 5f 28 1a 3c fa fc 90 bc 07 18 d7 3b 44 0a 61 3d
       0.009409039 -0.017698754 0.0065641436 0.05494143
000340 9c e0 b9 3c c0 12 dd bb e6 74 4f 3d 4b 5f 30 bd
       0.02269011 -0.00674662 0.050648592 -0.04305963
000350 d4 72 69 bd 3f 19 40 3b 59 67 2b 3d d2 0e 27 bd
       -0.056994274 0.0029311923 0.041846607 -0.040785618
000360 6e 11 92 bc c2 b9 41 bd 4d f8 ca 3c 2a 99 75 3d
       -0.017830577 -0.047296293 0.024776602 0.05996052
000370 68 e0 4a 3b ee 23 45 bd f5 5f 0d bd 81 bd 8d 3c
       0.003095651 -0.04812997 -0.03451534 0.017302277
000380 93 7e 36 bd a5 b2 ca bc 84 d6 8d 3b cc aa 3e bc
       -0.044554304 -0.024743387 0.004328551 -0.011637401
000390 27 24 7b 3d e5 ff 00 bd 18 c2 80 3c fa 21 04 3d
       0.061313774 -0.03149404 0.015717551 0.032258965
0003a0 ea 40 2e 3d 48 4d c1 b7 82 25 f7 bc 95 b6 a5 3c
       0.042542376 -2.304338e-05 -0.030169252 0.020228663
0003b0 39 68 ff bc 34 16 70 3c 60 21 2a bd 1b f7 44 bd
       -0.031177627 0.014653731 -0.041535735 -0.04808722
0003c0 9b eb 34 3c 32 e0 43 3c 8e b2 79 3d 23 ab d1 3c
       0.011042501 0.011955308 0.0609613 0.0255943
0003d0 40 6b 80 b5 15 a6 01 bd 58 44 a4 bc cf 7b 57 bc
       -9.567957e-07 -0.03165253 -0.02005212 -0.013152077
0003e0 f9 d4 62 3c 2d fb 88 ba 69 27 ae bc ee 08 e9 3c
       0.013844722 -0.0010450833 -0.021259027 0.02844664
0003f0 49 85 a5 3b 8f c4 1a bd d6 6c 00 3d c9 61 08 3d
       0.005051289 -0.03778511 0.031353794 0.03329638

fc1.bias f4 [400]
000000 8e cd 64 3d 6a 7a ca bc b0 c7 07 3e d3 9a c0 bd
       0.055860095 -0.024716575 0.13259768 -0.094045304
000010 20 ed f3 bd 40 a1 32 bd ce fc 88 bd 2e 59 64 3d
       -0.119104624 -0.04361081 -0.06688844 0.05574911
000020 6e eb c9 bd 57 ad 2d 3e 29 21 7d bd 2e e3 e2 bc
       -0.09859358 0.16960655 -0.061799202 -0.027696218
000030 77 be 04 3e 4b 42 2c 3e 4f ee f0 3d cd bb c8 bd
       0.12963282 0.16822164 0.11764204 -0.09801445
000040 f0 93 8b bd 23 d9 9b 3d 91 a3 76 3d 1c 12 ba bd
       -0.06815326 0.07609775 0.060214583 -0.09085485
000050 e3 4e 10 bc b3 5d d0 bc 1c 2d 04 3e 1f 72 11 3e
       -0.008807871 -0.025435304 0.12907833 0.1420369
000060 c4 25 e7 3d 52 f1 75 3d ce 5f ca bd 44 64 04 bc
       0.112865 0.060044594 -0.098815545 -0.008080546
000070 16 fc d4 bc 01 c0 43 3e 7f ed 67 bc b0 67 83 3d
       -0.02599911 0.19116212 -0.014155745 0.06416261
000080 4b a3 e9 bd 2f 9a f3 bd 2f 1b 84 bd 12 4a 42 bd
       -0.11408099 -0.118946426 -0.06450497 -0.04743392
000090 01 78 a6 3d 4d 62 ed bd 27 bb a0 bd 4e cb 12 3e
       0.08128358 -0.11591015 -0.078481965 0.14335367
0000a0 47 8f 0b 3e 9d 96 24 bc 9c d2 4e bd 40 dc 01 3e
       0.13628875 -0.010045675 -0.05049382 0.12681675
0000b0 e8 da 54 3d f7 fd b9 bb 24 07 08 3e 31 10 a9 bd
       0.051966578 -0.005676027 0.13283974 -0.082550414
0000c0 ac 3e ab bd ee e3 f4 bd 3c 41 33 3e 0f 32 31 be
       -0.08361563 -0.11957537 0.17505354 -0.17304252
0000d0 cf 0c 15 3b 59 5e 9a bd 1c b0 fb bd 9a 33 2f 3d
       0.002274323 -0.07537527 -0.122894496 0.04277382
0000e0 f0 02 18 be 83 ba 39 bd 0a d3 93 bc 98 1b 10 3e
       -0.1484487 -0.045343887 -0.018044967 0.14073026
0000f0 af 74 2f 3e 4a 75 33 3e d3 2c a4 3d 81 0f 36 3e
       0.17134355 0.17525211 0.08016362 0.17779352
000100 b5 c9 38 3d 12 33 c6 3c 6e cc 70 bd 00 94 aa bd
       0.045114238 0.024194274 -0.05878871 -0.0832901
000110 ab 53 9a 3d bf ad df 3d d3 c1 1a be 5d 3f 2d 3e
       0.0753549 0.10921811 -0.15113 0.16918702
000120 61 73 cc 3d 88 82 a5 bd ce 87 d4 bd ac 35 16 3e
       0.09982944 -0.080815375 -0.10377465 0.14668912
000130 8d ac 84 3d 1c 99 0e 3d 2b c1 1d 3c b6 69 94 bc
       0.06478224 0.034813985 0.009628574 -0.018116813
000140 73 bf d9 bd 08 8c bd 3d ee 6d 6f 3b db 86 b5 bd
       -0.10632219 0.092552245 0.003653403 -0.08863612
000150 08 33 2c 3e 96 58 de 3d 1e 28 68 bd 38 17 45 3e
       0.16816342 0.1085674 -0.056678884 0.19247139
000160 99 80 47 3d b8 21 0d 3e a5 a5 f1 bd 26 fd 74 bd
       0.048706625 0.13782394 -0.11799172 -0.059811734
000170 e8 d7 8a bc 9b 40 4b 3d e2 92 75 3d 5c 93 1f 3e
       -0.016948655 0.04962216 0.05995453 0.15583557
000180 6b ff ae bc 62 35 32 3e 44 97 28 3d 19 52 90 3d
       -0.021362027 0.17403176 0.041159883 0.07046909
000190 4a f7 24 3e 6f 74 31 3d 1b 45 da bd 4c f8 36 3e
       0.16109958 0.04332393 -0.10657712 0.17868155
0001a0 db 0d c1 bd d2 78 82 bc fa 49 0a be 2e 5c 02 be
       -0.09426471 -0.015926752 -0.13504782 -0.12730476
0001b0 0a f5 91 3d ca 97 9e 3d cd 0f 26 3e a4 68 1c 3e
       0.071268156 0.07743795 0.16216965 0.15274292
0001c0 33 c7 2b be 5a 19 17 3c 07 97 1b bd 12 be f5 3d
       -0.16775207 0.009222353 -0.037985828 0.11999144
0001d0 92 26 89 3d 68 d8 04 3d 58 9c ac 3d ce 6c 9b bd
       0.0669681 0.032432944 0.08428258 -0.07589112
0001e0 69 94 36 bd e8 64 1e 3e 72 10 03 3e ed a8 94 3c
       -0.04457513 0.1546818 0.12799242 0.018146956
0001f0 ec 50 9d bd 17 b6 ba 3c c0 8d 08 bd 9e 83 4a bd
       -0.0768145 0.022791905 -0.03333831 -0.049441926
000200 39 4d cc bd 74 18 07 be 95 44 ae bd 42 8f c2 3d
       -0.099756666 -0.13192922 -0.08509175 0.094999805
000210 12 1b 6b ba cb af e9 bd 3e d1 39 3e e2 3f 31 bd
       -0.00089685724 -0.11410483 0.18146226 -0.043273814
000220 ee 8f 23 3d 65 e2 ea 3c e3 91 2b bc 74 62 0c 3e
       0.039932184 0.028672406 -0.010471794 0.13709432
000230 ef 6e e0 bd be b7 89 3c e1 a4 ea 3c 1d c1 41 3d
       -0.10958659 0.016811248 0.028643074 0.047303308
000240 22 60 1b be 77 7e 15 be 66 cb 27 3e 3b b2 62 3d
       -0.1517339 -0.14599024 0.16386184 0.055345755
000250 ab d0 a0 bd 92 dd 1a be 48 f1 45 3c 5f 6e 2a be
       -0.078523 -0.15123585 0.012081452 -0.16643666
000260 85 b6 c8 3d 9f 0f ba 3c f7 fa 04 3b 7a b2 fb 3d
       0.09800438 0.022712527 0.0020291188 0.12289901
000270 d3 14 b3 bd cc cd d5 bd 1d 61 03 3d 9e a1 3d 3e
       -0.08744206 -0.10439643 0.032075036 0.18518683
000280 ba 58 b0 3c cc df 1b 3e a8 bb db 3d f6 be a6 bd
       0.021526683 0.1522209 0.10729152 -0.08141892
000290 08 d3 5c bd 01 87 2b 3e 8c 5f 85 bd f3 cb 14 3e
       -0.053912193 0.16750719 -0.06512365 0.14530925
0002a0 3e 52 80 bc df 1c 83 bd d0 12 20 3e 7a 10 c8 3d
       -0.015664216 -0.06401991 0.15632176 0.09768768
0002b0 d6 89 a3 3d bf 0d ba bc bb 6a d8 3c 66 b2 45 bc
       0.079852745 -0.022711633 0.02641808 -0.012066459
0002c0 dd 8c 2c 3d fc fc 8f bd ed 6c a0 3d 90 24 d2 3d
       0.042126525 -0.07030675 0.07833276 0.1026088
0002d0 73 cf b8 bd 1b 91 0a 3e 07 34 c5 bc 46 fc 25 3d
       -0.09023943 0.13531916 -0.02407266 0.04052379
0002e0 fa a1 ac bd db 53 15 bd d6 dd eb 3d 3a 7f 18 3e
       -0.08429332 -0.036456924 0.11516921 0.14892283
0002f0 cd 4d dd 3d da 17 04 be d7 11 d9 3d 25 48 f3 bd
       0.10805855 -0.12899724 0.10599106 -0.11878995
000300 77 e9 ae 3d 5c 49 21 3d f2 f8 c9 3d 42 70 19 be
       0.08540624 0.0393766 0.09861936 -0.14984229
000310 70 5f d4 3d ca 81 33 bd 6a ef 8a 3b 46 70 49 3e
       0.10369766 -0.04382495 0.004239966 0.19671735
000320 de 5c bb 3d ba 01 c7 bd 71 ee b7 3d f2 e5 03 3e
       0.091485724 -0.09717126 0.08981026 0.12880686
000330 85 eb 8f bd c1 16 34 3e 58 bb 4f 3d 0b 1c b5 3d
       -0.07027344 0.17586805 0.050715774 0.088432394
000340 27 22 f0 3b cf f4 3a 3e f0 fb 1f be f9 93 ad 3d
       0.00732829 0.1825745 -0.1562345 0.08475489
000350 19 1e 56 3d 13 59 3c 3b 31 1a 3d 3e 35 91 32 3e
       0.052274797 0.0028739616 0.18467022 0.17438205
000360 f2 c0 9e bd 13 44 89 3d 3a 74 03 bc 5e f6 1d 3d
       -0.07751645 0.06702437 -0.008023316 0.038565032
000370 c6 1f 97 bd 7b 2e 9c bd 4c ab 0d be 17 2c 40 3e
       -0.07379107 -0.07626053 -0.13834876 0.18766819
000380 13 55 eb bd 56 ac c5 bd 2e 9f 4e 3e 7a 51 cb 3d
       -0.11490836 -0.09652011 0.2017791 0.0992765
000390 c1 49 00 3e 8e e2 da 3c 05 98 93 3d 44 28 81 bd
       0.12528135 0.026719358 0.0720673 -0.06306508
0003a0 b4 8e 2c 3e a9 86 6b bd 3d bb 01 3c 68 04 db bc
       0.16851312 -0.05750147 0.007918176 -0.0267355
0003b0 43 25 3b 3d f9 1a 19 be 36 b9 40 3e 7a 11 a3 3d
       0.045689832 -0.14951696 0.18820652 0.07962318
0003c0 05 70 0a 3e 05 2a 5b 3d 9e fe 74 3c c5 ac 3f bd
       0.13519295 0.05350687 0.014953284 -0.046795625
0003d0 4b c8 ee 3d 37 29 16 3d 45 4d a1 bd 4c dd 09 be
       0.116592966 0.0366604 -0.07876066 -0.13463324
0003e0 d9 a5 c5 bc 31 3b f3 bd bd 58 b7 bd 9f ca 19 3e
       -0.024126934 -0.11876524 -0.08952472 0.150187
0003f0 20 58 22 3e 35 38 3d 3e a9 c2 b3 3d 7d 92 ad bd
       0.1585393 0.18478473 0.08777363 -0.08475206

fc1_bn.weight f4 [400]
000000 72 7a 42 3f c0 6a 1e 3c 68 30 29 3e 4a 10 30 3f
       0.75968087 0.009669006 0.16522372 0.68774855
000010 d4 79 55 3f 2d a6 68 3f 3c 45 56 3f 2b 1f 08 3f
       0.8338902 0.90878564 0.83699393 0.5317256
000020 6c 2a e1 3e e8 46 b0 3e f4 0d 79 3e 00 16 cf 3e
       0.43977678 0.34429097 0.24321729 0.40446472
000030 c2 a5 52 3f 18 1d 19 3f 2c 7c 60 3e c4 82 5e 3f
       0.82284176 0.5981002 0.21922368 0.8691828
000040 84 36 04 3f 64 ee 35 3f 5c d9 62 3e 0f 08 79 3f
       0.51645684 0.7106688 0.22153229 0.9727792
000050 28 98 bf 3d 88 e4 f4 3e a0 23 62 3d d4 3a 64 3e
       0.093551934 0.47830606 0.055209756 0.22288066
000060 20 8b b2 3d 40 1b a3 3d e4 1b 34 3f a4 ef b3 3e
       0.08717942 0.07964182 0.7035506 0.3514377
000070 02 43 1b 3f 2d d4 2c 3f 78 bb d5 3e 18 c1 a0 3d
       0.6064912 0.67511255 0.4174459 0.0784933
000080 0b a7 42 3f e0 9b 63 3f 3a 08 2b 3f 0b 85 5f 3f
       0.7603614 0.8890972 0.6680943 0.8731238
000090 de 6e 54 3f 71 d7 28 3f 36 ea 29 3f 8c fb c3 3e
       0.8298167 0.6595374 0.66373 0.38277853
0000a0 9c fc 81 3e d9 56 32 3f 9c 23 16 3f 4c 7b 78 3e
       0.25388038 0.6966377 0.58648086 0.24265784
0000b0 b3 e5 2a 3f c0 96 e3 3d 18 57 43 3f 48 7f c3 3e
       0.66756743 0.11112738 0.7630477 0.38183045
0000c0 34 b8 f3 3e ed 1e 4e 3f 68 34 27 3e 88 f8 22 3f
       0.47601473 0.8051594 0.16328585 0.6366048
0000d0 a0 48 a8 3e 5b a4 3a 3f 9a 3e 08 3f af 7a 2c 3f
       0.32867908 0.72907037 0.5322052 0.673747
0000e0 70 e5 05 3d 42 df d3 3e d8 4a 31 3e fd 56 19 3f
       0.03268951 0.4138127 0.17313707 0.5989836
0000f0 75 bb 7a 3f 60 d0 24 3e 61 98 7a 3f 53 1a 2e 3f
       0.97942287 0.16095114 0.9788876 0.6800892
000100 0a 8f 2f 3f d4 38 7b 3f 1a 8b ce 3e 40 3b d1 3c
       0.68577635 0.9813359 0.403405 0.025540948
000110 d8 84 34 3e 40 96 52 3d eb 3b 55 3f 95 24 50 3f
       0.17628801 0.05141282 0.8329455 0.8130582
000120 d6 f1 8f 3e f2 af e9 3e e8 26 d2 3d be 38 1f 3f
       0.28114194 0.45642048 0.10261327 0.62195957
000130 9a 4e ea 3e cf 42 38 3f 58 9b 5f 3e b4 0b 3c 3f
       0.45763093 0.7197694 0.21836603 0.7345536
000140 2c 4d 47 3e b8 19 37 3f 36 5f d2 3e 94 41 77 3f
       0.19463032 0.7152362 0.41088265 0.9658444
000150 80 77 13 3d 2c 6d bb 3e 16 af 6d 3f 4a ba e3 3e
       0.036002636 0.3660673 0.92845285 0.44478065
000160 b0 31 96 3d f8 de 46 3f e0 db 6b 3e f9 61 34 3f
       0.07333696 0.77683973 0.23033094 0.70461994
000170 8c d1 09 3f 52 c4 df 3e 38 c3 9e 3e de 7c c3 3e
       0.5383537 0.43704468 0.31008315 0.38181204
000180 e8 86 a1 3d c6 48 d4 3e fd 4f 6e 3f ac 65 24 3f
       0.078870595 0.41461772 0.930908 0.6421764
000190 00 b0 59 3b 94 52 16 3f ac 90 69 3e 74 ff 17 3f
       0.0033216476 0.58719754 0.22809094 0.59374166
0001a0 8c c2 fe 3e 60 25 5b 3e 8a d0 51 3f a8 bb d2 3e
       0.49757802 0.21400976 0.8195883 0.41158795
0001b0 38 69 fc 3e 40 9e 0e 3e a0 56 e1 3d aa da 9f 3e
       0.49299026 0.13927555 0.110028505 0.31221515
0001c0 95 a6 15 3f 90 b8 30 3e f8 b7 9d 3d a2 ee 98 3e
       0.5845731 0.17257905 0.07701105 0.29869562
0001d0 ed 28 6e 3f e8 51 22 3f 5c 37 3b 3e 2c 5d 0a 3f
       0.930312 0.6340623 0.18282837 0.5404842
0001e0 b2 1c 6e 3f ac b0 67 3e 95 6c 64 3f 54 75 0a 3f
       0.93012536 0.22625989 0.89228183 0.5408528
0001f0 79 66 69 3f 16 9a bc 3e d4 54 1d 3e 68 41 16 3e
       0.91171986 0.36836308 0.1536439 0.14673388
000200 00 80 f8 3a 0a f9 40 3f 60 7d e2 3c 00 09 50 3e
       0.0018959045 0.75380003 0.027647674 0.20315933
000210 f4 df df 3e a2 52 b5 3e 48 69 2e 3e e8 7e 5c 3f
       0.4372555 0.35414606 0.17032349 0.86131144
000220 40 a1 a7 3c 90 cb 09 3d f4 da 29 3e 2b c1 11 3f
       0.020462632 0.033641398 0.1658743 0.56935376
000230 15 3f 42 3f 64 74 85 3e 78 4f 37 3e bc 1f 88 3e
       0.75877506 0.26065361 0.17901409 0.2658671
000240 da 6f ec 3e 62 88 5e 3f 84 99 4e 3f ae bb f4 3e
       0.46179086 0.86926854 0.80702996 0.47799438
000250 09 ac 44 3f 01 52 32 3f f6 ad 48 3f 9d 33 77 3f
       0.76825005 0.6965638 0.78390443 0.9656313
000260 e4 e1 7c 3f c1 93 52 3f 76 d0 90 3e bc 3e 4c 3e
       0.9878218 0.82256705 0.28284043 0.19945806
000270 9e 53 6c 3f 03 9a 49 3f bf 79 19 3f 28 e5 a9 3d
       0.9231509 0.7875063 0.59951395 0.08295661
000280 0f 75 5d 3f dc 44 4b 3f d8 d5 77 3e ef 98 42 3f
       0.8650674 0.79401946 0.24202669 0.7601461
000290 c8 40 d8 3e c8 2e 45 3e 69 62 5f 3f 70 dc 25 3e
       0.42236924 0.19256127 0.87259537 0.16197371
0002a0 80 e3 42 3e ae a3 94 3e 66 a3 1e 3f 7d cc 6c 3f
       0.19032097 0.29031128 0.61968076 0.92499524
0002b0 98 59 e8 3d d3 93 1f 3f 69 67 4a 3f 2e c8 e3 3e
       0.11345214 0.62334937 0.7906404 0.44488662
0002c0 5d 4c 55 3f 2e a9 f2 3e 18 b1 ed 3e 6c 61 16 3e
       0.83319646 0.473947 0.46424174 0.14685601
0002d0 ae 1c 1d 3f 57 64 30 3f 21 ab 7b 3f e4 31 d6 3e
       0.61371887 0.68903106 0.98307997 0.4183494
0002e0 34 1a de 3e 5d 7c 3c 3f 23 7a 20 3f 00 27 61 3d
       0.43379366 0.73627263 0.62686366 0.054968834
0002f0 f0 e4 df 3e eb e8 15 3f 1a 2a 7a 3f 59 a9 48 3f
       0.43729353 0.5855853 0.9772049 0.78383404
000300 fe 9c d6 3e 22 58 90 3e 74 9e 1e 3e 7c e1 3d 3e
       0.4191665 0.2819224 0.15490133 0.18543047
000310 49 64 3d 3f 13 61 02 3f e8 cd 4e 3e 88 67 08 3f
       0.7398115 0.50929374 0.20195735 0.53282976
000320 00 8c 15 3b b4 7e e2 3e 84 eb c1 3e 0e c5 b3 3e
       0.0022819042 0.44237292 0.37874997 0.35111278
000330 0c 6a 94 3e 64 dc 79 3e 87 93 70 3f 5e 10 7a 3f
       0.28987157 0.24400479 0.9397511 0.97681224
000340 67 0e 5b 3f 91 4d 19 3f 76 cc 43 3f 20 b2 ed 3d
       0.8556885 0.5988398 0.7648386 0.1160624
000350 65 f6 6a 3f b7 a4 7f 3f 00 e8 11 3f 69 71 42 3f
       0.9178222 0.9986071 0.5699463 0.759543
000360 90 0e fd 3e c4 ef 42 3e ba 2f 71 3f d4 15 74 3e
       0.49425173 0.19036776 0.9421345 0.23836452
000370 14 ad 2f 3e 20 36 81 3e ac 77 33 3e 72 1a a5 3e
       0.17155868 0.25236607 0.1752612 0.3224674
000380 d0 06 1f 3e 9e 9e 53 3f 48 ec ad 3e ee 38 f5 3e
       0.15529943 0.82663906 0.3396933 0.47894996
000390 62 b7 4c 3f 21 f9 20 3f 5f cf 10 3f a8 e4 be 3e
       0.7996732 0.6288014 0.56566423 0.37283826
0003a0 e0 f1 8e 3e c4 6d 56 3f a9 f6 0c 3f a1 ec 20 3f
       0.2791891 0.8376124 0.55063874 0.6286107
0003b0 64 e7 78 3f 9c 14 71 3e fe 12 79 3f 42 c2 1d 3f
       0.97228074 0.23543018 0.97294605 0.6162454
0003c0 80 f3 d7 3e b9 31 6a 3f 06 1c b3 3e 32 6d 22 3f
       0.42177963 0.9148212 0.34982318 0.6344787
0003d0 42 db 2b 3f f0 e2 f4 3e 98 e3 bf 3d 93 79 54 3f
       0.67131436 0.4782939 0.09369582 0.8299801
0003e0 ea a7 6d 3f 6e 66 3c 3f 7c b5 66 3f ae 3d 51 3f
       0.9283434 0.73593795 0.90120673 0.8173474
0003f0 76 ec 57 3f 2a b5 29 3f 00 4a 84 3b 45 42 2e 3f
       0.84345186 0.6629206 0.004037142 0.6806987

fc1_bn.bias f4 [400]
000000 00 00 00 00 00 00 00 00 00 00 00 00 00 00 00 00
       0.0 0.0 0.0 0.0
000010 00 00 00 00 00 00 00 00 00 00 00 00 00 00 00 00
       0.0 0.0 0.0 0.0
000020 00 00 00 00 00 00 00 00 00 00 00 00 00 00 00 00
       0.0 0.0 0.0 0.0
000030 00 00 00 00 00 00 00 00 00 00 00 00 00 00 00 00
       0.0 0.0 0.0 0.0
000040 00 00 00 00 00 00 00 00 00 00 00 00 00 00 00 00
       0.0 0.0 0.0 0.0
000050 00 00 00 00 00 00 00 00 00 00 00 00 00 00 00 00
       0.0 0.0 0.0 0.0
000060 00 00 00 00 00 00 00 00 00 00 00 00 00 00 00 00
       0.0 0.0 0.0 0.0
000070 00 00 00 00 00 00 00 00 00 00 00 00 00 00 00 00
       0.0 0.0 0.0 0.0
000080 00 00 00 00 00 00 00 00 00 00 00 00 00 00 00 00
       0.0 0.0 0.0 0.0
000090 00 00 00 00 00 00 00 00 00 00 00 00 00 00 00 00
       0.0 0.0 0.0 0.0
0000a0 00 00 00 00 00 00 00 00 00 00 00 00 00 00 00 00
       0.0 0.0 0.0 0.0
0000b0 00 00 00 00 00 00 00 00 00 00 00 00 00 00 00 00
       0.0 0.0 0.0 0.0
0000c0 00 00 00 00 00 00 00 00 00 00 00 00 00 00 00 00
       0.0 0.0 0.0 0.0
0000d0 00 00 00 00 00 00 00 00 00 00 00 00 00 00 00 00
       0.0 0.0 0.0 0.0
0000e0 00 00 00 00 00 00 00 00 00 00 00 00 00 00 00 00
       0.0 0.0 0.0 0.0
0000f0 00 00 00 00 00 00 00 00 00 00 00 00 00 00 00 00
       0.0 0.0 0.0 0.0
000100 00 00 00 00 00 00 00 00 00 00 00 00 00 00 00 00
       0.0 0.0 0.0 0.0
000110 00 00 00 00 00 00 00 00 00 00 00 00 00 00 00 00
       0.0 0.0 0.0 0.0
000120 00 00 00 00 00 00 00 00 00 00 00 00 00 00 00 00
       0.0 0.0 0.0 0.0
000130 00 00 00 00 00 00 00 00 00 00 00 00 00 00 00 00
       0.0 0.0 0.0 0.0
000140 00 00 00 00 00 00 00 00 00 00 00 00 00 00 00 00
       0.0 0.0 0.0 0.0
000150 00 00 00 00 00 00 00 00 00 00 00 00 00 00 00 00
       0.0 0.0 0.0 0.0
000160 00 00 00 00 00 00 00 00 00 00 00 00 00 00 00 00
       0.0 0.0 0.0 0.0
000170 00 00 00 00 00 00 00 00 00 00 00 00 00 00 00 00
       0.0 0.0 0.0 0.0
000180 00 00 00 00 00 00 00 00 00 00 00 00 00 00 00 00
       0.0 0.0 0.0 0.0
000190 00 00 00 00 00 00 00 00 00 00 00 00 00 00 00 00
       0.0 0.0 0.0 0.0
0001a0 00 00 00 00 00 00 00 00 00 00 00 00 00 00 00 00
       0.0 0.0 0.0 0.0
0001b0 00 00 00 00 00 00 00 00 00 00 00 00 00 00 00 00
       0.0 0.0 0.0 0.0
0001c0 00 00 00 00 00 00 00 00 00 00 00 00 00 00 00 00
       0.0 0.0 0.0 0.0
0001d0 00 00 00 00 00 00 00 00 00 00 00 00 00 00 00 00
       0.0 0.0 0.0 0.0
0001e0 00 00 00 00 00 00 00 00 00 00 00 00 00 00 00 00
       0.0 0.0 0.0 0.0
0001f0 00 00 00 00 00 00 00 00 00 00 00 00 00 00 00 00
       0.0 0.0 0.0 0.0
000200 00 00 00 00 00 00 00 00 00 00 00 00 00 00 00 00
       0.0 0.0 0.0 0.0
000210 00 00 00 00 00 00 00 00 00 00 00 00 00 00 00 00
       0.0 0.0 0.0 0.0
000220 00 00 00 00 00 00 00 00 00 00 00 00 00 00 00 00
       0.0 0.0 0.0 0.0
000230 00 00 00 00 00 00 00 00 00 00 00 00 00 00 00 00
       0.0 0.0 0.0 0.0
000240 00 00 00 00 00 00 00 00 00 00 00 00 00 00 00 00
       0.0 0.0 0.0 0.0
000250 00 00 00 00 00 00 00 00 00 00 00 00 00 00 00 00
       0.0 0.0 0.0 0.0
000260 00 00 00 00 00 00 00 00 00 00 00 00 00 00 00 00
       0.0 0.0 0.0 0.0
000270 00 00 00 00 00 00 00 00 00 00 00 00 00 00 00 00
       0.0 0.0 0.0 0.0
000280 00 00 00 00 00 00 00 00 00 00 00 00 00 00 00 00
       0.0 0.0 0.0 0.0
000290 00 00 00 00 00 00 00 00 00 00 00 00 00 00 00 00
       0.0 0.0 0.0 0.0
0002a0 00 00 00 00 00 00 00 00 00 00 00 00 00 00 00 00
       0.0 0.0 0.0 0.0
0002b0 00 00 00 00 00 00 00 00 00 00 00 00 00 00 00 00
       0.0 0.0 0.0 0.0
0002c0 00 00 00 00 00 00 00 00 00 00 00 00 00 00 00 00
       0.0 0.0 0.0 0.0
0002d0 00 00 00 00 00 00 00 00 00 00 00 00 00 00 00 00
       0.0 0.0 0.0 0.0
0002e0 00 00 00 00 00 00 00 00 00 00 00 00 00 00 00 00
       0.0 0.0 0.0 0.0
0002f0 00 00 00 00 00 00 00 00 00 00 00 00 00 00 00 00
       0.0 0.0 0.0 0.0
000300 00 00 00 00 00 00 00 00 00 00 00 00 00 00 00 00
       0.0 0.0 0.0 0.0
000310 00 00 00 00 00 00 00 00 00 00 00 00 00 00 00 00
       0.0 0.0 0.0 0.0
000320 00 00 00 00 00 00 00 00 00 00 00 00 00 00 00 00
       0.0 0.0 0.0 0.0
000330 00 00 00 00 00 00 00 00 00 00 00 00 00 00 00 00
       0.0 0.0 0.0 0.0
000340 00 00 00 00 00 00 00 00 00 00 00 00 00 00 00 00
       0.0 0.0 0.0 0.0
000350 00 00 00 00 00 00 00 00 00 00 00 00 00 00 00 00
       0.0 0.0 0.0 0.0
000360 00 00 00 00 00 00 00 00 00 00 00 00 00 00 00 00
       0.0 0.0 0.0 0.0
000370 00 00 00 00 00 00 00 00 00 00 00 00 00 00 00 00
       0.0 0.0 0.0 0.0
000380 00 00 00 00 00 00 00 00 00 00 00 00 00 00 00 00
       0.0 0.0 0.0 0.0
000390 00 00 00 00 00 00 00 00 00 00 00 00 00 00 00 00
       0.0 0.0 0.0 0.0
0003a0 00 00 00 00 00 00 00 00 00 00 00 00 00 00 00 00
       0.0 0.0 0.0 0.0
0003b0 00 00 00 00 00 00 00 00 00 00 00 00 00 00 00 00
       0.0 0.0 0.0 0.0
0003c0 00 00 00 00 00 00 00 00 00 00 00 00 00 00 00 00
       0.0 0.0 0.0 0.0
0003d0 00 00 00 00 00 00 00 00 00 00 00 00 00 00 00 00
       0.0 0.0 0.0 0.0
0003e0 00 00 00 00 00 00 00 00 00 00 00 00 00 00 00 00
       0.0 0.0 0.0 0.0
0003f0 00 00 00 00 00 00 00 00 00 00 00 00 00 00 00 00
       0.0 0.0 0.0 0.0

fc1_bn.running_mean f4 [400]
000000 00 00 00 00 00 00 00 00 00 00 00 00 00 00 00 00
       0.0 0.0 0.0 0.0
000010 00 00 00 00 00 00 00 00 00 00 00 00 00 00 00 00
       0.0 0.0 0.0 0.0
000020 00 00 00 00 00 00 00 00 00 00 00 00 00 00 00 00
       0.0 0.0 0.0 0.0
000030 00 00 00 00 00 00 00 00 00 00 00 00 00 00 00 00
       0.0 0.0 0.0 0.0
000040 00 00 00 00 00 00 00 00 00 00 00 00 00 00 00 00
       0.0 0.0 0.0 0.0
000050 00 00 00 00 00 00 00 00 00 00 00 00 00 00 00 00
       0.0 0.0 0.0 0.0
000060 00 00 00 00 00 00 00 00 00 00 00 00 00 00 00 00
       0.0 0.0 0.0 0.0
000070 00 00 00 00 00 00 00 00 00 00 00 00 00 00 00 00
       0.0 0.0 0.0 0.0
000080 00 00 00 00 00 00 00 00 00 00 00 00 00 00 00 00
       0.0 0.0 0.0 0.0
000090 00 00 00 00 00 00 00 00 00 00 00 00 00 00 00 00
       0.0 0.0 0.0 0.0
0000a0 00 00 00 00 00 00 00 00 00 00 00 00 00 00 00 00
       0.0 0.0 0.0 0.0
0000b0 00 00 00 00 00 00 00 00 00 00 00 00 00 00 00 00
       0.0 0.0 0.0 0.0
0000c0 00 00 00 00 00 00 00 00 00 00 00 00 00 00 00 00
       0.0 0.0 0.0 0.0
0000d0 00 00 00 00 00 00 00 00 00 00 00 00 00 00 00 00
       0.0 0.0 0.0 0.0
0000e0 00 00 00 00 00 00 00 00 00 00 00 00 00 00 00 00
       0.0 0.0 0.0 0.0
0000f0 00 00 00 00 00 00 00 00 00 00 00 00 00 00 00 00
       0.0 0.0 0.0 0.0
000100 00 00 00 00 00 00 00 00 00 00 00 00 00 00 00 00
       0.0 0.0 0.0 0.0
000110 00 00 00 00 00 00 00 00 00 00 00 00 00 00 00 00
       0.0 0.0 0.0 0.0
000120 00 00 00 00 00 00 00 00 00 00 00 00 00 00 00 00
       0.0 0.0 0.0 0.0
000130 00 00 00 00 00 00 00 00 00 00 00 00 00 00 00 00
       0.0 0.0 0.0 0.0
000140 00 00 00 00 00 00 00 00 00 00 00 00 00 00 00 00
       0.0 0.0 0.0 0.0
000150 00 00 00 00 00 00 00 00 00 00 00 00 00 00 00 00
       0.0 0.0 0.0 0.0
000160 00 00 00 00 00 00 00 00 00 00 00 00 00 00 00 00
       0.0 0.0 0.0 0.0
000170 00 00 00 00 00 00 00 00 00 00 00 00 00 00 00 00
       0.0 0.0 0.0 0.0
000180 00 00 00 00 00 00 00 00 00 00 00 00 00 00 00 00
       0.0 0.0 0.0 0.0
000190 00 00 00 00 00 00 00 00 00 00 00 00 00 00 00 00
       0.0 0.0 0.0 0.0
0001a0 00 00 00 00 00 00 00 00 00 00 00 00 00 00 00 00
       0.0 0.0 0.0 0.0
0001b0 00 00 00 00 00 00 00 00 00 00 00 00 00 00 00 00
       0.0 0.0 0.0 0.0
0001c0 00 00 00 00 00 00 00 00 00 00 00 00 00 00 00 00
       0.0 0.0 0.0 0.0
0001d0 00 00 00 00 00 00 00 00 00 00 00 00 00 00 00 00
       0.0 0.0 0.0 0.0
0001e0 00 00 00 00 00 00 00 00 00 00 00 00 00 00 00 00
       0.0 0.0 0.0 0.0
0001f0 00 00 00 00 00 00 00 00 00 00 00 00 00 00 00 00
       0.0 0.0 0.0 0.0
000200 00 00 00 00 00 00 00 00 00 00 00 00 00 00 00 00
       0.0 0.0 0.0 0.0
000210 00 00 00 00 00 00 00 00 00 00 00 00 00 00 00 00
       0.0 0.0 0.0 0.0
000220 00 00 00 00 00 00 00 00 00 00 00 00 00 00 00 00
       0.0 0.0 0.0 0.0
000230 00 00 00 00 00 00 00 00 00 00 00 00 00 00 00 00
       0.0 0.0 0.0 0.0
000240 00 00 00 00 00 00 00 00 00 00 00 00 00 00 00 00
       0.0 0.0 0.0 0.0
000250 00 00 00 00 00 00 00 00 00 00 00 00 00 00 00 00
       0.0 0.0 0.0 0.0
000260 00 00 00 00 00 00 00 00 00 00 00 00 00 00 00 00
       0.0 0.0 0.0 0.0
000270 00 00 00 00 00 00 00 00 00 00 00 00 00 00 00 00
       0.0 0.0 0.0 0.0
000280 00 00 00 00 00 00 00 00 00 00 00 00 00 00 00 00
       0.0 0.0 0.0 0.0
000290 00 00 00 00 00 00 00 00 00 00 00 00 00 00 00 00
       0.0 0.0 0.0 0.0
0002a0 00 00 00 00 00 00 00 00 00 00 00 00 00 00 00 00
       0.0 0.0 0.0 0.0
0002b0 00 00 00 00 00 00 00 00 00 00 00 00 00 00 00 00
       0.0 0.0 0.0 0.0
0002c0 00 00 00 00 00 00 00 00 00 00 00 00 00 00 00 00
       0.0 0.0 0.0 0.0
0002d0 00 00 00 00 00 00 00 00 00 00 00 00 00 00 00 00
       0.0 0.0 0.0 0.0
0002e0 00 00 00 00 00 00 00 00 00 00 00 00 00 00 00 00
       0.0 0.0 0.0 0.0
0002f0 00 00 00 00 00 00 00 00 00 00 00 00 00 00 00 00
       0.0 0.0 0.0 0.0
000300 00 00 00 00 00 00 00 00 00 00 00 00 00 00 00 00
       0.0 0.0 0.0 0.0
000310 00 00 00 00 00 00 00 00 00 00 00 00 00 00 00 00
       0.0 0.0 0.0 0.0
000320 00 00 00 00 00 00 00 00 00 00 00 00 00 00 00 00
       0.0 0.0 0.0 0.0
000330 00 00 00 00 00 00 00 00 00 00 00 00 00 00 00 00
       0.0 0.0 0.0 0.0
000340 00 00 00 00 00 00 00 00 00 00 00 00 00 00 00 00
       0.0 0.0 0.0 0.0
000350 00 00 00 00 00 00 00 00 00 00 00 00 00 00 00 00
       0.0 0.0 0.0 0.0
000360 00 00 00 00 00 00 00 00 00 00 00 00 00 00 00 00
       0.0 0.0 0.0 0.0
000370 00 00 00 00 00 00 00 00 00 00 00 00 00 00 00 00
       0.0 0.0 0.0 0.0
000380 00 00 00 00 00 00 00 00 00 00 00 00 00 00 00 00
       0.0 0.0 0.0 0.0
000390 00 00 00 00 00 00 00 00 00 00 00 00 00 00 00 00
       0.0 0.0 0.0 0.0
0003a0 00 00 00 00 00 00 00 00 00 00 00 00 00 00 00 00
       0.0 0.0 0.0 0.0
0003b0 00 00 00 00 00 00 00 00 00 00 00 00 00 00 00 00
       0.0 0.0 0.0 0.0
0003c0 00 00 00 00 00 00 00 00 00 00 00 00 00 00 00 00
       0.0 0.0 0.0 0.0
0003d0 00 00 00 00 00 00 00 00 00 00 00 00 00 00 00 00
       0.0 0.0 0.0 0.0
0003e0 00 00 00 00 00 00 00 00 00 00 00 00 00 00 00 00
       0.0 0.0 0.0 0.0
0003f0 00 00 00 00 00 00 00 00 00 00 00 00 00 00 00 00
       0.0 0.0 0.0 0.0

fc1_bn.running_var f4 [400]
000000 00 00 80 3f 00 00 80 3f 00 00 80 3f 00 00 80 3f
       1.0 1.0 1.0 1.0
000010 00 00 80 3f 00 00 80 3f 00 00 80 3f 00 00 80 3f
       1.0 1.0 1.0 1.0
000020 00 00 80 3f 00 00 80 3f 00 00 80 3f 00 00 80 3f
       1.0 1.0 1.0 1.0
000030 00 00 80 3f 00 00 80 3f 00 00 80 3f 00 00 80 3f
       1.0 1.0 1.0 1.0
000040 00 00 80 3f 00 00 80 3f 00 00 80 3f 00 00 80 3f
       1.0 1.0 1.0 1.0
000050 00 00 80 3f 00 00 80 3f 00 00 80 3f 00 00 80 3f
       1.0 1.0 1.0 1.0
000060 00 00 80 3f 00 00 80 3f 00 00 80 3f 00 00 80 3f
       1.0 1.0 1.0 1.0
000070 00 00 80 3f 00 00 80 3f 00 00 80 3f 00 00 80 3f
       1.0 1.0 1.0 1.0
000080 00 00 80 3f 00 00 80 3f 00 00 80 3f 00 00 80 3f
       1.0 1.0 1.0 1.0
000090 00 00 80 3f 00 00 80 3f 00 00 80 3f 00 00 80 3f
       1.0 1.0 1.0 1.0
0000a0 00 00 80 3f 00 00 80 3f 00 00 80 3f 00 00 80 3f
       1.0 1.0 1.0 1.0
0000b0 00 00 80 3f 00 00 80 3f 00 00 80 3f 00 00 80 3f
       1.0 1.0 1.0 1.0
0000c0 00 00 80 3f 00 00 80 3f 00 00 80 3f 00 00 80 3f
       1.0 1.0 1.0 1.0
0000d0 00 00 80 3f 00 00 80 3f 00 00 80 3f 00 00 80 3f
       1.0 1.0 1.0 1.0
0000e0 00 00 80 3f 00 00 80 3f 00 00 80 3f 00 00 80 3f
       1.0 1.0 1.0 1.0
0000f0 00 00 80 3f 00 00 80 3f 00 00 80 3f 00 00 80 3f
       1.0 1.0 1.0 1.0
000100 00 00 80 3f 00 00 80 3f 00 00 80 3f 00 00 80 3f
       1.0 1.0 1.0 1.0
000110 00 00 80 3f 00 00 80 3f 00 00 80 3f 00 00 80 3f
       1.0 1.0 1.0 1.0
000120 00 00 80 3f 00 00 80 3f 00 00 80 3f 00 00 80 3f
       1.0 1.0 1.0 1.0
000130 00 00 80 3f 00 00 80 3f 00 00 80 3f 00 00 80 3f
       1.0 1.0 1.0 1.0
000140 00 00 80 3f 00 00 80 3f 00 00 80 3f 00 00 80 3f
       1.0 1.0 1.0 1.0
000150 00 00 80 3f 00 00 80 3f 00 00 80 3f 00 00 80 3f
       1.0 1.0 1.0 1.0
000160 00 00 80 3f 00 00 80 3f 00 00 80 3f 00 00 80 3f
       1.0 1.0 1.0 1.0
000170 00 00 80 3f 00 00 80 3f 00 00 80 3f 00 00 80 3f
       1.0 1.0 1.0 1.0
000180 00 00 80 3f 00 00 80 3f 00 00 80 3f 00 00 80 3f
       1.0 1.0 1.0 1.0
000190 00 00 80 3f 00 00 80 3f 00 00 80 3f 00 00 80 3f
       1.0 1.0 1.0 1.0
0001a0 00 00 80 3f 00 00 80 3f 00 00 80 3f 00 00 80 3f
       1.0 1.0 1.0 1.0
0001b0 00 00 80 3f 00 00 80 3f 00 00 80 3f 00 00 80 3f
       1.0 1.0 1.0 1.0
0001c0 00 00 80 3f 00 00 80 3f 00 00 80 3f 00 00 80 3f
       1.0 1.0 1.0 1.0
0001d0 00 00 80 3f 00 00 80 3f 00 00 80 3f 00 00 80 3f
       1.0 1.0 1.0 1.0
0001e0 00 00 80 3f 00 00 80 3f 00 00 80 3f 00 00 80 3f
       1.0 1.0 1.0 1.0
0001f0 00 00 80 3f 00 00 80 3f 00 00 80 3f 00 00 80 3f
       1.0 1.0 1.0 1.0
000200 00 00 80 3f 00 00 80 3f 00 00 80 3f 00 00 80 3f
       1.0 1.0 1.0 1.0
000210 00 00 80 3f 00 00 80 3f 00 00 80 3f 00 00 80 3f
       1.0 1.0 1.0 1.0
000220 00 00 80 3f 00 00 80 3f 00 00 80 3f 00 00 80 3f
       1.0 1.0 1.0 1.0
000230 00 00 80 3f 00 00 80 3f 00 00 80 3f 00 00 80 3f
       1.0 1.0 1.0 1.0
000240 00 00 80 3f 00 00 80 3f 00 00 80 3f 00 00 80 3f
       1.0 1.0 1.0 1.0
000250 00 00 80 3f 00 00 80 3f 00 00 80 3f 00 00 80 3f
       1.0 1.0 1.0 1.0
000260 00 00 80 3f 00 00 80 3f 00 00 80 3f 00 00 80 3f
       1.0 1.0 1.0 1.0
000270 00 00 80 3f 00 00 80 3f 00 00 80 3f 00 00 80 3f
       1.0 1.0 1.0 1.0
000280 00 00 80 3f 00 00 80 3f 00 00 80 3f 00 00 80 3f
       1.0 1.0 1.0 1.0
000290 00 00 80 3f 00 00 80 3f 00 00 80 3f 00 00 80 3f
       1.0 1.0 1.0 1.0
0002a0 00 00 80 3f 00 00 80 3f 00 00 80 3f 00 00 80 3f
       1.0 1.0 1.0 1.0
0002b0 00 00 80 3f 00 00 80 3f 00 00 80 3f 00 00 80 3f
       1.0 1.0 1.0 1.0
0002c0 00 00 80 3f 00 00 80 3f 00 00 80 3f 00 00 80 3f
       1.0 1.0 1.0 1.0
0002d0 00 00 80 3f 00 00 80 3f 00 00 80 3f 00 00 80 3f
       1.0 1.0 1.0 1.0
0002e0 00 00 80 3f 00 00 80 3f 00 00 80 3f 00 00 80 3f
       1.0 1.0 1.0 1.0
0002f0 00 00 80 3f 00 00 80 3f 00 00 80 3f 00 00 80 3f
       1.0 1.0 1.0 1.0
000300 00 00 80 3f 00 00 80 3f 00 00 80 3f 00 00 80 3f
       1.0 1.0 1.0 1.0
000310 00 00 80 3f 00 00 80 3f 00 00 80 3f 00 00 80 3f
       1.0 1.0 1.0 1.0
000320 00 00 80 3f 00 00 80 3f 00 00 80 3f 00 00 80 3f
       1.0 1.0 1.0 1.0
000330 00 00 80 3f 00 00 80 3f 00 00 80 3f 00 00 80 3f
       1.0 1.0 1.0 1.0
000340 00 00 80 3f 00 00 80 3f 00 00 80 3f 00 00 80 3f
       1.0 1.0 1.0 1.0
000350 00 00 80 3f 00 00 80 3f 00 00 80 3f 00 00 80 3f
       1.0 1.0 1.0 1.0
000360 00 00 80 3f 00 00 80 3f 00 00 80 3f 00 00 80 3f
       1.0 1.0 1.0 1.0
000370 00 00 80 3f 00 00 80 3f 00 00 80 3f 00 00 80 3f
       1.0 1.0 1.0 1.0
000380 00 00 80 3f 00 00 80 3f 00 00 80 3f 00 00 80 3f
       1.0 1.0 1.0 1.0
000390 00 00 80 3f 00 00 80 3f 00 00 80 3f 00 00 80 3f
       1.0 1.0 1.0 1.0
0003a0 00 00 80 3f 00 00 80 3f 00 00 80 3f 00 00 80 3f
       1.0 1.0 1.0 1.0
0003b0 00 00 80 3f 00 00 80 3f 00 00 80 3f 00 00 80 3f
       1.0 1.0 1.0 1.0
0003c0 00 00 80 3f 00 00 80 3f 00 00 80 3f 00 00 80 3f
       1.0 1.0 1.0 1.0
0003d0 00 00 80 3f 00 00 80 3f 00 00 80 3f 00 00 80 3f
       1.0 1.0 1.0 1.0
0003e0 00 00 80 3f 00 00 80 3f 00 00 80 3f 00 00 80 3f
       1.0 1.0 1.0 1.0
0003f0 00 00 80 3f 00 00 80 3f 00 00 80 3f 00 00 80 3f
       1.0 1.0 1.0 1.0

fc2.weight f4 [300, 400]
000000 4a 39 26 bc cb 0f c3 bc 92 0e f0 3c 6e d6 40 3d
       -0.010145495 -0.023811242 0.029303823 0.047079496
000010 dd a3 40 3d fe 7e 38 bd 57 2c 34 3c 79 2a ea bc
       0.047031272 -0.045042984 0.0109969 -0.028584706
000020 7b b9 0d 3c d5 c2 da 3c b1 b0 ad bc d3 f6 e3 bc
       0.008650179 0.026704231 -0.021202417 -0.027827656
000030 70 7d 36 3d f6 e3 bf bb 8b ff 06 3d 7f 16 10 3d
       0.04455322 -0.0058560325 0.03295855 0.035177704
000040 70 ce 0c ba 70 ad 02 bc ac 98 ff 3b 40 25 43 bd
       -0.0005371338 -0.007975921 0.0078001823 -0.047642946
000050 4d 9d c6 3c 79 eb e0 bc e5 41 00 bc db a4 60 bd
       0.024244929 -0.027456032 -0.0078282105 -0.05484472
000060 c0 93 6a 3a d7 80 f7 bc 91 8b 61 3c 22 7e 84 bc
       0.0008948408 -0.030212803 0.013766185 -0.016173426
000070 b5 9b 95 3d 33 cf 59 bc b6 a3 e1 bc df 6e 90 3d
       0.073050894 -0.013294029 -0.027543884 0.07052397
000080 b8 47 0c 3d 72 e6 63 3d 9e 07 72 3b ea bd 30 bb
       0.034248084 0.05563969 0.003693081 -0.0026968666
000090 66 a3 48 bd e5 fd dc bc c5 b1 13 bc ce b4 6d 3c
       -0.048983954 -0.026976535 -0.0090145515 0.014508439
0000a0 90 61 cf bc 4e 85 98 bc 3f be 19 3d b5 1b 8b bc
       -0.025315076 -0.018618252 0.03753495 -0.016980985
0000b0 db 63 18 3d d6 1e 2b bd fe 25 66 bd bd ff 00 bd
       0.037204605 -0.041777454 -0.056188576 -0.03149389
0000c0 e6 80 2c 3d 5d af 3f 3b fc bd 83 3d e5 e1 92 3d
       0.042115115 0.0029248812 0.06432721 0.07171992
0000d0 85 c6 e9 bc f8 d5 8c 3d 69 56 ee 3c ec 74 fd 3a
       -0.028537044 0.06876749 0.029093938 0.0019337214
0000e0 76 b0 19 bd bf 79 fc 3c 5b 62 02 3d 33 5a dd 3c
       -0.037521802 0.030819772 0.03183208 0.02702055
0000f0 99 54 0f 3d 62 63 e9 bc b2 5b 08 bd 9a 28 e6 3c
       0.034992788 -0.028489772 -0.033290572 0.028095532
000100 59 b7 ce 38 d9 92 1a 3d 9a b9 d5 3c 93 1f c4 3c
       9.8569966e-05 0.0377377 0.026089478 0.023940837
000110 1a 93 68 bb ac ca 7e bb a4 20 88 bd 36 31 6f 3d
       -0.003548807 -0.0038878126 -0.06646851 0.05839654
000120 ec 40 68 3d c9 10 65 bd b8 8e d5 3c 53 34 09 3d
       0.05670254 -0.05592421 0.02606903 0.033497166
000130 ce 93 f0 bc e5 8b 81 3d b8 ef 04 bd d5 89 4e 3d
       -0.029367354 0.06325511 -0.032455176 0.050424416
000140 26 56 e0 3c 70 a7 66 3d 0b 78 da 3c 43 09 33 bd
       0.027384829 0.056312025 0.02666857 -0.043710005
000150 d1 b9 06 3d 1d 43 e7 3c 17 ba 0c bd f3 cd 85 3d
       0.032892052 0.028230244 -0.034357157 0.06533422
000160 94 81 7a bd 94 10 78 3d 36 42 52 3d 39 ab fc bc
       -0.06115873 0.060562685 0.051332675 -0.030843364
000170 db f4 1d 3c 01 bd bd bc be d6 91 3d 4f 35 ad 3d
       0.009640898 -0.023161413 0.07121037 0.084574334
000180 a5 50 20 bd 24 90 c5 bc fc 9c 74 bc 69 8f d4 bb
       -0.03913941 -0.024116583 -0.014930006 -0.0064868224
000190 03 b8 23 bd 12 58 a2 bc 40 11 0a bd 0c d7 dd 3c
       -0.03997041 -0.019817386 -0.033707857 0.027080081
0001a0 ec a3 30 3d ca de 86 bd 05 e6 0a 3d 46 e3 15 3b
       0.043125078 -0.065854624 0.03391077 0.0022871061
0001b0 be bb 92 bb 3f 2c 91 3d e1 31 cc bc a9 a3 20 bd
       -0.004477947 0.070885174 -0.024926128 -0.03921858
0001c0 8e ca e9 3c 42 5b 4f bc 7d 1b 00 bd 79 ad 1d bc
       0.028538968 -0.012656035 -0.031276215 -0.009623879
0001d0 88 01 ab 3c fc 59 69 3c 11 d7 1a bd 22 49 02 3d
       0.020874754 0.014242645 -0.03780276 0.031808026
0001e0 b2 9b 93 3a 5c b3 1a 3d c1 fe 6b 3d 23 ba 3f bd
       0.0011261611 0.037768707 0.057616 -0.046808373
0001f0 d9 41 49 bd e5 58 90 3c 60 ce a6 bc 3a 50 3e 3d
       -0.049135063 0.017620513 -0.02036208 0.04646323
000200 ce 7c fa bc 45 dc be 3c aa 85 97 bb 41 63 ac bb
       -0.03057709 0.023298392 -0.0046240883 -0.0052608554
000210 62 a7 cd bc ab 91 fb bc 2f 78 cc bc 86 a3 a1 3c
       -0.025104228 -0.030709108 -0.024959652 0.019731294
000220 d5 9a 4c bd 33 d1 1e 3b e1 af a6 3d e7 6d 3c 3c
       -0.049952347 0.002423358 0.08139015 0.011500812
000230 44 44 10 3d 5a 58 be bc 48 1a d2 bc f0 f3 63 3b
       0.035221353 -0.023235489 -0.025647298 0.003478285
000240 13 5e 30 3b c6 3b b3 3c 23 98 16 3d 2b b9 38 3c
       0.0026911541 0.021879088 0.036766183 0.011274616
000250 84 19 69 3c db 2d 84 3d 90 cc c6 3c 04 2b a8 bc
       0.014227275 0.06454059 0.024267465 -0.020528324
000260 d4 16 81 3b 1e e8 8f 3c 48 d5 6e bb 31 fc 36 b9
       0.003939489 0.017566737 -0.0036443044 -0.00017450821
000270 69 f3 d1 3c e4 87 0d 3d 05 61 8d 3d b0 4b c8 bc
       0.025628762 0.034553424 0.06903271 -0.024450153
000280 fc 40 0e bd b4 01 eb 3c 47 a6 1e bd a8 4c 89 bc
       -0.034729943 0.028687336 -0.038732793 -0.016760185
000290 e8 3b 6b 3d e9 c2 69 bd a7 ef f5 3a 8b 0b 7e 3c
       0.057430178 -0.057070646 0.0018763439 0.015505682
0002a0 7d e0 d8 3b 2a 3e 0a 3d 02 94 c3 3c 8b 77 cc bc
       0.006618558 0.03375069 0.023874287 -0.024959346
0002b0 c4 bb 9a bc 03 f8 c0 bc aa 02 80 3c de 62 dc 3c
       -0.018888362 -0.023555761 0.01562627 0.026902612
0002c0 81 8d 41 bc 8d a2 a6 bc 45 95 1e 3d a6 cb 0d bd
       -0.011813522 -0.020341182 0.038716573 -0.034618042
0002d0 2c 47 82 3d cf 62 bf 3c 51 a0 03 bd 75 6b 0a 3d
       0.06361231 0.023362545 -0.03213531 0.033793885
0002e0 b1 0e 9f bc 7d d4 2e 3d 8f 9e ac 3c b4 53 59 3c
       -0.019416185 0.042683113 0.0210717 0.013264585
0002f0 f2 3f 16 3c 40 a8 a3 bc fd e9 9f bc 3f 68 aa bb
       0.009170519 -0.019977689 -0.019520754 -0.0052004154
000300 b2 d1 ef bc c6 be dd bc e2 97 0b 3d e9 23 8f 3c
       -0.029274795 -0.027068507 0.034080394 0.017473178
000310 e3 a4 8d 3d f0 29 4a 3d f6 bc f0 bc 6c 1a 68 3d
       0.06916215 0.0493564 -0.029386979 0.056665823
000320 31 f2 b7 bb bb 99 1e 3b ad 95 25 bd 07 c0 01 bd
       -0.0056135883 0.0024200517 -0.040425945 -0.031677272
000330 aa ba 2f bd f4 02 7f bc e0 7f 37 3d 19 aa 83 3d
       -0.042902626 -0.015564669 0.044799685 0.06428928
000340 d3 11 d4 bc f3 9d 09 bc bd 42 c0 3c 54 99 71 bd
       -0.025887405 -0.008399474 0.023469323 -0.058984116
000350 f6 f4 c9 bc 86 6a 84 bc e2 6f fd bc e1 41 09 bd
       -0.02465294 -0.016164076 -0.030937139 -0.033510093
000360 c0 8d a0 3c 48 d6 16 bc 09 b8 48 3d 58 4d 8e bc
       0.019598842 -0.009206362 0.049003635 -0.017370865
000370 90 95 ba bc 06 5a be 3c 08 14 bb 3c 0e 2f 88 3d
       -0.022776395 0.023236286 0.0228367 0.066496
000380 99 96 59 bd a2 ac e5 bc 91 55 61 3d c3 fa c7 3b
       -0.053122137 -0.02803642 0.055013243 0.006102891
000390 5c e9 06 3d 26 4f 20 3d 06 9f 1c bd e2 e9 06 bd
       0.032937393 0.03913798 -0.038237594 -0.03293789
0003a0 53 d3 57 3d f2 f2 64 3c 4f ff 57 3d 0a e9 ea bc
       0.05269177 0.013973938 0.052733716 -0.028675575
0003b0 35 bf 7d 3c 81 4b 57 bd 57 98 ec b9 89 0c 99 3c
       0.015487482 -0.05256224 -0.0004512693 0.018682735
0003c0 6c 9c 66 bd 1d b0 3c bc 0d 47 00 bd a5 a6 68 bd
       -0.05630152 -0.011516598 -0.03131776 -0.05679955
0003d0 e6 16 02 bc f4 72 19 bd 54 97 00 bd 57 c5 cb bb
       -0.00794003 -0.037463143 -0.031394318 -0.006218593
0003e0 31 a6 27 bd 3a c1 fb 3a 49 d4 0d 3d 66 da 6e 3d
       -0.040929977 0.0019207366 0.03462628 0.05831375
0003f0 d5 6e 90 bc b0 80 08 3d 7c 2b 16 3b 4a 0e 9c bc
       -0.017630974 0.03332585 0.0022914102 -0.019049782

fc2.bias f4 [300]
000000 07 0f e6 bc d7 e6 37 3d a6 56 ec bc 3f df b2 3c
       -0.028083337 0.04489788 -0.028849911 0.021834968
000010 86 36 de 3b c7 b1 16 bb 35 1e 0b 3c de a0 52 3d
       0.006781402 -0.0022994147 0.008491089 0.051422946
000020 1b 6f 83 3d 7b ba 93 3c 77 b4 b9 3c 85 69 f9 bc
       0.06417676 0.018033257 0.02266906 -0.030445823
000030 6e b4 01 bd 6d 65 f1 3c c3 0d cd 3c 1e 40 1f 3c
       -0.03166621 0.029467309 0.025030976 0.009719877
000040 c1 8c 23 3d 58 d1 95 3c 4f 48 e9 bc c2 32 fb bc
       0.039929155 0.0182883 -0.028476862 -0.030663852
000050 a6 77 c1 bb 57 3f f5 3c f1 68 8b 3c 36 43 ff 3c
       -0.005904156 0.02993743 0.017017813 0.031159978
000060 da 3b d7 3c db 3a 1e 3d a8 12 52 3b 50 a9 29 3c
       0.026273657 0.038630348 0.0032054577 0.010355309
000070 55 78 00 3d 6c 7c 9c 3c cd b7 91 bb ae b9 38 3c
       0.031364758 0.019102298 -0.0044469596 0.011274738
000080 34 a2 0c bd 63 bc 49 3d d1 8c 13 3d 7e ca 9b 3d
       -0.034334376 0.049251925 0.036022965 0.07606982
000090 5d 38 0e 3d 15 54 1b bd 42 2c be bc ac 8b 07 3d
       0.03472172 -0.037921984 -0.023214463 0.033092186
0000a0 7a 80 10 3c fb ba a9 39 26 66 89 3d d1 de 41 3d
       0.008819694 0.00032373503 0.067089364 0.047331635
0000b0 82 f3 5f 3c 87 64 61 bd 12 78 1f bc b6 e8 2f 3d
       0.013668897 -0.05502751 -0.009733217 0.04294654
0000c0 33 ce 93 3d b8 cf eb 3c 5b f7 17 bd 07 d4 4e 3d
       0.07217064 0.028785571 -0.03710113 0.050495174
0000d0 49 7f 83 bc 95 7a 5b 3d ec 17 3c 3c 3d 29 43 bc
       -0.016051905 0.0535837 0.011480313 -0.011911687
0000e0 ab e1 23 3d 4b 85 eb bb f3 e3 7a 3c 86 5f 68 3d
       0.040010136 -0.0071875206 0.015313136 0.056731723
0000f0 3c cf b4 3c 5f 41 fd 3b 1b 1d 90 3d 3b c8 8e bc
       0.022071473 0.00772874 0.070368014 -0.017429462
000100 91 61 33 bd 87 e0 ea bc 46 32 a5 3d 8b 16 cd 3c
       -0.04379422 -0.028671516 0.080662295 0.025035163
000110 5b 01 32 3d c6 0c be bb 1f d8 69 3d 3c a7 f0 38
       0.043458324 -0.0057998626 0.057090875 0.000114752416
000120 c5 3d ca 3b ed 60 90 ba 81 e9 84 bc b7 d6 00 bd
       0.0061719143 -0.0011015214 -0.016224625 -0.031454768
000130 df 2d 15 bd 8a bf e1 bc f4 a0 7c 3a a6 25 82 bc
       -0.0364207 -0.027557153 0.0009637021 -0.015887093
000140 2a 85 79 3d 2f 54 b3 3b 67 62 4e bb 46 f1 92 3d
       0.06091801 0.005472682 -0.0031491758 0.071749255
000150 9b ba 04 bd 0c 4b d0 bc fa a4 ca bb 87 52 0a 3d
       -0.032404523 -0.02542641 -0.0061842175 0.03377011
000160 4a 37 87 bc d9 2f bd 3c 7e bc ab bc 2c 24 88 3c
       -0.016505856 0.023094105 -0.020963904 0.01661881
000170 19 40 26 bc 3e ce ad bb 6d 97 6e bc cb a7 65 bc
       -0.010147118 -0.005304127 -0.01456247 -0.014017056
000180 d5 39 76 3d aa 10 49 3c 4d b5 17 bd 0d c1 77 bb
       0.060113747 0.012272039 -0.037038136 -0.0037804276
000190 b9 c4 e3 3b a4 bf a0 3c a4 fd fd bc 82 4c 83 3c
       0.0069509414 0.019622631 -0.031004734 0.016027693
0001a0 e9 bd 20 bc e1 32 de 3c 40 da a6 3d ed a0 94 3c
       -0.009810903 0.02712387 0.08147097 0.018143142
0001b0 0a f3 6c 3d c1 32 bc 3c 84 08 84 3d ae f4 cc ba
       0.057848968 0.02297342 0.06446937 -0.0015636885
0001c0 93 7a c1 bc 9e 41 f1 bc 50 13 69 bc 2d 2f 1b bd
       -0.023618018 -0.029450234 -0.014225796 -0.037886787
0001d0 71 f3 0e 3d e8 a4 a1 bc 7f 3e 13 3d 45 91 4a 3d
       0.034900133 -0.019731954 0.035948273 0.049454946
0001e0 d0 b1 97 bc 82 0e 0f 3d 28 9a 39 3c 79 38 30 bc
       -0.018517405 0.034925945 0.011328258 -0.010755652
0001f0 a8 f5 47 3d 3f 66 81 3d c8 1d 07 3d 58 03 64 3d
       0.04881826 0.0631833 0.032987386 0.05566725
000200 ec c8 27 3c 54 36 5b 3d a8 43 b3 bc 53 7c dd 3c
       0.010240775 0.05351861 -0.021882847 0.027036821
000210 30 14 4b 3d 82 6e e3 3c 93 37 c0 3c 40 a8 3f bd
       0.0495798 0.027762655 0.023464 -0.046791315
000220 83 83 74 3d 6d 32 87 3c ae e9 9d 3d 6a e5 ad bc
       0.05969573 0.016503537 0.077105865 -0.021227557
000230 a4 a9 1c 3d 50 3f 84 3c f5 77 f6 3c c1 1e c4 bc
       0.03824772 0.016143471 0.030086497 -0.023940446
000240 d4 5a 01 3d 93 fb f3 bc dc 0d fc 3b 5d da b0 bc
       0.03158076 -0.029783046 0.007692082 -0.021588499
000250 c0 6a 74 bb a3 23 20 bd db ef ae 3c a4 5c a2 ba
       -0.0037295073 -0.039096486 0.021354606 -0.0012387228
000260 50 3f ee 3c 86 37 d0 bc 7c 81 bf 3b d7 58 21 bd
       0.029082924 -0.0254171 0.005844293 -0.039391365
000270 43 61 5a bc f7 af 1a 3c 88 9e bb 3b db 10 99 bc
       -0.013328853 0.009441367 0.0057256855 -0.018684795
000280 87 2f 4d 3d ba 2a 2c 3d e7 ca 85 3c 5f c4 8a 3b
       0.050094154 0.042032935 0.016332103 0.004234835
000290 bb 55 11 3d f9 d3 14 3d e3 d0 a0 3b 03 b5 9c 3d
       0.03548215 0.036334965 0.0049077137 0.07651713
0002a0 78 3f 6d bc 39 12 0d 3d 69 b1 d7 bc 62 85 2e 3c
       -0.014480464 0.034441207 -0.026329713 0.010651918
0002b0 69 32 31 3c dc 72 c6 3c c8 e5 92 3d d0 e7 56 b8
       0.010815241 0.024224691 0.071727335 -5.1237468e-05
0002c0 72 74 6d 3d 58 2c e2 bc b5 3c 4e 3d 60 ef 01 bd
       0.05797238 -0.027609035 0.050350863 -0.031722426
0002d0 9a 6e 20 3d 8e 19 27 bd 15 e6 39 3d 00 17 97 3b
       0.039167978 -0.040795855 0.04538544 0.004610896
0002e0 82 0d b5 bb f6 64 f9 3c 00 60 76 3d f5 6b b4 3d
       -0.005525292 0.03044365 0.060150146 0.08809654
0002f0 92 27 16 3d bb 95 bc bb 9d fb 39 bd ac a4 11 3d
       0.03665883 -0.005755154 -0.045405973 0.035557434
000300 10 e1 94 3c 58 b8 07 3d c7 a4 83 3c c4 0b 81 3c
       0.018173724 0.03313479 0.016069783 0.01575268
000310 61 2d 5a bd 33 eb 9f 3d 59 3a 2f 3d 25 ca af bc
       -0.053265933 0.078085326 0.042780254 -0.021458695
000320 1a da 3a 3d ce ad 93 3d ee 7e 6a 3d 2a a5 3a bd
       0.045618154 0.07210885 0.057249956 -0.04556767
000330 1c 65 34 3c d6 28 0d 3d ad 51 14 3d 9a 4c 77 3d
       0.0110104345 0.034462772 0.036210705 0.060375787
000340 24 14 f1 bb ad 69 31 3c cb b7 98 3c d4 e7 9f bb
       -0.0073571373 0.010828418 0.018642327 -0.004879931
000350 dd b6 d4 3c ca 58 ec 3b 71 b5 b6 3c 59 3f 9e bc
       0.025966102 0.007212733 0.022303315 -0.019317316
000360 81 13 c5 3c 1a d5 6d bd bf 33 b2 3b 8a 07 bc bb
       0.024057152 -0.058064558 0.0054382975 -0.0057382034
000370 59 3c 0f 3d 06 25 43 bd b1 d1 60 3c 46 f8 37 3d
       0.03496966 -0.04764273 0.013721869 0.044914506
000380 4f 07 55 bc 34 fc 64 bd 4e 7b 95 3b 80 c3 d6 3c
       -0.013002231 -0.055904582 0.004561818 0.026216269
000390 c1 26 2d 3d 45 5e ee 3b 64 8b 47 bc ed 7a b5 bc
       0.042273287 0.0072744214 -0.012179229 -0.022153342
0003a0 dd 32 87 bc e6 c3 ae 3c bc b5 b9 3d c1 c3 f5 3c
       -0.016503746 0.021333646 0.09067866 0.03000057
0003b0 3d 58 6d 3d a2 4f 08 bd 89 1f 1d bd 41 c2 12 3d
       0.05794548 -0.03327907 -0.038360152 0.035829786
0003c0 db db ac 3c 59 65 83 3d b1 3c 2e 3d 9e 7d aa 3c
       0.021100929 0.06415815 0.04253835 0.020811852
0003d0 2f cb 32 3d 5e 71 86 bc 84 af 90 bc cb 42 56 bd
       0.043650802 -0.01641148 -0.017661817 -0.052309792
0003e0 f7 2b 3c bc ac 14 d6 3b 64 10 9a 3c 4f b9 04 3b
       -0.011485091 0.006533226 0.018806644 0.0020252054
0003f0 f5 c4 0b 3b 8d 69 fe 3c 5b 9f 4b 3b 3b 09 4c 3d
       0.0021327112 0.03105619 0.0031070325 0.04981349
