agent_checkpoints/checkpoint_critic_2.pth (torch_old, 554781 bytes, 13 tensors)

fcs1.weight f4 [400, 33]
-0.15013327 0.045178976 -0.09440115 -0.060760405 -0.024475237 -0.04493576 -0.038589634 -0.021480126
0.08168664 0.053399608 -0.021707619 0.027079746 0.08136807 -0.1070455 0.0053991033 -0.088890076
0.06729187 -0.0053643477 -0.16178302 0.15280503 -0.0187942 -0.049438056 -0.009937777 -0.015268309
0.014874756 0.078141816 -0.030012948 -0.0014182937 0.055777628 -0.017884314 -0.017115919 -0.009304095
0.14656208 0.037414275 0.032206908 0.036403745 -0.07881722 -0.105697475 0.037508275 -0.005268257
0.0952963 0.059869286 0.073640704 -0.06311686 -0.023006557 -0.06756342 -0.011387812 0.013755562
0.022339147 0.014269912 -0.043982092 0.09932908 0.13495189 0.07237252 -0.069660336 0.03103872
-0.03770763 -0.05162752 -0.08104184 -0.052030273 -0.04044956 0.01690295 -0.044385184 0.04778611
-0.013068069 -0.084749974 -0.119728036 -0.010001255 0.060581382 -0.05435992 -0.060065947 0.004568684
0.061981518 -0.10172927 -0.03415096 -0.01498314 0.020029888 0.026197292 -0.008983157 -0.033128988
-0.053420883 0.01818171 0.117804885 -0.08464646 0.049899794 -0.082494825 0.020484652 -0.008986706
-0.050179537 0.051677555 0.07125887 0.031074382 -0.059488773 0.031624652 -0.023983609 -0.045419842
0.029050523 0.037940953 -0.11546766 -0.08143185 -0.09441854 -0.10110534 0.11229848 -0.13125718
0.13530056 0.05301686 -0.05088969 0.01760161 -0.09624361 0.01292211 0.0104942825 0.026122505
0.019575628 -0.07357898 -0.10530607 0.015912857 0.1940232 0.08877083 -0.07216457 0.022066185
0.02540313 -0.031087965 -0.050051115 0.029416544 0.01546196 -0.014254011 -0.019203689 0.006925765
-0.037663173 -0.043054655 0.002882667 -0.008756506 0.074385755 -0.030189728 0.013939536 -0.13314152
-0.07241894 -0.014849272 -0.15950693 -0.023860041 -0.019357905 -0.030274102 0.026387291 -0.087806195
-0.032868374 0.048280276 0.0770174 -0.022530476 0.068744704 -0.07873652 0.07704786 -0.12088292
0.04181197 0.116779916 -0.027944462 -0.049223367 0.05479861 0.05342127 -0.07152757 0.021786746
-0.030355861 0.03759082 0.036782105 -0.026559401 -0.0808323 0.029878484 -0.1165515 -0.040948965
0.16482034 0.017414087 0.17325999 -0.11356077 -0.011186917 0.0026138544 0.020912614 -0.04205598
-0.011629363 -0.05421663 -0.006769427 0.006386448 0.043762375 0.13984737 0.11341681 0.14022885
-0.22789824 0.037312128 0.025694942 -0.09967415 -0.051593486 0.06841686 0.02951773 -0.055799257
-0.016939512 -0.00381763 0.011196353 0.032687485 -0.037114542 0.054478526 -0.05541615 -0.02942493
0.082341656 0.012183594 0.40405247 -0.048404563 -0.023079488 -0.013868861 0.024434684 -0.019792086
0.005939767 0.031733096 0.014235418 -0.10873048 0.008030719 0.01795782 0.07936789 -0.18465368
-0.29616445 -0.30726814 -0.041259926 -0.07496025 -0.038568217 0.026757313 0.00047875938 0.027710807
0.010644522 -0.026676808 0.09729214 0.019009229 0.025502207 -0.0018641241 -0.010195081 0.066199414
-0.0014144144 0.09030038 -0.13864775 0.07013905 0.015059523 -0.065645695 0.07569983 -0.048884567
0.08231164 -0.031090643 -0.033324204 -0.028504618 0.10302461 0.06220825 -0.07604769 -0.00857195
-0.04942732 0.20896958 0.0705436 0.00055908517 -0.073149815 0.0020421692 -0.0025876116 0.0039675175
00000000: 89bc 19be 970d 393d 6455 c1bd e7df 78bd
00000010: 4b80 c8bc 8f0e 38bd 2a10 1ebd 17f7 afbc
00000020: 534b a73d 8cb9 5a3d 2dd4 b1bc 58d6 dd3c
00000030: 4da4 a63d ac3a dbbd f6ea b03b 000c b6bd
00000040: 52d0 893d 69c7 afbb 73aa 25be ec78 1c3e
00000050: 4bf6 99bc 8f7f 4abd 0fd2 22bc ee27 7abc
00000060: 40b5 733c d108 a03d b7dd f5bc 0ae6 b9ba
00000070: 1577 643d 2082 92bc af36 8cbc 3470 18bc
00000080: 5f14 163e b63f 193d 64eb 033d 181c 153d
00000090: ec6a a1bd eb77 d8bd 47a2 193d 58a1 acbb
000000a0: b52a c33d 7f39 753d f0d0 963d 6a43 81bd
000000b0: 3f78 bcbc b15e 8abd f293 3abc 025f 613c
000000c0: 9600 b73c 59cc 693c 9126 34bd 0b6d cb3d
000000d0: d430 0a3e 0b38 943d 14aa 8ebd ea44 fe3c
000000e0: 5173 1abd 6177 53bd 44f9 a5bd b21d 55bd
000000f0: 70ae 25bd 0e78 8a3c 3dcd 35bd 5ebb 433d
00000100: 741b 56bc 6591 adbd f933 f5bd 4edc 23bc
00000110: 2f24 783d 82a8 5ebd b607 76bd e6b4 953b
00000120: 55e0 7d3d 6f57 d0bd e1e1 0bbd d87b 75bc
00000130: b815 a43c b49b d63c 172e 13bc 43b2 07bd
00000140: dbcf 5abd cff1 943c b043 f13d 205b adbd
00000150: ba63 4c3d 0cf3 a8bd 6ecf a73c fa3c 13bc
00000160: 0f89 4dbd d8ab 533d 2cf0 913d b48f fe3c
00000170: 80aa 73bd da88 013d 4679 c4bc 280a 3abd
00000180: 5dfb ed3c f967 1b3d 4f7a ecbd bec5 a6bd
00000190: 825e c1bd 5110 cfbd bffc e53d 4868 06be
000001a0: 3b8c 0a3e 3528 593d b571 50bd 4031 903c
000001b0: 5f1b c5bd 42b7 533c 36f0 2b3c ddfe d53c
000001c0: 115d a03c 94b0 96bd b5aa d7bd ae5b 823c
000001d0: 05ae 463e 7bcd b53d 05cb 93bd 25c4 b43c
000001e0: 3a1a d03c 30ac febc 6602 4dbd f7fa f03c
000001f0: 2954 7d3c a889 69bc 0e51 9dbc 87f1 e23b
00000200: b344 1abd 145a 30bd 20eb 3c3b 7377 0fbc
00000210: 8f57 983d 7350 f7bc a762 643c 4056 08be
00000220: 6250 94bd 5c4a 73bc c955 23be 2276 c3bc
00000230: 7894 9ebc 6501 f8bc 292a d83c bcd3 b3bd
00000240: fda0 06bd 8ac1 453d 4cbb 9d3d d591 b8bc
00000250: 06ca 8c3d 9d40 a1bd 45cb 9d3d 7791 f7bd
00000260: 0743 2b3d 4f2a ef3d c9eb e4bc 719e 49bd
00000270: 8274 603d 43d0 5a3d 0c7d 92bd 1e7a b23c
00000280: dbac f8bc d5f8 193d d5a8 163d 1a93 d9bc
00000290: 688b a5bd b9c3 f43c 8eb2 eebd 1aba 27bd
000002a0: aac6 283e fda7 8e3c 116b 313e 8d92 e8bd
000002b0: 5549 37bc 334d 2b3b ee50 ab3c e442 2cbd
000002c0: 1589 3ebc 4212 5ebd 12d2 ddbb 6945 d13b
000002d0: 2d40 333d 2634 0f3e 1347 e83d 2798 0f3e
000002e0: 285e 69be 9ad4 183d 337e d23c f621 ccbd
000002f0: b153 53bd 241e 8c3d 2bcf f13c c38d 64bd
00000300: bbc4 8abc 3431 7abb e870 373c 50e3 053d
00000310: 6b05 18bd e024 5f3d 0bfc 62bd 8d0c f1bc
00000320: bea2 a83d b29d 473c f7df ce3e dd43 46bd
00000330: 3211 bdbc 383a 63bc 3f2b c83c 0323 a2bc
00000340: 61a2 c23b 90fa 013d ac3b 693c 16ae debd
00000350: 4793 033c 471c 933c a28b a23d db15 3dbe
00000360: dea2 97be 4052 9dbe 2b00 29bd c284 99bd
00000370: b5f9 1dbd 2732 db3c ff01 fb39 c601 e33c
00000380: 5c66 2e3c 5289 dabc 1a41 c73d 3eb9 9b3c
00000390: 01ea d03c a055 f4ba 4509 27bc 8f93 873d
000003a0: df63 b9ba 68ef b83d adf9 0dbe 10a5 8f3d
000003b0: 38bc 763c 4071 86bd 8308 9b3d 2f3b 48bd
000003c0: 0193 a83d ceb1 febc f67e 08bd 8482 e9bc
000003d0: 91fe d23d 14ce 7e3d e4be 9bbd 5d71 0cbc
000003e0: 4d74 4abd 1ffc 553e 2a79 903d 928f 123a
000003f0: 92cf 95bd ead5 053b eb94 29bb f301 823b

fcs1.bias f4 [400]
0.15242536 0.12865235 0.093324706 0.10697568 0.090527184 0.1577 0.12874278 -0.023626145
0.14994168 -0.063848175 0.14610109 0.09898098 -0.036983218 -0.1709794 0.15799539 0.01540782
0.016944302 -0.13475317 -0.057811197 0.16220376 -0.13489574 0.16462371 0.16062543 -0.057026073
-0.10095868 -0.054517377 -0.020935532 -0.054427326 -0.038478017 -0.12086027 -0.0495237 0.117831394
0.11596938 0.0016974758 0.13276584 -0.058605954 -0.03867463 -0.13752826 0.11972908 -0.07295625
-0.06023932 -0.14419848 0.14224933 -0.14080949 0.005690275 -0.12027284 -0.031042658 0.07208468
0.10692548 -0.14302273 -0.1349428 0.041617047 -0.012487157 -0.10212485 -0.14342853 0.09510197
0.03547036 0.10743221 0.0041137654 0.049058724 0.023947682 -0.05962415 0.017863424 -0.015330664
-0.14239994 0.13084513 -0.15401776 -0.114648975 -0.013454381 0.1452323 -0.14780036 0.019803554
-0.005093194 -0.07134043 0.06368452 -0.14338861 0.0020556892 -0.16090907 -0.13805787 -0.10779932
-0.16326205 0.08330732 -0.13433321 0.014028017 -0.0933169 -0.16389596 0.1309822 0.1533044
-0.1028675 -0.13743632 0.1134048 0.15247053 0.10669817 -0.08060747 -0.12666024 0.018346507
0.1349776 -0.16944145 0.03819756 -0.13094272 -0.100593165 0.08926074 0.009984825 0.16129413
0.043648906 -0.03178247 0.13705446 0.111918606 -0.1391018 -0.12904143 0.13708429 0.041319765
0.11833563 -0.14008152 0.059896447 -0.08675797 -0.15308283 0.07013987 0.10885247 0.1650192
0.16236964 -0.15004642 0.110189535 0.14431708 -0.15149179 0.15395904 0.15530847 0.1601804
-0.15610069 0.11163797 0.03737309 0.011741844 0.09508941 -0.0705504 -0.037302963 -0.0034467804
-0.17390539 -0.14473476 -0.15549769 -0.13475099 -0.06988199 0.1122755 -0.17396662 0.14979154
-0.0020222366 -0.13972089 0.10672324 0.12316346 -0.14409953 0.15184025 -0.08618837 0.04916166
0.04622568 -0.009202794 -0.14656615 0.111296445 -0.15120955 -0.099199265 -0.0107566565 0.048593912
0.15203917 -0.006538267 -0.03250401 -0.116800085 0.15986617 -0.16652377 -0.06912409 -0.08180825
-0.15404828 0.06701239 0.09849483 0.13281375 -0.014673069 -0.17298862 0.097741544 -0.16688766
-0.10201409 0.062324747 0.07676888 0.044061575 -0.106273495 -0.09161213 0.017029325 0.07929658
-0.008464422 -0.094255015 0.064648844 0.05707515 -0.059761606 -0.0038939426 0.02428521 -0.08490191
-0.04235184 -0.06333897 -0.011363744 -0.1044286 -0.114364356 -0.110709555 0.032581653 0.0042982376
-0.05435889 -0.0016039516 0.043861825 0.051144175 0.011807908 -0.045000624 -0.10061655 -0.08039604
-0.02349372 -0.12955411 -0.021564158 -0.11345925 -0.16342185 0.0727541 -0.02797542 -0.043366525
0.0787955 -0.028136302 -0.037980977 0.1719664 0.0762832 -0.14174643 0.12729739 -0.0909624
-0.039071836 0.08122281 0.16514142 -0.13995117 -0.10591358 -0.15154421 -0.16331689 -0.16012087
-0.135205 0.038513932 0.06743806 0.13710624 0.11272906 -0.14266211 0.0038345899 -0.15923148
0.15363567 -0.031879377 0.06330733 -0.1118148 0.14573891 -0.12847306 0.057932124 -0.032978028
-0.021682572 -0.038802452 0.103735134 0.04256537 0.09378964 -0.059325658 -0.09665617 0.114645466
00000000: 6515 1c3e 71bd 033e 0621 bf3d 1116 db3d
00000010: 5166 b93d 1c7c 213e 26d5 033e 9e8b c1bc
00000020: 508a 193e d5c2 82bd 869b 153e 8ab6 ca3d
00000030: b77b 17bd 3915 2fbe 8bc9 213e 1571 7c3c
00000040: c7ce 8a3c bcfc 09be 6fcb 6cbd be18 263e
00000050: 1c22 0abe 1e93 283e fe7a 243e 2c94 69bd
00000060: 6dc3 cebd 9d4d 5fbd fe80 abbc 30ef 5ebd
00000070: 209b 1dbd 9785 f7bd 5dd9 4abd 9651 f13d
00000080: 5b81 ed3d d67d de3a c5f3 073e cc0c 70bd
00000090: 4a69 1ebd 35d4 0cbe 8534 f53d 166a 95bd
000000a0: 81bd 76bd c4a8 13be cfa9 113e 5d30 10be
000000b0: 7d75 ba3b 9b51 f6bd 2c4d febc 22a1 933d
000000c0: bffb da3d 8d74 12be 722e 0abe a376 2a3d
000000d0: ef96 4cbc d526 d1bd eede 12be d2c4 c23d
000000e0: 5e49 113d 6b05 dc3d c4cc 863b cdf1 483d
000000f0: ee2d c43c 7438 74bd 5156 923c 772d 7bbc
00000100: 4ad1 11be 44fc 053e d5b6 1dbe 15cd eabd
00000110: c46f 5cbc c7b7 143e fa58 17be 103b a23c
00000120: cfe4 a6bb ee1a 92bd 086d 823d 77d4 12be
00000130: beb8 063b 59c5 24be 0b5f 0dbe e4c5 dcbd
00000140: 2b2e 27be 079d aa3d a58e 09be c5d5 653c
00000150: ee1c bfbd 58d4 27be 3320 063e d4fb 1c3e
00000160: 32ac d2bd 1bbc 0cbe c740 e83d 3c21 1c3e
00000170: 9284 da3d 8715 a5bd 39b3 01be 6a4b 963c
00000180: 9137 0a3e 0f82 2dbe 0b75 1c3d d915 06be
00000190: ca03 cebd 56ce b63d 6497 233c 4a2a 253e
000001a0: 32c9 323d 562e 02bd 0158 0c3e 9535 e53d
000001b0: b470 0ebe 7023 04be d35f 0c3e ea3e 293d
000001c0: f359 f23d 8871 0fbe fa55 753d 2aae b1bd
000001d0: bfc1 1cbe 7ea5 8f3d 0bee de3d cbfa 283e
000001e0: 3a44 263e c5a5 19be 0dab e13d dbc7 133e
000001f0: aa20 1bbe 70a7 1d3e 2f09 1f3e 5506 243e
00000200: dcd8 1fbe 73a2 e43d 8614 193d dd60 403c
00000210: 3dbe c23d ba7c 90bd feca 18bd 61e3 61bb
00000220: 4114 32be 5935 14be c93a 1fbe 2afc 09be
00000230: 4a1e 8fbd b3f0 e53d 4e24 32be f462 193e
00000240: 8087 04bb fe12 0fbe b791 da3d 203d fc3d
00000250: d48e 13be 037c 1b3e 8783 b0bd bd5d 493d
00000260: 2357 3d3d 51c7 16bc 7015 16be 64ef e33d
00000270: add6 1abe fc28 cbbd b03c 30bc 690a 473d
00000280: 28b0 1b3e f53e d6bb ed22 05bd e234 efbd
00000290: f5b3 233e 3585 2abe ee90 8dbd 158b a7bd
000002a0: d5be 1dbe cb3d 893d a8b7 c93d 5400 083e
000002b0: 5067 70bc ee23 31be b82c c83d 99e4 2abe
000002c0: c3ec d0bd 3c48 7f3d 0139 9d3d e979 343d
000002d0: eba5 d9bd 249f bbbd 1581 8b3c 3f66 a23d
000002e0: 5cae 0abc c608 c1bd 9d66 843d a2c7 693d
000002f0: 96c8 74bd 8431 7fbb c7f1 c63c 0de1 adbd
00000300: 1f79 2dbd ddb7 81bd ff2e 3abc a9de d5bd
00000310: dc37 eabd b1bb e2bd 5774 053d 3bd8 8c3b
00000320: 6da7 5ebd af3b d2ba 75a8 333d 8e7c 513d
00000330: f575 413c 9352 38bd 0d10 cebd aea6 a4bd
00000340: e775 c0bc d5a9 04be 51a7 b0bc 535d e8bd
00000350: 0f58 27be 1a00 953d b52c e5bc 19a1 31bd
00000360: 895f a13d 1a7e e6bc f191 1bbd f617 303e
00000370: 5e3a 9c3d fa25 11be 3f5a 023e 7f4a babd
00000380: ca09 20bd 2558 a63d d51a 293e 5c4f 0fbe
00000390: 38e9 d8bd 682e 1bbe 8b3c 27be baf6 23be
000003a0: 2e73 0abe c9c0 1d3d f71c 8a3d 9465 0c3e
000003b0: 7ede e63d 0416 12be be4d 7b3b 940d 23be
000003c0: ab52 1d3e f393 02bd 46a7 813d 28ff e4bd
000003d0: 953c 153e 718e 03be 3c4a 6d3d f813 07bd
000003e0: a69f b1bc 52ef 1ebd 1673 d43d 0759 2e3d
000003f0: c814 c03d 76ff 72bd acf3 c5bd 3ecb ea3d

fcs1_bn.weight f4 [400]
0.12707563 0.68783385 0.8790474 0.20153785 0.1325319 0.70383394 0.7596427 0.5261246
0.14231178 0.8331967 0.13445391 0.78598195 0.06141057 0.007326773 0.6606505 0.734467
0.25021854 0.036517464 0.4684593 0.031337325 0.096099615 0.5665038 0.710668 0.5454714
0.5516639 0.6363598 0.45889705 0.0056201224 0.20235625 0.38835567 0.76735955 0.7384338
0.92576027 0.024536384 0.46123427 0.14640349 0.13916428 0.57672054 0.8671557 0.15687698
0.07676483 0.07241094 0.85487807 0.77156305 0.75723326 0.104804315 0.26720116 0.17084809
0.56129473 0.067983836 0.23656619 0.454427 0.85363346 0.8475242 0.5509012 0.23535967
0.7472851 0.8634659 0.39144415 0.15586503 0.12249156 0.5410043 0.62028044 0.02493389
0.6838798 0.49586335 0.1980954 0.40463072 0.052290812 0.74871963 0.17260586 0.9541921
0.5332408 0.47827595 0.4000423 0.26620448 0.7735541 0.8136875 0.69062185 0.925444
0.88854235 0.6795235 0.014401327 0.44855133 0.9467742 0.35903463 0.48100346 0.38819385
0.55756754 0.679473 0.4364959 0.79692143 0.47834787 0.4539748 0.5074814 0.11976343
0.41034564 0.7481554 0.50507003 0.48350644 0.094920486 0.014820376 0.78040534 0.7858003
0.40116635 0.6333161 0.30738515 0.8041605 0.7151728 0.8255273 0.26659217 0.22470303
0.026137115 0.29734382 0.61323464 0.86838263 0.4918686 0.3362174 0.7123126 0.40013736
0.8994146 0.8273506 0.7085493 0.76928794 0.5129307 0.72297335 0.20903797 0.8075758
0.60034037 0.88313407 0.22768676 0.69164085 0.1435778 0.5320611 0.5892062 0.28845364
0.4294021 0.9614315 0.80382437 0.62739307 0.49423456 0.8994668 0.4389146 0.11334796
0.1391008 0.84634346 0.13592914 0.0043489323 0.364088 0.3643653 0.7847739 0.32813084
0.67621684 0.49786246 0.36327842 0.58345973 0.76821834 0.6404082 0.8474105 0.7166624
0.79689103 0.2760844 0.41048667 0.54143816 0.069235414 0.9424485 0.58429563 0.7931014
0.94136006 0.29286116 0.15877488 0.0009149626 0.13098848 0.93073976 0.025751848 0.4126607
0.9005496 0.72042423 0.12145223 0.030648919 0.5966372 0.6363078 0.8614812 0.8507327
0.6655875 0.008854214 0.7715613 0.47865874 0.3360123 0.91558087 0.37599397 0.0017851563
0.9847232 0.16812411 0.38254794 0.22947888 0.65868235 0.18160583 0.83897895 0.8469289
0.28597444 0.13238394 0.0117392205 0.8772179 0.43311444 0.67080456 0.8388876 0.112297915
0.07195771 0.3343012 0.55548716 0.3209054 0.61319256 0.12395618 0.5228833 0.73073006
0.17517212 0.3644005 0.46335605 0.61070466 0.5831383 0.11419647 0.89788115 0.37399867
0.35756156 0.29710975 0.6002317 0.49232295 0.58729845 0.7744864 0.14529033 0.1808319
0.9433109 0.80817515 0.30318612 0.42948437 0.60494673 0.026127547 0.0009998181 0.5085545
0.3173208 0.40316033 0.3704646 0.57975286 0.10105324 0.6298226 0.8016328 0.092049025
0.88431174 0.6784181 0.5547138 0.55528575 0.79457897 0.49809 0.32247898 0.980052
00000000: 1d20 023e e115 303f 4009 613f f05f 4e3e
00000010: 71b6 073e 762e 343f f277 423f 1ab0 063f
00000020: 2eba 113e 614c 553f 49ae 093e 1d36 493f
00000030: a689 7b3d 6d15 f03b 6420 293f 0806 3c3f
00000040: a51c 803e 5693 153d e6d9 ef3e 915b 003d
00000050: e0cf c43d 6506 113f 57ee 353f 03a4 0b3f
00000060: d839 0d3f 7ae8 223f 8ef4 ea3e 0129 b83b
00000070: 7a36 4f3e 8ed6 c63e ad71 443f ff09 3d3f
00000080: a0fe 6c3f 8700 c93c e626 ec3e ccea 153e
00000090: 1581 0e3e f5a3 133f eafd 5d3f 5ca4 203e
000000a0: e136 9d3d 304c 943d 4ad9 5a3f 2885 453f
000000b0: 0ada 413f a5a3 d63d 97ce 883e cdf2 2e3e
000000c0: 03b1 0f3f 1c3b 8b3d 683e 723e a8aa e83e
000000d0: b987 5a3f 59f7 583f dc07 0d3f 2002 713e
000000e0: 144e 3f3f 1a0c 5d3f 5e6b c83e 159b 1f3e
000000f0: dbdc fa3d 427f 0a3f b3ca 1e3f 2842 cc3c
00000100: bf12 2f3f cde1 fd3e 85d9 4a3e c22b cf3e
00000110: e42e 563d 17ac 3f3f 97bf 303e ef45 743f
00000120: 7882 083f 96e0 f43e 58d2 cc3e f44b 883e
00000130: a407 463f d34d 503f 98cc 303f e6e9 6c3f
00000140: 8377 633f 41f5 2d3f 8bf3 6b3c 85a8 e53e
00000150: cb5f 723f 63d3 b73e 1646 f63e 58c1 c63e
00000160: bfbc 0e3f f1f1 2d3f 647c df3e 0b03 4c3f
00000170: 03ea f43e 636f e83e 4dea 013f 8746 f53d
00000180: d318 d23e 1d87 3f3f 454c 013f 288e f73e
00000190: ac65 c23d 2ad1 723c a5c8 473f 352a 493f
000001a0: ad65 cd3e 0121 223f 9661 9d3e 76dd 4d3f
000001b0: 9115 373f c255 533f c57e 883e 8d18 663e
000001c0: 811d d63c 733d 983e f2fc 1c3f 534e 5e3f
000001d0: 33d6 fb3e b024 ac3e 1e5a 363f cede cc3e
000001e0: 0940 663f 40cd 533f 7d63 353f 0ef0 443f
000001f0: 6d4f 033f c814 393f 0d0e 563e 4abd 4e3f
00000200: e8af 193f 1315 623f b826 693e 600f 313f
00000210: 0f06 133e 2835 083f 38d6 163f 32b0 933e
00000220: 98da db3e 6020 763f 6fc7 4d3f d59c 203f
00000230: 500c fd3e 7543 663f 6ab9 e03e fa22 e83d
00000240: 7170 0e3e f7a9 583f 0231 0b3e 7d81 8e3b
00000250: be69 ba3e 178e ba3e f1e6 483f c400 a83e
00000260: 8c1c 2d3f d4e7 fe3e a1ff b93e 9e5d 153f
00000270: f5a9 443f cbf1 233f e5ef 583f 3077 373f
00000280: 0d01 4c3f ef5a 8d3e 4f2b d23e b19b 0a3f
00000290: 4ccb 8d3d 4e44 713f 6694 153f b108 4b3f
000002a0: f9fc 703f e6f1 953e e295 223e 1ada 6f3a
000002b0: d821 063e f644 6e3f 8af5 d23c 4348 d33e
000002c0: 6b8a 663f b96d 383f f2bb f83d 7113 fb3c
000002d0: 37bd 183f 11e5 223f 088a 5c3f 9ec9 593f
000002e0: f163 2a3f 4411 113c 0b85 453f c212 f53e
000002f0: ce09 ac3e 8263 6a3f 4882 c03e e8fb e93a
00000300: d216 7c3f ba28 2c3e 53dd c33e 83fc 6a3e
00000310: 689f 283f e1f6 393e 53c7 563f 55d0 583f
00000320: 3e6b 923e a88f 073e dc55 403c 5a91 603f
00000330: 2dc1 dd3e d9b9 2b3f 56c1 563f 73fc e53d
00000340: 905e 933d 8729 ab3e 6834 0e3f b64d a43e
00000350: 30fa 1c3f bddc fd3d aedb 053f 2011 3b3f
00000360: 5260 333e b492 ba3e 013d ed3e 2457 1c3f
00000370: 8d48 153f d7df e93d 8adb 653f c17c bf3e
00000380: 4f12 b73e c51e 983e c9a8 193f c111 fc3e
00000390: 3159 163f be44 463f fdc6 143e ff2b 393e
000003a0: d37c 713f 91e4 4e3f 363b 9b3e 60e5 db3e
000003b0: cadd 1a3f 7009 d63c 540c 833a a130 023f
000003c0: df77 a23e 086b ce3e 89ad bd3e af6a 143f
000003d0: 00f5 ce3d 0e3c 213f cf37 4d3f 3384 bc3d
000003e0: 4162 623f cfac 2d3f b901 0e3f 3527 0e3f
000003f0: 8769 4b3f a705 ff3e f71b a53e b0e4 7a3f

fcs1_bn.bias f4 [400]
-0.060715217 -0.04391238 -0.04537301 -0.064627804 -0.11493901 -0.10612704 -0.09160283 -0.108526535
-0.003658503 -0.06837197 0.005236582 -0.03554779 -0.063944496 -0.024346415 -0.043066204 -0.17327765
0.005430304 -0.03673936 -0.056851976 -0.062491793 -0.03294788 -0.09334729 -0.09234923 -0.08617959
0.0059813703 -0.021139354 0.010769666 -0.025531506 -0.04562173 -0.05615158 -0.14067493 -0.07992957
-0.09857953 -0.050437078 -0.070431136 -0.075915284 -0.04359053 -0.14678729 -0.045656648 -0.07894534
-0.04505349 -0.007201441 0.008765718 -0.14820638 -0.07752203 -0.049588237 -0.027313728 -0.07983988
-0.012874855 -0.07252803 -0.12752056 -0.07765022 -0.03966692 -0.102948874 -0.12691258 -0.05161892
-0.08837205 -0.0026959083 0.00018772791 -0.014118658 -0.09639642 0.025723876 -0.08774356 -0.045144264
-0.10177245 -0.11390428 -0.08001667 -0.1225462 -0.05666783 -0.11851232 -0.06733262 -0.18472439
0.038079724 -0.026522776 -0.11222033 -0.016864732 -0.0884417 -0.048516717 0.030703818 -0.058892664
-0.013188693 -0.06000028 -0.056881282 -0.041832294 -0.14683065 -0.08516572 -0.015623889 -0.05180878
-0.07458782 -0.055022962 -0.018757112 -0.07643387 -0.034029495 -0.012474442 0.0033890202 -0.05414307
-0.028536329 -0.093850575 -0.06271934 -0.010132878 -0.037121113 -0.03910603 -0.16234656 -0.09705251
-0.14126195 -0.06614017 -0.033829365 -0.14134051 0.046253596 -0.09419559 -0.090830915 -0.07528705
-0.06327516 0.026089901 -0.031944342 -0.11881839 -0.14859153 -0.098504506 -0.082701 -0.08434961
0.016296038 -0.08849187 -0.018490477 -0.11881984 -0.10563014 -0.11921638 -0.06488599 0.018172054
-0.08502408 -0.069871336 -0.048686393 -0.085672975 -0.08683715 -0.10300875 -0.070667505 -0.05557458
0.03849526 -0.07130425 -0.16085033 -0.07872033 -0.045562703 -0.0881068 -0.099716224 -0.04054666
-0.08356906 -0.057801392 -0.10383563 -0.045259595 -0.125639 -0.1426725 -0.09338679 -0.009119822
-0.060774557 -0.009016037 -0.037944105 -0.18769875 -0.0699356 -0.091298394 -0.054399427 -0.08156167
0.053647634 -0.09735638 -0.007068995 0.011605235 -0.078953266 -0.09907506 -0.09669131 -0.044381008
-0.0156952 -0.111170396 -0.03268897 -0.038435988 -0.0692253 -0.010425767 -0.07606858 -0.03515025
-0.009672525 -0.084022135 -0.06631741 -0.052171793 -0.07728866 -0.093006454 -0.10449845 0.06421341
-0.05936905 -0.0335065 -0.10837142 0.03795383 -0.08404427 -0.03066874 -0.12983306 -0.0149191385
-0.10655819 -0.09851875 -0.10662311 0.012216009 -0.037656125 -0.083510004 -0.15854384 0.020110495
-0.09571311 -0.0256575 -0.039474517 -0.18192324 -0.13257882 -0.08346955 -0.14260402 -0.044333853
-0.041500635 -0.058382828 -0.022568222 -0.09987677 -0.06985939 -0.025357561 -0.05155431 -0.12059688
-0.09328056 -0.10898641 -0.073174134 -0.11062656 -0.079309255 -0.022455301 -0.053429104 -0.030771233
-0.050969873 -0.103141144 -0.1278037 0.0049624974 -0.05701757 -0.13764851 -0.04580977 -0.12567326
-0.02731383 -0.15385945 -0.11369651 -0.101735905 -0.040172376 -0.060685206 -0.026300788 0.0053615477
-0.021508908 -0.09063479 0.0065928856 -0.12219689 -0.060863305 -0.09547081 -0.03912441 -0.07264072
-0.09289328 -0.089555554 -0.072080225 -0.07829948 -0.08690729 -0.05800324 -0.042358175 -0.11233222
00000000: 85b0 78bd 78dd 33bd 0dd9 39bd 955b 84bd
00000010: 2565 ebbd 2259 d9bd 449a bbbd 2943 debd
00000020: 7fc3 6fbb 9a06 8cbd a297 ab3b 8f9a 11bd
00000030: 55f5 82bd 2272 c7bc 3066 30bd b26f 31be
00000040: b1f0 b13b 037c 16bd 9edd 68bd 65f7 7fbd
00000050: 5bf4 06bd dd2c bfbd 9821 bdbd ed7e b0bd
00000060: 5fff c33b 702c adbc 4173 303c 7327 d1bc
00000070: dadd 3abd 33ff 65bd 170d 10be 1db2 a3bd
00000080: 11e4 c9bd 1c97 4ebd 333e 90bd 7979 9bbd
00000090: fc8b 32bd 684f 16be 7702 3bbd 18ae a1bd
000000a0: 028a 38bd 11fa ebbb 169e 0f3c 6ac3 17be
000000b0: dfc3 9ebd 091d 4bbd 0ac1 dfbc 1783 a3bd
000000c0: 0ef1 52bc 9389 94bd c094 02be 1407 9fbd
000000d0: c879 22bd dcd6 d2bd 5ff5 01be 5c6e 53bd
000000e0: 68fc b4bd d6ad 30bb d4d8 4439 f251 67bc
000000f0: 7c6b c5bd e1ba d23c e5b2 b3bd 31e9 38bd
00000100: 136e d0bd a646 e9bd c8df a3bd 81f9 fabd
00000110: 871c 68bd 96b6 f2bd afe5 89bd 6428 3dbe
00000120: 7cf9 1b3d 4b46 d9bc c6d3 e5bd e827 8abc
00000130: ec20 b5bd 77b9 46bd 9386 fb3c 6f39 71bd
00000140: 6315 58bc dbc2 75bd 59fc 68bd 5758 2bbd
00000150: c65a 16be 5d6b aebd 57fb 7fbc 7135 54bd
00000160: 80c1 98bd c25f 61bd 84a8 99bc 5c89 9cbd
00000170: 8362 0bbd 9a61 4cbc 531a 5e3b 20c5 5dbd
00000180: 05c5 e9bc bb34 c0bd ff72 80bd 5f04 26bc
00000190: 4f0c 18bd a52d 20bd 2d3e 26be 77c3 c6bd
000001a0: f9a6 10be 7f74 87bd a990 0abd 91bb 10be
000001b0: 6974 3d3d 9ee9 c0bd 8f05 babd 1930 9abd
000001c0: 6896 81bd 7dba d53c 12d8 02bd 0e57 f3bd
000001d0: 6128 18be bbbc c9bd 245f a9bd 7dbf acbd
000001e0: 457f 853c 3a3b b5bd 5779 97bc d157 f3bd
000001f0: 9d54 d8bd b827 f4bd f2e2 84bd 8fdd 943c
00000200: 1b21 aebd b418 8fbd 626b 47bd 5075 afbd
00000210: add7 b1bd 40f6 d2bd 20ba 90bd 2ca2 63bd
00000220: 35ad 1d3d f607 92bd f3b5 24be 2038 a1bd
00000230: f59f 3abd 5771 b4bd 0538 ccbd 4114 26bd
00000240: 4126 abbd 27c1 6cbd c6a7 d4bd 2062 39bd
00000250: 83a7 00be bd18 12be 9341 bfbd 4e6b 15bc
00000260: beee 78bd 00b8 13bc 476b 1bbd 1a34 40be
00000270: 653a 8fbd a7fa babd efd1 5ebd ce09 a7bd
00000280: 9fbd 5b3d c862 c7bd 07a3 e7bb e223 3e3c
00000290: 40b2 a1bd dde7 cabd 1806 c6bd dcc8 35bd
000002a0: 3893 80bc 4ead e3bd dfe4 05bd 0e6f 1dbd
000002b0: fec5 8dbd d6d0 2abc d8c9 9bbd b5f9 0fbd
000002c0: 8379 1ebc cc13 acbd 6cd1 87bd 17b2 55bd
000002d0: 8449 9ebd 2b7a bebd 4903 d6bd 5282 833d
000002e0: f62c 73bd 1d3e 09bd d6f1 ddbd 7a75 1b3d
000002f0: 671f acbd 023d fbbc f5f2 04be 676f 74bc
00000300: 2e3b dabd 33c4 c9bd 385d dabd a825 483c
00000310: 4f3d 1abd 4b07 abbd 5159 22be c4be a43c
00000320: 3c05 c4bd ad2f d2bc 08b0 21bd 164a 3abe
00000330: bec2 07be 15f2 aabd ca06 12be 6a97 35bd
00000340: 92fc 29bd d522 6fbd fee0 b8bc 318c ccbd
00000350: 7112 8fbd a9ba cfbc 9d2a 53bd 7ffb f6bd
00000360: e109 bfbd 4434 dfbd 52dc 95bd 2e90 e2bd
00000370: e46c a2bd 2ef4 b7bc 7ad8 5abd f413 fcbc
00000380: c9c5 50bd aa3b d3bd f9de 02be 729c a23b
00000390: 418b 69bd bbf3 0cbe 06a3 3bbd 7eb0 00be
000003a0: 41c1 dfbc 558d 1dbe b7d9 e8bd ea5a d0bd
000003b0: ca8b 24bd 0d91 78bd c074 d7bc ecaf af3b
000003c0: 7333 b0bc bc9e b9bd 2209 d83b 5d42 fabd
000003d0: cd4b 79bd 3386 c3bd eb40 20bd a8c4 94bd
000003e0: d53e bebd e768 b7bd cc9e 93bd 7a5b a0bd
000003f0: 73fc b1bd ce94 6dbd c47f 2dbd 6f0e e6bd

fcs1_bn.running_mean f4 [400]
0.009147123 0.60721475 -0.13623399 0.119381174 0.20291212 0.29093155 -0.18133067 0.2875824
-0.4218665 -0.13797857 -0.20402643 -0.21154465 -0.3148077 -0.4520255 0.048277855 -0.11359749
-0.47109628 -0.28906542 0.31705642 0.061835367 -0.17627813 0.23630151 -0.04606204 -0.07209541
-0.0634537 -0.27468032 0.05200951 -0.08324144 -0.2630232 -0.31413293 -0.06844663 -0.13228285
0.5835602 0.08346586 0.630141 0.14413376 -0.32847092 0.28378302 0.22443716 -0.42500448
-0.27160662 -0.14067902 0.23749866 -0.2259395 -0.15311812 -0.14927126 -0.6237394 0.06633777
0.019668499 -0.46704453 0.20134027 -0.11785781 -0.32608747 -0.14677614 0.091093175 -0.07574095
-0.13487335 0.121146984 -0.06668491 0.1523961 -0.22743565 -0.100880906 0.08360354 -0.004160937
-0.254222 0.21536975 0.031916253 0.3174014 -0.07022236 0.020853898 -0.54651994 0.31857204
-0.15125111 0.6011803 0.010880654 -0.35898337 0.2590865 -0.0148300305 0.21662174 -0.30704853
0.12160081 -0.15480308 -0.33141434 0.107117675 0.17627451 0.06313868 0.06790933 -0.09187301
-0.20390002 -0.27411634 0.05787768 -0.09407486 0.3986499 -0.08959499 0.14301808 -0.13515429
0.09436592 -0.24631307 0.066006355 -0.22841454 -0.004039604 -0.06376384 0.02753206 0.03593823
0.5159163 -0.09656266 -0.5142017 0.18017522 -0.47731793 -0.19321942 -0.1730147 -0.35647294
0.17472011 -0.21573727 -0.084917024 -0.20112412 -0.75820684 0.3065841 0.16248618 -0.19403496
-0.00635447 -0.17276402 0.25703487 0.22985464 -0.16326529 -0.24344054 0.038832642 0.084466994
0.047923487 0.06091022 0.31487805 0.26717585 0.13894378 0.025413128 -0.26761365 0.09625088
-0.46610034 -0.0660179 -0.07345335 0.08381611 -0.39395702 0.14544994 -0.057050094 -0.1415647
0.28406033 -0.52326083 0.1286327 0.089854926 -0.13336453 0.21425597 -0.12972051 0.1219563
0.028485019 -0.022543225 0.23280618 0.762209 -0.2537015 -0.09650841 -0.39043543 0.021335106
0.19434723 0.08890363 -0.08225191 0.11986217 0.2048204 -0.18715075 0.16354035 -0.17700525
0.1128118 -0.2341669 -0.06536551 0.008149142 -0.0062946035 -0.25128382 0.07478338 -0.39037853
-0.21020478 0.2561589 0.0851722 -0.067602865 -0.45801333 0.22784832 0.08498949 -0.3643868
0.1447144 -0.15928222 -0.32979083 -0.0018228057 -0.077986985 0.15951484 0.123267606 -0.0132923825
-0.021073945 0.06902409 0.36381078 -0.61503065 -0.36403835 -0.29320943 -0.042757194 0.0293199
0.32311153 -0.35830712 -0.17912482 0.10559761 0.1542414 0.1003677 -0.41796622 -0.33874142
-0.13379091 -0.24244207 -0.1452591 0.044089057 -0.56943846 0.27464107 0.0027527383 0.07805193
-0.23121704 -0.00090443046 0.01693387 0.26101264 0.2804044 -0.061560217 0.057948194 0.24069753
-0.14623581 0.1005593 0.05269749 -0.68793094 -0.48339823 -0.17130144 -0.30264306 -0.29220748
0.13272415 -0.16539581 0.13859938 0.38758913 0.14843915 -0.126401 0.0063733775 -0.4833026
0.2059799 -0.3692987 -0.30180648 0.20431034 0.2562496 -0.13503256 0.0026145428 0.1566383
-0.28551683 -0.28612608 -0.024247983 -0.23433164 0.06141185 -0.31684524 -0.1154795 0.14733773
00000000: d1dd 153c 6d72 1b3f ec80 0bbe 1e7e f43d
00000010: 32c8 4f3e fbf4 943e bfae 39be 003e 933e
00000020: e3fe d7be 414a 0dbe 4eec 50be 299f 58be
00000030: 7a2e a1be e36f e7be 00bf 453d cda5 e8bd
00000040: 8833 f1be 6200 94be 3855 a23e 1547 7d3d
00000050: 4182 34be 06f9 713e 8dab 3cbd c2a6 93bd
00000060: 03f4 81bd e6a2 8cbe ed07 553d 7d7a aabd
00000070: faaa 86be 08d6 a0be bf2d 8cbd 2875 07be
00000080: 3464 153f 26f0 aa3d ec50 213f cd97 133e
00000090: 572d a8be 024c 913e dbd2 653e 309a d9be
000000a0: 0610 8bbe 290e 10be d932 733e af5c 67be
000000b0: ffca 1cbe 91da 18be 63ad 1fbf 19dc 873d
000000c0: d51f a13c 7620 efbe 252c 4e3e 6f5f f1bd
000000d0: f0f4 a6be 7c4c 16be 0f8f ba3d 121e 9bbd
000000e0: 3d1c 0abe e91b f83d 1992 88bd b90d 1c3e
000000f0: e4e4 68be a69a cebd 5538 ab3d 7858 88bb
00000100: 6329 82be e389 5c3e 9eba 023d 7082 a23e
00000110: bed0 8fbd cbd5 aa3c bbe8 0bbf e01b a33e
00000120: 92e1 1abe f4e6 193f c544 323c abcc b7be
00000130: fca6 843e a8f9 72bc 17d2 5d3e 7735 9dbe
00000140: d809 f93d b384 1ebe 24af a9be 8360 db3d
00000150: 4e81 343e da4e 813d 0c14 8b3d eb27 bcbd
00000160: 2bcb 50be fa58 8cbe 2511 6d3d 52aa c0bd
00000170: d71b cc3e 947d b7bd 5573 123e e365 0abe
00000180: eb42 c13d 7e39 7cbe 572e 873d 80e5 69be
00000190: a85e 84bb 9e96 82bd ea8a e13c f733 133d
000001a0: 1713 043f a5c2 c5bd b9a2 03bf da7f 383e
000001b0: 0463 f4be 50db 45be c42a 31be 9f83 b6be
000001c0: d4e9 323e 3bea 5cbe fae8 adbd 7bf3 4dbe
000001d0: d819 42bf 97f8 9c3e c762 263e 1ab1 46be
000001e0: 2839 d0bb 0de9 30be 139a 833e 045f 6b3e
000001f0: 042f 27be 7a48 79be fa0e 1f3d 08fd ac3d
00000200: 6b4b 443d ff7c 793d b237 a13e 46cb 883e
00000210: 4747 0e3e 312f d03c a804 89be 2e1f c53d
00000220: b4a4 eebe 6534 87bd b66e 96bd c8a7 ab3d
00000230: bcb4 c9be d4f0 143e 5cad 69bd 56f6 10be
00000240: 5b70 913e 6cf4 05bf 4ab8 033e dc05 b83d
00000250: b690 08be eb65 5b3e 74d5 04be 3ac4 f93d
00000260: 6a59 e93c 92ac b8bc be64 6e3e 2120 433f
00000270: 2ae5 81be 34a6 c5bd 27e7 c7be f6c6 ae3c
00000280: f602 473e 1b13 b63d b073 a8bd 4c7a f53d
00000290: 70bc 513e 72a4 3fbe 1f77 273e dd40 35be
000002a0: df09 e73d 73c9 6fbe 5ade 85bd fb83 053c
000002b0: f642 cebb 46a8 80be 0728 993d b2df c7be
000002c0: ec3f 57be 4227 833e c36e ae3d 5f73 8abd
000002d0: b980 eabe 1251 693e f80e ae3d e890 babe
000002e0: 0330 143e e11a 23be 58da a8be 36eb eeba
000002f0: a4b7 9fbd dc57 233e ba73 fc3d 4bc8 59bc
00000300: 44a3 acbc 815c 8d3d 6845 ba3e a672 1dbf
00000310: 3c63 babe 8c1f 96be 2b22 2fbd 4930 f03c
00000320: e06e a53e 0874 b7be 7f6c 37be 8f43 d83d
00000330: 75f1 1d3e 958d cd3d abff d5be 846f adbe
00000340: 7c00 09be bc42 78be cdbe 14be ba96 343d
00000350: b8c6 11bf c19d 8c3e 4967 343b b1d9 9f3d
00000360: 29c4 6cbe 4d17 6dba e6b8 8a3c 73a3 853e
00000370: 2a91 8f3e 9126 7cbd 165b 6d3d 6a79 763e
00000380: d7be 15be 09f2 cd3d 53d9 573d 3e1c 30bf
00000390: f97f f7be a569 2fbe 08f4 9abe 389c 95be
000003a0: d7e8 073e 855d 29be ffec 0d3e 1572 c63e
000003b0: 6f00 183e 446f 01be c4d7 d03b 7073 f7be
000003c0: 65ec 523e b814 bdbe 6186 9abe bb36 513e
000003d0: 2633 833e fa45 0abe c058 2b3b ca65 203e
000003e0: 432f 92be 1e7f 92be b5a3 c6bc a2f4 6fbe
000003f0: fe8a 7b3d 8a39 a2be 8480 ecbd b4df 163e

fcs1_bn.running_var f4 [400]
3.9658058 3.8755667 2.4701858 1.7375054 3.0903509 1.8486292 0.78770965 0.72386485
1.4342355 3.1453395 1.2639946 2.6043756 1.2628437 1.6197906 2.5164168 0.6376962
0.9784973 2.3457484 0.93647045 1.3911227 0.8539049 1.193817 0.7861169 1.1099058
6.451539 2.151259 1.7259393 0.8601301 1.052438 1.275915 1.5220532 1.5785652
4.156264 1.587054 1.1297752 4.945469 4.8963175 1.477187 2.7517412 3.8545542
1.1033291 3.0104773 2.0118475 2.6519363 0.74669 3.528666 1.1791806 1.1290547
0.70157266 2.8817704 3.5789242 3.7070405 1.1573703 2.4394767 0.9815902 0.6421157
4.066672 7.0271807 0.98573565 4.122986 4.2670884 1.678499 2.8540554 2.7222962
2.2192645 2.31837 1.4408507 0.9438956 0.7760819 1.6456035 2.1169288 1.1419245
2.483709 1.6455685 1.7367187 5.1676164 3.9092376 0.63223475 3.1720688 1.4220406
1.7432127 3.7528 3.1761975 2.1574244 2.3333292 0.88911015 1.0200251 0.7558967
0.94189686 1.0141196 1.0047221 0.624156 1.076843 6.6893187 2.939011 3.2930539
1.2410514 2.9409862 1.6288953 5.915603 2.128301 2.78444 0.78436464 1.1592411
1.5579444 0.84374326 1.3374318 2.357612 0.573731 0.7427743 1.3775756 1.2007812
1.8334264 1.9642694 4.3054547 3.1349611 3.9710107 1.4006599 1.711632 4.5482244
1.006947 6.680439 1.1514862 2.8636088 3.8031638 4.132177 2.0318916 1.8510665
2.9939835 2.805195 2.101231 1.5325155 2.175983 1.1192816 0.96588004 1.4469093
2.2551217 1.6868336 2.177659 1.1773754 1.1285745 1.0183927 3.8025546 0.74599916
0.9775286 2.614019 1.2960219 1.8195262 4.3931203 2.3181121 4.3448076 1.2567772
8.034501 4.66481 1.1564263 1.5842373 1.9280164 1.9145318 2.0969484 3.65441
0.62672275 1.7432446 2.1856096 4.05689 1.2596009 1.5832584 1.2155184 2.3838532
1.2629255 1.8619373 3.2083635 0.5416523 4.8075027 1.1850698 3.2403722 0.90863067
1.6793829 1.0305805 1.9709443 2.8683329 1.1062936 1.1015972 0.5753283 2.3947036
2.040797 0.990014 1.9285623 3.8309 2.8163207 1.1022322 1.1850677 1.2845619
1.2252338 2.2012403 2.085802 2.4122887 4.1928453 1.9930719 0.652604 3.726863
4.1766896 0.8471855 1.342615 1.1960003 5.1881065 0.83849466 1.7116847 3.6542995
2.2539027 4.488004 1.7405019 1.4768105 0.8284511 2.9322271 2.590158 3.454799
2.072815 1.8302975 2.083162 1.1155494 2.1047475 1.1409926 1.4257264 2.0564969
1.3514402 1.7324708 2.6951947 2.8998158 3.814993 0.75914025 3.7793536 2.320464
0.61652356 2.2395077 1.8693833 3.3967187 1.5737163 1.4982386 2.0718892 0.9804052
2.897516 1.0843035 5.338216 0.9549577 1.7316664 3.3878446 2.7661695 2.7975636
4.199541 0.67393863 1.5392332 2.5314717 1.8156279 1.9206305 2.5143502 1.3515087
00000000: c3cf 7d40 4909 7840 8617 1e40 9466 de3f
00000010: 4fc8 4540 e29f ec3f 57a7 493f 354f 393f
00000020: 0795 b73f 3e4d 4940 93ca a13f 17ae 2640
00000030: dda4 a13f 4c55 cf3f f90c 2140 0f40 233f
00000040: cd7e 7a3f be20 1640 87bc 6f3f 4f10 b23f
00000050: 8399 5a3f ffce 983f f53e 493f 6511 8e3f
00000060: 0273 ce40 3aae 0940 94eb dc3f 7c31 5c3f
00000070: 4ab6 863f 2f51 a33f a4d2 c23f 6d0e ca3f
00000080: 1d00 8540 9624 cb3f 799c 903f 4841 9e40
00000090: a2ae 9c40 7714 bd3f 871c 3040 04b1 7640
000000a0: e339 8d3f a9ab 4040 1cc2 0040 53b9 2940
000000b0: 1327 3f3f aad5 6140 64ef 963f dd84 903f
000000c0: 449a 333f ed6e 3840 180d 6540 2740 6d40
000000d0: b624 943f 6320 1c40 7f49 7b3f b261 243f
000000e0: 2d22 8240 aade e040 2c59 7c3f 80ef 8340
000000f0: fd8b 8840 0ed9 d63f d8a8 3640 1a3a 2e40
00000100: 6e08 0e40 2d60 1440 cc6d b83f 24a3 713f
00000110: 4ead 463f 23a3 d23f c37b 0740 952a 923f
00000120: 17f5 1e40 fda1 d23f cc4c de3f 1d5d a540
00000130: f330 7a40 23da 213f 2d03 4b40 6d05 b63f
00000140: 9821 df3f e02d 7040 d246 4b40 3e13 0a40
00000150: 4455 1540 b99c 633f 2f90 823f 7282 413f
00000160: 2720 713f acce 813f bc9a 803f b0c8 1f3f
00000170: fed5 893f e60e d640 c218 3c40 65c1 5240
00000180: c6da 9e3f 1e39 3c40 a47f d03f 9f4c bd40
00000190: 1536 0840 4434 3240 1fcc 483f 0362 943f
000001a0: b96a c73f 8fff 573f f730 ab3f 1de3 1640
000001b0: 09e0 123f 7526 3e3f 6654 b03f 33b3 993f
000001c0: b7ad ea3f 2e6d fb3f 49c6 8940 34a3 4840
000001d0: 0a25 7e40 d348 b33f c216 db3f 0e8b 9140
000001e0: a4e3 803f 28c6 d540 e663 933f 5e45 3740
000001f0: 0967 7340 cb3a 8440 830a 0240 bfef ec3f
00000200: 6d9d 3f40 5188 3340 927a 0640 7829 c43f
00000210: 4e43 0b40 9f44 8f3f ea43 773f 5334 b93f
00000220: ea53 1040 2aea d73f c45e 0b40 3db4 963f
00000230: 2175 903f b15a 823f 0e5d 7340 cdf9 3e3f
00000240: 503f 7a3f 164c 2740 0ce4 a53f 3ce6 e83f
00000250: 7194 8c40 f35b 1440 aa08 8b40 13de a03f
00000260: 518d 0041 2046 9540 c705 943f 4ac8 ca3f
00000270: 3ec9 f63f 610f f53f 6734 0640 dae1 6940
00000280: e770 203f a422 df3f 07e1 0b40 0bd2 8140
00000290: 9a3a a13f 36a8 ca3f 1b96 9b3f 0d91 1840
000002a0: 8ba7 a13f f653 ee3f d455 4d40 baa9 0a3f
000002b0: 10d7 9940 5eb0 973f 4262 4f40 059c 683f
000002c0: 05f6 d63f 10ea 833f e747 fc3f c492 3740
000002d0: 079b 8d3f 2301 8d3f b748 133f d342 1940
000002e0: 6b9c 0240 8f71 7d3f 21db f63f 772d 7540
000002f0: 993e 3440 f215 8d3f 4cb0 973f 866c a43f
00000300: 76d4 9c3f 1fe1 0c40 c87d 0540 f062 1a40
00000310: ca2b 8640 fb1c ff3f 0e11 273f ec84 6e40
00000320: 71a7 8540 26e1 583f cfda ab3f 8a16 993f
00000330: f804 a640 96a7 563f 7c18 db3f 0be0 6940
00000340: f13f 1040 bb9d 8f40 c4c8 de3f 2008 bd3f
00000350: 5f15 543f 9ca9 3b40 26c5 2540 6d1b 5d40
00000360: 00a9 0440 3047 ea3f 8752 0540 53ca 8e3f
00000370: 2fb4 0640 0c0c 923f 347e b63f a59d 0340
00000380: fefb ac3f 9ac1 dd3f 127e 2c40 9596 3940
00000390: d828 7440 0457 423f eee0 7140 7b82 1440
000003a0: 7dd4 1d3f 1854 0f40 f447 ef3f d763 5940
000003b0: 896f c93f 48c6 bf3f d599 0440 d6fb 7a3f
000003c0: e770 3940 75ca 8a3f aad2 aa40 1c78 743f
000003d0: 3fa7 dd3f 72d2 5840 ec08 3140 480b 3340
000003e0: a462 8640 3e87 2c3f 9805 c53f a203 2240
000003f0: 7f66 e83f 38d7 f53f 1deb 2040 3dfe ac3f

fc2.weight f4 [300, 404]
-0.008521411 -0.048078768 -0.016647255 -0.054550763 0.009156168 -0.01656016 -0.04965562 -0.14534111
-0.10042627 0.02402899 -0.029852003 -0.0016827328 -0.030497571 0.04976945 -0.028598018 -0.004388001
0.01599228 0.0037348226 0.009769354 0.0304889 0.0032728266 -0.023171278 0.002427409 -0.056808293
-0.047166865 -0.06332264 -0.043110292 -0.036092225 -0.082928546 -0.0005676504 -0.07189652 -0.04928882
0.00513582 0.025261672 -0.12202459 0.043828487 0.042851795 -0.08696181 -0.049454823 0.02762523
0.0055158767 -0.006386632 -0.06270975 -0.105698 0.044239346 0.0013948265 -0.048973225 0.030396143
-0.0133337565 0.035276238 -0.047284637 -0.0008293268 -0.09001968 -0.052017234 -0.08612474 -0.029702527
-0.018023554 -0.06257887 0.044830415 0.010791465 0.024131343 0.01327534 0.07229153 -0.03225336
0.061167397 0.022596475 -0.095125526 -0.1343631 -0.008954099 0.014838807 0.022593034 -0.09489161
-0.123170525 0.042272326 -0.047591556 0.0039418708 0.07838954 -0.04914297 0.008951222 0.040198825
-0.025050182 0.02139123 0.030871045 0.026236191 -0.09730085 -0.062255718 -0.04869626 -0.01082563
-0.034523733 0.0134475045 0.08913552 0.042357747 -0.11591765 -0.06890419 0.001882278 0.057447974
-0.034028087 0.055494156 -0.036046583 -0.017706467 0.030279575 0.039483506 -0.040366005 -0.044505917
-0.06649423 0.023636632 -0.1085001 -0.034813106 -0.047563627 -0.0448274 -0.04217164 0.023120886
-0.062124852 -0.05860596 0.023534376 -0.039538614 0.018888047 -0.15368968 -0.048016418 -0.063543744
0.06953189 0.0048068804 -0.11984222 0.0018650887 -0.06897818 0.032871604 -0.14423619 -0.0650204
-0.035745338 -0.07032832 0.08537553 -0.0807335 -0.091158636 -0.0523715 -0.10115363 -0.04995595
-0.041646868 0.0014018941 -0.08361345 0.019487783 -0.01737073 -0.11509826 -0.029051509 -0.057943318
0.00056800956 -0.045610942 -0.001884077 0.017023275 -0.0045298696 -0.059317116 0.03445483 -0.022677679
-0.02751938 0.017960696 0.021270977 -0.0022219352 0.008032012 0.046906702 -0.08206761 0.03198768
-0.020670902 0.08512217 -0.017173925 -0.046193987 -0.08473007 -0.0113144275 0.033018433 0.0041467734
-0.051563628 -0.08414877 -0.013339648 -0.03204321 0.045102518 0.016046042 0.040431798 0.011459078
0.010850723 -0.08944608 -0.013312413 0.022701858 -0.08937867 -0.096546665 0.06015999 -0.007418696
-0.07572253 -0.025937054 0.010314091 -0.013674659 0.06014487 0.047004778 -0.04015692 0.0002195506
0.061929956 0.03738155 0.025912609 -0.004009683 -0.019488359 -0.11423243 0.060855303 -0.018497873
-0.023920361 0.019039892 -0.04930594 -0.10342167 0.020065805 0.06738678 0.107753836 -0.0041976683
0.040220328 0.10796538 -0.088664494 0.028004494 -0.026465533 -0.008132158 0.0014157775 0.0381237
0.021928854 -0.041263837 -0.0060143345 -0.048635073 0.0075603556 -0.03859362 -0.054929003 -0.012700423
0.033473574 -0.07033841 0.043167356 -0.0013571191 -0.018319482 0.0075033423 0.027016122 0.0121104
-0.006101394 0.052439403 -0.058032855 -0.027419664 -0.028068885 0.038417406 -0.0494745 -0.04713628
0.03601895 0.0016141001 0.074964106 0.0063783787 -0.011199844 -0.015107287 0.0023577132 -0.092343844
-0.04012948 -0.11526535 0.0027508566 0.022260193 -0.0010930136 -0.011222429 -0.048491124 0.010546548
00000000: 639d 0bbc 3eee 44bd d35f 88bc 9f70 5fbd
00000010: c103 163c 2ca9 87bc b163 4bbd 4dd4 14be
00000020: 4aac cdbd 72d8 c43c 308c f4bc 258f dcba
00000030: 0bd6 f9bc 0ddb 4b3d 6446 eabc 38c9 8fbb
00000040: 3e02 833c edc3 743b a40f 203c dcc3 f93c
00000050: eb7c 563b b1d1 bdbc 2a15 1f3b d0af 68bd
00000060: 0b32 41bd 4daf 81bd 6b94 30bd 71d5 13bd
00000070: 71d6 a9bd 60ce 14ba 7c3e 93bd 13e3 49bd
00000080: 614a a83b 91f1 ce3c 07e8 f9bd 8085 333d
00000090: 5d85 2f3d 0919 b2bd 2491 4abd 4e4e e23c
000000a0: 87be b43b f446 d1bb f86d 80bd 3178 d8bd
000000b0: 5134 353d 9cd2 b63a 2698 48bd 5501 f93c
000000c0: d475 5abc d17d 103d 89ad 41bd 2e67 59ba
000000d0: 3d5c b8bd 0610 55bd 2b62 b0bd b752 f3bc
000000e0: 22a6 93bc 5a29 80bd 19a0 373d afce 303c
000000f0: 18af c53c d080 593c 950d 943d 191c 04bd
00000100: aa8a 7a3d 3e1c b93c 2cd1 c2bd 7b96 09be
00000110: 37b4 12bc 781e 733c 0715 b93c 8856 c2bd
00000120: d440 fcbd bf25 2d3d 5def 42bd cf2a 813b
00000130: b28a a03d 244a 49bd 25a8 123c 86a7 243d
00000140: 0a36 cdbc a93c af3c 46e5 fc3c 48ed d63c
00000150: ab45 c7bd daff 7ebd bb75 47bd fc5d 31bc
00000160: c268 0dbd ec52 5c3c af8c b63d 517f 2d3d
00000170: 3c66 edbd a41d 8dbd c5b6 f63a 914e 6b3d
00000180: 0961 0bbd d74d 633d 95a5 13bd 270d 91bc
00000190: df0c f83c 75b9 213d d356 25bd d64b 36bd
000001a0: 202e 88bd 9ca1 c13c 4d35 debd 3098 0ebd
000001b0: 14d2 42bd f09c 37bd 2bbc 2cbd 0368 bd3c
000001c0: a176 7ebd ce0c 70bd 2acb c03c 3ef3 21bd
000001d0: 1bbb 9a3c d460 1dbe ddac 44bd 3923 82bd
000001e0: bc66 8e3d 0983 9d3b d66f f5bd fe75 f43a
000001f0: 6f44 8dbd 60a4 063d a7b2 13be 6a29 85bd
00000200: b469 12bd 4b08 90bd 5ed9 ae3d 9b57 a5bd
00000210: 61b1 babd 7f83 56bd a229 cfbd 9c9e 4cbd
00000220: e895 2abd c3bf b73a 873d abbd d8a4 9f3c
00000230: 104d 8ebc a3b8 ebbd 6efd edbc f955 6dbd
00000240: 7ae6 143a 8ad2 3abd 22f3 f6ba 6574 8b3c
00000250: 4d6f 94bb 81f6 72bd 8220 0d3d 8ac6 b9bc
00000260: 5370 e1bc 4f22 933c 7940 ae3c e39d 11bb
00000270: b398 033c 3e21 403d 1013 a8bd 8305 033d
00000280: 0656 a9bc 8854 ae3d 55b0 8cbc e835 3dbd
00000290: f586 adbd 2660 39bc 563e 073d a8e1 873b
000002a0: 6234 53bd 3156 acbd 8a8e 5abc be3f 03bd
000002b0: 6bbd 383d fd72 833c d09b 253d dbbe 3b3c
000002c0: 3bc7 313c 822f b7bd 4f1c 5abc 3ff9 b93c
000002d0: 2a0c b7bd 42ba c5bd 526a 763d 8818 f3bb
000002e0: 6a14 9bbd f279 d4bc 6ffc 283c ad0b 60bc
000002f0: 785a 763d 1588 403d 957b 24bd 2a37 6639
00000300: 44aa 7d3d 651d 193d ae46 d43c a963 83bb
00000310: 0da6 9fbc b1f2 e9bd 6943 793d da88 97bc
00000320: a2f4 c3bc 8cf9 9b3c 06f5 49bd bece d3bd
00000330: 0b61 a43c 1502 8a3d 0bae dc3d 988c 89bb
00000340: 12be 243d f41c dd3d bb95 b5bd ae69 e53c
00000350: 3fce d8bc be3c 05bc 9c91 b93a 9927 1c3d
00000360: 24a4 b33c 4504 29bd e513 c5bb 9235 47bd
00000370: dcbc f73b 5814 1ebd 3cfd 60bd 6f15 50bc
00000380: 961b 093d 960d 90bd 41d0 303d 5ce1 b1ba
00000390: bd12 96bc 99de f53b ea50 dd3c b36a 463c
000003a0: 34ee c7bb b3ca 563d dcb3 6dbd 349f e0bc
000003b0: b8f0 e5bc 925b 1d3d c6a5 4abd f911 41bd
000003c0: 9b88 133d 3690 d33a c886 993d b801 d13b
000003d0: 8d7f 37bc 8e84 77bc dd83 1a3b c51e bdbd
000003e0: cf5e 24bd 3d10 ecbd b747 343b 025b b63c
000003f0: 7343 8fba 47de 37bc a19e 46bd 6ecb 2c3c

fc2.bias f4 [300]
0.012521282 0.03240938 0.014873363 0.020219937 0.033251498 -0.01244475 0.006072068 0.014024715
-0.038591057 -0.04663085 0.00338955 0.022060068 0.03523924 -0.006160704 -0.0061314316 -0.034546386
8.815323e-05 0.005001113 -0.015100778 0.007069192 -0.03245222 0.0022361816 -0.019460443 0.037461013
0.020011192 0.0208158 -0.025622994 -0.02277378 -0.030507188 -0.048971016 -0.021372342 0.0022400387
0.008992341 -0.009563158 0.04114625 -0.012578783 -0.0034439145 0.00083122886 0.01871426 0.009651338
0.045245316 0.0054411846 -0.004627097 -0.0462793 -0.023183782 -0.014128536 -0.015553375 0.036884643
0.011336372 0.026559941 0.010853546 0.042693548 -0.04171436 0.01785642 0.03331527 0.017415889
-0.049129196 0.030462706 0.043093745 0.019385854 0.0219618 0.021294132 0.012112056 0.048230127
0.04218152 -0.019487612 0.032501437 0.024352407 0.0021061487 0.021351263 -0.010209269 0.0127598755
0.01800752 -0.034836657 0.018386176 0.011432733 0.038478147 0.03695591 0.026760647 -0.03376196
0.047975373 -0.02061864 0.038492873 0.042405613 0.019103022 0.01144371 0.0130567085 -0.043116614
0.040395528 0.043035675 0.020529052 0.035391588 -0.025341477 0.033880655 0.0066678175 0.032932848
0.049253516 0.019109856 0.040032785 0.031156847 -0.030236349 -0.029310366 0.005932447 0.025470333
0.041878432 0.047441572 -0.033866722 0.036899496 0.03237677 0.01148333 -0.025076078 -0.010486328
-0.021248788 -0.048288297 -0.01205601 -0.015892075 -0.03785534 -0.029383164 0.003601357 0.008892137
0.033922795 0.0032499502 0.011497478 -0.020263087 0.0073348423 0.02540848 0.035871673 -0.0062137563
-0.04691476 0.038921144 -0.017953927 0.0383581 0.025748642 0.01485884 -0.043158844 -0.03785364
0.0146242855 0.007338299 0.01057514 0.03608591 -0.00834659 -0.00541732 0.028292075 -0.03383342
0.03678166 0.036439415 0.03293402 0.016128361 -0.042739976 -0.038867805 0.035284117 -0.0061966795
0.0015211196 0.032122858 0.023058541 0.005944385 0.01701935 0.020676503 2.9639315e-05 -0.034067668
-0.018747877 0.027941972 -0.028335242 -0.010738266 -0.034294546 -0.0048292647 0.01580716 -0.03568151
-0.04080683 0.024598155 0.039553978 0.011787845 0.037238937 0.008725336 0.045390256 0.034063153
-0.0075978986 0.0424842 -0.036407504 0.032152504 -0.033941377 0.036348585 -0.030250724 0.044902194
-0.04570403 -0.022958452 0.03490281 0.004552548 0.018700352 -0.037325747 -0.03597714 -0.038675804
0.028190356 0.032891944 0.04927101 0.023147509 0.042844675 0.0427541 -0.025967997 0.02927034
-0.0060970793 0.03008257 -0.035484385 0.043887425 0.03199719 -0.031506196 0.010547065 -0.034042273
-0.018133106 -0.019976877 -0.026582938 0.039739974 -0.029850952 0.026081318 -0.044585284 0.04832666
-0.03391752 0.0067227087 0.017464692 0.004444479 0.033591133 0.020113876 -0.007888096 -0.016858626
-0.033424072 -0.009138902 -0.032737177 0.0031465788 -0.017352208 -0.005594749 -0.031910907 -0.012471221
0.019904787 -0.013745835 -0.01300685 -0.030667674 -0.03386303 -0.034047134 -0.031442158 -0.048228703
-0.034328584 7.870924e-06 -0.009703493 -0.023098897 -0.0014650548 -0.04130504 -0.0367247 -0.006907694
0.021160021 0.028641682 0.049689736 -0.015933346 0.039290152 0.017568827 -0.038590148 -0.0010535129
00000000: 1026 4d3c b3bf 043d 68af 733c 48a4 a53c
00000010: b932 083d 11e5 4bbc 33f8 c63b ebc7 653c
00000020: a811 1ebd fdff 3ebd 3623 5e3b 51b7 b43c
00000030: 0557 103d bbdf c9bb 2dea c8bb 8380 0dbd
00000040: e8de b838 60e0 a33b 4169 77bc aea4 e73b
00000050: 9eec 04bd e78c 123b 826b 9fbc b870 193d
00000060: 83ee a33c e685 aa3c 50e7 d1bc 1490 babc
00000070: 36ea f9bc d595 48bd 0d15 afbc 9dcd 123b
00000080: 9d54 133c cbae 1cbc f888 283d 3d17 4ebc
00000090: 4cb3 61bb d3e6 593a a64e 993c a520 1e3c
000000a0: 2753 393d f74b b23b e79e 97bb 5d8f 3dbd
000000b0: eaeb bdbc 607b 67bc 95d3 7ebc 5a14 173d
000000c0: 31bc 393c 3c94 d93c 12d3 313c 6edf 2e3d
000000d0: addc 2abd a047 923c 9875 083d c4ab 8e3c
000000e0: b23b 49bd ed8c f93c 1183 303d 15cf 9e3c
000000f0: 3ce9 b33c 0871 ae3c a571 463c f48c 453d
00000100: 88c6 2c3d 7ca4 9fbc 3a20 053d b37e c73c
00000110: 5007 0a3b d8e8 ae3c c744 27bc cc0e 513c
00000120: 8284 933c e2b0 0ebd 9b9e 963c 5c50 3b3c
00000130: 439b 1d3d 155f 173d 2539 db3c fb49 0abd
00000140: d381 443d 6ce8 a8bc b4aa 1d3d 82b1 2d3d
00000150: f17d 9c3c 667e 3b3c ceeb 553c 0c9b 30bd
00000160: c875 253d 2d46 303d 8b2c a83c c5f6 103d
00000170: ee98 cfbc 71c6 0a3d b57d da3b 98e4 063d
00000180: 0ebe 493d 468c 9c3c 6bf9 233d a53c ff3c
00000190: 38b2 f7bc 4b1c f0bc f964 c23b 29a7 d03c
000001a0: b888 2b3d 1852 423d d5b7 0abd ed23 173d
000001b0: 819d 043d 9424 3c3c 596c cdbc d9ce 2bbc
000001c0: f011 aebc f3c9 45bd 9286 45bc 1930 82bc
000001d0: 330e 1bbd f6b4 f0bc bf04 6c3b 53b0 113c
000001e0: a1f2 0a3d 1efd 543b eb5f 3c3c c6fe a5bc
000001f0: 1e59 f03b 7225 d03c 2dee 123d c49c cbbb
00000200: b129 40bd c76b 1f3d 1d14 93bc 621d 1d3d
00000210: d1ee d23c 7e72 733c 54c7 30bd 6b0c 1bbd
00000220: b39a 6f3c 1d76 f03b 5a43 2d3c d2ce 133d
00000230: 23c0 08bc c683 b1bb c8c4 e73c ea94 0abd
00000240: 5ea8 163d 7f41 153d d3e5 063d a01f 843c
00000250: 1d10 2fbd d933 1fbd 1486 103d 840d cbbb
00000260: 4e60 c73a 4293 033d 44e5 bc3c 1ec9 c23b
00000270: 2a6c 8b3c c561 a93c f2a1 f837 8a8a 0bbd
00000280: 2695 99bc 90e6 e43c 4f1f e8bc 8def 2fbc
00000290: 7078 0cbd cf3e 9ebb 047e 813c c626 12bd
000002a0: 1025 27bd 1282 c93c 5a03 223d ce21 413c
000002b0: db87 183d b6f4 0e3c 22eb 393d ce85 0b3d
000002c0: cbf7 f8bb ea03 2e3d 0920 15bd 58b2 033d
000002d0: 1d06 0bbd 41e2 143d 5ed0 f7bc 5deb 373d
000002e0: 2634 3bbd 5d13 bcbc 40f6 0e3d 8a2d 953b
000002f0: 7b31 993c e2e2 18bd c45c 13bd 856a 1ebd
00000300: 76ef e63c b4b9 063d 66d0 493d d89f bd3c
00000310: e67d 2f3d ec1e 2f3d d6ba d4bc 5ac8 ef3c
00000320: 02ca c7bb b96f f63c 1358 11bd 4dc3 333d
00000330: 7c0f 033d a40c 01bd 99cd 2c3c e96f 0bbd
00000340: e18b 94bc 8ca6 a3bc 76c4 d9bc 62c6 223d
00000350: fc89 f4bc 7da8 d53c 0f9f 36bd 2df2 453d
00000360: 19ed 0abd 2b4a dc3b 1d12 8f3c fea2 913b
00000370: db96 093d dbc5 a43c 133d 01bc 1a1b 8abc
00000380: aee7 08bd 55bb 15bc 6b17 06bd d536 4e3b
00000390: 3826 8ebc 2854 b7bb 03b5 02bd 1854 4cbc
000003a0: 5d0f a33c 3636 61bc af1a 55bc c63a fbbc
000003b0: f6b3 0abd 0275 0bbd 7ec9 00bd 768b 45bd
000003c0: 219c 0cbd 5c0d 0437 66fb 1ebc e639 bdbc
000003d0: 1507 c0ba 792f 29bd a46c 16bd f059 e2bb
000003e0: c857 ad3c f6a1 ea3c 7787 4b3d a686 82bc
000003f0: b6ee 203d 80ec 8f3c b410 1ebd 0716 8aba
