agent_checkpoints/checkpoint_actor_2.pth (torch_old, 553585 bytes, 14 tensors)

fc1.weight f4 [400, 33]
000000 2c 5e 54 bd 33 e8 7b bd a3 ab 61 3c 28 73 c8 bc
       -0.05184762 -0.06150074 0.013773832 -0.024468973
000010 a7 db 87 bc a5 2d 96 ba 0a 2f 07 bc 32 57 52 3c
       -0.01658423 -0.0011457695 -0.008250961 0.012838172
000020 85 2f 2a 3d ee fb 5e 3c 9e 3b ea bc 47 a2 54 bc
       0.041549224 0.013609869 -0.02859288 -0.012978143
000030 60 aa 07 3d 1e 80 a2 bd 35 47 53 bc a6 0c c5 3c
       0.033121467 -0.07934593 -0.012895395 0.024053883
000040 cc 4a e1 bc 60 b5 a5 bc 34 27 3a bc 80 56 02 bb
       -0.027501486 -0.020228088 -0.011361886 -0.0019887984
000050 ba 61 9e 3c 7b f2 62 bd 4c 32 70 bb 0b 91 85 bd
       0.019333709 -0.05540703 -0.0036651073 -0.065218054
000060 f2 f8 af bc 9d e3 e8 3c 3f 8c 89 bd ff 21 9d bd
       -0.021481011 0.028428847 -0.06716203 -0.076725
000070 69 b1 76 bc 80 f7 99 bb e6 c3 69 3d ba bd cd bc
       -0.015056946 -0.0046986938 0.05707159 -0.025114883
000080 a3 4f 1f 3d de b1 33 bd 89 ee 67 3c 89 de 99 bc
       0.038894307 -0.0438708 0.014155992 -0.01878287
000090 13 ac aa bb d8 8d cd bc e0 51 03 bd 42 d5 bf 3c
       -0.005208501 -0.02509205 -0.032060504 0.023417119
0000a0 69 52 d0 3b 41 26 1d 3d e0 7f 47 3c 97 d2 90 3b
       0.0063574803 0.03836656 0.012176484 0.0044196355
0000b0 da 5b 17 bd 50 54 99 3c c6 da 3a bd 17 df 9c 3b
       -0.03695283 0.018716961 -0.045618795 0.0047873366
0000c0 b6 8a be bb 5d 1b 00 bc 15 10 ce bc 94 48 18 bd
       -0.0058148755 -0.007819024 -0.025154153 -0.03717859
0000d0 af 80 77 bd aa a4 4c bb 2c 70 aa bc b6 cf e3 3c
       -0.060425457 -0.0031226077 -0.02080544 0.027809005
0000e0 55 b4 19 bc 9f 26 52 bd 3a 56 2c 3d a4 92 91 bb
       -0.009381373 -0.051306363 0.04207442 -0.0044425298
0000f0 59 cd 39 bd 03 73 64 bd a0 4c 38 bc 6e 08 7a 3d
       -0.04536185 -0.055773746 -0.011248738 0.061043195
000100 c1 4f 1e 3d f0 1a da bc 36 01 7c 3d 73 14 33 3d
       0.038650278 -0.026624173 0.061524592 0.043720674
000110 57 cd 5f 3d 11 c8 40 3c 37 80 f6 3c b0 40 8a bc
       0.054639187 0.01176645 0.030090434 -0.016876549
000120 8d b9 09 bd 9c f1 de bc b8 70 84 3c 66 75 97 bc
       -0.03362422 -0.027214818 0.01616703 -0.018488597
000130 e2 37 39 3d bc 53 4e bb 1a f7 20 bd 8e 30 aa 3b
       0.04521931 -0.0031483015 -0.039298154 0.0051937765
000140 7f 07 da 3c 55 da d4 bc 35 e6 96 3c 6c d0 2f 3c
       0.026614903 -0.025983015 0.018420318 0.010730844
000150 25 08 9a 3b a0 8b e9 bc 3d 40 46 3d 4f 43 07 3c
       0.004700678 -0.028508961 0.048401106 0.008255794
000160 b4 7d c8 bc 58 c8 d9 3c a0 63 b7 bb de 32 8e 3b
       -0.024474002 0.02658479 -0.005596593 0.00433956
000170 50 64 8c bd 28 56 3a 3d 81 25 66 3c 0e d6 e8 3c
       -0.068550706 0.04549232 0.014047028 0.028422382
000180 e6 33 37 3d 9e a3 98 3c f0 1b cd 3c dc d1 54 3b
       0.04472723 0.018632706 0.025037736 0.0032473719
000190 af 1f 8e 3d e2 5a 74 3d 7d 3c 3f bd fb a4 0b bc
       0.06939637 0.059656985 -0.046688545 -0.008523221
0001a0 9a bf e1 3a 2c 2d 44 bd b5 b9 95 3d 28 f9 18 3d
       0.0017223239 -0.04789464 0.073108114 0.03734699
0001b0 37 8b 28 3d 5e d9 de ba 73 6e a9 3c 88 b0 b1 bc
       0.04114839 -0.0017002036 0.02068255 -0.021690622
0001c0 4c f0 0d bd 53 ac 9c 3d d4 be 53 3d 8f 24 2e bc
       -0.034652993 0.07650056 0.05169566 -0.010628833
0001d0 8f fa 32 bd 12 1e 9b 3c 5c e5 e6 3c de 1b 0f 3d
       -0.043695983 0.018935237 0.028185539 0.034938686
0001e0 60 73 88 3d 77 1a 24 3d 37 7f 06 3d e7 b2 15 3d
       0.06662631 0.0400643 0.032836165 0.036547568
0001f0 7b 4e d8 3c 3d 47 8b 3d 5f 30 dd bc 0f cf c4 3b
       0.02640461 0.06800697 -0.027000604 0.0060061286
000200 30 57 a0 3b 1d eb e2 3b 6e 78 fd 3c 2c a6 2c 3c
       0.004893206 0.0069250003 0.030941214 0.010537665
000210 c4 14 ce bc 27 20 a1 3c 50 6c ac 3c 8b ce a6 ba
       -0.025156386 0.019668652 0.021047741 -0.001272635
000220 b8 7a 8a 3c f4 cb 0f 3d ac b1 43 3d 89 a1 3f 3d
       0.01690422 0.035106614 0.047776863 0.04678491
000230 a0 b0 0f bd 02 b5 20 3d a4 1c 1d 3c 85 83 3e 3d
       -0.035080552 0.039235123 0.009589348 0.046512146
000240 98 36 49 3d 87 80 45 bd 56 31 4d 3d 57 2b 72 3c
       0.04912433 -0.048218276 0.05009588 0.014780841
000250 a3 8d 22 bd 76 7f 3d bc 2d 96 33 bd 1a ba 4f 3d
       -0.039685857 -0.011566034 -0.04384439 0.05071459
000260 c7 37 98 39 b3 4f 13 bd 08 82 dd bc 68 a1 fa ba
       0.00029033257 -0.03596468 -0.027039543 -0.0019121589
000270 1a e9 27 3d 41 e8 68 3d bc 5a 4d 3d bc eb 8b bb
       0.040993787 0.05686212 0.05013536 -0.004270045
000280 42 d1 db bc 93 53 32 bd 7e c8 ad 3c f8 3f 32 bc
       -0.02683318 -0.043536734 0.021213766 -0.010879509
000290 7d f2 a0 3c 28 c2 7f bc 47 3e 36 bc c1 82 37 3d
       0.019646877 -0.015610255 -0.0111232465 0.04480243
0002a0 56 1a 57 3c 59 1a ef bc 47 63 40 bd 71 d2 19 3c
       0.013128838 -0.029187368 -0.04696968 0.009388552
0002b0 10 11 19 3d a7 89 2f 3b 0f ec 11 bc 5f 62 75 3c
       0.037369788 0.0026784928 -0.008906378 0.014977067
0002c0 6c ad b9 bc c9 bc 00 3d 9f 30 f7 bc 03 87 86 bc
       -0.022665702 0.03143004 -0.030174552 -0.0164218
0002d0 a5 52 22 bc 9a 44 e3 3c a6 7b a8 3c cc 83 eb bc
       -0.009907399 0.027742673 0.020566773 -0.02874937
0002e0 80 8b 9b bd c7 3f 7d 3d e0 86 8b 3c 64 e1 a3 3b
       -0.07594967 0.0618284 0.017032087 0.005001234
0002f0 2b 5c 78 bd 3f 26 32 3b 0d 3e ec 3b 3c 88 86 bd
       -0.060634773 0.002718344 0.0072095455 -0.065689534
000300 09 9f 77 bd 50 f3 f6 bc a0 a7 f5 bc 6f b5 40 3d
       -0.060454402 -0.030145317 -0.029987156 0.04704803
000310 05 ad 25 3d f9 1c 8b 38 d5 4d 47 3d 75 36 21 bc
       0.040448207 6.633433e-05 0.04865821 -0.009839644
000320 76 5b 1b 3c a4 d0 a0 bc d2 79 b1 3c dd 04 96 bc
       0.009482255 -0.019630738 0.021664534 -0.018312866
000330 92 a3 68 bd d2 ba b9 3c e9 16 0d bd 11 01 8f 3d
       -0.056796618 0.02267209 -0.034445677 0.06982625
000340 25 5e dd 3c 8d a7 17 3d 3b fa 1f bd 91 47 3d 3d
       0.02702243 0.037025023 -0.039056998 0.04621083
000350 9c d2 a9 bd fb 44 e9 3b 0b 22 55 3c 7d bd bb bc
       -0.08292124 0.007118819 0.013008605 -0.022917503
000360 55 3c c4 bb 9e 72 1e bd 8f 5f e5 bc 1b 4d ce bc
       -0.0059886375 -0.038683526 -0.027999667 -0.025183251
000370 1a 50 16 3d 72 12 43 3d 2c a2 f3 bc e3 c6 47 bd
       0.036697485 0.047625013 -0.029740416 -0.048773658
000380 55 89 fe 3c 55 bb 89 3b 89 66 eb 3c 2a 9d 03 bd
       0.031071344 0.00420324 0.028735416 -0.032132305
000390 90 89 8c 3c 8a f5 8c bc 89 bf de bc 63 88 2f bd
       0.017155439 -0.017206926 -0.02719094 -0.042854678
0003a0 dd dc b2 3d ad 22 47 3d 00 15 4d bd 16 9c 27 3c
       0.087335326 0.048617054 -0.050068855 0.010230085
0003b0 e2 33 5b 3c 3b 87 94 3c 30 53 dd bc 11 5c 10 bd
       0.013379069 0.01813089 -0.027017206 -0.03524405
0003c0 c7 b4 7c 3b bd d2 b4 3b b7 38 5d 3d 4f 19 a2 3c
       0.00385599 0.005518286 0.054009166 0.019787459
0003d0 71 56 19 bd e5 8a 18 3d 28 a1 6a 3c a5 9e 8e bd
       -0.037435953 0.037241835 0.014320649 -0.06963853
0003e0 c3 8f c4 bc 5f 3b 4d bc 3f bc a6 3d 48 0b 00 3c
       -0.023994332 -0.012526362 0.08141374 0.00781519
0003f0 9b 5f 26 3c 8b 15 4b bb ff b9 7e 3d 25 37 11 3d
       0.01015463 -0.0030988182 0.0621891 0.03545298

fc1.bias f4 [400]
000000 db b1 42 3e a4 4c 31 3e 52 26 c2 3d 85 0e ca 3d
       0.19013159 0.17314392 0.09479965 0.09866051
000010 7e 1d a7 3d 28 9e 53 3e 19 eb 24 3e af ed 7f bd
       0.08159922 0.206658 0.16105308 -0.062482532
000020 cd 14 35 3e 96 c7 3b bc 2e c7 27 3e 6c f8 70 3d
       0.17683716 -0.011461159 0.16384575 0.058830664
000030 67 1b f2 bc cb 68 0f be ce b4 45 3e 8d d5 ee 3c
       -0.029554082 -0.14004819 0.19307253 0.029154563
000040 2d 03 5c 3d 8d 40 1e be 81 18 ac bd e6 5c 36 3e
       0.053713966 -0.15454312 -0.08403111 0.17808875
000050 1f f4 08 be 63 9e 4a 3e f8 d4 2b 3e eb 64 b9 bc
       -0.13374375 0.19786982 0.1678046 -0.02263113
000060 1c 9a 73 bd 64 c7 8f bd 40 04 0d 3c 08 cc ae bd
       -0.059473142 -0.070204526 0.00860697 -0.085350096
000070 ce ad 2d 3c df a5 1e be d0 1b ae bc e9 eb 21 3e
       0.01060052 -0.15492962 -0.021253496 0.15812649
000080 31 78 12 3e e4 2e b3 3b 60 a6 23 3e f3 01 3e bd
       0.14303662 0.0054682363 0.15981436 -0.046388578
000090 e2 a2 0a bd 31 44 23 be 75 07 f0 3d 11 ef f8 bc
       -0.033846743 -0.15943982 0.11720172 -0.030387433
0000a0 86 38 94 bc e7 9f f0 bd 0d 28 1e 3e 3a 7c ce bd
       -0.018093359 -0.11749249 0.15444966 -0.10082288
0000b0 ee 03 52 3c 6f 5d a6 bd 4a c8 28 bd 7d e7 da 3d
       0.01281832 -0.0812329 -0.041206636 0.10688684
0000c0 cd a7 10 3e 1d 61 39 be 1d e6 11 be 3f b9 97 3c
       0.14126511 -0.18103452 -0.14247938 0.01852095
0000d0 3a 7e 56 bd df c4 91 bd 57 1d 05 be c6 74 f8 3d
       -0.052366473 -0.07117628 -0.12999474 0.12131648
0000e0 3b 2c 9f 3d 30 0d 11 3e 6c 37 55 3d 2d e9 69 3d
       0.07772108 0.14165187 0.052054808 0.05710714
0000f0 87 b7 f9 3c 98 d0 6f bd d0 f5 99 3c d2 fd e8 3c
       0.03048302 -0.05854854 0.01879397 0.028441343
000100 3d 80 1c be 62 bb 2f 3e f1 13 fa bd 5c 65 eb bd
       -0.15283294 0.17161325 -0.12210835 -0.11493942
000110 17 c9 9e 3c 58 4a 4a 3e 09 e7 28 be d2 77 3d 3d
       0.019382996 0.19754922 -0.16494383 0.046256848
000120 05 00 b6 bb 13 89 2b bd cc 1a dc 3d ed 7b 04 be
       -0.0055542015 -0.04187877 0.107472986 -0.12937899
000130 0d cc bb 3b c1 e7 20 be 9a d7 d6 bd c1 15 9e bd
       0.005731112 -0.15713407 -0.104903415 -0.07718993
000140 ce 4d 2f be dc bd ff 3d 0c 28 ae bd 00 62 97 3d
       -0.17119524 0.12487385 -0.08503732 0.07391739
000150 85 19 b4 bd 7b 88 0e be 13 4b 0b 3e a0 18 4e 3e
       -0.0879393 -0.1391925 0.13602857 0.20126581
000160 0f 8c e5 bd 34 08 37 be 77 37 14 3e 2f 91 19 3e
       -0.11208355 -0.17874223 0.14474283 0.1499679
000170 e2 d6 1d 3e 9d 7f 39 bd cf 29 b8 bd 7d 4b 3c 3d
       0.15414003 -0.045287717 -0.08992349 0.04597043
000180 c3 51 2a 3e 52 e0 df bd 60 93 5b 3d db 5d d6 bd
       0.16632752 -0.109314576 0.053607345 -0.1046712
000190 af b6 4b bd 3e ba b7 3d cc 2d 42 3d 53 7d 3a 3e
       -0.049734768 0.0897107 0.047406957 0.1821187
0001a0 44 8e ab 3d d7 b3 94 3c 68 b8 28 3e 44 7c 05 3e
       0.083767444 0.01815216 0.16476595 0.13035685
0001b0 db 65 29 be f8 82 12 be 43 30 08 3e 7f 41 b6 3d
       -0.16542761 -0.14307773 0.1329966 0.08899211
0001c0 18 90 f7 3d 11 ee 13 be 34 2f 9e 3d cd ef c6 bd
       0.120880306 -0.14446284 0.07723847 -0.09713707
0001d0 a9 3e 1a be 6d 73 ef 3d a8 63 07 3e 4e 02 46 3e
       -0.15062965 0.116919376 0.1322161 0.19336817
0001e0 6c 68 4d 3e 2e 2d 40 be 90 9d 1f 3e 8b 6f 0d 3e
       0.20059365 -0.18767235 0.15587449 0.13812082
0001f0 5f 7a d0 bd da 9e 1c 3e 28 a9 44 3e 99 d6 31 3e
       -0.101795904 0.15294972 0.19205153 0.17367019
000200 55 4b 23 be 58 a7 fd 3d 04 2e a8 3d e4 f1 bd 3c
       -0.15946706 0.12385434 0.08211902 0.023186632
000210 04 50 c5 3d d1 2d 82 bd 8e f2 fe 3b d6 ad 26 3d
       0.096344024 -0.06356395 0.0077803796 0.040693127
000220 e1 d6 59 be 4a 88 0b be 1d 4a e6 bd 5d 2b e1 bd
       -0.21273376 -0.13626209 -0.11244605 -0.10994599
000230 f2 78 44 bd c9 cb 15 3e bf 45 1c be 59 81 1c 3e
       -0.047966905 0.14628519 -0.15260981 0.15283717
000240 58 70 e8 3c e5 f6 2d be e2 2c de 3d b1 09 2a 3e
       0.028373882 -0.16988714 0.108484045 0.1660526
000250 8d 99 0c be c4 12 f5 3d 1e a0 c2 bd 2a fb 4c 3d
       -0.1373045 0.1196647 -0.09503196 0.050044216
000260 1e 07 5e 3d 2d 75 71 3c 54 6c 00 be 15 77 11 3e
       0.054206006 0.01473741 -0.12541324 0.14205582
000270 03 4e 28 be 45 43 07 be 21 c4 0c bc 4d 64 a2 3d
       -0.16436009 -0.13209255 -0.008591683 0.07929287
000280 74 58 43 3e 6a 6f 3d 3c 97 7a 95 bd e5 96 10 be
       0.19076711 0.011562208 -0.07298773 -0.14120062
000290 33 06 48 3e 57 4b 51 be b7 46 9d bd ad e9 a7 bd
       0.19533615 -0.20438896 -0.076795034 -0.08198867
0002a0 77 e8 d5 bd 07 dd bd 3d 15 15 09 3e a3 2c 14 3e
       -0.1044473 0.09270673 0.13386948 0.14470153
0002b0 37 2e be 3b 62 99 00 be fa 52 0f 3e a4 40 15 be
       0.005803849 -0.12558511 0.13996497 -0.1457544
0002c0 ea b8 ec bd 33 72 e1 3d 61 ec aa 3d 9d 0c bf 3b
       -0.11558707 0.1100811 0.08345867 0.005830361
0002d0 d9 bc 6a bd 19 9a 69 bd 58 22 37 3d 86 e5 d3 3d
       -0.057309005 -0.057031725 0.044710487 0.103465125
0002e0 21 69 1e bc 59 cd 9c bd 37 64 cc 3d 0a fd a9 3d
       -0.009668619 -0.076563545 0.09980052 0.083002165
0002f0 0a 8f 98 bc f8 8a 2d 3c 33 8c fc 3c 3f a7 91 bd
       -0.018622894 0.010592215 0.030828571 -0.07111978
000300 72 01 4c bd 05 6c 99 bc 71 e8 7c 3c c0 1b b3 bd
       -0.049806066 -0.018728266 0.015436278 -0.08745527
000310 04 c5 cb bd dc 8a 9b bd fe e9 82 3d 5a 20 11 3d
       -0.09949687 -0.07594845 0.06392287 0.035431243
000320 56 10 a8 bd f3 06 a4 3c c8 6a a4 3d 2c 93 a4 3d
       -0.08206241 0.020022845 0.080281794 0.08035883
000330 50 2f cd 3c 52 50 19 bc 81 67 9b bd 6b e5 0f bd
       0.025046974 -0.009357529 -0.07588101 -0.0351309
000340 94 b2 81 bd 1b 61 ca bd a9 87 88 bd a5 31 07 be
       -0.06332889 -0.09881803 -0.066665 -0.13202532
000350 33 30 0c be 92 17 34 3d 75 4f 08 bc 61 51 98 bd
       -0.13690262 0.04396779 -0.008319725 -0.07437397
000360 7b 8b a5 3d a8 47 43 bd d3 1d 1c bc ec 69 3b 3e
       0.080832444 -0.04767576 -0.009528595 0.18302125
000370 51 6d 88 3d 22 a9 d2 bd ba fe 1a 3e 07 93 88 bd
       0.066614754 -0.10286166 0.15136233 -0.06668668
000380 95 a0 df bc d3 65 8d 3d 1c fa 3c 3e 2b be 08 be
       -0.027298251 0.06904187 0.18454784 -0.13353793
000390 96 d8 e5 bd 07 69 09 be db 78 28 be 3d cc e6 bd
       -0.11222951 -0.13418971 -0.16452353 -0.11269424
0003a0 ce 13 14 be a0 0b 48 3d ee bd d9 3d d0 85 2d 3e
       -0.1446068 0.04883921 0.10631929 0.16945577
0003b0 a8 36 11 3e be c6 db bd 87 87 5c 3b 56 cb 32 be
       0.14181006 -0.107312664 0.0033650117 -0.17460379
0003c0 6a 2b 43 3e 37 c4 cc 3a d6 37 b2 3d cd d0 bb bd
       0.1905953 0.0015622441 0.08702056 -0.09170685
0003d0 84 9c 21 3e 58 f7 ed bd 05 fe 9f 3d 38 4e cb bc
       0.15782362 -0.11619443 0.07812122 -0.024817571
0003e0 8e f2 3b bb cf 39 33 bc 55 13 f5 3d 05 30 01 3d
       -0.002867851 -0.010939076 0.11966578 0.031539936
0003f0 c8 ce 05 3e 76 b3 3e bd 8f 58 92 bd f1 f4 12 3e
       0.13067162 -0.046557866 -0.071457975 0.1435125

fc1_bn.weight f4 [400]
000000 bc 85 2b 3e 51 76 3a 3f 82 03 7e 3f e4 7b 7d 3e
       0.16750234 0.72836787 0.992241 0.24754292
000010 54 e3 8f 3e b0 6a 49 3f 1f 21 42 3f 34 71 ff 3e
       0.28103125 0.7867842 0.7583179 0.49891055
000020 84 08 05 3e b1 8b 70 3f 2c 23 11 3e 38 98 63 3f
       0.1299153 0.9396315 0.14173573 0.8890414
000030 70 12 b9 3d 40 10 5e 3d fa f2 1d 3f 5d ad 59 3f
       0.0903672 0.054214716 0.6169888 0.85030156
000040 f6 c5 b2 3e 50 ad 60 3d aa 6c a9 3e d8 f8 db 3d
       0.34916657 0.054852784 0.33090717 0.107408226
000050 80 d1 73 3d 46 b4 10 3f fc 3f 4b 3f c7 89 01 3f
       0.059525967 0.56525075 0.7939451 0.50600857
000060 f8 8d 12 3f 9e 22 19 3f 58 07 de 3e 00 4a dc 3a
       0.5724788 0.59818447 0.43364978 0.0016806722
000070 8c 9d 51 3e 3a 85 cd 3e 71 50 50 3f 5f a8 3c 3f
       0.20470256 0.40140706 0.81372744 0.73694414
000080 3b 6f 6f 3f b8 d3 8b 3d 3e 9b c7 3e 60 0e 6c 3e
       0.935291 0.068274915 0.38985628 0.23052359
000090 c8 68 b9 3d b3 7b 12 3f 44 9e 59 3f 50 82 7d 3e
       0.090531886 0.5722 0.8500712 0.24756742
0000a0 40 72 28 3d 04 56 0d 3e 3e 60 5d 3f 87 5c 45 3f
       0.041124582 0.13802344 0.8647498 0.7709431
0000b0 58 09 1b 3f 70 4e 3b 3d 8c 54 99 3e 8c b1 1a 3e
       0.6056113 0.0457291 0.29947317 0.15106791
0000c0 84 bc 08 3f 28 ba 37 3e 1a 94 9b 3e 87 5f 0e 3f
       0.5341265 0.17942107 0.3038643 0.55614513
0000d0 9a 8e 45 3f 62 95 54 3f b0 a0 f4 3e 3c 84 5e 3e
       0.7717072 0.8304044 0.47778845 0.21730131
0000e0 fe 0f 60 3f 6d 78 65 3f 68 b5 bb 3e 74 fa 3c 3e
       0.875244 0.8963688 0.3666184 0.18454915
0000f0 2c d6 63 3e 67 2f 08 3f 67 6b 37 3f 40 1f 39 3d
       0.22249669 0.5319733 0.7164826 0.045195818
000100 49 7d 3b 3f ce b6 0a 3f 38 cc 2b 3e 88 d7 b7 3e
       0.73238045 0.5418519 0.16777122 0.35906625
000110 50 2b 1f 3d 11 5d 69 3f b2 a0 84 3e 3f 36 75 3f
       0.038859665 0.91157633 0.2590385 0.957859
000120 e6 fa df 3e 56 7b 04 3f 82 3f de 3e 90 73 93 3e
       0.43746108 0.51750696 0.43407828 0.28799105
000130 a8 15 3f 3f fd 30 45 3f b8 de 28 3f e4 9c 65 3f
       0.7464242 0.77027875 0.6596484 0.8969252
000140 60 87 6e 3f f8 2f 4e 3f 10 55 3a 3d 88 7e e3 3e
       0.93175316 0.80541945 0.04549128 0.44432473
000150 93 06 79 3f 2e 95 c4 3e 02 f3 d5 3e f0 8f a7 3e
       0.97275656 0.38395065 0.41786963 0.32727003
000160 12 e3 11 3f e8 0c 34 3f 3e 57 db 3e a8 f9 52 3f
       0.56987107 0.70332193 0.42839998 0.82412195
000170 32 06 f0 3e 29 1f 01 3f f6 5d 10 3f d0 a1 4d 3e
       0.46879727 0.5043817 0.56393373 0.20081258
000180 44 e2 d4 3e 87 03 51 3f 1e 18 f7 3e 75 21 0d 3f
       0.41578877 0.8164601 0.48260587 0.55129176
000190 60 7e 0d 3e 40 95 06 3d 44 c8 3d 3f e5 bf 6e 3f
       0.1381774 0.03285718 0.74133706 0.9326156
0001a0 06 4d d8 3e d5 b7 3b 3f f4 76 82 3e 26 49 69 3f
       0.42246264 0.7332738 0.2548138 0.9112724
0001b0 c8 54 33 3f 0c a4 60 3f a6 82 a5 3e d4 13 66 3e
       0.7005124 0.87750316 0.3232624 0.22468501
0001c0 90 4e 9b 3d 78 fd 82 3e 5c 7f 25 3f 92 49 74 3f
       0.07583344 0.25584006 0.6464746 0.9542476
0001d0 54 47 1d 3f 0e ce 8d 3e cc 35 4a 3f 0c 76 d9 3e
       0.61436963 0.2769627 0.7898834 0.42472875
0001e0 ea 23 5f 3f 70 a8 6b 3f 48 b2 30 3f 6b f5 41 3f
       0.87164176 0.9205389 0.69022036 0.75765103
0001f0 f9 ee 1a 3f 09 1c 4a 3f 24 3a 07 3e 8e 3c 4a 3f
       0.60520893 0.7894903 0.13205773 0.7899865
000200 6f 93 27 3f d2 60 6f 3f 80 f8 25 3e 14 ea 28 3f
       0.6545934 0.9350711 0.16208076 0.65982175
000210 40 67 43 3e bc f9 11 3f 00 65 17 3f 90 46 98 3e
       0.19082355 0.5702169 0.5913849 0.29741335
000220 2a 27 ea 3e e0 3c 76 3f a4 23 4c 3f f2 c8 20 3f
       0.45733005 0.9618664 0.79741883 0.6280662
000230 aa 84 03 3f ee e3 56 3f 67 93 0d 3f 30 6f 27 3e
       0.51374304 0.83941543 0.55303043 0.16351008
000240 c8 e7 33 3e d2 76 74 3f e0 a0 ce 3d 10 c5 b9 3d
       0.17568886 0.95493805 0.10089278 0.0907079
000250 b0 bb e8 3e 6c fa c5 3e de 52 61 3f ae 92 a6 3e
       0.45455694 0.3866762 0.8801707 0.32533783
000260 5d 97 31 3f ae 0f 0b 3f 4e b6 ac 3e f4 4a 13 3f
       0.6937159 0.543208 0.33732837 0.57536244
000270 6b cd 53 3f 6d d4 25 3f 5e a2 72 3f a3 13 55 3f
       0.8273532 0.6477726 0.94779 0.8323309
000280 40 92 38 3f 54 58 b1 3e 04 2a f7 3e 5b 2e 20 3f
       0.7209816 0.34637702 0.48274243 0.6257073
000290 e0 99 64 3d 12 a2 74 3f 44 09 2b 3f d6 3d 5a 3f
       0.05581081 0.955598 0.66811013 0.85250604
0002a0 3e 98 69 3f 0e df a7 3e 20 ed 17 3e 50 14 1a 3d
       0.9124793 0.32787365 0.1483655 0.037617028
0002b0 40 c2 24 3e 43 00 5d 3f e0 c3 ef 3d c0 0c dd 3e
       0.16089725 0.86328524 0.11707282 0.4317379
0002c0 7d bb 77 3f fe d1 35 3f d8 3c 49 3e 10 ab b3 3d
       0.9677046 0.7102355 0.19652116 0.08772862
0002d0 71 6c 34 3f ce c3 2e 3f dc 01 66 3f a6 17 6b 3f
       0.7047797 0.68267524 0.8984659 0.9183296
0002e0 27 eb 37 3f 00 d0 40 39 f4 d6 5b 3f ce b8 ed 3e
       0.7184319 0.00018388033 0.8587487 0.46430057
0002f0 2a 43 d6 3e 0a f7 6d 3f ea e6 c0 3e 80 15 9f 3c
       0.41848117 0.92955077 0.37676173 0.019419432
000300 55 15 74 3f 60 1a 52 3e 16 af e5 3e de 32 8d 3e
       0.9534505 0.20517874 0.44860142 0.2757787
000310 82 e8 4e 3f 38 91 5d 3e ad ff 74 3f 6a a4 65 3f
       0.8082353 0.21637428 0.9570263 0.89704
000320 78 c4 b4 3e dc db 35 3e 30 9a 58 3d b9 51 63 3f
       0.35306144 0.17759651 0.05288142 0.88796574
000330 89 a3 08 3f 9a 78 10 3f ec df 5d 3f 14 83 0e 3e
       0.53374535 0.56434023 0.866698 0.1391719
000340 a0 80 f3 3d 7c 9e e0 3e b0 d2 24 3f c2 d4 ca 3e
       0.11889768 0.43870914 0.64383984 0.39615446
000350 e4 54 1a 3f d8 3f cf 3d a1 26 12 3f 21 c6 51 3f
       0.6028578 0.10119599 0.57090193 0.81942946
000360 e8 52 32 3e ae 30 e7 3e d4 d6 fd 3e d6 95 2a 3f
       0.17414439 0.45154327 0.49577963 0.6663488
000370 ac b4 31 3f c0 ae d6 3d 8e da 6b 3f 64 8f a1 3e
       0.6941631 0.1048255 0.92130363 0.3155471
000380 9c 61 c9 3e ea b4 cc 3e bd 1c 28 3f 2a 62 15 3f
       0.39332283 0.39981776 0.6566885 0.5835291
000390 f6 d5 23 3f fe 55 40 3f 08 5f 33 3e dc 26 66 3e
       0.63998353 0.75131214 0.1751672 0.22475761
0003a0 18 05 5e 3f f1 69 4a 3f 9c e0 b8 3e 14 1d eb 3e
       0.8672652 0.79067904 0.36108863 0.45920622
0003b0 d3 fd 16 3f 38 ee be 3d 40 84 d0 3c fa e4 f9 3e
       0.58981055 0.0932278 0.025453687 0.48807508
0003c0 74 44 c3 3e d8 d3 d0 3e 54 b8 d9 3e 8f 27 06 3f
       0.38138163 0.40786624 0.42523444 0.5240411
0003d0 58 4d f1 3d 39 b4 37 3f 52 b6 54 3f d8 8e e8 3d
       0.1178233 0.7175937 0.830907 0.1135537
0003e0 7c d3 71 3f f8 27 2f 3f 11 b3 24 3f 04 14 21 3f
       0.94463325 0.6842036 0.64335734 0.62921166
0003f0 79 de 50 3f 5e 5b 0e 3f a2 5b cd 3e 70 2f 6f 3f
       0.81589466 0.55608165 0.40108973 0.9343176

fc1_bn.bias f4 [400]
000000 00 00 00 00 00 00 00 00 00 00 00 00 00 00 00 00
       0.0 0.0 0.0 0.0
000010 00 00 00 00 00 00 00 00 00 00 00 00 00 00 00 00
       0.0 0.0 0.0 0.0
000020 00 00 00 00 00 00 00 00 00 00 00 00 00 00 00 00
       0.0 0.0 0.0 0.0
000030 00 00 00 00 00 00 00 00 00 00 00 00 00 00 00 00
       0.0 0.0 0.0 0.0
000040 00 00 00 00 00 00 00 00 00 00 00 00 00 00 00 00
       0.0 0.0 0.0 0.0
000050 00 00 00 00 00 00 00 00 00 00 00 00 00 00 00 00
       0.0 0.0 0.0 0.0
000060 00 00 00 00 00 00 00 00 00 00 00 00 00 00 00 00
       0.0 0.0 0.0 0.0
000070 00 00 00 00 00 00 00 00 00 00 00 00 00 00 00 00
       0.0 0.0 0.0 0.0
000080 00 00 00 00 00 00 00 00 00 00 00 00 00 00 00 00
       0.0 0.0 0.0 0.0
000090 00 00 00 00 00 00 00 00 00 00 00 00 00 00 00 00
       0.0 0.0 0.0 0.0
0000a0 00 00 00 00 00 00 00 00 00 00 00 00 00 00 00 00
       0.0 0.0 0.0 0.0
0000b0 00 00 00 00 00 00 00 00 00 00 00 00 00 00 00 00
       0.0 0.0 0.0 0.0
0000c0 00 00 00 00 00 00 00 00 00 00 00 00 00 00 00 00
       0.0 0.0 0.0 0.0
0000d0 00 00 00 00 00 00 00 00 00 00 00 00 00 00 00 00
       0.0 0.0 0.0 0.0
0000e0 00 00 00 00 00 00 00 00 00 00 00 00 00 00 00 00
       0.0 0.0 0.0 0.0
0000f0 00 00 00 00 00 00 00 00 00 00 00 00 00 00 00 00
       0.0 0.0 0.0 0.0
000100 00 00 00 00 00 00 00 00 00 00 00 00 00 00 00 00
       0.0 0.0 0.0 0.0
000110 00 00 00 00 00 00 00 00 00 00 00 00 00 00 00 00
       0.0 0.0 0.0 0.0
000120 00 00 00 00 00 00 00 00 00 00 00 00 00 00 00 00
       0.0 0.0 0.0 0.0
000130 00 00 00 00 00 00 00 00 00 00 00 00 00 00 00 00
       0.0 0.0 0.0 0.0
000140 00 00 00 00 00 00 00 00 00 00 00 00 00 00 00 00
       0.0 0.0 0.0 0.0
000150 00 00 00 00 00 00 00 00 00 00 00 00 00 00 00 00
       0.0 0.0 0.0 0.0
000160 00 00 00 00 00 00 00 00 00 00 00 00 00 00 00 00
       0.0 0.0 0.0 0.0
000170 00 00 00 00 00 00 00 00 00 00 00 00 00 00 00 00
       0.0 0.0 0.0 0.0
000180 00 00 00 00 00 00 00 00 00 00 00 00 00 00 00 00
       0.0 0.0 0.0 0.0
000190 00 00 00 00 00 00 00 00 00 00 00 00 00 00 00 00
       0.0 0.0 0.0 0.0
0001a0 00 00 00 00 00 00 00 00 00 00 00 00 00 00 00 00
       0.0 0.0 0.0 0.0
0001b0 00 00 00 00 00 00 00 00 00 00 00 00 00 00 00 00
       0.0 0.0 0.0 0.0
0001c0 00 00 00 00 00 00 00 00 00 00 00 00 00 00 00 00
       0.0 0.0 0.0 0.0
0001d0 00 00 00 00 00 00 00 00 00 00 00 00 00 00 00 00
       0.0 0.0 0.0 0.0
0001e0 00 00 00 00 00 00 00 00 00 00 00 00 00 00 00 00
       0.0 0.0 0.0 0.0
0001f0 00 00 00 00 00 00 00 00 00 00 00 00 00 00 00 00
       0.0 0.0 0.0 0.0
000200 00 00 00 00 00 00 00 00 00 00 00 00 00 00 00 00
       0.0 0.0 0.0 0.0
000210 00 00 00 00 00 00 00 00 00 00 00 00 00 00 00 00
       0.0 0.0 0.0 0.0
000220 00 00 00 00 00 00 00 00 00 00 00 00 00 00 00 00
       0.0 0.0 0.0 0.0
000230 00 00 00 00 00 00 00 00 00 00 00 00 00 00 00 00
       0.0 0.0 0.0 0.0
000240 00 00 00 00 00 00 00 00 00 00 00 00 00 00 00 00
       0.0 0.0 0.0 0.0
000250 00 00 00 00 00 00 00 00 00 00 00 00 00 00 00 00
       0.0 0.0 0.0 0.0
000260 00 00 00 00 00 00 00 00 00 00 00 00 00 00 00 00
       0.0 0.0 0.0 0.0
000270 00 00 00 00 00 00 00 00 00 00 00 00 00 00 00 00
       0.0 0.0 0.0 0.0
000280 00 00 00 00 00 00 00 00 00 00 00 00 00 00 00 00
       0.0 0.0 0.0 0.0
000290 00 00 00 00 00 00 00 00 00 00 00 00 00 00 00 00
       0.0 0.0 0.0 0.0
0002a0 00 00 00 00 00 00 00 00 00 00 00 00 00 00 00 00
       0.0 0.0 0.0 0.0
0002b0 00 00 00 00 00 00 00 00 00 00 00 00 00 00 00 00
       0.0 0.0 0.0 0.0
0002c0 00 00 00 00 00 00 00 00 00 00 00 00 00 00 00 00
       0.0 0.0 0.0 0.0
0002d0 00 00 00 00 00 00 00 00 00 00 00 00 00 00 00 00
       0.0 0.0 0.0 0.0
0002e0 00 00 00 00 00 00 00 00 00 00 00 00 00 00 00 00
       0.0 0.0 0.0 0.0
0002f0 00 00 00 00 00 00 00 00 00 00 00 00 00 00 00 00
       0.0 0.0 0.0 0.0
000300 00 00 00 00 00 00 00 00 00 00 00 00 00 00 00 00
       0.0 0.0 0.0 0.0
000310 00 00 00 00 00 00 00 00 00 00 00 00 00 00 00 00
       0.0 0.0 0.0 0.0
000320 00 00 00 00 00 00 00 00 00 00 00 00 00 00 00 00
       0.0 0.0 0.0 0.0
000330 00 00 00 00 00 00 00 00 00 00 00 00 00 00 00 00
       0.0 0.0 0.0 0.0
000340 00 00 00 00 00 00 00 00 00 00 00 00 00 00 00 00
       0.0 0.0 0.0 0.0
000350 00 00 00 00 00 00 00 00 00 00 00 00 00 00 00 00
       0.0 0.0 0.0 0.0
000360 00 00 00 00 00 00 00 00 00 00 00 00 00 00 00 00
       0.0 0.0 0.0 0.0
000370 00 00 00 00 00 00 00 00 00 00 00 00 00 00 00 00
       0.0 0.0 0.0 0.0
000380 00 00 00 00 00 00 00 00 00 00 00 00 00 00 00 00
       0.0 0.0 0.0 0.0
000390 00 00 00 00 00 00 00 00 00 00 00 00 00 00 00 00
       0.0 0.0 0.0 0.0
0003a0 00 00 00 00 00 00 00 00 00 00 00 00 00 00 00 00
       0.0 0.0 0.0 0.0
0003b0 00 00 00 00 00 00 00 00 00 00 00 00 00 00 00 00
       0.0 0.0 0.0 0.0
0003c0 00 00 00 00 00 00 00 00 00 00 00 00 00 00 00 00
       0.0 0.0 0.0 0.0
0003d0 00 00 00 00 00 00 00 00 00 00 00 00 00 00 00 00
       0.0 0.0 0.0 0.0
0003e0 00 00 00 00 00 00 00 00 00 00 00 00 00 00 00 00
       0.0 0.0 0.0 0.0
0003f0 00 00 00 00 00 00 00 00 00 00 00 00 00 00 00 00
       0.0 0.0 0.0 0.0

fc1_bn.running_mean f4 [400]
000000 00 00 00 00 00 00 00 00 00 00 00 00 00 00 00 00
       0.0 0.0 0.0 0.0
000010 00 00 00 00 00 00 00 00 00 00 00 00 00 00 00 00
       0.0 0.0 0.0 0.0
000020 00 00 00 00 00 00 00 00 00 00 00 00 00 00 00 00
       0.0 0.0 0.0 0.0
000030 00 00 00 00 00 00 00 00 00 00 00 00 00 00 00 00
       0.0 0.0 0.0 0.0
000040 00 00 00 00 00 00 00 00 00 00 00 00 00 00 00 00
       0.0 0.0 0.0 0.0
000050 00 00 00 00 00 00 00 00 00 00 00 00 00 00 00 00
       0.0 0.0 0.0 0.0
000060 00 00 00 00 00 00 00 00 00 00 00 00 00 00 00 00
       0.0 0.0 0.0 0.0
000070 00 00 00 00 00 00 00 00 00 00 00 00 00 00 00 00
       0.0 0.0 0.0 0.0
000080 00 00 00 00 00 00 00 00 00 00 00 00 00 00 00 00
       0.0 0.0 0.0 0.0
000090 00 00 00 00 00 00 00 00 00 00 00 00 00 00 00 00
       0.0 0.0 0.0 0.0
0000a0 00 00 00 00 00 00 00 00 00 00 00 00 00 00 00 00
       0.0 0.0 0.0 0.0
0000b0 00 00 00 00 00 00 00 00 00 00 00 00 00 00 00 00
       0.0 0.0 0.0 0.0
0000c0 00 00 00 00 00 00 00 00 00 00 00 00 00 00 00 00
       0.0 0.0 0.0 0.0
0000d0 00 00 00 00 00 00 00 00 00 00 00 00 00 00 00 00
       0.0 0.0 0.0 0.0
0000e0 00 00 00 00 00 00 00 00 00 00 00 00 00 00 00 00
       0.0 0.0 0.0 0.0
0000f0 00 00 00 00 00 00 00 00 00 00 00 00 00 00 00 00
       0.0 0.0 0.0 0.0
000100 00 00 00 00 00 00 00 00 00 00 00 00 00 00 00 00
       0.0 0.0 0.0 0.0
000110 00 00 00 00 00 00 00 00 00 00 00 00 00 00 00 00
       0.0 0.0 0.0 0.0
000120 00 00 00 00 00 00 00 00 00 00 00 00 00 00 00 00
       0.0 0.0 0.0 0.0
000130 00 00 00 00 00 00 00 00 00 00 00 00 00 00 00 00
       0.0 0.0 0.0 0.0
000140 00 00 00 00 00 00 00 00 00 00 00 00 00 00 00 00
       0.0 0.0 0.0 0.0
000150 00 00 00 00 00 00 00 00 00 00 00 00 00 00 00 00
       0.0 0.0 0.0 0.0
000160 00 00 00 00 00 00 00 00 00 00 00 00 00 00 00 00
       0.0 0.0 0.0 0.0
000170 00 00 00 00 00 00 00 00 00 00 00 00 00 00 00 00
       0.0 0.0 0.0 0.0
000180 00 00 00 00 00 00 00 00 00 00 00 00 00 00 00 00
       0.0 0.0 0.0 0.0
000190 00 00 00 00 00 00 00 00 00 00 00 00 00 00 00 00
       0.0 0.0 0.0 0.0
0001a0 00 00 00 00 00 00 00 00 00 00 00 00 00 00 00 00
       0.0 0.0 0.0 0.0
0001b0 00 00 00 00 00 00 00 00 00 00 00 00 00 00 00 00
       0.0 0.0 0.0 0.0
0001c0 00 00 00 00 00 00 00 00 00 00 00 00 00 00 00 00
       0.0 0.0 0.0 0.0
0001d0 00 00 00 00 00 00 00 00 00 00 00 00 00 00 00 00
       0.0 0.0 0.0 0.0
0001e0 00 00 00 00 00 00 00 00 00 00 00 00 00 00 00 00
       0.0 0.0 0.0 0.0
0001f0 00 00 00 00 00 00 00 00 00 00 00 00 00 00 00 00
       0.0 0.0 0.0 0.0
000200 00 00 00 00 00 00 00 00 00 00 00 00 00 00 00 00
       0.0 0.0 0.0 0.0
000210 00 00 00 00 00 00 00 00 00 00 00 00 00 00 00 00
       0.0 0.0 0.0 0.0
000220 00 00 00 00 00 00 00 00 00 00 00 00 00 00 00 00
       0.0 0.0 0.0 0.0
000230 00 00 00 00 00 00 00 00 00 00 00 00 00 00 00 00
       0.0 0.0 0.0 0.0
000240 00 00 00 00 00 00 00 00 00 00 00 00 00 00 00 00
       0.0 0.0 0.0 0.0
000250 00 00 00 00 00 00 00 00 00 00 00 00 00 00 00 00
       0.0 0.0 0.0 0.0
000260 00 00 00 00 00 00 00 00 00 00 00 00 00 00 00 00
       0.0 0.0 0.0 0.0
000270 00 00 00 00 00 00 00 00 00 00 00 00 00 00 00 00
       0.0 0.0 0.0 0.0
000280 00 00 00 00 00 00 00 00 00 00 00 00 00 00 00 00
       0.0 0.0 0.0 0.0
000290 00 00 00 00 00 00 00 00 00 00 00 00 00 00 00 00
       0.0 0.0 0.0 0.0
0002a0 00 00 00 00 00 00 00 00 00 00 00 00 00 00 00 00
       0.0 0.0 0.0 0.0
0002b0 00 00 00 00 00 00 00 00 00 00 00 00 00 00 00 00
       0.0 0.0 0.0 0.0
0002c0 00 00 00 00 00 00 00 00 00 00 00 00 00 00 00 00
       0.0 0.0 0.0 0.0
0002d0 00 00 00 00 00 00 00 00 00 00 00 00 00 00 00 00
       0.0 0.0 0.0 0.0
0002e0 00 00 00 00 00 00 00 00 00 00 00 00 00 00 00 00
       0.0 0.0 0.0 0.0
0002f0 00 00 00 00 00 00 00 00 00 00 00 00 00 00 00 00
       0.0 0.0 0.0 0.0
000300 00 00 00 00 00 00 00 00 00 00 00 00 00 00 00 00
       0.0 0.0 0.0 0.0
000310 00 00 00 00 00 00 00 00 00 00 00 00 00 00 00 00
       0.0 0.0 0.0 0.0
000320 00 00 00 00 00 00 00 00 00 00 00 00 00 00 00 00
       0.0 0.0 0.0 0.0
000330 00 00 00 00 00 00 00 00 00 00 00 00 00 00 00 00
       0.0 0.0 0.0 0.0
000340 00 00 00 00 00 00 00 00 00 00 00 00 00 00 00 00
       0.0 0.0 0.0 0.0
000350 00 00 00 00 00 00 00 00 00 00 00 00 00 00 00 00
       0.0 0.0 0.0 0.0
000360 00 00 00 00 00 00 00 00 00 00 00 00 00 00 00 00
       0.0 0.0 0.0 0.0
000370 00 00 00 00 00 00 00 00 00 00 00 00 00 00 00 00
       0.0 0.0 0.0 0.0
000380 00 00 00 00 00 00 00 00 00 00 00 00 00 00 00 00
       0.0 0.0 0.0 0.0
000390 00 00 00 00 00 00 00 00 00 00 00 00 00 00 00 00
       0.0 0.0 0.0 0.0
0003a0 00 00 00 00 00 00 00 00 00 00 00 00 00 00 00 00
       0.0 0.0 0.0 0.0
0003b0 00 00 00 00 00 00 00 00 00 00 00 00 00 00 00 00
       0.0 0.0 0.0 0.0
0003c0 00 00 00 00 00 00 00 00 00 00 00 00 00 00 00 00
       0.0 0.0 0.0 0.0
0003d0 00 00 00 00 00 00 00 00 00 00 00 00 00 00 00 00
       0.0 0.0 0.0 0.0
0003e0 00 00 00 00 00 00 00 00 00 00 00 00 00 00 00 00
       0.0 0.0 0.0 0.0
0003f0 00 00 00 00 00 00 00 00 00 00 00 00 00 00 00 00
       0.0 0.0 0.0 0.0

fc1_bn.running_var f4 [400]
000000 00 00 80 3f 00 00 80 3f 00 00 80 3f 00 00 80 3f
       1.0 1.0 1.0 1.0
000010 00 00 80 3f 00 00 80 3f 00 00 80 3f 00 00 80 3f
       1.0 1.0 1.0 1.0
000020 00 00 80 3f 00 00 80 3f 00 00 80 3f 00 00 80 3f
       1.0 1.0 1.0 1.0
000030 00 00 80 3f 00 00 80 3f 00 00 80 3f 00 00 80 3f
       1.0 1.0 1.0 1.0
000040 00 00 80 3f 00 00 80 3f 00 00 80 3f 00 00 80 3f
       1.0 1.0 1.0 1.0
000050 00 00 80 3f 00 00 80 3f 00 00 80 3f 00 00 80 3f
       1.0 1.0 1.0 1.0
000060 00 00 80 3f 00 00 80 3f 00 00 80 3f 00 00 80 3f
       1.0 1.0 1.0 1.0
000070 00 00 80 3f 00 00 80 3f 00 00 80 3f 00 00 80 3f
       1.0 1.0 1.0 1.0
000080 00 00 80 3f 00 00 80 3f 00 00 80 3f 00 00 80 3f
       1.0 1.0 1.0 1.0
000090 00 00 80 3f 00 00 80 3f 00 00 80 3f 00 00 80 3f
       1.0 1.0 1.0 1.0
0000a0 00 00 80 3f 00 00 80 3f 00 00 80 3f 00 00 80 3f
       1.0 1.0 1.0 1.0
0000b0 00 00 80 3f 00 00 80 3f 00 00 80 3f 00 00 80 3f
       1.0 1.0 1.0 1.0
0000c0 00 00 80 3f 00 00 80 3f 00 00 80 3f 00 00 80 3f
       1.0 1.0 1.0 1.0
0000d0 00 00 80 3f 00 00 80 3f 00 00 80 3f 00 00 80 3f
       1.0 1.0 1.0 1.0
0000e0 00 00 80 3f 00 00 80 3f 00 00 80 3f 00 00 80 3f
       1.0 1.0 1.0 1.0
0000f0 00 00 80 3f 00 00 80 3f 00 00 80 3f 00 00 80 3f
       1.0 1.0 1.0 1.0
000100 00 00 80 3f 00 00 80 3f 00 00 80 3f 00 00 80 3f
       1.0 1.0 1.0 1.0
000110 00 00 80 3f 00 00 80 3f 00 00 80 3f 00 00 80 3f
       1.0 1.0 1.0 1.0
000120 00 00 80 3f 00 00 80 3f 00 00 80 3f 00 00 80 3f
       1.0 1.0 1.0 1.0
000130 00 00 80 3f 00 00 80 3f 00 00 80 3f 00 00 80 3f
       1.0 1.0 1.0 1.0
000140 00 00 80 3f 00 00 80 3f 00 00 80 3f 00 00 80 3f
       1.0 1.0 1.0 1.0
000150 00 00 80 3f 00 00 80 3f 00 00 80 3f 00 00 80 3f
       1.0 1.0 1.0 1.0
000160 00 00 80 3f 00 00 80 3f 00 00 80 3f 00 00 80 3f
       1.0 1.0 1.0 1.0
000170 00 00 80 3f 00 00 80 3f 00 00 80 3f 00 00 80 3f
       1.0 1.0 1.0 1.0
000180 00 00 80 3f 00 00 80 3f 00 00 80 3f 00 00 80 3f
       1.0 1.0 1.0 1.0
000190 00 00 80 3f 00 00 80 3f 00 00 80 3f 00 00 80 3f
       1.0 1.0 1.0 1.0
0001a0 00 00 80 3f 00 00 80 3f 00 00 80 3f 00 00 80 3f
       1.0 1.0 1.0 1.0
0001b0 00 00 80 3f 00 00 80 3f 00 00 80 3f 00 00 80 3f
       1.0 1.0 1.0 1.0
0001c0 00 00 80 3f 00 00 80 3f 00 00 80 3f 00 00 80 3f
       1.0 1.0 1.0 1.0
0001d0 00 00 80 3f 00 00 80 3f 00 00 80 3f 00 00 80 3f
       1.0 1.0 1.0 1.0
0001e0 00 00 80 3f 00 00 80 3f 00 00 80 3f 00 00 80 3f
       1.0 1.0 1.0 1.0
0001f0 00 00 80 3f 00 00 80 3f 00 00 80 3f 00 00 80 3f
       1.0 1.0 1.0 1.0
000200 00 00 80 3f 00 00 80 3f 00 00 80 3f 00 00 80 3f
       1.0 1.0 1.0 1.0
000210 00 00 80 3f 00 00 80 3f 00 00 80 3f 00 00 80 3f
       1.0 1.0 1.0 1.0
000220 00 00 80 3f 00 00 80 3f 00 00 80 3f 00 00 80 3f
       1.0 1.0 1.0 1.0
000230 00 00 80 3f 00 00 80 3f 00 00 80 3f 00 00 80 3f
       1.0 1.0 1.0 1.0
000240 00 00 80 3f 00 00 80 3f 00 00 80 3f 00 00 80 3f
       1.0 1.0 1.0 1.0
000250 00 00 80 3f 00 00 80 3f 00 00 80 3f 00 00 80 3f
       1.0 1.0 1.0 1.0
000260 00 00 80 3f 00 00 80 3f 00 00 80 3f 00 00 80 3f
       1.0 1.0 1.0 1.0
000270 00 00 80 3f 00 00 80 3f 00 00 80 3f 00 00 80 3f
       1.0 1.0 1.0 1.0
000280 00 00 80 3f 00 00 80 3f 00 00 80 3f 00 00 80 3f
       1.0 1.0 1.0 1.0
000290 00 00 80 3f 00 00 80 3f 00 00 80 3f 00 00 80 3f
       1.0 1.0 1.0 1.0
0002a0 00 00 80 3f 00 00 80 3f 00 00 80 3f 00 00 80 3f
       1.0 1.0 1.0 1.0
0002b0 00 00 80 3f 00 00 80 3f 00 00 80 3f 00 00 80 3f
       1.0 1.0 1.0 1.0
0002c0 00 00 80 3f 00 00 80 3f 00 00 80 3f 00 00 80 3f
       1.0 1.0 1.0 1.0
0002d0 00 00 80 3f 00 00 80 3f 00 00 80 3f 00 00 80 3f
       1.0 1.0 1.0 1.0
0002e0 00 00 80 3f 00 00 80 3f 00 00 80 3f 00 00 80 3f
       1.0 1.0 1.0 1.0
0002f0 00 00 80 3f 00 00 80 3f 00 00 80 3f 00 00 80 3f
       1.0 1.0 1.0 1.0
000300 00 00 80 3f 00 00 80 3f 00 00 80 3f 00 00 80 3f
       1.0 1.0 1.0 1.0
000310 00 00 80 3f 00 00 80 3f 00 00 80 3f 00 00 80 3f
       1.0 1.0 1.0 1.0
000320 00 00 80 3f 00 00 80 3f 00 00 80 3f 00 00 80 3f
       1.0 1.0 1.0 1.0
000330 00 00 80 3f 00 00 80 3f 00 00 80 3f 00 00 80 3f
       1.0 1.0 1.0 1.0
000340 00 00 80 3f 00 00 80 3f 00 00 80 3f 00 00 80 3f
       1.0 1.0 1.0 1.0
000350 00 00 80 3f 00 00 80 3f 00 00 80 3f 00 00 80 3f
       1.0 1.0 1.0 1.0
000360 00 00 80 3f 00 00 80 3f 00 00 80 3f 00 00 80 3f
       1.0 1.0 1.0 1.0
000370 00 00 80 3f 00 00 80 3f 00 00 80 3f 00 00 80 3f
       1.0 1.0 1.0 1.0
000380 00 00 80 3f 00 00 80 3f 00 00 80 3f 00 00 80 3f
       1.0 1.0 1.0 1.0
000390 00 00 80 3f 00 00 80 3f 00 00 80 3f 00 00 80 3f
       1.0 1.0 1.0 1.0
0003a0 00 00 80 3f 00 00 80 3f 00 00 80 3f 00 00 80 3f
       1.0 1.0 1.0 1.0
0003b0 00 00 80 3f 00 00 80 3f 00 00 80 3f 00 00 80 3f
       1.0 1.0 1.0 1.0
0003c0 00 00 80 3f 00 00 80 3f 00 00 80 3f 00 00 80 3f
       1.0 1.0 1.0 1.0
0003d0 00 00 80 3f 00 00 80 3f 00 00 80 3f 00 00 80 3f
       1.0 1.0 1.0 1.0
0003e0 00 00 80 3f 00 00 80 3f 00 00 80 3f 00 00 80 3f
       1.0 1.0 1.0 1.0
0003f0 00 00 80 3f 00 00 80 3f 00 00 80 3f 00 00 80 3f
       1.0 1.0 1.0 1.0

fc2.weight f4 [300, 400]
000000 c9 93 80 3d d9 d1 22 3d 60 56 d7 3b 72 db 87 3b
       0.06278188 0.039750908 0.006571576 0.004146033
000010 ed 7d 06 bc df 0e b2 3c 99 c7 59 bb fb 34 85 3d
       -0.008208734 0.021735607 -0.0033230542 0.06504246
000020 78 7e a9 3c e1 ce 5f 3d 3b ef 6d 3b b4 60 ae bc
       0.020690188 0.054640654 0.0036305923 -0.021286346
000030 d8 c2 8c 3c 71 45 a9 bd 13 22 85 bd 46 33 cd 3c
       0.017182752 -0.08265198 -0.0650064 0.025048863
000040 ee 3c 95 bd a5 bc 0d 3d f1 ac 83 3d 4c c6 10 bd
       -0.07287012 0.034603734 0.0642947 -0.03534536
000050 42 20 bc 3c e3 b7 0a bd a4 38 8d 3d c4 47 45 bd
       0.0229646 -0.033866774 0.06895569 -0.048164144
000060 e3 3b 78 3c ff 8f 97 3c b8 13 ef 3a 90 52 49 3d
       0.015150997 0.01850128 0.001824013 0.049151003
000070 8c c9 96 bd 50 ea 5b 3d f7 2d 0c bd 69 fe 1d 3d
       -0.07362661 0.053690255 -0.034223523 0.038572703
000080 29 95 48 bd a4 01 8a bc 91 b9 f5 bc 8f c7 30 bd
       -0.048970375 -0.016846485 -0.029995712 -0.043159064
000090 bb 3d ff 3c 15 76 00 3c 00 4b 59 3d a9 2b 79 3c
       0.031157365 0.007840653 0.05305004 0.015208163
0000a0 e6 b8 a0 ba a2 a0 ae 3c 56 fa 25 bd 5e 40 20 bd
       -0.0012262135 0.02131683 -0.040521942 -0.039123885
0000b0 a3 cd 0f ba 56 0b 9a 3c 78 5a f2 3c 2f 7d ef bc
       -0.00054856593 0.018804234 0.029584154 -0.029234497
0000c0 8e 29 fe 3b 73 31 c7 3c 3c b2 4e 3c 51 f8 ef 3c
       0.0077564185 0.024315571 0.012615737 0.029293211
0000d0 23 64 cc 3c 3c 69 45 bc 00 2c 80 3d 56 6d 35 3a
       0.024950093 -0.012049016 0.06258392 0.00069208944
0000e0 05 4b c8 3c 8a 32 35 3d 30 56 47 bd 2e 5c 02 3d
       0.024449835 0.04423765 -0.04866618 0.03182619
0000f0 21 b1 40 bd 49 f3 fb 3c b3 ff a0 3a 06 3f 77 3c
       -0.047043923 0.030755656 0.0012283236 0.01509071
000100 eb 2a 63 3c 83 8c 11 3d aa 7b ef bc e1 f3 f1 bc
       0.013865213 0.035534393 -0.029233772 -0.029535236
000110 8e b3 9f bb 30 20 cc 3c 3e 86 b7 3d f8 36 cd 3c
       -0.0048736995 0.024917692 0.089611515 0.025050625
000120 fa 85 6b 3b a7 5b 01 3c 48 4a 0b 3b 30 ec 90 36
       0.003593801 0.007895387 0.0021253992 4.3190303e-06
000130 f7 e3 4a 3c d6 00 61 bd 8b 58 65 ba 60 b2 33 3d
       0.012383453 -0.054932438 -0.00087488507 0.043871284
000140 0b 56 ff 3b de 12 17 3d ac ed bf bc 75 12 57 bc
       0.0077922395 0.036883228 -0.02342876 -0.013126959
000150 7b 43 3d 3d 4e 2b 13 bd 55 e1 4a 3d e2 09 15 3d
       0.046206933 -0.03592997 0.0495313 0.036386378
000160 61 c5 1a bc 53 7b 07 bd 0c 58 8c 3d f3 53 77 3b
       -0.009446473 -0.033076596 0.06852731 0.0037739247
000170 17 0a e5 bc a1 c6 e0 bb 8c a9 69 bd 54 27 e2 bc
       -0.027958913 -0.006859616 -0.057046458 -0.027606644
000180 f8 38 52 3d c6 04 b4 bb f7 6c 41 3c 54 07 c3 bc
       0.05132386 -0.005493733 0.011805764 -0.023807205
000190 89 80 91 38 c0 9f df 3b 3e 13 11 bd d7 78 76 bc
       6.93808e-05 0.0068244636 -0.03541874 -0.015043459
0001a0 d4 85 58 3d 8a 50 48 bd dd 29 93 bc ea 4a 0e bd
       0.052862003 -0.048904933 -0.017964298 -0.034739412
0001b0 e3 0e 06 3d fd 5c 82 3d e9 66 25 bd 91 ae af 3c
       0.03272904 0.06365392 -0.040381346 0.021445544
0001c0 98 af 29 3d 68 9d 38 bc 14 fa ba 3c ff 64 b7 3c
       0.041427225 -0.011267997 0.022824325 0.022387026
0001d0 85 c0 0e 3d af e1 7e bc 6d 03 1c 3d c5 0f 67 3d
       0.03485157 -0.015556737 0.038089205 0.056411523
0001e0 66 96 7d 3d 69 59 6d 3c 74 5f af 3a ce ba bf 3c
       0.06191101 0.014486649 0.0013379888 0.023404505
0001f0 ad 78 37 bd 38 2c 6e 3d 34 da 4b 3d 20 2b 79 3d
       -0.04479282 0.05814764 0.04976864 0.060832143
000200 40 73 74 bd 01 81 4d bd a0 41 59 bd 1e bc 36 bd
       -0.059680223 -0.050171856 -0.0530411 -0.044612996
000210 e8 4b b4 3b d8 e7 97 3c 7b 31 20 bb c5 39 88 3d
       0.005502213 0.018543169 -0.0024443555 0.06651644
000220 51 e5 13 3b e9 87 97 3d 1a 7a 21 bd 35 85 de bb
       0.0022567103 0.0739897 -0.039423086 -0.006790782
000230 ad 89 19 3c 46 4f 85 3d d0 eb 36 3d 8a ff 8c 3c
       0.009371203 0.06509261 0.044658482 0.017211694
000240 7b 91 93 bb eb 8e 8b 3d d2 9f 4a bd 1c f3 00 bc
       -0.0045034266 0.06814369 -0.049468823 -0.007870462
000250 93 3b 96 3d fe 75 86 3c 6f fa 25 bd d0 66 fa ba
       0.07335582 0.016413685 -0.040522035 -0.0019104127
000260 ea 14 23 3d 11 12 4e bc 9a 4a fb 3c ce 1d 39 3d
       0.039814867 -0.01257755 0.030675221 0.04519444
000270 a9 1e 20 3d 6f b3 83 3d e7 f5 37 bd 17 db 1c bd
       0.03909174 0.064307086 -0.044912245 -0.038294878
000280 41 cd 1a bd d7 74 19 3d 6d f7 8d bc 94 0e 40 3d
       -0.0377934 0.037464943 -0.017329896 0.046888903
000290 2c 8a 81 bd a6 e7 b3 bc ca 96 84 3d 3e 0f fb bc
       -0.06325182 -0.021961045 0.06474073 -0.030646916
0002a0 d3 f4 9d bc c0 04 12 3b 46 54 41 bd 72 94 1b 3d
       -0.01928178 0.0022280663 -0.04719951 0.037983365
0002b0 98 c7 02 3d 02 91 81 3c 6c 2d 59 bd 40 b6 17 3d
       0.03192863 0.015816215 -0.053021833 0.03703904
0002c0 5f 24 ea 3c 36 68 a9 3c a6 35 89 3d e5 98 a9 bc
       0.028581796 0.020679574 0.06699686 -0.020702789
0002d0 53 46 5f bc c7 c8 0f bd 4f 78 22 bd be 8a 5c 3d
       -0.013627606 -0.035103586 -0.039665516 0.053843252
0002e0 ff bf fb bc f3 42 a5 bc 3c b8 26 3d af 36 1b 3c
       -0.0307312 -0.020173525 0.040703043 0.009473487
0002f0 0a 5a 6b bd 59 eb dd bc fe 94 9c bb 3a 54 22 3d
       -0.057458915 -0.027089762 -0.0047785034 0.039631106
000300 6f 43 26 bd cb 5a 20 3c 6b 91 7c 3d 44 67 e4 3b
       -0.040591653 0.009787272 0.06166212 0.006970318
000310 5f ee 7d bd 47 2a 4a b9 5f f4 6e 3d 8f 8b bf bc
       -0.061994907 -0.00019279971 0.05833852 -0.023381976
000320 a1 58 24 bd 9b 05 35 bd 41 8a 2b 3d 9a b4 59 3d
       -0.040123586 -0.0441948 0.041879896 0.05315075
000330 71 e1 3f bc b4 5b e3 bb 01 8d 85 3c 24 56 f2 bc
       -0.011711464 -0.006938422 0.016302587 -0.02958209
000340 da 4a 2b 3d cb 78 02 3c bf d0 d3 bc bb ba dd 3c
       0.04181943 0.00796337 -0.025856374 0.02706658
000350 8f 0d 2e bb 5d 29 2d 3d c6 a9 ec 3c 4e dc 90 3d
       -0.0026558375 0.042275775 0.028889548 0.0707327
000360 6b ec 3c bd 63 82 60 3d 83 0e 10 bb cd 75 84 3d
       -0.046123903 0.054811846 -0.0021981306 0.06467781
000370 e8 b0 ee 3c fc 89 76 3d 69 d6 72 bd 33 22 7a 3d
       0.02913709 0.060190186 -0.05928651 0.06106777
000380 90 3b 63 3d 89 6f 2a bc b2 61 ba 3c a5 0f 8c 3d
       0.055476725 -0.010402569 0.022751663 0.068389215
000390 7f 23 c4 3c c4 13 38 bd 35 91 02 bd 1c 4e 3f bc
       0.023942707 -0.044940725 -0.03187676 -0.011676338
0003a0 63 34 a4 3d 43 9c a0 3d e9 24 1c bd c7 f4 b6 3b
       0.080178045 0.078423046 -0.038121138 0.005583379
0003b0 8a 6e 1d bd e1 fc c5 3c 03 92 06 bd b1 a3 61 3d
       -0.038435496 0.024168434 -0.03285409 0.05508775
0003c0 d8 87 46 3d e4 a2 bd bc 31 82 51 3d 89 13 3b bd
       0.048469394 -0.023148961 0.05114955 -0.045672927
0003d0 90 05 61 bc 7c 7b 01 bc de 21 87 bb 71 32 29 3d
       -0.013734236 -0.007902976 -0.0041239103 0.04130787
0003e0 b0 a2 4c 3d 7e 0f 0e 3c 34 c9 78 bc 83 00 a4 3a
       0.04995984 0.008670686 -0.015184689 0.001251236
0003f0 d6 d1 96 3d ca 66 85 3d 3a bf 99 3c d4 88 75 ba
       0.07364242 0.06513746 0.018767942 -0.0009366397

fc2.bias f4 [300]
000000 51 c9 50 bd 3c 8a e3 3c d8 35 2e bd 55 e1 8e 3d
       -0.05097324 0.027775876 -0.04253182 0.069765724
000010 9f 02 35 3d eb fa 20 bd 30 5d 1b bc e7 52 a9 3d
       0.044191953 -0.039301794 -0.009482667 0.082677655
000020 1f 8d 81 3d 45 c0 a9 3b bc 4b a4 3c a4 6c 13 3a
       0.06325745 0.005180391 0.020055644 0.00056237937
000030 3b 52 12 3d e9 de b9 3a 5c 2a d8 bc 3f cd 94 3d
       0.035722952 0.0014180812 -0.026387386 0.0726571
000040 ac 27 39 3d a7 d3 1e 3d c1 bf b6 bc cd d7 e1 bc
       0.04520385 0.038776066 -0.022308232 -0.027568722
000050 81 a9 22 bd 71 25 b2 3c 69 b8 9b bc 91 46 5e 3d
       -0.039712433 0.02174637 -0.019008832 0.054266516
000060 ed c2 79 bd 70 16 95 3d e6 7e e6 bc 5f 2c 82 3c
       -0.06097691 0.0727967 -0.028136682 0.015890298
000070 26 38 8b 3c a6 b2 8d 3b e5 75 a4 3c c6 ec ac 3d
       0.016994547 0.004324275 0.020075748 0.084435984
000080 be 6e 08 bd 3c 7b a5 3c 1a 3f 11 3d ab f5 77 3d
       -0.033308737 0.020200364 0.03546057 0.06053702
000090 b8 16 8f 3c 64 8f 20 bb 14 1c 78 3d 9e 95 4d bd
       0.017466888 -0.002449953 0.060573652 -0.050191514
0000a0 9d 95 86 3d 7d b5 5a 3c da 05 a7 3a 81 6a c9 3c
       0.06571505 0.013348934 0.0012742833 0.024586918
0000b0 87 c0 04 3d 9a 41 93 bc 80 4d c5 3c ac f0 58 bd
       0.03241017 -0.017975617 0.024084806 -0.052963898
0000c0 02 53 b4 3c 86 d9 b5 3c 2a ea b3 bb a5 ed ea 3b
       0.022012237 0.02219845 -0.005490561 0.0071694427
0000d0 e8 19 1d bb 44 3f 38 3b 2c 1d 14 3d a5 6a 8a 3d
       -0.002397174 0.002811388 0.036160633 0.06758622
0000e0 26 e3 89 3b fe 42 a9 3a 12 b7 cc bb 34 60 a9 3c
       0.0042079864 0.0012913642 -0.0062474096 0.020675756
0000f0 e5 7c ff bc ac be 7b 3d 2c 6d 74 3c 62 63 ac bc
       -0.031187484 0.061461136 0.014918607 -0.021043483
000100 8b 6d e5 bc 3b 9f 47 3d bd 6f ec bc f9 97 2c bd
       -0.028006336 0.04873584 -0.028861875 -0.04213712
000110 bb eb 19 3d 63 3d 11 3d 1a 0f 84 3c 5a 02 1f 3d
       0.037578326 0.035458934 0.016120482 0.038820602
000120 7b 4f b9 3d fa 10 16 3d 79 24 da bc 44 fb f8 3c
       0.09048363 0.036637284 -0.02662872 0.03039325
000130 de e5 6f bb 17 8f 63 3d 87 69 1b 3d d1 a4 67 3d
       -0.0036605517 0.055556383 0.037942436 0.056553666
000140 73 fd 14 3c b5 49 9f 3d b0 22 05 3d 55 96 d4 bb
       0.00909363 0.077777304 0.032503784 -0.0064876475
000150 35 e7 f5 3b 9d e8 43 3d 58 cc d4 bc ac 18 97 3c
       0.0075043687 0.04782926 -0.025976345 0.018444382
000160 5c 28 a3 bb 58 7c 8a 3d 43 78 28 bc 82 38 9c 3d
       -0.0049791764 0.06761998 -0.010282579 0.076279655
000170 65 1c f4 bc 37 8f 27 3d 3a b0 3d 3d 84 d9 a3 3c
       -0.029798696 0.040908065 0.04631064 0.02000118
000180 cb f9 d9 3c c6 95 22 3d 80 62 c1 bb 45 9b 12 3d
       0.026608368 0.039693616 -0.0059016347 0.035792608
000190 1c 67 9f 3c 7c 6a 5b bc 98 f2 a7 bb 56 0b 15 bc
       0.019458346 -0.013392087 -0.005125355 -0.009096941
0001a0 9e 05 8d ba 1e 62 d2 bb bb 2e 02 3c b3 36 8b 3c
       -0.001075912 -0.006420388 0.007945712 0.016993856
0001b0 7a aa 35 3d 81 32 45 bd d4 07 9e bb e1 4f b3 bc
       0.044352032 -0.048143867 -0.0048227105 -0.021888675
0001c0 19 b8 f1 3c 90 76 c3 bc 18 75 85 3d f1 40 b6 3c
       0.02950673 -0.023860246 0.065164745 0.022247763
0001d0 fe 10 c8 b9 e7 4f 42 3d 00 55 e9 39 02 b6 3e bc
       -0.00038159633 0.047439482 0.00044504553 -0.011640074
0001e0 c8 2d 88 bc db aa 50 3c ca d1 0f 3d 50 86 d4 bc
       -0.016623393 0.012736048 0.03511218 -0.025942951
0001f0 e2 ab af 3c d4 f1 80 3c 7b 36 44 3d eb 98 32 3d
       0.021444265 0.015740313 0.04790352 0.043602865
000200 28 20 27 bc 70 af 24 3d b7 9c 2d bd 9c 26 ed bc
       -0.010200538 0.040206373 -0.042385783 -0.028949074
000210 54 98 2a 3d d0 d7 4a 3c b0 4d e6 3c bb 84 57 3d
       0.041649178 0.012380555 0.028113216 0.052616816
000220 03 01 e6 3c 0a c5 d8 3c 89 84 53 bd 6a f3 1a bc
       0.028076654 0.026461143 -0.051640067 -0.0094574485
000230 0a c1 4e 3d 22 db e9 3b 4c 42 e4 3c ef 99 b4 3c
       0.050477065 0.0071367184 0.027863644 0.022046058
000240 44 15 90 3d 2a 57 bf bc 15 7f 57 3d 35 e4 81 3d
       0.07035306 -0.023356993 0.05261143 0.06342355
000250 66 49 a5 bc a5 7d a8 3b 84 67 de 3b 91 3d 56 bc
       -0.0201766 0.005141931 0.0067872424 -0.013076202
000260 64 e8 19 3d 09 a2 9a 3b 1a e8 98 bc b2 84 1f 3d
       0.03757514 0.004719023 -0.018665362 0.038944907
000270 0f a0 e0 bb 23 b4 02 bd 31 b6 d1 bc 62 0d 4e bd
       -0.006855018 -0.031910073 -0.025599571 -0.05030573
000280 70 e5 2a 3d e3 c6 90 bc d3 77 e6 3c 86 30 9a 3c
       0.041722715 -0.017672962 0.028133309 0.018821966
000290 54 e4 58 3b 8e f9 68 3d 91 a8 00 3d 67 2b 62 bd
       0.0033095079 0.05687862 0.031410757 -0.055217173
0002a0 b1 b7 33 3d bc a9 df 3b 97 2a 1f 3c 75 17 8b bc
       0.043876354 0.006825654 0.009714744 -0.016978959
0002b0 22 a4 f3 bc fe 36 c6 3c 5a 41 8e b9 74 e1 9d 3c
       -0.02974135 0.024196144 -0.0002713304 0.019272543
0002c0 66 bf 8c 3d 87 a5 19 3d 35 76 9c bc d2 37 8c 3c
       0.06872444 0.037511375 -0.019099334 0.017116461
0002d0 c4 dd 5d 3c 35 f1 25 bd f2 1d a7 3d 59 f4 b6 bb
       0.013541643 -0.040513236 0.081600085 -0.0055833277
0002e0 e7 53 8d 3d f8 7b b7 3b d2 34 5f 3c d7 e5 12 3d
       0.06900769 0.005599495 0.013623433 0.035863724
0002f0 ea f2 7e 3d 49 7d 42 3c fd 24 18 3c 02 d9 43 bc
       0.06224338 0.011870691 0.009286162 -0.011953594
000300 71 6e 8a 3d 9c ec c5 3c 5b 65 90 bc f1 49 de 3c
       0.06759346 0.024160676 -0.017626455 0.027134867
000310 f4 94 9f bd 9c ce 1e bd 2f 32 9a bd 68 b5 e6 bc
       -0.077920824 -0.038771257 -0.07529103 -0.028162673
000320 bd 5d 06 bc b2 3f 96 3d 6e 09 6f 3d c0 ee 3a 3d
       -0.00820106 0.07336368 0.058358602 0.045637846
000330 4a 7b a1 3c ce 69 ec ba d5 81 44 bd b4 61 3e bc
       0.01971211 -0.0018036903 -0.04797538 -0.011619974
000340 e6 63 fa 3b 0f 25 61 3d 8f df ba bb 54 46 6e 3b
       0.0076413034 0.054966982 -0.00570292 0.0036357837
000350 95 17 13 bd ac 0c b5 bc 5e 7d 55 bd 90 d0 da 3c
       -0.03591116 -0.022100769 -0.052121513 0.026710778
000360 00 55 3b bd 18 49 54 bd b4 b0 44 3d c6 e9 72 bd
       -0.04573536 -0.05182752 0.04802008 -0.059304975
000370 48 e7 4b bb 4d 86 a2 3c 3e e5 a7 3b 79 56 4f bc
       -0.0031113196 0.01983943 0.0051237633 -0.012654894
000380 e5 9d 39 bc aa 01 b4 3c 79 59 46 3b 61 6f 3a 3d
       -0.011329149 0.02197345 0.0030265732 0.045516375
000390 26 04 4d 3d ba 1e a2 3c 98 56 18 bd dd e1 5b bc
       0.050052784 0.019790042 -0.037191957 -0.013420549
0003a0 39 a0 00 bc cc 16 45 3d 12 3a 8a 3c c0 37 49 3d
       -0.0078507 0.048117444 0.016873393 0.049125433
0003b0 88 5c 3c bb 98 70 e4 3b 7f bd fa 3c 3f c9 9f bc
       -0.0028741676 0.00697143 0.030607937 -0.019505141
0003c0 17 11 2d 3b b3 bc 10 bc a2 c7 9f bc e1 c6 2a 3d
       0.0026407891 -0.008834052 -0.019504372 0.041693572
0003d0 3d 8d ff bc 96 b6 2f bd 6b 69 42 3d 45 7d 0a bd
       -0.031195277 -0.042898737 0.047463816 -0.033810873
0003e0 2e 75 7b 3c 91 46 1f bd 96 f5 5b 3c 6c c4 ae bc
       0.015347762 -0.038885657 0.0134252515 -0.021333896
0003f0 52 33 50 3d 22 9a 6e 3b d9 c3 43 bd 80 fc 60 3d
       0.050830193 0.0036407788 -0.047794197 0.054928303
