agent_checkpoints/checkpoint_actor_11.pth (torch_old, 553585 bytes, 14 tensors)

fc1.weight f4 [400, 33]
000000 dc d7 55 bc 1b 00 9f 3c ae 8a 5d bc e7 d4 64 3d
       -0.013051953 0.01940923 -0.013521833 0.055867102
000010 b1 45 86 bd 53 da c4 3c 8d 05 e0 b9 e4 12 3b 3d
       -0.06556261 0.024029886 -0.00042728745 0.045672312
000020 2f 3d 8d 3a 1b 34 7f 3d e2 12 32 bd 22 b5 91 bc
       0.001077568 0.06230555 -0.04347504 -0.017786566
000030 95 49 45 bd 11 c4 60 3d d7 9e 13 bd 36 a9 17 bb
       -0.048165876 0.054874483 -0.036040153 -0.002314163
000040 6e 98 c1 3c 0c 2b 8f bc cc 81 6d 3c 6d ab 5b bb
       0.023632254 -0.017476581 0.014496278 -0.0033518926
000050 55 37 9b 3d d5 8d 27 3c b9 f2 8d bb e8 cd 04 bd
       0.07578913 0.0102266865 -0.0043319133 -0.03242293
000060 04 62 12 3d d0 c5 35 bd 84 4e 4e 3d b1 a2 18 bd
       0.035738006 -0.0443781 0.050367847 -0.03726453
000070 50 f1 28 3b 89 79 48 3d db 46 6c bc 90 cd c5 bc
       0.00257786 0.04894403 -0.01442119 -0.024145871
000080 ed cf 99 bd 7d 8e 58 bd 70 e2 fc 3c 35 30 4c 3d
       -0.07510362 -0.052870262 0.030869693 0.04985066
000090 33 37 ff bc 27 e3 d7 3c a6 12 8f 3c 2c 85 10 3d
       -0.03115425 0.026353432 0.017464947 0.035283253
0000a0 92 1d b3 ba 3c 45 3b ba 60 34 3d 3d 30 d6 82 bc
       -0.0013665429 -0.00071438006 0.046192527 -0.015971273
0000b0 96 d6 6b bc e3 05 c0 b8 7e 49 66 bd 5b 7f d5 3c
       -0.014394423 -9.15637e-05 -0.05622243 0.026061704
0000c0 05 05 9c 3b 15 93 1e 3d ab 39 c2 bc e1 de 1b 3c
       0.0047613406 0.038714487 -0.023709139 0.009513588
0000d0 8c 2d 0a bd 3c e3 21 3d e7 97 6d 3d e6 b3 46 3d
       -0.033734843 0.03952335 0.058006193 0.04851141
0000e0 b9 fb 86 bd 48 a0 8c bc e5 49 32 3d d9 c2 cf bc
       -0.06590981 -0.017166272 0.043527503 -0.025361465
0000f0 a8 dd 77 bd 27 ce 7d 3c ab 7b 29 3d 06 e0 8d 3d
       -0.060514122 0.015491045 0.041377705 0.06927495
000100 b2 57 d4 3c 13 eb c8 bc 88 c7 ae 3d 33 7f 5e 3c
       0.025920723 -0.024526155 0.08534151 0.013580131
000110 a1 2d 88 bd cd 5f 59 bc 33 ad 79 3c 20 a8 01 ba
       -0.06649328 -0.01326747 0.015239048 -0.0004946012
000120 da 00 17 bc d3 47 88 bc ab e0 1d 3d e5 4c 54 3c
       -0.009216512 -0.016635811 0.03854434 0.012957786
000130 86 a7 02 bc 8a e1 7b 3c de 37 1e bd 2e 68 3d 3d
       -0.007974511 0.015373597 -0.038627498 0.04624193
000140 e7 34 56 bd 6c 1e 4c bd 6c 10 b5 bc 01 8d 7f 3a
       -0.052296545 -0.0498337 -0.022102557 0.0009748489
000150 0f 9e f1 3c 41 ef e6 bc 8f 7a 4c 3d ba 40 65 bb
       0.029494314 -0.028190257 0.04992157 -0.0034981207
000160 fe 6e 02 3d d1 88 07 bd 26 88 22 3d 9e 9b 9e 3c
       0.03184413 -0.033089463 0.039680623 0.019361313
000170 45 e1 0d bd 41 d7 08 bd e0 66 90 3d 6b 07 3d 3d
       -0.034638662 -0.033408407 0.07050872 0.046149652
000180 44 4d a3 3d 3d 7f 4b 3d 33 50 45 bc 12 19 24 bd
       0.079737216 0.04968189 -0.012043047 -0.04006297
000190 64 d7 6f bb e4 0a 17 3b 8c f7 85 bd 43 5a 72 bd
       -0.0036596889 0.0023047263 -0.065413564 -0.05916811
0001a0 80 30 2b 3d 02 66 ca 3c 74 2c de 3c 85 33 0b 3d
       0.0417943 0.024706844 0.027120806 0.03398468
0001b0 6d 7a 91 bb db 76 62 bd 2a d4 8a bc 63 25 cb 3c
       -0.004439643 -0.05528913 -0.01694687 0.0247981
0001c0 79 a9 31 bd 7e b5 b6 bb 73 44 02 bc fc 68 ef bb
       -0.043374512 -0.005575835 -0.00795089 -0.0073062163
0001d0 34 e5 10 bc e5 b8 d4 3c 20 b2 0e bd 6a fe 71 3d
       -0.008843709 0.02596707 -0.034837842 0.05908052
0001e0 75 9d a2 3c 9e 2a 3e bc d8 a4 92 bd 20 e6 14 bd
       0.019850472 -0.01160684 -0.07160348 -0.036352277
0001f0 04 84 51 3d 40 71 32 bd 6f 1f 06 3d f7 8a 58 3d
       0.05115129 -0.043565035 0.03274482 0.052866902
000200 80 db 1d 3a f8 7a 9c 3b a5 7d 30 3d 77 89 d9 3a
       0.0006021783 0.004775401 0.043088574 0.0016596754
000210 d1 e0 93 bd dd a8 e4 3c 0c c8 2b bc b9 18 41 bd
       -0.07220615 0.027912552 -0.010484707 -0.047142718
000220 f3 f5 f2 3c 5c 22 18 3c 2d 12 a5 3c 48 57 ad bc
       0.029658293 0.009285536 0.020150268 -0.021159783
000230 1b 46 22 3c ec 3b 61 bc b7 c3 82 3d 2a f7 3e 3c
       0.00990441 -0.013747197 0.06384986 0.011655608
000240 f2 1c 7e bd f7 c8 ab bb 2a e8 e5 3b 9b 30 96 3d
       -0.062039323 -0.0052424627 0.0070162015 0.073334895
000250 02 98 04 3d a5 77 98 3c 2d 56 04 bd 07 f4 22 3c
       0.03237153 0.018611738 -0.032308746 0.009945876
000260 e8 67 12 bc 2b 6a 67 bc 6c 45 18 bc 7a 5c 2a 3b
       -0.008935906 -0.0141244335 -0.009293895 0.0025995062
000270 f1 63 09 3d 5f a6 93 bd d3 2b 63 3c 84 6f 34 39
       0.033542577 -0.07209467 0.013865429 0.0001720768
000280 c3 6c 7d bd e9 3c 38 3d 48 ba 5e bd c6 cf c9 3c
       -0.0618713 0.044979963 -0.05437687 0.024635207
000290 0c a3 63 bc f4 97 0d 3d c3 e7 9b bd 62 a2 71 3c
       -0.013893854 0.034568742 -0.076125644 0.014748188
0002a0 3c 15 6b 3d 6d 58 d6 bc ad 19 d0 ba 98 c5 25 bd
       0.057393298 -0.026165212 -0.0015876793 -0.040471643
0002b0 8b 65 04 bd 6e 44 83 3b 15 1d f9 bc 0e c6 4c bc
       -0.0323234 0.00400596 -0.030409375 -0.012498392
0002c0 8d 10 da 3c 16 8a 6a 3b 6d 2c c3 3d d2 11 2e 3c
       0.02661922 0.0035787872 0.09529958 0.010624366
0002d0 0d 40 47 bd c7 10 22 3d 20 85 39 bc ed 83 26 bd
       -0.048645068 0.03956678 -0.011323243 -0.040653158
0002e0 01 8d 42 3d 32 d2 75 3c 0f 22 cd bc 7f b6 bc bb
       0.047497753 0.015003728 -0.025040654 -0.00575906
0002f0 0d 5c dd bb 64 2b 27 3d e6 c8 cd bb 0c 55 30 bd
       -0.006755358 0.040812865 -0.0062800525 -0.043049857
000300 7a 7d 96 bd 06 ab 88 3c 46 ea 0a bd c4 71 8b 3d
       -0.073481515 0.016683113 -0.033914827 0.068088084
000310 aa f1 a6 3c 22 02 59 bd de a4 94 3c 5c 33 9a bc
       0.020378906 -0.05298055 0.018145021 -0.018823318
000320 61 8f 25 bd 05 90 2e 3d a3 53 bb 3c c9 fe 0d bd
       -0.04041994 0.042617816 0.02286703 -0.03466681
000330 b1 a5 96 bb 11 ef 9b bc 5b 46 01 bd b5 94 39 3c
       -0.0045973887 -0.019034894 -0.031561237 0.011326958
000340 13 df 22 bc 8e 82 c5 bc 23 d4 57 bd d3 df 69 3c
       -0.00994088 -0.024110105 -0.052692544 0.014274555
000350 ff fb 75 bc a3 bf a3 bd 63 02 90 3c 85 f8 e6 bb
       -0.015013694 -0.07995536 0.017579263 -0.007048669
000360 1e e7 aa 3c 19 9e 76 bc 16 7d a8 3c 98 1d 47 b9
       0.020862158 -0.015052342 0.020567458 -0.00018989143
000370 08 a3 e1 3c 1f 68 17 bd 73 27 71 3d 58 08 d5 3c
       0.02754356 -0.036964532 0.058875512 0.026004955
000380 19 d6 b2 bb b5 57 5d 3c 5c de 86 3c 60 f2 eb bc
       -0.0054576513 0.0135096805 0.016463451 -0.028802097
000390 56 46 89 3d e2 97 09 bd cb e1 40 bc 40 50 94 bc
       0.06702869 -0.033592112 -0.011772583 -0.018104672
0003a0 4c 83 e4 bb 54 34 f8 3c fe 00 50 bc 27 00 60 bc
       -0.0069736596 0.03029839 -0.012695549 -0.013671911
0003b0 6f 31 02 bd 63 ed 3a bb 8a f0 1c bd c8 fd 4c bd
       -0.031785425 -0.0028522841 -0.038315333 -0.050046712
0003c0 c9 f4 e8 bc 68 cc 1b 3d a6 8c 64 3c 88 2f c5 ba
       -0.028437035 0.038036734 0.013949549 -0.0015044073
0003d0 ee 4d 1d bc 23 f5 bf bc b8 d5 26 3c 59 8f aa 3c
       -0.009601099 -0.02343232 0.01018279 0.020820307
0003e0 3c 5b 0e bd e2 bf 07 bb a5 7a 77 3c a5 2c 3b 3d
       -0.034754977 -0.0020713736 0.015104924 0.045696873
0003f0 02 36 ad 3b fb 8f f0 ba 41 3d ff 3c d2 c5 25 3d
       0.0052859792 -0.0018353456 0.031157138 0.04047186

fc1.bias f4 [400]
000000 ca 50 83 3c 17 42 04 be 4d f5 3b 3d 78 3d c1 bc
       0.016029734 -0.12915836 0.045888234 -0.02358888
000010 1f 98 f8 3d fc f7 94 bd 43 52 64 3d dc 5a 23 be
       0.1213839 -0.07273862 0.055742513 -0.15952629
000020 10 bc de 3c c9 67 4b 3d c2 8d d8 bd e1 33 9e 38
       0.027189285 0.049659524 -0.10573913 7.54369e-05
000030 ab 89 dd 3d d6 86 c7 bd 05 3a c2 bd 7e aa 12 3e
       0.10817274 -0.09742515 -0.094837226 0.1432285
000040 cf f1 01 3e 89 44 1f be ed b2 5a 3d d0 82 ca bd
       0.12689899 -0.15553488 0.053393293 -0.09888232
000050 b6 cf 0c 3e e7 bc 0b 3e dd 3b ca bd b3 5e 5e 3d
       0.1375111 0.1364628 -0.09874699 0.05428953
000060 cb 4e d2 3d 1b 52 39 be f9 ec ec 3d 19 91 6f 3c
       0.10268935 -0.18097727 0.115686364 0.014621996
000070 8f 43 1f 3e ac 8d 7c 3d de f7 82 3d 5c 58 5e bc
       0.15553115 0.061658546 0.06394933 -0.013570871
000080 14 78 18 3e 1a 4a 3f be b6 55 0d bd 33 da b1 bd
       0.14889556 -0.18680611 -0.03450557 -0.08684196
000090 f5 8c 1b 3e bb f0 ab 3c b1 78 16 be 67 1a e3 3d
       0.1519049 0.020988813 -0.14694478 0.1108902
0000a0 5a 4c 63 bd af 49 06 be 0b d2 5d 3c 63 4d a8 bb
       -0.055492736 -0.13114046 0.013538848 -0.0051361783
0000b0 20 be f9 bd a8 fa 3f 3e d2 e6 06 be 31 33 5c 3d
       -0.121944666 0.18747962 -0.13173988 0.053759757
0000c0 4c b8 b8 bd 9d 18 24 3c 0d ff e1 3d 7c 06 3d 3e
       -0.09019527 0.010015634 0.11034975 0.18459505
0000d0 51 f6 89 bd 3d 41 b9 bd f3 cd ef bd ef df 91 bd
       -0.06736434 -0.09045646 -0.117092036 -0.0712279
0000e0 6d 0a 41 bd 8f 3d 84 ba 4d fa ed 3c 31 e7 3f 3e
       -0.047129083 -0.0010089147 0.029050017 0.18740536
0000f0 08 23 01 3e 38 a4 14 3e cd a3 4d 3e 63 60 b7 3d
       0.1261102 0.1451577 0.20082016 0.08953931
000100 11 f6 ec bd c9 fb 6a 3c e4 8d b1 3d bc cd fe bc
       -0.11570371 0.014342257 0.086696416 -0.031103961
000110 ce 05 09 be 49 6f b3 ba 02 32 30 be 9e 52 05 be
       -0.1338112 -0.0013689782 -0.17206576 -0.13019797
000120 59 12 0b be 8e 9d 5c bc 2f e9 ef bc b7 8e 41 3e
       -0.13581218 -0.013465298 -0.029285995 0.18902098
000130 16 ff e9 3d 73 f5 31 bd 72 60 ed bd a9 95 af bd
       0.11425607 -0.04344697 -0.11590661 -0.08573467
000140 17 ab 11 be bc 23 98 3d 11 64 d1 bd ad 4d 28 3d
       -0.14225422 0.07428691 -0.10224164 0.041089702
000150 36 86 60 3e c6 6e 4b 3d 0a bb 41 be 64 e5 12 3e
       0.21926197 0.04966619 -0.18919006 0.14345318
000160 43 17 9c bc 09 c6 6c 3c 82 ee 8e 3d 94 52 01 3e
       -0.01905406 0.014451512 0.069790855 0.12629157
000170 66 83 a4 bd e4 4a fc bd d6 31 53 bd 1a 1d cc bd
       -0.08032875 -0.12318972 -0.0515612 -0.09966488
000180 fe b3 7a 3d 78 bf 08 3e 6c 17 88 bd 5c 86 a3 bd
       0.06120681 0.1335429 -0.06645092 -0.079846114
000190 19 ac b3 3c 32 ff e9 3d ce 46 1d 3e e2 81 7a 3d
       0.021932648 0.11425628 0.15359041 0.061159022
0001a0 7c 9a 99 bd 29 25 90 3d ba af c3 bc c0 90 1f 3d
       -0.07500169 0.07038338 -0.023887504 0.038956404
0001b0 a0 de f6 bd cc d5 34 bd b8 fc c0 3d 92 11 77 3d
       -0.12054181 -0.044149205 0.09423202 0.06031949
0001c0 de 64 03 be 99 8c ca 3d 20 2a d9 bc c9 36 1b 3e
       -0.12831447 0.09890098 -0.026509345 0.15157618
0001d0 cb 69 0f 3e 3c 05 0f 3e b1 07 11 3e 6c fb 59 bd
       0.140052 0.1396684 0.1416309 -0.05321829
0001e0 cb 5b 12 be 2f ae 95 3d 12 63 bb bd b2 dd 1b 3e
       -0.14292829 0.073086135 -0.091497555 0.15221289
0001f0 c9 cf 86 bd 5d 56 53 be c4 e4 b0 3d 0c eb 09 3e
       -0.065826006 -0.20638414 0.086373836 0.1346857
000200 d1 36 99 bd 19 f3 3d bd 63 ac f1 bd 26 05 11 be
       -0.074811585 -0.046374414 -0.11800458 -0.1416212
000210 14 67 08 3d d7 08 27 be 5a b7 18 be 72 3d 1f 3d
       0.033301428 -0.16311966 -0.14913693 0.03887696
000220 1b 9d 1b be 80 c4 ce bd 41 92 2c 3d 6c 58 e2 3c
       -0.1519665 -0.10096073 0.042131666 0.027630053
000230 ee 50 dd bd a3 47 e8 3d 0e 26 71 bd 49 41 a9 bd
       -0.10806452 0.113417886 -0.058874182 -0.08264405
000240 63 04 ff bc 00 fc ca bd f0 bc cb 3d 83 3c e4 bc
       -0.031130021 -0.099113464 0.09948146 -0.027860885
000250 d6 aa 26 bd 71 a4 bd 3d 93 3e 15 3e 08 30 0a 3e
       -0.040690266 0.0925988 0.14574651 0.13494885
000260 d6 81 85 bc 05 35 05 3e 9e b8 03 3e 13 f7 cc 3c
       -0.016297262 0.13008507 0.12863395 0.025020158
000270 4d 7e 9a bd 18 1c 0c 3e 61 41 b4 bd 0d 89 50 bd
       -0.07543621 0.13682592 -0.088015325 -0.05091195
000280 91 c1 b4 3d 21 a0 8b bc cf 6b 4b bd 45 05 71 bb
       0.08825982 -0.017044129 -0.04966336 -0.0036776823
000290 ae 9a ca 3d e0 15 92 3d 7a 42 64 bd 92 04 74 3d
       0.09892784 0.071330786 -0.05572746 0.05957467
0002a0 b4 96 94 3d f9 86 9a 3d 15 84 05 3e e3 15 a3 3d
       0.07255307 0.07545275 0.13038667 0.07963159
0002b0 bc d3 00 be cc 4c 35 3e 76 36 95 bc 3c 27 f5 3c
       -0.1258077 0.17705077 -0.018214446 0.029925935
0002c0 da c4 38 3e 40 f0 e9 3c b8 46 e0 3d c2 23 01 be
       0.18043843 0.028556943 0.109509885 -0.12611297
0002d0 a2 8b e6 bd 14 e8 95 bc 26 9e 69 3d 90 11 17 be
       -0.112571016 -0.01829914 0.057035588 -0.14752793
0002e0 1d 67 a1 bd 62 ac df 3c c3 08 21 3e 2e f0 0c 3e
       -0.078809954 0.027303878 0.15725999 0.13763496
0002f0 e1 87 4c 3e 2e 67 e5 bd 6e 35 f9 3d fc aa 30 be
       0.19973709 -0.112013206 0.12168394 -0.17252725
000300 17 31 eb 3d 19 49 20 3e 5c 16 c3 bd cc 1c d2 3d
       0.114839725 0.15652885 -0.09525749 0.10259399
000310 3a b7 39 3e 4b 95 19 bc ff f9 e5 bd 53 46 a5 bd
       0.18136302 -0.009373973 -0.112293236 -0.08070054
000320 2c 9c 09 be 48 59 f0 bd 7d 73 9a bd 2f 5b e8 bd
       -0.13438481 -0.11735779 -0.07541559 -0.11345517
000330 b4 03 ff bc a3 16 cc bd bb f1 fe 3d 4e 69 d2 3d
       -0.031129695 -0.09965255 0.1244845 0.102739915
000340 56 3e b5 bd 79 a3 0a 3c 1d 88 b5 3d 45 95 fb 3d
       -0.0884978 0.0084618265 0.08863852 0.1228433
000350 c2 a6 97 bd 1a 33 8d bd b1 6b 5c bd b2 00 b6 ba
       -0.074048534 -0.068945125 -0.05381364 -0.0013885705
000360 2c 4b cc bc 59 77 e9 bd 04 d9 2f 3e ea 14 06 3d
       -0.024938188 -0.11399717 0.17172629 0.03273479
000370 13 7d ff 3d 0e 3b 74 bd e7 19 12 be 4a 5e 34 be
       0.12475028 -0.05962663 -0.14267693 -0.17614093
000380 7d 5b 03 3e 46 fb 2d be 1c 8f ec bd f9 22 06 be
       0.12827869 -0.16990384 -0.115507334 -0.13099279
000390 e8 66 f5 bd a9 90 14 3e dd d6 82 bd 37 be 0e be
       -0.119825184 0.14508308 -0.06388638 -0.13939749
0003a0 e2 e7 9c bd db b0 ef bd df 0f ac 3d b9 10 2c 3e
       -0.07661416 -0.117036544 0.08401465 0.16803254
0003b0 b5 f2 59 bd df ed d7 3c df 37 f4 3c ee 7e e0 3d
       -0.05320998 0.026358543 0.029811798 0.1096171
0003c0 5c 8f 65 bd 20 e7 29 3e 4b 57 ae 3c d6 41 e6 b9
       -0.05604492 0.16592073 0.021281859 -0.0004391807
0003d0 08 c3 83 bd d1 5d 09 3e 97 e6 53 3e bc bf d9 3d
       -0.06433684 0.13414694 0.20693432 0.106322736
0003e0 9b 24 c1 bd f4 1a 57 bc fd e2 99 bd 5f 55 b4 3d
       -0.0943081 -0.013128985 -0.07513998 0.08805346
0003f0 cd fc de 3d bd 61 3a 3e 24 ff a6 bd 6f f2 4f 3d
       0.10888062 0.18201347 -0.08154133 0.050768312

fc1_bn.weight f4 [400]
000000 a0 b3 66 3f 24 e5 07 3e 16 e2 30 3f 5c 27 17 3e
       0.90117836 0.13271004 0.6909498 0.14761108
000010 5c d4 6d 3f 2f a3 5d 3f 00 20 7d 39 20 0e 2f 3d
       0.9290216 0.86577123 0.00024139881 0.04273808
000020 c0 b8 91 3d f4 da 0e 3e b7 8a 28 3f 18 2c 61 3f
       0.071153164 0.13950711 0.6583666 0.87957907
000030 38 8c 9e 3d 39 3b 10 3f c0 6b 48 3f 74 02 52 3e
       0.07741588 0.56340367 0.78289413 0.20508748
000040 f8 55 b3 3d cc 85 be 3e 7a e4 67 3f c0 6c 2a 3c
       0.087566316 0.37211454 0.90583 0.010401905
000050 fd b9 05 3f 7a 99 e6 3e 9a a0 01 3f d7 d8 35 3f
       0.5223692 0.45038968 0.50635684 0.71033996
000060 78 1d 46 3f 98 84 43 3e 7a 43 57 3f 3b 45 70 3f
       0.77388716 0.19093549 0.84087336 0.9385564
000070 b0 20 b6 3d 50 c0 b8 3d c4 99 38 3f 45 bc 6a 3f
       0.088929534 0.09021056 0.7210963 0.91693527
000080 1a 56 48 3f dc 52 5f 3f da 8b e5 3e 4c b6 e2 3e
       0.7825638 0.8723581 0.4483326 0.44279706
000090 c4 08 4d 3f 59 8a 39 3f 0c 1b 87 3e ae c5 b8 3e
       0.800915 0.72476727 0.26387823 0.36088318
0000a0 e8 6f 7a 3e a6 7d e1 3e 59 6c 71 3f 2e d2 5d 3f
       0.24456751 0.44041175 0.9430595 0.86648834
0000b0 f4 ac 7e 3f ea ca 19 3f 84 4c 2f 3e d5 7d 1c 3f
       0.99482656 0.6007525 0.17119032 0.61129504
0000c0 7c 5b 4a 3e 06 d9 78 3f 86 f1 79 3f 84 32 0f 3f
       0.19761461 0.9720615 0.9763416 0.55936456
0000d0 a0 7f 4b 3f 84 e2 19 3f c4 63 c5 3e 99 53 17 3f
       0.79491615 0.6011126 0.38552678 0.59111935
0000e0 de 4d 31 3f 78 02 5a 3e 57 b1 26 3f e0 9c 73 3f
       0.6925944 0.21290004 0.6511435 0.9516125
0000f0 28 9f 0a 3f 02 3a 11 3f 79 1b 06 3f c5 c0 12 3f
       0.54149103 0.5672914 0.5238567 0.5732539
000100 6e ab d7 3e 40 b2 a0 3e 20 22 3f 3f 70 15 b2 3e
       0.42122978 0.31385994 0.74661446 0.3478198
000110 28 dd ca 3d c0 92 15 3e 0c 27 54 3e a0 0c ee 3c
       0.099054635 0.14606762 0.2071802 0.029058754
000120 16 5a 08 3f 78 62 a1 3d 7b d2 7c 3f be cc 89 3e
       0.5326246 0.078801095 0.9875867 0.26914018
000130 7a 05 82 3e 70 c7 b9 3e 2e 1f 53 3f 68 81 dd 3e
       0.25394803 0.3628497 0.8246945 0.43262792
000140 30 71 e5 3e 9f c7 6e 3f 4c 5d 7a 3e d4 49 e8 3e
       0.44812918 0.9327335 0.24449652 0.45368826
000150 78 83 f8 3e c1 d1 33 3f 05 e0 32 3f 87 ab 76 3f
       0.48537803 0.70241934 0.69873077 0.9635548
000160 c0 a2 3e 3c cd 35 5f 3f 5f 08 72 3f 14 f3 14 3f
       0.011635482 0.8719147 0.94544023 0.5818341
000170 a8 b3 29 3e 56 11 3d 3f 7c ea 4b 3e 75 7b 59 3f
       0.1657244 0.7385458 0.19913667 0.84954005
000180 7a 54 8c 3e ef da 0e 3f 6c f1 cd 3e 96 68 db 3e
       0.274082 0.55802816 0.40223253 0.4285323
000190 8c 45 75 3f 57 ea 55 3f d0 07 e7 3d f0 bc b8 3e
       0.95809245 0.835607 0.11280787 0.36081648
0001a0 79 e1 50 3f b2 cb 33 3f 2e 5b 32 3f e1 b5 00 3f
       0.81594044 0.7023269 0.6967038 0.50277525
0001b0 ff e8 18 3f c4 02 af 3e 6b b6 63 3f c8 46 69 3e
       0.59730524 0.34181798 0.8895022 0.22780907
0001c0 fe 43 a3 3e 1d 8c 2d 3f 3c 2a cf 3e 38 f5 f0 3d
       0.3188781 0.6779192 0.4046191 0.11765522
0001d0 e0 2d 43 3f cc c8 2c 3e 84 e6 b1 3e ea f1 22 3f
       0.76241875 0.16873473 0.34746182 0.6365038
0001e0 13 18 2f 3f 2a 2c 3b 3f 50 0c b6 3d 80 35 37 3e
       0.6839611 0.73114264 0.08889067 0.17891502
0001f0 5f b7 21 3f 40 e6 8d 3e 9e 0a 03 3f 26 f1 b3 3e
       0.6317043 0.2771473 0.51188076 0.3514492
000200 62 9f 97 3e 1a 2d 7b 3f b4 b1 0c 3f f6 fa d1 3e
       0.29613787 0.98115695 0.54958653 0.4101178
000210 48 4c 99 3d 77 24 5e 3f 56 28 94 3e c0 58 8e 3c
       0.074852526 0.8677439 0.28937024 0.017376304
000220 c8 c3 17 3f e0 da f2 3c 66 94 c1 3e 5a 68 24 3f
       0.59283113 0.029645383 0.37808532 0.6422173
000230 08 7e 18 3e 80 14 ea 3e 70 5d 4a 3f 50 b4 3e 3f
       0.14891827 0.45718765 0.79048824 0.74493885
000240 86 1f 34 3f ee 43 15 3f 4d 47 4c 3f 00 5f fe 3e
       0.703606 0.5830678 0.79796296 0.49681854
000250 76 72 48 3f 6e 84 bb 3e 28 4b 02 3e 84 cb de 3e
       0.78299654 0.36624473 0.12723982 0.43514645
000260 74 e7 92 3e 8c 7b 73 3e 64 38 ea 3e 66 6b b4 3e
       0.2869221 0.23777598 0.45746148 0.35238189
000270 4c 32 32 3f 4f cc 7d 3f 74 93 13 3f 3d b1 74 3f
       0.69607997 0.99139875 0.5764687 0.95582944
000280 d4 0c 9b 3e 70 60 8f 3e f0 42 b2 3d 08 eb 54 3f
       0.30283225 0.28003263 0.087041736 0.8317113
000290 c4 03 22 3f 33 7e 33 3f fd 9e 2d 3f b0 a1 3c 3f
       0.63286996 0.7011444 0.6782072 0.73684216
0002a0 11 5a 6a 3f 58 c5 10 3e 62 1b 54 3f 60 5c ee 3c
       0.9154368 0.1413778 0.8285428 0.029096782
0002b0 b4 ff 48 3f 8c 75 0e 3e 76 2c 00 3f 20 cb 5f 3e
       0.7851517 0.13912028 0.5006784 0.2185483
0002c0 5c 4d 97 3e 2c a4 13 3f c3 4d 78 3f b7 8e 14 3f
       0.29551208 0.5767238 0.96993655 0.58030266
0002d0 3a 8b 4d 3f 2e ca 27 3f 90 60 7d 3d 92 9a 3a 3f
       0.8029057 0.65542877 0.061859667 0.72892106
0002e0 a0 ff a2 3c 4a ed c0 3e b6 fd f0 3e 32 a1 e3 3e
       0.019897282 0.37681037 0.47068566 0.4445892
0002f0 cc d3 b2 3e 73 9f 0a 3f bc bd 96 3e 0f f8 12 3f
       0.34927213 0.5414955 0.2944163 0.5740976
000300 c0 bd 7b 3e 62 7d 0d 3f b6 2a c6 3e 68 f2 06 3f
       0.24584103 0.55269444 0.3870446 0.5271363
000310 d6 e9 7e 3f 45 cb 31 3f a5 ab 6f 3f 62 2d 1b 3f
       0.99575555 0.6945079 0.93621284 0.60616124
000320 74 9b 91 3e bc 8f fb 3e 8c 0f 6f 3e 7e b5 c1 3e
       0.28438914 0.49133098 0.23345774 0.3783378
000330 2b 01 15 3f 0a 34 45 3f 80 0b bd 3b 80 cc 58 3f
       0.5820491 0.7703253 0.005769193 0.8468704
000340 81 2c 0c 3f 60 67 ee 3e 2c ee 09 3e d9 2f 20 3f
       0.5475541 0.46563244 0.13469762 0.6257301
000350 58 ee 0c 3f 8e ed 6d 3f 15 5f 24 3f ef 36 35 3f
       0.55051184 0.92940605 0.64207584 0.70786947
000360 7c 04 5e 3e 6f d7 6a 3f 40 2d 5d 3f 83 62 4b 3f
       0.21681398 0.91734976 0.8639717 0.7944719
000370 00 2f 18 3c 24 6d 20 3f 18 34 70 3f 96 77 d3 3e
       0.009288549 0.62666535 0.9382949 0.41302174
000380 e6 ec 40 3f e4 d2 34 3e 10 a8 5a 3f 92 5d bd 3e
       0.7536148 0.17658573 0.85412693 0.3698545
000390 ac 56 ab 3e 2c 94 c5 3e 9d b0 6b 3f c0 eb 43 3c
       0.33464563 0.3858961 0.92066365 0.011958063
0003a0 1a e5 05 3f 48 a5 7f 3f a5 59 03 3f 90 85 df 3e
       0.52302706 0.99861574 0.5130866 0.43656588
0003b0 ba 74 79 3f 84 a7 51 3f 24 72 47 3e 55 54 01 3f
       0.97443736 0.81896234 0.19477135 0.50519305
0003c0 fd f1 36 3f 40 0a ce 3c 49 f9 6c 3f bf 99 29 3f
       0.71462995 0.025151372 0.9256788 0.6625022
0003d0 a9 08 57 3f a5 b0 49 3f 65 5a 14 3f a8 de c4 3d
       0.8399759 0.78785163 0.5795043 0.09612781
0003e0 4d 2e 1a 3f e4 41 59 3f 0c 17 ba 3e f3 69 77 3f
       0.602269 0.84866166 0.36345708 0.9664604
0003f0 a7 3a 3f 3f 80 1d 94 3c a0 7b 83 3e 48 4a 68 3e
       0.7469887 0.018080473 0.25680256 0.22684586

fc1_bn.bias f4 [400]
000000 00 00 00 00 00 00 00 00 00 00 00 00 00 00 00 00
       0.0 0.0 0.0 0.0
000010 00 00 00 00 00 00 00 00 00 00 00 00 00 00 00 00
       0.0 0.0 0.0 0.0
000020 00 00 00 00 00 00 00 00 00 00 00 00 00 00 00 00
       0.0 0.0 0.0 0.0
000030 00 00 00 00 00 00 00 00 00 00 00 00 00 00 00 00
       0.0 0.0 0.0 0.0
000040 00 00 00 00 00 00 00 00 00 00 00 00 00 00 00 00
       0.0 0.0 0.0 0.0
000050 00 00 00 00 00 00 00 00 00 00 00 00 00 00 00 00
       0.0 0.0 0.0 0.0
000060 00 00 00 00 00 00 00 00 00 00 00 00 00 00 00 00
       0.0 0.0 0.0 0.0
000070 00 00 00 00 00 00 00 00 00 00 00 00 00 00 00 00
       0.0 0.0 0.0 0.0
000080 00 00 00 00 00 00 00 00 00 00 00 00 00 00 00 00
       0.0 0.0 0.0 0.0
000090 00 00 00 00 00 00 00 00 00 00 00 00 00 00 00 00
       0.0 0.0 0.0 0.0
0000a0 00 00 00 00 00 00 00 00 00 00 00 00 00 00 00 00
       0.0 0.0 0.0 0.0
0000b0 00 00 00 00 00 00 00 00 00 00 00 00 00 00 00 00
       0.0 0.0 0.0 0.0
0000c0 00 00 00 00 00 00 00 00 00 00 00 00 00 00 00 00
       0.0 0.0 0.0 0.0
0000d0 00 00 00 00 00 00 00 00 00 00 00 00 00 00 00 00
       0.0 0.0 0.0 0.0
0000e0 00 00 00 00 00 00 00 00 00 00 00 00 00 00 00 00
       0.0 0.0 0.0 0.0
0000f0 00 00 00 00 00 00 00 00 00 00 00 00 00 00 00 00
       0.0 0.0 0.0 0.0
000100 00 00 00 00 00 00 00 00 00 00 00 00 00 00 00 00
       0.0 0.0 0.0 0.0
000110 00 00 00 00 00 00 00 00 00 00 00 00 00 00 00 00
       0.0 0.0 0.0 0.0
000120 00 00 00 00 00 00 00 00 00 00 00 00 00 00 00 00
       0.0 0.0 0.0 0.0
000130 00 00 00 00 00 00 00 00 00 00 00 00 00 00 00 00
       0.0 0.0 0.0 0.0
000140 00 00 00 00 00 00 00 00 00 00 00 00 00 00 00 00
       0.0 0.0 0.0 0.0
000150 00 00 00 00 00 00 00 00 00 00 00 00 00 00 00 00
       0.0 0.0 0.0 0.0
000160 00 00 00 00 00 00 00 00 00 00 00 00 00 00 00 00
       0.0 0.0 0.0 0.0
000170 00 00 00 00 00 00 00 00 00 00 00 00 00 00 00 00
       0.0 0.0 0.0 0.0
000180 00 00 00 00 00 00 00 00 00 00 00 00 00 00 00 00
       0.0 0.0 0.0 0.0
000190 00 00 00 00 00 00 00 00 00 00 00 00 00 00 00 00
       0.0 0.0 0.0 0.0
0001a0 00 00 00 00 00 00 00 00 00 00 00 00 00 00 00 00
       0.0 0.0 0.0 0.0
0001b0 00 00 00 00 00 00 00 00 00 00 00 00 00 00 00 00
       0.0 0.0 0.0 0.0
0001c0 00 00 00 00 00 00 00 00 00 00 00 00 00 00 00 00
       0.0 0.0 0.0 0.0
0001d0 00 00 00 00 00 00 00 00 00 00 00 00 00 00 00 00
       0.0 0.0 0.0 0.0
0001e0 00 00 00 00 00 00 00 00 00 00 00 00 00 00 00 00
       0.0 0.0 0.0 0.0
0001f0 00 00 00 00 00 00 00 00 00 00 00 00 00 00 00 00
       0.0 0.0 0.0 0.0
000200 00 00 00 00 00 00 00 00 00 00 00 00 00 00 00 00
       0.0 0.0 0.0 0.0
000210 00 00 00 00 00 00 00 00 00 00 00 00 00 00 00 00
       0.0 0.0 0.0 0.0
000220 00 00 00 00 00 00 00 00 00 00 00 00 00 00 00 00
       0.0 0.0 0.0 0.0
000230 00 00 00 00 00 00 00 00 00 00 00 00 00 00 00 00
       0.0 0.0 0.0 0.0
000240 00 00 00 00 00 00 00 00 00 00 00 00 00 00 00 00
       0.0 0.0 0.0 0.0
000250 00 00 00 00 00 00 00 00 00 00 00 00 00 00 00 00
       0.0 0.0 0.0 0.0
000260 00 00 00 00 00 00 00 00 00 00 00 00 00 00 00 00
       0.0 0.0 0.0 0.0
000270 00 00 00 00 00 00 00 00 00 00 00 00 00 00 00 00
       0.0 0.0 0.0 0.0
000280 00 00 00 00 00 00 00 00 00 00 00 00 00 00 00 00
       0.0 0.0 0.0 0.0
000290 00 00 00 00 00 00 00 00 00 00 00 00 00 00 00 00
       0.0 0.0 0.0 0.0
0002a0 00 00 00 00 00 00 00 00 00 00 00 00 00 00 00 00
       0.0 0.0 0.0 0.0
0002b0 00 00 00 00 00 00 00 00 00 00 00 00 00 00 00 00
       0.0 0.0 0.0 0.0
0002c0 00 00 00 00 00 00 00 00 00 00 00 00 00 00 00 00
       0.0 0.0 0.0 0.0
0002d0 00 00 00 00 00 00 00 00 00 00 00 00 00 00 00 00
       0.0 0.0 0.0 0.0
0002e0 00 00 00 00 00 00 00 00 00 00 00 00 00 00 00 00
       0.0 0.0 0.0 0.0
0002f0 00 00 00 00 00 00 00 00 00 00 00 00 00 00 00 00
       0.0 0.0 0.0 0.0
000300 00 00 00 00 00 00 00 00 00 00 00 00 00 00 00 00
       0.0 0.0 0.0 0.0
000310 00 00 00 00 00 00 00 00 00 00 00 00 00 00 00 00
       0.0 0.0 0.0 0.0
000320 00 00 00 00 00 00 00 00 00 00 00 00 00 00 00 00
       0.0 0.0 0.0 0.0
000330 00 00 00 00 00 00 00 00 00 00 00 00 00 00 00 00
       0.0 0.0 0.0 0.0
000340 00 00 00 00 00 00 00 00 00 00 00 00 00 00 00 00
       0.0 0.0 0.0 0.0
000350 00 00 00 00 00 00 00 00 00 00 00 00 00 00 00 00
       0.0 0.0 0.0 0.0
000360 00 00 00 00 00 00 00 00 00 00 00 00 00 00 00 00
       0.0 0.0 0.0 0.0
000370 00 00 00 00 00 00 00 00 00 00 00 00 00 00 00 00
       0.0 0.0 0.0 0.0
000380 00 00 00 00 00 00 00 00 00 00 00 00 00 00 00 00
       0.0 0.0 0.0 0.0
000390 00 00 00 00 00 00 00 00 00 00 00 00 00 00 00 00
       0.0 0.0 0.0 0.0
0003a0 00 00 00 00 00 00 00 00 00 00 00 00 00 00 00 00
       0.0 0.0 0.0 0.0
0003b0 00 00 00 00 00 00 00 00 00 00 00 00 00 00 00 00
       0.0 0.0 0.0 0.0
0003c0 00 00 00 00 00 00 00 00 00 00 00 00 00 00 00 00
       0.0 0.0 0.0 0.0
0003d0 00 00 00 00 00 00 00 00 00 00 00 00 00 00 00 00
       0.0 0.0 0.0 0.0
0003e0 00 00 00 00 00 00 00 00 00 00 00 00 00 00 00 00
       0.0 0.0 0.0 0.0
0003f0 00 00 00 00 00 00 00 00 00 00 00 00 00 00 00 00
       0.0 0.0 0.0 0.0

fc1_bn.running_mean f4 [400]
000000 00 00 00 00 00 00 00 00 00 00 00 00 00 00 00 00
       0.0 0.0 0.0 0.0
000010 00 00 00 00 00 00 00 00 00 00 00 00 00 00 00 00
       0.0 0.0 0.0 0.0
000020 00 00 00 00 00 00 00 00 00 00 00 00 00 00 00 00
       0.0 0.0 0.0 0.0
000030 00 00 00 00 00 00 00 00 00 00 00 00 00 00 00 00
       0.0 0.0 0.0 0.0
000040 00 00 00 00 00 00 00 00 00 00 00 00 00 00 00 00
       0.0 0.0 0.0 0.0
000050 00 00 00 00 00 00 00 00 00 00 00 00 00 00 00 00
       0.0 0.0 0.0 0.0
000060 00 00 00 00 00 00 00 00 00 00 00 00 00 00 00 00
       0.0 0.0 0.0 0.0
000070 00 00 00 00 00 00 00 00 00 00 00 00 00 00 00 00
       0.0 0.0 0.0 0.0
000080 00 00 00 00 00 00 00 00 00 00 00 00 00 00 00 00
       0.0 0.0 0.0 0.0
000090 00 00 00 00 00 00 00 00 00 00 00 00 00 00 00 00
       0.0 0.0 0.0 0.0
0000a0 00 00 00 00 00 00 00 00 00 00 00 00 00 00 00 00
       0.0 0.0 0.0 0.0
0000b0 00 00 00 00 00 00 00 00 00 00 00 00 00 00 00 00
       0.0 0.0 0.0 0.0
0000c0 00 00 00 00 00 00 00 00 00 00 00 00 00 00 00 00
       0.0 0.0 0.0 0.0
0000d0 00 00 00 00 00 00 00 00 00 00 00 00 00 00 00 00
       0.0 0.0 0.0 0.0
0000e0 00 00 00 00 00 00 00 00 00 00 00 00 00 00 00 00
       0.0 0.0 0.0 0.0
0000f0 00 00 00 00 00 00 00 00 00 00 00 00 00 00 00 00
       0.0 0.0 0.0 0.0
000100 00 00 00 00 00 00 00 00 00 00 00 00 00 00 00 00
       0.0 0.0 0.0 0.0
000110 00 00 00 00 00 00 00 00 00 00 00 00 00 00 00 00
       0.0 0.0 0.0 0.0
000120 00 00 00 00 00 00 00 00 00 00 00 00 00 00 00 00
       0.0 0.0 0.0 0.0
000130 00 00 00 00 00 00 00 00 00 00 00 00 00 00 00 00
       0.0 0.0 0.0 0.0
000140 00 00 00 00 00 00 00 00 00 00 00 00 00 00 00 00
       0.0 0.0 0.0 0.0
000150 00 00 00 00 00 00 00 00 00 00 00 00 00 00 00 00
       0.0 0.0 0.0 0.0
000160 00 00 00 00 00 00 00 00 00 00 00 00 00 00 00 00
       0.0 0.0 0.0 0.0
000170 00 00 00 00 00 00 00 00 00 00 00 00 00 00 00 00
       0.0 0.0 0.0 0.0
000180 00 00 00 00 00 00 00 00 00 00 00 00 00 00 00 00
       0.0 0.0 0.0 0.0
000190 00 00 00 00 00 00 00 00 00 00 00 00 00 00 00 00
       0.0 0.0 0.0 0.0
0001a0 00 00 00 00 00 00 00 00 00 00 00 00 00 00 00 00
       0.0 0.0 0.0 0.0
0001b0 00 00 00 00 00 00 00 00 00 00 00 00 00 00 00 00
       0.0 0.0 0.0 0.0
0001c0 00 00 00 00 00 00 00 00 00 00 00 00 00 00 00 00
       0.0 0.0 0.0 0.0
0001d0 00 00 00 00 00 00 00 00 00 00 00 00 00 00 00 00
       0.0 0.0 0.0 0.0
0001e0 00 00 00 00 00 00 00 00 00 00 00 00 00 00 00 00
       0.0 0.0 0.0 0.0
0001f0 00 00 00 00 00 00 00 00 00 00 00 00 00 00 00 00
       0.0 0.0 0.0 0.0
000200 00 00 00 00 00 00 00 00 00 00 00 00 00 00 00 00
       0.0 0.0 0.0 0.0
000210 00 00 00 00 00 00 00 00 00 00 00 00 00 00 00 00
       0.0 0.0 0.0 0.0
000220 00 00 00 00 00 00 00 00 00 00 00 00 00 00 00 00
       0.0 0.0 0.0 0.0
000230 00 00 00 00 00 00 00 00 00 00 00 00 00 00 00 00
       0.0 0.0 0.0 0.0
000240 00 00 00 00 00 00 00 00 00 00 00 00 00 00 00 00
       0.0 0.0 0.0 0.0
000250 00 00 00 00 00 00 00 00 00 00 00 00 00 00 00 00
       0.0 0.0 0.0 0.0
000260 00 00 00 00 00 00 00 00 00 00 00 00 00 00 00 00
       0.0 0.0 0.0 0.0
000270 00 00 00 00 00 00 00 00 00 00 00 00 00 00 00 00
       0.0 0.0 0.0 0.0
000280 00 00 00 00 00 00 00 00 00 00 00 00 00 00 00 00
       0.0 0.0 0.0 0.0
000290 00 00 00 00 00 00 00 00 00 00 00 00 00 00 00 00
       0.0 0.0 0.0 0.0
0002a0 00 00 00 00 00 00 00 00 00 00 00 00 00 00 00 00
       0.0 0.0 0.0 0.0
0002b0 00 00 00 00 00 00 00 00 00 00 00 00 00 00 00 00
       0.0 0.0 0.0 0.0
0002c0 00 00 00 00 00 00 00 00 00 00 00 00 00 00 00 00
       0.0 0.0 0.0 0.0
0002d0 00 00 00 00 00 00 00 00 00 00 00 00 00 00 00 00
       0.0 0.0 0.0 0.0
0002e0 00 00 00 00 00 00 00 00 00 00 00 00 00 00 00 00
       0.0 0.0 0.0 0.0
0002f0 00 00 00 00 00 00 00 00 00 00 00 00 00 00 00 00
       0.0 0.0 0.0 0.0
000300 00 00 00 00 00 00 00 00 00 00 00 00 00 00 00 00
       0.0 0.0 0.0 0.0
000310 00 00 00 00 00 00 00 00 00 00 00 00 00 00 00 00
       0.0 0.0 0.0 0.0
000320 00 00 00 00 00 00 00 00 00 00 00 00 00 00 00 00
       0.0 0.0 0.0 0.0
000330 00 00 00 00 00 00 00 00 00 00 00 00 00 00 00 00
       0.0 0.0 0.0 0.0
000340 00 00 00 00 00 00 00 00 00 00 00 00 00 00 00 00
       0.0 0.0 0.0 0.0
000350 00 00 00 00 00 00 00 00 00 00 00 00 00 00 00 00
       0.0 0.0 0.0 0.0
000360 00 00 00 00 00 00 00 00 00 00 00 00 00 00 00 00
       0.0 0.0 0.0 0.0
000370 00 00 00 00 00 00 00 00 00 00 00 00 00 00 00 00
       0.0 0.0 0.0 0.0
000380 00 00 00 00 00 00 00 00 00 00 00 00 00 00 00 00
       0.0 0.0 0.0 0.0
000390 00 00 00 00 00 00 00 00 00 00 00 00 00 00 00 00
       0.0 0.0 0.0 0.0
0003a0 00 00 00 00 00 00 00 00 00 00 00 00 00 00 00 00
       0.0 0.0 0.0 0.0
0003b0 00 00 00 00 00 00 00 00 00 00 00 00 00 00 00 00
       0.0 0.0 0.0 0.0
0003c0 00 00 00 00 00 00 00 00 00 00 00 00 00 00 00 00
       0.0 0.0 0.0 0.0
0003d0 00 00 00 00 00 00 00 00 00 00 00 00 00 00 00 00
       0.0 0.0 0.0 0.0
0003e0 00 00 00 00 00 00 00 00 00 00 00 00 00 00 00 00
       0.0 0.0 0.0 0.0
0003f0 00 00 00 00 00 00 00 00 00 00 00 00 00 00 00 00
       0.0 0.0 0.0 0.0

fc1_bn.running_var f4 [400]
000000 00 00 80 3f 00 00 80 3f 00 00 80 3f 00 00 80 3f
       1.0 1.0 1.0 1.0
000010 00 00 80 3f 00 00 80 3f 00 00 80 3f 00 00 80 3f
       1.0 1.0 1.0 1.0
000020 00 00 80 3f 00 00 80 3f 00 00 80 3f 00 00 80 3f
       1.0 1.0 1.0 1.0
000030 00 00 80 3f 00 00 80 3f 00 00 80 3f 00 00 80 3f
       1.0 1.0 1.0 1.0
000040 00 00 80 3f 00 00 80 3f 00 00 80 3f 00 00 80 3f
       1.0 1.0 1.0 1.0
000050 00 00 80 3f 00 00 80 3f 00 00 80 3f 00 00 80 3f
       1.0 1.0 1.0 1.0
000060 00 00 80 3f 00 00 80 3f 00 00 80 3f 00 00 80 3f
       1.0 1.0 1.0 1.0
000070 00 00 80 3f 00 00 80 3f 00 00 80 3f 00 00 80 3f
       1.0 1.0 1.0 1.0
000080 00 00 80 3f 00 00 80 3f 00 00 80 3f 00 00 80 3f
       1.0 1.0 1.0 1.0
000090 00 00 80 3f 00 00 80 3f 00 00 80 3f 00 00 80 3f
       1.0 1.0 1.0 1.0
0000a0 00 00 80 3f 00 00 80 3f 00 00 80 3f 00 00 80 3f
       1.0 1.0 1.0 1.0
0000b0 00 00 80 3f 00 00 80 3f 00 00 80 3f 00 00 80 3f
       1.0 1.0 1.0 1.0
0000c0 00 00 80 3f 00 00 80 3f 00 00 80 3f 00 00 80 3f
       1.0 1.0 1.0 1.0
0000d0 00 00 80 3f 00 00 80 3f 00 00 80 3f 00 00 80 3f
       1.0 1.0 1.0 1.0
0000e0 00 00 80 3f 00 00 80 3f 00 00 80 3f 00 00 80 3f
       1.0 1.0 1.0 1.0
0000f0 00 00 80 3f 00 00 80 3f 00 00 80 3f 00 00 80 3f
       1.0 1.0 1.0 1.0
000100 00 00 80 3f 00 00 80 3f 00 00 80 3f 00 00 80 3f
       1.0 1.0 1.0 1.0
000110 00 00 80 3f 00 00 80 3f 00 00 80 3f 00 00 80 3f
       1.0 1.0 1.0 1.0
000120 00 00 80 3f 00 00 80 3f 00 00 80 3f 00 00 80 3f
       1.0 1.0 1.0 1.0
000130 00 00 80 3f 00 00 80 3f 00 00 80 3f 00 00 80 3f
       1.0 1.0 1.0 1.0
000140 00 00 80 3f 00 00 80 3f 00 00 80 3f 00 00 80 3f
       1.0 1.0 1.0 1.0
000150 00 00 80 3f 00 00 80 3f 00 00 80 3f 00 00 80 3f
       1.0 1.0 1.0 1.0
000160 00 00 80 3f 00 00 80 3f 00 00 80 3f 00 00 80 3f
       1.0 1.0 1.0 1.0
000170 00 00 80 3f 00 00 80 3f 00 00 80 3f 00 00 80 3f
       1.0 1.0 1.0 1.0
000180 00 00 80 3f 00 00 80 3f 00 00 80 3f 00 00 80 3f
       1.0 1.0 1.0 1.0
000190 00 00 80 3f 00 00 80 3f 00 00 80 3f 00 00 80 3f
       1.0 1.0 1.0 1.0
0001a0 00 00 80 3f 00 00 80 3f 00 00 80 3f 00 00 80 3f
       1.0 1.0 1.0 1.0
0001b0 00 00 80 3f 00 00 80 3f 00 00 80 3f 00 00 80 3f
       1.0 1.0 1.0 1.0
0001c0 00 00 80 3f 00 00 80 3f 00 00 80 3f 00 00 80 3f
       1.0 1.0 1.0 1.0
0001d0 00 00 80 3f 00 00 80 3f 00 00 80 3f 00 00 80 3f
       1.0 1.0 1.0 1.0
0001e0 00 00 80 3f 00 00 80 3f 00 00 80 3f 00 00 80 3f
       1.0 1.0 1.0 1.0
0001f0 00 00 80 3f 00 00 80 3f 00 00 80 3f 00 00 80 3f
       1.0 1.0 1.0 1.0
000200 00 00 80 3f 00 00 80 3f 00 00 80 3f 00 00 80 3f
       1.0 1.0 1.0 1.0
000210 00 00 80 3f 00 00 80 3f 00 00 80 3f 00 00 80 3f
       1.0 1.0 1.0 1.0
000220 00 00 80 3f 00 00 80 3f 00 00 80 3f 00 00 80 3f
       1.0 1.0 1.0 1.0
000230 00 00 80 3f 00 00 80 3f 00 00 80 3f 00 00 80 3f
       1.0 1.0 1.0 1.0
000240 00 00 80 3f 00 00 80 3f 00 00 80 3f 00 00 80 3f
       1.0 1.0 1.0 1.0
000250 00 00 80 3f 00 00 80 3f 00 00 80 3f 00 00 80 3f
       1.0 1.0 1.0 1.0
000260 00 00 80 3f 00 00 80 3f 00 00 80 3f 00 00 80 3f
       1.0 1.0 1.0 1.0
000270 00 00 80 3f 00 00 80 3f 00 00 80 3f 00 00 80 3f
       1.0 1.0 1.0 1.0
000280 00 00 80 3f 00 00 80 3f 00 00 80 3f 00 00 80 3f
       1.0 1.0 1.0 1.0
000290 00 00 80 3f 00 00 80 3f 00 00 80 3f 00 00 80 3f
       1.0 1.0 1.0 1.0
0002a0 00 00 80 3f 00 00 80 3f 00 00 80 3f 00 00 80 3f
       1.0 1.0 1.0 1.0
0002b0 00 00 80 3f 00 00 80 3f 00 00 80 3f 00 00 80 3f
       1.0 1.0 1.0 1.0
0002c0 00 00 80 3f 00 00 80 3f 00 00 80 3f 00 00 80 3f
       1.0 1.0 1.0 1.0
0002d0 00 00 80 3f 00 00 80 3f 00 00 80 3f 00 00 80 3f
       1.0 1.0 1.0 1.0
0002e0 00 00 80 3f 00 00 80 3f 00 00 80 3f 00 00 80 3f
       1.0 1.0 1.0 1.0
0002f0 00 00 80 3f 00 00 80 3f 00 00 80 3f 00 00 80 3f
       1.0 1.0 1.0 1.0
000300 00 00 80 3f 00 00 80 3f 00 00 80 3f 00 00 80 3f
       1.0 1.0 1.0 1.0
000310 00 00 80 3f 00 00 80 3f 00 00 80 3f 00 00 80 3f
       1.0 1.0 1.0 1.0
000320 00 00 80 3f 00 00 80 3f 00 00 80 3f 00 00 80 3f
       1.0 1.0 1.0 1.0
000330 00 00 80 3f 00 00 80 3f 00 00 80 3f 00 00 80 3f
       1.0 1.0 1.0 1.0
000340 00 00 80 3f 00 00 80 3f 00 00 80 3f 00 00 80 3f
       1.0 1.0 1.0 1.0
000350 00 00 80 3f 00 00 80 3f 00 00 80 3f 00 00 80 3f
       1.0 1.0 1.0 1.0
000360 00 00 80 3f 00 00 80 3f 00 00 80 3f 00 00 80 3f
       1.0 1.0 1.0 1.0
000370 00 00 80 3f 00 00 80 3f 00 00 80 3f 00 00 80 3f
       1.0 1.0 1.0 1.0
000380 00 00 80 3f 00 00 80 3f 00 00 80 3f 00 00 80 3f
       1.0 1.0 1.0 1.0
000390 00 00 80 3f 00 00 80 3f 00 00 80 3f 00 00 80 3f
       1.0 1.0 1.0 1.0
0003a0 00 00 80 3f 00 00 80 3f 00 00 80 3f 00 00 80 3f
       1.0 1.0 1.0 1.0
0003b0 00 00 80 3f 00 00 80 3f 00 00 80 3f 00 00 80 3f
       1.0 1.0 1.0 1.0
0003c0 00 00 80 3f 00 00 80 3f 00 00 80 3f 00 00 80 3f
       1.0 1.0 1.0 1.0
0003d0 00 00 80 3f 00 00 80 3f 00 00 80 3f 00 00 80 3f
       1.0 1.0 1.0 1.0
0003e0 00 00 80 3f 00 00 80 3f 00 00 80 3f 00 00 80 3f
       1.0 1.0 1.0 1.0
0003f0 00 00 80 3f 00 00 80 3f 00 00 80 3f 00 00 80 3f
       1.0 1.0 1.0 1.0

fc2.weight f4 [300, 400]
000000 1d 89 f4 3c 50 b7 81 bd 3d 2e 6b bc 7d f2 2a bd
       0.029850537 -0.06333792 -0.014354286 -0.04173516
000010 82 00 c8 3c 3a 39 0e 3d 56 83 13 3c df 00 0a bd
       0.024414305 0.034722544 0.009003481 -0.033692237
000020 92 f6 1a bd 46 d6 e3 3b 24 32 b6 bc 10 4e 53 3d
       -0.037832804 0.0069530336 -0.022240706 0.051588118
000030 80 d4 59 3d 3d 12 23 bc aa ab 55 3d 01 56 3e 3d
       0.05318117 -0.009953079 0.052165665 0.04646874
000040 1d a4 75 bd 04 20 29 3b c4 c9 1d 3d 10 f5 67 bd
       -0.059970964 0.0025806436 0.038522497 -0.056630194
000050 b4 05 6f bd d4 b3 aa 3d 87 52 75 3b f6 59 79 bd
       -0.05835505 0.08335081 0.0037433223 -0.06087681
000060 81 df 43 bc f9 5b 9e 3c cf c6 30 bc 64 1d 50 3d
       -0.011955143 0.019330965 -0.010789587 0.05080928
000070 cd a9 80 3d 5a 5e 83 3d 9a d6 ff bc 37 03 20 bd
       0.06282387 0.064144805 -0.03123026 -0.039065566
000080 13 a1 e4 3c bd 47 c6 bd 05 11 1d bd 8c 79 0f bd
       0.027908837 -0.09681652 -0.03834631 -0.035028026
000090 e3 c4 5f bd 9f d6 34 3d c7 96 2f bd d1 8d 9d bd
       -0.054631125 0.04414999 -0.0428684 -0.07693065
0000a0 f3 8e ce bb a3 36 e4 bc 79 26 79 3d fd 20 00 3d
       -0.006303662 -0.027858084 0.060827706 0.03128146
0000b0 7c 14 fa bc cb f7 d2 3c f6 da 87 bd 37 20 27 3d
       -0.030527346 0.025752923 -0.0663356 0.040802207
0000c0 4c fd af 3c f6 ce 5c bd 6f d9 3e bd a2 44 09 3d
       0.021483086 -0.05390831 -0.04659408 0.03351272
0000d0 e6 af 99 3c c1 70 22 bd 15 d5 ef 3c 1c cd 61 bd
       0.018760633 -0.03965831 0.02927641 -0.05512725
0000e0 71 e3 01 bd 0c 43 88 bd 44 3f 86 3b 87 02 25 3d
       -0.031711046 -0.06653413 0.0040968973 0.040285613
0000f0 89 1b b9 3c f5 67 9a bc 49 86 f6 bc e0 86 56 3d
       0.022596138 -0.018848399 -0.030093329 0.05237472
000100 42 6e a5 bc d5 8f 2e bd 4e 94 7a 39 8a 7e d7 3c
       -0.020194177 -0.042617638 0.00023897106 0.026305456
000110 a7 4c ac 3c 82 f7 59 3c b7 6c 81 bd 9b 95 63 bd
       0.021032644 0.013303639 -0.06319564 -0.055562597
000120 6a 1a 1b bd d3 3d 3e 3b 18 2c 89 bc 25 c0 af bc
       -0.037866987 0.002902855 -0.016744658 -0.021453926
000130 bf b0 20 3d a0 59 ca bc d1 eb 8a 3d 3f 66 58 3d
       0.03923106 -0.02470094 0.0678326 0.052831884
000140 3b 8f 42 3d 9f db 7e bb 05 8b a6 bb d2 7b 3b bd
       0.047499876 -0.0038888229 -0.0050824904 -0.04577238
000150 19 55 0c 3d 49 f9 36 3c 08 d0 36 3b 0e 62 b2 3b
       0.034260843 0.011167833 0.0027894992 0.005443818
000160 73 a4 c9 ba 7b aa bb bc 05 b1 b6 ba 72 d4 72 3d
       -0.0015384093 -0.02290844 -0.0013938254 0.059284635
000170 01 b1 6d bd ed 4e ad 3c eb 40 df bb bf 1e e2 bc
       -0.058030132 0.021155799 -0.0068131587 -0.027602552
000180 6b 8c a7 3d c6 15 16 bd 0e ac 2e 3d 65 74 51 3c
       0.081810795 -0.03664186 0.042644553 0.012784098
000190 42 f1 93 3d b1 ed 54 bd fd 1c 27 bd b3 38 00 3d
       0.07223751 -0.051984493 -0.04079913 0.031304073
0001a0 02 46 85 3d 3d 49 60 3c 20 2c ae 3b 28 9b 50 bd
       0.065074936 0.013689336 0.0053153187 -0.05092922
0001b0 58 c2 8c bc 91 26 1f 3d 67 03 72 bc bd 44 a7 bc
       -0.017182514 0.03885514 -0.014771319 -0.02041852
0001c0 f0 0f 76 3d cb 6e 63 bc fa 37 43 bd ff 4d 9b 3c
       0.060073793 -0.013881396 -0.047660805 0.01895809
0001d0 e2 ed cc 3c 34 75 04 3c c2 db 08 bc 2c 6c a0 bc
       0.025015775 0.008084584 -0.008353176 -0.01958283
0001e0 0b 31 6f bd 22 a8 4f bc 14 89 09 3d e3 6a 0e 3c
       -0.05839638 -0.012674363 0.033577994 0.008692476
0001f0 2d 08 44 3c 89 95 a7 bc 1f a4 a0 3d 16 d6 33 bc
       0.01196484 -0.020457046 0.078438036 -0.010976335
000200 e4 fa 8c bd 85 b1 61 3d 65 15 e8 bc 86 d9 93 bc
       -0.06883791 0.055100936 -0.028330514 -0.01804806
000210 fa 21 cb 3c ce d6 8e bd 1e 7b d2 bd c1 70 0b bd
       0.024796475 -0.069745645 -0.10277389 -0.034043077
000220 1c b8 fa 3c 9e a2 a0 bd d7 6a 64 bc 94 f1 3c 3d
       0.030605368 -0.07843517 -0.013941488 0.046128824
000230 72 ab a1 bd f8 8b 05 bd 8a 4f b8 bc 9c b7 e6 bc
       -0.07894029 -0.032604188 -0.022498865 -0.028163724
000240 54 29 74 3d 5b ac c9 bb 4c 92 8a bc 65 42 13 3d
       0.059609726 -0.0061545796 -0.016915463 0.03595199
000250 c8 2d 69 3d 5c 9f 39 3d 3a b3 c3 3a b1 f6 ab ba
       0.056928426 0.045317993 0.0014930733 -0.0013119784
000260 a6 71 72 bb 90 29 3b bc 97 1f 6d bd ae 1b 60 3d
       -0.003699401 -0.0114234835 -0.057891455 0.054713897
000270 b8 69 1d 3d 8a e6 7d 3d f3 2f c8 3c c3 04 42 3d
       0.0384309 0.061987437 0.024436926 0.047367822
000280 2c 95 f1 bc ab d6 8e 3c 96 d8 c7 bc 60 53 82 3d
       -0.029490076 0.017436346 -0.024395268 0.06363559
000290 b8 b7 1e bb 03 4e 08 bb 5c ce d4 bc 7a ed 93 bc
       -0.0024218392 -0.0020798452 -0.025977306 -0.018057574
0002a0 d8 cf e6 3a 52 da 6e bd ac a5 da bc 7a cd db bc
       0.001760955 -0.058313675 -0.026690327 -0.026831377
0002b0 f2 7a dc bc 93 87 db 3c da 41 bd bc 54 35 af 3c
       -0.026914094 0.026798045 -0.02310269 0.021387734
0002c0 3f 2a 1d bd a4 fb ee 3c 90 10 0e bd e8 56 72 bd
       -0.038370367 0.029172726 -0.034683764 -0.05916491
0002d0 0a 8a e2 3c ad 7c 4c 3d f8 73 ae 3c 89 d6 03 bd
       0.027653713 0.049923588 0.021295533 -0.03218702
0002e0 ff a8 19 bd dd 34 a0 3c 4e 20 8d 3d 76 cb cd bc
       -0.037514683 0.019556457 0.06890927 -0.025121432
0002f0 ac 58 79 3d 1a 0d a2 3d 0b 10 4b 3d 85 65 06 3c
       0.06087558 0.07912655 0.049575847 0.008202915
000300 d5 bc 39 3d e7 4c 62 bd e8 3a 53 3d 8c 0e 80 bc
       0.0453461 -0.05524912 0.05156985 -0.015631936
000310 a6 e5 0f 3b 0d 5e 14 bc 3c 69 92 bc 3c d9 60 bd
       0.002195695 -0.009055627 -0.017872445 -0.05489467
000320 ce 6e 0b bd 7f 0c f1 3c d7 3a bf 3c 6c e6 8c bc
       -0.03404122 0.029424904 0.023343487 -0.017199717
000330 00 44 a3 3c 7a d7 24 3c b7 d9 f5 3a db 1b 84 3d
       0.019929886 0.010061139 0.0018756901 0.064506255
000340 fe 0a 1d 3d 00 10 21 bd 50 d8 3c 3d 72 5e a2 3d
       0.03834056 -0.0393219 0.04610473 0.0792817
000350 12 43 9d 3c d9 62 ba bc d3 ad b4 bc a7 37 0d 3d
       0.01919702 -0.022752212 -0.022055542 0.034476902
000360 5e 06 9c 3d 01 57 85 bc 80 9e 32 3c fe be 53 bd
       0.07618402 -0.016276838 0.010902047 -0.051695816
000370 f7 64 3b 3d 40 0a 35 bd d2 f4 71 3c 7d d4 07 3c
       0.045750584 -0.04419923 0.014767842 0.008290407
000380 90 f1 97 3d ba 10 48 3c f3 19 e3 ba 00 6f f3 bc
       0.07419121 0.012211019 -0.0017326459 -0.029716015
000390 ca 95 bb bb 28 83 93 3d 3a 86 f4 bc f2 f4 a1 bc
       -0.0057246434 0.072027504 -0.02984916 -0.01977012
0003a0 6d 52 83 bd e5 3e 3a 3b dd f9 99 3c 79 79 ef 3c
       -0.06412206 0.0028418836 0.018795902 0.029232727
0003b0 71 94 d1 bc 75 27 24 3d 68 3b f4 3b ea e6 ef bb
       -0.025583478 0.04007669 0.007453371 -0.0073212283
0003c0 18 3e 81 3d 5e e8 46 bd 95 1f c1 bc 7b 76 03 3d
       0.063106716 -0.048561446 -0.02357463 0.032095414
0003d0 94 24 e0 bc a8 ca 6e 3d 1b 37 94 bc 5b 44 5a 3b
       -0.027361192 0.058298737 -0.018092683 0.0033304903
0003e0 64 ff 49 bd e4 d9 f6 3b 8f bc 26 bb 1c 9e 44 3c
       -0.049315825 0.007533299 -0.002544198 0.012000587
0003f0 31 6c 44 3d bd 4a 48 3c 9d 1f 83 bd af 2a 3e 3d
       0.047954742 0.01222485 -0.06402514 0.046427425
