agent_checkpoints/checkpoint_actor_6.pth (torch_old, 553585 bytes, 14 tensors)

fc1.weight f4 [400, 33]
0.07390852 0.020211535 0.004016986 -0.0017511176 0.06466557 0.00969165 -0.0044970475 0.033767015
-0.0039716517 -0.04522479 0.0061937026 0.0007117176 0.015308154 -0.0035616006 -0.014817945 0.029265255
0.03107094 0.03471686 0.0011192855 -0.023719413 0.05105443 0.051843304 0.051786803 -0.038360093
0.01666745 -0.0038529988 -0.058784734 -0.03503232 0.01687598 0.041362356 -0.026211774 0.022383604
-0.0018171737 -0.06617187 -0.045440488 0.06704116 -0.017613284 0.00398254 0.0021308095 -0.024676299
-0.0044473647 -0.0058078575 0.012853061 0.0333731 -0.06723981 -0.055256553 -0.08304547 0.030683976
0.047192972 0.0032505915 -0.017456166 -0.055738796 -0.001177205 0.022171723 -0.0066873943 0.00038518794
0.02078063 -0.057945184 0.035272483 0.017812653 -0.0518079 0.03620593 0.013669748 0.050790578
0.032167796 0.050734155 -0.0407985 -0.060265653 -0.05732401 0.0007690247 -0.009781563 0.015161985
-0.037089936 0.00077046955 0.019234316 -0.033803187 0.005238533 0.039920997 -0.02223035 -0.01334915
-0.025048826 0.0038377875 -0.013650049 -0.030590745 -0.01017486 -0.03132999 -0.03781148 -0.041210357
-0.027180787 0.021912595 -0.0068726647 -0.008062035 0.06401249 0.04822018 0.013418788 0.049230527
0.004887718 0.04305804 0.023696134 -0.052618872 -0.019385938 0.050131667 -0.0018911121 0.049940187
0.008592243 0.057187676 -0.018940018 0.01964719 0.038337193 -0.04852799 -0.040548265 -0.010478315
-0.015852066 -0.0027307926 0.033993557 -0.033116244 0.012388211 -0.01835238 -0.00086128694 -0.015702572
0.016167069 -0.038737845 0.008849141 -0.057051014 0.028344125 0.009815303 0.022887971 -0.058633313
-0.029181112 -0.018978328 -0.0025731027 0.045244843 0.03559997 -0.011943295 -0.010709055 0.05486785
0.0396138 -0.0011651106 -0.042966556 -0.0012442394 0.02971427 -0.059732012 -0.026231127 0.021871919
-0.008117314 0.07533098 0.021073347 0.029876333 -0.04217128 0.05624148 -0.012507323 -0.0064514363
0.030745331 -0.014826272 -0.021689892 -0.048600912 0.021467695 -0.009145131 -0.034238014 -0.023152757
0.02984053 -0.047989257 0.07046803 -0.023045033 -0.03763488 -0.021377057 -0.003164713 -0.015992675
0.01653605 0.027482131 0.030340765 -0.011503416 -0.015894216 -0.04812799 -0.013550038 0.01357534
0.0079799285 -0.008915621 0.06549603 0.012290486 -0.047372587 0.0134149995 -0.013385816 0.024670025
0.004008285 0.034624342 -0.048890732 -0.03858266 0.040829007 0.047880042 -0.035204545 -0.025320392
-0.0139313005 0.0058332095 -0.035107445 0.03980064 0.023329403 0.03762903 -0.016610755 -0.033778805
-0.012051281 0.038519267 0.020091392 -0.026133917 -0.06337152 0.054603048 0.037652817 0.03711583
0.038908742 -0.055791244 0.046181574 -0.0032231286 -0.02234936 0.04559728 0.03179474 0.0528675
-0.00437765 -0.027955243 0.009575017 0.02421185 -0.02688349 0.03266303 -0.03443681 0.0062751416
0.086882845 -0.06862263 -0.037423763 0.041225288 0.06084561 0.04287081 -0.006405294 0.058635376
0.009561733 0.024070172 0.04020877 0.016018506 -0.02059086 -0.03207764 0.016753387 -0.01666648
-0.036960848 -0.024410734 -0.004578013 0.055411674 0.050410658 0.01152318 0.009132621 -0.008928296
0.056120276 0.052689634 0.008257394 -0.031213649 0.031882532 -0.048774865 -0.023206143 0.023314377
00000000: 5a5d 973d a992 a53c eca0 833b c285 e5ba
00000010: 626f 843d bac9 1e3c f85b 93bb 484f 0a3d
00000020: a124 82bb a13d 39bd 8bf4 ca3b 8f92 3a3a
00000030: 0dcf 7a3c be69 69bb f7c6 72bc b0bd ef3c
00000040: 7c88 fe3c 4433 0e3d fdb4 923a 374f c2bc
00000050: 731e 513d a559 543d 661e 543d 791f 1dbd
00000060: 2d8a 883c 9882 7cbb 43c8 70bd 0d7e 0fbd
00000070: 7f3f 8a3c 936b 293d 13ba d6bc d25d b73c
00000080: 3b2e eeba 1e85 87bd ce1f 3abd e04c 893d
00000090: bc49 90bc f87f 823b 0da5 0b3b f325 cabc
000000a0: 33bb 91bb d74f bebb a595 523c 3bb2 083d
000000b0: 07b5 89bd b254 62bd be13 aabd f65c fb3c
000000c0: 6b4d 413d e007 553b 3c00 8fbc 5d4e 64bd
000000d0: 724c 9aba 79a1 b53c ee21 dbbb 0df3 c939
000000e0: 243c aa3c ee57 6dbd e179 103d d7eb 913c
000000f0: 8534 54bd ab4c 143d 14f7 5f3c c809 503d
00000100: 61c2 033d 9ece 4f3d 541c 27bd 1ed9 76bd
00000110: 95cc 6abd 6098 493a d942 20bc f969 783c
00000120: 9eeb 17bd 56f9 493a 4991 9d3c 3675 0abd
00000130: 00a8 ab3b 3384 233d 6c1c b6bc 65b6 5abc
00000140: 3233 cdbc 6483 7b3b 75a4 5fbc 7199 fabc
00000150: 75b4 26bc e053 00bd 36e0 1abd 31cc 28bd
00000160: 3eaa debc 0b82 b33c 1734 e1bb a016 04bc
00000170: fb18 833d 8682 453d 7ada 5b3c f3a5 493d
00000180: 2629 a03b a15d 303d 651e c23c e386 57bd
00000190: 42cf 9ebc dd56 4d3d 31df f7ba 158e 4c3d
000001a0: 7bc6 0c3c a03d 6a3d 1928 9bbc 25f3 a03c
000001b0: 7607 1d3d 49c5 46bd f015 26bd 3dad 2bbc
000001c0: 31dc 81bc 19f7 32bb d43c 0b3d e6a4 07bd
000001d0: ecf7 4a3c bb57 96bc fdc7 61ba aea2 80bc
000001e0: cd70 843c 93ab 1ebd fdfb 103c 53ae 69bd
000001f0: f031 e83c 5dd0 203c 8e7f bb3c 7c29 70bd
00000200: 3a0d efbc 7078 9bbc 80a1 28bb a852 393d
00000210: 46d1 113d cfad 43bc 0875 2fbc 1cbd 603d
00000220: 1442 223d a0b6 98ba b3fd 2fbd bf15 a3ba
00000230: 576b f33c 8ea9 74bd a9e2 d6bc bd2c b33c
00000240: 7cfe 04bc 2147 9a3d 03a2 ac3c 36bf f43c
00000250: cbbb 2cbd 775d 663d 84eb 4cbc 9266 d3bb
00000260: a2dd fb3c e4e9 72bc 00af b1bc c011 47bd
00000270: 05dd af3c 76d5 15bc 293d 0cbd daaa bdbc
00000280: 2174 f43c 6290 44bd 8b51 903d f0c8 bcbc
00000290: 0827 1abd f01e afbc 1367 4fbb 1203 83bc
000002a0: 9c76 873c 3522 e13c 328d f83c d378 3cbc
000002b0: 9634 82bc db21 45bd fb00 5ebc 1a6b 5e3c
000002c0: 3fbe 023c d312 12bc c822 863d 095e 493c
000002d0: c209 42bd 96ca 5b3c 2e50 5bbc cb18 ca3c
000002e0: ee57 833b 41d2 0d3d a641 48bd da08 1ebd
000002f0: 513c 273d dd1d 443d a432 10bd b66c cfbc
00000300: 1c40 64bc 8224 bf3b d3cc 0fbd ff05 233d
00000310: 4e1d bf3c e620 1a3d 4713 88bc a55b 0abd
00000320: bc72 45bc 61c6 1d3d b496 a43c cc16 d6bc
00000330: edc8 81bd 72a7 5f3d d739 1a3d c506 183d
00000340: c65e 1f3d 5c85 64bd e428 3d3d 203b 53bb
00000350: 0116 b7bc 37c4 3a3d 343b 023d 978b 583d
00000360: 6472 8fbb 6502 e5bc 88e0 1c3c ee57 c63c
00000370: c43a dcbc abc9 053d 9d0d 0dbd b49f cd3b
00000380: a2ef b13d 058a 8cbd a949 19bd d9db 283d
00000390: 3f39 793d 4d99 2f3d 80e3 d1bb a62b 703d
000003a0: d1a8 1c3c cf2e c53c f4b1 243d 3e39 833c
000003b0: 2aae a8bc d863 03bd 663e 893c 2488 88bc
000003c0: 4264 17bd 05f9 c7bc 2803 96bb 5af7 623d
000003d0: 687b 4e3d b8cb 3c3c fda0 153c fd47 12bc
000003e0: 60de 653d 16d1 573d 054a 073c c4b3 ffbc
000003f0: 4297 023d 27c8 47bd cf1a bebc cbfd be3c

fc1.bias f4 [400]
0.10191679 0.12696435 -0.046283666 -0.02074903 0.13818659 -0.11996391 -0.13009176 0.04464533
0.069013506 -0.07411038 0.18094237 0.12592939 0.15017338 -0.08726334 0.018053789 0.1785519
-0.14959867 -0.041863013 0.12517081 0.12120812 0.06478057 0.19810474 0.0888904 -0.020441625
-0.054681923 -0.02760901 0.009933998 -0.09412438 0.016428713 -0.14199133 0.04220442 -0.013322341
-0.018945957 0.009057083 0.06846821 0.016210923 0.0017716107 -0.074994974 -0.1119023 -0.025686402
0.19101955 -0.10109456 0.07972302 -0.03531606 0.057422306 -0.014690495 0.115854576 0.01473561
-0.07861134 0.031330097 0.08111603 -0.011698812 0.008381141 -0.011536968 0.069055915 0.052051038
0.17680646 -0.032423623 -0.12165908 0.114788145 0.027932648 0.11577665 0.097595766 -0.11773871
-0.0796917 0.1554924 0.03425455 0.06037361 0.117278285 0.03158076 -0.04461452 0.15860629
-0.058021694 0.034651253 0.20491205 0.1176076 0.013912008 -0.17392245 -0.08031531 -0.05679186
-0.1379581 0.18768312 0.108641274 -0.11275677 0.15970777 0.060771044 0.0038771264 -0.09722571
-0.069617264 -0.026856875 -0.03831511 -0.13023522 -0.16038328 -0.0758702 0.083678074 0.20273796
-0.093325295 0.0185833 -0.053445924 0.14231634 -0.03490978 0.061364833 0.06355053 0.024617504
-0.0893569 -0.052326586 -0.02955102 -0.012268951 -0.111649945 0.041451387 0.15746793 0.16526742
-0.118600436 0.1691764 -0.028488467 0.0033628496 0.17001401 0.03840527 0.11525595 -0.0066677686
0.103106685 0.04646267 0.20327358 -0.04780468 0.0739696 0.13177632 0.16431883 0.08571953
0.025491158 0.15759106 -0.020783462 -0.059831373 0.21374564 -0.08563737 -0.17132252 -0.059162956
0.19073728 0.1562468 0.088246584 -0.039320122 -0.09152592 -0.086239554 -0.13232256 0.20488882
0.06768535 -0.0005578738 0.11769228 0.07652617 0.034454864 0.021657243 0.0036119937 0.19253449
-0.12873766 -0.066242225 0.07506269 -0.15171823 -0.038347773 -0.13271497 -0.119730406 0.11223224
-0.12111606 -0.12154395 0.051765118 0.12144752 -0.03180863 -0.0065092244 0.09625263 -0.08389655
-0.15538073 -0.05776166 -0.0034854454 -0.0446964 0.12865387 -0.061717585 0.0054750564 -0.16418467
0.11434714 -0.12225025 0.16808489 -0.09793708 0.13300379 -0.013818528 -0.120831944 0.12469814
0.15207528 -0.053490005 -0.0402687 0.13871172 0.20669661 -0.08990352 0.05932276 -0.13009046
0.14054316 0.16712153 -0.117039934 -0.016204815 -0.11754135 -0.0139000295 -0.070032924 -0.106208414
-0.100860335 -0.12748876 0.007273627 -0.09854625 0.1488851 0.13028212 0.13679397 0.03327197
0.04642801 0.130199 -0.025595115 -0.019430047 -0.0021528532 0.06904049 -0.17315698 -0.06622279
0.18491802 0.03959189 0.06917347 0.17290425 -0.18819547 -0.08477014 0.07827421 -0.060217347
0.024427269 0.021172943 -0.098777145 0.08775568 0.13595156 0.131692 0.03928482 -0.12360894
0.1660131 -0.04245574 -0.10330111 -0.1784238 0.083266765 0.03185569 0.15114266 0.032108255
0.15431796 0.1806137 -0.17859018 0.023758579 -0.10416768 0.003223694 0.024501301 0.18857181
-0.03499411 0.023873614 -0.082395606 -0.007691434 0.0831509 0.01543321 -0.0661351 -0.09628809
00000000: c0b9 d03d f102 023e f193 3dbd dff9 a9bc
00000010: c980 0d3e a3af f5bd c636 05be 06de 363d
00000020: f456 8d3d 2fc7 97bd f548 393e a2f3 003e
00000030: 0dc7 193e 1fb7 b2bd 8ae5 933c 4fd6 363e
00000040: 6530 19be 8d78 2bbd c72c 003e f63b f83d
00000050: adab 843d f8db 4a3e 2c0c b63d 3275 a7bc
00000060: 27fa 5fbd 4a2c e2bc 35c2 223c 48c4 c0bd
00000070: 8295 863c 2d66 11be 8bde 2c3d f345 5abc
00000080: 8d34 9bbc 2964 143c 1039 8c3d c5cc 843c
00000090: 6435 e83a f796 99bd 082d e5bd 4a6c d2bc
000000a0: a19a 433e aa0a cfbd d345 a33d 93a7 10bd
000000b0: a733 6b3d 67b0 70bc 2a45 ed3d a16d 713c
000000c0: fbfe a0bd fd53 003d 2920 a63d 60ac 3fbc
000000d0: 0e51 093c 8d05 3dbc 306d 8d3d 7833 553d
000000e0: c10c 353e a2ce 04bd 6528 f9bd 0c16 eb3d
000000f0: 02d3 e43c 4f1c ed3d 4ae0 c73d fe20 f1bd
00000100: 6735 a3bd 6639 1f3e 804e 0c3d 524a 773d
00000110: 992f f03d d45a 013d b7bd 36bd b069 223e
00000120: 28a8 6dbd 79ee 0d3d 77d4 513e 41dc f03d
00000130: 31ef 633c ba18 32be 5a7c a4bd 959e 68bd
00000140: e344 0dbe 0130 403e 517f de3d 05ed e6bd
00000150: 6f8a 233e 0feb 783d 6317 7e3b 461e c7bd
00000160: 7f93 8ebd f302 dcbc 4ef0 1cbd 625c 05be
00000170: 843b 24be d661 9bbd 695f ab3d 8a9a 4f3e
00000180: 5521 bfbd 013c 983c 1dea 5abd 60bb 113e
00000190: 8ffd 0ebd b159 7b3d c826 823d a6aa c93c
000001a0: c000 b7bd 6754 56bd fb14 f2bc b603 49bc
000001b0: baa8 e4bd eec8 293d 463f 213e dd3b 293e
000001c0: c9e4 f2bd 943c 2d3e a560 e9bc 4163 5c3b
000001d0: 2718 2e3e d84e 1d3d 500b ec3d 4c7d dabb
000001e0: 9929 d33d a44f 3e3d f326 503e d7ce 43bd
000001f0: 607d 973d 5ff0 063e 3243 283e b98d af3d
00000200: d5d2 d03c 8d5f 213e 1442 aabc be11 75bd
00000210: 23e0 5a3e a562 afbd 2c6f 2fbe db54 72bd
00000220: a250 433e 29ff 1f3e a0ba b43d 230e 21bd
00000230: f171 bbbd 5d9e b0bd 917f 07be 60ce 513e
00000240: 9e9e 8a3d 473e 12ba a608 f13d c1b9 9c3d
00000250: 8b20 0d3d 886a b13c 33b7 6c3b c327 453e
00000260: ced3 03be 01aa 87bd 78ba 993d 065c 1bbe
00000270: 8e12 1dbd 6fe6 07be 3735 f5bd 04da e53d
00000280: b20b f8bd 09ec f8bd a907 543d 7ab9 f83d
00000290: c449 02bd 554b d5bb 1920 c53d f4d1 abbd
000002a0: 201c 1fbe 7e97 6cbd 126c 64bb 9313 37bd
000002b0: d7bd 033e 94cb 7cbd 1a68 b33b 0720 28be
000002c0: d52e ea3d 575e fabd 721e 2c3e 3c93 c8bd
000002d0: 2532 083e 1b67 62bc bd76 f7bd bd61 ff3d
000002e0: 9fb9 1b3e 5618 5bbd cbf0 24bd 720a 0e3e
000002f0: 47a8 533e 561f b8bd 6cfc 723d 6f36 05be
00000300: 8cea 0f3e e821 2b3e a2b2 efbd f6bf 84bc
00000310: 85b9 f0bd f3bc 63bc 6c6d 8fbd cc83 d9bd
00000320: dd8f cebd 6a8c 02be 9b57 ee3b 9ed2 c9bd
00000330: 5675 183e ad68 053e b813 0c3e 3048 083d
00000340: 4c2b 3e3d e352 053e d9ac d1bc c32b 9fbc
00000350: e216 0dbb 1a65 8d3d 1050 31be d09f 87bd
00000360: 265b 3d3e 1b2b 223d d2aa 8d3d d00d 313e
00000370: 50b6 40be f89b adbd 3b4e a03d 77a6 76bd
00000380: b21b c83c e172 ad3c ac4b cabd 40b9 b33d
00000390: e336 0b3e 45da 063e 1fe9 203d af26 fdbd
000003a0: 57ff 293e 12e6 2dbd 888f d3bd bbb4 36be
000003b0: c487 aa3d 1d7b 023d 24c5 1a3e f283 033d
000003c0: 8705 1e3e ccf2 383e 58e0 36be 5aa1 c23c
000003d0: dd55 d5bd 9c44 533b f4b6 c83c f818 413e
000003e0: fc55 0fbd 9992 c33c 07bf a8bd 6d08 fcbb
000003f0: 054b aa3d 93db 7c3c d771 87bd b132 c5bd

fc1_bn.weight f4 [400]
0.30013925 0.95684236 0.26861244 0.89144593 0.62372637 0.35434407 0.07167953 0.474064
0.6721248 0.5915647 0.9048017 0.5011624 0.116904914 0.7873266 0.19810057 0.39847958
0.8974402 0.7275865 0.028521836 0.92092806 0.10363084 0.43915802 0.42923063 0.115899384
0.84699935 0.9998613 0.17154437 0.5218416 0.52509075 0.82420695 0.22117472 0.19618523
0.8497967 0.33349085 0.81506646 0.32896966 0.6307674 0.30857688 0.014076352 0.8763208
0.9504392 0.028960109 0.10335684 0.72136194 0.77170825 0.28330982 0.71448636 0.27925837
0.05923474 0.31809974 0.7819785 0.07144338 0.43159813 0.78081346 0.6723812 0.36232102
0.08398235 0.9395243 0.33452266 0.9076949 0.5334071 0.92645943 0.25540948 0.70200455
0.6145893 0.5455913 0.44417942 0.59342426 0.5535504 0.83426976 0.51416904 0.52069896
0.5140965 0.3375854 0.06838721 0.47063208 0.06804103 0.9163166 0.17709243 0.77150136
0.08920574 0.5504395 0.6109436 0.71801 0.63672835 0.843512 0.31855273 0.7860344
0.69851774 0.10911775 0.5313231 0.9062209 0.51367587 0.2398333 0.53703046 0.16288573
0.49898428 0.9265617 0.8701878 0.53507555 0.3606344 0.39650726 0.0103935 0.6170595
0.82890964 0.69703317 0.72259164 0.9581141 0.54141665 0.92834646 0.3602882 0.97680706
0.21107233 0.017801702 0.6897668 0.14876395 0.0587337 0.84161323 0.03756553 0.19741654
0.062773764 0.8881658 0.63010746 0.81343687 0.45458215 0.817038 0.4931507 0.041461706
0.3361926 0.067492485 0.32170892 0.11617619 0.5012834 0.3119837 0.92782086 0.1173774
0.70612216 0.24267727 0.47203583 0.58173865 0.4717661 0.52468336 0.59030104 0.59008527
0.8748635 0.56731904 0.9542906 0.4419369 0.6595474 0.30046016 0.496656 0.6775071
0.9227721 0.2983619 0.21159804 0.7371941 0.113545835 0.73702663 0.2957664 0.56197786
0.25506008 0.24937576 0.20096338 0.5233347 0.11273265 0.8720565 0.58440626 0.98394424
0.7977083 0.31742656 0.92788213 0.14282036 0.88759834 0.65721226 0.50035006 0.56100607
0.18850374 0.486139 0.7669917 0.652222 0.051277936 0.92171484 0.23702466 0.85302466
0.13695174 0.24858212 0.44879895 0.83758557 0.96512073 0.8522405 0.006877184 0.818017
0.77099013 0.9167867 0.7508297 0.7948001 0.84590524 0.24633443 0.97846365 0.5284241
0.6903255 0.4639222 0.23088503 0.5127625 0.98668265 0.9949023 0.5794227 0.23921847
0.6417345 0.48232985 0.9803822 0.68056005 0.7935989 0.9341153 0.3688277 0.019099236
0.5210397 0.8476402 0.5294429 0.1480397 0.2888403 0.72830856 0.1317969 0.57870144
0.8672326 0.5594559 0.20074236 0.6447091 0.71789306 0.4025011 0.56833947 0.5309716
0.6958113 0.9618468 0.8714456 0.19717485 0.83713996 0.4264943 0.14686978 0.76883096
0.5410002 0.63923174 0.9774674 0.13144827 0.5861696 0.75874573 0.6866152 0.6727921
0.91530144 0.28583646 0.42365444 0.17007577 0.54672503 0.6047772 0.59870315 0.38168782
00000000: daab 993e 9ff3 743f 9287 893e cd35 643f
00000010: 88ac 1f3f 966c b53e b8cc 923d 84b8 f23e
00000020: 5f10 2c3f c970 173f 16a1 673f 2e4c 003f
00000030: d86b ef3d 3c8e 493f e0da 4a3e 8405 cc3e
00000040: a4be 653f 1c43 3a3f a0a6 e93c f1c1 6b3f
00000050: 683c d43d 52d9 e03e 1ec4 db3e a85c ed3d
00000060: f3d4 583f e9f6 7f3f 54a9 2f3e 6997 053f
00000070: 596c 063f 3aff 523f a07b 623e c8e4 483e
00000080: 478c 593f 50bf aa3e 32a8 503f b66e a83e
00000090: f979 213f cafd 9d3e 80a0 663c 8f56 603f
000000a0: fc4f 733f c03d ed3c c0ac d33d 2dab 383f
000000b0: ac8e 453f fc0d 913e 94e8 363f f4fa 8e3e
000000c0: 20a0 723d f8dd a23e be2f 483f e850 923d
000000d0: 6efa dc3e 64e3 473f 2d21 2c3f 2482 b93e
000000e0: f0fe ab3d aa84 703f 8e46 ab3e b15e 683f
000000f0: 5e8d 083f 722c 6d3f 08c5 823e 92b6 333f
00000100: b955 1d3f dfab 0b3f 7c6b e33e a7ea 173f
00000110: 7bb5 0d3f b492 553f 95a0 033f 874c 053f
00000120: d49b 033f fed7 ac3e 980e 8c3d b0f6 f03e
00000130: 1859 8b3d ba93 6a3f b857 353e 1d81 453f
00000140: 80b1 b63d 9ae9 0c3f cd66 1c3f 81cf 373f
00000150: a100 233f 67f0 573f 5819 a33e 8d39 493f
00000160: 0fd2 323f 2079 df3d ca04 083f 18fe 673f
00000170: 4380 033f dc96 753e d47a 093f 84cb 263e
00000180: de7a ff3e 2633 6d3f a1c4 5e3f b6fa 083f
00000190: 12a5 b83e 0003 cb3e 8049 2a3c 9df7 1d3f
000001a0: 6c33 543f c470 323f c4fb 383f f746 753f
000001b0: 489a 0a3f 1da8 6d3f b277 b83e 0710 7a3f
000001c0: 5823 583e e0d4 913c 8f94 303f 9455 183e
000001d0: c092 703d f773 573f 50de 193d 9027 4a3e
000001e0: 888f 803d d55e 633f b94e 213f 663d 503f
000001f0: febe e83e 6729 513f 407e fc3e c0d3 293d
00000200: 7021 ac3e 8039 8a3d 08b7 a43e c8ed ed3d
00000210: 1c54 003f 54bc 9f3e ab85 6d3f 9063 f03d
00000220: 6cc4 343f 6480 783e aeae f13e d3ec 143f
00000230: 548b f13e a651 063f f81d 173f d40f 173f
00000240: 0ef7 5f3f d23b 113f 644c 743f 8e45 e23e
00000250: 19d8 283f ead5 993e b249 fe3e 1b71 2d3f
00000260: cb3a 6c3f e4c2 983e 28ad 583e c1b8 3c3f
00000270: b88a e83d c7ad 3c3f b26e 973e c8dd 0f3f
00000280: 3c97 823e 5c5c 7f3e 58c9 4d3e 43f9 053f
00000290: 60e0 e63d 183f 5f3f a69b 153f c5e3 7b3f
000002a0: 9c36 4c3f bc85 a23e af89 6d3f 803f 123e
000002b0: a539 633f 103f 283f f116 003f 189e 0f3f
000002c0: 2007 413e 36e7 f83e 9159 443f 05f8 263f
000002d0: d008 523d 81f5 6b3f 98b6 723e d35f 5a3f
000002e0: 143d 0c3e 508c 7e3e fac8 e53e 026c 563f
000002f0: 2712 773f 6f2c 5a3f 005a e13b 9069 513f
00000300: 9c5f 453f 88b2 6a3f 6036 403f 0578 4b3f
00000310: 3f8d 583f 183f 7c3e 987c 7a3f cd46 073f
00000320: 2cb9 303f 3687 ed3e 206d 6c3e 6744 033f
00000330: 3c97 7c3f ebb1 7e3f 0c55 143f b0f5 743e
00000340: b648 243f f0f3 f63e 54fa 7a3f 2f39 2e3f
00000350: 4c29 4b3f 2e22 6f3f fcd6 bc3e 0076 9c3c
00000360: dc62 053f f3fe 583f 9289 073f b897 173e
00000370: e0e2 933e 6e72 3a3f c4f5 063e c725 143f
00000380: f502 5e3f 8038 0f3f 688f 4d3e a80b 253f
00000390: d7c7 373f a014 ce3e b27e 113f c1ed 073f
000003a0: b020 323f 983b 763f 0f17 5f3f 34e8 493e
000003b0: ce4e 563f 765d da3e 0865 163e 1bd2 443f
000003c0: fd7e 0a3f b1a4 233f 4e3b 7a3f 609a 063e
000003d0: 360f 163f 293d 423f 04c6 2f3f 1a3c 2c3f
000003e0: 3251 6a3f 2859 923e 3ce9 d83e 5828 2e3e
000003f0: 2cf6 0b3f aed2 1a3f 9c44 193f 966c c33e

fc1_bn.bias f4 [400]
0.0 0.0 0.0 0.0 0.0 0.0 0.0 0.0
0.0 0.0 0.0 0.0 0.0 0.0 0.0 0.0
0.0 0.0 0.0 0.0 0.0 0.0 0.0 0.0
0.0 0.0 0.0 0.0 0.0 0.0 0.0 0.0
0.0 0.0 0.0 0.0 0.0 0.0 0.0 0.0
0.0 0.0 0.0 0.0 0.0 0.0 0.0 0.0
0.0 0.0 0.0 0.0 0.0 0.0 0.0 0.0
0.0 0.0 0.0 0.0 0.0 0.0 0.0 0.0
0.0 0.0 0.0 0.0 0.0 0.0 0.0 0.0
0.0 0.0 0.0 0.0 0.0 0.0 0.0 0.0
0.0 0.0 0.0 0.0 0.0 0.0 0.0 0.0
0.0 0.0 0.0 0.0 0.0 0.0 0.0 0.0
0.0 0.0 0.0 0.0 0.0 0.0 0.0 0.0
0.0 0.0 0.0 0.0 0.0 0.0 0.0 0.0
0.0 0.0 0.0 0.0 0.0 0.0 0.0 0.0
0.0 0.0 0.0 0.0 0.0 0.0 0.0 0.0
0.0 0.0 0.0 0.0 0.0 0.0 0.0 0.0
0.0 0.0 0.0 0.0 0.0 0.0 0.0 0.0
0.0 0.0 0.0 0.0 0.0 0.0 0.0 0.0
0.0 0.0 0.0 0.0 0.0 0.0 0.0 0.0
0.0 0.0 0.0 0.0 0.0 0.0 0.0 0.0
0.0 0.0 0.0 0.0 0.0 0.0 0.0 0.0
0.0 0.0 0.0 0.0 0.0 0.0 0.0 0.0
0.0 0.0 0.0 0.0 0.0 0.0 0.0 0.0
0.0 0.0 0.0 0.0 0.0 0.0 0.0 0.0
0.0 0.0 0.0 0.0 0.0 0.0 0.0 0.0
0.0 0.0 0.0 0.0 0.0 0.0 0.0 0.0
0.0 0.0 0.0 0.0 0.0 0.0 0.0 0.0
0.0 0.0 0.0 0.0 0.0 0.0 0.0 0.0
0.0 0.0 0.0 0.0 0.0 0.0 0.0 0.0
0.0 0.0 0.0 0.0 0.0 0.0 0.0 0.0
0.0 0.0 0.0 0.0 0.0 0.0 0.0 0.0
00000000: 0000 0000 0000 0000 0000 0000 0000 0000
00000010: 0000 0000 0000 0000 0000 0000 0000 0000
00000020: 0000 0000 0000 0000 0000 0000 0000 0000
00000030: 0000 0000 0000 0000 0000 0000 0000 0000
00000040: 0000 0000 0000 0000 0000 0000 0000 0000
00000050: 0000 0000 0000 0000 0000 0000 0000 0000
00000060: 0000 0000 0000 0000 0000 0000 0000 0000
00000070: 0000 0000 0000 0000 0000 0000 0000 0000
00000080: 0000 0000 0000 0000 0000 0000 0000 0000
00000090: 0000 0000 0000 0000 0000 0000 0000 0000
000000a0: 0000 0000 0000 0000 0000 0000 0000 0000
000000b0: 0000 0000 0000 0000 0000 0000 0000 0000
000000c0: 0000 0000 0000 0000 0000 0000 0000 0000
000000d0: 0000 0000 0000 0000 0000 0000 0000 0000
000000e0: 0000 0000 0000 0000 0000 0000 0000 0000
000000f0: 0000 0000 0000 0000 0000 0000 0000 0000
00000100: 0000 0000 0000 0000 0000 0000 0000 0000
00000110: 0000 0000 0000 0000 0000 0000 0000 0000
00000120: 0000 0000 0000 0000 0000 0000 0000 0000
00000130: 0000 0000 0000 0000 0000 0000 0000 0000
00000140: 0000 0000 0000 0000 0000 0000 0000 0000
00000150: 0000 0000 0000 0000 0000 0000 0000 0000
00000160: 0000 0000 0000 0000 0000 0000 0000 0000
00000170: 0000 0000 0000 0000 0000 0000 0000 0000
00000180: 0000 0000 0000 0000 0000 0000 0000 0000
00000190: 0000 0000 0000 0000 0000 0000 0000 0000
000001a0: 0000 0000 0000 0000 0000 0000 0000 0000
000001b0: 0000 0000 0000 0000 0000 0000 0000 0000
000001c0: 0000 0000 0000 0000 0000 0000 0000 0000
000001d0: 0000 0000 0000 0000 0000 0000 0000 0000
000001e0: 0000 0000 0000 0000 0000 0000 0000 0000
000001f0: 0000 0000 0000 0000 0000 0000 0000 0000
00000200: 0000 0000 0000 0000 0000 0000 0000 0000
00000210: 0000 0000 0000 0000 0000 0000 0000 0000
00000220: 0000 0000 0000 0000 0000 0000 0000 0000
00000230: 0000 0000 0000 0000 0000 0000 0000 0000
00000240: 0000 0000 0000 0000 0000 0000 0000 0000
00000250: 0000 0000 0000 0000 0000 0000 0000 0000
00000260: 0000 0000 0000 0000 0000 0000 0000 0000
00000270: 0000 0000 0000 0000 0000 0000 0000 0000
00000280: 0000 0000 0000 0000 0000 0000 0000 0000
00000290: 0000 0000 0000 0000 0000 0000 0000 0000
000002a0: 0000 0000 0000 0000 0000 0000 0000 0000
000002b0: 0000 0000 0000 0000 0000 0000 0000 0000
000002c0: 0000 0000 0000 0000 0000 0000 0000 0000
000002d0: 0000 0000 0000 0000 0000 0000 0000 0000
000002e0: 0000 0000 0000 0000 0000 0000 0000 0000
000002f0: 0000 0000 0000 0000 0000 0000 0000 0000
00000300: 0000 0000 0000 0000 0000 0000 0000 0000
00000310: 0000 0000 0000 0000 0000 0000 0000 0000
00000320: 0000 0000 0000 0000 0000 0000 0000 0000
00000330: 0000 0000 0000 0000 0000 0000 0000 0000
00000340: 0000 0000 0000 0000 0000 0000 0000 0000
00000350: 0000 0000 0000 0000 0000 0000 0000 0000
00000360: 0000 0000 0000 0000 0000 0000 0000 0000
00000370: 0000 0000 0000 0000 0000 0000 0000 0000
00000380: 0000 0000 0000 0000 0000 0000 0000 0000
00000390: 0000 0000 0000 0000 0000 0000 0000 0000
000003a0: 0000 0000 0000 0000 0000 0000 0000 0000
000003b0: 0000 0000 0000 0000 0000 0000 0000 0000
000003c0: 0000 0000 0000 0000 0000 0000 0000 0000
000003d0: 0000 0000 0000 0000 0000 0000 0000 0000
000003e0: 0000 0000 0000 0000 0000 0000 0000 0000
000003f0: 0000 0000 0000 0000 0000 0000 0000 0000

fc1_bn.running_mean f4 [400]
0.0 0.0 0.0 0.0 0.0 0.0 0.0 0.0
0.0 0.0 0.0 0.0 0.0 0.0 0.0 0.0
0.0 0.0 0.0 0.0 0.0 0.0 0.0 0.0
0.0 0.0 0.0 0.0 0.0 0.0 0.0 0.0
0.0 0.0 0.0 0.0 0.0 0.0 0.0 0.0
0.0 0.0 0.0 0.0 0.0 0.0 0.0 0.0
0.0 0.0 0.0 0.0 0.0 0.0 0.0 0.0
0.0 0.0 0.0 0.0 0.0 0.0 0.0 0.0
0.0 0.0 0.0 0.0 0.0 0.0 0.0 0.0
0.0 0.0 0.0 0.0 0.0 0.0 0.0 0.0
0.0 0.0 0.0 0.0 0.0 0.0 0.0 0.0
0.0 0.0 0.0 0.0 0.0 0.0 0.0 0.0
0.0 0.0 0.0 0.0 0.0 0.0 0.0 0.0
0.0 0.0 0.0 0.0 0.0 0.0 0.0 0.0
0.0 0.0 0.0 0.0 0.0 0.0 0.0 0.0
0.0 0.0 0.0 0.0 0.0 0.0 0.0 0.0
0.0 0.0 0.0 0.0 0.0 0.0 0.0 0.0
0.0 0.0 0.0 0.0 0.0 0.0 0.0 0.0
0.0 0.0 0.0 0.0 0.0 0.0 0.0 0.0
0.0 0.0 0.0 0.0 0.0 0.0 0.0 0.0
0.0 0.0 0.0 0.0 0.0 0.0 0.0 0.0
0.0 0.0 0.0 0.0 0.0 0.0 0.0 0.0
0.0 0.0 0.0 0.0 0.0 0.0 0.0 0.0
0.0 0.0 0.0 0.0 0.0 0.0 0.0 0.0
0.0 0.0 0.0 0.0 0.0 0.0 0.0 0.0
0.0 0.0 0.0 0.0 0.0 0.0 0.0 0.0
0.0 0.0 0.0 0.0 0.0 0.0 0.0 0.0
0.0 0.0 0.0 0.0 0.0 0.0 0.0 0.0
0.0 0.0 0.0 0.0 0.0 0.0 0.0 0.0
0.0 0.0 0.0 0.0 0.0 0.0 0.0 0.0
0.0 0.0 0.0 0.0 0.0 0.0 0.0 0.0
0.0 0.0 0.0 0.0 0.0 0.0 0.0 0.0
00000000: 0000 0000 0000 0000 0000 0000 0000 0000
00000010: 0000 0000 0000 0000 0000 0000 0000 0000
00000020: 0000 0000 0000 0000 0000 0000 0000 0000
00000030: 0000 0000 0000 0000 0000 0000 0000 0000
00000040: 0000 0000 0000 0000 0000 0000 0000 0000
00000050: 0000 0000 0000 0000 0000 0000 0000 0000
00000060: 0000 0000 0000 0000 0000 0000 0000 0000
00000070: 0000 0000 0000 0000 0000 0000 0000 0000
00000080: 0000 0000 0000 0000 0000 0000 0000 0000
00000090: 0000 0000 0000 0000 0000 0000 0000 0000
000000a0: 0000 0000 0000 0000 0000 0000 0000 0000
000000b0: 0000 0000 0000 0000 0000 0000 0000 0000
000000c0: 0000 0000 0000 0000 0000 0000 0000 0000
000000d0: 0000 0000 0000 0000 0000 0000 0000 0000
000000e0: 0000 0000 0000 0000 0000 0000 0000 0000
000000f0: 0000 0000 0000 0000 0000 0000 0000 0000
00000100: 0000 0000 0000 0000 0000 0000 0000 0000
00000110: 0000 0000 0000 0000 0000 0000 0000 0000
00000120: 0000 0000 0000 0000 0000 0000 0000 0000
00000130: 0000 0000 0000 0000 0000 0000 0000 0000
00000140: 0000 0000 0000 0000 0000 0000 0000 0000
00000150: 0000 0000 0000 0000 0000 0000 0000 0000
00000160: 0000 0000 0000 0000 0000 0000 0000 0000
00000170: 0000 0000 0000 0000 0000 0000 0000 0000
00000180: 0000 0000 0000 0000 0000 0000 0000 0000
00000190: 0000 0000 0000 0000 0000 0000 0000 0000
000001a0: 0000 0000 0000 0000 0000 0000 0000 0000
000001b0: 0000 0000 0000 0000 0000 0000 0000 0000
000001c0: 0000 0000 0000 0000 0000 0000 0000 0000
000001d0: 0000 0000 0000 0000 0000 0000 0000 0000
000001e0: 0000 0000 0000 0000 0000 0000 0000 0000
000001f0: 0000 0000 0000 0000 0000 0000 0000 0000
00000200: 0000 0000 0000 0000 0000 0000 0000 0000
00000210: 0000 0000 0000 0000 0000 0000 0000 0000
00000220: 0000 0000 0000 0000 0000 0000 0000 0000
00000230: 0000 0000 0000 0000 0000 0000 0000 0000
00000240: 0000 0000 0000 0000 0000 0000 0000 0000
00000250: 0000 0000 0000 0000 0000 0000 0000 0000
00000260: 0000 0000 0000 0000 0000 0000 0000 0000
00000270: 0000 0000 0000 0000 0000 0000 0000 0000
00000280: 0000 0000 0000 0000 0000 0000 0000 0000
00000290: 0000 0000 0000 0000 0000 0000 0000 0000
000002a0: 0000 0000 0000 0000 0000 0000 0000 0000
000002b0: 0000 0000 0000 0000 0000 0000 0000 0000
000002c0: 0000 0000 0000 0000 0000 0000 0000 0000
000002d0: 0000 0000 0000 0000 0000 0000 0000 0000
000002e0: 0000 0000 0000 0000 0000 0000 0000 0000
000002f0: 0000 0000 0000 0000 0000 0000 0000 0000
00000300: 0000 0000 0000 0000 0000 0000 0000 0000
00000310: 0000 0000 0000 0000 0000 0000 0000 0000
00000320: 0000 0000 0000 0000 0000 0000 0000 0000
00000330: 0000 0000 0000 0000 0000 0000 0000 0000
00000340: 0000 0000 0000 0000 0000 0000 0000 0000
00000350: 0000 0000 0000 0000 0000 0000 0000 0000
00000360: 0000 0000 0000 0000 0000 0000 0000 0000
00000370: 0000 0000 0000 0000 0000 0000 0000 0000
00000380: 0000 0000 0000 0000 0000 0000 0000 0000
00000390: 0000 0000 0000 0000 0000 0000 0000 0000
000003a0: 0000 0000 0000 0000 0000 0000 0000 0000
000003b0: 0000 0000 0000 0000 0000 0000 0000 0000
000003c0: 0000 0000 0000 0000 0000 0000 0000 0000
000003d0: 0000 0000 0000 0000 0000 0000 0000 0000
000003e0: 0000 0000 0000 0000 0000 0000 0000 0000
000003f0: 0000 0000 0000 0000 0000 0000 0000 0000

fc1_bn.running_var f4 [400]
1.0 1.0 1.0 1.0 1.0 1.0 1.0 1.0
1.0 1.0 1.0 1.0 1.0 1.0 1.0 1.0
1.0 1.0 1.0 1.0 1.0 1.0 1.0 1.0
1.0 1.0 1.0 1.0 1.0 1.0 1.0 1.0
1.0 1.0 1.0 1.0 1.0 1.0 1.0 1.0
1.0 1.0 1.0 1.0 1.0 1.0 1.0 1.0
1.0 1.0 1.0 1.0 1.0 1.0 1.0 1.0
1.0 1.0 1.0 1.0 1.0 1.0 1.0 1.0
1.0 1.0 1.0 1.0 1.0 1.0 1.0 1.0
1.0 1.0 1.0 1.0 1.0 1.0 1.0 1.0
1.0 1.0 1.0 1.0 1.0 1.0 1.0 1.0
1.0 1.0 1.0 1.0 1.0 1.0 1.0 1.0
1.0 1.0 1.0 1.0 1.0 1.0 1.0 1.0
1.0 1.0 1.0 1.0 1.0 1.0 1.0 1.0
1.0 1.0 1.0 1.0 1.0 1.0 1.0 1.0
1.0 1.0 1.0 1.0 1.0 1.0 1.0 1.0
1.0 1.0 1.0 1.0 1.0 1.0 1.0 1.0
1.0 1.0 1.0 1.0 1.0 1.0 1.0 1.0
1.0 1.0 1.0 1.0 1.0 1.0 1.0 1.0
1.0 1.0 1.0 1.0 1.0 1.0 1.0 1.0
1.0 1.0 1.0 1.0 1.0 1.0 1.0 1.0
1.0 1.0 1.0 1.0 1.0 1.0 1.0 1.0
1.0 1.0 1.0 1.0 1.0 1.0 1.0 1.0
1.0 1.0 1.0 1.0 1.0 1.0 1.0 1.0
1.0 1.0 1.0 1.0 1.0 1.0 1.0 1.0
1.0 1.0 1.0 1.0 1.0 1.0 1.0 1.0
1.0 1.0 1.0 1.0 1.0 1.0 1.0 1.0
1.0 1.0 1.0 1.0 1.0 1.0 1.0 1.0
1.0 1.0 1.0 1.0 1.0 1.0 1.0 1.0
1.0 1.0 1.0 1.0 1.0 1.0 1.0 1.0
1.0 1.0 1.0 1.0 1.0 1.0 1.0 1.0
1.0 1.0 1.0 1.0 1.0 1.0 1.0 1.0
00000000: 0000 803f 0000 803f 0000 803f 0000 803f
00000010: 0000 803f 0000 803f 0000 803f 0000 803f
00000020: 0000 803f 0000 803f 0000 803f 0000 803f
00000030: 0000 803f 0000 803f 0000 803f 0000 803f
00000040: 0000 803f 0000 803f 0000 803f 0000 803f
00000050: 0000 803f 0000 803f 0000 803f 0000 803f
00000060: 0000 803f 0000 803f 0000 803f 0000 803f
00000070: 0000 803f 0000 803f 0000 803f 0000 803f
00000080: 0000 803f 0000 803f 0000 803f 0000 803f
00000090: 0000 803f 0000 803f 0000 803f 0000 803f
000000a0: 0000 803f 0000 803f 0000 803f 0000 803f
000000b0: 0000 803f 0000 803f 0000 803f 0000 803f
000000c0: 0000 803f 0000 803f 0000 803f 0000 803f
000000d0: 0000 803f 0000 803f 0000 803f 0000 803f
000000e0: 0000 803f 0000 803f 0000 803f 0000 803f
000000f0: 0000 803f 0000 803f 0000 803f 0000 803f
00000100: 0000 803f 0000 803f 0000 803f 0000 803f
00000110: 0000 803f 0000 803f 0000 803f 0000 803f
00000120: 0000 803f 0000 803f 0000 803f 0000 803f
00000130: 0000 803f 0000 803f 0000 803f 0000 803f
00000140: 0000 803f 0000 803f 0000 803f 0000 803f
00000150: 0000 803f 0000 803f 0000 803f 0000 803f
00000160: 0000 803f 0000 803f 0000 803f 0000 803f
00000170: 0000 803f 0000 803f 0000 803f 0000 803f
00000180: 0000 803f 0000 803f 0000 803f 0000 803f
00000190: 0000 803f 0000 803f 0000 803f 0000 803f
000001a0: 0000 803f 0000 803f 0000 803f 0000 803f
000001b0: 0000 803f 0000 803f 0000 803f 0000 803f
000001c0: 0000 803f 0000 803f 0000 803f 0000 803f
000001d0: 0000 803f 0000 803f 0000 803f 0000 803f
000001e0: 0000 803f 0000 803f 0000 803f 0000 803f
000001f0: 0000 803f 0000 803f 0000 803f 0000 803f
00000200: 0000 803f 0000 803f 0000 803f 0000 803f
00000210: 0000 803f 0000 803f 0000 803f 0000 803f
00000220: 0000 803f 0000 803f 0000 803f 0000 803f
00000230: 0000 803f 0000 803f 0000 803f 0000 803f
00000240: 0000 803f 0000 803f 0000 803f 0000 803f
00000250: 0000 803f 0000 803f 0000 803f 0000 803f
00000260: 0000 803f 0000 803f 0000 803f 0000 803f
00000270: 0000 803f 0000 803f 0000 803f 0000 803f
00000280: 0000 803f 0000 803f 0000 803f 0000 803f
00000290: 0000 803f 0000 803f 0000 803f 0000 803f
000002a0: 0000 803f 0000 803f 0000 803f 0000 803f
000002b0: 0000 803f 0000 803f 0000 803f 0000 803f
000002c0: 0000 803f 0000 803f 0000 803f 0000 803f
000002d0: 0000 803f 0000 803f 0000 803f 0000 803f
000002e0: 0000 803f 0000 803f 0000 803f 0000 803f
000002f0: 0000 803f 0000 803f 0000 803f 0000 803f
00000300: 0000 803f 0000 803f 0000 803f 0000 803f
00000310: 0000 803f 0000 803f 0000 803f 0000 803f
00000320: 0000 803f 0000 803f 0000 803f 0000 803f
00000330: 0000 803f 0000 803f 0000 803f 0000 803f
00000340: 0000 803f 0000 803f 0000 803f 0000 803f
00000350: 0000 803f 0000 803f 0000 803f 0000 803f
00000360: 0000 803f 0000 803f 0000 803f 0000 803f
00000370: 0000 803f 0000 803f 0000 803f 0000 803f
00000380: 0000 803f 0000 803f 0000 803f 0000 803f
00000390: 0000 803f 0000 803f 0000 803f 0000 803f
000003a0: 0000 803f 0000 803f 0000 803f 0000 803f
000003b0: 0000 803f 0000 803f 0000 803f 0000 803f
000003c0: 0000 803f 0000 803f 0000 803f 0000 803f
000003d0: 0000 803f 0000 803f 0000 803f 0000 803f
000003e0: 0000 803f 0000 803f 0000 803f 0000 803f
000003f0: 0000 803f 0000 803f 0000 803f 0000 803f

fc2.weight f4 [300, 400]
-0.03263537 -0.019254008 -0.052863058 -0.04435321 -0.041190974 0.013332995 0.038533542 -0.028811736
-0.035795797 -0.024061939 -0.028406942 -0.011245175 -0.006838475 -0.037426725 0.038230132 -0.028597
-0.026377732 -0.0068544545 0.021563211 -0.017963352 0.030793766 -0.016088532 -0.005273232 0.03561456
0.0008074354 -0.0363226 -0.015188515 -0.022064617 0.013743798 -0.048514783 0.03470462 -0.014602431
0.047082033 -0.0041776956 -0.04386648 -0.030308546 -0.00035441684 0.03196712 0.022471778 0.011071664
-0.03410314 0.044377577 -0.05756151 0.026531065 -0.023614852 -0.058055315 0.033977535 0.015771007
-0.011766966 0.05188134 0.043313324 0.034916032 -0.060341746 -0.04543952 0.03533607 0.009891899
0.03308863 -0.03884189 0.04351979 0.062996246 0.009452658 0.009478194 -0.004937137 -0.023594406
-0.059430085 -0.015977716 -0.06153625 0.0029238479 -0.01622452 0.021739382 0.046773583 0.04598635
0.008868369 0.06422057 -0.06769018 0.035795506 0.015947007 0.036501788 0.023759857 -0.022418668
-0.04236546 -0.0073203575 0.0015155085 0.056567635 -0.058230937 0.058430523 -0.058977086 -0.030166423
0.043673143 -0.06375356 -0.015385944 -0.04884793 -0.0016008192 0.07224609 0.015652567 -0.0035128542
0.027257934 -0.023431897 1.719773e-05 -0.07200076 0.029708995 0.057787012 -0.013404514 0.0011016028
-0.018255144 -0.01306303 -0.03597961 0.051073052 -0.020825628 0.05581001 -0.025214037 -0.009733844
-0.031192562 -0.048704546 0.053690936 -0.04466691 -0.0010956749 0.007572661 0.014433763 0.055118084
-0.00073815585 0.033156507 -0.007994687 -0.040857267 0.02409947 -0.008195373 -0.0313577 -0.0018690557
0.005583193 0.05096426 -0.01854066 -0.045317236 0.045875076 0.053556442 -0.0412814 0.045992624
-0.04578227 -0.052884445 0.009523374 0.048216525 0.06559446 -0.008746485 0.011875093 -0.030007282
0.015058301 0.04336148 -0.013404938 -0.017461482 -0.014557391 0.036212046 0.011565177 0.04055304
0.033258207 0.04368016 0.018041754 0.04982961 0.009609602 0.03638974 0.024044665 0.043625697
0.00056468934 0.03778175 0.006010937 0.008690035 0.0724104 0.015090499 -0.027490702 0.059555393
0.033008546 0.07093662 0.04971061 -0.026317967 0.019045325 -0.062357433 0.05192649 -0.02616198
0.05154187 -0.010820263 0.052411888 0.05806358 0.025188502 0.068442985 -0.047454037 -0.036426257
0.048686106 -0.06459438 0.009519456 -0.029816292 -0.01141862 0.06371082 -0.029181464 0.043480158
0.033752717 -0.020358281 -0.038268395 -0.0019920534 0.053878702 0.07492752 0.022151148 0.011746648
-0.0028441746 0.015656834 0.07123178 -0.023776451 -0.04309161 -0.04135158 -0.0026458139 -0.017678337
-0.044280842 0.021043692 0.06241214 -0.05780617 -0.0129587585 0.009100455 -0.030009286 0.06100129
-0.06957678 0.020869356 0.066012 -0.047149867 0.0061677233 -0.035229813 -0.04812968 0.035184473
0.015254744 -0.010036677 0.050082456 0.052839633 0.032495145 -0.033161078 0.024427995 0.041623577
0.008201572 -0.031149818 0.022171315 -0.050709892 0.014367258 0.04605204 0.06014377 0.06736678
-0.0038429059 0.013901202 -0.023475774 0.036628045 -0.061056074 -0.028773326 -0.058501568 -0.03026803
-0.039121337 0.07317009 -0.028481536 -0.017792717 0.06186012 0.02163031 -0.032707363 -0.031050693
00000000: aaac 05bd 95ba 9dbc ef86 58bd b6ab 35bd
00000010: deb7 28bd a272 5a3c 59d5 1d3d 9706 ecbc
00000020: 9d9e 12bd 8b1d c5bc adb5 e8bc af3d 38bc
00000030: 4915 e0bb c44c 19bd 3397 1c3d 4144 eabc
00000040: 1d16 d8bc 559b e0bb 55a5 b03c e127 93bc
00000050: 3543 fc3c 19cc 83bc 13cb acbb 93e0 113d
00000060: 13aa 533a 02c7 14bd 40d9 78bc dbc0 b4bc
00000070: ab2d 613c 70b7 46bd 6e26 0e3d 093f 6fbc
00000080: 17d9 403d 0de5 88bb 57ad 33bd a149 f8bc
00000090: 06d1 b9b9 f4ef 023d bc16 b83c ed65 353c
000000a0: bcaf 0bbd 43c5 353d 9ec5 6bbd ad57 d93c
000000b0: ef73 c1bc 69cb 6dbd 072c 0b3d 3332 813c
000000c0: 3cca 40bc 8781 543d 5069 313d 1d04 0f3d
000000d0: e828 77bd ca1e 3abd 8ebc 103d a211 223c
000000e0: f187 073d ac18 1fbd cf41 323d 2d04 813d
000000f0: 52df 1a3c 6d4a 1b3c b5c7 a1bb 0e49 c1bc
00000100: f66c 73bd b3e3 82bc 6f0d 7cbd 079e 3f3b
00000110: 49e9 84bc ca16 b23c a895 3f3d 2f5c 3c3d
00000120: a34c 113c 1386 833d 26a1 8abd 4f9e 123d
00000130: 4ca3 823c e682 153d 08a4 c23c 5ba7 b7bc
00000140: 6887 2dbd 9cdf efbb 07a4 c63a 77b3 673d
00000150: 9083 6ebd d854 6f3d f591 71bd 931f f7bc
00000160: 9ce2 323d 3a91 82bd 5415 7cbc c414 48bd
00000170: 94d2 d1ba c2f5 933d d039 803c ea37 66bb
00000180: 084c df3c 40f4 bfbc d843 9037 2275 93bd
00000190: 4760 f33c 13b2 6c3d 9b9e 5bbc a863 903a
000001a0: d08b 95bc 5206 56bc 5b5f 13bd fa31 513d
000001b0: 829a aabc 0999 643d ab8d cebc b37a 1fbc
000001c0: 8b87 ffbc 6b7e 47bd 07eb 5b3d a6f4 36bd
000001d0: c09c 8fba 1624 f83b 977b 6c3c 80c3 613d
000001e0: cd80 41ba 1ecf 073d 26fc 02bc f359 27bd
000001f0: 406c c53c e345 06bc ee70 00bd 1afb f4ba
00000200: 38f3 b63b e6bf 503d 95e2 97bc 919e 39bd
00000210: 81e7 3b3d 005e 5b3d af16 29bd c362 3c3d
00000220: 3186 3bbd 5c9d 58bd ed07 1c3c b17e 453d
00000230: 6356 863d 6b4d 0fbc c08f 423c d5d1 f5bc
00000240: 18b7 763c cf9b 313d 63a0 5bbc 620b 8fbc
00000250: 2082 6ebc 1553 143d de7b 3d3c f21a 263d
00000260: c239 083d f8e9 323d 4dcc 933c 221a 4c3d
00000270: 9871 1d3c 680d 153d 51f9 c43c dcb0 323d
00000280: a907 143a 09c1 1a3d 65f7 c43b a660 0e3c
00000290: e74b 943d 243e 773c 2e34 e1bc 5bf0 733d
000002a0: f833 073d 3847 913d 5a9d 4b3d c798 d7bc
000002b0: f104 9c3c 826a 7fbd dfb0 543d a651 d6bc
000002c0: 911d 533d 7947 31bc d9ad 563d 14d4 6d3d
000002d0: 1e58 ce3c d62b 8c3d 2a5f 42bd b333 15bd
000002e0: 156b 473d 0f4a 84bd 7ef7 1b3c 4c41 f4bc
000002f0: 2a15 3bbc d27a 823d f70d efbc 4018 323d
00000300: 4a40 0a3d 69c6 a6bc 52bf 1cbd 1c8d 02bb
00000310: eaaf 5c3d 9973 993d 5376 b53c 0375 403c
00000320: 5565 3abb c342 803c f8e1 913d d5c6 c2bc
00000330: d480 30bd 4660 29bd 6465 2dbb 29d2 90bc
00000340: d45f 35bd d263 ac3c dfa3 7f3d 2ac6 6cbd
00000350: f950 54bc 131a 153c 09d6 f5bc 7ddc 793d
00000360: 457e 8ebd 36f6 aa3c 4d31 873d 3820 41bd
00000370: 9d1a ca3b 234d 10bd a123 45bd 981d 103d
00000380: 09ef 793c e070 24bc 4323 4d3d 5f6e 583d
00000390: a119 053d e9d3 07bd 381d c83c 7c7d 2a3d
000003a0: e35f 063c e72d ffbc 9ea0 b53c 2db5 4fbd
000003b0: a664 6b3c 10a1 3c3d 5059 763d 98f7 893d
000003c0: 43d9 7bbb dec1 633c 4450 c0bc 4a07 163d
000003d0: ef15 7abd 0ab6 ebbc 579f 6fbd a9f4 f7bc
000003e0: b23d 20bd 33da 953d 1c52 e9bc 08c2 91bc
000003f0: 0a61 7d3d 0c32 b13c 28f8 05bd 065e febc

fc2.bias f4 [300]
0.020529063 0.06778329 -0.0020698817 0.0119723305 0.03823311 -0.005132835 -0.010965998 -0.034857348
0.011582511 0.03784009 -0.033529084 0.0008118547 0.005457828 -0.022872888 0.0024703005 -0.027893648
0.038323205 -0.011108335 0.02165674 -0.048993837 -0.052367855 0.02377593 0.005389584 -0.03301723
-0.002820224 -0.013276198 0.0064683254 0.058880057 -0.03671224 0.0659621 0.06570902 -0.04346328
-0.011737101 0.0059923576 -0.056277145 -0.0045177466 0.0072242385 -0.048516423 -0.017983593 0.03609951
-0.025421444 0.016102033 -0.0037601613 0.060889132 -0.010435907 0.03579754 -0.0047958684 0.006662234
0.00047117815 -0.037448764 -0.041201286 0.029714093 0.01137028 0.036656566 -0.027770162 0.013385246
0.027582614 -0.007843017 0.0115164975 0.05954568 0.044095784 -0.02881281 0.04619534 -0.039427243
0.012215811 -0.03498452 -0.019995779 0.010363021 -0.022233503 0.035553947 0.011027688 -0.019808276
0.004012753 0.0008872538 0.03188689 -0.0573953 0.05891594 0.04452767 0.0019298764 0.034310523
0.054250494 0.048088823 0.02708719 0.055445917 0.016861461 0.05692995 0.0079553975 0.05029021
-0.035711616 0.021964604 -0.019572059 0.019066907 0.04014695 -0.017502397 0.008268006 0.031364385
-0.061114497 0.007934659 0.036271375 0.013743636 0.02267138 0.02953042 -0.023372268 -0.05491957
0.0073403874 -0.022230286 0.0051416815 -0.008131421 -0.04148823 -0.038567983 0.027290301 -0.023902964
-0.014267576 -0.052625407 0.03191532 0.014636686 0.0181209 -0.017773246 0.009283599 0.017209988
0.04707613 -0.006154229 -0.015232394 -0.02400915 -0.013223823 0.039259925 -0.0009228997 0.0122642
-0.030175788 0.057477586 -0.028434703 -0.034841523 0.023637952 0.001705221 0.044757057 0.063954756
-0.04063878 0.0076606157 0.033513963 -0.015059708 -0.016436223 0.03846736 0.0066957623 -0.044422302
-0.004038225 0.013042532 -0.0033635164 0.08252419 -0.0049660257 -0.026467241 -0.026119882 0.06121205
-0.008315414 -0.012978981 0.03777238 0.019050969 0.0038706516 -0.01115052 0.003938514 0.032977395
0.0049399235 -0.001682736 0.009509718 0.010739777 0.0098089315 -0.025920352 0.030619971 -0.0024131504
-0.039153416 0.009040277 -0.035179436 -0.0063381684 0.050321385 0.032763336 0.010659173 -0.014330438
-0.0025506848 -0.013058038 0.00011897899 0.030815957 0.042163692 -0.016464207 -0.04485433 -0.051635735
0.029488953 0.0249121 -0.011532153 0.04241586 -0.014132701 -0.004832579 0.07889337 -0.030781947
0.020623742 0.020379815 0.042423286 -0.032621823 -0.012126688 0.0015790511 0.08258437 0.02300272
0.029876944 0.054173965 0.029339213 -0.0051840716 0.08605867 0.024116639 -0.057631318 0.029494775
0.037631758 0.05612749 0.057627775 0.017992059 -0.01785307 0.06820658 -0.005641891 0.0114862695
0.03234578 -0.008156445 -0.027691621 0.040447526 0.023791939 -0.056493968 -0.056698754 0.0520658
-0.016707534 0.07459466 -0.017120332 0.063222006 0.045779977 0.0018510823 0.022823391 -0.061715428
0.006425743 0.053141415 0.026898906 -0.0028448578 0.00078210543 0.023391793 0.01383081 -0.05579237
0.014141562 0.02058238 -0.0024498529 0.07376838 0.020442802 0.013573351 -0.009921319 -0.037289687
0.024023674 0.061170667 0.082132414 0.040213294 -0.062839344 -0.0015809737 0.042330842 -0.024153477
00000000: 912c a83c f7d1 8a3d daa6 07bb 9827 443c
00000010: 529a 1c3d 5731 a8bb bbaa 33bc 94c6 0ebd
00000020: 92c4 3d3c 36fe 1a3d cb55 09bd a6d2 543a
00000030: 94d7 b23b ec5f bbbc c4e4 213b 3881 e4bc
00000040: cbf8 1c3d bcff 35bc 7a69 b13c c3ad 48bd
00000050: ad7f 56bd bdc5 c23c 1c9b b03b 133d 07bd
00000060: 82d3 38bb 6984 59bc 3ff4 d33b 372c 713d
00000070: 935f 16bd 2317 873d 7392 863d 8d06 32bd
00000080: f84c 40bc 8a5b c43b dd82 66bd 9b09 94bb
00000090: 4eb9 ec3b 28b9 46bd 5452 93bc 14dd 133d
000000a0: a240 d0bc 69e8 833c 0a6d 76bb e266 793d
000000b0: 5efb 2abc 71a0 123d a926 9dbb df4e da3b
000000c0: 7608 f739 e063 19bd aec2 28bd f86a f33c
000000d0: 694a 3a3c 3225 163d 407e e3bc ca4d 5b3c
000000e0: eff4 e13c ff7f 00bc b1af 3c3c 2ce6 733d
000000f0: c89d 343d d808 ecbc 5337 3d3d 767e 21bd
00000100: d324 483c ee4b 0fbd 30ce a3bc a9c9 293c
00000110: 0923 b6bc 04a1 113d 7aad 343c f744 a2bc
00000120: 697d 833b 9896 683a d49b 023d 5617 6bbd
00000130: d751 713d a562 363d e8f3 fc3a 3189 0c3d
00000140: c435 5e3d c9f8 443d f4e5 dd3c 421b 633d
00000150: 0c21 8a3c 612f 693d 5b57 023c 1bfd 4d3d
00000160: 5846 12bd 1def b33c 9555 a0bc 3432 9c3c
00000170: 2171 243d 3061 8fbc 8876 073c f177 003d
00000180: 3253 7abd 5f00 023c 4b91 143d fd2c 613c
00000190: 54b9 b93c c8e9 f13c 3377 bfbc 58f3 60bd
000001a0: a287 f03b 4a1c b6bc 8d7b a83b a739 05bc
000001b0: 90ef 29bd 76f9 1dbd e98f df3c 26d0 c3bc
000001c0: 8dc2 69bc bd8d 57bd a3b9 023d b6ce 6f3c
000001d0: 4872 943c 3399 91bc 3d1a 183c f6fb 8c3c
000001e0: e6d2 403d 6aa9 c9bb 4b91 79bc d6ae c4bc
000001f0: bca8 58bc 04cf 203d c0ee 71ba c8ef 483c
00000200: 3733 f7bc 9e6d 6b3d e5ef e8bc fcb5 0ebd
00000210: 61a4 c13c b981 df3a 2d53 373d b6fa 823d
00000220: d974 26bd e705 fb3b f045 093d febc 76bc
00000230: 42a5 86bc f38f 1d3d 2068 db3b 29f4 35bd
00000240: 1653 84bb 58b0 553c 716e 5cbb 7102 a93d
00000250: 0bba a2bb d4d1 d8bc 5df9 d5bc 7db9 7a3d
00000260: 603d 08bc cba5 54bc 36b7 1a3d c710 9c3c
00000270: c2aa 7d3b acb0 36bc a60e 813b 4e13 073d
00000280: 15df a13b 408f dcba a6ce 1b3c e4f5 2f3c
00000290: a4b5 203c eb56 d4bc bcd6 fa3c f225 1ebb
000002a0: 555f 20bd ac1d 143c 5018 10bd 69b0 cfbb
000002b0: cc1d 4e3d d932 063d d0a3 2e3c 37ca 6abc
000002c0: 6429 27bb 62f1 55bc 5c84 f938 bf71 fc3c
000002d0: d6b3 2c3d f2df 86bc 2db9 37bd fe7f 53bd
000002e0: d192 f13c 7614 cc3c 5bf1 3cbc 41bc 2d3d
000002f0: d88c 67bc 9c5a 9ebb d992 a13d 6c2a fcbc
00000300: 1ff3 a83c 92f3 a63c 0ac4 2d3d 769e 05bd
00000310: 04af 46bc 2af8 ce3a ff21 a93d 3370 bc3c
00000320: 7ec0 f43c 85e5 5d3d ca58 f03c 25df a9bb
00000330: 873f b03d 4290 c53c d10e 6cbd 079f f13c
00000340: c223 1a3d f0e5 653d 1a0b 6c3d 1564 933c
00000350: 9a40 92bc e4af 8b3d 9ddf b8bb e830 3c3c
00000360: 027d 043d 9ca2 05bc 8ad9 e2bc 4eac 253d
00000370: 50e7 c23c 3866 67bd f43c 68bd f342 553d
00000380: 3dde 88bc 16c5 983d f03f 8cbc 8a7a 813d
00000390: c983 3b3d 04a0 f23a 1ff8 ba3c 51c9 7cbd
000003a0: 0a8f d23b d0aa 593d 185b dc3c cb70 3abb
000003b0: 3506 4d3a 25a0 bf3c 9f9a 623c 8a86 64bd
000003c0: 03b2 673c 619c a83c b68d 20bb e013 973d
000003d0: aa77 a73c c362 5e3c 078d 22bc 12bd 18bd
000003e0: 4ccd c43c 188e 7a3d 0a35 a83d b2b6 243d
000003f0: eab1 80bd ad38 cfba 1b63 2d3d 83dd c5bc

fc2_bn.weight f4 [300]
0.097055554 0.7275699 0.50607073 0.49811977 0.5670345 0.22226906 0.53197366 0.9788561
0.17785156 0.1261425 0.7797676 0.8947176 0.4854002 0.70000774 0.60247064 0.8909133
0.53473216 0.68847114 0.9672689 0.014427602 0.7870187 0.65556973 0.3210926 0.6059406
0.99808794 0.15319496 0.26031035 0.60845375 0.7237298 0.18578017 0.6165682 0.14357191
0.97279084 0.65672225 0.6287845 0.06640154 0.8309902 0.3129182 0.923785 0.87894815
0.36310512 0.8772891 0.8590325 0.5982017 0.5809409 0.96585435 0.2990846 0.4929152
0.26129293 0.7511064 0.9963212 0.36785907 0.968321 0.7689501 0.5713721 0.89280355
0.6762123 0.8702382 0.06837261 0.3611461 0.7181932 0.51040345 0.35422915 0.51901543
0.57942396 0.90787566 0.6020754 0.90356207 0.6295727 0.24900335 0.38422632 0.6132797
0.6508234 0.421826 0.6718019 0.08665204 0.33701694 0.2703024 0.44776565 0.57710904
0.8627031 0.32650077 0.41279936 0.6372609 0.32369995 0.73801297 0.7972259 0.7469289
0.54381907 0.53707105 0.1306619 0.24367297 0.8847085 0.0896036 0.26645166 0.9480131
0.876142 0.4530427 0.41659564 0.5057808 0.66300946 0.31143802 0.3687063 0.6952445
0.533477 0.61765176 0.54829234 0.8657713 0.18628705 0.28294277 0.80402905 0.18630481
0.88438785 0.6220993 0.052085638 0.17725772 0.073887885 0.60963905 0.36733687 0.42167032
0.6639618 0.037245512 0.0069264174 0.8377086 0.88437057 0.81605756 0.018943906 0.24522454
0.29027402 0.6317031 0.9837902 0.6603993 0.61389405 0.72744 0.41047865 0.68765706
0.8393537 0.26114815 0.14997679 0.43014675 0.8291183 0.18210667 0.79879445 0.82565355
0.094974995 0.5559708 0.44201344 0.88596547 0.2297222 0.28355515 0.41053528 0.3087771
0.9525827 0.09046632 0.6162426 0.6941832 0.6701729 0.63091415 0.923476 0.63943934
0.5156137 0.025982201 0.044516206 0.019208133 0.77861625 0.41847777 0.82764727 0.6982975
0.99789506 0.046077788 0.92711914 0.21767026 0.71972406 0.079983056 0.57167345 0.420789
0.7454307 0.7819876 0.8951274 0.6241664 0.6175369 0.51626635 0.38220125 0.9907152
0.7064881 0.7670786 0.11835277 0.34324253 0.9074693 0.098383605 0.19750774 0.8019398
0.86127895 0.9011141 0.5479961 0.26535767 0.8215689 0.740033 0.98093957 0.98354256
0.9598795 0.53088003 0.38062835 0.66127276 0.60010946 0.40890002 0.9196136 0.96938205
0.5008995 0.00047785044 0.089598715 0.28995347 0.8358747 0.2248959 0.0066936016 0.3709699
0.71361065 0.13162822 0.7318986 0.65897447 0.4405449 0.82284945 0.7706643 0.56483
0.43574107 0.94428515 0.88540405 0.77534044 0.24673802 0.42325145 0.71901685 0.9533256
0.079924405 0.46360332 0.61786675 0.8897922 0.5893435 0.7489396 0.030033171 0.41770595
0.39978468 0.38807917 0.1344046 0.84489465 0.34258235 0.671442 0.16246653 0.6758488
0.44892538 0.40357 0.24167633 0.12296176 0.083136976 0.8361665 0.76749647 0.43221253
00000000: 10c5 c63d 0542 3a3f da8d 013f 8e09 ff3e
00000010: 2c29 113f 809a 633e 6d2f 083f 5096 7a3f
00000020: b81e 363e 802b 013e d99e 473f 360c 653f
00000030: 6086 f83e b533 333f 843b 1a3f e512 643f
00000040: 35e4 083f a53f 303f ef9e 773f c061 6c3c
00000050: 0f7a 493f 6bd3 273f 4066 a43e ec1e 1b3f
00000060: b182 7f3f 24df 1c3e 6647 853e a0c3 1b3f
00000070: 5b46 393f 283d 3e3e 6ad7 1d3f 8404 133e
00000080: d208 793f f31e 283f 05f8 203f 88fd 873d
00000090: c6bb 543f d036 a03e 2c7d 6c3f bf02 613f
000000a0: eae8 b93e 0596 603f 8ee9 5b3f bf23 193f
000000b0: 8bb8 143f 3b42 773f 9e21 993e 625f fc3e
000000c0: 30c8 853e 8248 403f e80e 7f3f 0658 bc3e
000000d0: e3e3 773f ead9 443f 7145 123f c68e 643f
000000e0: 401c 2d3f eec7 5e3f f006 8c3d 24e8 b83e
000000f0: 82db 373f cda9 023f 865d b53e 32de 043f
00000100: 2155 143f 8a6a 683f 9d21 1a3f d84f 673f
00000110: ad2b 213f bcfa 7e3e 50b9 c43e e6ff 1c3f
00000120: 5d9c 263f 94f9 d73e 36fb 2b3f a076 b13d
00000130: 7c8d ac3e 1465 8a3e 8a41 e53e 6bbd 133f
00000140: 1cda 5c3f 1c2b a73e 705a d33e 8823 233f
00000150: 00bc a53e 6bee 3c3f ff16 4c3f bb36 3f3f
00000160: ba37 0b3f 7d7d 093f 3ccc 053e 6885 793e
00000170: 427c 623f 1882 b73d 5a6c 883e fdb0 723f
00000180: d84a 603f 36f5 e73e 064c d53e da7a 013f
00000190: fdba 293f ce74 9f3e 12c7 bc3e 8bfb 313f
000001a0: f391 083f 6d1e 1e3f e35c 0c3f 30a3 5d3f
000001b0: 08c2 3e3e e0dd 903e d9d4 4d3f b0c6 3e3e
000001c0: 3e67 623f e641 1f3f c057 553d 0c83 353e
000001d0: 8852 973d 4e11 1c3f 9413 bc3e 2ce5 d73e
000001e0: 67f9 293f c08e 183d 00f7 e23b 1274 563f
000001f0: 1c66 623f 26e9 503f 4030 9b3c 241c 7b3e
00000200: cc9e 943e 4bb7 213f add9 7b3f ee0f 293f
00000210: 2928 1d3f 8239 3a3f 422a d23e 4b0a 303f
00000220: e2df 563f 36b5 853e 8493 193e 323c dc3e
00000230: 1941 543f 2c7a 3a3e cb7d 4c3f 085e 533f
00000240: 4082 c23d 1a54 0e3f 964f e23e a2ce 623f
00000250: 4c3c 6b3e 242e 913e ae31 d23e 0818 9e3e
00000260: 76dc 733f 6846 b93d 13c2 1d3f fdb5 313f
00000270: 7490 2b3f 9783 213f ec68 6c3f 4cb2 233f
00000280: 42ff 033f a0d8 d43c a056 363d 605a 9d3c
00000290: 6553 473f b842 d63e b1e0 533f a0c3 323f
000002a0: 0d76 7f3f 10bc 3c3d ae57 6d3f f4e4 5e3e
000002b0: d63f 383f 28ce a33d 3159 123f a871 d73e
000002c0: 8cd4 3e3f 5730 483f 1227 653f 5fc9 1f3f
000002d0: e616 1e3f 082a 043f e2af c33e 839f 7d3f
000002e0: 67dc 343f 435f 443f f062 f23d 7cbd af3e
000002f0: e84f 683f 587d c93d 783f 4a3e ed4b 4d3f
00000300: c77c 5c3f 6aaf 663f 7949 0c3f f6dc 873e
00000310: 5752 523f cd72 3d3f db1e 7b3f 72c9 7b3f
00000320: aaba 753f c1e7 073f b8e1 c23e 2c49 293f
00000330: c6a0 193f 585b d13e cc6b 6b3f 6c29 783f
00000340: f33a 003f 0088 fa39 887f b73d c874 943e
00000350: e2fb 553f 1c4b 663e 0056 db3b c4ef bd3e
00000360: 30af 363f 8cc9 063e b55d 3b3f 8db2 283f
00000370: 1a8f e13e 43a6 523f 414a 453f b398 103f
00000380: 7419 df3e acbc 713f d7a9 623f b67c 463f
00000390: e4a8 7c3e 6ab4 d83e 7d11 383f 260d 743f
000003a0: 68af a33d 6a5d ed3e 842c 1e3f 6cc9 633f
000003b0: 37df 163f 81ba 3f3f 2008 f63c 8edd d53e
000003c0: 94b0 cc3e 50b2 c63e 5ca1 093e 044b 583f
000003d0: f466 af3e 9fe3 2b3f a05d 263e 6d04 2d3f
000003e0: 8cd9 e53e baa0 ce3e 007a 773e 60d3 fb3d
000003f0: b843 aa3d 020f 563f a67a 443f f64a dd3e
