agent_checkpoints/checkpoint_actor_4.pth (torch_old, 553585 bytes, 14 tensors)

fc1.weight f4 [400, 33]
000000 53 d5 06 bd b1 85 74 bd 09 ae 5e bc 92 10 9e ba
       -0.032918286 -0.05969781 -0.013591298 -0.0012059382
000010 0a de 26 bd e4 43 ba 3b 02 27 a6 3c d3 bd 48 3d
       -0.040739097 0.0056843627 0.020282272 0.049009155
000020 56 41 12 bb 4a 11 45 3d d1 d6 4b bd 0e 18 c3 3c
       -0.0022316775 0.04811219 -0.04976541 0.023815181
000030 72 e7 05 3d de c9 10 bd d3 09 9d bc cf 93 66 3c
       0.032691427 -0.035348766 -0.019169724 0.014073326
000040 b8 db 5a 3d 7d 42 30 bd 1f e8 30 3d 2d 42 83 bd
       0.053432196 -0.04303216 0.043190118 -0.064091064
000050 da 84 2a 3c 0c 19 9b 3c 92 04 43 bd 70 90 77 3c
       0.010407651 0.018932842 -0.04761178 0.01511012
000060 a2 1f 21 bd d9 45 65 3d a7 b8 9d bd 8e da ab bd
       -0.039336808 0.055974815 -0.07701235 -0.083912954
000070 5f 9a 22 bd 18 dd ce 3b 8d 3d 90 3d 92 d9 f1 3c
       -0.039698 0.0063129775 0.0704299 0.02952269
000080 84 c7 52 bd 09 3b ae 3c 88 cd c1 3c 9f ed a6 3c
       -0.051459804 0.021268385 0.023657575 0.020376978
000090 18 1f 42 bd 63 ab 04 bc ae 57 d0 bc 1a a0 c4 3a
       -0.047392935 -0.008097502 -0.025432434 0.0015001327
0000a0 4d e0 1e 3d c8 d2 4d bd 83 11 a2 3c 1a 0b 83 bc
       0.03878813 -0.050249845 0.01978374 -0.015996505
0000b0 0e a2 05 bd de 1f 30 bc 66 90 f4 3c 73 71 a1 3c
       -0.03262525 -0.010749785 0.02985401 0.019707417
0000c0 bb 93 10 bd 85 f8 70 3b 08 c9 90 3c 2b d3 43 bc
       -0.035297137 0.0036769223 0.017673984 -0.011952202
0000d0 f6 60 f7 3b 87 0c 1e 3d f1 ae c1 bb d6 f2 3a bc
       0.0075494004 0.038586166 -0.005910747 -0.011410436
0000e0 e7 d3 4a bd fb 20 6a bb 04 c8 04 3d 58 8f 51 3d
       -0.049518492 -0.0035725224 0.032417312 0.051162094
0000f0 b0 c5 3e 3d cf 1b 21 bd 80 21 18 3c d4 88 15 bd
       0.04657525 -0.03933316 0.009285331 -0.036507443
000100 57 29 1d 3d c9 10 0a 3d 95 2d 10 3c 8c a4 70 bc
       0.038369503 0.033707414 0.00879993 -0.0146876685
000110 76 93 9a 3c 5c f3 aa bb 17 f3 56 bd e5 e5 df 3c
       0.018869143 -0.005216999 -0.052477922 0.027331302
000120 8e 19 3f 3b 79 0a 8c 3d 2e ad 3d 3c 15 1d 21 bb
       0.002915952 0.06837935 0.011576934 -0.0024583985
000130 64 da 13 3d 83 af 6b bd 71 29 32 bd d7 ce 89 bd
       0.036096945 -0.057540428 -0.043496553 -0.06728905
000140 59 eb 49 bd 4f e0 17 3d 4e 95 18 3d 00 b6 0c 3c
       -0.04929671 0.03707915 0.037251763 0.008588314
000150 bd dd 10 bd 10 5b c4 3c 4f 89 b6 bc 37 4d de bb
       -0.035367716 0.023969203 -0.02228227 -0.006784107
000160 9f d2 52 3d e3 96 2b 3d 82 c2 12 bd a8 fd 44 bd
       0.051470395 0.041891944 -0.03583003 -0.048093468
000170 35 bc 94 bd 4e 47 97 bd 3b eb 10 bd 46 51 14 bd
       -0.0726246 -0.07386647 -0.035380583 -0.03621032
000180 ba a5 06 3d 5d f3 03 bd b9 6c 62 3d 3d e2 23 3c
       0.032872893 -0.03221451 0.055279467 0.01000267
000190 6f 74 ae bc 96 6a 7c 3d a6 be d0 3c 31 e9 3a 3d
       -0.021295754 0.061625086 0.025481533 0.045632545
0001a0 b5 05 39 3d e7 f6 18 3d 60 a9 c8 bc 87 2f 90 bd
       0.04517146 0.03734484 -0.024494827 -0.07040315
0001b0 33 3d 80 3c 8c 36 8e 3a 08 5c 04 bd 5f 7f c4 bc
       0.015654182 0.0010849996 -0.03231433 -0.023986517
0001c0 7a fe 1e bd 18 c1 cd bc 33 9c 0d 3d 21 62 df 3b
       -0.038816907 -0.025116488 0.03457279 0.006817118
0001d0 29 a2 30 bd 3c 1d 05 bd d1 f3 76 ba 5c 7c 5e 3c
       -0.043123398 -0.032498583 -0.0009420487 0.013579454
0001e0 65 19 bd 3c ab cf 71 3d 7a ff 43 bd b6 a2 e4 3c
       0.023083398 0.05903594 -0.047851063 0.027909618
0001f0 52 f3 16 3d 04 32 21 bd 3e 29 0a 3d a8 c3 6e bd
       0.036853142 -0.03935434 0.033730738 -0.05829206
000200 8b f9 33 3d 27 28 25 bb 00 49 e4 39 52 3a 7d 3c
       0.043939155 -0.0025200935 0.00043541938 0.015455799
000210 b8 89 8f 3c 42 77 03 bc cf a9 29 bd dc cb 1e 3d
       0.017521724 -0.008024039 -0.041421708 0.038768634
000220 7d 3e 80 3d 97 df 3c bb 8f 1f 82 bd b6 a4 83 3d
       0.06261919 -0.0028819793 -0.063536756 0.064279005
000230 43 5e fd 3c d1 d2 f9 bc 4e f4 b9 3b 54 e1 a8 3c
       0.030928737 -0.030496033 0.0056748753 0.020615257
000240 81 64 32 bc 5e 65 68 3d b5 e4 1d 3d f5 7f 4d 3c
       -0.01088822 0.056737296 0.03854819 0.012542714
000250 02 06 38 3d f5 d7 c0 3b cb a8 ff 3c 90 ef b3 3b
       0.044927604 0.005885119 0.031208416 0.0054912046
000260 73 85 5e 3d d3 9c 91 ba 4a fc 3d 3b ad d0 c8 bc
       0.054326486 -0.0011109359 0.0028989487 -0.024513567
000270 b7 17 d3 3c 61 87 b5 bc 6b a7 c4 bd 73 5b 0c bd
       0.025768144 -0.02215928 -0.09602245 -0.0342669
000280 23 87 31 3d 00 33 57 bb f0 33 47 3c f3 b7 18 bd
       0.043341767 -0.0032836795 0.012158379 -0.037284803
000290 e4 0c 41 bd 95 c1 2f 3c 95 d5 41 bd 91 9f 1a 3d
       -0.047131434 0.010727306 -0.04732283 0.03774983
0002a0 9a 06 14 3d 83 bc 03 3d 22 7f f5 3c 8e 35 0f bc
       0.03613911 0.0321622 0.029967848 -0.008740796
0002b0 b2 66 93 3c 75 aa fb ba f3 6a 4c 3d 68 a8 42 3d
       0.017993305 -0.001920058 0.049906682 0.047523886
0002c0 39 e7 00 3d 68 62 1b bd 6a 38 95 bc 0d b7 5f bd
       0.03147051 -0.037935644 -0.018215377 -0.05461793
0002d0 81 dc 23 3d 34 82 a8 bb bf e0 cf bb 59 bb 40 3d
       0.04000521 -0.0051424745 -0.0063439305 0.04705367
0002e0 9f 47 78 3c 5d 44 19 bc 48 88 2d bb 10 12 46 bc
       0.015153795 -0.009354678 -0.0026478935 -0.012089267
0002f0 47 d4 93 bc f8 93 0c bd 1e c2 4b bd 8e 48 04 bd
       -0.018045558 -0.0343208 -0.04974567 -0.032295756
000300 99 bc 95 3b 4f 6b 1f bd e4 e4 70 3c de 52 a5 3b
       0.0045696017 -0.038920697 0.014703009 0.005045279
000310 41 82 30 3d 96 b2 d6 3c 9f c3 61 bd 57 00 29 bd
       0.04309297 0.026208203 -0.0551182 -0.04126009
000320 9d f2 83 bb ce aa c8 3c 09 70 ce 3c ef 61 52 bc
       -0.0040267245 0.024495509 0.025199907 -0.012840732
000330 a4 6f 84 bb ae 53 90 bc 91 60 67 3c 7a 98 d6 bb
       -0.004041629 -0.017618027 0.014122144 -0.0065489383
000340 b1 18 54 3d a5 30 5a bd dd db 7f 3c ca ee 68 bd
       0.05178136 -0.053269047 0.015616384 -0.056868352
000350 55 40 bf bc 54 75 7f 3c 62 14 d9 3b 4e 72 0e bd
       -0.023346106 0.015591938 0.0066247443 -0.03477698
000360 9a c3 cf bb 90 be 64 3c f9 d3 f8 3c fa 96 14 bd
       -0.006340456 0.013961449 0.030374514 -0.036276795
000370 11 07 2f 3d 3f d2 50 3d 53 37 bd 3c 2e 0c 99 bc
       0.04273135 0.050981756 0.02309767 -0.018682566
000380 33 d9 af bc 0a 93 c9 bc 47 d4 54 bd a6 f1 85 bc
       -0.021465873 -0.024606247 -0.051960256 -0.016350579
000390 14 a3 51 3d da a3 4a bd 30 94 fa bb 50 0f a2 3a
       0.051180914 -0.049472667 -0.00764706 0.0012364183
0003a0 9a 19 a6 3c 5f 68 0b bd d0 29 81 3a 29 6f 4f ba
       0.02027588 -0.034035083 0.000985438 -0.00079129875
0003b0 c2 32 af b8 cf c7 25 bd 32 85 11 bd ec 75 08 3d
       -8.354105e-05 -0.040473755 -0.035527416 0.033315584
0003c0 5c 56 a3 3b e3 67 6d 3b 66 aa d0 bb bb 88 e3 bc
       0.00498466 0.0036225251 -0.0063679693 -0.02777516
0003d0 4c 3b 9f 3d 76 68 f8 3b b9 0f 87 3b 67 62 0c ba
       0.07774982 0.007580812 0.0041217473 -0.0005355239
0003e0 71 8f 4c 3c ff ca bb 3c 35 b9 84 3d 4a ec 48 3c
       0.012485371 0.022923945 0.06480638 0.012263367
0003f0 f9 24 0b 3d cb 34 51 3d 60 4b 02 ba 45 0b ff 3c
       0.033970807 0.051075738 -0.0004970338 0.031133303

fc1.bias f4 [400]
000000 d6 18 09 3b 48 57 27 be c1 1b 36 3e 50 20 67 3c
       0.0020919344 -0.16341889 0.17784025 0.014106825
000010 76 9c b9 bd 6e a4 00 3e 4d 78 07 3e 5d 37 66 bb
       -0.09063046 0.12562725 0.13229485 -0.0035128214
000020 19 2c c7 bd 8e 39 2b 3e ae 26 e3 3d 5b 20 01 be
       -0.09725208 0.16721174 0.11091362 -0.12609999
000030 da 6c 09 bd 24 b0 6f bc 9b bd b2 3d 3e d2 74 bc
       -0.033551075 -0.014629398 0.087275706 -0.014942704
000040 d9 27 2b 3e ee f8 1d 3d 51 ba 05 3e 5e 23 cf bd
       0.1671442 0.038567476 0.13059355 -0.10114168
000050 0e 99 11 3e 0f ab c4 3c 24 00 b4 3d a6 4c 58 bd
       0.14218542 0.024007348 0.08789089 -0.052807473
000060 34 35 0c be 27 a0 a7 bc d4 71 61 3d 7a 38 08 3e
       -0.1369217 -0.020462109 0.055040196 0.13302794
000070 65 d6 d5 3a a1 c5 f3 bd 9d aa 1d 3d 81 16 e3 bd
       0.0016314505 -0.11902929 0.038492788 -0.11088277
000080 c3 5d e7 3d 9f 4d 58 3d e0 a8 bb bc 92 17 df bd
       0.112971805 0.0528084 -0.022907674 -0.108931676
000090 7e 51 bc 3c a0 82 2e 3e 19 1a 0e be 6f 33 56 bd
       0.022988077 0.17042017 -0.13877143 -0.052295145
0000a0 03 86 3c bd 38 9d 3f 3e ae 68 77 bd 16 9f cf 3b
       -0.04602624 0.18712318 -0.060402565 0.006336103
0000b0 b4 cc 11 3e 7d f2 d8 3d 19 8e f7 3d a3 17 e7 3c
       0.14238244 0.10593126 0.1208765 0.028209513
0000c0 d5 06 27 bc e9 0d 92 bc a9 3d f4 bd 7a 0f 30 be
       -0.0101945 -0.017828899 -0.11925823 -0.17193404
0000d0 06 08 0e be c4 eb e1 3d f8 a1 13 be 83 9f 22 be
       -0.13870248 0.11031297 -0.14417255 -0.15881161
0000e0 44 fe 38 3e d3 64 10 3e 33 c7 19 3e 13 6f 3c bc
       0.18065745 0.14100961 0.15017395 -0.0115010915
0000f0 ba 86 1f bc 3b ad e2 bc dd ab db 3d 0a e6 5a bb
       -0.009736711 -0.027670493 0.1072614 -0.0033401274
000100 7c 36 d1 3c 87 8c 21 3e d1 6c e5 3d 95 f0 19 3e
       0.025538675 0.15776263 0.11202396 0.15033181
000110 bd b3 5c 3d cd cd f7 3d ad 00 d8 bd 33 f4 05 3e
       0.05388235 0.120998 -0.10547004 0.13081436
000120 cb a5 b0 bd c1 ca e2 bd 41 cb 06 be fb a9 25 be
       -0.086253725 -0.110738285 -0.13163473 -0.16178124
000130 e7 12 32 bd 97 85 eb bb 8e b9 24 bd 06 4e ef 3d
       -0.043475058 -0.007187556 -0.04021602 0.11684804
000140 8d 08 0f bd 62 65 cc bc 74 d9 dd bd 6c 1a 2b 3e
       -0.034920264 -0.024950687 -0.108324915 0.16709298
000150 46 13 14 be 22 53 e7 bd 50 1b 1b bd 1c 74 c5 bd
       -0.14460477 -0.11295153 -0.037867844 -0.09641287
000160 88 2e 02 3e 20 06 8d 3c dd 09 96 bd 5d 79 9d 3d
       0.12713063 0.017214835 -0.073261 0.07689164
000170 1f 9c 9a bb 05 41 d6 3d 9e dd 22 3e 1f e7 03 3e
       -0.004718318 0.1046162 0.15904853 0.12881134
000180 fd 5d 87 bd 29 24 f0 3d 3e 84 a3 3c 57 22 62 bd
       -0.06609724 0.11725647 0.019960519 -0.05520853
000190 83 65 85 bd e8 af 9d bd 03 f7 41 3e 54 4b 1c 3e
       -0.065135024 -0.07699567 0.18941884 0.1526311
0001a0 ae 9e 4c bb 5d 67 a5 bd 38 14 28 3e ed f6 28 ba
       -0.003122251 -0.080763556 0.16413963 -0.0006445486
0001b0 5a 12 ba bd 11 00 17 be f2 67 2a be 6f 96 c6 3d
       -0.090855315 -0.14746119 -0.16641214 0.09696662
0001c0 06 b1 1d 3e 77 01 e1 3d 1f 46 46 3e ac b7 da 3c
       0.1539956 0.109866075 0.19362687 0.02669891
0001d0 3c 62 0a 3e 22 0f 72 bd 54 71 f5 bc e6 10 cf 3c
       0.13514036 -0.059096463 -0.029961266 0.025276612
0001e0 42 01 6e bb 36 76 22 be 07 0d b9 bd 2f 4b 1e bd
       -0.0036316668 -0.15865406 -0.09035688 -0.03864592
0001f0 6d 94 a1 3d fb fb 8f 3d a3 2f 2e 3e e0 e3 d8 bd
       0.07889638 0.07030483 0.1701036 -0.10590339
000200 41 d7 89 3c 7f 6c 00 3e 89 c4 0a 3d 43 a2 cf bd
       0.016826274 0.12541388 0.033878837 -0.10138371
000210 be a9 50 3d 93 b0 41 3e 22 23 0e 3d aa 35 10 3e
       0.05094313 0.18915014 0.034701474 0.14082971
000220 4f b3 df bd d4 cd e7 bd f4 d9 9a 3d cd 69 d5 bd
       -0.10922872 -0.113185555 0.075611025 -0.104205705
000230 36 3a 7e 3d 57 ac 18 3d 2f 86 ab 3d 1d 66 03 3d
       0.062067233 0.03727373 0.08375203 0.032079805
000240 a0 bb 18 be a0 56 0a 3e ae e4 19 be 3a f8 9e bd
       -0.14915323 0.13509607 -0.1502864 -0.07762189
000250 42 7d e0 bc 39 bc db bb ba 27 de bc 4d 26 05 3e
       -0.027403478 -0.0067057875 -0.027118552 0.13002892
000260 b1 18 17 be 1d f9 55 3c 76 d1 cd bc 8e 83 ce 3d
       -0.14755513 0.0130598815 -0.025124293 0.10083686
000270 f2 7e 7a bc b6 36 1c 3e a4 4b ac bc ee 46 f7 bd
       -0.015289055 0.15255246 -0.021032162 -0.12074076
000280 42 bf 6e 3b 12 d4 b3 bb 84 4a 0c bc fd e0 35 3e
       0.0036429917 -0.0054879272 -0.008562688 0.17761607
000290 1d d7 31 3e e5 8d 31 3e 39 6c ca bd e3 b8 eb bd
       0.17367215 0.17339285 -0.09883923 -0.11509874
0002a0 06 11 a7 3d 3d 8e d2 3d c5 13 2d 3d ac 24 98 3d
       0.08157544 0.10281036 0.04225518 0.074288696
0002b0 a5 54 39 3e ee 67 e9 3d 9c 3f 52 3d e3 67 b7 3d
       0.18098696 0.11396776 0.051330194 0.08955362
0002c0 33 d2 49 3e 06 e3 d1 3d ac f0 35 be ea fc 2c 3e
       0.19709091 0.102483794 -0.1776759 0.16893354
0002d0 f0 f4 0b 3e 73 ce 09 3e ed 48 ad bd 76 01 92 bd
       0.13667655 0.1345766 -0.08461175 -0.07129185
0002e0 d2 ca 82 3b 3b 2f 0b be 6a c2 5e 3d 5d 58 92 bd
       0.003991463 -0.13592236 0.054384626 -0.0714576
0002f0 a6 d3 0d be 7b 5e e9 3c 69 5f 09 be 5b 7a 24 3e
       -0.13850269 0.028487435 -0.13415302 0.160623
000300 51 f7 8a 3d eb 48 24 3d 73 3a b2 bd 27 81 24 3b
       0.06785453 0.040108602 -0.087025546 0.0025101395
000310 87 ca e1 bd aa 28 13 3e ae 48 43 3e c4 5b 13 3e
       -0.11024957 0.14370981 0.19070694 0.14390475
000320 b5 f2 04 be d3 b4 5b 3d 82 29 11 3e cf 03 01 3e
       -0.1298321 0.053639244 0.1417599 0.12599109
000330 c9 27 28 bd f1 5a 0e be 6b 22 af 3d 0d 93 3b be
       -0.041053567 -0.13901879 0.085514866 -0.18317814
000340 e1 0a 25 be 52 0d 2c 3e b5 ad dd 3b 4f e9 9a bd
       -0.16117431 0.16801956 0.0067650923 -0.07564031
000350 f8 be 05 3e 66 04 3d 3e c0 08 af bd 19 0e 45 bd
       0.1306113 0.18458709 -0.08546591 -0.048109148
000360 73 a3 10 3c c0 b6 2c 3e 7e bd c6 3d b9 e1 35 3e
       0.008828032 0.16866589 0.097041115 0.17761888
000370 65 c0 f7 bd 09 9b e2 bd 52 ff f0 3d 47 d2 f2 bd
       -0.12097243 -0.11064727 0.117674485 -0.118565135
000380 e8 76 b5 bd e2 79 16 bb f5 09 98 bb 64 fe a8 3c
       -0.0886057 -0.0022960831 -0.004639859 0.020629115
000390 c1 04 e2 bd 5c 0b 22 bd 06 b1 03 3e 5a 3f ed 3d
       -0.11036063 -0.039561614 0.12860498 0.11584349
0003a0 e9 ec 35 3d 58 09 25 be 7b f8 f6 bd df 07 01 be
       0.04441539 -0.16116846 -0.12059113 -0.12600659
0003b0 a2 76 bd 3d 0c d5 d3 bd c3 d1 18 bc 91 13 2d 3e
       0.09251143 -0.1034337 -0.009327355 0.16901995
0003c0 8b 26 af 3c e3 49 c8 3c c5 a5 13 3e 9c 49 0a 3e
       0.021380683 0.024449294 0.14418705 0.13504642
0003d0 c4 d3 54 3d 3e 05 9d bd 48 6a 44 3e c5 d1 20 be
       0.051959768 -0.076670155 0.19181168 -0.1570502
0003e0 14 1d 0e be d2 32 30 3e 4f 09 55 3b 45 43 3b 3e
       -0.1387828 0.17206886 0.003250677 0.1828738
0003f0 cd 0e aa 3d f6 9c 54 3d 9b 43 17 bd ba 53 1e 3d
       0.08303604 0.051907502 -0.036929708 0.038654067

fc1_bn.weight f4 [400]
000000 78 0e 34 3f c7 67 0b 3f 90 5f c0 3d ed 02 37 3f
       0.7033458 0.54455227 0.09393227 0.7148884
000010 c8 3e 27 3e 68 07 f3 3e 74 87 45 3f 29 42 5a 3f
       0.16332543 0.47466588 0.7715981 0.852572
000020 dc bd d3 3e 6c b2 7d 3e 50 9a 71 3f 64 b0 77 3e
       0.4135579 0.24775094 0.9437609 0.24188381
000030 e0 c1 a0 3d e8 a6 75 3f 7a 26 20 3f d0 9c 39 3d
       0.07849479 0.95957804 0.6255871 0.045315564
000040 00 73 4b 3d 6d 46 37 3f 58 16 37 3e b6 0a 9d 3e
       0.04967022 0.71591836 0.17879617 0.30672234
000050 0a e7 f3 3e ce e9 58 3f 90 e7 35 3d 5e 98 08 3f
       0.47637206 0.8473176 0.04441029 0.53357494
000060 5e 7e cb 3e 7f c5 00 3f 5f fa 2f 3f e0 92 49 3f
       0.39744848 0.50301355 0.6874141 0.7873974
000070 17 0e 3b 3f d4 50 39 3e 70 9d 47 3e e4 ea 40 3e
       0.73068374 0.1809724 0.19493651 0.18839604
000080 95 c7 66 3f 4c ba 56 3e 24 7f 23 3e ad 05 68 3f
       0.9014829 0.20969504 0.15966469 0.9063366
000090 48 49 e8 3d 3a f8 58 3f db 69 2d 3f 8a ec 09 3f
       0.11342102 0.84753764 0.6773965 0.53876555
0000a0 d2 76 4d 3f 40 ba 27 3c 4e 6d 2b 3f d0 f0 62 3e
       0.8025943 0.010237277 0.6696366 0.22162175
0000b0 06 38 06 3f 40 0f a6 3c 40 cb f1 3d fe e9 57 3f
       0.52429235 0.020270944 0.11806345 0.8434142
0000c0 60 5c f9 3e c4 aa 59 3f 4c ee 1c 3f 0c b5 4c 3e
       0.4870329 0.8502619 0.6130111 0.19990939
0000d0 7e db d7 3e 01 44 51 3f e8 d9 ba 3e a8 3d 0d 3e
       0.42159647 0.8174439 0.36494374 0.13793051
0000e0 28 6f 3a 3f d1 ed 17 3f ce 49 0d 3f 54 ff 19 3e
       0.7282586 0.59347254 0.5519074 0.15038806
0000f0 f0 71 7e 3e 38 b2 0b 3f 68 32 e7 3e 60 a0 b3 3d
       0.24848151 0.54568815 0.45155644 0.087708235
000100 ba a0 7d 3f a9 e8 02 3f 26 0e 2b 3f 04 8c c4 3e
       0.99073374 0.5113626 0.66818464 0.38388073
000110 ad 15 2c 3f 3c 7f bf 3e 57 e2 0f 3f 76 f8 a5 3e
       0.67220575 0.3740176 0.5620474 0.32416123
000120 32 ca 1a 3f 3a 8f 8a 3e ec be 34 3e 53 d9 1a 3f
       0.60464776 0.27062398 0.17650956 0.6048786
000130 53 13 46 3f 7d d7 7e 3f 75 b3 4f 3f 51 e4 23 3f
       0.77373236 0.9954756 0.81133205 0.6402026
000140 45 25 07 3f dc f0 91 3e 94 b4 44 3e d8 fe 0d 3f
       0.52791244 0.28504074 0.1920951 0.55466986
000150 62 d0 50 3f 62 c5 0f 3f 28 75 32 3e f8 d7 ca 3e
       0.81567967 0.5616056 0.17427504 0.39617896
000160 63 d6 63 3f dd f7 5f 3f ee d1 3a 3f ef 6f 30 3f
       0.88999003 0.87487584 0.7297658 0.689208
000170 68 63 c3 3d 7a d2 d9 3e 68 4f 88 3e 1e e8 27 3f
       0.095404446 0.42543393 0.26623082 0.6558856
000180 df aa 09 3f ce 2f 2c 3f 80 9c d3 3d 16 85 74 3f
       0.53776354 0.67260444 0.103325844 0.95515573
000190 96 a3 b4 3e b8 68 da 3e b9 ea 25 3f 30 24 fc 3e
       0.35281056 0.4265802 0.64811283 0.4924636
0001a0 93 02 4e 3f 24 ee 4b 3f 09 0c 7d 3f bd 24 7d 3f
       0.8047268 0.7966025 0.9884649 0.98884183
0001b0 51 43 00 3f fc 78 62 3f 62 fb 0c 3f d7 cd 63 3f
       0.50102717 0.8846586 0.5507108 0.8898596
0001c0 80 47 c9 3d 7e 17 05 3f 38 db 5f 3f f2 73 e4 3e
       0.09828091 0.5198897 0.87443876 0.4461971
0001d0 cc bf 5a 3f 45 d8 64 3f cc aa 2b 3e a7 89 5a 3f
       0.8544891 0.893925 0.16764373 0.8536629
0001e0 40 d0 0c 3d 83 15 74 3f fb 98 3c 3f be fd 32 3f
       0.03437829 0.95345324 0.7367093 0.6991843
0001f0 a9 5e 33 3f 1c 31 15 3e df 66 30 3f 90 1b 70 3d
       0.70066315 0.14569515 0.6890697 0.058620036
000200 e6 4d 26 3f b2 4d 51 3f fc b1 20 3e 0b 4a 19 3f
       0.64962614 0.8175918 0.15692896 0.59878606
000210 9c 90 5d 3f e0 11 28 3f a0 d8 ad 3d f0 65 55 3d
       0.8654878 0.65652275 0.084885836 0.05209917
000220 e0 fd 39 3d 78 f8 76 3f a0 57 20 3f 5d 8b 7c 3f
       0.04540813 0.96472883 0.62633705 0.9865015
000230 ac d4 98 3e 91 5e 02 3f e0 31 92 3c 80 86 24 3d
       0.29849756 0.50925547 0.017846048 0.04016733
000240 ee 1a 67 3f 46 f2 49 3f c8 f8 aa 3e 9e 6a e6 3e
       0.90275466 0.78885305 0.3339293 0.45003217
000250 14 c5 a4 3e 78 2f 59 3e f4 4e e2 3e e1 21 4b 3f
       0.3218161 0.21209514 0.4420086 0.7934857
000260 ea c5 3d 3f e4 4e 19 3f dd 8a 64 3f f4 1c 58 3e
       0.7413012 0.59886 0.8927439 0.21104795
000270 10 f9 8e 3e 33 3a 76 3f 1e 6b b2 3e b6 fa 24 3f
       0.27924395 0.96182555 0.3484735 0.64445055
000280 78 73 1f 3f 18 9d 98 3d 64 95 34 3f 98 f2 8a 3d
       0.62285566 0.07451838 0.7054045 0.06784552
000290 c6 3b 17 3f 62 35 0c 3f 2f 41 4a 3f 92 58 64 3f
       0.5907558 0.54768956 0.7900571 0.8919765
0002a0 9b 6d 1a 3f b1 17 30 3f 30 4c b2 3d f4 88 35 3e
       0.60323495 0.6878615 0.08705938 0.17728025
0002b0 fc e5 86 3e 8f f8 20 3f 84 31 4e 3e f4 33 80 3e
       0.2634734 0.6287927 0.20136076 0.25039637
0002c0 48 a4 53 3f e0 c9 9d 3d 2d 6f 6e 3f aa 4f b7 3e
       0.8267255 0.0770452 0.9313839 0.35802966
0002d0 3c 33 02 3f 72 28 e2 3e 00 30 11 3d 5b 68 23 3f
       0.5085943 0.44171482 0.035446167 0.6383111
0002e0 11 54 4f 3f 6c eb 29 3e 60 54 ef 3e ee 5d a4 3e
       0.8098765 0.16593713 0.4674406 0.32102913
0002f0 d8 5c 1e 3e 77 07 55 3f 43 a3 17 3f e6 ca a2 3e
       0.15465105 0.83214515 0.5923349 0.31795424
000300 18 b0 87 3e 10 15 12 3f 30 c7 56 3f 3c 46 2d 3e
       0.26501536 0.5706339 0.83897686 0.16921324
000310 ef c9 44 3f 68 fc 0c 3e 4b 3b 6e 3f 48 c5 8f 3d
       0.76870626 0.1376816 0.93059224 0.0702005
000320 d8 87 00 3e a0 8e 73 3d f8 39 bb 3d a4 70 66 3f
       0.1255182 0.05946219 0.09141916 0.90015626
000330 80 e2 63 3f cd 4d 3d 3f 68 13 6c 3e 15 48 13 3f
       0.89017487 0.7394684 0.23054278 0.57531863
000340 cb 78 6d 3f 32 4c c3 3e 50 f2 2f 3e 10 88 44 3e
       0.9276244 0.3814407 0.17182279 0.19192529
000350 10 6d 47 3e e0 fc d4 3c 73 02 3a 3f fa be 91 3e
       0.19475198 0.025999486 0.7265999 0.28466016
000360 e0 08 74 3e be 33 0d 3f 9e 9f b7 3e 4f 64 7d 3f
       0.2383151 0.5515708 0.35863966 0.98981184
000370 24 7e 1c 3f d4 3c 73 3e b4 13 67 3f a0 79 18 3d
       0.61129975 0.23753673 0.9026444 0.037225366
000380 ec 3a c4 3e 32 0e d7 3e 60 79 8b 3d 1d 5f 25 3f
       0.38326204 0.42003018 0.0681026 0.64598256
000390 d0 78 7e 3f d3 b3 07 3f 61 a3 65 3f 18 c2 10 3f
       0.99403095 0.53008765 0.8970242 0.56546164
0003a0 d5 96 7c 3f f7 1a 2e 3f 77 f5 5a 3f d9 bf 62 3f
       0.9866765 0.68009895 0.855308 0.88573986
0003b0 37 36 48 3f 74 84 79 3e e7 9c 20 3f 64 d6 6b 3e
       0.78207725 0.24366933 0.62739414 0.23031002
0003c0 b6 80 fe 3e e8 cd 2e 3e 12 2f b2 3e 30 cf 7f 3f
       0.49707574 0.17070735 0.34801537 0.9992552
0003d0 92 d4 dc 3e 26 5b 11 3f a4 b4 9e 3e f0 c7 34 3d
       0.43130928 0.56779706 0.30997193 0.044135988
0003e0 3c c5 13 3f dc 9c 20 3e b3 58 4d 3f 6d e6 1d 3f
       0.5772283 0.15684837 0.8021347 0.61679727
0003f0 2e 5b e1 3e 88 61 7d 3f 69 cf 7d 3f c2 e5 ec 3e
       0.44014877 0.98976946 0.9914461 0.4626904

fc1_bn.bias f4 [400]
000000 00 00 00 00 00 00 00 00 00 00 00 00 00 00 00 00
       0.0 0.0 0.0 0.0
000010 00 00 00 00 00 00 00 00 00 00 00 00 00 00 00 00
       0.0 0.0 0.0 0.0
000020 00 00 00 00 00 00 00 00 00 00 00 00 00 00 00 00
       0.0 0.0 0.0 0.0
000030 00 00 00 00 00 00 00 00 00 00 00 00 00 00 00 00
       0.0 0.0 0.0 0.0
000040 00 00 00 00 00 00 00 00 00 00 00 00 00 00 00 00
       0.0 0.0 0.0 0.0
000050 00 00 00 00 00 00 00 00 00 00 00 00 00 00 00 00
       0.0 0.0 0.0 0.0
000060 00 00 00 00 00 00 00 00 00 00 00 00 00 00 00 00
       0.0 0.0 0.0 0.0
000070 00 00 00 00 00 00 00 00 00 00 00 00 00 00 00 00
       0.0 0.0 0.0 0.0
000080 00 00 00 00 00 00 00 00 00 00 00 00 00 00 00 00
       0.0 0.0 0.0 0.0
000090 00 00 00 00 00 00 00 00 00 00 00 00 00 00 00 00
       0.0 0.0 0.0 0.0
0000a0 00 00 00 00 00 00 00 00 00 00 00 00 00 00 00 00
       0.0 0.0 0.0 0.0
0000b0 00 00 00 00 00 00 00 00 00 00 00 00 00 00 00 00
       0.0 0.0 0.0 0.0
0000c0 00 00 00 00 00 00 00 00 00 00 00 00 00 00 00 00
       0.0 0.0 0.0 0.0
0000d0 00 00 00 00 00 00 00 00 00 00 00 00 00 00 00 00
       0.0 0.0 0.0 0.0
0000e0 00 00 00 00 00 00 00 00 00 00 00 00 00 00 00 00
       0.0 0.0 0.0 0.0
0000f0 00 00 00 00 00 00 00 00 00 00 00 00 00 00 00 00
       0.0 0.0 0.0 0.0
000100 00 00 00 00 00 00 00 00 00 00 00 00 00 00 00 00
       0.0 0.0 0.0 0.0
000110 00 00 00 00 00 00 00 00 00 00 00 00 00 00 00 00
       0.0 0.0 0.0 0.0
000120 00 00 00 00 00 00 00 00 00 00 00 00 00 00 00 00
       0.0 0.0 0.0 0.0
000130 00 00 00 00 00 00 00 00 00 00 00 00 00 00 00 00
       0.0 0.0 0.0 0.0
000140 00 00 00 00 00 00 00 00 00 00 00 00 00 00 00 00
       0.0 0.0 0.0 0.0
000150 00 00 00 00 00 00 00 00 00 00 00 00 00 00 00 00
       0.0 0.0 0.0 0.0
000160 00 00 00 00 00 00 00 00 00 00 00 00 00 00 00 00
       0.0 0.0 0.0 0.0
000170 00 00 00 00 00 00 00 00 00 00 00 00 00 00 00 00
       0.0 0.0 0.0 0.0
000180 00 00 00 00 00 00 00 00 00 00 00 00 00 00 00 00
       0.0 0.0 0.0 0.0
000190 00 00 00 00 00 00 00 00 00 00 00 00 00 00 00 00
       0.0 0.0 0.0 0.0
0001a0 00 00 00 00 00 00 00 00 00 00 00 00 00 00 00 00
       0.0 0.0 0.0 0.0
0001b0 00 00 00 00 00 00 00 00 00 00 00 00 00 00 00 00
       0.0 0.0 0.0 0.0
0001c0 00 00 00 00 00 00 00 00 00 00 00 00 00 00 00 00
       0.0 0.0 0.0 0.0
0001d0 00 00 00 00 00 00 00 00 00 00 00 00 00 00 00 00
       0.0 0.0 0.0 0.0
0001e0 00 00 00 00 00 00 00 00 00 00 00 00 00 00 00 00
       0.0 0.0 0.0 0.0
0001f0 00 00 00 00 00 00 00 00 00 00 00 00 00 00 00 00
       0.0 0.0 0.0 0.0
000200 00 00 00 00 00 00 00 00 00 00 00 00 00 00 00 00
       0.0 0.0 0.0 0.0
000210 00 00 00 00 00 00 00 00 00 00 00 00 00 00 00 00
       0.0 0.0 0.0 0.0
000220 00 00 00 00 00 00 00 00 00 00 00 00 00 00 00 00
       0.0 0.0 0.0 0.0
000230 00 00 00 00 00 00 00 00 00 00 00 00 00 00 00 00
       0.0 0.0 0.0 0.0
000240 00 00 00 00 00 00 00 00 00 00 00 00 00 00 00 00
       0.0 0.0 0.0 0.0
000250 00 00 00 00 00 00 00 00 00 00 00 00 00 00 00 00
       0.0 0.0 0.0 0.0
000260 00 00 00 00 00 00 00 00 00 00 00 00 00 00 00 00
       0.0 0.0 0.0 0.0
000270 00 00 00 00 00 00 00 00 00 00 00 00 00 00 00 00
       0.0 0.0 0.0 0.0
000280 00 00 00 00 00 00 00 00 00 00 00 00 00 00 00 00
       0.0 0.0 0.0 0.0
000290 00 00 00 00 00 00 00 00 00 00 00 00 00 00 00 00
       0.0 0.0 0.0 0.0
0002a0 00 00 00 00 00 00 00 00 00 00 00 00 00 00 00 00
       0.0 0.0 0.0 0.0
0002b0 00 00 00 00 00 00 00 00 00 00 00 00 00 00 00 00
       0.0 0.0 0.0 0.0
0002c0 00 00 00 00 00 00 00 00 00 00 00 00 00 00 00 00
       0.0 0.0 0.0 0.0
0002d0 00 00 00 00 00 00 00 00 00 00 00 00 00 00 00 00
       0.0 0.0 0.0 0.0
0002e0 00 00 00 00 00 00 00 00 00 00 00 00 00 00 00 00
       0.0 0.0 0.0 0.0
0002f0 00 00 00 00 00 00 00 00 00 00 00 00 00 00 00 00
       0.0 0.0 0.0 0.0
000300 00 00 00 00 00 00 00 00 00 00 00 00 00 00 00 00
       0.0 0.0 0.0 0.0
000310 00 00 00 00 00 00 00 00 00 00 00 00 00 00 00 00
       0.0 0.0 0.0 0.0
000320 00 00 00 00 00 00 00 00 00 00 00 00 00 00 00 00
       0.0 0.0 0.0 0.0
000330 00 00 00 00 00 00 00 00 00 00 00 00 00 00 00 00
       0.0 0.0 0.0 0.0
000340 00 00 00 00 00 00 00 00 00 00 00 00 00 00 00 00
       0.0 0.0 0.0 0.0
000350 00 00 00 00 00 00 00 00 00 00 00 00 00 00 00 00
       0.0 0.0 0.0 0.0
000360 00 00 00 00 00 00 00 00 00 00 00 00 00 00 00 00
       0.0 0.0 0.0 0.0
000370 00 00 00 00 00 00 00 00 00 00 00 00 00 00 00 00
       0.0 0.0 0.0 0.0
000380 00 00 00 00 00 00 00 00 00 00 00 00 00 00 00 00
       0.0 0.0 0.0 0.0
000390 00 00 00 00 00 00 00 00 00 00 00 00 00 00 00 00
       0.0 0.0 0.0 0.0
0003a0 00 00 00 00 00 00 00 00 00 00 00 00 00 00 00 00
       0.0 0.0 0.0 0.0
0003b0 00 00 00 00 00 00 00 00 00 00 00 00 00 00 00 00
       0.0 0.0 0.0 0.0
0003c0 00 00 00 00 00 00 00 00 00 00 00 00 00 00 00 00
       0.0 0.0 0.0 0.0
0003d0 00 00 00 00 00 00 00 00 00 00 00 00 00 00 00 00
       0.0 0.0 0.0 0.0
0003e0 00 00 00 00 00 00 00 00 00 00 00 00 00 00 00 00
       0.0 0.0 0.0 0.0
0003f0 00 00 00 00 00 00 00 00 00 00 00 00 00 00 00 00
       0.0 0.0 0.0 0.0

fc1_bn.running_mean f4 [400]
000000 00 00 00 00 00 00 00 00 00 00 00 00 00 00 00 00
       0.0 0.0 0.0 0.0
000010 00 00 00 00 00 00 00 00 00 00 00 00 00 00 00 00
       0.0 0.0 0.0 0.0
000020 00 00 00 00 00 00 00 00 00 00 00 00 00 00 00 00
       0.0 0.0 0.0 0.0
000030 00 00 00 00 00 00 00 00 00 00 00 00 00 00 00 00
       0.0 0.0 0.0 0.0
000040 00 00 00 00 00 00 00 00 00 00 00 00 00 00 00 00
       0.0 0.0 0.0 0.0
000050 00 00 00 00 00 00 00 00 00 00 00 00 00 00 00 00
       0.0 0.0 0.0 0.0
000060 00 00 00 00 00 00 00 00 00 00 00 00 00 00 00 00
       0.0 0.0 0.0 0.0
000070 00 00 00 00 00 00 00 00 00 00 00 00 00 00 00 00
       0.0 0.0 0.0 0.0
000080 00 00 00 00 00 00 00 00 00 00 00 00 00 00 00 00
       0.0 0.0 0.0 0.0
000090 00 00 00 00 00 00 00 00 00 00 00 00 00 00 00 00
       0.0 0.0 0.0 0.0
0000a0 00 00 00 00 00 00 00 00 00 00 00 00 00 00 00 00
       0.0 0.0 0.0 0.0
0000b0 00 00 00 00 00 00 00 00 00 00 00 00 00 00 00 00
       0.0 0.0 0.0 0.0
0000c0 00 00 00 00 00 00 00 00 00 00 00 00 00 00 00 00
       0.0 0.0 0.0 0.0
0000d0 00 00 00 00 00 00 00 00 00 00 00 00 00 00 00 00
       0.0 0.0 0.0 0.0
0000e0 00 00 00 00 00 00 00 00 00 00 00 00 00 00 00 00
       0.0 0.0 0.0 0.0
0000f0 00 00 00 00 00 00 00 00 00 00 00 00 00 00 00 00
       0.0 0.0 0.0 0.0
000100 00 00 00 00 00 00 00 00 00 00 00 00 00 00 00 00
       0.0 0.0 0.0 0.0
000110 00 00 00 00 00 00 00 00 00 00 00 00 00 00 00 00
       0.0 0.0 0.0 0.0
000120 00 00 00 00 00 00 00 00 00 00 00 00 00 00 00 00
       0.0 0.0 0.0 0.0
000130 00 00 00 00 00 00 00 00 00 00 00 00 00 00 00 00
       0.0 0.0 0.0 0.0
000140 00 00 00 00 00 00 00 00 00 00 00 00 00 00 00 00
       0.0 0.0 0.0 0.0
000150 00 00 00 00 00 00 00 00 00 00 00 00 00 00 00 00
       0.0 0.0 0.0 0.0
000160 00 00 00 00 00 00 00 00 00 00 00 00 00 00 00 00
       0.0 0.0 0.0 0.0
000170 00 00 00 00 00 00 00 00 00 00 00 00 00 00 00 00
       0.0 0.0 0.0 0.0
000180 00 00 00 00 00 00 00 00 00 00 00 00 00 00 00 00
       0.0 0.0 0.0 0.0
000190 00 00 00 00 00 00 00 00 00 00 00 00 00 00 00 00
       0.0 0.0 0.0 0.0
0001a0 00 00 00 00 00 00 00 00 00 00 00 00 00 00 00 00
       0.0 0.0 0.0 0.0
0001b0 00 00 00 00 00 00 00 00 00 00 00 00 00 00 00 00
       0.0 0.0 0.0 0.0
0001c0 00 00 00 00 00 00 00 00 00 00 00 00 00 00 00 00
       0.0 0.0 0.0 0.0
0001d0 00 00 00 00 00 00 00 00 00 00 00 00 00 00 00 00
       0.0 0.0 0.0 0.0
0001e0 00 00 00 00 00 00 00 00 00 00 00 00 00 00 00 00
       0.0 0.0 0.0 0.0
0001f0 00 00 00 00 00 00 00 00 00 00 00 00 00 00 00 00
       0.0 0.0 0.0 0.0
000200 00 00 00 00 00 00 00 00 00 00 00 00 00 00 00 00
       0.0 0.0 0.0 0.0
000210 00 00 00 00 00 00 00 00 00 00 00 00 00 00 00 00
       0.0 0.0 0.0 0.0
000220 00 00 00 00 00 00 00 00 00 00 00 00 00 00 00 00
       0.0 0.0 0.0 0.0
000230 00 00 00 00 00 00 00 00 00 00 00 00 00 00 00 00
       0.0 0.0 0.0 0.0
000240 00 00 00 00 00 00 00 00 00 00 00 00 00 00 00 00
       0.0 0.0 0.0 0.0
000250 00 00 00 00 00 00 00 00 00 00 00 00 00 00 00 00
       0.0 0.0 0.0 0.0
000260 00 00 00 00 00 00 00 00 00 00 00 00 00 00 00 00
       0.0 0.0 0.0 0.0
000270 00 00 00 00 00 00 00 00 00 00 00 00 00 00 00 00
       0.0 0.0 0.0 0.0
000280 00 00 00 00 00 00 00 00 00 00 00 00 00 00 00 00
       0.0 0.0 0.0 0.0
000290 00 00 00 00 00 00 00 00 00 00 00 00 00 00 00 00
       0.0 0.0 0.0 0.0
0002a0 00 00 00 00 00 00 00 00 00 00 00 00 00 00 00 00
       0.0 0.0 0.0 0.0
0002b0 00 00 00 00 00 00 00 00 00 00 00 00 00 00 00 00
       0.0 0.0 0.0 0.0
0002c0 00 00 00 00 00 00 00 00 00 00 00 00 00 00 00 00
       0.0 0.0 0.0 0.0
0002d0 00 00 00 00 00 00 00 00 00 00 00 00 00 00 00 00
       0.0 0.0 0.0 0.0
0002e0 00 00 00 00 00 00 00 00 00 00 00 00 00 00 00 00
       0.0 0.0 0.0 0.0
0002f0 00 00 00 00 00 00 00 00 00 00 00 00 00 00 00 00
       0.0 0.0 0.0 0.0
000300 00 00 00 00 00 00 00 00 00 00 00 00 00 00 00 00
       0.0 0.0 0.0 0.0
000310 00 00 00 00 00 00 00 00 00 00 00 00 00 00 00 00
       0.0 0.0 0.0 0.0
000320 00 00 00 00 00 00 00 00 00 00 00 00 00 00 00 00
       0.0 0.0 0.0 0.0
000330 00 00 00 00 00 00 00 00 00 00 00 00 00 00 00 00
       0.0 0.0 0.0 0.0
000340 00 00 00 00 00 00 00 00 00 00 00 00 00 00 00 00
       0.0 0.0 0.0 0.0
000350 00 00 00 00 00 00 00 00 00 00 00 00 00 00 00 00
       0.0 0.0 0.0 0.0
000360 00 00 00 00 00 00 00 00 00 00 00 00 00 00 00 00
       0.0 0.0 0.0 0.0
000370 00 00 00 00 00 00 00 00 00 00 00 00 00 00 00 00
       0.0 0.0 0.0 0.0
000380 00 00 00 00 00 00 00 00 00 00 00 00 00 00 00 00
       0.0 0.0 0.0 0.0
000390 00 00 00 00 00 00 00 00 00 00 00 00 00 00 00 00
       0.0 0.0 0.0 0.0
0003a0 00 00 00 00 00 00 00 00 00 00 00 00 00 00 00 00
       0.0 0.0 0.0 0.0
0003b0 00 00 00 00 00 00 00 00 00 00 00 00 00 00 00 00
       0.0 0.0 0.0 0.0
0003c0 00 00 00 00 00 00 00 00 00 00 00 00 00 00 00 00
       0.0 0.0 0.0 0.0
0003d0 00 00 00 00 00 00 00 00 00 00 00 00 00 00 00 00
       0.0 0.0 0.0 0.0
0003e0 00 00 00 00 00 00 00 00 00 00 00 00 00 00 00 00
       0.0 0.0 0.0 0.0
0003f0 00 00 00 00 00 00 00 00 00 00 00 00 00 00 00 00
       0.0 0.0 0.0 0.0

fc1_bn.running_var f4 [400]
000000 00 00 80 3f 00 00 80 3f 00 00 80 3f 00 00 80 3f
       1.0 1.0 1.0 1.0
000010 00 00 80 3f 00 00 80 3f 00 00 80 3f 00 00 80 3f
       1.0 1.0 1.0 1.0
000020 00 00 80 3f 00 00 80 3f 00 00 80 3f 00 00 80 3f
       1.0 1.0 1.0 1.0
000030 00 00 80 3f 00 00 80 3f 00 00 80 3f 00 00 80 3f
       1.0 1.0 1.0 1.0
000040 00 00 80 3f 00 00 80 3f 00 00 80 3f 00 00 80 3f
       1.0 1.0 1.0 1.0
000050 00 00 80 3f 00 00 80 3f 00 00 80 3f 00 00 80 3f
       1.0 1.0 1.0 1.0
000060 00 00 80 3f 00 00 80 3f 00 00 80 3f 00 00 80 3f
       1.0 1.0 1.0 1.0
000070 00 00 80 3f 00 00 80 3f 00 00 80 3f 00 00 80 3f
       1.0 1.0 1.0 1.0
000080 00 00 80 3f 00 00 80 3f 00 00 80 3f 00 00 80 3f
       1.0 1.0 1.0 1.0
000090 00 00 80 3f 00 00 80 3f 00 00 80 3f 00 00 80 3f
       1.0 1.0 1.0 1.0
0000a0 00 00 80 3f 00 00 80 3f 00 00 80 3f 00 00 80 3f
       1.0 1.0 1.0 1.0
0000b0 00 00 80 3f 00 00 80 3f 00 00 80 3f 00 00 80 3f
       1.0 1.0 1.0 1.0
0000c0 00 00 80 3f 00 00 80 3f 00 00 80 3f 00 00 80 3f
       1.0 1.0 1.0 1.0
0000d0 00 00 80 3f 00 00 80 3f 00 00 80 3f 00 00 80 3f
       1.0 1.0 1.0 1.0
0000e0 00 00 80 3f 00 00 80 3f 00 00 80 3f 00 00 80 3f
       1.0 1.0 1.0 1.0
0000f0 00 00 80 3f 00 00 80 3f 00 00 80 3f 00 00 80 3f
       1.0 1.0 1.0 1.0
000100 00 00 80 3f 00 00 80 3f 00 00 80 3f 00 00 80 3f
       1.0 1.0 1.0 1.0
000110 00 00 80 3f 00 00 80 3f 00 00 80 3f 00 00 80 3f
       1.0 1.0 1.0 1.0
000120 00 00 80 3f 00 00 80 3f 00 00 80 3f 00 00 80 3f
       1.0 1.0 1.0 1.0
000130 00 00 80 3f 00 00 80 3f 00 00 80 3f 00 00 80 3f
       1.0 1.0 1.0 1.0
000140 00 00 80 3f 00 00 80 3f 00 00 80 3f 00 00 80 3f
       1.0 1.0 1.0 1.0
000150 00 00 80 3f 00 00 80 3f 00 00 80 3f 00 00 80 3f
       1.0 1.0 1.0 1.0
000160 00 00 80 3f 00 00 80 3f 00 00 80 3f 00 00 80 3f
       1.0 1.0 1.0 1.0
000170 00 00 80 3f 00 00 80 3f 00 00 80 3f 00 00 80 3f
       1.0 1.0 1.0 1.0
000180 00 00 80 3f 00 00 80 3f 00 00 80 3f 00 00 80 3f
       1.0 1.0 1.0 1.0
000190 00 00 80 3f 00 00 80 3f 00 00 80 3f 00 00 80 3f
       1.0 1.0 1.0 1.0
0001a0 00 00 80 3f 00 00 80 3f 00 00 80 3f 00 00 80 3f
       1.0 1.0 1.0 1.0
0001b0 00 00 80 3f 00 00 80 3f 00 00 80 3f 00 00 80 3f
       1.0 1.0 1.0 1.0
0001c0 00 00 80 3f 00 00 80 3f 00 00 80 3f 00 00 80 3f
       1.0 1.0 1.0 1.0
0001d0 00 00 80 3f 00 00 80 3f 00 00 80 3f 00 00 80 3f
       1.0 1.0 1.0 1.0
0001e0 00 00 80 3f 00 00 80 3f 00 00 80 3f 00 00 80 3f
       1.0 1.0 1.0 1.0
0001f0 00 00 80 3f 00 00 80 3f 00 00 80 3f 00 00 80 3f
       1.0 1.0 1.0 1.0
000200 00 00 80 3f 00 00 80 3f 00 00 80 3f 00 00 80 3f
       1.0 1.0 1.0 1.0
000210 00 00 80 3f 00 00 80 3f 00 00 80 3f 00 00 80 3f
       1.0 1.0 1.0 1.0
000220 00 00 80 3f 00 00 80 3f 00 00 80 3f 00 00 80 3f
       1.0 1.0 1.0 1.0
000230 00 00 80 3f 00 00 80 3f 00 00 80 3f 00 00 80 3f
       1.0 1.0 1.0 1.0
000240 00 00 80 3f 00 00 80 3f 00 00 80 3f 00 00 80 3f
       1.0 1.0 1.0 1.0
000250 00 00 80 3f 00 00 80 3f 00 00 80 3f 00 00 80 3f
       1.0 1.0 1.0 1.0
000260 00 00 80 3f 00 00 80 3f 00 00 80 3f 00 00 80 3f
       1.0 1.0 1.0 1.0
000270 00 00 80 3f 00 00 80 3f 00 00 80 3f 00 00 80 3f
       1.0 1.0 1.0 1.0
000280 00 00 80 3f 00 00 80 3f 00 00 80 3f 00 00 80 3f
       1.0 1.0 1.0 1.0
000290 00 00 80 3f 00 00 80 3f 00 00 80 3f 00 00 80 3f
       1.0 1.0 1.0 1.0
0002a0 00 00 80 3f 00 00 80 3f 00 00 80 3f 00 00 80 3f
       1.0 1.0 1.0 1.0
0002b0 00 00 80 3f 00 00 80 3f 00 00 80 3f 00 00 80 3f
       1.0 1.0 1.0 1.0
0002c0 00 00 80 3f 00 00 80 3f 00 00 80 3f 00 00 80 3f
       1.0 1.0 1.0 1.0
0002d0 00 00 80 3f 00 00 80 3f 00 00 80 3f 00 00 80 3f
       1.0 1.0 1.0 1.0
0002e0 00 00 80 3f 00 00 80 3f 00 00 80 3f 00 00 80 3f
       1.0 1.0 1.0 1.0
0002f0 00 00 80 3f 00 00 80 3f 00 00 80 3f 00 00 80 3f
       1.0 1.0 1.0 1.0
000300 00 00 80 3f 00 00 80 3f 00 00 80 3f 00 00 80 3f
       1.0 1.0 1.0 1.0
000310 00 00 80 3f 00 00 80 3f 00 00 80 3f 00 00 80 3f
       1.0 1.0 1.0 1.0
000320 00 00 80 3f 00 00 80 3f 00 00 80 3f 00 00 80 3f
       1.0 1.0 1.0 1.0
000330 00 00 80 3f 00 00 80 3f 00 00 80 3f 00 00 80 3f
       1.0 1.0 1.0 1.0
000340 00 00 80 3f 00 00 80 3f 00 00 80 3f 00 00 80 3f
       1.0 1.0 1.0 1.0
000350 00 00 80 3f 00 00 80 3f 00 00 80 3f 00 00 80 3f
       1.0 1.0 1.0 1.0
000360 00 00 80 3f 00 00 80 3f 00 00 80 3f 00 00 80 3f
       1.0 1.0 1.0 1.0
000370 00 00 80 3f 00 00 80 3f 00 00 80 3f 00 00 80 3f
       1.0 1.0 1.0 1.0
000380 00 00 80 3f 00 00 80 3f 00 00 80 3f 00 00 80 3f
       1.0 1.0 1.0 1.0
000390 00 00 80 3f 00 00 80 3f 00 00 80 3f 00 00 80 3f
       1.0 1.0 1.0 1.0
0003a0 00 00 80 3f 00 00 80 3f 00 00 80 3f 00 00 80 3f
       1.0 1.0 1.0 1.0
0003b0 00 00 80 3f 00 00 80 3f 00 00 80 3f 00 00 80 3f
       1.0 1.0 1.0 1.0
0003c0 00 00 80 3f 00 00 80 3f 00 00 80 3f 00 00 80 3f
       1.0 1.0 1.0 1.0
0003d0 00 00 80 3f 00 00 80 3f 00 00 80 3f 00 00 80 3f
       1.0 1.0 1.0 1.0
0003e0 00 00 80 3f 00 00 80 3f 00 00 80 3f 00 00 80 3f
       1.0 1.0 1.0 1.0
0003f0 00 00 80 3f 00 00 80 3f 00 00 80 3f 00 00 80 3f
       1.0 1.0 1.0 1.0

fc2.weight f4 [300, 400]
000000 7c d7 49 3c f9 97 7b 3c 98 8b 1a 3b 71 32 5f 3d
       0.012319442 0.015356057 0.002358174 0.054491464
000010 0f 7b 2a bc 4f 7b 6c bd 6a ba 5a bd 45 38 27 3d
       -0.010405316 -0.057734784 -0.053400435 0.040825147
000020 f9 27 a5 bb 92 a8 81 3c 9d 6d 88 3c bd ca 17 bd
       -0.0050401655 0.01582745 0.01665383 -0.03705858
000030 06 9a 44 3d f8 7a 09 3d b9 e4 c2 bb f8 0c 4d bd
       0.04799845 0.033564538 -0.005947676 -0.050061196
000040 5c 54 58 3d 8a 19 6e 3d 03 2a a8 3c b5 bb 63 bd
       0.052814826 0.058129825 0.020527845 -0.055598933
000050 4c 9d 82 3d 46 77 ee bc ab 02 97 3c c4 d3 63 bd
       0.06377658 -0.029109608 0.01843389 -0.055621877
000060 78 a6 31 3d 55 ab 08 3d 1d 3a 7e 3d b9 5e 2f bc
       0.043371648 0.03336652 0.06206714 -0.010703736
000070 25 7e fe bc a4 21 0e bc 69 50 91 bd 53 19 17 bc
       -0.03106601 -0.008675013 -0.07095415 -0.009222346
000080 96 1a 40 bd 1a 7a c9 3c fc 0d 06 bd c0 42 01 3c
       -0.046900354 0.024594355 -0.03272818 0.00788945
000090 82 74 82 3d 80 73 6e 3d fa f7 df 3c 09 02 a8 3c
       0.06369878 0.058215618 0.027339924 0.020508783
0000a0 87 68 a8 3c 7c df 8d 3d ac ef 17 bc eb 3a 77 3d
       0.020557655 0.06927392 -0.009273451 0.060358923
0000b0 92 c8 9c bb 17 89 bd bb 41 ed ea 3c b9 c3 6c bd
       -0.004784652 -0.0057841646 0.028677585 -0.057803843
0000c0 cd 7f 8a 3d 14 f8 5e 3c a0 01 2a 3d f0 ef 95 bc
       0.06762657 0.013608951 0.041505456 -0.018302888
0000d0 90 68 12 bd 5c ad 55 3d 21 2e 79 3d 54 82 fa 3b
       -0.03574425 0.05216728 0.060835008 0.007644931
0000e0 ef 89 89 3d dc 18 1e bd 28 d2 c8 3c 6d ce a1 bd
       0.06715762 -0.038597926 0.024514273 -0.07900701
0000f0 35 6a 59 bc 3b 25 0d bd 2e 7c 40 3c e7 53 9d 3d
       -0.013269951 -0.034459334 0.011748357 0.07682019
000100 50 88 9f 3d 9c 97 29 3d 3b 0f 2c bd f1 7a 03 3c
       0.077896714 0.04140435 -0.042006712 0.008024917
000110 bd 56 b0 3c 50 22 47 3d bc 4b 89 3c f5 7e 2e bd
       0.021525735 0.048616707 0.016759746 -0.042601544
000120 1a 59 42 bc 9b f4 9e 3d 36 1f 53 bd ea c3 9d 3b
       -0.011862064 0.077614985 -0.051543437 0.0048146145
000130 a0 77 1e 3d 97 7a 3a 3d 34 3e bc bc e9 5c 8a bd
       0.038688302 0.045527067 -0.02297888 -0.067560025
000140 74 af 84 bd 64 36 a7 3c 58 09 5a bd 8e 14 59 bc
       -0.064787775 0.020411678 -0.053231567 -0.0132495295
000150 2b b9 9a 3c 58 16 9f 3d 37 6d 6b 3d 36 4b 80 3d
       0.018887123 0.077679336 0.057477202 0.06264345
000160 d2 33 53 3d dd 74 d4 3c f8 17 e4 3c e3 ec 15 bd
       0.05156309 0.025934631 0.02784346 -0.036602866
000170 18 4c 9c 3b 0c 13 8b 3d e8 6f 5c bd 48 9c 4b 3d
       0.0047698133 0.06790742 -0.05381766 0.04970959
000180 d6 9f 20 bd 5f 5a f4 bb 57 4c 4d 3d 7d 8e 80 3d
       -0.03921493 -0.007457062 0.05012163 0.062771775
000190 70 ac 6e bb 50 d7 cb 3b df 51 85 3b 42 0f 3d 3d
       -0.0036418699 0.0062207356 0.0040685977 0.04615713
0001a0 ad d9 24 bd 06 71 5c bc d5 15 20 3c 5c 3e 56 bd
       -0.040246654 -0.013454681 0.00977083 -0.052305564
0001b0 c1 b5 13 3d 21 0c 6f 3c 15 6f bf bc dd ca cf bc
       0.036062006 0.014590294 -0.023368398 -0.025365287
0001c0 a0 22 8d 3c fa 9f 31 bd 31 94 8a 3b ed 82 10 3c
       0.017228425 -0.043365456 0.0042290916 0.008820278
0001d0 15 e2 8f 3d b5 ac a3 ba 2e 55 41 bc da 75 2e 3d
       0.070255436 -0.0012487384 -0.011800094 0.04259286
0001e0 28 8b a9 bc dc e7 1f ba 9e a9 3d 3d 29 67 0e 3d
       -0.020696238 -0.00060999184 0.046304338 0.03476635
0001f0 80 38 7d bd 6e 88 f9 ba 47 12 da 3c 83 3d a1 3c
       -0.06182146 -0.0019037852 0.026620043 0.019682651
000200 f4 e8 ed bb a5 9b e8 3c 24 90 92 3c a5 71 98 bc
       -0.007260436 0.02839453 0.017890997 -0.018608877
000210 2a 95 01 bd 4c b8 3c 3d aa 69 68 bd 66 9e 47 bc
       -0.031636395 0.046074197 -0.056741394 -0.012183761
000220 7a 15 80 3d eb 7e 41 3c 3b f9 1b bd be 45 37 3d
       0.06254096 0.011810045 -0.03807948 0.044744246
000230 97 bb 25 3c a5 55 35 3d 0f a9 5f bc fd de 61 bd
       0.010115526 0.04427113 -0.013651147 -0.0551443
000240 de 7f 0b bd 7f 9f 58 bc c7 ff ea bc a2 8a 2e 3c
       -0.03405749 -0.013221621 -0.028686417 0.01065317
000250 9b eb a5 bc 9c a5 68 3c 6a 2e c5 3c cf f1 07 bd
       -0.020253947 0.014199641 0.024069984 -0.03318959
000260 05 3a 4a 3d 06 2c cc bb 22 b8 84 3c 03 80 43 bd
       0.049371738 -0.006230834 0.016201083 -0.047729503
000270 82 57 55 3d be da 0b bd fa a4 88 3d a5 4b 37 3c
       0.052085407 -0.034144156 0.06672092 0.011187469
000280 43 aa 8a 3d 29 42 01 bd ad 7e cc bc bb 6c 1c bd
       0.06770756 -0.031557236 -0.024962747 -0.03818963
000290 35 13 67 bd c0 1b 0f 3d a8 81 1b bd 21 30 89 bc
       -0.0564148 0.034938574 -0.037965447 -0.016746582
0002a0 d5 74 34 bd 49 7e ef bc f6 91 f3 bc 50 52 7e bb
       -0.044056732 -0.029235022 -0.029732686 -0.0038806386
0002b0 d8 e6 9a 3c 7d 21 c1 3c 10 a2 7d bc 3a 94 fc bc
       0.018908903 0.023575539 -0.015480533 -0.030832399
0002c0 88 e2 f5 bc 9b 58 5b 3d c3 80 18 3d 5a c5 2a bd
       -0.030015245 0.053551298 0.03723217 -0.041692115
0002d0 da 6a 27 3d 1e 97 13 3c 64 82 16 bd a9 ae f1 3c
       0.040873386 0.009008197 -0.036745444 0.02950223
0002e0 2c 5c 25 3d 57 b9 19 bd 99 d6 dc bb 19 a3 ea bc
       0.040371105 -0.03753027 -0.006739449 -0.028642224
0002f0 3c 22 aa bc a6 1c 2c bb 6a 01 2b 3d 10 9d de bc
       -0.020768277 -0.0026262193 0.041749395 -0.027174503
000300 d9 6e 13 3b 8c 38 72 3c f6 93 83 3b 1f 0b b8 bb
       0.002249649 0.01478399 0.004015441 -0.00561656
000310 0e 74 13 bc 62 3e 4b bc 6c d2 fb 3c ba 8c 4d 3d
       -0.008999838 -0.01240501 0.030739985 0.050183035
000320 4d 98 39 bd 00 c7 29 bd 66 81 ab bc 1d aa ff 3c
       -0.04531126 -0.041449547 -0.020935725 0.031209046
000330 5e a0 25 ba 7b 96 03 bd 53 96 cf bc b6 56 5c 3c
       -0.0006318147 -0.03212593 -0.025340235 0.013448408
000340 7a 7d e4 3c 51 b9 10 3d 6e 4f 3b bd 9f 22 4f bd
       0.027891863 0.03533298 -0.045730047 -0.050570127
000350 ca 8d 11 bd e3 34 57 3c 06 26 96 3c c8 ab b5 3d
       -0.03553561 0.013135168 0.018328678 0.08870655
000360 91 69 b7 bb 5b 1b 07 3d 76 1e e3 3c 8a 89 29 bc
       -0.0055973013 0.032985073 0.027724486 -0.010347733
000370 49 14 17 bd c7 cc b9 bc a8 7c 3e 3d cb ab 55 3b
       -0.03688458 -0.022680653 0.0465056 0.0032603617
000380 3b 0b df 3c 1f 65 7b 3d 81 c9 c9 bc 29 c1 a9 3d
       0.027227035 0.061375733 -0.024632217 0.082887955
000390 48 a5 48 3d 64 7b 7d bd 83 3e 38 3d 76 fc 94 bc
       0.04898575 -0.061885253 0.04498149 -0.018186789
0003a0 60 67 59 bd cd ae cd 3c 5a 4f f4 bc e1 e9 4b 3d
       -0.0530771 0.025107766 -0.029822994 0.04978359
0003b0 9e 99 6b bd de db 23 bd ff 48 02 bc dd 0e 26 3d
       -0.057519548 -0.040004604 -0.007951974 0.04054152
0003c0 60 3d b5 3c 40 76 60 3d c7 34 cb 3c 36 79 5f bd
       0.022123992 0.054800272 0.02480544 -0.054558955
0003d0 36 c9 fe bc 3a bb 60 3d 41 ab 68 3c 11 19 bb bc
       -0.031101804 0.054866053 0.014200986 -0.022839101
0003e0 28 ab 0a bd 85 67 7a bc 00 20 03 bd a1 ae 69 bd
       -0.033854634 -0.01528347 -0.03201294 -0.057051305
0003f0 e2 74 30 3d ca 17 3d bd 74 ea 21 bc d0 ad 3f 3d
       0.043080218 -0.046165265 -0.009882558 0.04679662
