agent_checkpoints/checkpoint_critic_5.pth (torch_old, 554781 bytes, 13 tensors)

fcs1.weight f4 [400, 33]
0	0xbd3de4c9	-0.046360765
1	0xbd820b8c	-0.06349859
2	0xbd0ae3eb	-0.033908766
3	0x3d92bdcb	0.071651064
4	0x3df44221	0.119266756
5	0x3d820499	0.06348533
6	0x3d936d5c	0.07198593
7	0xbd9c7d5b	-0.07641097
8	0x3d4f2d64	0.050580397
9	0xbcb01518	-0.021494433
10	0x3db31665	0.08744506
11	0x3c398d74	0.011325229
12	0xbd70f01f	-0.058822747
13	0x3d0568ec	0.032570764
14	0x3d2b32ba	0.041796423
15	0xbd86d515	-0.06583611
16	0x3e0f8151	0.14014174
17	0xbdd3df68	-0.10345346
18	0x3d9d2738	0.07673496
19	0xbd2564cc	-0.04037933
20	0x3dacce88	0.0843783
21	0xbd67b7f4	-0.056571916
22	0xbd13ac8e	-0.036053233
23	0xbd7432dc	-0.059618816
24	0xbc3c6eda	-0.011501038
25	0xbd870809	-0.065933295
26	0xbd9d4119	-0.07678432
27	0xbb110514	-0.002212827
28	0x3d1b5e66	0.037931822
29	0xbc95fff0	-0.018310517
30	0xbce7d79e	-0.028301056
31	0x3c3f6634	0.011682082
32	0x3df3d27e	0.119053826
33	0x3d841bf8	0.06450647
34	0xbd0a4ce7	-0.033764746
35	0xbe14239f	-0.14466713
36	0xbd81df46	-0.06341414
37	0x3df5ceab	0.120023094
38	0xbddc65a4	-0.10761574
39	0x3d51918b	0.05116419
40	0x3d1198cb	0.035546105
41	0x3cbcdcc5	0.02305449
42	0xbd12b068	-0.035812765
43	0xbbe2e035	-0.0069237
44	0xbb0aa496	-0.002115523
45	0xbe13582a	-0.143891
46	0xbd911d33	-0.070856474
47	0x3c59caaf	0.013292952
48	0xbd93dd03	-0.07219889
49	0xbc6f2bd6	-0.014597854
50	0xbe10a24e	-0.14124414
51	0xbd7c220a	-0.0615559
52	0xbdb577b1	-0.0886072
53	0xbcc47319	-0.023980664
54	0xbd28105b	-0.041031223
55	0xbda3287c	-0.07966706
56	0xbb5668f3	-0.0032716363
57	0xbd1ce6b0	-0.03830594
58	0x3d5a40a1	0.05328429
59	0xbd447312	-0.047961302
60	0xbcdd5573	-0.027018284
61	0xbdb35c83	-0.087578796
62	0xbd1c1332	-0.038104244
63	0x3d2b22f2	0.041781373
64	0xbd39e5d5	-0.0453852
65	0xbe62fd43	-0.22166924
66	0xbcd3e7cb	-0.025867363
67	0xbce793db	-0.028268745
68	0x3dad6c59	0.08467931
69	0x3e0d9cab	0.13829295
70	0xbe8ba541	-0.27274516
71	0xbe5cfe0b	-0.21581285
72	0xbd2cd1f6	-0.04219242
73	0xbda3f196	-0.08005063
74	0x3c869c19	0.016431855
75	0x3e2766eb	0.16347854
76	0x3bfd8c05	0.007737639
77	0xbc8e274a	-0.017352719
78	0x3ba7a4d7	0.005116086
79	0xbd881220	-0.06644082
80	0x3b7ac6da	0.0038265497
81	0xbcdf891d	-0.02728706
82	0x3dd8e174	0.10589877
83	0xbd954d6f	-0.0729016
84	0x3e67d53d	0.22639938
85	0x3dd1b7ac	0.10240111
86	0xbd68c714	-0.05683048
87	0xbd71f4ef	-0.059071478
88	0x3c9b1ddc	0.018935136
89	0xbd8049fc	-0.062641114
90	0xbd344b88	-0.044017345
91	0x3d4d8aa4	0.050181046
92	0xbd9757a4	-0.07389763
93	0xbc54367c	-0.012952443
94	0x3ca1f2e1	0.019769134
95	0x3d0dc73d	0.034613837
96	0xbd0a67d9	-0.033790443
97	0xbb8a70d8	-0.004224878
98	0x3d2d915b	0.04237495
99	0xbd0edd4b	-0.03487901
100	0x3da538ce	0.08067475
101	0x3d195003	0.03742982
102	0x3c5c44b7	0.013444117
103	0xbded6227	-0.11590987
104	0xbe46485a	-0.19363537
105	0x3e1d524c	0.15363425
106	0x3d87c238	0.06628841
107	0x3d1628b3	0.036659908
108	0xbd7bdc99	-0.061489675
109	0xbd1a218d	-0.037629653
110	0x3bac8960	0.0052654
111	0xbd5a2970	-0.053262174
112	0xbc7904dc	-0.0151989125
113	0x3d9c6d3f	0.076380245
114	0x3c01967d	0.007909414
115	0xbeaab487	-0.33340856
116	0xbbb2b6d8	-0.0054539256
117	0x3c8d0c6a	0.017217834
118	0x3d02259c	0.03177415
119	0xbde68407	-0.11255651
120	0xbd3e102d	-0.046402145
121	0xbc9e281d	-0.019306237
122	0x3a29dfa4	0.00064801634
123	0xbcc94d18	-0.024572894
124	0x3d32667f	0.04355478
125	0x3d936070	0.07196128
126	0x3d19a70c	0.037512824
127	0x3d0d7995	0.034539778
128	0x3d354981	0.044259552
129	0x3ca5a7f3	0.020221686
130	0x3cabd932	0.02097759
131	0x3de6ef47	0.11276107
132	0xbd18eaab	-0.03733317
133	0x3d2b1ed2	0.04177744
134	0x3c336282	0.010948779
135	0xbd28c6a2	-0.041205056
136	0xbe1da572	-0.15395144
137	0x3e02a611	0.12758662
138	0x3cb0201c	0.021499686
139	0xbde157b2	-0.11003055
140	0x3d3c7600	0.04601097
141	0x3c70a95e	0.014688818
142	0xbd41531e	-0.047198407
143	0xbcbc9431	-0.023019882
144	0x3d54b541	0.05193067
145	0x3cd36462	0.025804702
146	0xbbc93d25	-0.006141322
147	0x3d815446	0.06314902
148	0x3e550d89	0.20805945
149	0x3c9f66e7	0.019458247
150	0x3e13f99a	0.14450684
151	0xbc835eab	-0.016036352
152	0x3bed602a	0.0072441297
153	0xbd9bc705	-0.07606319
154	0xbd806abb	-0.06270357
155	0xbc434f8a	-0.011920819
156	0x3daf6039	0.08563275
157	0xbd2766bf	-0.04086947
158	0x3c54a8e1	0.012979717
159	0xbcd8841e	-0.026430186
160	0x3cb82e91	0.022483142
161	0xbd4c0322	-0.049807675
162	0x3d00e946	0.031472467
163	0xba5cc200	-0.0008421242
164	0xbe17995b	-0.14804594
165	0xbcaf861a	-0.02142625
166	0xbd1702b3	-0.03686781
167	0xbc98fd97	-0.018675609
168	0xbdb406ea	-0.08790381
169	0x3d99b7d7	0.07505768
170	0x3dd2946c	0.102822155
171	0x3e15c2a6	0.14625034
172	0xbd273f6e	-0.040831976
173	0x3c53435c	0.012894478
174	0x3d5fa8bc	0.054604277
175	0xbda212d9	-0.07913751
176	0x3d4b1156	0.04957708
177	0x3d595190	0.0530563
178	0xbc30afba	-0.010784084
179	0xbcdb8821	-0.02679831
180	0x3da2b01b	0.07943746
181	0xbdf3d54b	-0.11905917
182	0xbb77b822	-0.003779896
183	0x3d755705	0.05989744
184	0x3d8db535	0.06919328
185	0xbc97688d	-0.01848247
186	0x3cf584c5	0.029970536
187	0x3d04e06a	0.03244058
188	0x3dcb3eb1	0.09924067
189	0xbcac7206	-0.021050464
190	0xbd028219	-0.031862352
191	0xbd9f552c	-0.07779917
192	0xbc5580b4	-0.0130311735
193	0xbd326023	-0.043548714
194	0x3b92e9d0	0.004483439
195	0x3d3e834a	0.046511926
196	0x3d2cf3a1	0.04222453
197	0xbccd13bf	-0.02503383
198	0x3d6fc90e	0.05854135
199	0xbd1fc22d	-0.03900354
200	0xbde20f33	-0.11038055
201	0x3d89b028	0.06723052
202	0xbce83dae	-0.028349724
203	0xbde74783	-0.11292937
204	0xbc1a2fef	-0.009410842
205	0xbd09bef1	-0.03362936
206	0x3d03c918	0.0321742
207	0xbca8755c	-0.020563774
208	0xbd83099c	-0.06398317
209	0x3dbd23c6	0.09235339
210	0xbd2d0227	-0.04223838
211	0x3b9fec1f	0.0048804427
212	0xbd0c249d	-0.034214605
213	0xbcbe12ce	-0.023202326
214	0x3d56989b	0.05239163
215	0xbcd5bd0c	-0.026091121
216	0xbde8aa2f	-0.11360585
217	0xbda79c63	-0.08184125
218	0xbdbf7ef4	-0.09350386
219	0xbdd8b9a5	-0.10582284
220	0x3ce74f52	0.028236065
221	0x3c7fd489	0.015614637
222	0x3d510ad9	0.051035736
223	0x3cb635e8	0.022242501
224	0x3d23afa0	0.03996241
225	0xbd02fd3f	-0.031979796
226	0xbc2a6f16	-0.0104024615
227	0xbd364ae7	-0.044505026
228	0xbd2e696f	-0.042581018
229	0xbc3088e8	-0.0107748285
230	0xbd2084d1	-0.039189164
231	0x3dd42875	0.10359279
232	0xbc46486d	-0.012102229
233	0x3b383477	0.0028107443
234	0x3d99d3e7	0.0751112
235	0xbeadfbdb	-0.33981213
236	0xbdc0cf8b	-0.09414586
237	0xbc1b9fef	-0.00949858
238	0x3d92f7a3	0.07176139
239	0xbe27823a	-0.16358271
240	0x3ce94e7b	0.028479805
241	0xbd823351	-0.06357444
242	0xbc8b1d2a	-0.01698168
243	0xbc660b80	-0.014040828
244	0x3d4177a3	0.047233235
245	0x3d1b114c	0.037858292
246	0xbd51a627	-0.051183846
247	0x3e510f2d	0.20415945
248	0x3e9cf35a	0.30654413
249	0x3e7300dd	0.23730798
250	0x3e471d97	0.19444881
251	0x3d868af0	0.06569469
252	0x3c8b61f6	0.017014485
253	0xbe0676bc	-0.13131231
254	0xbbad0185	-0.005279722
255	0xbd1456ce	-0.036215596

fcs1.bias f4 [400]
0	0xbda46672	-0.080273524
1	0xbdefbf2c	-0.11706385
2	0xbd2c9d8f	-0.042142447
3	0x3daf74bd	0.08567188
4	0x3db69d2d	0.08916698
5	0xbe1dc578	-0.1540736
6	0x3dcf3ddc	0.101192206
7	0xbda2bbef	-0.07946002
8	0xbdd47ca0	-0.10375333
9	0xbd3ce704	-0.04611875
10	0xbd753a02	-0.059869774
11	0xbdfd715d	-0.12375138
12	0x3d204f7c	0.039138302
13	0x3daf7b70	0.08568466
14	0x3e117f2e	0.14208671
15	0x3d9a09b8	0.07521385
16	0x3e0fa98c	0.14029521
17	0x3c8babaa	0.01704963
18	0x3d5edca8	0.054409653
19	0x3dd71279	0.1050157
20	0xbdaaaab9	-0.08333344
21	0xbdee2550	-0.116282105
22	0x3dcc7964	0.09984091
23	0x3d2d2bb8	0.04227802
24	0x3d9306c4	0.07179025
25	0x3dc58eca	0.096463755
26	0x3b2cd048	0.0026369262
27	0x3da897c0	0.08232069
28	0x3e01a5d1	0.1266091
29	0x3c22c88e	0.009935511
30	0x3e056e99	0.13030471
31	0xbdda6178	-0.10663122
32	0xbe005164	-0.12531048
33	0xbe0fc696	-0.14040598
34	0xbdadaca9	-0.08480198
35	0xbdd0f051	-0.10202087
36	0xbc1ed5b2	-0.009694504
37	0xbce8dc1c	-0.028425269
38	0xba6829e2	-0.00088563387
39	0x3cd6afd3	0.026206886
40	0x3a8e51e9	0.0010858151
41	0x3e1b1685	0.1514531
42	0xbe2b4226	-0.16724452
43	0xbdfa41c7	-0.12219577
44	0xbd7221ae	-0.05911415
45	0xbe1e7380	-0.15473747
46	0x3db2bf3c	0.08727881
47	0xbd4d4225	-0.05011191
48	0x3df7abff	0.120933525
49	0xbd8563d1	-0.06513179
50	0xbe05f45a	-0.13081494
51	0xbe322812	-0.17398098
52	0xbe17a5a3	-0.14809279
53	0xbdf3a507	-0.11896711
54	0xbe31b51a	-0.17354241
55	0xbc7f7b32	-0.015593337
56	0x3cdbcfb0	0.026832432
57	0x3da0197c	0.07817361
58	0xbd3c410b	-0.045960467
59	0x3d5a1615	0.053243715
60	0x3dea615a	0.114443496
61	0x3da4e1b7	0.08050864
62	0x3de130dd	0.10995648
63	0x3e13a353	0.14417772
64	0xbca3b4bf	-0.019983647
65	0x3e2b89e2	0.16751817
66	0xbd817c3a	-0.063225225
67	0xbdc589cc	-0.09645423
68	0xbdfc0472	-0.123055354
69	0x3cf4f97b	0.029904118
70	0xbcbc40ce	-0.02298012
71	0x3a7ebe34	0.00097176735
72	0xbd18098a	-0.037118472
73	0x3e0d71eb	0.13812988
74	0xbe0bfda8	-0.13670981
75	0xbe2cdb2c	-0.16880482
76	0xbe198d4c	-0.14995307
77	0xbc1fb8e5	-0.009748672
78	0xbd327681	-0.043570045
79	0x3dee9f54	0.11651483
80	0x3c221fc4	0.009895269
81	0x3d7e4e95	0.06208666
82	0x3ddd6f8f	0.10812294
83	0x3daad060	0.083405256
84	0xbd7b0c97	-0.061291303
85	0x3bf52750	0.007481493
86	0x3dbed071	0.09317101
87	0x3e02ff6d	0.1279275
88	0xbddf9968	-0.10917932
89	0xbdda4644	-0.10657933
90	0xbd401487	-0.046894576
91	0x3dbf8b0e	0.093526945
92	0xbdeb573a	-0.114912465
93	0x3d26e486	0.04074528
94	0x3e296e7e	0.16546056
95	0x3d97b60e	0.07407771
96	0x3ce3f97a	0.02782892
97	0x3e0da000	0.13830566
98	0xbdebc74b	-0.115126215
99	0xbe00c0b0	-0.12573504
100	0xbda8251b	-0.08210202
101	0x3dd69e40	0.104794025
102	0x3e1c00cb	0.15234677
103	0x3dc7de46	0.09759192
104	0xbd5ccbb7	-0.053905215
105	0xbdc4b2a2	-0.09604384
106	0x3b0b87be	0.0021290625
107	0x3dde05b7	0.10840934
108	0xbc736fd0	-0.014858201
109	0xbe003f0a	-0.12524047
110	0xbde51cf0	-0.1118716
111	0xbddd4669	-0.10804445
112	0x3d07bd54	0.03313954
113	0x3dcb577f	0.09928798
114	0xbb9cd421	-0.00478603
115	0x3e15aeb1	0.1461742
116	0xbdcf3dc9	-0.101192065
117	0x3cb55a06	0.022137653
118	0x3d97a891	0.07405198
119	0xbe07525e	-0.13215014
120	0xbc871be5	-0.016492793
121	0x3c9e79a3	0.01934511
122	0xbdd61666	-0.10453491
123	0xbde41c04	-0.11138156
124	0xbdf7ae15	-0.120937504
125	0x3dfdc13f	0.123903744
126	0xbdd50df1	-0.1040305
127	0xbdbfc5a4	-0.09363869
128	0xbdf32049	-0.11871392
129	0xbc2a861e	-0.010407953
130	0xbc862b58	-0.01637809
131	0x3dda8578	0.106699884
132	0x3cca1937	0.024670226
133	0xbd804c5d	-0.06264565
134	0x3e1ef3b5	0.15522654
135	0xbcc94372	-0.024568293
136	0x3e27d876	0.16391167
137	0xbdbafcdf	-0.091302626
138	0xbd171aec	-0.03689091
139	0xbd4c62ed	-0.04989903
140	0xbb79d770	-0.0038122796
141	0x3e120a74	0.142618
142	0xbba626a1	-0.005070523
143	0x3d8cfea6	0.06884508
144	0x3c1fd720	0.00975588
145	0xbd0b7094	-0.03404291
146	0x3c97f2c9	0.018548386
147	0x3d51c128	0.0512096
148	0xbde72f2c	-0.11288294
149	0x3d5bbce1	0.053646926
150	0xbd1fdaef	-0.03902715
151	0xbc308ba0	-0.010775477
152	0x3d5bbf20	0.053649068
153	0x3d9bce81	0.07607747
154	0x3dc27568	0.0949505
155	0xbc8e2724	-0.017352648
156	0x3c997d21	0.018736424
157	0xbe30e81b	-0.17276041
158	0xbdac48f0	-0.08412349
159	0xbd74f999	-0.059808347
160	0x3e175432	0.14778212
161	0xbdef137d	-0.11673639
162	0x3e01c896	0.12674174
163	0x3e25619b	0.16150515
164	0x3d9309d9	0.07179613
165	0xbd14281d	-0.036171068
166	0xbcefa979	-0.029255616
167	0xbda74017	-0.08166521
168	0xbd39e519	-0.0453845
169	0xbdeb9c11	-0.11504377
170	0x3d80c952	0.06288399
171	0xbd033e2b	-0.03204171
172	0xbd2ffecd	-0.042967606
173	0xbd02e464	-0.03195609
174	0xbd18f277	-0.037340607
175	0x3cd112ed	0.02552172
176	0x3dbc5ea7	0.09197741
177	0xbe272f07	-0.16326533
178	0xbe1d82ba	-0.153819
179	0xbdf1bfbe	-0.1180415
180	0x3e256960	0.16153479
181	0x3c4f5064	0.012653444
182	0x3e066893	0.1312583
183	0x3d64b22d	0.055833984
184	0xbd267a66	-0.040644072
185	0x3e317fa0	0.17333841
186	0x3d3ffc51	0.046871487
187	0x3d0c39bd	0.03423475
188	0x3deeda0a	0.116626814
189	0x3cb7f497	0.022455497
190	0xbe20d3be	-0.15705773
191	0xbdb351bf	-0.08755826
192	0x3e1a8477	0.15089594
193	0x3cf2b63f	0.029627917
194	0x3b358408	0.0027697105
195	0xbdecd314	-0.115636975
196	0xbdf58391	-0.11987985
197	0xbdad0701	-0.084486015
198	0x3da90f7a	0.08254905
199	0xbd711ed9	-0.05886731
200	0x3e241837	0.16024862
201	0x3d462169	0.048371706
202	0xbdf12615	-0.11774842
203	0x3df7d058	0.12100285
204	0xbc8e87c8	-0.01739873
205	0x3de98b26	0.114034936
206	0x3c9c92f4	0.019113041
207	0x3e0f5e5c	0.14000839
208	0x3e19d012	0.15020779
209	0x3d6bf210	0.057603896
210	0x3c68b623	0.014203581
211	0xbe30992c	-0.1724593
212	0x3d81d111	0.063387044
213	0xbdc3c9f9	-0.095600076
214	0xbd6184fc	-0.055058464
215	0x3c8c7f72	0.017150614
216	0x3d1d9224	0.03846945
217	0xbe21688e	-0.1576254
218	0x3e1afb89	0.15135016
219	0xbd9fccaa	-0.078027084
220	0x3d50a1ef	0.050935682
221	0x3c33ec81	0.01098168
222	0xbd34eb27	-0.04416957
223	0xbe1f1d51	-0.15538527
224	0x3e30053e	0.171895
225	0xbe1a400a	-0.15063491
226	0xbe16fd5d	-0.14745088
227	0x3dfe1a73	0.124073885
228	0xbd88506d	-0.06655965
229	0xbdf0ab37	-0.11751407
230	0x3c23a367	0.009987689
231	0xbd001938	-0.03127405
232	0x3e2a3f9d	0.16625829
233	0x3c298b6a	0.01034818
234	0xbe2cc97e	-0.16873738
235	0x3d4f28d9	0.050576065
236	0x3d125ae5	0.035731215
237	0x3e165b8b	0.14683358
238	0xba0ae781	-0.0005298779
239	0xbe16a390	-0.14710832
240	0xbe05c60c	-0.1306383
241	0xbe2b20db	-0.16711752
242	0x3d8d2dbe	0.0689349
243	0xbe291e0d	-0.1651537
244	0x3d959185	0.07303146
245	0x3c1d6909	0.009607562
246	0xbdc67ec8	-0.0969215
247	0x3bd2f302	0.00643766
248	0x3d38786a	0.04503671
249	0x3ddfff6f	0.10937392
250	0x3d19c929	0.037545357
251	0x3d8f9a9b	0.070119105
252	0x3d6e7243	0.058214437
253	0xbe1406ba	-0.14455691
254	0x3d7f8346	0.06238105
255	0x3df404c8	0.119149745

fcs1_bn.weight f4 [400]
0	0x3e978ae9	0.29598168
1	0x3e02bc8d	0.12767239
2	0x3f4ca6c5	0.7994197
3	0x3f4a3917	0.7899336
4	0x3f10301e	0.5632342
5	0x3e602cb9	0.2189206
6	0x3deb03d6	0.11475341
7	0x3e1caeda	0.15301076
8	0x3e167b65	0.14695509
9	0x3f76569a	0.96225893
10	0x3f462037	0.77392906
11	0x3e1ae876	0.1512774
12	0x3f2b2a42	0.66861355
13	0x3f4c8d9d	0.79903585
14	0x3f4befb3	0.79662627
15	0x3f49192c	0.78554034
16	0x3b9cb09f	0.004781797
17	0x3f7f729e	0.99784267
18	0x3f1a566b	0.60288113
19	0x3f669763	0.9007475
20	0x3e940305	0.28908554
21	0x3f219bd0	0.63128376
22	0x3e8636f0	0.2621379
23	0x3f497cff	0.78706354
24	0x3e747c24	0.23875481
25	0x3f0ba51f	0.5454883
26	0x3dcff863	0.10154798
27	0x3ea01fbc	0.3127421
28	0x3f08ef42	0.5349008
29	0x3ef706fa	0.4824751
30	0x3f28bd27	0.65913624
31	0x3f046a76	0.51724946
32	0x3f62f64a	0.8865706
33	0x3f1bc55a	0.6084801
34	0x3f5a1f99	0.85204464
35	0x3ca5b80d	0.020229364
36	0x3f11d790	0.5696955
37	0x3eed887f	0.463932
38	0x3ce9544d	0.02848258
39	0x3ece9fb8	0.4035623
40	0x3e8191a1	0.2530642
41	0x3f421d8e	0.75826347
42	0x3e544576	0.20729622
43	0x3d85e998	0.06538695
44	0x3f2d16cd	0.67612916
45	0x3ec78143	0.38965806
46	0x3f81545d	1.0103871
47	0x3e518c5c	0.20463699
48	0x3f27f141	0.656025
49	0x3e68767f	0.22701453
50	0xba920cdf	-0.0011142752
51	0x3f485dd3	0.78268164
52	0x3e3b74a7	0.18306218
53	0x3f1ea25f	0.6196651
54	0x3f2f3768	0.6844392
55	0x3ec3c028	0.3823254
56	0xbbe8484b	-0.007088696
57	0x3f07e902	0.53089917
58	0x3e2b08ff	0.1670265
59	0x3e8de896	0.2771651
60	0x3eff9323	0.49916944
61	0x3f1b3675	0.6062997
62	0x3ea0774b	0.31341013
63	0x3e096843	0.13418679
64	0x3ef995e7	0.4874718
65	0x3f548541	0.8301583
66	0x3f1600f0	0.5859518
67	0x3eb961ab	0.36207327
68	0x3f625ffa	0.884277
69	0x3f305a54	0.6888783
70	0x3ecd1294	0.40053236
71	0x3e87997b	0.26484284
72	0x3f681b2f	0.9066648
73	0x3e566f5d	0.20940919
74	0x3eb50cc2	0.35361296
75	0x3f705f51	0.9389544
76	0x3f0fe1f1	0.56204134
77	0x3f621f42	0.88328946
78	0x3f0bbd27	0.545855
79	0x3ee8df8a	0.45483047
80	0x3e9216d0	0.2853303
81	0x3dc1d8e3	0.09465196
82	0x3f229905	0.6351474
83	0x3e369b8b	0.17832772
84	0x3f55c81c	0.8350847
85	0x3f6207c5	0.88293105
86	0x3ed06eb7	0.4070947
87	0x3ea65985	0.32490173
88	0x3f3050a6	0.6887306
89	0xbb0beb95	-0.0021350135
90	0x3e9c9ab1	0.3058677
91	0x3f524084	0.82129693
92	0x3f038bcd	0.51385194
93	0x3eed8efe	0.46398157
94	0x3e91f634	0.2850815
95	0x3e8f8024	0.2802745
96	0x3e1dda1b	0.15415232
97	0x3e23808b	0.15967004
98	0x3f6de67e	0.9292983
99	0x3f28ce89	0.6594015
100	0x3f7c4243	0.9853861
101	0x3e2c8a0e	0.16849539
102	0x3e47cf5d	0.19512697
103	0x3f23fd7d	0.6405867
104	0x3eb184ee	0.3467173
105	0x3f0ebdb9	0.55758244
106	0x3d0f4d65	0.03498592
107	0x3dc40ec1	0.095731266
108	0x3f6a0cc6	0.9142574
109	0x3e62f602	0.22164157
110	0x3f21a36c	0.63139987
111	0x3e405946	0.18784055
112	0x3f3dd843	0.74158114
113	0x3f1b0bce	0.6056489
114	0x3f6273b3	0.88457793
115	0x3f3ae43e	0.7300452
116	0x3eac1572	0.3361011
117	0x3f63a5ee	0.88925064
118	0x3f38f404	0.7224734
119	0x3dea2298	0.114323795
120	0x3f62439c	0.88384414
121	0x3f5451c0	0.8293724
122	0x3f12d094	0.57349515
123	0x3f3038bd	0.68836576
124	0x3df3116c	0.11868557
125	0x3f0734f4	0.52815175
126	0x3f6106f4	0.87901235
127	0x3d853d49	0.0650583
128	0x3f32686a	0.69690573
129	0x3f0411ac	0.51589465
130	0x3e6f87e9	0.2339169
131	0x3f0d2dde	0.5514811
132	0x3f234abd	0.63785917
133	0x3f2a93aa	0.6663157
134	0x3e223b48	0.15842927
135	0x3e11766f	0.14205335
136	0x3ee92ac2	0.45540434
137	0x3d9032a3	0.07040908
138	0x3f0b620d	0.5444649
139	0x3f3cd158	0.73756933
140	0x3ed31a88	0.4123118
141	0x3f684b6a	0.9074007
142	0x3f3a5475	0.7278512
143	0x3f6ece1b	0.9328324
144	0x3e316c9d	0.17326589
145	0x3c4012f3	0.011723268
146	0x3c9c6a06	0.019093525
147	0x3ebb4b20	0.36580753
148	0x3f583a3c	0.8446386
149	0x3f3d4180	0.7392807
150	0x3f35c38d	0.7100151
151	0x3f73aa1a	0.9518143
152	0x3f1d7ca4	0.6151831
153	0x3e227b6a	0.15867391
154	0x3f56b937	0.83876365
155	0x3ddc4c7b	0.10756775
156	0x3f4afbac	0.7929027
157	0x3f2215fa	0.63314784
158	0x3f1ba484	0.60797906
159	0x3f1ce29f	0.61283296
160	0x3ef98085	0.48730865
161	0x3e87fdeb	0.26560912
162	0x3f382f4b	0.71947163
163	0x3f1aee48	0.6051984
164	0x3f5da163	0.8657438
165	0x3e1bc93d	0.15213485
166	0x3f01a8bd	0.506481
167	0x3e1a45e7	0.15065728
168	0x3ef84d9a	0.48496705
169	0x3dbc5a65	0.09196929
170	0x3e0e12ce	0.13874361
171	0x3e98b7d2	0.29827744
172	0x3eedba46	0.46431178
173	0x3f024f03	0.5090181
174	0x3f57f4db	0.84357995
175	0x3ed45e1a	0.41478044
176	0x3dd117d7	0.10209625
177	0x3efc275a	0.49248773
178	0x3f550095	0.83204013
179	0x3f679aa6	0.9047035
180	0x3de72b16	0.11287515
181	0x3f64724f	0.8923692
182	0x3e1653ab	0.14680354
183	0x3f6291ee	0.8850392
184	0x3ef35845	0.47528282
185	0x3eed9e7e	0.46409982
186	0x3e74dc64	0.23912197
187	0x3f5371b0	0.8259535
188	0x3f44d93b	0.7689397
189	0x3eeea2bf	0.4660854
190	0x3e187d77	0.14891611
191	0x3ec00479	0.37503412
192	0x3e86c4d4	0.26322043
193	0x3f3764c3	0.71638125
194	0x3ed7d487	0.42154333
195	0x3f684de0	0.9074383
196	0x3f40dcd1	0.7533694
197	0x3f21a0a0	0.6313572
198	0x3f6c85f0	0.9239187
199	0x3e9c827f	0.3056831
200	0x3eed8cc6	0.46396464
201	0x3df3bd7d	0.119013764
202	0x3f326d61	0.6969815
203	0x3e0ca216	0.13733706
204	0x3f5eedf2	0.87081826
205	0x3e088971	0.1333368
206	0x3f3b93d5	0.7327245
207	0x3dd7498f	0.10512077
208	0x3f65fd5e	0.8983973
209	0x3f5a09f4	0.8517144
210	0x3edd3d1c	0.43210685
211	0x3f53de84	0.82761407
212	0x3dbe1347	0.092810206
213	0x3ee11e61	0.4396849
214	0x3f09843d	0.53717405
215	0x3e97878b	0.295956
216	0x3e5326e5	0.20620306
217	0x3ee30d1e	0.44345945
218	0x3f41f0c3	0.75758
219	0x3f296c9d	0.66181356
220	0x3f092eba	0.53586924
221	0x3e04bbc6	0.12962255
222	0x3f308e22	0.6896688
223	0x3f81f24d	1.0152069
224	0x3f1b2e7c	0.60617805
225	0x3f46c677	0.77646583
226	0x3d0e6f03	0.034773838
227	0x3f168c6d	0.5880802
228	0x3e8dcb24	0.27694046
229	0x3ef4e04b	0.47827372
230	0x3df20f84	0.118193656
231	0x3f0e44b8	0.55573606
232	0x3f5907f5	0.84777766
233	0x3eb7e44a	0.35916358
234	0x3ea69176	0.32532853
235	0x3f6dd86c	0.9290836
236	0x3eac0c0e	0.33602947
237	0x3f2e58ad	0.6810406
238	0x3e4c739e	0.1996598
239	0x3e2cddc5	0.16881473
240	0x3e062c19	0.1310276
241	0x3efa774d	0.48919144
242	0x3ed78474	0.4209324
243	0x3e822fc5	0.2542707
244	0x3cf706a4	0.030154534
245	0x3eb420c0	0.35181236
246	0x3e7c9ee4	0.24669987
247	0x3f24f548	0.6443677
248	0x3e3d71b9	0.18500413
249	0x3eefd511	0.46842244
250	0x3cf6e7b0	0.030139774
251	0x3eff7c39	0.49899462
252	0x3e376822	0.17910817
253	0x3f683168	0.9070039
254	0x3ee368e7	0.44415972
255	0x3e95824f	0.2920098

fcs1_bn.bias f4 [400]
0	0xbd521699	-0.051291082
1	0xbd4d1038	-0.050064296
2	0xbdea868b	-0.11451443
3	0xbd0e99b0	-0.034814537
4	0xbda53a93	-0.08067813
5	0xbd2a7e7c	-0.04162453
6	0xbd4fd7ad	-0.050742794
7	0xbd8a9046	-0.06765799
8	0xbdab7a74	-0.083729655
9	0xbd7cf234	-0.06175442
10	0x3ce690b4	0.028145172
11	0xbd6ea38f	-0.05826145
12	0xbda07341	-0.07834483
13	0xbe0d0d3f	-0.13774584
14	0xbd3b0092	-0.04565484
15	0x3ca80cff	0.02051401
16	0xbccea526	-0.025225233
17	0xbbd55f47	-0.006511602
18	0xbc237a63	-0.00997791
19	0xbe231f83	-0.1592999
20	0xbda72a2b	-0.0816234
21	0x3b71a6ea	0.003687317
22	0xbdb1d5cc	-0.08683357
23	0xbd200948	-0.03907135
24	0xbd21a111	-0.039460246
25	0xbdd66260	-0.10467982
26	0xbc1732a0	-0.0092283785
27	0xbc7833f5	-0.015149106
28	0xbdbd5718	-0.092451274
29	0xbd07b01c	-0.033126935
30	0xbe0ed2b1	-0.1394756
31	0xbdd88013	-0.10571303
32	0xbe232118	-0.15930593
33	0xbd770d66	-0.060315512
34	0xbda99ebb	-0.082822286
35	0xbd3e8515	-0.046513636
36	0xbd7abc97	-0.06121501
37	0xbd465540	-0.048421144
38	0xbd6dc503	-0.058049213
39	0xbd88ec3a	-0.06685682
40	0xbd960e4b	-0.07326945
41	0xbdce079c	-0.10060045
42	0xbd7fbd9d	-0.06243669
43	0xbd6e4410	-0.05817038
44	0xbde981d1	-0.11401714
45	0xbd5422df	-0.05179107
46	0xbe2dfc71	-0.1699083
47	0xbdbf567d	-0.09342668
48	0xbd69e14d	-0.05709963
49	0x39eba398	0.0004494458
50	0xbca66ebe	-0.020316478
51	0x3ba3b68d	0.004996127
52	0xbd938e02	-0.0720482
53	0xbc5d5c25	-0.0135107385
54	0xbd5e9c4a	-0.054348268
55	0xbd64b159	-0.055833194
56	0xbc4ca47c	-0.012490388
57	0xbe0802e9	-0.1328236
58	0xbdb8eb9b	-0.09029313
59	0xbd67d52d	-0.056599785
60	0xbd8874f5	-0.06662933
61	0xbda3452a	-0.079721764
62	0xbdba129d	-0.090855815
63	0xbdf93f11	-0.12170232
64	0xbda7c3f2	-0.081916705
65	0xbc12be8a	-0.008956561
66	0x3c4d0295	0.012512823
67	0xbd7a4063	-0.06109656
68	0xbdc82dbd	-0.09774349
69	0xbd9a3599	-0.07529754
70	0xbdf877db	-0.121322356
71	0xbdf855b1	-0.12125719
72	0x3c6a9df0	0.014319882
73	0xbd87efd0	-0.066375375
74	0xbe2f9743	-0.17147546
75	0xbc99469a	-0.018710423
76	0xbd8e94be	-0.06961964
77	0xbd598b70	-0.053111494
78	0xbddb9bde	-0.10723089
79	0xbdf0c4eb	-0.11756309
80	0xbdc03c39	-0.093864866
81	0xb9967d6c	-0.00028703676
82	0xbd8fc578	-0.07020086
83	0xbd596119	-0.053071115
84	0xba99cd9f	-0.0011734253
85	0xbd48d92c	-0.049035236
86	0xbdaedd78	-0.085383356
87	0xbdfe3c55	-0.12413851
88	0x3c2dbd6d	0.010604245
89	0xbc17add4	-0.009257752
90	0xbc9ac65c	-0.018893413
91	0xbda820f5	-0.08209411
92	0xbd4b61f1	-0.04965395
93	0xbd75799c	-0.05993043
94	0xbd1276f9	-0.035757992
95	0xbcd59960	-0.026074111
96	0xbdba1f93	-0.090880536
97	0xbd020384	-0.031741634
98	0x3b6ca714	0.0036110329
99	0xbd8d8662	-0.06910397
100	0xbdf250e1	-0.11831833
101	0xbd8b1fc7	-0.067931704
102	0xbdf59bdd	-0.11992619
103	0xbcb9df8c	-0.022689603
104	0xbd83a39f	-0.064276926
105	0xbc983cea	-0.018583734
106	0xbc46de29	-0.012137928
107	0xbdc5cc01	-0.09658051
108	0xbc31732f	-0.010830685
109	0xbd19e800	-0.037574768
110	0xbc95c19c	-0.018280797
111	0xbd63d4c5	-0.055622835
112	0x3d13ef99	0.03611717
113	0xbd83c8ca	-0.06434782
114	0xbd4f8c06	-0.050670646
115	0xbdf1db52	-0.1180941
116	0xbdda63fe	-0.10663603
117	0xbc2117ff	-0.009832381
118	0xbdc51746	-0.0962358
119	0xbd0c00eb	-0.034180563
120	0xbe0c3332	-0.13691404
121	0xbe0d9cef	-0.13829397
122	0xbdcac4e8	-0.09900838
123	0xbe0c7c47	-0.13719283
124	0xbd4a5407	-0.04939654
125	0xbda7f9c6	-0.082019374
126	0xbdf8316b	-0.12118801
127	0xbccfcecf	-0.025367169
128	0xbdb98899	-0.09059257
129	0xbe2d199c	-0.169043
130	0xbd457be3	-0.04821385
131	0xbdf3c546	-0.11902861
132	0xbdc300ff	-0.09521674
133	0x3ce22fc1	0.027610661
134	0xbdf9d369	-0.121985264
135	0xbc6bb355	-0.014386018
136	0xbe137277	-0.14399134
137	0xbcd04730	-0.02542457
138	0xbd808a4e	-0.062763795
139	0xbd61581f	-0.05501568
140	0xbda101ff	-0.07861709
141	0xbd2d3ae8	-0.042292506
142	0xbe02b7c5	-0.12765415
143	0xbbcb0950	-0.0061961785
144	0xbd1087d6	-0.035285793
145	0xbd269ad8	-0.040675014
146	0xbd84d08c	-0.0648509
147	0x3cd1a1de	0.02558988
148	0xbe0754ca	-0.13215938
149	0xbde6a0fa	-0.112611726
150	0xbd026982	-0.0318389
151	0xbdc71654	-0.097210556
152	0xbe2622f3	-0.1622427
153	0xbceae7ff	-0.028675077
154	0xbde45768	-0.11149484
155	0xbd99a689	-0.07502467
156	0xbd28c32a	-0.041201748
157	0xbda1a5b9	-0.07892937
158	0xbddae9f2	-0.10689153
159	0xbd58e30b	-0.0529509
160	0xbd6c47ff	-0.05768585
161	0xbc25738f	-0.010098352
162	0xbd807f7c	-0.06274316
163	0xbdf30897	-0.11866873
164	0xbd11572c	-0.035483524
165	0xbcaefd7d	-0.021361107
166	0xbdb5575c	-0.08854553
167	0xbd9c116e	-0.07620512
168	0xbdfa439b	-0.12219926
169	0xbdae29e9	-0.085040875
170	0xbd92b639	-0.071636625
171	0xbdc510a6	-0.09622316
172	0xbd81d0b6	-0.063386366
173	0xbd023f4f	-0.031798657
174	0xbda13c90	-0.078728795
175	0xbd5aa9d3	-0.053384613
176	0xbd3dd262	-0.046343215
177	0xbd4d23d3	-0.050082993
178	0xbdb195e7	-0.0867117
179	0xbe22b130	-0.15887904
180	0xb91acd9e	-0.00014763183
181	0xbd0892d9	-0.03334317
182	0xbdc97b3e	-0.0983796
183	0xbd9f6d7d	-0.07784555
184	0xbc896b70	-0.016774863
185	0xbd5c76f5	-0.053824384
186	0xbe0f540f	-0.1399691
187	0xbd66aff8	-0.05632016
188	0xbdcd9215	-0.100376286
189	0xbd9d4f28	-0.076811135
190	0xbd4bd5d5	-0.049764473
191	0xbd8c96cc	-0.068647
192	0xbd77014d	-0.060303975
193	0xbd73a1c0	-0.05948043
194	0xbe04a237	-0.12952505
195	0xbdcddd7b	-0.1005201
196	0xbda92e48	-0.082607806
197	0xbdc90694	-0.09815708
198	0xbbec8adb	-0.0072187013
199	0xbe411b58	-0.18858087
200	0xbc654e24	-0.013995681
201	0xbda43787	-0.080184035
202	0xbda9db00	-0.08293724
203	0xbd73a0c0	-0.059479475
204	0xbd0a6f1e	-0.033797376
205	0xbbd32382	-0.006443442
206	0xbda8d3c3	-0.08243515
207	0xbcf6b60f	-0.03011611
208	0xbd4aeb52	-0.049540825
209	0xbe179a59	-0.14804973
210	0xbe25e424	-0.1620031
211	0xbdb46a63	-0.08809354
212	0xbb3e52a0	-0.0029040948
213	0xbe35ec0f	-0.1776583
214	0xbdb5a0a1	-0.08868528
215	0xbda4bf40	-0.080442905
216	0xbdaff7df	-0.085921995
217	0xbd2e4223	-0.04254354
218	0xbe0d30eb	-0.13788192
219	0xbd9f4786	-0.07777314
220	0xbd742323	-0.05960382
221	0xbcf91ff3	-0.030410742
222	0xbd8d2af3	-0.068929575
223	0xbd6cf723	-0.057852875
224	0xbcd5277c	-0.026019804
225	0xbe2c1495	-0.16804726
226	0xbdbec956	-0.093157455
227	0xbe0a3541	-0.13496877
228	0xbd9d2ea1	-0.076749094
229	0xbcd8be89	-0.026458042
230	0xbda1b487	-0.07895761
231	0xbd181423	-0.03712858
232	0xbdca68b8	-0.09883255
233	0xbdb24ccc	-0.08706054
234	0xbdd065b4	-0.10175648
235	0x3cf3f0c2	0.029777888
236	0xbdbb05ac	-0.09131941
237	0xbc38b0c7	-0.011272616
238	0xbcdda848	-0.027057782
239	0xbd910ff9	-0.07083125
240	0xbd82d89c	-0.06388971
241	0xbd1a05fe	-0.03760337
242	0xbdecb44a	-0.11557825
243	0xbd6a59f6	-0.0572147
244	0xbc9bc2c5	-0.019013772
245	0xbe26043e	-0.16212556
246	0xbdb059ef	-0.086109035
247	0xbd9674cd	-0.07346497
248	0xbd008d12	-0.031384535
249	0xbddfef71	-0.10934342
250	0xbd8f268e	-0.069897756
251	0x3b9320f4	0.0044900123
252	0xbde31ddc	-0.110896796
253	0xbe3d5a0d	-0.18491383
254	0xbdc9cf9f	-0.09854054
255	0xbd9b6cbc	-0.07589099

fcs1_bn.running_mean f4 [400]
0	0xbdc35a8c	-0.09538755
1	0xbd2c6b72	-0.042094655
2	0xbe704b0f	-0.23466133
3	0xbe88b151	-0.26697782
4	0xbe2d288b	-0.16909997
5	0xbe3de4a2	-0.18544248
6	0xbcc8377d	-0.024440521
7	0x3ea8b57e	0.32950968
8	0x3e9c8c7a	0.30575925
9	0xbe38eca4	-0.18059021
10	0x3e04383a	0.12912074
11	0xbec1329e	-0.3773393
12	0x3e3287d3	0.17434625
13	0x3f009249	0.50223213
14	0x3d89a06a	0.0672005
15	0xbc1201de	-0.008911578
16	0xbe25c855	-0.16189702
17	0xbddd0640	-0.10792208
18	0xbda29bf2	-0.079399005
19	0x3d993ae3	0.07481935
20	0xbe87345b	-0.26407132
21	0xbdde18fe	-0.10844611
22	0xbd3cf022	-0.046127446
23	0x3dcc3e07	0.09972768
24	0x3d3d8c7d	0.04627656
25	0xbd31b34f	-0.043383893
26	0xbd90968b	-0.07059964
27	0xbe0ded93	-0.13860159
28	0x3cc38462	0.023866836
29	0xbdc9d980	-0.09855938
30	0x3d71d77a	0.059043385
31	0xbdc392f5	-0.09549514
32	0xbe5e6ca2	-0.21721128
33	0xbe8d2254	-0.27565253
34	0xbdcb3608	-0.09922415
35	0xbe0795ca	-0.13240734
36	0xbdfefe5a	-0.124508575
37	0x3dba212e	0.0908836
38	0x3dec587d	0.11540315
39	0x3e67a131	0.22620083
40	0xbe9929a1	-0.29914573
41	0x3e00e2b3	0.12586479
42	0xbeacf69b	-0.33781895
43	0x3bd8bda5	0.0066144043
44	0x3ef30534	0.47464907
45	0xbeff0d92	-0.4981504
46	0xbdd915da	-0.10599871
47	0x3dc89dbf	0.09795713
48	0x3e9b37bb	0.30315956
49	0xbeeebf34	-0.4663025
50	0xbe986e04	-0.29771435
51	0x3dda3686	0.10654931
52	0xbedc9acc	-0.4308685
53	0xbd9a34fb	-0.075296365
54	0xbecb1c88	-0.39670205
55	0xbe775979	-0.24155225
56	0x3d779481	0.06044436
57	0xbdbb9c0b	-0.09160622
58	0xbe1956cb	-0.14974515
59	0x3aa15c83	0.0012310896
60	0x3e31218b	0.17297952
61	0xbd82a852	-0.06379761
62	0x3d8a8524	0.06763676
63	0xbd9cbbe9	-0.076530285
64	0x3ea65e5c	0.32493865
65	0x3bc8a3ec	0.0061230566
66	0xbe74ca0e	-0.23905203
67	0xbe06aa1f	-0.13150834
68	0xbe76989e	-0.24081656
69	0x3d229734	0.03969498
70	0xbef68d8a	-0.4815486
71	0xbe736f4c	-0.23772925
72	0xbce7de6e	-0.028304305
73	0x3e692559	0.22768153
74	0xbda6b66c	-0.08140263
75	0xbd9266d6	-0.07148521
76	0x3d54e8ed	0.051979948
77	0x3da8bda5	0.08239297
78	0xbe457e85	-0.19286545
79	0x3d49347f	0.04912233
80	0xbdcbd099	-0.09951896
81	0xbe552746	-0.20815763
82	0x3e58f8aa	0.21188608
83	0x3dac3a89	0.08409602
84	0x3e04157b	0.12898819
85	0xbd4375ed	-0.047719885
86	0x3e49c978	0.1970576
87	0x3df7acef	0.12093531
88	0xbdc1f24b	-0.09470042
89	0x3bdb7a59	0.0066979346
90	0xbed53348	-0.41640687
91	0x3e8399e7	0.25703356
92	0xbe31053d	-0.17287154
93	0xbcd42566	-0.02589674
94	0x3c8c79ae	0.017147865
95	0xbe946b28	-0.28988004
96	0x3e8f77f7	0.28021213
97	0xbd0e83f3	-0.034793805
98	0xbec6156c	-0.3868822
99	0x3dd91d74	0.10601321
100	0x3d86e86c	0.065873
101	0x3ec24956	0.37946576
102	0xbdca7abb	-0.0988669
103	0xbe05929f	-0.13044213
104	0xbd722e2e	-0.05912607
105	0xbed093da	-0.40737802
106	0xbe06361e	-0.13106582
107	0x3df627c2	0.12019302
108	0xbc985afa	-0.018598069
109	0xbddf67e7	-0.1090849
110	0x3ca51587	0.020151867
111	0xbeb15041	-0.3463154
112	0xbecb5871	-0.39715913
113	0xbcd99a2d	-0.026562775
114	0x3d9d1e07	0.07671743
115	0x3e77ab4d	0.2418644
116	0xbd97e58d	-0.0741683
117	0xbdc7b4a5	-0.09751252
118	0x3d9209e4	0.07130793
119	0xbdf54a96	-0.11977117
120	0x3ee63de8	0.44969106
121	0xbe649d78	-0.22325695
122	0xbe42da1a	-0.19028512
123	0x3e512736	0.20425114
124	0xbea228f4	-0.3167187
125	0x3b9a5c4c	0.0047107097
126	0x3e9d71b3	0.30750808
127	0xbe9e65e5	-0.30937114
128	0xbe4a709a	-0.19769517
129	0x3ec8aa0f	0.39192244
130	0xbea1b527	-0.3158352
131	0x3c24e967	0.010065413
132	0x3dfda826	0.123855874
133	0xbf0f0480	-0.5586624
134	0x3d856bfc	0.06514737
135	0xbeea1270	-0.45717192
136	0x3f201cb7	0.62543815
137	0xbea7739c	-0.3270539
138	0xbd3bf257	-0.04588541
139	0xbd03fb92	-0.032222338
140	0xbebbfe4c	-0.3671745
141	0xbdf3cb16	-0.1190397
142	0x3e8f5b9d	0.27999583
143	0x3da7329d	0.081639506
144	0x3de12d9a	0.10995026
145	0xbe61705e	-0.22015521
146	0xbe170757	-0.14748894
147	0x3d1f3f16	0.038878523
148	0x3d92ea02	0.0717354
149	0xbe5968b6	-0.2123135
150	0xbe29bb9c	-0.16575474
151	0x3e5bfd16	0.21483263
152	0x3f30e3cd	0.69097596
153	0x3b45595f	0.0030113084
154	0x3e75489f	0.23953484
155	0x3edfebea	0.43734676
156	0xbeaa2949	-0.33234623
157	0xbeff53c5	-0.498686
158	0xbdb5162d	-0.0884212
159	0x3e44f4db	0.1923403
160	0x3d6fb96f	0.058526453
161	0xbe81bca5	-0.25339237
162	0x3d9e380f	0.07725536
163	0xbde6d901	-0.11271859
164	0xbca778b6	-0.020443302
165	0xbe5e405d	-0.2170424
166	0x3d8c560a	0.06852348
167	0xbe6b4dae	-0.22978851
168	0xbeaf9aff	-0.3429794
169	0xbe189223	-0.14899497
170	0x3d89af34	0.067228705
171	0x3e87bfad	0.26513425
172	0xbecd47c8	-0.40093827
173	0xbe9b29f3	-0.30305442
174	0xbde1ed7e	-0.11031626
175	0x3deaaff1	0.114593394
176	0x3efa99da	0.48945504
177	0xbe86b73e	-0.26311678
178	0xbe2292e3	-0.15876345
179	0xbd30c636	-0.04315778
180	0xbe0439a7	-0.12912618
181	0x3e2d5b31	0.16929318
182	0x3d572c95	0.05253275
183	0x3db2d95e	0.08732866
184	0xbc82bb82	-0.015958551
185	0x3e6f5308	0.23371518
186	0x3ebba49e	0.3664903
187	0xbe42889e	-0.18997428
188	0x3db30c74	0.087426096
189	0x3e0ef75b	0.13961546
190	0xbf137f85	-0.57616454
191	0xbead0be0	-0.33798122
192	0xbebe652f	-0.37186572
193	0x3ec423ba	0.38308507
194	0x3cdb4285	0.026765117
195	0xbea529a2	-0.32258326
196	0xbd4e6144	-0.05038573
197	0xbe47f0cd	-0.19525452
198	0xbd965787	-0.07340913
199	0x3ee870d4	0.4539858
200	0xbe2dd573	-0.16975956
201	0xbcc5c4f5	-0.024141768
202	0xbea17fff	-0.31542966
203	0xbe968727	-0.29399988
204	0xbe420f36	-0.18951115
205	0xbe41c240	-0.18921757
206	0x3ef5e3ac	0.48025262
207	0x3e1ead73	0.15495853
208	0x3eb1bc81	0.3471413
209	0x3eaa17d9	0.3322132
210	0x3e9acd5c	0.30234802
211	0xbead95ca	-0.33903342
212	0x3e48fe1f	0.1962819
213	0xbe0f103c	-0.13971037
214	0xbc3adf1b	-0.011405732
215	0xbe8bcb53	-0.27303562
216	0x3e815a90	0.25264406
217	0xbe871c56	-0.26388806
218	0x3ea64e41	0.32481578
219	0xbddbceab	-0.10732778
220	0xbecd784b	-0.4013084
221	0x3d6aa47d	0.057285774
222	0xbf2e57a9	-0.6810251
223	0xbed48419	-0.41507033
224	0x3efbe7de	0.49200338
225	0x3f02ee63	0.51145
226	0x3d78ca1a	0.060739614
227	0x3e4d0533	0.20021515
228	0xbe22dfc5	-0.15905674
229	0xbf031bb7	-0.51214164
230	0xbe33e38e	-0.17567274
231	0x3e6f3ce5	0.23363073
232	0xbd30df5c	-0.043181762
233	0xbe178c99	-0.14799727
234	0x3e387ffa	0.18017569
235	0xbe0fbe5c	-0.1403746
236	0xbca35731	-0.019939037
237	0x3eca4833	0.3950821
238	0xbdfde43e	-0.12397049
239	0xbebdde3f	-0.37083623
240	0x3d9a1bea	0.075248554
241	0x3e9c8a9a	0.30574495
242	0x3efc0458	0.49222064
243	0xbe590d5c	-0.21196502
244	0x3dc1fd9b	0.094721995
245	0x3e795d60	0.24352026
246	0xbd7a11c0	-0.061052084
247	0xbe93ce81	-0.28868487
248	0xbe1dfbf3	-0.15428142
249	0x3e82d078	0.25549674
250	0xbeb37a39	-0.35054186
251	0x3e6b8cf7	0.23002993
252	0xbd35184e	-0.044212632
253	0xbdfea996	-0.1243469
254	0x3e8fe7cd	0.28106537
255	0xbdbb23f7	-0.09137719

fcs1_bn.running_var f4 [400]
0	0x3fb62595	1.4230219
1	0x3f649033	0.8928253
2	0x408233f0	4.06884
3	0x4002f1b4	2.0460024
4	0x3fbec421	1.4903604
5	0x40017661	2.0228503
6	0x407f8ecb	3.9930904
7	0x3f915150	1.135294
8	0x3fcfd909	1.6238109
9	0x404469e9	3.0689642
10	0x3fde3e71	1.7362806
11	0x4095673a	4.668851
12	0x3fcd4e81	1.6039582
13	0x401b8134	2.429761
14	0x3fbc9430	1.4732723
15	0x40411ea5	3.0174954
16	0x4041389a	3.0190797
17	0x404022c5	3.0021222
18	0x40659e39	3.5877821
19	0x3fcf133d	1.6177746
20	0x40227cb4	2.5388613
21	0x40a10d84	5.0329
22	0x40b4fdbe	5.6559744
23	0x3f97a439	1.1846992
24	0x40068a6d	2.1021988
25	0x402a5443	2.661393
26	0x3fdd7782	1.7302096
27	0x4084cbc4	4.1498737
28	0x3fb5fa29	1.4216968
29	0x401533aa	2.3312783
30	0x3fe8d16e	1.8188913
31	0x404dde83	3.216706
32	0x4007ba7c	2.120757
33	0x3fc0f2fb	1.5074152
34	0x405cbf16	3.449163
35	0x40511002	3.266602
36	0x3fcdb719	1.6071502
37	0x403dbc7d	2.9646294
38	0x402433e6	2.5656676
39	0x409839aa	4.757039
40	0x3fec8187	1.8477029
41	0x40834674	4.10235
42	0x40a326ef	5.0985026
43	0x3f933eb0	1.1503506
44	0x4071bb47	3.7770555
45	0x3ff8f2b3	1.9449066
46	0x3f84cf76	1.0375812
47	0x3f728062	0.94727147
48	0x3f8c51c5	1.0962454
49	0x3fcda072	1.6064589
50	0x3fe358fb	1.776153
51	0x4010923a	2.258925
52	0x40083305	2.128114
53	0x4096a42f	4.707542
54	0x4085aeaa	4.1775713
55	0x3f940dfe	1.156677
56	0x3fd0b484	1.6305089
57	0x402255f2	2.5364957
58	0x40a0d46f	5.025932
59	0x3fdc7c82	1.7225497
60	0x406c5c14	3.69312
61	0x3f993d95	1.1971918
62	0x402833a5	2.6281521
63	0x40900cd1	4.5015645
64	0x3ffb7611	1.9645406
65	0x406657a5	3.5990994
66	0x3fd28a3c	1.6448436
67	0x405b1ff1	3.4238245
68	0x3feb7985	1.839646
69	0x3fc1d3c3	1.514275
70	0x3fbcbc9b	1.4745058
71	0x3fa22d70	1.2670116
72	0x401a2291	2.4083598
73	0x4012ca29	2.2935889
74	0x3f930bfc	1.1488032
75	0x3fc92472	1.5714247
76	0x3fe08ceb	1.7543005
77	0x40028257	2.0392053
78	0x3f9e2ad5	1.2356821
79	0x409083b6	4.516078
80	0x40343d93	2.8162582
81	0x3fc54888	1.541276
82	0x3fa6d91b	1.3035005
83	0x404ee093	3.232457
84	0x408cf96f	4.4054484
85	0x3fa10d8e	1.2582262
86	0x40828a5a	4.0793886
87	0x40eb4857	7.3525805
88	0x3ff25656	1.8932598
89	0x3f61cc5f	0.8820247
90	0x3f7a1b1d	0.9769762
91	0x3f690fe7	0.9103989
92	0x409c7408	4.889164
93	0x40864d90	4.196968
94	0x4030a655	2.760152
95	0x40385609	2.8802512
96	0x407fdbfa	3.9978013
97	0x40af577a	5.4794283
98	0x406fa3cd	3.7443726
99	0x409fee1f	4.9978175
100	0x40083bdd	2.1286538
101	0x3f71286a	0.9420229
102	0x4035ec70	2.842556
103	0x40427a4c	3.0387144
104	0x405cbe80	3.4491272
105	0x40838105	4.1094995
106	0x3fda72eb	1.706632
107	0x3f3a8030	0.7285185
108	0x4005b2da	2.0890412
109	0x40735d85	3.802583
110	0x3fe71fa5	1.8056532
111	0x40a76287	5.2307773
112	0x3fed8e37	1.8559026
113	0x40cad016	6.337901
114	0x40c4412b	6.132955
115	0x400065fc	2.0062246
116	0x3f99e819	1.2023956
117	0x404fd720	3.2475052
118	0x3f9160ea	1.1357701
119	0x3fdf190b	1.7429518
120	0x3f9a0ff6	1.2036121
121	0x3ff4379f	1.9079474
122	0x402677d9	2.601065
123	0x3f75f44f	0.9607591
124	0x400725ad	2.1116745
125	0x4048fe77	3.1405313
126	0x3f88a4ee	1.0675333
127	0x4065a388	3.5881062
128	0x4080f0f9	4.0294156
129	0x40374486	2.8635573
130	0x3fca6983	1.581345
131	0x3f580c41	0.843937
132	0x4001aba0	2.0261002
133	0x405e884c	3.477069
134	0x3fda3f10	1.7050495
135	0x3f513e6a	0.8173586
136	0x3f86638a	1.0499127
137	0x40332096	2.798864
138	0x404254f2	3.0364347
139	0x402dae6c	2.7137709
140	0x3f45c072	0.77246773
141	0x3f676b4c	0.903981
142	0x3fa70edd	1.3051411
143	0x3ed7cb54	0.42147315
144	0x405f2245	3.4864666
145	0x4025752a	2.5852761
146	0x3efb1538	0.49039626
147	0x40e70e81	7.2205205
148	0x405c90b4	3.446332
149	0x40bba3ff	5.863769
150	0x408a226b	4.3167014
151	0x3fe4ca1e	1.7874181
152	0x40146436	2.3186164
153	0x407dc8f6	3.9653907
154	0x3fd97464	1.6988645
155	0x40694cf2	3.6453214
156	0x40117eaa	2.273356
157	0x3fa17ca1	1.2616159
158	0x3fe6f287	1.8042763
159	0x4070612e	3.7559314
160	0x4025475e	2.582481
161	0x3f52e2ed	0.8237751
162	0x404ff9bd	3.2496178
163	0x4014d170	2.325283
164	0x40a0243b	5.0044227
165	0x4018508b	2.379916
166	0x40307873	2.7573516
167	0x3fc65906	1.5495918
168	0x3ff8a460	1.9425163
169	0x408fa752	4.489175
170	0x3fb898c8	1.4421625
171	0x3fb9341d	1.4469029
172	0x40b137bd	5.538054
173	0x3f76225b	0.9614617
174	0x3fa76743	1.3078388
175	0x3f8806d1	1.062708
176	0x3faffafe	1.3748472
177	0x4091d42b	4.5571494
178	0x3f933a14	1.1502099
179	0x3f4b81a0	0.7949467
180	0x3fd0dfa4	1.631825
181	0x3fab5c4a	1.3387539
182	0x40045013	2.0673873
183	0x3fa4e6a5	1.2882887
184	0x3fe8a8a1	1.8176461
185	0x3fdef729	1.7419177
186	0x3fd5a8e8	1.6692171
187	0x3fee1d6c	1.8602729
188	0x3f30539c	0.6887758
189	0x3fcafb20	1.5857887
190	0x4036c0b8	2.8555126
191	0x3f5d560f	0.8645944
192	0x3fbceb26	1.4759262
193	0x40597787	3.3979204
194	0x4014ef67	2.327112
195	0x403f3106	2.9873672
196	0x407e930c	3.977725
197	0x3f660ff8	0.89868116
198	0x3f4c9a0b	0.7992255
199	0x3fcd9f74	1.6064286
200	0x3ff0e88d	1.8820969
201	0x3f960c11	1.1722432
202	0x3fc3fbd2	1.5311224
203	0x400cf24d	2.2022889
204	0x3f6723a3	0.9028875
205	0x40182946	2.3775191
206	0x403dfd13	2.9685714
207	0x402d3ce5	2.7068417
208	0x4081c967	4.0558352
209	0x400c56bb	2.1927936
210	0x40035110	2.0518227
211	0x3fc06a31	1.5032407
212	0x3fa3412d	1.2754265
213	0x3f8ff5dc	1.1246905
214	0x4098ee01	4.779053
215	0x3f7c5f43	0.9858286
216	0x405ebdb8	3.4803295
217	0x406c93ff	3.696533
218	0x3f181b0f	0.5941629
219	0x3f8b7b7b	1.0897058
220	0x40745731	3.8178217
221	0x3f87d617	1.061221
222	0x3fb1fac6	1.3904655
223	0x3f9c72ee	1.2222574
224	0x4002d343	2.0441444
225	0x3f4ee8dc	0.80824065
226	0x4021fb4c	2.530963
227	0x40c417bb	6.127897
228	0x3f183f1c	0.594713
229	0x3fbb0bf4	1.4613023
230	0x401feb62	2.4987416
231	0x409024eb	4.5045066
232	0x40d690b1	6.7051625
233	0x3fae6c21	1.3626748
234	0x3f33426d	0.7002323
235	0x4034b43f	2.8235013
236	0x3f753b69	0.9579378
237	0x3fd8f222	1.6948893
238	0x40429aaa	3.04069
239	0x409ad952	4.8390284
240	0x3fb25c07	1.3934335
241	0x3fdd0799	1.7267944
242	0x3fc1194b	1.5085844
243	0x4079d9ef	3.9039266
244	0x3fb5d396	1.4205196
245	0x3f9ed900	1.2409973
246	0x3fcfd303	1.6236271
247	0x3f55aa1a	0.8346268
248	0x3f3f43e6	0.7471298
249	0x40d5b7ba	6.6786776
250	0x3ffb9c39	1.965705
251	0x3f9b0fc6	1.2114189
252	0x3f982f6c	1.1889472
253	0x4055e3c4	3.3420267
254	0x4032ceb9	2.7938673
255	0x3fca07a3	1.578358

fc2.weight f4 [300, 404]
0	0x3ca5dbb1	0.020246359
1	0x3d619eb6	0.055083
2	0xbdbbba68	-0.091664135
3	0xbb94a9ad	-0.0045368285
4	0x3d1668a7	0.036720898
5	0x3d101e6a	0.035185255
6	0x3cec7181	0.028862717
7	0xbd177189	-0.03697351
8	0x3da05a85	0.07829765
9	0x3dae26d7	0.08503502
10	0xbd016074	-0.031586125
11	0xbd2879da	-0.04113183
12	0x3d13f65d	0.036123622
13	0x3bde3a0b	0.0067818216
14	0xbce69290	-0.028146058
15	0xbc851b23	-0.016248291
16	0x3d27d420	0.040973783
17	0x3d33a2cc	0.043856427
18	0xbc90275f	-0.017596899
19	0xbd9e5cb5	-0.07732526
20	0xbd55d192	-0.052201815
21	0xbc9f63ea	-0.019456822
22	0x3b8551ae	0.004068575
23	0x3cbec9af	0.02328953
24	0x3dadc17e	0.08484171
25	0xbc78ff72	-0.015197622
26	0xbdc6dbdb	-0.09709903
27	0xbc226508	-0.009911783
28	0x3da65e89	0.081235
29	0x3d08c119	0.033387277
30	0x3b4442b1	0.0029946978
31	0xbd4a02f3	-0.04931922
32	0xbab18f18	-0.0013546674
33	0x3dfa2fc3	0.12216141
34	0x3b0d471e	0.0021557282
35	0x3cbbd05d	0.022926504
36	0x3dbc35a2	0.09189917
37	0x3be9244f	0.007114924
38	0x3ca77080	0.020439386
39	0x3a5a53fe	0.0008328556
40	0x3d77fdf2	0.060544915
41	0x3d610a92	0.05494172
42	0x3d46a548	0.04849747
43	0xbb8e2bb6	-0.004338707
44	0xbcfa0eb4	-0.03052459
45	0x3d79989e	0.060936563
46	0x3c71c156	0.014755568
47	0x3cfd6774	0.03093312
48	0xbd8b2ac6	-0.06795268
49	0x3c54d951	0.012991265
50	0xbd4e9239	-0.050432418
51	0x3c7c5946	0.015402144
52	0x3cdc546e	0.026895728
53	0x3d91c312	0.07117285
54	0x3dd78a61	0.105244406
55	0xbc3d7597	-0.01156368
56	0x3cae07d3	0.021243965
57	0x3d0e7573	0.034779977
58	0x3bad1e99	0.0052831885
59	0x3c709762	0.01468453
60	0xbccd88d2	-0.025089655
61	0x3d478ff7	0.04872128
62	0x3c0b5a55	0.008505424
63	0xbcb2d16d	-0.021828378
64	0xbd307245	-0.043077726
65	0x3c89c90d	0.016819501
66	0x3b74418d	0.0037270517
67	0x3d40c38a	0.04706148
68	0xbb1acb43	-0.0023619689
69	0xbcc9b56c	-0.024622642
70	0x3d055a17	0.03255662
71	0x3c5c979e	0.013463883
72	0x3d95cedf	0.07314848
73	0x3d632f51	0.055465046
74	0xbc7a4936	-0.015276244
75	0xbd66e538	-0.056370944
76	0x3cb90b24	0.02258832
77	0x3bdf7491	0.0068193157
78	0xbc9cf011	-0.019157441
79	0x3dad1d23	0.08452823
80	0xbc969953	-0.018383658
81	0x3b85c688	0.0040825047
82	0x3bbe6efb	0.0058115697
83	0xbc479f0f	-0.012183919
84	0x3db81d61	0.089899786
85	0xbc90a592	-0.017657075
86	0xbd2139da	-0.039361812
87	0xbd0c0317	-0.034182634
88	0x3c22a2c4	0.009926502
89	0x3d550bc9	0.052013192
90	0xbbaadcdc	-0.005214317
91	0x3d1b6c2a	0.03794495
92	0x3c89a86a	0.016803939
93	0xba70ea73	-0.0009190209
94	0x3cd88ce7	0.026434375
95	0x3d30c7c8	0.043159276
96	0xbcd00bb1	-0.0253962
97	0x3d44f493	0.048084807
98	0x3d730b20	0.05933678
99	0x3bc89a12	0.0061218822
100	0x3da1edfe	0.079067215
101	0x3ce10e9f	0.027472792
102	0x3d2026f9	0.039099667
103	0xbd432925	-0.04764666
104	0x3ce9b863	0.028530305
105	0xbe02380c	-0.12716693
106	0xbc9ba1f4	-0.018998124
107	0xbc8376e2	-0.016047899
108	0xbb97cd91	-0.0046326597
109	0xbcbdff85	-0.02319313
110	0x3cb6a9a7	0.022297693
111	0xbaa9467a	-0.001291468
112	0xbcbebaab	-0.02328237
113	0xbc326889	-0.010889181
114	0xbd4df848	-0.050285608
115	0xbd10932f	-0.035296615
116	0xbd11755f	-0.035512324
117	0xbd55a276	-0.052156888
118	0x3cd6ac58	0.026205227
119	0x3d94ae03	0.072597526
120	0xbd2daa27	-0.042398598
121	0xb9799a7f	-0.00023804045
122	0xbcc8655a	-0.02446239
123	0x3d1f8f27	0.03895488
124	0x3d26cdb6	0.040723525
125	0x3dc5cb93	0.09657969
126	0xbd5d425a	-0.054018356
127	0x3cdd83ef	0.02704045
128	0x3ddad748	0.10685593
129	0xbbda8ca6	-0.0066695986
130	0x3a0051df	0.0004895012
131	0x3d0a9869	0.033836756
132	0xbccef8d3	-0.025265133
133	0x3d26328d	0.040575553
134	0x3bbf8bcb	0.005845522
135	0x3d0eb20a	0.03483776
136	0x3d58d3eb	0.052936476
137	0x3c8758e0	0.016521871
138	0xbca79dd6	-0.020461004
139	0xbc11eb5f	-0.0089062145
140	0x3bbf8456	0.005844633
141	0x3b9994c6	0.0046869246
142	0x3b70c9e2	0.0036741425
143	0xbd83d8de	-0.064378485
144	0x3c791897	0.015203617
145	0x3d000fb1	0.031264964
146	0x3c5eda0f	0.013601794
147	0x3c8b7420	0.017023146
148	0xbd4cae65	-0.049971003
149	0xbc35b5fa	-0.01109075
150	0x3d8f3d95	0.06994168
151	0xbda5d1d6	-0.08096664
152	0x3dbab68b	0.091168486
153	0x3c98b6e9	0.018641906
154	0xbc457070	-0.012050733
155	0x3ca9ff79	0.020751702
156	0xbd923459	-0.07138891
157	0x3bca8bdd	0.006181224
158	0xbc3d367c	-0.011548635
159	0xbba6affa	-0.005086896
160	0x3d331da8	0.043729454
161	0x3d884205	0.06653217
162	0x3d4fe172	0.05075211
163	0xbbb6ee46	-0.0055826036
164	0xbdc61d6d	-0.09673581
165	0xbd9d367f	-0.0767641
166	0x3d7cd2c7	0.06172445
167	0x3bc3e30c	0.005977994
168	0x3aa4425e	0.0012531986
169	0x3c2309d0	0.00995107
170	0x3d2e9660	0.042623878
171	0xbc205510	-0.0097859055
172	0xbc67bbb2	-0.014143871
173	0xbd718a94	-0.05897005
174	0x3c63fc67	0.013915158
175	0x3d4e278f	0.050330695
176	0x3d0489fe	0.032358162
177	0xbc07d4d0	-0.008290485
178	0xbb65ea6f	-0.003508236
179	0x3ca84b7b	0.020543804
180	0xbca5fc8a	-0.020262022
181	0x3cba5482	0.022745375
182	0xbd55b866	-0.05217781
183	0xbc7baf74	-0.0153616555
184	0x3d7e5140	0.062089205
185	0x3db23604	0.08701709
186	0x3bf8fe9a	0.0075987102
187	0x3d227f20	0.039672017
188	0xbc3fc135	-0.011703779
189	0xbcc7b89a	-0.024380017
190	0xbc63d79c	-0.013906386
191	0x3d02c0c7	0.031922128
192	0x3d702a1f	0.05863392
193	0xbc4ea057	-0.01261147
194	0x3c8dedab	0.017325243
195	0x3d338665	0.04382934
196	0x3cd191e5	0.025582263
197	0xbda451a1	-0.08023382
198	0xbd1040d0	-0.03521806
199	0x3bca90ee	0.0061818277
200	0x3d83c7d7	0.06434601
201	0xbb41ab76	-0.0029551662
202	0x3dc3e79b	0.095656596
203	0xbc9888ae	-0.018619861
204	0x3c35877f	0.011079668
205	0x3b3f9717	0.0029234344
206	0xbd887366	-0.066626355
207	0x3c064df5	0.008197297
208	0xbd530be9	-0.05152503
209	0xbbb50e2e	-0.005525372
210	0x3c886c05	0.01665307
211	0xbd32c32f	-0.043643173
212	0xbd057729	-0.032584343
213	0x3d21c8b2	0.03949804
214	0xbd52be4a	-0.051451005
215	0xbc3ef70e	-0.011655582
216	0x3d7a40a8	0.061096817
217	0xba5b0813	-0.000835539
218	0x3d186545	0.037205953
219	0x3d2f5015	0.04280098
220	0x3bb4877a	0.005509314
221	0xbd61c68d	-0.055120993
222	0x3dfa28fa	0.12214847
223	0xbc788405	-0.015168195
224	0x3d91e05e	0.07122873
225	0x3c7f757e	0.015591977
226	0x3d294557	0.041325893
227	0xbda98ffd	-0.08279417
228	0xbd3e997a	-0.046533085
229	0x3c76e82c	0.0150700025
230	0xbc2be4fd	-0.010491607
231	0xbc6f948d	-0.01462282
232	0x3de1fe92	0.110348836
233	0xbd569723	-0.05239023
234	0xbc8d14e8	-0.017221883
235	0x3d08b837	0.033378806
236	0x3c215dc2	0.009849014
237	0x3d09b49b	0.033619504
238	0x3c85c1dc	0.01632779
239	0x3d4bbfc5	0.049743433
240	0x3c55fb11	0.013060347
241	0xbd8cdb51	-0.06877769
242	0xbc90b700	-0.017665386
243	0x3caf1930	0.021374315
244	0x3c9c4ff9	0.019081103
245	0xbc5773e2	-0.013150187
246	0x3d890da9	0.066920586
247	0xbe097272	-0.13422564
248	0xbd69a74b	-0.05704431
249	0xbd59e810	-0.053199828
250	0xbc65b8ff	-0.014021157
251	0x3cf46332	0.029832456
252	0xbba7450d	-0.005104667
253	0x3d781e75	0.06057592
254	0x3cb6a0b5	0.022293428
255	0xbd9f3fa5	-0.07775811
