agent_checkpoints/checkpoint_actor_9.pth (torch_old, 553585 bytes, 14 tensors)

fc1.weight f4 [400, 33]
000000 5e 4e f3 3c 91 59 fc bc d4 5c aa bc 49 66 8a 3d
       0.029700454 -0.030804427 -0.020796217 0.067577906
000010 51 f5 66 3d b6 c4 1b 39 80 88 12 bd f5 8b ec bc
       0.056386296 0.00014855232 -0.035774708 -0.02887533
000020 26 2b 77 bc 0b f9 23 bd 67 56 6c 3b 9e 09 18 3d
       -0.015085971 -0.040032428 0.0036062242 0.037118547
000030 dd cd fc ba b7 e7 7f 3d 17 79 09 3d 18 90 55 bd
       -0.0019287426 0.06247684 0.033562746 -0.05213937
000040 51 d0 16 3a 42 07 0a bb ec 46 4f 3d be 67 69 bd
       0.00057530875 -0.0021061455 0.050604746 -0.056983702
000050 10 70 87 bc 74 f8 01 bd e3 9c 43 bc e6 ec 21 3d
       -0.016532928 -0.031731084 -0.01193926 0.039532565
000060 2d 76 ce bc 07 20 20 bd 26 88 10 3d d0 6b c4 bb
       -0.025202835 -0.039093044 0.03528609 -0.0059942976
000070 0d 8b fc bc d4 5b 02 3c 3a ca b1 bb f5 7a 3e 3d
       -0.030828023 0.007956464 -0.0054257186 0.04650398
000080 f4 08 e3 bc ef 6a 96 bd 86 66 0f bd 74 6a 45 bc
       -0.02771423 -0.07344615 -0.035009883 -0.012049306
000090 d9 0b ac bc d1 26 ff bc b1 85 43 3d 23 77 46 3d
       -0.021001743 -0.031146439 0.04773492 0.04845346
0000a0 67 1f 04 3d d2 42 af bc 07 10 da 3c 76 2e 80 bd
       0.03225651 -0.021394167 0.02661897 -0.06258862
0000b0 16 07 15 bd 92 a8 78 3d 98 e3 9c bc aa da d8 3c
       -0.03638371 0.060707636 -0.019151494 0.026471455
0000c0 5b 75 7d bc ea 97 cb bc 8e ea 18 bd a4 ca 94 bc
       -0.015469874 -0.024852712 -0.037333064 -0.018163033
0000d0 6a 6f e5 bc fa 01 d3 3c f5 40 5c 3c 6c 63 13 bd
       -0.028007228 0.025757778 0.013443221 -0.035983488
0000e0 18 50 46 bd 8b da 99 bc 3c 35 26 3c ce 82 44 bd
       -0.048416227 -0.018780967 0.010144528 -0.047976308
0000f0 08 57 11 bd 06 55 f3 3c 5e af 2b bd 85 d1 6f bb
       -0.03548339 0.029703628 -0.04191529 -0.003659339
000100 c0 0c b6 bc 3f 9e bb 3c da 8b 2d 3d 44 93 8b 3d
       -0.022222877 0.022902606 0.0423697 0.06815198
000110 e7 69 9b 3c 50 9c 5d bd 96 69 58 3a 14 2c 27 3d
       0.018971397 -0.05410415 0.00082554796 0.04081352
000120 c6 f7 e2 b7 1d 09 21 bd f0 68 ed 3c b1 b8 89 3d
       -2.7056678e-05 -0.03931533 0.028980702 0.0672468
000130 6c 98 9e bd 1e c4 db 3b eb 82 0f 3d fb c8 00 bd
       -0.07743916 0.0067067286 0.035036962 -0.03144167
000140 5b c2 6f 3d 99 ab 75 3d 03 85 10 3c 0f d3 fc bc
       0.05853496 0.0599781 0.008820775 -0.03086236
000150 0c 93 bf 3c 09 68 8a 3c 0f 46 c5 bc 3a f6 85 3c
       0.023385547 0.016895311 -0.024081258 0.016352762
000160 d5 5c 27 bd 3c a7 22 bd aa 20 02 3d 7b 5c 77 bc
       -0.040860016 -0.03971027 0.031769432 -0.015097733
000170 29 76 66 ba 11 ff 99 bc 82 d7 ab bc 42 58 fa 3c
       -0.0008791411 -0.018798383 -0.020976786 0.030559663
000180 e6 37 25 3d 60 b9 01 bd 3f 0a 31 3d 9a e0 df bb
       0.040336512 -0.031670928 0.043222662 -0.0068321945
000190 60 3b a3 3c 23 e4 17 3c d2 07 86 bc 92 2d be 3c
       0.019925773 0.009270701 -0.01636115 0.023215089
0001a0 83 cd 76 3d da ff 78 bd 60 ed 63 3d bb 02 74 39
       0.060254585 -0.060790874 0.0556463 0.0002327067
0001b0 a7 60 b3 3c c7 93 19 ba 7d 76 b0 3c 66 1f 79 3d
       0.021896673 -0.00058585074 0.021540875 0.06082096
0001c0 d0 d6 6e bc 31 5f 2a 3d 0e e0 0c 3d 07 90 0e bd
       -0.0145775825 0.041594688 0.034393363 -0.034805324
0001d0 97 4d 0c 3d dd d7 5d bc e5 b6 8d 3c e3 9a a1 bc
       0.034253683 -0.013540235 0.017299125 -0.019727176
0001e0 80 0b e8 3c cd 04 02 3d 92 71 e2 bb 1e b4 9d 3c
       0.028325796 0.03174286 -0.0069105113 0.019250926
0001f0 fe 3a 4c 3d f0 19 8d bd f6 a1 d6 bc a7 28 9c ba
       0.049860947 -0.06889713 -0.026200276 -0.0011913971
000200 0f 9e 29 3d 4b 5f 20 3d c4 1a 5e 3c 77 78 b0 bc
       0.041410502 0.03915338 0.013556186 -0.021541817
000210 c0 eb c3 bc 0d fb 1e 3d 88 03 1d 3c d1 fc 0c 3d
       -0.023916125 0.03881364 0.009583361 0.034420792
000220 4e 49 1f bc 75 28 27 3d 2f b9 a4 3b 9b 31 38 3d
       -0.009722067 0.040810067 0.0050269584 0.044969182
000230 a6 f1 df 3c ac cf 43 3d c8 da 03 3d ae 6f 87 bc
       0.027336907 0.047805473 0.032191068 -0.016532745
000240 1c df 91 3c 09 f3 36 3d 28 df 9e bb c1 24 0c bd
       0.017806582 0.04466537 -0.0048483796 -0.03421474
000250 fc 2a ef 3c 91 60 23 bd 36 60 14 bd bc ec 2e 3c
       0.029195301 -0.039887015 -0.036224566 0.010676559
000260 ea 75 0a 3d 3c a2 b7 bb a7 25 e9 bc 5a 3d 26 bd
       0.033803858 -0.0056040566 -0.028460337 -0.040585853
000270 7b 6d 0c 3d 9a a7 e0 3c 55 38 32 3d bf 8a c0 bc
       0.034284096 0.027423669 0.043510754 -0.02350366
000280 e9 e4 84 bc da 0a 3e bd a7 a5 1d bc f1 a3 03 3d
       -0.016222434 -0.046397068 -0.009622014 0.03213877
000290 0e 51 09 bd b0 53 8a 3d 4c 48 35 3d 14 a1 43 bd
       -0.033524565 0.067542434 0.0442584 -0.047761038
0002a0 e8 24 00 3c 9e 17 f3 3c 16 08 1a 3d f0 e6 43 bd
       0.007821299 0.029674347 0.037605368 -0.04782766
0002b0 88 47 14 3d bf ed 15 bd 20 0a 4b bd 18 22 bc bb
       0.03620103 -0.036603685 -0.049570203 -0.005741369
0002c0 6f ce 78 3d 6f 9c 15 3d e5 fd 97 3d 2d ad 92 bb
       0.060743745 0.03652614 0.074214734 -0.0044762106
0002d0 74 4e 2c bd 9c 44 19 bd 69 c5 3e bd e4 0d 28 3d
       -0.042067006 -0.037418947 -0.046574984 0.041028872
0002e0 6f 3b 1f bd 9e 61 d2 3b e4 0e a4 3b 51 50 38 bd
       -0.03887504 0.0064203283 0.005006658 -0.04499847
0002f0 be 87 e5 3c c2 48 f9 3c 59 b6 73 bc 3f b0 ce bc
       0.028018828 0.030430201 -0.014875018 -0.025230525
000300 42 50 93 3a 13 29 07 bd d7 9b 20 3d f0 38 81 3c
       0.0011239129 -0.032998156 0.03921112 0.01577422
000310 06 17 a6 3c 2e 20 db 3c 8a 5b 5c bd 9d 34 c7 bc
       0.02027465 0.026748743 -0.053798236 -0.02431708
000320 17 23 4d bd e8 28 39 bd 1b 26 f7 bc d4 39 bd 3c
       -0.050082292 -0.045205027 -0.030169537 0.023098864
000330 1d 28 02 3d 9c f6 05 bd fa f8 7d 3c 02 25 44 3d
       0.031776536 -0.03270589 0.015501255 0.047886856
000340 5c a2 80 bc 01 77 c0 3b 13 24 b5 3b 09 a3 3c bd
       -0.015702419 0.0058735614 0.005527982 -0.04605392
000350 f6 89 ad 3c cc 18 ef bc 41 29 12 bc 2f 74 fa bc
       0.021183949 -0.029186629 -0.0089209685 -0.030572979
000360 31 4c bc bb 86 70 83 3c 19 82 de 3c b0 b8 31 3c
       -0.0057463874 0.016044866 0.027161645 0.010847256
000370 36 6a af bc c1 6e 54 bd e0 91 23 bc f2 9e 38 3d
       -0.02141295 -0.051863436 -0.00998351 0.045073457
000380 32 2c 5d 3d d5 37 4a 3d bd 71 14 bd 54 2e 52 3c
       0.053997226 0.04936965 -0.03624128 0.012828428
000390 d6 37 9e bc 06 36 e0 3c 6b 96 40 3d 24 9e 1b 3d
       -0.019313734 0.02736951 0.04701845 0.03799261
0003a0 30 a2 e7 bc bd da a3 3c a3 d2 10 bd 6e bc 0b bd
       -0.02827558 0.020001763 -0.03535713 -0.034115247
0003b0 44 6b 0b 3d 9d 43 98 3c 78 6d c5 3b f5 ce 20 bd
       0.034037843 0.018586928 0.0060250126 -0.03925987
0003c0 4a 2a 44 3c b1 4b c5 bc 60 88 e5 ba 00 c0 9a 3c
       0.011972973 -0.024083944 -0.0017511956 0.01889038
0003d0 a9 65 82 3d 79 82 c2 3c c8 34 c3 bc 22 eb 19 bd
       0.063670464 0.023743855 -0.023828879 -0.037577756
0003e0 4d a5 80 3c ce 5f a0 3c c3 a9 2a 3c 7b 4f b8 3c
       0.015703822 0.019576933 0.010416451 0.022498837
0003f0 3b 4f 12 bc 9f c0 5a 3d c3 65 42 3c 7c 71 62 3d
       -0.008930023 0.053406354 0.011865082 0.05528401

fc1.bias f4 [400]
000000 b1 11 42 3d ad b3 98 bd 3f 93 d5 bd f3 2f 03 3d
       0.047380153 -0.074561454 -0.104284756 0.03202815
000010 d5 81 02 3d 02 66 08 3d d3 2d 94 3c 12 05 10 3d
       0.0318621 0.033300407 0.018088257 0.035161085
000020 63 90 92 bc da d6 2a 3e 84 0d b2 3d f4 1d 1c be
       -0.017891115 0.16683522 0.08693984 -0.15245801
000030 c7 69 7b 3d cf 55 a6 bd 85 4d 8e bd 49 72 8c 3c
       0.061380174 -0.081218354 -0.069483794 0.01714434
000040 a5 4d 87 3d 93 19 9d 3b a3 05 10 3e 14 5f ac 3d
       0.066066064 0.0047943085 0.1406465 0.08416572
000050 6a ca 26 be 03 54 a1 3d 52 4a 03 3e e5 94 25 3c
       -0.16288152 0.07877352 0.1282132 0.0101063
000060 22 01 86 bc 1a 7a 79 bd bc a9 34 3c 70 ed b7 3d
       -0.016357962 -0.06090746 0.011026796 0.089808345
000070 ef ca d1 3d b9 38 36 bd 06 1a 2d be 48 20 32 3e
       0.10243785 -0.04448769 -0.16904458 0.17395127
000080 52 ac f2 3d 73 95 80 3d 01 bc 0d bd a4 9a b1 3d
       0.11849274 0.06278505 -0.034603123 0.086720735
000090 ed f4 aa 3d c8 5b c8 bd 82 b3 06 be e1 dc 0b be
       0.08347497 -0.09783131 -0.13154414 -0.13658477
0000a0 d0 11 f0 bd 3e 18 f5 3d 8d 1a f6 3d d9 9a 1b 3e
       -0.117221475 0.119675145 0.12016783 0.15195788
0000b0 bb 07 b3 bd 13 85 cf 3d 98 df 8b 3d 05 76 15 bd
       -0.08741709 0.10132804 0.068297565 -0.036489505
0000c0 c5 b6 1c be 04 e7 94 3d 85 80 aa bd 99 8c d1 3d
       -0.15304096 0.07270625 -0.083252944 0.10231895
0000d0 3f f8 cc bd 9a 8b a6 bd b2 81 61 bd c3 f0 9a 3d
       -0.10008287 -0.08132096 -0.055055328 0.07565453
0000e0 fa 35 1c 3e a6 bc 12 3d 2b 0e 09 3e 91 5b 2a 3e
       0.15254965 0.03582444 0.13384311 0.16636492
0000f0 b2 42 f1 3d 22 fb cf 3d e0 b3 d4 bd 4e 83 f3 bc
       0.11780299 0.10155322 -0.10385871 -0.029725697
000100 c2 f8 ac 3d 1b b8 47 3d c9 2e 6c bd 50 57 88 3d
       0.08445884 0.04875956 -0.057661805 0.066572785
000110 09 fc 19 3d ae fe 06 3d af 35 3a 3d 68 c2 da bd
       0.037593875 0.032957725 0.045461353 -0.10681611
000120 e3 63 a1 3c ad 11 c3 bd 27 34 c7 3b 21 69 26 3e
       0.01970095 -0.09524856 0.006079215 0.16251041
000130 f9 6b bd 3d 94 b8 d3 bd 2b 0c 20 3e 71 dd 5f 3d
       0.0924911 -0.1033794 0.15629642 0.054654542
000140 31 27 34 be 33 57 dc 3d 96 8a 37 be 91 df 05 be
       -0.17593075 0.107588194 -0.1792396 -0.13073565
000150 f2 af 2c 3c 22 e0 8d 3d f5 7c 2e 3e ee f4 9a bc
       0.0105399955 0.069275156 0.17039855 -0.01891562
000160 e7 91 70 bd a0 44 23 3e 29 38 a8 3d 6c f7 26 3e
       -0.058732893 0.15944147 0.08213837 0.16305321
000170 6a de 93 bd ed 0b f3 3d 75 61 85 bd 79 72 2a 3e
       -0.072201565 0.11867509 -0.06512729 0.1664523
000180 5f 71 28 bd 6a 53 ce bd 8c f4 28 be 59 55 c5 3d
       -0.041123744 -0.10074504 -0.16499537 0.096354194
000190 cc e4 86 bd d3 08 31 3e a8 59 28 3c 66 04 0c be
       -0.06586608 0.17288522 0.010275282 -0.13673553
0001a0 30 0c 68 bd 33 2b 71 3d cc 0d 75 bd 90 a2 e6 bd
       -0.056652248 0.05887909 -0.05982761 -0.11261475
0001b0 f0 69 f7 3d a9 ab cd 3d 44 95 d6 3d 85 5b 0e be
       0.12080753 0.10042507 0.10477689 -0.139021
0001c0 56 98 0f bc 2e ee 98 3d 65 a5 8a 3d b5 83 40 3e
       -0.008764347 0.07467304 0.06769828 0.18800242
0001d0 d9 d6 2f 3e b2 64 08 3e 03 b3 c7 3d 82 90 7c 3d
       0.17171802 0.13319662 0.09750941 0.06166125
0001e0 31 c7 b8 bc 94 48 e0 bb fc ec 70 bd af 92 23 3e
       -0.02255592 -0.0068445895 -0.058819756 0.15973924
0001f0 c4 bc 80 3c 24 61 59 bd 3b f8 81 bd d8 a3 68 bc
       0.01571501 -0.053071156 -0.06346174 -0.01419922
000200 57 73 d8 3d 98 69 02 be 57 e7 79 bd da b4 cf 3d
       0.10568874 -0.12735593 -0.06101164 0.101419166
000210 5f a3 d8 bd 72 3d 03 be e4 d2 86 bd c1 5d 9e 3d
       -0.105780356 -0.12816408 -0.06583193 0.07732726
000220 d4 66 19 3d 69 dd f5 3d 0d 82 2c 3e 73 37 73 3d
       0.03745158 0.12005121 0.16846485 0.059379052
000230 c6 93 1a be e5 19 09 3e bc 5c 68 3d f8 6a 14 3e
       -0.15095434 0.13388784 0.056729063 0.1449393
000240 6c 6f 7b bc a6 ce ac bd de 60 05 3e bb cd 56 3d
       -0.015346389 -0.084378526 0.13025233 0.052442294
000250 6f a4 09 be f1 09 07 be 4e 59 db bd 46 1e 89 bd
       -0.13441633 -0.13187386 -0.10710393 -0.06695227
000260 88 24 a1 3d 9f cf 28 bd 02 53 2c 3e 9f 3b b2 bc
       0.07868296 -0.041213628 0.1682854 -0.021756945
000270 59 c0 c4 3c 67 e7 70 bc 5c 69 bf 3d 1c 20 c5 bd
       0.0240175 -0.014703608 0.093462676 -0.09625265
000280 ed fa 23 3e 65 b4 60 bd d5 c7 1b 3e e6 01 44 3d
       0.1601369 -0.054859538 0.15212949 0.047853373
000290 dc 9e 18 3e b6 b5 b4 bd ee 09 36 3e 98 ef 8f 3d
       0.1490435 -0.08823721 0.17777225 0.07028121
0002a0 b4 a5 31 3e 13 26 83 3d 3a 8e 1f be 96 66 9a 3d
       0.17348367 0.064037465 -0.15581599 0.07539098
0002b0 f1 2c 92 3d e7 46 99 3d 24 c2 0c 3e ae 0e 12 3e
       0.07137478 0.07484227 0.13745934 0.14263412
0002c0 ce 46 0e be ff 76 ae 3d f1 95 f3 3c ad 38 98 bb
       -0.13894197 0.085187905 0.029734584 -0.004645428
0002d0 dc 6a 54 bd 7c 98 9e 3d dc 60 d2 3d 35 7f 16 be
       -0.05185972 0.07743928 0.10272381 -0.14696963
0002e0 38 88 0a b9 42 d1 40 be a1 69 ec bc 94 cb 04 3e
       -0.00013211451 -0.18829826 -0.028858962 0.12968284
0002f0 c1 c7 c6 3b 30 9a e7 3d 15 06 20 3d 3b a5 1b 3e
       0.006066293 0.11308706 0.0390683 0.15199749
000300 06 32 13 3e bf d4 3e 3e 9d ba 92 bd 9b 57 00 3e
       0.14374551 0.18635844 -0.071645 0.12533419
000310 1c 83 56 3e 5a 4f a4 3d 6b 76 1b bd 58 ae 27 3e
       0.20948452 0.080229476 -0.03795473 0.163751
000320 5f 59 26 be 82 02 25 3e 57 d2 b1 3c e9 c0 13 3e
       -0.1624503 0.16114238 0.021706743 0.14429058
000330 4c 96 d4 bd c2 08 77 bd ac 29 a1 bd 8e d4 5d 3c
       -0.10380229 -0.060311086 -0.078692764 0.0135394465
000340 cb b1 17 be ac 1a f9 3d e3 1c 97 bd d1 eb 15 3e
       -0.14813916 0.121632904 -0.073785566 0.14640738
000350 74 44 1e be bc e7 c4 3d 22 97 df bc c9 5f be bd
       -0.154558 0.09614512 -0.027293745 -0.09295613
000360 f6 d4 04 3e e2 34 21 be 4f 46 1d be 57 8a 27 3d
       0.12971863 -0.1574283 -0.15358852 0.040903416
000370 31 12 39 3d 27 f2 91 bc c2 e9 39 bd 9f e8 d7 3d
       0.045183364 -0.017815663 -0.045388944 0.10542416
000380 23 ee cf bd 05 ba fe 3d 17 fb cd 3d ef 6c 75 bd
       -0.10152843 0.12437824 0.10057657 -0.05991834
000390 d4 ad c9 3d c0 56 2a 3e d6 12 5d bd 7b 83 aa 3d
       0.09847608 0.16634655 -0.05397304 0.08325859
0003a0 0c 4b 9f bd d2 38 d8 3d a0 a7 1d bd fa d2 65 3d
       -0.07777986 0.105577126 -0.038489938 0.056109406
0003b0 e3 a3 92 3d 39 76 cf bd ac 1a 7c bd c6 3a 72 3d
       0.07160165 -0.10129971 -0.061548874 0.059138082
0003c0 1e 16 06 bc 75 e1 b8 bd 22 b2 0c 3d 6e c6 09 be
       -0.008183984 -0.090273775 0.03434957 -0.13454601
0003d0 22 64 f9 3d 76 32 f2 bd e3 54 f5 bd 45 cd 0c 3e
       0.12177302 -0.11826031 -0.119790815 0.13750179
0003e0 74 01 14 be 41 7c ff bd bd a2 95 3d 6b 33 51 bc
       -0.1445368 -0.124748714 0.073064305 -0.012768607
0003f0 32 87 7c 3d a3 2d 80 bd 3d 0c 32 bc da 3b 05 3d
       0.06165237 -0.062587045 -0.010867176 0.032527782

fc1_bn.weight f4 [400]
000000 94 8a f8 3e 44 57 d0 3e f4 62 2f 3f 60 d0 cd 3e
       0.48543227 0.40691578 0.68510365 0.4019804
000010 fc e4 26 3e 14 19 f1 3e 32 a2 f5 3e d8 56 57 3e
       0.16298288 0.47089446 0.47975308 0.21029222
000020 2d b4 6a 3f 01 d6 42 3f 6f 64 30 3f 4d 06 67 3f
       0.91681176 0.76107794 0.6890325 0.9024399
000030 e4 d6 3e 3e 60 60 8d 3d b7 f8 1a 3f ba 94 ab 3e
       0.18636662 0.06903148 0.6053576 0.33511907
000040 8a d6 1d 3f 05 6b 45 3f 00 e2 c1 3a 65 d2 50 3f
       0.61655486 0.77116424 0.0014792085 0.81571037
000050 f0 4a 8f 3d 57 dd 18 3f 72 17 fb 3e f9 bf 30 3f
       0.06996715 0.5971274 0.49041325 0.6904293
000060 fa 22 a2 3e 54 d1 08 3f 40 f8 f5 3d 14 06 19 3e
       0.3166731 0.5344441 0.120102406 0.14943725
000070 3e 6d 73 3f cc bb 2b 3e 12 84 e6 3e b4 82 90 3e
       0.95088565 0.16770858 0.45022637 0.2822472
000080 ee 43 9c 3e 5a 95 22 3f a4 f4 b4 3e 80 e8 2f 3f
       0.30520576 0.6350914 0.35342896 0.6871414
000090 14 25 da 3e d1 a5 09 3f d7 fc 7c 3f 5a 41 fb 3e
       0.42606413 0.5376864 0.98823303 0.49073297
0000a0 5e 14 8d 3e b0 e6 5d 3e 11 2e 54 3f 60 3b 2c 3f
       0.275546 0.21670032 0.8288279 0.672781
0000b0 5d 0d 07 3f eb 99 70 3f be 7b 9c 3e a4 9b 64 3e
       0.52754766 0.9398486 0.30563158 0.22324997
0000c0 79 99 41 3f e6 97 94 3e 5e 51 79 3f ee f3 fd 3e
       0.75624806 0.2902214 0.9738978 0.49600166
0000d0 07 e0 15 3f bd 1a 69 3f bc 69 07 3f eb d4 21 3f
       0.58544964 0.91056424 0.5289571 0.6321551
0000e0 50 5a 73 3e bc 98 a8 3e 6e 9d 12 3f c7 03 1a 3f
       0.2376492 0.32929027 0.5727147 0.60162014
0000f0 ca f5 29 3f 1a 94 18 3f 98 74 7e 3f 94 2f e9 3e
       0.6639067 0.59600985 0.9939666 0.45544112
000100 d0 43 1b 3d d0 91 48 3d e8 a7 69 3f d5 12 3a 3f
       0.037906468 0.048967183 0.9127183 0.72684985
000110 08 bd 7e 3e ad 9a 3d 3f ad 65 65 3f 1f cd 43 3f
       0.24876797 0.7406414 0.8960827 0.76484865
000120 3d 01 37 3f 7e 9f cd 3e 2e be a0 3e 10 62 bb 3d
       0.71486264 0.40160745 0.31395096 0.09149563
000130 b4 d1 43 3f 24 55 f4 3e 8e 16 f7 3e 7e e9 37 3f
       0.76491857 0.47721207 0.48259395 0.71840656
000140 c8 6e 11 3f 6c 52 03 3f 70 80 ad 3d 28 1b 43 3e
       0.56809664 0.5129764 0.08471763 0.19053328
000150 08 7b ad 3e 86 6c 80 3e 24 a9 19 3f 78 2d 2c 3f
       0.33882928 0.25082797 0.60023713 0.6725688
000160 c8 12 f5 3e 8f f5 3d 3f 20 a0 90 3d 50 5f 3a 3f
       0.4786589 0.7420282 0.070617914 0.72801685
000170 fe 4f cc 3e c8 b1 90 3e 18 b7 87 3d 60 b0 9c 3e
       0.3990478 0.28260636 0.06626719 0.30603313
000180 b2 ae 3f 3f 43 74 75 3f 10 53 4c 3e 84 5a 47 3f
       0.7487594 0.95880526 0.19953561 0.7787249
000190 72 fb a0 3e 0a af 13 3f ef f2 0d 3f 90 ef 68 3d
       0.31441838 0.57688963 0.5544881 0.05686909
0001a0 cf df 74 3f 30 cc b8 3e 3c 6b c2 3e 49 71 77 3f
       0.95654005 0.36093283 0.37972438 0.96657234
0001b0 ca a3 f2 3e 68 dc 27 3f 38 33 fc 3e ae d6 02 3f
       0.47390586 0.6557069 0.49257827 0.51108825
0001c0 be 8c fd 3e 6d 31 67 3f a5 c2 52 3f 9d c8 08 3f
       0.4952144 0.9030979 0.82328254 0.5343111
0001d0 0c 22 01 3f 3e e4 f9 3e 42 78 30 3f 80 34 a0 3e
       0.50442576 0.48806947 0.689335 0.31290054
0001e0 c2 21 da 3e 2a 9e d4 3e ff 53 06 3f 9f 4b 6f 3f
       0.4260388 0.4152692 0.5247192 0.93474764
0001f0 5a 89 d7 3e 4c c2 97 3e 70 25 85 3e c6 45 5e 3f
       0.42096978 0.29640424 0.26005125 0.86825216
000200 a9 14 3c 3f cc 3e f6 3e 9a e9 ab 3e 4c 4c cd 3e
       0.73469025 0.48094785 0.3357666 0.40097272
000210 a7 02 20 3f 2e 83 2c 3f 8f fe 23 3f 16 d0 b5 3e
       0.6250405 0.67387664 0.640603 0.3551032
000220 8c 87 24 3f d8 1e 2e 3e c0 9c e5 3d ef 0e 2a 3f
       0.6426933 0.17003953 0.11211538 0.66429037
000230 ec 5b a1 3e 00 53 58 3e f7 b7 60 3f 53 83 16 3f
       0.31515443 0.21125412 0.8778071 0.58794135
000240 9c 7a de 3e e0 65 ce 3c 7e b6 dc 3e 1c 71 3d 3e
       0.4345292 0.025195062 0.4310798 0.18500179
000250 9b 48 71 3f 3b 92 00 3f 07 9f 55 3f a0 d5 2e 3f
       0.9425141 0.5022313 0.8344578 0.68294716
000260 54 81 41 3f 7c 6f 54 3f 4a 03 22 3f 06 ca f8 3e
       0.75587964 0.8298261 0.6328627 0.48591632
000270 78 1d e9 3e ca 6d 1b 3f 4a b1 86 3e cd 11 05 3f
       0.45530295 0.607144 0.26307136 0.51980287
000280 82 e9 39 3f b1 af 28 3f de dc 15 3f a4 13 10 3f
       0.7262193 0.65893084 0.5854014 0.5627997
000290 b7 56 01 3f a2 eb 94 3e 36 ef 14 3f 94 c6 79 3e
       0.5052294 0.29086024 0.58177507 0.24392158
0002a0 de 20 1d 3f 64 7d 68 3f 4f bc 23 3f 54 2f 37 3f
       0.61378276 0.9081633 0.6395921 0.7155659
0002b0 92 a0 9d 3e ca e3 aa 3e 0c 69 17 3e f4 4c 6f 3f
       0.30786568 0.33376914 0.14786166 0.93476796
0002c0 c2 bf 67 3f ac af bf 3e 94 89 45 3f ac 11 27 3e
       0.90526974 0.37438715 0.7716305 0.16315335
0002d0 50 17 2c 3d 70 c3 42 3f 43 e2 79 3f 3d 57 1b 3f
       0.04201442 0.76079464 0.97610873 0.6067999
0002e0 3f 55 24 3f 4d a2 6a 3f d7 84 4a 3f c0 67 a8 3e
       0.64192575 0.916539 0.7910895 0.32891655
0002f0 8e 9b 54 3f d0 42 dd 3d d8 3c d6 3e 00 96 81 3a
       0.8304986 0.10803759 0.41843295 0.0009886622
000300 c0 f2 36 3c 22 cc 10 3f 36 e9 ad 3e 2a 0f 44 3f
       0.011166275 0.5656148 0.33966988 0.7658564
000310 00 8d 60 3c 70 ae 6a 3d 52 2c 07 3f ce bd 10 3f
       0.013705492 0.057295263 0.52802 0.5653962
000320 48 cc a1 3d 80 c6 56 3c 2b d3 6c 3f d6 ad bc 3e
       0.07900292 0.0131088495 0.92509717 0.36851376
000330 0a 1c 7b 3f 51 9b 7a 3f 6d 64 58 3f 9e c7 30 3f
       0.9808966 0.97893244 0.8452824 0.6905459
000340 b4 51 26 3f 6c a5 3c 3e b9 54 48 3f 79 c9 34 3f
       0.6496842 0.18422478 0.78254277 0.7061992
000350 0c 61 79 3f ec f8 75 3e cc ab 4b 3f 85 a4 5c 3f
       0.97413707 0.24020737 0.79559016 0.86188537
000360 e9 cc 79 3f 51 e8 62 3f a0 38 b5 3e 38 77 05 3e
       0.97578293 0.88635737 0.35394764 0.1303376
000370 a4 bc 76 3f 74 5a 21 3f c0 83 a8 3c e5 90 37 3f
       0.9638159 0.63028646 0.020570636 0.71705467
000380 b6 b5 c9 3e f0 8a ab 3e 14 56 76 3f 9e 15 e2 3e
       0.39396447 0.33504438 0.96225095 0.44157118
000390 7a 15 5d 3f 30 59 1d 3f dd d3 7e 3f f0 46 4f 3d
       0.86360896 0.61464214 0.9954203 0.05060476
0003a0 2a 0d 02 3f fe 61 76 3f a8 1b f2 3d bf 0d 39 3f
       0.50801337 0.96243274 0.11821681 0.722866
0003b0 78 66 4b 3f 00 80 b5 3b f4 8d 06 3f e8 6b 55 3e
       0.7945323 0.0055389404 0.52560353 0.20841944
0003c0 5d 6d 3e 3f de 8b a4 3e 64 83 35 3e 7a 37 b1 3e
       0.74385625 0.3213796 0.17725903 0.34612638
0003d0 a0 f3 5b 3e 2c 04 13 3e 20 ac e7 3c 78 4c ae 3d
       0.21479654 0.1435706 0.028280318 0.08510679
0003e0 c4 69 92 3e dd 7f 22 3f a8 79 ad 3e 40 f7 19 3e
       0.28596318 0.63476354 0.3388188 0.15035725
0003f0 f0 94 18 3e 00 a8 82 39 76 7b b8 3e 9c e7 e7 3e
       0.14900565 0.00024920702 0.36031693 0.4529389

fc1_bn.bias f4 [400]
000000 00 00 00 00 00 00 00 00 00 00 00 00 00 00 00 00
       0.0 0.0 0.0 0.0
000010 00 00 00 00 00 00 00 00 00 00 00 00 00 00 00 00
       0.0 0.0 0.0 0.0
000020 00 00 00 00 00 00 00 00 00 00 00 00 00 00 00 00
       0.0 0.0 0.0 0.0
000030 00 00 00 00 00 00 00 00 00 00 00 00 00 00 00 00
       0.0 0.0 0.0 0.0
000040 00 00 00 00 00 00 00 00 00 00 00 00 00 00 00 00
       0.0 0.0 0.0 0.0
000050 00 00 00 00 00 00 00 00 00 00 00 00 00 00 00 00
       0.0 0.0 0.0 0.0
000060 00 00 00 00 00 00 00 00 00 00 00 00 00 00 00 00
       0.0 0.0 0.0 0.0
000070 00 00 00 00 00 00 00 00 00 00 00 00 00 00 00 00
       0.0 0.0 0.0 0.0
000080 00 00 00 00 00 00 00 00 00 00 00 00 00 00 00 00
       0.0 0.0 0.0 0.0
000090 00 00 00 00 00 00 00 00 00 00 00 00 00 00 00 00
       0.0 0.0 0.0 0.0
0000a0 00 00 00 00 00 00 00 00 00 00 00 00 00 00 00 00
       0.0 0.0 0.0 0.0
0000b0 00 00 00 00 00 00 00 00 00 00 00 00 00 00 00 00
       0.0 0.0 0.0 0.0
0000c0 00 00 00 00 00 00 00 00 00 00 00 00 00 00 00 00
       0.0 0.0 0.0 0.0
0000d0 00 00 00 00 00 00 00 00 00 00 00 00 00 00 00 00
       0.0 0.0 0.0 0.0
0000e0 00 00 00 00 00 00 00 00 00 00 00 00 00 00 00 00
       0.0 0.0 0.0 0.0
0000f0 00 00 00 00 00 00 00 00 00 00 00 00 00 00 00 00
       0.0 0.0 0.0 0.0
000100 00 00 00 00 00 00 00 00 00 00 00 00 00 00 00 00
       0.0 0.0 0.0 0.0
000110 00 00 00 00 00 00 00 00 00 00 00 00 00 00 00 00
       0.0 0.0 0.0 0.0
000120 00 00 00 00 00 00 00 00 00 00 00 00 00 00 00 00
       0.0 0.0 0.0 0.0
000130 00 00 00 00 00 00 00 00 00 00 00 00 00 00 00 00
       0.0 0.0 0.0 0.0
000140 00 00 00 00 00 00 00 00 00 00 00 00 00 00 00 00
       0.0 0.0 0.0 0.0
000150 00 00 00 00 00 00 00 00 00 00 00 00 00 00 00 00
       0.0 0.0 0.0 0.0
000160 00 00 00 00 00 00 00 00 00 00 00 00 00 00 00 00
       0.0 0.0 0.0 0.0
000170 00 00 00 00 00 00 00 00 00 00 00 00 00 00 00 00
       0.0 0.0 0.0 0.0
000180 00 00 00 00 00 00 00 00 00 00 00 00 00 00 00 00
       0.0 0.0 0.0 0.0
000190 00 00 00 00 00 00 00 00 00 00 00 00 00 00 00 00
       0.0 0.0 0.0 0.0
0001a0 00 00 00 00 00 00 00 00 00 00 00 00 00 00 00 00
       0.0 0.0 0.0 0.0
0001b0 00 00 00 00 00 00 00 00 00 00 00 00 00 00 00 00
       0.0 0.0 0.0 0.0
0001c0 00 00 00 00 00 00 00 00 00 00 00 00 00 00 00 00
       0.0 0.0 0.0 0.0
0001d0 00 00 00 00 00 00 00 00 00 00 00 00 00 00 00 00
       0.0 0.0 0.0 0.0
0001e0 00 00 00 00 00 00 00 00 00 00 00 00 00 00 00 00
       0.0 0.0 0.0 0.0
0001f0 00 00 00 00 00 00 00 00 00 00 00 00 00 00 00 00
       0.0 0.0 0.0 0.0
000200 00 00 00 00 00 00 00 00 00 00 00 00 00 00 00 00
       0.0 0.0 0.0 0.0
000210 00 00 00 00 00 00 00 00 00 00 00 00 00 00 00 00
       0.0 0.0 0.0 0.0
000220 00 00 00 00 00 00 00 00 00 00 00 00 00 00 00 00
       0.0 0.0 0.0 0.0
000230 00 00 00 00 00 00 00 00 00 00 00 00 00 00 00 00
       0.0 0.0 0.0 0.0
000240 00 00 00 00 00 00 00 00 00 00 00 00 00 00 00 00
       0.0 0.0 0.0 0.0
000250 00 00 00 00 00 00 00 00 00 00 00 00 00 00 00 00
       0.0 0.0 0.0 0.0
000260 00 00 00 00 00 00 00 00 00 00 00 00 00 00 00 00
       0.0 0.0 0.0 0.0
000270 00 00 00 00 00 00 00 00 00 00 00 00 00 00 00 00
       0.0 0.0 0.0 0.0
000280 00 00 00 00 00 00 00 00 00 00 00 00 00 00 00 00
       0.0 0.0 0.0 0.0
000290 00 00 00 00 00 00 00 00 00 00 00 00 00 00 00 00
       0.0 0.0 0.0 0.0
0002a0 00 00 00 00 00 00 00 00 00 00 00 00 00 00 00 00
       0.0 0.0 0.0 0.0
0002b0 00 00 00 00 00 00 00 00 00 00 00 00 00 00 00 00
       0.0 0.0 0.0 0.0
0002c0 00 00 00 00 00 00 00 00 00 00 00 00 00 00 00 00
       0.0 0.0 0.0 0.0
0002d0 00 00 00 00 00 00 00 00 00 00 00 00 00 00 00 00
       0.0 0.0 0.0 0.0
0002e0 00 00 00 00 00 00 00 00 00 00 00 00 00 00 00 00
       0.0 0.0 0.0 0.0
0002f0 00 00 00 00 00 00 00 00 00 00 00 00 00 00 00 00
       0.0 0.0 0.0 0.0
000300 00 00 00 00 00 00 00 00 00 00 00 00 00 00 00 00
       0.0 0.0 0.0 0.0
000310 00 00 00 00 00 00 00 00 00 00 00 00 00 00 00 00
       0.0 0.0 0.0 0.0
000320 00 00 00 00 00 00 00 00 00 00 00 00 00 00 00 00
       0.0 0.0 0.0 0.0
000330 00 00 00 00 00 00 00 00 00 00 00 00 00 00 00 00
       0.0 0.0 0.0 0.0
000340 00 00 00 00 00 00 00 00 00 00 00 00 00 00 00 00
       0.0 0.0 0.0 0.0
000350 00 00 00 00 00 00 00 00 00 00 00 00 00 00 00 00
       0.0 0.0 0.0 0.0
000360 00 00 00 00 00 00 00 00 00 00 00 00 00 00 00 00
       0.0 0.0 0.0 0.0
000370 00 00 00 00 00 00 00 00 00 00 00 00 00 00 00 00
       0.0 0.0 0.0 0.0
000380 00 00 00 00 00 00 00 00 00 00 00 00 00 00 00 00
       0.0 0.0 0.0 0.0
000390 00 00 00 00 00 00 00 00 00 00 00 00 00 00 00 00
       0.0 0.0 0.0 0.0
0003a0 00 00 00 00 00 00 00 00 00 00 00 00 00 00 00 00
       0.0 0.0 0.0 0.0
0003b0 00 00 00 00 00 00 00 00 00 00 00 00 00 00 00 00
       0.0 0.0 0.0 0.0
0003c0 00 00 00 00 00 00 00 00 00 00 00 00 00 00 00 00
       0.0 0.0 0.0 0.0
0003d0 00 00 00 00 00 00 00 00 00 00 00 00 00 00 00 00
       0.0 0.0 0.0 0.0
0003e0 00 00 00 00 00 00 00 00 00 00 00 00 00 00 00 00
       0.0 0.0 0.0 0.0
0003f0 00 00 00 00 00 00 00 00 00 00 00 00 00 00 00 00
       0.0 0.0 0.0 0.0

fc1_bn.running_mean f4 [400]
000000 00 00 00 00 00 00 00 00 00 00 00 00 00 00 00 00
       0.0 0.0 0.0 0.0
000010 00 00 00 00 00 00 00 00 00 00 00 00 00 00 00 00
       0.0 0.0 0.0 0.0
000020 00 00 00 00 00 00 00 00 00 00 00 00 00 00 00 00
       0.0 0.0 0.0 0.0
000030 00 00 00 00 00 00 00 00 00 00 00 00 00 00 00 00
       0.0 0.0 0.0 0.0
000040 00 00 00 00 00 00 00 00 00 00 00 00 00 00 00 00
       0.0 0.0 0.0 0.0
000050 00 00 00 00 00 00 00 00 00 00 00 00 00 00 00 00
       0.0 0.0 0.0 0.0
000060 00 00 00 00 00 00 00 00 00 00 00 00 00 00 00 00
       0.0 0.0 0.0 0.0
000070 00 00 00 00 00 00 00 00 00 00 00 00 00 00 00 00
       0.0 0.0 0.0 0.0
000080 00 00 00 00 00 00 00 00 00 00 00 00 00 00 00 00
       0.0 0.0 0.0 0.0
000090 00 00 00 00 00 00 00 00 00 00 00 00 00 00 00 00
       0.0 0.0 0.0 0.0
0000a0 00 00 00 00 00 00 00 00 00 00 00 00 00 00 00 00
       0.0 0.0 0.0 0.0
0000b0 00 00 00 00 00 00 00 00 00 00 00 00 00 00 00 00
       0.0 0.0 0.0 0.0
0000c0 00 00 00 00 00 00 00 00 00 00 00 00 00 00 00 00
       0.0 0.0 0.0 0.0
0000d0 00 00 00 00 00 00 00 00 00 00 00 00 00 00 00 00
       0.0 0.0 0.0 0.0
0000e0 00 00 00 00 00 00 00 00 00 00 00 00 00 00 00 00
       0.0 0.0 0.0 0.0
0000f0 00 00 00 00 00 00 00 00 00 00 00 00 00 00 00 00
       0.0 0.0 0.0 0.0
000100 00 00 00 00 00 00 00 00 00 00 00 00 00 00 00 00
       0.0 0.0 0.0 0.0
000110 00 00 00 00 00 00 00 00 00 00 00 00 00 00 00 00
       0.0 0.0 0.0 0.0
000120 00 00 00 00 00 00 00 00 00 00 00 00 00 00 00 00
       0.0 0.0 0.0 0.0
000130 00 00 00 00 00 00 00 00 00 00 00 00 00 00 00 00
       0.0 0.0 0.0 0.0
000140 00 00 00 00 00 00 00 00 00 00 00 00 00 00 00 00
       0.0 0.0 0.0 0.0
000150 00 00 00 00 00 00 00 00 00 00 00 00 00 00 00 00
       0.0 0.0 0.0 0.0
000160 00 00 00 00 00 00 00 00 00 00 00 00 00 00 00 00
       0.0 0.0 0.0 0.0
000170 00 00 00 00 00 00 00 00 00 00 00 00 00 00 00 00
       0.0 0.0 0.0 0.0
000180 00 00 00 00 00 00 00 00 00 00 00 00 00 00 00 00
       0.0 0.0 0.0 0.0
000190 00 00 00 00 00 00 00 00 00 00 00 00 00 00 00 00
       0.0 0.0 0.0 0.0
0001a0 00 00 00 00 00 00 00 00 00 00 00 00 00 00 00 00
       0.0 0.0 0.0 0.0
0001b0 00 00 00 00 00 00 00 00 00 00 00 00 00 00 00 00
       0.0 0.0 0.0 0.0
0001c0 00 00 00 00 00 00 00 00 00 00 00 00 00 00 00 00
       0.0 0.0 0.0 0.0
0001d0 00 00 00 00 00 00 00 00 00 00 00 00 00 00 00 00
       0.0 0.0 0.0 0.0
0001e0 00 00 00 00 00 00 00 00 00 00 00 00 00 00 00 00
       0.0 0.0 0.0 0.0
0001f0 00 00 00 00 00 00 00 00 00 00 00 00 00 00 00 00
       0.0 0.0 0.0 0.0
000200 00 00 00 00 00 00 00 00 00 00 00 00 00 00 00 00
       0.0 0.0 0.0 0.0
000210 00 00 00 00 00 00 00 00 00 00 00 00 00 00 00 00
       0.0 0.0 0.0 0.0
000220 00 00 00 00 00 00 00 00 00 00 00 00 00 00 00 00
       0.0 0.0 0.0 0.0
000230 00 00 00 00 00 00 00 00 00 00 00 00 00 00 00 00
       0.0 0.0 0.0 0.0
000240 00 00 00 00 00 00 00 00 00 00 00 00 00 00 00 00
       0.0 0.0 0.0 0.0
000250 00 00 00 00 00 00 00 00 00 00 00 00 00 00 00 00
       0.0 0.0 0.0 0.0
000260 00 00 00 00 00 00 00 00 00 00 00 00 00 00 00 00
       0.0 0.0 0.0 0.0
000270 00 00 00 00 00 00 00 00 00 00 00 00 00 00 00 00
       0.0 0.0 0.0 0.0
000280 00 00 00 00 00 00 00 00 00 00 00 00 00 00 00 00
       0.0 0.0 0.0 0.0
000290 00 00 00 00 00 00 00 00 00 00 00 00 00 00 00 00
       0.0 0.0 0.0 0.0
0002a0 00 00 00 00 00 00 00 00 00 00 00 00 00 00 00 00
       0.0 0.0 0.0 0.0
0002b0 00 00 00 00 00 00 00 00 00 00 00 00 00 00 00 00
       0.0 0.0 0.0 0.0
0002c0 00 00 00 00 00 00 00 00 00 00 00 00 00 00 00 00
       0.0 0.0 0.0 0.0
0002d0 00 00 00 00 00 00 00 00 00 00 00 00 00 00 00 00
       0.0 0.0 0.0 0.0
0002e0 00 00 00 00 00 00 00 00 00 00 00 00 00 00 00 00
       0.0 0.0 0.0 0.0
0002f0 00 00 00 00 00 00 00 00 00 00 00 00 00 00 00 00
       0.0 0.0 0.0 0.0
000300 00 00 00 00 00 00 00 00 00 00 00 00 00 00 00 00
       0.0 0.0 0.0 0.0
000310 00 00 00 00 00 00 00 00 00 00 00 00 00 00 00 00
       0.0 0.0 0.0 0.0
000320 00 00 00 00 00 00 00 00 00 00 00 00 00 00 00 00
       0.0 0.0 0.0 0.0
000330 00 00 00 00 00 00 00 00 00 00 00 00 00 00 00 00
       0.0 0.0 0.0 0.0
000340 00 00 00 00 00 00 00 00 00 00 00 00 00 00 00 00
       0.0 0.0 0.0 0.0
000350 00 00 00 00 00 00 00 00 00 00 00 00 00 00 00 00
       0.0 0.0 0.0 0.0
000360 00 00 00 00 00 00 00 00 00 00 00 00 00 00 00 00
       0.0 0.0 0.0 0.0
000370 00 00 00 00 00 00 00 00 00 00 00 00 00 00 00 00
       0.0 0.0 0.0 0.0
000380 00 00 00 00 00 00 00 00 00 00 00 00 00 00 00 00
       0.0 0.0 0.0 0.0
000390 00 00 00 00 00 00 00 00 00 00 00 00 00 00 00 00
       0.0 0.0 0.0 0.0
0003a0 00 00 00 00 00 00 00 00 00 00 00 00 00 00 00 00
       0.0 0.0 0.0 0.0
0003b0 00 00 00 00 00 00 00 00 00 00 00 00 00 00 00 00
       0.0 0.0 0.0 0.0
0003c0 00 00 00 00 00 00 00 00 00 00 00 00 00 00 00 00
       0.0 0.0 0.0 0.0
0003d0 00 00 00 00 00 00 00 00 00 00 00 00 00 00 00 00
       0.0 0.0 0.0 0.0
0003e0 00 00 00 00 00 00 00 00 00 00 00 00 00 00 00 00
       0.0 0.0 0.0 0.0
0003f0 00 00 00 00 00 00 00 00 00 00 00 00 00 00 00 00
       0.0 0.0 0.0 0.0

fc1_bn.running_var f4 [400]
000000 00 00 80 3f 00 00 80 3f 00 00 80 3f 00 00 80 3f
       1.0 1.0 1.0 1.0
000010 00 00 80 3f 00 00 80 3f 00 00 80 3f 00 00 80 3f
       1.0 1.0 1.0 1.0
000020 00 00 80 3f 00 00 80 3f 00 00 80 3f 00 00 80 3f
       1.0 1.0 1.0 1.0
000030 00 00 80 3f 00 00 80 3f 00 00 80 3f 00 00 80 3f
       1.0 1.0 1.0 1.0
000040 00 00 80 3f 00 00 80 3f 00 00 80 3f 00 00 80 3f
       1.0 1.0 1.0 1.0
000050 00 00 80 3f 00 00 80 3f 00 00 80 3f 00 00 80 3f
       1.0 1.0 1.0 1.0
000060 00 00 80 3f 00 00 80 3f 00 00 80 3f 00 00 80 3f
       1.0 1.0 1.0 1.0
000070 00 00 80 3f 00 00 80 3f 00 00 80 3f 00 00 80 3f
       1.0 1.0 1.0 1.0
000080 00 00 80 3f 00 00 80 3f 00 00 80 3f 00 00 80 3f
       1.0 1.0 1.0 1.0
000090 00 00 80 3f 00 00 80 3f 00 00 80 3f 00 00 80 3f
       1.0 1.0 1.0 1.0
0000a0 00 00 80 3f 00 00 80 3f 00 00 80 3f 00 00 80 3f
       1.0 1.0 1.0 1.0
0000b0 00 00 80 3f 00 00 80 3f 00 00 80 3f 00 00 80 3f
       1.0 1.0 1.0 1.0
0000c0 00 00 80 3f 00 00 80 3f 00 00 80 3f 00 00 80 3f
       1.0 1.0 1.0 1.0
0000d0 00 00 80 3f 00 00 80 3f 00 00 80 3f 00 00 80 3f
       1.0 1.0 1.0 1.0
0000e0 00 00 80 3f 00 00 80 3f 00 00 80 3f 00 00 80 3f
       1.0 1.0 1.0 1.0
0000f0 00 00 80 3f 00 00 80 3f 00 00 80 3f 00 00 80 3f
       1.0 1.0 1.0 1.0
000100 00 00 80 3f 00 00 80 3f 00 00 80 3f 00 00 80 3f
       1.0 1.0 1.0 1.0
000110 00 00 80 3f 00 00 80 3f 00 00 80 3f 00 00 80 3f
       1.0 1.0 1.0 1.0
000120 00 00 80 3f 00 00 80 3f 00 00 80 3f 00 00 80 3f
       1.0 1.0 1.0 1.0
000130 00 00 80 3f 00 00 80 3f 00 00 80 3f 00 00 80 3f
       1.0 1.0 1.0 1.0
000140 00 00 80 3f 00 00 80 3f 00 00 80 3f 00 00 80 3f
       1.0 1.0 1.0 1.0
000150 00 00 80 3f 00 00 80 3f 00 00 80 3f 00 00 80 3f
       1.0 1.0 1.0 1.0
000160 00 00 80 3f 00 00 80 3f 00 00 80 3f 00 00 80 3f
       1.0 1.0 1.0 1.0
000170 00 00 80 3f 00 00 80 3f 00 00 80 3f 00 00 80 3f
       1.0 1.0 1.0 1.0
000180 00 00 80 3f 00 00 80 3f 00 00 80 3f 00 00 80 3f
       1.0 1.0 1.0 1.0
000190 00 00 80 3f 00 00 80 3f 00 00 80 3f 00 00 80 3f
       1.0 1.0 1.0 1.0
0001a0 00 00 80 3f 00 00 80 3f 00 00 80 3f 00 00 80 3f
       1.0 1.0 1.0 1.0
0001b0 00 00 80 3f 00 00 80 3f 00 00 80 3f 00 00 80 3f
       1.0 1.0 1.0 1.0
0001c0 00 00 80 3f 00 00 80 3f 00 00 80 3f 00 00 80 3f
       1.0 1.0 1.0 1.0
0001d0 00 00 80 3f 00 00 80 3f 00 00 80 3f 00 00 80 3f
       1.0 1.0 1.0 1.0
0001e0 00 00 80 3f 00 00 80 3f 00 00 80 3f 00 00 80 3f
       1.0 1.0 1.0 1.0
0001f0 00 00 80 3f 00 00 80 3f 00 00 80 3f 00 00 80 3f
       1.0 1.0 1.0 1.0
000200 00 00 80 3f 00 00 80 3f 00 00 80 3f 00 00 80 3f
       1.0 1.0 1.0 1.0
000210 00 00 80 3f 00 00 80 3f 00 00 80 3f 00 00 80 3f
       1.0 1.0 1.0 1.0
000220 00 00 80 3f 00 00 80 3f 00 00 80 3f 00 00 80 3f
       1.0 1.0 1.0 1.0
000230 00 00 80 3f 00 00 80 3f 00 00 80 3f 00 00 80 3f
       1.0 1.0 1.0 1.0
000240 00 00 80 3f 00 00 80 3f 00 00 80 3f 00 00 80 3f
       1.0 1.0 1.0 1.0
000250 00 00 80 3f 00 00 80 3f 00 00 80 3f 00 00 80 3f
       1.0 1.0 1.0 1.0
000260 00 00 80 3f 00 00 80 3f 00 00 80 3f 00 00 80 3f
       1.0 1.0 1.0 1.0
000270 00 00 80 3f 00 00 80 3f 00 00 80 3f 00 00 80 3f
       1.0 1.0 1.0 1.0
000280 00 00 80 3f 00 00 80 3f 00 00 80 3f 00 00 80 3f
       1.0 1.0 1.0 1.0
000290 00 00 80 3f 00 00 80 3f 00 00 80 3f 00 00 80 3f
       1.0 1.0 1.0 1.0
0002a0 00 00 80 3f 00 00 80 3f 00 00 80 3f 00 00 80 3f
       1.0 1.0 1.0 1.0
0002b0 00 00 80 3f 00 00 80 3f 00 00 80 3f 00 00 80 3f
       1.0 1.0 1.0 1.0
0002c0 00 00 80 3f 00 00 80 3f 00 00 80 3f 00 00 80 3f
       1.0 1.0 1.0 1.0
0002d0 00 00 80 3f 00 00 80 3f 00 00 80 3f 00 00 80 3f
       1.0 1.0 1.0 1.0
0002e0 00 00 80 3f 00 00 80 3f 00 00 80 3f 00 00 80 3f
       1.0 1.0 1.0 1.0
0002f0 00 00 80 3f 00 00 80 3f 00 00 80 3f 00 00 80 3f
       1.0 1.0 1.0 1.0
000300 00 00 80 3f 00 00 80 3f 00 00 80 3f 00 00 80 3f
       1.0 1.0 1.0 1.0
000310 00 00 80 3f 00 00 80 3f 00 00 80 3f 00 00 80 3f
       1.0 1.0 1.0 1.0
000320 00 00 80 3f 00 00 80 3f 00 00 80 3f 00 00 80 3f
       1.0 1.0 1.0 1.0
000330 00 00 80 3f 00 00 80 3f 00 00 80 3f 00 00 80 3f
       1.0 1.0 1.0 1.0
000340 00 00 80 3f 00 00 80 3f 00 00 80 3f 00 00 80 3f
       1.0 1.0 1.0 1.0
000350 00 00 80 3f 00 00 80 3f 00 00 80 3f 00 00 80 3f
       1.0 1.0 1.0 1.0
000360 00 00 80 3f 00 00 80 3f 00 00 80 3f 00 00 80 3f
       1.0 1.0 1.0 1.0
000370 00 00 80 3f 00 00 80 3f 00 00 80 3f 00 00 80 3f
       1.0 1.0 1.0 1.0
000380 00 00 80 3f 00 00 80 3f 00 00 80 3f 00 00 80 3f
       1.0 1.0 1.0 1.0
000390 00 00 80 3f 00 00 80 3f 00 00 80 3f 00 00 80 3f
       1.0 1.0 1.0 1.0
0003a0 00 00 80 3f 00 00 80 3f 00 00 80 3f 00 00 80 3f
       1.0 1.0 1.0 1.0
0003b0 00 00 80 3f 00 00 80 3f 00 00 80 3f 00 00 80 3f
       1.0 1.0 1.0 1.0
0003c0 00 00 80 3f 00 00 80 3f 00 00 80 3f 00 00 80 3f
       1.0 1.0 1.0 1.0
0003d0 00 00 80 3f 00 00 80 3f 00 00 80 3f 00 00 80 3f
       1.0 1.0 1.0 1.0
0003e0 00 00 80 3f 00 00 80 3f 00 00 80 3f 00 00 80 3f
       1.0 1.0 1.0 1.0
0003f0 00 00 80 3f 00 00 80 3f 00 00 80 3f 00 00 80 3f
       1.0 1.0 1.0 1.0

fc2.weight f4 [300, 400]
000000 95 15 b0 bc 72 ec d0 bc 6a de 4d 3c 8b c2 a7 bb
       -0.021494666 -0.02550337 0.012565235 -0.005119627
000010 7a 68 41 bc 80 c7 73 3d 69 d9 1d bd d7 9f 9c ba
       -0.011804694 0.05951643 -0.038537417 -0.0011949491
000020 db 6f 82 3d de ce 99 bc 74 09 6d 3d d4 ca 40 3c
       0.06368991 -0.0187754 0.057870343 0.011767108
000030 77 9e 34 3d d4 da df 3c c5 5f 4e bc 19 e5 06 bd
       0.044096436 0.027326025 -0.012596075 -0.03293333
000040 a0 85 34 3c 29 94 a4 bd 7a 8e 5f bc 68 92 17 bd
       0.011018187 -0.08036072 -0.013644809 -0.03700486
000050 6c d5 01 3c 7f b5 71 bb a8 66 b0 3c 9a 8b 97 3d
       0.007924419 -0.0036881862 0.021533325 0.07399674
000060 fe 40 36 bd 1a 25 3f 3d a1 70 05 3c e4 9e 2a 3c
       -0.044495575 0.046666242 0.008144529 0.010413859
000070 6d a3 db bc c7 66 61 bd c7 ec 8d bc 32 d9 21 bd
       -0.026811326 -0.055029657 -0.017324818 -0.039513774
000080 20 e7 dd bc 69 57 90 3d 2b 18 55 3d 5e c4 9a ba
       -0.027087748 0.07047922 0.052025 -0.001180779
000090 38 99 13 bd 58 0e 4e 3d 45 c2 9f 3d 36 a5 ac bb
       -0.036034793 0.050306648 0.07800726 -0.005268718
0000a0 18 78 8c 3d dd 82 85 bb 3a 22 bb ba 2c 1b 72 3d
       0.068588436 -0.004074438 -0.0014277168 0.059107944
0000b0 33 bb 30 bd 66 04 81 bc 9f c6 1e bd 1e f7 82 3d
       -0.043147277 -0.015749168 -0.03876364 0.0639479
0000c0 af 90 a4 bc 67 b7 77 bd 4d 71 8a bc 05 48 4a 3d
       -0.020088522 -0.06047764 -0.01689973 0.04938509
0000d0 15 cf e2 bc 17 2a d1 3b 30 98 19 bd 3c de b9 3c
       -0.027686635 0.0063831913 -0.037498653 0.022688977
0000e0 48 38 54 3d 63 b7 17 bc 5d 79 03 3b a0 4b 80 3c
       0.051811486 -0.009260031 0.0020061352 0.01566106
0000f0 6e 53 b1 3b ad bc 2f 3d d5 bb 30 3d d5 34 ae 3d
       0.005411557 0.042904545 0.04314788 0.08506171
000100 54 17 53 3d c7 29 19 3d 4c 86 dd 3c 19 8e 14 3d
       0.05153592 0.037393358 0.027041577 0.036268327
000110 36 b6 74 bc 8b 15 0e 3d 8d d9 5f 3c 9f dd b5 3c
       -0.014936021 0.034688514 0.013662708 0.022200404
000120 2a f3 55 bd 77 eb a5 3c 5e 34 80 bd 9d 91 a6 3c
       -0.052233852 0.02025388 -0.06259988 0.020333106
000130 56 06 90 3c 1e ab c6 bc 29 4a 10 3d 5c 5f 6a bd
       0.017581146 -0.024251517 0.035226975 -0.057219848
000140 3b 6e e9 3c 43 62 1c 3d 7d 1f 97 3d 9f de 13 3d
       0.028494945 0.038179647 0.07379053 0.03610098
000150 67 c9 7c 3d 44 da 31 bd 51 a7 b2 ba f7 cf 60 bd
       0.06171551 -0.043421045 -0.0013630186 -0.05488583
000160 78 1c 0d bd 29 b6 24 ba 1a ea 11 3d 75 d1 89 3c
       -0.034450978 -0.00062832475 0.035623647 0.01682351
000170 a5 37 90 3d cc 17 f6 bb e2 61 85 3d 7e 58 14 3d
       0.07041863 -0.007510161 0.0651281 0.036217205
000180 8d 9a 86 3d d5 7f 0b bd d0 f4 99 3c 26 e9 69 3c
       0.06572447 -0.034057457 0.018793494 0.014276778
000190 d4 1c 78 bd 2d f6 e3 bb fd ad 2e 3d db 81 58 3c
       -0.060574368 -0.0069568367 0.042646397 0.013214554
0001a0 6f fa 42 3d 34 09 47 bc 41 cb 75 bb 52 b3 01 3d
       0.047602113 -0.01214819 -0.0037505182 0.031665154
0001b0 36 12 84 3d fe 8b 70 bc 55 94 02 bd ee 9f c1 ba
       0.06448786 -0.014681814 -0.03187974 -0.0014772394
0001c0 33 35 06 3d 98 2d 57 ba 1d 04 21 3d 3c 69 d7 bc
       0.03276558 -0.0008208393 0.039310563 -0.026295297
0001d0 b7 a7 18 3d 5b 3a cd 3c 5f bd f2 3c ec f8 3e 3d
       0.03726932 0.02505224 0.029631315 0.04662411
0001e0 ea 94 e0 3c 21 5e 7c bd 86 a2 b1 3d 21 30 b2 3d
       0.027414758 -0.061613206 0.08673577 0.08700586
0001f0 e1 6c 5a bd fa d5 64 3d 9a 8b 82 bd 33 4b fe 3c
       -0.05332649 0.055868126 -0.06374283 0.031041717
000200 2c 91 db bc 6b 78 72 bc 73 ad 1c bb 31 29 51 3d
       -0.026802622 -0.014799218 -0.0023907095 0.051064674
000210 7a b0 95 3b 2f 12 ee bc da 1e 2c bc e1 3d 8f bc
       0.004568157 -0.029061405 -0.010505402 -0.01748556
000220 f9 2b 50 bd a8 04 bc bc ac 18 95 bb 11 69 d5 bc
       -0.050823186 -0.022951439 -0.0045500603 -0.026051076
000230 17 13 84 bc 63 47 27 bd b8 a3 81 bd eb de f8 3c
       -0.016122384 -0.040839564 -0.06330055 0.030379733
000240 0e 62 32 3d 6e f2 69 bd 09 b6 a1 3c 80 20 09 3d
       0.043550543 -0.057115965 0.019740121 0.03347826
000250 5a ae fd bc e4 ea 6a bd d3 39 0d bc a9 e4 9f bb
       -0.030966926 -0.057352915 -0.008619743 -0.0048795533
000260 33 3f 5a 3d b9 eb 85 bd 3f a9 e5 3c f1 ba e6 bc
       0.053282928 -0.06539101 0.028034804 -0.028165312
000270 21 9b 1f bc 5a 7b a2 bb a8 ef 7e bc e8 fc 84 bc
       -0.009741575 -0.0049585523 -0.015560068 -0.016233876
000280 5c 05 c1 bc 35 9b d4 b7 b2 e2 34 bd bc 40 2f 3d
       -0.023562126 -2.5344643e-05 -0.044161506 0.042786345
000290 79 ac 9d 3c 3a 72 1a bc 83 13 85 bc e2 01 28 3d
       0.01924728 -0.009426648 -0.016244655 0.04101742
0002a0 e4 8a 50 3b 25 b4 c8 bc dc 85 93 bc bf e3 03 3d
       0.0031821067 -0.024499962 -0.018008165 0.032199617
0002b0 f5 0f 8f bd 7c b6 4f bd 1b 85 fb 3c 72 8a 42 3d
       -0.069854654 -0.05071114 0.030703118 0.047495313
0002c0 a1 0e f1 bc 8a 49 ea bc 1d f4 2b 3d 47 5f 41 3d
       -0.02942592 -0.02859952 0.04198085 0.047210004
0002d0 9d c7 05 bb 13 15 03 3d a0 13 1c 3d 04 fe 25 3b
       -0.0020413168 0.03200252 0.038104653 0.0025328407
0002e0 35 94 c6 3c 3e 6d cf 3c bb c8 0e 3d 95 c4 5b bb
       0.024240592 0.025320645 0.0348594 -0.003353392
0002f0 49 21 4d 3d 79 b1 20 bd f1 c6 34 3c 7a 77 e9 bc
       0.05008057 -0.03923175 0.011033759 -0.028499354
000300 b7 7b 2d 3c c1 d8 1a bd cc 68 c4 bc 6b 40 89 bc
       0.010588578 -0.03780437 -0.023975752 -0.01675435
000310 2e e7 b2 3c 12 19 80 3d 15 2b 8c 3a a2 b3 4d bd
       0.02183875 0.06254782 0.0010693992 -0.05022014
000320 e6 42 04 3d d2 bd 3e bd 35 89 10 3d 6d 9d c3 bc
       0.03229036 -0.046567746 0.0352871 -0.023878777
000330 a4 c3 57 3c 84 4d 1c 3d e5 44 47 3d 52 b2 83 3c
       0.013169203 0.038159862 0.048649687 0.01607624
000340 e7 07 82 3c d6 c0 0c 3d 64 e3 19 bc 0d 56 ae 3d
       0.015872909 0.03436359 -0.009392593 0.08512507
000350 53 fb 8e bc 5b e1 1b bc f8 5e 18 bd cc b2 a8 bd
       -0.017453825 -0.009514178 -0.037199944 -0.08237228
000360 ed bd 3d 3d 8e 10 f7 3b 66 f2 c2 3c ed ba 73 bd
       0.046323705 0.0075398153 0.023797225 -0.05950444
000370 a2 50 23 bd 80 1d 8e 3c c0 6a 87 3c ca da d9 bb
       -0.03987182 0.017348051 0.016530395 -0.006648396
000380 83 77 6b bc 1b 85 29 3d 72 65 5b bd 60 5a 7b bc
       -0.0143717555 0.041386705 -0.053563543 -0.015341371
000390 97 ae fb 3c cc ea 95 3d e8 cb 68 bd 23 e7 19 3d
       0.0307229 0.073201746 -0.056835085 0.037573945
0003a0 9b 9f 45 3d 41 60 24 bd 61 5f 33 3d 44 27 95 3c
       0.048247915 -0.040130857 0.043792132 0.0182072
0003b0 53 58 08 bd e2 3e c7 3c c2 b4 13 3c f9 dd 32 3d
       -0.033287358 0.024321977 0.009015264 0.04366872
0003c0 e8 50 ae 3c ec 11 fc bc 88 7b 05 bd c7 fa 5e 3c
       0.021278813 -0.030770265 -0.03258851 0.013609595
0003d0 42 10 87 bc 36 1f 19 3b a0 97 ee 3c 9d 03 82 bb
       -0.016487245 0.002336455 0.029125035 -0.003967716
0003e0 dd 32 c0 3c bb a5 22 bd 2e e1 76 3d 5e 2c 43 bc
       0.023461754 -0.039708834 0.06027334 -0.011912433
0003f0 0a 2c 1e 3b 6a f7 f8 bc 4b 1d 81 3d d5 be 98 bc
       0.0024135136 -0.030391414 0.06304415 -0.018645683

fc2.bias f4 [300]
000000 44 84 0c bb 80 c1 09 3d 46 b5 ed 3c 04 1c 42 bb
       -0.002144114 0.0336318 0.029017102 -0.002961875
000010 78 80 9e b9 aa cb 1c 3d a3 1e ac 3c c1 81 e4 3b
       -0.00030231825 0.038280167 0.021010702 0.0069734757
000020 38 5f c0 3b c4 21 5d 3c 27 6a cc bb da b2 12 3b
       0.005870726 0.01349682 -0.0062382403 0.0022384436
000030 5d f7 a9 bc 78 a3 27 3d 28 de a9 3a a6 66 85 3d
       -0.020747835 0.04092738 0.0012959884 0.06513719
000040 28 3c 3e 3c 28 ab d4 bc 8a 2f 6b 3c 61 62 bb ba
       0.011611022 -0.02596052 0.014354596 -0.0014296287
000050 39 fd 57 bb 7f c1 38 3c 6f 7a 78 3d ac d4 ba bc
       -0.003295733 0.011276602 0.060663637 -0.022806488
000060 fa 39 1e 3b 88 13 e0 3c 07 1a 1c 3d 2c ce 4c bc
       0.0024143443 0.027353063 0.03811076 -0.012500327
000070 42 63 e2 bc 01 b0 f6 3c a9 77 5d bc 6f ce d7 bc
       -0.02763522 0.030113222 -0.013517299 -0.026343552
000080 5e 8b 09 3d 0e 7e be bc 67 0d a0 bc 31 9a 1b 3c
       0.033580177 -0.023253467 -0.01953764 0.009497211
000090 65 b9 c2 bc 3e cc 3c 3d 40 c3 06 3d b2 ac 8c bc
       -0.023770044 0.046093218 0.03290105 -0.017172191
0000a0 13 19 f6 3b e4 f5 0f 3d 53 a3 80 bd 69 d8 8a 3c
       0.0075103133 0.03514661 -0.062811516 0.016948896
0000b0 9f 89 f6 bc c2 e9 28 3c 66 71 34 bb ff 4e 58 3b
       -0.03009492 0.010309638 -0.002753341 0.003300607
0000c0 37 b1 86 3c af 22 3b 3d 90 07 0e bc ee 99 d0 3c
       0.016441924 0.045687374 -0.008668795 0.025464024
0000d0 46 b4 92 bb 16 75 ae bc 3f 55 cc bc 0d 41 34 3d
       -0.0044770567 -0.021296065 -0.024942992 0.04400735
0000e0 c8 a5 5f 3c 4f 02 46 3c 89 93 10 bd 90 c0 22 3b
       0.013650365 0.012085511 -0.03529695 0.0024834014
0000f0 5f e8 bb 3c fc 83 76 bc f7 63 9e 3b 83 e1 0a 3c
       0.022937952 -0.015046116 0.004833694 0.008476618
000100 de ea a0 bb e8 c0 23 bd 3c a6 d8 bc 84 1d 49 bb
       -0.004910811 -0.03997889 -0.026446454 -0.0030687759
000110 3f 54 66 ba ee ee 18 bd 21 a4 92 3d ac ed 08 bc
       -0.00087863574 -0.037337236 0.07160211 -0.008357447
000120 c9 3d 6e 3d 86 e1 c1 3c ef 3f 83 3c 82 08 1d ba
       0.05816439 0.023667108 0.016021697 -0.00059903425
000130 b0 10 a5 bc 31 ea a5 bc b0 1d c2 bc 0d a3 d4 bb
       -0.020149559 -0.020253273 -0.023695797 -0.0064891637
000140 bc 3c 1e 3d bf 20 6d 3c f5 64 0b 3d e8 ec 53 3d
       0.03863214 0.014473139 0.034031827 0.051739603
000150 fe 45 7d 3d d8 c3 82 3c 2f eb 57 bc 0c ce 9c bc
       0.061834328 0.015962526 -0.013178631 -0.01914122
000160 f4 24 a5 bb 29 f6 a4 3c c3 ad f7 bb 3d 0f 5f bb
       -0.0050398055 0.02013691 -0.007558556 -0.0034036182
000170 50 25 47 3d 32 8a bf bb 37 e0 47 3d 1c 2d 65 3d
       0.04861957 -0.0058453316 0.048797812 0.055951223
000180 a8 df 65 bd 13 2e f2 3c c9 d5 98 bc c5 75 3b 3d
       -0.0561215 0.029562986 -0.018656628 0.04576661
000190 68 d7 95 3c c6 f0 6b bc 20 e6 bd 3b e5 7e 6e 3d
       0.01829119 -0.014400667 0.0057952553 0.058226485
0001a0 a3 4c 37 3d 27 e9 ec 3c 78 7a 35 bd 43 8c 71 3d
       0.04475082 0.02891977 -0.04430625 0.058971655
0001b0 1b 8f 02 bd b6 42 a7 3b f4 1d e0 3c b2 e5 b5 3b
       -0.031874757 0.005104388 0.027358033 0.0055510635
0001c0 56 8b 6f 3d 2a e1 35 3c 77 d1 d2 bc 4c e1 ad ba
       0.05848249 0.011101047 -0.025734646 -0.0013265996
0001d0 aa c2 37 3d 5f d2 4c 3d de 64 27 3b 9c 27 1a 3d
       0.04486338 0.050005313 0.00255423 0.03763543
0001e0 72 60 d3 3c 5e 32 8c bb 81 27 8b ba 38 39 35 bd
       0.025802825 -0.004278465 -0.0010616631 -0.04424402
0001f0 52 df ab 3c c4 9f d7 3c 76 2f 43 3d c4 ad 3d 3d
       0.02098051 0.0263213 0.047652684 0.046308294
000200 c8 64 7a 3d d0 c0 bf bc fc e4 a2 bc bc 91 a3 ba
       0.06113127 -0.02340737 -0.019884579 -0.0012479345
000210 54 82 96 ba 21 df 28 bc f2 5d 1a bc 3e a0 14 bc
       -0.0011482933 -0.010307104 -0.009421812 -0.009071408
000220 c6 08 db 3c a9 e6 67 3d e0 41 cf bc 95 55 a1 3c
       0.026737582 0.05661646 -0.025299966 0.019694129
000230 97 4b 76 3c 7e 1a 4b 3c 67 eb 7f bc b1 2b 22 bd
       0.01503267 0.012396453 -0.015620089 -0.03959245
000240 4b 3a 12 bd 9e fa 35 3d 46 6e cd 3c 7c 45 0d bd
       -0.035700124 0.04442846 0.025076997 -0.034490094
000250 27 c6 a2 3d f3 5d 06 3d dc 37 95 bc f8 66 1f bd
       0.07947951 0.03280444 -0.018215112 -0.038916558
000260 fc 8f ac 3c fe a8 8a 3c ee 95 1b 3d 9d ea 74 3d
       0.02106475 0.016926285 0.03798478 0.059794057
000270 54 ff 31 3c a4 83 03 bc b3 45 05 bb 8d 73 ff bc
       0.010864098 -0.008026991 -0.0020335733 -0.031183029
000280 8d 53 1e 3d 3e 6c ff bc 57 e6 a9 bc 62 42 57 3d
       0.0386539 -0.031179544 -0.020739717 0.052553542
000290 26 75 80 3d b4 7c c2 bc 9c ef 27 3d b5 d6 44 3d
       0.06272344 -0.023741104 0.040999994 0.048056323
0002a0 9c 85 56 3d 8f e9 2b bc c6 b6 a1 bc f0 2c 1d 3d
       0.052373514 -0.010492696 -0.019740473 0.038372934
0002b0 9c db 04 bc 4a c1 35 3c a3 32 94 3b c9 6b 49 3d
       -0.008109 0.011093447 0.004522638 0.049175058
0002c0 34 51 89 bc 08 44 44 3d 72 11 3e bd d4 46 94 3c
       -0.016762353 0.047916442 -0.046403356 0.01810018
0002d0 e6 78 1d 3d 58 62 3c 3d af a0 e9 3c 06 c1 56 3d
       0.038445376 0.045992225 0.028519003 0.052430175
0002e0 a7 19 e7 bb d3 16 24 bd c6 82 be bc 55 88 0d 3d
       -0.0070526185 -0.04006083 -0.023255717 0.034553844
0002f0 64 49 db bc 37 73 19 3d 2c fd 19 3d 03 c4 9a 3c
       -0.026768394 0.037463393 0.03759496 0.018892294
000300 d7 60 9f 3c f8 84 cf bc 4c 82 1e 3c 3f 2c 9f 3d
       0.019455357 -0.02533196 0.00967462 0.07772111
000310 d6 24 e5 3c 0d 46 1e bd 51 3b 89 3c e2 f3 34 bd
       0.027971666 -0.038641024 0.016751917 -0.044177897
000320 d4 2c 5e ba af 04 c1 bc 0b 80 ad 39 a4 98 00 bd
       -0.0008475308 -0.023561804 0.0003309253 -0.03139557
000330 08 9a 96 3c e5 73 80 3d ab d6 f7 3c 85 06 3c 3c
       0.018383995 0.06272105 0.030253729 0.011476164
000340 5a 86 25 3d 88 8a 35 3d 34 9e 44 bc b0 2b 41 3a
       0.04041133 0.044321567 -0.012000609 0.00073688757
000350 68 48 81 bc 79 d6 05 bd f3 83 5d 3d 56 b0 5e bc
       -0.015781596 -0.03267524 0.054080915 -0.013591846
000360 70 98 cc bc ca 34 d3 bc 22 67 cf bc 61 bc 00 3d
       -0.024975032 -0.025782008 -0.025317732 0.031429652
000370 ab c2 a9 3c 5d b6 95 3c a9 7b 24 bd 29 b5 88 bc
       0.020722708 0.018275434 -0.040156994 -0.016687946
000380 05 81 40 3d 0d e4 24 3d 89 7d 42 bd 34 96 e4 39
       0.046998043 0.04025655 -0.047483 0.0004359946
000390 16 5a a5 bb 27 03 32 bc ae 4e d3 bc 36 05 16 bc
       -0.0050461395 -0.010865009 -0.025794353 -0.009156516
0003a0 bd b5 9c 3d fa 9e dc bc 78 42 27 3d 70 a3 67 3b
       0.07651851 -0.026931275 0.040834874 0.003534522
0003b0 c5 e3 e2 bc f7 08 d3 bc 54 16 4c bd 66 fa fc bc
       -0.0276965 -0.02576111 -0.04982598 -0.030881118
0003c0 02 f9 c0 3c dd 08 9a bc b5 0f bf bc 41 07 47 3d
       0.023556236 -0.018803054 -0.02332292 0.048590902
0003d0 4e bd 15 bb 68 55 54 3c bd 4b 8a 3d b5 03 1b 3d
       -0.002284843 0.012959816 0.06752727 0.037845332
0003e0 63 03 fc bc 57 de 16 bd cb 90 49 3c 7d f7 2e 3d
       -0.030763334 -0.036833134 0.012302588 0.042716492
0003f0 98 dd ba 3c 74 6d 9d bc 0f 81 17 bc ae fe 5a 3d
       0.022810742 -0.01921723 -0.009247079 0.053465538
