agent_checkpoints/checkpoint_actor_3.pth (torch_old, 553585 bytes, 14 tensors)

fc1.weight f4 [400, 33]
0.011049123 -0.051797964 0.033598475 0.002057216 0.0069684 -0.041135833 0.012853427 -0.02161973
0.020809112 -0.02657894 0.046225026 -0.0010485278 -0.0365551 -0.04636765 -0.04057709 0.0008740988
0.059138376 0.012842719 0.022597533 -0.027105624 0.048510835 0.0026837909 0.03140445 -0.019933894
-0.01747268 -0.064422116 -0.02578304 -0.030460771 -0.042348415 0.032077346 0.051626276 0.013297562
0.06256701 -0.030130655 -0.035771362 0.028114548 0.054666873 -0.05337496 0.0038266922 0.038302105
-0.003771385 -0.04672708 0.0050063212 0.061668828 -0.006192455 -0.050099563 0.021178817 -0.012525907
-0.014691591 0.026582783 0.019496683 -0.0064227255 0.020517442 0.026476117 -0.017662527 0.012633749
0.037282124 -0.05277199 0.013385351 -0.03655479 -0.0058991234 -0.023548588 -0.01849451 0.050797883
-0.020261545 -0.0007315078 -0.019763581 -0.051383045 0.025258923 -0.024855817 -0.0016704637 0.028829277
0.05438172 -0.0005667229 -0.014711743 -0.03419173 0.017185448 -0.0501063 -0.05187263 -0.024769532
-0.03596725 0.043646447 0.008500702 0.01576609 0.029655056 0.014899116 -0.01852049 -0.03304061
0.02314318 0.013268381 0.04521339 0.0013148763 -0.008198615 -0.029248552 -0.04330066 -0.008479606
0.06683711 -0.020971758 -0.024161717 -0.05354145 -0.030847473 0.06400345 0.026425373 0.038147323
0.00132874 0.04865908 -0.0028255999 -0.055355802 0.00983526 0.0025199265 -0.057845592 -0.018109735
-0.0080913985 -0.05544913 -0.023408936 0.033851016 -0.0484388 0.002827176 -0.020085657 0.039387327
0.009346111 -0.015524555 0.0031214375 -0.05810316 -0.033286646 0.0069206017 -0.098926604 -0.059370507
-0.04766174 0.09304892 -0.014138203 -0.016773222 -0.018280163 -0.060481768 0.05475791 0.019936942
0.022269253 0.0053181006 -0.0030647183 0.018043734 0.007917001 0.019264337 0.022386767 0.032830585
-0.03105097 -0.014379441 -0.058234923 0.055832732 0.005628503 -0.04263488 -0.03177676 -0.030362511
0.034539588 0.0009810551 -0.010880465 0.030462546 -0.051293597 -0.02263065 -0.018734567 -0.0039839037
-0.027499158 0.024424758 0.008657444 0.005060751 -0.016904704 0.049930654 -0.007218276 -0.030298697
0.017293395 0.024491299 -0.019103002 -0.029465582 0.001130255 0.018704005 0.064370945 -0.001050834
-0.05295374 -0.058800917 0.020383473 -0.01959148 -0.034694474 0.0120497495 0.013133329 0.034928575
-0.020852787 0.03183516 0.016864471 -0.03891328 -0.025704643 -0.010051243 -0.051312428 -0.0067106592
-0.023235932 -0.08035152 -0.044896126 0.042595454 -0.04103918 0.026279815 0.03424384 -0.00032523627
-0.015282272 0.024736188 -0.031960174 -0.026111092 -0.0106027275 -0.03532838 0.03950295 -0.0037780176
-0.03941777 0.014298601 -0.034120813 0.06928044 0.04789573 -0.0036663376 0.015665116 -0.0057193134
-0.035690993 0.050902084 0.0050963387 -0.05107867 -0.021948492 0.047528774 -0.017690072 -0.040426932
-0.012136187 -0.03741367 0.070382595 -0.006384451 0.047594562 0.007901341 -0.046850786 0.06655222
0.07222742 0.015611519 0.030624006 -0.03296097 0.02618201 -0.055910893 0.016871627 -0.046150856
-0.030606717 0.02774857 0.037880633 0.06605727 0.015333953 0.04653533 -0.03171964 -0.045653056
0.021693634 -0.004319943 0.04629243 0.043478742 -0.04283325 0.022351848 -0.013716716 0.038762853
00000000: 6107 353c 1a2a 54bd 8e9e 093d 5bd2 063b
00000010: 2d57 e43b 0c7e 28bd 2e97 523c dc1b b1bc
00000020: df77 aa3c 14bc d9bc 7456 3d3d c16e 89ba
00000030: cdba 15bd 01ec 3dbd 2a34 26bd c723 653a
00000040: 153b 723d 456a 523c 761e b93c 9d0c debc
00000050: 4cb3 463d 8ae2 2f3b f4a1 003d 684c a3bc
00000060: de22 8fbc beef 83bd f436 d3bc de88 f9bc
00000070: 8875 2dbd 8963 033d 1376 533d 04de 593c
00000080: 2223 803d 90d4 f6bc fe84 12bd 7b50 e63c
00000090: 5fea 5f3d b49f 5abd 3ec9 7a3b abe2 1c3d
000000a0: 5729 77bb e564 3fbd 110c a43b 7498 7c3d
000000b0: 14ea cabb 3335 4dbd 337f ad3c 7639 4dbc
000000c0: 00b5 70bc 23c4 d93c 82b7 9f3c ba75 d2bb
000000d0: 3214 a83c 71e4 d83c 01b1 90bc c9fd 4e3c
000000e0: 24b5 183d 7127 58bd 3b4e 5b3c 7aba 15bd
000000f0: 6f4d c1bb f8e8 c0bc cc81 97bc 7111 503d
00000100: 8afb a5bc a8c2 3fba 3ce7 a1bc 0777 52bd
00000110: cdeb ce3c 6d9e cbbc 76f3 daba 602b ec3c
00000120: 5ebf 5e3d 2190 14ba 8609 71bc a10c 0cbd
00000130: 7fc8 8c3c 433c 4dbd 6578 54bd 79e9 cabc
00000140: 6552 13bd 9ec6 323d 8746 0b3c e327 813c
00000150: 29ef f23c 6c1b 743c 48b8 97bc 9755 07bd
00000160: c496 bd3c a063 593c ad31 393d ed57 ac3a
00000170: 7c53 06bc a99a efbc 085c 31bd 0cee 0abc
00000180: e5e1 883d f7cc abbc cbee c5bc 484e 5bbd
00000190: d7b3 fcbc 3e14 833d 067a d83c 5e40 1c3d
000001a0: 1e29 ae3a be4e 473d b32d 39bb c4bc 62bd
000001b0: 1224 213c 5a25 253b 80ef 6cbd de5a 94bc
000001c0: c991 04bc a01e 63bd 19c4 bfbc 5da7 0a3d
000001d0: c367 46bd 2448 393b ad8a a4bc 9b54 213d
000001e0: 6e20 193c b45a 7ebc 0891 4c3b 94fd 6dbd
000001f0: 9457 08bd 37c6 e23b 089a cabd 7d2e 73bd
00000200: f538 43bd 6f90 be3d eca3 67bc ff67 89bc
00000210: 48c0 95bc bbbb 77bd d549 603d cc52 a33c
00000220: 026e b63c 7643 ae3b 71d9 48bb 74d0 933c
00000230: 4fb6 013c 3ed0 9d3c 7464 b73c 5d79 063d
00000240: 9b5e febc bf97 6bbc be87 6ebd ddb0 643d
00000250: 4e6f b83b e9a1 2ebd 5928 02bd cdba f8bc
00000260: 6279 0d3d bf96 803a fa43 32bc 978c f93c
00000270: 3c19 52bd ea63 b9bc 3c79 99bc 688b 82bb
00000280: ea45 e1bc 6e16 c83c f4d7 0d3c a8d4 a53b
00000290: bc7b 8abc 1684 4c3d 4a87 ecbb f934 f8bc
000002a0: e1aa 8d3c faa1 c83c e67d 9cbc ce61 f1bc
000002b0: 1125 943a 2439 993c ead4 833d 23bc 89ba
000002c0: 05e6 58bd 3bd9 70bd 3efb a63c 507e a0bc
000002d0: cb1b 0ebd 506c 453c 2d2d 573c 4411 0f3d
000002e0: 77d3 aabc 9665 023d 5c27 8a3c 8863 1fbd
000002f0: 8b92 d2bc f8ad 24bc fb2c 52bd 17e5 dbbb
00000300: 4859 bebc 568f a4bd 00e5 37bd 9278 2e3d
00000310: b318 28bd c448 d73c 4543 0c3d 7984 aab9
00000320: 7f62 7abc 8ca3 ca3c ace8 02bd eee6 d5bc
00000330: 10b7 2dbc 7eb4 10bd d8cd 213d 9e98 77bb
00000340: 8774 21bd ae44 6a3c 44c2 0bbd e7e2 8d3d
00000350: 502e 443d f046 70bb 2154 803c 1469 bbbb
00000360: b830 12bd b47e 503d 30ff a63b de37 51bd
00000370: 53cd b3bc 88ad 423d c5ea 90bc b696 25bd
00000380: dcd6 46bc 143f 19bd c024 903d a834 d1bb
00000390: 84f2 423d a074 013c 9ce6 3fbd 884c 883d
000003a0: f8eb 933d 75c7 7f3c 32df fa3c 1502 07bd
000003b0: a87b d63c d202 65bd 5e36 8a3c ae08 3dbd
000003c0: f0ba fabc f850 e33c b928 1b3d 0949 873d
000003d0: 433b 7b3c d59b 3e3d 74ec 01bd b3fe 3abd
000003e0: d9b6 b13c 4f8e 8dbb 229d 3d3d c416 323d
000003f0: eb71 2fbd 391b b73c 14bc 60bc ccc5 1e3d

fc1.bias f4 [400]
-0.04755467 0.079188265 0.011548749 0.0120286895 -0.0891254 0.09951952 -0.10995059 -0.115718424
0.106113635 0.02704214 0.13889171 -0.06255916 -0.15189564 0.13333486 0.093906336 0.060001135
0.059383117 -0.058139965 0.16287285 -0.14260352 0.062218655 0.07065514 -0.0530834 -0.03591841
-0.031565245 0.14897919 0.18955493 0.05767548 0.0109955985 0.1392227 -0.063539155 0.057490684
-0.06646908 0.09299078 0.17233565 0.09602944 0.05861103 0.028030919 -0.09247175 -0.018478507
0.022345047 -0.072829366 0.19007479 0.06085447 0.20519817 -0.11449167 0.16155553 -0.07840032
-0.05492531 0.03283325 0.17933217 -0.062463228 0.148597 0.11409589 -0.11849591 0.1515675
0.016508894 0.15635589 -0.12286691 0.13032998 -0.014760133 -0.112488985 0.06363087 -0.025940092
-0.10361467 -0.08971465 -0.14041187 0.122060284 -0.13626345 0.09565572 -0.012669856 0.060809508
0.08312003 -0.13840556 0.17290579 0.008295064 -0.08607728 0.18359162 0.1259128 -0.023516266
0.019232789 0.15181895 0.18856236 0.017356958 -0.15064223 -0.10568987 -0.09629033 -0.08756535
-0.1020489 -0.15031527 0.15087342 -0.12911142 0.028179726 0.014865966 0.18479362 0.16956544
0.095339805 0.18027137 0.05925859 -0.011837166 0.105307765 -0.1062791 0.13477993 0.06640425
0.023307292 -0.062184718 0.15665512 0.023649443 -0.016564228 -0.04786845 0.025936583 -0.03914295
-0.12692869 0.15723419 0.12778778 0.08431948 0.09273189 0.07034586 0.091385245 0.044524718
-0.050286453 0.12845731 0.12474044 -0.023806417 -0.015071683 -0.08906148 -0.0637542 0.13862333
0.07170684 0.12667109 -0.14787829 0.10478976 -0.10657929 0.17548941 0.005408497 -0.05319955
0.12578438 -0.0024311843 0.11616404 0.089579225 -0.039880972 -0.022527456 -0.09169461 -0.006220384
-0.053571943 0.034043465 -0.13486932 0.07639432 -0.11768218 0.014046171 -0.124173895 -0.02923613
0.11712486 -0.14760171 -0.14192404 -0.09103553 0.15365541 -0.023053406 0.07654069 0.18444519
0.0060185255 0.03403035 0.09171842 -0.06601033 -0.06620691 -0.11981549 0.096282914 0.0389478
0.114742875 0.1182652 0.046046402 0.12996499 0.034174744 0.13730447 -0.073959254 -0.09761569
0.0030903013 0.18314026 0.14443406 -0.11735569 0.20261256 0.018673372 -0.15332995 0.03108018
0.15364742 -0.008400816 -0.045300335 -0.008055478 0.05452223 -0.099541925 0.013140967 0.0127902
0.045582846 0.09090371 0.17023133 0.13908808 0.1258791 -0.033239573 0.05323336 -0.15009554
-0.07027844 0.1719819 -0.040658128 -0.046489287 -0.04649188 0.115474686 -0.1271336 0.058020547
0.20119241 -0.10486215 -0.07231127 0.14271492 -0.09903343 0.17257705 -0.048149914 0.00022662616
-0.16505109 -0.073113225 -0.040276818 -0.12812096 -0.008015149 0.045048174 0.024610285 0.015366883
-0.025550053 -0.029094594 0.018160297 -0.0823309 0.063094385 0.050655685 0.16761579 0.030876556
-0.041560095 -0.059331153 0.123496845 0.06581287 0.047359027 -0.00031236184 0.16849542 -0.15297996
0.20114951 -0.11332733 -0.13161984 0.08143294 0.0325767 -0.02176338 0.08783598 -0.12848875
-0.06760897 0.19986299 -0.077664144 0.02835535 0.023765145 -0.020911511 0.089331284 0.112262964
00000000: b0c8 42bd 752d a23d f736 3d3c fb13 453c
00000010: 6187 b6bd e4d0 cb3d c62d e1bd c8fd ecbd
00000020: 1b52 d93d 7a87 dd3c a139 0e3e 041f 80bd
00000030: 888a 1bbe ef88 083e f751 c03d c0c3 753d
00000040: b63b 733d 2c24 6ebd 24c8 263e a806 12be
00000050: fdd8 7e3d a4b3 903d fb6d 59bd 2f1f 13bd
00000060: 8f4a 01bd 008e 183e b01a 423e 203d 6c3d
00000070: e226 343c 6590 0e3e d120 82bd 5a7b 6b3d
00000080: f120 88bd f371 be3d c278 303e 15ab c43d
00000090: 1f12 703d 19a1 e53c d461 bdbd 3d60 97bc
000000a0: f60c b73c 9027 95bd f7a2 423e 8942 793d
000000b0: 781f 523e 9c7a eabd d06e 253e 5990 a0bd
000000c0: 5df9 60bd 287c 063d daa2 373e 71d9 7fbd
000000d0: d029 183e 1bab e93d fcad f2bd 8334 1b3e
000000e0: a93d 873c c21b 203e a6a1 fbbd 3975 053e
000000f0: 7cd4 71bc a060 e6bd e750 823d 5180 d4bc
00000100: ee33 d4bd 50bc b7bd 21c8 0fbe befa f93d
00000110: a588 0bbe 25e7 c33d 3a95 4fbc 6413 793d
00000120: d63a aa3d 30ba 0dbe 370e 313e 05e8 073c
00000130: 4949 b0bd 71ff 3b3e 49ef 003e 2fa5 c0bc
00000140: 158e 9d3c 6d76 1b3e 7e16 413e 2e30 8e3c
00000150: f541 1abe ee73 d8bd dd33 c5bd 7655 b3bd
00000160: 04ff d0bd 3fec 19be 907e 1a3e c935 04be
00000170: 2bd9 e63c 6190 733c 8a3a 3d3e 90a2 2d3e
00000180: 8441 c33d 0f99 383e 23b9 723d acf0 41bc
00000190: 99ab d73d dba8 d9bd c003 0a3e f4fe 873d
000001a0: efee be3c 67b5 7ebd 336a 203e 7abc c13c
000001b0: b4b1 87bc b511 44bd f578 d43c 5c54 20bd
000001c0: 98f9 01be 0002 213e cdda 023e b1af ac3d
000001d0: 38ea bd3d 7e11 903d 3028 bb3d 8d5f 363d
000001e0: 2bf9 4dbd 508a 033e ea77 ff3d ad05 c3bc
000001f0: 38ef 76bc dd65 b6bd 9091 82bd 46f3 0d3e
00000200: 09db 923d 11b6 013e 686d 17be 049c d63d
00000210: 3e46 dabd 7fb3 333e c339 b13b c5e7 59bd
00000220: 9fcd 003e 8154 1fbb 6ae7 ed3d 5075 b73d
00000230: 3b5a 23bd 808b b8bc 62ca bbbd 5dd4 cbbb
00000240: 416e 5bbd 2971 0b3d 2f1b 0abe a074 9c3d
00000250: 5b03 f1bd e921 663c e24e febd 9c80 efbc
00000260: 29df ef3d e724 17be 8954 11be d670 babd
00000270: d857 1d3e 7fda bcbc 5ec1 9c3d 33df 3c3e
00000280: 0d37 c53b 6963 0b3d ded6 bb3d 6d30 87bd
00000290: 7d97 87bd d361 f5bd fa2f c53d ba87 1f3d
000002a0: 50fe ea3d 0635 f23d 279b 3c3d 8b15 053e
000002b0: d1fa 0b3d 8b99 0c3e f377 97bd bcea c7bd
000002c0: a786 4a3b 1f89 3b3e 86e6 133e 2e58 f0bd
000002d0: ab79 4f3e e6f8 983c 8702 1dbe dd9b fe3c
000002e0: c055 1d3e 93a3 09bc d88c 39bd 20fb 03bc
000002f0: b452 5f3d a3dc cbbd 364d 573c fd8d 513c
00000300: 14b5 3a3d b92b ba3d 1f51 2e3e 1b6d 0e3e
00000310: 73e6 003e 3826 08bd 390b 5a3d a5b2 19be
00000320: 25ee 8fbd 061c 303e 2389 26bd 8d6b 3ebd
00000330: 456e 3ebd fe7d ec3d 4f2f 02be f4a6 6d3d
00000340: 6205 4e3e f8c1 d6bd ee17 94bd dc23 123e
00000350: 0ad2 cabd 0ab8 303e d838 45bd 7fa2 6d39
00000360: 2703 29be 63bc 95bd 4ef9 24bd 2432 03be
00000370: f951 03bc 6f84 383d 829b c93c 61c5 7b3c
00000380: 584e d1bc c957 eebc e7c4 943c 1a9d a8bd
00000390: a137 813d 567c 4f3d 79a3 2b3e d5f0 fc3c
000003a0: eb3a 2abd 3905 73bd eaeb fc3d e6c8 863d
000003b0: 8afb 413d 7fc4 a3b9 108a 2c3e c7a6 1cbe
000003c0: 23fa 4d3e 2918 e8bd 5ac7 06be 50c6 a63d
000003d0: 256f 053d 1e49 b2bc 5ae3 b33d 8e92 03be
000003e0: 9276 8abd e2a8 4c3e 610e 9fbd 7b49 e83c
000003f0: 1faf c23c 9e4e abbc 52f3 b63d 20ea e53d

fc1_bn.weight f4 [400]
0.42828822 0.3441025 0.8520014 0.036037147 0.62750477 0.44616908 0.22426653 0.4213696
0.42698383 0.29987222 0.050970733 0.14503503 0.4756779 0.9905092 0.3441493 0.74228084
0.9224078 0.15812778 0.41309947 0.65553373 0.9567791 0.2535264 0.70334864 0.5036513
0.33306706 0.4924699 0.30395263 0.03874594 0.17587471 0.11568606 0.56681734 0.76083857
0.38713926 0.22437084 0.40028203 0.10568124 0.58583575 0.24359745 0.49673635 0.43478847
0.47254223 0.80965865 0.61976445 0.9231929 0.20974535 0.09330696 0.5660424 0.13403189
0.27856195 0.7532999 0.44416368 0.7437993 0.38337696 0.36178797 0.9469325 0.6434495
0.48820454 0.29113162 0.7408832 0.9789854 0.1763885 0.083032906 0.25912648 0.39444476
0.87859607 0.5242428 0.9969902 0.5998587 0.6720204 0.63398635 0.87684184 0.4280513
0.09436613 0.90521574 0.31993842 0.51859194 0.40436774 0.80140555 0.7297964 0.63128537
0.9605484 0.582349 0.18230605 0.31994212 0.9605824 0.7190144 0.6715933 0.133609
0.8595946 0.45843232 0.7912145 0.48401856 0.64315027 0.27840006 0.8722534 0.7565789
0.45844406 0.19249415 0.05500561 0.6626277 0.61041445 0.99260014 0.32779747 0.90239197
0.14239973 0.9536714 0.25064313 0.45752668 0.93089837 0.7128656 0.7431245 0.6617409
0.23118919 0.6577136 0.8811718 0.7325001 0.39712435 0.71986777 0.62916046 0.7202354
0.6624506 0.888859 0.019563913 0.14623266 0.97020936 0.3935498 0.28310108 0.59327614
0.8216192 0.14365995 0.7698381 0.0041905046 0.44136238 0.5588705 0.37876326 0.117801785
0.14198959 0.96533 0.8710008 0.4097231 0.96971554 0.12831199 0.18349439 0.10520083
0.87204903 0.24624163 0.1584109 0.8114825 0.6043315 0.24641532 0.8755401 0.23247874
0.094969034 0.06410611 0.11223507 0.35955834 0.35373843 0.034548104 0.51795965 0.18528146
0.8676376 0.44927096 0.57272255 0.11581057 0.9929619 0.8739995 0.18501872 0.28026754
0.46218145 0.70954776 0.19808328 0.55041355 0.023292005 0.15599793 0.41799283 0.18192822
0.15201104 0.8706919 0.4212739 0.5346049 0.3508374 0.92262435 0.5577789 0.3863861
0.6945993 0.8419567 0.14084023 0.06736809 0.069502175 0.6069034 0.9314953 0.35971522
0.508104 0.98930144 0.9436108 0.7428054 0.7575308 0.515933 0.35611045 0.8971003
0.9688481 0.8098713 0.3804443 0.5349836 0.01516968 0.8624097 0.31242657 0.66038835
0.44991702 0.026892781 0.2871868 0.70813155 0.06185901 0.37960047 0.3374424 0.03265512
0.45533448 0.74965733 0.8494281 0.7282816 0.92148393 0.13358802 0.658088 0.5034281
0.12828761 0.8223348 0.6693701 0.13094354 0.7961813 0.3778429 0.5449514 0.31573248
0.9052561 0.29334408 0.20151854 0.7962181 0.10611069 0.4302891 0.45612168 0.9629847
0.24079865 0.68910366 0.7245025 0.9067752 0.4734497 0.6684096 0.00849539 0.12462801
0.0014946461 0.93207306 0.8077365 0.1097908 0.33229423 0.2801755 0.06937367 0.5979794
00000000: 9848 db3e 342e b03e c41c 5a3f b09b 133d
00000010: 27a4 203f 4670 e43e 20a6 653e c2bd d73e
00000020: a09d da3e da88 993e b0c6 503d 1084 143e
00000030: 0e8c f33e 0392 7d3f 5634 b03e 1e06 3e3f
00000040: eb22 6c3f 40ec 213e c681 d33e 0fd1 273f
00000050: 7aef 743f 36ce 813e a80e 343f 4bef 003f
00000060: c487 aa3e 0425 fc3e ae9f 9b3e 10b4 1e3d
00000070: 8018 343e d0ec ec3d f11a 113f 51c6 423f
00000080: 1e37 c63e 78c1 653e c4f1 cc3e 686f d83d
00000090: 55f9 153f 9c71 793e 3a54 fe3e 989c de3e
000000a0: 0ef1 f13e ca45 4f3f e2a8 1e3f 5f56 6c3f
000000b0: 7cc7 563e b817 bf3d 28e8 103f a83f 093e
000000c0: ac9f 8e3e 43d8 403f 6c69 e33e a269 3e3f
000000d0: fc49 c43e 463c b93e 2b6a 723f 1bb9 243f
000000e0: f2f5 f93e 340f 953e 85aa 3d3f ca9e 7a3f
000000f0: 309f 343e 280d aa3d 3aac 843e aaf4 c93e
00000100: aceb 603f c734 063f c03a 7f3f 5790 193f
00000110: 8709 2c3f ee4c 223f b578 603f 8a29 db3e
00000120: 0843 c13d 38bc 673f f8ce a33e 71c2 043f
00000130: 4a09 cf3e ea28 4d3f f0d3 3a3f eb9b 213f
00000140: 80e6 753f d314 153f 70ae 3a3e 74cf a33e
00000150: bae8 753f 5411 383f 8aed 2b3f ccd0 083e
00000160: 640e 5c3f a4b7 ea3e 098d 4a3f 48d1 f73e
00000170: 7fa5 243f 748a 8e3e 004c 5f3f 28af 413f
00000180: 2eb9 ea3e 301d 453e 904d 613d f8a1 293f
00000190: 1f44 1c3f 0b1b 7e3f 12d5 a73e 2903 673f
000001a0: 3cd1 113e cf23 743f 4c54 803e f040 ea3e
000001b0: 5b4f 6e3f 5c7e 363f 683d 3e3f da67 293f
000001c0: dcbc 6c3e eb5f 283f 7a94 613f 2085 3b3f
000001d0: e253 cb3e 4149 383f a910 213f 5961 383f
000001e0: 5d96 293f 438c 633f 8044 a03c 04be 153e
000001f0: a45f 783f 5c7f c93e a0f2 903e f2e0 173f
00000200: a355 523f 981b 133e 1c14 453f 8050 893b
00000210: 40fa e13e 2312 0f3f 42ed c13e 1042 f13d
00000220: b865 113e de1f 773f e9f9 5e3f 3ac7 d13e
00000230: 473f 783f 3864 033e f4e5 3b3e 8873 d73d
00000240: 9b3e 5f3f c426 7c3e 7836 223e 51bd 4f3f
00000250: 78b5 1a3f 4c54 7c3e 6523 603f e80e 6e3e
00000260: 207f c23d 104a 833d 80db e53d 0818 b83e
00000270: 341d b53e 5082 0d3d 0199 043f 6cba 3d3e
00000280: 7f1d 5e3f d806 e63e f29d 123f 182e ed3d
00000290: c032 7e3f 6ebe 5f3f 8c75 3d3e 3a7f 8f3e
000002a0: 0ca3 ec3e eca4 353f 58d6 4a3e e7e7 0c3f
000002b0: e0ce be3c ecbd 1f3e 2803 d63e 644b 3a3e
000002c0: c8a8 1b3e aae5 5e3f 36b1 d73e dedb 083f
000002d0: f6a0 b33e 1c31 6c3f 99ca 0e3f 66d4 c53e
000002e0: 42d1 313f 798a 573f 6c38 103e 48f8 893d
000002f0: 2857 8e3d 055e 1b3f 7a76 6e3f 982c b83e
00000300: 1b13 023f dc42 7d3f 7a90 713f 7f28 3e3f
00000310: 8aed 413f 2f14 043f 1c54 b63e 5ea8 653f
00000320: 6e06 783f ba53 4f3f 98c9 c23e aff4 083f
00000330: 408a 783c e2c6 5c3f 60f6 9f3e 360f 293f
00000340: 865b e63e 404e dc3c 260a 933e 1c48 353f
00000350: e05f 7d3d fe5a c23e 40c5 ac3e 60c1 053d
00000360: 9a21 e93e 8be9 3f3f 1f74 593f aa70 3a3f
00000370: 5fe6 6b3f 4ccb 083e 7578 283f aae0 003f
00000380: d45d 033e 8984 523f d75b 2b3f 1016 063e
00000390: 8ad2 4b3f a074 c13e ef81 0b3f b0a7 a13e
000003a0: ddbe 673f 3231 963e e05a 4e3e f3d4 4b3f
000003b0: 9050 d93d da4e dc3e c888 e93e 2a86 763f
000003c0: ec93 763e 1969 303f ff78 393f 6b22 683f
000003d0: 0068 f23e e41c 2b3f 4030 0b3c f83c ff3d
000003e0: 00e8 c33a 579c 6e3f d2c7 4e3f 00da e03d
000003f0: 7822 aa3e 2a73 8f3e c813 8e3d 2e15 193f

fc1_bn.bias f4 [400]
0.0 0.0 0.0 0.0 0.0 0.0 0.0 0.0
0.0 0.0 0.0 0.0 0.0 0.0 0.0 0.0
0.0 0.0 0.0 0.0 0.0 0.0 0.0 0.0
0.0 0.0 0.0 0.0 0.0 0.0 0.0 0.0
0.0 0.0 0.0 0.0 0.0 0.0 0.0 0.0
0.0 0.0 0.0 0.0 0.0 0.0 0.0 0.0
0.0 0.0 0.0 0.0 0.0 0.0 0.0 0.0
0.0 0.0 0.0 0.0 0.0 0.0 0.0 0.0
0.0 0.0 0.0 0.0 0.0 0.0 0.0 0.0
0.0 0.0 0.0 0.0 0.0 0.0 0.0 0.0
0.0 0.0 0.0 0.0 0.0 0.0 0.0 0.0
0.0 0.0 0.0 0.0 0.0 0.0 0.0 0.0
0.0 0.0 0.0 0.0 0.0 0.0 0.0 0.0
0.0 0.0 0.0 0.0 0.0 0.0 0.0 0.0
0.0 0.0 0.0 0.0 0.0 0.0 0.0 0.0
0.0 0.0 0.0 0.0 0.0 0.0 0.0 0.0
0.0 0.0 0.0 0.0 0.0 0.0 0.0 0.0
0.0 0.0 0.0 0.0 0.0 0.0 0.0 0.0
0.0 0.0 0.0 0.0 0.0 0.0 0.0 0.0
0.0 0.0 0.0 0.0 0.0 0.0 0.0 0.0
0.0 0.0 0.0 0.0 0.0 0.0 0.0 0.0
0.0 0.0 0.0 0.0 0.0 0.0 0.0 0.0
0.0 0.0 0.0 0.0 0.0 0.0 0.0 0.0
0.0 0.0 0.0 0.0 0.0 0.0 0.0 0.0
0.0 0.0 0.0 0.0 0.0 0.0 0.0 0.0
0.0 0.0 0.0 0.0 0.0 0.0 0.0 0.0
0.0 0.0 0.0 0.0 0.0 0.0 0.0 0.0
0.0 0.0 0.0 0.0 0.0 0.0 0.0 0.0
0.0 0.0 0.0 0.0 0.0 0.0 0.0 0.0
0.0 0.0 0.0 0.0 0.0 0.0 0.0 0.0
0.0 0.0 0.0 0.0 0.0 0.0 0.0 0.0
0.0 0.0 0.0 0.0 0.0 0.0 0.0 0.0
00000000: 0000 0000 0000 0000 0000 0000 0000 0000
00000010: 0000 0000 0000 0000 0000 0000 0000 0000
00000020: 0000 0000 0000 0000 0000 0000 0000 0000
00000030: 0000 0000 0000 0000 0000 0000 0000 0000
00000040: 0000 0000 0000 0000 0000 0000 0000 0000
00000050: 0000 0000 0000 0000 0000 0000 0000 0000
00000060: 0000 0000 0000 0000 0000 0000 0000 0000
00000070: 0000 0000 0000 0000 0000 0000 0000 0000
00000080: 0000 0000 0000 0000 0000 0000 0000 0000
00000090: 0000 0000 0000 0000 0000 0000 0000 0000
000000a0: 0000 0000 0000 0000 0000 0000 0000 0000
000000b0: 0000 0000 0000 0000 0000 0000 0000 0000
000000c0: 0000 0000 0000 0000 0000 0000 0000 0000
000000d0: 0000 0000 0000 0000 0000 0000 0000 0000
000000e0: 0000 0000 0000 0000 0000 0000 0000 0000
000000f0: 0000 0000 0000 0000 0000 0000 0000 0000
00000100: 0000 0000 0000 0000 0000 0000 0000 0000
00000110: 0000 0000 0000 0000 0000 0000 0000 0000
00000120: 0000 0000 0000 0000 0000 0000 0000 0000
00000130: 0000 0000 0000 0000 0000 0000 0000 0000
00000140: 0000 0000 0000 0000 0000 0000 0000 0000
00000150: 0000 0000 0000 0000 0000 0000 0000 0000
00000160: 0000 0000 0000 0000 0000 0000 0000 0000
00000170: 0000 0000 0000 0000 0000 0000 0000 0000
00000180: 0000 0000 0000 0000 0000 0000 0000 0000
00000190: 0000 0000 0000 0000 0000 0000 0000 0000
000001a0: 0000 0000 0000 0000 0000 0000 0000 0000
000001b0: 0000 0000 0000 0000 0000 0000 0000 0000
000001c0: 0000 0000 0000 0000 0000 0000 0000 0000
000001d0: 0000 0000 0000 0000 0000 0000 0000 0000
000001e0: 0000 0000 0000 0000 0000 0000 0000 0000
000001f0: 0000 0000 0000 0000 0000 0000 0000 0000
00000200: 0000 0000 0000 0000 0000 0000 0000 0000
00000210: 0000 0000 0000 0000 0000 0000 0000 0000
00000220: 0000 0000 0000 0000 0000 0000 0000 0000
00000230: 0000 0000 0000 0000 0000 0000 0000 0000
00000240: 0000 0000 0000 0000 0000 0000 0000 0000
00000250: 0000 0000 0000 0000 0000 0000 0000 0000
00000260: 0000 0000 0000 0000 0000 0000 0000 0000
00000270: 0000 0000 0000 0000 0000 0000 0000 0000
00000280: 0000 0000 0000 0000 0000 0000 0000 0000
00000290: 0000 0000 0000 0000 0000 0000 0000 0000
000002a0: 0000 0000 0000 0000 0000 0000 0000 0000
000002b0: 0000 0000 0000 0000 0000 0000 0000 0000
000002c0: 0000 0000 0000 0000 0000 0000 0000 0000
000002d0: 0000 0000 0000 0000 0000 0000 0000 0000
000002e0: 0000 0000 0000 0000 0000 0000 0000 0000
000002f0: 0000 0000 0000 0000 0000 0000 0000 0000
00000300: 0000 0000 0000 0000 0000 0000 0000 0000
00000310: 0000 0000 0000 0000 0000 0000 0000 0000
00000320: 0000 0000 0000 0000 0000 0000 0000 0000
00000330: 0000 0000 0000 0000 0000 0000 0000 0000
00000340: 0000 0000 0000 0000 0000 0000 0000 0000
00000350: 0000 0000 0000 0000 0000 0000 0000 0000
00000360: 0000 0000 0000 0000 0000 0000 0000 0000
00000370: 0000 0000 0000 0000 0000 0000 0000 0000
00000380: 0000 0000 0000 0000 0000 0000 0000 0000
00000390: 0000 0000 0000 0000 0000 0000 0000 0000
000003a0: 0000 0000 0000 0000 0000 0000 0000 0000
000003b0: 0000 0000 0000 0000 0000 0000 0000 0000
000003c0: 0000 0000 0000 0000 0000 0000 0000 0000
000003d0: 0000 0000 0000 0000 0000 0000 0000 0000
000003e0: 0000 0000 0000 0000 0000 0000 0000 0000
000003f0: 0000 0000 0000 0000 0000 0000 0000 0000

fc1_bn.running_mean f4 [400]
0.0 0.0 0.0 0.0 0.0 0.0 0.0 0.0
0.0 0.0 0.0 0.0 0.0 0.0 0.0 0.0
0.0 0.0 0.0 0.0 0.0 0.0 0.0 0.0
0.0 0.0 0.0 0.0 0.0 0.0 0.0 0.0
0.0 0.0 0.0 0.0 0.0 0.0 0.0 0.0
0.0 0.0 0.0 0.0 0.0 0.0 0.0 0.0
0.0 0.0 0.0 0.0 0.0 0.0 0.0 0.0
0.0 0.0 0.0 0.0 0.0 0.0 0.0 0.0
0.0 0.0 0.0 0.0 0.0 0.0 0.0 0.0
0.0 0.0 0.0 0.0 0.0 0.0 0.0 0.0
0.0 0.0 0.0 0.0 0.0 0.0 0.0 0.0
0.0 0.0 0.0 0.0 0.0 0.0 0.0 0.0
0.0 0.0 0.0 0.0 0.0 0.0 0.0 0.0
0.0 0.0 0.0 0.0 0.0 0.0 0.0 0.0
0.0 0.0 0.0 0.0 0.0 0.0 0.0 0.0
0.0 0.0 0.0 0.0 0.0 0.0 0.0 0.0
0.0 0.0 0.0 0.0 0.0 0.0 0.0 0.0
0.0 0.0 0.0 0.0 0.0 0.0 0.0 0.0
0.0 0.0 0.0 0.0 0.0 0.0 0.0 0.0
0.0 0.0 0.0 0.0 0.0 0.0 0.0 0.0
0.0 0.0 0.0 0.0 0.0 0.0 0.0 0.0
0.0 0.0 0.0 0.0 0.0 0.0 0.0 0.0
0.0 0.0 0.0 0.0 0.0 0.0 0.0 0.0
0.0 0.0 0.0 0.0 0.0 0.0 0.0 0.0
0.0 0.0 0.0 0.0 0.0 0.0 0.0 0.0
0.0 0.0 0.0 0.0 0.0 0.0 0.0 0.0
0.0 0.0 0.0 0.0 0.0 0.0 0.0 0.0
0.0 0.0 0.0 0.0 0.0 0.0 0.0 0.0
0.0 0.0 0.0 0.0 0.0 0.0 0.0 0.0
0.0 0.0 0.0 0.0 0.0 0.0 0.0 0.0
0.0 0.0 0.0 0.0 0.0 0.0 0.0 0.0
0.0 0.0 0.0 0.0 0.0 0.0 0.0 0.0
00000000: 0000 0000 0000 0000 0000 0000 0000 0000
00000010: 0000 0000 0000 0000 0000 0000 0000 0000
00000020: 0000 0000 0000 0000 0000 0000 0000 0000
00000030: 0000 0000 0000 0000 0000 0000 0000 0000
00000040: 0000 0000 0000 0000 0000 0000 0000 0000
00000050: 0000 0000 0000 0000 0000 0000 0000 0000
00000060: 0000 0000 0000 0000 0000 0000 0000 0000
00000070: 0000 0000 0000 0000 0000 0000 0000 0000
00000080: 0000 0000 0000 0000 0000 0000 0000 0000
00000090: 0000 0000 0000 0000 0000 0000 0000 0000
000000a0: 0000 0000 0000 0000 0000 0000 0000 0000
000000b0: 0000 0000 0000 0000 0000 0000 0000 0000
000000c0: 0000 0000 0000 0000 0000 0000 0000 0000
000000d0: 0000 0000 0000 0000 0000 0000 0000 0000
000000e0: 0000 0000 0000 0000 0000 0000 0000 0000
000000f0: 0000 0000 0000 0000 0000 0000 0000 0000
00000100: 0000 0000 0000 0000 0000 0000 0000 0000
00000110: 0000 0000 0000 0000 0000 0000 0000 0000
00000120: 0000 0000 0000 0000 0000 0000 0000 0000
00000130: 0000 0000 0000 0000 0000 0000 0000 0000
00000140: 0000 0000 0000 0000 0000 0000 0000 0000
00000150: 0000 0000 0000 0000 0000 0000 0000 0000
00000160: 0000 0000 0000 0000 0000 0000 0000 0000
00000170: 0000 0000 0000 0000 0000 0000 0000 0000
00000180: 0000 0000 0000 0000 0000 0000 0000 0000
00000190: 0000 0000 0000 0000 0000 0000 0000 0000
000001a0: 0000 0000 0000 0000 0000 0000 0000 0000
000001b0: 0000 0000 0000 0000 0000 0000 0000 0000
000001c0: 0000 0000 0000 0000 0000 0000 0000 0000
000001d0: 0000 0000 0000 0000 0000 0000 0000 0000
000001e0: 0000 0000 0000 0000 0000 0000 0000 0000
000001f0: 0000 0000 0000 0000 0000 0000 0000 0000
00000200: 0000 0000 0000 0000 0000 0000 0000 0000
00000210: 0000 0000 0000 0000 0000 0000 0000 0000
00000220: 0000 0000 0000 0000 0000 0000 0000 0000
00000230: 0000 0000 0000 0000 0000 0000 0000 0000
00000240: 0000 0000 0000 0000 0000 0000 0000 0000
00000250: 0000 0000 0000 0000 0000 0000 0000 0000
00000260: 0000 0000 0000 0000 0000 0000 0000 0000
00000270: 0000 0000 0000 0000 0000 0000 0000 0000
00000280: 0000 0000 0000 0000 0000 0000 0000 0000
00000290: 0000 0000 0000 0000 0000 0000 0000 0000
000002a0: 0000 0000 0000 0000 0000 0000 0000 0000
000002b0: 0000 0000 0000 0000 0000 0000 0000 0000
000002c0: 0000 0000 0000 0000 0000 0000 0000 0000
000002d0: 0000 0000 0000 0000 0000 0000 0000 0000
000002e0: 0000 0000 0000 0000 0000 0000 0000 0000
000002f0: 0000 0000 0000 0000 0000 0000 0000 0000
00000300: 0000 0000 0000 0000 0000 0000 0000 0000
00000310: 0000 0000 0000 0000 0000 0000 0000 0000
00000320: 0000 0000 0000 0000 0000 0000 0000 0000
00000330: 0000 0000 0000 0000 0000 0000 0000 0000
00000340: 0000 0000 0000 0000 0000 0000 0000 0000
00000350: 0000 0000 0000 0000 0000 0000 0000 0000
00000360: 0000 0000 0000 0000 0000 0000 0000 0000
00000370: 0000 0000 0000 0000 0000 0000 0000 0000
00000380: 0000 0000 0000 0000 0000 0000 0000 0000
00000390: 0000 0000 0000 0000 0000 0000 0000 0000
000003a0: 0000 0000 0000 0000 0000 0000 0000 0000
000003b0: 0000 0000 0000 0000 0000 0000 0000 0000
000003c0: 0000 0000 0000 0000 0000 0000 0000 0000
000003d0: 0000 0000 0000 0000 0000 0000 0000 0000
000003e0: 0000 0000 0000 0000 0000 0000 0000 0000
000003f0: 0000 0000 0000 0000 0000 0000 0000 0000

fc1_bn.running_var f4 [400]
1.0 1.0 1.0 1.0 1.0 1.0 1.0 1.0
1.0 1.0 1.0 1.0 1.0 1.0 1.0 1.0
1.0 1.0 1.0 1.0 1.0 1.0 1.0 1.0
1.0 1.0 1.0 1.0 1.0 1.0 1.0 1.0
1.0 1.0 1.0 1.0 1.0 1.0 1.0 1.0
1.0 1.0 1.0 1.0 1.0 1.0 1.0 1.0
1.0 1.0 1.0 1.0 1.0 1.0 1.0 1.0
1.0 1.0 1.0 1.0 1.0 1.0 1.0 1.0
1.0 1.0 1.0 1.0 1.0 1.0 1.0 1.0
1.0 1.0 1.0 1.0 1.0 1.0 1.0 1.0
1.0 1.0 1.0 1.0 1.0 1.0 1.0 1.0
1.0 1.0 1.0 1.0 1.0 1.0 1.0 1.0
1.0 1.0 1.0 1.0 1.0 1.0 1.0 1.0
1.0 1.0 1.0 1.0 1.0 1.0 1.0 1.0
1.0 1.0 1.0 1.0 1.0 1.0 1.0 1.0
1.0 1.0 1.0 1.0 1.0 1.0 1.0 1.0
1.0 1.0 1.0 1.0 1.0 1.0 1.0 1.0
1.0 1.0 1.0 1.0 1.0 1.0 1.0 1.0
1.0 1.0 1.0 1.0 1.0 1.0 1.0 1.0
1.0 1.0 1.0 1.0 1.0 1.0 1.0 1.0
1.0 1.0 1.0 1.0 1.0 1.0 1.0 1.0
1.0 1.0 1.0 1.0 1.0 1.0 1.0 1.0
1.0 1.0 1.0 1.0 1.0 1.0 1.0 1.0
1.0 1.0 1.0 1.0 1.0 1.0 1.0 1.0
1.0 1.0 1.0 1.0 1.0 1.0 1.0 1.0
1.0 1.0 1.0 1.0 1.0 1.0 1.0 1.0
1.0 1.0 1.0 1.0 1.0 1.0 1.0 1.0
1.0 1.0 1.0 1.0 1.0 1.0 1.0 1.0
1.0 1.0 1.0 1.0 1.0 1.0 1.0 1.0
1.0 1.0 1.0 1.0 1.0 1.0 1.0 1.0
1.0 1.0 1.0 1.0 1.0 1.0 1.0 1.0
1.0 1.0 1.0 1.0 1.0 1.0 1.0 1.0
00000000: 0000 803f 0000 803f 0000 803f 0000 803f
00000010: 0000 803f 0000 803f 0000 803f 0000 803f
00000020: 0000 803f 0000 803f 0000 803f 0000 803f
00000030: 0000 803f 0000 803f 0000 803f 0000 803f
00000040: 0000 803f 0000 803f 0000 803f 0000 803f
00000050: 0000 803f 0000 803f 0000 803f 0000 803f
00000060: 0000 803f 0000 803f 0000 803f 0000 803f
00000070: 0000 803f 0000 803f 0000 803f 0000 803f
00000080: 0000 803f 0000 803f 0000 803f 0000 803f
00000090: 0000 803f 0000 803f 0000 803f 0000 803f
000000a0: 0000 803f 0000 803f 0000 803f 0000 803f
000000b0: 0000 803f 0000 803f 0000 803f 0000 803f
000000c0: 0000 803f 0000 803f 0000 803f 0000 803f
000000d0: 0000 803f 0000 803f 0000 803f 0000 803f
000000e0: 0000 803f 0000 803f 0000 803f 0000 803f
000000f0: 0000 803f 0000 803f 0000 803f 0000 803f
00000100: 0000 803f 0000 803f 0000 803f 0000 803f
00000110: 0000 803f 0000 803f 0000 803f 0000 803f
00000120: 0000 803f 0000 803f 0000 803f 0000 803f
00000130: 0000 803f 0000 803f 0000 803f 0000 803f
00000140: 0000 803f 0000 803f 0000 803f 0000 803f
00000150: 0000 803f 0000 803f 0000 803f 0000 803f
00000160: 0000 803f 0000 803f 0000 803f 0000 803f
00000170: 0000 803f 0000 803f 0000 803f 0000 803f
00000180: 0000 803f 0000 803f 0000 803f 0000 803f
00000190: 0000 803f 0000 803f 0000 803f 0000 803f
000001a0: 0000 803f 0000 803f 0000 803f 0000 803f
000001b0: 0000 803f 0000 803f 0000 803f 0000 803f
000001c0: 0000 803f 0000 803f 0000 803f 0000 803f
000001d0: 0000 803f 0000 803f 0000 803f 0000 803f
000001e0: 0000 803f 0000 803f 0000 803f 0000 803f
000001f0: 0000 803f 0000 803f 0000 803f 0000 803f
00000200: 0000 803f 0000 803f 0000 803f 0000 803f
00000210: 0000 803f 0000 803f 0000 803f 0000 803f
00000220: 0000 803f 0000 803f 0000 803f 0000 803f
00000230: 0000 803f 0000 803f 0000 803f 0000 803f
00000240: 0000 803f 0000 803f 0000 803f 0000 803f
00000250: 0000 803f 0000 803f 0000 803f 0000 803f
00000260: 0000 803f 0000 803f 0000 803f 0000 803f
00000270: 0000 803f 0000 803f 0000 803f 0000 803f
00000280: 0000 803f 0000 803f 0000 803f 0000 803f
00000290: 0000 803f 0000 803f 0000 803f 0000 803f
000002a0: 0000 803f 0000 803f 0000 803f 0000 803f
000002b0: 0000 803f 0000 803f 0000 803f 0000 803f
000002c0: 0000 803f 0000 803f 0000 803f 0000 803f
000002d0: 0000 803f 0000 803f 0000 803f 0000 803f
000002e0: 0000 803f 0000 803f 0000 803f 0000 803f
000002f0: 0000 803f 0000 803f 0000 803f 0000 803f
00000300: 0000 803f 0000 803f 0000 803f 0000 803f
00000310: 0000 803f 0000 803f 0000 803f 0000 803f
00000320: 0000 803f 0000 803f 0000 803f 0000 803f
00000330: 0000 803f 0000 803f 0000 803f 0000 803f
00000340: 0000 803f 0000 803f 0000 803f 0000 803f
00000350: 0000 803f 0000 803f 0000 803f 0000 803f
00000360: 0000 803f 0000 803f 0000 803f 0000 803f
00000370: 0000 803f 0000 803f 0000 803f 0000 803f
00000380: 0000 803f 0000 803f 0000 803f 0000 803f
00000390: 0000 803f 0000 803f 0000 803f 0000 803f
000003a0: 0000 803f 0000 803f 0000 803f 0000 803f
000003b0: 0000 803f 0000 803f 0000 803f 0000 803f
000003c0: 0000 803f 0000 803f 0000 803f 0000 803f
000003d0: 0000 803f 0000 803f 0000 803f 0000 803f
000003e0: 0000 803f 0000 803f 0000 803f 0000 803f
000003f0: 0000 803f 0000 803f 0000 803f 0000 803f

fc2.weight f4 [300, 400]
0.014962375 0.017853871 -0.029873708 0.03328491 0.01727176 -0.060410216 -0.01889238 0.011764935
-0.012095288 0.054250155 0.031572994 -0.013738919 0.017356087 -0.0058095395 0.074260384 -0.027352687
0.053561278 -0.04220214 0.07281038 0.0076633603 -0.062856145 -0.019056775 0.02739443 0.009712472
-0.04403761 -0.03997767 0.034990083 -0.0060658786 -0.026141576 -0.0075335107 -0.01826529 -0.0035574709
0.07253453 -0.028441077 0.024150169 -0.018794976 -0.0060903225 0.00812789 0.029824654 -0.03385386
-0.016799457 -0.017820148 -0.0061526387 0.0040045017 0.017734746 0.06059962 0.00731824 0.037576947
0.042836238 0.06611129 -0.07126827 -0.0040268255 0.05280657 -0.043217428 0.03412176 0.06608304
-0.026824692 0.042586043 0.017252358 0.0072584758 -0.0017759303 0.074767046 -0.012079931 -0.05382273
0.002717217 -0.0011334022 0.06514938 0.0095949685 0.032647204 0.0023191907 -0.011648021 -0.023919266
0.038870905 -0.036858693 -0.06159794 0.069579236 -0.023729973 0.03474997 0.025676781 0.00745321
-0.03269417 -0.023676451 0.026720222 0.049807537 0.010177149 -0.04951343 -0.05332377 -0.030995375
-0.016259605 -0.049648024 -0.044808652 -0.015217138 -0.017620306 -0.005362113 -0.059393946 -0.007628731
-0.027928056 0.053126387 0.014262952 0.052139368 -0.038938016 -0.066184744 -0.021850344 0.029185535
0.03358394 0.03588171 -0.0016372596 -0.034493197 0.0131105725 -0.02714392 0.02475879 0.032350905
0.01296507 0.016921215 0.03434448 -0.067358546 -0.030887965 -0.01209117 -0.036356963 0.009901472
-0.077000394 0.0115790535 -0.05727635 0.03158703 0.059538666 -0.019604234 -0.0177012 -0.044163838
0.059882015 -0.010789662 0.057467878 -0.070627876 -0.04004026 -0.007797535 0.013784411 -0.039480276
-0.041585978 0.034973748 0.08383759 0.03548946 0.01509006 -0.00039269807 0.042155698 0.0032623687
0.054869127 0.004109849 0.037544947 -0.0027085461 -0.0015376849 0.03487772 -0.028820224 -0.0017950725
0.049088806 -0.0035334446 -0.061411217 -0.032131113 -0.07219706 -0.04221034 0.07450438 0.016319351
0.05281199 -0.038652856 -0.0069835405 -0.003918673 0.052133195 0.04319242 0.051827427 0.020505445
-0.018096562 0.04057397 0.024938932 -0.03472804 -0.022047997 0.046433665 0.014506585 -0.036400367
0.058777746 -0.042989865 0.0127075575 -0.03936796 0.0009309201 -0.026226038 0.043091886 -0.02056375
0.025096102 0.062019035 -0.0019594885 -0.046440795 -0.036447033 -0.031624936 0.071114264 0.012616942
-0.051055003 0.044053905 -0.0021109015 -0.057538353 0.009552393 -0.028941566 0.036911003 -0.010454524
-0.01720426 -0.034352288 0.06173312 0.047169883 0.016365007 -0.0017646924 -0.0778732 0.079139665
0.04199834 -0.04477581 -0.0077669835 -0.020722078 0.06660651 0.021771152 -0.0068929913 0.011429132
0.026363967 -0.040004894 0.025292877 -0.06425392 0.0052937693 -0.021197096 -0.075347565 0.043283317
0.0018552052 0.03550924 0.001409442 -0.029411228 0.0041672694 -0.035073962 -0.012583408 0.032588046
0.0040691006 0.06425984 0.0015291197 -0.03469968 -0.02304549 0.024462951 0.026691254 -0.034510702
-0.019207625 0.07849797 -0.058319133 0.03345417 0.050505664 0.0018443724 0.0643516 0.03195628
-0.02580812 -0.001470566 0.062198587 -0.043582886 0.013019482 0.04251521 0.038827844 -0.018634025
00000000: c024 753c 4842 923c b5b9 f4bc c255 083d
00000010: 827d 8d3c b470 77bd 31c4 9abc b7c1 403c
00000020: 512b 46bc 6935 5e3d af52 013d 3419 61bc
00000030: 5a2e 8e3c f35d bebb d415 983d be12 e0bc
00000040: 1263 5b3d 27dc 2cbd 9c1d 953d ed1c fb3b
00000050: b9ba 80bd f41c 9cbc 496a e03c 0f21 1f3c
00000060: c860 34bd a0bf 23bd c351 0f3d 47c4 c6bb
00000070: dc26 d6bc abdb f6bb 17a1 95bc 7524 69bb
00000080: fc8c 943d 43fd e8bc 93d6 c53c ecf7 99bc
00000090: 5491 c7bb d72a 053c d552 f43c 58aa 0abd
000000a0: 049f 89bc 8ffb 91bc 139c c9bb 3238 833b
000000b0: 7548 913c 4f37 783d d9cd ef3b 49ea 193d
000000c0: 0d75 2f3d 5b65 873d 19f5 91bd 76f3 83bb
000000d0: b44b 583d c204 31bd 42c3 0b3d 8b56 873d
000000e0: 75bf dbbc b46e 2e3d d154 8d3c 82d8 ed3b
000000f0: 55c6 e8ba 771f 993d e7ea 45bc 3975 5cbd
00000100: 5613 323b ab8e 94ba 0a6d 853d 3734 1d3c
00000110: 13b9 053d 90fd 173b 57d7 3ebc 56f2 c3bc
00000120: 1937 1f3d 24f9 16bd 1f4e 7cbd 8f7f 8e3d
00000130: 5c65 c2bc fc55 0e3d 1d58 d23c 0f3a f43b
00000140: 52ea 05bd 1ef5 c1bc 5ee4 da3c fd02 4c3d
00000150: 0fbe 263c 98ce 4abd 076a 5abd 03ea fdbc
00000160: dd32 85bc ba5b 4bbd 4789 37bd 4e51 79bc
00000170: 7658 90bc aab4 afbb 1147 73bd 6ffa f9bb
00000180: 61c9 e4bc 0e9b 593d 28af 693c 1790 553d
00000190: 787d 1fbd de8b 87bd 7eff b2bc 8116 ef3c
000001a0: 508f 093d b3f8 123d 5199 d6ba bd48 0dbd
000001b0: bacd 563c ed5c debc f2d2 ca3c 6282 043d
000001c0: 726b 543c 5c9e 8a3c ccac 0c3d 47f3 89bd
000001d0: c208 fdbc 0b1a 46bc 0aeb 14bd c939 223c
000001e0: 62b2 9dbd 12b6 3d3c 9b9a 6abd 6761 013d
000001f0: d1de 733d 0f99 a0bc 1b02 91bc 24e5 34bd
00000200: d846 753d 1fc7 30bc 7063 6b3d 59a5 90bd
00000210: 4101 24bd 7782 ffbb 03d8 613c 12b6 21bd
00000220: 0f56 2abd a240 0f3d 0bb3 ab3d 655d 113d
00000230: 4d3c 773c 0be3 cdb9 74ab 2c3d 77cd 553b
00000240: 73be 603d eaab 863b bbc8 193d dd81 31bb
00000250: 258c c9ba f1db 0e3d 6418 ecbc a348 ebba
00000260: 5811 493d 5d91 67bb 548a 7bbd ea9b 03bd
00000270: 0ddc 93bd c0e4 2cbd c195 983d 29b0 853c
00000280: 6351 583d 7552 1ebd 2fd6 e4bb 3668 80bb
00000290: 9e89 553d 89ea 303d ff48 543d 09fb a73c
000002a0: 3e3f 94bc e430 263d bb4c cc3c fd3e 0ebd
000002b0: 009e b4bc 3a31 3e3d 07ad 6d3c 8d18 15bd
000002c0: efc0 703d 2416 30bd 5c33 503c 4c40 21bd
000002d0: fe08 743a fdd7 d6bc 1e81 303d 4f75 a8bc
000002e0: 5796 cd3c ac07 7e3d c36a 00bb b438 3ebd
000002f0: 7c49 15bd 2689 01bd 5ba4 913d 4ab7 4e3c
00000300: 0d1f 51bd de71 343d 0d57 0abb 56ad 6bbd
00000310: a481 1c3c dd16 edbc fe2f 173d 7449 2bbc
00000320: f3ef 8cbc fcb4 0cbd dedb 7c3d 3535 413d
00000330: e80f 863c 404d e7ba fc7b 9fbd fa13 a23d
00000340: 7406 2c3d d766 37bd 2e82 febb 59c1 a9bc
00000350: fe68 883d 6a59 b23c 9ade e1bb 4141 3b3c
00000360: 3ff9 d73c 2cdc 23bd 0233 cf3c 8f97 83bd
00000370: 5b77 ad3b 88a5 adbc d34f 9abd d949 313d
00000380: 5b2a f33a 2372 113d 07bd b83a d1ef f0bc
00000390: 978d 883b b7a9 0fbd a32a 4ebc 0b7b 053d
000003a0: 1756 853b aa9a 833d be6c c83a 4021 0ebd
000003b0: e5c9 bcbc 8766 c83c 9ea7 da3c 185b 0dbd
000003c0: 4f59 9dbc 8bc3 a03d 0be0 6ebd 3d07 093d
000003d0: 07df 4e3d debe f13a c6ca 833d 97e4 023d
000003e0: 8d6b d3bc 02c0 c0ba f2c3 7e3d f883 32bd
000003f0: aa4f 553c 6e24 2e3d f209 1f3d 62a6 98bc

fc2.bias f4 [300]
0.0057539186 0.048968073 -0.015282829 -0.014035974 0.0025110806 0.058306452 0.05538248 0.0818158
-0.02026271 0.015120025 0.048157312 0.00042752782 0.012487062 -0.045137633 -0.0057535325 -0.011411119
0.04167611 -0.0019178111 -0.012494423 0.0077697486 0.03463786 -0.018065592 0.023312474 0.044505063
0.011004722 0.010196001 -0.0112997955 -0.04942792 0.06292491 0.007995064 0.029345786 0.025026262
0.067918465 0.05856744 -0.025124963 0.05279909 0.02473098 0.010965093 0.06602674 0.014935419
0.03161154 0.016893761 0.01802627 0.04627979 0.039913844 -0.046628226 -0.004481214 0.013582223
0.05902603 -0.013247546 -0.0098942965 -0.010518015 0.032939818 0.06641896 0.030103277 0.06374436
0.02487442 0.004819676 0.006664195 -0.02231498 -0.019985525 0.055074826 0.006073076 0.0039431294
0.051831096 -0.022131091 -0.016659291 0.04960087 -0.0051304265 0.020361925 0.0012008187 0.046231393
0.0442676 0.032527644 -0.008753121 0.023932768 -0.03586218 0.014241412 0.06350772 0.021577222
0.035532773 0.033249516 -0.0030981856 0.0027269889 0.029780455 0.020317605 -0.002383257 0.078429446
0.006101646 0.044440452 0.015139468 0.051485855 -0.044817727 0.059291877 -0.05195874 0.012096323
0.0024907924 -0.032497983 0.0110412575 0.023903964 0.00503254 0.057050183 0.034713436 0.024019433
0.024965923 -0.010348677 0.0005172833 -0.022492971 0.01735702 0.007956893 -0.051700633 0.06425174
0.00025995992 0.041790266 -0.030877674 0.006163343 0.017464692 0.043451026 0.043252572 0.00756421
-0.0035257195 0.020185905 0.054966044 0.03566706 0.026369428 0.0010412106 0.017332647 0.047534376
0.03905244 -0.036140267 -0.017167555 0.00965423 0.025779858 0.064300835 -0.002626407 0.021322196
-0.002782789 -0.0040858896 0.012225672 0.061646227 -0.014014022 0.065803885 0.053943124 0.015827565
0.014796879 -0.027664226 0.07755969 -0.00080326 -0.023347732 0.024737477 -0.02447557 -0.0195615
-0.034849275 -0.024376255 0.038142398 -0.0048872563 -0.018077208 0.03149196 -0.020839237 -0.042126793
0.020368833 0.05249378 0.033286132 0.04026396 0.052545335 0.043387037 0.041507535 0.016019084
-0.05521721 -0.022358827 0.0134842945 0.011160355 0.04942905 0.014774708 -0.016320111 -0.020950342
0.06054594 -0.026648266 0.006971446 0.06245779 0.058702722 0.06211076 -0.00969219 -0.019989634
-0.031906426 -0.00617141 0.015024233 0.052048113 0.0036352174 -0.013715695 0.039483853 0.037539314
-0.03964835 -0.0075386297 -0.006367052 0.023614118 0.032080177 0.08009172 0.003739879 0.02127816
-0.006492689 -0.043384083 -0.00029177725 -0.0072531905 -0.012675794 0.06222242 -0.03590529 0.05167089
0.015415172 0.018516269 0.026924692 -0.03408924 0.041627903 -0.030082393 0.02581879 0.010111946
0.044248242 0.003797852 0.018911162 -0.023734111 0.05219837 0.029312525 -0.020734815 0.05520404
0.042402294 -0.0043975534 0.00065576675 0.026819987 -0.0054916367 0.028492404 0.03301159 0.00046081006
0.024961488 0.02576342 -0.017027285 -0.030052837 0.02442027 0.03347966 -0.004244266 0.022934541
-1.0642674e-05 0.025602749 0.054875236 0.008380843 -0.03908093 0.053072963 0.0151031595 -0.011445042
-0.017633183 -0.033204325 0.033587314 -0.05509555 0.024826936 0.03574363 -0.0070518823 0.06818519
00000000: 5e8b bc3b bf92 483d d564 7abc 24f7 65bc
00000010: f190 243b bfd2 6e3d bdd8 623d 0b8f a73d
00000020: fcfd a5bc fbb9 773c 9a40 453d d025 e039
00000030: 8996 4c3c 3de2 38bd 2188 bcbb b4f5 3abc
00000040: 92b4 2a3d 105f fbba 69b5 4cbc 6099 fe3b
00000050: 6ee0 0d3d 4bfe 93bc cdf9 be3c f14a 363d
00000060: 264d 343c 210d 273c c722 39bc ee74 4abd
00000070: c6de 803d bbfd 023c 9366 f03c e003 cd3c
00000080: d618 8b3d 69e4 6f3d ded2 cdbc dc43 583d
00000090: a098 ca3c efa6 333c 0739 873d b0b3 743c
000000a0: 1a7b 013d c964 8a3c d4ab 933c e18f 3d3d
000000b0: b37c 233d 3dfd 3ebd 26d7 92bb f987 5e3c
000000c0: 47c5 713d 3c0c 59bc b01b 22bc c153 2cbc
000000d0: e7eb 063d aa06 883d 269b f63c 678c 823d
000000e0: 71c5 cb3c 5fee 9d3b 525f da3b e8cd b6bc
000000f0: afb8 a3bc 2496 613d a700 c73b 5e35 813b
00000100: d84c 543d 434c b5bc 1179 88bc 482a 4b3d
00000110: 231d a8bb 0dce a63c ca64 9d3a 215d 3d3d
00000120: f151 353d b53b 053d 4069 0fbc a70e c43c
00000130: 39e4 12bd d054 693c 5610 823d b7c2 b03c
00000140: d08a 113d a530 083d ee0a 4bbb 48b7 323b
00000150: 24f6 f33c 1b71 a63c 6b30 1cbb 9e9f a03d
00000160: 51f0 c73b 3107 363d 880b 783c d5e2 523d
00000170: cb92 37bd 0adc 723d b0d2 54bd a82f 463c
00000180: 903c 233b 9b1c 05bd 64e6 343c 3fd2 c33c
00000190: 01e8 a43b 74ad 693d ad2f 0e3d 67c4 c43c
000001a0: 5685 cc3c 7f8d 29bc 4b9a 073a 2e43 b8bc
000001b0: 4f30 8e3c a15d 023c 0bc4 53bd 6b96 833d
000001c0: 3b4b 8839 452c 2b3d 2df3 fcbc def5 c93b
000001d0: 1d12 8f3c b4f9 313d 9c29 313d 31dd f73b
000001e0: c20f 67bb e95c a53c 1324 613d a017 123d
000001f0: b304 d83c 3b79 883a 32fd 8d3c 68b3 423d
00000200: 74f5 1f3d d107 14bd f9a2 8cbc c72c 1e3c
00000210: 4830 d33c 28b0 833d cc1f 2cbb e3ab ae3c
00000220: 745f 36bb ede2 85bb 2f4e 483c c180 7c3d
00000230: 129b 65bc 30c4 863d 77f3 5c3d cfa8 813c
00000240: 9c6e 723c 16a0 e2bc 9dd7 9e3d de91 52ba
00000250: be43 bfbc 40a6 ca3c fe80 c8bc 703f a0bc
00000260: 1dbe 0ebd b6b0 c7bc 343b 1c3d 4725 a0bb
00000270: a716 94bc b7fd 003d 0cb7 aabc 258d 2cbd
00000280: 8adc a63c b803 573d 0a57 083d d2eb 243d
00000290: c739 573d 9bb6 313d ce03 2a3d 743a 833c
000002a0: 712b 62bd dc29 b7bc 3bed 5c3c ecd9 363c
000002b0: 1e76 4a3d 9e11 723c c1b1 85bc 0da0 abbc
000002c0: 05ff 773d 774d dabc ba70 e43b bdd3 7f3d
000002d0: 4472 703d da67 7e3d fecb 1ebc 4dc1 a3bc
000002e0: 50b0 02bd 8a39 cabb 3328 763c 6730 553d
000002f0: d43c 6e3b cbb7 60bc d2b9 213d d3c2 193d
00000300: 4f66 22bd 9c06 f7bb b4a2 d0bb 6572 c13c
00000310: 8166 033d 2107 a43d c218 753b 894f ae3c
00000320: 9fc0 d4bb 82b3 31bd aef9 98b9 2cac edbb
00000330: 22ae 4fbc f0dc 7e3d 6d11 13bd dba4 533d
00000340: eb8f 7c3c 6eaf 973c 2c91 dc3c 29a1 0bbd
00000350: 0582 2a3d 5a6f f6bc ed81 d33c 93ac 253c
00000360: a53d 353d 62e5 783b 95eb 9a3c 0a6e c2bc
00000370: f5cd 553d d220 f03c 0fdc a9bc a21d 623d
00000380: 07ae 2d3d 5a19 90bb c3e7 2b3a 97b5 db3c
00000390: 30f3 b3bb e768 e93c 2937 073d e198 f139
000003a0: 097c cc3c cf0d d33c ce7c 8bbc 5e31 f6bc
000003b0: 050d c83c f821 093d 7c13 8bbb 38e1 bb3c
000003c0: f08d 32b7 dbbc d13c dbc4 603d ce4f 093c
000003d0: 5313 20bd 0963 593d 3e73 773c fc83 3bbc
000003e0: 7773 90bc 4201 08bd da92 093d dfab 61bd
000003f0: dc61 cb3c ea67 123d 7a13 e7bb ada4 8b3d

fc2_bn.weight f4 [300]
0.14944214 0.14977014 0.2611993 0.51860726 0.81676626 0.29705387 0.34604985 0.86691993
0.7756787 0.5868118 0.0771305 0.6894343 0.31985164 0.96671647 0.7052087 0.12475222
0.15256727 0.8573401 0.017770946 0.70515764 0.96766233 0.97342604 0.15915465 0.46685183
0.7631919 0.09892857 0.19246292 0.042244434 0.46702665 0.4987083 0.48428512 0.0879696
0.9982474 0.8301435 0.37576568 0.30082232 0.29493737 0.04941523 0.8539028 0.46618545
0.9516612 0.6416594 0.6460901 0.76962376 0.0569188 0.60718095 0.41753018 0.6783274
0.0908128 0.7956306 0.51315385 0.40401924 0.5250133 0.6310458 0.89971817 0.5884789
0.1553815 0.688915 0.02816385 0.9435946 0.9381292 0.5281213 0.8847201 0.842013
0.5118625 0.30092752 0.095802546 0.46791768 0.8645371 0.9277947 0.107212245 0.14161044
0.46666676 0.12599885 0.21607292 0.05634141 0.11254704 0.91616434 0.81430066 0.07821053
0.67936724 0.41243136 0.64770365 0.68429595 0.6264257 0.11461723 0.022995293 0.27284592
0.89878917 0.03412491 0.63461345 0.26877534 0.728698 0.93834114 0.26703233 0.84698236
0.50829864 0.9861999 0.1385606 0.51804185 0.20391876 0.23845053 0.94850785 0.7404231
0.32300067 0.09278816 0.993056 0.032127857 0.4722761 0.12148887 0.5698941 0.67158073
0.04063362 0.22401625 0.123885274 0.6970704 0.8330391 0.7934174 0.94234264 0.42579877
0.07322478 0.46086323 0.36882395 0.6577065 0.6357019 0.15168607 0.2823969 0.0012176633
0.08277881 0.7930537 0.42334825 0.36075842 0.94932353 0.4964627 0.7140111 0.218413
0.49720603 0.6566708 0.20319015 0.5064834 0.9722359 0.974204 0.5141415 0.72039706
0.28132862 0.8502117 0.59039885 0.003117919 0.45283478 0.8743588 0.2166552 0.25024986
0.6708402 0.66183394 0.3239463 0.4249509 0.4796319 0.99667543 0.87113374 0.20388985
0.5909603 0.16040206 0.8177793 0.5230282 0.9389007 0.057545125 0.2162025 0.65256304
0.85267794 0.97212464 0.47107828 0.80267245 0.0066756606 0.33039278 0.37205338 0.7186831
0.19965899 0.5176338 0.17886722 0.672648 0.9301291 0.018747091 0.49297506 0.16832769
0.77393806 0.4187644 0.2019844 0.6267373 0.6599716 0.8291942 0.1141547 0.96626407
0.1295343 0.9316978 0.76766986 0.3231396 0.26069325 0.42783403 0.7412104 0.2931705
0.39822578 0.021992505 0.042828143 0.6915731 0.25879836 0.3357538 0.40665615 0.714052
0.40913343 0.73993164 0.4569186 0.7277536 0.5574545 0.67996615 0.7612714 0.3774482
0.8660351 0.80641043 0.8674431 0.43121046 0.5951159 0.937403 0.73869574 0.06172198
0.111393094 0.7297852 0.68177384 0.23057258 0.4339888 0.2043379 0.72118056 0.06389278
0.03569466 0.29185265 0.52876073 0.27404946 0.3957758 0.46672595 0.005663395 0.7576956
0.22227573 0.9021408 0.864378 0.896751 0.96226585 0.5165413 0.56109583 0.8870149
0.17583644 0.3875141 0.15002954 0.012266815 0.7159046 0.63749295 0.28643674 0.72284424
00000000: 5c07 193e 585d 193e eabb 853e 72c3 043f
00000010: 9817 513f 7217 983e 722d b13e 77ee 5d3f
00000020: e192 463f 4c39 163f 98f6 9d3d c47e 303f
00000030: 98c3 a33e bb7a 773f 8f88 343f 187e ff3d
00000040: 983a 1c3e a47a 5b3f 6094 913c 3685 343f
00000050: b8b8 773f 7332 793f 70f9 223e 3407 ef3e
00000060: 8b60 433f 109b ca3d 0015 453e 8008 2d3d
00000070: 1e1e ef3e b256 ff3e 38f4 f73e 6829 b43d
00000080: 248d 7f3f 4984 543f 5c64 c03e 6205 9a3e
00000090: 0802 973e a067 4a3d 6099 5a3f dcaf ee3e
000000a0: 12a0 733f ca43 243f 2966 253f 1006 453f
000000b0: b023 693d 3670 1b3f 84c6 d53e dda6 2d3f
000000c0: 10fc b93d 72ae 4b3f 0d5e 033f 9cdb ce3e
000000d0: 4667 063f 388c 213f ee53 663f 8ea6 163f
000000e0: 541c 1f3e bc5c 303f e0b7 e63c 6a8f 713f
000000f0: 3c29 703f f532 073f 047d 623f 2a8e 573f
00000100: 6c09 033f 2c13 9a3e 2034 c43d e892 ef3e
00000110: 4e52 5d3f f483 6d3f 1892 db3d 5402 113e
00000120: f2ee ee3e d805 013e 3842 5d3e 40c6 663d
00000130: 107f e63d bf89 6a3f 0276 503f d82c a03d
00000140: 03eb 2d3f 342a d33e e8cf 253f 052e 2f3f
00000150: 6f5d 203f 70bc ea3d a060 bc3c 76b2 8b3e
00000160: 0c17 663f 90c6 0b3d 0776 223f ec9c 893e
00000170: f48b 3a3f 2037 703f 76b8 883e d6d3 583f
00000180: dc1f 023f 9977 7c3f d4e2 0d3e 649e 043f
00000190: 14d0 503e 602c 743e 69d1 723f 5e8c 3d3f
000001a0: 5860 a53e b807 be3d eb38 7e3f 8098 033d
000001b0: 2cce f13e 28cf f83d 94e4 113f b7ec 2b3f
000001c0: 706f 263d 8464 653e 90b7 fd3d 3573 323f
000001d0: 0d42 553f 671d 4b3f 5e3d 713f 4c02 da3e
000001e0: e0f6 953d 44f6 eb3e 7ed6 bc3e 745f 283f
000001f0: 5cbd 223f 9853 1b3e 5496 903e 009a 9f3a
00000200: f087 a93d 9105 4b3f 1ac1 d83e 54b5 b83e
00000210: de06 733f 5c30 fe3e 6ec9 363f a8a7 5f3e
00000220: ca91 fe3e 941b 283f 1411 503e e5a8 013f
00000230: 74e4 783f 6f65 793f c79e 033f f16b 383f
00000240: 4e0a 903e 79a7 593f 6124 173f 0056 4c3b
00000250: f6d9 e73e fad5 5f3f dcda 5d3e c020 803e
00000260: 2fbc 2b3f f36d 293f 4adc a53e 2a93 d93e
00000270: 5092 f53e 1f26 7f3f 9f02 5f3f 80c8 503e
00000280: 2d49 173f 7040 243e fc59 513f 2de5 053f
00000290: cc5b 703f 70b4 6b3d 3064 5d3e 5f0e 273f
000002a0: 1a49 5a3f 29dd 783f 2c31 f13e f17b 4d3f
000002b0: 80bf da3b 3e29 a93e c87d be3e 9efb 373f
000002c0: 6873 4c3e a683 043f f828 373e a932 2c3f
000002d0: f11c 6e3f 8093 993c 3a67 fc3e 185e 2c3e
000002e0: ce20 463f 4a68 d63e 00d5 4e3e db71 203f
000002f0: e6f3 283f 1246 543f f0c9 e93d 155d 773f
00000300: a4a4 043e bf83 6e3f 0386 443f 8e72 a53e
00000310: 9679 853e 100d db3e f7bf 3d3f 721a 963e
00000320: 40e4 cb3e a029 b43c 906c 2f3d ef0a 313f
00000330: 3881 843e ece7 ab3e 3c35 d03e 1dcc 363f
00000340: f079 d13e 296c 3d3f 3cf1 e93e 0f4e 3a3f
00000350: 57b5 0e3f 4312 2e3f afe2 423f e440 c13e
00000360: 7ab4 5d3f ea70 4e3f c010 5e3f 9ec7 dc3e
00000370: 8459 183f a5f9 6f3f 2a1b 3d3f 30d0 7c3d
00000380: 1022 e43d 34d3 3a3f bb88 2e3f 381b 6c3e
00000390: c833 de3e f43d 513e 4a9f 383f 38da 823d
000003a0: 9034 123d b66d 953e dd5c 073f 3650 8c3e
000003b0: 20a3 ca3e b4f6 ee3e 0094 b93b 57f8 413f
000003c0: 409c 633e b3f2 663f e047 5d3f 7991 653f
000003d0: 0e57 763f 0d3c 043f faa3 0f3f 6913 633f
000003e0: 780e 343e 4068 c63e 58a1 193e c0fa 483c
000003f0: 8645 373f bd32 233f d6a7 923e 520c 393f
