agent_checkpoints/checkpoint_actor_16.pth (torch_old, 553585 bytes, 14 tensors)

fc1.weight f4 [400, 33]
000000 8e 54 a5 3d 24 3f 07 bb 77 99 4b bd e8 e4 40 3d
       0.08072768 -0.0020637 -0.049706902 0.047093302
000010 74 03 24 3d 83 b0 bf ba 44 d0 88 3c 23 e7 f4 3c
       0.040042356 -0.0014624748 0.016700871 0.02989537
000020 82 67 b1 bb 75 d0 01 3d ca e9 27 bc c0 07 0d 3d
       -0.0054139504 0.03169294 -0.010248611 0.03443122
000030 af e8 dc 3c 04 f6 25 3d 46 3c 4d bd 53 36 84 bc
       0.026966421 0.040517822 -0.05010631 -0.016139185
000040 a3 b4 db bc 04 fb d9 3b fa b0 89 bd b6 96 3f bd
       -0.026819533 0.006652238 -0.06723209 -0.04677459
000050 21 05 9a bb 14 73 a9 bd b9 7c c6 3c 8f 2f e5 bc
       -0.0047003184 -0.082739025 0.024229394 -0.02797678
000060 ac de 18 3d 83 7d c9 bc cc e3 ac 3d 8d ab 55 bd
       0.03732173 -0.024595981 0.08441886 -0.052165557
000070 e3 88 d6 bc d2 7f 8f 3c 22 f3 9d 3c ee f5 14 bd
       -0.02618832 0.017517004 0.019280974 -0.03636735
000080 87 7d 3e 3d 0f 7e 6f 3d ea 84 22 bc 26 12 26 bd
       0.04650643 0.05846983 -0.0099193845 -0.04054465
000090 93 0e 4e bd 60 e4 1c bd ed 8d b4 bb 61 b6 80 3b
       -0.050306868 -0.038303733 -0.005510083 0.0039279913
0000a0 f6 aa 3a bc 80 12 a7 bc e0 d6 23 3d f8 4b b1 3c
       -0.011393299 -0.020394564 0.039999843 0.02164267
0000b0 6a 04 3e 3d 79 9b b7 3c 37 a7 26 3d 14 46 08 bb
       0.04639093 0.022413002 0.040686812 -0.0020793723
0000c0 a0 50 37 bd 46 19 18 bb a4 ed 21 3d ec 14 ee bc
       -0.044754624 -0.0023208424 0.039533272 -0.02906271
0000d0 f2 d4 7c 3c a9 7d 9a 3d 35 de 02 bd fb 94 a6 3c
       0.0154316295 0.07543499 -0.031950194 0.020334711
0000e0 e0 46 c7 3c 3a 74 57 3d 48 76 b0 bc 00 42 56 bd
       0.024325788 0.052601077 -0.021540776 -0.052309036
0000f0 6f 85 8c bd d9 c4 95 3d 20 c5 06 3c 12 f8 c4 ba
       -0.06861388 0.07312936 0.008225709 -0.0015027544
000100 01 2f 12 3d 3e 9f c3 bc cc 8a 5e bc 72 48 30 3c
       0.035689358 -0.023879644 -0.013582896 0.01075946
000110 ae 45 2d bd 69 94 4a bd 4b 8f 1d bd 07 47 08 3d
       -0.04230278 -0.04945794 -0.038466733 0.033270862
000120 b9 ed bb 3c 01 41 5d 3c 11 9f a8 3c 13 34 31 3d
       0.022940503 0.013504268 0.020583661 0.043262552
000130 00 7e 8d 3c f5 c0 52 3d ac bc 09 3d 24 63 a3 bc
       0.017271996 0.05145355 0.033627197 -0.019944735
000140 23 e8 ba 3b 92 28 ae 3a 9a 6f ce 3c ef c1 75 bc
       0.0057039424 0.0013287237 0.0251997 -0.014999851
000150 a8 13 be bb 79 08 23 bc 2f 1e 6f 3d 7e ef 6a 3d
       -0.005800683 -0.0099507505 0.058378395 0.057357304
000160 f9 59 f1 3c 46 03 01 3d a1 fe 2d 3d 83 3b 37 bc
       0.029461848 0.031497262 0.04247916 -0.011183622
000170 04 13 cd bc 42 91 5b 3c f5 41 ee bb 18 b6 f2 3b
       -0.025033481 0.013401331 -0.0072710463 0.007406961
000180 17 10 d7 3c a8 f1 2a bc 7d af 5f bd 2e d8 bd ba
       0.02625279 -0.010433592 -0.054610718 -0.0014483982
000190 ae 3f 8b bb 89 cc 45 bc 9e 58 39 3b e5 49 34 bd
       -0.0042495346 -0.012072691 0.002828158 -0.044015784
0001a0 b8 0c 6f 3d ed b2 a6 bc 49 4d fc bc 7d a5 93 bc
       0.05836174 -0.02034899 -0.030798571 -0.018023247
0001b0 ef 80 02 3d 2e 18 07 bb 5e 82 fe 3c 02 88 04 3d
       0.031861242 -0.0020613777 0.031068023 0.03235627
0001c0 f7 18 9e 3d 3a aa f6 3b 1c 74 2b bd 1e 54 29 3d
       0.077196054 0.007527617 -0.041858777 0.041339986
0001d0 55 28 77 3d c1 6c d7 bc 38 1d 42 3b f3 30 79 3d
       0.060341198 -0.026296975 0.0029619467 0.060837697
0001e0 8f 44 2e bd 64 38 1d bb b4 61 13 3d 6e f1 2a 3d
       -0.04254585 -0.002398991 0.03598185 0.04173415
0001f0 a5 45 f0 bc 5c 90 5f bd ac d7 4d bd bc 55 9b 3d
       -0.029330084 -0.05458103 -0.05025451 0.07584712
000200 7e c1 d5 3c 24 43 49 3d 74 68 3e 3c cb 53 28 bd
       0.02609324 0.049136296 0.011621583 -0.041095536
000210 40 1c b1 bc 82 68 10 3d 84 3d 3f bd ad cb 3f bd
       -0.021619916 0.035255916 -0.046689525 -0.0468251
000220 99 ed f7 bc 05 c8 34 3d 9e 66 02 3d ff ac 47 bb
       -0.030264663 0.044136066 0.031836145 -0.0030468104
000230 19 d4 c1 bc c2 73 7c 3d 80 38 88 3d 2b 76 d9 bc
       -0.023660706 0.061633833 0.066514015 -0.026545605
000240 1b 29 7e bc ec d8 4f bc 9d 8a 19 3d fd a2 4c 3a
       -0.01551273 -0.012685996 0.037485708 0.00078062696
000250 4c a2 65 bd 74 6c 42 bd f6 c5 0a bc 44 76 1d 3c
       -0.05606298 -0.04746671 -0.008470049 0.009610716
000260 24 5d 33 bd ce cd 0a 3d 32 ca 79 bc 19 9b 1c 3d
       -0.043789998 0.033887677 -0.015245961 0.03823385
000270 94 0f f4 bc 70 35 34 bd d4 1f 77 3d 47 14 e5 3c
       -0.029792584 -0.043996274 0.060333088 0.02796377
000280 fb 71 40 3c ca 52 d1 3c 92 a4 5e 3c 85 b9 05 bd
       0.011745925 0.025552172 0.013589041 -0.03264763
000290 db 42 57 bd 54 d1 81 3d fb ad 92 bc 00 ec 51 3c
       -0.052553993 0.06338754 -0.017905226 0.012812614
0002a0 93 a1 35 3d 26 0d 49 bd 62 26 10 bd ae 2f 4e bd
       0.044343542 -0.049084805 -0.035192855 -0.05033844
0002b0 94 84 39 bc 58 36 1f bd f8 e3 a7 3c a3 d7 8b 3c
       -0.011323113 -0.038870186 0.020494446 0.017070597
0002c0 b5 8b 98 bc 20 3a 07 bc 18 21 b9 3c 90 6b 8f b7
       -0.018621305 -0.008253604 0.022598788 -1.7097016e-05
0002d0 5e 9a 6e bd 0f 9c f1 3c 7c 97 61 3d 9c dc 74 bd
       -0.058252685 0.02949336 0.055076107 -0.059780702
0002e0 a9 84 94 3c 8d c7 94 3d 46 6b c3 bc 8f 67 02 3b
       0.018129664 0.07264624 -0.023854863 0.0019898152
0002f0 32 87 92 3c 45 eb 97 3c 8b 30 ad bc 7a 6d 88 3d
       0.017886732 0.018544802 -0.021141311 0.06661506
000300 6a e7 df bc 15 ed f5 bc 72 79 ed 3c 9b 39 83 3d
       -0.027332027 -0.030020276 0.028988574 0.06407472
000310 c0 be 43 3a 9c 77 0a 3d 02 2b 0c 3b 26 94 b3 bb
       0.00074670836 0.033805475 0.002138794 -0.005480307
000320 38 3e 08 bd 03 b0 be bc 04 c9 86 bc 42 a2 cd bb
       -0.03326246 -0.023277288 -0.016453274 -0.006275446
000330 96 44 60 bc d5 74 a7 bc c8 76 00 3b e8 fa 27 3c
       -0.013688227 -0.020441452 0.001960205 0.010252692
000340 c0 19 27 3d ee a3 f9 3c bf ac 79 3c e4 2d 35 3c
       0.04079604 0.030473676 0.01523894 0.011058304
000350 aa 31 09 bd dc 88 12 ba ce dd 7b bc 15 58 04 bd
       -0.03349463 -0.00055898516 -0.015372707 -0.032310564
000360 22 35 f4 bc 8d c7 37 bd 30 72 35 3d 13 90 2f bd
       -0.029810492 -0.04486804 0.04429835 -0.04286201
000370 12 a7 1b bb a5 51 92 3c 16 03 1a 3d ed 20 34 bd
       -0.0023750705 0.017861197 0.0376006 -0.043976713
000380 51 c1 10 3d b1 f2 0c bd af 9d 3f bd b3 43 cd bc
       0.03534061 -0.034411136 -0.04678124 -0.025056696
000390 89 fa fb bc 55 7e 00 bd 20 d7 84 bc 98 e0 70 bd
       -0.030759113 -0.03137048 -0.01621586 -0.05880794
0003a0 0c 9c 63 3d 3e f8 b8 3c 89 ed a3 3c 88 02 c9 3c
       0.05556874 0.022579309 0.020010727 0.02453734
0003b0 b5 dd 02 3d 9b 79 a7 3c 31 cb 07 3d 38 5b 98 3c
       0.031949718 0.020443728 0.033152763 0.018598184
0003c0 7f dd 47 3d 73 06 18 bd 90 d3 1c bd 13 ff bc 3a
       0.04879522 -0.037115525 -0.0382877 0.001441928
0003d0 48 b1 8b bc 9e 54 53 3d 37 09 0f 3d 94 99 84 3c
       -0.017052308 0.05159437 0.034920897 0.016186513
0003e0 8d 3c 5c 3b d0 5a 15 3d 09 ca d5 3c 92 11 4e 3c
       0.0033605427 0.03646356 0.026097314 0.012577431
0003f0 d4 92 7f 3d 7a 95 f2 3c 7f 5c 36 bd ad 66 4b bd
       0.062395886 0.029612292 -0.044521805 -0.049658466

fc1.bias f4 [400]
000000 9a 3e 09 3e 17 e4 29 3e 52 4c 14 be 97 c1 19 3e
       0.13402787 0.16590916 -0.14482239 0.15015255
000010 0c 21 8d 3d 14 9f 95 3c 2e ae 8b bd 19 0e 15 be
       0.06891069 0.01826433 -0.068203315 -0.14556159
000020 5b e1 10 3e 10 65 37 3e eb a0 44 bd c3 30 23 bd
       0.14148466 0.17909646 -0.048005026 -0.039841425
000030 49 bb ea bc 70 86 5f bd 80 21 04 3e 81 a6 d3 3c
       -0.028653758 -0.05457157 0.12903404 0.025836231
000040 81 6d 4e bd 8d 10 3a 3e bc a6 4e 3d 46 44 06 3e
       -0.0503974 0.18170376 0.05045198 0.13111982
000050 6b 98 2a bc 3e 59 f4 3d dd df d9 3c 05 4a 0a 3e
       -0.010412316 0.11931084 0.026596004 0.13504799
000060 f7 88 98 3d 9f e5 7e bc e0 7c c6 bd 6e df 25 3d
       0.07447999 -0.015557676 -0.09691787 0.040496282
000070 2e c3 92 3b c3 44 35 3d 2d 4d 80 bd f9 3d 5a bd
       0.0044788336 0.04425503 -0.0626472 -0.053281758
000080 94 93 1e bd 52 41 10 3e 0c 0a 05 be ae 26 26 3e
       -0.03871496 0.14087418 -0.12992114 0.16225693
000090 89 58 86 bc 74 e5 39 3e 86 61 58 bd 18 25 f7 bd
       -0.016399639 0.18153936 -0.05282738 -0.12067622
0000a0 0b d2 a5 bb 1f 4e 6a 3d 62 d6 af 3d 39 ff 07 3e
       -0.0050604395 0.05720341 0.08585812 0.13280953
0000b0 7f 15 4e 3c de ca 83 bd 46 20 50 3c 37 1d 69 bd
       0.012578367 -0.06435178 0.012703007 -0.056912627
0000c0 a0 1b 8d bb 0e ab de bc 4b 44 9f bc 88 59 25 3e
       -0.0043062717 -0.027181175 -0.019441744 0.16147435
0000d0 59 99 8c bd db 78 f2 bd a6 02 4e 3d 19 c4 23 be
       -0.06865186 -0.118394576 0.050295494 -0.15992774
0000e0 ee c4 1f bd ce 10 20 be 47 0c 48 3d fe d1 11 bd
       -0.039006166 -0.1563141 0.048839834 -0.035600655
0000f0 b7 b3 37 bd 6c 84 ac bd 59 4c d7 bd fc a3 d9 bd
       -0.044849124 -0.08423695 -0.10512609 -0.10626981
000100 40 40 19 3d 34 5d e8 bb 09 ec 94 3d 6e 86 94 bd
       0.03741479 -0.007091189 0.07271583 -0.07252203
000110 60 b3 f6 bd a6 10 24 3e 3b 36 36 3e f5 c2 ec 3d
       -0.12045932 0.16021976 0.17794125 0.115606226
000120 ef a2 5d 3d 53 0a 92 3c b7 2d 98 bd 84 47 9e bd
       0.054110464 0.017827189 -0.074305944 -0.07728484
000130 70 58 d4 3c 8d ca ee 3c 36 f9 37 bd b7 58 4e 3d
       0.025921077 0.029149318 -0.0449154 0.050377574
000140 e4 74 66 3d 83 f4 2b 3e c0 5b 10 3e f6 28 87 bd
       0.05626382 0.16792493 0.140975 -0.065996096
000150 1f 1e b5 3d 94 3c 70 bd ab 2f 17 bd 35 c1 08 3e
       0.08843636 -0.05865152 -0.036910694 0.13354953
000160 dc b2 5b bd ec bd cc ba f2 fa ab 3c f1 38 63 bd
       -0.05363737 -0.0015620566 0.020993683 -0.055474225
000170 34 f9 78 3d f5 c3 38 be fa 11 4d 3d ce d7 02 3d
       0.060784534 -0.18043502 0.050065972 0.03194409
000180 08 4a 15 bd cc 54 11 bd f6 c5 f2 bc b2 b4 ae bd
       -0.036447555 -0.03548126 -0.02963541 -0.08530559
000190 2f 8d 8c bd 16 e6 08 3e ec bc 3a 3e 5b b4 e5 bd
       -0.06862866 0.13369021 0.1823613 -0.11216041
0001a0 71 0b 00 3e 1d b1 04 be d1 bb d8 bd 60 11 27 3d
       0.12504365 -0.12958188 -0.10582698 0.040788054
0001b0 4d 47 36 3e 11 76 2b 3e 0a 90 08 3e 1d a5 de bd
       0.17800637 0.16744258 0.13336197 -0.108713366
0001c0 d6 b5 04 be 87 cc f8 bd 89 e4 c6 bb 15 6e 47 3e
       -0.1295999 -0.121483855 -0.006069724 0.19475587
0001d0 91 d2 dd bd a7 67 75 bc 6f 83 14 be 16 96 52 3c
       -0.10831178 -0.014978326 -0.14503263 0.012853166
0001e0 89 23 cb bd e4 70 fe 3d 03 78 bd 3d 43 c3 29 3e
       -0.09918887 0.12423876 0.09251406 0.16578393
0001f0 0a f0 40 3e 0b 34 05 3e 6e 7b 2b 3e 9a 32 2d 3d
       0.18841568 0.13008134 0.16746303 0.042284586
000200 66 07 18 3e b1 0e 5f 3d 4a 6b 91 3d bf e9 3d 3c
       0.14846572 0.05445737 0.07100542 0.011591374
000210 48 cb a2 bc dd bb dc bd f6 a3 f5 bd 5d 3a 47 3c
       -0.019872323 -0.107780196 -0.11994164 0.012159911
000220 3c 79 54 bd 39 1d 7b 3c 9e d0 2d bd 0e 8c 23 be
       -0.05187343 0.015326791 -0.04243528 -0.15971395
000230 0f 70 09 be 08 0d ab 3d e1 a5 d7 3d c1 c6 1f be
       -0.13421653 0.08352095 0.10529686 -0.15603162
000240 89 a7 2c bd 6d fa bd bc 17 3a c4 3c 75 d1 17 3c
       -0.04215196 -0.023190701 0.02395348 0.009266247
000250 8d 76 bb bd ab af 5a 3e df f5 2c 3d 74 59 14 3e
       -0.09153471 0.21356075 0.04222667 0.14487249
000260 06 f5 0a be e9 5c 98 bd 9e 74 ff 3d b2 05 1b be
       -0.13570032 -0.07439596 0.12473415 -0.15138891
000270 15 05 b3 bd 79 c0 43 3e d0 e6 ca bc 30 c5 40 3e
       -0.08741204 0.19116391 -0.024768263 0.18825221
000280 55 34 b0 bd e3 7a 5f bc c9 6a 1e bd e1 df fc 3d
       -0.086037315 -0.013640138 -0.038676057 0.12347389
000290 b7 f2 2b 3e 02 68 1b bd 45 45 1b be df 54 1f 3e
       0.16791807 -0.037940986 -0.15163143 0.1555972
0002a0 00 5a b2 bd 75 2e 51 3c bf a3 78 3d 0b ac 10 be
       -0.087085724 0.012767424 0.060703035 -0.14128129
0002b0 6d 43 e9 bd ef 13 75 bd 09 d6 05 3d c3 78 c4 3d
       -0.113898136 -0.059833463 0.032674823 0.09593346
0002c0 3d 41 8f bc ba 5f c3 bd 2d fc d8 3d 96 6d f2 3d
       -0.017487163 -0.09539743 0.10594974 0.11837308
0002d0 ee b2 ea bc a6 59 03 be 68 a8 80 3d 85 66 69 bd
       -0.028649773 -0.12827167 0.06282121 -0.056982536
0002e0 63 ea 2a 3d 1d 30 19 3b 46 7e a3 3d c5 2e 60 bb
       0.041727435 0.0023374625 0.07983069 -0.0034207564
0002f0 5f 1a e0 bd 46 57 4c 3d 78 bd 6c bd 67 c1 97 3d
       -0.1094253 0.049887918 -0.05779788 0.074099354
000300 0d f3 26 be 04 e0 a5 bd d5 32 1c be be 11 6e 3d
       -0.16303654 -0.08099368 -0.15253766 0.05812239
000310 29 b3 16 3e 20 8c 23 3d 84 f7 44 3e fa 26 07 3e
       0.14716782 0.039928555 0.19235045 0.13198462
000320 a7 d6 94 bd 39 7b 54 bd 76 03 e6 3d d2 4a a3 bc
       -0.07267504 -0.051875327 0.11231129 -0.019933138
000330 a4 ce a6 bd 6d 2f 5d bc bb 1e 07 be 15 d8 0e be
       -0.08144882 -0.013500077 -0.13195316 -0.13949616
000340 23 3a 82 bd 5a f1 88 bd df be c4 bb 85 1f 2d be
       -0.06358745 -0.06686659 -0.006004199 -0.16906555
000350 c0 ed fb bd aa 22 5f 3c 13 b2 65 bd 79 33 07 be
       -0.123012066 0.013619104 -0.056078028 -0.13203229
000360 ff 7b 71 bd 28 b9 be bd 19 e0 3f bd d4 27 2f 3e
       -0.058956143 -0.093126595 -0.046844576 0.17105037
000370 7f 78 36 3d 73 ea 2d bd 48 7c 0b bd d5 0f c5 bd
       0.044548508 -0.042459916 -0.03405407 -0.0962216
000380 09 d6 03 3e c8 3f 05 3e 04 13 41 3d 8e 40 2b be
       0.12874617 0.13012612 0.047137275 -0.16723844
000390 5f 1b e6 3d 7a 81 e8 bc 83 7c 13 be 3b f6 2c 3e
       0.11235689 -0.028382052 -0.14402966 0.16890804
0003a0 33 a6 7a 3c c8 c4 39 3d 6c 35 eb 3d fb 69 7c bd
       0.015298414 0.04535368 0.11484799 -0.06162451
0003b0 2d 31 2a 3e 82 ac d1 3c 1a f4 45 bd d1 b3 fe bc
       0.16620322 0.025594953 -0.048328497 -0.031091603
0003c0 48 57 a5 bc 0e 24 f8 bd 3a f6 4c bd b7 d5 38 3e
       -0.02018322 -0.12116252 -0.050039507 0.18050276
0003d0 52 b1 cd bd 5f c4 94 bd b7 09 df 3d 53 f8 91 3d
       -0.10043587 -0.07264017 0.10890525 0.07127442
0003e0 6a 14 10 3e 41 2f fb bd 38 46 20 3e 6e a0 e7 bd
       0.14070287 -0.12264872 0.15651786 -0.113098964
0003f0 a9 4e 75 bc ed 29 ef bd f8 34 4f 3e 6f 54 9a bc
       -0.014972367 -0.116779186 0.2023505 -0.01883909

fc1_bn.weight f4 [400]
000000 8e ba fe 3e 84 f7 14 3e 1c 6e 05 3e f0 26 32 3e
       0.49751705 0.14547545 0.13030285 0.17397666
000010 a0 2e 5f 3f ec 1e a3 3e 17 87 05 3f 93 3a 49 3f
       0.8718052 0.3185953 0.52159256 0.78605
000020 7b 46 07 3f fe a5 68 3f 55 89 7f 3f c8 53 60 3f
       0.5284192 0.90878284 0.9981893 0.8762784
000030 46 4e 60 3f 45 ea 3d 3f 23 4e 6d 3f 04 34 af 3e
       0.87619436 0.7418559 0.9269735 0.34219372
000040 70 54 50 3e 28 87 02 3e 92 7f 37 3f 2d 29 4c 3f
       0.2034471 0.1274687 0.7167903 0.7975033
000050 2d 11 59 3f eb c5 46 3f 30 19 16 3d 42 97 ef 3e
       0.84791833 0.7764575 0.036645114 0.46795088
000060 00 be 0d 3e 23 95 62 3f 70 dd a0 3d 30 14 10 3f
       0.1384201 0.88508815 0.07854736 0.56280804
000070 00 2d b9 3e 6e 52 df 3e 74 b3 f3 3e 70 f2 aa 3d
       0.36167145 0.43617576 0.4759785 0.083470225
000080 7a 22 01 3f e5 f0 41 3f b9 d1 20 3f aa de 76 3f
       0.5044323 0.757582 0.6282001 0.9643351
000090 e0 67 01 3f f0 8c d4 3d 43 c2 06 3f b0 e8 0e 3f
       0.50549126 0.10378444 0.5264017 0.558238
0000a0 c0 9d 40 3c c2 d6 66 3f 4e 84 39 3f a1 79 4d 3f
       0.0117563605 0.90171444 0.72467506 0.80263716
0000b0 6c 1d b7 3e 60 d5 b3 3c 90 56 71 3f 0d 6d 6c 3f
       0.35764635 0.021952331 0.9427271 0.923539
0000c0 b4 dd f3 3e d8 e2 cc 3d 03 d4 28 3f 8a a2 ae 3e
       0.47630084 0.100042045 0.65948504 0.34108382
0000d0 d0 22 34 3d de 7c 30 3f ac 23 52 3e 14 1e 6e 3e
       0.043978512 0.6894053 0.2052142 0.23253661
0000e0 f4 b4 d0 3e d0 58 36 3d 9c 67 7a 3f 60 6e 26 3e
       0.40763056 0.044518292 0.97814345 0.16253042
0000f0 44 64 ab 3e d0 d0 43 3e f8 2f 7c 3f 88 45 2e 3e
       0.33474934 0.19122624 0.98510695 0.17018712
000100 9c e2 b2 3e a3 66 4a 3f 87 e3 4f 3f 70 16 c3 3d
       0.34938514 0.7906286 0.81206554 0.09525764
000110 8a b1 b2 3e ca 47 2a 3f 3c 66 b4 3e 9e 99 16 3f
       0.34901077 0.6651579 0.3523425 0.5882815
000120 a8 da 83 3e a4 50 53 3f 5c 4a e3 3e 70 e7 7a 3f
       0.2575276 0.8254492 0.4439267 0.98009396
000130 6b 64 5f 3f 60 13 9a 3e 4f 28 75 3f 51 d0 48 3f
       0.872626 0.30092907 0.9576463 0.78442866
000140 3c 25 2e 3f c3 47 16 3f 94 ab d9 3e f8 31 e9 3d
       0.68025565 0.5870325 0.42513716 0.11386484
000150 f4 3f 4a 3f 57 c6 66 3f d1 f5 6e 3f dd 83 70 3f
       0.79003835 0.9014639 0.93343836 0.9395121
000160 53 a2 1a 3f 09 bb 61 3f 92 c6 98 3e 9a 60 2a 3f
       0.6040394 0.8817602 0.29838997 0.6655365
000170 04 b0 65 3f a2 e6 85 3e d0 31 3a 3d c0 35 41 3c
       0.89721704 0.2615252 0.04545766 0.0117926
000180 30 ed 3a 3f de b7 95 3e 0b da 18 3f 94 d5 84 3e
       0.7301817 0.29241842 0.5970771 0.25944197
000190 02 01 fc 3e 4a 7b 06 3f 20 9d d8 3d 1a 65 ce 3e
       0.4921952 0.52531874 0.10576844 0.4031151
0001a0 00 75 b8 3d b4 f2 73 3e 9a 17 90 3e 50 44 33 3e
       0.09006691 0.23823053 0.28143007 0.17506528
0001b0 17 29 6d 3f 90 04 d0 3d 14 a8 09 3e 77 e4 0b 3f
       0.92640823 0.1015712 0.13443023 0.54645485
0001c0 c0 18 68 3c f4 90 1d 3e ca 78 30 3f 88 56 75 3e
       0.014166057 0.15387326 0.6893431 0.2395879
0001d0 26 4e 6c 3f ed 33 2d 3f 2e 3e ea 3e 3a 7a 01 3f
       0.92306745 0.6765736 0.45750564 0.5057713
0001e0 fe e1 45 3f 23 95 40 3f 6c 27 c8 3e 3e 26 d1 3e
       0.7729796 0.75227565 0.39092577 0.4084949
0001f0 95 bb 5e 3f 6b 12 21 3f 68 6c e0 3d 48 b4 68 3e
       0.8700498 0.6291873 0.10958177 0.22725022
000200 93 68 5e 3f f1 09 08 3f 06 33 bd 3e 48 04 2d 3e
       0.8687832 0.5314017 0.3695299 0.16896164
000210 59 91 5b 3f fe ba 60 3f d8 20 84 3e 40 68 a1 3d
       0.8576866 0.8778533 0.25806308 0.07881212
000220 2a db 46 3f 6a 54 61 3f eb 04 08 3f af ba 53 3f
       0.7767817 0.8801943 0.53132504 0.8270673
000230 a0 c2 04 3d d0 76 75 3d 29 e5 7b 3f 90 72 50 3d
       0.03241217 0.05992776 0.98396546 0.050890505
000240 8d 92 10 3f 78 fa 8b 3e cc 29 43 3f dc 21 3a 3f
       0.5647362 0.2733953 0.7623565 0.72707915
000250 bf 27 3c 3f 08 3e b5 3e 5d a1 6b 3f f4 d8 7c 3f
       0.7349815 0.3539889 0.92043096 0.98768544
000260 61 80 6e 3f dc 86 71 3e 71 19 19 3f 35 eb 38 3f
       0.9316464 0.23586601 0.59804446 0.722339
000270 58 74 e0 3e 50 7f 60 3d fc c8 18 3f 45 8c 31 3f
       0.43838763 0.054808915 0.5968168 0.6935466
000280 80 48 95 3b 5f 35 0a 3f 2a d9 32 3f 00 3c 62 3c
       0.004555762 0.5398769 0.69862616 0.01380825
000290 27 ae 38 3f 88 21 bd 3d 46 9f 69 3f 62 8c 9e 3e
       0.72140735 0.09234911 0.91258657 0.3096648
0002a0 10 21 76 3d e6 5b 10 3f 7b d1 06 3f 30 2c 0b 3d
       0.060090125 0.56390226 0.5266339 0.033977687
0002b0 c6 01 06 3f 2b ee 6c 3f c5 e3 3f 3f e5 74 51 3f
       0.52346456 0.92550915 0.74956924 0.8181899
0002c0 6e 69 2b 3f 0c 1c b5 3e b2 e4 ac 3e de f4 66 3f
       0.6695775 0.3537296 0.3376823 0.9021739
0002d0 a3 b5 61 3f 80 a7 a0 3e ac 8a 6a 3e d0 2a c3 3d
       0.8816778 0.31377792 0.22904462 0.0952965
0002e0 c8 7a 25 3e 63 dd 1a 3f 58 ea 3e 3e 8e f0 49 3f
       0.16160119 0.6049406 0.18644083 0.7888268
0002f0 70 a8 ba 3e 1a 62 b1 3e a0 ef 75 3d 5c cf 35 3f
       0.36456633 0.34645158 0.060042977 0.7101953
000300 5c 02 58 3f 34 c0 29 3e 50 c4 d6 3d 9c 35 30 3f
       0.843786 0.16577226 0.104866624 0.688318
000310 1a c8 ca 3e a2 bb 2c 3f f0 89 58 3d 68 7f 40 3e
       0.3960579 0.67473805 0.052865922 0.18798602
000320 e2 1d 78 3f 9a c8 48 3f 0e c4 3e 3f 26 48 9f 3e
       0.969206 0.78431094 0.74517906 0.31109732
000330 3e 4c 7e 3f b8 46 25 3f c5 24 08 3f cb 29 4e 3f
       0.99335086 0.64561033 0.53181106 0.8053252
000340 bb bc 6d 3f 37 a8 7e 3f ec 16 28 3f da e4 d3 3e
       0.92866105 0.99475425 0.65659976 0.41385537
000350 bb e3 75 3f 80 9c aa 3c 80 7b fd 3e 0b b9 6a 3f
       0.96050614 0.020826578 0.49508286 0.91688603
000360 8a be ea 3e f9 40 4f 3f 21 ab 27 3f ac 87 10 3f
       0.45848495 0.80958515 0.65495497 0.5645702
000370 9c 92 96 3e e8 1f dc 3d 80 61 6c 3c 36 be 88 3e
       0.2940873 0.10748273 0.014427543 0.2670762
000380 4c f1 4f 3f 3f 76 58 3f c8 f9 5a 3e 94 ce 63 3e
       0.81227565 0.8455543 0.21384346 0.22246772
000390 d0 1e db 3d 6b dd 37 3f 72 b6 8b 3e 1c 08 74 3f
       0.106992364 0.7182223 0.27287632 0.95324874
0003a0 d0 f9 7b 3f 87 80 39 3f ee b4 20 3f 68 9e 5a 3e
       0.9842806 0.7246174 0.62776077 0.2134949
0003b0 82 96 d7 3e c0 98 22 3c da b3 81 3e ef 4a 2f 3f
       0.42107016 0.009924114 0.25332528 0.68473715
0003c0 76 e2 e7 3e 48 f5 b7 3d 77 43 6d 3f d5 bd 25 3f
       0.45289963 0.089823306 0.9268107 0.64742786
0003d0 fc 9e 30 3f ce b3 96 3e 10 2c 26 3d d4 10 1c 3e
       0.6899259 0.29434055 0.040569365 0.15240794
0003e0 62 33 d3 3e e8 32 5f 3f 0a 32 db 3e f2 8c 79 3f
       0.4125014 0.8718705 0.42811614 0.9748069
0003f0 58 91 11 3f 38 76 26 3e 5f ea 1b 3f dc d0 63 3e
       0.568624 0.16256034 0.60904497 0.22247642

fc1_bn.bias f4 [400]
000000 00 00 00 00 00 00 00 00 00 00 00 00 00 00 00 00
       0.0 0.0 0.0 0.0
000010 00 00 00 00 00 00 00 00 00 00 00 00 00 00 00 00
       0.0 0.0 0.0 0.0
000020 00 00 00 00 00 00 00 00 00 00 00 00 00 00 00 00
       0.0 0.0 0.0 0.0
000030 00 00 00 00 00 00 00 00 00 00 00 00 00 00 00 00
       0.0 0.0 0.0 0.0
000040 00 00 00 00 00 00 00 00 00 00 00 00 00 00 00 00
       0.0 0.0 0.0 0.0
000050 00 00 00 00 00 00 00 00 00 00 00 00 00 00 00 00
       0.0 0.0 0.0 0.0
000060 00 00 00 00 00 00 00 00 00 00 00 00 00 00 00 00
       0.0 0.0 0.0 0.0
000070 00 00 00 00 00 00 00 00 00 00 00 00 00 00 00 00
       0.0 0.0 0.0 0.0
000080 00 00 00 00 00 00 00 00 00 00 00 00 00 00 00 00
       0.0 0.0 0.0 0.0
000090 00 00 00 00 00 00 00 00 00 00 00 00 00 00 00 00
       0.0 0.0 0.0 0.0
0000a0 00 00 00 00 00 00 00 00 00 00 00 00 00 00 00 00
       0.0 0.0 0.0 0.0
0000b0 00 00 00 00 00 00 00 00 00 00 00 00 00 00 00 00
       0.0 0.0 0.0 0.0
0000c0 00 00 00 00 00 00 00 00 00 00 00 00 00 00 00 00
       0.0 0.0 0.0 0.0
0000d0 00 00 00 00 00 00 00 00 00 00 00 00 00 00 00 00
       0.0 0.0 0.0 0.0
0000e0 00 00 00 00 00 00 00 00 00 00 00 00 00 00 00 00
       0.0 0.0 0.0 0.0
0000f0 00 00 00 00 00 00 00 00 00 00 00 00 00 00 00 00
       0.0 0.0 0.0 0.0
000100 00 00 00 00 00 00 00 00 00 00 00 00 00 00 00 00
       0.0 0.0 0.0 0.0
000110 00 00 00 00 00 00 00 00 00 00 00 00 00 00 00 00
       0.0 0.0 0.0 0.0
000120 00 00 00 00 00 00 00 00 00 00 00 00 00 00 00 00
       0.0 0.0 0.0 0.0
000130 00 00 00 00 00 00 00 00 00 00 00 00 00 00 00 00
       0.0 0.0 0.0 0.0
000140 00 00 00 00 00 00 00 00 00 00 00 00 00 00 00 00
       0.0 0.0 0.0 0.0
000150 00 00 00 00 00 00 00 00 00 00 00 00 00 00 00 00
       0.0 0.0 0.0 0.0
000160 00 00 00 00 00 00 00 00 00 00 00 00 00 00 00 00
       0.0 0.0 0.0 0.0
000170 00 00 00 00 00 00 00 00 00 00 00 00 00 00 00 00
       0.0 0.0 0.0 0.0
000180 00 00 00 00 00 00 00 00 00 00 00 00 00 00 00 00
       0.0 0.0 0.0 0.0
000190 00 00 00 00 00 00 00 00 00 00 00 00 00 00 00 00
       0.0 0.0 0.0 0.0
0001a0 00 00 00 00 00 00 00 00 00 00 00 00 00 00 00 00
       0.0 0.0 0.0 0.0
0001b0 00 00 00 00 00 00 00 00 00 00 00 00 00 00 00 00
       0.0 0.0 0.0 0.0
0001c0 00 00 00 00 00 00 00 00 00 00 00 00 00 00 00 00
       0.0 0.0 0.0 0.0
0001d0 00 00 00 00 00 00 00 00 00 00 00 00 00 00 00 00
       0.0 0.0 0.0 0.0
0001e0 00 00 00 00 00 00 00 00 00 00 00 00 00 00 00 00
       0.0 0.0 0.0 0.0
0001f0 00 00 00 00 00 00 00 00 00 00 00 00 00 00 00 00
       0.0 0.0 0.0 0.0
000200 00 00 00 00 00 00 00 00 00 00 00 00 00 00 00 00
       0.0 0.0 0.0 0.0
000210 00 00 00 00 00 00 00 00 00 00 00 00 00 00 00 00
       0.0 0.0 0.0 0.0
000220 00 00 00 00 00 00 00 00 00 00 00 00 00 00 00 00
       0.0 0.0 0.0 0.0
000230 00 00 00 00 00 00 00 00 00 00 00 00 00 00 00 00
       0.0 0.0 0.0 0.0
000240 00 00 00 00 00 00 00 00 00 00 00 00 00 00 00 00
       0.0 0.0 0.0 0.0
000250 00 00 00 00 00 00 00 00 00 00 00 00 00 00 00 00
       0.0 0.0 0.0 0.0
000260 00 00 00 00 00 00 00 00 00 00 00 00 00 00 00 00
       0.0 0.0 0.0 0.0
000270 00 00 00 00 00 00 00 00 00 00 00 00 00 00 00 00
       0.0 0.0 0.0 0.0
000280 00 00 00 00 00 00 00 00 00 00 00 00 00 00 00 00
       0.0 0.0 0.0 0.0
000290 00 00 00 00 00 00 00 00 00 00 00 00 00 00 00 00
       0.0 0.0 0.0 0.0
0002a0 00 00 00 00 00 00 00 00 00 00 00 00 00 00 00 00
       0.0 0.0 0.0 0.0
0002b0 00 00 00 00 00 00 00 00 00 00 00 00 00 00 00 00
       0.0 0.0 0.0 0.0
0002c0 00 00 00 00 00 00 00 00 00 00 00 00 00 00 00 00
       0.0 0.0 0.0 0.0
0002d0 00 00 00 00 00 00 00 00 00 00 00 00 00 00 00 00
       0.0 0.0 0.0 0.0
0002e0 00 00 00 00 00 00 00 00 00 00 00 00 00 00 00 00
       0.0 0.0 0.0 0.0
0002f0 00 00 00 00 00 00 00 00 00 00 00 00 00 00 00 00
       0.0 0.0 0.0 0.0
000300 00 00 00 00 00 00 00 00 00 00 00 00 00 00 00 00
       0.0 0.0 0.0 0.0
000310 00 00 00 00 00 00 00 00 00 00 00 00 00 00 00 00
       0.0 0.0 0.0 0.0
000320 00 00 00 00 00 00 00 00 00 00 00 00 00 00 00 00
       0.0 0.0 0.0 0.0
000330 00 00 00 00 00 00 00 00 00 00 00 00 00 00 00 00
       0.0 0.0 0.0 0.0
000340 00 00 00 00 00 00 00 00 00 00 00 00 00 00 00 00
       0.0 0.0 0.0 0.0
000350 00 00 00 00 00 00 00 00 00 00 00 00 00 00 00 00
       0.0 0.0 0.0 0.0
000360 00 00 00 00 00 00 00 00 00 00 00 00 00 00 00 00
       0.0 0.0 0.0 0.0
000370 00 00 00 00 00 00 00 00 00 00 00 00 00 00 00 00
       0.0 0.0 0.0 0.0
000380 00 00 00 00 00 00 00 00 00 00 00 00 00 00 00 00
       0.0 0.0 0.0 0.0
000390 00 00 00 00 00 00 00 00 00 00 00 00 00 00 00 00
       0.0 0.0 0.0 0.0
0003a0 00 00 00 00 00 00 00 00 00 00 00 00 00 00 00 00
       0.0 0.0 0.0 0.0
0003b0 00 00 00 00 00 00 00 00 00 00 00 00 00 00 00 00
       0.0 0.0 0.0 0.0
0003c0 00 00 00 00 00 00 00 00 00 00 00 00 00 00 00 00
       0.0 0.0 0.0 0.0
0003d0 00 00 00 00 00 00 00 00 00 00 00 00 00 00 00 00
       0.0 0.0 0.0 0.0
0003e0 00 00 00 00 00 00 00 00 00 00 00 00 00 00 00 00
       0.0 0.0 0.0 0.0
0003f0 00 00 00 00 00 00 00 00 00 00 00 00 00 00 00 00
       0.0 0.0 0.0 0.0

fc1_bn.running_mean f4 [400]
000000 00 00 00 00 00 00 00 00 00 00 00 00 00 00 00 00
       0.0 0.0 0.0 0.0
000010 00 00 00 00 00 00 00 00 00 00 00 00 00 00 00 00
       0.0 0.0 0.0 0.0
000020 00 00 00 00 00 00 00 00 00 00 00 00 00 00 00 00
       0.0 0.0 0.0 0.0
000030 00 00 00 00 00 00 00 00 00 00 00 00 00 00 00 00
       0.0 0.0 0.0 0.0
000040 00 00 00 00 00 00 00 00 00 00 00 00 00 00 00 00
       0.0 0.0 0.0 0.0
000050 00 00 00 00 00 00 00 00 00 00 00 00 00 00 00 00
       0.0 0.0 0.0 0.0
000060 00 00 00 00 00 00 00 00 00 00 00 00 00 00 00 00
       0.0 0.0 0.0 0.0
000070 00 00 00 00 00 00 00 00 00 00 00 00 00 00 00 00
       0.0 0.0 0.0 0.0
000080 00 00 00 00 00 00 00 00 00 00 00 00 00 00 00 00
       0.0 0.0 0.0 0.0
000090 00 00 00 00 00 00 00 00 00 00 00 00 00 00 00 00
       0.0 0.0 0.0 0.0
0000a0 00 00 00 00 00 00 00 00 00 00 00 00 00 00 00 00
       0.0 0.0 0.0 0.0
0000b0 00 00 00 00 00 00 00 00 00 00 00 00 00 00 00 00
       0.0 0.0 0.0 0.0
0000c0 00 00 00 00 00 00 00 00 00 00 00 00 00 00 00 00
       0.0 0.0 0.0 0.0
0000d0 00 00 00 00 00 00 00 00 00 00 00 00 00 00 00 00
       0.0 0.0 0.0 0.0
0000e0 00 00 00 00 00 00 00 00 00 00 00 00 00 00 00 00
       0.0 0.0 0.0 0.0
0000f0 00 00 00 00 00 00 00 00 00 00 00 00 00 00 00 00
       0.0 0.0 0.0 0.0
000100 00 00 00 00 00 00 00 00 00 00 00 00 00 00 00 00
       0.0 0.0 0.0 0.0
000110 00 00 00 00 00 00 00 00 00 00 00 00 00 00 00 00
       0.0 0.0 0.0 0.0
000120 00 00 00 00 00 00 00 00 00 00 00 00 00 00 00 00
       0.0 0.0 0.0 0.0
000130 00 00 00 00 00 00 00 00 00 00 00 00 00 00 00 00
       0.0 0.0 0.0 0.0
000140 00 00 00 00 00 00 00 00 00 00 00 00 00 00 00 00
       0.0 0.0 0.0 0.0
000150 00 00 00 00 00 00 00 00 00 00 00 00 00 00 00 00
       0.0 0.0 0.0 0.0
000160 00 00 00 00 00 00 00 00 00 00 00 00 00 00 00 00
       0.0 0.0 0.0 0.0
000170 00 00 00 00 00 00 00 00 00 00 00 00 00 00 00 00
       0.0 0.0 0.0 0.0
000180 00 00 00 00 00 00 00 00 00 00 00 00 00 00 00 00
       0.0 0.0 0.0 0.0
000190 00 00 00 00 00 00 00 00 00 00 00 00 00 00 00 00
       0.0 0.0 0.0 0.0
0001a0 00 00 00 00 00 00 00 00 00 00 00 00 00 00 00 00
       0.0 0.0 0.0 0.0
0001b0 00 00 00 00 00 00 00 00 00 00 00 00 00 00 00 00
       0.0 0.0 0.0 0.0
0001c0 00 00 00 00 00 00 00 00 00 00 00 00 00 00 00 00
       0.0 0.0 0.0 0.0
0001d0 00 00 00 00 00 00 00 00 00 00 00 00 00 00 00 00
       0.0 0.0 0.0 0.0
0001e0 00 00 00 00 00 00 00 00 00 00 00 00 00 00 00 00
       0.0 0.0 0.0 0.0
0001f0 00 00 00 00 00 00 00 00 00 00 00 00 00 00 00 00
       0.0 0.0 0.0 0.0
000200 00 00 00 00 00 00 00 00 00 00 00 00 00 00 00 00
       0.0 0.0 0.0 0.0
000210 00 00 00 00 00 00 00 00 00 00 00 00 00 00 00 00
       0.0 0.0 0.0 0.0
000220 00 00 00 00 00 00 00 00 00 00 00 00 00 00 00 00
       0.0 0.0 0.0 0.0
000230 00 00 00 00 00 00 00 00 00 00 00 00 00 00 00 00
       0.0 0.0 0.0 0.0
000240 00 00 00 00 00 00 00 00 00 00 00 00 00 00 00 00
       0.0 0.0 0.0 0.0
000250 00 00 00 00 00 00 00 00 00 00 00 00 00 00 00 00
       0.0 0.0 0.0 0.0
000260 00 00 00 00 00 00 00 00 00 00 00 00 00 00 00 00
       0.0 0.0 0.0 0.0
000270 00 00 00 00 00 00 00 00 00 00 00 00 00 00 00 00
       0.0 0.0 0.0 0.0
000280 00 00 00 00 00 00 00 00 00 00 00 00 00 00 00 00
       0.0 0.0 0.0 0.0
000290 00 00 00 00 00 00 00 00 00 00 00 00 00 00 00 00
       0.0 0.0 0.0 0.0
0002a0 00 00 00 00 00 00 00 00 00 00 00 00 00 00 00 00
       0.0 0.0 0.0 0.0
0002b0 00 00 00 00 00 00 00 00 00 00 00 00 00 00 00 00
       0.0 0.0 0.0 0.0
0002c0 00 00 00 00 00 00 00 00 00 00 00 00 00 00 00 00
       0.0 0.0 0.0 0.0
0002d0 00 00 00 00 00 00 00 00 00 00 00 00 00 00 00 00
       0.0 0.0 0.0 0.0
0002e0 00 00 00 00 00 00 00 00 00 00 00 00 00 00 00 00
       0.0 0.0 0.0 0.0
0002f0 00 00 00 00 00 00 00 00 00 00 00 00 00 00 00 00
       0.0 0.0 0.0 0.0
000300 00 00 00 00 00 00 00 00 00 00 00 00 00 00 00 00
       0.0 0.0 0.0 0.0
000310 00 00 00 00 00 00 00 00 00 00 00 00 00 00 00 00
       0.0 0.0 0.0 0.0
000320 00 00 00 00 00 00 00 00 00 00 00 00 00 00 00 00
       0.0 0.0 0.0 0.0
000330 00 00 00 00 00 00 00 00 00 00 00 00 00 00 00 00
       0.0 0.0 0.0 0.0
000340 00 00 00 00 00 00 00 00 00 00 00 00 00 00 00 00
       0.0 0.0 0.0 0.0
000350 00 00 00 00 00 00 00 00 00 00 00 00 00 00 00 00
       0.0 0.0 0.0 0.0
000360 00 00 00 00 00 00 00 00 00 00 00 00 00 00 00 00
       0.0 0.0 0.0 0.0
000370 00 00 00 00 00 00 00 00 00 00 00 00 00 00 00 00
       0.0 0.0 0.0 0.0
000380 00 00 00 00 00 00 00 00 00 00 00 00 00 00 00 00
       0.0 0.0 0.0 0.0
000390 00 00 00 00 00 00 00 00 00 00 00 00 00 00 00 00
       0.0 0.0 0.0 0.0
0003a0 00 00 00 00 00 00 00 00 00 00 00 00 00 00 00 00
       0.0 0.0 0.0 0.0
0003b0 00 00 00 00 00 00 00 00 00 00 00 00 00 00 00 00
       0.0 0.0 0.0 0.0
0003c0 00 00 00 00 00 00 00 00 00 00 00 00 00 00 00 00
       0.0 0.0 0.0 0.0
0003d0 00 00 00 00 00 00 00 00 00 00 00 00 00 00 00 00
       0.0 0.0 0.0 0.0
0003e0 00 00 00 00 00 00 00 00 00 00 00 00 00 00 00 00
       0.0 0.0 0.0 0.0
0003f0 00 00 00 00 00 00 00 00 00 00 00 00 00 00 00 00
       0.0 0.0 0.0 0.0

fc1_bn.running_var f4 [400]
000000 00 00 80 3f 00 00 80 3f 00 00 80 3f 00 00 80 3f
       1.0 1.0 1.0 1.0
000010 00 00 80 3f 00 00 80 3f 00 00 80 3f 00 00 80 3f
       1.0 1.0 1.0 1.0
000020 00 00 80 3f 00 00 80 3f 00 00 80 3f 00 00 80 3f
       1.0 1.0 1.0 1.0
000030 00 00 80 3f 00 00 80 3f 00 00 80 3f 00 00 80 3f
       1.0 1.0 1.0 1.0
000040 00 00 80 3f 00 00 80 3f 00 00 80 3f 00 00 80 3f
       1.0 1.0 1.0 1.0
000050 00 00 80 3f 00 00 80 3f 00 00 80 3f 00 00 80 3f
       1.0 1.0 1.0 1.0
000060 00 00 80 3f 00 00 80 3f 00 00 80 3f 00 00 80 3f
       1.0 1.0 1.0 1.0
000070 00 00 80 3f 00 00 80 3f 00 00 80 3f 00 00 80 3f
       1.0 1.0 1.0 1.0
000080 00 00 80 3f 00 00 80 3f 00 00 80 3f 00 00 80 3f
       1.0 1.0 1.0 1.0
000090 00 00 80 3f 00 00 80 3f 00 00 80 3f 00 00 80 3f
       1.0 1.0 1.0 1.0
0000a0 00 00 80 3f 00 00 80 3f 00 00 80 3f 00 00 80 3f
       1.0 1.0 1.0 1.0
0000b0 00 00 80 3f 00 00 80 3f 00 00 80 3f 00 00 80 3f
       1.0 1.0 1.0 1.0
0000c0 00 00 80 3f 00 00 80 3f 00 00 80 3f 00 00 80 3f
       1.0 1.0 1.0 1.0
0000d0 00 00 80 3f 00 00 80 3f 00 00 80 3f 00 00 80 3f
       1.0 1.0 1.0 1.0
0000e0 00 00 80 3f 00 00 80 3f 00 00 80 3f 00 00 80 3f
       1.0 1.0 1.0 1.0
0000f0 00 00 80 3f 00 00 80 3f 00 00 80 3f 00 00 80 3f
       1.0 1.0 1.0 1.0
000100 00 00 80 3f 00 00 80 3f 00 00 80 3f 00 00 80 3f
       1.0 1.0 1.0 1.0
000110 00 00 80 3f 00 00 80 3f 00 00 80 3f 00 00 80 3f
       1.0 1.0 1.0 1.0
000120 00 00 80 3f 00 00 80 3f 00 00 80 3f 00 00 80 3f
       1.0 1.0 1.0 1.0
000130 00 00 80 3f 00 00 80 3f 00 00 80 3f 00 00 80 3f
       1.0 1.0 1.0 1.0
000140 00 00 80 3f 00 00 80 3f 00 00 80 3f 00 00 80 3f
       1.0 1.0 1.0 1.0
000150 00 00 80 3f 00 00 80 3f 00 00 80 3f 00 00 80 3f
       1.0 1.0 1.0 1.0
000160 00 00 80 3f 00 00 80 3f 00 00 80 3f 00 00 80 3f
       1.0 1.0 1.0 1.0
000170 00 00 80 3f 00 00 80 3f 00 00 80 3f 00 00 80 3f
       1.0 1.0 1.0 1.0
000180 00 00 80 3f 00 00 80 3f 00 00 80 3f 00 00 80 3f
       1.0 1.0 1.0 1.0
000190 00 00 80 3f 00 00 80 3f 00 00 80 3f 00 00 80 3f
       1.0 1.0 1.0 1.0
0001a0 00 00 80 3f 00 00 80 3f 00 00 80 3f 00 00 80 3f
       1.0 1.0 1.0 1.0
0001b0 00 00 80 3f 00 00 80 3f 00 00 80 3f 00 00 80 3f
       1.0 1.0 1.0 1.0
0001c0 00 00 80 3f 00 00 80 3f 00 00 80 3f 00 00 80 3f
       1.0 1.0 1.0 1.0
0001d0 00 00 80 3f 00 00 80 3f 00 00 80 3f 00 00 80 3f
       1.0 1.0 1.0 1.0
0001e0 00 00 80 3f 00 00 80 3f 00 00 80 3f 00 00 80 3f
       1.0 1.0 1.0 1.0
0001f0 00 00 80 3f 00 00 80 3f 00 00 80 3f 00 00 80 3f
       1.0 1.0 1.0 1.0
000200 00 00 80 3f 00 00 80 3f 00 00 80 3f 00 00 80 3f
       1.0 1.0 1.0 1.0
000210 00 00 80 3f 00 00 80 3f 00 00 80 3f 00 00 80 3f
       1.0 1.0 1.0 1.0
000220 00 00 80 3f 00 00 80 3f 00 00 80 3f 00 00 80 3f
       1.0 1.0 1.0 1.0
000230 00 00 80 3f 00 00 80 3f 00 00 80 3f 00 00 80 3f
       1.0 1.0 1.0 1.0
000240 00 00 80 3f 00 00 80 3f 00 00 80 3f 00 00 80 3f
       1.0 1.0 1.0 1.0
000250 00 00 80 3f 00 00 80 3f 00 00 80 3f 00 00 80 3f
       1.0 1.0 1.0 1.0
000260 00 00 80 3f 00 00 80 3f 00 00 80 3f 00 00 80 3f
       1.0 1.0 1.0 1.0
000270 00 00 80 3f 00 00 80 3f 00 00 80 3f 00 00 80 3f
       1.0 1.0 1.0 1.0
000280 00 00 80 3f 00 00 80 3f 00 00 80 3f 00 00 80 3f
       1.0 1.0 1.0 1.0
000290 00 00 80 3f 00 00 80 3f 00 00 80 3f 00 00 80 3f
       1.0 1.0 1.0 1.0
0002a0 00 00 80 3f 00 00 80 3f 00 00 80 3f 00 00 80 3f
       1.0 1.0 1.0 1.0
0002b0 00 00 80 3f 00 00 80 3f 00 00 80 3f 00 00 80 3f
       1.0 1.0 1.0 1.0
0002c0 00 00 80 3f 00 00 80 3f 00 00 80 3f 00 00 80 3f
       1.0 1.0 1.0 1.0
0002d0 00 00 80 3f 00 00 80 3f 00 00 80 3f 00 00 80 3f
       1.0 1.0 1.0 1.0
0002e0 00 00 80 3f 00 00 80 3f 00 00 80 3f 00 00 80 3f
       1.0 1.0 1.0 1.0
0002f0 00 00 80 3f 00 00 80 3f 00 00 80 3f 00 00 80 3f
       1.0 1.0 1.0 1.0
000300 00 00 80 3f 00 00 80 3f 00 00 80 3f 00 00 80 3f
       1.0 1.0 1.0 1.0
000310 00 00 80 3f 00 00 80 3f 00 00 80 3f 00 00 80 3f
       1.0 1.0 1.0 1.0
000320 00 00 80 3f 00 00 80 3f 00 00 80 3f 00 00 80 3f
       1.0 1.0 1.0 1.0
000330 00 00 80 3f 00 00 80 3f 00 00 80 3f 00 00 80 3f
       1.0 1.0 1.0 1.0
000340 00 00 80 3f 00 00 80 3f 00 00 80 3f 00 00 80 3f
       1.0 1.0 1.0 1.0
000350 00 00 80 3f 00 00 80 3f 00 00 80 3f 00 00 80 3f
       1.0 1.0 1.0 1.0
000360 00 00 80 3f 00 00 80 3f 00 00 80 3f 00 00 80 3f
       1.0 1.0 1.0 1.0
000370 00 00 80 3f 00 00 80 3f 00 00 80 3f 00 00 80 3f
       1.0 1.0 1.0 1.0
000380 00 00 80 3f 00 00 80 3f 00 00 80 3f 00 00 80 3f
       1.0 1.0 1.0 1.0
000390 00 00 80 3f 00 00 80 3f 00 00 80 3f 00 00 80 3f
       1.0 1.0 1.0 1.0
0003a0 00 00 80 3f 00 00 80 3f 00 00 80 3f 00 00 80 3f
       1.0 1.0 1.0 1.0
0003b0 00 00 80 3f 00 00 80 3f 00 00 80 3f 00 00 80 3f
       1.0 1.0 1.0 1.0
0003c0 00 00 80 3f 00 00 80 3f 00 00 80 3f 00 00 80 3f
       1.0 1.0 1.0 1.0
0003d0 00 00 80 3f 00 00 80 3f 00 00 80 3f 00 00 80 3f
       1.0 1.0 1.0 1.0
0003e0 00 00 80 3f 00 00 80 3f 00 00 80 3f 00 00 80 3f
       1.0 1.0 1.0 1.0
0003f0 00 00 80 3f 00 00 80 3f 00 00 80 3f 00 00 80 3f
       1.0 1.0 1.0 1.0

fc2.weight f4 [300, 400]
000000 56 e3 11 3d 67 ec c0 bc 8a 47 21 bd cc 3c 84 3d
       0.035617195 -0.023550225 -0.039374866 0.064569086
000010 91 83 f0 bc c7 46 c9 bc 82 5c bf bc da d3 3b bb
       -0.02935961 -0.024569882 -0.02335954 -0.002866021
000020 6c 78 5b bd 91 31 3a bc 68 a9 18 bc 92 5d 0f 3d
       -0.05358164 -0.011364357 -0.009317733 0.035001345
000030 59 f2 7d 3c b9 cf 55 3d e5 2b 01 bd 37 2b 21 3d
       0.015499675 0.052200053 -0.031536 0.039347854
000040 f6 c6 40 3b 18 8f 34 bd 23 49 8b bc 81 42 b6 bc
       0.0029415465 -0.044081777 -0.017002648 -0.022248508
000050 a5 57 74 bb 36 81 45 bd 5b c6 19 bd e8 04 85 3c
       -0.0037283686 -0.04821893 -0.037542682 0.016237691
000060 3e dd 72 bd 6d bd b6 bb 41 49 07 bd dc 6a 06 bd
       -0.059293024 -0.0055767805 -0.033028845 -0.032816753
000070 50 23 50 bc 43 fa 49 3b 85 6b f5 bc dc cf 1e bd
       -0.012703732 0.0030819334 -0.029958496 -0.03877245
000080 db c8 54 3d b3 14 12 bc 74 93 85 3d e8 13 c2 bc
       0.051949363 -0.008916068 0.06522265 -0.023691133
000090 8c 24 16 3d df c2 6e bd 06 be 6c 3c a8 f4 12 3d
       0.036655948 -0.058291312 0.014449602 0.035877854
0000a0 64 58 32 bd 71 42 57 3d d9 ca 13 3d 1d 78 2e bd
       -0.043541327 0.052553598 0.036082122 -0.042595018
0000b0 93 c6 df bc 88 30 3a 3d 05 09 c4 bb f3 e3 82 3c
       -0.027316367 0.04545644 -0.0059825205 0.015977835
0000c0 b9 4f 1f 3d 70 48 ca 3b a8 f4 02 bd 7b 49 58 bc
       0.03889439 0.006173186 -0.031971604 -0.013201113
0000d0 48 00 23 bd 74 6a 22 bd 76 d7 d1 3b 14 87 e6 3c
       -0.03979519 -0.039652303 0.006403859 0.028140582
0000e0 7d 43 12 3b ee 4e 14 3d ec 61 ff bc a5 cb 57 bd
       0.0022318058 0.036208086 -0.031174622 -0.052684445
0000f0 95 a5 41 bb 1b 9a 82 3c 6f 2d 46 3c fb 40 1b 3d
       -0.0029548157 0.015942624 0.012095793 0.037903767
000100 73 06 55 3c 06 aa 23 bd c1 48 8e 3c 16 15 69 3c
       0.013002026 -0.03995707 0.017368676 0.014226219
000110 7f 60 4e 3b 21 f7 1e bd 1b 68 14 bd 40 58 05 3d
       0.0031490622 -0.0388099 -0.036232095 0.032554865
000120 43 36 58 3d 3e 35 26 bb 23 05 e5 bc e2 c1 53 bc
       0.052786123 -0.0025361325 -0.027956551 -0.012924643
000130 45 6e 1b 3d d0 e6 2c 3d b0 f4 50 bc c2 26 1e bc
       0.037946958 0.042212307 -0.012753651 -0.009652795
000140 ba 61 aa ba e6 a0 10 3d a0 69 84 bc 55 1b af 3c
       -0.0012999095 0.035309695 -0.016163647 0.021375338
000150 65 da eb 3c 72 93 6b bd b4 7f 84 3d 46 1c 92 3c
       0.028790662 -0.05751366 0.0646967 0.017835747
000160 6d 98 bf bb 8a 6d ae bc cd 37 71 bd 3b 53 95 3d
       -0.005847028 -0.021292467 -0.058891106 0.072912656
000170 8e 40 ac 3b c1 cd 05 3d 43 ed 8c 3d 37 b3 70 3d
       0.005256719 0.032666925 0.068811916 0.058764663
000180 46 13 1f 3d b9 18 13 bd c9 cc b7 bc ec cf a4 3b
       0.03883674 -0.03591225 -0.022436516 0.005029669
000190 62 08 d5 3c 76 f4 26 bd 9e af 89 bc b7 d5 3f bd
       0.026004974 -0.04076048 -0.016807374 -0.046834674
0001a0 06 60 07 3d a4 c3 33 3d ed 12 1b 3c 3a fa bc 3c
       0.03305056 0.04388775 0.0094649615 0.023068536
0001b0 3e 53 6f 39 0d 8d 15 bd 09 72 6d 3d dc f4 49 ba
       0.00022823826 -0.03651147 0.05797008 -0.00077040284
0001c0 d3 b0 0d 3c 22 4d 65 3d 72 63 1a 3d dc 48 86 3c
       0.008648115 0.055981763 0.037692495 0.016392164
0001d0 ba a2 2a 3d 51 b3 f7 3b ec 49 12 3d 45 26 b2 bb
       0.041659094 0.007559218 0.03571503 -0.005436691
0001e0 88 bc ad bc ab b3 3a 3d 82 40 7d 3d fe 52 51 3d
       -0.021208063 0.0455815 0.061829098 0.05110454
0001f0 f1 9c db bc ac 70 52 3d f2 f5 18 bd 13 98 66 39
       -0.026808234 0.051376984 -0.037343927 0.00021991161
000200 b4 9a 0d bd fb fa e4 3b d6 9b 83 3c 17 3d 83 3d
       -0.034571365 0.006987927 0.01606552 0.06408136
000210 2c db b5 3b 16 ab 8d 3c 7b 5d 90 bc b3 9d 82 3d
       0.005549809 0.017293494 -0.0176227 0.06377735
000220 69 cb 38 3c fd 66 ce 3c 32 5a db bc 46 d1 81 ba
       0.0112789655 0.025195593 -0.026776407 -0.0009904287
000230 12 eb 26 bc 25 bc 7b 3d f3 ce 4b bc fd 48 51 bb
       -0.010187881 0.061458725 -0.012439477 -0.0031934374
000240 3b fa b5 bb 4c 2e 2f 3d 0b 49 bd bc 0a 60 0a 3b
       -0.0055535114 0.04276876 -0.023106119 0.0021114373
000250 42 c9 e0 3b 24 67 41 3d 26 28 65 bc ce b0 43 bc
       0.0068599293 0.047217503 -0.013986623 -0.011944009
000260 c2 d3 8f bc cd 1e 3e 3d 29 d4 48 3c b8 c2 72 3d
       -0.017557029 0.046416093 0.012257614 0.05926773
000270 d4 4a b9 3a 40 c9 20 ba 82 90 83 bc 61 6b 7c bb
       0.001413668 -0.0006133504 -0.016060118 -0.0038516151
000280 8f 10 76 3d 7c 33 5c 3d 52 77 ca bc 9a 65 0f ba
       0.060074385 0.053760037 -0.0247151 -0.0005470157
000290 0a c4 69 3b 24 ea 03 bd 5e 15 0c bc e0 28 89 3d
       0.0035669827 -0.032205716 -0.008550016 0.066972494
0002a0 a4 d9 21 3b d3 57 d8 bc bd b2 42 bb 65 34 4d bd
       0.0024696374 -0.026409065 -0.0029708587 -0.050098795
0002b0 ed 9f f0 3b 1c 73 97 3d 1b 8c 47 3d f7 b5 9d 3c
       0.0073432834 0.07395002 0.0487176 0.019251807
0002c0 c7 b3 5f bd 94 00 06 3d bd dc 16 bb 32 a4 ae 3c
       -0.05461481 0.032715395 -0.0023019754 0.021318529
0002d0 f6 33 f2 3b 05 23 82 3d d7 8f 75 3a aa ed e2 3b
       0.007391448 0.06354336 0.0009367442 0.0069253044
0002e0 6c 14 16 3d e0 3a 02 bd b6 c2 e0 3c 5a c5 a0 bc
       0.03664057 -0.03179443 0.027436595 -0.019625355
0002f0 93 33 0e 3c f8 fc 79 bb 57 1e bf 3c ac e5 07 bd
       0.008679288 -0.0038145166 0.023329897 -0.033178017
000300 f9 9e 35 39 62 9b dc bc de e5 10 3d ea 07 1e 3d
       0.00017320727 -0.026929561 0.03537547 0.038581766
000310 29 b8 07 3d 3f 30 87 3d df b4 3d ba 38 e2 fc 3c
       0.033134613 0.06600999 -0.000723673 0.030869588
000320 8e b3 08 3d 68 7b 8b 3c 08 f6 62 3d c3 da 4e 3d
       0.03337436 0.017026618 0.055410415 0.050501596
000330 07 ae 6d 3d 8f 21 0a 3d fe d8 1c 3d 8f 25 5b 3d
       0.058027294 0.03372341 0.038292877 0.053502616
000340 98 f4 68 3d 59 d9 56 bd 36 21 b3 3c 47 20 a5 bc
       0.056873888 -0.052453373 0.021866422 -0.020156993
000350 e0 17 d1 3b d0 e9 14 3d 80 ec ad bc 4d 25 0a 3d
       0.00638102 0.036355793 -0.021230936 0.03372698
000360 10 d2 29 3d 35 06 1d bd ea 8d d9 3c c6 58 ad 3c
       0.041460097 -0.038335998 0.026556928 0.021160495
000370 40 02 91 bc fc 50 26 bd f5 2b 39 bd d0 32 26 3c
       -0.017701268 -0.040604576 -0.045207936 0.010143951
000380 44 6a f9 3c a8 30 80 3d 22 49 38 bd b7 16 f5 bb
       0.03044618 0.062592804 -0.04499162 -0.0074795145
000390 90 f9 a8 bc b1 21 89 3d b5 7a de 3b e2 f6 9d bc
       -0.020626813 0.06695879 0.00678953 -0.019282762
0003a0 73 ba 30 3d 76 27 85 3d 3d 0e d7 3b 7a 62 77 3d
       0.04314656 0.06501667 0.0065629766 0.06039665
0003b0 53 65 af bc e2 90 57 3d 55 f9 49 bc e9 e8 46 3d
       -0.02141062 0.052628405 -0.012327512 0.048561964
0003c0 48 57 83 3c a8 dc 16 bd 8e fb 89 3d 21 03 76 3d
       0.01603283 -0.036831528 0.067374334 0.060061578
0003d0 db ba ea bc 3c 6b f1 bb c5 c9 cc 3c 76 2d 4b 3d
       -0.028653553 -0.0073675197 0.024998555 0.0496039
0003e0 12 a8 15 bd 29 b9 08 bb 32 11 e8 bb 02 83 1b 3c
       -0.036537237 -0.0020862317 -0.007082128 0.009491684
0003f0 0b 5a 96 bd 5f 95 88 3d df 77 20 3c 65 25 2b 3d
       -0.07341393 0.06669115 0.0097942045 0.04178371
