agent_checkpoints/checkpoint_critic_13.pth (torch_old, 554781 bytes, 13 tensors)

fcs1.weight f4 [400, 33]
000000 2c 66 93 ba 60 d1 e1 bc 6f c5 c1 bd ec af 7f 3d
       -0.001124566 -0.027565658 -0.094614856 0.06242363
000010 2d f7 63 bd e2 67 28 3e e9 67 3f bc a0 4d b7 bd
       -0.055655647 0.16445878 -0.011682489 -0.08950353
000020 7a 0e db 3d 9d 12 bf ba 9d c8 bc 3c 65 84 49 3d
       0.106961206 -0.0014577691 0.023044879 0.049198527
000030 ce 32 cb 3c 7d 0e db 3b ed 85 5c bd 68 c1 cd bc
       0.024804499 0.0066850767 -0.05383866 -0.025116637
000040 30 03 53 3e 1b ff 42 3e ed 70 c2 3d d0 43 fd bd
       0.20606685 0.19042628 0.09494195 -0.1236645
000050 41 ef b3 3d 01 b0 d1 3d 5a 64 32 3c d9 13 53 bc
       0.087858684 0.10238648 0.0108881835 -0.01288315
000060 5c 6f 8b 3d 09 eb c6 bc da a9 c5 bd 8d 84 c8 bc
       0.068083495 -0.024281995 -0.09651537 -0.024477268
000070 05 42 cb bc 4a b7 85 bc d5 a6 26 bc ea c0 c3 bc
       -0.024811754 -0.01632275 -0.010171612 -0.0238957
000080 81 a9 dc bd 71 10 86 3d d0 38 14 bc 71 dc 41 bc
       -0.10774518 0.06546105 -0.009046748 -0.0118323425
000090 eb 65 02 bd e3 33 56 3b ed 3c a4 bc a4 b1 8d 3c
       -0.031835478 0.0032684735 -0.020048583 0.01729662
0000a0 87 43 ac 3a d9 9b 8f 3b c4 20 d3 3c cb c2 55 bd
       0.0013142683 0.004382592 0.02577246 -0.052187722
0000b0 ad 11 6b 3c 77 36 1a 3d 73 33 56 3d 8d 1b 61 3d
       0.014347476 0.037649598 0.05229516 0.054957915
0000c0 b6 20 20 bd 27 70 0a bc 59 08 ac 3c 86 e7 39 bd
       -0.039093696 -0.008449591 0.021000074 -0.045386814
0000d0 5d 65 de 3c 11 1e e9 bb a1 0f 3d 3d 74 47 1d bd
       0.027147943 -0.00711418 0.046157483 -0.03839822
0000e0 22 d2 2b 3d 3d fe ee 3c 0a c6 03 3d c9 15 c1 3c
       0.041948445 0.029173965 0.032171287 0.023569958
0000f0 94 b2 09 3c 7c 75 2d bd 8a a4 49 bd d8 14 1c bc
       0.008404393 -0.04234837 -0.049229182 -0.009526454
000100 3d 3d 0e 3d 9f 00 7a 3b 25 27 af bb d5 68 cd bd
       0.03472637 0.0038147343 -0.0053452426 -0.10029761
000110 ee 3b 48 bc 48 18 16 3e b5 d7 bd bd 8a 63 62 3e
       -0.01222132 0.146577 -0.092696585 0.22108284
000120 5d 5d f6 3c 0b 7f 9d bb 25 ed 2a 3c 0b 11 80 bc
       0.030073816 -0.0048064045 0.010432516 -0.015633127
000130 26 f4 58 3d b6 1d a4 bb 57 bb cd bc 50 63 2b 3c
       0.052967213 -0.0050084246 -0.025113745 0.01046069
000140 35 8b ea bc 76 b3 48 bc 86 99 0b 3b 02 35 a2 3e
       -0.028630832 -0.012249818 0.0021301224 0.31681067
000150 5a ff d0 3d 98 0c 0b be 6b 24 0d bc dc 86 c9 3c
       0.102049544 -0.13579023 -0.00861464 0.024600439
000160 ae ae 84 bd 33 54 ce bd dd c9 2f 3d f8 bf bb 3c
       -0.0647863 -0.100746535 0.04291712 0.022918686
000170 e5 f6 79 ba 80 81 d3 bc 46 bd af 3c 18 28 fc 3b
       -0.00095353863 -0.025818586 0.021452557 0.0076952092
000180 37 c2 fe bc 5a 78 3b bd 7b 01 28 3d 03 e8 61 3d
       -0.031098468 -0.045769073 0.041017037 0.055152904
000190 96 9f fd 3c 3d 22 77 3d f1 0f e2 3d 01 09 b4 bd
       0.030959886 0.060335387 0.11038197 -0.0879078
0001a0 64 42 4c bd f5 dc 1f 3d db b3 97 3c 83 03 b7 3b
       -0.049868003 0.03902908 0.018518379 0.0055851354
0001b0 53 09 96 3d a6 02 d1 bc f0 2a a3 3c ae bb a7 3b
       0.07325997 -0.025513958 0.019917935 0.0051188087
0001c0 f9 1e ce 3c 21 84 af 3c 2b ed 1b 3e f7 33 02 be
       0.025161253 0.021425309 0.15227191 -0.12715136
0001d0 d7 b9 86 3d 40 83 7b 3b ad 67 2f bd ec 30 54 3b
       0.06578415 0.0038377792 -0.042823482 0.0032377793
0001e0 a7 b5 43 bd 78 4c 87 3c 7d 95 86 3c 19 21 1a bd
       -0.04778066 0.016515955 0.016428703 -0.03762922
0001f0 f1 a2 88 3c 47 86 78 bd 27 ef d8 3c 23 af 5a 3d
       0.016679259 -0.06067493 0.026481224 0.05338968
000200 e4 a1 4f 3c 4c 98 31 3d 63 eb 3c 3d 2d 9a d7 3c
       0.012672875 0.043358132 0.04612292 0.026318634
000210 b8 e9 e0 3c 7d c8 67 3d f5 dd be bc bf c6 3f be
       0.027455196 0.056587685 -0.023299197 -0.1872816
000220 cc 12 fc bc 46 6e cc bc fb 5f 12 3d 67 69 0f 3c
       -0.030770682 -0.024954926 0.035736065 0.008753157
000230 68 6a 8f bd 06 cd 7f 3d 88 4b b6 3b 87 71 97 bd
       -0.07002717 0.062451385 0.0055632032 -0.073947005
000240 10 8d 87 3d 37 d9 2c bc 72 fc 23 3c 0b a9 88 bc
       0.066187024 -0.010549835 0.010008918 -0.016682168
000250 fa 84 84 be 2c 8d 06 bb 0e 5a b1 bd 0d 15 f7 3d
       -0.25882703 -0.0020530922 -0.08659755 0.12064562
000260 35 4e a0 bd e8 79 6c bd d5 b0 f2 3d 7c ec aa 3d
       -0.07827417 -0.057733446 0.11850134 0.08345887
000270 f3 fb fb bc a5 2e 9d bc 88 15 5a bc 45 ce 45 bc
       -0.030759787 -0.01918728 -0.0133107975 -0.012073104
000280 65 17 39 bc 6d 2a da bc bd 58 8f bc ca 9c c4 bc
       -0.011297082 -0.026631558 -0.017498368 -0.024000544
000290 b4 9b e7 bd 5e 4a 22 bc 1f d0 b3 bc 9a 28 21 3c
       -0.11308995 -0.009905426 -0.021949826 0.00983634
0002a0 31 b7 2f 3d 5b 92 a4 bd c6 a2 87 bd 0e 8a 40 bc
       0.042899314 -0.080357276 -0.066228434 -0.011751665
0002b0 e6 34 42 3d 07 7e cd bc a0 bf 9b b9 17 39 a0 bd
       0.04741373 -0.025084509 -0.00029706676 -0.07823389
0002c0 a7 88 66 3c 64 03 02 3d aa 0b 73 bc dd f9 a6 3c
       0.014070666 0.031741515 -0.014834324 0.020382816
0002d0 6b 61 3e 3d 47 3b b4 bd 4a 2c 7d bc 62 74 14 be
       0.046479624 -0.08800369 -0.015452454 -0.14497522
0002e0 49 e8 95 bd 1a e1 a8 bc ab ed c5 3c 6e fb 14 3c
       -0.073196955 -0.02061515 0.02416118 0.009093149
0002f0 6d 81 80 bd 68 2c 19 bd 0d e5 1f 3d 50 31 f5 3d
       -0.06274686 -0.037395865 0.0390368 0.11972296
000300 dd 17 37 3d 72 b1 6e 3a c4 16 8e bc 1b ab 2a 3d
       0.044700492 0.0009105421 -0.01734484 0.041667085
000310 28 b7 f1 bb d8 9a 23 bd 36 04 00 3d 72 b8 27 3d
       -0.0073765703 -0.039942592 0.031254016 0.040947385
000320 3b 65 7f bd 05 16 da bd 84 d9 8f 3d 8b 5a b6 bc
       -0.0623524 -0.10648731 0.0702391 -0.022259971
000330 99 58 79 3e 44 d3 cf bd 38 df d5 39 cc ca 1b be
       0.24350204 -0.101477176 0.00040792837 -0.1521408
000340 96 8c ca bd 26 fe ca bd 60 ab 20 bd 24 aa 2c bd
       -0.09890096 -0.09911756 -0.039225936 -0.042154446
000350 1f 78 1f bc 32 ef 31 bc 03 1f 49 be 7b 5d 22 be
       -0.009733229 -0.010860251 -0.19640736 -0.15855972
000360 58 c5 a2 bd 6b d0 43 3e 27 94 42 bd be 71 79 bd
       -0.079477966 0.19122474 -0.04750457 -0.06089949
000370 5f 14 08 bd 50 22 99 3d 03 3f 2b bc f3 e8 23 bd
       -0.033222552 0.07477248 -0.010452035 -0.04001708
000380 a5 e7 20 3d 69 08 ee 3b 11 36 2e bc 5e e1 15 bd
       0.039283413 0.007264186 -0.010633008 -0.03659188
000390 af 1b 83 3b 39 2b 41 3d b5 7a 83 3c 94 e2 10 bb
       0.004001103 0.04716036 0.016049722 -0.0022107707
0003a0 0e 70 2e 3d 24 3d 62 3d 2a 81 f2 bd 08 ec a9 bc
       0.042587332 0.05523409 -0.11841042 -0.020742431
0003b0 9a c9 3f bc 32 1a ba bd b3 68 50 3d 69 f8 67 3c
       -0.01170578 -0.090870276 0.0508811 0.014158347
0003c0 ab b0 0e 3d 0b 77 ef bc 3a 00 a7 bc d5 68 17 bd
       0.034836452 -0.029231569 -0.02038585 -0.03696521
0003d0 0c ed c3 bc 5d 97 1b 3d 1f 40 a6 3d 08 e2 07 be
       -0.023916744 0.03798615 0.08117699 -0.13269818
0003e0 65 0d 71 bd 98 f4 59 3c dd 7f 17 3c c2 03 e0 bc
       -0.058850665 0.013302945 0.009246794 -0.027345542
0003f0 39 34 92 bd 39 06 c8 3d 7c 4b 5e 3c 1f a0 ec bd
       -0.07138867 0.09766812 0.013567802 -0.11553978

fcs1.bias f4 [400]
000000 61 32 15 3e 78 18 f3 3c 7c 2b 06 3b 8c d2 19 be
       0.1457 0.029674754 0.0020472696 -0.15021724
000010 30 d1 64 3c 43 e1 84 bd a0 7d 51 3c 49 1f 06 3e
       0.01396589 -0.06488278 0.012786299 0.13097872
000020 0d 43 b6 3d 27 d4 ef bd 8a e5 11 be 0c 68 df 3d
       0.08899508 -0.11710387 -0.14247718 0.10908517
000030 90 1c 66 3d 45 e1 04 3e 8d 60 49 3d 1d 58 7d 3d
       0.056179583 0.12976559 0.049164344 0.06185161
000040 6b 48 09 be e0 86 17 3e 06 91 d8 3d 23 4e 84 3d
       -0.13406532 0.14797544 0.10574536 0.06460216
000050 25 8b ea 3d cb 12 b1 bd b8 ef 2a 3e 5c f9 a8 bc
       0.11452321 -0.086461626 0.16693008 -0.020626716
000060 3a 29 86 bd 06 fe 09 3e ef bb fd 3d ae 0e 8f 3d
       -0.06550832 0.13475809 0.12389361 0.06985222
000070 81 c0 40 3d 4a 53 d2 bb ba 12 1f 3d 57 ed de 3d
       0.047058586 -0.0064186202 0.03883622 0.10885113
000080 c8 d7 3b bd 6a 68 fc 3d 8f ed 17 bd e6 5f 49 bd
       -0.045860082 0.12324603 -0.037091788 -0.04916372
000090 b9 63 24 bd ae 2e 06 3e c0 14 04 be dd 76 fe 3c
       -0.040134165 0.13103744 -0.1289854 0.031062538
0000a0 d0 7d 6b bd 8f fa 96 bd 67 f7 c5 3d 0a a4 df bd
       -0.05749303 -0.07372009 0.09666329 -0.1091996
0000b0 02 80 ac bd 08 6e 86 3d 6d c4 65 bd 22 d4 48 bd
       -0.08422853 0.065639555 -0.05609553 -0.04903043
0000c0 bb 0e 33 3d b4 21 16 be 9b 5d fc bd 64 f3 20 be
       0.04371522 -0.14661294 -0.12322541 -0.15717846
0000d0 16 86 58 bd 4c 01 4f bc fb 87 18 3d af 34 0c bd
       -0.05286225 -0.012634587 0.037239056 -0.03422993
0000e0 f4 6c d5 bd b8 4c 4c 3d 82 03 32 bd a5 58 2c 3e
       -0.10421172 0.049877852 -0.043460377 0.1683069
0000f0 96 44 69 3d 0e 98 24 bc fd 44 1d 3e a6 54 87 bd
       0.056950174 -0.010046018 0.15358348 -0.06607942
000100 ed 8e aa bd e6 fd c1 3d 5a 4f 8f 3d 25 1c 5d bc
       -0.08328042 0.094722554 0.06997557 -0.01349548
000110 1b 43 40 bc 8a fc 27 3e 99 60 31 3e 1c c9 0e 3e
       -0.011734749 0.1640493 0.17322005 0.13943905
000120 f3 5a 28 be 82 93 25 3e 0f 15 78 3d be bc 13 3e
       -0.16440944 0.16169551 0.060566958 0.14427468
000130 04 dc 90 3d c2 a7 3d bd bb 45 5c 3d 4a 08 1b 3e
       0.07073215 -0.046302564 0.053777438 0.15139881
000140 52 75 f7 3d e2 1b 3b bd 68 bc 2e be 00 96 1c be
       0.12082924 -0.045680888 -0.17064059 -0.15291595
000150 af 91 a8 3d 4d bd 0e 3d b2 5a 08 3e fb 6a 79 bd
       0.08230912 0.0348485 0.13315848 -0.06089304
000160 af 71 9f bd 17 09 fd 3d d9 f1 ab bd c5 a5 2f be
       -0.07785355 0.123552494 -0.08395738 -0.1715308
000170 11 ce 14 be 3a 03 3e 3a 7c 2c 5c bd 70 25 45 3c
       -0.14531733 0.00072484056 -0.05375336 0.012032852
000180 eb c9 e1 bc 1a a3 ed bc 67 1c 21 be 66 7a 1a 3e
       -0.027562102 -0.029008437 -0.15733491 0.15085754
000190 bf f0 ea 3d 0e 7c b4 3c b4 e3 1b 3e 95 ee 8f 3d
       0.114717 0.02203181 0.1522358 0.07027928
0001a0 41 3f 21 3d c3 99 62 3d d7 f1 75 bb 34 4b 9b bd
       0.039366964 0.05532242 -0.003752818 -0.07582703
0001b0 f3 0a 55 bd ba b6 16 be 00 f6 24 bb 26 51 39 3d
       -0.052012395 -0.14718142 -0.0025171041 0.045243405
0001c0 9b 9c 14 be 50 50 cf 3b eb 12 b0 bd 98 0e 91 3d
       -0.14512865 0.0063267127 -0.08597358 0.07082862
0001d0 b4 43 10 3e 6f 4f 8c 3d b5 0c 82 bd c2 68 75 bc
       0.14088327 0.06851088 -0.0635008 -0.0149785895
0001e0 60 a9 1e 3e cf a3 a6 3d 26 03 2a 3e 3c b9 1e bd
       0.15494299 0.08136713 0.16602764 -0.038750872
0001f0 1c 80 25 3e 56 dc aa 3d 5e b9 d4 3a c9 e6 e2 3d
       0.16162151 0.08342807 0.001622956 0.11079175
000200 89 f8 e0 bb ec 56 25 bd f0 7b af 3d a7 54 8d bd
       -0.006865565 -0.0403661 0.08568561 -0.06900912
000210 55 da 01 be 38 75 78 bd 04 1d 5f 3c ec 8b 92 bd
       -0.12680943 -0.060658664 0.013617758 -0.07155594
000220 47 af 2b be c8 95 41 bd 05 c3 0c be b7 c4 ad 3c
       -0.16766082 -0.047261983 -0.13746269 0.021211965
000230 d6 01 e3 bd c0 35 1f 3e cc 00 ef bd 2c 55 0d be
       -0.110843346 0.15547848 -0.11670074 -0.13802022
000240 97 ce 00 3d 31 f6 28 be 39 d7 b0 3d 39 e1 52 ba
       0.03144702 -0.16500165 0.086348005 -0.0008044425
000250 7d 13 0d 3e 08 e1 21 be 36 d7 33 3d a3 f4 74 bd
       0.13776965 -0.15808499 0.043906413 -0.059803616
000260 bc 3a 7a bd 38 cb 97 bc 8d 4b 72 bc 0f 75 93 3d
       -0.06109117 -0.01852952 -0.0147885205 0.072000615
000270 2a 84 8f 3c 6a 93 67 bd 40 67 62 3d 8a 9b 03 3e
       0.017519075 -0.05653707 0.055274248 0.12852302
000280 97 b4 02 3e 2a 82 df 3c 42 26 d5 3c 12 6e 86 bb
       0.12764202 0.027283747 0.02601922 -0.004102477
000290 b6 fe ef bc 8a a9 30 be 22 a0 1f be c5 c7 8d bc
       -0.02929626 -0.17252174 -0.1558843 -0.017307172
0002a0 c8 7d ab 3d 32 9d a4 bd 6d 34 24 be c7 2f 90 3d
       0.083736 -0.08037795 -0.16035624 0.07040363
0002b0 b5 1b 25 bd 9d 06 16 3e c9 40 91 3c 3c 41 0b be
       -0.040309627 0.1465096 0.017731087 -0.13599104
0002c0 2d 22 99 bc 8e ea f8 bd 9f 48 6e bd 04 07 31 3e
       -0.018693054 -0.12154113 -0.058174726 0.17287832
0002d0 8d 3b f5 3c 25 bc 97 bd 2a c8 92 bd 39 22 1d 3e
       0.029935623 -0.074089326 -0.071670845 0.15345086
0002e0 cc 8d a0 3d 25 16 f4 3c c0 67 5c bd 26 17 8c bc
       0.078395456 0.029795716 -0.05380988 -0.017100882
0002f0 d9 75 d9 3d f4 da 15 3e 46 26 3c bd c2 51 e8 bd
       0.10618181 0.14634305 -0.045934938 -0.11343719
000300 ee d8 d9 3d 33 27 de 3a ce d9 af 3d f6 67 98 bd
       0.10637079 0.0016948938 0.08586465 -0.07441704
000310 30 62 bc 3d b0 ed a0 bd d7 9e 8d bd f0 26 1b bc
       0.09198415 -0.07857835 -0.06915062 -0.009469733
000320 3b b9 43 bd 05 d5 ff bd 5b a8 02 be a5 66 16 be
       -0.04778407 -0.12491802 -0.12759535 -0.14687593
000330 01 6a 44 bd 2e a7 23 3e f7 58 96 ba f3 35 cb 3c
       -0.047952656 0.15981743 -0.0011470605 0.024805998
000340 73 6f bf bd 86 9a 03 be ae 9b 1b be 09 db 0c 3e
       -0.09347429 -0.12851915 -0.15196106 0.1375543
000350 7f 0a 96 3b 31 b9 a9 bd 67 9a 3e bd 74 db e5 bd
       0.004578888 -0.082872756 -0.04653397 -0.11223498
000360 9a f0 e8 3d 52 df e6 3d a4 e4 a0 bd 6d c2 0c 3e
       0.11374016 0.11273064 -0.0785611 0.13746043
000370 20 65 d6 bd 42 67 99 bd 56 f3 09 be 89 48 2f 3e
       -0.10468507 -0.07490398 -0.13471732 0.17117514
000380 5c a4 3e bc 69 8e 9b bd 3c 44 e7 3d 93 e7 13 be
       -0.011635866 -0.07595522 0.112923115 -0.14443807
000390 3b b5 e8 bd 89 81 f4 3d 37 f5 0e bd 57 94 31 3d
       -0.11362692 0.11938769 -0.034901824 0.04335436
0003a0 79 59 ac bd 7b cd a8 3d b5 6b 8b 3c 8c a7 ef bd
       -0.08415503 0.08242317 0.017019132 -0.11701879
0003b0 e4 5e 30 bc ec 84 05 be a0 ef d6 bd 75 44 29 be
       -0.010764811 -0.13038987 -0.104949236 -0.1653002
0003c0 19 aa 3c 3d f7 9a 28 bd b9 4a d3 bc f0 de 9b 3d
       0.046060655 -0.04116341 -0.025792466 0.07610881
0003d0 51 e2 0f be ed b2 0d 3d 1d 80 1a 3e cd 34 ed 3d
       -0.14051177 0.034594465 0.15087934 0.115823366
0003e0 60 57 c0 3d 66 2c 45 bd a9 f3 e3 bd 44 ac 0e 3e
       0.093916655 -0.048138045 -0.11130459 0.13932902
0003f0 9a e8 cb 3d a5 ea 25 bc 84 2e 28 3d 52 5d eb bd
       0.099564746 -0.010126744 0.041059986 -0.11492409

fcs1_bn.weight f4 [400]
000000 8d 4f aa 3e 27 53 31 3b 62 1d 23 3f 24 f7 e8 3e
       0.33263817 0.002705762 0.6371671 0.45501053
000010 18 a5 6b 3f cc 59 b1 3e 55 86 54 3f 5b 98 91 3e
       0.9204879 0.34638822 0.83017474 0.2843655
000020 61 bc ae 3e 94 43 f6 3d fb 4f 38 3f 5a d3 c5 3d
       0.34128097 0.12024608 0.7199704 0.09659453
000030 02 a2 a0 3d 76 0b fe 3e 94 e0 26 3f 43 fc 57 3e
       0.078434005 0.4961812 0.6518643 0.21092324
000040 bc ae 99 3e 81 d7 a2 3b 86 5b ba 3e 2e be 8a 3e
       0.30016124 0.0049695377 0.36397952 0.2709822
000050 be bb 23 3f d5 ce af 3e e5 86 fb 3e 97 c3 05 3f
       0.63958347 0.34337488 0.49126354 0.5225157
000060 0b 1e db 3e 6b a5 db 3d 5b 9e 14 3e e7 63 c1 3e
       0.42796358 0.1072491 0.14513533 0.37771532
000070 4d ff 02 3e 0b c5 08 3e 72 c6 c9 3e 48 9b f2 3e
       0.12792702 0.13356416 0.39409214 0.47384095
000080 aa 7f de 3d a4 ba 79 3f bf f0 44 3e 24 81 53 ba
       0.10864194 0.97550416 0.19232462 -0.00080682547
000090 51 dd 63 3d cf 43 0e 3f df 52 7a 3e 4a ca 0c 3f
       0.055630986 0.5557222 0.24445675 0.5499617
0000a0 ef ec 0e bc 60 ab 8b 3e 11 59 48 3f d7 5f aa 3d
       -0.008723482 0.27279186 0.78260905 0.08319061
0000b0 a8 7e 05 3f 51 0b 4c 3b f8 64 0b 3f bc d7 28 3f
       0.5214639 0.0031134675 0.5445094 0.65954185
0000c0 0e 53 00 3f c5 5c 51 3f 6c 60 59 3f 45 87 55 3f
       0.5012673 0.8178218 0.84912753 0.8340953
0000d0 34 9f 79 3f 6d 32 b0 3e 33 58 2e 3e 30 8f 51 3f
       0.9750855 0.34413472 0.17025833 0.8185911
0000e0 ae 4d 79 3e 72 cc 97 3d 2c c6 5b 3e ae 92 cb 3e
       0.24346039 0.07412042 0.21462315 0.39760345
0000f0 ff 99 70 3f 9c c1 44 3e 72 ce ea 3e 8e c0 30 3e
       0.9398498 0.19214481 0.4586063 0.17260954
000100 c5 91 f1 3e 09 e2 4d 3f ce 2a 63 3e 56 72 d7 3e
       0.47181526 0.8042303 0.22184297 0.4207942
000110 d2 ff 1e 3f 31 50 2b 3f 05 f4 25 3e 93 10 96 3e
       0.621091 0.6691924 0.16206367 0.2930952
000120 cd c8 03 3f bc 7f 22 3f f8 54 5f 3f 84 45 0f 3f
       0.5147827 0.6347616 0.8723903 0.5596545
000130 dc 9c 8c 3e 87 b1 94 ba c5 71 b0 3e b0 e4 b6 3e
       0.27463424 -0.0011344411 0.344618 0.3572135
000140 d9 92 16 3e 47 83 58 3f 9c e7 0e 3f 18 95 ff 3e
       0.14704455 0.84575313 0.5582216 0.49918437
000150 f4 5b 8d 3d f5 f9 0f 3f a9 64 1e 3f a9 89 65 3f
       0.06902304 0.5624078 0.61872345 0.8966318
000160 1d 20 70 3e 97 19 07 3f 3e 39 1e 3f 07 18 59 3f
       0.2344975 0.5277342 0.61806095 0.8480229
000170 49 5c 1d 3f 1a f6 49 3f c2 d6 d0 3d b4 b8 13 3f
       0.6146894 0.78891146 0.10197212 0.5770371
000180 a1 de c6 3d c9 36 5c 3f dc 38 51 3f 65 44 0b 3f
       0.09710432 0.86021096 0.81727386 0.54401237
000190 d4 e2 f0 3e 5f 82 54 3f 2f 24 2b 3f 1c 6b ee 3e
       0.47048056 0.8301143 0.66852087 0.46566093
0001a0 61 ea 55 3f 81 4c 1f 3f 9a 17 18 3e d3 4d 65 3e
       0.8356076 0.6222611 0.14852753 0.22392969
0001b0 aa f3 cb 3e 9a 5a 43 3f e2 2f 19 3e 48 69 15 3f
       0.39834338 0.7631012 0.14959672 0.5836377
0001c0 ce 5c 67 3f e7 d1 5e 3f f1 e5 13 3f 4c f7 16 3f
       0.90375984 0.87039036 0.5777274 0.58971095
0001d0 c9 dc 05 3f 98 e3 6c 3f ad 8a 3f 3e 46 e9 36 3e
       0.52290016 0.9253478 0.18705244 0.17862424
0001e0 98 2c e8 3e 98 01 36 3f 96 64 46 3e 66 27 a9 3e
       0.45346522 0.7109618 0.19374308 0.3303787
0001f0 3c da 3d 3f cc 7f 16 3f 0e 1a 05 3e 52 9d 3e 3f
       0.74161124 0.5878875 0.1299822 0.744588
000200 b2 a0 52 3f 24 e5 b7 3e 1b ae af 3e c9 96 22 3e
       0.8227645 0.35917008 0.3431252 0.15877832
000210 9d f8 b8 3e 21 ce ae 3e eb f8 fb 3e 37 40 47 3f
       0.36127177 0.3414164 0.49213347 0.7783236
000220 35 d0 0c 3f 37 0b 26 3e 32 75 1a 3d 87 7c 6e 3f
       0.550052 0.16215216 0.037709422 0.93158764
000230 76 4d 65 3c 24 42 6f 3f 25 2a 57 3f 15 31 b8 3e
       0.013995519 0.934603 0.8404868 0.35974947
000240 f9 4a 9f 3e cb 2d 10 3f 7c cc 01 3b b4 74 cd 3e
       0.31111887 0.56319875 0.001980572 0.401281
000250 23 27 c7 3d f1 4c 31 3f 4a 01 84 3e 1e e4 60 3c
       0.097242616 0.6925803 0.25782233 0.013726262
000260 cb 06 b1 3d e8 98 05 3b 43 5e 97 3e 56 c9 ca 3e
       0.08643874 0.0020385329 0.29564103 0.39606732
000270 08 c4 1b 3f e6 1f d6 3e fe fb 61 3b da 68 02 3f
       0.60845995 0.41821212 0.0034482474 0.5094124
000280 5e 2c 20 3f 52 86 74 3f c6 13 f0 3e eb c3 96 3e
       0.625677 0.95517457 0.46890086 0.2944635
000290 e7 44 28 3f 26 a3 07 3d 30 98 5e 3f 03 7f 27 3f
       0.65730137 0.033114575 0.8695097 0.6542818
0002a0 da 82 80 3e 3e 10 10 3f f6 91 5b 3e 65 1e 8d 3d
       0.25099832 0.56274784 0.21442398 0.06890563
0002b0 f1 fb 3e 3c b9 a1 52 3e 9a 61 32 3f 22 cd 0d 3e
       0.011656747 0.20569505 0.6968018 0.13847783
0002c0 f9 1b 56 3f 96 01 b3 3e af 7b 45 3d 32 1f 41 3f
       0.8363643 0.34962147 0.048213657 0.75438225
0002d0 e7 21 0a 3f 04 77 b1 3d 25 a4 9b 3e 7b 95 1f 3f
       0.5395798 0.086652786 0.3039867 0.62337464
0002e0 bb 21 d3 3e 5c de 16 3d 40 e0 f0 3e 97 8d c6 3e
       0.41236672 0.036833152 0.4704609 0.387799
0002f0 08 d3 7d 3f e3 ed 00 3f 3c c1 6d 3e a1 9d 8e 3e
       0.99150133 0.50362986 0.23218244 0.27854636
000300 e2 91 82 3e f3 59 62 3f fd bd 6d 3e 9e 90 3b 3e
       0.25501925 0.884185 0.23217006 0.18316886
000310 30 69 26 3e 29 1b 58 3e 40 18 de 3d b6 ec 3c 3f
       0.16251063 0.21104111 0.10844469 0.7379869
000320 4c db 72 3f ce 4b 1b 3f d6 bb dc 3e 99 e5 87 3e
       0.9486587 0.60662544 0.43112057 0.26542357
000330 83 2b 41 3e d9 f1 6f 3f cb 92 af 3e 4b ad 6b 3f
       0.18864255 0.93728405 0.34291682 0.920613
000340 56 98 83 3e 80 a7 af 3e fd e0 88 3e 94 f4 de 3e
       0.2570216 0.3430748 0.26734152 0.43545973
000350 8d 56 56 3f 69 8f b0 3e 4a 05 84 3f c2 d7 27 3f
       0.83725816 0.34484413 1.0314114 0.65563595
000360 87 2c e2 3e 8f 73 a9 3e b5 de aa 3e d5 47 73 3f
       0.44174597 0.33095977 0.33373037 0.9503148
000370 67 3d 17 3f ce 56 06 3e 9a 85 ec 3e c9 fe f9 3e
       0.5907807 0.13119051 0.4619568 0.48827198
000380 82 86 d8 3e e7 85 d1 3d c0 a2 0e 3f 29 4f e8 3e
       0.4229012 0.10230618 0.55717087 0.45372894
000390 ec a0 0e 3f 9d 27 d8 3e 2f 59 f8 3e 2c c2 09 3f
       0.557143 0.42217723 0.48505542 0.5381191
0003a0 c0 f6 6e 3f 7c c7 2b 3f c9 b8 d9 3e 02 c5 1d 3f
       0.9334526 0.67101264 0.42523792 0.61628735
0003b0 3b 0f b8 3e d6 87 42 3f 5a 70 64 3e a0 c9 b9 3a
       0.3594912 0.7598852 0.22308484 0.0014174469
0003c0 7d 9c 5a 3f 03 b5 80 3c 1b f2 6b 3e b7 8a dc 3e
       0.8539503 0.015711313 0.23041575 0.4307458
0003d0 9c b8 8f 3c 93 ea 6a 3e d5 d6 47 3e 25 94 33 3f
       0.017544083 0.22941045 0.19515546 0.70147926
0003e0 ad bb 29 3f b4 ea be 3e df 22 26 bb 18 8a 03 3b
       0.66301996 0.3728844 -0.0025350375 0.0020071324
0003f0 7b 8c 55 3f ee 70 59 3e a8 06 41 3f c2 b8 3b 3f
       0.8341748 0.21234486 0.7540078 0.73328793

fcs1_bn.bias f4 [400]
000000 56 3c 72 bd 17 cf 83 bc 32 55 b8 bd e2 69 be bd
       -0.059139572 -0.01608996 -0.09000625 -0.09297539
000010 56 84 3a bd 12 81 a5 bc e7 b3 83 bc ca dc cb bc
       -0.04553636 -0.020203147 -0.016076995 -0.024885554
000020 a6 ae f0 bd b7 36 ac bc 42 74 83 bd 3e 28 49 bd
       -0.117520615 -0.021022184 -0.06418659 -0.049110644
000030 ad 25 a8 bd 01 3d d8 bd 1f bd d9 bd 0a 8b 0c be
       -0.08210311 -0.105585106 -0.10631775 -0.13724914
000040 90 c3 8a bd ec 2a ac bc ef 37 96 bd 10 42 75 bd
       -0.06775582 -0.02101656 -0.07334887 -0.059877455
000050 e5 c8 f7 bd b3 56 1e be ac ca 16 be 46 a2 0a be
       -0.120988645 -0.1546276 -0.1472575 -0.13538465
000060 22 6b 9e bc 1c 3f 65 bc 38 aa a4 bd 82 31 ce bd
       -0.019338194 -0.013992097 -0.08040279 -0.100680366
000070 fb 50 9d bd d0 bc a1 bd 6d e8 e9 bd 39 7a 54 bd
       -0.076814614 -0.07897341 -0.11421285 -0.051874373
000080 68 e1 bc bd db 15 ae bc be f8 8d 39 b7 92 88 bc
       -0.0922268 -0.021250656 0.00027078943 -0.016671522
000090 f6 c0 d3 bd e9 6b d7 bd e9 0a e1 bc 07 31 ca bd
       -0.10339539 -0.10518629 -0.027471023 -0.098726325
0000a0 f4 74 fe 3c 23 cf a9 bd 0c ca ff bc 06 10 5e bd
       0.031061627 -0.08291461 -0.031224273 -0.0542145
0000b0 b5 cc 20 bc 21 06 86 bc 18 19 be bd e1 57 9c bc
       -0.009814431 -0.016360344 -0.0928213 -0.019084873
0000c0 82 b3 8e 3c 89 f7 7e bd 8d c5 9d bc f6 df e8 bd
       0.01741958 -0.062247787 -0.019259239 -0.11370842
0000d0 f3 b2 b5 bc b8 c7 d7 bd ae 65 6b bd fa aa f9 bd
       -0.022180056 -0.1053614 -0.057470016 -0.12190814
0000e0 ac f0 72 bd 5f 66 e6 bd 95 db ca bd 3c 1c d9 3b
       -0.059311554 -0.112499945 -0.09905163 0.0066256803
0000f0 3b 81 c3 bc e5 8f 1f 3c 53 29 bd bd 38 f3 2a bd
       -0.023865333 0.009738897 -0.092363976 -0.041735858
000100 c1 15 c0 bb a5 d0 15 bd fa 90 90 bd 30 6d 50 bc
       -0.0058619683 -0.036575932 -0.07058902 -0.012721345
000110 94 c1 5b bd 49 9e 13 bd b0 94 96 3a c3 5f ba bd
       -0.053651407 -0.036039624 0.0011488404 -0.09100296
000120 d0 2e 78 bd d6 60 92 bd aa f0 d3 bd 10 86 58 bd
       -0.06059152 -0.07147376 -0.103486374 -0.052862227
000130 5a 4e d6 bd 69 9e 5a bc fc b5 95 bd 08 81 55 bd
       -0.10464163 -0.013343432 -0.073101014 -0.052125007
000140 ae f0 86 bd c4 77 aa bc 28 d6 1e bd 71 a2 86 bd
       -0.06588875 -0.020809062 -0.038778454 -0.06573952
000150 13 67 2d bc c6 d4 ba bd 0b 6b b1 bd a6 35 83 bd
       -0.010583657 -0.091226146 -0.08662995 -0.06406717
000160 a3 26 b6 bd 5a c2 f1 bd 72 ce b3 bd 72 7e b3 bc
       -0.08894088 -0.11804648 -0.08779611 -0.02191088
000170 da a1 0d bd e7 90 82 bc d1 1c 75 bd ff 8d bf bd
       -0.03457818 -0.015938235 -0.059841935 -0.093532555
000180 e2 77 86 bd 0c 80 0a be ae 89 bf bd c0 39 bc bd
       -0.065658346 -0.13525409 -0.09352432 -0.091907024
000190 f0 bd 01 3d df 5b bd bd 04 f8 1a bc 07 2f f4 bd
       0.03167528 -0.09246039 -0.009458546 -0.11923032
0001a0 3d a5 06 bd 9b a2 f1 bd 6d 85 d0 bc 87 5b 29 bd
       -0.032872427 -0.11798593 -0.025454247 -0.041347053
0001b0 6b b5 72 3c 12 57 13 bd ef 7d 8f bd b8 1a 85 bd
       0.014813761 -0.03597171 -0.07006442 -0.06499237
0001c0 d5 f9 9e bd 6a 2d 9e bd 37 5b ab bd 59 41 01 bd
       -0.077624954 -0.07723506 -0.08367007 -0.03155646
0001d0 f3 21 cd bd 37 52 8f bd 81 e8 51 3b 22 5b c6 bd
       -0.10016241 -0.06998103 0.0032029452 -0.09685351
0001e0 51 c1 93 bd 23 b8 d9 bd 7d 96 84 bd 5b 70 8e bd
       -0.072146066 -0.106308244 -0.06474016 -0.06955024
0001f0 2f 42 6d bc 31 d5 07 be 62 4b 76 bd af 64 98 bd
       -0.014481111 -0.1326492 -0.060130484 -0.07441079
000200 ec 33 9d bd 7a 7e ab bd dc 41 b6 bb 51 ef cf bb
       -0.07675919 -0.08373733 -0.0055620503 -0.0063456674
000210 6f 89 a5 bd e8 5c b1 bd 6c c6 9a bd eb fa fa bd
       -0.08082854 -0.086602986 -0.07557377 -0.1225489
000220 11 28 0a bd 34 6a 46 bd 51 47 1b bd 35 77 05 be
       -0.033729617 -0.048441127 -0.03790981 -0.13033755
000230 bc 49 67 bd 51 30 17 3d 80 3d ba bd 71 5d a5 bd
       -0.056466803 0.036911312 -0.090937614 -0.08074463
000240 38 38 c0 bd 99 07 a0 bb 95 1c 16 bd cc 86 0e be
       -0.09385723 -0.004883718 -0.03664835 -0.13918608
000250 6b 20 83 bd a0 dc e9 bd 64 c4 b1 bd cd 48 e6 bc
       -0.064026676 -0.11419034 -0.08680037 -0.028110886
000260 0b 58 7f bd 75 a7 31 bc 91 c9 9c 3c cb ed c9 3c
       -0.062339824 -0.0108431475 0.019139083 0.024649521
000270 19 c7 9a bd 48 27 37 3c f9 68 d0 bc e1 46 ce bd
       -0.07557506 0.011178799 -0.02544068 -0.10072113
000280 71 23 b0 bd 8e 93 23 bd 6e 45 71 bd fc f6 ab bb
       -0.0860051 -0.03993564 -0.058904104 -0.0052479487
000290 02 5e 87 bd 71 5c d1 bb 2c e1 d0 bd 66 4d 0b be
       -0.066097274 -0.0063891937 -0.10199198 -0.13603744
0002a0 2b b0 1b bd 96 6d a5 bd 51 2d 2b bd 99 e1 a7 bc
       -0.038009804 -0.080775425 -0.041791264 -0.020493316
0002b0 2c 97 42 bd 47 30 88 bd de 66 ec bd 8f a7 5a bd
       -0.04750745 -0.06649833 -0.11543058 -0.053382453
0002c0 44 dc 0c be 74 fe 9e bd 40 a0 3b bd 87 47 0b bd
       -0.137559 -0.07763377 -0.045807123 -0.03400376
0002d0 bd ba a2 bd 14 4b dc bd f3 f8 32 bd 4b 70 6e bd
       -0.07945774 -0.107565075 -0.043694448 -0.05821256
0002e0 2b d5 14 be fa 18 9f bc 61 05 e6 bd b7 59 f4 bd
       -0.14534442 -0.01942109 -0.11231495 -0.11931174
0002f0 20 93 26 bd fa 61 95 bd 81 b8 22 bd 4f 93 cc bd
       -0.040667653 -0.07294078 -0.039726738 -0.099890344
000300 2c 70 a6 bd 89 2a a9 bd ee 28 37 bd 0f 22 2b bd
       -0.08126864 -0.08260066 -0.044716768 -0.041780528
000310 36 be 0a bd ca 0d 5b bd 3e 99 79 bd d8 70 89 bd
       -0.033872806 -0.053479947 -0.06093716 -0.06710976
000320 46 76 04 be b5 30 80 bb 26 3d c6 bd e8 fa 08 bd
       -0.12935743 -0.0039120563 -0.09679632 -0.033442408
000330 10 a9 b0 bd ec 89 86 bd f5 26 0e be d4 c0 ba bd
       -0.08625996 -0.06569275 -0.13882048 -0.0911881
000340 49 7e 8a bd 54 84 8c bd 72 60 8a bd 33 c9 35 bd
       -0.06762368 -0.06861177 -0.06756677 -0.04438133
000350 a8 d2 d7 bd 84 84 8d 3c 7b bd d7 bd ec 13 c9 bd
       -0.10538226 0.017275102 -0.105341874 -0.09818253
000360 ae ca d8 bd 38 66 07 bd f3 33 72 bd 87 06 85 bd
       -0.10585533 -0.033056468 -0.059131574 -0.064953856
000370 cc 0a c0 bc 33 6f b3 bd 3f 86 c5 bd 4d 20 b2 bc
       -0.023442648 -0.08761444 -0.09644746 -0.021743918
000380 1c 05 88 bd eb 71 7c bd 35 dd 94 bd 4f ec 81 bd
       -0.066415995 -0.06163208 -0.072687544 -0.063439004
000390 e6 ad 90 bc 22 e3 5c bd c3 42 61 bd 0c a9 c7 bc
       -0.017661046 -0.05392755 -0.05499531 -0.0243726
0003a0 d7 96 a5 bd 80 d5 1d bd 50 47 e3 bd 90 30 d9 bd
       -0.08085411 -0.038533688 -0.11097586 -0.10604966
0003b0 76 8c 93 bd ce 5b 95 bd 71 1d 06 be 8b 25 8c bb
       -0.07204525 -0.07292901 -0.13097169 -0.0042769364
0003c0 ad 5a f2 bd 88 a6 57 bd 83 bb bf ba 2f 40 5d bc
       -0.11833701 -0.05264905 -0.0014628026 -0.013504072
0003d0 84 af 25 bd 6d d1 b9 3b 3d 63 93 bd 90 f5 bd bd
       -0.040450588 0.0056707175 -0.071966626 -0.09275353
0003e0 5f fa c7 bd a0 99 89 bd 30 a8 a6 3c 0c 13 c1 bc
       -0.09764551 -0.06718755 0.02034387 -0.023568653
0003f0 66 35 97 bd 5d f6 a7 bd 40 53 8d bd 7d 65 f5 bd
       -0.07383232 -0.08201287 -0.06900644 -0.11982248

fcs1_bn.running_mean f4 [400]
000000 fd 00 70 3e 82 1d 77 bc 48 46 a0 bd 85 1c c1 bd
       0.23437877 -0.015082719 -0.07825905 -0.09429268
000010 0e a8 b8 3d 83 31 04 be 83 cb d1 be 94 42 9d 3e
       0.09016429 -0.12909512 -0.4097558 0.30714858
000020 23 89 c3 bd 7f fc ba 3d 8f d0 cc be 71 6e 68 3e
       -0.09547641 0.09130191 -0.40002868 0.2269838
000030 b8 fa 2f bd 05 9f f2 bd 35 fd 2e 3e 8f c2 49 be
       -0.042963713 -0.11846737 0.17088778 -0.19703124
000040 53 ae 19 be 3c c1 2a 3e 8a f9 ca 3d fd 37 3a 3e
       -0.15007906 0.16675276 0.09910877 0.1818542
000050 06 e1 e8 3d b6 95 c7 be 27 8c ad 3e 20 4d 22 3e
       0.11371045 -0.38981408 0.3389599 0.15849733
000060 a5 7c 6a be d3 70 e1 bd df 62 b5 bd 9b d6 c5 bd
       -0.2289911 -0.11007848 -0.08856749 -0.09660073
000070 cf 23 23 3e df bf 49 3e df 37 53 3e 30 d3 54 3e
       0.15931629 0.197021 0.20626782 0.20783687
000080 28 f2 84 be f4 fa 1e bc ba 4f ad 3d 99 36 80 3e
       -0.25966 -0.009703387 0.08462472 0.25041655
000090 06 68 59 3d 27 c3 06 be dc 64 c9 bc 3f 20 87 bd
       0.05307772 -0.13160382 -0.024584226 -0.06597947
0000a0 c6 00 d3 3d 41 d5 28 be 62 86 a8 be 61 d2 c4 be
       0.10302882 -0.164876 -0.32915026 -0.38441756
0000b0 7e 24 03 3d 18 89 89 bd 64 ee a9 3e 79 cd 9e be
       0.032017224 -0.06715602 0.3318969 -0.31016138
0000c0 d7 91 94 3e 1e af ff 3c 3d 8a 81 be 4b 8d 89 3c
       0.29017517 0.031211432 -0.2530078 0.016791007
0000d0 dc 1f d8 be bf 31 ca bc 40 aa 0c 3e 7b c8 8a bd
       -0.42211807 -0.024681924 0.1373682 -0.0677652
0000e0 a3 5f c1 be f2 0f b4 3e bd 23 4d bd 5d fe 07 bd
       -0.37768278 0.35168415 -0.05008291 -0.033201564
0000f0 e6 a9 b5 3e de fc 89 be 7d 5a be 3d 22 b6 f5 be
       0.35481185 -0.26950735 0.09294603 -0.4799052
000100 37 c8 5a be 7d cd f8 3d 29 54 65 bd ba 41 1c bc
       -0.21365438 0.12148569 -0.055988465 -0.009537155
000110 2a 22 4d 3e 8c f0 24 3e b5 22 d9 3e d7 35 12 be
       0.20032564 0.16107386 0.42409292 -0.14278351
000120 4d 29 87 be 9d e3 08 3d a5 ed 8d be 3a 08 81 3d
       -0.26398697 0.033420194 -0.2772037 0.06300397
000130 32 af 28 3f ab 21 0f be e5 d4 ed be 38 24 b2 be
       0.65892327 -0.13977687 -0.46451488 -0.34793258
000140 c0 93 d9 bd 6d 5f 1d 3e f9 11 0b bf 18 fc 31 3e
       -0.10623884 0.15368433 -0.543243 0.17381322
000150 4f ab c3 3d 55 dd 5d be ca 56 ac 3e a6 3d d1 be
       0.09554159 -0.21666463 0.33659965 -0.40867347
000160 f1 9f 4d 3e a1 f5 22 3c 42 66 83 be ff 29 03 bf
       0.20080544 0.009946258 -0.25663954 -0.51235956
000170 39 a6 48 be a9 45 93 bd b5 13 e5 bd c0 1e d2 3d
       -0.19594659 -0.07191021 -0.111853994 0.10259771
000180 e7 b3 7e 3e 1d 42 03 bd 28 26 1a 3e 40 b0 e0 3e
       0.24873315 -0.032045472 0.15053618 0.43884468
000190 d5 f6 d9 3d 71 6d a6 bc 7a 3f 1f be 69 aa 13 3f
       0.106427826 -0.020315858 -0.15551558 0.576819
0001a0 bf bc 57 be ff 32 9a be 5c e9 f2 be 1a 7f da bc
       -0.21068095 -0.30117032 -0.47443664 -0.026671935
0001b0 19 c0 41 be eb 3e ad bd 76 53 e2 be 6a b6 35 bd
       -0.18920936 -0.08459266 -0.442043 -0.044363417
0001c0 7f e6 00 bf d9 3b 71 be d7 84 d1 be 05 03 9a 3e
       -0.5035171 -0.23557986 -0.4092166 0.3008043
0001d0 c8 e8 53 3c 3b 81 91 3e f1 7c 24 be bc df 06 be
       0.012933917 0.28418908 -0.16063286 -0.13171285
0001e0 a5 41 5b 3e 44 a8 16 be d1 fd 36 3e 81 70 ee 3d
       0.2141176 -0.14712626 0.17870261 0.11642552
0001f0 e7 4b 5e be 4c 3f 6f 3e 06 cb 97 bd c1 cc e5 3e
       -0.21708642 0.2336399 -0.074117705 0.44882777
000200 9e 42 6f be 40 71 07 be 2f dd a3 bc 21 81 8a be
       -0.23365256 -0.13226795 -0.02000293 -0.27051643
000210 37 81 28 be 5f fa 37 3e 2c e1 58 3e 27 20 28 be
       -0.16455542 0.17966603 0.21179646 -0.16418515
000220 46 2e 09 bf 0b d8 6d 3c 70 5c 35 be cb 78 7d 3d
       -0.5358623 0.014516841 -0.17711043 0.061882775
000230 ab 29 65 bc c2 41 fe 3d 4b 0c 30 bd e1 6e 33 be
       -0.013986985 0.12414886 -0.042980473 -0.17522766
000240 29 ea c2 bd 1b b1 79 be 62 27 9b bd 6f 20 70 bd
       -0.09517319 -0.24383967 -0.07575871 -0.05862468
000250 a6 ef 2e 3d 27 dd 97 be 46 0a ce bd eb 40 14 be
       0.042709015 -0.29660913 -0.10060553 -0.14477889
000260 02 7f 69 be 9d 2e 8e bd a0 9d e4 3b df f2 fe be
       -0.22802356 -0.069424845 0.006976798 -0.4979467
000270 d4 a9 bd ba d4 87 0a be 50 fb aa 3d 5f 7d be 3e
       -0.0014470168 -0.13528377 0.08348715 0.37205026
000280 27 d8 fd 3e f9 0c 72 3e 38 ea a0 3d 07 96 d4 3d
       0.49578974 0.23637761 0.07857174 0.10380178
000290 a4 67 92 3e 98 b1 f1 be 41 58 53 be da f0 6d 3d
       0.28594697 -0.47205806 -0.20639135 0.058091022
0002a0 c9 e8 1f 3d a9 74 c2 be c8 d3 c0 bd 2c bb 45 be
       0.03904036 -0.3797963 -0.09415394 -0.19309682
0002b0 6c cb 59 be 83 8a 7a 3d c0 42 44 be 36 48 82 be
       -0.21269006 0.06116725 -0.19166088 -0.25445718
0002c0 19 94 0d 3e 00 e7 07 be 08 f8 3f 3e e1 13 22 3e
       0.13826026 -0.13271713 0.1874696 0.15827896
0002d0 73 da 9e bb b0 50 13 3f 8e c4 a8 3e c7 21 a1 3e
       -0.0048478185 0.57544994 0.3296246 0.31471083
0002e0 d8 f8 29 be 63 50 03 be 2a 9b cd be 24 f2 c0 be
       -0.16598833 -0.12823634 -0.40157443 -0.3768474
0002f0 49 ed fe 3e c6 00 a1 3e 6c f2 16 3d 62 6b f7 bd
       0.4979041 0.31445903 0.036852285 -0.120810285
000300 b2 9b 40 3c 56 b0 e4 bd f2 86 57 3d 99 b2 77 3e
       0.011755871 -0.11166446 0.05261893 0.24189223
000310 e1 92 9c bd 50 74 1d be e6 a2 ca be fe ac 09 bf
       -0.076452024 -0.15376401 -0.39577407 -0.5377959
000320 cb 39 54 bc 60 85 0b bd 02 42 b9 bc 22 9c 39 bd
       -0.012953232 -0.034062743 -0.022614483 -0.045314915
000330 ed 98 57 be 97 db 4f be 37 db 6d 3c 12 6b 2a 3e
       -0.2105443 -0.2029861 0.014517597 0.16642407
000340 89 88 15 3e 2d eb a5 be 43 01 7f be de fe ac be
       0.14602865 -0.32405987 -0.24902825 -0.33788198
000350 fe 01 d3 bc 3c ad 0e bf f1 e9 19 3e 5e 78 eb be
       -0.025757786 -0.55733085 0.15030648 -0.4599027
000360 96 22 8b be 2e 7d 8f 3e 74 21 77 bc 09 09 be 3e
       -0.27174824 0.28025192 -0.015083659 0.37116268
000370 81 5b ba 3d 52 b1 36 be cf 23 0a bf f1 ad a4 3d
       0.09099484 -0.1784108 -0.5396089 0.08040989
000380 f2 c7 f6 bc b5 6f 06 3f a6 28 11 3e e6 97 8c be
       -0.030124638 0.525142 0.14175662 -0.2745964
000390 fc 33 bd 3c 1c e5 a0 bd 40 c3 c8 bc 9d 95 e3 be
       0.023096077 -0.07856199 -0.024507165 -0.44450083
0003a0 13 97 dd bd 3c 64 26 3e ba 8a 98 bd b9 03 c2 bd
       -0.10819831 0.16249174 -0.07448335 -0.09473366
0003b0 89 75 ef be 3d 55 88 bc 0c c4 8f bd cc ed c6 be
       -0.4676936 -0.016642207 -0.07019815 -0.388533
0003c0 7c f8 b9 bd 69 c9 22 bd 62 79 f8 bd 29 f5 a0 3d
       -0.09080598 -0.03974286 -0.12132527 0.078592606
0003d0 92 5e d8 be ef 84 db 3b 23 1f 38 3d 40 d8 16 3d
       -0.4225965 0.0066991965 0.04495157 0.036827326
0003e0 aa c3 b4 3d 7c d2 35 bd 20 06 1b be 0d b7 ac 3e
       0.088263825 -0.044390187 -0.15139055 0.33733407
0003f0 e6 9a a7 bb 0c 7a aa 3d 9f 4e a0 3d af 72 69 be
       -0.005114901 0.0832406 0.07827496 -0.22797655

fcs1_bn.running_var f4 [400]
000000 0f 41 83 40 4a 93 07 40 e6 d6 a9 3f f9 f3 f5 3f
       4.1016917 2.1183648 1.3268707 1.921508
000010 9a 38 c5 3f 84 9d ab 40 7c 48 12 40 7e e0 10 41
       1.5407898 5.362978 2.285674 9.054808
000020 68 31 80 3f 2c 24 07 40 05 1b 18 40 b2 a8 03 40
       1.0015078 2.1115828 2.3766491 2.0571713
000030 ae 85 90 40 3e 4c 4b 3f 02 30 8b 40 a7 6b 10 40
       4.5163183 0.7941321 4.3496103 2.2565706
000040 74 a4 17 40 75 47 d1 3f 4b f2 52 40 66 9d 00 40
       2.3694124 1.6349932 3.2960384 2.0096068
000050 09 fb 6f 3f 24 b8 dd 40 a4 39 d1 40 8f 5c 49 3f
       0.93742424 6.928728 6.538286 0.7865686
000060 d2 66 74 3f ca ff 41 40 af ea 8d 3f b1 4b 24 40
       0.9546939 3.0312371 1.1087245 2.5671198
000070 0e e4 0e 3f 46 c7 1f 40 83 a0 30 3f e9 8d 86 3f
       0.55816734 2.4965377 0.6899492 1.0512058
000080 a6 4d 4c 3f 08 97 ba 3f 92 6d ee 3f 85 f1 6c 3f
       0.7980598 1.4577341 1.8627188 0.9255603
000090 5f 2d 18 40 57 34 ad 3f b2 f0 37 40 fd ee 2a 40
       2.3777692 1.3531598 2.8740659 2.6708367
0000a0 14 ab 74 40 87 75 b6 40 8a c9 07 40 e0 c7 b5 3f
       3.8229418 5.7018466 2.121676 1.4201622
0000b0 5a d3 54 3f 2c db 88 3f 2b 45 22 40 6b 19 83 40
       0.83134997 1.0691886 2.5354717 4.096853
0000c0 47 e8 b3 3f bf de 0e 41 1d 2a 5e 40 23 a9 87 3f
       1.405526 8.929381 3.4713204 1.0598491
0000d0 1c 82 91 3f 75 d5 cb 40 8f c0 99 40 48 cf a8 3f
       1.1367831 6.369807 4.8047557 1.3188257
0000e0 de a5 00 40 51 fa c2 40 e6 ca 42 40 53 95 10 40
       2.0101237 6.093056 3.043634 2.259114
0000f0 0e 45 e0 40 a4 90 a2 3f b5 bd e4 3f 86 a3 7f 3f
       7.0084295 1.2700391 1.7870394 0.9985889
000100 c0 13 b7 3f f8 88 54 3f 54 9b 65 3f e8 36 b1 40
       1.4302902 0.830215 0.89690137 5.5379524
000110 5d 36 0d 40 3f 03 98 40 6a 95 da 3f e6 5b 68 3f
       2.206443 4.7503963 1.7076848 0.90765226
000120 f5 44 ab 3f 31 c9 45 40 c9 94 56 3f 97 78 02 40
       1.3380419 3.0904047 0.8382078 2.0386102
000130 b5 cf c1 40 3d ec 0c 40 f8 23 f2 3f 91 9c 15 3f
       6.056605 2.2019188 1.8917227 0.58442026
000140 b7 7a 8b 3f 00 29 a6 3f d1 ef 61 40 e4 42 c8 40
       1.0896825 1.2981262 3.5302622 6.2581654
000150 9f 49 7d 3f da b2 99 40 71 45 0e 40 96 b6 45 40
       0.9894046 4.8030825 2.2229884 3.0892692
000160 64 9a d0 40 9d 26 28 40 78 20 d9 3e c2 c8 55 3f
       6.5188465 2.6273568 0.42407584 0.8350946
000170 ac be 20 3f 12 48 10 40 1f 4d 99 3f 7e 2e 9e 40
       0.6279094 2.2543988 1.197666 4.9431753
000180 31 c5 39 3f 0d a4 0f 40 fd 94 a0 3f 14 49 01 40
       0.72566515 2.2443879 1.2545468 2.0200853
000190 0a 28 c0 3f 7f 95 c4 3f fd 49 f9 3f 24 70 b7 3f
       1.5012219 1.5358123 1.9475704 1.4331098
0001a0 d7 cf c5 3f 5c 0d f8 3f ed f0 c9 3f 7b 0a 27 40
       1.5454053 1.9379077 1.577665 2.6100147
0001b0 f3 72 56 40 3e aa 48 40 dc b4 49 40 8d e7 7e 3f
       3.350766 3.1353908 3.1516638 0.9957207
0001c0 d4 c6 cb 3f 3f 07 2a 40 e0 90 67 40 53 76 c4 3f
       1.5920053 2.6566923 3.6182175 1.534861
0001d0 97 81 37 3f 70 86 ba 3f 09 ed 8f 3f a6 d3 6d 3f
       0.71682113 1.4572277 1.1244212 0.92901075
0001e0 f4 50 6d 3f 62 8f 22 40 d3 f9 79 40 81 ac d3 3f
       0.9270165 2.5400014 3.905873 1.6537019
0001f0 e9 c8 e8 3f 6f 1d 2a 40 14 70 cf 3f 3f 3c 1b 40
       1.8186313 2.6580465 1.6206079 2.4255521
000200 6e 13 cf 3f c8 0e 82 3f 4d 93 c3 3f 05 46 7c 3f
       1.6177804 1.0160761 1.5279328 0.9854434
000210 93 bc 9e 40 28 9d ad 40 45 5e bf 3f f2 6a 0e 3f
       4.9605193 5.425434 1.4950644 0.55631936
000220 1f 75 28 3f 51 57 2e 40 78 61 28 40 52 c5 5b 40
       0.6580371 2.7240794 2.630949 3.4339185
000230 63 d8 79 40 5a f4 a6 3f c8 bf 73 40 7f 3d 15 3f
       3.9038322 1.304332 3.8085804 0.5829696
000240 da 49 ff 3f c1 bd 86 3f 64 e7 bd 3f 52 9f b0 3f
       1.9944413 1.0526658 1.483624 1.3798621
000250 f1 60 e3 3f a6 6a 47 3f 05 42 e2 3f eb 59 1c 40
       1.7763959 0.7789711 1.7676398 2.4429882
000260 6b 44 21 40 53 a1 e0 3f 42 fc e3 3f 0a 38 fd 3f
       2.519801 1.7549232 1.7811358 1.9782727
000270 44 20 99 40 d6 bb 57 40 b5 48 ec 40 c6 90 33 40
       4.7851887 3.3708396 7.3838754 2.8057113
000280 e5 a5 e7 40 be c8 ee 3f 9a 1b 98 3f 20 3b ec 40
       7.239001 1.8655012 1.1883423 7.3822174
000290 b5 7e 56 3f 10 7d 48 40 9b 4d 3e 3f eb 2b 86 40
       0.8378709 3.1326332 0.74337167 4.192861
0002a0 60 c7 9f 40 43 d1 11 41 59 d2 67 3f f7 09 69 3f
       4.993088 9.113589 0.9055534 0.9103083
0002b0 e0 c4 b3 3f 5d ed 00 40 2b a2 5e 40 ce e3 90 3f
       1.4044456 2.0144875 3.478648 1.131952
0002c0 52 40 7f 40 0e ac 3d 40 c3 c1 fa 3f 0a ac 80 40
       3.9883008 2.9636264 1.9590381 4.021001
0002d0 10 ff a9 3f d3 e4 f4 3f 9b 0d 47 40 9f 89 8b 40
       1.3280964 1.9132332 3.1102054 4.3605494
0002e0 fb cb 20 3f 78 d3 33 40 a6 69 4e 3f 22 ee 93 3f
       0.6281125 2.809782 0.80629957 1.1557047
0002f0 45 95 cc 3f f8 49 9e 40 3b ee 3a 41 2b bd 5e 40
       1.5983053 4.9465294 11.683162 3.480296
000300 b0 9b ba 3f 05 bd ae 3f cb 7a 32 40 20 a7 ea 3f
       1.4578762 1.3651434 2.7887447 1.8332253
000310 f0 5e 87 3f 32 46 26 40 4f f3 0f 40 1f 46 b8 3f
       1.0575848 2.5980344 2.2492254 1.4396399
000320 3f 88 80 3f 88 2b 2b 40 0e 5d a3 3f 46 3b 5d 40
       1.0041579 2.674532 1.2762773 3.4567428
000330 4d 1a ef 3f e2 c0 1c 3f b3 5c 6c 40 0f c4 87 40
       1.8679901 0.61231816 3.693158 4.242683
000340 5d eb 19 40 72 94 66 3f fb 24 ce 3f 70 dc 60 40
       2.4049904 0.9007026 1.6105036 3.5134544
000350 56 f6 b3 3f ac 83 98 3f 29 1f d6 3f a0 96 c8 3f
       1.4059551 1.1915183 1.6728259 1.5670967
000360 cd 95 d1 40 cc c2 ac 3f 79 29 d9 40 64 01 c0 3f
       6.549536 1.3496947 6.7863126 1.5000424
000370 7a b6 80 3f a4 bb 77 3f ab cb ff 3f 1c fb 82 40
       1.0055687 0.9677069 1.998403 4.093153
000380 c0 b6 3e 40 ff c0 bc 3f a3 cf 08 40 a3 b8 1e 40
       2.9799042 1.4746398 2.1376731 2.4800193
000390 51 83 b6 40 b9 9c 05 40 17 e1 29 40 bc 9d b5 3f
       5.70353 2.0876906 2.6543634 1.4188762
0003a0 21 a3 05 40 7a 32 05 40 0b 70 a8 3f 3a 1b 96 40
       2.0880816 2.0812058 1.3159193 4.6908236
0003b0 d2 00 6d 3f 2b 8f 28 40 3c d7 43 41 5b 92 de 3f
       0.92579377 2.6337383 12.240047 1.7388414
0003c0 2c 8a 89 40 4d 78 04 40 0c 3e 3f 40 0e b2 79 3f
       4.2981167 2.0698426 2.988162 0.97537315
0003d0 23 20 82 40 32 6c 7f 3f 93 83 df 3f 73 5d 7c 3f
       4.066423 0.9977447 1.7462028 0.9858009
0003e0 fa 76 66 3f 6b 53 89 3f 48 c4 75 40 82 4f 15 40
       0.90025294 1.0728582 3.840105 2.3329778
0003f0 6a d0 10 40 98 f2 01 40 ed 9f 10 40 1c f7 81 3f
       2.2627206 2.0304317 2.259761 1.0153537

fc2.weight f4 [300, 404]
000000 c5 2e eb bc 12 6b e5 bb cb 5b 48 3d bc 06 03 3d
       -0.028708825 -0.007001289 0.048915666 0.031988844
000010 28 d2 7e bd 1e e6 3d bd 09 d1 f9 3b 33 39 a3 bd
       -0.06221214 -0.046362035 0.007623796 -0.07969894
000020 c5 57 34 3d 71 c6 99 3c 10 8e 73 3c 28 e2 c3 bd
       0.044029016 0.018771382 0.014865413 -0.0956462
000030 15 d1 b2 3c e3 2a 88 bd b4 3e 72 bd 30 d1 e3 bc
       0.021828214 -0.06648805 -0.05914183 -0.02780971
000040 88 d9 02 3d 6c 9a 2d bc 62 26 35 bd 8d ac 5f bd
       0.031945735 -0.010595899 -0.044226058 -0.054607917
000050 2e 61 5d 3c 28 2a 49 3b 95 7b 5e bd a1 ed 45 bc
       0.013511939 0.0030695293 -0.054317076 -0.012080581
000060 af 23 f5 ba b3 52 c4 bc be c6 d4 bc cd 40 1b 3c
       -0.0018702651 -0.023965215 -0.025973674 0.009475899
000070 84 7f 51 3d 29 20 b1 bb 28 9e 11 3d af 86 ae bd
       0.051147 -0.005405445 0.03555122 -0.085217826
000080 e6 d4 1d 3c 95 7c 03 3c 95 b0 c4 3c fe 7d 30 bb
       0.0096332785 0.008025308 0.024009982 -0.0026930566
000090 ec 4f 57 3c 6b b3 1c bc 43 b9 62 bd 63 02 ff 3b
       0.013141613 -0.009564261 -0.05535246 0.007782267
0000a0 47 30 6d 3d 81 36 58 bc 6d 08 22 3d 8e 06 d7 bb
       0.05790737 -0.0131965885 0.039558817 -0.0065620607
0000b0 78 7f 68 bc 92 0e 39 bd 21 6c ef bc 9b 54 35 3b
       -0.014190547 -0.04517991 -0.029226365 0.0027668837
0000c0 7c 9b eb 3c 2c e4 a0 bd ff 42 80 bd fc 6c 73 bb
       0.028760664 -0.0785602 -0.062627785 -0.0037143817
0000d0 4f 2b e7 bc 27 e4 a7 3c 42 e9 06 bc e5 8f 0c bc
       -0.028218893 0.020494534 -0.008234324 -0.008579229
0000e0 5c 04 2e 3c b1 40 71 39 52 fb 9e bc 74 ff 17 3d
       0.010621157 0.0002300765 -0.019406948 0.037108853
0000f0 4b 01 6f bc 9c e3 25 3d 43 cf 02 3d 40 72 54 3d
       -0.014587711 0.04050027 0.03193594 0.05186677
000100 0b 1d 9c 3b 45 1d f5 3c 0b e0 a7 bc c0 6e 35 3d
       0.0047642044 0.029921183 -0.020492574 0.044295073
000110 d9 76 3f bc 64 6b 82 bb f8 7d ce 3b a0 bf 9c bd
       -0.01168605 -0.003980087 0.0063016377 -0.07653737
000120 60 28 a6 bd 17 e3 20 bd 72 a7 7c 39 35 e6 98 bd
       -0.0811317 -0.03927907 0.00024094971 -0.074657835
000130 ac 89 7e b7 30 7d c5 3c 3b a2 11 3d a2 69 08 bd
       -1.5171634e-05 0.024107546 0.035555106 -0.033303864
000140 55 eb 3c 3d 6f 11 b4 3c 7c 32 30 3d 3d 51 8a 3c
       0.046122868 0.02198097 0.043016896 0.01688444
000150 f3 9c 6d 3c d6 3b 91 3c 2c fc 9f ba 65 d7 17 3c
       0.014502752 0.017728727 -0.001220589 0.009267663
000160 92 ca d6 bb c4 64 c8 bd aa 35 43 3d 49 10 51 bc
       -0.00655491 -0.097848445 0.0476586 -0.01276023
000170 9d 75 98 3c 49 b8 c9 3c ec 35 86 bc 0f 0c b9 3c
       0.01861077 0.024624007 -0.016383134 0.022588758
000180 85 c8 80 3c 9a 80 07 3b 29 45 4d 3d 44 cc 39 3d
       0.015720615 0.0020676018 0.050114784 0.04536082
000190 70 fb b4 bb 57 f5 73 bd d0 b6 a5 bc bb cc 60 bd
       -0.0055231377 -0.059560146 -0.020228773 -0.054882746
0001a0 67 6b 8f bb ea bd a5 bd ba b6 2b 3d 67 78 f1 bd
       -0.004376817 -0.08092864 0.04192231 -0.11790543
0001b0 4d 83 f3 3c c6 be e9 bc 76 23 3a 3c bd a0 b5 bd
       0.029725695 -0.02853335 0.011360994 -0.08868549
0001c0 b3 52 9f 3c 38 f1 74 bd 04 bd 0d 3d ac 6a 1a bb
       0.019448614 -0.059800357 0.034604087 -0.0023562117
0001d0 e3 ef 09 bd 2f fd 02 bd ce 42 3d 3b e1 87 ed 3a
       -0.03367604 -0.031979736 0.002887893 0.001812216
0001e0 2d 5c 5f 3d 68 07 28 bc 63 f7 c1 3b 11 a8 9c bd
       0.054531265 -0.010255672 0.0059193834 -0.076492436
0001f0 f9 fc 16 3d e7 ba 61 3c 64 21 73 3c 8a 8d 35 3d
       0.036862347 0.013777471 0.014839504 0.044324435
000200 1a 3c 0c 3d 75 c6 91 bc 5f 82 d9 3b f1 36 41 3d
       0.034237005 -0.017794827 0.006637856 0.047171537
000210 08 40 15 bd 5b 4e 34 bd 34 23 4c 3d 45 ed 59 3d
       -0.036438018 -0.044020038 0.04983826 0.053204793
000220 32 9b d7 3a 23 1b 7a bd 0e 20 98 bd eb fa de bd
       0.001644945 -0.061061036 -0.07427989 -0.108877026
000230 e8 77 7b bd ed 24 f9 bc 06 af e3 3c bb 01 e9 ba
       -0.06139365 -0.030413115 0.027793419 -0.0017777005
000240 2a a7 7f bd e2 ca c3 bd a3 b1 7d bc 2e 38 e3 3a
       -0.06241528 -0.09560181 -0.015484246 0.0017335468
000250 bc bd 23 3d 1e f9 93 bb b1 14 da bc 8b 41 fd 3c
       0.039975867 -0.004515781 -0.026621195 0.030915042
000260 f4 70 1a 3d 81 23 1d bc c1 1a 2b bd 58 23 a8 3c
       0.037705377 -0.009590984 -0.04177356 0.020524666
000270 d6 39 07 bd 5f 07 8c 3c 1e 68 1d 3c 4f dd 12 bd
       -0.03301414 0.017093359 0.009607343 -0.035855588
000280 ab 0b 37 3d b5 c6 2e bd a7 45 80 bd 25 89 26 bd
       0.04468886 -0.04266997 -0.06263285 -0.040658135
000290 e3 f6 c6 bd 29 98 d0 3c 7d 13 85 3d 1d c8 a2 bc
       -0.09715059 0.02546318 0.06497858 -0.019870812
0002a0 2f fd 12 bd 90 07 d8 3c 1b ee c0 bc b5 08 41 bd
       -0.035885986 0.026370794 -0.023551038 -0.047127444
0002b0 69 aa e4 bc 2e 3b 4e bd 59 59 b8 bc 3a b6 25 bd
       -0.02791329 -0.050349407 -0.022503542 -0.040456988
0002c0 09 c2 eb 3c f7 fc a2 bd 4b f9 b1 3c 52 8b 2b bc
       0.028779047 -0.079584055 0.021725317 -0.010470228
0002d0 27 db bd 3c 26 75 aa 3c 1f 84 e0 bd f6 ce 87 bc
       0.023175789 0.020807814 -0.109627 -0.016578179
0002e0 de 92 68 bd 2d 98 3f 3d 3b b8 5d ba d8 0f 6c 3d
       -0.05678069 0.046775986 -0.00084579334 0.057632297
0002f0 23 c8 56 bd fe bd 3e bc 98 41 ca bd a6 0f 0e bd
       -0.05243696 -0.011641977 -0.09875792 -0.034682892
000300 ee fa d3 bd 2b d7 21 3d af 3b 05 bd 0a b0 96 bd
       -0.103505954 0.03951184 -0.03252762 -0.073577955
000310 a5 42 6b bd e3 fc 9d bb 94 cb a3 3c 3b 7f c3 3c
       -0.057436604 -0.004821406 0.019994535 0.02386438
000320 0e a4 23 3d a0 ca 9c 3b 6a 9d 4d 3d ec 70 80 bc
       0.039951377 0.004784897 0.05019895 -0.015678845
000330 ad 53 8d bd be 75 1d 3d eb d1 77 3d ae 19 aa bc
       -0.069007255 0.038442366 0.060502928 -0.020764198
000340 80 fe 39 3d 04 38 c9 3c 15 ef 5b bc 2e 26 81 3d
       0.045408726 0.024562843 -0.013423701 0.0630611
000350 0a a7 24 3d 3b 7a 7a 3c ab 29 85 bc b5 c3 6d bb
       0.040198363 0.015287931 -0.01625522 -0.003627998
000360 c1 fc 27 3d 6c 93 25 39 45 a2 b5 bd 63 0c a9 bd
       0.04101253 0.00015790545 -0.08868841 -0.08254316
000370 a1 5d 68 bc af e2 4c bd 96 87 29 3d 8d ba 89 3c
       -0.014182479 -0.05002087 0.04138907 0.016812587
000380 e5 c2 55 bd 27 47 d2 3c c7 bf 8d 3c af fb 95 bd
       -0.05218782 0.025668694 0.01730336 -0.073233955
000390 c3 0f b1 bd 6d 62 b2 3c 58 08 1a bc 32 b2 5d bd
       -0.086455844 0.021775449 -0.009401403 -0.05412502
0003a0 69 a6 3d 3c 72 4a 0b ba fd 8f 02 bd aa 7b 35 bd
       0.01157532 -0.00053135224 -0.0318756 -0.04430739
0003b0 52 db 31 3d 4c 18 34 39 a0 10 55 bd ee a9 85 3d
       0.04342205 0.00017175189 -0.052017808 0.06526552
0003c0 f1 e9 97 bd a1 a4 8d 3d 3b 92 5a b9 4c c4 3b bd
       -0.07417668 0.06916166 -0.00020844575 -0.0458415
0003d0 ff 39 ab 3a f4 d8 21 3d c8 3e 16 bd 99 b6 09 3d
       0.0013063549 0.039513543 -0.036680967 0.033621404
0003e0 88 8d 49 bd 9c 76 74 bc 50 0c b5 bc 7e e9 02 bd
       -0.04920724 -0.014920857 -0.022100598 -0.031960957
0003f0 c3 3e ad 3c d8 a9 d5 3c 6b 49 9c bc 57 c6 84 bd
       0.021148091 0.026081964 -0.019077977 -0.06483143
